CRL_human_AI_overcooked/human_models/model_unident_s8/actor_best_r10.pt (torch, 656979 bytes, 20 tensors)

base.cnn.0.weight f4 [32, 20, 3, 3]
000000 27 6b 61 3e 4d 20 b8 bd e7 62 24 bd 12 b7 6b 3e
       0.22013532 -0.08990536 -0.040133383 0.23019055
000010 c2 26 0e be 21 79 01 3d 44 4f 56 3d 21 d5 8e 3e
       -0.13881972 0.03160966 0.052321687 0.2789698
000020 fd 74 90 bb 3e 40 b4 bd 35 2e 14 3d 75 aa 3a be
       -0.0044084773 -0.08801316 0.03617688 -0.18229087
000030 f4 a4 37 3d 0f 2e 0f be c3 e8 99 3d 47 21 31 be
       0.044835046 -0.13982414 0.07515099 -0.1729785
000040 96 31 5b bd 55 ec 2a be e2 14 7d be 8e c1 83 bd
       -0.053514086 -0.16691716 -0.24714997 -0.06433402
000050 5f 3b f3 3d 7e 0b f2 be 68 cd f8 bb 60 c4 2f 3c
       0.118765585 -0.47274393 -0.0075928457 0.010727972
000060 c3 e0 d2 bd 79 8f 2a 3e f5 1c 62 3d a7 ca 79 3d
       -0.10296776 0.16656293 0.055203397 0.06098428
000070 a9 f1 19 be 9f 28 5b bd d0 1d a3 bd f7 07 30 3d
       -0.15033592 -0.053505536 -0.07964671 0.042976346
000080 74 ff a9 be 81 df 5b ba 9b 50 75 3e 7c f5 00 be
       -0.33202708 -0.00083874917 0.2395653 -0.12593645
000090 1b 62 5b 3e cf 3a f1 bd 46 55 66 bd e7 74 91 3d
       0.21424143 -0.11778795 -0.056233667 0.071023755
0000a0 1b 74 23 3e 82 23 da 3e 45 d6 be 3e fb 4a aa ba
       0.1596226 0.42605215 0.3727285 -0.0012992317
0000b0 21 f9 0d 3e 77 68 c8 3e c5 22 86 3e 8e 3a ad be
       0.13864566 0.391422 0.26198402 -0.33833736
0000c0 a9 6f ec 3d 97 b5 33 bd a9 52 aa bd 8b f4 4c 3e
       0.11544735 -0.04387435 -0.083165474 0.2001516
0000d0 55 16 66 be d5 91 1a bc 93 10 e8 3d 29 e3 ab 3d
       -0.22469456 -0.009434183 0.11331286 0.08392937
0000e0 45 6e f4 bd fc 4d 3e 3e 97 7c e1 bd 30 05 46 be
       -0.11935095 0.18584436 -0.11010092 -0.19337916
0000f0 4c 1a ea bd 30 e5 a1 be 00 32 59 be 23 8a 98 bd
       -0.11430797 -0.3162017 -0.2121048 -0.074482225
000100 b4 04 e4 bd 75 23 06 3e 77 b2 81 3e be d1 0d bd
       -0.111337095 0.13099463 0.2533147 -0.034623854
000110 5c 03 11 3e 9d 85 49 bd 9c a9 c6 bd f9 be 20 be
       0.14161438 -0.04919969 -0.09700319 -0.1569785
000120 cd 1b 6c be e1 e7 e8 bd 82 0b 49 3e 5a ab 6a 3e
       -0.2305748 -0.113723524 0.19633296 0.22916928
000130 b7 84 6b be 07 11 73 3e f9 71 1f be ea b0 62 be
       -0.22999845 0.23736964 -0.15570821 -0.221378
000140 c1 15 00 be 78 a0 c6 be 5d a3 2d 3e 71 1b 2a be
       -0.12508298 -0.38794303 0.1695685 -0.1661203
000150 c3 65 db 3d b1 43 4f bd dd d9 d4 bd 22 90 d5 bd
       0.10712769 -0.050601665 -0.103931166 -0.10427882
000160 b0 94 b5 3e 9e 10 dd be 06 56 e2 3d 18 c5 a7 3c
       0.35465002 -0.4317674 0.11051564 0.020479724
000170 2b 06 35 3e 6a bd 20 be 5a 29 f9 bb 4c eb 89 3d
       0.17678134 -0.15697256 -0.0076038064 0.067343324
000180 81 0e 62 3d eb 1a e2 3d 01 13 c1 3d ab f1 83 bc
       0.055189613 0.110402904 0.09427453 -0.016106447
000190 f0 54 32 bd 2f eb ee bc f5 67 96 3c 47 1b fb 3c
       -0.043538034 -0.029164879 0.018360117 0.030652655
0001a0 e3 ac d1 3b 90 83 9a 3d 15 03 62 bc 83 a3 4e 3b
       0.0063987835 0.07544625 -0.01379468 0.0031530566
0001b0 c9 14 c9 3d dc 19 0b be 95 46 ae bd 11 3a 26 be
       0.098184176 -0.13584083 -0.08509556 -0.16233088
0001c0 3f 88 25 be b2 f7 1e 3e b3 5a 01 3e 1f 44 13 be
       -0.16165255 0.15524176 0.12632255 -0.14381455
0001d0 7a a7 92 3d 34 e8 14 3d 42 71 dc 3d ad a9 8f 3d
       0.0716085 0.03635426 0.1076379 0.07014785
0001e0 dd 27 c8 bd 73 81 74 bd 85 76 12 3e 29 73 04 3e
       -0.09773228 -0.059693765 0.14303024 0.12934555
0001f0 af 8c 23 bb b6 a1 11 3e 1c 41 13 bd 13 ab a8 bd
       -0.002495568 0.14221844 -0.035950765 -0.08235755
000200 df 8e c6 3c 97 32 80 bc 75 77 48 bd 64 17 13 3d
       0.024238048 -0.015649123 -0.048942048 0.03591098
000210 99 6a de 3d 8b be 21 bd 75 9c 97 bd d2 00 e7 3c
       0.10860176 -0.039488357 -0.07402889 0.028198633
000220 02 65 57 3d 84 b3 cf 3d c5 d1 a2 bc 84 b2 ae 3d
       0.052586563 0.10141662 -0.019875417 0.08530143
000230 a3 21 34 3e 75 3e 27 3e 4e 2c 9a 3b 65 3d 68 3c
       0.17590956 0.16332419 0.0047049886 0.014174794
000240 18 b2 ba bd e4 07 03 3d 11 69 8a 3d 85 63 16 3e
       -0.09116 0.031989947 0.06758321 0.14686401
000250 9b 14 01 3b 0d 3e 5b 3d 9e 88 51 bd a4 8a 62 bd
       0.001969612 0.053525973 -0.05115568 -0.055308
000260 61 7c dd 3d 32 fa 05 be 79 72 44 bd c7 10 b0 bd
       0.10814739 -0.13083723 -0.047960732 -0.0859695
000270 57 29 43 bc 93 b6 54 3e cc 2c b7 3e 2d e4 36 3c
       -0.011911712 0.20772772 0.35776365 0.0111628
000280 51 11 93 3d ed e6 36 3e 2f c3 b0 bd e1 0a 2a be
       0.07181037 0.17861529 -0.08630978 -0.16605712
000290 c6 92 9b 3d 4e f5 02 be 68 4e fa 3c b0 50 0b be
       0.07596354 -0.12788889 0.030554965 -0.13604999
0002a0 8c f1 49 3e 33 10 25 3e c6 36 ed 3d 10 84 37 bd
       0.19721049 0.16119461 0.11582713 -0.04480368
0002b0 5e f7 8c be 46 ca 7c 3e 14 13 74 be e4 5b 8a 3e
       -0.27532476 0.24686536 -0.23835403 0.27023232
0002c0 29 6b ce 3a 8f 50 19 3c f6 b2 40 be ac 3a ca be
       0.0015748489 0.009357586 -0.18818268 -0.39497888
0002d0 bf 35 cd bc d4 38 69 3d f6 44 cc 3d 6a 29 d7 be
       -0.025050042 0.05693896 0.09974091 -0.42023784
0002e0 62 b1 fc 3d 07 05 3c 3e da dc 7e 3e 57 c1 10 3e
       0.123385206 0.18361293 0.24888936 0.14136253
0002f0 18 97 60 3e 58 42 5b 3d 52 87 96 3d a5 ca b7 3d
       0.21932638 0.053530067 0.07350029 0.08974198
000300 89 d6 d8 3d 2f c4 32 be 87 93 7b be 73 2f 10 3d
       0.10587794 -0.1745765 -0.24567996 0.0352015
000310 a5 7b 1c bd 86 05 5f 3d 73 d3 77 bd 88 8a 47 bc
       -0.038203854 0.054448627 -0.060504388 -0.0121790245
000320 7f 3c 7c 3e 20 ec bd bc a6 6e 88 3d c4 d2 5d be
       0.24632452 -0.023183882 0.066617295 -0.21662432
000330 18 c4 0f be bd 0b 4a 3e 8b b5 a4 bd ca 26 32 be
       -0.14039648 0.1973104 -0.08042439 -0.1739761
000340 07 47 9e 3d 92 78 0d be 49 7d 8c bd 8a 18 d3 bd
       0.07728391 -0.13815525 -0.06859834 -0.10307415
000350 90 9d 33 3e 8a 0f 3d 3e 88 92 ff bc 44 7e 69 3e
       0.17540574 0.18462959 -0.031197801 0.22802073
000360 bb 7b e2 3d 90 32 ac 3e c2 43 84 bd e5 2d 44 3e
       0.11058756 0.33632326 -0.06458236 0.19158132
000370 79 0c 48 3e f1 24 64 3c 3d 79 5d 3e 1b 19 d0 bd
       0.19536008 0.013924823 0.2162828 -0.101610385
000380 45 91 4d 3e 0c d2 32 3e 72 6e 15 be fd 12 e3 bd
       0.20074947 0.17462939 -0.14592913 -0.11087606
000390 9c dc 30 be db 86 17 bd 19 09 94 3d 24 5c 57 3e
       -0.17271656 -0.036993843 0.07228298 0.21031243
0003a0 b3 10 21 3e 42 1a 3e 3e 6b b4 3a 3e f2 71 e9 3c
       0.15729026 0.18564704 0.18232886 0.028496716
0003b0 15 f4 97 3d d6 6d 61 3b 3a b1 52 3d 07 54 1e 3e
       0.07419602 0.0034397743 0.051438548 0.15461741
0003c0 21 69 b2 bd ce 99 8b 3b cb 2a 0b 3e fa 20 46 3b
       -0.08711458 0.0042602783 0.13590543 0.0030232058
0003d0 7b 5a 48 bb a8 c9 fe bd 22 02 d6 bd ab 81 09 be
       -0.0030571509 -0.124408066 -0.104496256 -0.1342837
0003e0 a5 d5 2c be 27 09 e5 3d 82 b8 3f be 86 08 4b 3d
       -0.16878374 0.11183386 -0.18722728 0.049568675
0003f0 21 53 55 bd 0e 31 f2 3d e0 39 08 3e 2a 1e eb bd
       -0.05208123 0.11825763 0.13303328 -0.11480363

base.cnn.0.bias f4 [32]
000000 d6 3e 50 3d f1 f3 8c 3c cb a9 cd bc c2 45 b4 bd
       0.050841175 0.017206164 -0.025105378 -0.08802368
000010 94 df 09 bc db ed 23 3d 2d 00 8b bd c9 c6 82 3c
       -0.008415122 0.04002176 -0.06787143 0.015963929
000020 23 70 94 bc f1 28 ce bb ba 45 5f bd a7 0d 23 bd
       -0.018119877 -0.0062915017 -0.054509856 -0.03980794
000030 f8 55 cb bc dc 7a be bc 4e 25 db bb bf aa 21 bc
       -0.024821267 -0.023251943 -0.0066877967 -0.009867369
000040 78 a8 2f bb d5 cb 5b bd 51 b3 41 bd 5b 21 1f bc
       -0.0026803296 -0.053661186 -0.04729015 -0.009712542
000050 6e fd 00 3d 10 1a 63 bd 68 60 e9 bc e7 a8 ce bc
       0.03149169 -0.055444777 -0.028488353 -0.025227023
000060 7e 61 05 bd 32 11 37 bc 6b 54 d3 3c a0 d6 da bc
       -0.03256368 -0.011173533 0.02579709 -0.02671367
000070 8c 56 e4 bc c5 50 ea bc 6d cd 30 bc e5 cb 21 bc
       -0.0278733 -0.028602967 -0.010791165 -0.009875272

base.cnn.2.weight f4 [64, 32, 3, 3]
000000 59 97 48 ba 7e e4 47 bd 3b 75 5b 3e 45 01 ee bc
       -0.0007651947 -0.04880189 0.21431439 -0.02905334
000010 02 3e db bd fa e2 a9 3d 7e 9f 2d 3e af 7d e3 bd
       -0.107051864 0.082952455 0.16955373 -0.111079566
000020 2e c0 61 3d 8b b0 1f bd b2 22 cc bd bf e3 c4 3b
       0.055114917 -0.038986724 -0.09967555 0.0060085948
000030 79 40 0d 3d f3 f0 bb 3d 76 b5 c4 3b 87 6f 1b 3d
       0.034485314 0.09176817 0.006003077 0.037948158
000040 1d 81 50 3d 43 a3 fa bd 77 6d 4f bd 80 36 a5 bd
       0.050904382 -0.12238171 -0.050641503 -0.08067036
000050 83 90 09 be 56 49 9d 3d c5 42 63 bd 10 91 16 3e
       -0.13434033 0.07680003 -0.0554836 0.14703774
000060 33 ee 55 3d 10 43 dc bd ef fa 3b bd 43 ad 7e bd
       0.052229118 -0.10754979 -0.045893606 -0.062176954
000070 72 76 54 bd a8 e0 ae bd 2b 51 89 3c 2f 5b e7 bd
       -0.05187077 -0.085389435 0.016762337 -0.11296689
000080 19 d6 68 3a 2d 14 ef 3d 1f 97 81 3d e1 fc 77 bd
       0.00088820007 0.1167377 0.06327652 -0.0605439
000090 9c ad 26 bd 05 26 0e 3c 7e 01 ff 3c 46 f1 c9 3c
       -0.04069291 0.008676057 0.031128641 0.024651181
0000a0 4c 00 00 3e db 95 79 bd bc 0c 3e bd d5 27 b0 bd
       0.12500113 -0.06093393 -0.046398863 -0.08601347
0000b0 72 da 4a bc 25 5f 3e 3d a3 c3 07 3d 74 4c 35 bd
       -0.012381183 0.046477456 0.033145558 -0.044262365
0000c0 a6 7b d2 3d 95 44 66 3d c5 f9 ca bd 70 06 d2 bc
       0.1027749 0.05621775 -0.09910921 -0.025637835
0000d0 ba 36 da 3c 68 5c 1d 3e 1e 11 c1 bd ee d8 c9 3d
       0.026637424 0.15367281 -0.09427093 0.09855829
0000e0 4c 1e 81 3d 52 f9 98 3d 55 5f 7a bd d2 b3 b3 bd
       0.06304607 0.07469429 -0.061126072 -0.087745324
0000f0 70 27 fa 3b 82 fb 17 3e de 22 0f bd 79 7d 1e bd
       0.007634096 0.14842036 -0.03494536 -0.03869388
000100 be d2 86 3d e7 53 de bd 6c fd 90 bc c6 df 98 bc
       0.06583165 -0.10855847 -0.017698966 -0.018661391
000110 37 56 b8 3b e8 bd 71 3c 55 8c 10 3e 77 2c ff 3c
       0.005625512 0.01475475 0.14116032 0.031149132
000120 32 a3 0f 3d 54 eb d9 3d 01 0c 67 3c 91 b4 a1 bd
       0.035067745 0.106405884 0.014101983 -0.078957684
000130 a3 69 08 be d2 6b a8 3d 33 b2 fd bc 4b 75 4e 3e
       -0.13321547 0.0822369 -0.030968761 0.20161931
000140 7f 1a 30 bd 68 32 ae 3d 7b c1 01 3e 04 a1 96 bd
       -0.04299402 0.08505708 0.12671463 -0.0735493
000150 30 d5 b1 3c 40 39 47 3d a4 a4 96 bc c3 c4 22 3c
       0.021708101 0.048638582 -0.018389054 0.009934607
000160 8c 88 20 3e 96 bd 05 bd cc bc 0d 3d a6 47 a5 3d
       0.15677088 -0.032651506 0.03460388 0.080703065
000170 4f 78 2c be 15 40 1b bb 47 d1 57 3d 2c da ed 3c
       -0.16842769 -0.002368932 0.052689817 0.029034697
000180 66 18 5d 3d 33 61 02 3a 5a f3 01 bd 45 b9 e5 3d
       0.053978346 0.000497359 -0.03172622 0.11216978
000190 56 6f c7 3c 00 0b 5e 3d 1d 4c be 3d 45 14 44 3d
       0.024345081 0.05420971 0.09291861 0.047870893
0001a0 a6 3b 8c bd 2a 4d b8 3d 0e 33 cd 3b f3 75 0a be
       -0.068473145 0.08999093 0.0062621897 -0.13521557
0001b0 b3 0c 22 3e ce ba 03 3e 9b 7d 66 3e 60 87 2c 3e
       0.15825157 0.12864229 0.22508852 0.16848516
0001c0 40 79 0e bd 33 66 8d 3d 41 e2 66 3e 11 50 3e bd
       -0.0347836 0.069042586 0.22547247 -0.046463076
0001d0 05 f1 88 3d 9a e3 08 3e d9 95 3d be 7d 08 38 3e
       0.06686596 0.13368073 -0.18514194 0.17971988
0001e0 91 c8 01 3e 47 b4 73 be 96 79 96 3d 5f c8 46 3e
       0.12674166 -0.23799239 0.073474094 0.19412373
0001f0 2b 63 7f bd 58 6b f2 bd cf 3d 27 3d 99 9f 4c 3d
       -0.062350433 -0.118368804 0.04083043 0.04995689
000200 5c 89 a8 3c cf 4a 01 3e 22 7b 8a 3e 00 22 b3 3d
       0.02057331 0.12626193 0.27047068 0.08746719
000210 22 f9 8a 3d f6 b0 0a 3e 75 99 bb bc f6 69 73 3b
       0.067857996 0.13544068 -0.022900322 0.0037142015
000220 99 ec 43 bd 59 c5 65 3d aa ff 29 3d bd 26 05 be
       -0.04783306 0.05609641 0.041503586 -0.13003059
000230 0c fd 11 bb ca d5 3a bb b3 d3 42 bd 5f 92 42 bd
       -0.0022276072 -0.0028508776 -0.047565173 -0.04750287
000240 f5 a9 63 3d a2 89 5b bd 4e 2d b9 3d 78 31 10 bd
       0.055582006 -0.053598054 0.09041844 -0.035203427
000250 c9 9c 64 bd 80 0e 4a 3d 49 5e e8 bd de 3f 30 bb
       -0.055813584 0.049330235 -0.113461085 -0.0026893537
000260 23 ee ff 3c 68 13 de bd 59 5b ad 3d 0e a8 78 3d
       0.031241482 -0.10843545 0.08464689 0.060707144
000270 5d 97 b2 3d b1 46 a4 bd 80 84 84 3d 23 e4 25 3e
       0.087202765 -0.08021296 0.06470585 0.16200309
000280 e8 6f 15 bd 51 b8 3e bd 2e f6 df 3d 04 e6 c7 3d
       -0.036483675 -0.046562497 0.10935627 0.09760669
000290 68 03 f4 bc f9 cd 98 bd 5a 8f 0d 3e 7a 94 75 bd
       -0.02978678 -0.07461161 0.13824216 -0.05995605
0002a0 08 8c 01 3d a1 5f 13 3e 06 f2 0c be 2b 0f f1 3d
       0.031627685 0.14391948 -0.137642 0.11770471
0002b0 11 bc 8b bd 18 52 91 bc 0d 7f b8 bd 70 35 00 3e
       -0.0682298 -0.01773934 -0.09008608 0.12520385
0002c0 b3 0b 13 3b 28 69 05 bd 7e ca 67 be ce 7f 91 be
       0.0022437393 -0.032570988 -0.22635838 -0.2841782
0002d0 e8 d0 2f be ea 17 ae 3d 21 41 47 bd 29 73 ec bc
       -0.17169535 0.08500655 -0.048646096 -0.028863506
0002e0 57 eb bb 3d 97 70 a5 3d 8a e8 19 be 8d 2c cf 3d
       0.09175747 0.080781154 -0.15030113 0.10115919
0002f0 e4 d5 2a bc e8 e3 18 bd 5f be 22 3d 2e 6d b2 bd
       -0.010426972 -0.037326723 0.039732333 -0.087122306
000300 96 26 1a bb b5 73 b7 bc 1f c7 06 be 4e 5e c3 bd
       -0.0023521534 -0.02239404 -0.13161896 -0.095394716
000310 cc 15 03 3c 5c 23 51 bb b6 00 db 3d 37 c8 46 be
       0.008000802 -0.0031911945 0.10693495 -0.19412313
000320 2a 13 57 3c f0 01 98 3d b2 e6 bf bd bd 08 e8 3c
       0.013127128 0.074222445 -0.093701735 0.02832448
000330 7d f5 1a 3d bc c7 b3 3d 8c a8 7c bd 4d 6a ed 3c
       0.037831772 0.08778331 -0.061684176 0.028981352
000340 e2 c1 91 3d 2d e5 6d 3d 1d d4 6b 3c aa 8d 45 bd
       0.07117058 0.058079887 0.0143938335 -0.048230805
000350 0a f5 a0 3d eb ab 02 be 3d 24 8b bd d7 84 a3 3c
       0.078592375 -0.12760894 -0.06794021 0.019960804
000360 fe 0c a4 3b 11 c0 ef 3d 23 17 a8 3c ee 45 c5 bc
       0.0050064316 0.11706556 0.020518845 -0.024081197
000370 05 d6 ca bd 68 40 00 3e c8 0b 08 3d a4 35 69 3c
       -0.09904102 0.12524569 0.03321436 0.01423398
000380 f9 06 b6 3d 0e bd 72 3d 76 88 68 bc af 67 da bd
       0.08888049 0.059262328 -0.014192691 -0.10664307
000390 19 26 ab 3c b6 2d 73 bd 3d 77 7a 3d f1 ab b9 bb
       0.02089219 -0.059369765 0.06114887 -0.005666249
0003a0 e0 50 69 3c 8b 94 8f bd 5d a1 da 3d e9 a1 ed 3d
       0.0142404735 -0.07010754 0.10675309 0.116031475
0003b0 1e 97 b7 3b 43 49 cd 3c f0 b2 20 3e fd 21 f1 bd
       0.0056027314 0.025059348 0.15693259 -0.11774061
0003c0 95 96 02 be 6d e0 62 bd 1d be 32 3d 4c 00 f4 3d
       -0.12752755 -0.05538981 0.043638337 0.11914119
0003d0 ea f8 78 bd 51 f6 80 bd 3d dd 33 be b1 9f 7d bd
       -0.060784258 -0.06296981 -0.17564864 -0.06191987
0003e0 70 0a 21 3d 31 0a 67 bc d7 d6 86 bd 46 ba 80 bd
       0.039316595 -0.014101551 -0.06583946 -0.06285529
0003f0 7d f8 d7 3d 28 0e 30 bd 3a 1d 71 3d a3 0c f4 3c
       0.10545442 -0.04298225 0.058865763 0.029791182

base.cnn.2.bias f4 [64]
000000 e7 a9 9e 3c 8e d2 56 bc d1 bc 27 bd 87 06 e7 bb
       0.019368125 -0.013111724 -0.040951554 -0.0070503387
000010 d6 a4 ee 3b 6a 4c 18 3c 58 fc 29 bd b3 28 d2 bc
       0.0072828336 0.009295562 -0.04150042 -0.025654173
000020 b1 42 ae 3b 81 1e c8 3c 29 ec 42 bd ac 18 63 bd
       0.005318009 0.024428608 -0.0475885 -0.05544345
000030 fc 9d f8 3c 24 dd 77 bb ba 52 0e bb 38 24 c4 3c
       0.03034877 -0.003782102 -0.002171679 0.023943052
000040 9d 43 09 bc 2d f7 d3 3c cc 27 35 3b 7c f2 55 bd
       -0.008377937 0.025874699 0.002764213 -0.052233204
000050 b0 c4 77 bd 83 4a 25 3c d2 c6 ad ba 52 f5 05 3c
       -0.06049031 0.010088566 -0.0013258106 0.008176165
000060 1c 1f c4 bc a8 2b 93 bc da b7 80 ba 60 58 00 3c
       -0.023940615 -0.017965153 -0.0009820417 0.00783357
000070 5d e8 14 bd 47 72 45 bc 77 57 11 bc e4 f7 0d 3c
       -0.03635441 -0.012051172 -0.008870951 0.008665059
000080 9d 0b 69 3c 1c 28 0c 3d e6 be 2f bd 93 68 d3 bc
       0.01422396 0.03421794 -0.042906664 -0.0258067
000090 51 81 6d bc ce 84 14 bd 31 4c 1e bd f6 ff 05 bc
       -0.014496163 -0.036259465 -0.03864688 -0.008178702
0000a0 dc f3 1b bd e8 fa e3 bc d2 af 4b bd 11 56 8d bc
       -0.03807436 -0.027829602 -0.049728222 -0.017252954
0000b0 a2 d2 03 3c c3 8a 4f 3c 52 6d 67 bc 4e a6 43 bc
       0.008045824 0.012667361 -0.014125185 -0.011941506
0000c0 e7 a0 22 bc 3d 03 cd bc 1c 8d 15 3b 57 8b ab 3c
       -0.009926057 -0.025025958 0.0022819703 0.020940466
0000d0 40 0f 01 bd 6e aa 06 3c 5d 01 1b bb 49 f4 92 b9
       -0.031508684 0.008219345 -0.0023651936 -0.00028029297
0000e0 ae 70 40 3c ae 3a b0 bc a4 48 bb bb a6 26 ca 3b
       0.011745615 -0.021512356 -0.0057154465 0.006169158
0000f0 32 b4 f5 3c 4b c6 36 bc 49 0f b6 3c fd 98 a9 bb
       0.02999315 -0.011155675 0.022224085 -0.0051757083

base.cnn.4.weight f4 [32, 64, 3, 3]
000000 e1 ff e9 3d 3b 5f f2 bd ea a6 9d bd 9a 07 6d bd
       0.11425758 -0.1183457 -0.07697852 -0.057868578
000010 a5 ca d6 3c c4 7b d4 bd 74 da 90 bc 5e 35 a8 bd
       0.026219675 -0.10375169 -0.017682292 -0.08213304
000020 f1 18 62 bd 32 3a 06 3e aa 27 31 be 98 57 6f 3d
       -0.055199567 0.13108137 -0.17300287 0.058433145
000030 c0 a6 cd bc 0c a9 08 bd 0f af 2e 3d a6 eb 51 bd
       -0.025103927 -0.03336434 0.042647418 -0.051250122
000040 4f 58 b8 bb 3e 48 f7 bc cf 9b a5 bd e4 47 31 3d
       -0.0056257616 -0.030185815 -0.08086359 0.04328145
000050 8b 9d ff 3c 33 7b 7a 3d a8 da 1c bd 9c 6b 44 3d
       0.031203052 0.06115265 -0.038294464 0.047954187
000060 58 73 02 3e 58 80 91 bd 2b 13 f9 3c 7f 8a 05 be
       0.12739313 -0.07104558 0.030404648 -0.13041113
000070 f3 de 2c bc 1d e9 ad 3c 98 bb 68 bc 9f 47 59 bd
       -0.010551202 0.021229321 -0.014204882 -0.05304682
000080 fe fd 92 3d 83 cd 25 bd 66 3e 85 bd d2 4b 11 bd
       0.071773514 -0.040479194 -0.06506042 -0.0354727
000090 b7 8f 71 bd b1 04 a7 3d f1 91 a9 bc aa 8d cb 3d
       -0.058974948 0.08155192 -0.020699473 0.0993913
0000a0 da a4 0f 3d 18 ad 89 3d 37 f5 ae 3d 6a 8f da bc
       0.035069324 0.06722468 0.08542865 -0.026679713
0000b0 be 9a 60 be d5 24 d8 bc 51 c1 b7 bd 62 0b 83 3c
       -0.2193403 -0.02638475 -0.08972419 0.015996639
0000c0 43 48 0e ba ba 78 10 bd 14 f4 37 bb 9d 8d 91 bc
       -0.0005427638 -0.035271384 -0.0028069066 -0.017767722
0000d0 39 eb 19 bb c0 5f 21 bd 93 41 16 3e 3e f3 02 3e
       -0.002348615 -0.039397955 0.14673452 0.12788102
0000e0 7f ae 25 bd 95 63 f3 3d 65 7e 9b be f9 4a 12 3c
       -0.040449616 0.11884228 -0.3036987 0.008929008
0000f0 e1 30 8c 3d 1f d8 2b bd bc de 47 bc 7c 04 4d bb
       0.068452604 -0.041954156 -0.0121991 -0.003128319
000100 12 a7 37 3d 70 e6 ce bd 6d cd ed 3a 0d 95 73 3d
       0.044837065 -0.10102546 0.0018142887 0.059468318
000110 fc 2a 4e bc 89 24 12 be 46 fe b8 bc 5c 6b b3 3d
       -0.01258349 -0.1427175 -0.022582185 0.087607116
000120 4a 2a ef bc 88 2e cc bd 5f 14 75 3c 52 bf 93 bc
       -0.02919497 -0.09969813 0.01495847 -0.018035565
000130 62 cd b2 bc c7 42 c2 3d 76 99 ce 3c 1e bc 13 3e
       -0.02182645 0.09485393 0.02521966 0.1442723
000140 73 1f c5 3b cc 5c 0b 3e d6 d0 8e bc 19 a7 9c 3c
       0.006015712 0.13609618 -0.017433565 0.019122647
000150 c1 85 e6 3d 98 b2 cf 3c 23 16 b4 3d 76 87 83 3d
       0.1125598 0.025353715 0.08793285 0.064223215
000160 22 64 40 3d e5 9c 79 bd 1f d3 a3 bc 25 a8 63 3d
       0.046970494 -0.060940642 -0.019998131 0.055580277
000170 2c 7f 86 bd a3 cc b1 bb 27 73 bd 3d 75 e9 48 be
       -0.06567225 -0.005426006 0.09250479 -0.19620307
000180 4f 51 3c be 45 a3 e4 bd cf f9 1c 3d 5f 77 01 be
       -0.18390392 -0.11163954 0.038324174 -0.12643193
000190 ff c6 ef 3c 91 92 6f bc 9a 57 85 3c ec de 0b bb
       0.029269693 -0.0146223465 0.016277123 -0.0021342589
0001a0 02 06 5a bd 5e 20 83 3d d2 b9 11 bc da 07 0c 3d
       -0.053228386 0.06402658 -0.008894401 0.034187175
0001b0 08 2e 30 3d 41 b2 08 be 13 ae e3 3d 29 c0 22 3c
       0.04301265 -0.13349248 0.111171864 0.00993351
0001c0 82 2d 81 3d 81 12 d1 bc 44 18 9c bd 4b a2 a0 3b
       0.06307508 -0.025521519 -0.07621816 0.0049021593
0001d0 fa 2a 66 bb 4e 61 9b 3c 48 d7 6b 3c f2 24 32 3e
       -0.003512083 0.018967297 0.014394589 0.17396906
0001e0 59 53 02 be 7a 29 af bd cc d1 38 bd 5e 88 31 be
       -0.12727107 -0.08552833 -0.045121953 -0.17337176
0001f0 05 8c 06 be 36 71 fc 3c ce 45 2a be b5 0f 9c 3d
       -0.1313935 0.030815702 -0.16628191 0.076201834
000200 b4 72 1d bd 0e f9 3f be 96 83 2a 3d f5 3a df 3a
       -0.038439468 -0.1874735 0.041629396 0.001703112
000210 9b f0 6a bc 14 dd 06 be 65 12 12 bd 69 03 b8 bb
       -0.014339591 -0.13170272 -0.035662074 -0.005615641
000220 41 1b 49 bc 82 65 da 3d 8c 16 8f bd ec 5a 2a be
       -0.012274564 0.10663892 -0.06986722 -0.16636246
000230 9a 82 12 3c c7 9a 74 3d 56 d0 bf 3d a8 fe 47 bd
       0.008942271 0.05971792 0.09365909 -0.048826844
000240 bc 8e e2 bd 69 39 b9 3c 49 63 43 3d 28 ae cd bc
       -0.11062381 0.022610383 0.047702108 -0.025107458
000250 71 1a 14 bd 17 da 2a bd 57 8c 09 be 1d 83 ec 3c
       -0.03615803 -0.041711893 -0.13432442 0.028871113
000260 20 81 cd bc 5e 06 b1 bc 1a a5 e6 bb 9b fe 8a 3d
       -0.025085986 -0.021609481 -0.0070387246 0.067868434
000270 cc a3 bf 3d 0c 65 1d 3d dc 22 0f bd 51 9d 72 3d
       0.09357414 0.038426444 -0.034945354 0.05923206
000280 1b 9f 3a bd da cd 95 bd 9a 71 4c bd 7f 7b 8a bc
       -0.04556189 -0.07314654 -0.049913026 -0.01690459
000290 ca f1 e9 bd be 17 74 bd 40 4e 49 bd bf 99 8d ba
       -0.11423071 -0.059592955 -0.04914689 -0.0010803266
0002a0 e8 2f 28 3d 8c 0d 1d be 96 72 ad bd 12 34 33 3d
       0.041061312 -0.15337199 -0.08469121 0.04375083
0002b0 e4 e0 97 bc 38 6d 18 3d 42 24 b7 bc 9d 89 8e bd
       -0.018539853 0.037213534 -0.022356156 -0.069598414
0002c0 e2 6e 73 bd 58 56 bb bd cc 70 12 bc ca e2 87 3d
       -0.059431918 -0.09147328 -0.008938026 0.066350535
0002d0 f2 ab ae bc 1c d3 2d 3d 98 3a 8c 3b ac c3 f3 3d
       -0.021322224 0.042437658 0.004279446 0.11902556
0002e0 16 32 ad bc 98 67 bf bb cf 87 06 bd d4 c1 94 bd
       -0.021142047 -0.0058412068 -0.03284436 -0.07263532
0002f0 4c 28 19 bd a9 cb 18 bd 4e 74 39 3d fb d9 10 3d
       -0.037391946 -0.0373036 0.045276932 0.035364132
000300 8c 0d ef bd 4f a6 a0 bd 1d e6 09 3e ac f3 54 3d
       -0.11672506 -0.07844221 0.13466688 0.051990196
000310 29 bf 8a bc fc 2a 14 3e 47 05 d8 bd f4 cb a5 bc
       -0.016936855 0.14469522 -0.105478816 -0.020238854
000320 c8 2c c7 bd d2 69 e3 bc c4 d2 50 bd 96 ec 3a bd
       -0.09725338 -0.02776042 -0.05098225 -0.045635782
000330 c6 45 18 3c ac 08 81 bb b7 00 26 be d6 42 ec bc
       0.009293979 -0.0039378013 -0.1621121 -0.028840464
000340 e3 57 70 3d a2 c2 42 3c 79 c1 4c bd b6 bd 35 bc
       0.058677565 0.011887224 -0.049989197 -0.011092594
000350 6f be 83 3d 36 9b a3 bd db c7 47 bc b2 24 0c 3c
       0.06432807 -0.079885885 -0.012193645 0.008553671
000360 ee 5e 37 be ad ae 88 be 29 6a ab bd 18 b7 95 bd
       -0.17907307 -0.26695767 -0.08369858 -0.07310313
000370 42 75 2c bd 3a 3e 73 bd 78 35 c6 bd a4 ec db 3d
       -0.042104013 -0.059385516 -0.09678167 0.10738495
000380 48 6d 2f bd c9 c8 e7 bc 12 bd 10 bd cc b9 f8 3d
       -0.042828828 -0.028293984 -0.03533656 0.12144813
000390 52 97 e2 3d 47 12 96 bd 49 b8 e0 3d 24 bf 9b 3d
       0.11064018 -0.07327705 0.109726496 0.076048166
0003a0 49 93 da 3d 84 f8 be 3d b6 4a 6e 3d d4 87 70 bd
       0.10672624 0.09324744 0.05817672 -0.058723286
0003b0 4a 05 ee bd 51 ab ba 3c 6e a0 f1 bd ce cd d1 bd
       -0.116221026 0.022786768 -0.11798178 -0.10244332
0003c0 00 21 93 bd 19 0c 04 be b8 2a 84 3d e5 dd bc 3d
       -0.071840286 -0.1289524 0.064534605 0.092220105
0003d0 6b a0 b8 bd 9a 79 95 bb ff 0d 89 bd a4 bb e9 3c
       -0.09014972 -0.004561615 -0.06692123 0.028531857
0003e0 94 9e 8f 39 c9 5e 49 3d bd da 40 bd 9c 92 da bd
       0.00027393235 0.04916266 -0.047083605 -0.10672495
0003f0 e9 22 3a 3d 95 bf 80 bc 3d 1a b4 bc 17 8e dc bb
       0.04544345 -0.015716353 -0.021985168 -0.0067308056

base.cnn.4.bias f4 [32]
000000 84 31 06 bd bd 32 b1 bc 87 f4 0f bd 56 70 19 bc
       -0.032762066 -0.02163064 -0.03514531 -0.009365162
000010 f2 c5 a5 bc fd 93 e3 3b 95 73 2a 3c cb 37 4f bc
       -0.02023599 0.006945132 0.0104035335 -0.012647579
000020 b9 de 06 bd 98 7e ce bc 6a 96 36 bc 59 bb 1b bd
       -0.03292725 -0.025206849 -0.01114426 -0.038020466
000030 b2 f7 81 bc f6 8e b9 bc 4c f1 99 ba b3 c4 1b bb
       -0.01586518 -0.022651177 -0.0011744886 -0.0023768365
000040 c4 87 88 3c 3b b9 a6 bc 28 bb ee bc 13 50 bc bc
       0.0166663 -0.020351997 -0.029141977 -0.022987401
000050 8a e2 b0 bc 6e 56 23 bd fd 16 0e bc c0 16 ed bc
       -0.021592397 -0.039877348 -0.008672473 -0.028941512
000060 e7 a0 5a bd b9 c1 c4 bc 56 ed f4 bc c8 09 c5 bb
       -0.053376105 -0.024018155 -0.029898327 -0.006013129
000070 05 a9 34 bd fb 58 bc 3b 28 03 a0 bc 77 df ad 39
       -0.044106502 0.005747912 -0.019532755 0.00033163626

base.cnn.7.weight f4 [64, 1728]
000000 ac 55 07 3e bf ef 90 bd a6 7c 01 3d ee 50 eb bd
       0.13216275 -0.07076978 0.031613015 -0.114900455
000010 c0 df dc 3c 07 bc 6e 3d d2 0c 89 bd 79 bd 27 bd
       0.026962161 0.058284786 -0.066918984 -0.04095218
000020 bf 1a 3e 3e 6b f9 a7 3c 7f 9c 8a bd 52 5e 06 bd
       0.1856489 0.020504674 -0.067681305 -0.032804795
000030 f0 4a 8f bc 8b 04 9a bd 26 15 e1 3c 23 34 dc bc
       -0.017491788 -0.07520398 0.027475905 -0.02688033
000040 62 da 0a 3d 70 8d 5b 3d 99 2f ed bd 5f f4 9a bc
       0.033899672 0.053601682 -0.11581344 -0.018915353
000050 e7 cc 81 3d 29 3b 8c 3d c2 11 c3 3c 62 2a 87 3c
       0.0633791 0.068472214 0.023812179 0.016499702
000060 09 28 e1 3c 51 a3 02 3d c9 c9 38 be 4c 3e bf 3d
       0.02748491 0.031894032 -0.18045725 0.09338054
000070 d8 7c a4 3d b3 f6 ae bd bf 9f 10 bd ee fa ae 3c
       0.080316246 -0.08543148 -0.035308596 0.021359887
000080 af b6 41 bd e3 68 eb 3d 3d 60 d8 bb d9 9c 30 3d
       -0.04729336 0.11494615 -0.0066032694 0.04311833
000090 4c 77 42 3d 93 44 48 3d 03 55 0b bd d8 d7 b1 3c
       0.04747705 0.048893522 -0.03401662 0.021709368
0000a0 01 f4 c3 3c 9b 81 90 3d db bc 09 3d 62 08 87 3c
       0.023920061 0.0705597 0.033627372 0.01648349
0000b0 41 f9 a0 3c bc 4b 07 3a 07 79 fd bd 82 3d 70 bc
       0.019650104 0.00051611266 -0.123766 -0.014663102
0000c0 64 6b 8a bc 31 f2 0b bc cb a9 34 bd 68 1e a1 3d
       -0.016896911 -0.00854163 -0.04410724 0.07867128
0000d0 6b ba e2 3c bd b2 8b bd b2 96 96 bd 8d 7b ab ba
       0.027676782 -0.06821201 -0.073529616 -0.0013083086
0000e0 a7 6b 2d bd 72 3b 75 bd c2 a4 aa 3c 1c 7a ef bd
       -0.042338993 -0.059871145 0.020830516 -0.116932124
0000f0 43 fe 51 3c 18 91 8a 3b 17 81 18 3d 23 3c a7 3d
       0.012816968 0.0042287223 0.037232485 0.08165767
000100 b0 ae cc bc 7e e5 e6 bc 1f d4 a9 bd f5 fa a1 ba
       -0.024985641 -0.028185602 -0.08292412 -0.0012358116
000110 cb 4a 1e bb 9b f3 27 bd 83 45 64 bd 54 b0 24 be
       -0.0024153467 -0.041003805 -0.055730354 -0.16082889
000120 7b 55 8a bd 31 fb ae bd 7e 0b 9e 3d b1 27 13 3c
       -0.06754585 -0.08544005 0.07717036 0.008981631
000130 f7 1d 60 be 1a 66 03 bd f8 94 47 bd 4a 02 3d 3b
       -0.2188643 -0.032079794 -0.048726052 0.0028840476
000140 e3 74 5b bb 80 70 1a 3e 2b ef 6a 3c 58 78 b8 bd
       -0.0033486418 0.15081978 0.014339249 -0.09007329
000150 f7 52 a7 bb 82 25 e7 3d cd d0 f0 bd c6 6b a2 3c
       -0.0051063257 0.11286451 -0.117585756 0.019826781
000160 b1 fc fd 3d 99 24 f7 bb 26 b7 52 bd 10 db 35 3d
       0.12401713 -0.0075422046 -0.051444195 0.044398367
000170 5c a9 41 bc c0 23 b4 39 f7 fd 87 3b 9b f9 02 3d
       -0.011820164 0.0003435891 0.004150148 0.031976324
000180 ae 19 a0 3d bc 34 7f bd ee d8 4d bd f8 40 2b 3a
       0.07817398 -0.06230615 -0.05025571 0.00065328134
000190 36 03 90 3d b4 5f 03 3d 38 87 13 3d ac 9e f3 bc
       0.070318624 0.03207369 0.036017627 -0.029738747
0001a0 bd 7f 8a 3d b6 0e 1f 3d 65 e2 af bd 77 20 72 3c
       0.067626454 0.03883239 -0.08588103 0.014778248
0001b0 2f bc a4 bd d1 b3 08 be 2b 4f 1f be 97 70 83 3d
       -0.08043706 -0.13349845 -0.15557544 0.06417959
0001c0 b2 b5 05 bd b8 35 5d 3d 5c a3 23 be 8d b4 33 be
       -0.03264398 0.05400631 -0.15980285 -0.17549343
0001d0 f0 41 00 bc 74 88 a8 bd cf 8d 01 bd a2 22 a5 bc
       -0.007828221 -0.08229151 -0.03162938 -0.020158116
0001e0 d3 95 28 bd 39 96 4f 3d ee 91 c9 bd fa cc 3c bc
       -0.04115851 0.050680373 -0.09842287 -0.01152348
0001f0 b8 8a 75 3d 8b 6c 99 3c ee 5e 8e bc 53 86 8b bd
       0.059946746 0.018728515 -0.01737925 -0.0681273
000200 e9 38 4d bd 4f cc eb bd 09 a9 40 3d 6e 95 38 3d
       -0.050103102 -0.11513578 0.047036204 0.045064382
000210 4b 30 9e 3d 03 f9 d0 3d 66 38 53 3c 74 dc a4 3c
       0.07724055 0.10203745 0.012891864 0.020124651
000220 1b ba ce 3d 47 ef 2b 3c 18 2d 33 bd 8a 22 0b 3d
       0.100940906 0.01049406 -0.043744177 0.033968486
000230 59 de ba 3c 36 97 d1 3d de 3f 2b 3c 1d e3 59 be
       0.022811102 0.10233919 0.010452239 -0.21278043
000240 66 2a 9d 3d 6a cf f9 bd f0 0d dc bc 08 d3 87 3c
       0.076741025 -0.12197764 -0.026862115 0.01658012
000250 f0 b2 67 3d 13 55 7b 3d ef 2a 55 3d 68 a0 21 bc
       0.056567132 0.06136043 0.052042898 -0.009864904
000260 6c c7 ac 3d a5 0e ce 3c 5d 28 4d 3d 5f cd 53 3d
       0.08436474 0.025153467 0.05008732 0.05170953
000270 e9 03 b0 bb 85 c4 b8 bd 23 6c 8e 3d 6f 79 43 3d
       -0.00537156 -0.09021858 0.06954219 0.04772323
000280 0d 3c ef 3c 41 b1 d2 bc 43 e3 03 bd 38 65 48 bd
       0.02920344 -0.025719287 -0.032199156 -0.048924655
000290 ad 12 2c bd 5f 41 f6 bc 52 fe b9 3c 0d 78 30 3d
       -0.042009998 -0.030060468 0.022704277 0.04308324
0002a0 b6 18 d3 bd 92 87 7b bd de cd 23 be 23 f1 da 3c
       -0.103074476 -0.061408587 -0.15996501 0.026726311
0002b0 a4 d8 33 ba 8a 6a 5c bb fe 1a b8 bb 47 83 3f bc
       -0.000686059 -0.0033632838 -0.005618452 -0.011689014
0002c0 9b 02 7e be bb 91 d8 3d 8e 6f 6f be ea d9 42 3b
       -0.24805681 0.10574671 -0.23382398 0.0029731938
0002d0 a2 63 b0 3d 78 1b f3 bd 53 63 b9 bc 92 5c 16 3e
       0.086127535 -0.118704736 -0.02263037 0.1468375
0002e0 31 b5 60 bc 1c c2 3f bc 8b 49 db 3b e2 1b 47 3d
       -0.013715074 -0.011703994 0.0066921166 0.048610575
0002f0 6f c1 b9 3c c5 94 d4 3d d9 da b2 3d 26 d5 b3 3d
       0.022675244 0.10379938 0.08733148 0.08780889
000300 6f 3a 02 3d 4c 63 13 3c 93 a6 47 3c 28 bb 31 be
       0.031794008 0.008995842 0.0121857105 -0.1735655
000310 67 8e 5d 3d a7 2e 2b 3e 80 63 06 be 1d e3 11 3d
       0.054090884 0.16717015 -0.13123894 0.035616983
000320 c7 99 de ba 97 83 03 be 8a 0b 8c 3c 7d 3b 5d bd
       -0.0016983085 -0.12843166 0.017095346 -0.05401181
000330 97 58 85 bc 74 56 bf 3d 59 7e 0b 3e db 67 0b 3d
       -0.016277594 0.093426615 0.13622417 0.03403459
000340 9e b1 07 3e 74 a8 01 3d 4f 66 2d 3d 2a fe 86 3c
       0.1325135 0.03165479 0.042333897 0.016478617
000350 c0 4e 9f bd 35 cc 86 3c cb 46 96 3d de 99 85 3d
       -0.07778692 0.016454795 0.073377214 0.065234885
000360 22 ec 2e bd f2 ba 02 3e 62 79 91 3d 0f b6 b9 3d
       -0.042705663 0.12766626 0.0710323 0.09067928
000370 1c 07 18 3c ee 16 79 bd 08 e6 96 bb ba 4c 95 3d
       0.009279039 -0.060812883 -0.0046050586 0.07290025
000380 11 d2 4a be 37 39 44 bd a9 6f c6 bd 30 e7 08 bd
       -0.19806696 -0.047906127 -0.09689266 -0.033423603
000390 cf 67 3b 3d 93 c4 6c 3b c5 15 bf 3d 68 77 6d 3e
       0.045753296 0.003612791 0.09330324 0.23190081
0003a0 8f 66 a6 3c 3e c2 d9 bd 03 6d 23 bd cf fb e8 3d
       0.020312576 -0.10632752 -0.039898884 0.11376154
0003b0 ce 24 16 3e 01 e4 48 be fa a9 c8 3c c7 cb 0d be
       0.14662477 -0.19618227 0.024495114 -0.13847266
0003c0 27 39 8e 3c b9 21 90 3d 0c 8f 7a bd c3 6e 1f be
       0.017361237 0.07037682 -0.061171576 -0.15569596
0003d0 40 87 c0 bd c0 84 a1 bc 56 8b 2d bd 77 a1 d9 bd
       -0.09400797 -0.01971662 -0.04236921 -0.106265
0003e0 75 da a3 bc d2 fa 2d 3d 3b 20 be bd b6 85 93 3c
       -0.02000163 0.04247553 -0.09283491 0.018008094
0003f0 9a cc 5f 3d 0e 17 d9 bd 95 d5 29 bd 38 c5 83 bb
       0.054638483 -0.106001005 -0.041463453 -0.004021313

base.cnn.7.bias f4 [64]
000000 d4 3a 54 bc b9 a6 9b bb 21 07 bb bb d9 ab 3b bd
       -0.012953479 -0.0047500995 -0.005707637 -0.045818184
000010 24 0f e2 3b 19 66 1f bd 3c 67 89 3b 20 c1 a5 bb
       0.0068987776 -0.038915727 0.0041932147 -0.0050584227
000020 11 ec fe bc 7f 98 aa bc 53 d4 4c bc e2 08 87 bd
       -0.031118425 -0.020824669 -0.012501794 -0.06593491
000030 bc 55 b3 3c 01 b1 10 bd 4b 6b 10 bc f9 1c 08 bd
       0.021891467 -0.035325054 -0.008814643 -0.033230755
000040 54 25 94 bc db 4b e7 bb 85 6c 36 bb ce 56 c3 bb
       -0.018084206 -0.007058603 -0.0027835679 -0.0059612757
000050 d6 e4 8b bc b2 5c 82 bd 8f 38 40 3c 54 da ab bc
       -0.01707689 -0.063653365 0.011732235 -0.02097813
000060 5b de f7 3b c7 40 4b bc 9a 37 93 3c b6 d9 b7 bc
       0.0075643486 -0.012405581 0.017970849 -0.02244268
000070 f1 04 80 3b f5 1f 04 bc 42 95 92 39 53 1c 2b bc
       0.003906839 -0.00806426 0.00027958496 -0.010443765
000080 ed 98 38 bd 25 a9 35 bd 9a 12 d5 3b 55 d0 11 3d
       -0.045067716 -0.044350762 0.0065024616 0.03559907
000090 c4 1f 56 bc b4 21 2a bc 69 1c 0b 3c 40 57 e7 3c
       -0.013069097 -0.010384012 0.00849066 0.028239846
0000a0 e1 56 51 bc d9 6d d4 bc 97 b6 49 bc bf 10 92 bc
       -0.012777061 -0.025931286 -0.012311599 -0.01783025
0000b0 0f 37 24 3a c7 af 15 bc 1c 2d 55 bc 37 f1 5e bd
       0.0006264308 -0.009136147 -0.013011243 -0.05442926
0000c0 7a 21 59 bc 1a 72 4d bd be 45 52 bd 90 bf b3 bc
       -0.01325261 -0.050157644 -0.051336043 -0.02194193
0000d0 68 d4 a2 bc 99 cf 3e bd fe a2 4b bd 69 f7 c5 bd
       -0.019876674 -0.0465847 -0.04971599 -0.0966633
0000e0 f6 39 6e bd a3 ef 57 3c 8e 61 bd 3c c4 be a8 bc
       -0.058160745 0.013179692 0.023117807 -0.020598777
0000f0 9a cc 80 3b 9d 33 1d bd 64 72 20 bb 92 a4 34 bd
       0.0039306404 -0.0383793 -0.0024482245 -0.04410226

base.cnn.9.weight f4 [64]
000000 2b 4a 78 3f 06 de 84 3f a6 62 79 3f 83 98 82 3f
       0.9698817 1.0380256 0.9741615 1.0202793
000010 3a 26 83 3f 0c 40 81 3f 47 0f 89 3f 18 f9 7e 3f
       1.0246041 1.009767 1.0707787 0.99598837
000020 5d 07 7a 3f c9 2a 77 3f eb 82 7f 3f 16 ac 74 3f
       0.97667485 0.9654966 0.9980914 0.9557508
000030 04 7e 82 3f 3c 33 93 3f 7e 7f 82 3f d8 6d 74 3f
       1.0194707 1.150001 1.0195158 0.9548011
000040 42 89 89 3f 5c 74 84 3f a3 5f 71 3f cb 65 80 3f
       1.0745013 1.034801 0.94286555 1.0031065
000050 9c ae 85 3f 22 ee 7a 3f eb 7a 7e 3f 86 d6 7f 3f
       1.0443912 0.9801961 0.9940631 0.9993671
000060 55 e8 7f 3f 2c 45 87 3f 86 3b 80 3f b7 57 79 3f
       0.99963886 1.0567985 1.0018165 0.9739947
000070 b7 fa 7b 3f 9e 8c 61 3f b1 7b 79 3f 41 a3 78 3f
       0.98429435 0.8810519 0.97454363 0.97124106
000080 93 d6 81 3f 27 bf 6b 3f 59 05 78 3f a6 b8 89 3f
       1.0143608 0.9208855 0.9688316 1.0759475
000090 7d 03 80 3f d2 7f 84 3f 43 8f 6b 3f d8 7f 80 3f
       1.0001065 1.0351508 0.92015475 1.0039015
0000a0 58 31 7f 3f 1f 47 7c 3f 7d a9 82 3f 59 41 84 3f
       0.9968467 0.9854602 1.0207974 1.0332443
0000b0 ba d8 7b 3f 08 c8 80 3f 1d fa 86 3f 3d 86 86 3f
       0.98377573 1.0061045 1.0545079 1.0509716
0000c0 f1 19 85 3f a2 31 81 3f f5 83 7f 3f 63 74 80 3f
       1.0398542 1.0093272 0.99810725 1.0035518
0000d0 1b 38 74 3f d4 57 76 3f a5 3f 91 3f c6 88 7f 3f
       0.9539811 0.96227765 1.1347548 0.99818075
0000e0 df 0c 74 3f c2 70 7d 3f c0 63 7f 3f dc e2 85 3f
       0.9533214 0.9900018 0.9976158 1.0459857
0000f0 bb f2 84 3f c0 02 87 3f fc 16 80 3f d0 53 80 3f
       1.0386575 1.0547714 1.0007014 1.0025578

base.cnn.9.bias f4 [64]
000000 47 82 3c 3d 84 e1 e3 3c e5 71 ac 3c 9a ec 96 3c
       0.04602268 0.027817495 0.021050403 0.018423367
000010 4b dc 13 3d e6 5d 02 3d 82 4d 3c bd 37 bd 1d bb
       0.03609876 0.03182783 -0.045972355 -0.002406908
000020 f6 bd d5 3b ae d8 77 3d bd 1b b7 39 50 28 94 3d
       0.0065228892 0.060509376 0.00034925147 0.072342515
000030 04 3b 08 bd a0 d6 84 bd c8 62 42 bb 4d 4d 45 3d
       -0.033259407 -0.06486249 -0.002966093 0.048169423
000040 2d 1b 80 bc d0 4e 9f bc bd 18 ae 3d c3 27 4f 3d
       -0.015637958 -0.01944676 0.08500812 0.05057503
000050 77 5e 88 3c 3a a5 41 bd 63 ce 52 3d c2 7e 00 bd
       0.016646607 -0.047276713 0.051466357 -0.031370886
000060 36 ca 41 bc 4e db c7 bc c1 fe a2 3c 0d e9 6c 3c
       -0.011827996 -0.024396565 0.019896867 0.0144598605
000070 f7 15 c7 bc 0b 3b 09 3d 50 3f 1c 3c 89 3e 70 3c
       -0.024302466 0.033503573 0.009536579 0.014663347
000080 39 a3 e8 3b 80 f0 b6 3d 4a 75 8e 3b d9 e0 ee bb
       0.007099536 0.089325905 0.004347478 -0.0072899875
000090 e4 09 dd bb 5e 5e 4b 3c 3c cf 91 3d dd 71 54 bd
       -0.006745564 0.012412636 0.07119605 -0.0518664
0000a0 5e 2e 49 3b 82 8b 15 bd 37 c7 ad 3d ed 26 2c bb
       0.0030697803 -0.03651 0.08485263 -0.0026268319
0000b0 1e 91 01 3d 98 2c 90 bc 68 ac d0 bc db bf 1e bd
       0.031632535 -0.017599389 -0.025472835 -0.038757186
0000c0 76 c4 12 bd 11 40 70 bb 9b 2c 96 bd 8c 94 57 3c
       -0.03583189 -0.003665928 -0.073327266 0.013157975
0000d0 0a 51 92 bc bf 02 2f bc 21 5f 6c bd 2d 4a 42 3c
       -0.017860908 -0.010681807 -0.05770791 0.011858505
0000e0 10 0f 47 3b 70 90 0d 3d 16 41 5b 3d 7a 51 fc bc
       0.0030373968 0.034561574 0.053528868 -0.03080057
0000f0 91 a8 30 bd a2 63 46 3c 5c ed bd bc da c8 dd bc
       -0.043129507 0.012108715 -0.02318447 -0.027073313

base.cnn.10.weight f4 [64, 64]
000000 4f 9a 05 3d 99 79 a8 bc ef 87 e8 bd 11 e6 33 be
       0.032617863 -0.020565795 -0.11354052 -0.17568232
000010 df 61 a9 3c 61 47 22 3e 7a 8a 99 3e de 87 ab 3d
       0.020676551 0.15847541 0.29988462 0.08375524
000020 7c 2f 6d bd 26 74 a8 bd 4a d1 01 be df 9a 40 be
       -0.057906613 -0.082252786 -0.12677494 -0.18809079
000030 f1 c9 c3 bd 72 ce 04 be 68 c3 3d bc 05 a5 e3 3d
       -0.09560002 -0.12969378 -0.011582233 0.11115459
000040 ba e3 de be 61 c4 d2 3d fb bb 8a be b5 6b 2c 3e
       -0.43533117 0.102913626 -0.27096543 0.16837962
000050 d8 05 14 be 1b 3e de be da 11 bb 3d a8 68 36 be
       -0.14455354 -0.43406758 0.09134264 -0.1781336
000060 87 27 25 be 79 ec 8a 3c df 72 04 3e 1f 35 20 bd
       -0.1612836 0.016958462 0.12934445 -0.03911316
000070 f5 87 14 bd 08 54 a4 bd d6 5e 1a be 2b 44 8c bd
       -0.03626247 -0.0802384 -0.1507524 -0.068489395
000080 47 88 85 3e 62 1d 7a be 3d 07 5e 3e f9 91 8d 3d
       0.26080534 -0.24425271 0.21682449 0.06912608
000090 3d a4 cd 3e a7 a8 7e 3e 36 76 d6 bc 11 78 ea bc
       0.40164366 0.24869023 -0.026179414 -0.028621705
0000a0 9f 5b 8f bd c6 54 2f 3d e9 14 71 be 0e c4 b4 be
       -0.06999897 0.042805456 -0.23543133 -0.35305828
0000b0 16 b1 80 bc c3 4c 8f 3e 59 77 89 3d 99 ce d9 39
       -0.015709441 0.27988252 0.06712217 0.00041543393
0000c0 d2 64 86 3e 31 36 ce bd 5f c3 ad be 54 83 13 bf
       0.26248795 -0.1006893 -0.3393812 -0.57622266
0000d0 24 97 56 bd 27 79 85 3e 08 8d 0a be 56 38 d0 bd
       -0.052390233 0.26068994 -0.13530362 -0.10166995
0000e0 73 9e 0c be 4c ac d2 3d ac 83 02 be 93 e3 65 3e
       -0.13732319 0.10286769 -0.12745541 0.22450094
0000f0 b8 95 10 3e d0 4c b2 3c 3c 5b f6 3c 1c e0 0e 3e
       0.14119613 0.021765143 0.0300728 0.13952678
000100 0c c3 93 3e 26 f2 56 bd c7 00 b7 be 1d 5e f2 bc
       0.28859746 -0.052477024 -0.3574278 -0.029585892
000110 5b ea 55 be 73 b6 7c bd e0 70 99 3e fd 3c d3 be
       -0.20890181 -0.061697435 0.2996893 -0.41257468
000120 fd b7 39 3e ab b1 36 3e 07 83 7e be ce 5a 05 3e
       0.18136592 0.17841212 -0.2485467 0.1302292
000130 b2 ea c3 bd 08 9e b1 3e b5 05 93 bd 0d 37 53 3d
       -0.09566249 0.3469088 -0.07178823 0.051566172
000140 0c 4f d2 3d 98 da 0a 3e 6e 6c 7a 3d 33 ce 25 bd
       0.10268983 0.1355995 0.061138563 -0.04047985
000150 17 98 e6 3d 9a a4 4e be 65 2a 37 bc b3 79 65 bc
       0.112594776 -0.20179978 -0.011179541 -0.014006066
000160 88 08 b6 3d 2f 9d a9 3d 10 b0 ca be 7f 05 3e be
       0.08888346 0.082819335 -0.3958745 -0.18556784
000170 97 f0 f3 bd 9a 8b a6 bd 5d d6 56 3d 96 05 01 3e
       -0.11911123 -0.08132096 0.052450527 0.12599787
000180 f8 45 e4 3d f9 66 09 bc e5 5b 3b be 4d 28 0f 3e
       0.11146158 -0.008386367 -0.18296774 0.13980217
000190 b7 40 89 be ae fa 8c 3e 95 e2 84 3b 02 32 b7 3e
       -0.26807186 0.27535003 0.004055331 0.3578034
0001a0 1b 49 56 3e 68 ce a7 3e 0f 9e 88 be 41 01 43 bd
       0.20926325 0.32774663 -0.2668309 -0.047608618
0001b0 a3 24 10 3e c5 84 f5 bd 17 cc d0 3e 8a c9 1f 3e
       0.14076476 -0.119882144 0.40780708 0.15604225
0001c0 46 6a 93 3e 8d 73 32 be 2d 05 38 3c 0e 6b 08 be
       0.28792018 -0.17426892 0.011231703 -0.13322088
0001d0 68 00 6e bd 7f 85 14 3e ed 84 20 3e b3 48 39 be
       -0.058105856 0.1450405 0.15675707 -0.18094139
0001e0 0a 0a 94 be d6 79 79 3e 4e 79 cf 3d cd 04 ad be
       -0.2891391 0.24362883 0.10130559 -0.33792725
0001f0 0e e2 3e be d8 5b a3 be c0 5a a3 be 41 75 0b 3e
       -0.1864092 -0.3190601 -0.31905174 0.13618948
000200 00 9a c9 3d 92 3d cb bd 98 66 63 be a4 6b 8c be
       0.09843826 -0.09923853 -0.22207105 -0.27425873
000210 0d 9e 71 3e 97 01 a4 bd 6c eb 0b bf 39 48 63 3d
       0.23595448 -0.08008116 -0.546561 0.0554888
000220 83 fb 28 3e 38 04 ef bd 3b b3 23 3e 19 8b 98 3d
       0.16502194 -0.116707265 0.1598634 0.07448406
000230 f0 a9 ad 3d 90 90 d6 3e 67 6c 3f be 08 2a bd 3d
       0.08479679 0.41907167 -0.18693696 0.092365324
000240 c7 b5 08 3e ea b0 5e 3e 6d 33 8b 3d 16 2f f6 be
       0.13350593 0.21747175 0.06796918 -0.480828
000250 80 a1 5c be dd 6d 0b 3e 8f a3 a7 bd 74 9c 02 bd
       -0.21545982 0.13616128 -0.08185493 -0.031887487
000260 71 02 45 3d 20 11 dc 3e 2b 1d f0 3e d1 5e 83 bb
       0.04809803 0.42981815 0.46897253 -0.0040091057
000270 0a 57 76 be f4 30 65 bd 5c cf e9 be e6 a4 33 3e
       -0.2405664 -0.05595489 -0.45666015 0.17543373
000280 14 cf 39 bd e0 23 78 3c 72 c5 9c 3d 1e 2b e1 bd
       -0.0453635 0.015145272 0.07654847 -0.10994552
000290 e3 82 83 bd 48 a5 a1 3d 29 ac c2 bd e9 47 eb 3c
       -0.06421449 0.07892853 -0.09505493 0.028720813
0002a0 da 78 ae 3d 52 c3 c8 bd 0c 3c b8 3e aa 59 5e 3c
       0.08519144 -0.098028794 0.35983312 0.013571182
0002b0 67 83 88 3e b7 91 1c bb 58 b4 44 be d7 ef 85 3e
       0.26662752 -0.0023890564 -0.1920942 0.26159546
0002c0 b6 d4 59 3e ca b7 52 3e d9 35 4a be 10 d7 a9 3e
       0.21272549 0.20577922 -0.19747104 0.33171892
0002d0 ab 74 81 3d d1 12 40 be df 13 04 3e b0 76 87 be
       0.06321081 -0.18757178 0.12898205 -0.2645774
0002e0 a4 24 ee be 9b 84 d6 bc 46 70 a6 3d 6a 8b 60 3e
       -0.4651233 -0.026186278 0.08126883 0.21928182
0002f0 40 5f ba 3d b0 7f 05 3c 41 5f a7 bc eb 50 fb 3d
       0.09100199 0.008148119 -0.020431163 0.12271293
000300 50 2e 89 be 72 1c b4 bd ee e0 2e be bb f4 ab be
       -0.26793146 -0.08794488 -0.17077991 -0.33585152
000310 a7 49 3d be 69 a9 16 3e 2e b8 50 3e 5d 5b 46 be
       -0.18485127 0.14713062 0.20382759 -0.1937079
000320 8e 8b 0d 3d 5e 12 99 bd ab b9 6a be 3d 6f ce 3d
       0.034556918 -0.074742064 -0.22922389 0.10079811
000330 1c 6d c4 3c 53 58 a1 3e 85 ef 1e 3e 92 a7 db bd
       0.023977809 0.315127 0.15521057 -0.10725321
000340 f2 0f de bd e0 a1 7d be 20 a5 85 bd 0e ab e4 bd
       -0.10842885 -0.24768782 -0.06525636 -0.111654386
000350 09 a7 0a be a8 78 b7 be 2e d7 ce 3d 7d b9 52 3e
       -0.13540281 -0.3583424 0.10099636 0.2057857
000360 80 e8 e4 bd 89 99 10 3e dc c4 1d bd 7a 69 cd bd
       -0.11177158 0.14121069 -0.038517818 -0.10029884
000370 a1 85 ca be c2 18 c7 bc 5a 7f 6a bc eb b3 9f 3e
       -0.39555076 -0.024303798 -0.01431259 0.31191954
000380 b4 cb 92 be 5e 5d bd 3d 6a 83 10 3d 06 73 07 3e
       -0.28671038 0.09246324 0.035281576 0.13227472
000390 0d 3c 9f be 51 4e 0c be 31 5b 0b be 36 63 ed bd
       -0.31100503 -0.1370175 -0.13609006 -0.115911886
0003a0 a5 f6 7c 3e c6 e5 28 3e 1f 1a d1 3e 9d 82 1f be
       0.24703462 0.16493902 0.4084024 -0.15577169
0003b0 15 cb b6 be 66 1d d6 3d 55 cb 58 3d 6b db 35 be
       -0.35701814 0.10454826 0.052928288 -0.17759483
0003c0 75 83 58 be a8 47 d4 3c ae b0 ad 3d 41 86 8e be
       -0.21143897 0.025913075 0.084809646 -0.27836803
0003d0 de c1 5f 3e 61 e5 d0 bd ab f2 79 3d c6 ec 75 3e
       0.21851298 -0.102000006 0.06102244 0.24016103
0003e0 7e c8 64 3e 04 40 1c 3c 52 7d 6a 3e 44 86 64 3c
       0.22342107 0.009536747 0.22899368 0.013948027
0003f0 e5 87 5b 3d 0d ac 97 be e7 e9 ed 3d 32 7e 2d be
       0.053596396 -0.29623452 0.11616879 -0.16942671

base.cnn.10.bias f4 [64]
000000 39 83 37 bc 09 32 f8 bc 69 0a a1 3c 29 20 83 bc
       -0.0112007195 -0.030297296 0.019658284 -0.016006546
000010 63 d8 24 bd 46 9c 8e bd e5 6a 03 3d cd 18 16 3c
       -0.040245425 -0.069634005 0.032084364 0.009161186
000020 17 22 1a 3c fb 7b a5 ba ed 30 39 bd cc ea 61 bc
       0.009407542 -0.001262545 -0.045212675 -0.01378889
000030 72 a8 1e bd e6 3c a4 bd 14 90 2d bd 39 c3 c9 bd
       -0.03873486 -0.08019428 -0.04237373 -0.09851689
000040 c7 0b 98 bd c0 63 42 bd 70 57 08 bd db c6 b7 bc
       -0.07424121 -0.04745841 -0.033286512 -0.022433689
000050 bb 3e 49 bb 3e bb c5 3b 56 24 41 3d c7 44 a9 bc
       -0.0030707556 0.006034284 0.047153793 -0.020662678
000060 78 4f 95 3c fe 04 f2 bd f9 4b 37 be 41 83 8f bd
       0.01822637 -0.118173584 -0.17900075 -0.070074566
000070 67 75 93 bd 0c db db bc 16 ab c6 bc 9b a6 6e bd
       -0.07200127 -0.026837848 -0.024251502 -0.058264356
000080 b5 fa 89 bd 68 e3 cf 3c a0 4f 81 3c 14 65 a6 bc
       -0.06737272 0.02537699 0.015785038 -0.02031187
000090 05 79 90 bd 49 03 1e bd f6 19 be 3c 68 53 10 bd
       -0.07054333 -0.03857735 0.023205739 -0.035235792
0000a0 46 da d7 3a 79 c9 c2 3c 6f 09 b8 3c b9 91 d6 bc
       0.0016468249 0.02377771 0.022465436 -0.026192533
0000b0 39 68 19 3c e9 14 e5 3a d5 b7 91 b9 12 76 6a bd
       0.0093632275 0.0017477545 -0.0002779352 -0.057241507
0000c0 3f a7 26 bc 68 d9 7d bd b6 dd cc bb 17 5c a0 3c
       -0.0101717105 -0.061974913 -0.006252016 0.019575162
0000d0 70 4e d9 ba c6 37 4d bd 2b 72 15 bd 9e 98 38 bd
       -0.0016579162 -0.050102018 -0.036485832 -0.045067422
0000e0 a6 85 87 3c bf db f8 3c 1c ee f8 3c 5a 0b 01 bd
       0.01654322 0.03037822 0.030386977 -0.031504966
0000f0 00 39 a0 bd c8 6a c7 bc 33 0f cd 3c a9 e5 5e bd
       -0.07823372 -0.02434291 0.025031662 -0.05441824

base.cnn.12.weight f4 [64]
000000 0f aa 80 3f 2f 05 70 3f f9 fa 8a 3f 71 4f 7f 3f
       1.0051898 0.9375791 1.0857841 0.9973059
000010 b3 a5 78 3f e2 51 89 3f af 21 7b 3f b7 4a 7c 3f
       0.97127837 1.0728114 0.9809827 0.98551506
000020 0f b9 8e 3f ba 20 82 3f 71 5f 64 3f 46 fd 77 3f
       1.1150225 1.0166237 0.8920813 0.9687084
000030 a5 be 84 3f 26 66 78 3f 92 09 81 3f b8 09 7b 3f
       1.037068 0.97030866 1.0081046 0.98061705
000040 9e 35 87 3f 3a 12 7f 3f 7c c8 87 3f 4f 97 80 3f
       1.0563238 0.99637187 1.0608058 1.0046176
000050 c5 a6 77 3f 66 f0 81 3f b3 be 85 3f ba 61 64 3f
       0.96738845 1.0151489 1.0448822 0.8921162
000060 ad 8b 91 3f a1 84 89 3f 6d 5a 6e 3f 22 a8 6f 3f
       1.1370751 1.07436 0.9310673 0.93615925
000070 d3 0e 81 3f b8 2d 82 3f f9 8e 83 3f a8 82 7c 3f
       1.0082649 1.0170202 1.0278007 0.98636866
000080 54 1e 86 3f fe b1 79 3f f4 8d 8a 3f d2 a1 81 3f
       1.0478005 0.9753722 1.0824571 1.0127509
000090 18 68 80 3f ad ca 6e 3f c4 6a 6d 3f ce 78 8c 3f
       1.0031767 0.9327801 0.92741036 1.0974367
0000a0 07 23 83 3f 59 52 81 3f 35 6c 80 3f 57 b4 73 3f
       1.0245064 1.0103256 1.0033022 0.9519705
0000b0 94 14 8a 3f 73 2d 69 3f 6d 58 89 3f 85 3d 6a 3f
       1.078753 0.91084975 1.073011 0.9150012
0000c0 ac cd 77 3f 3e 28 75 3f fc da 6c 3f 6a 32 82 3f
       0.96798205 0.9576453 0.92521644 1.0171635
0000d0 99 e8 82 3f 57 ba 82 3f 3e d4 7a 3f d9 2b 83 3f
       1.0227233 1.0213116 0.97980106 1.0247756
0000e0 9a ef 87 3f 84 d2 81 3f 47 53 79 3f 35 8d 85 3f
       1.0619996 1.0142369 0.97392696 1.0433718
0000f0 28 a4 7e 3f a5 a0 73 3f 24 34 86 3f ef 91 88 3f
       0.9946923 0.95167 1.0484662 1.0669535

base.cnn.12.bias f4 [64]
000000 6a b9 34 3d a9 f9 2c 3e 2b b8 16 3d a7 3b b5 3c
       0.044122137 0.16892113 0.03679673 0.022123171
000010 a0 06 95 bb 5c 5a 0d bd f7 1e 75 3d be 7e 98 3c
       -0.004547909 -0.03451 0.059843984 0.018615123
000020 d6 ca d3 bc 59 92 fe ba 0e 25 94 bd 46 61 c2 bb
       -0.025853556 -0.0019422277 -0.0723363 -0.005932006
000030 ad 75 e8 ba 2d 16 e0 3d 41 df 27 3c 53 40 d7 3d
       -0.0017735265 0.1094173 0.010246099 0.10510316
000040 29 06 a3 3d 60 b5 12 bd c4 63 5c 3c cc a1 01 3d
       0.07960159 -0.035817504 0.01345152 0.031648442
000050 2f 1e 3d bd c5 7a ab 3c e3 65 d9 bb b6 c8 70 3d
       -0.046171363 0.020932565 -0.0066344603 0.058785163
000060 44 a9 6d bd 16 10 53 bc b5 70 52 3b fa 72 a5 3d
       -0.058022752 -0.012882253 0.0032110636 0.08078571
000070 2f 2a 39 3d 0e 2d 80 3c 32 a6 51 3c 44 ad 3b 3d
       0.045206245 0.015646484 0.012795972 0.045819536
000080 69 0c 24 bd db f2 80 3d 38 fe cc 3d ab 4d ba 3b
       -0.040050898 0.06296321 0.10009426 0.0056855283
000090 05 6f 3c 3c c1 1e fb bb 4d 7e a8 3d e6 92 35 3c
       0.0115010785 -0.0076635783 0.08227215 0.011082387
0000a0 1a 4a 8d bc 8a 0c b7 3c 21 56 58 3b 14 ae b5 3b
       -0.017247248 0.022344846 0.0033010321 0.0055444334
0000b0 07 ca 02 3c d6 c5 14 3c 55 b9 b3 bc 63 f0 0f bc
       0.007982737 0.009080371 -0.02193896 -0.00878534
0000c0 6b 94 38 3d 58 a6 e7 bc be de 1c 3d dd 18 50 3b
       0.045063417 -0.028277561 0.03829836 0.00317531
0000d0 a1 23 16 3d f7 13 a3 bd 7e f7 78 b8 41 5f e6 3c
       0.036655072 -0.07962792 -5.9358303e-05 0.028121592
0000e0 43 ca 91 bb 3f 19 ec 3c 6a db 90 3d 6c fe c2 bb
       -0.0044491603 0.028820632 0.070731 -0.0059507396
0000f0 66 4d 56 3d 3f 9c 2e 3d 11 3c 74 39 b1 4b bc bd
       0.052319907 0.042629477 0.0002329203 -0.091941245
