CRL_human_AI_overcooked/human_models/model_unident_s8/actor_best_r7.pt (torch, 656978 bytes, 20 tensors)

base.cnn.0.weight f4 [32, 20, 3, 3]
-0.051937398 -0.22722575 -0.3209096 -0.14217246 -0.15402837 -0.20481396 0.1548228 -0.019287689
-0.111622244 0.3414138 0.2903997 -0.06650532 0.11298443 0.16627885 -0.20820595 0.070496835
0.01855806 -0.0001767771 -0.085778564 -0.031106414 0.12362669 -0.05758298 -0.0454891 0.20064785
-0.043432783 -0.27956855 -0.045651894 0.022034515 0.112416334 -0.21546502 0.13477409 -0.18111074
0.06422045 -0.07717078 -0.28828984 -0.08529483 -0.05475336 -0.1435222 -0.1429856 -0.14982833
0.012278043 -0.20418084 0.01262149 0.23038863 -0.05477957 -0.3631145 0.0021016644 -0.18579805
-0.35692874 0.06740372 0.05116296 -0.13478817 0.053445525 -0.19747552 0.22225253 -0.08865395
-0.14177832 -0.047153916 0.09427196 -0.11016526 -0.18738638 0.17257011 -0.2825667 -0.059254408
0.13707784 0.18926817 0.084757105 -0.035977945 -0.14623497 0.023774091 -0.034172967 0.014598755
0.39933655 0.26570025 -0.15283461 -0.07122253 0.12079629 0.0061557586 -0.02105099 -0.2666339
0.11118568 0.27442923 0.1581747 -0.23104067 0.31522515 -0.077830695 0.0030090096 0.000979409
0.18270773 0.19204393 -0.038693868 0.008602026 0.19766071 0.0153226005 -0.26585156 -0.012071754
0.08197245 -0.046938527 -0.15529023 0.011251277 0.114165224 -0.08625995 -0.23467426 0.023701392
0.07628375 -0.08145628 -0.21325767 0.026792698 -0.17522725 -0.14793177 -0.027700167 0.007998335
0.03969933 0.012319795 0.13293938 -0.018877555 -0.0031502498 0.052772075 0.07363016 0.035776623
0.12036326 0.07378707 0.048662268 -0.07797877 0.13541557 -0.14529195 0.038651533 0.13312323
-0.054052748 -0.13665505 0.18190825 0.077945784 -0.022273712 0.20056453 0.16384222 -0.08715489
-0.25227666 -0.05783765 -0.17188424 -0.009342305 -0.08621431 0.16167237 -0.16574791 -0.041546337
0.09338167 -0.07012621 0.11495339 -0.27115175 0.07781413 0.087516986 -0.22953953 0.04822175
0.05218193 -0.10472284 -0.06411556 -0.20222805 -0.041518826 -0.053364325 -0.10289377 -0.17278469
-0.048728265 -0.03731577 0.15668932 -0.089133024 -0.03695497 0.104337685 0.1522782 -0.19076325
0.24276409 -0.33413798 0.17275728 0.042424474 -0.16920237 -0.21096416 0.060680177 -0.026936723
-0.14791016 0.10329868 0.0024531845 0.17505875 0.1638708 0.08734319 -0.10430509 -0.22440095
0.11820016 -0.02035141 -0.2650645 -0.1204415 0.29824567 -0.26714236 0.020621637 -0.0991492
0.22700076 0.004867355 0.016635222 -0.101057574 -0.25831908 -0.13032374 -0.028512828 -0.06345983
0.07127307 -0.20053457 -0.06036916 -0.09205441 -0.21952921 0.17220603 0.31276122 -0.18828782
-0.1074472 0.01491705 -0.0046700565 0.12306604 -0.19717523 0.10477823 -0.10689427 0.37046593
0.15500882 0.033744406 -0.07149896 0.049664658 -0.1961771 0.13248505 -0.07511407 -0.10152906
0.27852467 -0.07827812 0.011483168 0.09323802 0.022185268 0.3856113 0.26948184 -0.075371794
-0.04096925 0.19616657 -0.20856726 -0.3543061 -0.057406913 0.10505031 -0.036003377 -0.04284866
-0.05144365 -0.068731755 0.09808862 0.036611132 -0.07129242 -0.1653757 0.11769524 -0.111903325
0.197502 -0.21590787 -0.11469006 -0.1804684 0.053931747 0.25982887 0.04844242 0.3169758
00000000: 4fbc 54bd dead 68be 434e a4be a895 11be
00000010: 9db9 1dbe c0ba 51be de89 1e3e 3701 9ebc
00000020: 349a e4bd cacd ae3e 45af 943e f133 88bd
00000030: 6164 e73d 0145 2a3e f133 55be a560 903d
00000040: 1307 983c 3e5d 39b9 acac afbd e1d2 febc
00000050: fd2f fd3d 21dc 6bbd c752 3abd a176 4d3e
00000060: 93e6 31bd 9c23 8fbe 7bfd 3abd ba81 b43c
00000070: 893a e63d dda2 5cbe 3802 0a3e 1875 39be
00000080: 0386 833d b70b 9ebd ba9a 93be 0eaf aebd
00000090: 0f45 60bd 7cf7 12be d16a 12be 996c 19be
000000a0: d829 493c c814 51be 5eca 4e3c ffea 6b3e
000000b0: 8b60 60bd 25ea b9be 14bc 093b d841 3ebe
000000c0: 5dbf b6be f60a 8a3d 4090 513d e905 0abe
000000d0: b2e9 5a3d 0637 4abe 2b96 633e 3490 b5bd
000000e0: 562e 11be 7724 41bd a811 c13d 539e e1bd
000000f0: 37e2 3fbe 38b6 303e 95ac 90be c0b4 72bd
00000100: 225e 0c3e 84cf 413e 2295 ad3d 9c5d 13bd
00000110: 9fbe 15be e2c1 c23c f4f8 0bbd 9e2f 6f3c
00000120: d775 cc3e dd09 883e ad80 1cbe 1edd 91bd
00000130: 0c64 f73d 3fb6 c93b 2073 acbc 3d84 88be
00000140: 51b5 e33d fd81 8c3e 8cf8 213e ed95 6cbe
00000150: 3165 a13e b365 9fbd ce32 453b 835f 803a
00000160: bc17 3b3e 2aa7 443e 767d 1ebd 83ef 0c3c
00000170: 9267 4a3e a50b 7b3c b21d 88be 9bc8 45bc
00000180: 2ce1 a73d 9d42 40bd 6704 1fbe 4757 383c
00000190: 75cf e93d 0fa9 b0bd 734e 70be 6c29 c23c
000001a0: a83a 9c3d 8dd2 a6bd 3860 5abe 5c7c db3c
000001b0: c66e 33be 6d7b 17be 76eb e2bc 730b 033c
000001c0: c49b 223d f7d8 493c 4321 083e 1aa5 9abc
000001d0: 6c74 4ebb 8827 583d 69cb 963d 828a 123d
000001e0: 0381 f63d ad1d 973d 1652 473d 55b3 9fbd
000001f0: 61aa 0a3e 6ac7 14be 1251 1e3d 7551 083e
00000200: 6a66 5dbd 4def 0bbe 2846 3a3e 0aa2 9f3d
00000210: 5c77 b6bc ca60 4d3e 41c6 273e 437e b2bd
00000220: 682a 81be 2ce7 6cbd 6c02 30be 7810 19bc
00000230: 2191 b0bd 718d 253e d2b9 29be 7e2c 2abd
00000240: e43e bf3d 559e 8fbd af6c eb3d 67d4 8abe
00000250: 045d 9f3d 1b3c b33d 690c 6bbe 2b84 453d
00000260: b8bc 553d ee78 d6bd 054f 83bd df14 4fbe
00000270: a50f 2abd 8d94 5abd f8b9 d2bd 78ee 30be
00000280: 4a97 47bd 6cd8 18bd 2a73 203e 608b b6bd
00000290: 185e 17bd ffae d53d d1ee 1b3e 7157 43be
000002a0: 2697 783e 2214 abbe 49e7 303e 49c5 2d3d
000002b0: 6343 2dbe fd06 58be c78b 783d 67aa dcbc
000002c0: c375 17be 428e d33d 9bc5 203b 9a42 333e
000002d0: bfcd 273e fde0 b23d e89d d5bd 5dc9 65be
000002e0: ed12 f23d 00b8 a6bc 89b6 87be 08aa f6bd
000002f0: a8b3 983e e2c6 88be b5ee a83c bc0e cbbd
00000300: e372 683e 557e 9f3b 9746 883c 46f7 cebd
00000310: 6642 84be 9673 05be bc93 e9bc 3af7 81bd
00000320: 9ef7 913d ef58 4dbe a745 77bd 0687 bcbd
00000330: 44cc 60be c756 303e 3d22 a03e 86ce 40be
00000340: 470d dcbd a466 743c 4607 99bb 0c0a fc3d
00000350: 4ee8 49be f895 d63d 62eb dabd b6ad bd3e
00000360: a2ba 1e3e 9337 0a3d 0c6e 92bd 2b6d 4b3d
00000370: a6e2 48be 29aa 073e 68d5 99bd 78ee cfbd
00000380: c99a 8e3e 4750 a0bd e623 3c3c 93f3 be3d
00000390: e1bd b53c d86e c53e 86f9 893e 875c 9abd
000003a0: 5fcf 27bd e4df 483e a892 55be 9c67 b5be
000003b0: 8323 6bbd 9e24 d73d 4778 13bd 1482 2fbd
000003c0: 94b6 52bd 3cc3 8cbd b0e2 c83d 8ef5 153d
000003d0: c301 92bd 3f58 29be 340a f13d 922d e5bd
000003e0: f73d 4a3e f416 5dbe 9fe2 eabd b5cc 38be
000003f0: 89e7 5c3d 4a08 853e 8f6b 463d a74a a23e

base.cnn.0.bias f4 [32]
-0.011968178 -0.036893055 -0.025141465 -0.061702892 -0.0554614 -0.109926574 -0.031293243 -0.047873247
-0.029869173 -0.021053897 -0.08090887 -0.062226884 -0.08158405 -0.09893798 -0.11460143 -0.030379863
-0.12411654 -0.06528179 -0.071908936 -0.027440254 -0.08871644 -0.07411277 -0.02601756 -0.046327908
-0.05603178 -0.07960209 -0.101793215 -0.066581264 -0.054321256 -0.056674432 -0.072918825 -0.04985025
00000000: 2d16 44bc 2c1d 17bd 79f5 cdbc 2cbc 7cbd
00000010: 7e2b 63bd 2f21 e1bd 582d 00bd bd16 44bd
00000020: 32b0 f4bc 3979 acbc 8db3 a5bd 9ee1 7ebd
00000030: 8a15 a7bd ff9f cabd 28b4 eabd 31df f8bc
00000040: d030 febd 76b2 85bd fe44 93bd 62ca e0bc
00000050: f7b0 b5bd 70c8 97bd c722 d5bc 55c2 3dbd
00000060: 9481 65bd 6c06 a3bd f678 d0bd c25b 88bd
00000070: f77f 5ebd 7323 68bd 7756 95bd c72f 4cbd

base.cnn.2.weight f4 [64, 32, 3, 3]
-0.0152430525 0.08646033 0.08658213 -0.25462338 0.11940993 0.018833565 -0.10843084 -0.048817392
-0.029840069 0.09444986 0.009474192 0.18626747 0.061817445 -0.08929213 -0.13007058 -0.14496778
-0.37809336 -0.10393378 -0.009301941 -0.012301887 -0.11530042 0.084468566 -0.011640626 -0.16575044
-0.062269185 -0.12889566 -0.06781387 -0.1763543 0.08238432 -0.3079751 0.08040872 -0.011198683
-0.01597027 -0.08702293 -0.091830336 0.10648938 -0.28884414 0.06799587 0.06633124 -0.009971447
-0.0008412209 0.09593645 0.006803181 0.05519162 -0.08971775 -0.056430757 -0.09791713 0.06526585
0.022933539 -0.121814206 0.0023238375 -0.08027509 -0.038899176 -0.0064710695 0.076054566 0.15146872
-0.026746312 -0.08570344 -0.21080483 0.12687884 -0.02030765 -0.09865341 -0.1764932 0.1222072
0.10263022 -0.21152121 0.15693967 -0.083757445 0.025257468 -0.1117063 0.07026369 -0.07425271
0.16239983 0.011869371 -0.11511491 -0.07531062 0.013906217 0.062260795 -0.12099459 0.05066385
-0.083598755 -0.14650793 0.041534323 -0.16050239 0.06945497 0.034834336 -0.12267418 -0.07185611
-0.03545466 -0.050785705 0.08404796 -0.006334014 -0.1730831 -0.06642001 0.00716613 0.0005249859
0.081353486 -0.10122357 0.17989847 -0.1343918 -0.18921368 -0.1231675 0.3022294 -0.1565699
0.021143934 0.031361304 0.12292716 -0.14711095 0.01589721 -0.027761905 -0.07295457 -0.105291985
-0.10176282 0.030501839 0.058767606 0.08653088 -0.17644756 0.04013541 -0.038472123 0.03708629
-0.121505365 -0.040327307 -0.0018501682 0.08136734 -0.058435205 0.12355125 -0.013550341 -0.04723052
-0.010614417 -0.029335627 -0.046966974 -0.10700183 -0.22904599 0.07866822 -0.010381473 -0.14626507
0.005278364 -0.2461744 -0.24065323 -0.14733678 -0.09334459 -0.115337454 -0.108860835 -0.08194871
-0.10664794 -0.08380799 0.053203728 0.107557304 -0.11322937 0.088396564 -0.04786424 -0.20116724
0.011185089 0.13809471 -0.021140208 -0.1288839 0.0081680445 0.18228221 -0.12779042 0.1314945
-0.1506308 -0.04304172 0.0029529373 0.1008416 -0.094594434 -0.0107257385 -0.045233104 0.080713324
-0.023904977 -0.0061312853 0.034239553 -0.01253196 -0.136036 0.04203081 0.13288148 -0.08672572
-0.19831303 -0.037289318 -0.023221234 0.2818023 0.043234065 -0.005545642 0.08500995 0.12594356
-0.09002535 0.12387322 -0.041720722 -0.099487826 -0.11964563 0.011990711 0.100636095 0.18854852
0.10229251 -0.12330151 -0.017413514 -0.07789618 0.08068772 -0.07792258 -0.05500205 -0.046780527
-0.15671408 -0.11276115 0.07021711 -0.010653056 -0.13998868 -0.03648499 0.16124602 -0.0961973
-0.12522626 -0.019435652 0.21524636 0.036623538 -0.030214533 0.10989494 0.013340469 -0.099296354
0.030546166 0.008523464 -0.18649355 -0.08082792 0.19393249 -0.06701512 0.06895011 -0.220049
-0.05631844 0.19045553 0.12911195 0.10311773 -0.17440248 0.08121287 -0.07036676 -0.09735099
-0.05814103 -0.054284494 -0.25173596 -0.24002166 0.058826987 -0.04313877 -0.11735413 0.07606908
-0.029692164 -0.022280024 -0.07069613 -0.007954578 0.063114494 -0.043928284 0.070657834 -0.10546619
-0.16227715 0.1599648 -0.051928297 -0.26753548 -0.10381257 -0.11881801 -0.08141656 0.012174082
00000000: ffbd 79bc 1d12 b13d f951 b13d ff5d 82be
00000010: 328d f43d d948 9a3c fd10 debd bff4 47bd
00000020: 2973 f4bc ee6e c13d a439 1b3c e6bc 3e3e
00000030: 4a34 7d3d cbde b6bd 3931 05be 6f72 14be
00000040: 7495 c1be 3cdb d4bd 2b67 18bc db8d 49bc
00000050: a022 ecbd dbfd ac3d 53b8 3ebc 7cba 29be
00000060: f90d 7fbd 39fd 03be 00e2 8abd 3996 34be
00000070: 1cb9 a83d eaae 9dbe 54ad a43d ae7a 37bc
00000080: 15d4 82bc 1439 b2bd 8b11 bcbd 1b17 da3d
00000090: 61e3 93be 6b41 8b3d acd8 873d 485f 23bc
000000a0: 6185 5cba 547a c43d 38ed de3b 9c10 623d
000000b0: f1bd b7bd f023 67bd c788 c8bd 1aaa 853d
000000c0: 1edf bb3c ba79 f9bd 864b 183b 4467 a4bd
000000d0: be54 1fbd 440b d4bb 7fc2 9b3d 9e1a 1b3e
000000e0: 151b dbbc 4985 afbd 39dd 57be 87ec 013e
000000f0: 3b5c a6bc cd0a cabd a2ba 34be c547 fa3d
00000100: cb2f d23d 0499 58be cbb4 203e 0689 abbd
00000110: c0e8 ce3c 46c6 e4bd 69e6 8f3d ce11 98bd
00000120: 244c 263e c077 423c 5ec1 ebbd 743c 9abd
00000130: e7d6 633c 2d05 7f3d 03cc f7bd e684 4f3d
00000140: d335 abbd 2d06 16be e51f 2a3d bd5a 24be
00000150: 683e 8e3d 73ae 0e3d 9a3c fbbd 4c29 93bd
00000160: e838 11bd ac04 50bd 5621 ac3d 8f8d cfbb
00000170: b23c 31be 3707 88bd dbd1 ea3b 359f 093a
00000180: a89c a63d 4e4e cfbd 4e37 383e 019e 09be
00000190: 3bc1 41be 3e3f fcbd d0bd 9a3e dc53 20be
000001a0: 0b36 ad3c b674 003d 3cc1 fb3d 41a4 16be
000001b0: de3a 823c ef6c e3bc 3569 95bd 53a3 d7bd
000001c0: 0669 d0bd fede f93c 4db6 703d 1a37 b13d
000001d0: abae 34be 0765 243d f294 1dbd cbe7 173d
000001e0: ced7 f8bd 3f2e 25bd 5881 f2ba eca3 a63d
000001f0: c159 6fbd 7008 fd3d 4002 5ebc ca74 41bd
00000200: 17e8 2dbc 4551 f0bc 7160 40bd c723 dbbd
00000210: 088b 6abe ce1c a13d 0e17 2abc 83c6 15be
00000220: 20f6 ac3b 2415 7cbe cd6d 76be 74df 16be
00000230: 732b bfbd 0b36 ecbd 6ef2 debd bad4 a7bd
00000240: 3c6a dabd 86a3 abbd 27ec 593d 0147 dc3d
00000250: cde4 e7bd 4209 b53d 4b0d 44bd c9fe 4dbe
00000260: aa41 373c b368 0d3e 3b2e adbc 24fa 03be
00000270: 43d3 053c 30a8 3a3e 7edb 02be 7fa6 063e
00000280: f63e 1abe 844c 30bd 1186 413b 0a86 ce3d
00000290: baba c1bd 02bb 2fbc 5946 39bd 074d a53d
000002a0: 5fd4 c3bc f3e8 c8bb c63e 0c3d da52 4dbc
000002b0: 054d 0bbe 8028 2c3d 1512 083e 419d b1bd
000002c0: 9212 4bbe afbc 18bd 753a bebc 6448 903e
000002d0: 3416 313d 38b8 b5bb b219 ae3d 59f7 003e
000002e0: 365f b8bd 3eb1 fd3d 59e3 2abd 46c0 cbbd
000002f0: c508 f5bd b074 443c 4c1a ce3d dd12 413e
00000300: bc7e d13d 8185 fcbd c9a6 8ebc 0888 9fbd
00000310: 9a3f a53d e095 9fbd d449 61bd f09c 3fbd
00000320: a879 20be 51ef e6bd fdcd 8f3d 288a 2ebc
00000330: 3159 0fbe 4971 15bd ad1d 253e 1703 c5bd
00000340: 503b 00be 8437 9fbc 8b69 5c3e 9002 163d
00000350: 7884 f7bc 9910 e13d fc91 5a3c e35b cbbd
00000360: f43b fa3c 00a6 0b3c 2af8 3ebe 1c89 a5bd
00000370: 3d96 463e 393f 89bd b735 8d3d 8654 61be
00000380: 2aae 66bd c606 433e ec35 043e 632f d33d
00000390: 9096 32be ef52 a63d 731c 90bd f55f c7bd
000003a0: 4a25 6ebd 6b59 5ebd 89e3 80be 3dc8 75be
000003b0: 91f4 703d 47b2 30bd 5d57 f0bd 1bca 9b3d
000003c0: fb3c f3bc 9984 b6bc 22c9 90bd eb53 02bc
000003d0: 2c42 813d 25ee 33bd 0eb5 903d a8fe d7bd
000003e0: fb2b 26be d0cd 233e c4b2 54bd 69fa 88be
000003f0: af9b d4bd db56 f3bd babd a6bd cd75 473c

base.cnn.2.bias f4 [64]
-0.0695959 -0.005882623 0.010664283 -0.025489023 -0.040114943 -0.016265702 -0.0508459 0.008905017
-0.019802677 0.03150603 -0.02883549 -0.011325951 -0.005419143 -0.07137506 -0.024020141 -0.0035981364
-0.031199915 -0.08579552 -0.05859672 -0.03517197 -0.020774364 -0.0064742444 -0.056260593 -0.015525279
-0.026373276 -0.0058067054 0.00932843 -0.10174779 -0.059951317 -0.036683198 -0.021191426 -0.051186685
-0.056448527 -0.02840213 -0.017152626 -0.029844658 -0.064211905 0.0006639763 -0.059414275 -0.061725955
-0.040927444 -0.016720688 -0.050007388 -0.066547096 -0.045721 -0.0050668386 -0.040029474 -0.034059614
-0.050743047 -0.05657458 -0.034970958 -0.004929241 -0.008974808 -0.044587173 -0.023261044 -0.035913434
-0.07358653 -0.06356156 -0.06932858 -0.04451427 -0.0030187056 -0.04053332 -0.047104668 -0.06678124
00000000: 4c88 8ebd 05c3 c0bb 3fb9 2e3c 5bce d0bc
00000010: 914f 24bd a63f 85bc ca43 50bd 59e6 113c
00000020: 3939 a2bc 780c 013d 6838 ecbc 7b90 39bc
00000030: 1193 b1bb 162d 92bd e3c5 c4bc b6ce 6bbb
00000040: f796 ffbc 90b5 afbd 1d03 70bd 7c10 10bd
00000050: 002f aabc e625 d4bb 8271 66bd bd5d 7ebc
00000060: c50c d8bc 2d46 bebb 45d6 183c 2561 d0bd
00000070: 838f 75bd 1f41 16bd a499 adbc 21a9 51bd
00000080: 9236 67bd 95ab e8bc aa83 8cbc c97c f4bc
00000090: 8881 83bd b20e 2e3a 625c 73bd 5bd4 7cbd
000000a0: 89a3 27bd d3f9 88bc 8cd4 4cbd d849 88bd
000000b0: f145 3bbd b907 a6bb f2f5 23bd 1882 0bbd
000000c0: f1d7 4fbd bfba 67bd b53d 0fbd 7885 a1bb
000000d0: 130b 13bc 0aa1 36bd f28d bebc f719 13bd
000000e0: 89b4 96bd 902c 82bd 24fc 8dbd 9854 36bd
000000f0: 7ad5 45bb 4406 26bd d3f0 40bd 9ac4 88bd

base.cnn.4.weight f4 [32, 64, 3, 3]
-0.07571491 -0.07187303 -0.062322814 0.016938588 -0.15521987 0.010090463 -0.095606044 -0.060514513
0.010010863 0.06727373 -0.0028173265 0.015750412 0.0042919912 -0.040457428 0.11097744 0.07793416
-0.10548698 -0.065588005 0.10815361 -0.17235193 -0.07042239 -0.057286996 -0.07403753 0.041772474
0.13825247 -0.030986546 -0.21710743 0.23243049 -0.039303575 -0.03906963 -0.061893664 -0.021946313
0.17567147 0.21983767 0.05927369 -0.0034824654 0.2944935 0.08049076 -0.04261927 0.018117355
-0.006307065 -0.10977617 0.045768574 0.03396771 -0.15191494 0.038688965 0.16161361 -0.04147984
-0.07831718 -0.08121959 -0.005458801 0.09676182 0.032617018 -0.085294046 0.0622908 -0.24615236
0.09007871 0.07845747 -0.041841093 0.04822689 -0.008408888 -0.16999814 0.0008967479 0.078048185
-0.09531479 -0.06283911 0.042619757 0.05162502 -0.089452006 0.08012543 -0.0105152475 -0.0037828253
-0.11278781 -0.15804172 0.040299397 0.04555306 -0.11341828 0.073855385 0.062169984 -0.00077773415
-0.14586256 0.027572019 -0.028637275 0.02020453 -0.011070887 0.08452561 -0.2807986 -0.110429406
-0.14488824 0.05426565 0.039823882 -0.0023108828 -0.057124138 0.021497246 0.002141526 -0.11251936
-0.19697227 0.007213047 0.1419206 -0.10700324 -0.05406802 0.025367748 0.19794028 0.00057778467
0.030958295 0.002058197 -0.07351729 -0.04560982 -0.01412362 -0.013530888 0.055166382 0.044648245
-0.07947893 -0.048307564 -0.052338697 0.013271287 -0.1861457 -0.04227461 -0.13146023 0.0574903
-0.017204551 0.00978924 0.09532577 0.03785826 -0.04464764 -0.036899585 -0.1429835 0.031215636
-0.1333133 -0.06951691 0.074638814 0.03953607 -0.016957765 0.014006673 0.052104432 -0.16551888
-0.055580515 -0.008543882 0.03952985 -0.08830867 0.11593766 -0.16138406 -0.03283194 -0.1622667
-0.05997682 0.030740887 -0.043237045 -0.16732036 -0.19606559 -0.073431075 -0.06988807 -0.20067486
-0.041930895 0.03575468 -0.090506166 0.050950255 -0.10493484 0.02477077 0.0654236 -0.0833371
-0.08530034 -0.056638647 -0.08285364 0.011000251 -0.046415552 -0.15706961 -0.052907713 0.04561874
7.0395276e-05 0.098373495 -0.09939475 -0.03530351 0.025776226 0.0028524278 -0.2294825 -0.05761176
-0.11812762 -0.01687216 -0.06643858 0.10843715 0.06864911 -0.037463415 0.038959112 0.10223742
-0.06220854 0.15074252 -0.15759864 -0.025132513 0.0674854 -0.13402691 -0.023100473 0.094150305
-0.07789343 -0.20210798 0.011541432 -0.18237722 0.032535058 -0.07330766 -0.15241532 -0.033115197
0.07402472 -0.01629051 0.015778279 0.068406336 0.0073776604 -0.096654095 0.051515117 -0.1685078
0.01665946 0.060587756 -0.005834227 -0.01875474 0.049404804 0.033536986 -0.07539955 -0.12778646
7.324981e-05 -0.08670645 -0.0044240407 0.037796944 0.016326651 -0.022861697 0.017173229 -0.13150802
-0.138536 0.061044276 0.24626079 -0.05869272 -0.040922996 -0.12306867 -0.082091205 -0.16863753
-0.2722949 -0.11294174 -0.006739165 -0.018546024 0.04435863 -0.058148652 -0.11171902 0.15915748
-0.024666082 0.019253924 0.1384016 0.02177755 0.037089147 -0.010442493 -0.10039605 0.0475403
0.077228606 -0.1127854 -0.09377959 0.04060985 -0.075666286 0.0664019 -0.14356641 0.015212902
00000000: 6b10 9bbd 2b32 93bd 3546 7fbd cbc2 8a3c
00000010: f5f1 1ebe 7852 253c 1acd c3bd 11de 77bd
00000020: 9a04 243c cfc6 893d e5a2 38bb 0207 813c
00000030: d5a3 8c3b b0b6 25bd 2448 e33d f29b 9f3d
00000040: 8f09 d8bd 0153 86bd a47f dd3d 067d 30be
00000050: 9d39 90bd c5a5 6abd fda0 97bd 9d19 2b3d
00000060: 0e92 0d3e 7fd7 fdbc 6951 5ebe 4202 6e3e
00000070: c9fc 20bd 7a07 20bd 3684 7dbd c1c8 b3bc
00000080: 39e3 333e 201d 613e f8c8 723d 133a 64bb
00000090: dac7 963e 57d8 a43d 8b91 2ebd d96a 943c
000000a0: 7fab cebb 54d2 e0bd d477 3b3d ba21 0b3d
000000b0: 978f 1bbe 5278 1e3d 0a7e 253e c4e6 29bd
000000c0: c264 a0bd 7556 a6bd bedf b2bb 102b c63d
000000d0: 6c99 053d a5ae aebd a324 7f3d 5d0f 7cbe
000000e0: 307b b83d 4fae a03d 9161 2bbd 8f89 453d
000000f0: 6fc5 09bc fe13 2ebe bc13 6b3a bad7 9f3d
00000100: 6734 c3bd cbb1 80bd 0e92 2e3d c274 533d
00000110: 9d32 b7bd cd18 a43d 2548 2cbc 47e9 77bb
00000120: 4cfd e6bd b0d5 21be fb10 253d d895 3a3d
00000130: d847 e8bd 7e41 973d f4a5 7e3d dbe0 4bba
00000140: ff5c 15be b7de e13c b898 eabc f883 a53c
00000150: aa62 35bc c31b ad3d d6c4 8fbe d028 e2bd
00000160: 955d 14be a945 5e3d 5e1e 233d 2e72 17bb
00000170: 00fb 69bd fe1a b03c d858 0c3b 8d70 e6bd
00000180: 19b3 49be 6c5b ec3b a253 113e 8424 dbbd
00000190: 6e76 5dbd 06d0 cf3c dbb0 4a3e 7976 173a
000001a0: 409c fd3c d1e2 063b 3c90 96bd 5dd1 3abd
000001b0: c266 67bc a8b0 5dbc 25f6 613d 14e1 363d
000001c0: d9c5 a2bd 27de 45bd 1a61 56bd d06f 593c
000001d0: fa9c 3ebe 2428 2dbd 839d 06be f37a 6b3d
000001e0: 8ff0 8cbc 0c63 203c 283a c33d 4311 1b3d
000001f0: 72e0 36bd 0524 17bd 446a 12be efb7 ff3c
00000200: 4883 08be e25e 8ebd 3cdc 983d 93f0 213d
00000210: 03eb 8abc 3f7c 653c 756b 553d c87d 29be
00000220: 65a8 63bd a3fb 0bbc 0dea 213d 2ddb b4bd
00000230: b970 ed3d dd41 25be c97a 06bd 3e29 26be
00000240: 41aa 75bd 50d4 fb3c 5419 31bd 0756 2bbe
00000250: 6bc5 48be 0863 96bd 7a21 8fbd b67d 4dbe
00000260: bbbf 2bbd 8073 123d 4c5b b9bd 37b1 503d
00000270: 14e8 d6bd 12ec ca3c cffc 853d a4ac aabd
00000280: f2b1 aebd edfd 67bd 2baf a9bd 663a 343c
00000290: 3c1e 3ebd dbd6 20be c2b5 58bd b7da 3a3d
000002a0: 2da1 9338 0b78 c93d 7a8f cbbd 6a9a 10bd
000002b0: aa28 d33c ccef 3a3b 76fd 6abe 4ffa 6bbd
000002c0: e5ec f1bd 7c37 8abc f310 88bd 4c14 de3d
000002d0: e897 8c3d 3d73 19bd 9793 1f3d da61 d13d
000002e0: 62ce 7ebd 3f5c 1a3e 8a61 21be b3e2 cdbc
000002f0: c935 8a3d 5a3e 09be 343d bdbc e0d1 c03d
00000300: 9786 9fbd 65f5 4ebe 4618 3d3c 18c1 3abe
00000310: 7b43 053d 5422 96bd c312 1cbe cda3 07bd
00000320: 469a 973d ad73 85bc 7341 813c 9f18 8c3d
00000330: 4dc0 f13b 95f2 c5bd 8401 533d 4f8d 2cbe
00000340: 6b79 883c de2a 783d 0b2d bfbb 8aa3 99bc
00000350: b15c 4a3d 145e 093d 146b 9abd 74da 02be
00000360: b19d 9938 2793 b1bd 8bf7 90bb f8d0 1a3d
00000370: 78bf 853c 7448 bbbc dfae 8c3c 0aaa 06be
00000380: 62dc 0dbe 9009 7a3d ca2b 7c3e c767 70bd
00000390: df9e 27bd 6d0b fcbd 6f1f a8bd 51af 2cbe
000003a0: 3d6a 8bbe 004e e7bd 37d4 dcbb d5ed 97bc
000003b0: 65b1 353d 482d 6ebd f1cc e4bd 2efa 223e
000003c0: 8610 cabc 68ba 9d3c 26b9 0d3e d566 b23c
000003d0: caea 173d fd16 2bbc 729c cdbd 9eb9 423d
000003e0: 082a 9e3d 08fc e6bd 840f c0bd 8456 263d
000003f0: edf6 9abd b8fd 873d 1303 13be 893f 793c

base.cnn.4.bias f4 [32]
-0.01779825 -0.01658252 -0.022002257 -0.031251036 -0.023785343 -0.044205982 0.0001159572 -0.04301472
-0.04155837 -0.0447826 -0.015389328 -0.013487456 -0.0092403265 -0.0017660976 -0.024900014 -0.02417015
-0.056234986 -0.05214727 -0.05222888 -0.04183213 -0.0360581 0.008033047 -0.054718655 -0.0553131
-0.052377976 -0.058673408 -0.0010797683 -0.0005946301 -0.056258336 -0.060392626 -0.058282588 -0.04043178
00000000: a3cd 91bc 11d8 87bc 143e b4bc 1601 00bd
00000010: 7bd9 c2bc 5511 35bd 0c2e f338 3430 30bd
00000020: 1c39 2abd f66d 37bd 8523 7cbc 7efa 5cbc
00000030: bd64 17bc 677c e7ba 1dfb cbbc 7a00 c6bc
00000040: a856 66bd 6098 55bd f3ed 55bd 2b58 2bbd
00000050: a9b1 13bd 0b9d 033c ab20 60bd fd8f 62bd
00000060: 4a8a 56bd 8753 70bd 0387 8dba f3e0 1bba
00000070: 246f 66bd 425e 77bd b9b9 6ebd cb9b 25bd

base.cnn.7.weight f4 [64, 1728]
-0.04458604 0.011717196 0.030797256 -0.040848203 -0.021467682 -0.0036672016 -0.09230928 0.018982757
-0.02437487 -0.04670171 0.00037147096 -0.012205092 0.06543471 0.065503016 -0.05586944 0.023039337
-0.07265482 0.0072148214 0.0095601985 -0.011678183 -0.09619533 -0.037794482 0.030762888 -0.014768121
0.0542168 -0.03889695 -0.092629604 0.09333507 0.11518453 -0.07862701 0.0044873133 0.0089624105
0.01744325 0.18687126 -0.0842631 0.043607783 0.03430102 0.08281004 -0.08279342 0.066315114
0.05216952 -0.022367954 -0.11651431 0.06963759 -0.09529451 -0.095469415 -0.07138051 0.00233028
-0.043325435 0.03377423 -0.076411776 -0.04808599 -0.030149432 0.016474998 0.21337585 -0.14123899
0.055905722 -0.1438787 0.01823246 0.06023142 -0.12370771 0.06900957 0.096385926 0.045365322
0.009279245 0.1337533 -0.00955436 0.03187222 0.02206656 -0.0076113376 -0.08953754 -0.06216778
-0.06575953 0.061307296 -0.18581443 -0.094058506 -0.08584441 0.0076133655 -0.06776501 -0.1859929
0.026985915 -0.059065726 0.008761607 0.029390996 -0.015687814 -0.004848445 0.029862402 -0.062923685
-0.16162287 0.08767532 -0.034611795 -0.04788736 -0.110140495 -0.030212052 -0.048404023 -0.076989315
-0.0410508 -0.063333206 -0.051892664 -0.043817703 -0.12353152 -0.036985982 0.061455254 -0.0365408
-0.07021848 -0.14212145 0.017155616 0.090886325 0.047653668 -0.04460709 -0.00643406 -0.0027935216
0.095099464 -0.007090909 0.05038139 0.0016598483 -0.08788962 0.029649772 0.034810692 0.011986075
-0.09053343 0.0068771048 -0.017236482 0.00838846 -0.06304755 -0.06808342 0.11949772 -0.110410176
0.09078669 -0.07935197 0.0009037088 0.06985653 -0.0038872072 -0.09586206 -0.09801915 -0.0979565
0.03145934 -0.07115552 -0.03508368 -0.04585205 -0.087373115 0.062227666 -0.08887226 0.08462568
-0.016678683 0.06489174 -0.01904589 -0.0077768406 -0.022634353 -0.007756193 -0.0077315946 -0.11993161
0.024382183 -0.03184301 -0.05623866 -0.0062373523 -0.023803687 0.026622621 -0.00066330854 -0.08058246
0.005890474 0.06452981 0.092164874 -0.109709546 -0.01432368 -0.09899771 -0.055765424 0.07140919
-0.044718593 0.10621243 -0.0051673045 0.019607494 -0.016008377 0.04787432 -0.064679615 -0.041169923
-0.006980647 -0.0040338705 0.028921071 0.01458458 -0.009990376 -0.07508235 0.06336125 -0.009050043
0.065024644 -0.15112026 -0.009085188 0.04323502 0.14563458 -0.017556688 -0.33930373 -0.0361026
-0.010283596 -0.110911705 0.020017024 -0.015972167 -0.11017643 0.014464393 0.041103266 0.035304986
0.2290651 0.04046063 -0.19306235 -0.02071271 0.030201532 -0.20614636 -0.09454102 -0.2304687
-0.072751895 -0.007974214 -0.008209663 0.016459174 -0.0071530896 -0.056647096 -0.025210874 0.0610165
-0.021285089 0.10559663 0.23047857 -0.06016607 -0.05356676 0.118856065 -0.03831367 -0.24047591
-0.081532806 -0.024600193 -0.050346535 0.020043107 0.025103508 -0.049357083 -0.10112072 -0.108692884
-0.056377403 -0.045289945 0.022990394 0.1479788 -0.20151433 0.033296566 -0.011513986 -0.00388841
-0.07898986 -0.06045585 0.02337478 -0.017190186 -0.036094833 -0.09993872 -0.028040841 -0.06079984
0.0923164 -0.12002055 -0.0636428 -0.102206826 0.013411804 0.018445373 0.010193268 -0.1197126
00000000: da9f 36bd 7bf9 3f3c 874a fc3c 7250 27bd
00000010: fedc afbc 6f55 70bb a60c bdbd ba81 9b3c
00000020: cfad c7bc 4b4a 3fbd fdc1 c239 def7 47bc
00000030: a202 863d 7226 863d 5bd7 64bd febc bc3c
00000040: 0dcc 94bd 4f6a ec3b 61a2 1c3c da55 3fbc
00000050: 0f02 c5bd 63ce 1abd 7402 fc3c fdf5 71bc
00000060: 6f12 5e3d 6952 1fbd 97b4 bdbd 7526 bf3d
00000070: dee5 eb3d 3307 a1bd 500a 933b 13d7 123c
00000080: 26e5 8e3c 2e5b 3f3e 2292 acbd 139e 323d
00000090: 3a7f 0c3d 4f98 a93d 998f a9bd 38d0 873d
000000a0: b5af 553d 003d b7bc 0e9f eebd 279e 8e3d
000000b0: c529 c3bd 7885 c3bd f22f 92bd 9cb7 183b
000000c0: 0376 31bd d956 0a3d c77d 9cbd d1f5 44bd
000000d0: f1fb f6bc 93f6 863c 337f 5a3e f4a0 10be
000000e0: 66fd 643d f054 13be 3d5c 953c 39b5 763d
000000f0: 785a fdbd e454 8d3d fc65 c53d fdd0 393d
00000100: f907 183c a0f6 083e e489 1cbc 728c 023d
00000110: eec4 b43c 8768 f9bb 755f b7bd a4a3 7ebd
00000120: efac 86bd 5c1d 7b3d 2346 3ebe bfa1 c0bd
00000130: 32cf afbd 8a79 f93b 62c8 8abd ec74 3ebe
00000140: 9111 dd3c e7ee 71bd d88c 0f3c 63c5 f03c
00000150: bb83 80bc b4df 9ebb ffa1 f43c 22de 80bd
00000160: 7780 25be 1e8f b33d 19c5 0dbd 8925 44bd
00000170: 5791 e1bd 447f f7bc 4c43 46bd 93ac 9dbd
00000180: e224 28bd d7b4 81bd 678d 54bd 317a 33bd
00000190: 18fe fcbd 9d7e 17bd 81b8 7b3d ceab 15bd
000001a0: b5ce 8fbd 4988 11be ef89 8c3c 9c22 ba3d
000001b0: 7e30 433d edb5 36bd cfd4 d2bb 8413 37bb
000001c0: 82c3 c23d db5a e8bb b75c 4e3d 448f d93a
000001d0: 79ff b3bd 14e4 f23c a895 0e3d 3e61 443c
000001e0: 9769 b9bd 5659 e13b 8633 8dbc c06f 093c
000001f0: 131f 81bd 526f 8bbd 38bb f43d bb1e e2bd
00000200: 5fee b93d 4983 a2bd dfe6 6c3a f110 8f3d
00000210: 84c0 7ebb 5453 c4bd 44be c8bd 6b9d c8bd
00000220: 82db 003d fcb9 91bd e8b3 0fbd 5ccf 3bbd
00000230: adf0 b2bd 70e2 7e3d a902 b6bd 3b50 ad3d
00000240: bca1 88bc f6e5 843d 2006 9cbc ded4 febb
00000250: ae6b b9bc aa27 febb 5159 fdbb b49e f5bd
00000260: 25bd c73c d16d 02bd 825a 66bd b462 ccbb
00000270: f3ff c2bc af17 da3c e2e1 2dba 6b08 a5bd
00000280: e104 c13b 3428 843d f0c0 bc3d 66af e0bd
00000290: dead 6abc 50bf cabd 496a 64bd fb3e 923d
000002a0: d82a 37bd e785 d93d 7e52 a9bb e59f a03c
000002b0: 0024 83bc dd17 443d bf76 84bd cba1 28bd
000002c0: e9bd e4bb 8f2e 84bb e2eb ec3c 2af4 6e3c
000002d0: adae 23bc c6c4 99bd 8bc3 813d a246 14bc
000002e0: a42b 853d 45bf 1abe 0ada 14bc 3417 313d
000002f0: 3b21 153e 0bd3 8fbc 38b9 adbe 52e0 13bd
00000300: 877c 28bc ad25 e3bd befa a33c 10d8 82bc
00000310: 2ea4 e1bd 10fc 6c3c e65b 283d f69b 103d
00000320: 0b90 6a3e 0cba 253d 23b2 45be b4ad a9bc
00000330: 3469 f73c 0818 53be b99e c1bd fdff 6bbe
00000340: f2fe 94bd 47a6 02bc d381 06bc 64d5 863c
00000350: 7764 eabb c906 68bd 0987 cebc 70ec 793d
00000360: 115e aebc 0c43 d83d 9302 6c3e b270 76bd
00000370: d268 5bbd cf6a f33d cbee 1cbd 513f 76be
00000380: acfa a6bd 5886 c9bc 2b38 4ebd 7131 a43c
00000390: dfa5 cd3c a72a 4abd 6118 cfbd 609a debd
000003a0: feeb 66bd f381 39bd 5a56 bc3c c187 173e
000003b0: c659 4ebe fb61 083d 28a5 3cbc b2d4 7ebb
000003c0: 70c5 a1bd 8ea0 77bd 777c bf3c 6fd2 8cbc
000003d0: 2dd8 13bd acac ccbd e8b5 e5bc 4109 79bd
000003e0: 6110 bd3d 56cd f5bd 2857 82bd d051 d1bd
000003f0: 2fbd 5b3c c01a 973c aa01 273c e12b f5bd

base.cnn.7.bias f4 [64]
-0.081842884 -0.027289925 -0.065087415 -0.06641985 -0.0067577236 -0.062101193 -0.07049273 -0.041978154
-0.03382663 0.0071995487 -0.011999459 -0.017493067 -0.09498203 -0.033767153 -0.015810803 -0.0017101824
0.001718589 -0.08031235 -0.067998886 -0.03333541 -0.08459178 -0.04275872 -0.03169084 -0.031511016
-0.043317847 -0.028373882 -0.028521303 -0.064126626 -0.07109965 -0.08195302 -0.039450023 -0.07841496
-0.008686028 -0.036934514 -0.0038947733 -0.08469777 -0.079674326 0.00020726306 -0.058264006 -0.07759688
-0.089435935 -0.049941566 -0.046281103 -0.052101824 -0.028835166 -0.06492205 -0.030821754 -0.019079475
-0.06021765 -0.05460215 0.01544669 -0.049796045 -0.038216688 -0.024185818 -0.011695798 -0.07796542
-0.06272348 -0.07970593 -0.038060393 -0.03391579 -0.06206663 -0.029869368 -0.009757218 -0.041612964
00000000: 3e9d a7bd 1f8f dfbc 8d4c 85bd 2107 88bd
00000010: e56f ddbb d25d 7ebd 7e5e 90bd 49f1 2bbd
00000020: cb8d 0abd 31ea eb3b 6199 44bc 9f4d 8fbc
00000030: f085 c2bd 6d4f 0abd a885 81bc 3328 e0ba
00000040: 4742 e13a cd7a a4bd 0043 8bbd b68a 08bd
00000050: 753e adbd c523 2fbd 41ce 01bd b211 01bd
00000060: 0e6e 31bd 5870 e8bc 82a5 e9bc d254 83bd
00000070: b19c 91bd fcd6 a7bd 5996 21bd 0698 a0bd
00000080: d84f 0ebc a548 17bd 743f 7fbb 0676 adbd
00000090: 4b2c a3bd c154 5939 3da6 6ebd 1deb 9ebd
000000a0: 302a b7bd 878f 4cbd 4191 3dbd b968 55bd
000000b0: ba37 ecbc daf5 84bd e77d fcbc 8f4c 9cbc
000000c0: c8a6 76bd 81a6 5fbd 1d14 7d3c f0f6 4bbd
000000d0: 1a89 1cbd 5621 c6bc bb9f 3fbc 56ac 9fbd
000000e0: 2b75 80bd dd3c a3bd 37e5 1bbd 49eb 0abd
000000f0: 9439 7ebd 9bb0 f4bc bddc 1fbc 5b72 2abd

base.cnn.9.weight f4 [64]
0.9847048 0.98054224 0.9139606 0.999491 1.0131387 1.0655175 1.0461199 1.0757638
1.0822996 1.170964 0.9490925 1.0123595 0.9925235 0.9576539 1.1726247 0.87032926
0.91187835 1.0558057 0.9453109 1.0102376 1.1696731 1.0910112 0.9806212 0.9647906
0.8731072 1.0672082 1.0181729 0.96307564 0.9755931 0.9428869 1.0501572 1.0151304
0.94982404 1.0832963 1.0179243 1.0199702 0.8782426 1.139348 1.0822413 0.9750732
0.98654234 1.0216604 0.9244374 1.1303016 1.0152653 1.0184455 0.93136024 1.046105
0.9306439 1.102225 1.0269798 1.1440257 1.1112919 1.108856 1.1445569 0.8942315
0.9847483 0.95037794 1.0002879 0.93783855 0.92589074 0.9970862 0.9278003 0.85702103
00000000: 9d15 7c3f d104 7b3f 52f9 693f a4de 7f3f
00000010: 87ae 813f e162 883f 42e7 853f a1b2 893f
00000020: cb88 8a3f 26e2 953f baf7 723f ff94 813f
00000030: 0516 7e3f ce28 753f 9118 963f e6cd 5e3f
00000040: dc70 693f a424 873f e5ff 713f 774f 813f
00000050: d9b7 953f 41a6 8b3f fe09 7b3f 84fc 763f
00000060: f483 5f3f 479a 883f 7d53 823f 208c 763f
00000070: 78c0 793f 0961 713f 8d6b 863f cbef 813f
00000080: ab27 733f 74a9 8a3f 584b 823f 628e 823f
00000090: 82d4 603f 28d6 913f e286 8a3f 669e 793f
000000a0: 0a8e 7c3f c5c5 823f eea7 6c3f b9ad 903f
000000b0: 37f4 813f 6c5c 823f a06d 6e3f c5e6 853f
000000c0: ae3e 6e3f b515 8d3f 1374 833f 6f6f 923f
000000d0: d03e 8e3f feee 8d3f d780 923f 5bec 643f
000000e0: 7718 7c3f f84b 733f 6f09 803f 3016 703f
000000f0: 2d07 6d3f 0b41 7f3f 5284 6d3f bb65 5b3f

base.cnn.9.bias f4 [64]
0.016417904 0.064020224 0.024808768 0.012569876 -0.0790963 -0.06731342 -0.08873721 -0.011861797
0.0062140804 -0.0016927809 -0.044710875 -0.1296014 -0.010585769 -0.049249142 -0.18360612 0.06391266
-0.050685972 -0.068613596 -0.03432168 0.0015773133 -0.17983788 -0.08419665 -0.014720892 0.053729873
0.029797103 0.1325813 -0.099966325 -0.009630978 0.0683677 0.07914632 0.03881282 0.039135102
-0.015487528 -0.023521828 -0.030498741 0.04492272 0.13772205 -0.004562167 -0.06059612 0.10469815
-0.030151542 -0.036365863 0.11804205 -0.047518533 -0.012331309 0.006230083 0.044494458 0.0817072
0.06378861 -0.10636213 0.099913 -0.12473846 -0.13368644 -0.061719544 0.0062118024 0.19477853
0.007078755 0.010204812 0.0017088655 0.1707032 0.010794677 -0.012459541 -0.035808586 0.084575824
00000000: d77e 863c 091d 833d c23b cb3c e2f1 4d3c
00000010: 3efd a1bd 9edb 89bd dbbb b5bd fc57 42bc
00000020: 7c9f cb3b 4de0 ddba c022 37bd 3bb6 04be
00000030: ef6f 2dbc 78b9 49bd 3e03 3cbe a4e4 823d
00000040: 189c 4fbd 4985 8cbd e494 0cbd dabd ce3a
00000050: 6c27 38be 4b6f acbd e52f 71bc db13 5c3d
00000060: 0e19 f43c 64c3 073e 25bb ccbd 40cb 1dbc
00000070: 5d04 8c3d 7717 a23d 31fa 1e3d 214c 203d
00000080: 67bf 7dbc d9b0 c0bc 7fd8 f9bc e300 383d
00000090: 0207 0d3e 3b7e 95bb a333 78bd fc6b d63d
000000a0: 5e00 f7bc 5ff4 14bd 08c0 f13d cba2 42bd
000000b0: 4209 4abc b925 cc3b d23f 363d 1b56 a73d
000000c0: 9aa3 823d 63d4 d9bd 309f cc3d e176 ffbd
000000d0: 19e5 08be a2cd 7cbd 608c cb3b 0674 473e
000000e0: e7f4 e73b 1532 273c 03fc df3a d2cc 2e3e
000000f0: 28dc 303c 1a23 4cbc 06ac 12bd 1736 ad3d

base.cnn.10.weight f4 [64, 64]
-0.061550684 0.021909045 0.07356238 0.25028694 0.0677067 -0.07065649 0.028700735 0.17549492
-0.020386448 -0.25021496 0.28420565 -0.17595021 0.21396975 0.19749254 0.0134890415 -0.2721995
0.14787611 0.075069524 0.35846463 0.37544698 -0.26583195 -0.22496232 -0.14304487 -0.13962793
-0.11264895 -0.1044758 -0.21810652 0.016418386 0.23807774 0.010566751 -0.43603775 0.5315513
-0.23368096 0.2668616 0.12640962 0.124669276 0.12387831 -0.02524249 0.2595129 0.05238394
-0.122773156 -0.40391114 0.22139302 0.029623313 0.16367365 0.0046267565 0.06020702 0.18171524
-0.15006706 0.071816295 -0.46789593 -0.015020326 0.32350522 0.31595448 -0.2437452 -0.0393218
0.07427486 0.24263601 0.015424441 -0.009666895 0.021358496 0.26162183 -0.1914163 -0.27921277
0.03960902 -0.06747216 -0.39368492 0.16181394 0.25521323 -0.17981203 0.077769876 0.039824124
-0.19425233 -0.05572539 0.027652735 0.2733563 -0.057154987 -0.092090175 0.33248144 -0.30963907
-0.040345367 0.14256312 0.17860764 -0.1882355 0.3658472 0.29530025 0.04614033 0.15782332
-0.5887197 -0.2045416 0.06271353 0.15834029 -0.04645912 -0.491933 0.7122582 0.14431132
0.19953923 -0.03486916 0.074146464 0.18365128 0.0656944 0.35308942 -0.36346048 -0.08681815
0.11162439 0.22217718 0.010705536 -0.041232523 0.080426544 -0.11900549 0.11182545 0.12644054
0.011895517 0.1843831 -0.051216204 0.24314454 -0.09020751 -0.17979692 -0.023714358 -0.06996223
-0.32156637 0.166199 0.13005018 0.2807217 -0.14458142 0.056938585 0.06562731 0.048643723
0.1922872 -0.37097695 -0.085399225 0.104463816 0.34546867 0.21846586 0.40822333 -0.10170997
-0.030699266 0.001868621 -0.254251 -0.19182958 -0.1789314 0.001092836 0.2815643 0.1480409
0.24201633 0.3154929 -0.3326672 0.13745105 0.15462449 0.23519786 0.18139596 0.04255065
-0.52121156 0.074032 0.13979928 0.20527363 0.31225944 0.04176111 -0.17067873 -0.054314326
-0.3031355 0.15386069 -0.15000178 0.16006736 0.20884475 0.31690624 0.3249156 0.10151909
0.042340785 0.07824727 -0.1663935 -0.263999 0.20306616 -0.20997806 0.18195057 0.12259093
0.19059011 0.4141766 -0.0995559 0.18485521 -0.026163617 0.16255604 -0.30627462 -0.15061109
-0.07810049 0.13034873 0.40258577 0.17736806 0.41528362 -0.041279428 -0.1555617 -0.15787783
0.10601463 0.22642358 -0.23801339 0.25964144 -0.038503423 0.05415864 0.039760858 0.24165237
0.03892557 0.1476821 0.09894939 0.34756345 -0.017348524 -0.128514 0.13681214 0.12334334
-0.21690743 0.036094364 0.295421 -0.21174435 0.14542465 0.063444845 -0.29256302 -0.08366431
-0.06628666 0.115400046 -0.063598625 0.10159696 -0.15121943 0.16059935 -0.11443586 -0.32719815
-0.4029564 0.34449944 0.21688585 0.17072642 0.06959498 0.16097547 -0.06517201 -0.13686576
0.20138831 0.15193072 -0.052023012 0.051657487 0.25207055 0.22849098 -0.056783 0.123294875
-0.069662906 0.50061494 0.14867564 0.043911885 0.49551767 0.16051176 -0.38954708 -0.07678601
0.12013518 0.11833435 0.26389053 -0.19422361 0.28064042 -0.10848968 0.12641886 0.1520298
00000000: 921c 7cbd 997a b33c e0a7 963d 9c25 803e
00000010: cfa9 8a3d 5ab4 90bd ce1d eb3c f1b4 333e
00000020: 7b01 a7bc 2d1c 80be 6783 913e 4b2c 34be
00000030: e31a 5b3e 7c3b 4a3e 2401 5d3c bc5d 8bbe
00000040: d66c 173e 0dbe 993d ad88 b73e 963a c03e
00000050: 201b 88be 865c 66be 5b7a 12be a0fa 0ebe
00000060: 7eb4 e6bd 69f7 d5bd 5157 5fbe da7f 863c
00000070: a7ca 733e 2a20 2d3c 5740 dfbe bf13 083f
00000080: 104a 6fbe 15a2 883e 8671 013e 9b52 ff3d
00000090: e9b3 fd3d 57c9 cebc e0de 843e 8b90 563d
000000a0: 7e70 fbbd 71cd cebe dab4 623e 97ac f23c
000000b0: 119a 273e 0c9c 973b a39b 763d 8f13 3a3e
000000c0: 2eab 19be 6c14 933d 0e90 efbe d017 76bc
000000d0: 7aa2 a53e c9c4 a13e 5798 79be e50f 21bd
000000e0: 6b1d 983d 9375 783e cbb6 7c3c e561 1ebc
000000f0: 03f8 ae3c 4cf3 853e a202 44be faf4 8ebe
00000100: 113d 223d d82e 8abd 1291 c9be 8eb2 253e
00000110: 4fab 823e a520 38be d045 9f3d 9f1e 233d
00000120: 15ea 46be 4e40 64bd fd87 e23c 5bf5 8b3e
00000130: 591b 6abd c699 bcbd 023b aa3e 0389 9ebe
00000140: 2f41 25bd 11fc 113e ece4 363e cfc0 40be
00000150: 5350 bb3e 9831 973e a5fd 3c3d 709c 213e
00000160: 56b6 16bf 5a73 51be f46f 803d f523 223e
00000170: eb4b 3ebd a4de fbbe 8e56 363f 59c6 133e
00000180: 0354 4c3e f7d2 0ebd 1ada 973d 150f 3c3e
00000190: c98a 863d 23c8 b43e 7e17 babe b7cd b1bd
000001a0: 549b e43d 6a82 633e 4666 2f3c 6fe3 28bd
000001b0: acb6 a43d 26b9 f3bd be04 e53d a179 013e
000001c0: 6ae5 423c ecce 3c3e 15c8 51bd e2fa 783e
000001d0: b7be b8bd af1c 38be 9d44 c2bc 5c48 8fbd
000001e0: 59a4 a4be 1230 2a3e e02b 053e c1ba 8f3e
000001f0: 270d 14be 6f38 693d 9c67 863d a43e 473d
00000200: f0e6 443e b1f0 bdbe cae5 aebd 20f1 d53d
00000210: 45e1 b03e 84b5 5f3e a602 d13e 514d d0bd
00000220: 077d fbbc 84ec f43a 302d 82be f96e 44be
00000230: cb39 37be 7e3d 8f3a 3229 903e 0998 173e
00000240: 21d3 773e 4988 a13e 5b53 aabe f8bf 0c3e
00000250: e255 1e3e b5d7 703e ddbf 393e 9749 2e3d
00000260: 1f6e 05bf 179e 973d 8b27 0f3e 4033 523e
00000270: 78e0 9f3e b30d 2b3d 68c6 2ebe b378 5ebd
00000280: 9434 9bbe a88d 1d3e 119a 19be b3e8 233e
00000290: 66db 553e 8941 a23e 565b a63e 3ee9 cf3d
000002a0: 886d 2d3d 1b40 a03d 0f63 2abe e02a 87be
000002b0: 93f0 4f3e 7d04 57be 4051 3a3e f410 fb3d
000002c0: 0e2a 433e f50e d43e f7e3 cbbd af4a 3d3e
000002d0: 1555 d6bc 1775 263e 07d0 9cbe cb39 1abe
000002e0: 26f3 9fbd 237a 053e b91f ce3e f99f 353e
000002f0: 0ea0 d43e 9e14 29bd 914b 1fbe baaa 21be
00000300: 331e d93d 95db 673e c8b9 73be b9ef 843e
00000310: c4b5 1dbd 73d5 5d3d 48dc 223d b873 773e
00000320: 6b70 1f3d fa39 173e faa5 ca3d d6f3 b13e
00000330: 7e1e 8ebc 2d99 03be 7b18 0c3e 6f9b fc3d
00000340: fb1c 5ebe afd7 133d 6c41 973e 83d3 58be
00000350: 33ea 143e 5fef 813d d2ca 95be 3258 abbd
00000360: 4dc1 87bd dc56 ec3d ff3f 82bd 1112 d03d
00000370: 44d9 1abe 2874 243e 595d eabd 8486 a7be
00000380: 4d50 cebe 3b62 b03e 5317 5e3e e8d2 2e3e
00000390: d087 8e3d c1d6 243e e778 85bd 8a26 0cbe
000003a0: bd38 4e3e ba93 1b3e 1516 55bd cd96 533d
000003b0: 640f 813e 8af9 693e 4a95 68bd 0682 fc3d
000003c0: 6dab 8ebd 4d28 003f 6d3e 183e f3dc 333d
000003d0: 7eb4 fd3e 325d 243e b772 c7be fc41 9dbd
000003e0: 6f09 f63d 4859 f23d a91c 873e 8ee2 46be
000003f0: 1ab0 8f3e d62f debd f273 013e b3ad 1b3e

base.cnn.10.bias f4 [64]
0.0062765386 -0.13500975 -0.17804252 -0.10743148 -0.106557116 -0.043201726 -0.088924766 0.06726663
-0.058818985 0.021975657 -0.05662384 -0.07174318 -0.063806534 -0.06331921 -0.011604099 -0.021657038
0.03419306 0.05347242 -0.21221581 -0.064208925 -0.06495515 -0.046803024 -0.057007886 -0.06891716
0.025192942 0.0031922983 -0.13861427 -0.05621045 -0.14719377 -0.054198015 -0.03641766 0.02684824
-0.04491302 -0.053049825 -0.015781416 -0.13660693 0.00081740157 -0.021001408 -0.036059592 -0.090598695
0.0669231 -0.093808725 -0.18001689 -0.12187307 -0.039318625 -0.114545494 -0.11661777 0.011642886
-0.027808424 -0.051618263 -0.07976685 0.0061683203 -0.11222459 -0.030108457 -0.0800568 -0.03803398
-0.030511409 -0.08263297 0.044949632 -0.12651345 -0.12960643 -0.07798316 -0.16021085 -0.12044294
00000000: 6cab cd3b ff3f 0abe c750 36be 0905 dcbd
00000010: 9e3a dabd 4bf4 30bd 301e b6bd 16c3 893d
00000020: 2dec 70bd 4b06 b43c 66ee 67bd 17ee 92bd
00000030: 00ad 82bd 81ad 81bd 1e1f 3ebc 1a6a b1bc
00000040: 060e 0c3d e505 5b3d 1a4f 59be f87f 83bd
00000050: 3507 85bd 87b4 3fbd 1a81 69bd 7124 8dbd
00000060: 6e61 ce3c e135 513b e6f0 0dbe ee3c 66bd
00000070: f7b9 16be bdfe 5dbd af2a 15bd d7f0 db3c
00000080: b7f6 37bd c64a 59bd 0748 81bc b0e2 0bbe
00000090: e446 563a 250b acbc 39b3 13bd cf8b b9bd
000000a0: fa0e 893d ca1e c0bd 5956 38be 9798 f9bd
000000b0: 910c 21bd d496 eabd 4cd5 eebd cec1 3e3c
000000c0: 7ece e3bc ac6d 53bd cd5c a3bd 9f1f ca3b
000000d0: 01d6 e5bd 03a6 f6bc d2f4 a3bd 85c9 1bbd
000000e0: 10f3 f9bc 793b a9bd 1b1d 383d be8c 01be
000000f0: 8cb7 04be a3b5 9fbd 500e 24be caaa f6bd

base.cnn.12.weight f4 [64]
1.082666 1.197645 0.8739471 0.86530477 0.90945107 0.98245275 1.0159785 1.1329938
1.1472987 1.0291421 0.844884 0.9513796 0.996817 1.0927993 1.1849113 1.0279387
0.99223787 1.0226208 0.9345288 1.0280735 1.0088818 0.99151975 0.964504 1.030628
0.9911848 1.0018953 0.9291816 1.0772578 0.9315546 0.94460857 1.0074542 1.143283
0.9721897 1.0126933 0.9827977 1.0078741 1.1496459 1.0833184 0.9528977 1.02628
1.0468402 1.0208322 0.99065614 0.82771593 1.0024408 1.0627533 1.1768708 1.0263242
1.075861 0.9807478 1.0466573 0.9779564 1.0940145 0.8932726 0.9103272 1.1132544
0.9797113 1.0341383 1.0661712 1.0926335 1.0203861 0.94781244 1.0712986 1.0320636
00000000: cd94 8a3f 6e4c 993f ffba 5f3f 9d84 5d3f
00000010: c9d1 683f 0682 7b3f 950b 823f f105 913f
00000020: afda 923f eeba 833f 514a 583f 9d8d 733f
00000030: 662f 7f3f d9e0 8b3f 2cab 973f 7f93 833f
00000040: 4d03 7e3f 3de5 823f 483d 6f3f ea97 833f
00000050: 0a23 813f 3dd4 7d3f bce9 763f 9eeb 833f
00000060: 49be 7d3f 1b3e 803f d8de 6d3f 95e3 893f
00000070: 5d7a 6e3f ded1 713f 42f4 803f 1957 923f
00000080: 6de1 783f ef9f 813f a198 7b3f 0502 813f
00000090: 9927 933f 2daa 8a3f 1bf1 733f 255d 833f
000000a0: dcfe 853f a1aa 823f a49b 7d3f 31e5 533f
000000b0: fb4f 803f 4d08 883f b4a3 963f 975e 833f
000000c0: d0b5 893f 4a12 7b3f def8 853f 5a5b 7a3f
000000d0: ab08 8c3f 83ad 643f 340b 693f 1f7f 8e3f
000000e0: 5cce 7a3f a55e 843f 4c78 883f 6adb 8b3f
000000f0: 039c 823f d6a3 723f 5020 893f a91a 843f

base.cnn.12.bias f4 [64]
0.035722084 -0.03856911 0.1511883 -0.047045015 0.038860146 -0.07953508 0.14153074 -0.006577899
-0.087827034 0.018685134 0.13100325 0.031459104 -0.008591579 -0.049418993 -0.0003394575 0.017121395
0.07695575 0.10389902 -0.14630282 0.022338284 0.057305835 0.03219136 0.05009361 0.019301053
0.09368617 0.024322242 0.08628737 -0.054547746 -0.04388089 0.064523704 0.11420046 0.06120192
0.063829854 0.0071145906 0.066108376 -0.12093531 0.12044535 0.031221762 0.045722 0.047370918
0.13812731 0.07252037 -0.10903715 0.20236477 0.013108212 0.0077670203 -0.1740339 -0.011382589
0.058803372 0.10770014 -0.1348119 0.054061536 -0.028985677 0.041237697 -0.007065035 -0.051632136
0.04756929 -0.07140069 0.035418175 -0.06545085 -0.051113073 0.04555235 -0.037376046 -0.012529687
00000000: 5251 123d a5fa 1dbd 1bd1 1a3e 46b2 40bd
00000010: d12b 1f3d 4ae3 a2bd 6fed 103e 6b8b d7bb
00000020: a9de b3bd 9111 993c b725 063e 43db 003d
00000030: b2c3 0cbc 926b 4abd 37f9 b1b9 2b42 8c3c
00000040: fa9a 9d3d 02c9 d43d 68d0 15be c7fe b63c
00000050: 86b9 6a3d 16db 033d f52e 4d3d 3e1d 9e3c
00000060: 89de bf3d 703f c73c 6fb7 b03d 756d 5fbd
00000070: 73bc 33bd 0125 843d eee1 e93d ddae 7a3d
00000080: 3ab9 823d 8321 e93b d463 873d efac f7bd
00000090: 0dac f63d c8c4 ff3c fe46 3b3d 0208 423d
000000a0: 3f71 0d3e 8f85 943d df4e dfbd b638 4f3e
000000b0: d3c3 563c 7d82 fe3b f135 32be 0a7e 3abc
000000c0: cedb 703d e491 dc3d 210c 0abe a16f 5d3d
000000d0: 5f73 edbc dce8 283d cf81 e7bb 387c 53bd
000000e0: 04d8 423d 863a 92bd a612 113d 180b 86bd
000000f0: f15b 51bd 1a95 3a3d a017 19bd 5149 4dbc

base.cnn.13.weight f4 [64, 64]
-0.0114175975 0.034192357 -0.1885612 0.083455004 -0.20106956 0.220534 0.10101645 0.12618239
0.09717614 0.19175465 -0.11794378 0.21699609 0.2989325 0.17917614 -0.08166862 -0.113613375
0.12650593 0.042665705 0.116468206 0.13875368 0.054987695 -0.35263407 0.0119381575 -0.0946529
-0.11204771 -0.31827655 0.19613677 0.5493338 0.11602591 -0.017799348 0.033057462 -0.39280796
-0.24837548 -0.119410746 -0.43346298 0.02817715 -0.032591432 -0.07263693 0.142701 -0.61354566
-0.11697942 0.22674547 -0.024154095 -0.14457448 -0.07235615 -0.14982024 0.04323463 -0.1409045
-0.21999685 -0.21096966 0.11758949 -0.0074090734 -0.19344258 0.08571728 -0.19847044 0.21632946
-0.15543953 -0.2918758 -0.079485096 0.20384295 0.4851116 0.3232059 -0.42747515 -0.13800105
0.11174578 -0.31567112 -0.09952162 0.07974823 -0.057270218 0.11757424 -0.028081225 0.08327483
0.17278121 0.044046775 -0.27934465 -0.0959337 0.33396536 -0.49513078 0.09090044 -0.09388975
0.14975612 -0.12289233 0.31075302 0.0640794 -0.020727219 -0.046555612 -0.25558534 0.23048297
0.45842585 0.1134341 0.077317685 0.099027485 -0.15853527 -0.0586293 -0.017392589 -0.19101435
0.11567819 0.37888804 -0.085224956 0.013931354 0.042923927 -0.06964012 -0.24806572 -0.2867429
0.03717621 -0.37639156 -0.06964822 -0.22598256 -0.2533713 0.14920911 -0.013277679 0.12107508
-0.2501592 -0.2685592 0.055451084 0.2389117 0.042853188 0.04738996 0.3426833 0.18588999
0.018481134 -0.07179948 -0.19447064 0.0604564 0.040892005 -0.115514554 -0.16603588 0.09249242
0.24724144 0.3029757 0.253258 -0.5771642 -0.27432293 0.20428815 -0.08488699 0.34146068
0.37358472 -0.4431384 -0.025649182 -0.1009963 0.039261512 -0.05564721 -0.27846283 0.18314737
0.07468712 -0.11720224 0.32927537 0.5348458 -0.0034423424 -0.13569298 0.04337997 -0.14403419
-0.37747294 -0.0037251252 -0.08516706 -0.023214625 0.18988876 -0.3735816 -0.13144425 0.07671678
-0.14546922 0.09733353 -0.15045421 0.113567054 0.048409496 -0.28165025 -0.00377206 -0.14290783
-0.036301687 -0.3342453 0.15845385 0.080555625 -0.53936166 0.0043562497 -0.38623035 -0.2733153
-0.03183767 -0.16438465 0.055689223 -0.023785025 -0.025222842 0.1254957 -0.0456915 0.23731223
0.099434584 0.05535654 0.0536357 0.09804615 -0.03177169 0.24865 0.09406044 -0.06749158
0.08481998 -0.12959793 -0.3087837 0.038984388 0.14240079 0.17832568 -0.18271786 0.13012871
-0.10993357 -0.45383498 0.27861252 0.06583711 -0.053924404 0.0686669 -0.34352216 -0.048748884
-0.39091742 0.15136063 0.019433005 -0.18130834 0.23339161 -0.009211385 -0.21535243 -0.032515526
-0.06828246 0.27284288 0.13267183 0.03183535 0.082610995 -0.1574934 -0.0670844 -0.14346613
0.3890746 -0.10109166 0.013098244 -0.5822272 -0.07116767 0.2472341 -0.4500002 -0.33540252
-0.17324528 -0.11753628 0.02427852 -0.012586681 0.006781833 0.048371006 0.49404165 0.15675119
-0.14535668 0.15540363 0.063220836 0.04520647 0.101712175 0.030650355 0.2440857 -0.27109346
0.0696491 -0.14413211 -0.1418444 0.08591433 -0.046477016 -0.16676329 -0.17992374 -0.13701443
00000000: e010 3bbc 490d 0c3d 3016 41be 75ea aa3d
00000010: 2ee5 4dbe aad3 613e b6e1 ce3d f535 013e
00000020: 4904 c73d 555b 443e 828c f1bd 3934 5e3e
00000030: ae0d 993e f379 373e e141 a7bd 21ae e8bd
00000040: c58a 013e 3cc2 2e3d e286 ee3d 7215 0e3e
00000050: c73a 613d 748c b4be 4398 433c 61d9 c1bd
00000060: 4579 e5bd 25f5 a2be 14d8 483e 24a1 0c3f
00000070: fe9e ed3d f0cf 91bc 4367 073d 201e c9be
00000080: 2456 7ebe 9f8d f4bd dcee ddbe c4d3 e63c
00000090: 987e 05bd acc2 94bd 3620 123e 5411 1dbf
000000a0: e892 efbd f72f 683e cfde c5bc 550b 14be
000000b0: 762f 94bd 7a6a 19be cc16 313d 4549 10be
000000c0: db46 61be 6e08 58be c2d2 f03d d0c7 f2bb
000000d0: d015 46be 8b8c af3d d63b 4bbe 7885 5d3e
000000e0: 8a2b 1fbe bf70 95be 15c9 a2bd 35bc 503e
000000f0: 8c60 f83e 3e7b a53e 06de dabe 2650 0dbe
00000100: f9da e43d a59f a1be fed1 cbbd 0a53 a33d
00000110: 2d94 6abd c3ca f03d 990a e6bc fe8b aa3d
00000120: 8fed 303e 646a 343d 4306 8fbe e378 c4bd
00000130: 82fd aa3e c881 fdbe 032a ba3d 4549 c0bd
00000140: ab59 193e f9ae fbbd 051b 9f3e 0f3c 833d
00000150: 21cc a9bc 19b1 3ebd 15dc 82be ba03 6c3e
00000160: cbb6 ea3e 2350 e83d bc58 9e3d ecce ca3d
00000170: 1257 22be 4725 70bd e77a 8ebc 4499 43be
00000180: b0e8 ec3d 9dfd c13e 6c8a aebd 5540 643c
00000190: 00d1 2f3d 7b9f 8ebd f104 7ebe f7cf 92be
000001a0: 1546 183d 65b6 c0be baa3 8ebd f967 67be
000001b0: e2b9 81be 46ca 183e 9f8a 59bc 36f6 f73d
000001c0: de14 80be 9780 89be ad20 633d 45a5 743e
000001d0: d386 2f3d fa1b 423d 2f74 af3e f259 3e3e
000001e0: bf65 973c 9b0b 93bd 5023 47be 21a1 773d
000001f0: 607e 273d e592 ecbd 4f05 2abe aa6c bd3d
00000200: dc2c 7d3e a21f 9b3e 08ab 813e 08c1 13bf
00000210: 0e74 8cbe ea30 513e 3bd9 adbd efd3 ae3e
00000220: 7f46 bf3e 09e3 e2be 3c1e d2bc 26d7 cebd
00000230: aed0 203d 54ee 63bd ae92 8ebe fc8a 3b3e
00000240: 90f5 983d ba07 f0bd c896 a83e a8eb 083f
00000250: ec98 61bb 1af3 0abe 32af 313d b37d 13be
00000260: 2244 c1be 3b21 74bb 116c aebd 992c bebc
00000270: 3372 423e 1646 bfbe 5299 06be b01d 9d3d
00000280: e2f5 14be cd56 c73d ab10 1abe d895 e83d
00000290: 0949 463d 7634 90be aa34 77bb 6e56 12be
000002a0: 14b1 14bd 3322 abbe ba41 223e 59fa a43d
000002b0: 9b13 0abf dfbe 8e3b fcbf c5be fcef 8bbe
000002c0: 3768 02bd 7354 28be 621a 643d d0d8 c2bc
000002d0: 22a0 cebc f281 003e 0327 3bbd fa01 733e
000002e0: 5ca4 cb3d 8abd 623d 1cb1 5b3d 6bcc c83d
000002f0: 0823 02bd 1b9e 7e3e c3a2 c03d 0739 8abd
00000300: 19b6 ad3d 52b5 04be e618 9ebe 18ae 1f3d
00000310: 83d1 113e 029b 363e 641a 3bbe 7640 053e
00000320: da24 e1bd 0f5d e8be 4da6 8e3e 9bd5 863d
00000330: d6df 5cbd 3ba1 8c3d 23e2 afbe e9ac 47bd
00000340: 5426 c8be 48fe 1a3e f731 9f3c e5a8 39be
00000350: 36fe 6e3e 59eb 16bc 5985 5cbe 002f 05bd
00000360: add7 8bbd 10b2 8b3e 20db 073e c965 023d
00000370: f42f a93d f345 21be 8c63 89bd c9e8 12be
00000380: c934 c73e 2509 cfbd 049a 563c d70c 15bf
00000390: 5bc0 91bd f02a 7d3e 6d66 e6be e1b9 abbe
000003a0: 3667 31be dcb6 f0bd bfe3 c63c 5e38 4ebc
000003b0: 233a de3b ad20 463d 07f3 fc3e 6283 203e
000003c0: 62d8 14be 2122 1f3e ed79 813d 6b2a 393d
000003d0: 794e d03d 7416 fb3c 9af1 793e c3cc 8abe
000003e0: 30a4 8e3d 5e97 13be a93f 11be daf3 af3d
000003f0: af5e 3ebd ffc3 2abe ee3d 38be 834d 0cbe
