CRL_human_AI_overcooked/human_models/model_unident_s8/actor_best_r11.pt (torch, 656979 bytes, 20 tensors)

base.cnn.0.weight f4 [32, 20, 3, 3]
-0.12908185 -0.27421713 0.16218321 0.024129104 -0.3113496 -0.26099446 -0.37854242 0.074478455
-0.20163736 0.06173578 0.17335466 -0.1885723 -0.032615107 0.31928128 0.017967772 0.15384817
-0.01212558 0.18905288 -0.28671762 -0.30652037 -0.1697771 -0.06418012 -0.11161174 -0.057075594
0.07405505 -0.068962246 -0.056829773 -0.1354346 0.12765938 -0.1498959 0.24218783 -0.058554664
0.05084782 -0.25678545 0.030251946 0.009320004 -0.21275294 0.021330955 0.06469252 0.007817375
-0.2982615 -0.17073658 -0.11791775 -0.068669066 -0.19487911 0.07095377 -0.15501508 0.51446754
0.022812305 0.017013561 -0.053792547 0.06898696 -0.1564756 -0.28419748 0.065404296 0.21732761
0.21158488 0.06371875 0.18274666 -0.018736294 0.051428236 -0.027719699 -0.04792765 -0.10821223
0.030440109 -0.17340776 -0.27855292 0.25759175 -0.07252409 0.28562868 -0.15422893 -0.13978365
0.2762517 -0.24433076 -0.06803726 -0.26809323 0.05212416 -0.011013257 0.07700529 -0.03221759
-0.13751611 0.064715855 0.09010331 -0.09172114 0.19194728 -0.16161767 -0.089406356 -0.08426669
-0.18794915 0.4837013 -0.071457975 0.06866701 -0.051953036 -0.038888525 -0.16345033 7.7990386e-05
0.13017823 -0.12641647 0.06985883 0.044528026 0.0028892646 0.0071363854 0.07673212 0.14918442
0.024387678 0.068107046 0.1239004 -0.101452544 0.031145219 0.1835759 -0.06180998 0.008424685
-0.0731123 0.066125214 -0.060293145 0.11565161 -0.09496755 0.013673898 -0.029542603 -0.058083985
0.06375676 0.06712126 0.012575757 0.06824597 0.0476853 -0.08697374 0.027069582 -0.25305775
0.10269858 0.11410247 -0.096895956 0.0062134755 0.30702648 0.08423963 0.073761165 -0.1253244
-0.018296275 0.2009413 -0.2215505 0.13931657 -0.07003217 -0.025446579 -0.20728149 -0.02006147
-0.11987526 0.043109175 -0.026280923 0.14251736 0.040538844 0.06273575 -0.10213386 -0.03037323
0.03447238 -0.16230339 0.12237376 -0.06290751 0.08450401 0.020178799 0.046322048 0.15494888
0.19310139 -0.38432777 -0.101877406 0.03568548 0.023736523 0.056780525 0.17246598 0.032249503
0.0652569 -0.04142196 -0.22721997 -0.18392329 -0.13031317 0.14388259 0.087788925 0.014057027
0.46405938 -0.015405993 -0.008013503 -0.04334642 -0.07017129 -0.081668876 0.16244403 0.19479108
0.06716645 -0.22599238 0.31213504 -0.21397159 0.014951919 0.14621475 -0.18888853 0.04403847
0.20843846 -0.183734 -0.18581095 -0.09786873 0.003061352 -0.053820375 0.025512844 -0.13588236
0.12004522 0.15220656 -0.17622429 0.12602712 0.21204281 -0.11324666 -0.25589406 -0.03729411
0.117982924 -0.051868003 -0.11215051 -0.24071886 -0.33129615 0.1682896 0.1049118 0.15356983
0.20286614 -0.072298616 -0.23781414 0.22456202 0.071642205 0.03213358 0.06978318 0.17607297
-0.19340573 -0.21557218 -0.3700227 0.01550221 -0.03559841 -0.043873228 0.20685443 -0.13516076
-0.07018558 -0.13957123 0.103682056 -0.10463477 0.054363076 0.1448667 -0.2740937 0.19031882
0.11642417 0.06969325 0.10999655 -0.032111146 -0.06070933 -0.0070981598 0.03422731 -0.07467852
-0.040326957 -0.03127764 -0.25631455 0.01860185 0.05981049 -0.013397022 -0.062494177 0.112267286
00000000: 082e 04be 3066 8cbe 5b13 263e 66aa c53c
00000010: 3769 9fbe 11a1 85be 50d0 c1be 2988 983d
00000020: 067a 4ebe a8de 7c3d e283 313e 1919 41be
00000030: 6b97 05bd d678 a33e 2631 933c 608a 1d3e
00000040: 5eaa 46bc 1497 413e a7cc 92be 3df0 9cbe
00000050: 0cda 2dbe de70 83bd b294 e4bd 19c8 69bd
00000060: 2daa 973d 143c 8dbd 56c6 68bd 5eaf 0abe
00000070: 24b9 023e 507e 19be 1600 783e 04d7 6fbd
00000080: ce45 503d 6279 83be eed2 f73c eeb2 183c
00000090: e8db 59be 41be ae3c 837d 843d 7214 003c
000000a0: bbb5 98be 92d5 2ebe dc7e f1bd 5ea2 8cbd
000000b0: 648e 47be 3650 913d 46bc 1ebe 25b4 033f
000000c0: dfe0 ba3c 0660 8b3c 9355 5cbd 0949 8d3d
000000d0: 243b 20be 5582 91be b0f2 853d 218b 5e3e
000000e0: b5a9 583e fa7e 823d f121 3b3e db7c 99bc
000000f0: 6aa6 523d 6c14 e3bc c94f 44bd 609e ddbd
00000100: 895d f93c ce91 31be 7d9e 8ebe 11e3 833e
00000110: 8387 94bd ec3d 923e 30ee 1dbe 7223 0fbe
00000120: dd70 8d3e d831 7abe 1e57 8bbd 8443 89be
00000130: 2580 553d f370 34bc f3b4 9d3d 97f6 03bd
00000140: 06d1 0cbe bf89 843d 1688 b83d 4bd8 bbbd
00000150: d48d 443e 1a7f 25be ae1a b7bd 0494 acbd
00000160: be75 40be b2a7 f73e 8f58 92bd 4aa1 8c3d
00000170: b5cc 54bd 9349 1fbd 865f 27be c58e a338
00000180: 714d 053e 5273 01be 2512 8f3d 0563 363d
00000190: d159 3d3b 57d8 e93b bb25 9d3d cdc3 183e
000001a0: abc8 c73c b57b 8b3d 7ebf fd3d 5ac6 cfbd
000001b0: 4224 ff3c 52fb 3b3e 762c 7dbd b107 0a3c
000001c0: e7bb 95bd a86c 873d f2f5 76bd c0da ec3d
000001d0: 597e c2bd 7c08 603c 5403 f2bc 79e9 6dbd
000001e0: e792 823d df76 893d 8c0a 4e3c 8bc4 8b3d
000001f0: a951 433d 4a1f b2bd 07c1 dd3c c990 81be
00000200: a253 d23d 8eae e93d 6371 c6bd 699a cb3b
00000210: 9332 9d3e d485 ac3d 1810 973d 0a55 00be
00000220: 12e2 95bc 8ec3 4d3e 22de 62be 01a9 0e3e
00000230: 076d 8fbd 5875 d0bc 9941 54be f457 a4bc
00000240: 2981 f5bd 3f93 303d 174b d7bc 12f0 113e
00000250: 0f0c 263d 9a7b 803d 8f2b d1bd 48d1 f8bc
00000260: e932 0d3d dc32 26be 189f fa3d a7d5 80bd
00000270: 7010 ad3d 024e a53c 30bc 3d3d ebaa 1e3e
00000280: 5fbc 453e 9cc6 c4be 1aa5 d0bd f02a 123d
00000290: 1973 c23c b292 683d ec9a 303e 0e18 043d
000002a0: 69a5 853d 13aa 29bd 5aac 68be 6356 3cbe
000002b0: d170 05be f555 133e aeca b33d 724f 663c
000002c0: 3199 ed3e 6b69 7cbc 114b 03bc 048c 31bd
000002d0: f7b5 8fbd 0342 a7bd ba57 263e 5077 473e
000002e0: 908e 893d 8c6a 67be 2ad0 9f3e 5e1b 5bbe
000002f0: e5f8 743c 52b9 153e ff6b 41be af61 343d
00000300: e470 553e c424 3cbe 3a45 3ebe 676f c8bd
00000310: f7a0 483b c172 5cbd 5000 d13c bf24 0bbe
00000320: 45da f53d 09dc 1b3e 2474 34be 410d 013e
00000330: c021 593e dded e7bd 8c04 83be b5c1 18bd
00000340: 08a1 f13d 8b73 54bd 2baf e5bd 017f 76be
00000350: a69f a9be 1c54 2c3e ffdb d63d 6941 1d3e
00000360: 24bc 4f3e 4c11 94bd 8d85 73be 96f3 653e
00000370: 26b9 923d 809e 033d 7cea 8e3d 794c 343e
00000380: 270c 46be f4be 5cbe 9e73 bdbe fbfc 7d3c
00000390: a3cf 11bd 6ab4 33bd a6d1 533e 9567 0abe
000003a0: 75bd 8fbd c3eb 0ebe 4257 d43d c14a d6bd
000003b0: d1ab 5e3d f057 143e 0256 8cbe f0e2 423e
000003c0: cc6f ee3d 56bb 8e3d df45 e13d fa86 03bd
000003d0: 59aa 78bd ae97 e8bb f031 0c3d 0df1 98bd
000003e0: e12d 25bd fc1c 00bd a93b 83be e862 983c
000003f0: d8fb 743d 2f7f 5bbc e5f9 7fbd 64ec e53d

base.cnn.0.bias f4 [32]
-0.0384417 0.01978353 -0.008100967 0.07958348 -0.07133246 0.01772473 -0.007249015 -0.03742664
-0.092590176 -0.029535057 -0.035445075 -0.017892068 -0.10304825 -0.03823571 -0.021139998 -0.015603534
-0.14245106 -0.08049544 -0.037791975 -0.14218847 -0.04258666 -0.062142476 0.023112133 -0.0007080906
-0.059219792 6.538784e-05 0.002245552 -0.025174407 -0.021278867 -0.07429016 -0.027232345 -0.011745477
00000000: 0b75 1dbd 1211 a23c ebb9 04bc aafc a23d
00000010: c116 92bd 7433 913c 2589 edbb ad4c 19bd
00000020: eb9f bdbd 81f3 f1bc db2e 11bd 6392 92bc
00000030: f60a d3bd 0c9d 1cbd ca2d adbc f7a5 7fbc
00000040: b1de 11be cbda a4bd c2cb 1abd db99 11be
00000050: 596f 2ebd 1c89 7ebd a855 bd3c 289f 39ba
00000060: 7490 72bd d420 8938 1c2a 133b 8f3a cebc
00000070: 0551 aebc 7025 98bd 5e16 dfbc 1a70 40bc

base.cnn.2.weight f4 [64, 32, 3, 3]
-0.07424432 -0.1630882 0.04378599 -0.21884593 0.030131675 0.031032208 -0.0951344 0.08731107
-0.022475023 -0.16935356 0.043044142 0.118893124 -0.10472969 -0.031969108 -0.06131745 0.06130326
0.067446746 -0.09116374 0.27705914 -0.020234665 0.23853558 0.011566702 0.08481567 0.22640178
-0.1310798 -0.09646568 -0.17612441 -0.014782966 0.08423328 0.059957076 -0.093738794 0.052598782
0.07885155 -0.16443484 0.039475814 -0.036553025 0.12763758 -0.024261884 -0.13072129 0.124672495
0.037109137 -0.08090141 0.011129195 0.06195734 -0.14425051 -0.07651166 -0.02258688 0.048569776
-0.08008981 -0.09828681 -0.07182443 0.12132203 0.04825946 0.17222023 -0.020335656 -0.010295423
-0.057382867 0.17085001 -0.14654593 -0.18106072 -0.12104636 -0.016008358 -0.03742622 0.14315036
0.09377594 0.12981069 -0.117864445 0.009752463 -0.019334758 -0.010405242 0.108784266 0.042040583
-0.034899946 -0.06866038 0.02939325 0.1329439 -0.03856751 0.09846727 -0.0024400004 0.018022178
-0.037974462 0.03253973 0.0076018847 -0.13208316 -0.118373394 -0.159371 -0.081393495 0.04913119
0.04500933 -0.0933592 0.09298581 0.2249971 0.09741511 0.19111542 -0.02137085 -0.012248731
-0.0437539 0.0009045223 -0.061859533 -0.1732348 0.075468384 -0.0595455 0.015836885 -0.19474804
0.24632722 -0.25956884 0.06670489 0.04957278 0.1665922 -0.0066387947 -0.03187147 0.11008115
0.06472385 -0.062188186 -0.028555011 -0.14642848 -0.0090662725 -0.18296044 0.13045968 -0.03549166
0.07322468 0.021707604 -0.015737358 -0.007645638 -0.064621136 0.09739073 -0.17418733 0.18435709
0.027528683 0.018661901 -0.24933176 -0.011013875 -0.109729424 0.087450385 0.006854827 0.05620516
-0.054227713 0.031063167 -0.016077925 0.00054554554 -0.13964899 0.17599325 0.016248325 -0.19659494
-0.012564952 -0.099317625 0.055453215 0.100589186 0.045925274 0.05299997 0.18086942 0.10131213
0.110066295 0.040368516 -0.13947834 -0.043815758 0.023168685 -0.148949 0.022157796 0.05823094
0.055020116 0.07368303 -0.10497762 -0.008577327 -0.0077402066 0.049908884 -0.119992755 -0.010856125
-0.021253783 -0.03903645 0.057247285 -0.01697961 0.06287177 -0.09403029 -0.060682647 -0.025972316
-0.07210495 0.14540105 0.0520316 -0.050083116 0.0053857793 0.064814396 -0.06773284 -0.05430336
0.20914629 -0.08410147 0.13366315 0.2608873 -0.07573188 -0.069483854 -0.09603059 0.05066864
-0.047371894 -0.0034437228 0.02693023 0.040548947 0.03216972 0.020426871 -0.0040572756 0.035300434
-0.20693596 -0.083430625 -0.05961244 0.015348779 0.10767077 -0.05531215 -0.050263017 -0.08779434
-0.07674133 0.05675491 0.07417587 0.033582237 -0.039159346 0.015659088 -0.0867234 -0.041732043
0.013505023 0.003646046 0.09975433 -0.100727424 0.047553804 -0.103140995 0.111567676 0.07165616
0.11867431 0.15539083 0.10419839 0.027403103 0.08564156 0.20342784 -0.09597214 0.052818444
0.0030910622 0.0058364226 -0.038610805 -0.2123405 0.037391387 0.07878475 -0.04261029 -0.08615299
-0.09990788 -0.06648687 0.022005443 0.013181928 -0.041790646 -0.076271914 -0.0103970785 0.033166848
0.14805983 -0.13116445 -0.09252767 0.043036953 0.1433609 0.076927215 0.105311595 0.11707578
00000000: 680d 98bd 9800 27be f058 333d 2619 60be
00000010: b4d6 f63c 4237 fe3c d3d5 c2bd 25d0 b23d
00000020: 8a1d b8bc 056b 2dbe 0e4f 303d 3d7e f33d
00000030: 857c d6bd 0af2 02bd 0228 7bbd 2119 7b3d
00000040: 8521 8a3d 0eb4 babd b2da 8d3e 2bc3 a5bc
00000050: ac42 743e 4482 3d3c d7b3 ad3d ded5 673e
00000060: c839 06be cc8f c5bd f559 34be 4134 72bc
00000070: 7f82 ac3d 8d95 753d 20fa bfbd d271 573d
00000080: ec7c a13d 9b61 28be 64b1 213d a0b8 15bd
00000090: 6db3 023e dcc0 c6bc cddb 05be 4b54 ff3d
000000a0: c0ff 173d a3af a5bd 3a57 363c fbc6 7d3d
000000b0: 68b6 13be 25b2 9cbd 1f08 b9bc 1af1 463d
000000c0: 2006 a4bd 984a c9bd b018 93bd af77 f83d
000000d0: b6ab 453d 805a 303e f696 a6bc 22ae 28bc
000000e0: 4c0a 6bbd 4ef3 2e3e 2310 16be fb67 39be
000000f0: 27e7 f7bd f623 83bc 3c4c 19bd 0296 123e
00000100: 9a0d c03d 18ed 043e ea62 f1bd cbc8 1f3c
00000110: ed63 9ebc c07a 2abc 49ca de3d bf32 2c3d
00000120: 3ff3 0ebd d09d 8cbd 1dca f03c 7222 083e
00000130: f7f8 1dbd 35a9 c93d 6ae8 1fbb 3fa3 933c
00000140: 1c8b 1bbd 6148 053d 3b19 f93b cf40 07be
00000150: c06d f2bd 2732 23be a2b1 a6bd c93d 493d
00000160: b45b 383d 1c33 bfbd 586f be3d a465 663e
00000170: 9381 c73d c3b3 433e ec11 afbc e7ae 48bc
00000180: 4a37 33bd 771d 6d3a 6c60 7dbd 7764 31be
00000190: 2b8f 9a3d fbe5 73bd 5bbc 813c 086c 47be
000001a0: 343d 7c3e 35e6 84be 939c 883d d40c 4b3d
000001b0: 2597 2a3e 3f8a d9bb a98b 02bd 3a72 e13d
000001c0: f08d 843d 0ab9 7ebd 33ec e9bc 59f1 15be
000001d0: b48a 14bc fb59 3bbe 3997 053e b45f 11bd
000001e0: d2f6 953d 25d4 b13c a2eb 80bc 4388 fabb
000001f0: 1658 84bd cb74 c73d 2a5e 32be 1bc8 3c3e
00000200: d583 e13c d8e0 983c d350 7fbe 8a73 34bc
00000210: d2b9 e0bd 3019 b33d 759e e03b 6237 663d
00000220: e11d 5ebd 2f78 fe3c dab5 83bc f102 0f3a
00000230: 2500 0fbe 9337 343e 351b 853c 2f50 49be
00000240: 3add 4dbc 0a67 cbbd e922 633d b401 ce3d
00000250: 241c 3c3d 7f16 593d d535 393e bc7c cf3d
00000260: 706a e13d 7559 253d 69d3 0ebe 2778 33bd
00000270: 41cc bd3c 1686 18be 4484 b53c 9183 6e3d
00000280: c65c 613d 21e7 963d 82fe d6bd eb87 0cbc
00000290: 8fa1 fdbb 426d 4c3d c3be f5bd e3dd 31bc
000002a0: 6a1c aebc afe4 1fbd 217c 6a3d d318 8bbc
000002b0: eac2 803d f492 c0bd 5e8e 78bd e5c3 d4bc
000002c0: c3ab 93bd 03e4 143e 161f 553d f423 4dbd
000002d0: 317b b03b 69bd 843d 84b7 8abd 336d 5ebd
000002e0: 722a 563e 643d acbd fede 083e 0593 853e
000002f0: 5119 9bbd 8d4d 8ebd b0ab c4bd eb89 4f3d
00000300: 0809 42bd 15b0 61bb c99c dc3c a716 263d
00000310: 65c4 033d 4156 a73c e5f2 84bb 3097 103d
00000320: 05e7 53be addd aabd 2d2c 74bd 7279 7b3c
00000330: 7e82 dc3d fe8e 62bd 98e0 4dbd 85cd b3bd
00000340: 8f2a 9dbd d677 683d 85e9 973d 878d 093d
00000350: 8d65 20bd 7d47 803c 0a9c b1bd 38ef 2abd
00000360: 2c44 5d3c 80f2 6e3b 004c cc3d 2e4a cebd
00000370: c7c7 423d 963b d3bd 987d e43d 77c0 923d
00000380: 840b f33d c61e 1f3e f765 d53d 797c e03c
00000390: d864 af3d 634f 503e 0b8d c4bd 2758 583d
000003a0: 6b93 4a3b 763f bf3b 5d26 1ebd ca6f 59be
000003b0: b627 193d e659 a13d 2188 2ebd fb70 b0bd
000003c0: 819c ccbd 452a 88bd c244 b43c 03f9 573c
000003d0: ab2c 2bbd 7334 9cbd 8258 2abc f6d9 073d
000003e0: ff9c 173e f94f 06be 267f bdbd 8447 303d
000003f0: 33cd 123e 048c 9d3d 9bad d73d 6dc5 ef3d

base.cnn.2.bias f4 [64]
0.012431188 -0.033281192 -0.007473991 -0.013549375 -0.046092324 0.030818446 -0.011502074 -0.005800099
0.012036036 -0.017848952 -0.06105638 0.0067768944 -0.04596888 -0.019214405 -0.00438273 0.022827452
-0.047303006 -0.030578725 -0.04003205 0.014123457 -0.014914405 -0.015973467 -0.025436401 -0.03248841
-0.0045470763 -0.005329889 0.026029253 -0.028233638 0.00971085 -0.032519348 0.037814315 -0.013219337
-0.016209824 0.0029100103 -0.059874587 -0.0034916054 0.006535557 -0.020274417 0.00060184236 -0.07621935
-0.015985882 -0.009313924 -0.066624194 -0.019477634 -0.0013487373 -0.07286114 0.010048534 -0.036525637
-0.007065363 -0.06692793 -0.004694053 0.0016045594 0.004354451 -0.059284743 -0.018650107 -0.021774605
-0.056810845 -0.01746833 -0.021315303 -0.05789753 -0.014426532 -0.014149051 -0.0189712 -0.06883498
00000000: 2eac 4b3c dc51 08bd 61e8 f4bb 33fe 5dbc
00000010: 4ecb 3cbd f776 fc3c 3273 3cbc c20e bebb
00000020: cb32 453c f737 92bc 4116 7abd b610 de3b
00000030: dd49 3cbd 8767 9dbc 019d 8fbb a300 bb3c
00000040: ccc0 41bd 3c80 fabc a6f8 23bd 1266 673c
00000050: 8c5b 74bc cada 82bc 0060 d0bc 9112 05bd
00000060: a4ff 94bb 59a6 aebb 4d3b d53c 3b4a e7bc
00000070: 421a 1f3c 0233 05bd 2fe3 1a3d eb95 58bc
00000080: 77ca 84bc dfb5 3e3b 0e3f 75bd 6bd3 64bb
00000090: 3a28 d63b 8916 a6bc f5c4 1d3a e418 9cbd
000000a0: d3f4 82bc 6e99 18bc 4472 88bd 8f8f 9fbc
000000b0: 1dc8 b0ba 3938 95bd 9ba2 243c e89b 15bd
000000c0: 9084 e7bb 8311 89bd 92d0 99bb 1450 d23a
000000d0: c8af 8e3b 8fd4 72bd 1cc8 98bc a860 b2bc
000000e0: 7db2 68bd be19 8fbc 6e9d aebc f625 6dbd
000000f0: 435d 6cbc 6cd1 67bc 7d69 9bbc 5bf9 8cbd

base.cnn.4.weight f4 [32, 64, 3, 3]
-0.1204351 0.07742822 -0.007020842 0.0562406 -0.04755513 -0.10320165 -0.07367523 0.031120094
-0.0985411 -0.086076565 0.013227688 0.05933521 0.10326638 -0.21404105 -0.05317381 -0.02949873
-0.10528275 -0.06062029 0.07328466 -0.03438147 -0.0057543907 -0.04898965 0.025068626 0.055570018
0.029831646 0.042140894 -0.04973164 -0.052594986 -0.042515315 -0.07245312 0.01942478 0.038463365
-0.07007614 -0.002263648 -0.025849324 -0.02325298 0.045689903 -0.15152912 0.17445442 0.09270067
-0.011834518 -0.01686115 -0.010599684 -0.16092497 -0.097371355 -0.03052549 -0.019306788 0.06888285
-0.07130378 -0.046364084 -0.11791501 0.064118326 0.010788164 -0.053698286 -0.08422057 0.1317986
0.065161556 -0.05159039 -0.09583336 -0.012469899 -0.050551735 0.031611547 -0.11039678 -0.085396186
-0.14608054 0.12873061 0.097925454 0.10518188 0.035228938 0.036859043 0.008760914 -0.18927482
-0.013862542 -0.054148592 -0.010710513 0.0005991949 -0.030365547 -0.10636789 -0.077689976 0.057508398
-0.04409393 0.016707957 0.06626322 0.027599815 -0.046898622 0.10529549 -0.07692848 -0.09575938
0.0023846035 -0.03983803 0.089643225 -0.01650824 -0.047918282 -0.12968968 0.027338644 0.06699532
0.12772754 -0.13636434 -0.033767466 0.036414847 -0.0025197174 -0.026229057 0.045617923 0.0058810744
-0.028971227 -0.06355532 0.11866895 -0.090431444 -0.16966347 0.043625932 0.05509204 0.03264389
-0.077076286 -0.08206026 0.0025800413 -0.09664921 -0.01760523 -0.11760378 -0.13057454 0.049337942
0.06995384 0.050649185 0.043371506 -0.0029262493 0.13298014 0.048261162 -0.060315136 -0.044848137
0.20706056 0.06229467 -0.02630649 -0.031648844 -0.015630657 -0.107165165 0.042385574 -0.19291326
-0.07683764 0.026022794 -0.00010935257 -0.23019347 0.022268232 -0.06826605 -0.093076825 -0.0046234857
0.08333886 0.024681732 0.03002778 -0.08898878 0.01676765 -0.06603585 -0.006825934 -0.12255061
0.0019159378 0.06375592 -0.0061906152 -0.015392746 0.015369189 -0.09007007 0.07059396 -0.07956717
-0.12770881 -0.05370869 -0.03316359 0.076095566 0.03720189 -0.01730494 -0.09860222 -0.02995712
-0.019485781 0.15393451 0.1581867 -0.002311129 0.12191142 0.0025652014 -0.04366442 0.116512604
0.09548567 -0.09956393 -0.03386138 0.08468891 -0.14614116 -0.22086287 -0.04085205 -0.078114904
0.08047066 -0.12449401 0.019497294 0.07189621 -0.13024758 -0.05439639 -0.02405633 -0.075951196
-0.08386319 0.08841939 -0.042636544 -0.06717252 0.016946057 -0.16785063 0.048410427 -0.08315412
0.0023291726 -0.02655995 0.03782055 0.066689126 -0.080048405 -0.048753142 0.064759836 0.016388541
-0.0014468769 -0.006658483 -0.071791194 0.17166892 -0.04565973 0.101412855 -0.033933327 -0.046784453
0.06694658 -0.09065627 0.06976152 0.010810069 -0.07300942 -0.18740883 0.015230546 -0.025671711
0.083013944 -0.0718413 -0.05013019 0.072904564 0.025101384 0.07706863 -0.13945062 -0.116162464
0.06679493 -0.033906665 -0.13430142 -0.11196149 0.04430753 -0.0678861 -0.043881223 -0.11133564
0.08163043 0.09963534 -0.041401055 -0.03378521 0.06338551 0.06230369 -0.09379066 -0.026724307
0.028190406 0.028976517 0.05759981 -0.1347197 -0.075112626 -0.06617848 -0.055811327 -0.07625739
00000000: ada6 f6bd b092 9e3d 170f e6bb 8b5c 663d
00000010: 2bc9 42bd 635b d3bd 0ae3 96bd 91ef fe3c
00000020: ebcf c9bd e948 b0bd f2b8 583c 7a09 733d
00000030: 537d d33d 942d 5bbe c8cc 59bd 52a7 f1bc
00000040: 7c9e d7bd fb4c 78bd 4516 963d 96d3 0cbd
00000050: 548f bcbb 5fa9 48bd b85c cd3c 639d 633d
00000060: 7f61 f43c ee9b 2c3d 67b3 4bbd d76d 57bd
00000070: 8a24 2ebd 4d62 94bd b720 9f3c c38b 1d3d
00000080: 1484 8fbd b659 14bb f6c1 d3bc 097d bebc
00000090: 5625 3b3d 732a 1bbe 2ea4 323e d9d9 bd3d
000000a0: 91e5 41bc 6520 8abc 4caa 2dbc 84c9 24be
000000b0: a26a c7bd 9810 fabc 4529 9ebc 7412 8d3d
000000c0: b707 92bd 44e8 3dbd 6d7d f1bd 7850 833d
000000d0: d7c0 303c bcf2 5bbd d67b acbd 36f6 063e
000000e0: 6c73 853d 7250 53bd 4844 c4bd 8c4e 4cbc
000000f0: 560f 4fbd 1c7b 013d b517 e2bd 32e4 aebd
00000100: 2396 15be f5d1 033e 248d c83d 9969 d73d
00000110: 384c 103d 82f9 163d f089 0f3c 42d1 41be
00000120: b71f 63bc eaca 5dbd 267b 2fbc 4a13 1d3a
00000130: 2bc1 f8bc 69d7 d9bd ec1b 9fbd ed8d 6b3d
00000140: d69b 34bd 20df 883c 03b5 873d 0219 e23c
00000150: c518 40bd 29a5 d73d ae8c 9dbd 7e1d c4bd
00000160: 0247 1c3b 342d 23bd de96 b73d 4a3c 87bc
00000170: f645 44bd 5fcd 04be 4bf5 df3c d834 893d
00000180: 02cb 023e 18a3 0bbe c14f 0abd bc27 153d
00000190: d821 25bb 52de d6bc dcd9 3a3d 07b6 c03b
000001a0: 1155 edbc 4b29 82bd b508 f33d 1f34 b9bd
000001b0: 43bc 2dbe 1bb1 323d 31a8 613d 99b5 053d
000001c0: 2cda 9dbd 360f a8bd e915 293b 05f0 c5bd
000001d0: d838 90bc 40da f0bd 55b5 05be 9516 4a3d
000001e0: f543 8f3d 8575 4f3d 52a6 313d 51c6 3fbb
000001f0: f22b 083e 7fad 453d 010d 77bd aeb2 37bd
00000200: af07 543e b228 7f3d b580 d7bc 38a2 01bd
00000210: dd0b 80bc 6979 dbbd 7f9c 2d3d 0e8b 45be
00000220: 0d5d 9dbd c12d d53c 3754 e5b8 d6b7 6bbe
00000230: de6b b63c 12cf 8bbd 109f bebd 9c80 97bb
00000240: 90ad aa3d 5831 ca3c d2fc f53c c03f b6bd
00000250: 505c 893c ce3d 87bd 16ac dfbb d0fb fabd
00000260: 3420 fb3a 7792 823d a5da cabb db31 7cbc
00000270: 0dcf 7b3c a876 b8bd 9193 903d 1df4 a2bd
00000280: 19c6 02be a5fd 5bbd 8bd6 07bd fed7 9b3d
00000290: 0261 183d 17c3 8dbc f6ef c9bd a268 f5bc
000002a0: a5a0 9fbc 02a1 1d3e b2fb 213e 4f76 17bb
000002b0: b2ac f93d f01c 283b 76d9 32bd 299e ee3d
000002c0: fe8d c33d 2ce8 cbbd 3bb2 0abd 6171 ad3d
000002d0: 07a6 15be e029 62be 7b54 27bd b5fa 9fbd
000002e0: cdcd a43d b7f6 febd cab8 9f3c 523e 933d
000002f0: 9f5f 05be c0ce 5ebd c811 c5bc 4d8c 9bbd
00000300: 77c0 abbd 3a15 b53d a8a3 2ebd bf91 89bd
00000310: 75d2 8a3c 09e1 2bbe 034a 463d b54c aabd
00000320: 08a5 183b 4194 d9bc b9e9 1a3d 4f94 883d
00000330: 6bf0 a3bd 60b1 47bd cea0 843d 4341 863c
00000340: 22a5 bdba 672f dabb 4307 93bd fac9 2f3e
00000350: b205 3bbd 8bb1 cf3d acfd 0abd 0ea1 3fbd
00000360: 4a1b 893d ffa9 b9bd 21df 8e3d b71c 313c
00000370: f685 95bd 1ae8 3fbe 8a89 793c 7b4d d2bc
00000380: 3703 aa3d 8821 93bd 5055 4dbd fd4e 953d
00000390: 6ba1 cd3c 28d6 9d3d 25cc 0ebe 96e6 edbd
000003a0: c8cb 883d b7e1 0abd 5086 09be 114c e5bd
000003b0: d07b 353d de07 8bbd ccbc 33bd f103 e4bd
000003c0: db2d a73d 9d0d cc3d 2794 29bd 5c62 0abd
000003d0: 43d0 813d 2732 7f3d 5115 c0bd efec dabc
000003e0: 91ef e63c 2960 ed3c c7ed 6b3d f6f3 09be
000003f0: a6d4 99bd 9588 87bd 6b9a 64bd d62c 9cbd

base.cnn.4.bias f4 [32]
-0.04599343 -0.040725507 -0.043067645 -0.012802039 -0.02829042 -0.027337778 -0.03472419 -0.042098787
-0.04916668 -0.025653785 -0.044079453 -0.013659185 -0.034246672 -0.03656735 -0.011233376 -0.010377131
-0.03299607 -0.011863139 -0.04366568 -0.03675352 -0.03369733 -0.03654056 -0.016162261 -0.007956024
-0.008448138 -0.033250026 -0.019985825 -0.0348183 -0.006255414 -0.007696397 -0.07948581 -0.04005926
00000000: 9b63 3cbd cacf 26bd b367 30bd a5bf 51bc
00000010: 50c1 e7bc 7af3 dfbc f43a 0ebd c76f 2cbd
00000020: 0063 49bd e327 d2bc a88c 34bd c6ca 5fbc
00000030: 3d46 0cbd a5c7 15bd 320c 38bc d804 2abc
00000040: e326 07bd 9d5d 42bc c9da 32bd dc8a 16bd
00000050: 3606 0abd 8eab 15bd b866 84bc fc59 02bc
00000060: 0f6a 0abc 2e31 08bd 50b9 a3bc a29d 0ebd
00000070: 37fa ccbb 0f32 fcbb 75c9 a2bd 2e15 24bd

base.cnn.7.weight f4 [64, 1728]
0.048899814 0.03578723 -0.007665239 -0.07878582 0.14504986 -0.071530126 0.0538922 0.12248877
0.031228937 -0.047794584 -0.08666208 0.056595672 -0.07752869 0.11168325 0.02934916 -0.06556591
-0.06338446 -0.027112564 -0.14032818 -0.019727102 0.08193858 0.03869641 -0.076785825 0.11476868
-0.018036429 0.11502115 0.0518163 -0.13482858 -0.02371718 0.025309207 0.14615022 0.07266694
-0.0017115114 0.05898912 0.017398799 -0.09261193 -0.07299423 -0.15908416 -0.007682248 0.020063518
-0.02865547 0.08496694 0.0050214045 -0.018932454 -0.077661924 0.029739484 -0.15088877 -0.12339224
-0.10964563 0.0071755094 -0.036465082 0.034323175 0.083070524 0.12801588 -0.0077605164 0.09118814
-0.01775127 0.08158555 0.0038422334 0.03282882 0.019672386 -0.03188279 -0.05028072 0.028735397
-0.19828942 0.035556175 -0.052125163 0.008753728 0.01708921 0.17397103 -0.0788533 0.042839624
0.0005524151 0.16060871 0.024302268 -0.03202418 0.017149616 0.049604684 0.0007860889 0.0635996
-0.055867847 0.021256218 0.09248171 -0.13040955 -0.06738624 -0.028909694 -0.009203488 -0.13300413
0.045445655 -0.058450703 -0.030955926 -0.0076367157 0.039078727 0.084777564 -0.14903079 0.1147892
-0.018475054 -0.012224604 0.004594131 0.033193294 0.013305831 -0.010941718 0.050881572 0.07621823
-0.05056198 -0.0057137744 -0.03803566 0.049240816 -0.058856 0.0060962383 0.0709702 -0.0015898251
-0.01110209 -0.04644947 -0.013425457 0.0036275093 -0.11593054 0.03499106 0.08001694 0.0072556236
0.00484481 -0.016039545 0.09553271 0.21995957 -0.045906615 0.06163451 0.027773047 0.027585726
-0.007152616 0.018988304 0.091227666 0.14103504 0.10198188 0.024885552 0.008703721 0.028112058
0.08717778 -0.046099458 0.03665677 -0.048221886 0.054084998 -0.09207464 -0.19485271 0.025008427
-0.054442275 -0.052839763 -0.053777628 -0.0049199886 0.123495355 0.07784979 0.0071630124 -0.0008201715
-0.023616057 0.047383673 0.044259407 -0.12733902 -0.07786997 -0.003849829 -0.1177627 -0.07275934
0.04429349 0.036114298 -0.0082064215 -0.077269174 0.16763577 0.0960401 -0.1442249 0.13827996
-0.04593623 -0.1287754 -0.10509414 -0.0021174895 0.0851173 0.035925265 -0.031503323 -0.10455834
-0.0049503897 -0.07598304 0.011895616 -0.0061906376 0.008587985 -0.13952544 -0.026964422 0.056863964
0.007328291 0.08473119 0.02556292 0.07495832 0.042546563 0.17998746 0.054071132 0.023777073
0.026536966 -0.007414022 -0.15755646 0.05233913 -0.042728636 -0.026194723 -0.045871 0.006342137
-0.20396073 0.10010302 0.10118763 0.023952885 -0.00258962 0.044278115 -0.21213272 -0.005953128
-0.094899386 -0.015728079 0.0033870144 -0.021281725 -0.048583712 0.069329694 0.027998732 -0.037352003
-0.09158951 -0.13920535 -0.0839056 -0.09683503 0.17037298 0.054527443 0.021226173 0.058444038
-0.20544139 -0.07595023 -0.15252236 -0.08876891 -0.037206687 0.049089145 -0.006314045 -0.04462067
0.003093676 0.0090787355 0.019278575 -0.05359848 0.05418943 0.07532614 -0.17413022 0.049697023
-0.03544974 0.05754071 0.001060538 -0.13104196 -0.054433882 0.06424142 -0.12734562 -0.004230278
-0.071219146 -0.012750738 0.0057951766 0.052101668 -0.010431073 -0.091102146 -0.09090726 -0.059966844
00000000: 2c4b 483d a195 123d af2c fbbb 765a a1bd
00000010: f387 143e 637e 92bd 11be 5c3d 64db fa3d
00000020: d4d3 ff3c 41c4 43bd e37b b1bd ddd0 673d
00000030: 5dc7 9ebd 30ba e43d a66d f03c 6b47 86bd
00000040: b6cf 81bd 2b1b debc 31b2 0fbe bb9a a1bc
00000050: 6acf a73d 2080 1e3d e341 9dbd d70b eb3d
00000060: 22c1 93bc 3590 eb3d 543d 543d 8110 0abe
00000070: 884a c2bc 4155 cf3c 67a8 153e 68d2 943d
00000080: cb54 e0ba 939e 713d ed87 8e3c 53ab bdbd
00000090: 007e 95bd f5e6 22be 5ebb fbbb 3f5c a43c
000000a0: e0be eabc 2603 ae3d 988a a43b 3c18 9bbc
000000b0: 370d 9fbd 38a0 f33c 9682 1abe 12b5 fcbd
000000c0: e38d e0bd 8920 eb3b 695c 15bd 7596 0c3d
000000d0: e120 aa3d 9816 033e ee4b febb d9c0 ba3d
000000e0: 1d6b 91bc 5316 a73d fbcd 7b3b 8377 063d
000000f0: fc27 a13c 8797 02bd 28f3 4dbd 7f66 eb3c
00000100: 620c 4bbe 5aa3 113d 3281 55bd cc6b 0f3c
00000110: acfe 8b3c 7625 323e d77d a1bd 9a78 2f3d
00000120: f3cf 103a 9c76 243e 8d15 c73c c92b 03bd
00000130: 5a7d 8c3c 482e 4b3d 8811 4e3a 8240 823d
00000140: afd5 64bd 8521 ae3c 0d67 bd3d 158a 05be
00000150: cc01 8abd 06d4 ecbc 3aca 16bc 3c32 08be
00000160: 3925 3a3d 016a 6fbd 4897 fdbc 6a3d fabb
00000170: 0411 203d dc9f ad3d 879b 18be 9a16 eb3d
00000180: ff58 97bc b549 48bc 5d8a 963b b1f5 073d
00000190: b300 5a3c e444 33bc 3269 503d 4e18 9c3d
000001a0: 141a 4fbd 9d3a bbbb 48cb 1bbd bdb0 493d
000001b0: fd12 71bd f4c2 c73b d358 913d ae61 d0ba
000001c0: 8ae5 35bc cd41 3ebd 73f6 5bbc 82bb 6d3b
000001d0: fe6c edbd c952 0f3d ecdf a33d 95c0 ed3b
000001e0: 36c1 9e3b 5d65 83bc a7a6 c33d 153d 613e
000001f0: 9308 3cbd 7874 7c3d 4d84 e33c 76fb e13c
00000200: 7e60 eabb 5c8d 9b3c 92d5 ba3d 7d6b 103e
00000210: e0db d03d c9dc cb3c 0d9a 0e3c 424b e63c
00000220: 448a b23d c9d2 3cbd 6925 163d 5084 45bd
00000230: 3b88 5d3d a191 bcbd 7887 47be 79de cc3c
00000240: ddfe 5ebd 826e 58bd ee45 5cbd db37 a1bb
00000250: 22eb fc3d b66f 9f3d b4b7 ea3b c700 57ba
00000260: 7676 c1bc 6215 423d 5a49 353d 2965 02be
00000270: 4a7a 9fbd 6a4d 7cbb 922d f1bd d902 95bd
00000280: 176d 353d 96ec 133d 3a74 06bc 4d3f 9ebd
00000290: b6a8 2b3e acb0 c43d b1af 13be 4399 0d3e
000002a0: a127 3cbd b3dd 03be 993b d7bd 94c5 0abb
000002b0: fb51 ae3d 5f26 133d a109 01bd af22 d6bd
000002c0: e136 a2bb ff9c 9bbd d4e5 423c d5da cabb
000002d0: 9fb4 0c3c c2df 0ebe 7ee4 dcbc 30ea 683d
000002e0: 2922 f03b 8c87 ad3d 5469 d13c bf83 993d
000002f0: 4e45 2e3d a24e 383e b179 5d3d 23c8 c23c
00000300: 0d64 d93c 53f1 f2bb 7b56 21be 8e61 563d
00000310: 3904 2fbd 5196 d6bc 3be3 3bbd b4d1 cf3b
00000320: 15db 50be d002 cd3d 763b cf3d d738 c43c
00000330: 9db6 29bb f85c 353d 5239 59be 7512 c3bb
00000340: 9c5a c2bd 2cd8 80bc acf8 5d3b 0357 aebc
00000350: b7ff 46bd bafc 8d3d 995d e53c 6afe 18bd
00000360: 4893 bbbd d98b 0ebe b3d6 abbd 7251 c6bd
00000370: 4176 2e3e 2b58 5f3d 83e2 ad3c 0463 6f3d
00000380: 3a5f 52be cb8b 9bbd d22e 1cbe 79cc b5bd
00000390: 0a66 18bd b311 493d 0ce6 cebb 2ac4 36bd
000003a0: 45bf 4a3b fabe 143c 1aee 9d3c 148a 5bbd
000003b0: bcf5 5d3d 9744 9a3d 314f 32be 1b8f 4b3d
000003c0: bf33 11bd cfaf 6b3d c001 8b3a dd2f 06be
000003d0: 10f6 5ebd 0191 833d e466 02be 259e 8abb
000003e0: 58db 91bd 79e8 50bc 77e5 bd3b 8f68 553d
000003f0: 17e7 2abc c393 babd 962d babd cb9f 75bd

base.cnn.7.bias f4 [64]
-0.01889686 0.00506309 -0.0023956578 -0.038235094 -0.015223166 -0.04677651 -0.07949259 -0.017405633
-0.064792864 -0.05921575 -0.022339052 -0.04591855 -0.02912709 -0.03161679 -0.064006306 -0.06924856
-0.03182962 0.013637446 -0.017005472 -0.0094277235 -0.03569972 0.0007303351 -0.024078337 -0.025880247
-0.0325398 -0.046472315 -0.09482091 -0.013917201 0.023601884 -0.021012375 -0.00043163143 -0.03969376
-0.011580794 -0.026087273 -0.031257153 -0.0027256932 -0.0394764 -0.024913806 -0.0018274962 -0.0340582
-0.039297 -0.024568807 -0.070425116 -0.061690383 0.0013177594 -0.008558536 -0.021550898 -0.038896643
-0.00977473 -0.0059597953 -0.023315653 -0.031790998 -0.024791082 0.008962665 -0.05851658 -0.035089456
-0.06540365 0.007924078 0.01853069 -0.0032798622 -0.03681492 -0.002914915 -0.029187668 -0.030799225
00000000: 96cd 9abc 47e8 a53b 7800 1dbb 679c 1cbd
00000010: 966a 79bc ba98 3fbd 03cd a2bd 4296 8ebc
00000020: 1fb2 84bd 378c 72bd 6300 b7bc 1715 3cbd
00000030: ef9b eebc 9b80 01bd bd15 83bd 30d2 8dbd
00000040: c75f 02bd 986f 5f3c 0f4f 8bbc bd76 1abc
00000050: df39 12bd f573 3f3a ef3f c5bc d002 d4bc
00000060: 7448 05bd c159 3ebd 7731 c2bd f904 64bc
00000070: bd58 c13c 2522 acbc 974c e2b9 ed95 22bd
00000080: 5fbd 3dbc fab4 d5bc 8007 00bd 8ba1 32bb
00000090: 01b2 21bd 0a18 ccbc 9988 efba 9c80 0bbd
000000a0: e4f5 20bd 8644 c9bc 0b3b 90bd 0eaf 7cbd
000000b0: abb8 ac3a 1a39 0cbc 828b b0bc 1652 1fbd
000000c0: 3026 20bc 634a c3bb 7800 bfbc 4737 02bd
000000d0: ab16 cbbc 24d8 123c 15af 6fbd f6b9 0fbd
000000e0: 59f2 85bd fed3 013c accd 973c f5f2 56bb
000000f0: 3ecb 16bd 2908 3fbb fa1a efbc a84e fcbc

base.cnn.9.weight f4 [64]
0.97982955 1.020691 0.9909009 1.005411 1.0410731 0.97326213 1.0161017 1.0985621
0.9905951 1.0402433 1.14874 0.99889207 1.0806379 1.0924709 1.0628061 1.0351914
1.0597345 0.9491812 0.9987978 0.94272184 1.0173892 0.9716556 1.0014162 1.0140468
1.0527612 0.9654635 0.9624658 1.0013119 0.9324843 0.93239355 0.990588 1.0341017
1.0678822 0.9952161 0.91951734 1.0426071 0.99359405 1.1059208 1.0230676 1.0022806
0.97075224 1.0405645 1.0446849 1.0025252 0.9980953 1.0374752 0.9552435 1.0300425
1.0216367 1.054468 0.9613124 0.9470189 1.1426896 1.0773789 1.0138285 0.9005959
1.0316029 0.9465551 1.0005596 1.05572 0.982423 1.069006 1.0363845 0.9913069
00000000: 1cd6 7a3f 01a6 823f aeab 7d3f 4fb1 803f
00000010: e241 853f b527 793f 9f0f 823f af9d 8c3f
00000020: a497 7d3f b126 853f ea09 933f 64b7 7f3f
00000030: 5852 8a3f 16d6 8b3f 080a 883f 2781 843f
00000040: 61a5 873f 8afd 723f 36b1 7f3f 3856 713f
00000050: cf39 823f 6cbe 783f 682e 803f 49cc 813f
00000060: e1c0 863f 9e28 773f 2964 763f fd2a 803f
00000070: 4bb7 6e3f 58b1 6e3f 2d97 7d3f 725d 843f
00000080: 5db0 883f 7bc6 7e3f 7d65 6b3f 2674 853f
00000090: 2e5c 7e3f d08e 8d3f e1f3 823f bb4a 803f
000000a0: 3883 783f 3831 853f 3cb8 853f bf52 803f
000000b0: 2c83 7f3f fdcb 843f d78a 743f 6fd8 833f
000000c0: fec4 823f cff8 863f 9218 763f d56f 723f
000000d0: a743 923f 8de7 893f 22c5 813f 748d 663f
000000e0: 900b 843f 6f51 723f 5612 803f d521 873f
000000f0: 1380 7b3f 30d5 883f 3fa8 843f 4ac6 7d3f

base.cnn.9.bias f4 [64]
-0.060712248 -0.106277555 0.032410517 0.023848906 -0.008247234 -0.0005812784 0.040156115 -0.00868216
0.023178022 -0.05921193 -0.11490565 -0.0040435633 0.046587914 -0.00589298 0.04935688 -0.043794207
0.0024578637 0.06617827 0.064769834 0.1499043 -0.0347174 0.005649404 0.0062132156 0.078643925
0.0024841402 0.02726781 0.0668098 -0.028695017 0.0018423228 -0.06882318 0.030357998 0.08582295
-0.026396573 -0.010042403 0.013216695 0.004238564 0.024173899 -0.114930145 -0.05290891 -0.023961904
0.026238862 -0.0010708942 -0.013266924 -0.03537446 0.05943379 -0.04376736 0.0781719 0.05601486
0.066172175 0.08887717 0.07866334 -0.004362097 -0.048845448 -0.086952865 0.0101569975 0.027351737
-0.022622647 0.0632356 0.05056707 0.03194425 -0.018665219 -0.09544832 -0.003011133 0.050719567
00000000: 68ad 78bd 0ca8 d9bd e4c0 043d c85e c33c
00000010: 681f 07bc ef60 18ba bd7a 243d 9e3f 0ebc
00000020: d6df bd3c 3588 72bd a753 ebbd de7f 84bb
00000030: f8d2 3e3d e619 c1bb 712a 4a3d 8e61 33bd
00000040: 1c14 213b 7988 873d 0ca6 843d 8380 193e
00000050: d533 0ebd a31e b93b 3b98 cb3b 1110 a13d
00000060: f5cc 223b be60 df3c 94d3 883d d011 ebbc
00000070: 187a f13a 2bf3 8cbd 56b1 f83c f1c3 af3d
00000080: a03d d8bc e488 24bc d68a 583c a7e3 8a3b
00000090: 5708 c63c 7f60 ebbd 03b7 58bd c14b c4bc
000000a0: e2f2 d63c 3f5d 8cba 835d 59bc cfe4 10bd
000000b0: d970 733d 6745 33bd 9718 a03d d66f 653d
000000c0: 4785 873d 3c05 b63d 3f1a a13d ecef 8ebb
000000d0: 2a12 48bd 5814 b2bd 8969 263c c010 e03c
000000e0: 2153 b9bc ab81 813d 6a1f 4f3d f9d7 023d
000000f0: cde7 98bc 697a c3bd 6e56 45bb 52bf 4f3d

base.cnn.10.weight f4 [64, 64]
-0.14780764 0.34023818 -0.24421518 -0.11885094 0.32327744 -0.18320186 0.11718125 0.14911333
0.017742202 -0.18043593 -0.18314493 0.053202894 0.22015427 -0.45680377 0.10875333 -0.22477518
-0.12346305 0.1963228 0.15419224 -0.3539414 0.13504124 -0.249403 0.07014633 0.15882523
0.18355832 -0.12111643 -0.14287822 -0.12542494 -0.051523697 0.044969745 -0.14168127 0.2640901
0.2650236 0.023394411 -0.011105954 -0.14627457 0.09915499 0.015793892 0.054055203 -0.12777364
0.0153979 0.20853862 -0.48613462 0.425827 -0.27643642 0.17494564 -0.28391507 -0.1776896
0.11615414 -0.05664414 -0.24468616 0.17958201 0.029828597 -0.14798354 -0.24507412 0.07642035
-0.08648533 -0.18785009 0.04444997 -0.03076595 0.10914021 -0.19535106 0.25399008 -0.09911635
-0.1837439 0.013975314 -0.08104043 0.045304317 0.02999884 -0.012557251 -0.3502704 0.20291284
-0.18413973 -0.06922819 -0.4266938 -0.015389024 -0.19015588 0.07303724 -0.12240789 0.11048537
-0.006609424 0.13614489 -0.12280173 0.048839625 0.018004224 0.1104912 -0.0012382041 -0.09406918
0.2315204 -0.06497911 0.14302084 0.020640176 0.16794844 -0.15904231 -0.27309337 -0.22474658
0.2145037 0.1941159 0.2749563 0.0008877642 0.049370874 -0.18135417 0.12797052 0.22072037
0.018069116 -0.17392807 0.24032056 0.017969782 0.18863831 -0.08879168 -0.004279705 0.17014447
0.079686575 -0.14073795 -0.020311184 0.12080782 0.39501816 0.15358108 -0.4845153 -0.31489137
-0.001685147 -0.1924852 -0.05147681 -0.034243945 0.008282359 0.16363335 -0.20349307 0.0133268135
-0.13306373 0.0055479645 -0.27214807 0.10454389 0.03229285 0.30723333 -0.17320445 -0.009810197
-0.05370093 0.17975144 0.14916985 -0.018005354 -0.026850808 0.059609294 0.0745235 -0.0135159455
-0.09412262 0.07207276 0.29434556 -0.057140924 0.11155537 -0.55905974 -0.028986506 -0.4294039
-0.20057319 -0.06635997 -0.066516675 -0.15897863 0.3160904 0.20010151 -0.039485004 0.01629035
-0.016185416 -0.16428858 0.1167761 0.057759076 -0.07277605 0.05630454 0.03579261 0.13433099
-0.25377122 0.06694877 0.26823434 -0.030327387 0.06854478 -0.29202476 -0.076547846 0.64149255
-0.26712063 -0.122817196 -0.25620216 0.09004474 0.3592396 0.24384463 0.02689088 0.36923906
0.28986067 -0.25144336 0.3275513 -0.3078514 0.36182034 0.11380975 -0.045937724 0.18498406
0.20330702 0.1635139 -0.24286106 0.10508628 -0.15285051 -0.031250425 0.16058265 0.47580802
0.21596488 -0.27316514 0.15520516 -0.052732963 0.08477781 0.5029511 0.124849536 -0.04155284
0.071459346 -0.1299657 0.116361596 -0.046664946 0.15587337 0.029357227 0.21584754 0.0413647
-0.2357885 0.29194692 -0.3824675 0.003783532 0.055566594 0.010475257 0.24279307 -0.29059276
0.37983257 0.013605594 -0.22155857 0.38657942 0.21447945 0.05028476 -0.39247823 -0.09818826
-0.10930266 -0.07251337 -0.08343092 0.082231745 0.14049534 -0.06589683 0.20505622 -0.17746684
0.2718366 0.12771004 -0.040647198 0.034976944 0.19707742 -0.14271674 0.14195749 0.059482187
-0.313391 0.014927883 -0.053698454 -0.17403187 -0.118770376 -0.15582864 0.08818914 0.15211168
00000000: e35a 17be b333 ae3e 8b13 7abe 1f68 f3bd
00000010: 9f84 a53e 4599 3bbe b9fc ef3d 2ab1 183e
00000020: 1858 913c 32c4 38be 588a 3bbe 47eb 593d
00000030: 1f70 613e 2fe2 e9be 11ba de3d 772b 66be
00000040: 32da fcbd d808 493e 92e4 1d3e cf37 b5be
00000050: 4048 0a3e 8063 7fbe e1a8 8f3d 15a3 223e
00000060: b6f6 3b3e e40b f8bd ab4e 12be 656f 00be
00000070: 830a 53bd 3232 383d e514 11be d136 873e
00000080: 2cb1 873e a3a5 bf3c bff5 35bc 00c9 15be
00000090: c511 cb3d 3162 813c fd68 5d3d 18d7 02be
000000a0: 7947 7c3c 268b 553e a3e6 f8be ff05 da3e
000000b0: 1389 8dbe f324 333e 515d 91be 43f4 35be
000000c0: 39e2 ed3d b003 68bd 028f 7abe 59e4 373e
000000d0: 1a5b f43c ff88 17be b6f4 7abe 4682 9c3d
000000e0: 381f b1bd c65b 40be 2c11 363d e008 fcbc
000000f0: e784 df3d 1c0a 48be fd0a 823e 83fd cabd
00000100: 5c27 3cbe b7f8 643c 86f8 a5bd 0591 393d
00000110: 21c0 f53c eebc 4dbc a456 b3be 62c8 4f3e
00000120: 208f 3cbe 82c7 8dbd 9c77 dabe 3f22 7cbc
00000130: 39b8 42be 8c94 953d fdb0 fabd 2746 e23d
00000140: de93 d8bb 9169 0b3e 797f fbbd 0f0c 483d
00000150: 987d 933c 3649 e23d 3c4b a2ba 58a7 c0bd
00000160: af13 6d3e c513 85bd 0e74 123e 9615 a93c
00000170: adfa 2b3e fddb 22be e5d2 8bbe f823 66be
00000180: dca6 5b3e 52c6 463e 12c7 8c3e d9b8 683a
00000190: 1d39 4a3d e8b4 39be b40a 033e 8504 623e
000001a0: af05 943c 331a 32be 9816 763e 5d35 933c
000001b0: 672a 413e 6ad8 b5bd c53c 8cbb 5a3a 2e3e
000001c0: b732 a33d 9c1d 10be a463 a6bc 176a f73d
000001d0: d23f ca3e 5c44 1d3e 6412 f8be 7139 a1be
000001e0: 27e0 dcba d71a 45be 59d9 52bd 6143 0cbd
000001f0: bbb2 073c 808f 273e 7d60 50be b558 5a3c
00000200: dc41 08be b3cb b53b fe56 8bbe 1b1b d63d
00000210: 8245 043d b04d 9d3e 825c 31be f3ba 20bc
00000220: 82f5 5bbd c310 383e fbbf 183e f77f 93bc
00000230: 3af6 dbbc e028 743d c79f 983d fc71 5dbc
00000240: 5cc3 c0bd e29a 933d 76b4 963e 9a0c 6abd
00000250: 2477 e43d 8a1e 0fbf 1c75 edbc d4da dbbe
00000260: 0f63 4dbe bce7 87bd e539 88bd 4bcb 22be
00000270: 9ad6 a13e 69e7 4c3e 07bb 21bd 5773 853c
00000280: 4797 84bc 443b 28be 4f28 ef3d c894 6c3d
00000290: 9c0b 95bd 979f 663d 469b 123d 108e 093e
000002a0: 4dee 81be 701c 893d 0356 893e 2471 f8bc
000002b0: 3561 8c3d 4584 95be 1ec5 9cbd db38 243f
000002c0: 09c4 88be 9587 fbbd ee2c 83be 6069 b83d
000002d0: 41ee b73e 68b2 793e 434a dc3c e70c bd3e
000002e0: 9e68 943e 2fbd 80be ceb4 a73e b39e 9dbe
000002f0: 8440 b93e 1615 e93d 3229 3cbd 766c 3d3e
00000300: b72f 503e 3070 273e 92b0 78be 7a37 d73d
00000310: d884 1cbe 7200 00bd c76f 243e 1c9d f33e
00000320: e625 5d3e 4ddc 8bbe 1aee 1e3e 85fe 57bd
00000330: fd9f ad3d 67c1 003f 1db1 ff3d 5033 2abd
00000340: 4759 923d ba15 05be fd4e ee3d be23 3fbd
00000350: 459d 1f3e 917e f03c 2307 5d3e 086e 293d
00000360: 8a72 71be 117a 953e c8d2 c3be 22f5 773b
00000370: cc99 633d 6aa0 2b3c bf9e 783e 93c8 94be
00000380: 6a79 c23e ffe9 5e3c 40e0 62be bded c53e
00000390: 80a0 5b3e 64f7 4d3d e8f2 c8be ed16 c9bd
000003a0: 13da dfbd e481 94bd d5dd aabd 1e69 a83d
000003b0: 03de 0f3e ebf4 86bd 42fa 513e deb9 35be
000003c0: 2b2e 8b3e 6cc6 023e ad7d 26bd fc43 0f3d
000003d0: aace 493e 5624 12be 4e5d 113e 98a3 733d
000003e0: c974 a0be 1494 743c e9f2 5bbd 6935 32be
000003f0: e23d f3bd 8b91 1fbe 829c b43d 2ac3 1b3e

base.cnn.10.bias f4 [64]
-0.03482195 -0.103772864 -0.09946755 -0.007465161 -0.09701614 -0.08124292 -0.090408854 -0.005589996
-0.035436932 -0.026630921 -0.060169753 -0.052525185 -0.009844086 -0.064197056 -0.08751199 -0.05005404
-0.04423576 -0.04408007 -0.031626742 -0.008497476 -0.04481478 -0.16469757 -0.019102292 -0.1646955
0.0039077285 -0.058394887 -0.06471262 0.013252932 0.012663436 -0.086569756 0.001079011 -0.029568726
-0.11414612 -0.070255704 0.008957941 -0.052625824 -0.07015532 -0.04658747 0.06206325 -0.04040718
-0.07244657 -0.05233648 -0.004824464 -0.04729059 -0.16551091 -0.010679342 0.0047627883 0.02652108
0.055411678 -0.012308142 -0.013432176 0.090325974 0.039104167 -0.019935315 0.054087266 -0.06534398
-0.01945587 -0.060307957 -0.05770441 -0.022515599 0.002532183 -0.025828298 -0.031700287 0.0021171921
00000000: 76a1 0ebd de86 d4bd a5b5 cbbd 4f9e f4bb
00000010: 66b0 c6bd b062 a6bd 4728 b9bd 492c b7bb
00000020: 5126 11bd 1729 dabc 8f74 76bd a624 57bd
00000030: 1749 21bc bf79 83bd 7c39 b3bd 7705 4dbd
00000040: 8e30 35bd 4e8d 34bd 0b8b 01bd ff38 0bbc
00000050: b48f 37bd 7ba6 28be 697c 9cbc f0a5 28be
00000060: 670c 803b 7a2f 6fbd 0d88 84bd d322 593c
00000070: 4d7a 4f3c 7c4b b1bd 9a6d 8d3a 1d3a f2bc
00000080: 71c5 e9bd 39e2 8fbd 54c4 123c 2d8e 57bd
00000090: 98ad 8fbd 81d2 3ebd 0936 7e3d 0082 25bd
000000a0: de5e 94bd c75e 56bd 8a16 9ebb c7b3 41bd
000000b0: b17b 29be 68f8 2ebc 2a11 9c3b bc42 d93c
000000c0: 5bf7 623d 17a8 49bc a112 5cbc d3fc b83d
000000d0: b12b 203d 634f a3bc 9c8a 5d3d 11d3 85bd
000000e0: eb61 9fbc 7a05 77bd 765b 6cbd a272 b8bc
000000f0: fbf2 253b de95 d3bc 29d8 01bd 97c0 0a3b

base.cnn.12.weight f4 [64]
1.0225558 0.7886007 1.1745116 1.0040011 0.93050134 1.0391467 1.1230568 0.83532435
1.0390683 0.9267013 1.1070312 1.0625513 1.0289586 1.0315486 0.9820982 1.0308211
0.9721031 0.8834301 0.97588617 1.0600877 0.9891012 1.0833845 1.0018178 1.0959455
0.9801821 0.9579619 1.0414264 1.0355966 0.95901406 0.9996321 0.9696749 1.0545079
0.934548 0.9546158 0.86564314 1.0046198 1.0155053 1.1077046 0.9311569 1.1242955
1.0270033 0.94788283 1.0007145 1.0062722 1.0803059 0.99697644 0.96134955 1.0238953
1.0537522 1.0269362 0.96931183 1.0206234 1.130466 1.000329 1.0070626 0.9980457
1.1150017 1.067318 0.98715043 1.0250515 1.103479 0.98775774 1.0054785 0.96287745
00000000: 1ce3 823f bce1 493f 6556 963f 1c83 803f
00000010: 5635 6e3f c202 853f 53c0 8f3f d1d7 553f
00000020: 3100 853f 4c3c 6d3f 33b3 8d3f ae01 883f
00000030: eab4 833f c909 843f ca6a 7b3f f2f1 833f
00000040: c0db 783f 7a28 623f add3 793f f4b0 873f
00000050: bc35 7d3f 58ac 8a3f 913b 803f f147 8c3f
00000060: 37ed 7a3f fe3c 753f 764d 853f 6e8e 843f
00000070: f281 753f e4e7 7f3f 9d3c 783f 1dfa 863f
00000080: 8a3e 6f3f b361 743f ca9a 5d3f 6297 803f
00000090: 14fc 813f 44c9 8d3f 4c60 6e3f eae8 8f3f
000000a0: d874 833f 73a8 723f 6a17 803f 87cd 803f
000000b0: 7747 8a3f d939 7f3f 011b 763f 000f 833f
000000c0: 5ae1 863f a572 833f d224 783f caa3 823f
000000d0: 1cb3 903f c80a 803f 6de7 803f ec7f 7f3f
000000e0: 60b8 8e3f e09d 883f e4b5 7c3f e334 833f
000000f0: cd3e 8d3f b1dd 7c3f 85b3 803f 237f 763f

base.cnn.12.bias f4 [64]
0.03828102 -0.12512113 -0.09244079 0.030715223 -0.0041369456 -0.006155776 -0.11330073 -0.08171868
0.045859843 0.016882574 -0.10028304 -0.03367893 0.005753189 -0.01818097 -0.039473675 -0.064723894
-0.018121941 -0.020493345 -0.04372474 0.09568552 0.054928783 -0.1087454 0.021891842 -0.1274204
0.00643119 -0.047518708 0.0023610697 -0.080947414 -0.025918871 -0.04192421 -0.10422632 -0.045171678
0.013431341 -0.0055721854 0.030587815 0.011698071 0.0015596696 -0.07407679 0.17435175 0.03223348
-0.014573771 0.016826723 0.033231426 0.070047416 0.01909755 0.024455365 0.07608902 -0.050094474
0.0466185 -0.051864732 -0.019589521 0.17349677 -0.0032463532 -0.037254434 -0.057097726 0.046748027
-0.018383255 -0.09308636 -0.09616189 -0.030711576 -0.03991471 0.06921898 -0.029304432 0.05374892
00000000: 8fcc 1c3d c11f 00be 9951 bdbd 7e9e fb3c
00000010: 378f 87bb 64b6 c9bb 370a e8bd 205c a7bd
00000020: 88d7 3b3d 534d 8a3c 3261 cdbd ebf2 09bd
00000030: 3f85 bc3b 42f0 94bc 26af 21bd f68d 84bd
00000040: 7774 94bc a9e1 a7bc b718 33bd c5f6 c33d
00000050: 01fd 603d e9b5 debd 8556 b33c 7e7a 02be
00000060: bbbc d23b faa2 42bd 2dbc 1a3b c2c7 a5bd
00000070: d053 d4bc b8b8 2bbd 9c74 d5bd f005 39bd
00000080: 210f 5c3c e196 b6bb 4c93 fa3c 44a9 3f3c
00000090: d46d cc3a 92b5 97bd 4489 323e 4107 043d
000000a0: d3c6 6ebc 32d8 893c ad1d 083d 0575 8f3d
000000b0: 7772 9c3c 9e56 c83c 8fd4 9b3d dd2f 4dbd
000000c0: 0af3 3e3d 1d70 54bd 347a a0bc 23a9 313e
000000d0: c5c0 54bb 1b98 18bd 4edf 69bd dc7a 3f3d
000000e0: 7b98 96bc 10a4 bebd 86f0 c4bd d896 fbbc
000000f0: 9b7d 23bd aec2 8d3d d90f f0bc d427 5c3d

base.cnn.13.weight f4 [64, 64]
0.22818725 0.29113594 0.2175372 -0.1912554 0.1666574 -0.13472939 0.1747247 -0.09223189
0.22744258 -0.14376192 0.054060005 -0.28605244 -0.133368 -0.26588804 0.2588159 -0.32699388
-0.26191607 0.119352736 -0.4538242 0.08396759 0.15198946 0.07080216 0.11776849 0.5312993
0.071814366 -0.25563225 0.11834351 0.093728185 -0.21448284 0.1459156 0.07294144 -0.46213567
0.19247171 -0.004007046 -0.1287191 -0.11898042 0.1932257 0.04304982 0.14144577 0.14915286
0.20979454 0.3462257 0.20230578 -0.27500927 0.021373792 -0.009303506 0.04898738 0.49872863
-0.38391384 -0.21027203 -0.09572182 -0.3520061 0.02280929 -0.12585741 0.09577053 -0.09666771
0.07513133 0.049982283 0.082683295 0.029884696 0.31556854 -0.18007895 0.0857918 -0.30993083
0.32148895 -0.18184498 0.09171997 -0.14984433 -0.17216259 0.12160284 0.035805956 0.20702747
0.17265064 -0.060026374 0.03257165 0.22538176 -0.030863106 0.27397925 0.019271135 0.17867209
-0.20059589 -0.1846772 -0.0072237053 -0.09456269 -0.5276913 -0.21487963 0.08021987 0.0032152755
0.184774 -0.07021277 0.042408895 0.051715225 -0.11535492 0.29512727 -0.07675058 0.039916437
0.152962 0.10384056 -0.21609227 0.029312061 0.16426018 -0.18809344 -0.08505834 -0.17190973
-0.029496573 -0.18592666 0.121381894 -0.275702 -0.05676044 -0.12646411 -0.289157 -0.019639282
-0.43126416 0.37194362 -0.11543626 -0.04711262 -0.021013362 0.070824444 0.067152 0.13711792
0.0045151673 -0.12724404 0.09555925 0.15717964 0.29235825 -0.30301023 -0.21021487 -0.15445077
-0.20822483 0.38611233 0.044313498 0.09741017 0.08139999 0.25735176 0.09185685 0.09822795
0.021189025 -0.099028125 0.19747533 0.106026776 -0.21368757 -0.26121008 -0.1811748 0.11984983
-0.24282725 0.111380294 -0.38670275 -0.11025129 -0.33885187 0.006660401 0.106163375 -0.08952743
-0.116468266 -0.10338494 -0.023537412 -0.30016384 -0.009769267 -0.07471921 -0.115002826 -0.26497206
0.14854562 -0.15188885 0.07649098 0.36281338 0.1950774 -0.15169227 -0.031903926 -0.07454494
-0.35633337 -0.2262507 0.53707826 -0.089604095 0.043319333 -0.007603287 0.22900373 -0.10796356
0.24401705 0.32396296 -0.055755842 0.091442734 -0.35698295 0.11338907 -0.14712392 0.0019002574
0.23163518 0.30792373 -0.16873 0.14879404 -0.31153896 -0.147095 0.29031214 -0.28301954
0.0097387135 0.09672456 -0.29163292 -0.22880062 0.2552665 0.32654646 -0.28889877 -0.115311235
0.099712335 -0.13422579 -0.038355127 -0.034437068 -0.2761 0.18859747 -0.6481617 0.093695365
0.19855508 0.15563263 0.03392681 -0.42582828 -0.22358118 0.09677548 0.21708164 -0.15809971
0.06677227 0.32091272 0.0931031 0.1670736 -0.20586823 0.010332353 -0.25995952 0.18194132
-0.056441598 -0.15787774 -0.13424626 -0.2855791 -0.17681442 0.21369538 -0.17911327 -0.12690344
0.08190647 0.0672964 0.23896384 -0.066763446 -0.18150796 0.103407554 0.089765705 -0.14586613
0.064878605 -0.13038126 0.066073336 -0.17905149 0.17625928 -0.2075475 0.17708743 0.052231196
0.00284365 -0.0433958 0.39733952 -0.1076013 0.07000906 0.18485117 0.38631067 -0.18654232
00000000: eba9 693e c50f 953e 12c2 5e3e 75d8 43be
00000010: 3da8 2a3e 80f6 09be 08eb 323e 13e4 bcbd
00000020: b5e6 683e 5336 13be 066e 5d3d 7775 92be
00000030: 9f91 08be 7a22 88be 8583 843e be6b a7be
00000040: dd19 86be 356f f43d a55b e8be 33f7 ab3d
00000050: 20a3 1b3e b900 913d 9b30 f13d 3b03 083f
00000060: 6913 933d 3be2 82be 155e f23d 90f4 bf3d
00000070: 64a1 5bbe e66a 153e 5262 953d 0c9d ecbe
00000080: 4e17 453e 8a4d 83bb f1ce 03be 02ac f3bd
00000090: f5dc 453e 0255 303d 29d7 103e 87bb 183e
000000a0: 61d4 563e 7f44 b13e 3f29 4f3e 04ce 8cbe
000000b0: 1718 af3c bc6d 18bc fea6 483d 5c59 ff3e
000000c0: 5b90 c4be 8d51 57be cd09 c4bd 253a b4be
000000d0: 8cda ba3c c4e0 00be 5723 c43d b8f9 c5bd
000000e0: 74de 993d 39ba 4c3d dc55 a93d c0d0 f43c
000000f0: 3392 a13e 9e66 38be 9cb3 af3d 41af 9ebe
00000100: 339a a43e 9235 3abe aed7 bb3d cb70 19be
00000110: 644b 30be e90a f93d 44a9 123d 02ff 533e
00000120: 54cb 303e 37de 75bd da69 053d 7aca 663e
00000130: a0d4 fcbc 0247 8c3e 80de 9d3c d1f5 363e
00000140: 0269 4dbe 051c 3dbe d5b4 ecbb 15aa c1bd
00000150: c716 07bf 6809 5cbe 514a a43d 5fb7 523b
00000160: 6535 3d3e b6cb 8fbd f3b4 2d3d 58d3 533d
00000170: 333f ecbd ec1a 973e 682f 9dbd 6b7f 233d
00000180: 12a2 1c3e 5caa d43d 4b47 5dbe d91f f03c
00000190: d233 283e 919b 40be 1133 aebd 1b09 30be
000001a0: cca2 f1bc 8f63 3ebe 1297 f83d d028 8dbe
000001b0: a37d 68bd cf7f 01be 630c 94be 8fe2 a0bc
000001c0: a8ce dcbe 656f be3e d969 ecbd 2af9 40bd
000001d0: 3724 acbc 680c 913d fd86 893d a468 0c3e
000001e0: f8f3 933b 434c 02be 91b4 c33d b3f3 203e
000001f0: fbaf 953e 2824 9bbe 9142 57be 5828 1ebe
00000200: e438 55be 84b0 c53e 1282 353d fc7e c73d
00000210: 0ab5 a63d 9cc3 833e 721f bc3d bc2b c93d
00000220: 9b94 ad3c 42cf cabd f936 4a3e 9124 d93d
00000230: ead0 5abe 54bd 85be e385 39be d473 f53d
00000240: b5a7 78be 5a1b e43d e7fd c5be 6ecb e1bd
00000250: fe7d adbe 7e3f da3b 2f6c d93d 285a b7bd
00000260: ea86 eebd 7cbb d3bd 88d1 c0bc 13af 99be
00000270: 470f 20bc 6306 99bd 9a86 ebbd 6baa 87be
00000280: 581c 183e c088 1bbe 4ea7 9c3d adc2 b93e
00000290: 5fc2 473e 3855 1bbe b1ad 02bd 04ab 98bd
000002a0: 5471 b6be 43ae 67be f67d 093f 5a82 b7bd
000002b0: 9d6f 313d ff24 f9bb f47f 6a3e 001c ddbd
000002c0: 9bdf 793e 79de a53e 3d60 64bd 5446 bb3d
000002d0: 78c6 b6be 8738 e83d a7a7 16be 0f12 f93a
000002e0: c631 6d3e 2ea8 9d3e 8fc7 2cbe 775d 183e
000002f0: 0982 9fbe 12a0 16be cba3 943e f0e7 90be
00000300: 208f 1f3c 8717 c63d e950 95be b64a 6abe
00000310: 4ab2 823e 1931 a73e 8aea 93be 4c28 ecbd
00000320: fb35 cc3d 7c72 09be 441a 1dbd e20d 0dbd
00000330: fb5c 8dbe b21f 413e eded 25bf 5be3 bf3d
00000340: 0652 4b3e 295e 1f3e d7f6 0a3d 2a06 dabe
00000350: 77f2 64be 3932 c63d a64a 5e3e e4e4 21be
00000360: e6bf 883d ac4e a43e d7ac be3d 5815 2b3e
00000370: 1fcf 52be 0849 293c 6a19 85be d34e 3a3e
00000380: 4e2f 67bd b4aa 21be da77 09be 6c37 92be
00000390: d70e 35be f6d2 5a3e 7869 37be faf2 01be
000003a0: 94be a73d b2d2 893d f0b2 743e 46bb 88bd
000003b0: 39dd 39be 57c7 d33d 15d7 b73d ee5d 15be
000003c0: 13df 843d aa82 05be 7551 873d 4659 37be
000003d0: 507d 343e 5587 54be 6856 353e 61f0 553d
000003e0: 885c 3a3b cbbf 31bd 1670 cb3e 125e dcbd
000003f0: e960 8f3d a049 3d3e 83ca c53e f304 3fbe
