CRL_human_AI_overcooked/human_models/model_unident_s8/actor_best_r2.pt (torch, 656979 bytes, 20 tensors)

base.cnn.0.weight f4 [32, 20, 3, 3]
00000000: cffe 9dbd 8f21 ab3d 27fe 99be 37bf 5f3d
00000010: 64bf e23d f747 14be 9c72 04bc 2e05 f13d
00000020: cba2 3abd 880f 40be dcf0 94be 3c75 2c3e
00000030: 39a7 92bc 8e87 31be 2c94 9c3e d9d7 9ebd
00000040: 3c36 283d cac4 23bd de9b ccbd c9a3 dfbd
00000050: e964 8abc baf6 27bd a488 023e fdcc 3abc
00000060: 02f2 a2bb 797a 563e 44d5 66be 87bb fb3d
00000070: 9a7a a03e dde0 1bbd 19d8 4e3c dec2 ae3d
00000080: 89aa 933d 0c1c cbbd 51ab 6bbd 0a96 833e
00000090: 6db4 1c3d adfa 9ebd bcf0 3fbe 793c 21bd
000000a0: 336b 56be f499 debe f8d8 b6bd db65 293e
000000b0: 84c4 243e 7a48 83be c993 9cbb 1245 b93d
000000c0: b886 833c e7ff 48be 4ca4 bbbc 685c 653e
000000d0: 48d9 6a3e 1355 a1be 3a14 983a 63cf 84be
000000e0: a09d 033e 11ae 573d 8d9c 57be c029 a33e
000000f0: 95f1 603e 1445 883d 7557 5c3d 70cd cb3d
00000100: 75ff 71be cba4 c03d 4e27 a3bd 660f 843d
00000110: 5f62 423e b590 93bd 341b 063b b4b6 bdbe
00000120: d90a b1be 3f99 ab3d 3f0d 37be 068e 073d
00000130: 35ec 093c 7b9b b4bd 3fad 17be ab8b 48be
00000140: 41cb e0bd 16a5 603d 7314 4d3d 398d fa3d
00000150: a36e d3bd e617 c4bd d7d1 633d 78bf 3fbe
00000160: 465d eebc a1d1 943e 91d5 973d 5d0f 3d3e
00000170: cf14 ee3d ba30 5cbd 1e9b 66bb dbf3 17be
00000180: b740 24bd 3cb7 923d 654c 09be e2e9 9dbd
00000190: ba98 493c e093 83bd 36f3 a63d efbc 9bbc
000001a0: 44aa 80bd 2203 853c 124a cb3c 0f4e c13b
000001b0: 44a3 743d 77f6 043e 327e b43d dba6 213d
000001c0: ad93 de3d 8aa9 223d ad17 603d de6d 023d
000001d0: 9fe2 2c3e 05f0 1c3e 173d bbbd 2e3b 013d
000001e0: 4cf8 24be 221f 243d 97c6 ef3c 013d 803d
000001f0: e3b6 123e 0565 cfbd f943 a1bc b2ad 72bd
00000200: f979 5e3d bd29 e83d 6d98 8ebd d1a0 80be
00000210: 9166 8c3c 3a47 fbbd 0800 ef3c f290 bd3d
00000220: 7914 df3d bff7 243e 30be ba3d 0534 fe3c
00000230: 5345 eb3c 1ea1 88be 9f35 b3be 43f8 903e
00000240: f7e0 f7be 355d 8ebe 2892 76be b418 423d
00000250: 86a5 80bd c2aa c13d 5599 5cb9 88b3 efbc
00000260: 1b77 8ebd 24f1 acbe 68c5 7d3c d809 39bd
00000270: 81fc ac3d 4f25 18be 154e 043d 3d35 343e
00000280: 5daa ea3e 6ab1 ae3e ba25 303c 5e6e 213e
00000290: 8ece 8abe 9430 d7bc 8b8d f1bd bdb0 99be
000002a0: 08cd ee3d 6ca6 8abe f9fd a2be 5b52 7abe
000002b0: 831d dbbc 5b60 95bd 523f 91be 8029 d23e
000002c0: 9d72 debd 4c9a 91bd 932a 8b3d ece0 85be
000002d0: 3277 62bd c5f2 81be 5c09 49bd bb55 8c3d
000002e0: 938d 2f3e a77c 3cbd 75b7 b6bd 5436 af3e
000002f0: ab31 92be 4780 01be 6c35 20bd 1f76 04bd
00000300: 7711 d8bd 2d08 1c3e 6039 5d3c 43f5 d83d
00000310: b91f 98be 4955 013e 4db6 3c3e becc 8ebe
00000320: 5083 41ba b33c d03c 5341 0a3e a1b1 c4bd
00000330: c8d5 f1bd 0eba 633e 92dd e63d 8147 07be
00000340: 5db9 53be 8189 73bd 715e 1ebd e6d7 b83d
00000350: 1793 6bbe 6b67 d8bd a56a a6bd 3618 43be
00000360: 5b11 6abe 11ad 8dbe 6d20 0fbd c1dd ffbd
00000370: 8d1f d9bd 559b a1be 6b54 6cbd 719f 68bd
00000380: de3a 06be 5d8a af3d 512a 083e 36d5 a7be
00000390: a226 0cbd 9362 65bd 9871 c03e 56c0 ca3d
000003a0: 56ba 833e 4fe1 c23d a609 8c3d 126f adbd
000003b0: 5bb7 5abe e73a d03c 8bce 083e 5c94 6cbe
000003c0: c12d bdbe 870c 0ebe 74b8 bd3c a271 4bbe
000003d0: 504d 89be d2d5 8abe e2c1 d2bd 5f95 263c
000003e0: a2c1 3fbd 2d20 f1bc 3677 3c3e 7f50 f0bd
000003f0: d171 9ebd 3de0 72be ddd4 e83d 3378 3abe
-0.077146165 0.0835601 -0.30076715 0.054625716 0.11071661 -0.14480577 -0.008083966 0.11768566
-0.045565408 -0.18755925 -0.2909001 0.16841596 -0.017902004 -0.17336866 0.30581796 -0.077560134
0.041067347 -0.039982595 -0.09990667 -0.109199114 -0.01689382 -0.04100678 0.12747437 -0.011401412
-0.0049726972 0.20945157 -0.22542292 0.122916274 0.31343538 -0.038056243 0.012624764 0.08533262
0.072102614 -0.09917459 -0.057536427 0.25700408 0.038258005 -0.07762656 -0.18744177 -0.03936431
-0.20939331 -0.43476832 -0.08928102 0.16542761 0.1609059 -0.25641233 -0.0047783596 0.09046377
0.01605545 -0.19628869 -0.022905491 0.22398531 0.22934449 -0.3151022 0.0011602708 -0.25939474
0.12853098 0.052656237 -0.21055813 0.3186779 0.21967156 0.066538006 0.053794343 0.099512935
-0.23632605 0.09406432 -0.07966481 0.064482495 0.18982838 -0.07205335 0.0020462992 -0.37053454
-0.3457859 0.08378839 -0.17876147 0.03309443 0.008418133 -0.08818718 -0.14812182 -0.19584529
-0.109762676 0.05484494 0.05006833 0.12233967 -0.10323837 -0.09574871 0.05562004 -0.18725383
-0.02909721 0.29066184 0.074137814 0.18462892 0.11625063 -0.053757407 -0.0035187672 -0.14839117
-0.04010078 0.071638554 -0.13408048 -0.07710625 0.012304479 -0.06424689 0.081518576 -0.019010989
-0.062824756 0.016236845 0.024815593 0.005899198 0.059726015 0.12984644 0.08813132 0.039465766
0.10868011 0.039712466 0.05471008 0.03184306 0.16883324 0.15325935 -0.09142511 0.03155058
-0.16110343 0.040068753 0.0292695 0.062616356 0.14327578 -0.1012669 -0.019685732 -0.05924768
0.05431554 0.11336086 -0.06962667 -0.25122693 0.017138751 -0.12269445 0.02917482 0.09256162
0.10892577 0.16110133 0.09118307 0.031030664 0.02871958 -0.26685423 -0.35001847 0.2831441
-0.48413822 -0.27805486 -0.24079192 0.04738684 -0.06281571 0.094563976 -0.00021037956 -0.029260412
-0.06956311 -0.33777726 0.01548896 -0.045175403 0.08446599 -0.14857982 0.032301027 0.17598434
0.45833102 0.3411973 0.010751182 0.15764758 -0.27110714 -0.026268281 -0.11794575 -0.30017653
0.116602 -0.27080095 -0.3183439 -0.24445479 -0.02674747 -0.07293769 -0.28368622 0.41047287
-0.108617045 -0.07109508 0.0679523 -0.26148164 -0.055289455 -0.2538053 -0.04908119 0.06852289
0.1714385 -0.046017315 -0.089217104 0.34221137 -0.2855352 -0.1264659 -0.039113447 -0.03233921
-0.10550206 0.15237494 0.013502449 0.10593655 -0.29711702 0.1263019 0.18428917 -0.2789058
-0.0007381933 0.025419569 0.13501482 -0.096041925 -0.11808354 0.22238943 0.1127273 -0.1321087
-0.20676179 -0.059457306 -0.038664285 0.09025554 -0.23005329 -0.105666004 -0.081258096 -0.19052204
-0.22858183 -0.27671102 -0.034943033 -0.12493468 -0.10601721 -0.3156382 -0.057697695 -0.05679268
-0.13108394 0.085713126 0.13297392 -0.32779855 -0.03421653 -0.05600221 0.37586665 0.098999664
0.257281 0.095156305 0.06837778 -0.084684506 -0.21359007 0.025418712 0.1336004 -0.2310347
-0.3694897 -0.13871966 0.023159243 -0.19867566 -0.26816797 -0.27116257 -0.102908865 0.010167449
-0.046815522 -0.029434288 0.1840485 -0.117341034 -0.077365525 -0.23718353 0.113687254 -0.18209915

base.cnn.0.bias f4 [32]
00000000: 1573 7bbd 524b 8d3d 1739 95bd 94d9 42be
00000010: bb0e e7bb e93d d1bd ba9d 41bd da04 41bd
00000020: 8a76 b7bd 317b c3bd 4c90 4dbd e5cf 42bb
00000030: 9d9c b3bd 1857 0abe b4c5 85bd 1570 87bd
00000040: f4ad e5bc d972 ebbd 1a30 75bd 8ef7 00bd
00000050: 3174 1fbd 8710 88bd a2a0 67bd 2682 d6bd
00000060: 2b6a adbc 8402 bebc 44a4 97bd 7ebc a0bd
00000070: 189a a3bd c2bf b3bd bda1 8fbd 7c17 84bd
-0.061389048 0.06899132 -0.0728628 -0.19028312 -0.0070513166 -0.102168866 -0.04726956 -0.047123767
-0.089581564 -0.09544981 -0.05018644 -0.0029725966 -0.08770106 -0.13509786 -0.065318495 -0.06613175
-0.028037049 -0.11496515 -0.059860326 -0.031486087 -0.038929168 -0.06643777 -0.056549676 -0.104740426
-0.021168789 -0.023194559 -0.07404378 -0.07848452 -0.079883754 -0.08776809 -0.07013271 -0.06449792

base.cnn.2.weight f4 [64, 32, 3, 3]
00000000: 3a98 5cbd 04fb 39be 75bc f5bd 8051 113e
00000010: ea1f 34be 00e3 a33d 805f 4cbe 3508 94bc
00000020: a9b5 943c f21c 04bd a9f8 34be 6f96 f8bd
00000030: e8be a0bd a0ab f4bc 52a2 22be fdfe 833d
00000040: bd2c a23d 1486 883c 1375 0d3b cdf0 263d
00000050: e3dd 6fbd c1d8 23be f100 4e3d ad88 40bd
00000060: 6678 103e d37b e2bd 32a2 56bd 38c5 8c3d
00000070: bb44 6ebe 68c8 c33d 706a b13d 862f ba3d
00000080: db15 2d3c 30db 49bd 8215 87bd ea1b 0c3e
00000090: 9577 13be 1d92 0e3e 06f2 c13d d207 d7bd
000000a0: 64a2 2fbd cf07 8c3c cd08 f83b fdce 173e
000000b0: 83a5 1dbd 7de5 09bd 99bb cfbd 978b a7bd
000000c0: b6ff 473d f9da 7a3b 9ef4 95be dde1 e13d
000000d0: c111 2f3e 8836 d6bd 6b3d 25bc 853b b4bd
000000e0: b11e 2cbd 3b03 a0bd a150 603d 3858 c83d
000000f0: e510 08be 734c 6bbd 4db2 15bd 799d 37be
00000100: d91a 62bc fc2e 363d 9c20 2e3d f699 a7bd
00000110: 0cb9 023d 80ee b43d 5181 00be 3685 bcbd
00000120: 8961 a2be 443a 20bd 5f82 2cbe 732e 76bd
00000130: f9a8 a93d 77ae 01be 6ab5 7f3d bd6b c43b
00000140: 959d e7bc 4352 6dbe 0bba 46be 6d58 25be
00000150: 50c1 97bd 2b7a 41be 00a0 773c 2717 8e3b
00000160: 42e1 183c c900 52bd 9922 0ebe 95b6 ffbc
00000170: 49e0 b43d 645d dfbd 0484 06bc bdb1 f5bc
00000180: 983a 09bd f531 47be 4d11 2bbe c8bf 323d
00000190: 8c5b e3bc fe0a c63d bc2b 9a3d ce7b 2fbe
000001a0: 3633 75be 3107 fc3d 485b 81be f35d 433c
000001b0: ba6e 26be 0a5b 66bd 02b4 11bd 78c9 62bd
000001c0: 74ce 91bc e932 12be 0dbf 033d 5b5b 8fbd
000001d0: b0ff c0bc 4d22 6c3d 5ff4 c9bd ea0d 9f3a
000001e0: 2a23 c0bc 575d 643b b8de 063e 4354 a43d
000001f0: 8e88 41bd 686a 8bbc d6bb 07be 45a8 c2bd
00000200: 9171 63be 98ef 303d f135 103d 7a2c a8bd
00000210: c855 29be f271 12bc 988e e7bd 1a6c c8bd
00000220: 58fd 3cbe 0484 2b3d cd7e f1bc 51d7 6cbd
00000230: 827d 69be cd65 873e 057d 60bd d3fa 403d
00000240: 75fe c93d 5159 f03d e589 74bd 6338 78b9
00000250: c086 41be 539b 27be c9f0 bbbd a048 283e
00000260: 71eb b2bd f775 f7bd 56fe f6bd d32b 83be
00000270: 0535 97be 3c07 c1bc 33e8 3bbe a29a 013e
00000280: f0e2 83bd 04d2 ae3d c49a 01be 1f6c 6d3c
00000290: 3a77 15be 5fc5 9bbd e3f2 d4bd 935f a5bd
000002a0: 5b12 183e 7ad2 19be 4277 8a3d 9acc 1b3d
000002b0: 4ce9 14bc f345 05be a58f d83c 0f64 233e
000002c0: bff7 43bd ed9e 1ebd c618 b9bc 68ab 62be
000002d0: ea3c 06be bfd8 dabd 00b4 47bd 5e84 aebd
000002e0: ef1d d3bc adf3 70be 7f0e 653d 3dba 5abd
000002f0: ad67 37bd 0e62 f23d 6c07 193e 0055 3d3e
00000300: df3e 363e 24fa 04be 9b07 fb3c f37c f7bc
00000310: 69ab a33c 531b 363e c079 91bc 6fc4 ae39
00000320: 6937 3bbd 90fc 48be 56af bfbd 4d52 c13d
00000330: 25d4 b4bd 23dc 43be 5f32 62bd 8622 47bc
00000340: bd1d d03c d86b d53d ee27 c4bd 1250 613d
00000350: f536 193e ca31 aabd f220 ef3c e864 6d3e
00000360: e86f 83bd 955c 3bbc 9c81 533d 0b11 ccbd
00000370: f4ba 46be 4527 6cbd 0588 0cbe 3431 d83d
00000380: 30ef f1bd dfcd 22bd aa3f e1bd 8635 4b3d
00000390: 4209 213e 07cc b9bb 8c25 2abb de78 0a3b
000003a0: 7249 ecbc 9d43 bdbd 1e31 653d 0aa4 9cbc
000003b0: fc50 30bd 34d9 b3bd 9eba 82be c5a1 38be
000003c0: 498e 8ebd bf35 a2bd a5b7 8abd 9ef6 9dbe
000003d0: 633a 363d be5e 333d 64ad 18bb 664b 7cbd
000003e0: 1628 1d3a 7fd0 7c3c 0a48 1ebc 9201 733d
000003f0: 1af5 16be 592c f8bd 8721 4cbe 362e 23be
-0.053856112 -0.18162161 -0.11998836 0.14191246 -0.17590299 0.08002281 -0.19958305 -0.01807032
0.018153029 -0.032254167 -0.17672981 -0.12138068 -0.078489125 -0.029866993 -0.15882233 0.064451195
0.079186894 0.016665496 0.0021584674 0.04075699 -0.058561217 -0.16000654 0.050293867 -0.047005344
0.14108428 -0.11058774 -0.052400775 0.06873554 -0.23268406 0.09559709 0.086628795 0.090910956
0.010564293 -0.0492813 -0.06595899 0.13682523 -0.14401086 0.13922925 0.094699904 -0.104995385
-0.042879477 0.017093567 0.0075694085 0.14825054 -0.038487922 -0.033666123 -0.10143203 -0.081809215
0.04882785 0.003827749 -0.2928819 0.11029408 0.17096616 -0.1045962 -0.010085444 -0.08800415
-0.042021457 -0.07813116 0.054764394 0.097824514 -0.13287695 -0.057445955 -0.036546994 -0.17931165
-0.013800346 0.0444784 0.042511567 -0.081836626 0.031914756 0.08834553 -0.1254933 -0.092050955
-0.31715038 -0.039118066 -0.16846608 -0.06010289 0.08284182 -0.1266421 0.06242887 0.0059942887
-0.028273383 -0.23175912 -0.19406907 -0.16147013 -0.07409918 -0.1889426 0.015113831 0.004336256
0.009331049 -0.05127028 -0.13880385 -0.031214992 0.088318415 -0.10906485 -0.008210186 -0.029991979
-0.033503145 -0.19452651 -0.16705818 0.043639928 -0.027753614 0.09670065 0.07527873 -0.17137071
-0.23945317 0.12306059 -0.25264955 0.011924255 -0.16253176 -0.056239165 -0.03557206 -0.055367917
-0.01779864 -0.14277233 0.032164622 -0.069998465 -0.023559421 0.0576499 -0.09861063 0.0012134884
-0.023454268 0.0034845674 0.13170898 0.08023884 -0.04724937 -0.017018512 -0.13255247 -0.09504751
-0.22211291 0.043197244 0.035207693 -0.08211608 -0.16536629 -0.0089382995 -0.113064945 -0.09786244
-0.18456018 0.041873947 -0.029479409 -0.05782253 -0.22801784 0.26444855 -0.054806728 0.047114205
0.09862987 0.11735786 -0.05970182 -0.00023672129 -0.1889906 -0.16367845 -0.091767855 0.16433954
-0.08736313 -0.12083047 -0.120602295 -0.25619373 -0.29532638 -0.02356302 -0.18350296 0.12656644
-0.06439769 0.08536151 -0.12656695 0.01449111 -0.14596263 -0.07606005 -0.103978895 -0.0807487
0.14850752 -0.15021697 0.06761028 0.03803692 -0.009088825 -0.13014965 0.026435683 0.15956138
-0.04784369 -0.038725782 -0.02259482 -0.22135699 -0.13109174 -0.10685872 -0.048755646 -0.08521341
-0.02577111 -0.23530455 0.055922028 -0.053400267 -0.044776607 0.11835109 0.14944237 0.18489456
0.17797421 -0.12986046 0.030643275 -0.030210948 0.019979196 0.17783861 -0.01775825 0.0003333422
-0.04570714 -0.19627595 -0.093596146 0.09439526 -0.08829526 -0.19126944 -0.05522382 -0.012154227
0.025404805 0.1042096 -0.095779285 0.055008 0.1496237 -0.08310278 0.029190514 0.23183024
-0.06417829 -0.0114356475 0.051637277 -0.09964188 -0.19407254 -0.057654638 -0.13723762 0.1055626
-0.118131995 -0.039747115 -0.10998471 0.04961159 0.15726188 -0.005670074 -0.002596232 0.0021129171
-0.028843615 -0.09241412 0.055955045 -0.019121189 -0.043045983 -0.087816626 -0.25533003 -0.1803046
-0.069607325 -0.079204075 -0.06773309 -0.30852216 0.044489276 0.043791525 -0.0023296708 -0.061595343
0.0005995048 0.015430569 -0.00966073 0.05932767 -0.14741936 -0.12117834 -0.19934665 -0.15935597

base.cnn.2.bias f4 [64]
00000000: 965f c4bd 52a4 86bd 3181 dfbc ce8a 5ebd
00000010: 6be5 adbb f090 24bd df97 2fbd 56c9 d3bc
00000020: bafe 8bbd 779c e73c f88b 7ebd a43d e13c
00000030: 4629 c9bc b71e c5bd 79b8 b1bc eb54 10bd
00000040: 5b99 57bd 0253 c7bc d5c0 64bd 4d59 6ebd
00000050: b637 d2bc 5d81 1fbd 6675 06bd 2fb6 92bd
00000060: 410e b63a 0407 99bd bd5f 08bd f1e6 a9bd
00000070: a14e 36bd a41d 2dbc e276 7fbd 4a3e 90bd
00000080: 7213 9fbc 3d3a ecbc d80a d0bc c75a 92bd
00000090: 6255 24bd ebb3 86bd 3248 eebc a589 98bd
000000a0: 1a1a 113b 9e94 c6bd 761a 6cbd 9963 57bd
000000b0: 0a44 2fbd b7b0 ceb9 b119 61bd 5d3e cb3c
000000c0: d774 0ebd 47d8 0fbd 6347 8fbd 4c09 c0bd
000000d0: f6f2 45bd edda 9abd 3d47 dabb 4b4c 0dbd
000000e0: cad4 f6bc 95ea 07bd e864 4638 95e4 22bd
000000f0: 1172 74bd 815f 2abd 88fe bebd 3d7e dfbc
-0.09588544 -0.0657431 -0.027283283 -0.054331593 -0.00530689 -0.040177286 -0.042869445 -0.02585284
-0.068356946 0.02827285 -0.062145203 0.027495213 -0.024555814 -0.09624999 -0.021694409 -0.035237234
-0.052636486 -0.024331573 -0.05584796 -0.058190633 -0.02566133 -0.03894173 -0.032826804 -0.07163655
0.0013889746 -0.07472041 -0.03329443 -0.08296002 -0.04450858 -0.010566149 -0.062369235 -0.07043131
-0.019418452 -0.028836364 -0.025395796 -0.07146221 -0.04012049 -0.065772854 -0.02908716 -0.074481286
0.0022140802 -0.09696315 -0.057642423 -0.052585218 -0.042789496 -0.00039423045 -0.05495614 0.02481001
-0.034779396 -0.035118368 -0.06996038 -0.09376773 -0.04832741 -0.07561288 -0.0066613243 -0.034496587
-0.030130763 -0.0331827 4.7300855e-05 -0.039768774 -0.059679095 -0.041594986 -0.09325892 -0.027281875

base.cnn.4.weight f4 [32, 64, 3, 3]
00000000: 30c4 7cbd 6227 e23d fc06 e63c ecbb 353e
00000010: 47d4 b4bc cc5c a13c ea86 053e d6a7 00bc
00000020: 8ade 263e 9f9f 7cbd c16c 77bd 0c9d 543e
00000030: 68f1 82bd b579 d3bd b931 4bbd ce5f 51be
00000040: 96e7 bfbd 91e7 a2bc 7627 2fbe 1632 85bc
00000050: ac25 b5bb a4b3 25bc 8ef0 94bd 8b74 4c3b
00000060: a0b9 b03d 8068 6a3d 9a02 58bd 06c4 debc
00000070: 8157 30bd 242a 813d 691c a3bd b055 133e
00000080: ebae aa3d b907 a0bd 4b95 c1bd ca5e 2dbe
00000090: 7533 323d 1084 47be 5fec 15be b8a4 e13c
000000a0: 41ff 7dbe fc0b 1dbc 6cba 923e a3cf 163e
000000b0: 7c6b b53d cd5d 58bc 1ffc b73d 3760 2dbe
000000c0: 685e 40bd d345 5f3c 4c60 9cbd da89 f83d
000000d0: b204 8d3d fd89 83be 469a 153e e015 3fbe
000000e0: 95b0 11bd af57 5bbe 5c38 d73d 5385 f3bd
000000f0: 551c 09be df02 803c fa1b cf3d ddf3 40bd
00000100: 7b64 33bd 7380 903c 6489 2ebe 3747 553c
00000110: baea 0ebe 8bcc a2bd 3b78 aabd 96b2 61be
00000120: 4996 e2bd d8a7 2b3d c09a 093e 296f 363e
00000130: c57f ce3c 84d2 40bd 7566 29be e915 4c3b
00000140: f6e8 adbd 7961 aabd e79b 2bbc d370 f43d
00000150: 3165 883d c455 05be 58f1 ecbd 8594 bb3d
00000160: 99c7 173e 2e55 c33d c72f 10be c71c 27bd
00000170: 0bca 1ebe 2a6c 793d 87ee 9fbb c660 e13c
00000180: 6dd6 203d 54c4 043a 15f8 9ebc 7050 54be
00000190: 53d9 fe3d 6708 183d 9630 0a3c 6871 583c
000001a0: 6c87 303d d177 913c b549 9fbd db30 9f3d
000001b0: 3832 1abd 9af0 b7bd 1a2d 89bd 3e74 04bd
000001c0: 8104 2b3d be8c a3bb 162f 39bd 67d2 fe3d
000001d0: c9f2 a2bd 8c7d edbc 3ad6 393d 1659 e0ba
000001e0: 2193 14be f5cb 00be 01bc edbd 7cbb cc3c
000001f0: c8d9 0abd 9b26 913d 7a43 2bbd 0aca 23be
00000200: b3e5 f0bd ede7 fd3a d50f c9bc e295 02be
00000210: bfea 123e abc6 113d 3825 213d 2f73 dbbc
00000220: 5533 3e3d 9793 c73c e5cd 23bb 44af ce3d
00000230: 2026 3b3d 2464 4f3d 2571 933c 140b 3f3d
00000240: b464 6abc 3164 87bd ebbc 303d e3b9 f7bd
00000250: 3769 21be 67ef 66bd 7393 063d 78fc 85be
00000260: ae5d 21bd 5aac 08be 4742 7ebd 3e86 63bd
00000270: 8ed4 34be 9f8d 9abd d398 32be f198 843d
00000280: 4ca3 2e3d 92c2 c43b e275 cabc 63e1 203e
00000290: 1ce7 523d 7fb7 32be 3eb7 5a3c c522 13be
000002a0: f518 44be 81c5 abbd 0bb1 bfbd fca4 8d3c
000002b0: a3d9 56bd 93a2 b4bc 5390 33be 9391 a7bd
000002c0: fa96 cc3d c075 013c 63fe 9d3d ba4d 053d
000002d0: 1471 ca3d bac7 073e 40d7 39be 3f93 a23d
000002e0: b57f 63bd 544f df3b fee0 2f3e 45ca d4bd
000002f0: 05c2 773d bdec 923d a00a b13d 2e53 5b3d
00000300: e258 5f3d 67d4 f8bc 4fd3 523d 76ef f93d
00000310: 88b4 24bd f64b debd abd4 c43d c222 7cbe
00000320: 8052 323e ec14 d2bd 5e79 f6bd 1cbe 3f3e
00000330: 1eef b9bd 7c91 d43b e4ad 27bd 38f3 dfbd
00000340: ee80 0c3e 437e f7bc b367 c3bd 0e1b 79bd
00000350: c3ba d3bd 1b8b 08be 141e 303e 78e0 e43d
00000360: 8323 8bbd 1ca7 1cbe cf65 c6bc 098f a03d
00000370: 999a 363c 3605 b4bc eec7 00be ea02 dc3c
00000380: 6c44 103e 3b0d d1bd 7a52 3fbc b93f 563c
00000390: bb82 cebb df70 0abb 8bca 60bd 1825 01bd
000003a0: abd5 f5bd e418 be3c 1b4b 643e 4e79 30be
000003b0: 8681 6dbd dc0b 6c3c 3aa2 23be d324 c33d
000003c0: e30f 973c 49e4 51be 177f 97be 5356 c63d
000003d0: fbbd 87bd 7df0 88bc 60f4 d13c 15c2 b7bd
000003e0: b404 19be 95ca 88bd c0f1 cbbd aabb 883b
000003f0: ed56 a33d 28a0 1abe 8ae7 a83d acd0 55bd
-0.061710536 0.11042668 0.028079502 0.17747468 -0.022073878 0.01969757 0.13039747 -0.007852515
0.1629583 -0.061675664 -0.06040645 0.20763034 -0.06393701 -0.10325948 -0.049607966 -0.20446703
-0.093703434 -0.01988581 -0.17104897 -0.016259234 -0.0055281725 -0.01011363 -0.07272445 0.0031197395
0.08629155 0.057228565 -0.052736856 -0.02719308 -0.0430522 0.06306866 -0.07964403 0.14388156
0.08334144 -0.07813973 -0.094523035 -0.1693069 0.043506104 -0.19483972 -0.1464095 0.027544364
-0.24804403 -0.009585377 0.28657854 0.14727645 0.08858392 -0.013205958 0.08983635 -0.16931234
-0.046965033 0.013627487 -0.07635555 0.12135668 0.06885661 -0.25691214 0.14609632 -0.18660688
-0.035568792 -0.21420167 0.105087966 -0.11890664 -0.13389714 0.015626369 0.10112758 -0.047107566
-0.043796998 0.017639374 -0.17044598 0.013017467 -0.13956729 -0.0794917 -0.083237134 -0.22040781
-0.11063821 0.041908115 0.13437939 0.17815842 0.02520741 -0.047075763 -0.1654299 0.003114099
-0.084916994 -0.08319373 -0.010474182 0.11935582 0.06659926 -0.13020998 -0.1156947 0.09159187
0.14822234 0.09537731 -0.14080726 -0.04079893 -0.15506761 0.06089417 -0.0048807296 0.027511965
0.039266992 0.00050646556 -0.019405404 -0.2073381 0.12443795 0.037117388 0.008434435 0.013210632
0.0430979 0.017757328 -0.077777304 0.0777299 -0.03764555 -0.08981438 -0.066980556 -0.03233742
0.041752342 -0.004991143 -0.04521092 0.12442475 -0.07956464 -0.02899053 0.045370318 -0.0017116393
-0.1450925 -0.12577803 -0.116081245 0.024991743 -0.0338991 0.070874415 -0.041812398 -0.1599504
-0.11762562 0.0019371487 -0.024543682 -0.12752488 0.14347361 0.035589855 0.039342135 -0.026788322
0.046435673 0.024362369 -0.002499455 0.10092023 0.045690656 0.05063261 0.017998287 0.046641424
-0.014306236 -0.06610907 0.043148916 -0.12096002 -0.15762793 -0.056380656 0.032855462 -0.2616918
-0.03939598 -0.13346997 -0.062074926 -0.055547945 -0.17659208 -0.07546543 -0.1744111 0.06474484
0.0426362 0.00600464 -0.024714414 0.15710978 0.051489934 -0.1745281 0.013349352 -0.14368732
-0.19150145 -0.0838728 -0.0935994 0.017290585 -0.05245365 -0.022050178 -0.17535524 -0.08182063
0.09989734 0.007901609 0.07714536 0.03254483 0.09884849 0.13259783 -0.18148518 0.07938241
-0.055541713 0.0068148766 0.17175671 -0.10390142 0.060487766 0.071740605 0.08644605 0.053546123
0.054528125 -0.030374719 0.05147105 0.12203877 -0.04021123 -0.10854332 0.09610876 -0.24622634
0.17414284 -0.10257897 -0.12034868 0.18724865 -0.09078811 0.0064870697 -0.04093732 -0.10935062
0.13721058 -0.030211573 -0.095412634 -0.060816817 -0.10338356 -0.13334315 0.17198974 0.111756265
-0.06793883 -0.15298122 -0.024218468 0.07839782 0.011145257 -0.021975141 -0.12576267 0.026856858
0.14088601 -0.10207602 -0.011677379 0.013076716 -0.0063022054 -0.0021124405 -0.05488066 -0.031529516
-0.120036446 0.023205228 0.22294275 -0.17233774 -0.05798485 0.014407124 -0.15979853 0.09528508
0.018440193 -0.2049724 -0.2958915 0.09684434 -0.06628033 -0.016716236 0.025629222 -0.08972565
-0.149432 -0.066792645 -0.099582195 0.004172762 0.07975564 -0.15100157 0.082472876 -0.052200958

base.cnn.4.bias f4 [32]
00000000: 5de3 7bbd 1434 b2bd c3a5 8cbd b516 4ebd
00000010: 6e85 49bd 536c cfbd 5bd1 9bbd d3fb 36bd
00000020: c437 61bd 0697 8bbd 0988 35bd df3c 09be
00000030: 9cb1 c7bc e7e5 8abd 4124 14bd 2f8b 1abc
00000040: f52d 76bd 2396 1cbd 55e9 85bd 0839 01bd
00000050: 087d a7bc 9749 6abd 46bb b2bc 535e b3bd
00000060: f126 2e3c 93a3 54bd fc98 53bd 4a3a e4bc
00000070: b882 37bd 29cb 8fbc 301e adbd 1ab4 d7bd
-0.061496127 -0.08701339 -0.06867554 -0.050314624 -0.049199514 -0.10128083 -0.07608291 -0.044673752
-0.054984823 -0.06815915 -0.044319186 -0.13402127 -0.024376683 -0.06782132 -0.036167387 -0.009432598
-0.06010242 -0.03822912 -0.06538645 -0.03154853 -0.020445362 -0.057199087 -0.021817815 -0.08758225
0.010629402 -0.05191381 -0.05165957 -0.027859826 -0.044802397 -0.017552929 -0.084530234 -0.105323985

base.cnn.7.weight f4 [64, 1728]
00000000: 5422 0cbd 3290 133e d891 bebc 6557 39bc
00000010: c0a5 253d fcf2 d1bd f246 0dbe 841e 713d
00000020: 30fe 54bd 821b 2dbe f274 4fbd 2b4d 0c3e
00000030: 0577 5cbd 6ef2 8b3d ff66 0abe 4659 fa3c
00000040: ca1a 91be faa0 41bd b63b 23be 57bc 7ebb
00000050: 9c27 82bd feba b53a f8ca 56be 0fa1 afbd
00000060: 1fbc 703c c8aa 26bc f084 0f3e 8522 e83d
00000070: 8234 c03d d4ba 923d dcfd ad3c 5338 40be
00000080: f4c5 093d 396a 3d3e 9e82 d63d f1c3 a03d
00000090: a41a 07bd 30c4 d0bd fef0 5fbd b132 893d
000000a0: 8ae1 92bd 454a 38bc 920a 313d 2f33 833d
000000b0: aab8 f13d c029 0a3c 5e74 8d3c 0b7f 243a
000000c0: 15bf d23d a466 0ebd c947 5c3d a1eb bfbd
000000d0: 14c4 1dbe b56b 46bd 6dbc 033d 9667 a7bd
000000e0: 9d15 113c 4ddb 8abd dc54 f73d d3a6 033e
000000f0: 6417 fabc 16fb bb39 c1ff 89bd c03e 103d
00000100: d420 99bc ea55 bbbc 5558 22be b336 6dbd
00000110: 9965 d2bc 9fc2 353e cb26 223d f138 a63d
00000120: b751 23bd 2677 65bd 21af 47be 8a18 a03d
00000130: bf0e 243d d7aa f23c 40d8 343d f035 8c3d
00000140: 735f db3d 8753 6d3d c50a 10be 92f9 75bd
00000150: 3ab7 3dbd ec98 bdbd aa48 d63c ba4c e83c
00000160: c62a 2e3e 2df5 8f3c 1d66 73bd 1004 9abb
00000170: 2e4e 02bd 5f68 c43d c71c bcbd 7066 463d
00000180: 2847 233d 247b 9ebc 6cb4 e13d dcfe d0bd
00000190: a0ca bbbd a018 383d 1f20 c5bd 1b69 483d
000001a0: dfbc 8839 2d02 a53d 7303 99bd 8687 553d
000001b0: 999c ffbc 39d6 3a3d 3348 13bb 5882 0a3e
000001c0: 0aa2 2d3d ec93 02be 5e66 5ebd 2b6d cf3d
000001d0: 58b5 bdbc 7bdb 7dbc 4097 21bd fd78 38be
000001e0: 2928 d73c 8567 dc3d 2677 1dbc 8b9a 123c
000001f0: 0231 d5bd cd86 92bd 3ac1 8c3b 4fdf efbd
00000200: 8d40 683c bc4f 28be 4e10 80bd f313 72bd
00000210: f5ab 22bd 3633 72bd ef61 12bc 7049 48be
00000220: 2a48 92bd 94ea 69be 7950 85bd 8f05 24be
00000230: 214c bc3d a56b 1ebe 9361 5cbb 41c1 233d
00000240: 5550 553d 8c6c ceba 8c15 d4bd 07b7 96bd
00000250: 7536 8fbd f745 0bbd e73f 39bb b9ab d13d
00000260: b1a5 f63d 4385 d8bd 51b5 a0bd 78f6 56bd
00000270: d9d7 00be 61d5 55bd 8760 bf3d 8f67 8bbe
00000280: 20dc ffbd d64f 2cbd a55a f7bd 4084 d6bd
00000290: e1d0 353d 600c 983d ed3d cd3d f669 ebbc
000002a0: 6aec a6bc 5d1e bebd 0f85 193e 8ec9 4cbd
000002b0: 7bf2 d23c 7f30 94bd 6cc7 97bd ff9b f9ba
000002c0: b0ab 9f3d ef3f 403e 1d30 69be db7b d33d
000002d0: 3263 103e 38cb 85bd 2fc2 1c3d 238d f7bc
000002e0: debf fbbd fdab e7bd 3a62 e2bd c02c a03d
000002f0: 1e6b 8e3d aab2 9e3d 6d88 ae3d e7a7 27be
00000300: d689 793c 4f02 a6bc 8c5b 42be 5dbe e6bd
00000310: 51bf 1f3c 0300 0dbe e53a 8b3b 5185 64be
00000320: 2c7d 2b3d f76f e73d a225 ccbd 0d3f 8abc
00000330: c2c4 fc3c e25b 5e3d 3183 1fbe f6dd 2d3e
00000340: e5f7 5bbe d196 093c 1418 c53d 4842 ee3d
00000350: 6547 7fbd 59a5 6f3c b20e 513d c324 da3c
00000360: 30b8 b73b 74a5 6a3c 1b57 4b3e 0cb0 babd
00000370: fb60 99bd 285c 8b3d 957d 3c3d cd10 d73b
00000380: 5bb3 68bc 3e29 0dbe 75e5 a93c 9bea cb3d
00000390: c870 e93d c9b9 c5bd d86a 30bb f03d 033d
000003a0: 307c ea3c f659 fdbd 2852 de3c 3e2e 923c
000003b0: d3f6 ac3d d573 2dbd a9af f1bd 4c4f 813d
000003c0: ac90 123d 19c3 98bc abf1 cfbd 9ca3 e7bd
000003d0: a5d3 21bd 057a 923d ad4d e73d b565 52bd
000003e0: e35e a4bd 4444 58be c847 503e c7e0 43be
000003f0: 0e94 75bc 3025 183d 398f b33d cbcd b53c
-0.034212425 0.14410475 -0.023262903 -0.01131234 0.040441275 -0.10251424 -0.13796595 0.058866993
-0.052000225 -0.16905025 -0.050648637 0.13701312 -0.053824443 0.06833349 -0.13515852 0.030560147
-0.2834075 -0.04727266 -0.15940747 -0.0038869584 -0.06355211 0.0013864932 -0.20975864 -0.08575641
0.014693289 -0.010172553 0.14015555 0.11334709 0.09385015 0.07164541 0.021239214 -0.18771486
0.03363605 0.18497552 0.10474132 0.07849873 -0.03298439 -0.1019367 -0.054673187 0.06699122
-0.071719244 -0.011248176 0.04322297 0.06406247 0.118028 0.008432806 0.017267402 0.00062750344
0.10290352 -0.034765854 0.053779397 -0.093711145 -0.15406829 -0.04844256 0.03216212 -0.08174054
0.008855251 -0.067801096 0.120767325 0.12856607 -0.030528732 0.00035854493 -0.06738234 0.035216093
-0.018692411 -0.022868115 -0.15854008 -0.057913493 -0.025683211 0.17750023 0.039587777 0.081163295
-0.03987285 -0.056021832 -0.195004 0.078171805 0.040053125 0.029622478 0.044151545 0.06846225
0.10711565 0.057940986 -0.14066608 -0.060052462 -0.046317317 -0.09257683 0.026157696 0.028356899
0.17008504 0.017572964 -0.059423555 -0.0047001913 -0.03181284 0.0959022 -0.09185176 0.048437536
0.03986278 -0.019345827 0.11020741 -0.102048606 -0.09169507 0.04494536 -0.09625267 0.04892836
0.0002608066 0.080570556 -0.07471361 0.0521312 -0.031202601 0.045614455 -0.0022473454 0.13526285
0.04239086 -0.1275174 -0.054296844 0.10128244 -0.02315776 -0.015494223 -0.039450884 -0.18014903
0.026264267 0.10761932 -0.009610927 0.008947979 -0.10409738 -0.071546175 0.0042954953 -0.117125146
0.014175546 -0.16436666 -0.0625311 -0.059101056 -0.039714772 -0.05913087 -0.008934482 -0.19559264
-0.071426705 -0.2284339 -0.065094896 -0.16017745 0.09194208 -0.1547075 -0.0033627495 0.039979223
0.052078564 -0.0015748902 -0.10355672 -0.073591284 -0.06992809 -0.03400227 -0.0028266849 0.102378316
0.12043322 -0.10572293 -0.07847083 -0.052481145 -0.1258234 -0.052205447 0.09344583 -0.27227446
-0.124931574 -0.042068325 -0.12077836 -0.104744434 0.044388656 0.07424235 0.10021577 -0.02873705
-0.020376403 -0.09283135 0.14992164 -0.049996905 0.02575039 -0.072358124 -0.074110836 -0.0019043683
0.07796419 0.18774389 -0.2277226 0.10326358 0.1410034 -0.065329015 0.038271125 -0.030218666
-0.12292455 -0.11312101 -0.110538915 0.078210354 0.06954025 0.07748921 0.08522115 -0.16372643
0.015230617 -0.020264773 -0.18980235 -0.11266778 0.009750203 -0.13769536 0.004248964 -0.22316481
0.04186742 0.113006525 -0.099681154 -0.016875768 0.03085554 0.054286845 -0.1557739 0.16979203
-0.21481283 0.008397774 0.09623733 0.11633736 -0.062323947 0.014626824 0.051039405 0.026628857
0.0056066737 0.014321674 0.19857447 -0.091156095 -0.07489201 0.06804687 0.0460182 0.006563282
-0.014202918 -0.13785264 0.020739296 0.09956857 0.113984644 -0.09654576 -0.0026919153 0.03204149
0.02862367 -0.12370674 0.027138785 0.017844316 0.084455155 -0.042346794 -0.11801083 0.06313953
0.0357825 -0.018647717 -0.101535164 -0.11310503 -0.03950848 0.0715218 0.11294112 -0.051366527
-0.08025911 -0.21119791 0.20339882 -0.19128715 -0.014988912 0.03714484 0.08767552 0.022192856

base.cnn.7.bias f4 [64]
00000000: b45b fbbb 277f 6ebd 9ac2 a4bd ee54 74bd
00000010: d5d7 1abc 6354 c53a e81c 3e3b e592 0cbd
00000020: 7318 36bd 2f7a 26bc e298 16bd 441a b6bd
00000030: a44d 903c d370 0ebd 02ad 3abd e815 58bd
00000040: dd2c 853c 758e 54bd a7ee 09bd fec0 debc
00000050: 9b31 cabc 3b61 4abd eb45 2b3d 2bf6 d2bc
00000060: d6d2 b0bc 7e7a 1abe f3d5 78bd b5d5 42bd
00000070: 7501 153d c8ce 8dbd bdaa afbd f711 81bd
00000080: 766a 6bbd f213 71bd def0 48bd 8728 d4bc
00000090: 6712 b73b 5ba5 c33c 6329 3c3c 2387 d2bd
000000a0: 9241 43bd 8c5e 94bd b357 b0bd a244 7dbd
000000b0: ef6a 87bd adef ebbc e324 96bd 4127 7ebb
000000c0: 7766 61bc b301 87bc dfa5 9ebd 1b10 e0bc
000000d0: 41ea 873a 4a2f 2bbd f57d d4bd 8d44 ff3b
000000e0: 2918 83bd cd0b c8bc 975b f3bc 9bb9 01bd
000000f0: 1c67 7abd 65d1 333d 3232 99bd cfdd 5abd
-0.007670844 -0.05822673 -0.0804493 -0.059651308 -0.009450872 0.0015055056 0.0029008929 -0.034319777
-0.04445691 -0.010160967 -0.036766894 -0.088917285 0.017615147 -0.034775566 -0.04557515 -0.052755266
0.016256744 -0.05189367 -0.033674862 -0.027191635 -0.024681857 -0.049409132 0.041814726 -0.025752148
-0.02158491 -0.1508579 -0.060750913 -0.04756709 0.036378343 -0.06924206 -0.085774876 -0.06302255
-0.057474576 -0.058856912 -0.049057834 -0.025898231 0.0055869105 0.023882559 0.011484477 -0.102796815
-0.047669955 -0.07244596 -0.08610477 -0.06183303 -0.06612193 -0.02880081 -0.07331254 -0.0038780721
-0.01375734 -0.016480302 -0.07746481 -0.02735143 0.0010369496 -0.041793145 -0.10375587 0.0077901543
-0.064010926 -0.02441969 -0.02970676 -0.031671148 -0.06113349 0.043900866 -0.07480277 -0.05343419

base.cnn.9.weight f4 [64]
00000000: de8a 903f f780 833f 179f 8e3f 57ee 953f
00000010: 8ea3 893f 8173 853f ec6f 833f 9a74 883f
00000020: 69fb 663f 4420 863f 19fd 823f 132a 8b3f
00000030: 9d14 6b3f a895 853f 345d 643f a8aa 823f
00000040: a22d 6a3f 2b27 6b3f 252a 803f 30d1 6d3f
00000050: 6019 913f 6774 923f a4e3 7a3f 1612 633f
00000060: 2b51 763f a27e 6f3f eb3d 643f 00f0 833f
00000070: a5bd 763f fe66 893f 0ee4 903f b655 893f
00000080: 1509 883f 34e2 773f e038 6c3f 4dd7 7a3f
00000090: 4252 8a3f ce05 4a3f c157 7d3f 2ab6 873f
000000a0: 3297 763f 1e48 883f d17f 8a3f 77a7 8b3f
000000b0: c43a 8e3f 3954 8e3f 2790 813f 237b 7a3f
000000c0: 1027 8f3f e618 893f 97e6 843f f96f 823f
000000d0: 036f 733f bb91 7d3f 65d5 623f 5e35 6e3f
000000e0: f4df 903f 0714 823f 89c4 863f 1878 7d3f
000000f0: 4ccd 6a3f 1cf5 7c3f 998f 773f fdb6 813f
1.1292379 1.0273732 1.11423 1.171336 1.0753038 1.0425874 1.0268531 1.0660584
0.9022737 1.0478597 1.0233489 1.0872215 0.9182833 1.0436296 0.89204717 1.020833
0.9147588 0.9185664 1.0012861 0.9289732 1.1335869 1.1441773 0.980036 0.8869947
0.962176 0.935526 0.8915698 1.0307617 0.96383125 1.0734556 1.1319597 1.0729282
1.0627772 0.96829534 0.92274284 0.9798477 1.0806353 0.7891511 0.98962027 1.0602467
0.96324456 1.0647008 1.0820256 1.0910481 1.1111684 1.1119453 1.0122117 0.9784414
1.1183796 1.0710723 1.038287 1.0190421 0.95091265 0.9905049 0.88606864 0.9305018
1.1318345 1.0162362 1.0528728 0.99011374 0.9171951 0.9881151 0.9670349 1.0133969

base.cnn.9.bias f4 [64]
00000000: dfdd d9bc 9845 ae3d 7ee4 95bd f04e febd
00000010: 8399 123c 744f bb3d 87b0 f33c cacc d4bd
00000020: 97c6 c5bd 9c34 d0bd ab04 2ebd c81a 2abd
00000030: 5723 943d 913c 3e3d 71bd 11bc c94a 57bc
00000040: cbbf 223e fd06 96bc e668 dfbd 86a2 1b3d
00000050: c313 a6bd c942 38be b6c9 a53b 62d2 df3d
00000060: 25d9 933d b81c c0bc 6898 1f3e 4e50 65bd
00000070: cad5 443d e8b0 d7ba c36b c6bd b25a 0a3c
00000080: d715 b0bd dd2f c33d ff1f b83c 7c47 7dbd
00000090: 78f9 2bbd 1cea d73d cd96 a33d 62e5 83bc
000000a0: 0009 81bc b4d2 20bd 25be 8cbd 014b 4abd
000000b0: 5d6c d03a d21b 39bd 4233 c8bd 773b 69bd
000000c0: 4462 acbc 1687 cdbd fb2a cbbc 057b 3fbd
000000d0: 273e 3c3d 2b0d e4bc ef93 b73d 855e 353d
000000e0: 7872 28be 5179 45bd c1fa 1ebe 0d36 263c
000000f0: 1b37 d9bd eb10 c53d c8fc ca3d 7ebf a13d
-0.026595054 0.08509368 -0.07318972 -0.124174 0.008947733 0.09146014 0.02974726 -0.10390623
-0.09657019 -0.101662844 -0.04248492 -0.041529447 0.07233303 0.04644448 -0.008895264 -0.013140389
0.15893476 -0.01831388 -0.1090868 0.03799679 -0.08109238 -0.17994227 0.005059446 0.10928799
0.072191514 -0.023451194 0.15585482 -0.055984788 0.048055448 -0.001645592 -0.09688523 0.008444475
-0.085979156 0.095306136 0.022476194 -0.06183575 -0.04198596 0.105427 0.07987747 -0.01610059
-0.015751362 -0.039263442 -0.06872205 -0.049387936 0.0015901435 -0.045192547 -0.09775402 -0.056941476
-0.02104295 -0.10035531 -0.024800768 -0.04674818 0.04595771 -0.02783831 0.08963763 0.044279594
-0.16449916 -0.0482114 -0.15525343 0.010144723 -0.10606214 0.096223675 0.099114954 0.07897852

base.cnn.10.weight f4 [64, 64]
00000000: 92bb 823c 968c a2bd b0d9 fbbd ee4f 103e
00000010: e250 d3be cc60 1ebc 1f85 433e d8c2 32bd
00000020: 5dea e13d 2acc 0bbe e739 95be 229e 44be
00000030: d7b8 dc3e a4a4 c13d ee7f 3abd f795 37be
00000040: 50de 39be 45d2 35be ee4c 16be b3b3 b1bc
00000050: 5f13 66be 4e2f c63d 597c 3dbe c197 7d3d
00000060: 6ec3 753e 734a 65bd d2e0 e43c db5b 33be
00000070: 78e3 04bf 3397 9d3e 2a1b 24bd 173d 963e
00000080: 891f 1b3e da3a 8cbe d1d0 dd3e 0478 25be
00000090: 6807 f13c 1da8 08be ef2a 1cba 502a 65be
000000a0: 6048 3fbe 0198 0a3d 19e4 ce3e c331 d4be
000000b0: 8bd2 3f3e 7a65 dd3c c52f c43e d75b 1e3e
000000c0: 4b38 ac3e f649 253e 829c 0b3e d666 7f3d
000000d0: c04f 74bd 9deb b83d c873 123e feef b83d
000000e0: bad5 103e e540 783e 4a51 c4be 7a83 e8bd
000000f0: ef2b e4be 2656 6d3e 29d9 0ebf b12c b8bd
00000100: e1e6 99bd d5a2 31bd 8b44 c33d 0737 5a3e
00000110: 9981 2e3d 50c4 babe 5baa 84be 4c88 df3d
00000120: 10b2 803e 5c21 983e 4f75 afbc fbe9 02be
00000130: db1c adbe 874b 1fbd 2b54 073e c3dc 44bb
00000140: 7a82 b5bd dc69 65be c28f bebe 01d3 973d
00000150: fbfb 35bd 11e4 37bd 1f8d 23bd d336 733d
00000160: 026d db3d 0943 fcbd 7d35 853b dbcb adbe
00000170: 6708 c0bd 88a5 e63d ef78 a3be 6391 43be
00000180: 2be4 763e b498 cf3c 3842 003e 6cfb a73d
00000190: 3a72 28be 954e 02be f3de 89be d5d0 f4be
000001a0: 1a2a 2dbe 63f3 383d 151c 0bbe 7d47 6b3e
000001b0: e751 013e a0d8 e0be 9245 46be b9a5 ffbd
000001c0: 0b70 d7bd b90e 8f3d 4878 e23d 08fb 86bd
000001d0: 88fc 0cbb 0922 acbc c2c4 803d a22d d7bd
000001e0: 443d 5f3e c834 df3d bfb4 003d 5df8 963d
000001f0: f295 183e d67d eb3d 7988 90be 8297 b3be
00000200: 1de6 c13c 31f9 db3d 5714 223d 10af e93e
00000210: d650 a53d f258 c7be d97a 2ebf aff7 843d
00000220: f158 5d3e e594 d4bd 8871 b23e 5fd7 2d3d
00000230: f602 5a3d 6868 10be 3c20 91bc 0994 b0bd
00000240: a152 6c3e 03fd 703d 8434 833d 67d2 29be
00000250: 091a 07bd 3caf 603c 98ff 39be 75b5 b8bd
00000260: 33d7 4a3e 6bb8 733e 985b 04be 71ea 85be
00000270: 6a2e a4be d00f 4dbd 46b6 c63d 5bc7 a03d
00000280: 3396 573d cb8c 653d 05a4 ee3d abe6 45be
00000290: 0604 38be 1ed1 74be 0e7d 893e 7aa1 e43d
000002a0: 2cf0 4b3e eb19 ef3d 3f55 3b3c 852d de3d
000002b0: c2fe 32be 1bbf db3e 1f1f 0e3e 2bff 513e
000002c0: eb81 4b3d 192a c73d 6cd2 003e 3d1e 6cbe
000002d0: 4e46 04bf 51b6 bcbc 6b05 173e eb34 a8bd
000002e0: 8ba0 ea3e 6b63 cc3d 735a f03a d468 833e
000002f0: 934b 5dbd 4a25 103f 52bf 873e 777f a63d
00000300: 194c 313d 4b37 30be dd6e d4bd 901b 2c3c
00000310: 98fd 7c3c 69b8 f93d fa75 a4bd 4a54 f4bd
00000320: 15cf b8bd 5a8f 843e 0605 abbe 5e6e 46bd
00000330: 2f6e 913d f498 713e 9a08 9d3e b938 a83e
00000340: c462 0cbe d426 b23e e919 9ebe 466d 45be
00000350: 0883 61bd 351f 5f3d 5799 ba3d 48ae febd
00000360: 8671 273e c540 61bd c175 2fbd 606a 1a3f
00000370: cfb3 183b b48d 7c3c bd83 4f3e 4256 66bd
00000380: 2aef 343e 7469 5d3e 459c 04be 0931 e5bd
00000390: 4b89 39be f024 083d d927 e7be 420f 53bd
000003a0: e15d 713e 687f 993d 2484 6dbe ccc7 343e
000003b0: 264a 4abe f4ee 883c a2cf 023e b04a 283e
000003c0: bbd2 3bbd 0f1f 2f3c c590 07be 5b44 22bf
000003d0: 636e c83d f1ad ffbc bb4d 653e a111 913d
000003e0: a9ac b03c cdc5 80bd 6774 83bd 74c4 853e
000003f0: ff91 bb3d 2ff1 71bd 4468 f0bd f14f c4bd
0.015958581 -0.07936971 -0.1229738 0.14092991 -0.41272646 -0.009666633 0.1909375 -0.04364285
0.110310294 -0.13652101 -0.29145738 -0.19200948 0.43109772 0.09455231 -0.04553216 -0.17928301
-0.18151212 -0.17755993 -0.14677784 -0.021692133 -0.22468327 0.096769914 -0.18504466 0.061912302
0.24000332 -0.055979203 0.027939234 -0.17515509 -0.5190959 0.30779418 -0.04006497 0.29343483
0.15148748 -0.2738865 0.43323377 -0.16159064 0.029422477 -0.1334538 -0.00059573253 -0.22379422
-0.18679953 0.03383637 0.404084 -0.41444215 0.1873266 0.027025927 0.38317695 0.15464722
0.33636698 0.16141495 0.13633922 0.06235393 -0.059646368 0.09029315 0.1430198 0.0903015
0.1414403 0.24243505 -0.3834327 -0.11353202 -0.4456477 0.23177394 -0.5580011 -0.08992899
-0.0751474 -0.04336818 0.09534558 0.21310054 0.042604063 -0.364779 -0.2591122 0.109146684
0.2513585 0.2971295 -0.021418242 -0.12784569 -0.33811077 -0.038890388 0.13215701 -0.003003881
-0.08862777 -0.22403663 -0.37219054 0.07413293 -0.04442976 -0.044895235 -0.039929505 0.059378456
0.10714151 -0.123174734 0.004065214 -0.33944592 -0.093766026 0.11262041 -0.31928203 -0.1909843
0.24110477 0.02534137 0.1252526 0.08202252 -0.16449824 -0.12725289 -0.2692791 -0.47815576
-0.16910592 0.045153987 -0.13584931 0.2297649 0.126289 -0.43915272 -0.19362476 -0.12482781
-0.105194174 0.0698523 0.11058098 -0.06590849 -0.0021512825 -0.021012323 0.062875286 -0.10506751
0.21800715 0.10898739 0.031422373 0.0737159 0.1490095 0.11498611 -0.2822912 -0.3507653
0.023669297 0.10740889 0.03957018 0.45641375 0.08072059 -0.38935047 -0.681562 0.064925544
0.2161596 -0.10379962 0.34852242 0.042441722 0.05322548 -0.14102328 -0.017715566 -0.086219855
0.23078395 0.05883504 0.06406501 -0.16584168 -0.032983813 0.013713654 -0.18163908 -0.09018985
0.19808654 0.23800819 -0.12925565 -0.26155427 -0.3206666 -0.050063908 0.09702735 0.07850524
0.052633476 0.056042474 0.11652378 -0.19326274 -0.17970285 -0.23907897 0.26853222 0.11163612
0.19915837 0.11674865 0.0114338985 0.10848526 -0.17479995 0.4291924 0.1387906 0.20507495
0.049684446 0.09724826 0.1258027 -0.2305841 -0.51669776 -0.023036154 0.1474816 -0.08213218
0.4582561 0.099799 0.0018337503 0.25665915 -0.05402715 0.563069 0.26513153 0.08129781
0.043285463 -0.17208593 -0.10372708 0.010504618 0.015441321 0.121933766 -0.08030315 -0.11930139
-0.09023873 0.2589062 -0.3340227 -0.048445098 0.07101094 0.23593503 0.30670625 0.32855776
-0.13709551 0.34795249 -0.30879143 -0.19279966 -0.0550566 0.05447312 0.091112785 -0.12435585
0.163519 -0.05499341 -0.04283691 0.60318565 0.0023300534 0.015414644 0.20265098 -0.056234606
0.17669359 0.21622258 -0.12950237 -0.11190993 -0.1811878 0.03323835 -0.4514759 -0.051528223
0.23570968 0.07495004 -0.23194939 0.17654341 -0.19754848 0.016715504 0.12774518 0.16434741
-0.045855265 0.010688557 -0.13238819 -0.6338555 0.097866796 -0.031210871 0.22392933 0.070834406
0.021566706 -0.062877275 -0.06418686 0.26126444 0.09158706 -0.0590679 -0.11738637 -0.0958556

base.cnn.10.bias f4 [64]
00000000: 0b67 4cbb c024 e6bc c663 55bd 1fb5 75bd
00000010: f25b 18be 593c 85bd cde4 22be da41 14bd
00000020: bbf4 e7bd b784 0abe 7a37 8bbd 7ed9 c7bc
00000030: abd8 0bbd 9f5f 063d 40de 4ebd 7c8c 8fbd
00000040: 3cc9 0ebe e251 d7bc 1ba8 34bb 89f5 b6ba
00000050: b115 80bd 2c75 aab9 dcaf 51bd 344b 203d
00000060: 387b 97bd 4358 52bd 4420 b7bd 5926 31be
00000070: 4a7c d2bd 81d4 22bd 97cd b8bd 3f7a d6bb
00000080: 3130 f7bd 8b01 dbbd ec7d dcbd 0776 923d
00000090: d65e 02bd b0e2 38be da04 02be 71d7 57bd
000000a0: b2ad 89bd ddae de3c a758 84bd 2165 25bd
000000b0: 5d32 06be 99d2 94bd f575 68bd d29f 81bd
000000c0: 8170 60bc 9b2a 55be 2496 44bb 15f5 113b
000000d0: ef5c 7fbd 04f2 43be 1ba5 abbc 7653 9cbd
000000e0: 88d6 50bc 3a74 26bb 4082 f9bd cdfe 0ebe
000000f0: 4e43 68bd 7996 b33d ff8b 8fbd 3652 20be
-0.0031189348 -0.028093696 -0.052097104 -0.059987184 -0.14878824 -0.06505651 -0.15907593 -0.036195613
-0.113259755 -0.13527189 -0.06797691 -0.0243957 -0.034142178 0.032806035 -0.050504923 -0.07009217
-0.13943952 -0.026284162 -0.002756602 -0.0013958673 -0.06254137 -0.00032512227 -0.051193103 0.03913422
-0.07396549 -0.051353704 -0.08941701 -0.17299785 -0.102776125 -0.03975344 -0.09023588 -0.0065453346
-0.12069739 -0.10693654 -0.10766205 0.07151418 -0.031828724 -0.18055224 -0.12697163 -0.052695695
-0.06722583 0.02718299 -0.064622216 -0.040379647 -0.1310515 -0.07266731 -0.056753118 -0.063293114
-0.013698698 -0.20817034 -0.0029996717 0.0022271324 -0.062344488 -0.1913529 -0.020952752 -0.076331064
-0.012746461 -0.0025398866 -0.12183046 -0.13964386 -0.05670481 0.08768935 -0.07009124 -0.15656361

base.cnn.12.weight f4 [64]
00000000: b7c1 863f 9fe4 773f 022e 9b3f d03d 7d3f
00000010: 3c64 803f e987 533f 873d 6a3f f65e 8c3f
00000020: 038f 933f 2634 753f 3e00 6e3f 2276 943f
00000030: 24de 793f 60d6 893f 3dcc 643f 0a13 8b3f
00000040: 243b 6a3f c870 7f3f 523d 8e3f f41c 5b3f
00000050: 6d0d 813f 0aa2 843f 44ff 7f3f 169d 7e3f
00000060: e7dd 5c3f 1630 7a3f de10 8b3f bdc1 793f
00000070: 92e7 723f fa85 723f 61aa 783f 688e 743f
00000080: ed5f 833f 2a86 773f d18b 6d3f d140 8b3f
00000090: 0749 863f 7622 833f eb37 8d3f 1609 813f
000000a0: ed91 873f d1b3 7d3f 9428 823f e35b 843f
000000b0: 1322 833f 820f 983f 8c32 873f a77c 863f
000000c0: e808 7f3f 0959 6e3f 8fb6 923f 5158 9e3f
000000d0: a216 763f 4e19 803f 2a5c 503f 170a 733f
000000e0: 4dbc 8a3f 8014 8a3f e4be 8a3f a3c3 983f
000000f0: c170 703f 667c 663f 3500 813f ccf2 8a3f
1.0527867 0.96833223 1.2123415 0.98922443 1.0030589 0.8262926 0.91500133 1.096648
1.1528019 0.957827 0.9296912 1.1598551 0.97604585 1.0768547 0.8937414 1.0865185
0.9149649 0.99781466 1.1112463 0.85591054 1.0082222 1.036195 0.9999888 0.99458444
0.86276096 0.97729623 1.0864522 0.97561246 0.948846 0.9473568 0.9713498 0.95529795
1.0263649 0.96689093 0.9279147 1.0879155 1.0491036 1.0244892 1.103269 1.0080898
1.0591408 0.99102503 1.0168633 1.0340542 1.0244774 1.1879733 1.0562301 1.0506791
0.99622965 0.93104607 1.1461962 1.2370702 0.96128285 1.0007722 0.8139063 0.9493727
1.0838715 1.0787506 1.0839505 1.1934704 0.9392205 0.90033567 1.0078188 1.0855346

base.cnn.12.bias f4 [64]
00000000: b9d9 e03d 3c5b e5bd 8dd6 03bc d211 06bd
00000010: 09e1 963d 2c63 b53d 0ea3 7b3c 9e05 95bd
00000020: d88b 34be e6ea d2bc 75e4 a83d e9dc 17be
00000030: ceec 7a3d 7667 c93d 9ed6 ae3d 40fd 933c
00000040: 253f e8bd 4f1d 9b3d e745 c7bd be6b 05bc
00000050: 43fa 283e e8d5 f03c e822 67bd b35f d23d
00000060: eae2 fb3c e3d0 5b3d 9998 54bd a55a 37be
00000070: 7441 f4bd eae8 133e 749c bebd 4088 363d
00000080: 380d 81bc d740 983c f13d acbc db93 a43b
00000090: 5b96 b93d 401c f9bd f2ec c5bd ef1e d23c
000000a0: 71a5 d8bb 6ba2 403c 0464 463d b61d 473d
000000b0: 17a5 933b 4b9b 63be 52fe 9abb c32d 5239
000000c0: bc35 2a3d 3692 553b d30b 93bd dec9 49ba
000000d0: 6d8b 7fbd 971e 193d 7173 973d b61b fabd
000000e0: b610 e53c ebfb fe3b e921 57be ea9c 4abe
000000f0: 9d0a d53d 8e31 433d 70f5 abbd 5e43 fbbb
0.10979027 -0.11199042 -0.008046758 -0.03273184 0.07367141 0.08856806 0.0153586995 -0.07276462
-0.17631471 -0.025746774 0.082467 -0.14830364 0.06126099 0.09834187 0.08537029 0.018065095
-0.11340169 0.075739495 -0.0973013 -0.0081433635 0.16501717 0.029398873 -0.056429774 0.102721594
0.03074785 0.053666007 -0.05190334 -0.17905672 -0.11926547 0.14444318 -0.09307185 0.044563532
-0.015753374 0.018585606 -0.02102563 0.0050225086 0.09061881 -0.121635914 -0.09664334 0.025649516
-0.006611519 0.011757473 0.048435226 0.04861232 0.004505764 -0.22227208 -0.0047300244 0.00020044208
0.04155515 0.003258837 -0.0717999 -0.0007697622 -0.062388826 0.03738269 0.073950656 -0.12212317
0.02796207 0.007781496 -0.2100903 -0.1978642 0.10402415 0.04765468 -0.08396423 -0.007667943

base.cnn.13.weight f4 [64, 64]
00000000: 71d2 19be dc77 013e f514 0fbe d2b9 0e3e
00000010: 818c 83be 05e1 b4bd 5341 ac3e dd45 81be
00000020: ee3f 2b3e cc1c 2fbe dee6 3e3e e07f a7be
00000030: 0f8b 2e3d 29a5 833e a0a0 b2be 02ec aa3d
00000040: ad7b bf3e bb7d 263e 5319 033e ef9b 11bd
00000050: de6f 02be f4df b1be 6616 24be d1a8 51be
00000060: 1d8f 883e fa98 68be c023 983e c215 3dbe
00000070: 240f 9ebd 1583 bbbe e267 b9bd aee1 813e
00000080: 4ad0 d33d 1eb0 003d 39b4 103e 5255 143e
00000090: 3a3a ca3e fd04 07be a5bd 2a3e db5b d4bd
000000a0: 659e a5be 9c0e 843d 58c1 81be c1de e3bb
000000b0: ae32 bb3d d24a 44be 75ef cebb f9d1 51be
000000c0: 10aa 39be e181 ec3c e16b b1bd 5701 383e
000000d0: e749 793c 5f9c 9fbe eae2 8fbe a478 153e
000000e0: 5885 8c3e fa50 a4bd af63 7cbe 5485 843d
000000f0: dfa0 54bd 987d 27be e1c6 ff3c 5255 263e
00000100: 19ae 15be e54f 39bd c0c5 f53d 519a 843e
00000110: 9bac efbd 2329 863c 5132 bd3e b17c 573e
00000120: 29af a33d 511b eabc 7ac7 ef3d 65e5 bebd
00000130: 2576 e4bc 008c 5d3e 1bba 1c3e b11a c93e
00000140: 1914 b73d c31a cfbd 7848 22be 1e16 e93c
00000150: 2afe 073d 6265 95be b10d 0f3b 1bc6 9dbc
00000160: 59c7 18be c660 973e 994e db3e 47f2 8e3c
00000170: 062f cc3d 187d 60bd c77f 0e3f 0df4 133e
00000180: c0e5 24be 750c 37be 8e28 093e 4f8f 5cbe
00000190: 78b7 8fbd c669 d33e c8f7 bebe 7e52 52be
000001a0: 2f60 c53e 733b 953d f0da afbd ba99 6abe
000001b0: ad07 103e 88be 2a3e 564a 22be 2076 d23d
000001c0: a3e5 45be 2e7e eebd f792 e8bd 4c06 5f3e
000001d0: 4a9b f6bd 9105 083f 7eb0 d2bd 47e4 cfbd
000001e0: cffd ddbd 06cc 3fbe 9a72 7fbe 49b5 0f3e
000001f0: ba5a 8f3e 9ac3 ad3d 280d ad3e 8687 1f3e
00000200: 8c48 83be a9a9 87bd 6810 5e3e a040 a13e
00000210: 268b 933d fa43 2dbe 9d50 153e 04f5 a23e
00000220: b88a 713c 6421 633e b988 4d3e 48eb ebbb
00000230: 69cb 643e c8d6 e9bd ee04 b93e f274 eb3d
00000240: 3a3f 533c fee2 cabd 011c 91be 9532 03bc
00000250: d0d9 71be 454f 883e 3a72 3ebe c25d 97bd
00000260: 68ce ca3c 801a b53d 84e3 a0be a40c cc3d
00000270: 63fb 51bd 1132 8d3d 91fd d4be 1650 cc3e
00000280: 884e a7be 7ed7 273e 94d6 81bd 92c8 4dbe
00000290: d27a 883e 6ed2 de3d f2dc 38be 5811 94be
000002a0: 1ffc 4ebd ff09 b5bc 4cf4 cd3d b947 b23e
000002b0: c30f f23d 4e29 51be 0320 7d3c 69df 3a3e
000002c0: 9872 80bd f386 dc3d 7f29 f2bd 4be0 06be
000002d0: f94b 673e d0a5 883d 057b bd3e f1fa ef3e
000002e0: af27 7bbe 64a7 07bd cf5f af3e 9b83 9b3d
000002f0: 3807 76bd 99aa 88be 4eeb e33c 908b 913e
00000300: ffe0 d03e 1828 9cbd 4b1a 2d3e d8e5 0ebc
00000310: e09c e93d cb00 a1bd 1635 24be 87c3 1b3e
00000320: a56d b63d ddc6 873e 841a babe cd16 abbe
00000330: c8ef 07be 9314 a63e 5aed d53d e82c 8bbd
00000340: 7644 52bc 6964 65be 6000 c0bc 5157 57be
00000350: 55c9 92be 0b42 3bbe fd36 aebe 91a9 a6be
00000360: 84ec 18be ae17 04bc eea5 f0bd 8e8e 713d
00000370: 03fb c33e a7fe 7f3e 96a4 053c eb8b 6ebe
00000380: 2a88 033c c1ae 82be 27e8 1cbe a0ea 4c3e
00000390: ead7 fbbd b7fd 8bbc d971 d73d 72eb 7f3e
000003a0: 2f50 76bd ccd1 103a 54ba 343c 9a62 79be
000003b0: fd41 00be 0fde ae3d ef44 893e 5619 0e3e
000003c0: 7c8f a1be ff17 9f3d 37bf d4be da5c 883d
000003d0: 3489 8c3e 90a4 dc3c adef 84bd 0320 d23c
000003e0: 330f b0be 6c1e 8abc a243 fcbd e816 903d
000003f0: 60b8 ad3e 992a 31be 804f 46be 1b09 f73c
-0.15021683 0.12643379 -0.13972838 0.13938072 -0.25693133 -0.088319816 0.33643588 -0.25248614
0.16723606 -0.17100829 0.18642756 -0.32714748 0.042613085 0.25711945 -0.34888172 0.08345796
0.37399045 0.162589 0.12802629 -0.0355491 -0.12737986 -0.34741175 -0.1602417 -0.20474555
0.26671687 -0.22714606 0.29714775 -0.18465331 -0.077177316 -0.36623445 -0.09053017 0.25367492
0.10342462 0.03141796 0.1413125 0.14485672 0.39497548 -0.13185497 0.16673906 -0.103690825
-0.32347408 0.06448099 -0.25342822 -0.0069540446 0.09140526 -0.19169167 -0.0063151666 -0.20490254
-0.1813128 0.028870525 -0.086631544 0.17969261 0.015215374 -0.3117399 -0.2810281 0.14596802
0.27445483 -0.080232576 -0.24647401 0.06470743 -0.05191123 -0.16356504 0.031222763 0.16243485
-0.14617194 -0.04524221 0.120006084 0.25898984 -0.11702844 0.016377037 0.3695245 0.2104366
0.079923935 -0.028577479 0.11707969 -0.09321097 -0.027888367 0.21635437 0.15305369 0.39278176
0.0893938 -0.10112526 -0.15847957 0.02845293 0.033201374 -0.2917891 0.002182823 -0.019259503
-0.14919795 0.2956602 0.42833403 0.017449511 0.099699065 -0.0548068 0.5566372 0.14448567
-0.16103268 -0.17875846 0.13394377 -0.21539043 -0.07017416 0.41291636 -0.37298417 -0.20539281
0.38549945 0.0728673 -0.08586681 -0.22910205 0.14065428 0.16674244 -0.1584867 0.10276437
-0.1932588 -0.116451606 -0.11356156 0.21779746 -0.12041338 0.53133494 -0.102875695 -0.10150962
-0.10839426 -0.18730173 -0.24946061 0.14033999 0.27998906 0.08484574 0.337991 0.15579042
-0.25641286 -0.06624157 0.21685946 0.31494617 0.07204275 -0.16920462 0.14581533 0.31827557
0.014742546 0.22180706 0.20071687 -0.0071996786 0.2234322 -0.114179194 0.36136574 0.11496915
0.012893492 -0.099065766 -0.28341678 -0.008007665 -0.23618245 0.26622978 -0.18598261 -0.0739093
0.024756625 0.08842945 -0.3142358 0.099633485 -0.05126513 0.06894315 -0.41599706 0.3990485
-0.32677102 0.16390797 -0.06339756 -0.20096043 0.26656204 0.1087998 -0.18053034 -0.28919482
-0.05053341 -0.022099493 0.100563616 0.34820345 0.118194126 -0.20425913 0.015449527 0.18249287
-0.06271857 0.10767927 -0.11824321 -0.13171498 0.22587575 0.06672251 0.3700792 0.4687114
-0.24526857 -0.03311862 0.34252784 0.07593461 -0.060065478 -0.26692656 0.027822163 0.2842679
0.40796658 -0.07624835 0.16904561 -0.008721791 0.11406875 -0.07861479 -0.16035876 0.15211307
0.08907632 0.26518908 -0.36348355 -0.33415833 -0.13275063 0.32437572 0.10445662 -0.067956746
-0.012833705 -0.22401585 -0.023437679 -0.21029402 -0.2866923 -0.18286912 -0.34026328 -0.32551244
-0.14933974 -0.008062286 -0.117503986 0.05897384 0.38277444 0.24999486 0.008156916 -0.23295562
0.0080280695 -0.25523952 -0.15322934 0.20011377 -0.12297042 -0.017088754 0.105197616 0.24992159
-0.060135063 0.0005524426 0.011030752 -0.2435402 -0.12525173 0.08538448 0.26810405 0.13876852
-0.31554782 0.07768249 -0.41552135 0.06658335 0.27448428 0.026933938 -0.06491027 0.02565003
-0.34386596 -0.01686021 -0.123175874 0.07035619 0.3392973 -0.17301406 -0.19366264 0.030155709
