CRL_human_AI_overcooked/human_models/model_random1/actor_best_r4.pt (torch, 419411 bytes, 20 tensors)

base.cnn.0.weight f4 [32, 20, 3, 3]
0.25730953 -0.0014750088 -0.09880006 0.027054032 -0.016287928 0.07376362 0.20164406 0.22974385
-0.027255448 0.014534644 -0.19430704 0.19927326 -0.2826963 -0.15574129 0.1243113 -0.049232956
-0.08948935 -0.081478894 0.44937187 -0.22601107 -0.283809 -0.2669627 0.118458495 0.1930111
0.3926386 -0.11747287 -0.29328588 -0.07410933 0.1897926 0.1822527 -0.07175966 -0.09789605
-0.11991547 -0.3012446 0.07514278 -0.14956494 0.19362122 -0.24694695 0.0780069 0.16255447
0.011020248 -0.019376438 0.0740355 -0.026025113 0.03205433 -0.0015083496 -0.04008889 0.09070637
-0.1473685 0.21632576 0.07181735 0.049410276 0.2383091 0.22131036 0.17378071 0.09034373
0.11585053 0.25222144 0.07886144 0.20920815 -0.029069876 -0.14762978 0.014963649 0.024910938
0.12100189 0.062701285 -0.12867798 -0.15798952 0.14518334 0.032348912 -0.30208436 -0.07315062
-0.31492624 -0.00489431 0.2636803 0.0052281623 -0.18493555 0.109820634 0.031842094 -0.08995319
-0.007882899 -0.06604436 -0.13795288 -0.16592294 -0.0036524567 -0.25328833 0.30344206 0.029565033
0.21750341 0.10570926 0.0104494365 -0.1199219 -0.13941038 -0.03751311 0.06660886 -0.03567104
-0.006247105 0.15864319 -0.123315096 0.0077748676 0.07836137 -0.033364244 -0.06663253 -0.2085078
-0.004265551 -0.06415456 0.03733208 -0.03166255 0.10571662 0.14259498 0.08358575 0.056616027
-0.12551709 -0.06325022 0.1700801 0.15260167 0.1288828 0.01635972 0.08226197 -0.093942456
0.09159317 -0.017975977 -0.22628658 0.08166758 0.03950579 -0.06936001 -0.12056036 -0.15802437
-0.06987592 0.1492567 0.11179968 -0.024946744 -0.026647078 -0.14106871 -0.037364375 0.113461085
-0.18679743 0.05444319 0.094677806 -0.105003834 -0.147381 -0.046905424 -0.1768795 0.21481697
-0.06719333 0.12676203 -0.042946167 -0.09735836 -0.016931355 -0.05412429 0.0121207945 -0.19006842
-0.16741475 0.23859976 0.59302866 -0.22798212 0.34883568 0.10931205 -0.1265609 -0.07205639
-0.16181785 -0.024791624 -0.11844558 -0.23712341 -0.13748777 0.014669414 -0.40338165 0.26763985
-0.09627211 0.10582921 0.22744584 0.12386073 0.07438326 0.032320846 0.2107837 0.14019014
-0.3433993 0.13333577 -0.2154537 -0.059566263 0.007380839 -0.17938104 -0.11787672 0.039322365
-0.10252718 -0.19664319 -0.2503792 0.04230073 -0.18782821 0.090591095 -0.04804408 -0.24426125
0.22577767 -0.0051882146 -0.004508269 0.12360691 -0.062301997 -0.10145435 0.114079 0.09104948
-0.21111712 -0.14510317 0.10634547 0.021217156 0.2049497 -0.21038346 -0.07282089 0.041423988
-0.1744639 0.1112981 0.2997221 0.08508992 0.022906795 0.07808556 -0.0028909687 -0.07008145
0.13363868 -0.14627367 -0.47916442 0.064197026 0.31861624 -0.07440116 0.018261222 -0.23026371
0.0613082 -0.18666165 -0.4013192 0.037238136 0.08457429 -0.075518936 -0.2680715 0.14014138
0.21868078 -0.027150206 0.10127669 0.08013884 0.035062756 0.06083485 0.0515488 -0.064488165
-0.026969679 -0.005997354 0.04027297 -0.096896894 0.27596885 -0.26503584 0.013478944 0.23342769
0.22900666 0.07114516 -0.32203344 -0.15707423 0.38706157 -0.25678238 0.03543801 -0.12340948
00000000: 13be 833e 1555 c1ba b057 cabd 6ba0 dd3c
00000010: 436e 85bc 6111 973d c87b 4e3e f941 6b3e
00000020: d146 dfbc b722 6e3c 6df8 46be 4a0e 4c3e
00000030: 92bd 90be a57a 1fbe ec96 fe3d 7fa8 49bd
00000040: 3146 b7bd 68de a6bd 1214 e63e 726f 67be
00000050: 6a4f 91be 56af 88be 5e9a f23d b4a4 453e
00000060: ed07 c93e 9e95 f0bd 9129 96be a2c6 97bd
00000070: fe58 423e 74a0 3a3e bbf6 92bd b97d c8bd
00000080: 3e96 f5bd bb3c 9abe 75e4 993d 8d27 19be
00000090: a444 463e a9df 7cbe 15c2 9f3d ae74 263e
000000a0: 458e 343c 56bb 9ebc ed9f 973d 9e32 d5bc
000000b0: 674b 033d d0b3 c5ba 3f34 24bd 43c4 b93d
000000c0: c5e7 16be 8084 5d3e fa14 933d 6e62 4a3d
000000d0: 4d07 743e 2f9f 623e 92f3 313e 2206 b93d
000000e0: 0b43 ed3d 2b23 813e 1b82 a13d a93a 563e
000000f0: f323 eebc 432c 17be 182a 753c 0612 cc3c
00000100: d7cf f73d 8869 803d 29c4 03be 01c8 21be
00000110: f1aa 143e 4b80 043d cdaa 9abe fecf 95bd
00000120: 033e a1be 7360 a0bb 1b01 873e 0151 ab3b
00000130: bf5f 3dbe a4e9 e03d db6c 023d 6139 b8bd
00000140: 4627 01bc 4442 87bd 8543 0dbe b4e7 29be
00000150: 0e5e 6fbb 02af 81be c25c 9b3e 5e32 f23c
00000160: 37b9 5e3e 197e d83d 1d34 2b3c 9d99 f5bd
00000170: 98c1 0ebe 59a7 19bd 3a6a 883d cc1b 12bd
00000180: 84b4 ccbb 5c73 223e a08c fcbd 51c4 fe3b
00000190: ed7b a03d f2a8 08bd a376 88bd 1283 55be
000001a0: 09c6 8bbb 7763 83bd 86e9 183d 97b0 01bd
000001b0: f581 d83d 6b04 123e 012f ab3d 35e6 673d
000001c0: 8d87 00be 5589 81bd 7a29 2e3e 9d43 1c3e
000001d0: daf9 033e d204 863c f778 a83d e764 c0bd
000001e0: 3395 bb3d 5b42 93bc abb7 67be 5541 a73d
000001f0: d3d0 213d 9f0c 8ebd 5ae8 f6bd 24d1 21be
00000200: 1b1b 8fbd c0d6 183e 3bf7 e43d 1d5d ccbc
00000210: f94a dabc 5174 10be 630b 19bd 495e e83d
00000220: d347 3fbe d3ff 5e3d 70e6 c13d 400c d7bd
00000230: 0beb 16be e71f 40bd e61f 35be fbf8 5b3e
00000240: a89c 89bd e8cd 013e 52e8 2fbd d263 c7bd
00000250: a0b3 8abc 6eb1 5dbd 4c96 463c 4ca1 42be
00000260: c66e 2bbe 7f53 743e bad0 173f 2574 69be
00000270: 979a b23e ffde df3d 2e99 01be 4d92 93bd
00000280: 94b3 25be ce17 cbbc 9993 f2bd 7bd0 72be
00000290: 98c9 0cbe fb57 703c 0a88 cebe 1708 893e
000002a0: 502a c5bd fcbc d83d 90e7 683e b2aa fd3d
000002b0: 4056 983d dd62 043d afd7 573e 018e 0f3e
000002c0: 08d2 afbe 2c89 083e e59f 5cbe c1fb 73bd
000002d0: f7da f13b aaaf 37be 5a69 f1bd 7d10 213d
000002e0: c5f9 d1bd d55c 49be b431 80be 8843 2d3d
000002f0: 0a56 40be d387 b93d dfc9 44bd 9f1f 7abe
00000300: 4332 673e e601 aabb 1aba 93bb 9f25 fd3d
00000310: 6130 7fbd 4cc7 cfbd 40a2 e93d 2678 ba3d
00000320: 162f 58be ed95 14be a7cb d93d 9acf ad3c
00000330: 56de 513e c36e 57be 1e23 95bd 33ac 293d
00000340: aaa6 32be 42f0 e33d 2d75 993e a043 ae3d
00000350: 08a7 bb3c 52eb 9f3d 6876 3dbb dd86 8fbd
00000360: 94d8 083e c4c8 15be 0a55 f5be bb79 833d
00000370: ab21 a33e a35f 98bd 8f98 953c 40ca 6bbe
00000380: 4f1e 7b3d 3b24 3fbe b679 cdbe 0487 183d
00000390: 4935 ad3d aca9 9abd ab40 89be 3981 0f3e
000003a0: dbed 5f3e 1c6a debc 276a cf3d d51f a43d
000003b0: f79d 0f3d f72d 793d d624 533d 5f12 84bd
000003c0: 84ef dcbc 7485 c4bb 45f5 243d e171 c6bd
000003d0: ca4b 8d3e c7b2 87be cad6 5c3c ab07 6f3e
000003e0: b980 6a3e 8eb4 913d 91e1 a4be 11d8 20be
000003f0: ef2c c63e fb78 83be 7227 113d 1cbe fcbd

base.cnn.0.bias f4 [32]
-0.03434867 -0.113375835 -0.0710346 -0.09692642 -0.06067632 -0.04497213 -0.029454162 -0.054822315
-0.1014867 -0.07028234 -0.082049556 -0.04040775 -0.102797985 -0.031104999 -0.07568059 -0.14256185
-0.040732477 0.001146268 -0.07062741 -0.09686326 -0.12141545 -0.10131439 -0.047869828 0.010650633
-0.06894493 -0.042577166 -0.07996085 0.0039957287 -0.09224261 -0.049950857 -0.10768313 -0.15807295
00000000: 31b1 0cbd 9731 e8bd 977a 91bd 5c81 c6bd
00000010: bc87 78bd b234 38bd db49 f1bc 5d8d 60bd
00000020: 42d8 cfbd 30f0 8fbd 9909 a8bd 9982 25bd
00000030: c087 d2bd e9cf febc 6dfe 9abd bcfb 11be
00000040: 19d7 26bd 5f3e 963a 1ba5 90bd 3f60 c6bd
00000050: aaa8 f8bd eb7d cfbd 2713 44bd fe7f 2e3c
00000060: 0033 8dbd 6565 2ebd 84c2 a3bd 9aee 823b
00000070: b2e9 bcbd 4599 4cbd f988 dcbd e0dd 21be

base.cnn.2.weight f4 [64, 32, 3, 3]
0.19743364 0.00059600937 -0.10716887 0.12152347 -0.06984643 0.05136824 -0.16529705 -0.015303364
-0.09872096 0.17257138 0.056573234 -0.014754861 -0.09115805 0.021473853 -0.040196396 -0.09085793
-0.092738435 -0.24708834 -0.051995803 0.038769472 0.036868587 -0.06707145 -0.00063012703 -0.006892337
0.16361593 -0.050344348 0.18761323 0.17690699 0.079362825 -0.17577542 0.17069486 -0.10396531
0.0050491574 -0.04864992 0.023768263 0.21224487 0.04163571 -0.10520751 -0.07566269 -0.012111501
0.039671652 0.1520803 -0.13698731 0.048207007 0.006552023 -0.014853433 -0.064047895 -0.06427506
-0.041979037 -0.030120814 0.08656538 -0.18684672 -0.14155324 -0.06386359 0.0057096374 0.07969085
-0.14962083 0.022384014 -0.009757856 -0.0756742 0.06419078 -0.065293185 0.1739317 -0.15822086
-0.08741285 -0.25779983 0.123007424 -0.10237355 0.063059196 -0.020839205 0.08546979 -0.18103611
0.0550218 -0.05716354 -0.10697382 -0.08861332 -0.15058099 -0.13528675 0.07431548 -0.0139672635
0.103511184 0.12218645 -0.176099 -0.2521763 -0.08148876 -0.20951882 0.0066897837 0.056512155
-0.1410884 -0.16699637 -0.14105892 0.0033325274 0.06328983 -0.08314431 -0.10693747 0.22002135
-0.06080446 -0.07415099 -0.12924121 0.14732817 -0.0019182962 0.035100948 0.12115897 0.10627313
0.05545936 -0.10035732 0.13205643 0.030388212 -0.006124094 -0.14032406 -0.17915083 -0.035035975
-0.043931022 0.22467832 0.0747741 0.025236264 0.1184495 -0.07126594 -0.071286656 -0.08930598
-0.121256664 0.035294477 0.13295598 -0.085520566 -0.010825643 0.04588312 0.10730442 -0.007131132
-0.07669473 -0.054771353 -0.0041826274 0.13757487 0.15020049 -0.09705746 -0.09283345 0.053840168
-0.107444584 -0.05144659 0.079153806 -0.020345261 -0.008223148 0.10000103 0.1842876 0.12615617
-0.13493723 0.06770258 0.20834275 -0.18789314 -0.12270128 -0.070990324 -0.058571 0.22773606
-0.08224043 -0.10772928 -0.033213608 0.13787803 -0.013914425 -0.06699635 -0.06722231 -0.14584313
-0.20479506 0.27626953 0.23975332 0.12521596 -0.10072103 -0.026780695 -0.04421253 0.101872765
-0.039059103 -0.06645327 0.12589413 -0.22243612 0.1235522 -0.0148937 -0.07055713 -0.08872559
-0.07646768 -0.096669555 -0.027180254 0.005699263 0.053166594 0.09588182 -0.016376102 -0.01061042
-0.11068969 -0.020716775 0.058782503 -0.26050565 0.07223439 0.15519468 0.059825987 -0.121337764
0.04581708 0.16099466 0.045500714 -0.13177526 -0.04002552 0.0016085543 0.0016028176 -0.24484552
-0.12170755 -0.046570323 -0.06894438 -0.1783303 -0.0027606678 0.004594935 -0.13776459 0.057484146
0.17290924 0.16154507 -0.031817175 -0.2288852 -0.13024007 -0.09024053 -0.10098919 -0.022801297
0.03648885 -0.18177252 -0.0772143 -0.118676566 0.00906964 0.14293872 -0.23694038 -0.1403094
0.011911014 -0.06369273 0.10678037 0.035980143 0.1455325 0.08363613 0.11114663 0.15901254
0.09037778 0.08855935 -0.18331847 -0.12314625 -0.09696194 0.013779805 -0.1278178 -0.055455524
-0.024251416 0.006876171 -0.05701511 0.055839114 -0.1630744 0.020645058 0.13991551 -0.15604629
-0.25646144 -0.20874588 0.15411313 0.1204593 -0.0006339591 -0.022819746 0.026899574 -0.07863518
00000000: 0b2c 4a3e 833d 1c3a 5a7b dbbd 4ce1 f83d
00000010: a50b 8fbd 8167 523d a143 29be f6ba 7abc
00000020: 372e cabd 8db6 303e 56b9 673d 5fbe 71bc
00000030: 12b1 babd efe9 af3c faa4 24bd b913 babd
00000040: a6ed bdbd ba04 7dbe 8df9 54bd bdcc 1e3d
00000050: 8403 173d c25c 89bd 1c2f 25ba 1dd9 e1bb
00000060: ef8a 273e e035 4ebd af1d 403e 1b27 353e
00000070: fa88 a23d 79fe 33be a2ca 2e3e c4eb d4bd
00000080: 6773 a53b 2345 47bd a9b5 c23c b856 593e
00000090: 358a 2a3d 0977 d7bd 0af5 9abd 516f 46bc
000000a0: be7e 223d f0ba 1b3e 6746 0cbe b674 453d
000000b0: 5ab2 d63b d05b 73bc 8b2b 83bd a5a2 83bd
000000c0: 36f2 2bbd edbf f6bc 3149 b13d bf54 3fbe
000000d0: 55f3 10be eaca 82bd e917 bb3b f534 a33d
000000e0: 3436 19be ae5e b73c 6adf 1fbc 13fb 9abd
000000f0: 7576 833d 6fb8 85bd 271b 323e a604 22be
00000100: 8205 b3bd 57fe 83be 51eb fb3d 39a9 d1bd
00000110: 2e25 813d fbb6 aabc c90a af3d 8861 39be
00000120: 8a5e 613d 5124 6abd 1715 dbbd e67a b5bd
00000130: e731 1abe 9c88 0abe b732 983d f3d6 64bc
00000140: acfd d33d e43c fa3d 4c53 34be 411d 81be
00000150: 94e3 a6bd 1a8c 56be f935 db3b 4a79 673d
00000160: 7a79 10be 1901 2bbe c071 10be 8866 5a3b
00000170: 199e 813d 9047 aabd 0802 dbbd 474d 613e
00000180: 190e 79bd 79dc 97bd cf57 04be 32dd 163e
00000190: 576f fbba 03c6 0f3d 3222 f83d baa5 d93d
000001a0: 5b29 633d 2388 cdbd cd39 073e b3f0 f83c
000001b0: a0ac c8bb 1cb1 0fbe 5173 37be e281 0fbd
000001c0: 04f1 33bd 1312 663e 2a23 993d 48bc ce3c
000001d0: a795 f23d e1f3 91bd bdfe 91bd 0ee6 b6bd
000001e0: 6a55 f8bd f190 103d 9d25 083e 6825 afbd
000001f0: 0a5e 31bc f0ef 3b3d 6bc2 db3d 45ac e9bb
00000200: 2012 9dbd ed57 60bd 6c0e 89bb 6de0 0c3e
00000210: 28ce 193e 10c6 c6bd 771f bebd 8287 5c3d
00000220: e80b dcbd a9b9 52bd 641b a23d 1bab a6bc
00000230: 62ba 06bc 57cd cc3d e3b5 3c3e 152f 013e
00000240: fc2c 0abe a6a7 8a3d cd57 553e 0f67 40be
00000250: cf4a fbbd 6063 91bd 25e8 6fbd a433 693e
00000260: ac6d a8bd 2ba1 dcbd fe0a 08bd e62f 0d3e
00000270: 54f9 63bc 6235 89bd daab 89bd e757 15be
00000280: ccb5 51be 3373 8d3e e581 753e 9d38 003e
00000290: d446 cebd 3063 dbbc 3318 35bd aba2 d03d
000002a0: 70fc 1fbd a718 88bd 64ea 003e 4bc6 63be
000002b0: f008 fd3d b504 74bc 4280 90bd c3b5 b5bd
000002c0: 169b 9cbd b0fa c5bd 20a9 debc e2c0 ba3b
000002d0: 37c5 593d b05d c43d 2d27 86bc 54d7 2dbc
000002e0: 47b1 e2bd 3ab6 a9bc ecc5 703d ff60 85be
000002f0: a0ef 933d 5beb 1e3e 180c 753d ef7f f8bd
00000300: b1aa 3b3d c9db 243e f55e 3a3d 18f0 06be
00000310: cdf1 23bd 20d6 d23a a215 d23a c9b8 7abe
00000320: cf41 f9bd 86c0 3ebd b632 8dbd 389c 36be
00000330: 52ec 34bb 1c91 963b 2912 0dbe 7f74 6b3d
00000340: 1f0f 313e 126c 253e ba52 02bd e260 6abe
00000350: a75d 05be 07d0 b8bd 6cd3 cebd c9c9 babc
00000360: 5575 153d 9322 3abe 8822 9ebd b30c f3bd
00000370: d498 143c 875e 123e 80a0 72be 44ad 0fbe
00000380: 6a26 433c 5671 82bd abaf da3d ea5f 133d
00000390: 7906 153e 6b49 ab3d d8a0 e33d 2fd4 223e
000003a0: fc17 b93d 9b5e b53d d6b7 3bbe 1a34 fcbd
000003b0: fb93 c6bd b1c4 613c abe2 02be 5525 63bd
000003c0: e8aa c6bc 8151 e13b ad88 69bd 8eb7 643d
000003d0: fafc 26be d31f a93c 0346 0f3e 99ca 1fbe
000003e0: ea4e 83be 7bc1 55be d5cf 1d3e 5eb3 f63d
000003f0: 4630 26ba 7af0 babc 7f5c dc3c 7b0b a1bd

base.cnn.2.bias f4 [64]
-0.006453175 0.001849608 0.04242578 -0.045015518 0.014792243 -0.049302727 -0.033854205 -0.07105595
-0.0372605 -0.10763994 0.0066422736 -0.08596694 -0.040379647 -0.023524895 -0.010645106 -0.05236628
-0.06840923 0.0014021279 -0.006036076 -0.04417463 -0.13764101 -0.043138396 0.00677582 -0.033498313
-0.02747071 0.025970183 -0.03966975 -0.01901988 -0.013719582 -0.063881636 -0.04991093 -0.055076934
-0.016452003 -0.059541177 -0.0176875 -0.017295169 -0.02745465 0.030997075 -0.0032076885 0.007362765
-0.01600102 -0.007254743 -0.049242284 -0.06473664 0.014022487 -0.028189583 -0.018829001 -0.032110617
-0.025533492 0.03200578 -0.030595 0.020088168 -0.040031455 -0.046161525 -0.07040599 -0.011726491
-0.038219206 -0.012117555 -0.020348279 0.021113766 0.0031379513 -0.023289403 0.003262316 -0.014719867
00000000: 2875 d3bb 8c6e f23a a8c6 2d3d 3162 38bd
00000010: 2a5b 723c a8f1 49bd b5aa 0abd c885 91bd
00000020: 779e 18bd 5472 dcbd 6ea7 d93b 6f0f b0bd
00000030: 2165 25bd 48b7 c0bc d068 2ebc 067e 56bd
00000040: 231a 8cbd 9bc7 b73a 47ca c5bb 75f0 34bd
00000050: c4f1 0cbe e3b1 30bd b307 de3b 8735 09bd
00000060: 410a e1bc 6cbf d43c bf7c 22bd 94cf 9bbc
00000070: 19c8 60bc 60d4 82bd 676f 4cbd 5a98 61bd
00000080: 5ac6 86bc 73e1 73bd 60e5 90bc 99ae 8dbc
00000090: 93e8 e0bc 94ed fd3c 1538 52bb 5943 f13b
000000a0: 9214 83bc 32b9 edbb 47b2 49bd a594 84bd
000000b0: 93be 653c d7ed e6bc 473f 9abc 6c86 03bd
000000c0: 9d2b d1bc 7e18 033d 5ea2 fabc f18f a43c
000000d0: 06f8 23bd de13 3dbd 0431 90bd 7820 40bc
000000e0: be8b 1cbd b688 46bc 6fb1 a6bc c7f6 ac3c
000000f0: 16a6 4d3b 6bc9 bebc 95cc 553b 992b 71bc

base.cnn.4.weight f4 [32, 64, 3, 3]
-0.10950475 0.0060201944 -0.12927361 0.11929224 0.1628187 -0.15335006 -0.09049976 -0.069368586
0.025943754 0.07522868 -0.104989335 0.095314614 -0.05307811 -0.008809218 0.09379399 0.10088807
-0.21469146 -0.08953806 -0.13208422 0.052480724 0.024018837 -0.0211389 0.144335 -0.07124715
0.05019526 -0.096224084 0.038274866 -0.00860883 -0.13553077 -0.048349004 0.053059395 -0.038327694
-0.073260024 0.07984313 -0.19265994 0.19078363 0.015454546 0.025788054 -0.119247995 -0.1306126
-0.037144553 -0.096292116 0.22522059 -0.109533794 -0.03808115 0.1742993 -0.010333665 0.034375433
-0.2151557 0.065229334 0.013505492 0.08171806 0.07643703 -0.02551751 -0.19175048 0.08795012
-0.031471748 0.04600809 -0.16150188 -0.042343404 -0.022789797 -0.04164931 0.058195904 -0.10591584
-0.14009185 0.02018282 -0.092225485 0.0014974911 -0.052190647 0.16741994 -0.029011464 0.06573692
0.04315176 -0.11160898 0.027603982 -0.07320934 -0.10936326 -0.043398846 -0.013067933 0.014887593
-0.03239222 0.04381567 -0.0023525371 -0.019582415 -0.031795878 0.07676266 0.0866734 -0.0057488433
-0.1042158 -0.027273111 -0.002769586 -0.06393014 -0.070496455 0.07254374 -0.12432636 0.04035053
0.002785119 0.053241573 -0.004510764 0.011533474 -0.12085637 0.13967322 0.17098069 -0.050339613
-0.034635298 -0.087085575 0.09191633 0.079407826 -0.1435222 -0.004410839 -0.029933825 0.0032076163
-0.010013272 0.17491454 -0.010684753 -0.04670382 -0.028724384 -0.020762641 0.15311597 -0.042050004
0.037788127 0.0047178594 0.031467255 -0.09397416 -0.012633771 0.23952514 -0.17990157 -0.11762189
-0.20899513 -0.101850405 -0.020614944 0.061149303 0.13892598 -0.18996933 0.1313975 0.018535838
-0.111150704 -0.056217283 -0.050378516 -0.017272772 -0.14300628 0.103755906 0.019861683 -0.013681395
0.0012743644 -0.061060335 -0.035678886 0.124798335 -0.045061838 -0.07496367 -0.03415293 0.111556165
-0.015358683 -0.031045493 -0.1900511 -0.055149034 -0.28268427 -0.035594486 -0.09846735 0.051887374
-0.012295538 0.07644059 -0.07722736 0.0347791 -0.13300426 0.112764426 -0.06935873 -0.08946438
-0.012026915 -0.02628974 0.11942567 0.06296277 0.072071575 0.116185345 0.019048503 -0.018573552
-0.03853703 -0.10991754 -0.09313639 0.16791998 0.033840828 -0.11781524 0.14260852 -0.06764074
0.03469812 -0.023313643 0.07874046 -0.1189481 -0.048509054 0.017720342 0.23533337 0.04758583
0.05675919 -0.077531576 -0.021096947 -0.013437036 0.15809655 -0.061967418 0.06112591 -0.113001205
-0.004661458 0.06694661 -0.0620451 -0.110976785 0.16648301 -0.13098784 0.029667314 -0.17076202
-0.00079567835 0.09297609 -0.0017644234 -0.03207778 0.09239759 -0.11369229 -0.028135158 -0.089938425
0.058396637 0.052929383 -0.060493845 0.016180955 0.0022923418 -0.054435506 -0.008299061 0.020732934
-0.071335256 -0.018473927 0.16012171 0.008380603 -0.09653231 -0.11850534 0.03225026 0.11806624
-0.02423663 -0.026373954 -0.094873495 0.13445874 0.02998963 0.018012706 -0.026115539 -0.107525446
0.13836414 -0.058355127 0.0014188383 0.056399856 0.02569797 0.10554262 -0.08034651 -0.09850204
0.0112405 -0.056881335 -0.016408296 0.030860104 -0.08317363 -0.021896431 0.06682232 -0.0666076
00000000: 0744 e0bd 0d45 c53b 4d60 04be 7d4f f43d
00000010: f2b9 263e cc07 1dbe f057 b9bd 1e11 8ebd
00000020: ff87 d43c 7f11 9a3d a604 d7bd 4f34 c33d
00000030: 6f68 59bd 8a54 10bc 1017 c03d 689e ce3d
00000040: 14d8 5bbe bb5f b7bd 1641 07be 07f6 563d
00000050: 27c3 c43c 7d2b adbc 8ecc 133e 07ea 91bd
00000060: 8c99 4d3d 2211 c5bd 1bc6 1c3d 0d0c 0dbc
00000070: 94c8 0abe 9b09 46bd cf54 593d 80fd 1cbd
00000080: 5a09 96bd cc84 a33d a648 45be c95c 433e
00000090: 1035 7d3c 7841 d33c 4b38 f4bd 4fbf 05be
000000a0: e324 18bd cd34 c5bd 3aa0 663e 4153 e0bd
000000b0: fbfa 1bbd 847b 323e 884e 29bc 41cd 0c3d
000000c0: c751 5cbe f596 853d 2446 5d3c cc5b a73d
000000d0: 058b 9c3d 190a d1bc 3d5a 44be 311f b43d
000000e0: 85e8 00bd fb72 3c3d c060 25be 4770 2dbd
000000f0: abb1 babc 7898 2abd d45e 6e3d 67ea d8bd
00000100: 3d74 0fbe 7156 a53c b7e0 bcbd 7747 c43a
00000110: dcc5 55bd 2270 2b3e 73a9 edbc 14a1 863d
00000120: e6bf 303d 4093 e4bd bf21 e23c c7ee 95bd
00000130: d8f9 dfbd fdc2 31bd e21a 56bc 17eb 733c
00000140: b4ad 04bd 0f78 333d 062d 1abb 4d6b a0bc
00000150: 653c 02bd be35 9d3d d381 b13d cb60 bcbb
00000160: 186f d5bd dc6b dfbc f181 35bb ceed 82bd
00000170: 7260 90bd d091 943d d29e febd 9946 253d
00000180: 8b86 363b d613 5a3d 08cf 93bb e5f6 3c3c
00000190: 8b83 f7bd 7f06 0f3e 9015 2f3e e930 4ebd
000001a0: bedd 0dbd ec59 b2bd a13e bc3d 92a0 a23d
000001b0: 7cf7 12be cd88 90bb c837 f5bc df36 523b
000001c0: b50e 24bc cc1c 333e 1a0f 2fbc 814c 3fbd
000001d0: 664f ebbc 6a16 aabc 6fca 1c3e a03c 2cbd
000001e0: b9c7 1a3d 4698 9a3b cfe3 003d 8675 c0bd
000001f0: e0fd 4ebc 1446 753e 1e38 38be bfe3 f0bd
00000200: d202 56be f296 d0bd ace0 a8bc b177 7a3d
00000210: 9d42 0e3e 5287 42be 118d 063e 78d8 973c
00000220: fba2 e3bd 1844 66bd b459 4ebd a17f 8dbc
00000230: 3d70 12be fa7d d43d f8b4 a23c ee27 60bc
00000240: 9308 a73a 671a 7abd 0624 12bd 4596 ff3d
00000250: c392 38bd 8d86 99bd f1e3 0bbd 8f77 e43d
00000260: fca2 7bbc 1e53 febc c19c 42be f4e3 61bd
00000270: febb 90be 86cb 11bd 40a9 c9bd db87 543d
00000280: 3973 49bc e28c 9c3d 6129 9ebd 8874 0e3d
00000290: 4532 08be 09f1 e63d f30b 8ebd 1a39 b7bd
000002a0: 8a0c 45bc 955d d7bc 7295 f43d a0f2 803d
000002b0: 439a 933d 95f2 ed3d 9b0b 9c3c 9027 98bc
000002c0: 01d9 1dbd 721c e1bd 4bbe bebd 37f3 2b3e
000002d0: ae9c 0a3d 1e49 f1bd f807 123e 3a87 8abd
000002e0: 9e1f 0e3d 41fc bebc ae42 a13d 109b f3bd
000002f0: 6eb1 46bd 402a 913c 3bfb 703e 5ce9 423d
00000300: 537c 683d e0c8 9ebd 81d3 acbc 0427 5cbc
00000310: 10e4 213e 8cd1 7dbd 2a5f 7a3d 2d6d e7bd
00000320: 25bf 98bb 4e1b 893d 0123 7ebd cc47 e3bd
00000330: 867a 2a3e ad21 06be de08 f33c 3ddc 2ebe
00000340: 1295 50ba 406a be3d 3a44 e7ba fe63 03bd
00000350: f33a bd3d 81d7 e8bd b47b e6bc a331 b8bd
00000360: 5031 6f3d 7bcc 583d 65c8 77bd ec8d 843c
00000370: 1d3b 163b c4f7 5ebd c9f8 07bc 1dd8 a93c
00000380: 3818 92bd a256 97bc f2f6 233e cc4e 093c
00000390: bbb2 c5bd edb2 f2bd d918 043d b6cc f13d
000003a0: e68b c6bc 310e d8bc 094d c2bd 8daf 093e
000003b0: d0ac f53c 628f 933c 41f0 d5bc 4d36 dcbd
000003c0: 54af 0d3e c905 6fbd 50f8 b93a 8903 673d
000003d0: 8d84 d23c bb26 d83d b68c a4bd 70bb c9bd
000003e0: 132a 383c 67fc 68bd b16a 86bc 54ce fc3c
000003f0: f056 aabd 2560 b3bc 24da 883d 9169 88bd

base.cnn.4.bias f4 [32]
-0.047894463 -0.02052622 -0.070484705 -0.039852705 -0.0032616698 -0.02372013 -0.0401166 -0.039047707
-0.061625592 0.01341644 -0.07724107 -0.035563413 -0.040431064 -0.064091995 -0.014342177 -0.066513546
-0.04137853 -0.041425023 -0.033648755 -0.033898715 -0.04322559 -0.06084815 -0.018864153 -0.014456552
-0.07129132 -0.030719861 -0.0868579 -0.0070597962 -0.032605574 -0.040558167 -0.06989143 -0.010188374
00000000: fc2c 44bd 9a26 a8bc 495a 90bd 973c 23bd
00000010: bdc1 55bb b850 c2bc 4e51 24bd 7df0 1fbd
00000020: 1e6b 7cbd a1d0 5b3c 9130 9ebd f1aa 11bd
00000030: 0b9b 25bd aa42 83bd 73fb 6abc 4138 88bd
00000040: 897c 29bd 49ad 29bd 47d3 09bd 61d9 0abd
00000050: 510d 31bd e93b 79bd ff88 9abc 2ddb 6cbc
00000060: 2f01 92bd 38a8 fbbc 8ee2 b1bd dd55 e7bb
00000070: 6c8d 05bd 5220 26bd 3d23 8fbd 23ed 26bc

base.cnn.7.weight f4 [64, 800]
0.08861254 0.002440043 -0.022049367 -0.1772215 -0.08618635 -0.09126089 -0.010411779 0.09114695
-0.18075779 -0.04280822 0.019413915 -0.14216727 -0.08066419 -0.01142398 -0.007074961 -0.09152367
0.07902679 0.013758941 0.08002365 -0.11258412 -0.1373684 0.09145806 -0.028513769 0.0014983877
-0.028521491 0.0061938707 0.005999304 -0.023857744 -0.0021895366 0.078236915 0.008521562 0.15279879
0.0800777 0.07861017 -0.1559705 -0.00840462 0.09888797 -0.09234646 0.21677382 -0.12667087
0.18480201 -0.094875365 -0.023166329 -0.021761412 -0.081458494 0.01949311 0.017214503 -0.14717534
0.021979865 -0.049935397 0.011430291 -0.03877682 0.054625645 -0.05316851 0.15823257 0.05077381
-0.06534581 -0.032474946 -0.03500647 -0.10862277 -0.2038829 -0.33096454 0.004174104 0.14258283
-0.14392847 0.04179433 0.018265802 -0.10835192 -0.10104145 -0.09443933 -0.09644776 -0.26235557
-0.15906453 0.05949777 -0.10453622 -0.06973246 0.033044707 -0.09287021 -0.22589584 -0.16530418
0.02838094 -0.023049405 -0.07707273 -0.018188255 -0.057794005 -0.091545686 0.07821945 -0.05240397
-0.036645826 0.004642636 -0.064705804 -0.1405063 -0.26589328 0.072330564 -0.101570025 0.19430763
-0.04613937 -0.071517706 0.023103459 -0.103927866 0.07378665 -0.16205327 -0.21588378 0.075524226
-0.10889985 -0.12904632 0.057708107 0.08638294 -0.21936631 0.0705553 0.1321316 -0.1365497
0.064203605 0.08473614 -0.08340145 0.023511998 -0.059183903 0.19387978 0.011622332 -0.07066807
-0.1915733 -0.2476968 0.28069842 -0.008044694 0.00605957 0.056743503 0.048465632 0.11165613
0.08853655 -0.22283234 -0.090140805 -0.047594685 0.13738056 -0.043224324 0.052421685 -0.041380275
0.023164893 -0.056280356 -0.072204776 0.15180665 -0.00075836986 0.023841804 -0.060053173 -0.12093632
-0.19101468 0.13670622 -0.066673644 -0.0652337 -0.1599772 -0.05860172 -0.11347182 0.033606358
-0.069384 -0.12460923 -0.046264827 -0.060544945 0.046803832 0.078332394 0.022755884 0.08039384
-0.0007702514 -0.08926767 -0.18706189 0.024623012 0.027251216 -0.28893614 -0.009630294 -0.008130218
0.029519329 -0.09218877 -0.021399407 0.07597446 0.00046360193 -0.016969088 -0.020843374 -0.0573298
0.11487338 -0.037229978 0.086367495 0.030522922 0.007992697 -0.072251625 -0.039157495 -0.07546014
-0.07381371 0.0493046 0.085228264 -0.1478193 -0.12315353 0.008933029 0.046141945 -0.17084736
0.00957512 0.027770154 0.013656751 -0.043832142 0.08449768 0.08516991 0.03417892 -0.06703523
-0.070762105 -0.047704577 -0.014638628 0.06685429 -0.025992583 0.06200304 0.016557958 -0.155956
-0.21796359 0.0032909955 -0.134866 0.17600547 -0.052909505 -0.14470696 0.085007414 -0.07913498
-0.056614965 -0.15444346 0.038526934 -0.08074205 -0.064935274 0.18312383 -0.09990874 -0.11097906
-0.14077592 -0.15131323 0.06315866 0.0028252646 -0.17082767 -0.0097784195 0.099546686 -0.073021725
-0.18492606 -0.22491723 -0.069791034 -0.028775426 -0.04459697 0.16342227 0.02176249 -0.07974001
-0.0038325835 0.14282517 0.054508388 -0.044951923 0.07249416 0.055242512 0.1907617 0.09478064
0.041398272 0.015438459 -0.1283836 0.14897844 -0.124944136 -0.15467694 -0.13545686 0.1556722
00000000: 7e7a b53d 21e9 1f3b e0a0 b4bc 8e79 35be
00000010: 7882 b0bd fde6 babd 2b96 2abc 41ab ba3d
00000020: 9218 39be ac57 2fbd ee09 9f3c 4c94 11be
00000030: 4433 a5bd a52b 3bbc 13d5 e7bb c370 bbbd
00000040: ccd8 a13d 2e6d 613c 70e3 a33d 8192 e6bd
00000050: 4daa 0cbe 5d4e bb3d b595 e9bc 8c65 c43a
00000060: e7a5 e9bc f4f5 ca3b cf95 c43b 5171 c3bc
00000070: 547e 0fbb ad3a a03d 069e 0b3c 4977 1c3e
00000080: c7ff a33d 5efe a03d bbb6 1fbe 88b3 09bc
00000090: c785 ca3d 2420 bdbd f5f9 5d3e 02b6 01be
000000a0: bd3c 3d3e 044e c2bd 50c7 bdbc fd44 b2bc
000000b0: b6d3 a6bd 04b0 9f3c 6e05 8d3c 22b5 16be
000000c0: 1e0f b43c 0f89 4cbd 1e46 3b3c 71d4 1ebd
000000d0: 24bf 5f3d 39c7 59bd b807 223e 33f8 4f3d
000000e0: 06d4 85bd 7304 05bd f262 0fbd 9d75 debd
000000f0: aec6 50be 2f74 a9be ecc6 883b 3c01 123e
00000100: fc61 13be 8830 2b3d 2aa2 953c 9de7 ddbd
00000110: d2ee cebd 6869 c1bd 6786 c5bd 7853 86be
00000120: d0e1 22be efb3 733d 1617 d6bd e4cf 8ebd
00000130: e359 073d bd32 bebd 3d51 67be 8045 29be
00000140: 257f e83c 1bd2 bcbc 4fd8 9dbd 89ff 94bc
00000150: 68b9 6cbd 4e7c bbbd 8531 a03d 8ca5 56bd
00000160: ef19 16bd 4121 983b 7a84 84bd e2e0 0fbe
00000170: 2a23 88be 0c22 943d f203 d0bd 94f8 463e
00000180: a3fc 3cbd e077 92bd 7743 bd3c 22d8 d4bd
00000190: 751d 973d 4bf1 25be a310 5dbe 72ac 9a3d
000001a0: e206 dfbd b824 04be 565f 6c3d 8ae9 b03d
000001b0: 90a1 60be 4c7f 903d 824d 073e afd3 0bbe
000001c0: 2e7d 833d 248a ad3d 61ce aabd 3c9c c03c
000001d0: d26a 72bd 6c88 463e 986b 3e3c 6cba 90bd
000001e0: cb2b 44be 3ba4 7dbe b4b7 8f3e e4cd 03bc
000001f0: 5b8f c63b e06b 683d e683 463d f8ab e43d
00000200: a752 b53d 292e 64be be9b b8bd a5f2 42bd
00000210: 7dad 0c3e fd0b 31bd 1fb8 563d 5d7e 29bd
00000220: 4dc4 bd3c 3b86 66bd 19e0 93bd 3473 1b3e
00000230: 57cd 46ba e34f c33c 51fa 75bd 76ad f7bd
00000240: 5a99 43be b7fc 0b3e 318c 88bd 3f99 85bd
00000250: 10d1 23be 5b08 70bd ea63 e8bd d2a6 093d
00000260: 3319 8ebd 2033 ffbd 3080 3dbd fafd 77bd
00000270: 60b5 3f3d bc6c a03d 8c6a ba3c 87a5 a43d
00000280: b2ea 49ba f8d1 b6bd 278d 3fbe 33b6 c93c
00000290: f13d df3c 70ef 93be 61c8 1dbc 9b34 05bc
000002a0: 85d2 f13c 77cd bcbd cf4d afbc 7f98 9b3d
000002b0: 990f f339 c202 8bbc b9bf aabc a7d2 6abd
000002c0: bc42 eb3d 767e 18bd 71e1 b03d 350b fa3c
000002d0: cdf3 023c a9f8 93bd 9c63 20bd d98a 9abd
000002e0: a42b 97bd 9ff3 493d 288c ae3d f15d 17be
000002f0: eb37 fcbd d75b 123c 56ff 3c3d 9cf2 2ebe
00000300: f7e0 1c3c 3c7e e33c 91c0 5f3c 5589 33bd
00000310: 1f0d ad3d 906d ae3d 32ff 0b3d c449 89bd
00000320: b9eb 90bd e065 43bd dbd6 6fbc e7ea 883d
00000330: 66ee d4bc e6f6 7d3d 8ea4 873c eeb2 1fbe
00000340: d931 5fbe bead 573b 501a 0abe c73a 343e
00000350: a3b7 58bd 102e 14be 5e18 ae3d 8511 a2bd
00000360: 18e5 67bd 6d26 1ebe 6bce 1d3d 175c a5bd
00000370: c9fc 84bd d084 3b3e f49c ccbd fd48 e3bd
00000380: 9027 10be dbf1 1abe 5459 813d 1328 393b
00000390: 73ed 2ebe aa35 20bc 22df cb3d 6a8c 95bd
000003a0: 425d 3dbe b450 66be 9aee 8ebd 71ba ebbc
000003b0: 50ab 36bd 2b58 273e 4047 b23c bb4e a3bd
000003c0: 152c 7bbb c340 123e 3044 5f3d 821f 38bd
000003d0: d177 943d f945 623d 0957 433e 5a1c c23d
000003e0: 3c91 293d 97f1 7c3c fe76 03be ce8d 183e
000003f0: b6e2 ffbd a263 1ebe 34b5 0abe 8868 1f3e

base.cnn.7.bias f4 [64]
-0.020348683 -0.04741298 0.010628911 0.016256949 -0.028159393 -0.037098248 0.010573483 -0.013731875
-0.05132605 -0.032860402 -0.0054013995 -0.056083944 0.005060066 -0.038790833 -0.08162544 -0.02994226
-0.016269138 -0.011872308 -0.039780665 -0.03211738 -0.0052764053 -0.045093153 -0.069135934 -0.07594044
-0.02203852 -0.039933845 -0.012309597 0.009474433 -0.044505667 -0.035040844 -0.03309398 -0.010785437
-0.035355885 0.0048818314 -0.06940142 -0.006228159 0.0147926025 -0.02492501 -0.030024678 -0.0039364896
-0.07282454 -0.05465921 -0.008572652 -0.0526245 -0.029148782 0.015785597 -0.02500152 -0.049703144
-0.0623309 -0.06814664 -0.064437665 -0.088246755 0.018352011 -0.018718876 -0.0013281913 -0.0010518531
-0.029018957 -0.07142351 -0.052649967 0.010451762 -0.08274853 -0.00072379573 -0.01307117 -0.08028613
00000000: 48b2 a6bc 1d34 42bd e224 2e3c 4b2d 853c
00000010: 87ae e6bc 55f4 17bd 673c 2d3c a9fb 60bc
00000020: 443b 52bd a198 06bd 39fe b0bb 47b8 65bd
00000030: e9ce a53b 23e3 1ebd 3d2b a7bd 7849 f5bc
00000040: db46 85bc 1284 42bc 0df1 22bd 848d 03bd
00000050: b2e5 acbb 99b3 38bd 2497 8dbd a986 9bbd
00000060: 208a b4bc ac91 23bd 31ae 49bc a73a 1b3c
00000070: 934b 36bd fd86 0fbd 8e8d 07bd 67b5 30bc
00000080: 55d1 10bd c5f7 9f3b 5522 8ebd 9615 ccbb
00000090: ac5c 723c 892f ccbc 50f6 f5bc abfd 80bb
000000a0: 0825 95bd 56e2 5fbd 4f74 0cbc ca8c 57bd
000000b0: 6dc9 eebc cc50 813c fdcf ccbc 8695 4bbd
000000c0: b04e 7fbd 7790 8bbd e5f7 83bd b7ba b4bd
000000d0: f556 963c 5458 99bc b416 aeba 55de 89ba
000000e0: 2ab9 edbc 7d46 92bd 7ea7 57bd de3d 2b3c
000000f0: 1078 a9bd 1cbd 3dba 7628 56bc 0e6d a4bd

base.cnn.9.weight f4 [64]
1.069223 0.9636396 1.0071617 0.9286624 1.0063386 0.99552715 1.0324156 0.98068565
0.958249 0.9335598 1.0604895 0.9108171 0.98874956 1.078111 0.9537472 1.0247283
0.9822033 0.937594 0.97886425 0.95077735 0.87324697 0.97660935 1.0556237 0.94670445
1.0026593 1.022033 0.9574363 1.1068759 1.0135548 1.0757139 1.0520873 0.9257503
1.0200771 1.029087 1.0510874 1.0605501 0.99905705 0.99320626 1.0172007 0.9122366
1.0358815 0.9253306 1.0898869 1.0485094 1.0499177 0.97493553 1.1307815 0.9221336
0.975795 1.0452306 0.9722697 0.9952958 1.0836623 1.154968 1.011533 1.0921898
1.1431371 0.9893933 0.89890784 1.0115997 0.8640037 0.99004096 0.97006273 1.0439876
00000000: 4ddc 883f 16b1 763f adea 803f d2bc 6d3f
00000010: b4cf 803f deda 7e3f 3226 843f 370e 7b3f
00000020: ce4f 753f c6fd 6e3f 1fbe 873f 4f2b 693f
00000030: b11e 7d3f 8bff 893f c728 743f 4c2a 833f
00000040: ad71 7b3f 2906 703f d996 7a3f 2566 733f
00000050: 1d8d 5f3f 1203 7a3f ad1e 873f 395b 723f
00000060: 2457 803f fad1 823f 8c1a 753f 1cae 8d3f
00000070: 2abc 813f feb0 893f ccaa 863f f9fd 6c3f
00000080: e391 823f 1fb9 833f 088a 863f 1bc0 873f
00000090: 34c2 7f3f c442 7e3f a233 823f 5688 693f
000000a0: c497 843f 77e2 6c3f 6a81 8b3f 8e35 863f
000000b0: b463 863f 6095 793f 73bd 903f f310 6c3f
000000c0: b3cd 793f 1eca 853f abe6 783f b5cb 7e3f
000000d0: 72b5 8a3f fed5 933f ea79 813f e0cc 8b3f
000000e0: 5152 923f e148 7d3f d31e 663f 197c 813f
000000f0: 592f 5d3f 5373 7d3f 0856 783f 63a1 853f

base.cnn.9.bias f4 [64]
-0.023452561 0.034339536 -0.07542918 0.10977471 0.013120575 -0.09948546 -0.04884836 -0.033375148
0.06812342 0.034540612 -0.08248027 0.0892962 -0.058090575 -0.05821738 0.09414466 -0.039418824
0.035545368 0.0231408 -0.025258103 0.0057082907 0.12672502 0.05271892 -0.06596371 0.090881236
-0.025274718 0.03266732 0.08998163 -0.011287731 0.01722764 -0.16680747 0.009594614 -0.008883052
0.03404613 -0.01602097 -0.0415461 0.06697491 0.004206724 0.036487862 0.094216116 -0.020030737
0.019556675 0.014429477 -0.0025028177 0.024980966 -0.0058857272 0.060768172 -0.023392221 0.119788356
-0.0547424 -0.090650484 0.07268624 0.018809646 -0.008941898 -0.0959883 -0.012204889 -8.816997e-05
-0.041351326 -0.006270325 0.05799345 0.04497745 0.10858297 0.029387219 -0.020144945 -0.0725421
00000000: 961f c0bc 9da7 0c3d 9d7a 9abd 90d1 e03d
00000010: aef7 563c 08bf cbbd 3815 48bd 61b4 08bd
00000020: 4b84 8b3d 757a 0d3d 6aeb a8bd ede0 b63d
00000030: 62f0 6dbd 5975 6ebd eace c03d a275 21bd
00000040: 0598 113d c691 bd3c 15ea cebc 9d0c bb3b
00000050: 34c4 013e cbef 573d fb17 87bd f11f ba3d
00000060: ed0c cfbc 2bce 053d 4a48 b83d 2df0 38bc
00000070: fb20 8d3c 94cf 2abe ba32 1d3c 388a 11bc
00000080: f473 0b3d 693e 83bc 3e2c 2abd 242a 893d
00000090: 8fd8 893b 4c74 153d 61f4 c03d 8017 a4bc
000000a0: 5235 a03c 9d69 6c3c 5006 24bb e2a4 cc3c
000000b0: 0fdd c0bb 0ce8 783d 0ba1 bfbc 9953 f53d
000000c0: 9139 60bd f6a6 b9bd 86dc 943d b016 9a3c
000000d0: 0a81 12bc 8495 c4bd 04f7 47bc e4e7 b8b8
000000e0: 0260 29bd 4c77 cdbb 8a8a 6d3d 463a 383d
000000f0: c060 de3d 77bd f03c 0307 a5bc f490 94bd

base.cnn.10.weight f4 [64, 64]
0.39079833 0.113824755 0.002395814 -0.17709883 -0.020775206 0.12553555 -0.06591125 0.023523625
-0.14576204 0.14729707 0.13844128 0.15821882 -0.010731085 0.028293448 -0.058082614 -0.3812732
-0.16115007 -0.3834288 -0.33394587 -0.29879224 -0.2101464 -0.12779407 -0.15890898 0.13190694
-0.3122324 0.38304406 -0.103440806 0.123533964 0.03751203 -0.10751744 -0.07746916 0.0791576
0.23847981 0.15408729 0.055073116 -0.1923604 -0.011187471 -0.044257395 0.34666544 -0.13140818
-0.34742546 -0.0569972 -0.28135592 -0.17396031 -0.060529936 0.061909676 0.051267635 -0.4697729
-0.10917498 0.27538309 0.12502132 -0.13024709 0.143862 0.20916724 0.019747144 0.03779112
0.32582134 0.1296549 0.045994923 0.12599334 -0.023854362 0.07248965 -0.21489291 0.09529956
-0.20857257 0.05232463 0.057474114 -0.16165777 -0.45458215 -0.4900088 -0.24289161 0.093345046
-0.13314645 -0.22544615 0.23549514 0.080076486 0.23646434 0.13517137 0.09285028 0.052455805
0.17022592 0.07356698 0.21537969 -0.2816442 -0.14140415 0.08476643 0.25816503 -0.14439963
-0.097907946 0.088805735 -0.2118548 -0.26864943 -0.25959572 -0.21327414 -0.05259939 0.053064182
0.15799727 0.022433534 0.37330225 0.10352616 -0.28976783 -0.42046142 -0.25132462 0.10105735
0.005688516 -0.1569857 -0.15880837 -0.21098498 -0.13025427 0.03379614 -0.48861235 -0.01401022
-0.1331946 0.03890712 0.35316908 0.04684822 0.1285276 -0.032142323 0.08379614 -0.008261403
0.14289527 -0.09759403 0.2967924 0.09754175 -0.08577676 -0.15154149 0.15624458 -0.04725218
-0.13452892 -0.11102815 0.26329288 -0.14249596 0.10530019 -0.07300574 -0.10760365 0.09163952
0.22783726 -0.047868803 0.05869764 -0.32328406 -0.3112239 0.041250702 -0.20487437 -0.2238221
-0.33183658 -0.13371663 0.30957606 -0.29001322 -0.07529657 0.07457173 0.13031766 0.45927185
-0.36286914 -0.068179406 0.059933897 0.23105004 0.11997072 0.10399023 0.045463692 0.13167153
0.06588906 0.057358574 0.13363868 0.3678499 0.1717628 0.13052441 -0.06542733 0.016888997
0.09487504 0.13352606 0.2911197 -0.12527946 -0.061454833 0.1751652 -0.10496355 -0.06283344
0.09669507 0.41707316 0.10973863 0.118859015 0.058640834 0.23424138 0.013296351 0.044240527
0.16662998 0.072984196 0.41685122 0.12719506 0.42270157 0.021610234 0.25390542 0.17576973
-0.30288872 0.43984565 0.15655345 0.14261827 0.070004106 0.12945239 -0.23922782 0.1676564
-0.14204557 -0.29964113 -0.056773067 0.31393665 -0.06028275 0.14623131 0.090364486 0.11824298
0.24649392 0.041638084 -0.009987915 0.24489155 0.09293652 0.05145636 -0.0014995049 -0.049122296
-0.115597285 0.029972568 0.0675071 0.09752744 0.29105225 0.006920509 0.106135085 0.044335485
-0.035439935 -0.4470359 -0.16929281 -0.048623875 0.084872596 -0.08208905 0.10199341 -0.4580442
-0.1029568 0.10180477 -0.069859795 -0.01761643 -0.68466705 -0.37220848 0.19384663 -0.32325882
-0.04785315 0.069617614 -0.121463224 -0.11469619 -0.31855956 0.06766965 -0.03518462 0.31589273
-0.012607533 -0.4378098 -0.15132824 0.06696242 0.07532579 -0.03741535 0.15485133 -0.357174
00000000: b816 c83e f41c e93d 1703 1d3b 6559 35be
00000010: c430 aabc 648c 003e 7afc 86bd 9eb4 c03c
00000020: a542 15be 0bd5 163e 8dc3 0d3e 1d04 223e
00000030: 6fd1 2fbc a9c7 e73c 09e8 6dbd 3e36 c3be
00000040: 8604 25be c850 c4be f4fa aabe 4cfb 98be
00000050: 9e30 57be 73dc 02be 09b9 22be 9d12 073e
00000060: eddc 9fbe 5a1e c43e c6d8 d3bd 60ff fc3d
00000070: 37a6 193d 1b32 dcbd 27a8 9ebd 611d a23d
00000080: 0d34 743e 0fc9 1d3e 5994 613d 20fa 44be
00000090: a84b 37bc 3e47 35bd 227e b13e de8f 06be
000000a0: c0e1 b1be e575 69bd e20d 90be a722 32be
000000b0: 3dee 77bd 0095 7d3d 03fe 513d 1386 f0be
000000c0: 2297 dfbd 03ff 8c3e 9705 003e 7e5f 05be
000000d0: 8f50 133e f02f 563e c3c4 a13c ddca 1a3d
000000e0: 0ed2 a63e 41c4 043e 2c65 3c3d 6604 013e
000000f0: 396a c3bc 7475 943d e30c 5cbe 6a2c c33d
00000100: 0c94 55be 5a52 563d fa69 6b3d 9d89 25be
00000110: febe e8be 6fe2 fabe 94b8 78be b02b bf3d
00000120: 8b57 08be 5bdb 66be a325 713e 24ff a33d
00000130: b523 723e 5d6a 0a3e 4a28 be3d e6db 563d
00000140: b44f 2e3e 49aa 963d 7e8c 5c3e ab33 90be
00000150: 40cc 10be 069a ad3d 352e 843e 7fdd 13be
00000160: f683 c8bd c8df b53d 77f0 58be 6b8c 89be
00000170: bbe9 84be 8964 5abe 7572 57bd d459 593d
00000180: 09ca 213e 88c6 b73c 7921 bf3e 8605 d43d
00000190: 735c 94be b846 d7be 9fad 80be 28f7 ce3d
000001a0: bb66 ba3b dcc0 20be a99e 22be 720c 58be
000001b0: 6061 05be d26d 0a3d 662b fabe 1f8b 65bc
000001c0: 2a64 08be 125d 1f3d 94d2 b43e ebe3 3f3d
000001d0: bd9c 033e aba7 03bd 509d ab3d d65a 07bc
000001e0: 2353 123e 61df c7bd 2cf5 973e f8c3 c73d
000001f0: baab afbd b12d 1bbe 94fe 1f3e 808b 41bd
00000200: f3c1 09be ba62 e3bd 53ce 863e 76ea 11be
00000210: a0a7 d73d 0984 95bd 4d5f dcbd 80ad bb3d
00000220: 2c4e 693e 1412 44bd f06c 703d 7d85 a5be
00000230: bd58 9fbe 7ff6 283d 96ca 51be 9f31 65be
00000240: 7ce6 a9be 03ed 08be c180 9e3e 9d7c 94be
00000250: 1735 9abd 10b9 983d fe71 053e ae25 eb3e
00000260: fcc9 b9be a5a1 8bbd 3f7d 753d 6298 6c3e
00000270: 35b3 f53d d4f8 d43d 2338 3a3d e7d4 063e
00000280: d8f0 863d d3f0 6a3d 94d8 083e d256 bc3e
00000290: 96e2 2f3e 31a8 053e c4fe 85bd cb5a 8a3c
000002a0: d84d c23d 0ebb 083e a40d 953e 4249 00be
000002b0: 10b8 7bbd 825e 333e 21f7 d6bd d2ae 80bd
000002c0: 1108 c63d 9d8a d53e a6be e03d 5b6c f33d
000002d0: 5f31 703d f9dc 6f3e f0d8 593c 8e35 353d
000002e0: 0da1 2a3e bd78 953d 866d d53e 6c3f 023e
000002f0: 576c d83e f207 b13c e4ff 813e fbfc 333e
00000300: 3b14 9bbe 7333 e13e 8c4f 203e 860a 123e
00000310: 505e 8f3d 2b8f 043e 23f8 74be 1fae 2b3e
00000320: 6574 11be 906a 99be e08a 68bd 4ebc a03e
00000330: 0beb 76bd a9bd 153e 0411 b93d 6029 f23d
00000340: e768 7c3e b28c 2a3d 5aa4 23bc dac4 7a3e
00000350: 8155 be3d e7c3 523d 098b c4ba 7634 49bd
00000360: 45be ecbd 0889 f53c 2a41 8a3d 77bc c73d
00000370: cd04 953e 70c5 e23b 5a5d d93d 2099 353d
00000380: 7729 11bd e4e1 e4be 185b 2dbe d429 47bd
00000390: afd1 ad3d 4e1e a8bd ece1 d03d c584 eabe
000003a0: 04db d2bd 057f d03d a712 8fbd 5550 90bc
000003b0: 5746 2fbf 1c92 bebe bb7f 463e 2e82 a5be
000003c0: aa01 44bd ae93 8e3d b6c1 f8bd d6e5 eabd
000003d0: 3d1a a3be 6396 8a3d c01d 10bd b1bc a13e
000003e0: d38f 4ebc 9b28 e0be caf5 1abe 9823 893d
000003f0: 6844 9a3d d740 19bd 5991 1e3e 83df b6be

base.cnn.10.bias f4 [64]
-0.0865342 0.019676028 -0.09316229 0.061639793 -0.15529262 -0.0116068395 -0.08013517 -0.034873053
0.008156508 -0.014968243 -0.043584418 0.010279828 -0.09286836 -0.065736234 -0.22336377 0.058850534
-0.05402637 -0.040912304 0.061181597 0.01772162 0.045222618 0.021115117 -0.017293312 -0.003199596
-0.17084074 -0.07926914 0.05194395 0.007212402 -0.006300303 -0.17278409 -0.025929563 -0.04277367
-0.036227107 -0.048481748 -0.055929177 0.0009987248 0.11372717 -0.13101041 0.0046995 -0.0661294
-0.0006700449 -0.03693804 -0.041390453 -0.005425157 -0.19343203 -0.0647539 -0.007863087 -0.041848335
-0.037440486 -0.09373786 -0.1230482 -0.029445361 -0.07072029 0.045785382 -0.026907664 -0.011587438
0.057108022 0.016465332 0.036500026 0.07240547 -0.12586857 -0.033083286 -0.071996436 -0.05440697
00000000: d838 b1bd 9f2f a13c dfcb bebd 027a 7c3d
00000010: 0705 1fbe 9d2a 3ebc e81d a4bd 0cd7 0ebd
00000020: e0a2 053c 5d3d 75bc 9385 32bd b96c 283c
00000030: c431 bebd b8a0 86bd 79b9 64be 420d 713d
00000040: c14a 5dbd a993 27bd 8e99 7a3d ee2c 913c
00000050: 5a3b 393d 9cf9 ac3c b4aa 8dbc 50b0 51bb
00000060: e0f0 2ebe dc57 a2bd 2ec3 543d 0356 ec3b
00000070: c672 cebb 50ee 30be 3c6a d4bc 7233 2fbd
00000080: e062 14bd cc94 46bd fe15 65bd a5e7 823a
00000090: cae9 e83d 9827 06be 43fe 993b da6e 87bd
000000a0: f4a5 2fba 584c 17bd 0989 29bd 84c5 b1bb
000000b0: 0c13 46be b19d 84bd 2dd4 00bc 2969 2bbd
000000c0: 325b 19bd a3f9 bfbd b200 fcbd 6637 f1bc
000000d0: cdd5 90bd 7489 3b3d 766d dcbc 3dd9 3dbc
000000e0: 1aea 693d 4ee2 863c 0d81 153d 5249 943d
000000f0: b1e3 00be 5782 07bd de72 93bd d8d9 5ebd

base.cnn.12.weight f4 [64]
1.0220817 1.0018733 0.8941034 0.9875583 1.0105201 1.0463068 0.9500014 1.0445098
0.9377051 1.0063388 0.9958708 1.103521 1.002992 1.0781178 0.9993317 1.0347446
0.8709774 1.0565901 1.1255403 1.2414422 1.0240414 1.0371561 0.8854676 1.0403813
0.9427583 1.0128026 1.0072316 0.9791654 1.0565804 0.94138795 1.004869 0.9294378
0.89511836 0.995769 0.89376706 0.99994195 1.0163268 1.0544746 1.0768325 0.9869157
0.95023996 0.8745725 1.0591215 1.0079727 1.0122433 0.86121094 1.1606914 0.8985776
1.1006286 1.0663135 0.98781186 1.0371686 0.8594473 1.0477947 0.97801274 1.028322
1.0157337 0.96296304 1.0547135 1.0768709 1.049364 0.9816185 0.92836386 1.0759536
00000000: 93d3 823f 623d 803f f6e3 643f 9fd0 7c3f
00000010: b958 813f 62ed 853f 4b33 733f 7fb2 853f
00000020: 710d 703f b6cf 803f 64f1 7e3f 2d40 8d3f
00000030: 0b62 803f c4ff 893f 34d4 7f3f 8372 843f
00000040: 60f8 5e3f 583e 873f b411 903f 94e7 9e3f
00000050: ca13 833f 88c1 843f 01ae 623f 372b 853f
00000060: 9c58 713f 84a3 813f f7ec 803f 95aa 7a3f
00000070: 073e 873f cdfe 703f 8c9f 803f a3ef 6d3f
00000080: 7a26 653f b8ea 7e3f ebcd 643f 32fc 7f3f
00000090: ff16 823f 06f9 863f a6d5 893f 82a6 7c3f
000000a0: ed42 733f fce3 5f3f 4b91 873f 4005 813f
000000b0: 3091 813f 5278 5c3f 8991 943f 2e09 663f
000000c0: 66e1 8c3f f67c 883f 3de1 7c3f f1c1 843f
000000d0: bd04 5c3f 231e 863f 0b5f 7a3f 0ea0 833f
000000e0: 9003 823f bf84 763f da00 873f e8d6 893f
000000f0: 8f51 863f 5a4b 7b3f 41a9 6d3f d9b8 893f

base.cnn.12.bias f4 [64]
-0.04835465 -0.0757884 0.041600443 0.028889237 0.09300872 -0.025826404 -0.025822898 -0.05285857
0.15790159 0.006508947 -0.04718571 -0.04374711 0.04797218 -0.04171397 -0.05304931 0.06834668
0.0194549 -0.012218198 0.095769346 -0.031888153 -0.01933144 -0.019706888 0.092101075 0.013093441
0.02884818 -0.016375175 -0.067490384 -0.01917286 -0.025677249 -0.04276186 -0.01727452 0.061855316
0.087397896 -0.014807921 0.044495635 0.028701624 0.020020379 0.020269861 -0.048178382 -0.016892657
-0.0446051 0.074921034 0.06218375 0.038342282 -0.012887535 0.00086177513 0.023316633 0.06806127
0.005233246 -0.08247397 0.06268732 0.0042060064 0.07059708 0.09069576 0.019969506 -0.010174435
0.07121052 0.021732282 0.0060358183 0.06731331 -0.06878287 0.05623985 -0.007814822 -0.0759746
00000000: 870f 46bd f336 9bbd 3a65 2a3d 1fa9 ec3c
00000010: 5b7b be3d e591 d3bc 8b8a d3bc 3a82 58bd
00000020: f4b0 213e 0149 d53b ce45 41bd 2b30 33bd
00000030: 7a7e 443d 45dc 2abd 3c4a 59bd 58f9 8b3d
00000040: e25f 9f3c d62e 48bc b822 c43d 279d 02bd
00000050: f85c 9ebc 5770 a1bc 7d9f bc3d df85 563c
00000060: 0553 ec3c 3b25 86bc 6638 8abd 6710 9dbc
00000070: 1859 d2bc 0f27 2fbd 4b83 8dbc 005c 7d3d
00000080: abfd b23d ec9c 72bc 0e41 363d ab1f eb3c
00000090: c701 a43c fb0c a63c b256 45bd 7862 8abc
000000a0: d6b3 36bd 3370 993d 63b4 7e3d cc0c 1d3d
000000b0: 3d26 53bc c0e8 613a 8602 bf3c b563 8b3d
000000c0: a67b ab3b 1de8 a8bd 3662 803d 8ad2 893b
000000d0: 3495 903d b3be b93d 1797 a33c acb2 26bc
000000e0: d2d6 913d e607 b23c 1dc8 c53b 90db 893d
000000f0: 09de 8cbd c25b 663d bd09 00bc 9298 9bbd

base.cnn.13.weight f4 [64, 64]
-0.08796035 -0.07652571 -0.17467962 0.052460734 -0.09153093 -0.22036828 -0.11322143 0.09058434
-0.1905518 -0.1232232 0.08407891 0.13419928 0.047666393 -0.008824062 -0.0930292 -0.0020155548
-0.20990875 0.39565578 0.37683004 0.14200355 0.043649606 0.15218315 -0.5386753 -0.003447641
-0.021071488 -0.32895896 -0.014370626 -0.11270198 -0.032237105 -0.043780986 0.18979448 0.22498047
-0.30354372 0.43398434 -0.11764163 -0.022427354 0.20121098 -0.048246544 0.29374087 -0.017052392
-0.109747246 -0.021509675 -0.11896877 0.07068181 -0.0743158 -0.44675615 0.08169267 -0.09553246
-0.26981634 0.15768085 -0.07649043 -0.08465538 -0.35593987 -0.3194604 -0.46548313 0.036971428
-0.10242446 0.029743247 -0.30402747 0.13148692 -0.20374233 -0.18043411 -0.11447401 -0.14362384
-0.2618854 0.00016138979 0.11718381 0.08976732 -0.06917262 0.10330421 0.31184354 0.20650388
-0.11283433 0.064501286 -0.05102145 0.07167605 0.19183095 -0.17259575 -0.24093501 -0.31984282
0.03698064 0.21668708 0.087364554 -0.044155147 0.23829775 -0.030428262 0.10471134 0.24317993
-0.02118279 0.08924315 0.1423212 -0.1210927 -0.37694454 -0.2610571 0.08504226 -0.07120082
-0.2557992 -0.06295563 0.088943616 0.10054247 0.044198204 0.12914732 0.041414507 -0.1680965
0.17874277 0.21392539 -0.23765536 0.123864494 0.10546731 -0.03246095 -0.014086475 -0.19667473
-0.071504585 -0.32323542 0.589624 -0.031907056 -0.41111258 -0.10382412 -0.006411995 -0.10343282
-0.07366048 0.02729862 0.037916012 -0.06090641 0.33354378 -0.13277157 0.16995461 0.20311537
0.34815085 0.13714404 -0.056668434 -0.020671122 -0.15245728 0.12572487 -0.014119993 0.52326167
0.20195445 0.288077 -0.075589895 -0.052370362 0.26402465 0.24742919 0.23698398 -0.055220798
0.12687261 -0.071310446 -0.06706939 0.49924824 -0.29517636 -0.039956655 -0.13379662 -0.26456633
0.15733033 0.01991467 0.23373455 -0.11448461 0.041444678 0.28075865 -0.059332613 -0.15750824
-0.24107201 0.38965586 0.10423588 0.11666363 0.07468239 0.48038757 0.08898009 0.13668041
-0.24230649 -0.10077766 0.115779564 -0.23676948 0.13589266 -0.053099103 0.077845454 0.12182719
-0.2523029 0.109030895 -0.18503946 0.09660563 -0.15673779 -0.2779009 -0.16524954 -0.3910449
-0.39472485 0.16770259 -0.017849455 0.06628712 0.16449657 0.13868235 0.16104743 0.27534005
0.09094002 0.11203875 -0.16936104 0.2698917 0.0025681057 -0.0016508868 0.090987 0.3782591
-0.35162717 -0.06638911 0.38084558 0.070561364 -0.1855249 0.27872294 0.40685987 -0.17085628
-0.27338463 -0.062891975 -0.40705752 0.46733773 -0.28945935 -0.21190396 0.1928 -0.114407666
-0.0709029 0.11836026 0.091643326 0.027021483 -0.08731907 0.10847029 0.039117105 0.08811283
-0.11773371 -0.35577005 0.11742281 -0.014982346 0.1320107 0.06998269 0.12418791 0.22924992
-0.11099175 -0.21779874 0.10959262 -0.4141972 0.00078452606 -0.24817468 0.0060562193 0.04707431
0.14342262 0.06285461 0.2089067 0.058637813 0.1290067 -0.05070405 -0.24226418 -0.18230906
-0.10476926 0.31833497 0.20930624 0.05243559 -0.05647382 -0.056703217 0.0040440974 0.024702841
00000000: 8e24 b4bd 83b9 9cbd 37df 32be 11e1 563d
00000010: 9174 bbbd 39a8 61be a3e0 e7bd 4884 b93d
00000020: 0320 43be 725c fcbd 9031 ac3d 896b 093e
00000030: d63d 433d cc92 10bc 1886 bebd 6617 04bb
00000040: 52f2 56be 6593 ca3e deef c03e 6169 113e
00000050: eec9 323d e6d5 1b3e a0e6 09bf d1f1 61bb
00000060: 1d9e acbc 4f6d a8be c672 6bbc 4cd0 e6bd
00000070: 0e0b 04bd b153 33bd 7c59 423e 4861 663e
00000080: 156a 9bbe 3233 de3e 18ee f0bd 92b9 b7bc
00000090: 400a 4e3e 2b9e 45bd 3465 963e 75b1 8bbc
000000a0: 2ac3 e0bd 0f35 b0bc e6a5 f3bd a0c1 903d
000000b0: e232 98bd 39bd e4be 7d4e a73d 86a6 c3bd
000000c0: 5e25 8abe 1777 213e 04a7 9cbd cd5f adbd
000000d0: c03d b6be 5090 a3be ce53 eebe 5a6f 173d
000000e0: eac3 d1bd 1ca8 f33c 7da9 9bbe 82a4 063e
000000f0: d4a1 50be b8c3 38be 5a71 eabd 2112 13be
00000100: d815 86be be3a 2939 11fe ef3d eed7 b73d
00000110: 60aa 8dbd 2891 d33d f5a9 9f3e c175 533e
00000120: af15 e7bd 4019 843d defb 50bd e5ca 923d
00000130: 556f 443e f1bc 30be abb7 76be 70c2 a3be
00000140: 0379 173d 38e3 5d3e 30ec b23d 07dc 34bd
00000150: 5304 743e b144 f9bc e672 d63d 2904 793e
00000160: 8887 adbc 1dc5 b63d a6bc 113e 73ff f7bd
00000170: e0fe c0be 47a9 85be a32a ae3d bcd1 91bd
00000180: 1df8 82be e2ee 80bd 1228 b63d 36e9 cd3d
00000190: 2d09 353d 323f 043e 42a2 293d 7d21 2cbe
000001a0: 5808 373e 420f 5b3e ed5b 73be abac fd3d
000001b0: 3fff d73d c6f5 04bd f5ca 66bc 1a65 49be
000001c0: ff70 92bd 1d7f a5be 99f1 163f f9b0 02bd
000001d0: 597d d2be bda1 d4bd b61b d2bb 96d4 d3bd
000001e0: 4edb 96bd 5ba1 df3c d24d 1b3d 0079 79bd
000001f0: 40c6 aa3e 45f5 07be 9508 2e3e 7afd 4f3e
00000200: d440 b23e 7d6f 0c3e 291d 68bd 7c56 a9bc
00000210: c31d 1cbe 05be 003e 8b57 67bc 7af4 053f
00000220: 26cd 4e3e d47e 933e e0ce 9abd 4e82 56bd
00000230: 3d2e 873e 145e 7d3e eeab 723e 342f 62bd
00000240: e5ea 013e 360b 92bd ad5b 89bd 779d ff3e
00000250: 5b21 97be 97a9 23bd fb01 09be 3d75 87be
00000260: 341b 213e 1724 a33c 1c58 6f3e e876 eabd
00000270: e5c1 293d 99bf 8f3e c106 73bd d749 21be
00000280: 95db 76be f980 c73e 9f79 d53d 57ed ee3d
00000290: 15f3 983d 5cf5 f53e 323b b63d f3f5 0b3e
000002a0: 311f 78be 8564 cebd d61d ed3d b373 72be
000002b0: 7227 0b3e 727e 59bd 706d 9f3d 8980 f93d
000002c0: d92d 81be 974b df3d fc7a 3dbe 2cd9 c53d
000002d0: df7f 20be 0749 8ebe 2d37 29be 0a37 c8be
000002e0: 6019 cabe 3aba 2b3e 0539 92bc 8bc1 873d
000002f0: ca71 283e bf02 0e3e 9ee9 243e 5ff9 8c3e
00000300: c33e ba3d 9274 e53d fb6c 2dbe 3f2f 8a3e
00000310: aa4d 283b 9262 d8ba 6457 ba3d 2dab c13e
00000320: 7a08 b4be 04f7 87bd 31fe c23e 7a82 903d
00000330: 3dfa 3dbe c6b4 8e3e f04f d03e f3f4 2ebe
00000340: 12f9 8bbe 82cd 80bd d869 d0be e446 ef3e
00000350: 0434 94be 5afd 58be 5d6d 453e 914e eabd
00000360: 8a35 91bd dd66 f23d 7faf bb3d 285c dd3c
00000370: 57d4 b2bd ac25 de3d 4239 203d 8074 b43d
00000380: 5f1e f1bd 7e27 b6be 5f7b f03d 8478 75bc
00000390: d02d 073e 1653 8f3d 3b56 fe3d 7ec0 6a3e
000003a0: a54f e3bd a206 5fbe 1872 e03d a811 d4be
000003b0: a7a8 4d3a 8121 7ebe 4073 c63b fed0 403d
000003c0: 61dd 123e ebb9 803d a3eb 553e 342e 703d
000003d0: 551a 043e 0daf 4fbd 1a14 78be 3aaf 3abe
000003e0: 4491 d6bd cdfc a23e 6054 563e b4c6 563d
000003f0: 1851 67bd a241 68bd 5984 843b 9d5d ca3c
