CRL_human_AI_overcooked/human_models/model_random1/actor_best_r2.pt (torch, 419411 bytes, 20 tensors)

base.cnn.0.weight f4 [32, 20, 3, 3]
0.13729085 -0.12185908 -0.14014025 0.0024182259 0.14339948 -0.12958306 0.02174941 0.070262715
0.16661927 0.0984791 0.20960635 -0.23214367 0.17506921 0.020239124 0.050885852 0.03917673
-0.08014301 -0.14171273 0.19778694 0.14770757 0.118552506 0.113471694 -0.06672474 0.110929854
0.25840747 -0.083625056 0.01795701 0.013635279 0.017995484 -0.11059838 0.053920653 0.015217503
-0.0074892156 0.01461425 0.09706324 -0.12307987 0.14402549 0.07915414 0.1692539 0.0007433747
0.15772702 -0.20132728 0.07296038 -0.19016917 0.09203385 0.17181934 -0.014837201 -0.12830384
0.040194076 -0.04908217 0.05118141 0.0041504726 -0.020601887 0.15953498 -0.17395107 -0.19432315
-0.12992348 0.18405803 0.061609257 0.08781686 -0.01550439 -0.084056124 -0.024528276 -0.10429413
0.0023696139 0.09657097 0.2367131 0.095233575 0.092937 -0.15757658 -0.12802343 0.075974636
-0.00566146 -0.24217176 -0.003344205 -0.27302545 0.12812473 -0.003777793 0.17020178 -0.044679612
-0.10656794 0.1675526 0.024343573 -0.018653303 0.14694837 -0.057593185 -0.10989385 -0.07043134
0.025773928 -0.096154116 0.049461275 -0.0116395 -0.04794239 -0.08658357 0.041999057 0.17724392
-0.0029087781 -0.10342395 -0.005726897 -0.15243892 0.23664749 0.015621031 0.120459415 -0.042665392
-0.051846106 -0.12960026 -0.046281546 -0.024340857 -0.006088499 0.009207102 -0.17701381 -0.10865895
-0.14398809 0.021851208 -0.07482071 0.055025812 -0.061970223 0.111845285 0.019075967 -0.012455861
-0.03434601 -0.12382584 -0.14330913 -0.0020237286 -0.22390193 -0.09548325 0.13391373 -0.05954786
-0.04921258 0.08184866 0.08204563 -0.063783966 -0.097051695 -0.141533 0.05555461 0.062901534
0.098738514 -0.16361491 -0.12662308 -0.081184976 0.32389432 -0.22248271 0.06679455 -0.17768666
-0.01471335 -0.043483116 0.17184661 -0.043845296 0.013546778 -0.056376595 -0.05101212 0.08341952
-0.15702286 -0.1043112 -0.08116034 -0.17499772 -0.02236858 0.041319378 0.027383666 0.043979645
0.021781614 0.058569595 -0.16022648 0.13203876 0.13371697 -0.22101338 0.06962448 -0.04695209
-0.09176703 0.010315969 -0.21265823 0.015863568 -0.03204866 -0.07984165 0.02795312 0.20955035
-0.0020998262 -0.059689153 -0.10574415 0.062624045 0.05784178 -0.039282843 -0.19350067 -0.08561847
-0.044686 0.19201261 -0.12623343 0.037233252 0.28733552 -0.002283812 -0.021603081 0.04720587
0.16064085 0.057620768 0.15278319 0.01589696 -0.23450659 -0.17237641 -0.06559216 0.004421831
0.03154883 0.05456118 0.07819014 -0.15186714 -0.04425808 -0.07289269 0.008137269 0.14887685
0.06009008 0.082946956 -0.23449528 0.21069515 -0.05696061 0.09148533 0.030383077 0.08918966
-0.0036823503 -0.087043166 -0.19686788 -0.23112988 -0.11942559 -0.13928144 -0.16589245 0.07549854
0.15773332 -0.19570969 -0.024768012 0.12907508 0.016908372 0.03345276 0.113790154 0.16657935
-0.0678052 0.105241686 -0.105205454 -0.03874928 -0.0796059 -0.03495379 0.07302405 -0.049430855
0.027412392 -0.21398444 0.09206777 0.04100621 -0.027008258 0.040745318 0.085574195 -0.03794762
-0.030217983 -0.087903194 0.066043496 -0.012243558 0.2881266 0.1455722 0.09156904 -0.017702367
00000000: f995 0c3e 4191 f9bd ed80 0fbe 197b 1e3b
00000010: 50d7 123e 6cb1 04be d22b b23c e6e5 8f3d
00000020: 3e9e 2a3e 69af c93d 0ca3 563e 12b7 6dbe
00000030: 5845 333e 85cc a53c af6d 503d c777 203d
00000040: 0522 a4bd 241d 11be a988 4a3e a740 173e
00000050: a8cb f23d d963 e83d fba6 88bd 312f e33d
00000060: fc4d 843e 9d43 abbd 941a 933c 8166 5f3c
00000070: 446b 933c 6781 e2bd e7db 5c3d d552 793c
00000080: 1868 f5bb 9b70 6f3c 18c9 c63d 4d11 fcbd
00000090: 6b7b 133e 911b a23d e550 2d3e 08df 423a
000000a0: 3183 213e bd28 4ebe 406c 953d b5bb 42be
000000b0: 3e7c bc3d 69f1 2f3e bb17 73bc 1562 03be
000000c0: 8ba2 243d 630a 49bd 99a3 513d b000 883b
000000d0: 4ac5 a8bc 235d 233e 3b20 32be a6fc 46be
000000e0: a90a 05be b579 3c3e fd59 7c3d 53d9 b33d
000000f0: 2006 7ebc 9e25 acbd 86ef c8bc 2998 d5bd
00000100: 864b 1b3b 00c7 c53d eb64 723e d209 c33d
00000110: c155 be3d c15b 21be 9318 03be 9798 9b3d
00000120: c583 b9bb e0fb 77be 732a 5bbb fec9 8bbe
00000130: 2133 033e d994 77bb 6049 2e3e f801 37bd
00000140: 4b40 dabd e992 2b3e 2c6c c73c d0ce 98bc
00000150: a279 163e d5e6 6bbd 0710 e1bd 4e3e 90bd
00000160: d823 d33c 73ec c4bd e897 4a3d 9ab3 3ebc
00000170: 3d5f 44bd ba52 b1bd 3407 2c3d 6e7f 353e
00000180: 33a1 3ebb f0cf d3bd b2a8 bbbb f318 1cbe
00000190: b853 723e 5aef 7f3c 6db3 f63d e8c1 2ebd
000001a0: 955c 54bd eeb5 04be b891 3dbd 7a66 c7bc
000001b0: 0882 c7bb 62d9 163c 1c43 35be 9588 debd
000001c0: 9d71 13be 4e01 b33c 9a3b 99bd bf62 613d
000001d0: 7dd4 7dbd 240f e53d 3445 9c3c ab13 4cbc
000001e0: 67ae 0cbd 6798 fdbd a1bf 12be 88a0 04bb
000001f0: 8c46 65be b98c c3bd ae20 093e 75e8 73bd
00000200: 2193 49bd 45a0 a73d 8a07 a83d 2ba1 82bd
00000210: 0ac3 c6bd 07ee 10be 3b8d 633d 85d2 803d
00000220: 6b37 ca3d ab8a 27be 7ba9 01be 4f44 a6bd
00000230: 7ad5 a53e 82d2 63be 95cb 883d 7ef3 35be
00000240: 4310 71bc 5a1b 32bd 8ff8 2f3e 2097 33bd
00000250: 4ef3 5d3c 25eb 66bd 16f2 50bd dad7 aa3d
00000260: 9aca 20be 1ca1 d5bd 6437 a6bd 9a32 33be
00000270: 503e b7bc 823e 293d b653 e03c 0024 343d
00000280: 5b6f b23c ace6 6f3d 6912 24be 2b35 073e
00000290: 1aed 083e 5551 62be 4897 8e3d d650 40bd
000002a0: 5af0 bbbd 4f04 293c 14c3 59be 50f4 813c
000002b0: 7545 03bd 0584 a3bd f1fd e43c 5e94 563e
000002c0: 3d9d 09bb 9d7c 74bd 6490 d8bd 0941 803d
000002d0: 81eb 6c3d 0ce7 20bd 0a25 46be bd58 afbd
000002e0: ab08 37bd f49e 443e 5643 01be e581 183d
000002f0: a41d 933e 02ac 15bb f2f8 b0bc f15a 413d
00000300: 097f 243e c103 6c3d 3273 1c3e 573a 823c
00000310: 7f22 70be 7183 30be 2f55 86bd 02e5 903b
00000320: 5939 013d 8b7b 5f3d 2722 a03d 0f83 1bbe
00000330: f647 35bd c348 95bd 2e52 053c 2c73 183e
00000340: 0421 763d 18e0 a93d 881f 70be 78c0 573e
00000350: 874f 69bd a95c bb3d eee5 f83c 12a9 b63d
00000360: 9653 71bb b043 b2bd bc97 49be 50ad 6cbe
00000370: 6795 f4bd cb9f 0ebe b6df 29be fb9e 9a3d
00000380: d884 213e 1f68 48be 49e6 cabc 422c 043e
00000390: 6d83 8a3c c305 093d d00a e93d c793 2a3e
000003a0: 74dd 8abd f488 d73d f575 d7bd 91b7 1ebd
000003b0: 6b08 a3bd b52b 0fbd a28d 953d 0278 4abd
000003c0: f48f e03c bd1e 5bbe 078e bc3d 21f6 273d
000003d0: 6c40 ddbc 90e4 263d 8641 af3d f76e 1bbd
000003e0: b48b f7bc 9706 b4bd d041 873d 3499 48bc
000003f0: 5485 933e e110 153e 8d88 bb3d 8e04 91bc

base.cnn.0.bias f4 [32]
-0.031904723 0.023251368 0.008720246 -0.006067846 -0.014320556 0.010026305 -0.009377379 -0.014706833
0.0020095946 -0.018376866 0.0030043428 -0.014010659 0.005158505 -0.051391907 -0.011701579 -0.02704147
0.01629574 0.0010482471 0.011681434 0.0006539171 0.009017404 -0.02512628 0.007406649 -0.0057062865
-0.019823713 0.012276267 -0.010721527 -0.0040756078 -0.025638852 -0.026918853 -0.012085467 -0.017192112
00000000: 87ae 02bd a779 be3c 5ddf 0e3c c8d4 c6bb
00000010: c4a0 6abc 5f45 243c 94a3 19bc eef4 70bc
00000020: 67b3 033b 158b 96bc 82e4 443b f78c 65bc
00000030: ad08 a93b 5280 52bd fbb7 3fbc 1386 ddbc
00000040: a57e 853c 5665 893a 7c63 3f3c a26b 2b3a
00000050: bcbd 133c a1d5 cdbc 7ab3 f23b cdfb babb
00000060: 5765 a2bc 6522 493c 58a9 2fbc ad8c 85bb
00000070: 9208 d2bc ed84 dcbc 1f02 46bc 79d6 8cbc

base.cnn.2.weight f4 [64, 32, 3, 3]
-0.020987812 -0.07963378 -0.033342216 0.08121371 0.14540538 0.0025517829 -0.042336285 -0.018666442
0.01678154 -0.16771017 0.0013064926 -0.05090745 -0.13552657 0.002845702 -0.07185193 -0.1868513
0.02503353 0.20540325 0.03383199 0.104886614 0.014024034 0.07371206 -0.0026005618 0.05733375
0.025501074 0.17914738 -0.10013441 0.05720855 0.16671576 0.024285577 -0.06400271 0.023446405
0.107857995 0.12691638 0.022006454 0.021972958 -0.1325877 -0.16820522 -0.15680091 0.16533126
0.0467981 -0.07721561 0.0024539505 0.1558742 0.06509464 0.036969487 -0.10462593 -0.0020286099
-0.015987253 -0.23838589 0.057943065 0.02638605 0.046413545 0.03214963 -0.040945858 -0.023701275
0.08157394 -0.14977238 0.039544914 0.13167416 0.1825528 -0.009085467 0.024576383 -0.050669383
0.0013180799 0.047552798 -0.11750399 -0.03073541 0.07905854 0.054413468 0.031027192 0.03736103
-0.03971711 -0.048214555 0.004068764 -0.15692998 0.089706 0.16454002 0.033185616 0.0443578
0.069404826 0.0141318785 0.049587473 -0.013951695 -0.019700259 -0.045931645 -0.042978283 -0.049114253
0.1428923 0.10194037 -0.06660285 0.037620947 0.070502535 -0.16164036 0.07984012 0.022132004
-0.12594868 -0.11688473 0.017335435 0.050229274 -0.008691539 0.01843336 -0.054100346 0.024460359
-0.11234859 -0.081289195 -0.067726344 -0.08173432 -0.01297548 -0.11620391 -0.03198325 -0.08418639
-0.19563566 0.11647114 -0.11546999 -0.05638269 0.09947765 -0.02095447 0.08829196 -0.106535465
-0.104836136 0.05093391 0.03464183 -0.025856517 -0.017249908 -0.06665774 -0.15739769 -0.016228253
-0.113979556 -0.14890653 -0.16203205 -0.06950129 0.030647974 0.0178745 -0.20480408 -0.020603146
-0.13295554 0.10653586 -0.03620814 0.21093856 -0.0068710484 -0.07342213 -0.09035789 0.0654572
-0.089548275 0.028771332 -0.05192221 -0.03556774 0.08447956 -0.006858063 0.083215 0.093272604
-0.091609016 -0.09967267 0.03787461 0.06588414 -0.1323803 -0.015783226 0.01792052 0.02383387
-0.04422404 0.047885466 0.08034555 -0.07516927 0.0113211 0.16309658 0.030239373 5.0956907e-05
-0.059480082 -0.052890845 -0.07315263 -0.023874274 0.027464248 -0.008547876 0.07495887 0.04921589
-0.02853065 0.08960239 0.00070119527 0.03740289 -0.038666006 -0.07284455 0.10462769 0.05387765
-0.04192211 -0.07547183 0.068577744 0.04581331 -0.025273705 0.10757832 -0.045228306 -0.044626728
-0.10788024 0.09207976 -0.09813209 0.09765489 0.054714277 0.08577002 0.029772129 -0.011914263
0.102996066 0.08318447 0.10748391 -0.10720311 -0.036035307 0.14536683 -0.07352843 -0.015398623
-0.15551203 0.061637793 0.17718184 0.08109971 0.04161436 -0.028584056 -0.1154652 -0.15578587
-0.06690272 0.08269132 0.16175331 0.031386543 0.15167473 -0.21237923 0.044327922 0.13561577
-0.0071941996 0.0035639985 0.032360774 0.06786708 -0.14045443 -0.03044634 -0.0899886 -0.04141933
0.018012492 0.10024398 -0.09043098 0.0154254595 -0.014699593 -0.08535191 -0.034724515 -0.074205965
0.101406746 -0.061965976 -0.06277172 0.08407554 0.06293712 0.03326103 -0.13114591 0.24601859
-0.023304403 -0.044212542 -0.05717686 -0.021779273 -0.018195966 0.015707877 -0.14880097 -0.08019463
00000000: a2ee abbc 0917 a3bd d991 08bd 6053 a63d
00000010: 26e5 143e d03b 273b d068 2dbd 5eea 98bc
00000020: 7179 893c 37bc 2bbe 9e3e ab3a 5584 50bd
00000030: 7ac7 0abe f57e 3a3b 1b27 93bd f255 3fbe
00000040: 1e13 cd3c 3b55 523e 6a93 0a3d cbce d63d
00000050: 10c5 653c 59f6 963d 306e 2abb cbd6 6a3d
00000060: a1e7 d03c 6972 373e 4513 cdbd 8353 6a3d
00000070: 89b7 2a3e 8cf2 c63c da13 83bd ad12 c03c
00000080: a7e4 dc3d 5ef6 013e e146 b43c a200 b43c
00000090: 12c5 07be fd3d 2cbe 6b90 20be 994c 293e
000000a0: 5daf 3f3d 3823 9ebd 75d2 203b 7c9d 1f3e
000000b0: 5750 853d 516d 173d 1f46 d6bd 6df2 04bb
000000c0: b3f7 82bc 6e1b 74be b555 6d3d 8f27 d83c
000000d0: 211c 3e3d 55af 033d d8b6 27bd 2d29 c2bc
000000e0: 3d10 a73d ee5d 19be d9f9 213d 97d5 063e
000000f0: 1fef 3a3e 36db 14bc 6954 c93c b38a 4fbd
00000100: 6cc3 ac3a b9c6 423d efa5 f0bd d4c8 fbbc
00000110: 72e9 a13d a8e0 5e3d bd2c fe3c e107 193d
00000120: 69ae 22bd a07c 45bd 4453 853b 41b2 20be
00000130: c8b7 b73d 2e7d 283e a4ed 073d 86b0 353d
00000140: 1e24 8e3d 6589 673c 3c1c 4b3d a695 64bc
00000150: 7062 a1bc d222 3cbd ff09 30bd 072c 49bd
00000160: 5c52 123e 1dc6 d03d 1367 88bd 6c18 1a3d
00000170: a263 903d 0d85 25be 3883 a33d 2d4e b53c
00000180: b1f8 00be 4361 efbd 0b03 8e3c 36bd 4d3d
00000190: f566 0ebc 8f01 973c 5398 5dbd 1761 c83c
000001a0: 0417 e6bd f37a a6bd 1cb4 8abd 5364 a7bd
000001b0: 1c97 54bc 51fc edbd de00 03bd ea69 acbd
000001c0: b754 48be 6c88 ee3d 887b ecbd 89f1 66bd
000001d0: f0ba cb3d b5a8 abbc 6ad2 b43d 442f dabd
000001e0: 54b4 d6bd 13a0 503d 97e4 0d3d 0cd1 d3bc
000001f0: ae4f 8dbc da83 88bd dc2c 21be 1df1 84bc
00000200: 1d6e e9bd f47a 18be bbeb 25be b156 8ebd
00000210: 7611 fb3c 8b6d 923c 29b8 51be eec7 a8bc
00000220: 7f25 08be 792f da3d fd4e 14bd 4700 583e
00000230: 8826 e1bb 575e 96bd 8f0d b9bd 6d0e 863d
00000240: 1665 b7bd dbb1 eb3c 62ac 54bd 7baf 11bd
00000250: 9f03 ad3d 9ab9 e0bb a06c aa3d b505 bf3d
00000260: 829d bbbd 2f21 ccbd 6822 1b3d 44ee 863d
00000270: b48e 07be d34b 81bc 0ece 923c 403f c33c
00000280: 4424 35bd 8d23 443d 358c a43d 59f2 99bd
00000290: 237c 393c ca02 273e 90b8 f73c 90ba 5538
000002a0: 63a1 73bd 12a4 58bd 0cd1 95bd fb93 c3bc
000002b0: b4fc e03c 640c 0cbc 0984 993d 9a96 493d
000002c0: 1cb9 e9bc 7581 b73d 6bd0 373a c633 193d
000002d0: 3f60 1ebd 862f 95bd 0b47 d63d d0ae 5c3d
000002e0: 85b6 2bbd fa90 9abd 7d72 8c3d bda6 3b3d
000002f0: cd0a cfbc 0652 dc3d 5141 39bd 84ca 36bd
00000300: 51f0 dcbd 5094 bc3d 7af9 c8bd 49ff c73d
00000310: 141c 603d 31a8 af3d aee4 f33c 0a34 43bc
00000320: 9aef d23d 9f5c aa3d 8620 dc3d 4e8d dbbd
00000330: c299 13bd 0bdb 143e 1396 96bd 824a 7cbc
00000340: 8c3e 1fbe e977 7c3d 286f 353e 9b17 a63d
00000350: d273 2a3d 1c29 eabc 0579 ecbd 5586 1fbe
00000360: 4b04 89bd 115a a93d a9a2 253e 2d8f 003d
00000370: 9f50 1b3e f179 59be 3291 353d dcde 0a3e
00000380: 52bd ebbb f991 693b bb8c 043d e5fd 8a3d
00000390: 49d3 0fbe 9a6a f9bc f14b b8bd 51a7 29bd
000003a0: ef8e 933c b74c cd3d e133 b9bd 11bb 7c3c
000003b0: 90d6 70bc fbcc aebd 4b3b 0ebd 4cf9 97bd
000003c0: 57ae cf3d 09d0 7dbd 768e 80bd cc2f ac3d
000003d0: 2de5 803d b83c 083d 1d4b 06be 4cec 7b3e
000003e0: e0e8 bebc 3618 35bd 4832 6abd 726a b2bc
000003f0: b50f 95bc cead 803c 485f 18be 153d a4bd

base.cnn.2.bias f4 [64]
-0.015678778 0.0014993947 0.00033377585 0.0069937925 -0.026819859 -0.015041133 -0.021961646 0.0024132617
-0.0011355652 -0.0051016356 -0.014503927 -0.012879861 0.013021849 0.009228084 -0.001431951 -0.022816705
0.0045881667 -0.0002938438 0.009744746 -0.00085443485 -0.0030498176 -0.0085453605 0.0022862393 -0.0068845996
0.0032834474 -0.010924986 -0.004110528 -0.034016144 0.0011095833 -0.00644799 -0.010893608 -0.027113175
-0.0048324955 -0.008416259 -0.010684662 -0.0019852 -0.0032782473 0.018871866 -0.024944557 -0.008502644
-0.00602596 -0.01343294 -0.0054950197 0.005469288 -0.009753166 -0.015784202 -0.010267599 -0.020111676
-0.018916992 -0.01637081 0.016136227 -0.011470355 -0.0001794025 -0.008709599 -0.021798454 -0.03386369
-0.013598283 -0.008170746 -0.0024688141 -0.0058471705 -0.013191706 -0.03629578 -0.021819321 -0.0065334034
00000000: c870 80bc 5687 c43a a3fe ae39 2f2c e53b
00000010: 52b5 dbbc 166f 76bc e9e8 b3bc d027 1e3b
00000020: 3fd7 94ba 9f2b a7bb e1a1 6dbc 0d06 53bc
00000030: 9859 553c 6431 173c 4db0 bbba 19ea babc
00000040: 5558 963b 0c0f 9ab9 6da8 1f3c 27fc 5fba
00000050: 73df 47bb d701 0cbc bbd4 153b 3598 e1bb
00000060: 1b2f 573b b6fe 32bc 9cb1 86bb 8354 0bbd
00000070: 706f 913a a949 d3bb 1b7b 32bc 731c debc
00000080: e959 9ebb 59e4 09bc b80e 2fbc 211a 02bb
00000090: ddd7 56bb 2c99 9a3c 8758 ccbc ac4e 0bbc
000000a0: 6b75 c5bb d515 5cbc 910f b4bb b737 b33b
000000b0: becb 1fbc df4d 81bc 6e39 28bc 3ec1 a4bc
000000c0: cff7 9abc 141c 86bc 1f30 843c 28ee 3bbc
000000d0: fe1d 3cb9 b5b2 0ebc ac92 b2bc a7b4 0abd
000000e0: 55cb 5ebc 98de 05bc d4cb 21bb 9f99 bfbb
000000f0: 0622 58bc e2aa 14bd 6fbe b2bc 2916 d6bb

base.cnn.4.weight f4 [32, 64, 3, 3]
-0.028736493 -0.026790515 0.00811616 -0.047345474 -0.001501103 -0.043815427 -0.073164366 0.12055781
0.05395307 -0.04350732 0.042465422 -0.010708879 -0.017665258 -0.041375004 -0.06793348 0.028866518
0.17433837 -0.0099527035 -0.017645208 0.02789999 -0.045749523 0.00034258742 0.027325295 0.0013198128
-0.022921178 0.034898594 0.034198377 -0.08291927 0.008955367 -0.0362645 -0.0127805285 0.0033693202
-0.049078763 -0.02359306 0.060490847 0.06860202 0.08677432 0.016199458 0.025668584 0.03394328
0.025571136 -0.06611275 -0.052549183 0.0071513457 -0.00033956175 -0.038323004 0.040336594 0.09006558
0.04542162 -0.12208303 -0.041288786 -0.14310764 -0.10501507 0.010906594 0.048116803 -0.02947111
-0.0250582 0.0044316724 0.08204255 0.11883163 0.06697091 -0.07862692 0.060764343 -0.03108455
-0.036177587 -0.022311281 -0.038671855 0.004529003 -0.044763952 -0.093311965 -0.118272774 -0.03477878
-0.01311 -0.14655025 -0.0502502 0.0019437596 0.018875595 -0.025005903 -0.0631798 0.048889033
0.039999068 -0.042010296 -0.010513454 0.03736718 0.12316021 0.15748134 -0.011917514 0.04805239
-0.01001399 0.03204609 -0.02117192 0.051231783 -0.024556177 -0.0637351 0.008095114 -0.11478275
0.019428419 -0.107236184 -0.033923075 0.0152784325 0.00092673994 0.068216704 -0.07348605 -0.067374915
0.036724463 -0.1079836 -0.072094515 -0.111363 0.0429893 0.08617205 0.007578346 -0.05928796
0.02623737 -0.047970094 0.034613274 -0.119349286 0.059599105 0.035384674 -0.031450927 0.05352894
0.0053847637 -0.0105904 0.06705944 -0.053439047 -0.060925595 0.05961587 -0.025711287 0.0067364266
0.068693586 -0.0193475 -0.062979944 0.050339885 -0.048286177 -0.083448544 -0.017332662 0.010049448
0.044436656 0.044724695 -0.07689188 -0.14025913 -0.07814975 -0.068728104 -0.031974174 -0.012734077
-0.012175131 0.007933353 0.061099615 -0.0252737 -0.0877435 -0.08250681 -0.09625325 -0.026365053
-0.057513654 -0.054869346 0.06848752 0.0262499 -0.23326513 0.035392094 -0.051135138 0.002595969
0.04151954 0.0779661 0.011950884 -0.1197424 0.008937322 0.051241055 -0.06540448 0.012251176
-0.009150506 0.0196929 -0.03889908 0.08603724 0.087808125 -0.0026558342 0.070883214 -0.1227385
-0.20315431 -0.101131976 -0.06149528 0.06161145 -0.053202152 0.058783714 0.051187485 0.00908728
-0.11250837 -0.07694435 -0.013025945 -0.02754254 -0.15629683 0.035281748 -0.04550392 -0.0786095
0.018586863 -0.014999653 -0.07214143 -0.0364755 -0.052800845 0.056622982 0.01199295 -0.057797853
-0.051267225 -0.079864904 0.06730026 0.05451607 0.13928193 -0.008370833 0.037975308 -0.026053168
0.05576799 0.002197646 0.023279319 -0.039783973 -0.13197792 0.021138296 -0.030198766 0.00617882
0.18425933 0.07454157 -0.0007355407 -0.05043335 -0.043269172 -0.079074904 -0.038209993 -0.09118355
-0.010403761 0.007919288 -0.017737418 -0.06970334 0.07799856 -0.15575142 0.19532606 0.004492594
0.011518725 0.034310274 -0.045657814 0.102830596 0.023141995 -0.1313858 -0.008519243 -0.052163985
-0.058237538 0.092359416 0.035582427 0.028361216 0.09662824 0.052706514 -0.020857196 -0.058825694
0.066602804 -0.080581024 0.052198276 -0.036522634 0.0240624 -0.009786567 -0.0403115 0.020093283
00000000: cb68 ebbc c877 dbbc a4f9 043c 54ed 41bd
00000010: a9c0 c4ba ce77 33bd 33d7 95bd 03e7 f63d
00000020: e5fd 5c3d bb34 32bd 39f0 2d3d 4b74 2fbc
00000030: bbb6 90bc d678 29bd b520 8bbd 7a79 ec3c
00000040: c285 323e aa10 23bc af8c 90bc 858e e43c
00000050: da63 3bbd 4e9d b339 4cd9 df3c 92fd ac3a
00000060: 32c5 bbbc d4f1 0e3d 9913 0c3d 94d1 a9bd
00000070: 88b9 123c 168a 14bd 6c65 51bc d0cf 5c3b
00000080: d006 49bd 3c46 c1bc 40c5 773d 377f 8c3d
00000090: bcb6 b13d bab4 843c ec46 d23c 1c08 0b3d
000000a0: 8f7a d13c 1f66 87bd d03d 57bd d655 ea3b
000000b0: 3507 b2b9 95f8 1cbd fc37 253d 4e74 b83d
000000c0: 050c 3a3d ab06 fabd 6e1e 29bd cf8a 12be
000000d0: 2412 d7bd 92b1 323c 2016 453d 666d f1bc
000000e0: db46 cdbc 9037 913b ed05 a83d ff5d f33d
000000f0: 0b28 893d 2707 a1bd 08e4 783d 07a5 febc
00000100: f32e 14bd 26c6 b6bc 6166 1ebd 0868 943b
00000110: 685a 37bd 581a bfbd ff38 f2bd 3274 0ebd
00000120: 53cb 56bc 4511 16be 27d3 4dbd c0c5 fe3a
00000130: fea0 9a3c 2ed9 ccbc 6964 81bd de3f 483d
00000140: 10d6 233d fd12 2cbd 9f40 2cbc 540e 193d
00000150: 6c3b fc3d ca42 213e ad41 43bc 95d2 443d
00000160: b811 24bc c342 033d bc70 adbc 6bd8 513d
00000170: 092a c9bc 8c87 82bd 5ea1 043c 3813 ebbd
00000180: 5928 9f3c a59e dbbd ecf2 0abd 6452 7a3c
00000190: 77f0 723a 33b5 8b3d db7f 96bd dcfb 89bd
000001a0: 646c 163d 8126 ddbd 4aa6 93bd 4912 e4bd
000001b0: 8c15 303d f97a b03d c653 f83b efd7 72bd
000001c0: c1ef d63c 4a7c 44bd a6c6 0d3d 666d f4bd
000001d0: 311e 743d 85ef 103d b0d2 00bd 2941 5b3d
000001e0: ac72 b03b 5b83 2dbc 7656 893d e7e2 5abd
000001f0: 1e8d 79bd c52f 743d 7aa0 d2bc 3ebd dc3b
00000200: 39af 8c3d a67e 9ebc a1fb 80bd 3231 4e3d
00000210: bac7 45bd 12e7 aabd 3afd 8dbc 71a6 243c
00000220: 3603 363d 3e31 373d 7d79 9dbd 17a0 0fbe
00000230: fa0c a0bd 52c1 8cbd 5af7 02bd 97a2 50bc
00000240: 337a 47bc e5fa 013c 9743 7a3d ca0a cfbc
00000250: ddb2 b3bd 55f9 a8bd 6d20 c5bd 86fb d7bc
00000260: 7093 6bbd aebe 60bd 2f43 8c3d 080a d73c
00000270: 0edd 6ebe 4df7 103d 1473 51bd 2221 2a3b
00000280: 6510 2a3d b1ac 9f3d a4cd 433c 813b f5bd
00000290: d86d 123c 24e2 513d c9f2 85bd 28b9 483c
000002a0: 01ec 15bc 0153 a13c a454 1fbd 4b34 b03d
000002b0: bfd4 b33d 810d 2ebb 382b 913d 535e fbbd
000002c0: af07 50be 481e cfbd 7ae2 7bbd 4a5c 7c3d
000002d0: 80ea 59bd 31c7 703d f8a9 513d d1e2 143c
000002e0: ca6a e6bd 0095 9dbd c66a 55bc e5a0 e1bc
000002f0: 470c 20be 9883 103d 5262 3abd 04fe a0bd
00000300: 7a43 983c 1bc1 75bc e3be 93bd 5567 15bd
00000310: b345 58bd 80ed 673d 147e 443c 71bd 6cbd
00000320: 95fd 51bd 3690 a3bd b8d4 893d 3e4c 5f3d
00000330: ec9f 0e3e d125 09bc ff8b 1b3d 746d d5bc
00000340: fa6c 643d 6206 103b 45b4 be3c 85f4 22bd
00000350: 3825 07be 382a ad3c 6763 f7bc b377 ca3b
00000360: 7aae 3c3e 40a9 983d 4dd1 40ba 3393 4ebd
00000370: 043b 31bd 06f2 a1bd 1582 1cbd 71be babd
00000380: 8974 2abc e7bf 013c 104e 91bc a0c0 8ebd
00000390: b6bd 9f3d 4d7d 1fbe 8e03 483e 9c36 933b
000003a0: 09b9 3c3c ee88 0c3d b003 3bbd d998 d23d
000003b0: 4894 bd3c 008a 06be 4c94 0bbc e7a9 55bd
000003c0: 7c8a 6ebd ef26 bd3d e1be 113d c855 e83c
000003d0: 07e5 c53d c9e2 573d b6dc aabc 36f3 70bd
000003e0: 0d67 883d aa07 a5bd dccd 553d c298 15bd
000003f0: 831e c53c d657 20bc ac1d 25bd ab9a a43c

base.cnn.4.bias f4 [32]
-0.0048412806 -0.013335577 -0.010238557 -0.036415882 -0.0077416226 0.0020061678 -0.004993701 0.0007713801
-0.0060577206 -0.006036286 -0.003557499 -0.033086013 -0.027146414 -0.0062912963 -0.004496708 -0.007774628
-0.002948671 -0.01742878 0.0034113373 -0.005825104 -0.0011199218 -0.01136229 -0.03815174 -0.005254717
-0.009217198 -0.0186356 -0.009688888 -0.013566573 0.0126121435 0.004631469 -0.009881398 -0.00032726495
00000000: 9ba3 9ebb 777d 5abc 9fbf 27bc d228 15bd
00000010: 70ad fdbb e979 033b 33a2 a3bb 7136 4a3a
00000020: d87f c6bb 09cc c5bb ee24 69bb 3385 07bd
00000030: 2862 debc 3827 cebb 1f59 93bb 4ec2 febb
00000040: 7e3e 41bb cdc6 8ebc be90 5f3b 84e0 bebb
00000050: 57ca 92ba e628 3abc 0045 1cbd c32f acbb
00000060: bb03 17bc b0a9 98bc 24be 1ebc 5546 5ebc
00000070: 2aa3 4e3c 94c3 973b 96e5 21bc c294 abb9

base.cnn.7.weight f4 [64, 800]
-0.04244127 -0.015256762 -0.10123111 0.06880989 -0.09244958 -0.0076631154 0.00797721 0.1293416
-0.059855286 0.09384854 0.027144194 0.046396058 -0.04573526 -0.044958726 -0.022501526 -0.008984524
-0.028460693 0.017312035 -0.0024762498 0.0068935277 -0.09010434 0.026354743 0.040862437 -0.007335904
0.046540774 0.027825154 -0.08826686 0.020153651 0.10569383 0.062233336 -0.06418343 -0.025066262
0.015781045 0.033458665 0.082374424 0.0038579793 0.030278966 0.008488787 0.080566876 0.0019087973
-0.007999327 0.0006737744 -0.044391066 -0.057691224 -0.05613096 0.10012714 0.04936235 0.046850525
-0.056304477 -0.07392409 0.07034953 0.03472488 -0.03651552 -0.0067004072 -0.057490338 0.077380516
0.01825718 0.022788987 -0.13310054 -0.04156686 0.1025806 0.037616223 -0.030115847 -0.0638953
0.047020193 -0.026455492 -0.057326093 0.0034227865 0.087399155 -0.0898558 -0.050596904 -0.0042754402
0.040019013 0.06499558 0.1016099 -0.033357188 -0.019357085 -0.0022740776 0.0044809193 0.03393593
-0.03354448 -0.039655488 -0.061336257 -0.039013285 0.0030234847 0.03056859 0.017723043 0.010319361
-0.09899254 0.08312077 0.0017068307 -0.04682718 -0.010827834 0.058267463 -0.0346245 0.018725056
-0.013651753 -0.011107931 0.056341466 0.10580259 0.019868119 0.046459407 0.038611326 0.090312056
0.025802404 -0.08892937 -0.079470865 0.011291229 0.02927649 0.07280949 -0.024434367 0.066744536
0.02361695 0.03501469 -0.03264203 -0.0019204863 -0.012541177 -0.04396577 -0.022024143 0.026756914
-0.03714182 -0.0056860666 -0.009654203 -0.058151625 0.018974673 -0.1010138 -0.0688763 0.039592754
-0.03276521 -0.09736819 0.015187464 0.008819499 0.057518374 0.0038435191 -0.05355095 0.1031057
0.106209375 -0.04690706 0.028489998 -0.049662422 0.14746657 -0.0015736186 -0.023297923 0.06575096
-0.06486153 -0.00932002 -0.021841288 -0.042980295 -0.029530851 -0.038253523 -0.013578403 0.040324345
-0.036828447 0.08067917 -0.068320684 -0.06828641 -0.020499904 0.022802662 0.072111346 -0.016843801
-0.03810168 0.059912805 -0.043039843 0.027667329 -0.007809615 -0.026250036 0.004927258 -0.014438581
0.09187643 -0.018724157 -0.01630583 -0.056832626 0.042971388 0.05218867 0.13830933 -0.0716394
0.053002264 0.0650483 -0.019078137 -0.058422633 0.14898022 0.036391523 -0.006033046 0.044566862
-0.00915238 -0.07179813 0.013051686 0.048401304 0.009859765 -0.054362606 0.059068676 0.057261534
-0.041067302 0.007153922 -0.009445717 0.021235038 -0.04240957 0.062741175 0.027170708 -0.04401624
0.07624037 -0.03540881 0.0818496 -0.071787484 -0.011058565 -0.028166022 0.035499915 0.07506959
-0.09448506 -0.057582512 0.0015386589 0.08172624 0.06659672 0.046800014 0.032888923 -0.023110649
0.067874305 -0.0023992886 -0.055531394 0.030995697 -0.0046713664 -0.0073513053 -0.020344412 0.03184804
-0.10777786 0.048321497 -0.014857325 0.002723935 0.00122103 0.019976962 0.06452372 0.012170937
-0.03914338 0.037770584 0.018936815 -0.07827124 -0.055563785 -0.05407214 0.03011477 0.012313488
-0.10041298 -0.02128573 -0.04240011 0.017465308 -0.022390284 -0.024027843 0.039040778 -0.027781712
-0.04783598 -0.04270876 -0.057359688 -0.046484455 0.04763753 0.034082126 -0.07355374 -0.03235741
00000000: e6d6 2dbd 7ff7 79bc 4252 cfbd 33ec 8c3d
00000010: 3556 bdbd df1a fbbb d8b2 023c 2072 043e
00000020: d12a 75bd aa33 c03d 805d de3c cb09 3e3d
00000030: e554 3bbd a426 38bd 1f55 b8bc d333 13bc
00000040: 6626 e9bc f8d1 8d3c 9448 22bb 1ae3 e13b
00000050: a088 b8bd e7e5 d73c 5f5f 273d 0662 f0bb
00000060: 8aa1 3e3d 94f1 e33c 41c5 b4bd 4519 a53c
00000070: 0276 d83d 62e8 7e3d 9a72 83bd c357 cdbc
00000080: 4047 813c f40b 093d ecb3 a83d 27d6 7c3b
00000090: 980b f83c 8e14 0b3c 3f00 a53d 9c30 fa3a
000000a0: 9c0f 03bc 3ca0 303a 68d3 35bd a24d 6cbd
000000b0: 94e9 65bd 750f cd3d 2d30 4a3d 56e6 3f3d
000000c0: 869f 66bd 8365 97bd 6a13 903d ad3b 0e3d
000000d0: 4c91 15bd 178f dbbb fd7a 6bbd ad79 9e3d
000000e0: 1590 953c f8af ba3c 824b 08be 0342 2abd
000000f0: c715 d23d 7813 1a3d 82b5 f6bc 8adb 82bd
00000100: 3f98 403d 30b9 d8bc c4ce 6abd d450 603b
00000110: 54fe b23d 5106 b8bd b33e 4fbd fe18 8cbb
00000120: faea 233d 671c 853d da18 d03d 8ca1 08bd
00000130: c092 9ebc b108 15bb add4 923b 6700 0b3d
00000140: f065 09bd cb6d 22bd ba3b 7bbd 65cc 1fbd
00000150: a825 463b fb6a fa3c ea2f 913c 8a12 293c
00000160: 9abc cabd 393b aa3d bcb7 df3a dbcd 3fbd
00000170: 3a67 31bc dda9 6e3d 6bd2 0dbd 4a65 993c
00000180: 9aab 5fbc 0afe 35bc 4fc6 663d 07af d83d
00000190: 77c2 a23c 384c 3e3d e926 1e3d 87f5 b83d
000001a0: 905f d33c 9a20 b6bd 9fc1 a2bd d9fe 383c
000001b0: 40d5 ef3c 241d 953d 952a c8bc 5cb1 883d
000001c0: 5578 c13c 906b 0f3d a6b3 05bd d4b8 fbba
000001d0: 8279 4dbc 7415 34bd fa6b b4bc 5131 db3c
000001e0: 0522 18bd 2f52 babb aa2c 1ebc 6630 6ebd
000001f0: c670 9b3c 53e0 cebd 040f 8dbd 032c 223d
00000200: d034 06bd f968 c7bd d7d4 783c a97f 103c
00000210: 6398 6b3d 8de3 7b3b 3e58 5bbd 1529 d33d
00000220: 4d84 d93d 9e21 40bd db63 e93c d36a 4bbd
00000230: 7a01 173e e141 ceba 49db bebc 70a8 863d
00000240: 1fd6 84bd ffb2 18bc 80ec b2bc 1b0c 30bd
00000250: afea f1bc baaf 1cbd f377 5ebc 242b 253d
00000260: 6dd9 16bd 1f3b a53d b7eb 8bbd bfd9 8bbd
00000270: 6aef a7bc a6cc ba3c 1daf 933d 03fc 89bc
00000280: 8210 1cbd 2167 753d 8c4a 30bd 98a6 e23c
00000290: cde7 ffbb 510a d7bc d674 a13b cc8f 6cbc
000002a0: b629 bc3d 6763 99bc ce93 85bc 54c9 68bd
000002b0: c402 303d c9c3 553d f6a0 0d3e aeb7 92bd
000002c0: e718 593d 0b38 853d c149 9cbc 924c 6fbd
000002d0: 458e 183e 470f 153d dcb0 c5bb be8b 363d
000002e0: ddf3 15bc e60a 93bd bdd6 553c 7240 463d
000002f0: da8a 213c 53ab 5ebd fff1 713d 128b 6a3d
00000300: 3036 28bd 736b ea3b 35c2 1abc 1af5 ad3c
00000310: a8b5 2dbd 727e 803d 1b95 de3c 5f4a 34bd
00000320: e923 9c3d d408 11bd c3a0 a73d 5105 93bd
00000330: fc2e 35bc 6ebc e6bc 5c68 113d 16be 993d
00000340: 6281 c1bd a4db 6bbd d3ac c93a 1660 a73d
00000350: dc63 883d 5fb1 3f3d 89b6 063d 8b52 bdbc
00000360: af01 8b3d 623d 1dbb e374 63bd b0ea fd3c
00000370: 4312 99bb 38e3 f0bb 53a9 a6bc 1773 023d
00000380: a3ba dcbd c3ec 453d 236c 73bc 0c84 323b
00000390: f80a a03a baa6 a33c 0325 843d 9c68 473c
000003a0: cf54 20bd 54b5 1a3d 6121 9b3c ac4c a0bd
000003b0: da96 63bd c07a 5dbd 40b3 f63c 83be 493c
000003c0: 52a5 cdbd 695f aebc bdab 2dbd 6813 8f3c
000003d0: d46b b7bc 0ad6 c4bc 39e9 1f3d 7996 e3bc
000003e0: a9ef 43bd 61ef 2ebd fef1 6abd 7c66 3ebd
000003f0: 921f 433d b399 0b3d 58a3 96bd 3489 04bd

base.cnn.7.bias f4 [64]
-0.000999368 -0.007259292 -0.008299282 -0.010120642 -0.0067979903 -0.01639437 -0.018028574 -0.0056173387
-0.012810471 -0.01040305 -0.0074930675 -0.0068850806 0.014594223 -0.004611551 -0.017479245 -0.0030368578
0.0031666632 0.020419098 -0.016025268 -0.011363321 -0.014820266 -0.018225264 -0.009816207 -0.015398158
-0.009342579 -0.016204432 -0.01817076 -0.0077897147 -0.02519772 0.0072450303 -0.0036094035 -0.027258132
-0.010366694 -0.017638436 -0.0024722437 -0.004834162 -0.015787177 -0.012740456 -0.019527562 -0.015355713
-0.004233301 -0.00243503 -0.014615782 -0.003594757 -0.0019584196 0.0020205802 -0.018823069 0.0032008323
-0.0041758046 -0.008876609 -0.007717512 -0.015840925 -0.0015348202 -0.0022170534 0.0030471666 0.00041702404
-0.0023878352 -0.008951566 0.0053734966 -0.007880525 -0.024599507 -0.007287192 -0.014426846 0.009006297
00000000: 3afd 82ba 5bdf edbb b6f9 07bc 0dd1 25bc
00000010: adc1 debb 7c4d 86bc a9b0 93bc a711 b8bb
00000020: 02e3 51bc 8e71 2abc 6888 f5bb 3e9c e1bb
00000030: 9c1c 6f3c 7e1c 97bb a230 8fbc 0506 47bb
00000040: cb87 4f3b f445 a73c 6c47 83bc 392d 3abc
00000050: b3d0 72bc 264d 95bc 28d4 20bc 8e48 7cbc
00000060: 9e11 19bc 28bf 84bc d8da 94bc dd40 ffbb
00000070: 736b cebc b867 ed3b be8b 6cbb 724c dfbc
00000080: 11d9 29bc 7b7e 90bc 5e05 22bb e467 9ebb
00000090: 1c54 81bc 58bd 50bc 44f8 9fbc 8796 7bbc
000000a0: 81b7 8abb 0695 1fbb 0877 6fbc 0496 6bbb
000000b0: d458 00bb b66b 043b d632 9abc 0ec5 513b
000000c0: 30d5 88bb 326f 11bc 2fe3 fcbb d4c4 81bc
000000d0: 052c c9ba fc4b 11bb f9b2 473b 05a4 da39
000000e0: 3a7d 1cbb 97a9 12bc 2814 b03b 511d 01bc
000000f0: e884 c9bc 66c9 eebb 945e 6cbc 268f 133c

base.cnn.9.weight f4 [64]
0.99629104 1.0230887 0.975055 0.9893106 0.97181416 0.9976358 0.99297833 1.0089133
0.9707877 1.0259231 1.0113916 0.99437773 0.99239075 0.9959117 1.0108006 1.0155979
1.0726057 0.9258327 0.9825012 1.0014039 1.0161835 1.0086106 0.9988445 0.99679035
0.97826165 1.0062912 1.0148757 0.9243017 0.99816585 1.027074 0.99129194 0.9988007
1.0100334 0.99026984 1.0141208 0.99053293 1.0042018 0.99358606 1.0143414 1.0343169
1.0075258 1.0069128 0.9935255 1.0247175 0.99419916 1.0423635 0.9628302 0.9719724
0.98755795 1.017201 0.9880423 1.0102539 1.02609 1.0163202 1.0433785 0.99942935
1.033358 0.9730222 1.0025241 1.0307574 1.0228783 0.9849688 1.0209234 1.0185657
00000000: ee0c 7f3f 92f4 823f 349d 793f 7643 7d3f
00000010: d0c8 783f 0f65 7f3f d433 7e3f 1224 813f
00000020: 8b85 783f 7351 833f 4875 813f 8a8f 7e3f
00000030: 520d 7e3f 12f4 7e3f ea61 813f 1dff 813f
00000040: 254b 893f 5f03 6d3f 3385 7b3f 012e 803f
00000050: 4d12 823f 271a 813f 46b4 7f3f a72d 7f3f
00000060: 5b6f 7a3f 26ce 803f 72e7 813f 099f 6c3f
00000070: cc87 7f3f 2977 833f 4fc5 7d3f 67b1 7f3f
00000080: c648 813f 5382 7d3f b6ce 813f 9193 7d3f
00000090: af89 803f a85b 7e3f f0d5 813f 7f64 843f
000000a0: 9bf6 803f 85e2 803f b057 7e3f f129 833f
000000b0: d683 7e3f 2b6c 853f 0a7c 763f 2fd3 783f
000000c0: 99d0 7c3f a433 823f 57f0 7c3f 0050 813f
000000d0: eb56 833f c816 823f 6d8d 853f 9ada 7f3f
000000e0: 1345 843f fc17 793f b652 803f dcef 833f
000000f0: aded 823f ea26 7c3f 9ead 823f 5c60 823f

base.cnn.9.bias f4 [64]
-0.030273043 -0.014668624 0.013069505 0.01496707 0.028530566 -0.018578816 0.020211475 -0.0024063317
0.04509584 0.0007607743 -0.046472017 0.016863115 0.018967923 0.0067866575 0.003876268 -0.012547635
-0.04319965 0.057601746 0.005242216 0.011118752 -0.010289101 -0.003398313 0.0027887516 0.00342916
0.03504603 -0.0062644337 -0.015028313 0.085207045 0.0009781345 0.011607436 0.016366918 -0.0019915486
0.0044647874 -0.017620098 -0.0009500858 0.008416742 0.0046085706 -0.001138637 -0.009131306 -0.019623984
0.011086313 -0.00031127402 0.009245572 0.0040437994 -0.021627588 -0.007184339 0.021485984 -0.003791183
0.010265167 0.015633572 0.003956103 -0.014476054 -0.004620294 -0.0041696266 -0.002432933 0.017829629
0.005028558 0.037925243 0.00036693827 0.0031249376 -0.027706375 -0.00768638 -0.026605112 0.052860163
00000000: 2cff f7bc ab54 70bc 7a21 563c 7138 753c
00000010: efb8 e93c 9a32 98bc 8992 a53c 8cb3 1dbb
00000020: 6ab6 383d b36e 473a 7159 3ebd 8424 8a3c
00000030: 9e62 9b3c 9c62 de3b fc08 7e3b 9894 4dbc
00000040: 1ef2 30bd cfef 6b3d e5c6 ab3b 6d2b 363c
00000050: 9e93 28bc 3bb6 5ebb 7dc3 363b c2bb 603b
00000060: 6d8c 0f3d e145 cdbb 5039 76bc 0881 ae3d
00000070: bf34 803a 1e2d 3e3c ea13 863c a484 02bb
00000080: 5a4d 923b 0658 90bc 2e0f 79ba 60e6 093c
00000090: 7e03 973b 513e 95ba 799b 15bc 7ac2 a0bc
000000a0: 5ea3 353c 7e32 a3b9 bd7a 173c d981 843b
000000b0: 572c b1bc 9b6a ebbb 6003 b03c 7f75 78bb
000000c0: 3b2f 283c fa11 803c 33a2 813b f92c 6dbc
000000d0: d665 97bb 5da1 88bb d871 1fbb 710f 923c
000000e0: 9ac6 a43b 8057 1b3d 9f61 c039 c1cb 4c3b
000000f0: 7bf8 e2bc 07de fbbb f7f2 d9bc e683 583d

base.cnn.10.weight f4 [64, 64]
-0.111489154 -0.2031293 0.07685987 -0.0867392 -0.16024208 -0.039977744 -0.032152407 -0.07988682
-0.007364318 0.01134731 -0.2879802 0.2739202 -0.07571143 -0.05709954 0.23420483 0.3199983
0.16264157 0.13710059 -0.15287355 -0.036673427 0.38237616 -0.03402748 0.09907635 0.021962527
-0.008508297 -0.30403394 -0.1076386 -0.21218887 -0.29965866 -0.2440504 0.19501318 0.01570497
0.23656368 0.0053776656 0.24007325 -0.03963318 -0.24196082 0.23361531 -0.04837025 -0.09956171
0.017816853 0.08485242 0.20741676 -0.2005814 -0.10640743 -0.20328933 0.05250125 0.204353
-0.06894155 0.21864936 0.16592368 -0.10100052 0.24268965 0.1517713 0.07237173 0.20644373
-0.1784192 -0.37650892 0.08330669 0.18985462 0.118698254 0.20073625 0.26094493 -0.02952778
0.0024874238 -0.24482143 0.061241396 -0.03067103 0.017134001 -0.062340956 -0.07771195 0.05156896
0.026676435 0.0074304403 0.11359082 -0.039183732 0.01979139 -0.1436859 -0.43899798 -0.08458458
0.28346595 -0.03667679 -0.028865207 0.029178657 0.055536952 -0.016308079 -0.07880562 -0.048038602
0.14293249 0.15038304 0.16153972 0.27545002 0.023216043 0.077942096 0.10978939 -0.16916451
0.10584543 -0.2761851 -0.112798184 0.24656457 0.12964545 0.37076336 -0.090735555 0.031516653
-0.097747974 -0.09011797 0.1139041 -0.12764336 0.0068711033 -0.0066702696 -0.19211765 -0.15104306
-0.049387727 -0.5183073 -0.17084318 0.21209204 0.0038570424 -0.37547687 -0.28957263 0.1294816
-0.25905016 -0.29361916 -0.15785144 0.23474327 0.28316498 0.29052526 -0.08662711 0.2233492
-0.085496604 -0.11995695 0.09041668 0.085188866 0.21880186 0.28266487 0.5155939 -0.1444119
0.20946293 -0.083022654 0.022646477 0.17728326 -0.17164285 0.14585805 0.21542746 0.04330161
-0.035747837 0.14669532 0.18051349 0.16952993 -0.1878701 0.10164742 -0.12963733 -0.028582064
0.0863575 -0.14457251 -0.018735463 0.05478153 0.22625308 0.12929036 0.01912295 -0.09493575
-0.0580605 -0.13585211 -0.14556138 0.19560853 0.0044132294 -0.14481714 -0.108889826 -0.06758222
-0.08357744 -0.16387174 0.34492603 0.18026805 0.12874079 0.16965051 -0.012176433 -0.017533293
-0.22852325 0.008501713 0.37651867 -0.25638232 -0.01797838 -0.015753524 -0.46308258 0.10953467
-0.296237 0.023598533 -0.17790158 0.4451231 -0.16797556 -0.09739961 0.037272576 -0.2815717
0.002107148 -0.26809677 0.04201744 0.17378174 0.038541164 0.0622284 -0.14270751 -0.15384111
0.25429696 0.28249145 -0.08525738 -0.14278825 -0.05040555 -0.09384835 -0.10509198 0.09676656
0.38158405 0.040995575 0.3484539 0.27580518 0.20923275 0.21914528 0.119968064 0.11032814
0.13880973 0.22978304 0.16514827 0.03989691 -0.008690706 0.13082716 0.19901343 -0.12918809
0.124670446 0.26296267 -0.14601624 -0.3275964 -0.059319384 -0.24560405 0.1372309 0.23323604
-0.21297267 -0.009018773 -0.2097956 -0.13367416 0.22164002 0.07123468 -0.09404639 -0.27822074
-0.012488691 0.08642499 0.1123456 -0.19255967 -0.048610363 0.074368395 0.18376301 0.0369851
0.14994897 -0.31220365 0.29783547 -0.08220833 -0.02447184 0.019640334 -0.15121876 -0.32261473
00000000: 6d54 e4bd 2101 50be b568 9d3d 52a4 b1bd
00000010: 8016 24be b4bf 23bd 3eb2 03bd b39b a3bd
00000020: 6050 f1bb 11ea 393c 2472 93be 453f 8c3e
00000030: 980e 9bbd 35e1 69bd 64d3 6f3e d1d6 a33e
00000040: 838b 263e 1964 0c3e e28a 1cbe e036 16bd
00000050: cfc6 c33e 6660 0bbd 8be8 ca3d c2ea b33c
00000060: 6266 0bbc 56aa 9bbe a071 dcbd 0a48 59be
00000070: dc6c 99be 59e8 79be 89b1 473e b6a7 803c
00000080: c03d 723e 2137 b03b c3d5 753e 6756 22bd
00000090: 94c4 77be da38 6f3e e21f 46bd 03e7 cbbd
000000a0: a6f4 913c 1bc7 ad3d 0f65 543e 3665 4dbe
000000b0: 23ec d9bd 142b 50be 8d0b 573d ea41 513e
000000c0: 3a31 8dbd 9ee5 5f3e e6e7 293e 5cd9 cebd
000000d0: a383 783e f069 1b3e a137 943d fc65 533e
000000e0: 86b3 36be c7c5 c0be b39c aa3d 4069 423e
000000f0: 1218 f33d ce8d 4d3e 939a 853e 3ee4 f1bc
00000100: 0c04 233b 78b2 7abe 42d8 7a3d d041 fbbc
00000110: 9b5c 8c3c 3b59 7fbd 7127 9fbd f939 533d
00000120: 8a88 da3c 0d7b f33b 4ea2 e83d 1f7f 20bd
00000130: 8e21 a23c 6622 13be 58c4 e0be ae3a adbd
00000140: 7322 913e 673a 16bd ba76 ecbc 1408 ef3c
00000150: b77a 633d 8598 85bc d764 a1bd 20c4 44bd
00000160: e55c 123e 03fe 193e ab6a 253e c907 8d3e
00000170: 922f be3c 1ba0 9f3d 42d9 e03d 7639 2dbe
00000180: 7dc5 d83d 2268 8dbe bc02 e7bd 6c7b 7c3e
00000190: c7c1 043e b2d4 bd3e 90d3 b9bd 9b17 013d
000001a0: 1730 c8bd c58f b8bd 8e46 e93d f1b4 02be
000001b0: fe26 e13b 4792 dabb 7dba 44be 08ab 1abe
000001c0: c94a 4abd caaf 04bf 84f1 2ebe a82e 593e
000001d0: 6fc6 7c3b 813e c0be dd42 94be d396 043e
000001e0: 39a2 84be 4055 96be cfa3 21be 8a60 703e
000001f0: 00fb 903e babf 943e 8e69 b1bd a7b5 643e
00000200: d818 afbd fdab f5bd 612c b93d 8077 ae3d
00000210: 980d 603e 73b9 903e f6fd 033f b7e0 13be
00000220: 737d 563e c807 aabd 1b85 b93c be89 353e
00000230: 25c3 2fbe d05b 153e 0499 5c3e 075d 313d
00000240: 536c 12bd 4c37 163e 87d8 383e 4199 2d3e
00000250: 0561 40be 862c d03d a6bf 04be ef24 eabc
00000260: 33dc b03d d10a 14be 1d7b 99bc 9962 603d
00000270: e3ae 673e b164 043e bca7 9c3c ad6d c2bd
00000280: d9d0 6dbd d11c 0bbe 0b0e 15be 9a4d 483e
00000290: da9c 903b f24a 14be a101 dfbd 8c68 8abd
000002a0: a62a abbd fecd 27be 259a b03e 3098 383e
000002b0: a0d4 033e ddb8 2d3e a97f 47bc fba1 8fbc
000002c0: 0002 6abe c54a 0b3c 0ec7 c03e 8b44 83be
000002d0: 6547 93bc 890d 81bc 2919 edbe b753 e03d
000002e0: 60ac 97be b651 c13c d52b 36be 2de7 e33e
000002f0: c901 2cbe 7279 c7bd 21ab 183d 2a2a 90be
00000300: 1418 0a3b fb43 89be 7b1a 2c3d d7f3 313e
00000310: 57dd 1d3d 35e3 7e3d eb21 12be 8688 1dbe
00000320: 3633 823e b8a2 903e 6c9b aebd 1537 12be
00000330: 0d76 4ebd 9033 c0bd 773a d7bd 8c2d c63d
00000340: fc5e c33e faea 273d 8d68 b23e 5636 8d3e
00000350: 1c41 563e 9f67 603e d1b1 f53d b8f3 e13d
00000360: 2324 0e3e 3f4c 6b3e a11c 293e f16a 233d
00000370: 7763 0ebc 8ef7 053e 2dca 4b3e e249 04be
00000380: 3853 ff3d 0ba3 863e 4885 15be b7ba a7be
00000390: e2f8 72bd a17f 7bbe 4286 0c3e 6ed5 6e3e
000003a0: 8215 5abe 7ac3 13bc a8d4 56be e1e1 08be
000003b0: 9af5 623e 7de3 913d 659b c0bd f372 8ebe
000003c0: 5e9d 4cbc 96ff b03d 7315 e63d 5d2e 45be
000003d0: a91b 47bd 754e 983d 5f2c 3c3e b07d 173d
000003e0: 398c 193e 28d9 9fbe e47d 983e d75c a8bd
000003f0: 2b79 c8bc c4e4 a03c 17d9 1abe c22d a5be

base.cnn.10.bias f4 [64]
-0.009057787 -0.026343578 0.023460016 -0.018840887 0.0011027987 -0.011689759 -0.020375965 0.0064531066
0.019113753 -0.012501443 -0.042664185 0.026508726 0.014787441 -0.03193782 -0.0117594395 -0.005224792
-0.064311326 0.007631872 -0.08664645 -0.03389565 -0.043992873 -0.041298475 -0.015509265 0.006882199
-0.039579432 -0.01875967 -0.023800494 -0.03229775 -0.0602242 -0.019245809 -0.024156034 -0.037197597
0.0035968968 0.034500945 -0.016427362 0.0021468827 0.0091981385 -0.015846958 0.0072291177 -0.006938633
-0.057263333 -0.020209588 -0.026724499 0.00457711 -0.024132304 -0.013718233 -0.07207236 -0.012802811
-0.0018422395 0.020575058 -0.016893096 -0.014071901 0.01140136 -0.0024199109 0.019440236 -0.012438939
-0.012101568 0.002211667 -0.040348757 0.0012721363 -0.0012280447 -0.02995493 -0.058375742 0.018293554
00000000: 1d67 14bc 7dce d7bc 382f c03c 3458 9abc
00000010: c98b 903a 6786 3fbc 7feb a6bc 9574 d33b
00000020: 7294 9c3c dad2 4cbc a4c0 2ebd d428 d93c
00000030: 0647 723c 3bd1 02bd aaaa 40bc bb34 abbb
00000040: a8b5 83bd c814 fa3b b273 b1bd 2ad6 0abd
00000050: df31 34bd 9728 29bd 921a 7ebc 1284 e13b
00000060: 0b1e 22bd e1ad 99bc 41f9 c2bc a54a 04bd
00000070: a7ad 76bd 63a9 9dbc e0e2 c5bc 825c 18bd
00000080: eab9 6b3b dd50 0d3d ad92 86bc b7b2 0c3b
00000090: cab3 163c 7bd1 81bc 3ce2 ec3b 795d e3bb
000000a0: f58c 6abd 948e a5bc 56ed dabc 95fb 953b
000000b0: 1cb1 c5bc 71c2 60bc ac9a 93bd e2c2 51bc
000000c0: 4d77 f1ba 068d a83c 6463 8abc d58d 66bc
000000d0: c5cc 3a3c 5e97 1ebb 2141 9f3c b1cc 4bbc
000000e0: a845 46bc 9df1 103b bd44 25bd d0bd a63a
000000f0: 58f6 a0ba 0b64 f5bc 671b 6fbd 5ddc 953c

base.cnn.12.weight f4 [64]
0.98357207 0.96128595 1.0419669 0.9892854 1.0069388 0.96062785 0.99311 1.0594417
0.97935426 1.0109681 1.0391797 1.0371981 1.0315061 0.9979575 0.99877673 0.9730791
1.0071617 1.0023168 0.9947541 0.96541077 0.88889235 0.9767385 0.9484236 0.98893195
0.9544559 0.98209673 0.96520454 1.0448376 0.99407196 0.93162477 1.0225778 0.9844663
1.0023081 1.0543028 1.020765 1.0290807 0.9678368 1.025604 0.9768705 1.0846392
1.0255705 0.9971659 0.99971175 1.0288246 0.96869624 0.94165236 0.9119985 1.0011674
1.0202079 1.0788666 0.9913732 1.005826 1.0424597 0.9511153 0.98191303 0.9867719
1.0374261 0.986295 0.91243255 0.98544186 1.0421293 0.92760366 0.9692361 1.061069
00000000: 61cb 7b3f d616 763f 2c5f 853f cf41 7d3f
00000010: 5fe3 803f b5eb 753f 753c 7e3f c99b 873f
00000020: f6b6 7a3f 6767 813f d703 853f e8c2 843f
00000030: 6408 843f 257a 7f3f d5af 7f3f b61b 793f
00000040: adea 803f eb4b 803f 34a8 7e3f 2925 773f
00000050: 738e 633f 890b 7a3f e4cb 723f a52a 7d3f
00000060: 3957 743f b16a 7b3f a517 773f 3dbd 853f
00000070: 807b 7e3f f67e 6e3f d4e3 823f fc05 7c3f
00000080: a24b 803f 65f3 863f 6da8 823f ebb8 833f
00000090: 27c4 773f fe46 833f 2f14 7a3f 75d5 8a3f
000000a0: e545 833f 4446 7f3f 1ced 7f3f 86b0 833f
000000b0: 7afc 773f 2110 713f bc78 693f 4126 803f
000000c0: 2c96 823f 4d18 8a3f a2ca 7d3f e8be 803f
000000d0: 526f 853f 4b7c 733f a75e 7b3f 159d 7c3f
000000e0: 61ca 843f d47d 7c3f 2e95 693f eb45 7c3f
000000f0: 7e64 853f 6f77 6d3f db1f 783f 1cd1 873f

base.cnn.12.bias f4 [64]
-0.014601053 0.035270855 0.021331916 -0.007460973 0.014109214 0.0110843275 -0.023692435 0.007514423
0.027264224 -0.0033291515 -0.061829023 -0.0008552113 0.011080366 -0.033536296 0.02813354 0.017337095
-0.04523775 -0.0131638935 0.01898689 0.010214601 0.008455345 0.009145907 -0.0019829771 0.0021245899
0.030169452 0.011217459 -0.019027863 -0.044896305 0.0064681317 0.028153932 -0.005257348 0.006495186
-0.0029814278 0.014899296 0.004303391 -0.0037614822 0.020416455 0.015971215 0.013784916 -0.03537846
-0.052862965 0.03742593 -0.004977054 0.007755232 0.008246515 0.018735547 0.06647891 0.016728
-0.027197635 0.019687222 0.0014566705 -0.01884783 -0.0021223328 0.04132298 0.038683686 -0.0025030961
-0.02018795 0.0013059939 0.03380999 -0.028430363 0.021078683 -0.0016014895 0.013319075 -0.005738186
00000000: 4139 6fbc 2c78 103d 45c0 ae3c 2e7b f4bb
00000010: 552a 673c 0a9b 353c a316 c2bc 8d3b f63b
00000020: 3959 df3c e52d 5abb 6e40 7dbd 4230 60ba
00000030: 6c8a 353c 5b5d 09bd 4f78 e63c 8606 8e3c
00000040: 384b 39bd 5fad 57bc 658a 9b3c 245b 273c
00000050: 4a88 0a3c b7d8 153c d6f4 01bb b43c 0b3b
00000060: ed25 f73c 6fc9 373c 52e0 9bbc 30e5 37bd
00000070: 9ff2 d33b 13a3 e63c d545 acbb 92d5 d43b
00000080: 0f64 43bb 2d1c 743c 7603 8d3b 3383 76bb
00000090: 6940 a73c 11d6 823c 21da 613c 01e9 10bd
000000a0: d686 58bd ef4b 193d 8e16 a3bb 9a1f fe3b
000000b0: 641c 073c 4a7b 993c 1826 883d 2909 893c
000000c0: 93cd debc 1947 a13c c0ed be3a c466 9abc
000000d0: d616 0bbb 4942 293d c972 1e3d fc0a 24bb
000000e0: 3361 a5bc e22d ab3a 587c 0a3d cbe6 e8bc
000000f0: 34ad ac3c 12e9 d1ba 4038 5a3c 6507 bcbb
