CRL_human_AI_overcooked/human_models/model_random1/actor_best_r8.pt (torch, 419411 bytes, 20 tensors)

base.cnn.0.weight f4 [32, 20, 3, 3]
00000000: dfe4 413d 2fc1 b33e 1737 f8bd c977 7b3c
00000010: 4724 e1bd b8d0 fd3d e244 c4bd fa41 a5be
00000020: 99e0 1fbe 2e2a eabd d623 9bbd 3a96 fa3d
00000030: d54f 1a3e c9ef e4bd f83b 9f3d 0447 d8ba
00000040: 6156 413e 46b0 2ebe 0131 60bd 356a fbbd
00000050: 2c12 4d3e 7ee7 563d 3973 223e 5381 e13d
00000060: 3f2e 4cbd 81f9 54bd 6305 8a3e 8f86 29be
00000070: aa6c 703e e14a 173e 818c bf3c bda1 87be
00000080: 475f d239 2ae5 2ebd 4292 013e cd97 93bc
00000090: 37ec 503e 2fd0 ef3d 6456 f73c cc8d 363d
000000a0: 2ca5 203d 78d4 c73c 637e cdbc f696 a0be
000000b0: 8e56 1abe 9e6f 67be 005d 923e 45c0 9cbe
000000c0: d6ef be3d 6947 adbd d9e4 b03d 0acb 3d3e
000000d0: 3187 82be 9c9b 42be 66f4 263e d8e1 e2bc
000000e0: 936b 5dbd bd55 633d 579e 46be ebaa 3c3d
000000f0: 3b0d e3bd 3a24 1d3e 43d1 a6bc 6daa 353e
00000100: 8015 b3be bd60 a6bd e2d2 25be 1550 603e
00000110: 5d46 6d3e a96f 1d3e a1b1 17bc e01c 223c
00000120: 4758 ddbd 5b8b 783e 0c40 f93d 6825 5f3e
00000130: 26a3 963e 368a a3be 70e3 b23b 67c0 0abd
00000140: 2ed3 973e 3d01 eb3b 8719 503d b5f6 ce3d
00000150: dcdc a3bd 8672 31be 1810 763e 72ef d53e
00000160: 98f0 40bd 1be0 d7bd 073b 96bd 274f 95be
00000170: b846 023a aa78 a63e 5bed 4abd 3ec1 f7bd
00000180: e958 2b3e 4247 af3e 1307 393d 73fb a73a
00000190: e213 a23c 86e7 07bd 3eb9 fa3c 5ebf 4abe
000001a0: 6ec0 7f3d 4265 8ebd b90e a2be 0f69 e2bd
000001b0: 40b0 2abe 052d 8abe 0333 febc 0227 9bbd
000001c0: cf31 eebd 8aa4 813d 2eec 023e a56e d0bd
000001d0: 2984 75bd 18d0 c8bd a055 b2be e0ef 203e
000001e0: 861e b33d 3ce2 133e ff37 97be 6fee f13d
000001f0: a771 903d 055a b9bd 2194 503a be16 603d
00000200: d6ea 843c a4e9 c0bc d1c1 38bd 4459 f7bc
00000210: 7455 003e ccdc 1fba 2f56 f0bd 7b34 a53d
00000220: e3f6 023d 2818 b3bd fb94 97bd 1283 053e
00000230: d940 83bc f32d 833e a255 8dbe 6270 2f3c
00000240: 5e49 1ebe a25a 81be 9de5 a93d db44 85be
00000250: 1d99 db3c 35e7 40be 48c5 d6bc 3315 91be
00000260: 879f d4bd 2ee1 ad3c e1e1 963d d6e4 f4be
00000270: 3058 02be 981a 98bd b2bf 8f3e bb43 a83e
00000280: 831e 4b3e 8c4c 4abe 30f8 25be 6c83 babe
00000290: 0f40 753e 88ec a03c 9521 8e3d 9ecc 193e
000002a0: f5c2 0a3e 26e6 6e3e f9c5 d1bd f138 e2be
000002b0: ee4e 24bf df23 41bc 041f 683e 8413 b2be
000002c0: 8f8d 123c 36c1 24be fcc2 3bbe b83a eebe
000002d0: b44b 5bbe c2e5 98bd 5658 2c3e 2884 51be
000002e0: 2df4 88be 8efe d1bd 90f2 8d3d db1b 33be
000002f0: 6d97 6f3d e6fe 34be eafc 523e ebde 14bc
00000300: ed21 9fbc 8e15 273e 36f2 ec3d 6749 723b
00000310: eec2 003b b455 04be 2df3 a23d 771c c93d
00000320: e523 b7bc f5da 8a3e 3942 1ebe e5ca 0ebd
00000330: 7212 a4be 11bc ffbd de2c 623e e8e9 c2bd
00000340: 009c c4bd a21c 533f 2c81 e2bd e7f9 d7be
00000350: 17c9 efbd 6cd0 453e caf1 47be 412e 7c3e
00000360: 0c2a 49be 7a3f 373d 2315 5ebe 60b9 54bd
00000370: 2b56 17be ee10 e83d a000 943e 8d07 693e
00000380: 899b 9cbe 817c 68bd e0af e03e 54ad 68be
00000390: f25c a0be 50d9 aebd 74a8 a8be ea69 e33b
000003a0: 766a a3bd 37eb 45be 88dc 453d 3875 573e
000003b0: 77a2 a6be c4b2 adbd bde1 9c3e 9b19 cabd
000003c0: d8fa 87bc a918 a9be d521 39be bdfe 6c3d
000003d0: 133f f73c d4db 5c3e 84b8 3fbd 6bb7 4f3e
000003e0: b62f 493d b564 cd3d e2b8 523e 9943 e43a
000003f0: 17cc 65be acfc 543e 69de 0ebe fc24 d5bc
0.04733741 0.35108325 -0.121198826 0.015348383 -0.109932475 0.123933256 -0.09583451 -0.322769
-0.15613021 -0.114338264 -0.075751945 0.12235685 0.15069516 -0.11178548 0.0777511 -0.0016500656
0.18880607 -0.1705943 -0.054734234 -0.12276117 0.20026463 0.052466862 0.15864266 0.11010995
-0.04984879 -0.051995758 0.26957235 -0.16555236 0.23478952 0.14774658 0.023382427 -0.26490584
0.00040125308 -0.042699017 0.12653449 -0.01801672 0.20402609 0.1170963 0.030192561 0.04456882
0.03922002 0.024393305 -0.02508468 -0.31365174 -0.1507208 -0.22601172 0.28586578 -0.3061544
0.09323089 -0.08460886 0.08637399 0.18534485 -0.25493768 -0.19004673 0.16304168 -0.027695581
-0.05405767 0.05550169 -0.1939634 0.046061438 -0.11086508 0.1534585 -0.020363456 0.17740794
-0.3497734 -0.0812392 -0.16193727 0.21905549 0.23171373 0.15374626 -0.009258659 0.00989458
-0.10807853 0.2427191 0.12170419 0.21791613 0.29421347 -0.31941384 0.0054592416 -0.033874895
0.29653305 0.0071717785 0.050805595 0.101056494 -0.0800111 -0.17328843 0.24029577 0.41784245
-0.047104448 -0.105407916 -0.07335477 -0.2916195 0.00049696444 0.32513934 -0.049542766 -0.12097405
0.16733135 0.34234053 0.045172762 0.0012816027 0.019784871 -0.033179782 0.030605908 -0.19799563
0.062439375 -0.06952907 -0.31651857 -0.110551946 -0.16668797 -0.26987472 -0.031030184 -0.075757995
-0.11630594 0.063302115 0.12785408 -0.10177354 -0.05994049 -0.09805316 -0.34830952 0.15716505
0.08746056 0.1444177 -0.2953491 0.11813056 0.070529275 -0.09050373 0.0007956643 0.05470919
0.01622526 -0.023548909 -0.045106713 -0.030193932 0.12532598 -0.000609827 -0.11735188 0.080666505
0.03197373 -0.08744842 -0.07401463 0.1303828 -0.016022133 0.25620994 -0.27604395 0.0107079465
-0.15457675 -0.2526446 0.082957484 -0.26029095 0.026806409 -0.18838198 -0.026217118 -0.28336486
-0.1038199 0.021225538 0.07367302 -0.47830838 -0.12728953 -0.07426947 0.2807594 0.32864174
0.19835858 -0.19755763 -0.16207957 -0.36428392 0.23950218 0.019644037 0.06939999 0.15019462
0.13550933 0.23329982 -0.102428384 -0.44184068 -0.6418294 -0.0117883375 0.22668082 -0.34780514
0.008944883 -0.16089329 -0.183361 -0.46529174 -0.21415597 -0.07465698 0.16830572 -0.2046057
-0.2674879 -0.102536306 0.06931031 -0.17491095 0.05849402 -0.17675361 0.20604292 -0.009086351
-0.019425357 0.16316816 0.115696356 0.003697002 0.0019647437 -0.12923318 0.07956538 0.09819882
-0.022355983 0.27120176 -0.1545495 -0.034861464 -0.32045323 -0.12487043 0.22087428 -0.0951727
-0.09600067 0.82465565 -0.11059794 -0.42182848 -0.11708277 0.19317788 -0.19525829 0.2462702
-0.19644946 0.04473827 -0.2168775 -0.0519346 -0.14778964 0.11331354 0.28906727 0.22756787
-0.30587414 -0.05675936 0.43884182 -0.2272237 -0.31320912 -0.08537543 -0.3294102 0.006940116
-0.0797929 -0.19328009 0.048306018 0.21040809 -0.32545826 -0.084813625 0.30640975 -0.09868165
-0.016599104 -0.33026627 -0.18079312 0.057860125 0.030181443 0.21568233 -0.046806827 0.20284812
0.049117766 0.10028974 0.2057834 0.0017415165 -0.22441135 0.20799512 -0.1395203 -0.026018612

base.cnn.0.bias f4 [32]
00000000: ea0b dfbd fb86 05be c045 01be 06e1 06bc
00000010: 1d31 1ebe c0c4 67bd b36e a4bd cb0e b8bd
00000020: 1a9f 11be 005b b9bd 3d19 07be 8145 dcbd
00000030: a924 88bd 7d8a 1fbe b2a7 f1bc 9c88 13bd
00000040: 45c6 fbbd cd35 1ebd 2818 a8bd 3072 42be
00000050: fe0d efbd 0e7c 01be 1865 02bd d10a cfbd
00000060: d9ec 4abe bac3 4dbe 8192 3cbe b2fa 4fbe
00000070: 157a a0bd 99c6 c1bd de6a d0bd 2a5e 80bd
-0.10890944 -0.13039772 -0.12624264 -0.008232361 -0.15448423 -0.05658412 -0.08028927 -0.089871965
-0.14220849 -0.0905056 -0.13193221 -0.10755444 -0.06647617 -0.15580173 -0.029498909 -0.036018953
-0.12293676 -0.038625527 -0.082077324 -0.18988872 -0.11672591 -0.1264498 -0.03183469 -0.10109485
-0.19816913 -0.20094195 -0.18415262 -0.20310476 -0.07835785 -0.094617076 -0.10176633 -0.0626796

base.cnn.2.weight f4 [64, 32, 3, 3]
00000000: 12d6 d2bd a104 5b3e 0cf3 ea3d ca0f c33d
00000010: c6da ebbe 7b22 f6bb cc68 19bd 2a47 2ebe
00000020: 5a46 cd3d 0383 e0bc ae97 f5bd 93cf 2b3e
00000030: 497b 04be b705 32be 8480 c0bd 7636 89be
00000040: 65b8 813e 24b0 b33d 2d33 f9bd dc7e 36be
00000050: d79e b2bd 716e 3e3e 3ab2 8fbd 00dd 16bd
00000060: 6e14 a2bd c165 6e3d bffb 1d3e eb2a 3dbd
00000070: 87cd 91be a952 9dbd 727f dcbd 0962 6bba
00000080: f404 fb3c e406 383c eeea 04be af60 8dbe
00000090: 2e17 00bd 104b ce3d c8ba 17bd 5fc9 b33c
000000a0: 1c27 0c3d 5052 573b 2db8 1a3d 03ab ea3d
000000b0: f3a4 85be 0579 8a3d 1b81 16be b7e3 f3bb
000000c0: a876 f93d 768b 12be d616 43be 563a 433e
000000d0: 59fc 943c aacb cfbd e0f8 e8be 4191 25bd
000000e0: f9d2 fd3d f048 afbd 568f c5be ecb9 00be
000000f0: 8571 a53d 12c6 cf3c 4a08 f5bd 24a9 e43c
00000100: 207a 0c3e 6c1b acbd 0168 aa3d 64f4 12be
00000110: 9cb8 6bbd a2d8 3cbd 91d6 58bb a2c8 233e
00000120: c5f2 d43c d2f9 f23b 40e0 b23d a62b f3be
00000130: ff87 dbbd 5787 df3d 45e8 1fbe 1e7b a2bd
00000140: ca51 20be 4fed 50be 8ded 90bd 057b a5bc
00000150: 0bbf 41be fc24 1f3d e68b a7bb 340a 50bc
00000160: ad27 f2bd abb4 07bd c7dd 9dbd 737c 20be
00000170: d6d5 cb3d 9d7f 20be 3542 6bbe acc9 d63b
00000180: 2613 13bd 893a 91bd 6fcf 73bd 203b f93d
00000190: f31d 603d 34d1 06be ef00 c8bc fa60 b23e
000001a0: aa6e 283e 62b8 19bb 9121 92be 7a13 863d
000001b0: 8e26 42be 0a1d 8a3d d37d ff3d 458d cc3d
000001c0: 1a50 d9bc beda 02be 15fb a9bd b458 ee3d
000001d0: 6ce7 74be f5c1 f9be 9b9f 863e 7c4f b13d
000001e0: 9f3f dfbd 1a3f a03c c72e 203e 5794 09bd
000001f0: 95f3 7c3d df56 06be 2b05 b6bc c081 75be
00000200: a351 8d3e e694 eb3b 5592 60be 8c1a c6bd
00000210: 861a 2dbe 4d3b 0fbe 8cf8 f5bc adc7 653d
00000220: 09f4 0dbe 01bd 073e 989d 5ebe b1b1 003d
00000230: c9b8 c6bc bc4f 243d aac6 48be 8fa2 aa3d
00000240: a1b9 823d d0ee 28bd 3c20 cfbd deac 7cbd
00000250: f74b 3abe 0ccd aabc 06d2 f3bc 9398 83bc
00000260: d0cb 433d 595a 213e 93a0 87be a788 edbc
00000270: 0856 22be ae21 25be 79c0 c93c cf42 52bc
00000280: 85a8 79bd 9697 b7bd 23db 913d cbd2 46be
00000290: 9ffe 313d 16f4 7b3d bb96 19be 124a 0dbe
000002a0: 072e aa3c 5122 6ebe 19fa 2ebe b84e 98bd
000002b0: ab01 a9bd e2d0 383e 568d 2b3e 8d6e 46be
000002c0: c2b0 7f3d eb17 a7bd 3216 243d 87cd 88be
000002d0: 2d73 9a3e 195d 103c 723d 133e dc45 103e
000002e0: b7e7 e6ba 9c03 f73d 7d7b 16be ceab 13bc
000002f0: 5508 eb3b 4d02 dcbd d553 a63d 5a24 333e
00000300: a50d f8ba 28af 6b3e 2da2 f0bd 5dcb 09be
00000310: 1abc 33be fe91 d2bd e085 023e 6963 b6bd
00000320: 0518 94bd d9b5 9d3d 94d2 a2bd 1da9 813d
00000330: 6d22 a4bd ab5f a0bd c664 36be 8738 82bb
00000340: b17b 0e3d 18fa 583e 204b 0c3e 95fe a93c
00000350: 1e78 bcbd 07b5 9d3d 31ce 99bd 6834 a8bd
00000360: bdab 5d3c 0eec 0dbd 508f 0fbe 4f84 f93d
00000370: 6a20 25bc e244 01be f522 78be 4c94 82bd
00000380: 72b4 bdbc 4389 823d b11b a0ba 8d75 8cbd
00000390: ac1f 0c3e 2484 e7bd de6b 7e3e 385f c3be
000003a0: 3646 493d 7636 51bd 4056 183d 7041 2fbe
000003b0: 68c3 14be 4f5d 903d 0ba7 c8bd 61d4 0fbe
000003c0: 1888 4b3d 91de a8be 1c93 1abd 8b29 313e
000003d0: de05 c83d ff96 1ebe 8460 dc3d dad5 91be
000003e0: 461e d6bd 44e3 7f3e c493 5abe 5c04 8dbc
000003f0: ce48 82be 2682 afbd 31bc 603e 32b8 23bd
-0.10294737 0.21388485 0.11472139 0.09524496 -0.46065348 -0.0075114346 -0.037453458 -0.17019334
0.10023184 -0.027406221 -0.11991821 0.16778402 -0.12937655 -0.17384993 -0.093995124 -0.26799363
0.25335994 0.087738305 -0.12167964 -0.1782183 -0.087217025 0.18596818 -0.07016416 -0.036831856
-0.07914053 0.05820251 0.15428065 -0.046183508 -0.28477117 -0.07681782 -0.10766496 -0.0008979147
0.03064201 0.011232112 -0.12980244 -0.27612826 -0.031272106 0.10072911 -0.037043363 0.021946607
0.034216985 0.0032855459 0.0377733 0.11458399 -0.2610241 0.06761364 -0.14697687 -0.007442917
0.12180835 -0.14311013 -0.1905168 0.19065222 0.018186735 -0.10146268 -0.45502377 -0.040421728
0.123937555 -0.085588336 -0.3858592 -0.12570924 0.08078293 0.025363002 -0.11964472 0.027912684
0.13718462 -0.08403668 0.083206184 -0.1435104 -0.057549104 -0.046105035 -0.0033086876 0.15994504
0.025994668 0.007415035 0.087341785 -0.4749424 -0.107192986 0.10914486 -0.15615948 -0.07933639
-0.156562 -0.20403026 -0.07076559 -0.020200262 -0.18920533 0.03885363 -0.0051131127 -0.012697745
-0.11823974 -0.033131283 -0.07708316 -0.15672474 0.09952895 -0.1567368 -0.22974475 0.006554803
-0.035906933 -0.07091243 -0.059523996 0.1216948 0.05471606 -0.13165742 -0.024414508 0.34839612
0.16448465 -0.0023455848 -0.28541234 0.065466836 -0.1896002 0.0674382 0.12475171 0.099878825
-0.026527453 -0.12778756 -0.08299843 0.116380125 -0.23916405 -0.4878079 0.26293644 0.086577386
-0.10900807 0.01956134 0.15642844 -0.033588734 0.061755735 -0.13119076 -0.022219261 -0.23975277
0.27601346 0.007189381 -0.21930821 -0.09673032 -0.16904649 -0.13987465 -0.030025743 0.05609863
-0.13862623 0.13255693 -0.21739805 0.03141946 -0.024258034 0.040115103 -0.19607034 0.08331787
0.06383062 -0.041243374 -0.1011357 -0.061688296 -0.18193041 -0.020849727 -0.029763233 -0.016063964
0.047801793 0.15757121 -0.26489696 -0.028995825 -0.15853131 -0.16126129 0.02462791 -0.012833311
-0.06095173 -0.089644596 0.07121875 -0.19416349 0.043455716 0.061512075 -0.14998905 -0.13797787
0.0207739 -0.23255278 -0.17087592 -0.074368894 -0.08252271 0.18048432 0.16753134 -0.1937811
0.06242443 -0.08158859 0.04006023 -0.26719305 0.30165997 0.008811259 0.14378908 0.14089149
-0.0017616664 0.12061235 -0.14695545 -0.009013129 0.007172624 -0.10742626 0.081214584 0.17494336
-0.0018924965 0.23016036 -0.117496826 -0.13456483 -0.17552224 -0.10281752 0.12746382 -0.0890568
-0.07231144 0.077007 -0.07950321 0.06331084 -0.08014379 -0.07830747 -0.1781188 -0.0039740237
0.03478593 0.21189153 0.13700533 0.020751277 -0.09202598 0.07700544 -0.07510031 -0.08213121
0.013529715 -0.034648947 -0.14019513 0.12183439 -0.010078529 -0.12623933 -0.24232085 -0.06375942
-0.023157332 0.06373837 -0.0012215284 -0.068583585 0.13683957 -0.11304501 0.24845836 -0.38158584
0.049139224 -0.05107733 0.03719163 -0.17114806 -0.14527667 0.07049047 -0.09797486 -0.1404586
0.049690336 -0.32982305 -0.03773795 0.17301004 0.09766744 -0.15487288 0.107605964 -0.28483468
-0.10454993 0.24989039 -0.2134543 -0.017213993 -0.2544617 -0.08569746 0.2194679 -0.039970584

base.cnn.2.bias f4 [64]
00000000: 0746 21bd 86cf 363c d422 00be 50b4 6ebd
00000010: 7b57 483a b494 b9bd a2de 8cbd a1bf 02be
00000020: 245c 863d 2f10 0ebd dff8 01be e468 e13c
00000030: 9d79 f0bd 1ef7 a3bd 877c c7bd 2b3c 45bd
00000040: 205f 7fbd c734 22bd 9b2f a6bd f577 3b3d
00000050: adb5 16bd f07b f2bd 59da 02be c6fa 8fbd
00000060: 7670 57bd 2380 52bd 4e7a 18be 30f7 3fbc
00000070: b465 3dbe b010 61bd e0b1 903b 8134 b5bd
00000080: 7687 29bc 3d28 993c e2b3 03be e875 8abd
00000090: 4f19 db3c dbe1 013d 43ce fabd 5fdf a1bd
000000a0: 85b0 0bbe a94b 36be 736c a53c 57cc dfbc
000000b0: 4a0c 6b3b e95f bb3d 2052 6e3c 5a8b 8e3c
000000c0: 053a 07be ddb8 8e3d 2124 54bd cce3 1fbd
000000d0: 067b 46be c12c 08bd 887c c33c 7af9 85bd
000000e0: c83c 8dbd d854 04be cc02 45bd f7bd 43be
000000f0: 650f 73bd ae7f b1bc 5a91 05bd 3571 d7bd
-0.039373424 0.011157876 -0.12513286 -0.05827743 0.000764243 -0.09061566 -0.06878401 -0.12768413
0.06560543 -0.034683403 -0.12692593 0.027515836 -0.11741946 -0.08006118 -0.097405486 -0.048153084
-0.062346578 -0.039601114 -0.08114549 0.045768697 -0.036794353 -0.118400455 -0.12778606 -0.07030253
-0.052597485 -0.051391732 -0.14890406 -0.011716649 -0.18495828 -0.054947555 0.0044157356 -0.08847905
-0.010347238 0.018695945 -0.12861589 -0.0676077 0.026745467 0.031709533 -0.122463726 -0.07903933
-0.13641556 -0.178023 0.020193314 -0.027319117 0.003586548 0.09149153 0.014545947 0.017400432
-0.13205726 0.069688536 -0.051792268 -0.039035603 -0.19382867 -0.033245806 0.023863092 -0.065417245
-0.06896359 -0.1292299 -0.04809837 -0.19115435 -0.059340853 -0.021667328 -0.03260932 -0.105196394

base.cnn.4.weight f4 [32, 64, 3, 3]
00000000: 80ff 2cbe a003 cbbd 0e96 b7be a923 ca3d
00000010: 7cbc 3d3d f8e0 24bd f673 23be 5cb1 a0bc
00000020: ea2e 113e 9230 5bbd e6a6 35be 2ccb 11be
00000030: 8b35 f3bd d7a4 4fbd a4b8 18bd 5231 833d
00000040: c364 1d3e 1b8e bdbd 2bc8 b33d 1f05 083d
00000050: 3f6d 54be 5099 523d 1419 1b3e d0a8 8cbd
00000060: b946 a1bd 3451 893d c231 6dbd 81fc ccbd
00000070: 04f5 a8be bdc1 c03d 4f68 133d abb7 93bd
00000080: c139 073e 89bf 0d3e 6931 90bd 853c 22be
00000090: f6d0 013e b5f7 563d 4b6c acbd 91ae 3c3d
000000a0: 73d5 763c 8e70 99bd 2061 19be 8ad3 163d
000000b0: e7fa 4bbe 5470 3f3e 894b 4abd cb42 9c3c
000000c0: fb43 883d 1b63 a7bd 9c7b 83bd 275a 753d
000000d0: 1e66 cb3d 5361 f73c 24b6 cf3d 18e4 6dbe
000000e0: 7d25 e83d 099a 20be c809 77be bb3a 90bd
000000f0: 9445 9a3c c8db 98ba 29d6 a7bd 9f4b bc3d
00000100: 4573 32be 0b53 0fbe d654 953d 9883 083e
00000110: 09d4 61be 939e cbbd c529 a03d 4e3b 4a3c
00000120: a25e 033e 1616 82be 2fa0 88bd 72ae fd3d
00000130: 01eb ddbd 827f 223d 70e5 843d e68b d63d
00000140: 470f be3c 3f42 fabd ae36 87bd d8f9 c03d
00000150: 9740 a33d e6ec 033e 7dd7 75bd 1fa6 393e
00000160: 8642 e83d 896f f1bd 7b18 22be 6a85 8abe
00000170: cba9 a7be ffc9 12be d361 413d 505b 7ebe
00000180: cd6b 6fbd 9c43 a1bd c4f8 1e3d 33b8 2c3d
00000190: c216 debd b7b0 d83d dafd aebd 56ac b3bc
000001a0: 5061 f0bd 1e24 21bc 18b3 f83b 1700 663d
000001b0: 86dc 60be 3d31 22be 4a23 3e3d c2d9 bcbb
000001c0: 500d 063e 1b07 e6bd 3fa2 1fbd e51b 7d3e
000001d0: 27ec 55be 4640 6e3c ac03 b3bd ef09 403e
000001e0: 7d62 96bd 1046 5b3e 70ed c13c e07d a93d
000001f0: b139 4dbe 613e ad3e 9885 4abc 94c2 08be
00000200: 0725 9ebc 7ad2 d3bd 4253 0cbe ecf2 6dbe
00000210: 9868 2e3e 1d79 1ebd 5a9a ae3c 41c5 e9bd
00000220: 292b 84bb e500 2e3d c06e 77be f066 d5bd
00000230: d3d7 a33b c0db 3f3e a2f1 563d 4d9a 49bd
00000240: 903b a1bd d841 efbc 3e5c 21be a4e9 433e
00000250: b7d5 cfbb 3864 f2bc 7718 8abd 4934 1abe
00000260: f55c 05bd e454 f8bd bcdc 953e c3a1 39be
00000270: eae6 263c 6533 1a3e 4b6b 13be 4b3e 37be
00000280: 261a 8a3d fbae 483e 0f28 9bbd 4d45 193d
00000290: 9fef 74be 1461 88bd 83d9 dfbd 5f96 833d
000002a0: c4c1 b0bd f882 b83d 427a 08be cb93 923d
000002b0: bff5 4cbe 568c bebc 4ad4 56bd d324 debc
000002c0: d912 3b3e 8dc5 863c 80b4 a3bd 88e4 d8bd
000002d0: 8260 54be 23cd e03e 56f4 1abe fb78 793c
000002e0: e9ce 913e 22f0 3bbd 221b ef3c acbd ffbd
000002f0: 2552 cdbd 201c 1b3e b582 bdbd 721e ef3d
00000300: 6fbe cabd 0857 4bbe 69df 7cbd 2596 c6bd
00000310: 65e4 223e 58fc 7ebe 28c9 7bbe 6953 f63d
00000320: b862 b33d 8392 0f3e b9bf 31bd 5579 163d
00000330: b42b a7be 859a d2bd 5483 d53d 39ea d53d
00000340: 178d 02be 6417 56be 5930 b4bd 4548 5c3e
00000350: 6885 49be 9d38 2abd 4c76 83bd 63e4 04bd
00000360: 8582 4b3d 5368 3fbe c0e3 cabd 729d cabc
00000370: c52d cc3d 40a0 b83b 9edc b4bc c058 4a3e
00000380: be88 b7bd 06ac f13c 2094 e43d 4bd8 68bd
00000390: 3206 9b3d f6a0 8b3d 7903 813d eb03 62bd
000003a0: 1bf5 c0bd fd00 633d 1f1f 89be f135 693e
000003b0: 1cfa 3bbb 7d42 34bd 910f 57bb eb33 1bbe
000003c0: 3389 063e e005 aabd 4ad9 a43c 7745 a33e
000003d0: 3961 623e 83c3 133e 2f21 19be d9ee df3d
000003e0: 6464 bcbc 9bd5 19bd 5f0f 193d ed7a 45be
000003f0: 2f8e 2ebe af9d 0cbe f344 0cbe ed2d 79bd
-0.1689434 -0.09912801 -0.3585667 0.09870083 0.04632233 -0.04025361 -0.15962204 -0.019615822
0.14178053 -0.053513117 -0.17739448 -0.1423766 -0.11875447 -0.050694313 -0.037285462 0.064058915
0.15370469 -0.0925562 0.087784134 0.03320801 -0.20744799 0.05141574 0.15146285 -0.06868136
-0.078748174 0.067049414 -0.05790878 -0.10009099 -0.32999432 0.09411953 0.03598815 -0.07212766
0.13205625 0.13842596 -0.07040674 -0.15843399 0.12677369 0.052482326 -0.08419093 0.046064917
0.015065539 -0.07492171 -0.14978456 0.036822833 -0.1991993 0.18695194 -0.049388442 0.019074818
0.06653591 -0.081732 -0.06420061 0.05990043 0.09931587 0.030197775 0.101421624 -0.23231542
0.11335275 -0.1568376 -0.24124825 -0.07042452 0.018832006 -0.001166218 -0.08195145 0.09194111
-0.17426784 -0.13996522 0.07291572 0.13331449 -0.22053541 -0.09942355 0.07820467 0.012343241
0.12829068 -0.25407475 -0.066711776 0.123867884 -0.10835839 0.039672382 0.06489074 0.10475902
0.023200644 -0.12219667 -0.06602226 0.09422654 0.07971304 0.12883338 -0.06001996 0.18129776
0.11340813 -0.11788852 -0.15829651 -0.27054912 -0.3274673 -0.14334868 0.047212433 -0.2483952
-0.058452416 -0.078742236 0.03881146 0.042167854 -0.108441845 0.10580581 -0.08544512 -0.021932762
-0.11737311 -0.009835271 0.007589709 0.05615243 -0.21959123 -0.15839095 0.046420373 -0.0057632634
0.13091016 -0.11231824 -0.03897309 0.24717672 -0.20890866 0.014541691 -0.08740935 0.1875379
-0.07343004 0.21413445 0.02367279 0.08275962 -0.20041539 0.33836654 -0.012360953 -0.13355476
-0.019304765 -0.103428796 -0.13703635 -0.23237199 0.17032087 -0.03868972 0.021313835 -0.11414576
-0.0040334654 0.04248132 -0.24163342 -0.104200244 0.0050000935 0.18736172 0.052476533 -0.04921942
-0.07872689 -0.029206201 -0.15757844 0.19132096 -0.0063426155 -0.029588804 -0.067429475 -0.15059008
-0.032559354 -0.121255666 0.2926997 -0.18128113 0.01018689 0.15058668 -0.14396398 -0.17894857
0.06743269 0.19598 -0.07576 0.037419606 -0.23919533 -0.06659141 -0.10930159 0.064251654
-0.08630708 0.09009355 -0.13327888 0.071570955 -0.2001562 -0.023260277 -0.05244855 -0.027117169
0.18268909 0.016451621 -0.07993412 -0.10590464 -0.2073994 0.43906507 -0.1513227 0.015226598
0.28478172 -0.045883305 0.029187743 -0.12487349 -0.100254335 0.15147448 -0.09253446 0.11675729
-0.098996036 -0.19857419 -0.061736498 -0.096966065 0.15907438 -0.24900949 -0.24588454 0.12027628
0.087590635 0.14020734 -0.04339573 0.036736805 -0.3265053 -0.102833785 0.104254395 0.10445065
-0.12749134 -0.2090736 -0.08798284 0.21511944 -0.19679797 -0.041557897 -0.06419048 -0.03244437
0.04968502 -0.1869214 -0.09906721 -0.024733279 0.09969667 0.0056343377 -0.022077855 0.19760418
-0.089616284 0.029500972 0.11161065 -0.056846898 0.07569541 0.0681781 0.062994905 -0.055179518
-0.0942175 0.055420864 -0.26781556 0.22774483 -0.0028683012 -0.04400872 -0.0032815675 -0.15156524
0.13138275 -0.08301902 0.020123143 0.31888935 0.221074 0.1443005 -0.14954065 0.109342285
-0.022997089 -0.037557226 0.037368175 -0.19285174 -0.17046426 -0.13732027 -0.13698177 -0.060834814

base.cnn.4.bias f4 [32]
00000000: 5d0a aabd 6a00 aebd a8a2 abbd ffff a1bd
00000010: b0e9 75bd fac6 adbd 1758 e8bd e8c1 28bd
00000020: 2b60 f0bd acab 26be 7c82 a0bd c5ed 98bc
00000030: ea5c 08bd a818 28bd ab7c 0ebe 9abc e4bc
00000040: cc36 f3bd dab6 9fbd eeea fbbc b0ba 7cbd
00000050: 1f70 3a37 9219 afbd a186 99bd c491 a8bd
00000060: 93bf 1fbe 9241 b3bd d33d 89bd 6f60 46be
00000070: 8782 b3bd 13f2 ddbc a8f2 b0bd 12e3 70bb
-0.08302758 -0.08496173 -0.083806336 -0.079101555 -0.060037315 -0.084852174 -0.11344927 -0.04120055
-0.117370926 -0.16276425 -0.07837388 -0.018668065 -0.033291735 -0.04103914 -0.13914745 -0.027921963
-0.11875686 -0.07798548 -0.030751672 -0.061701477 1.1112569e-05 -0.08549799 -0.074963816 -0.082309276
-0.15600424 -0.08752741 -0.06701245 -0.19372724 -0.087651305 -0.027092969 -0.08640033 -0.0036756438

base.cnn.7.weight f4 [64, 800]
00000000: fbc8 2cbc 8b2e 2a3d f283 163d ced4 323e
00000010: e81b 2dbe 148f 093d 027e 033e bf24 8ebc
00000020: daa1 193e 52cb 87bd b70e 1d3b feab a0bd
00000030: 0ac9 57bd 8885 803d a761 7dbd 8477 893e
00000040: 47d7 74bd 78a0 febd e3c1 e6bd 3f95 263e
00000050: 28da d8bd 6702 64bc fe6f 2fbd 1476 923c
00000060: 87d0 12be 651a 3bbe 7b89 d13c f20c 3bbd
00000070: f554 413e e12a a9be 342c 4c3d 58a3 3d3d
00000080: 874a 83be 1b25 cebd d61b 1bbd 6cb4 46be
00000090: e28a 9c3c 85b2 a8be 36ce a53e 1db7 00be
000000a0: f611 e03d 9b8c e5bd 2fea 9cbc 79a6 843d
000000b0: 5cdc 27bd 4bca 70bc 0ab5 45bd f7d1 273d
000000c0: 7d8e 92bc dc43 983d 14fa ebbd fca9 86bd
000000d0: d2a7 0dbd 88cb a13c daa5 a3bd 9529 64bd
000000e0: 4fd8 52be 5b3b 49bd 90a1 953c 567f af3d
000000f0: b7d5 ef3d 3311 893d 6d46 1d3e 1991 7abe
00000100: 0c86 b73e c469 103c 6a65 80be 38af 783d
00000110: 89a7 ab3b e6bd 46bd af73 35be 4b9e b33d
00000120: 2baa b4bd e9e1 e33d d14c 1dbe deae 833a
00000130: 589f 25be d660 7fbd bd06 68bc e958 0d3e
00000140: 5400 a6bd 0fe1 93bb 066f 84bd 51fb f8bd
00000150: 50dc a8bd 14c8 d3bd 2a74 86be 15ba d8bd
00000160: b8b0 593d 8b9f 44bd d499 053e 55d3 c23d
00000170: bbad 3fbb dd1f adbd 3573 573d c6c1 2abe
00000180: b670 253e 25a1 45bd 3e4d c73b 9a07 1cbd
00000190: 974a b0bb 884e d8bc 971f 97bd f2ea 4bbd
000001a0: a54c c43d 3022 82bc 1ce1 5dbe 44de 8bbd
000001b0: fdf0 8e3d 19c6 4dbd a45d ea3d f377 01be
000001c0: 13f4 7dbc e465 353e bf06 9cbd fe18 7a3d
000001d0: 05d8 273d 6dd8 0fbe 5207 c43c 907f 76bd
000001e0: d59d d0bd 58d5 203e 6733 54bd cd38 a5bc
000001f0: f8dd ad3c 9dc6 3abb c03f 17be b7db 283e
00000200: 9bf8 b33c 3a03 08bd 2edc da3d 68fe 17bd
00000210: 523d 343d 3ed7 20be a982 143d 0f50 c03c
00000220: 7630 ddbd 7fd3 05bc 2d7c cc3d d66a 203e
00000230: fb5c c53d 5456 6cbd 31dc f43c 4bb7 b3bd
00000240: 1961 17be 3b36 433b b680 703c b5a1 05bd
00000250: 6d16 5e3d ed44 523d 6077 adbc caa4 953d
00000260: ad65 933d 1554 e13d ea37 efbc ed37 60bd
00000270: 2532 97bd e5f6 1fbe 8e20 84bd ef51 ccbd
00000280: 0954 1dbe d2df 34be ae79 febd 9bcf a83b
00000290: 6753 1c3d 20cb 033e 5768 9ebd 8ebf bcbd
000002a0: 837b 94bc 7d8a ae3c 0e30 83bd 64e6 f93d
000002b0: 8205 98bc 1700 79be e100 9d3d 4ae7 363e
000002c0: 4d07 5fbe 922e 7fbe 0296 053d ed7e 9c3d
000002d0: 740b 37bd 4363 bbbd 0555 233d 285f d23c
000002e0: 277e 6e3d 0bc6 193d 7c05 06be d351 22be
000002f0: d93d babd defd a6bd 65d6 b63d 89a7 07bd
00000300: 9c26 e5bd 35ab 33be 618c 22be 4a43 9ebd
00000310: df5c d9bc 3baf d4bd 2cb9 42bb ab43 ac3c
00000320: 8864 73bd fde0 b2bd 050e a23c ab15 c4b8
00000330: 2509 b73d 2768 22be 1c9c 203d 1b31 37bd
00000340: ecec 26be 3fd7 f03d 3930 ba3d 5a5c cc3d
00000350: e91e 1bbc 8e2d 39be b8a1 363c 84ff ce3c
00000360: 0a6f ecbd fcb1 5f3d b8a4 99bd a1a8 1abe
00000370: c5e7 bcbd 15fe e4bd 2eb7 833c 8228 41be
00000380: df1c 9e3c a5e2 2abd d85f 0d3e dee9 c3bd
00000390: 8478 9bbd 09a2 9abc 0462 d63d 7920 65bc
000003a0: 77f9 ebbd 6b36 85bd b3bb 90bd 956e 94bd
000003b0: 6796 9d3d 49c5 ee3b 2595 3bbc 3cd0 a6bc
000003c0: f338 c33d 548b 09bd cb76 81bc 3fc1 b7bc
000003d0: 1259 843d e720 77bd 9968 a6bc a0f8 c33d
000003e0: 08bc 013e 83d9 a1ba 45ce 3ebd a0c0 693d
000003f0: 8acc 153d 31a0 ddbd cba8 d5bc c071 283d
-0.010545964 0.041548293 0.036746927 0.17463991 -0.16905177 0.033583716 0.12841037 -0.017351506
0.15003148 -0.06630577 0.002396507 -0.07845305 -0.05268196 0.06275469 -0.061860707 0.26848996
-0.059775617 -0.12432951 -0.1126745 0.1626787 -0.10588485 -0.013916588 -0.042831413 0.01787857
-0.1433736 -0.18271787 0.025578251 -0.045666642 0.18880065 -0.33040527 0.049846843 0.046298355
-0.25642797 -0.10065671 -0.037868343 -0.19404763 0.019109193 -0.329487 0.3238389 -0.12569852
0.10940926 -0.11208459 -0.019154636 0.06477065 -0.040981635 -0.014696668 -0.048268355 0.040971722
-0.01789021 0.07434818 -0.11522308 -0.06575391 -0.034583874 0.019750372 -0.07990618 -0.05570372
-0.20590328 -0.04912887 0.018265516 0.08569209 0.11710685 0.066927336 0.15358897 -0.24469413
0.35844457 0.008814279 -0.25077373 0.060713977 0.0052384776 -0.048520945 -0.17719911 0.08770426
-0.088215195 0.11127073 -0.15361334 0.0010046621 -0.16174066 -0.06234821 -0.014161763 0.13803448
-0.08105531 -0.004512913 -0.064664885 -0.1215731 -0.08245146 -0.10340896 -0.262605 -0.10582367
0.053147048 -0.048003715 0.13046962 0.09512965 -0.0029247839 -0.08453343 0.052600104 -0.16675481
0.16156277 -0.048249383 0.006082206 -0.038093187 -0.0053799856 -0.026404634 -0.07379072 -0.04978461
0.09584931 -0.015885442 -0.21667904 -0.06829503 0.069795586 -0.05023775 0.11443642 -0.12643413
-0.015500086 0.1771465 -0.07618474 0.06105899 0.040977497 -0.14047404 0.023929272 -0.060180247
-0.10186354 0.15706384 -0.051806834 -0.020168686 0.021224007 -0.002849973 -0.14770412 0.16490065
0.02196913 -0.033206202 0.10686527 -0.037107855 0.044003792 -0.15707108 0.03625742 0.023475675
-0.10800259 -0.0081681 0.09984622 0.15665755 0.09636875 -0.057699516 0.029890152 -0.08775195
-0.14783134 0.0029786963 0.014679125 -0.03262492 0.054220606 0.051335264 -0.021175086 0.07306822
0.071971275 0.110023655 -0.029201467 -0.054740835 -0.07382611 -0.15621527 -0.06451522 -0.09976565
-0.15364088 -0.17663506 -0.12425552 0.0051517016 0.038165476 0.12870455 -0.07734745 -0.09216224
-0.018125301 0.02130627 -0.0640565 0.12202147 -0.018557314 -0.2431644 0.07666183 0.17861667
-0.21780129 -0.24920109 0.03261376 0.07641397 -0.044688657 -0.09149792 0.039876003 0.02568014
0.058225777 0.037542384 -0.1308803 -0.15851526 -0.09093828 -0.0815389 0.08927611 -0.03311876
-0.11189005 -0.17545779 -0.15873863 -0.07727678 -0.026533542 -0.10384985 -0.0029712422 0.02102836
-0.059422046 -0.08734319 0.019782076 -9.350044e-05 0.08937291 -0.15860043 0.039211378 -0.044724565
-0.16301316 0.11759805 0.09091229 0.09978552 -0.009467819 -0.18083784 0.011146955 0.025268324
-0.115446165 0.0546131 -0.07502121 -0.1510339 -0.09223894 -0.11181275 0.016078558 -0.18863109
0.019300876 -0.04172005 0.13806093 -0.09566091 -0.07591346 -0.018876093 0.10467914 -0.013984793
-0.11522191 -0.0650452 -0.07067051 -0.07247654 0.076947026 0.007286702 -0.011449133 -0.020362966
0.095323466 -0.03358014 -0.015803715 -0.022431014 0.06462301 -0.060334112 -0.020313548 0.09568906
0.12669384 -0.0012348149 -0.046583433 0.057068467 0.036572017 -0.1082157 -0.026081463 0.041124105

base.cnn.7.bias f4 [64]
00000000: bee8 cabd d79a f5bd a321 b8bd d9e9 bf3c
00000010: e2bd 20bd 2a9f a1bd caa0 a7bd e91f 10bc
00000020: 5160 81bd 5572 25bd 7829 94bd 1cdc a1bd
00000030: 3c52 a4bc 586d 7bbd 2008 12bd 6c17 d7bd
00000040: 9edf bebd 181f a1bd 5bfb f23b 5336 ec3c
00000050: 5902 3abe b361 56bd 0771 b9bd de78 7c3b
00000060: 4ad8 36ba ce42 e0bd b010 8fbd 456c 9cbc
00000070: 3b2e 01ba 2092 cabd 7571 29be 1fdb 883d
00000080: 6287 f1bd 6225 5c3b 9cd6 1dbe cb25 65bc
00000090: 416e b73c e554 a1bd 7caa 08be d10f 32bd
000000a0: db91 23bd 772d a53a c21e c7bd bb79 5f3d
000000b0: 8b77 853d 25ba 773d 1317 563d d7c9 cfbd
000000c0: 78a7 9fbd dd20 04bc 5e85 18be 117e bcbd
000000d0: 9cac c5bd 7346 05bc 6667 083c bd19 46bd
000000e0: d8db 45bd 1eb5 d9bd 9516 e7bd 02f5 a8bc
000000f0: bae7 e5bd 1e29 bcbc 7e45 963c a50d 15be
-0.09907673 -0.11992424 -0.08990791 0.023426937 -0.039243586 -0.07891686 -0.08184965 -0.0087966705
-0.06317199 -0.04039224 -0.07234472 -0.07903311 -0.020058744 -0.061383575 -0.03565228 -0.10502514
-0.09319995 -0.07867259 0.007415218 0.028834498 -0.18164958 -0.052339267 -0.090547614 0.003852419
-0.00069749786 -0.10950242 -0.06985605 -0.019094596 -0.00049278483 -0.098911524 -0.16547187 0.06682419
-0.117934 0.0033591618 -0.15413898 -0.013986061 0.02239144 -0.078775205 -0.13346285 -0.043472115
-0.03993402 0.001260205 -0.097226635 0.05455945 0.06516942 0.060480256 0.0522681 -0.1014592
-0.07795614 -0.008064476 -0.14894626 -0.09203733 -0.09652063 -0.008134472 0.008325433 -0.04836439
-0.048305362 -0.106302485 -0.11283604 -0.020624641 -0.11225839 -0.022968825 0.018343683 -0.14555986

base.cnn.9.weight f4 [64]
00000000: d753 8b3f b4ff 9b3f 0729 843f bb13 823f
00000010: 0d6e 6a3f 9c04 7e3f 0322 8c3f b67c 8c3f
00000020: f0b5 a53f bf36 9a3f 421b 6b3f 63c3 7f3f
00000030: 36bc 8a3f 9731 5a3f d082 7b3f 7362 743f
00000040: a16d 7c3f 1d7f 853f 326c 8a3f 3c2c 6a3f
00000050: b03e 563f 673e 5e3f b966 663f 292f 893f
00000060: 6398 693f 6150 9d3f 0498 5c3f efd8 813f
00000070: 76ba 833f 1bba 8c3f 98e5 6f3f 946f 7d3f
00000080: 6022 823f 1a76 7f3f 695b 923f 04ac 9e3f
00000090: 8306 813f d78a 803f 9565 783f bbfd 5e3f
000000a0: cbf0 8a3f ba2a 523f e4d8 5e3f a5a7 9c3f
000000b0: f871 7d3f 66a2 843f 2c56 843f 145c 6f3f
000000c0: 94a5 6f3f 76fe 7d3f 2686 8c3f 907d 633f
000000d0: 8d7c 913f a748 8f3f 09b6 863f f4c9 763f
000000e0: a3c4 733f 0010 9d3f d2cf 623f bf42 653f
000000f0: 48e0 8c3f f787 973f 7ef2 6a3f 5592 4d3f
1.0884961 1.2187409 1.032502 1.0162271 0.91574174 0.99225783 1.094788 1.0975559
1.2946148 1.2047957 0.9183847 0.9990751 1.0838687 0.8523192 0.9824648 0.9546272
0.9860478 1.0429417 1.0814269 0.91473746 0.83689404 0.8681397 0.9000049 1.0717517
0.9124815 1.2290155 0.8616946 1.0144328 1.0291278 1.0994295 0.9370971 0.9899838
1.016674 0.99789584 1.1434146 1.2396245 1.0080112 1.004237 0.9703 0.8710591
1.0854734 0.82096446 0.870497 1.2238661 0.9900203 1.036206 1.0338798 0.93499875
0.9361203 0.992164 1.0978439 0.8886347 1.1366135 1.1194047 1.0524303 0.96401906
0.9522192 1.2270508 0.8859836 0.8955497 1.1005945 1.1838368 0.91776264 0.8030141

base.cnn.9.bias f4 [64]
00000000: e430 5abd 2f5b b1bc 4118 0f3e 1c6a 5f3e
00000010: cdc8 113c fc0a 5d3e 084a e6bc aa62 0ebe
00000020: 5f44 333e ead5 d9bd e212 c23d 6fd3 293d
00000030: 6b20 b03d 2dd8 18bc c038 ce3d 355b bc3c
00000040: a113 73bd b25f babd 2561 6ebd 1842 c03c
00000050: 944a 3e3e 9ba5 ca3d 02eb df3d 681b b2bd
00000060: 618a d43c 20bf 88bd 9de2 e5bc dcd7 e73d
00000070: b25d d9bd 7c71 06bc 53cd 633c 0a01 ebbd
00000080: e644 113c ed67 c33d f629 2dbe 2276 87be
00000090: 34ce 22be f689 353d 2b18 0cbd 55da 303e
000000a0: 84bd ad3d 9604 803d becb 383e b831 71be
000000b0: c90b 3bbe f011 1c3d 54ad 0f3e 5800 a63d
000000c0: 62ed 843c 897c cb3d 470d adbd 3cc2 c33d
000000d0: 35d7 a3bd ca8b e23c 1ce8 b6bc 9770 4d3d
000000e0: 29d9 75bc 7d5c a8be 687a cc3c c1da a3bd
000000f0: e528 99bc 757e 3fbe 57b1 873e ab38 8b3e
-0.053269282 -0.021649925 0.13974096 0.21817821 0.008897972 0.21586221 -0.028111473 -0.13904825
0.1750655 -0.10636504 0.09476258 0.041461404 0.08599933 -0.009328884 0.10069418 0.02299271
-0.05934489 -0.09100284 -0.058198113 0.023469016 0.18583137 0.09894868 0.10933496 -0.086966336
0.02594489 -0.06677079 -0.02806216 0.11320469 -0.10613574 -0.008205768 0.013903934 -0.114748076
0.008866524 0.09541307 -0.16910538 -0.26457316 -0.15898973 0.044321023 -0.034202736 0.17270787
0.08483413 0.06250875 0.18046471 -0.23554122 -0.18266214 0.038103044 0.14030963 0.08105534
0.016226474 0.099358626 -0.08449798 0.09558532 -0.08000032 0.027654547 -0.022327475 0.050156202
-0.015005388 -0.32883063 0.024960712 -0.08000708 -0.018696258 -0.18700583 0.26502487 0.27191672

base.cnn.10.weight f4 [64, 64]
00000000: c2e2 843e f222 553d c01d 8abd 97fe 6dbe
00000010: 9023 083f 5485 10bd 3a4d 80be 0657 593e
00000020: dc56 833d 1842 4e3e 887f c1bb 3d63 29bd
00000030: c2d9 493e a50f dc3e eba5 3b3e 437f b33e
00000040: 1096 b3bd 8ac5 493c 33d2 cc3e e265 81be
00000050: 9144 d43c 8aab 83be fa89 133e a4c7 75be
00000060: aef7 f1bd ca66 883b 5f68 b73e a3d8 763e
00000070: e973 5c3c 88ed 743e e0e7 6a3d e968 8ebe
00000080: c3b2 c13e 642a f43e c2f3 3fbd 7b56 82bd
00000090: d0ad 913d 48a5 e6bd b52d 013f e920 13bd
000000a0: bb08 ac3e fa04 e93b 0e57 123e ca9f abbe
000000b0: 9bce aa3e 2d49 09bd 08a8 573e c81d 3a3e
000000c0: 666f 2a3e f541 28bd 1c17 5b3e 54e3 e43c
000000d0: ea20 303e 5faa 69be ad76 f8bc 1d60 c63e
000000e0: 83be c9be 3313 933e ee53 58bd 06ea 4b3e
000000f0: 0e3f 5fbe 2347 7d3e 35d7 9cbd 73c2 a33d
00000100: 2e56 043e e0be eb3e 1893 93be d4da be3d
00000110: f34a 63bc 45b3 11bf f897 e03e 54a2 933a
00000120: 1e17 3e3c a925 943d e59f d8bd 5bd7 593e
00000130: e75c da3e 3b86 cc3d 96ea 03be 4916 0b3f
00000140: 0c46 1b3e 231f 253e f4b6 e63d 2985 553e
00000150: 8214 253e 5d7f 4abe ff2a 9c3e c6e6 3f3e
00000160: ac10 81bc a248 473c d856 2dbe 25b0 01bc
00000170: ce69 333e bb34 07bd 672e a43e afbd 01bd
00000180: 3a4e 983e c387 bcbd 21e8 6e3e 37cf 1c3e
00000190: 7793 913d 129c 993e 7fba 7bbc 28ab fc3d
000001a0: ec25 3f3d 52ef 81be 4c87 83be e774 9cbe
000001b0: 6916 ffbd 32d7 edbe d9e3 fbbc e46d 7b3e
000001c0: ff7e 0d3d bdb4 d7bd 684b 55be 9c02 553e
000001d0: 2d89 113e dec9 c13e 2e33 dfbd 8ec4 3f3e
000001e0: 8627 a6be e3a2 663e 07e6 9a3e f0fa f4be
000001f0: ffca 8c3d 02b3 513e 3e31 40bd 048d b6be
00000200: 93ea 9c3e 6acb 903c 7eb0 b83e 09f0 f53d
00000210: 9919 9abd 839f 5a3e d86c 033d 616e bf3c
00000220: 2519 43be 2e46 a93e 051a 73bc d921 51bd
00000230: d655 913e 54ef a43e 75a7 8fbe f702 233e
00000240: aa4e 3d3e dd25 593d b19e 8a3d ab04 963e
00000250: 7cf4 b73d 0959 8f3d f37e c13e cc97 5ebe
00000260: 6a01 07be 8c8a 213e 2ee7 dabb 92c4 963e
00000270: 7e9c 283e ef6c ef3e 5d20 003e 0633 ac3e
00000280: cbd9 9f3e 3439 bb3d 7a57 c03e 69f5 2fbe
00000290: 35c5 16be ef98 c43b e526 e93c ae38 5bbc
000002a0: ba37 1b3e 3344 62be 0774 a1be 3021 ae3d
000002b0: ea97 a33e 8db0 c2bd 89d7 d5be b40b 79bd
000002c0: 8eea 01bd 543d 9bbd 7391 043f a8be 593e
000002d0: 5ff0 c43e edab b9bd e3b7 033e cf17 3f3d
000002e0: a3f7 f33d 6d77 a03e eec1 a0bd 2fe1 e23b
000002f0: c9bd 063f db6a df3d 98f9 a4bc 8a46 7f3d
00000300: db38 92bd 6eea 56bd e806 21be 43c3 733e
00000310: a77b 623b e2e0 47be e5f8 5abf 01f4 6ebd
00000320: a3e5 973d 134a 7bbe 7b3f 9e3e 7e18 133e
00000330: 08a5 6abe e4bc 23be 2d63 e93e f304 08be
00000340: c3dd 313c e4f3 513e a9c2 9bbc 9367 543e
00000350: 93eb 50be fcef 24bd f76f eabc 643e 9f3c
00000360: 0cb2 5f3c 165a 443f a47a 043d 7354 51bd
00000370: 273a 9abd 870f 333e 6bfb 5f3e 01e6 3fbe
00000380: 3625 4d3e ce71 0c3e 025b 33bd 0308 253e
00000390: 1b02 1cbd 2d6c a0be 7ac3 49bc b16a e7bc
000003a0: 3a3a dcbe f96f 9fbe a536 bebd 7880 bb3e
000003b0: 59cb 773c b29d 933e 6c8d 9fbe 3186 b2bb
000003c0: 4f42 863e 994e b7bd f65e 11be 7973 a63d
000003d0: 5495 ac3c fafd 2b3c f384 d8bd 9cf8 b3bc
000003e0: 6ce8 08be 5618 b43e 85dd 923e 008b 5dbe
000003f0: 2e45 b6bc a241 813d 9c74 ed3d aa60 b6bd
0.25954252 0.05203528 -0.067439556 -0.2324165 0.53179264 -0.0352834 -0.2505892 0.21224603
0.064130515 0.201424 -0.0059050955 -0.041354407 0.19711974 0.42980686 0.18325011 0.3505803
-0.087688565 0.012315163 0.4000412 -0.25273043 0.025911601 -0.2571681 0.14408103 -0.24001938
-0.11814819 0.004162644 0.35821816 0.24106078 0.0134553695 0.23918736 0.05735004 -0.27814415
0.37831697 0.4768859 -0.046863325 -0.06364151 0.0711323 -0.11261994 0.5046037 -0.035920057
0.3360041 0.007111189 0.14291021 -0.33520347 0.33360752 -0.03351705 0.21060193 0.18175423
0.16644058 -0.041078527 0.21395534 0.02794043 0.17200056 -0.22818898 -0.030330027 0.38745204
-0.3940316 0.28725585 -0.052814417 0.19913492 -0.21801397 0.24734168 -0.07658235 0.079960726
0.129235 0.46044064 -0.2882316 0.09319082 -0.01387285 -0.5691417 0.43865943 0.0011263588
0.011602191 0.072337456 -0.105773725 0.21273558 0.42649004 0.0998654 -0.12882456 0.5433088
0.1516344 0.16125159 0.11265364 0.20851578 0.16121104 -0.19775148 0.30501553 0.18740377
-0.01575502 0.012163313 -0.1692766 -0.007915531 0.1752083 -0.033009272 0.32066652 -0.031675037
0.29747182 -0.09205582 0.23330738 0.15313421 0.07108205 0.30001885 -0.015364288 0.12337333
0.046667024 -0.253779 -0.2568916 -0.3055794 -0.12455446 -0.46453243 -0.030748295 0.24553639
0.03454494 -0.1053252 -0.20829546 0.20801777 0.14212485 0.37849325 -0.108984336 0.18727323
-0.3245203 0.22523074 0.30253622 -0.478477 0.06874656 0.20478442 -0.04692196 -0.3565446
0.30647716 0.01767512 0.36072153 0.12008674 -0.075244136 0.21349911 0.032086223 0.023368062
-0.1905256 0.33061355 -0.0148377465 -0.05105767 0.283858 0.32213843 -0.28057447 0.159191
0.18487039 0.053014625 0.06768549 0.29300436 0.089821786 0.06999404 0.37792167 -0.21737593
-0.13184133 0.15775508 -0.006680391 0.29446846 0.16465947 0.46762797 0.12512346 0.33632678
0.3122085 0.0914177 0.3756674 -0.1718346 -0.14723666 0.0059996764 0.02846093 -0.013380213
0.15157977 -0.22096328 -0.31533834 0.08502424 0.3195184 -0.09506331 -0.41766003 -0.060802177
-0.03171783 -0.07580057 0.5178444 0.21264136 0.3846464 -0.09065995 0.12863116 0.046653565
0.11912467 0.31341115 -0.07849489 0.0069238166 0.5263334 0.10909053 -0.020138547 0.06232313
-0.071397506 -0.052469663 -0.15725291 0.23804955 0.0034558566 -0.1951938 -0.8553603 -0.05833817
0.074168466 -0.24539976 0.30907807 0.14364812 -0.22914517 -0.15990025 0.45583478 -0.13283138
0.010856095 0.20503193 -0.01901372 0.20742635 -0.20402364 -0.04026793 -0.028617842 0.01943893
0.0136532895 0.7669996 0.03234352 -0.051105928 -0.07530623 0.17486392 0.21873252 -0.18740083
0.20033726 0.13715288 -0.043787964 0.16116337 -0.038087945 -0.31332532 -0.012314672 -0.028249117
-0.43013173 -0.31140116 -0.09287766 0.3662145 0.015124165 0.2883125 -0.31162584 -0.005448126
0.26222464 -0.08950538 -0.14196381 0.081274934 0.021067299 0.010497564 -0.10572233 -0.021969132
-0.13369912 0.35174817 0.2868463 -0.21635056 -0.022249784 0.063113466 0.11594507 -0.08905156

base.cnn.10.bias f4 [64]
00000000: a09a c2bd c961 4bbe 01d4 53be 0968 0ebe
00000010: edc6 d4bd 3be7 e23d 295d b4bd faf3 22be
00000020: 1d34 69be 65e6 db3b 7777 a13d 8547 cf3c
00000030: b9be 16bc 9043 dbbd e674 97bd f560 70be
00000040: 926e 063d fb95 0b3c 30fb 03be ef7f 19be
00000050: afae 69be 907a 03be af57 afbd 1a65 aebc
00000060: 7e4f d0bd 07fb 803c 5d02 c0bd 7e40 16bd
00000070: e142 2dbd d899 7b3c 44cf 72bd b2db abbd
00000080: 7005 e8bd ce61 f0bd c9c4 16be 0c59 3dbe
00000090: e53f debd 7b76 73be c927 94be 020d 00be
000000a0: c97f 7dbd 3215 18bd 7e73 26be d7d3 d23c
000000b0: 27fc 1dbd e4dd f8bd 21dc 9c3c 2e49 8ebc
000000c0: db05 75be 0453 22be d62f 4fbd 0081 2e3d
000000d0: 4498 a9be 6e5c 843d 2298 a2bd 7705 47be
000000e0: f253 85be 553a d2bc df20 b8bd 17a8 0bbe
000000f0: 8032 7bbd 8dbb dbbd 9eb8 0cbe 615b 583c
-0.09502149 -0.19861521 -0.20686342 -0.13906874 -0.103895046 0.1107926 -0.088068314 -0.15913382
-0.22773786 0.006710815 0.07884114 0.025302658 -0.009200745 -0.10706246 -0.073953435 -0.23474486
0.03282029 0.008519645 -0.12888789 -0.14990209 -0.22820543 -0.12839723 -0.08561646 -0.021288443
-0.10171412 0.0157447 -0.09375451 -0.0366826 -0.04230011 0.015356503 -0.059279695 -0.08391513
-0.11329162 -0.11737405 -0.14723505 -0.18491 -0.10852031 -0.23775665 -0.28936604 -0.12504962
-0.061889444 -0.03712959 -0.16254994 0.025735779 -0.03857055 -0.12151697 0.019147934 -0.01736888
-0.23928015 -0.1585198 -0.05058273 0.042603493 -0.33123982 0.06462942 -0.07939173 -0.19435678
-0.26040608 -0.02566258 -0.08990645 -0.1363834 -0.061327457 -0.10729132 -0.13742301 0.01320538

base.cnn.12.weight f4 [64]
00000000: 3e70 8d3f 1994 883f 4322 413f 45a0 8a3f
00000010: baf6 8b3f 91a9 783f deb8 6a3f 3ea3 843f
00000020: a1e9 883f 22dd 8d3f 70db 883f b40f 4d3f
00000030: 8960 a33f c300 133f 17bb 853f 6423 8f3f
00000040: 4fe1 803f d672 6d3f 1006 953f 45dc 903f
00000050: 6b48 813f a253 843f fe9c 853f 9af9 463f
00000060: a2c4 543f d8db 8c3f 66cd 8c3f 9db2 a13f
00000070: 5b9f 913f 0aea 903f 4e51 933f 7dce 7f3f
00000080: 2550 8c3f c8f7 903f 9e6b 983f 46d0 463f
00000090: 1f65 873f 3a12 6b3f 39a5 9c3f 09b4 793f
000000a0: a75e 713f 0bab 7b3f 732c 843f a9a0 853f
000000b0: 244b 993f effd 7a3f b90c 6b3f 64e8 863f
000000c0: e618 883f 777c 7f3f 7c1a a83f f5c5 5b3f
000000d0: 5903 6d3f aa21 9a3f 39d8 803f 566d 503f
000000e0: 44a3 6c3f 84d6 6a3f e4d4 6b3f 52e4 4a3f
000000f0: b1b7 463f 6a78 9c3f 2e79 543f e368 563f
1.1049879 1.0670196 0.75442904 1.083016 1.093467 0.9713374 0.91688335 1.0362318
1.0696298 1.1083109 1.0691967 0.80102086 1.2763835 0.5742304 1.044772 1.1182675
1.0068759 0.9275335 1.1642475 1.1317221 1.0100225 1.0338023 1.0438535 0.7772461
0.8311254 1.1004591 1.1000183 1.2632633 1.1376756 1.1321423 1.1509187 0.9992445
1.0961958 1.1325617 1.1907842 0.7766155 1.0577735 0.91824687 1.2237922 0.97540337
0.94285053 0.98307866 1.0326065 1.0439655 1.1976056 0.9804372 0.9181629 1.053967
1.0632598 0.99799293 1.3133082 0.85848933 0.92583233 1.2041523 1.0065986 0.81416833
0.92436624 0.91733575 0.9212172 0.7925464 0.7762404 1.2224247 0.82997406 0.83753794

base.cnn.12.bias f4 [64]
00000000: 5e19 cbbd ef34 33bd e737 89be 30b6 88bd
00000010: d66c a83c 1fea 2f3e ce8b 4dbe e047 9dbd
00000020: aa55 8abd 1ada f2bc 1261 353e 2718 ab3d
00000030: 7223 17be 8e09 dcbb 44f1 243c 401d b5bd
00000040: 3a2c 8d3e 96ae 973b 44f4 a83b c34e 32be
00000050: 37b0 80bd 1733 49be 7499 5a3e 1657 343e
00000060: c1a1 43be f55a 4a3d b7e7 1abd e220 25be
00000070: 8f1b d1bd 471d 5b3e 3714 fcba 9f66 93bd
00000080: b139 c4bb 20b0 20bc 1091 f2bd e83b 223e
00000090: b497 49bd 77fb 77be 34e4 b3be 7a44 0bbe
000000a0: 5d64 983d 421a 173e 027b 09be e21e f33d
000000b0: 3bb8 d03c 4a01 383d 1952 803e caff 0d3e
000000c0: b166 4ebc c006 b73b 7bef cbbd 0488 393e
000000d0: 5a8d c13d fa3d 8c3d 0806 133d 5814 14be
000000e0: aa3e 0d3e 2d0a c13e 44a3 6bbd 0919 283d
000000f0: 2ebe de3d 8d44 9bbe 1a5c 4cbd af4f 503d
-0.09916948 -0.043751653 -0.26800463 -0.066753745 0.02055971 0.17179154 -0.20072863 -0.07679725
-0.067546204 -0.029645015 0.1771281 0.08354216 -0.14759615 -0.006715006 0.010067288 -0.088434696
0.27572805 0.0046289666 0.005156072 -0.17412858 -0.0628361 -0.19648395 0.213476 0.17611346
-0.19104673 0.04940315 -0.037818637 -0.16125825 -0.102103345 0.21397887 -0.0019232099 -0.07197308
-0.0059883227 -0.0098076165 -0.11844075 0.15843165 -0.04921694 -0.2421702 -0.35135043 -0.1360034
0.07441018 0.1475611 -0.1342583 0.11871125 0.025478473 0.044923104 0.25062636 0.13867107
-0.012597726 0.0055855215 -0.09957787 0.18118292 0.09450789 0.068477586 0.035894424 -0.14460886
0.13793436 0.37703076 -0.05752875 0.0410395 0.10876118 -0.30325738 -0.049892522 0.050857242

base.cnn.13.weight f4 [64, 64]
00000000: f1ae 063d e3ff 9a3e a8d9 bc3e 89c2 0c3e
00000010: 744a 6b3e 8733 c9bc 57ba 1c3e df55 093f
00000020: 6cf5 28be 11a1 29bf 735f a73c ed95 b53d
00000030: 4c82 5d3e 8fc0 c0bc 9f15 fe3d 389e df3d
00000040: fdb1 16be a09e 45bd c052 cfbd 26d4 e0bb
00000050: d916 b4be a84a 053e 5365 e0be 18a3 52bd
00000060: 4ca0 9bbe 2604 ddbd 9d94 ab3e b9db 053e
00000070: 250c c4be 2fde 543e 3485 a63e 494e b4bd
00000080: ad60 373e c43e 863e 82b8 183e 117a a93c
00000090: 66b3 aa3d abc2 54bc fe00 703e 159e d43e
000000a0: 9427 393e e1d7 38be 992d a8be 14f4 5ebe
000000b0: 8c33 b5bd 644b e8bd d33f 5fbd 1784 03bf
000000c0: b2a3 4a3e eb2c ca3d decc 47be aecc 893d
000000d0: 3f89 6d3e 3ab4 dd3d 8c4e 313d 1293 a7bd
000000e0: a837 7b3e 06d1 0cbd 1040 5f3e fe6b e93d
000000f0: 9c8f 52be d0bc 353e 1c77 b43e bd06 913e
00000100: 3b83 92be c7df 0dbf 76c4 12bd 6e41 1c3e
00000110: c495 f93e 79d6 37bd 84bf 03bf 4697 b4bd
00000120: cc10 b4be 1488 7abe ec1f 1bbe dccd 453c
00000130: af32 0cbe dcf6 4b3e b5a9 92be b2ba 5e3e
00000140: 638b 0ebf 90e3 82bc e12f a8be 857f 14be
00000150: fc28 dbbd b560 b1bc 844e e3bd ed32 853d
00000160: 0a55 2c3e 2741 c0bb e9bf 633e 8cf9 b3bd
00000170: 5bac 28be 28f4 45be 4aac a1be a2ae df3b
00000180: a6fc 24be 0d11 3b3e 86f2 f23e 1507 603d
00000190: a418 263e 0a9f a8be 3e1f ae3e 3b3a 94bc
000001a0: 8a85 1c3d 333b 673e 64d2 113e 92b0 3b3e
000001b0: b480 5ebd 4c05 6abe 606b 00be 2f68 023b
000001c0: a1b4 333d 3aaa 04bd 5245 5ebe bed7 00be
000001d0: 107d 243e 3e6a 8c3e 1768 a93d 8b24 d5be
000001e0: 7e26 a13e 802d ab3e c3dd acbe c95f 913d
000001f0: cbe5 bebe 004e 003d 4f2b 543e 627c 093f
00000200: d5af 8e3e 8f53 a1be a993 4f3d 0594 193f
00000210: 2d62 db3e d0e7 52be 1f42 c83c e0f6 30be
00000220: 6ec6 0f3e 5275 13bf dc11 f93e 5910 c93d
00000230: 1ebd a5bd f33b 8e3d a0bf 2d3e 0a1a a23c
00000240: eb21 b5bc 10ec a63e 4615 13bc 5ae6 e63d
00000250: 403b b13e d408 42bd db5f 3dbb fab1 3bbd
00000260: 43c1 433e 9dae 363e ec7f 043e b28c aabd
00000270: 6ea7 043f e476 1a3d da35 1cbf ca28 9b3d
00000280: e1e3 d63d b276 75be 88dc 483e 792b 08bd
00000290: 2331 c1bc 5112 c13e 005b 47bd 521c a63e
000002a0: 7d3a 093e 0fff 89be a514 e9bc fb97 f4be
000002b0: cdf1 a33b ee4d a0be 86b6 00bf f4b8 d03e
000002c0: 5915 b63e 34ad 053d 5b2e 86be e442 dcbc
000002d0: 696b 143e db1a 463c e8dc 703d 0a36 4fbe
000002e0: 5cf2 60be a437 bcbe ee81 adbe e052 74bd
000002f0: abce 153c 92bf 563e f06f 7e3e 2b1a 6c3e
00000300: 9f5b 8ebd 2691 8f3e 766f 3a3e 084f aa3d
00000310: c663 733e 7f17 693e 9915 7abe 11c4 873e
00000320: 2e13 83bd 4f72 febd 1253 dabe 7cae 653e
00000330: 6b8f 2b3e ca12 2abd df1e 6ebe feb6 523e
00000340: f546 aabd 5075 a0be 544a 3abe 55e2 8b3d
00000350: bb52 60bd 1b85 1d3e 2c14 3b3e 5ba1 bc3d
00000360: 45cb d03e f72f d7be 906a 3bbd 504a 1e3e
00000370: 6625 a93e 9ed7 9d3d bea0 e9be c368 21bb
00000380: e946 44be 65dc 02be e18b b03e c753 3b3e
00000390: 15a6 163e c48a 8a3e 9109 24be 4ffe 933e
000003a0: cc26 9fbe 272f 883d af10 68bd 05d0 093e
000003b0: b802 723e 9f37 8bbe 9023 d4be 3873 5a3d
000003c0: c1d3 d2be b7c8 ccbe a71f ab3e ac6b 0f3e
000003d0: 9b19 e5bd cf8e 2a3e 716e ac3d ae6b 9dbe
000003e0: 3890 413e 9c99 2abd b8e6 a93e deb4 9fbd
000003f0: 3ff0 86be 4eb2 533d 986e 303d cdaa bcbe
0.03288168 0.3027335 0.3688481 0.13746084 0.2297762 -0.024560703 0.15305458 0.53646654
-0.16499871 -0.6626139 0.020431256 0.08866487 0.21631736 -0.02352932 0.12406468 0.1091885
-0.14716335 -0.04824698 -0.10123205 -0.0068612276 -0.3517368 0.1301676 -0.43827304 -0.05142507
-0.30395734 -0.10791807 0.3351182 0.13072099 -0.38290516 0.20787881 0.325235 -0.08803994
0.17907973 0.2621976 0.14914134 0.020688089 0.08334999 -0.012985866 0.23437878 0.41526857
0.18081504 -0.18051101 -0.32847288 -0.21772796 -0.088477224 -0.113425046 -0.054504227 -0.5137343
0.19789007 0.09871849 -0.19511744 0.06728493 0.23196886 0.10825391 0.0432878 -0.08182348
0.2453295 -0.034379028 0.21801782 0.11397551 -0.20562595 0.17747808 0.35247123 0.28325453
-0.28615746 -0.5541958 -0.03583189 0.15259334 0.48747075 -0.04488227 -0.51464105 -0.088179156
-0.35169065 -0.24465972 -0.15148896 0.0120730065 -0.1369121 0.19918388 -0.286451 0.21750906
-0.5568144 -0.01597765 -0.3284903 -0.1450177 -0.107011765 -0.021652559 -0.1109896 0.06503854
0.16829315 -0.0058671418 0.22241177 -0.08787832 -0.16471998 -0.1933142 -0.3157676 0.006826238
-0.16112003 0.18268223 0.47450656 0.054694254 0.16220337 -0.32933837 0.3400821 -0.018094173
0.03821329 0.22581176 0.14240414 0.18329075 -0.05432196 -0.22853583 -0.1254096 0.0019898524
0.043873433 -0.032388903 -0.21706131 -0.12582299 0.16063333 0.27424806 0.08271807 -0.41629443
0.3147468 0.3343315 -0.3376294 0.07098348 -0.37284693 0.031324387 0.20719646 0.5370542
0.27868524 -0.31509063 0.05067793 0.59991485 0.4284834 -0.20596242 0.024445591 -0.17281675
0.14040539 -0.5760089 0.48646438 0.09817571 -0.08092712 0.06945028 0.1696763 0.019787807
-0.0221109 0.32601976 -0.00897724 0.11274405 0.34615517 -0.0473717 -0.0028896246 -0.04582403
0.19116692 0.17840047 0.12939423 -0.08327617 0.5181798 0.03771104 -0.6101967 0.07576139
0.10492683 -0.2397106 0.19615376 -0.033244584 -0.023583 0.37709287 -0.04867077 0.32443482
0.13401218 -0.26952407 -0.028452227 -0.47772202 0.00500319 -0.31309456 -0.5027851 0.40766108
0.35563162 0.032635882 -0.2620724 -0.026887365 0.14494099 0.012091364 0.058804423 -0.20235458
-0.21967453 -0.367612 -0.3388819 -0.05964935 0.009143512 0.20971516 0.24847388 0.23056857
-0.06951069 0.28040427 0.18206581 0.08315855 0.2376853 0.2276287 -0.24422301 0.26516774
-0.064001426 -0.124241464 -0.42641503 0.22429842 0.16753928 -0.041521825 -0.23253964 0.20577618
-0.08314315 -0.31339502 -0.18192416 0.06830279 -0.054766398 0.15382807 0.18269414 0.092104636
0.40780082 -0.42028782 -0.045755923 0.15458035 0.33036345 0.07707141 -0.4563045 -0.0024629093
-0.19167675 -0.12779386 0.3448172 0.18293677 0.14711793 0.27058995 -0.16019274 0.2890496
-0.31084287 0.066496186 -0.056656536 0.1345826 0.2363385 -0.27190873 -0.41433382 0.053332537
-0.4117718 -0.39996883 0.33422586 0.14005917 -0.111865245 0.1665604 0.084195025 -0.30746216
0.18902671 -0.0416504 0.33183837 -0.077981696 -0.26355168 0.051683716 0.04307422 -0.3684906
