CRL_human_AI_overcooked/human_models/model_random1/actor_best_r12.pt (torch, 419411 bytes, 20 tensors)

base.cnn.0.weight f4 [32, 20, 3, 3]
0	0xbe549fbc	-0.20764059
1	0xbc521179	-0.012821549
2	0xbe316881	-0.17325021
3	0xbd304bd7	-0.043041077
4	0xbb946832	-0.0045290226
5	0xbe453b99	-0.19261016
6	0x3e8013e1	0.25015166
7	0x3e1b9e19	0.15197028
8	0xbdf8b5d3	-0.12144055
9	0xbcd34b62	-0.025792781
10	0xbcaf6476	-0.021410208
11	0x3e78ba13	0.24289732
12	0x3cc757ae	0.024333801
13	0xbe43f3f5	-0.19136031
14	0xbd71b19b	-0.05900727
15	0xbd749f11	-0.05972201
16	0xbdf0c3ee	-0.117561206
17	0xbe180f52	-0.14849594
18	0xbdb88d5b	-0.090113364
19	0xbe05d71c	-0.13070339
20	0xbdceb1aa	-0.100924805
21	0x3e4010eb	0.18756454
22	0x3d8daaa3	0.06917312
23	0xbdb67a9b	-0.08910104
24	0xbdc11dd1	-0.09429515
25	0x3e015192	0.12628773
26	0xbe53892c	-0.20657796
27	0xbe3141d0	-0.17310262
28	0x3b9b8cd1	0.0047470112
29	0xbdb186a8	-0.08668262
30	0xbe33377a	-0.17501631
31	0x3e3c8b37	0.18412481
32	0xbe0445ed	-0.129173
33	0x3e8031ec	0.25038087
34	0xbc5f51df	-0.013630359
35	0xbdb565bd	-0.08857296
36	0x3d83a337	0.06427615
37	0x3db83b38	0.0899567
38	0xbed3356e	-0.412517
39	0x3c91ec9d	0.017813021
40	0xbdd59e14	-0.10430542
41	0xbeb7b0a3	-0.3587695
42	0x3da15248	0.07877022
43	0x3d9d8286	0.07690911
44	0xbdcb025c	-0.099125594
45	0xbd7f456b	-0.06232206
46	0xbd51eb65	-0.05124988
47	0x3e3efaed	0.18650408
48	0x3e29ae43	0.16570382
49	0x3e2fbfa6	0.17162952
50	0x3e4ffcff	0.20311354
51	0xbe0f9014	-0.14019805
52	0x3e447c22	0.19187978
53	0x3e0ee364	0.1395393
54	0x3e832893	0.25616893
55	0x3e584106	0.21118554
56	0x3c3b8e9c	0.011447575
57	0xbdc94822	-0.09828211
58	0xbd22ad68	-0.039716154
59	0xbde89ac7	-0.113576464
60	0x3e8e384f	0.27777335
61	0x3d99df2c	0.0751327
62	0x3c60fa1f	0.0137315085
63	0x3e81517a	0.25257474
64	0xbdd06450	-0.10175383
65	0x3dee47c7	0.11634784
66	0xbe8c8fc0	-0.27453423
67	0xbcbfc9a5	-0.023411581
68	0x3e0b2acf	0.13590549
69	0xbdddaf4a	-0.10824449
70	0x3e54b1f7	0.20771013
71	0xbcb3816f	-0.021912305
72	0xbdee1ecc	-0.11626968
73	0xbe0d7119	-0.13812675
74	0x3e7bd6f1	0.24593712
75	0x3e1c25a5	0.15248735
76	0x3d9064f4	0.07050505
77	0x3dea2100	0.114320755
78	0x3e19e2ae	0.15027878
79	0xbe64d71b	-0.22347681
80	0xbe594c4a	-0.21220508
81	0xbe331e6d	-0.17492075
82	0xbe2135d9	-0.15743198
83	0xbe5c1fd9	-0.21496524
84	0x3dff47a8	0.12464839
85	0x3d886cf3	0.066614054
86	0xbd2d7abb	-0.042353373
87	0x3dc4adb5	0.096034445
88	0xbb1df7d9	-0.0024104028
89	0xbe541156	-0.20709738
90	0xbe06193b	-0.13095562
91	0x3de8c0a9	0.11364872
92	0x3e68126a	0.22663274
93	0xbd315101	-0.043290142
94	0x3e472f74	0.19451696
95	0x3d683c75	0.05669828
96	0x3e12cf44	0.14336878
97	0xbe461148	-0.1934253
98	0x3d673b0d	0.0564528
99	0xbdf6de8c	-0.12054166
100	0xbe14e130	-0.14539027
101	0x3b729850	0.0037017055
102	0x3c97978b	0.018504879
103	0x3cf87922	0.030331198
104	0xbce0e7c8	-0.027454272
105	0xbd5044ba	-0.050846793
106	0xbd8f9192	-0.07010187
107	0xbdc263fd	-0.094917275
108	0xbad71bcd	-0.0016411484
109	0xbd55adb1	-0.0521676
110	0x3bf039a1	0.0073310887
111	0x3dd66534	0.10468522
112	0xbd1048ea	-0.035225786
113	0x3d4f6442	0.050632723
114	0xbe4665b0	-0.19374728
115	0x3e0657f5	0.1311949
116	0xbe1fe92f	-0.15616296
117	0x3e217157	0.15765892
118	0xbd83f73c	-0.064436406
119	0xbb037090	-0.0020056106
120	0xbe8458c6	-0.2584898
121	0x3dc92f55	0.09823481
122	0x3d20cf9e	0.0392605
123	0xbddae2b1	-0.10687769
124	0xbaea14f6	-0.001785903
125	0x3d961bce	0.07329522
126	0x3d5ddbd1	0.05416471
127	0xbe794c29	-0.24345459
128	0xbd7275c5	-0.059194345
129	0x3e1860f5	0.14880736
130	0x3ddfa3a8	0.10919887
131	0x3c11cbc8	0.008898683
132	0xbd89c2ac	-0.06726584
133	0xba244500	-0.00062663853
134	0x3ccc0941	0.024906756
135	0x3ddd0093	0.10791125
136	0xbdf38bf3	-0.118919276
137	0x3dfbb3df	0.12290167
138	0x3c8ea259	0.017411398
139	0xbd9862e6	-0.074407384
140	0x3d55f987	0.05223992
141	0x3e49f48e	0.19722196
142	0xbd4124a0	-0.04715407
143	0xbdbdd7f9	-0.09269709
144	0xbdd46535	-0.10370866
145	0x3d7480e6	0.05969324
146	0xbd9e3dfc	-0.07726666
147	0xbc382762	-0.011239858
148	0xbe29a56d	-0.16567011
149	0xbe9f48d4	-0.3111025
150	0xbe4d6938	-0.20059669
151	0x3d0140ed	0.03155606
152	0x3ddd3539	0.10801167
153	0xbe2b92f0	-0.16755271
154	0xbe45d058	-0.19317758
155	0x3daf4e0a	0.08559807
156	0xbd3a591d	-0.04549514
157	0x3e569640	0.20955753
158	0xbce11f3d	-0.027480716
159	0x3eedb55d	0.46427432
160	0xbe851f0e	-0.26000255
161	0xbcfd4fe9	-0.030921893
162	0xbb906ac8	-0.0044072606
163	0x3e93448b	0.28763232
164	0x3e2520e0	0.16125822
165	0xbc61c6f0	-0.013780341
166	0xbd8b26a5	-0.0679448
167	0xbf09a74e	-0.5377091
168	0xbe6f33b7	-0.23359571
169	0xbd956307	-0.072942786
170	0x3c8cd043	0.01718915
171	0xbdc00ca2	-0.093774095
172	0xbaa8ae4a	-0.0012869325
173	0x3ecc2b82	0.39876944
174	0xbd48da98	-0.049036592
175	0xbe86c779	-0.2632406
176	0xbc9d4c62	-0.019201461
177	0xbe8d6674	-0.27617228
178	0xbd7bb469	-0.06145135
179	0x3da02826	0.07820158
180	0x3e4437b4	0.19161874
181	0x3ead3fc8	0.33837724
182	0xbb841201	-0.0040304665
183	0xbe554126	-0.20825633
184	0x3d4eba13	0.050470423
185	0x3d5087fa	0.050910927
186	0xbe47570b	-0.19466798
187	0x3cad653f	0.021166442
188	0xbcc146fb	-0.023593416
189	0x3cb9bd06	0.022673141
190	0xbd94537d	-0.072424866
191	0x3c9830b3	0.01857791
192	0xbda949f5	-0.08266059
193	0xbe95f724	-0.29290116
194	0x3d38a313	0.045077395
195	0x3e1216cd	0.1426651
196	0xbe0687db	-0.13137762
197	0xbe8eddd8	-0.27903628
198	0xbdfbadf4	-0.12289038
199	0x3ea30c6e	0.3184542
200	0x3e82ca76	0.2554509
201	0xbddb5d94	-0.10711208
202	0x3d58df22	0.05294717
203	0x3e77be67	0.24193726
204	0xbde93366	-0.113867566
205	0xbd6cfd85	-0.057858963
206	0x3a24e28a	0.00062898605
207	0x3ec57efe	0.3857345
208	0x3eaca492	0.33719307
209	0xbdf69c2f	-0.120415084
210	0xbd6f0052	-0.058349915
211	0x3e4f6c9d	0.20256276
212	0xbd5eea2a	-0.054422535
213	0x3c19f1f3	0.009396064
214	0xbe2039d9	-0.15647067
215	0xbe93d725	-0.2887508
216	0xbcf58f04	-0.029975422
217	0x3d9fc55f	0.078013174
218	0xbebea25e	-0.3723325
219	0xbd999dbe	-0.0750079
220	0x3d3c272d	0.0459358
221	0x3cee7b42	0.029111508
222	0x3e624cf5	0.2209967
223	0xbe073c4b	-0.13206594
224	0x3a4e5fd5	0.00078725565
225	0xbe24df57	-0.16100822
226	0x3ded534b	0.115881525
227	0x3d94eeeb	0.072721325
228	0x3dd5cdd9	0.10439653
229	0x3e0bfce1	0.13670684
230	0xbe9dbb8f	-0.30807158
231	0x3e096057	0.13415657
232	0xbe58e92c	-0.21182698
233	0x3e8b0dbe	0.27158922
234	0xbdaef7f2	-0.085433856
235	0xbe5c522a	-0.21515718
236	0x3baa0391	0.0051884134
237	0xbe78d4bc	-0.24299902
238	0xbe1693ab	-0.14704768
239	0x3cbd7750	0.023128182
240	0xbd88212a	-0.066469505
241	0xbebf0b1e	-0.3731317
242	0xbdeb051d	-0.11475585
243	0x3e84ea1f	0.2595987
244	0xbea72f5f	-0.3265333
245	0x3d899140	0.06717157
246	0x3e2117ed	0.15731783
247	0xbda39816	-0.079879925
248	0xbd2ddde8	-0.042447954
249	0xbd3afedf	-0.04565322
250	0x3d983a96	0.074330494
251	0xbe3c7aa2	-0.18406156
252	0xbbbb0c22	-0.0057082335
253	0xbc8cc236	-0.01718245
254	0xbc94570d	-0.018107915
255	0xbc7cc448	-0.0154276565

base.cnn.0.bias f4 [32]
0	0xbd83b168	-0.06430322
1	0xbd8e0e32	-0.06936301
2	0xbd647758	-0.055777878
3	0xbccec343	-0.025239592
4	0xbd4e8856	-0.05042299
5	0xbcb9c5f3	-0.022677397
6	0xbdcfa067	-0.10138016
7	0xbdc52860	-0.096268415
8	0xbdc0de57	-0.09417408
9	0xbdbcbeee	-0.092161044
10	0x3c86c8f8	0.016453251
11	0xbd6f90ff	-0.05848789
12	0xbdaff0b2	-0.08590831
13	0xbdf3b624	-0.11899975
14	0xbd8216c6	-0.06352
15	0xbd5d955e	-0.054097526
16	0xbd2f6864	-0.042824164
17	0x3d481a0d	0.04885297
18	0x3c4930eb	0.012279729
19	0xbd8822a5	-0.06647233
20	0xbd7898e0	-0.060692668
21	0xbda5a4bd	-0.08088062
22	0xbd9bb304	-0.07602504
23	0xbdaf5827	-0.085617356
24	0xbcb23c9c	-0.021757416
25	0x3cc46e3c	0.023978345
26	0xbdccd523	-0.1000159
27	0xbd88e086	-0.066834494
28	0xbdd42dc7	-0.10360294
29	0xbd668f6d	-0.056289125
30	0xbd2200f1	-0.03955168
31	0xbc57d231	-0.013172672

base.cnn.2.weight f4 [64, 32, 3, 3]
0	0x3de9cdaf	0.11416184
1	0x3dd2921d	0.10281775
2	0x3df4eced	0.119592525
3	0xbd859641	-0.06522799
4	0x3c02841b	0.007966067
5	0xbe025c49	-0.12730516
6	0xbe2b4dcd	-0.16728897
7	0x3d3be312	0.045870848
8	0xbe00ef8c	-0.1259138
9	0x3e6dfedf	0.23241757
10	0xbcd10ada	-0.02551787
11	0x3d1c9763	0.03823031
12	0x3e3447bc	0.1760549
13	0xbdaa2fa0	-0.08309865
14	0xbd0f4c6e	-0.034985
15	0x3e0cd53f	0.13753222
16	0xbd93c885	-0.072159804
17	0x3d85df53	0.06536736
18	0x3d88a284	0.066716224
19	0xbe0da16e	-0.13831112
20	0x3d269e93	0.040678572
21	0x3da55280	0.08072376
22	0x3c8ab623	0.016932553
23	0xbd90c9aa	-0.07069714
24	0x3ce6fd39	0.028196918
25	0x3e437063	0.19085841
26	0xbc9c800f	-0.019104032
27	0xbd9596e0	-0.07304168
28	0xbd7e5fe9	-0.062103186
29	0x3dc39dbd	0.095515706
30	0x3dcdea0c	0.100544065
31	0x3deba3dd	0.11505864
32	0xbdf71010	-0.120636106
33	0xbc338abe	-0.010958372
34	0xbd998fc6	-0.07498126
35	0xbb11c192	-0.002224062
36	0x3d5eb6ac	0.05437343
37	0xbde96644	-0.11396459
38	0xbc88dae9	-0.016705947
39	0xbd7bda3a	-0.061487414
40	0xbc8fdbe5	-0.017560909
41	0xbc8e1b4d	-0.017347002
42	0x3e65698f	0.22403549
43	0x3dbe9664	0.093060285
44	0xbd83dac6	-0.06438212
45	0x3ce946d1	0.02847615
46	0xbdf6692e	-0.1203178
47	0xbd68a3ae	-0.056796722
48	0x3dd07a3d	0.10179565
49	0x3d540705	0.051764507
50	0xbd830793	-0.06397929
51	0x3d06bbd6	0.032893978
52	0xbd2d713e	-0.042344324
53	0xbd0b4863	-0.03400458
54	0xbe052db9	-0.13005723
55	0xbcd44552	-0.02591196
56	0xbdbf9b11	-0.093557484
57	0xbda23769	-0.07920725
58	0x3cd73131	0.026268573
59	0xbe1857f1	-0.14877297
60	0xbcd22740	-0.025653481
61	0xbd47cea3	-0.04878105
62	0x3deee1fc	0.11664197
63	0xbd9e6417	-0.077339344
64	0x3df92394	0.12164989
65	0xbdad1e9b	-0.08453103
66	0xbdab7662	-0.08372189
67	0x3c5334db	0.01289102
68	0x3d9c5834	0.07634011
69	0x3c3d24d1	0.011544422
70	0xbb9f717b	-0.004865823
71	0x3b0a479a	0.0021099807
72	0x3ce3f997	0.027828975
73	0xbde38b7c	-0.11110589
74	0xbda0a86a	-0.078446224
75	0x3d4fe2df	0.05075347
76	0x3e107764	0.14108044
77	0x3d77e13d	0.06051754
78	0x3cca7d1c	0.02471786
79	0xbdd6750e	-0.10471545
80	0x3dd2f35c	0.10300323
81	0xbc9627bf	-0.0183295
82	0x3ce8ef75	0.028434495
83	0x3d426a2c	0.047464535
84	0x3d9f5c3e	0.07781266
85	0xbcdfd0eb	-0.0273213
86	0xbc7e1f8e	-0.015510453
87	0xbe7ec152	-0.24878433
88	0x3d8340c6	0.06408839
89	0xbd52a855	-0.051430065
90	0xbc778bf3	-0.01510905
91	0xbcfe2a50	-0.031026036
92	0x3bb39963	0.0054809316
93	0x3d4dc4d5	0.05023654
94	0x3e0baa50	0.13639188
95	0xbdc6b88e	-0.0970317
96	0xbdfb1a24	-0.12260845
97	0x3bd00d2d	0.006349227
98	0xbe2675fd	-0.16255946
99	0xbd2687e7	-0.04065695
100	0xbe0fbe40	-0.14037418
101	0x3ceaf675	0.028681973
102	0xbdee2fb6	-0.11630194
103	0xbdb30563	-0.08741262
104	0x3cab0f50	0.020881325
105	0xbd8cb082	-0.06869604
106	0x3d4366f1	0.047705594
107	0xbd9999d7	-0.07500046
108	0xbd13d623	-0.03609289
109	0x3d8d27dc	0.06892368
110	0x3da82508	0.08210188
111	0xbe050490	-0.12990022
112	0xbde3b9cc	-0.11119422
113	0x3bb957c1	0.005656213
114	0xbc09747e	-0.00838959
115	0xbc10b23a	-0.008831555
116	0xbbd5cfb8	-0.006525006
117	0xbe5b4f81	-0.21417047
118	0x3d8a38c6	0.0674911
119	0xbc231447	-0.009953565
120	0xbdb2b78d	-0.08726416
121	0xbc17e60c	-0.009271156
122	0xbdc3b660	-0.0955627
123	0x3e85d017	0.26135322
124	0xbda6a66f	-0.081372134
125	0xbe384723	-0.17995887
126	0xbe15193a	-0.14560404
127	0x3aa75725	0.001276706
128	0x3e2ffee2	0.17187074
129	0xbb62d642	-0.003461257
130	0x3ded4f4a	0.11587389
131	0x3e18ab34	0.14909059
132	0x3d3aa2ea	0.045565523
133	0x3cd71f36	0.02626
134	0xbdfd888f	-0.12379562
135	0x3d610d14	0.054944113
136	0x3d47eb09	0.04880813
137	0x3d3a784c	0.04552488
138	0x3de58fdb	0.11209079
139	0xbdb78fd9	-0.08962984
140	0xbb9963e4	-0.0046810973
141	0xbd637490	-0.055531085
142	0xbe363e1f	-0.17797135
143	0xbd6b5ac8	-0.057459623
144	0xbaf11de3	-0.0018395748
145	0xbcd16a49	-0.025563376
146	0xbe0db002	-0.13836673
147	0xbd04b577	-0.03239962
148	0xbde1271c	-0.10993788
149	0x3ca35e91	0.019942554
150	0x3cdbe8fb	0.026844492
151	0x3cdcbfe0	0.026946962
152	0x3dd36960	0.10322833
153	0xbcf96fae	-0.03044876
154	0xbdb83d49	-0.08996064
155	0x3d056a31	0.032571975
156	0x3be33781	0.006934107
157	0xbca7f421	-0.020502152
158	0xbe488633	-0.19582443
159	0xbe32246c	-0.17396706
160	0x3c86a745	0.016437182
161	0x3de34085	0.110962905
162	0xbe714613	-0.23561887
163	0xbdaebb97	-0.08531874
164	0x3e219135	0.15778048
165	0xbda942b0	-0.08264673
166	0x3e5fb45b	0.21846144
167	0x3d63bb7e	0.05559873
168	0x3db5a983	0.088702224
169	0xbe2d3192	-0.16913441
170	0xba23233b	-0.00062232063
171	0x3cd9fe82	0.026610617
172	0x3dcfd04a	0.1014715
173	0xbdd3f74d	-0.10349903
174	0xbe6f7dea	-0.23387876
175	0x3dcd46d1	0.10023273
176	0xbda60a0f	-0.08107387
177	0xbd44f5c8	-0.048085958
178	0xbd7a8d69	-0.061170015
179	0xbe2dff75	-0.1699198
180	0xbd8e0673	-0.06934824
181	0x3e0bb3f0	0.1364286
182	0xbdce19a2	-0.10063483
183	0x3d9259d1	0.07146037
184	0x3de061f0	0.1095618
185	0xbd5a1bb2	-0.05324907
186	0xbc49e9bd	-0.012323794
187	0x3dc10bac	0.09426054
188	0xbe6ecbbf	-0.2331991
189	0xbc04c08a	-0.0081025455
190	0x3cefd8b7	0.029278142
191	0xbe877683	-0.26457605
192	0x3ccb29e1	0.024800243
193	0x3d8f9dbd	0.07012508
194	0x3d0fef48	0.035140306
195	0xbe3e2122	-0.18567327
196	0xbd086229	-0.033296738
197	0xbd12b6d0	-0.035818875
198	0xbe32f5ea	-0.17476621
199	0x3e6628fc	0.22476572
200	0x3e5b0624	0.21389061
201	0xbc9831fe	-0.018578526
202	0x3cc373d8	0.02385895
203	0x3db9ab8c	0.09065923
204	0xbb87acfc	-0.0041404944
205	0xbd3e13af	-0.04640549
206	0xbdd18fb2	-0.10232486
207	0xbd256616	-0.04038056
208	0x3d8d0f3d	0.06887672
209	0x3dae5596	0.08512418
210	0x3c9a6dd5	0.0188512
211	0x3ded26a6	0.11579637
212	0xbd8b2530	-0.06794202
213	0xbcf3def6	-0.029769402
214	0x3df8e948	0.1215387
215	0x3e292997	0.16519772
216	0x3d3f0bf6	0.046642266
217	0xbe3cba6f	-0.18430494
218	0x3e33f9b9	0.1757573
219	0xbdea874d	-0.11451588
220	0xbd28c5c8	-0.041204244
221	0xbe298aab	-0.16556804
222	0xbe1b2d11	-0.1515391
223	0xbe39b9e1	-0.18137313
224	0xbd13b35f	-0.036059733
225	0x3dfe71d9	0.124240585
226	0xbe062d9e	-0.13103339
227	0x3d042220	0.032259107
228	0xbc0d8e6a	-0.008639911
229	0x3cf061bf	0.029343484
230	0x3d7cb82c	0.061699077
231	0x3e17e960	0.14835119
232	0xbe1587df	-0.14602612
233	0xbd7ab338	-0.061206073
234	0x3c81f769	0.015865045
235	0xbd0b4ab5	-0.034006793
236	0x3dd781be	0.10522793
237	0x3d9d7a09	0.07689292
238	0x3dc92f87	0.09823518
239	0xbe0c56a3	-0.13704924
240	0x3de05f8a	0.10955723
241	0x3d94ae7b	0.07259842
242	0x3c92c1c4	0.01791466
243	0xbdfe53e7	-0.12418347
244	0x3e4d639e	0.20057532
245	0x3dfd35eb	0.123638
246	0xbda04969	-0.07826502
247	0xbcc6b70c	-0.024257205
248	0x3d765faf	0.060149845
249	0xbe028bdc	-0.12748665
250	0xbdf33ee0	-0.11877227
251	0x3c733e8d	0.014846456
252	0x3bcc9fb0	0.006244622
253	0x3b0acc82	0.0021179025
254	0x3d57485c	0.05255924
255	0x3e0546e0	0.13015318

base.cnn.2.bias f4 [64]
0	0xbda00f74	-0.078154474
1	0xbc8efdde	-0.017455038
2	0xbca83759	-0.020534204
3	0xbcff5483	-0.031168228
4	0xbbc3c416	-0.005974303
5	0xbce0b41d	-0.027429635
6	0x3c80f464	0.015741535
7	0xbdca09fb	-0.09865185
8	0xbad0a2c9	-0.0015917654
9	0xbcccbf7c	-0.02499365
10	0xbd67a4af	-0.05655354
11	0xbd25e3c0	-0.040500402
12	0xbbf3d51c	-0.007441176
13	0xbcf662b5	-0.030076364
14	0xbd028c1e	-0.031871907
15	0xbd9cbef3	-0.07653608
16	0xbcbbc587	-0.022921337
17	0xbce0e00b	-0.027450582
18	0x3cdaf03b	0.026725879
19	0xbd2e6d26	-0.04258456
20	0xbb897419	-0.004194748
21	0xbca18fb7	-0.019721849
22	0x3d23c1dd	0.039979804
23	0xbc64c097	-0.013961933
24	0xbda5373b	-0.08067175
25	0xbc95b473	-0.018274521
26	0xbd483a65	-0.048883814
27	0xbdb42832	-0.08796729
28	0xbd358bc4	-0.044322744
29	0xbd0c44f2	-0.03424544
30	0x3bd6a4b3	0.0065503954
31	0xbcdb1dd5	-0.026747623
32	0xbd8fa1b1	-0.07013262
33	0xbcfa2fc3	-0.030540353
34	0xbd3d6b16	-0.046244703
35	0xbcedf96f	-0.029049603
36	0xbd32d6d1	-0.043661896
37	0x3a881ec2	0.0010385143
38	0x3bff4749	0.0077904803
39	0xbaf4edcf	-0.0018686595
40	0x3c5cab31	0.01346855
41	0xbd45324c	-0.04814367
42	0xbd4d92a3	-0.05018867
43	0xbbb608e0	-0.005555257
44	0xb9bcd669	-0.00036017902
45	0x3b02e6db	0.0019974026
46	0x3d1bb3a2	0.038013108
47	0xb9cfbda0	-0.00039623398
48	0xbcc04a68	-0.02347298
49	0xbd5b7941	-0.053582434
50	0xbd8a4f0c	-0.06753358
51	0x3b34ec3a	0.0027606622
52	0xbd029041	-0.031875852
53	0xbcf2c108	-0.02963306
54	0x3a9f9fc4	0.0012178351
55	0xbd8c726b	-0.06857761
56	0xbd10cf66	-0.03535404
57	0xbd723349	-0.05913094
58	0x3d1bc6ec	0.038031504
59	0xbcfa09d2	-0.03052226
60	0xbc1542d3	-0.00911017
61	0xbb5a8e48	-0.0033348966
62	0xbbc12d19	-0.0058952686
63	0xbcb98de7	-0.022650672

base.cnn.4.weight f4 [32, 64, 3, 3]
0	0xbdc0aba5	-0.094077386
1	0x3da81b78	0.08208364
2	0xbe143eaa	-0.1447703
3	0xbda2994b	-0.079393946
4	0xbe08bf19	-0.13354148
5	0x3cdb075a	0.026736904
6	0x3ca5fe81	0.020262958
7	0x3cf24180	0.029572248
8	0xbd94d9ce	-0.072681054
9	0x3dd6f1e7	0.10495358
10	0x3e64a96b	0.22330253
11	0xbd70322e	-0.058641605
12	0x3d432afe	0.047648422
13	0xbdd23d2e	-0.10265575
14	0xbe015285	-0.12629135
15	0x3ddc5fe3	0.107604764
16	0x3d76fa6f	0.060297426
17	0x3d4f35db	0.05058847
18	0xbd327e2f	-0.04357737
19	0x3dd05a89	0.10173518
20	0x3d66b808	0.05632785
21	0x3e631c12	0.22178677
22	0xbd30f0fc	-0.04319857
23	0x3e4e1191	0.20123889
24	0xbdbd2ba1	-0.09236837
25	0x3ceb6d4d	0.028738642
26	0xbe7af7ab	-0.2450854
27	0xbb44e763	-0.0030045144
28	0xbd04a120	-0.032380223
29	0x3d7d869d	0.061895955
30	0xbd720319	-0.059084985
31	0x3dab16f4	0.08353987
32	0xbdeacb7c	-0.11464593
33	0xbd259b70	-0.04043144
34	0xbe4c7896	-0.19967875
35	0xbe13960f	-0.14412712
36	0x3e0f159f	0.13973092
37	0x3de3076f	0.11085402
38	0x3c8f2baa	0.017476875
39	0x3d0dad39	0.034589026
40	0x3e043bc8	0.1291343
41	0x3e3b2e3f	0.1827936
42	0x3dcadf60	0.09905887
43	0xbd5f6162	-0.05453623
44	0xbd7fc135	-0.062440116
45	0x3defd193	0.11709895
46	0x3cc5858f	0.024111537
47	0x3db0e1fd	0.08636854
48	0x3cbf5feb	0.023361167
49	0x3dad119a	0.08450623
50	0xbdbf6b9d	-0.093466975
51	0x3d4e6b6b	0.05039541
52	0x3e112142	0.14172843
53	0x3dcb5764	0.09928778
54	0x3e1e3865	0.154512
55	0x3da5eb24	0.0810149
56	0xbe2b6aef	-0.1674001
57	0x3ca6036d	0.020265305
58	0x3ddbb09b	0.10727044
59	0x3d4b3582	0.049611576
60	0xbd989596	-0.07450406
61	0xbd319919	-0.043358896
62	0xbd0f587d	-0.0349965
63	0x3da88334	0.0822815
64	0xbda5c715	-0.080946125
65	0x3d2a8ec9	0.041640077
66	0x3e269401	0.16267397
67	0x3c9d4771	0.019199105
68	0x3cfe9ebc	0.03108155
69	0x3d49709d	0.049179662
70	0xbd225e00	-0.039640427
71	0x3da75baa	0.081717804
72	0xbcde30d3	-0.02712289
73	0x3d6ece28	0.058302075
74	0xbcff7c87	-0.031187309
75	0x3e4a3637	0.19747244
76	0xbc8bd5b2	-0.017069671
77	0x3da76b14	0.081747204
78	0x3e061f61	0.13097908
79	0x3d379f91	0.04482991
80	0xbdb31aff	-0.087453835
81	0xbe07a998	-0.13248289
82	0xbe4a3a69	-0.19748844
83	0xbcf35768	-0.029704764
84	0xbd22aa01	-0.03971291
85	0xbe0cdcb1	-0.13756062
86	0xbd78c57b	-0.060735207
87	0xbdaa697b	-0.083209
88	0x3d66e639	0.0563719
89	0x3d942760	0.07234073
90	0xbc6a7d4a	-0.014312098
91	0x3d2e284b	0.042518895
92	0xbc2ca7ca	-0.010538051
93	0xbc9f316d	-0.019432748
94	0x3dd9f53d	0.106424786
95	0xbc2ce265	-0.010552024
96	0x3d5c4990	0.053781092
97	0xbc820df2	-0.01587579
98	0xbdc3d2cf	-0.09561693
99	0x3c171790	0.009221926
100	0x3e3a5d90	0.18199754
101	0xbdff5d1c	-0.12468931
102	0xbe11a444	-0.14222819
103	0x3d8e6042	0.069519535
104	0x3e22f058	0.15911996
105	0x3d91b1a5	0.07113961
106	0xbe31f048	-0.17376816
107	0xbdb8362a	-0.08994706
108	0x3e287f41	0.16454794
109	0x3d67afc9	0.056564126
110	0x3d712b45	0.058879156
111	0x3d6df2cb	0.058092874
112	0xbd782786	-0.060584567
113	0xbe663a76	-0.22483239
114	0xbdc12831	-0.09431494
115	0xbd27bc48	-0.040951043
116	0xbc1ab171	-0.009441719
117	0xbb6cd809	-0.003613951
118	0xbdbe0ad1	-0.09279407
119	0x3d8aa838	0.067703664
120	0xbbc9c517	-0.006157528
121	0xbc3a1eaf	-0.011359855
122	0xbd1b8da7	-0.037976887
123	0xbe92d372	-0.28676945
124	0x3e2d5b79	0.16929425
125	0xbccd2a1d	-0.025044495
126	0x3e21a759	0.15786494
127	0x3d8259ad	0.063647605
128	0xbc44295b	-0.011972751
129	0xbd1facf9	-0.03898332
130	0x3cc841ca	0.024445433
131	0xbe06f35d	-0.13178773
132	0x3dff1d5d	0.124567725
133	0x3cfd7ca3	0.03094322
134	0x3c21e5cc	0.009881448
135	0x3dae4901	0.08510018
136	0x3dc804a9	0.09766514
137	0x3dfe3cee	0.12413965
138	0xbd7e00ff	-0.06201267
139	0xbd234f4b	-0.03987054
140	0xbd9b3acb	-0.07579573
141	0xba7a8934	-0.0009557188
142	0xbe5fa15e	-0.218389
143	0xbd9cff28	-0.07665855
144	0x3d8c207f	0.06842136
145	0x3cea9d79	0.028639542
146	0xbd493dac	-0.04913108
147	0xbd632a53	-0.055460285
148	0xbc8cc044	-0.017181523
149	0xbd163d5c	-0.03667961
150	0xbd29ec9b	-0.04148541
151	0xbc8b74e0	-0.017023504
152	0xbd41b8e6	-0.047295474
153	0xbca7113e	-0.020393964
154	0xbd97b613	-0.07407775
155	0xbc7f9688	-0.015599854
156	0x3c8f8d3c	0.0175234
157	0x3e3d0f00	0.18462753
158	0x3c9f7c89	0.019468563
159	0x3d6fb699	0.058523748
160	0x3db9c574	0.09070864
161	0xbc76859f	-0.015046506
162	0xbdbe1d08	-0.09282881
163	0xbe3cb115	-0.18426926
164	0xbda10509	-0.078622885
165	0x3e127792	0.14303425
166	0xbe36a640	-0.17836857
167	0x3d62d0ea	0.055375017
168	0xbcbd3d7d	-0.023100609
169	0x3c08790a	0.008329639
170	0x3d91de1e	0.071224436
171	0x3d188308	0.037234336
172	0x3b56bfd7	0.0032768154
173	0xbb7d68c4	-0.0038667182
174	0x3c72dde7	0.014823413
175	0x3dea2fd8	0.11434907
176	0x3d1febe8	0.039043337
177	0xbdb58236	-0.088627264
178	0xbcface1a	-0.030615855
179	0x3d368586	0.04456093
180	0xbb7061b9	-0.003667934
181	0x3db4dcc3	0.088311695
182	0x3d6bc008	0.057556182
183	0x3cf8decb	0.030379673
184	0xbe195deb	-0.14977233
185	0x3e2e84ce	0.17042848
186	0x3ddb9d67	0.107233815
187	0xbd1ff6b0	-0.03905362
188	0xbd6a353e	-0.057179682
189	0x3dfbe4b3	0.1229948
190	0xbd07f393	-0.033191275
191	0xbe0538e0	-0.13009977
192	0xbbe01c7a	-0.006839332
193	0x3e8f9a4a	0.280474
194	0xbad9be1e	-0.0016612445
195	0x3dd1422d	0.102177
196	0x3d21a276	0.039461575
197	0x3d58c726	0.052924298
198	0x3d707e0f	0.05871397
199	0x3be5a0c9	0.0070076925
200	0xbc8cfd22	-0.017210547
201	0x3c4d8e63	0.012546155
202	0xbd341963	-0.043969523
203	0x3c087437	0.008328489
204	0x39c22a32	0.00037034
205	0xbd86b317	-0.065771274
206	0xbc34d3a6	-0.011036789
207	0xbd981c61	-0.07427288
208	0xbd44a890	-0.048012316
209	0x3dcf7ba7	0.10131007
210	0xbc3b8762	-0.011445852
211	0x3d9cf5f5	0.076641
212	0xbd2799b9	-0.040918086
213	0x3da6bb53	0.08141198
214	0x3dbc8c28	0.0920642
215	0x3d1e3576	0.038625203
216	0xbd0fdc7f	-0.03512239
217	0xbd306a44	-0.043070093
218	0x3d2164aa	0.03940264
219	0xbc08d7c2	-0.008352222
220	0xbd5aeafa	-0.053446747
221	0x3e0bba13	0.136452
222	0x3e4197a7	0.18905507
223	0x3c88b6b7	0.016688688
224	0xbd7e15b4	-0.062032416
225	0x3ddb7d66	0.10717277
226	0x3bd9e874	0.006650025
227	0x3e1bddb7	0.15221296
228	0xbe20a7b1	-0.15688969
229	0xbc28abe6	-0.01029489
230	0xbc495c7f	-0.012290119
231	0xbd17b203	-0.037035
232	0x3da029fb	0.07820507
233	0x3d73850d	0.05945306
234	0x3cd10a4e	0.025517609
235	0xbd4f9d91	-0.050687376
236	0x3e409976	0.1880854
237	0x3b5b79a3	0.003348925
238	0xbc5e27c6	-0.013559287
239	0xbe20e141	-0.15710928
240	0xbd7b9e7d	-0.061430443
241	0xbd92dfe4	-0.0717161
242	0x3c18ac28	0.009318389
243	0x3e23ab4a	0.1598331
244	0xbd7d0151	-0.061768834
245	0xbd67a753	-0.056556057
246	0xbdbaade6	-0.091152
247	0xbb8fc477	-0.004387434
248	0xbcbb90e7	-0.022896243
249	0x3c7244da	0.014786923
250	0x3cabbbb3	0.020963525
251	0x3d736358	0.059420913
252	0xbddd07ce	-0.10792504
253	0xbd3b9b21	-0.04580224
254	0x3d378826	0.044807576
255	0x3c0882e2	0.008331986

base.cnn.4.bias f4 [32]
0	0x391e86a0	0.00015118206
1	0xbce8c8de	-0.028416093
2	0xbc289994	-0.010290522
3	0xbd28e640	-0.04123521
4	0xbd9206c4	-0.07130197
5	0x3b278b75	0.00255653
6	0xbd0c0031	-0.03417987
7	0xbd53c8df	-0.051705237
8	0xbd9397ba	-0.07206674
9	0xbd25ad16	-0.04044827
10	0xbc14a9cd	-0.009073687
11	0xbd9f663f	-0.07783174
12	0xbd454896	-0.048164926
13	0xbd7dcee1	-0.061964873
14	0xbd0293c8	-0.031879216
15	0xbc71df20	-0.01476267
16	0xbc9e787b	-0.019344559
17	0xbcec4868	-0.02884312
18	0xbd72c6fb	-0.059271794
19	0xbd3ec910	-0.046578467
20	0xbd091889	-0.033470664
21	0xbd93050d	-0.07178698
22	0xbafa6016	-0.0019102122
23	0xbcf2736f	-0.029596059
24	0xbd7975cf	-0.060903367
25	0xbd62f1d2	-0.0554064
26	0xbd375ee4	-0.04476823
27	0xbc820baa	-0.015874702
28	0xbcc5cd33	-0.024145698
29	0xbb24835b	-0.0025102708
30	0xbc9bbc73	-0.019010758
31	0x3c6b75f4	0.014371384

base.cnn.7.weight f4 [64, 800]
0	0x3d8eb50e	0.06968127
1	0x3d019ce9	0.03164378
2	0x3d17b308	0.037035972
3	0xbdc126d4	-0.09431234
4	0xbd829a4a	-0.063770846
5	0xbc2a8bdb	-0.010409321
6	0xbd8c2212	-0.06842436
7	0xbdb2384e	-0.087021455
8	0x3cec4123	0.028839653
9	0x3c6cc2b4	0.014450718
10	0xbc0e6c25	-0.008692776
11	0x3db6d8c5	0.08928064
12	0x3d3f7161	0.046738986
13	0xbd090c1e	-0.03345882
14	0x3d0af388	0.033923656
15	0x3d312ef0	0.043257654
16	0x3d620bad	0.055186916
17	0x3d242455	0.04007371
18	0x3d83873f	0.064222805
19	0x3df01636	0.117229864
20	0x3e044569	0.12917103
21	0xbcf80faa	-0.030280907
22	0x3c625f66	0.01381669
23	0x3df858dd	0.12126324
24	0x3d5a8d32	0.05335731
25	0x3e048fa6	0.12945423
26	0xbd2c24cd	-0.042027283
27	0xbe35193d	-0.17685409
28	0xbd6af5bf	-0.057363268
29	0x3b804046	0.003913912
30	0xbd52beae	-0.051451378
31	0xbd4397f4	-0.047752336
32	0x3d86b694	0.06577793
33	0x3dec8cbd	0.11550281
34	0xbe06f384	-0.13178831
35	0xbd9a1bfb	-0.07524868
36	0xbd9927aa	-0.074782684
37	0x3ddd2a30	0.10799062
38	0x3e27bc1a	0.16380349
39	0xbd982b92	-0.074301854
40	0xbd879066	-0.06619339
41	0xbdb7f51a	-0.08982296
42	0xbe1a4e15	-0.15068848
43	0x3d27ea89	0.040995155
44	0x3ccb2ecd	0.02480259
45	0xbde7d46a	-0.11319812
46	0xbe47a208	-0.19495404
47	0x3bfd2880	0.0077257752
48	0x3d9f28ff	0.07771491
49	0x3ce35df9	0.02775477
50	0x3d035531	0.032063667
51	0xbd89258a	-0.06696613
52	0xbd063148	-0.032761842
53	0x3e01cda4	0.12676102
54	0x3c8ef449	0.017450469
55	0x3e8bd550	0.27311182
56	0xbdfe0564	-0.12403372
57	0x3d20d330	0.039263904
58	0x3de8e3db	0.11371585
59	0xbcd2ac4d	-0.025716925
60	0x3cd0d16c	0.025490485
61	0xbde79dea	-0.113094166
62	0xbda383fb	-0.07984158
63	0x3e1d3ed3	0.15355997
64	0xbd04366c	-0.032278463
65	0x3daaf885	0.083481826
66	0xbcbab56d	-0.022791589
67	0x3d93f346	0.07224135
68	0xbca55341	-0.0201813
69	0xbd714e94	-0.05891283
70	0x3da00e08	0.07815176
71	0x3c821bbd	0.015882367
72	0xbdde8f97	-0.10867231
73	0xbde67fb5	-0.11254827
74	0xbdb305a1	-0.08741308
75	0xbdb8f06a	-0.0903023
76	0xbdeb7e7c	-0.11498734
77	0xbd8aa3e0	-0.06769538
78	0xbe1823eb	-0.14857452
79	0xbe041d2c	-0.12901753
80	0xbd32c3d4	-0.043643788
81	0x3e2a8caf	0.16655229
82	0x3e17fcb4	0.14842492
83	0xbceb3f6e	-0.02871677
84	0x3dbcfc6c	0.09227833
85	0x3d92b985	0.07164291
86	0xbd538ecc	-0.051649854
87	0xbd206389	-0.039157424
88	0xbc80cf08	-0.01572372
89	0xbda1d9df	-0.07902884
90	0x3d78963a	0.060690142
91	0xbd925d1c	-0.071466655
92	0xbc8b88e9	-0.017033057
93	0x3d287bfd	0.04113387
94	0xbcdc0826	-0.026859354
95	0xbd493ab2	-0.04912824
96	0xbd0670f5	-0.032822568
97	0x3e6764fc	0.22597116
98	0xbd9d15f9	-0.076702066
99	0xbd2651aa	-0.040605225
100	0x3dba41dc	0.09094593
101	0x3c3c4297	0.011490486
102	0x3dfde0b5	0.12396375
103	0x3c09558e	0.008382214
104	0x3c747d8b	0.01492251
105	0x3cb3ba4d	0.021939421
106	0x3df1cadd	0.11806271
107	0xbdc87c97	-0.097893886
108	0xbdd7fd0b	-0.10546311
109	0x3e637a18	0.22214544
110	0x3dddb1ac	0.10824904
111	0x3e06cc6d	0.1316392
112	0x3b87435b	0.0041279024
113	0x3c44c557	0.01200994
114	0xbd9d464d	-0.076794244
115	0x3c114575	0.0088666575
116	0xbd3bd894	-0.045860842
117	0xbda85078	-0.08218473
118	0x3dc1b8e2	0.09459092
119	0xbe3972c2	-0.18110183
120	0xbe0efe1d	-0.13964124
121	0xbcbf44be	-0.023348209
122	0x3de5e174	0.112246424
123	0xbd352ab7	-0.04423019
124	0xbc6517d1	-0.013982729
125	0xbdf5f8c3	-0.12010338
126	0xbe0f3f7a	-0.13989058
127	0x3cd782d1	0.026307495
128	0x3da7eceb	0.081994854
129	0x3cfefd1b	0.03112655
130	0xbc356ce8	-0.011073329
131	0xbd4bf7d9	-0.049796913
132	0x3d900bbc	0.07033488
133	0x3d6bbceb	0.057553213
134	0x3ca39b1d	0.019971425
135	0xbddc0e4e	-0.10744916
136	0x3c06879e	0.008211045
137	0xbe39c24c	-0.18140525
138	0xbd8289d0	-0.06373942
139	0xbdac4238	-0.08411068
140	0x3cae9140	0.021309495
141	0xbcfc2fa5	-0.030784437
142	0x3dba4e00	0.090969086
143	0xbc3eab3d	-0.011637506
144	0xbda666ca	-0.08125074
145	0xbcc271a2	-0.023735825
146	0x3d4eccb1	0.050488178
147	0x3dfa84a3	0.1223233
148	0xbcf49861	-0.029857816
149	0xbd38aa5b	-0.04508434
150	0xbe2adea5	-0.16686495
151	0xbd68a429	-0.05679718
152	0xbde5a15c	-0.112124175
153	0xbc1496d5	-0.009069164
154	0xbdf3c433	-0.119026564
155	0xbde61e7f	-0.112362854
156	0x3cb568ff	0.022144793
157	0x3d8e98a4	0.06962708
158	0x3e42f762	0.19039682
159	0xbdc8d22d	-0.09805713
160	0xbe2c8d04	-0.16850668
161	0xbd461531	-0.048360053
162	0x3c9cc9a7	0.019139124
163	0xbe2ab574	-0.16670781
164	0x3d1a781f	0.037712213
165	0x3ce468fc	0.027882092
166	0x3df78fb8	0.12087959
167	0x3d2d28f6	0.04227539
168	0x3e37f207	0.1796342
169	0x3d828b63	0.06374242
170	0x3c872a9c	0.01649981
171	0x3aaf0cb2	0.0013355224
172	0xbd275ff2	-0.040862985
173	0xbda857cf	-0.08219873
174	0xbc4c0ff1	-0.012454973
175	0x3e3fad4b	0.1871845
176	0x3e247bff	0.16062926
177	0x3d19320b	0.03740124
178	0xbe172fe5	-0.14764364
179	0x3d8bb6bc	0.06821963
180	0x3e2b2c72	0.16716173
181	0xbcb97de3	-0.022643035
182	0xbc7d3f08	-0.015456922
183	0xbe12a39f	-0.14320229
184	0x3e5b2996	0.21402583
185	0xbbaeaea7	-0.005330879
186	0x3e004a00	0.12528229
187	0xbde9c6a9	-0.114148445
188	0xbcbcbfcd	-0.023040676
189	0x3dfe24b6	0.12409346
190	0x3dda85ee	0.10670076
191	0xbdae66e6	-0.0851572
192	0x3d96a7f4	0.07356253
193	0x3dd88226	0.10571699
194	0x3c5e77ad	0.013578338
195	0x3c81bb24	0.015836306
196	0xbdedba76	-0.1160783
197	0xbda2525e	-0.079258665
198	0xbd92f7ba	-0.07176156
199	0xbddc98a3	-0.10771301
200	0xbd27cd03	-0.040967
201	0x3e11373a	0.14181224
202	0xbd7d60d6	-0.061859928
203	0xbe480013	-0.19531278
204	0xbde820ac	-0.11334357
205	0xbe4c6a3e	-0.19962403
206	0xbca00a7a	-0.019536246
207	0x3d1528ff	0.03641605
208	0xbcad1416	-0.021127742
209	0x3df9170a	0.121625975
210	0xbda5275c	-0.08064148
211	0x3ddaf7db	0.10691806
212	0xbc8b5c4f	-0.01701179
213	0xbe046217	-0.12928043
214	0xbe296bb6	-0.16544995
215	0xbda84fac	-0.08218321
216	0xbd8a3965	-0.067492284
217	0xbbf82bab	-0.007573565
218	0x3c62e558	0.013848625
219	0x3d32c749	0.043647084
220	0xbc049982	-0.00809324
221	0x3b89c0b7	0.0042038816
222	0xbc6efb16	-0.014586231
223	0xbe21b77d	-0.15792651
224	0x3e3a0a0c	0.18167895
225	0x3b0ace54	0.002118011
226	0xbdf3b284	-0.118992835
227	0xbc7f1c88	-0.015570767
228	0x3dfd77a5	0.12376336
229	0xbdb4a83e	-0.08821152
230	0x3dd023e2	0.10163094
231	0x3e13d03a	0.14434901
232	0xbe34010c	-0.17578524
233	0x3dab1cff	0.0835514
234	0x3c8dbc06	0.01730157
235	0xbe2ba5ae	-0.1676242
236	0x3c89268a	0.01674201
237	0xbdbecf52	-0.09316887
238	0xbe078d19	-0.13237418
239	0x3dbb9d5f	0.091608755
240	0xbd190bec	-0.037364885
241	0xbe088869	-0.13333286
242	0xbdc59a8b	-0.09648617
243	0x3d8d8dbc	0.06911799
244	0xbe3ee2bd	-0.18641181
245	0xbd9b821a	-0.07593174
246	0x3d74095f	0.05957925
247	0x3e19defa	0.15026465
248	0x3de7ea3e	0.11323975
249	0xbaa502e5	-0.0012589364
250	0xbdfc889b	-0.12330743
251	0xbe35e01e	-0.17761275
252	0xbe2cb6c2	-0.16866592
253	0xbd00b12d	-0.031418968
254	0x3d1f239a	0.03885231
255	0xbe169fd8	-0.14709413

base.cnn.7.bias f4 [64]
0	0x3c130109	0.008972415
1	0xbd5856fb	-0.052817326
2	0xbd823166	-0.06357078
3	0x3b74f1b3	0.003737551
4	0xbd858db6	-0.0652117
5	0xbd004516	-0.031315885
6	0xbda0365c	-0.07822868
7	0xbcaaec96	-0.020864766
8	0x3b23f60e	0.0025018486
9	0xbd24c991	-0.04023129
10	0xbddee38f	-0.10883247
11	0xbd4f5a39	-0.050623152
12	0x3d017b3d	0.03161167
13	0x3c8b21eb	0.016983947
14	0xbd09ebce	-0.033672146
15	0xbd39d421	-0.045368318
16	0xbcccb7f5	-0.024990061
17	0xbb64cabd	-0.003491088
18	0xbc97130f	-0.018441705
19	0x38871103	6.44047e-05
20	0xbce4416c	-0.027863227
21	0xbc356062	-0.011070343
22	0xbd088fd6	-0.033340298
23	0xbc8f215b	-0.01747196
24	0xbb249d2d	-0.0025118098
25	0xbcbb2a80	-0.022847414
26	0xbd68e72b	-0.056861084
27	0xbdba4862	-0.09095837
28	0xb954ffe3	-0.00020313221
29	0x3b58648f	0.0033018922
30	0xbd7c4c3f	-0.06159615
31	0x3bb125f3	0.005406135
32	0x3c8f9e55	0.017531553
33	0x3c7910c3	0.01520175
34	0x3b4632e5	0.0030242738
35	0xbd82f2e2	-0.063939825
36	0xbc06e765	-0.00823388
37	0x3c32d415	0.010914822
38	0xbd030eef	-0.031996664
39	0x3c1b7757	0.009488902
40	0xbd646ed5	-0.05576976
41	0xbd49420c	-0.049135253
42	0x3ca9d89a	0.020733166
43	0xbdb7e5ac	-0.08979353
44	0xbc131cc0	-0.0089790225
45	0xbcb3be95	-0.021941463
46	0x3ce96068	0.028488353
47	0xbcd95735	-0.026530841
48	0xba8efbda	-0.0010908798
49	0x3a30aaa2	0.00067392935
50	0x3cec4bf9	0.02884482
51	0xbcdfb27c	-0.027306788
52	0xbd0f703e	-0.035019152
53	0x3c5ea2c4	0.013588611
54	0xbbeae5e8	-0.0071685202
55	0xbd7007df	-0.058601256
56	0x398475ac	0.00025264674
57	0x3c943993	0.01809386
58	0xbd03cd2e	-0.032178096
59	0xbccb2a98	-0.024800584
60	0xbd9209c6	-0.071307704
61	0xbd56d57c	-0.05244969
62	0xbc327e3b	-0.0108943535
63	0xbcad71fb	-0.021172514

base.cnn.9.weight f4 [64]
0	0x3f803e6b	1.0019048
1	0x3f875c8c	1.0575118
2	0x3f764336	0.96196306
3	0x3f741285	0.9534076
4	0x3f6991c7	0.91238064
5	0x3f91b7c8	1.138421
6	0x3f80cdb2	1.0062773
7	0x3f6f05a7	0.93368
8	0x3f7ac5dd	0.97958165
9	0x3f7c6b0f	0.9860086
10	0x3f6b7c26	0.9198631
11	0x3f803914	1.0017419
12	0x3f656361	0.89604765
13	0x3f7c53e3	0.985655
14	0x3f859378	1.0435629
15	0x3f69e6ee	0.91367996
16	0x3f8591de	1.043514
17	0x3f84aa68	1.0364504
18	0x3f867a49	1.0506068
19	0x3f80606b	1.0029424
20	0x3f7c86d3	0.98643225
21	0x3f7e4f67	0.9933991
22	0x3f8212d0	1.0161991
23	0x3f7a3fed	0.97753793
24	0x3f7e5935	0.9935487
25	0x3f7a4a81	0.97769934
26	0x3f6f13e3	0.9338972
27	0x3f7afbc8	0.9804044
28	0x3f740e1c	0.9533403
29	0x3f67f84d	0.9061325
30	0x3f72f52d	0.9490536
31	0x3f81cb91	1.0140249
32	0x3f81f59d	1.015308
33	0x3f7d65b0	0.9898329
34	0x3f8c98db	1.0984148
35	0x3f84c9f5	1.0374132
36	0x3f88fd0c	1.0702224
37	0x3f6b3753	0.91881293
38	0x3f76263b	0.96152085
39	0x3f8527fc	1.0402827
40	0x3f848ae3	1.0354885
41	0x3f7d3b44	0.9891856
42	0x3f8ab1e5	1.0835539
43	0x3f7511b3	0.9573013
44	0x3f842c79	1.0326072
45	0x3f743058	0.95386267
46	0x3f8d09aa	1.1018574
47	0x3f77ecc9	0.9684568
48	0x3f8a8a36	1.0823429
49	0x3f8979af	1.074026
50	0x3f85d552	1.0455725
51	0x3f859062	1.0434687
52	0x3f83d80f	1.0300311
53	0x3f8eb692	1.1149466
54	0x3f71eafa	0.9449917
55	0x3f9294ae	1.1451623
56	0x3f8b383a	1.0876534
57	0x3f86c10f	1.0527667
58	0x3f77c7bd	0.9678915
59	0x3f855d82	1.0419161
60	0x3f850bde	1.0394247
61	0x3f6c5c92	0.9232875
62	0x3f72e8f8	0.9488673
63	0x3f7af702	0.98033154

base.cnn.9.bias f4 [64]
0	0x3d4ef247	0.050524022
1	0xbbe9debd	-0.007137148
2	0x3d18a901	0.03727055
3	0x3946d2e5	0.00018961316
4	0x3dd85081	0.1056223
5	0xbdabbe1c	-0.0838587
6	0xbcf42c49	-0.029806273
7	0x3cf29d19	0.029615926
8	0x3d462f02	0.048384674
9	0xbd7c4fa8	-0.061599404
10	0x3db627af	0.08894288
11	0xbdb8e36a	-0.09027751
12	0x3e07faa0	0.132792
13	0x3e074b90	0.13212419
14	0x3c928303	0.017884737
15	0x3da4676e	0.0802754
16	0x3cf5fbaa	0.03002723
17	0xbd0ac736	-0.03388139
18	0x3d85f8c0	0.06541586
19	0xbcc5fee5	-0.024169395
20	0x3c162dca	0.00916619
21	0x3d91e9de	0.07124685
22	0x3cc504a8	0.024050072
23	0x3de9440b	0.11389931
24	0xb6eb1910	-7.0064634e-06
25	0x3da76b48	0.08174759
26	0xbd848f76	-0.064726755
27	0x3c861313	0.016366517
28	0xbc437819	-0.011930489
29	0x3db59902	0.088670745
30	0xbcf1939c	-0.029489331
31	0x3dcb436f	0.09924971
32	0x3cdb3731	0.026759716
33	0xbb6ae473	-0.0035841733
34	0xbcbfb24f	-0.023400454
35	0xbd3dd429	-0.04634491
36	0x3d8af28b	0.06784543
37	0x3bd74ea1	0.0065706526
38	0x3e3b018f	0.18262313
39	0x3d5cf75e	0.053946845
40	0xbc9bb6db	-0.01900809
41	0x3df2526c	0.11832127
42	0xbb11304e	-0.0022154036
43	0x3d4b5631	0.049642745
44	0x3c0c094e	0.00854714
45	0x3db42c43	0.08797505
46	0x3bb59c74	0.0055423323
47	0x3dd983ae	0.10620819
48	0xbd0fa33b	-0.035067778
49	0xbc29af4b	-0.0103567345
50	0x3db1fd0f	0.08690845
51	0x3b90bb71	0.004416876
52	0x3cd55f6b	0.026046475
53	0x3c57d1cc	0.013172578
54	0x3d330aa5	0.043711323
55	0xbe06f0e5	-0.13177831
56	0xbda50d83	-0.08059218
57	0xbc72537c	-0.014790412
58	0x3d0f05c2	0.0349176
59	0xbde46e32	-0.111538306
60	0xbd1f2f4c	-0.038863465
61	0x3de9b801	0.11412049
62	0x3bd69f49	0.00654975
63	0x3e4c3c7d	0.1994495

base.cnn.10.weight f4 [64, 64]
0	0xbd762623	-0.060094964
1	0x3d074322	0.033023007
2	0x39f3a3ec	0.00046470703
3	0xbdb1d45e	-0.08683084
4	0xbe3a0e66	-0.18169555
5	0xbf2269c5	-0.6344264
6	0x3d824a9d	0.063618876
7	0x3d73e6a1	0.059546117
8	0x3cf11d20	0.029432833
9	0xbe12e25f	-0.14344166
10	0x3c1dee98	0.009639405
11	0x3e807fdc	0.2509755
12	0xbe6689ad	-0.22513457
13	0x3d0f0470	0.03491634
14	0x3e4d8bf8	0.20072925
15	0x3d7dbd39	0.061948035
16	0x3e1f31f4	0.155464
17	0x3c73bbf9	0.014876359
18	0xbda09611	-0.07841123
19	0x3e874f18	0.2642753
20	0x3f195c27	0.5990624
21	0xbe72ecfa	-0.23723212
22	0x3dd41a3a	0.10356565
23	0x3d4c8484	0.049931064
24	0x3e21e3f7	0.15809618
25	0x3cc3b9a0	0.023892224
26	0x3d1e2dc2	0.038617857
27	0x3e1419f9	0.14463033
28	0x3e192108	0.14954007
29	0x3c75c086	0.014999514
30	0x3e4db671	0.20089127
31	0xbe47184e	-0.19442865
32	0xba0eb493	-0.0005443778
33	0xbda425b7	-0.08015006
34	0xbe23c25c	-0.15992111
35	0x3cd8b01c	0.026451163
36	0xbe689a81	-0.22715189
37	0x3d0248fd	0.03180789
38	0xbe2da8f5	-0.16958983
39	0xbecc2386	-0.39870852
40	0x3e314f2f	0.17315362
41	0x3c837fb5	0.016052106
42	0xbe494712	-0.19656017
43	0xbb0d9945	-0.0021606248
44	0x3dd5694f	0.10420477
45	0xbd980e7b	-0.07424637
46	0x3e7f675c	0.24941772
47	0x3df8bf85	0.121459045
48	0xbe5803ad	-0.21095152
49	0xbe3c0071	-0.18359543
50	0xbd1145ec	-0.035467073
51	0x3cc62374	0.024186827
52	0x3db4126f	0.087925784
53	0xbe2dbcf1	-0.16966607
54	0xbd4b0e51	-0.0495742
55	0x3eabbab4	0.3354088
56	0xbe7e8994	-0.2485717
57	0x3e46b106	0.19403467
58	0xbd438d41	-0.047742132
59	0x39485836	0.00019106347
60	0xbdae4c09	-0.08510596
61	0xbecd39c1	-0.40083125
62	0xbdb5cae6	-0.088765904
63	0xbe951d86	-0.29124087
64	0x3ea71904	0.32636273
65	0x3b97d5cd	0.0046336413
66	0x3e56ba69	0.20969547
67	0xbee59936	-0.44843453
68	0x3ca56ef9	0.020194517
69	0xbdba0d89	-0.09084613
70	0x3c6d8f7e	0.014499543
71	0xbe4a842a	-0.19776979
72	0xbc809946	-0.015698086
73	0x3da4b5f8	0.0804252
74	0xbde080fd	-0.109621026
75	0x3e4b82f6	0.19874176
76	0xbd8fb11a	-0.07016201
77	0x3ea22a86	0.31673068
78	0xbe188ca8	-0.14897406
79	0x3d60425d	0.05475079
80	0x3dd44d4a	0.10366304
81	0xbb86f7b2	-0.004118883
82	0x3e7f7cb1	0.2494991
83	0xbe359acc	-0.17734832
84	0x3e8b440f	0.27200362
85	0x3ea0a633	0.313768
86	0xbd2ba9ad	-0.041909862
87	0xbdbb571d	-0.09147475
88	0xbd247ed7	-0.040160026
89	0xbd3ef145	-0.04661681
90	0x3e8dfeb9	0.277334
91	0xbde82fb1	-0.113372214
92	0xbdab5571	-0.08365906
93	0x3e1afb61	0.15134956
94	0x3ddd68ee	0.108110294
95	0x3c06e428	0.008233108
96	0x3d76034a	0.06006173
97	0x3dabb745	0.08384565
98	0x3ddccc23	0.107811235
99	0xbd944a33	-0.07240715
100	0x3e64bdca	0.22338024
101	0x3e7a4438	0.24440086
102	0x3e1c4d66	0.152639
103	0x3e027c77	0.12742792
104	0xbdb3f213	-0.08786406
105	0xbc89ad5f	-0.016806303
106	0xbe4df4b6	-0.20112881
107	0x39bd5591	0.0003611264
108	0x3c237717	0.009977124
109	0x3e6a983a	0.22909632
110	0x3ed32bed	0.4124445
111	0x3dbef646	0.09324317
112	0x3e82c9c6	0.25544566
113	0xbd990d4f	-0.074732415
114	0x3e506179	0.20349683
115	0xbebdb5d8	-0.37052798
116	0x3e055411	0.1302035
117	0x3f168514	0.5879681
118	0xbf0ca677	-0.54941505
119	0xbced16e0	-0.028941572
120	0x3e4ac1f2	0.19800547
121	0x3e87e355	0.26540628
122	0xbd93d2e9	-0.07217962
123	0x3e5b81ad	0.21436186
124	0x3e875cbc	0.26437938
125	0x3da21c2f	0.07915532
126	0xbe14c3ba	-0.14527789
127	0xbe787c60	-0.24266195
128	0xbdb22fe0	-0.08700538
129	0x3dad80fb	0.08471867
130	0xbddc9d48	-0.107721865
131	0xbde17b19	-0.11009807
132	0x3cb4112f	0.02198085
133	0x3ea06175	0.31324354
134	0x3d9b2347	0.07575088
135	0x3e95b2da	0.29238015
136	0xbf15b6b8	-0.5848193
137	0x3e0fd0eb	0.1404454
138	0x3e366c5f	0.17814778
139	0x3dabec5c	0.08394691
140	0xbe11d84b	-0.14242665
141	0x3e62f123	0.22162299
142	0x3edb9680	0.4288826
143	0x3da80b86	0.08205323
144	0xbc8f1905	-0.017467985
145	0xbe5ce5f0	-0.21572089
146	0x3dac4920	0.08412385
147	0x3d104f1a	0.035231687
148	0xbe232e08	-0.15935528
149	0x3e0b6638	0.13613212
150	0xbab001ec	-0.0013428307
151	0x3cbebd73	0.023283696
152	0xbf05b765	-0.5223296
153	0xbe60a368	-0.21937335
154	0xbdd35ee0	-0.1032083
155	0x3e37a9b6	0.17935833
156	0xbe1084b0	-0.14113116
157	0xbe16b5b2	-0.14717749
158	0x3c06798f	0.008207693
159	0x3e0105ff	0.12599944
160	0xbcbf63b6	-0.023362976
161	0xbdc6803a	-0.09692426
162	0xbec2bf43	-0.38036546
163	0x3e3075ba	0.17232409
164	0xbd97a1c8	-0.07403904
165	0xbee7affd	-0.45251456
166	0xbddee622	-0.10883738
167	0x3d9dc2b8	0.07703155
168	0xbd06024a	-0.032717027
169	0xbd864314	-0.06555763
170	0xbefa6821	-0.4890757
171	0x3d0aaaad	0.033854175
172	0xbd837277	-0.06418317
173	0xbe9eded8	-0.3102939
174	0x3d9ddcc9	0.07708127
175	0x3db12ace	0.086507425
176	0xbe9edcf6	-0.31027955
177	0x3e9dca10	0.30818224
178	0x3d2deb37	0.042460646
179	0x3de725d8	0.11286515
180	0x3e1ac6a3	0.15114836
181	0x3dc8cbbe	0.09804486
182	0xbdb90376	-0.09033863
183	0xbe6ee87b	-0.23330872
184	0xbd46d168	-0.04853955
185	0x3c80ebe7	0.015737487
186	0x3e962bad	0.29330197
187	0x3e0e872b	0.1391875
188	0x3cd46534	0.025927164
189	0xbe316785	-0.17324646
190	0x3dbcab52	0.09212364
191	0xbd8a05a5	-0.06739358
192	0xbdb2f257	-0.08737629
193	0xbddcf1a2	-0.10788275
194	0x3cdecb1d	0.027196461
195	0x3e5b2929	0.2140242
196	0xbe02977a	-0.12753096
197	0x3e7e1796	0.24813685
198	0xbe17e525	-0.14833505
199	0x3e5320df	0.20618008
200	0xbe39c95c	-0.18143219
201	0x3e846cd0	0.25864267
202	0x3e782d52	0.24236038
203	0x3cd91d2b	0.026503166
204	0xbe15434a	-0.1457645
205	0x3e2b99be	0.16757867
206	0x3dba68fc	0.091020554
207	0x3e8a207c	0.2697791
208	0x3dbe8795	0.09303204
209	0xbdf8f94a	-0.12156923
210	0x3e97cecf	0.2964997
211	0x3d87bf3f	0.06628274
212	0xbe80a5d2	-0.2512651
213	0xbe8e2df5	-0.27769437
214	0x3e316321	0.17322971
215	0x3dbbd736	0.091719076
216	0xbe06f0dd	-0.1317782
217	0x3e2e0af3	0.16996364
218	0xbeca795a	-0.3954571
219	0xbe269d57	-0.16270958
220	0xbda89c20	-0.082329035
221	0x3e3ee2d0	0.1864121
222	0xbdcff420	-0.10153985
223	0x3e04b0fc	0.12958139
224	0x3e18a47d	0.14906497
225	0x3e7fff5d	0.24999757
226	0x3ddc337b	0.107520066
227	0xbe36c89f	-0.17849968
228	0x3cce294f	0.025166182
229	0x3e08cbe4	0.13359028
230	0x3dc7b99f	0.09752201
231	0xbe628cbd	-0.22124
232	0xbe3c456f	-0.18385862
233	0xbdd4fd08	-0.103998244
234	0x3e3ab536	0.18233189
235	0xbe60d8f0	-0.21957755
236	0x3e80e6f1	0.25176194
237	0x3ded99fe	0.11601637
238	0xbe528834	-0.2055977
239	0x3eed183e	0.46307558
240	0xbbb5f8f0	-0.0055533573
241	0xbdb13c59	-0.086540885
242	0x3d974161	0.07385517
243	0xbc6c7f9d	-0.014434722
244	0x3dd75560	0.10514331
245	0x3e450794	0.19241172
246	0x3e90c93d	0.28278533
247	0x3e41b6de	0.18917415
248	0x3dd9efef	0.10641467
249	0x3ea4f374	0.3221699
250	0x3ea57924	0.32318985
251	0xbe966ee2	-0.29381472
252	0x3e3b595c	0.18295807
253	0xbdaeddf5	-0.08538429
254	0x3e784d62	0.24248269
255	0xbdf7b570	-0.12095153

base.cnn.10.bias f4 [64]
0	0xbd7331e8	-0.059373766
1	0xbc23b85e	-0.009992687
2	0xbdc0483a	-0.09388776
3	0x3d1a9651	0.03774101
4	0xbdac8153	-0.08423104
5	0xbc1c1b93	-0.009528059
6	0xbcacd6ba	-0.021098483
7	0x3d13f423	0.0361215
8	0xbd6a0935	-0.057137687
9	0xbcffdeeb	-0.031234225
10	0xbe1e3463	-0.15449671
11	0x3cc87704	0.024470814
12	0x3c24fe58	0.010070406
13	0xbcc503c1	-0.024049642
14	0xbca77e1d	-0.020445878
15	0xbd8a681c	-0.067581385
16	0x3ca9800e	0.020690944
17	0x3d067d6b	0.03283445
18	0x3cac777e	0.021053072
19	0xbd4e9991	-0.05043942
20	0xbe12ee47	-0.14348708
21	0xbb39f7ce	-0.0028376463
22	0x3c455649	0.012044498
23	0xbe0f69a5	-0.14005144
24	0x3c9f82b3	0.019471502
25	0xbd7e399a	-0.062066652
26	0xbdd0b628	-0.101909935
27	0xbdf20af5	-0.11818496
28	0xbd82763c	-0.06370208
29	0xbd485cab	-0.0489165
30	0x3d6a03bc	0.057132468
31	0xbc48943f	-0.012242376
32	0x3d6031da	0.054735042
33	0xbd6c2740	-0.05765462
34	0xbdf2be6c	-0.11852726
35	0xbd9cf43a	-0.0766377
36	0xbb66f02b	-0.0035238366
37	0xbe043e83	-0.12914471
38	0xbdef49dc	-0.116840094
39	0xbe10dc46	-0.14146528
40	0xbbacdb78	-0.005275186
41	0xbd1456df	-0.03621566
42	0xbdaf11d9	-0.08548326
43	0xbdf3406c	-0.11877522
44	0xbd07d500	-0.033162117
45	0xbc8add2d	-0.016951168
46	0xbd37e4f0	-0.044896066
47	0xbd5d4007	-0.05401614
48	0xbc81d377	-0.015847905
49	0xbcedbdd3	-0.02902118
50	0xbc3d84b2	-0.011567282
51	0xbdc29bee	-0.095023975
52	0xbb8e7613	-0.0043475716
53	0xbd7d1ccc	-0.06179504
54	0xbd7cb354	-0.061694458
55	0x3cbf40d6	0.023346346
56	0xbe3c63bc	-0.1839742
57	0xbe58990d	-0.21152134
58	0xbdbfcb20	-0.09364915
59	0xbdc37d3d	-0.09545372
60	0xbdda1b63	-0.10649755
61	0xbb7bfeb5	-0.0038451378
62	0xbd6bd04d	-0.057571698
63	0xbd2d8afc	-0.042368874

base.cnn.12.weight f4 [64]
0	0x3f861a59	1.0476791
1	0x3f81ae41	1.0131303
2	0x3f888c0a	1.0667737
3	0x3f6322bd	0.8872488
4	0x3f844308	1.0332956
5	0x3f864e00	1.0492554
6	0x3f7812de	0.9690379
7	0x3f81245e	1.0089223
8	0x3f8d6620	1.1046791
9	0x3f858295	1.0430475
10	0x3f731d4c	0.9496658
11	0x3f893c95	1.0721613
12	0x3f6a9948	0.9164014
13	0x3f8afbc4	1.0858083
14	0x3f7a5b41	0.9779549
15	0x3f86a6f2	1.0519698
16	0x3f83b0eb	1.0288366
17	0x3f8d9f0c	1.1064162
18	0x3f798ffe	0.9748534
19	0x3f80d78e	1.0065782
20	0x3f52acd2	0.8229495
21	0x3f8c1156	1.094279
22	0x3f7af325	0.9802726
23	0x3f889e31	1.0673276
24	0x3f935da0	1.1512947
25	0x3f82160e	1.016298
26	0x3f8858ed	1.0652138
27	0x3f806bc8	1.0032892
28	0x3f8467e3	1.0344204
29	0x3f844810	1.0334492
30	0x3f7a731c	0.9783189
31	0x3f85e113	1.0459312
32	0x3f7f0f16	0.99632394
33	0x3f745f6c	0.954581
34	0x3f7bf36d	0.98418313
35	0x3f83a729	1.0285388
36	0x3f721ee1	0.9457837
37	0x3f5e471f	0.8682727
38	0x3f82133e	1.0162122
39	0x3f3d8fa7	0.7404732
40	0x3f8ee159	1.1162521
41	0x3f6ecb5c	0.9327905
42	0x3f8154d2	1.010401
43	0x3f76860b	0.96298283
44	0x3f6f069c	0.9336946
45	0x3f837880	1.0271149
46	0x3f877f77	1.0585774
47	0x3f665af5	0.8998254
48	0x3f898204	1.0742803
49	0x3f8139dc	1.0095782
50	0x3f7b8521	0.98250014
51	0x3f737af3	0.9510948
52	0x3f7ed70e	0.995469
53	0x3f8061cd	1.0029846
54	0x3f885170	1.0649853
55	0x3f84278d	1.032457
56	0x3f8aff33	1.0859131
57	0x3f58673d	0.8453253
58	0x3f804d28	1.0023546
59	0x3f8f8402	1.121216
60	0x3f7db9e7	0.9911179
61	0x3f69d583	0.9134142
62	0x3f8612cd	1.0474488
63	0x3f6714cd	0.90266114

base.cnn.12.bias f4 [64]
0	0xbd47855d	-0.04871117
1	0x3cf45217	0.0298243
2	0x3cd35702	0.025798324
3	0xbd42c0c6	-0.047547124
4	0xbcb38861	-0.021915616
5	0x3d959283	0.073033355
6	0xbd5dcfae	-0.054153137
7	0x3e0ddce6	0.13853797
8	0xbdaa0a3c	-0.08302733
9	0x3d9a6862	0.07539441
10	0xbda6dd3a	-0.08147664
11	0x3dcba769	0.0994404
12	0x3e5d6727	0.21621381
13	0x3db19c70	0.08672416
14	0xbcb6321a	-0.022240687
15	0x3c963403	0.018335348
16	0xbc224b8b	-0.009905706
17	0x3e1bed7d	0.15227313
18	0xba91d425	-0.0011125846
19	0x3d82e73a	0.06391759
20	0xbd372c09	-0.04471973
21	0xbc83b426	-0.016077112
22	0x3dad8f27	0.0847457
23	0xbd8dbe30	-0.06921041
24	0xbdbc8038	-0.09204143
25	0xba8c1699	-0.0010687887
26	0x3c83f658	0.016108677
27	0xbd9d2656	-0.076733276
28	0x3d397b51	0.04528362
29	0x3dcaf3e9	0.099098034
30	0x3bc0ea92	0.005887338
31	0xbd4dc288	-0.050234348
32	0xbbfb6b3f	-0.007672697
33	0x3deef8c0	0.11668539
34	0xbdd60c60	-0.10451579
35	0x3d26dc02	0.04073716
36	0x3db890fc	0.090120286
37	0x3c90d382	0.01767898
38	0xbda7c04f	-0.08190977
39	0x3e139be5	0.14414938
40	0x3d3bb2a8	0.045824677
41	0x3dcafdee	0.099117145
42	0x3d072895	0.032997686
43	0xbd28fb29	-0.04125515
44	0x3da355a7	0.07975321
45	0x3c8741d2	0.016510878
46	0xbcce3ad0	-0.025174528
47	0x3e099224	0.13434654
48	0xbcf0b114	-0.029381312
49	0xbd5a1157	-0.053239193
50	0x3ce0db8b	0.027448436
51	0x3db71762	0.08940007
52	0xbd01b562	-0.03166712
53	0x3d4d98c1	0.050194506
54	0xbcbb3de4	-0.02285666
55	0x3e0963aa	0.13416925
56	0xbdcd4adf	-0.10024046
57	0x3dbab200	0.09115982
58	0xbcccf8a1	-0.0250209
59	0x3d0d51ff	0.034502026
60	0x3d7d3ba9	0.061824474
61	0x3de27622	0.11057688
62	0xbd88c603	-0.06678393
63	0xbbcd1241	-0.0062582796
