CRL_human_AI_overcooked/human_models/model_random1/actor_best_r10.pt (torch, 419411 bytes, 20 tensors)

base.cnn.0.weight f4 [32, 20, 3, 3]
0	0xbcfb28b4	-0.030659057
1	0xbd4fffe1	-0.050781135
2	0xbd1e917f	-0.038712975
3	0x3e66d7ac	0.2254321
4	0xbe0854a9	-0.13313545
5	0xbe252182	-0.16126063
6	0x3c3e0b79	0.011599415
7	0x3e448cf7	0.19194399
8	0xbd981a26	-0.074268624
9	0xbda63f44	-0.08117536
10	0x3e506339	0.2035035
11	0xbdfd608e	-0.12371932
12	0x3dafd7a6	0.085860536
13	0x3c9ef4f1	0.019403907
14	0xbda20551	-0.0791117
15	0xbd46755e	-0.048451774
16	0x3e49f337	0.19721685
17	0xbe926d66	-0.2859909
18	0xbdc9d2a8	-0.098546326
19	0xbd8481a8	-0.064700425
20	0x3dbb3d69	0.091425724
21	0xbda78935	-0.08180467
22	0xbe2bcc64	-0.16777188
23	0xbda95c67	-0.082695775
24	0x3e529757	0.20565544
25	0xbd90bf70	-0.07067764
26	0x3d6473f4	0.055774644
27	0x3d24f8c3	0.0402763
28	0x3da41854	0.08012453
29	0xbdfcec17	-0.12349718
30	0xbbfba293	-0.0076792925
31	0x3e04792a	0.12936845
32	0x3ceacbbe	0.028661605
33	0x3d31f61d	0.043447603
34	0xbd831067	-0.06399613
35	0xbe6bac96	-0.23015055
36	0x3d89fe41	0.06737948
37	0x3e726899	0.23672713
38	0xbe1d027c	-0.15332979
39	0xbceca52b	-0.028887352
40	0xbddffa2e	-0.1093639
41	0x3dbf98c8	0.093553126
42	0x3dd3af32	0.1033615
43	0x3d90d9ff	0.070728295
44	0x3e4770a2	0.1947656
45	0x3e5a4a5e	0.21317431
46	0xbc683feb	-0.0141753955
47	0xbe3c3250	-0.18378568
48	0x3e0dfc3b	0.1386575
49	0xba0f8e91	-0.0005476261
50	0x3d492c7e	0.049114697
51	0xbec24b49	-0.37948063
52	0x3d95f697	0.07322424
53	0xbe15a2f8	-0.14612949
54	0xbc54357a	-0.012952203
55	0xbc949246	-0.018136155
56	0xbdbb0724	-0.09132221
57	0x3a565dac	0.00081774103
58	0x3d892081	0.06695653
59	0xbd7b6028	-0.061371
60	0xbdbc0d39	-0.091822095
61	0xbd9d56e3	-0.07682588
62	0xbe1d8306	-0.15382013
63	0xbe28a7bf	-0.1647024
64	0x3d1bca79	0.03803489
65	0xbc5dc078	-0.013534658
66	0xbe2e75c8	-0.17037117
67	0x3c174488	0.009232648
68	0xbe94e44b	-0.29080424
69	0x3cb52404	0.0221119
70	0xbcced8a2	-0.025249783
71	0xbd27b7e6	-0.040946864
72	0x3e1e697b	0.15469925
73	0xbd21501a	-0.03938303
74	0x3d7b4e64	0.061354056
75	0xbcf0194a	-0.029308934
76	0x3d28e312	0.041232176
77	0xbd38e523	-0.045140397
78	0x3c6e352a	0.0145390425
79	0x3d7bcc78	0.061474293
80	0x3b9a1d66	0.0047032116
81	0x3e0419ed	0.12900515
82	0x3cf9b987	0.030483974
83	0xbcc33fa2	-0.023834053
84	0x3d6cf28f	0.05784851
85	0x3e19c422	0.15016225
86	0x3dc76442	0.097359195
87	0xbe05ae48	-0.13054764
88	0x3e46d103	0.19415669
89	0xbdaafc0c	-0.083488554
90	0xbcfc65fe	-0.030810352
91	0x3caea8ae	0.021320667
92	0x3e8b5ada	0.27217752
93	0x3ca95989	0.020672577
94	0x3d835470	0.064125896
95	0xbcab19ee	-0.020886388
96	0x3daed724	0.085371286
97	0xbdbb4df0	-0.09145725
98	0xbe0b803b	-0.13623135
99	0x3e675fb3	0.225951
100	0x3d1fa560	0.038976073
101	0x3d04b8b9	0.032402728
102	0x3b82656c	0.0039793756
103	0xbcdc5fb6	-0.026901107
104	0x3d549f61	0.051909808
105	0xbdd7bc59	-0.10533971
106	0xbd83b670	-0.064312816
107	0xbcf355f7	-0.029704077
108	0xbd206c1d	-0.039165605
109	0xbe1700e8	-0.1474644
110	0x3bea688c	0.0071535762
111	0xbda90dc0	-0.08254576
112	0x3e4f29ef	0.2023084
113	0x3ddb2c44	0.107018024
114	0x3de2bb13	0.11070838
115	0xbc4017aa	-0.011724392
116	0xbd43491a	-0.047677137
117	0x3e276750	0.16348004
118	0x3d89bc8e	0.06725417
119	0xbd4a4f72	-0.04939217
120	0xbdaa2277	-0.08307355
121	0x3e4ab400	0.19795227
122	0x3e177993	0.1479247
123	0xbd0796bf	-0.033102747
124	0xbdc0ee85	-0.09420494
125	0xbe145610	-0.14485955
126	0x3d5ea6e8	0.054358393
127	0xbdf60d2d	-0.12014232
128	0xbc8777b0	-0.016536564
129	0xbe0bcc96	-0.13652262
130	0xbe50aea6	-0.20379123
131	0xbcddc051	-0.027069243
132	0xbd24e86b	-0.040260714
133	0xbd5c3104	-0.053757682
134	0xbdb3b446	-0.08774619
135	0x3bc6dcd0	0.0060688034
136	0x3d7f0982	0.062264927
137	0x3db50931	0.08839644
138	0xbd6c92ff	-0.057757374
139	0x3e4b2add	0.1984057
140	0xbd06d136	-0.032914363
141	0x3e49d485	0.19709976
142	0xbc8f9e18	-0.01753144
143	0x3caebce9	0.021330314
144	0x3cfa722f	0.030572025
145	0xbe19ece8	-0.15031779
146	0x3d92f6ad	0.07175956
147	0xbcff698b	-0.031178256
148	0x3d42b426	0.047535084
149	0xbe018808	-0.12649548
150	0x3dca2e70	0.098721385
151	0x3dcce279	0.10004134
152	0x3d975f45	0.07391218
153	0x3d23728d	0.039904166
154	0x3e00fc92	0.12596348
155	0xbd95402d	-0.07287631
156	0x3ddfc83e	0.10926865
157	0x3d21c6b3	0.039496135
158	0xbdf30316	-0.11865823
159	0x3d936801	0.071975715
160	0x3da2c1f0	0.07947147
161	0xbe313da8	-0.17308676
162	0x3d9c8fa6	0.07644586
163	0xbdfc8635	-0.123302855
164	0x3e555899	0.20834579
165	0xbe02c616	-0.12770876
166	0x3e0dea42	0.13858894
167	0xbe20ebba	-0.15714923
168	0xbd13e52d	-0.03610723
169	0xbdd01a8f	-0.10161316
170	0x3e520193	0.20508413
171	0x3c4e02d8	0.01257392
172	0x3de73cb4	0.11290875
173	0xbd6d6178	-0.05795428
174	0xbda127a0	-0.07868886
175	0xbe0f241d	-0.1397862
176	0xbca07c5c	-0.01959055
177	0x3e0969b8	0.13419235
178	0xbc7badc1	-0.01536125
179	0xbe28ad92	-0.16472462
180	0x3d80e6b7	0.06294005
181	0x3e862227	0.2619793
182	0x3d659e4b	0.056059163
183	0xbc12f64a	-0.008969853
184	0xbe2ef5ea	-0.17085996
185	0xbdf40702	-0.11915399
186	0xbd93d746	-0.072187945
187	0xbe864a42	-0.2622853
188	0xbd820e06	-0.06350331
189	0x3d7279cb	0.059198182
190	0x3d9146de	0.07093595
191	0xbe00b063	-0.12567286
192	0x3be69a9a	0.007037473
193	0xbc9e5fc7	-0.01933278
194	0x3e1a31e4	0.15058094
195	0x3e038a8b	0.12845819
196	0x3dcbd3c6	0.09952502
197	0x3d3382af	0.0438258
198	0xbcabe710	-0.020984203
199	0xbd81794a	-0.06321962
200	0xbdaf63b9	-0.085639425
201	0xbcf2efa1	-0.02965528
202	0xbd9d9dac	-0.07696089
203	0xbc04b7dc	-0.008100476
204	0xbdf277c6	-0.11839251
205	0xbdf943b5	-0.12171117
206	0xbd64c8fd	-0.05585574
207	0xbce1d5b3	-0.02756772
208	0xbca82b3a	-0.020528425
209	0x3c4ddcab	0.012564818
210	0xbe05c99f	-0.13065194
211	0x3e49fb77	0.19724832
212	0xbead729f	-0.3387651
213	0xbe493ac9	-0.19651331
214	0xbe31583d	-0.17318816
215	0x3d450595	0.048101027
216	0x3ceab4f2	0.028650735
217	0x3dbd0493	0.09229388
218	0xbd918054	-0.07104555
219	0xbe678030	-0.22607493
220	0x3d43f5f0	0.047841966
221	0xbdfa0f29	-0.12209923
222	0xbd7ec51f	-0.062199708
223	0xbe3c6986	-0.18399629
224	0x3d8f5aef	0.06999766
225	0x3db9ab97	0.09065931
226	0xbe022f87	-0.12713443
227	0xbce67ae4	-0.02813477
228	0x3e93c02d	0.28857556
229	0x3d964480	0.07337284
230	0x3da1ca9a	0.07899971
231	0xbe04f535	-0.12984164
232	0xbd785aa4	-0.060633317
233	0x3e1673fb	0.1469268
234	0x3e39b842	0.18136695
235	0xbd0611c4	-0.032731786
236	0x3d1a1003	0.037612926
237	0xbd36eb5f	-0.04465806
238	0xbcd5f9d9	-0.026120113
239	0x3d25b190	0.04045254
240	0xbd8a26df	-0.06745695
241	0xbd977513	-0.07395377
242	0x3dd1b37e	0.102393135
243	0xbc737eac	-0.014861744
244	0xbe45f8b5	-0.19333155
245	0xbdfae1dc	-0.122501105
246	0xbe56bb67	-0.20969926
247	0xbdfe2d50	-0.124109864
248	0x3d6e1c76	0.05813261
249	0x3dc1f245	0.09470037
250	0x3dc5d819	0.09660358
251	0xbe6715e2	-0.22566941
252	0xbd3d84f8	-0.046269387
253	0x3e81865c	0.2529782
254	0x3d301450	0.04298812
255	0x3d37966f	0.0448212

base.cnn.0.bias f4 [32]
0	0xbc161ab2	-0.009161638
1	0xbc22ebcd	-0.009943915
2	0x3c198a30	0.009371325
3	0xbca161c8	-0.019699946
4	0xbccf66f3	-0.025317645
5	0xbc83dd48	-0.016096726
6	0xbc88182a	-0.016613085
7	0x3b8ffbfc	0.0043940526
8	0xbbd9f92c	-0.006652018
9	0xbd27b06a	-0.040939726
10	0xbd3bf0ac	-0.04588382
11	0xbc9a8131	-0.018860431
12	0x3c092337	0.008370212
13	0xbc159e97	-0.009132049
14	0xbcc79aee	-0.024365868
15	0x3cee97fe	0.02912521
16	0xbc39e9c3	-0.011347237
17	0xbca5ccc8	-0.020239249
18	0xbceaad90	-0.028647214
19	0xbc06efd8	-0.008235894
20	0xbd1c1993	-0.038110327
21	0xbc33b7c6	-0.010969108
22	0xbcf119b4	-0.029431202
23	0x3c8e1ef1	0.017348738
24	0x3bf4b644	0.007468017
25	0xbc364d99	-0.011126899
26	0x3bf06c68	0.007337142
27	0xbc90bf92	-0.017669473
28	0xbcc71732	-0.024303053
29	0xbd3a4878	-0.045479268
30	0xbc78e49f	-0.015191226
31	0xbca29a45	-0.019848952

base.cnn.2.weight f4 [64, 32, 3, 3]
0	0x3d852ce5	0.065027036
1	0xbd450f43	-0.048110258
2	0xbdc8b435	-0.09799997
3	0xbcdec9e9	-0.027195888
4	0xbde60a47	-0.11232429
5	0xbaedb5f5	-0.0018135892
6	0xbd27583a	-0.040855624
7	0xbcf04672	-0.029330466
8	0x3dfafd5f	0.12255358
9	0x3df64ebb	0.120267354
10	0x3d8bbec5	0.06823496
11	0xbd54eef8	-0.05198571
12	0x3e69a634	0.22817308
13	0x3d53a3aa	0.051669754
14	0xbd601f13	-0.054717135
15	0xbd5ae47c	-0.053440556
16	0x3d58d132	0.05293388
17	0x3c7458c2	0.01491374
18	0xbc7ccbcf	-0.015429451
19	0xbdad72c1	-0.08469153
20	0x3c669bb3	0.0140752075
21	0x3d569a0c	0.052393004
22	0x3d2ecbb1	0.042674724
23	0xbd8ad97b	-0.06779762
24	0x3cf8a09c	0.030350022
25	0x3d8ddf77	0.06927388
26	0xbdb6f5d6	-0.08933608
27	0x3d1ee328	0.03879085
28	0x3d4f866b	0.0506653
29	0xbd69d065	-0.057083506
30	0x3e1cbbeb	0.1530606
31	0x3bc87f08	0.006118659
32	0x3e1cd020	0.15313768
33	0x3e12a6d3	0.14321451
34	0xbd83163e	-0.06400727
35	0xbb4532e1	-0.003009014
36	0xbda67402	-0.081275955
37	0x3cec978a	0.028880853
38	0x3d283dfe	0.041074745
39	0xbd5fe1a7	-0.05465856
40	0x3d5a100f	0.05323797
41	0xbdc5530a	-0.09634979
42	0xbe1db272	-0.15400103
43	0xbd15b20f	-0.036546763
44	0x3d9c2c8e	0.07625686
45	0x3e135d20	0.14390993
46	0x3bdabd14	0.006675372
47	0x3d4ce2f2	0.05002112
48	0xbb5d53b9	-0.0033771826
49	0x3ba04327	0.0048908177
50	0x3dd87dc8	0.10570866
51	0x3dbc2b85	0.09187988
52	0xbb975687	-0.004618469
53	0xbde3a4a1	-0.11115385
54	0x3dc22b86	0.09480958
55	0x3d495283	0.049150955
56	0xbcc271ec	-0.023735963
57	0x3d7472cf	0.059679803
58	0x3de0a735	0.10969392
59	0x3e1035d5	0.14083035
60	0xbd4fa715	-0.05069645
61	0x3dbdcd89	0.09267718
62	0xbcf61c9d	-0.03004294
63	0x3d662f86	0.056197666
64	0xbe1e7ff6	-0.154785
65	0xbd98fbfb	-0.074699365
66	0xbdbd1d73	-0.092341326
67	0xbcf2d49c	-0.029642396
68	0xbd275693	-0.040854048
69	0xbd19533e	-0.0374329
70	0x3e3e2390	0.18568254
71	0xbc56edb0	-0.013118193
72	0x3d9d80db	0.07690593
73	0xbd977832	-0.07395972
74	0x3e1a907c	0.15094179
75	0xbcab83f1	-0.020936938
76	0xbd5846b3	-0.0528018
77	0x3d1a73eb	0.037708204
78	0xbdd38076	-0.10327236
79	0x3e172153	0.14758806
80	0xbdbb766a	-0.09153445
81	0x3d312b6f	0.043254312
82	0x3cac2d8d	0.021017814
83	0xbdbd7617	-0.092510395
84	0xbe0f8948	-0.14017212
85	0x3e061260	0.13092947
86	0xbb39d370	-0.0028354786
87	0x3de14371	0.109991916
88	0xbd8d3574	-0.06894961
89	0x3c104825	0.008806263
90	0xbc5e5598	-0.013570212
91	0xbd5d625b	-0.054048877
92	0xbd188818	-0.037239164
93	0xbd9c2a2e	-0.07625233
94	0xbc59c469	-0.013291457
95	0xbd03505c	-0.03205906
96	0x3cb7f221	0.022454323
97	0xbc2d8b16	-0.010592243
98	0x3c945e66	0.018111419
99	0x3d33ca46	0.043894075
100	0xbe17dafe	-0.14829633
101	0x3c24091b	0.010011937
102	0xbd3b2d52	-0.045697518
103	0xbd8671bb	-0.06564661
104	0x3e0c7a20	0.13718462
105	0xbcbe5b49	-0.023236888
106	0xbc8c4f89	-0.017127769
107	0x3b3e731e	0.0029060314
108	0xbde270ab	-0.11056646
109	0xbe05c797	-0.13064419
110	0xbe5b6743	-0.2142611
111	0x3cb6dca1	0.022322001
112	0xbd25e86d	-0.04050486
113	0x3db552f4	0.08853713
114	0x3da5809b	0.0808117
115	0xbda92af4	-0.08260146
116	0xbd42a14a	-0.0475171
117	0x3d8da5dd	0.069164015
118	0x3e599afc	0.21250528
119	0x3d700698	0.05860004
120	0xbe191270	-0.1494844
121	0xbd7d4a58	-0.061838478
122	0xbd05c1ba	-0.032655455
123	0x3d88782c	0.06663546
124	0xbd4fe40a	-0.050754584
125	0xbc899b2c	-0.016797625
126	0x3e0e05ba	0.13869372
127	0x3dd1d9b9	0.102466054
128	0x3e10645d	0.14100786
129	0xbbba95c8	-0.005694125
130	0x3d8347fd	0.06410215
131	0xbdf5adb6	-0.11996023
132	0x3cca1658	0.024668857
133	0xbde256ef	-0.110517375
134	0xbd807a85	-0.06273369
135	0xbce481b4	-0.027893879
136	0x3d2565a7	0.040380146
137	0xbe0e45ec	-0.1389386
138	0x3c839db7	0.016066415
139	0x3ddf55ba	0.10905023
140	0x3d2f4f5a	0.042800285
141	0x3c3167df	0.010827987
142	0x3be0edfc	0.0068643074
143	0xbd5f14ad	-0.054463077
144	0x3c8ee9af	0.017445413
145	0xbd5e9c24	-0.054348126
146	0xbd426143	-0.047456037
147	0xbdf3f36b	-0.11911663
148	0x3bed42e8	0.007240642
149	0x3cf8fcce	0.030393984
150	0xbc017828	-0.007902183
151	0xbd40e384	-0.047091976
152	0xbe08530a	-0.13312927
153	0xbe462fe8	-0.19354212
154	0x3dd151b6	0.10220663
155	0x3e484256	0.19556555
156	0xbe1a44bc	-0.15065283
157	0x3d654058	0.055969566
158	0xbe023911	-0.12717082
159	0x3ddb2088	0.10699564
160	0xbc74bfb6	-0.014938286
161	0x3d609d26	0.05483737
162	0x3b807d53	0.00392119
163	0x3c05355f	0.0081304
164	0x3bdc6c7a	0.0067267986
165	0xbcad4067	-0.021148873
166	0xbd552c5b	-0.052044254
167	0xbd59c243	-0.053163778
168	0xbdad95d3	-0.08475842
169	0xbc830e96	-0.015998166
170	0xbcedfcdf	-0.029051242
171	0xbd8b9327	-0.068151765
172	0xbd5e382a	-0.05425278
173	0xbe2ea6d6	-0.1705583
174	0x3d90e6f5	0.070753016
175	0x3d59b63a	0.0531523
176	0xbd8f9182	-0.07010175
177	0xbd25f3da	-0.040515758
178	0xbe1787d1	-0.14797904
179	0x3d3055b6	0.04305049
180	0xbd9c67ed	-0.0763701
181	0xbd4dbc31	-0.0502283
182	0xbddbaf33	-0.10726776
183	0xbe012eca	-0.12615505
184	0x3df08b7f	0.11745357
185	0xbd4f6f79	-0.050643418
186	0x3d06c704	0.03290464
187	0x3d8940d1	0.06701816
188	0xbd7b4530	-0.06134528
189	0x3a1624c3	0.0005727524
190	0x3dfa2e39	0.122158475
191	0x3e157a2b	0.14597385
192	0x3c280479	0.010254973
193	0xbdb43832	-0.08799781
194	0xbcec59f0	-0.02885148
195	0xbe2820e2	-0.16418794
196	0xbc6e4afd	-0.014544246
197	0x3d1e9daf	0.038724598
198	0xbc895734	-0.016765215
199	0xbd8bcdb5	-0.06826345
200	0x3ae46ca7	0.00174274
201	0x3e7ef75e	0.2489905
202	0x3d8434e4	0.064554006
203	0xbc813b54	-0.01577536
204	0xbd90628b	-0.070500456
205	0xbe17a5db	-0.14809363
206	0xbd64805b	-0.05578647
207	0x3c1c382c	0.009534877
208	0x3de79370	0.11307418
209	0x3d8bd8db	0.06828471
210	0xbe5f8701	-0.21828844
211	0xbd72325f	-0.05913007
212	0x3e20d44c	0.15705985
213	0x3d602785	0.05472519
214	0xbd9dace7	-0.07698994
215	0xbbaef176	-0.005338843
216	0x3bec9a2a	0.007220526
217	0xbd36c89d	-0.044624913
218	0xbd3c516c	-0.045976087
219	0x3dee2b3c	0.1162934
220	0xbd9ede68	-0.077572644
221	0xbbde3172	-0.0067807967
222	0xbd17122a	-0.036882557
223	0xbe5ebd25	-0.2175184
224	0x3c896f76	0.016776782
225	0xbe1cf711	-0.15328623
226	0x3ce488d2	0.027897272
227	0xbdeef10f	-0.11667072
228	0xbd563de3	-0.052305114
229	0xbd1f73b4	-0.038928702
230	0x3d50ba43	0.050958883
231	0x3e301123	0.17194037
232	0xbd5fd6c0	-0.05464816
233	0x3bf6b6c4	0.0075291116
234	0x3d89cef3	0.067289256
235	0xbe066a66	-0.13126525
236	0xbe235eb3	-0.15954094
237	0xbd628d69	-0.05531064
238	0x3e6345a4	0.22194535
239	0x3d9b6398	0.075873554
240	0xbdc2cc2f	-0.09511601
241	0xbdf3d451	-0.119057305
242	0xbe090e5d	-0.13384385
243	0xbd33e381	-0.043918137
244	0x3d645a8b	0.05575041
245	0xbdad17ee	-0.0845183
246	0xbd194f7e	-0.037429325
247	0xbc3964c0	-0.011315525
248	0xbe57cc4e	-0.2107403
249	0x3d47b4e6	0.048756503
250	0xbdab349f	-0.08359646
251	0xbdfaac87	-0.12239938
252	0x3d9d459d	0.07679293
253	0xbde2e2d1	-0.11078418
254	0xbce54e2b	-0.027991375
255	0x3da56ff8	0.08077997

base.cnn.2.bias f4 [64]
0	0xbcf276c3	-0.029597646
1	0xbbce7799	-0.0063008782
2	0xbbf2aee8	-0.0074061044
3	0xbba47fd9	-0.0050201234
4	0xbbdec07f	-0.0067978497
5	0xbc5cc2a1	-0.0134741375
6	0xbc213784	-0.009839896
7	0x3ca0e9e6	0.019642781
8	0x3cc67df7	0.024229987
9	0xbc975fec	-0.018478356
10	0x3b09e0db	0.0021038565
11	0xbaace3f0	-0.0013190489
12	0x3b802859	0.00391106
13	0xbcbf3c5f	-0.023344217
14	0xbc726b49	-0.014796087
15	0xbbea8612	-0.0071570957
16	0x3cde0fac	0.027107082
17	0xbc2aa235	-0.01041465
18	0xbc51c9c4	-0.012804452
19	0xbc6be3c7	-0.014397568
20	0x3c28602c	0.010276835
21	0xbb896032	-0.0041923756
22	0xbac9d47b	-0.0015398407
23	0xbcea5aa2	-0.02860767
24	0x3b11168d	0.0022138685
25	0x3d072297	0.03299197
26	0xbc368168	-0.011139251
27	0xbcd76513	-0.026293313
28	0xbc5bad83	-0.013408068
29	0xba795080	-0.00095105916
30	0xbb92dab5	-0.0044816383
31	0x3c7715b1	0.015080855
32	0xbbd3fcbc	-0.0064693373
33	0x3cc1cf43	0.0236584
34	0x3c3753cd	0.011189413
35	0xbc21a77b	-0.009866591
36	0x3c1b807b	0.009491081
37	0xbbe91280	-0.007112801
38	0x3b934e07	0.0044953856
39	0xbc70383a	-0.014661843
40	0xbc2e040e	-0.010621084
41	0xbc70a0f5	-0.014686813
42	0xbbf05376	-0.007334168
43	0xbc957bf7	-0.018247588
44	0xbc88d122	-0.016701285
45	0xbcb60cf0	-0.022222966
46	0xbc33dbb9	-0.010977679
47	0xbb4ae800	-0.0030961037
48	0x3bf1d161	0.0073796962
49	0x3c3a36e0	0.011365622
50	0xbd272191	-0.040803496
51	0x3d1ecf30	0.03877181
52	0xbabcb091	-0.0014395883
53	0xbb6a616d	-0.0035763637
54	0xbb9f967a	-0.004870233
55	0xbc8ee471	-0.017442914
56	0xbb95f97d	-0.0045768605
57	0xbc8b1235	-0.016976455
58	0xbb4d24ea	-0.003130252
59	0xbcddfee1	-0.027099075
60	0xbc93d38a	-0.018045206
61	0x3a38b901	0.00070466107
62	0xbc8256a8	-0.015910462
63	0xbcc02b33	-0.023458099

base.cnn.4.weight f4 [32, 64, 3, 3]
0	0xbd3f99ca	-0.046777524
1	0x3d96b0ec	0.07357964
2	0x3ddf9853	0.109177254
3	0x3b6b452a	0.003589938
4	0xbd2e117d	-0.042497147
5	0x3d3da816	0.046302877
6	0xbdf64a4b	-0.12025889
7	0xbdd15996	-0.10222165
8	0x3de67d88	0.11254412
9	0x3e49266e	0.19643566
10	0xba5540bc	-0.00081349513
11	0xbdb7c9a5	-0.089740075
12	0x3def01ad	0.116702415
13	0xbd9aacec	-0.075525135
14	0x3bbb2157	0.0057107615
15	0xbc20c696	-0.009812972
16	0x3d852542	0.06501247
17	0x3cfe0b81	0.031011345
18	0x3d7304a7	0.05933061
19	0x3d3f9f28	0.046782643
20	0xbd1bcdde	-0.038038127
21	0xbc524190	-0.012833014
22	0x3c2aa8b9	0.010416203
23	0xbd97d301	-0.07413293
24	0x3d3f8083	0.046753418
25	0xbce212ac	-0.027596794
26	0x3ccb4daa	0.024817307
27	0xbd58ed35	-0.052960593
28	0xbcee34dd	-0.029077942
29	0x3d8c44ce	0.06849061
30	0xbc3102fe	-0.010803936
31	0xbd938338	-0.07202762
32	0xbd1ad1e8	-0.03779784
33	0x3cb0ff15	0.021606008
34	0x3d811f76	0.06304829
35	0xbc3bb3d8	-0.011456452
36	0x3e2e2d7d	0.1700954
37	0x3d0f0c72	0.03492398
38	0x3d6a3c36	0.057186328
39	0x3c96b875	0.018398503
40	0x3c44b983	0.01200712
41	0x3c02ee76	0.007991424
42	0x3ca57480	0.020197153
43	0x3d5df42e	0.054187946
44	0xbddb793a	-0.107164815
45	0x3e322055	0.17395146
46	0xbdc5e6c9	-0.096631594
47	0xbd3db512	-0.04631526
48	0xbd6ae7e6	-0.05735006
49	0x3d279cff	0.040921208
50	0xbda6a9ad	-0.08137832
51	0xbcb82d5f	-0.022482572
52	0x3dce16f7	0.10062974
53	0xbe0af3ca	-0.1356956
54	0xbdb2ca57	-0.087299995
55	0x3b566ec5	0.0032719832
56	0xbdb9e29c	-0.090764254
57	0xbe351df2	-0.17687204
58	0xbd414d43	-0.047192823
59	0x3cb2e091	0.021835597
60	0xbda84f48	-0.08218247
61	0xbd02aede	-0.031905048
62	0xbdaba4e9	-0.083810635
63	0xbe2436d2	-0.16036537
64	0x3d64058e	0.05566936
65	0xbd6b712a	-0.05748097
66	0xbd12a84f	-0.035805043
67	0x3d9c13ed	0.07620988
68	0xbd6697ef	-0.05629724
69	0x3c51a6fc	0.01279616
70	0x3dd703af	0.104987495
71	0xbd52e53e	-0.051488154
72	0x3da16cef	0.078821056
73	0x3d153b4d	0.036433507
74	0xbd034e9d	-0.032057393
75	0x3d039310	0.03212267
76	0x3d93a561	0.07209278
77	0xbbf0e029	-0.0073509407
78	0xbdc6c80e	-0.09706126
79	0xbd691644	-0.056906
80	0x3ca778c1	0.020443322
81	0x3cb0c923	0.021580284
82	0x3db6d353	0.08927026
83	0xbe0af07d	-0.13568301
84	0xbd17254e	-0.03690081
85	0x3e12822a	0.14307466
86	0x3c3ff1dd	0.01171538
87	0x3d082d12	0.033246107
88	0xbcb8a780	-0.022540808
89	0x3e08a909	0.13345732
90	0xbdbe8ec4	-0.09304574
91	0xbdaad69e	-0.08341716
92	0x3d20c102	0.039246567
93	0x3d375b13	0.04476459
94	0x3cb86b98	0.022512242
95	0x3e34620c	0.17615527
96	0x3de2105e	0.11038278
97	0xbd6368aa	-0.055519737
98	0xbdf26c2b	-0.11837038
99	0xbdf9d2f1	-0.12198437
100	0xbcc747ea	-0.024326283
101	0xbcb67a3e	-0.022275086
102	0xbde062a2	-0.10956313
103	0xbc1dffff	-0.009643554
104	0x3d8077bd	0.06272838
105	0x3d8e28c4	0.06941369
106	0xbd5cd526	-0.05391421
107	0xbb85198b	-0.004061883
108	0xbd607588	-0.054799587
109	0xbcf56a79	-0.029957997
110	0x3e2db73e	0.16964433
111	0xbd744347	-0.059634473
112	0xbc12cc2e	-0.008959813
113	0x3d671125	0.056412835
114	0xbc2d81a4	-0.010589991
115	0x3ba842ff	0.0051349397
116	0x3c520526	0.01281861
117	0x3d947a87	0.07249933
118	0xbcdb9cf7	-0.026808245
119	0x3c3b600b	0.011436473
120	0xbcd36acb	-0.025807759
121	0xbd22721e	-0.039659612
122	0x3de61c03	0.112358116
123	0xbc853a52	-0.01626316
124	0xbe0f7b55	-0.14011891
125	0xbe2bb994	-0.16770011
126	0x37f161fe	2.877507e-05
127	0x3d91865d	0.07105706
128	0x39c9a49f	0.0003846036
129	0xbd2a3a67	-0.041559603
130	0xbd87d0b9	-0.066316076
131	0x3c7f0843	0.015565935
132	0xbd1a1107	-0.037613895
133	0x3d97e27b	0.074162446
134	0xbc19b6bb	-0.009381945
135	0xbcf80cdd	-0.030279571
136	0x3c1c2d1b	0.009532238
137	0xbd0ca261	-0.034334544
138	0xbd5b0cd3	-0.053479027
139	0x3dd685b6	0.10474722
140	0x3d459b53	0.04824383
141	0xbd585ba8	-0.052821785
142	0x3d095266	0.033525847
143	0x3d1ded6a	0.038556494
144	0x3b9999f4	0.004687542
145	0xbd12ccda	-0.035839893
146	0x3c5a7993	0.01333465
147	0x3c586e85	0.013209944
148	0x3d21c1f5	0.039491612
149	0xbdfc3c45	-0.12316183
150	0x3d00a556	0.031407677
151	0xbd6daccf	-0.05802613
152	0xbd39f70a	-0.04540161
153	0xbdb67385	-0.08908752
154	0x3b165edd	0.0022944727
155	0xbd16835d	-0.03674637
156	0xbd9e436d	-0.07727704
157	0xbcd79990	-0.026318341
158	0x3ad43d54	0.0016192594
159	0x3dc323d9	0.09528322
160	0xbd3c2198	-0.045930475
161	0xbdb79259	-0.089634605
162	0x3dd5516e	0.10415922
163	0x3d62e0f2	0.055390306
164	0x3dc3634a	0.09540422
165	0x3d1fec85	0.039043922
166	0x3ce710fe	0.028206345
167	0x3d46a8d9	0.04850087
168	0x3c3d19dd	0.011541811
169	0x3d819a39	0.06328244
170	0x3d87b463	0.06626203
171	0x3d5179cd	0.05114155
172	0xbd2e2c1c	-0.042522535
173	0xbd0b31f9	-0.033983205
174	0x3d327eda	0.043578006
175	0xbcbd8fc5	-0.023139844
176	0xbda502b1	-0.08057154
177	0x3cea43e8	0.028596833
178	0xbe0a048a	-0.13478294
179	0xbc93be83	-0.018035179
180	0xbd76a475	-0.060215432
181	0xbc1b6c52	-0.009486275
182	0x3d81439e	0.06311725
183	0xbd33e9bf	-0.04392409
184	0xbd1883b9	-0.037234996
185	0xbc7512e7	-0.01495812
186	0xbd2d5dd0	-0.042325795
187	0x3d971c73	0.07378473
188	0x3d724e4a	0.059156694
189	0xbc23dcf6	-0.010001412
190	0x3ceb797b	0.02874445
191	0xbb07f740	-0.0020746738
192	0x3ba438e6	0.0050116656
193	0xbba7b4c1	-0.005117983
194	0xbd6c9d78	-0.05776736
195	0xbdbcdb5e	-0.092215285
196	0xbc562e24	-0.013072524
197	0xbd4f32ac	-0.050585434
198	0xbdbbf8ac	-0.0917829
199	0x3d29eb99	0.04148445
200	0x3b7a09ba	0.003815277
201	0xbd684ed0	-0.056715786
202	0x3cceeb11	0.025258573
203	0x3d81e241	0.06341983
204	0x3dde132d	0.10843501
205	0x3da71661	0.08158565
206	0x3d8897bf	0.06669568
207	0x3da40f57	0.08010738
208	0x3ce47783	0.027889019
209	0x3d129584	0.03578712
210	0x3c4ddddb	0.0125651015
211	0xbd3bc4a0	-0.045841813
212	0x3df00f53	0.11721673
213	0xbdc9d1c5	-0.098544635
214	0x3ca847c2	0.02054203
215	0xbe004c61	-0.12529136
216	0xbd9c5ab2	-0.07634486
217	0xbd1d9474	-0.038471654
218	0xbdb7fcab	-0.089837395
219	0xbd33b894	-0.0438772
220	0xbb57376d	-0.0032839433
221	0x3c438e24	0.011935744
222	0x3d63810c	0.05554299
223	0xbc4e707a	-0.012600059
224	0xbd9448e4	-0.07240465
225	0xbcd0e827	-0.025501324
226	0xbc2ea74e	-0.010660006
227	0x3e1d8aad	0.15384932
228	0xbdb3d20f	-0.087803
229	0x3d86c5f7	0.065807275
230	0xbb4b8fd4	-0.003106107
231	0xbdad575e	-0.084639296
232	0xbd3324e4	-0.043736354
233	0xbd76fb4d	-0.060298253
234	0xbe0e706d	-0.13910075
235	0xbd8e9adb	-0.0696313
236	0xbd24890b	-0.040169757
237	0xbd9ae060	-0.075623274
238	0x3d7780de	0.06042563
239	0x3d0cd3a3	0.03438152
240	0xbdae198d	-0.08500967
241	0xbd13c516	-0.036076628
242	0xbd86a35a	-0.065741256
243	0x3d81d7c2	0.06339981
244	0xbd981244	-0.07425359
245	0x3b9952eb	0.004679074
246	0xbd9d1246	-0.07669501
247	0x3d5bc445	0.053653974
248	0x3caa4b50	0.020787865
249	0x3db9422c	0.090458244
250	0x3de0903a	0.10965009
251	0x3cf1fd6d	0.029539788
252	0xbcee2aa8	-0.029073074
253	0x3e0d8342	0.13819602
254	0xbc1c3403	-0.009533885
255	0xbc804fcd	-0.015663052

base.cnn.4.bias f4 [32]
0	0xbc2c277c	-0.010507461
1	0xbcdc074a	-0.026858944
2	0xbcab0519	-0.020876454
3	0xbb9c4c9e	-0.0047698757
4	0xbd0b7b3b	-0.03405307
5	0xbcdeedbc	-0.02721297
6	0xbd406e56	-0.046980225
7	0xbcb8aad9	-0.022542404
8	0xbc8e0c5e	-0.017339882
9	0xbb10ab22	-0.002207466
10	0xbcef7f16	-0.029235404
11	0xbc418cac	-0.011813324
12	0xbd1ac46b	-0.037784975
13	0xbc4610b0	-0.01208894
14	0x3b49471a	0.0030712546
15	0x3b04b63f	0.0020250229
16	0xbcde63d4	-0.027147211
17	0xbd06333a	-0.032763697
18	0xbaa90524	-0.0012895209
19	0x3afd2c1a	0.0019315511
20	0x3bb064bc	0.005383102
21	0xbc97d1a3	-0.01853258
22	0x3b970ed4	0.004609922
23	0x3ae2b67e	0.0017296819
24	0xbcb93164	-0.02260656
25	0xbca8930b	-0.020577928
26	0xbc0e7612	-0.008695142
27	0xbc7743dd	-0.015091863
28	0xbce8df30	-0.028426737
29	0xbc2eb7e7	-0.010663963
30	0xbcb351e3	-0.021889633
31	0xb96ed8af	-0.0002277817

base.cnn.7.weight f4 [64, 800]
0	0xbc9f3f7d	-0.019439453
1	0xbd2a00c6	-0.041504644
2	0xbd22a518	-0.039708227
3	0xbd15247a	-0.03641174
4	0x3d12b5d8	0.03581795
5	0x3cca910d	0.024727369
6	0x3d6b560d	0.05745511
7	0xbbedf6b5	-0.007262076
8	0xbc04ef24	-0.008113656
9	0x3e2157e6	0.15756187
10	0x3d8255c9	0.063640185
11	0xbc8740a2	-0.016510312
12	0xbdbd3e6f	-0.09240424
13	0xbb8ee0c9	-0.0043602926
14	0xbd235a14	-0.039880827
15	0x3e0c9090	0.13727021
16	0x3dc44a41	0.09584475
17	0x3dff0862	0.12452771
18	0x3dbd9a6e	0.09257971
19	0x3d41aba1	0.04728282
20	0x3b1c5df5	0.0023859714
21	0xbdad2143	-0.0845361
22	0x3d9bda36	0.0760998
23	0x3dfcc647	0.12342506
24	0x3d00d7a3	0.031455647
25	0x3d99f6c2	0.075177684
26	0xbd9f3c0c	-0.07775125
27	0x3dad2bbe	0.08455609
28	0x3ba8a501	0.005146623
29	0x3cda43b3	0.02664361
30	0xbde12117	-0.109926395
31	0xbd156a46	-0.036478303
32	0x3c64a091	0.013954298
33	0x3d0b4350	0.03399974
34	0xbd37526b	-0.044756334
35	0xbd1a014e	-0.0375989
36	0xbd12e342	-0.03586126
37	0x3d4837cc	0.048881337
38	0xbd9aab65	-0.07552222
39	0x3d987efa	0.07446094
40	0xbd6f6043	-0.05844141
41	0xbda0b126	-0.078462884
42	0xbc976568	-0.018480971
43	0x3e20ce7d	0.15703769
44	0xbe184f59	-0.14874019
45	0xbc693fa7	-0.014236367
46	0xbdb1e505	-0.0868626
47	0x3c9da005	0.019241342
48	0x3cc0ad63	0.023520177
49	0x3d1d463d	0.038397063
50	0xbd8926c6	-0.066968486
51	0xbd067e8b	-0.032835525
52	0x3dae4991	0.085101254
53	0xbdc5cbed	-0.096580364
54	0x3cd7116c	0.026253425
55	0xbd88fa2e	-0.06688343
56	0x3c854b85	0.016271362
57	0xbc80d052	-0.015724335
58	0x3e143f4f	0.14477275
59	0x3cfc1e67	0.030776216
60	0x3d01a1e4	0.03164853
61	0xbaf77c25	-0.0018881602
62	0xbd0d1a26	-0.034448765
63	0x3dcde734	0.10053864
64	0x3d3d4b98	0.04621467
65	0x3aae8187	0.0013313749
66	0xbda1ffc6	-0.07910113
67	0xbd32c908	-0.04364875
68	0xbdbc6f26	-0.092008874
69	0xbd8a3ac3	-0.06749489
70	0x3d6ae1da	0.057344295
71	0x3bdf6ed2	0.0068186307
72	0xbe050044	-0.12988383
73	0xbc60f7b0	-0.013730928
74	0xbd4daa48	-0.05021122
75	0xbc3a6310	-0.011376157
76	0x3decabbd	0.11556194
77	0x3c3eb61a	0.011640096
78	0xbd3497cc	-0.044090077
79	0xbdfac879	-0.122452684
80	0x3d44d74c	0.048056886
81	0xbd725a28	-0.05916801
82	0x3d184c12	0.03718192
83	0xbd145feb	-0.036224287
84	0x3dc1481c	0.09437582
85	0xbd5de05f	-0.054169055
86	0xbdb67116	-0.08908288
87	0x3d575fe9	0.0525817
88	0x3dfcf1e8	0.123508275
89	0xbc543898	-0.012952946
90	0xbc1b134e	-0.009465052
91	0x3c3333c1	0.010937632
92	0x3d3e31e4	0.0464343
93	0x3bab1244	0.0052206833
94	0xbdbb45d0	-0.09144175
95	0x3dc186f4	0.094495684
96	0xbd7f5c22	-0.062343724
97	0xbd140159	-0.036134098
98	0xbd359d1e	-0.04433929
99	0xbd3ae378	-0.045627087
100	0xbd5e63b0	-0.05429429
101	0xbd4a44ca	-0.04938201
102	0x3bbafd20	0.0057064444
103	0xbd1f20a3	-0.038849484
104	0xbcfe4380	-0.031038046
105	0x3d47ab05	0.04874708
106	0xbd22a26e	-0.039705686
107	0xbd30f52d	-0.043202568
108	0x3d02a512	0.031895705
109	0x3c9b3fb9	0.018951284
110	0xbd12e727	-0.035864975
111	0xbd2228fe	-0.039589874
112	0xbd76c568	-0.060246855
113	0xbd515dab	-0.05111472
114	0x3d6c426c	0.057680532
115	0xbc7c3e1a	-0.015395666
116	0x3cf21397	0.029550357
117	0x3d6e5e2e	0.058195285
118	0xbd879c5d	-0.06621621
119	0xbd30483f	-0.04303765
120	0x3d554ac2	0.052073248
121	0xbd83abc0	-0.06429243
122	0x3dbf82e9	0.09351141
123	0x3c9ca6a4	0.01912243
124	0xbdb789bb	-0.08961817
125	0x3dd2469a	0.102673724
126	0x3d834ca3	0.06411102
127	0x3cd92fc3	0.026512032
128	0x3b2ffd37	0.0026853809
129	0xbba52814	-0.005040178
130	0xbb8f16cc	-0.0043667313
131	0x3dc8f17b	0.09811684
132	0xbcaa2bab	-0.020772776
133	0x3ce8b2af	0.028405515
134	0x3d2abc2b	0.041683357
135	0xbc41a169	-0.011818268
136	0xbca413cd	-0.020028973
137	0x3c92e556	0.017931622
138	0xbd6a4dcb	-0.057203095
139	0x3cc1bd09	0.02364971
140	0x3d8a8740	0.06764078
141	0x3d002e1c	0.031293973
142	0xbced6500	-0.028978825
143	0xbd03efb9	-0.03221104
144	0x3d0eccd7	0.03486332
145	0xbaf1e4b9	-0.0018455005
146	0xb88e7885	-6.793536e-05
147	0x3da007ec	0.07814011
148	0xbd908f1f	-0.07058548
149	0xbd3bd1af	-0.045854267
150	0x3d7ab05f	0.061203357
151	0xbd5a6a74	-0.053324178
152	0x3c51ce3d	0.012805519
153	0xbd96736b	-0.07346233
154	0x3d5a7d01	0.05334187
155	0x3d7c0de4	0.061536685
156	0x3ddab0d7	0.10678261
157	0xbab9b203	-0.0014167432
158	0x3d2dbca6	0.042416237
159	0x3d0af67f	0.033926483
160	0xbdc49dde	-0.09600423
161	0xbd5bd7d6	-0.053672634
162	0xbd74a5a4	-0.05972828
163	0xbe16c2b9	-0.14722718
164	0xbce14f76	-0.02750371
165	0x3d3d916d	0.046281267
166	0x3e10c034	0.1413582
167	0xbdd827d8	-0.105544746
168	0x3c729d59	0.014808022
169	0xbdbf9af2	-0.09355725
170	0x3a2b9306	0.00065450405
171	0xbd32d47f	-0.043659683
172	0xbdb38de6	-0.08767299
173	0x3d80bd16	0.06286065
174	0xbdb1853a	-0.08667989
175	0x3dc5a27c	0.09650132
176	0xbe19ee63	-0.15032344
177	0xbe0d6bca	-0.1381065
178	0xbd432e8d	-0.047651816
179	0x3d9ed312	0.07755102
180	0xbc707117	-0.0146754
181	0xbd169e1e	-0.036771886
182	0x3d6c89d3	0.057748627
183	0xbdacb3fd	-0.084327675
184	0x3d86c375	0.06580249
185	0x3caeee09	0.021353738
186	0x3d3d1755	0.04616483
187	0x3cb5acd9	0.022177147
188	0x3d6bfcf1	0.05761427
189	0x3bf0b000	0.0073451996
190	0x3c983dbe	0.018584128
191	0xbd184f73	-0.037185144
192	0x3d07d62f	0.033163246
193	0xbd266d59	-0.040631626
194	0x3c82f5fd	0.015986437
195	0x3d594b2f	0.053050216
196	0x3dd9cab6	0.10634367
197	0x3dd6c7df	0.10487341
198	0xbca1b198	-0.019738004
199	0x3da01880	0.07817173
200	0xbcd3dccc	-0.02586212
201	0xbd2e9ba3	-0.042628895
202	0x3de1f7bf	0.11033582
203	0x3b48f3a2	0.0030662795
204	0x3ba7c3ec	0.0051197913
205	0x3bfb6c98	0.0076728575
206	0x3d2be0d8	0.041962475
207	0x3c827acf	0.0159277
208	0xbd2228a3	-0.039589535
209	0xbcf4d5af	-0.029887049
210	0x3bee049a	0.007263732
211	0x3bf3e2bf	0.0074428017
212	0xbca3078d	-0.019901061
213	0x3dc98aa5	0.098408975
214	0xbda03686	-0.078228995
215	0x3d143cde	0.03619086
216	0x3c5ab155	0.013347943
217	0x3d62c850	0.055366814
218	0xbe0375d2	-0.12837914
219	0xbce9cf27	-0.02854116
220	0xbd5f47ff	-0.05451202
221	0xbe0d0dc0	-0.13774776
222	0xbdba20f2	-0.09088315
223	0x3c2f893a	0.01071387
224	0xbdfbd4c0	-0.12296438
225	0x3d7ccfc1	0.061721567
226	0x3d583842	0.052788027
227	0xbc70603a	-0.01467138
228	0x3db3762a	0.087627724
229	0xbc4c3632	-0.012464093
230	0x3df7ada2	0.12093665
231	0x3d81669e	0.06318401
232	0x3e3d5c38	0.1849221
233	0x3d5144e4	0.05109109
234	0xbe01e973	-0.1268671
235	0xbd141ce1	-0.036160354
236	0xbd53e958	-0.051736206
237	0x3e301583	0.17195706
238	0xbc9daea1	-0.019248309
239	0xbd7fcf5d	-0.062453616
240	0xbd5f473f	-0.054511305
241	0x3d26df62	0.04074038
242	0xbcc8b6dc	-0.024501257
243	0xbc096d26	-0.008387839
244	0xbcf06744	-0.029346116
245	0xbc63845d	-0.013886538
246	0xbd8caec4	-0.068692714
247	0x3d549321	0.051898126
248	0x3be97542	0.007124574
249	0xbc11dae7	-0.008902288
250	0x3c782ee9	0.015147903
251	0xbd4f3f21	-0.050597314
252	0xbccfa8fe	-0.025349136
253	0xbce199df	-0.027539192
254	0xbc3eb79d	-0.0116404565
255	0x3d5bf698	0.053701967

base.cnn.7.bias f4 [64]
0	0xba716fd8	-0.00092100864
1	0xbce8f0d8	-0.028435156
2	0xb9e6d70f	-0.0004402925
3	0xbb9ce337	-0.0047878283
4	0xbc1ccccb	-0.009570311
5	0xbc0c9f09	-0.008582839
6	0xbc9982a0	-0.018739045
7	0xbcab02db	-0.020875385
8	0x3b102c92	0.0021999222
9	0xbc93e462	-0.018053237
10	0xbcdbcf3c	-0.026832215
11	0xbc1bde14	-0.009513397
12	0x3c3a6e1f	0.011378794
13	0xbd372930	-0.044717014
14	0xbcb33845	-0.021877417
15	0xbbea7fb7	-0.007156338
16	0xbc15980d	-0.00913049
17	0xbcd746a1	-0.026278796
18	0x3c24ecc2	0.010066213
19	0x3b425a1a	0.0029655755
20	0xbc835b14	-0.01603464
21	0xbca90b03	-0.020635134
22	0xbc5680e2	-0.0130922515
23	0xbba64801	-0.0050745015
24	0xbc8aaf5a	-0.016929317
25	0xbd08a8be	-0.03336405
26	0xbc83b540	-0.016077638
27	0x3c01a40b	0.007912646
28	0xbb97ef9c	-0.004636718
29	0xbccb8910	-0.02484563
30	0x3b1fcc62	0.0024383296
31	0x3b74a672	0.0037330654
32	0xbca23628	-0.019801214
33	0xbcdb7ca6	-0.026792835
34	0x3c3d2124	0.011543546
35	0xbcaa4d76	-0.02078889
36	0xbbc96a1a	-0.0061466815
37	0x3c93732d	0.017999256
38	0xbcb5715c	-0.02214878
39	0xbd1f6336	-0.038912974
40	0x3a5eb5e9	0.00084957347
41	0xbcb23266	-0.021752547
42	0x3bdae760	0.006680414
43	0xbcaa3281	-0.020776035
44	0x3bc04f0f	0.0058687995
45	0x3bc3cd95	0.005975435
46	0xbbcb8237	-0.006210591
47	0xbb883517	-0.0041567194
48	0xbbfed63b	-0.007777003
49	0x3c148f27	0.009067333
50	0x3be7c08d	0.0070725144
51	0xbcbda1e8	-0.023148492
52	0xbc8710d8	-0.016487524
53	0xbbed4e70	-0.0072420165
54	0xbcff01a9	-0.031128721
55	0x3b774f7b	0.0037736583
56	0xbcdbf613	-0.026850736
57	0xbd242d8c	-0.0400825
58	0xbca68712	-0.020328078
59	0xbc1d9a86	-0.009619361
60	0xbc53a15d	-0.01291689
61	0xbc13642c	-0.008996051
62	0xbc6644fb	-0.014054532
63	0xbce62db5	-0.028097967

base.cnn.9.weight f4 [64]
0	0x3f81f120	1.015171
1	0x3f808762	1.0041316
2	0x3f823b87	1.0174416
3	0x3f80e273	1.0069107
4	0x3f7ed33f	0.99541086
5	0x3f7a3257	0.9773306
6	0x3f80deda	1.0068009
7	0x3f87e904	1.0617986
8	0x3f812b1e	1.0091283
9	0x3f8a633e	1.0811536
10	0x3f82ca09	1.0217906
11	0x3f8173b1	1.0113431
12	0x3f8b3b10	1.08774
13	0x3f779245	0.96707565
14	0x3f79e0f1	0.9760886
15	0x3f866131	1.049841
16	0x3f75d0e0	0.9602184
17	0x3f81fb46	1.0154808
18	0x3f82a4b4	1.0206513
19	0x3f80a438	1.0050116
20	0x3f820f1c	1.0160861
21	0x3f766bb9	0.9625812
22	0x3f82224d	1.0166718
23	0x3f758c38	0.9591708
24	0x3f7aa403	0.9790651
25	0x3f83ca48	1.0296106
26	0x3f7fe7cc	0.9996307
27	0x3f843bec	1.0330787
28	0x3f83c898	1.0295591
29	0x3f7e6b84	0.99382806
30	0x3f7700bc	0.96485496
31	0x3f7be4dc	0.98396087
32	0x3f83d278	1.0298605
33	0x3f77a345	0.96733505
34	0x3f8071bf	1.0034713
35	0x3f81ce97	1.0141171
36	0x3f7b0f21	0.9806996
37	0x3f7ae595	0.98006564
38	0x3f7d62dd	0.9897898
39	0x3f7a70c2	0.97828305
40	0x3f799f5e	0.975088
41	0x3f809a9e	1.0047185
42	0x3f7efe33	0.9960663
43	0x3f81b048	1.0131922
44	0x3f7eea78	0.9957652
45	0x3f79e411	0.97613627
46	0x3f84fd9c	1.0389895
47	0x3f823276	1.017165
48	0x3f818c63	1.0120968
49	0x3f7f8bf2	0.99822915
50	0x3f8477fa	1.0349114
51	0x3f82aa67	1.0208253
52	0x3f8451f1	1.0337507
53	0x3f805dbf	1.0028609
54	0x3f886774	1.0656571
55	0x3f6de95d	0.9293421
56	0x3f77f3cd	0.96856385
57	0x3f8011ab	1.0005392
58	0x3f843c0e	1.0330827
59	0x3f72807f	0.9472732
60	0x3f7c71d0	0.98611164
61	0x3f82bb57	1.0213422
62	0x3f7fa71e	0.99864376
63	0x3f7e5d75	0.99361354

base.cnn.9.bias f4 [64]
0	0x3bd08402	0.006363393
1	0x3ba552a2	0.005045251
2	0x3a42b3de	0.0007427315
3	0x3c84da5e	0.016217407
4	0xbc697fa4	-0.014251623
5	0xbcfbb3aa	-0.030725319
6	0x3c0a0064	0.008422945
7	0xbd6462e0	-0.055758357
8	0xbcfec39b	-0.031099131
9	0xbd18b9ba	-0.037286498
10	0xbd10f5e9	-0.03539077
11	0x3d181da4	0.037137643
12	0xbd4cc41d	-0.049991716
13	0x3cc5d176	0.02414773
14	0x3cfe48e6	0.03104062
15	0xbd9ab5fc	-0.07554242
16	0x3d76ea33	0.060281944
17	0xbc0c0aef	-0.008547529
18	0x3c9fe2aa	0.019517262
19	0xbc5f1793	-0.01361646
20	0xbd5ec846	-0.054390214
21	0x3d10025c	0.0351585
22	0x3cfeb430	0.03109178
23	0x3ca4db70	0.020124167
24	0x3cf0da8b	0.029401084
25	0xbd08ed0d	-0.033429194
26	0x3ccf6a85	0.025319347
27	0xbd186715	-0.03720768
28	0xbc47f859	-0.012205207
29	0xbc7be26c	-0.015373807
30	0xbb6a3946	-0.0035739704
31	0x390397eb	0.00012549727
32	0xbc8360a0	-0.016037285
33	0x3d769dd4	0.06020911
34	0x3bbfc2bb	0.005852071
35	0xbcbbe01d	-0.022934014
36	0x3cbb13be	0.022836562
37	0x3d06757d	0.03282689
38	0x3d039ba8	0.032130867
39	0x3b140382	0.0022585099
40	0x3c1e9902	0.009680035
41	0x3b6c1bfc	0.0036027422
42	0x3cc9f262	0.02465171
43	0x3c5540d6	0.013015946
44	0xbce2f1f5	-0.027703265
45	0x3d07bff2	0.033142038
46	0xbcab07d2	-0.020877752
47	0xbd1b2d3b	-0.037884932
48	0x3a4ec75c	0.0007887983
49	0xbc911120	-0.017708361
50	0xbca9608b	-0.020675918
51	0x3b1694d2	0.0022976887
52	0xbc40b43b	-0.01176172
53	0xbc972aa3	-0.018452948
54	0xbd8cbb9a	-0.0687172
55	0x3d21a5e4	0.039464846
56	0x3d201eb5	0.039091785
57	0x3c0e4955	0.008684476
58	0xbd0b79fd	-0.034051884
59	0x3c8aae7f	0.01692891
60	0xbd0d397a	-0.034478642
61	0x3b9753c2	0.004618139
62	0xbd425556	-0.047444664
63	0x3c59872e	0.013276858

base.cnn.10.weight f4 [64, 64]
0	0xbc99397b	-0.018704167
1	0x3c78df94	0.015190024
2	0x3e1b97f2	0.15194681
3	0x3defe5e8	0.11713773
4	0x3e0eca79	0.13944425
5	0xbc86a14a	-0.01643433
6	0xbe01f354	-0.12690479
7	0x3e05f425	0.13081415
8	0x3e4884e2	0.19581941
9	0xbdf94076	-0.12170498
10	0x3e3caba1	0.18424846
11	0xbe9ba66c	-0.30400407
12	0x3ecefdcb	0.40428004
13	0xbe62444a	-0.22096363
14	0x3dc139d9	0.09434862
15	0xbe960ce3	-0.29306707
16	0x3e494de4	0.19658619
17	0x3d615e60	0.055021644
18	0x3e1b0081	0.15136911
19	0x3e2e8705	0.17043693
20	0x3deed66b	0.11661991
21	0xbe02fe0f	-0.12792228
22	0x3d28d39a	0.041217424
23	0x3e27a68a	0.16372123
24	0xbd701f05	-0.058623333
25	0x3d7786ac	0.060431167
26	0x3cb68622	0.022280756
27	0xbebbae63	-0.36656484
28	0xbe641ba9	-0.22276177
29	0xbdd0556c	-0.10172543
30	0xbebf2bd9	-0.3733814
31	0xbdb85aca	-0.09001692
32	0x3d79fa6e	0.061029844
33	0xbdcf7c9f	-0.101311915
34	0x3dbaafad	0.09115539
35	0xbe67e7b2	-0.22646978
36	0xbe20eedc	-0.15716118
37	0xbe246a1e	-0.16056105
38	0xbdf02ac9	-0.117269106
39	0xbeb1294a	-0.34601814
40	0xbe26cd78	-0.16289318
41	0xbe4e1bed	-0.2012784
42	0x3d7fd737	0.062461104
43	0xbde1b558	-0.11020917
44	0xbdb80e96	-0.08987157
45	0xbd929885	-0.07157997
46	0x3dbb9595	0.0915939
47	0xbd79056b	-0.060796183
48	0xbdafbd22	-0.08580996
49	0x3c18e54f	0.009332015
50	0xbeaeeea3	-0.3416644
51	0xbe9fa70e	-0.3118214
52	0xbe062d4a	-0.13103214
53	0x3e1860c0	0.14880657
54	0x3d559b82	0.052150257
55	0x3e38cb09	0.18046202
56	0xbea6b63a	-0.32560903
57	0x3d7bd86b	0.06148569
58	0xbccda3fd	-0.02510261
59	0x3edcd6eb	0.4313272
60	0xbda65160	-0.0812099
61	0x3e6d662e	0.2318351
62	0x3e8ba252	0.27272278
63	0xbd46fc9c	-0.04858075
64	0xbe3bb5ae	-0.18331024
65	0xbec91fd9	-0.3928211
66	0xbda87d8c	-0.08227071
67	0xbdac1d79	-0.08404059
68	0x3da423a2	0.08014609
69	0xbda08090	-0.07837021
70	0x3cf2c78c	0.029636167
71	0x3cbb7983	0.02288509
72	0x3d6836b8	0.05669281
73	0xbd557d87	-0.052121665
74	0x3f04be37	0.51852745
75	0xbc37df8d	-0.011222732
76	0xbc650df6	-0.013980379
77	0x3dbfed47	0.09371429
78	0xbe4fd4a1	-0.20295955
79	0x3b226d0e	0.002478424
80	0x3de63f0f	0.11242496
81	0x3e7a2ed9	0.24431933
82	0x3dc5c051	0.09655822
83	0xbdad0e7b	-0.084500276
84	0xbe89d500	-0.2692032
85	0x3baa3100	0.0051938295
86	0x3c5bcc54	0.013415415
87	0xbe6473bc	-0.22309774
88	0x3e7f2d67	0.24919663
89	0x3e4aa7a0	0.19790506
90	0xbd047782	-0.032340534
91	0xbd2745b2	-0.04083795
92	0x3cc73b0c	0.024320148
93	0xbe9d2655	-0.30693308
94	0xbd4323fa	-0.04764173
95	0xbb87d5d6	-0.0041453643
96	0xbbd43fbe	-0.006477325
97	0x3d986855	0.07441775
98	0xbeb9d1e4	-0.36292946
99	0xbe27aa70	-0.1637361
100	0xbe32d3f4	-0.17463666
101	0xbde58697	-0.112073116
102	0xbe56c6bd	-0.2097425
103	0x3e05b9d8	0.13059175
104	0x3e07ecb7	0.13273893
105	0xbd620cb2	-0.05518789
106	0xbd603ba0	-0.054744363
107	0x3eb940c2	0.3618222
108	0x3db19739	0.086714216
109	0xbe664580	-0.2248745
110	0x3d212cd7	0.039349403
111	0x3dab60ba	0.083680585
112	0x3d8c1f1d	0.06841872
113	0xbe783521	-0.24239017
114	0x3ea5b781	0.32366565
115	0xbd909d9a	-0.0706131
116	0x3de99dda	0.11407061
117	0xbdaf62bd	-0.08563755
118	0xbe3bd1fc	-0.18341821
119	0xbcdc1d78	-0.02686952
120	0xbeae2fdf	-0.34020898
121	0x3e152760	0.14565802
122	0xbea36c54	-0.31918585
123	0xbd1dfd73	-0.038571786
124	0x3dfbe29b	0.12299081
125	0xbe5b0911	-0.21390177
126	0x3d0f4655	0.034979183
127	0x3d30ec55	0.043194134
128	0xbe36f5a6	-0.17867145
129	0x3e532391	0.20619036
130	0xbe6bce3d	-0.23027892
131	0xbebe26e5	-0.3713905
132	0xbdb1e4dd	-0.0868623
133	0x3dd85d91	0.105647214
134	0xbe5247f4	-0.2053526
135	0x3e2210a9	0.15826668
136	0x3dd32d63	0.10311391
137	0xbed35f9b	-0.4128388
138	0x3e6d2ce6	0.23161659
139	0xbdf4fe77	-0.11962598
140	0x3e7496c2	0.23885635
141	0xbe383d32	-0.17992094
142	0xbdb8e155	-0.09027354
143	0x3b0b6c20	0.0021274164
144	0xbe52e6a8	-0.20595801
145	0xbcbea3b0	-0.023271412
146	0x3dea536a	0.11441691
147	0x3d3dbfec	0.04632561
148	0xbc9c0e2b	-0.019049725
149	0x3d348efd	0.044081677
150	0xbe0a420b	-0.13501756
151	0x3dbbd165	0.09170798
152	0x3e3e95d8	0.18611848
153	0x3def5ecc	0.11688003
154	0x3e15ae0c	0.14617175
155	0xbe511bdf	-0.20420788
156	0xbe0f59e0	-0.13999128
157	0x3cd137a8	0.025539234
158	0xbcf7a49e	-0.030229863
159	0x3d40d230	0.04707545
160	0xbd9874ea	-0.074441746
161	0xbc910941	-0.017704608
162	0xbe7a2538	-0.2442826
163	0xbd7cf71f	-0.06175911
164	0x3e95f265	0.29286495
165	0xbd74601c	-0.05966197
166	0x3e88e424	0.26736557
167	0x3e90f285	0.28310028
168	0xbe040052	-0.12890747
169	0x3ec8677c	0.39141452
170	0xbcec6d6d	-0.028860772
171	0xbb4a899b	-0.0030904773
172	0xbe3654b6	-0.17805752
173	0x3d78fbbb	0.060786944
174	0xbd09def7	-0.0336599
175	0x3dc0ec29	0.09420044
176	0xbe20d5ce	-0.1570656
177	0xbe0541b5	-0.13013346
178	0xbd276a08	-0.040872604
179	0xbe880e08	-0.26573205
180	0xbe74bace	-0.23899385
181	0x3e47bbdf	0.19505261
182	0xbe280ae5	-0.16410406
183	0xbe058a52	-0.13041046
184	0x3e69cc05	0.22831734
185	0x3e43541e	0.19075057
186	0x3e989d13	0.29807338
187	0xbe598fe0	-0.2124629
188	0x3ec4f2d7	0.38466522
189	0xbc2af4b6	-0.01043432
190	0xbb9e4e02	-0.0048310766
191	0xbdd2c578	-0.102915704
192	0xbd86b8b1	-0.06578196
193	0xbe57788d	-0.2104208
194	0x3e06f000	0.1317749
195	0xbd823fdc	-0.063598365
196	0xbeb16c98	-0.34653163
197	0x3d82bb15	0.06383339
198	0x3e64b58b	0.22334878
199	0x3de28aad	0.110616066
200	0xbdef0e84	-0.116726905
201	0x3c901d2c	0.017592035
202	0xbd8fa207	-0.07013326
203	0x3e962f65	0.29333034
204	0x3e8cafb1	0.27477792
205	0x3dabed0b	0.08394822
206	0x3da83c24	0.08214596
207	0xbd081106	-0.03321936
208	0xbe3dab3a	-0.18522349
209	0xbde5e843	-0.11225941
210	0xbe00991e	-0.1255841
211	0xbe230416	-0.15919527
212	0x3d03c803	0.032173168
213	0x3e8df3d3	0.27725086
214	0xbdd2e8ae	-0.102982864
215	0x3dedb91e	0.11607574
216	0xbe9d8f49	-0.3077338
217	0x3c2b44fc	0.010453459
218	0x3c910c18	0.017705962
219	0xbe919341	-0.28432658
220	0x3e35c760	0.17751837
221	0xbc59fd0d	-0.013304961
222	0xbeaf1029	-0.34192017
223	0xbeffc65b	-0.4995602
224	0x3e064914	0.13113815
225	0x3c8a28eb	0.016865214
226	0x3c67407b	0.014114494
227	0x3d588193	0.052857947
228	0x3ed228d6	0.4104678
229	0x3b119bb2	0.0022218046
230	0xbd549273	-0.051897477
231	0xbdab2ca8	-0.08358127
232	0x3e831e52	0.2560907
233	0x3d919d05	0.07110027
234	0xbe7320fd	-0.23743053
235	0x3e79a8b2	0.24380758
236	0xbe87eed8	-0.2654941
237	0x3e1def58	0.15423334
238	0xbd9fb606	-0.0779839
239	0xbdeff9db	-0.11717578
240	0xbe54ff51	-0.2080052
241	0xbe83539c	-0.25649726
242	0xbca7d9d3	-0.020489609
243	0x3e156afd	0.14591594
244	0xbe8a12ca	-0.2696746
245	0xbe1dedc9	-0.15422739
246	0x3bd77277	0.0065749246
247	0x3d6ea38e	0.058261447
248	0xbd46d662	-0.048544295
249	0x3e3b5841	0.18295385
250	0xbea0c63e	-0.31401247
251	0x3e97d82e	0.2965712
252	0x3d0bb8fe	0.03411197
253	0xbe58a9ff	-0.21158598
254	0xbd87da60	-0.066334486
255	0xbd00bf46	-0.031432413

base.cnn.10.bias f4 [64]
0	0xbb9b86d5	-0.004746298
1	0xbbf55bbc	-0.007487742
2	0xbd0ba359	-0.034091327
3	0x3c29092f	0.010317131
4	0xbd7df585	-0.062001724
5	0x3c0359b1	0.00801699
6	0xbbe9672b	-0.0071228943
7	0xbbf0ca80	-0.0073483586
8	0x3d88c307	0.066778235
9	0xbba4b77f	-0.0050267573
10	0x392093c2	0.00015313833
11	0x3bae6799	0.0053224084
12	0xbcdb79ea	-0.026791532
13	0xbd2d0383	-0.042239677
14	0x3c58f7bf	0.013242661
15	0x3a2269f2	0.00061955967
16	0xbd0cfe84	-0.034422413
17	0xbd80d597	-0.06290739
18	0xbd4ff346	-0.050769113
19	0xbd4b8468	-0.04968682
20	0xbc20f917	-0.009825013
21	0x3ccc0bbe	0.024907943
22	0xbcd9d2be	-0.026589748
23	0xbd3ecfe6	-0.046584986
24	0xbcb3361d	-0.02187639
25	0xbc94792d	-0.018124187
26	0x3cd5b975	0.02608941
27	0xbc8038db	-0.01565211
28	0xbc505583	-0.0127157
29	0xbcf136fb	-0.029445162
30	0xbdaf1f08	-0.085508406
31	0xbc2b54fc	-0.010457274
32	0xbcdae21e	-0.02671915
33	0xbcc02dd8	-0.02345936
34	0x3aa20a42	0.0012362676
35	0xbc391cee	-0.011298401
36	0xbc809783	-0.015697246
37	0x3c2a0556	0.010377249
38	0x3bbc7e99	0.0057523963
39	0xbd22c575	-0.03973909
40	0x3cb71b4b	0.022351881
41	0xbbc0f503	-0.0058885827
42	0xbd390b5c	-0.04517685
43	0x3c57097a	0.013124818
44	0x3d1db93d	0.038506735
45	0xbd590611	-0.0529843
46	0xbd0e8ace	-0.034800343
47	0xbcb3387a	-0.021877516
48	0xbd8199db	-0.06328174
49	0xbbe004af	-0.006836496
50	0xbaef5949	-0.0018260862
51	0x3c75773c	0.014982041
52	0xbbe6cb3d	-0.007043271
53	0xbc7243fb	-0.014786716
54	0x3a4c676c	0.00077973935
55	0xbdae634c	-0.08515033
56	0xbd634474	-0.055485204
57	0xbd3f76f3	-0.0467443
58	0xbddc063d	-0.10743377
59	0xbbeaf64f	-0.0071704756
60	0xbc2f0e96	-0.01068463
61	0x3cb42c5b	0.021993807
62	0xbbd45d45	-0.006480845
63	0xbc27314d	-0.010204625

base.cnn.12.weight f4 [64]
0	0x3f82e4c0	1.0226059
1	0x3f718047	0.9433636
2	0x3f70cc4d	0.9406174
3	0x3f8be419	1.0928985
4	0x3f881696	1.0631893
5	0x3f7a9ce7	0.97895664
6	0x3f82d3f8	1.0220938
7	0x3f74c87d	0.9561842
8	0x3f7dbcdc	0.991163
9	0x3f6c9d63	0.92427653
10	0x3f853bd9	1.0408889
11	0x3f83d4ae	1.029928
12	0x3f7cd338	0.98759794
13	0x3f70a982	0.9400865
14	0x3f7f0c56	0.996282
15	0x3f86e651	1.0539037
16	0x3f71a7c1	0.943966
17	0x3f75490f	0.95814604
18	0x3f711215	0.94168216
19	0x3f7b6f49	0.9821668
20	0x3f8e9088	1.1137857
21	0x3f8a3a12	1.0798972
22	0x3f75ab00	0.9596405
23	0x3f6e0aa6	0.92985
24	0x3f7ceef1	0.98802096
25	0x3f63e89a	0.89026797
26	0x3f87d78b	1.0612653
27	0x3f62b753	0.8856098
28	0x3f80cf74	1.006331
29	0x3f73ad62	0.95186436
30	0x3f817023	1.0112346
31	0x3f7b0981	0.98061377
32	0x3f82af2b	1.0209707
33	0x3f745f67	0.9545807
34	0x3f845839	1.0339423
35	0x3f8145e7	1.0099458
36	0x3f6d87b5	0.927852
37	0x3f819148	1.0122461
38	0x3f68448a	0.9072958
39	0x3f820ef8	1.0160818
40	0x3f87892a	1.0588734
41	0x3f8b25a6	1.0870864
42	0x3f62caf7	0.8859095
43	0x3f79c6c8	0.9756894
44	0x3f901ff7	1.1259755
45	0x3f705b86	0.93889654
46	0x3f858dc9	1.0433894
47	0x3f814b33	1.0101074
48	0x3f7b7cfd	0.9823759
49	0x3f7e0728	0.9922967
50	0x3f81ccda	1.0140641
51	0x3f78d2c8	0.97196627
52	0x3f856d47	1.0423974
53	0x3f75e401	0.9605103
54	0x3f82e26e	1.0225351
55	0x3f7db1b6	0.9909929
56	0x3f7a225c	0.9770868
57	0x3f73331f	0.9499988
58	0x3f6c2f65	0.9225982
59	0x3f860161	1.0469171
60	0x3f7d8ebb	0.99045914
61	0x3f762437	0.9614901
62	0x3f7c462c	0.98544574
63	0x3f84d6df	1.0378073

base.cnn.12.bias f4 [64]
0	0xb8a777c2	-7.985487e-05
1	0x3c4e703a	0.012599999
2	0x3ce96a60	0.028493106
3	0xbcb0b395	-0.021570006
4	0xbd40d5a6	-0.04707875
5	0x3ca1e5ee	0.01976296
6	0xbcd1e1ef	-0.025620429
7	0x3cfcb243	0.03084672
8	0x3d99dfdf	0.07513403
9	0xbcadb50d	-0.021204496
10	0xbcf3eeed	-0.029777015
11	0x3bd1493d	0.0063869045
12	0xbd2cb353	-0.042163204
13	0xbc2ae858	-0.010431372
14	0x3cfe9e05	0.031081209
15	0x38d78237	0.00010276253
16	0xbca9d85c	-0.020733051
17	0xbd484378	-0.04889247
18	0x3b2b2998	0.002611732
19	0x3bb7ce23	0.00560929
20	0xbd316903	-0.043313038
21	0x3a757101	0.0009362847
22	0xbc45d9bc	-0.012075838
23	0xbd030df8	-0.031995744
24	0xbc46de1e	-0.012137918
25	0x3d4e8bf4	0.05042644
26	0xbc9409d4	-0.018071093
27	0x3c3d6322	0.01155928
28	0xbccde789	-0.025134819
29	0x3d131afc	0.035914406
30	0xbda03ffd	-0.07824705
31	0x3d8b89cd	0.06813393
32	0x39d7c14c	0.00041152013
33	0x3da7243e	0.081612095
34	0xbc20af66	-0.009807443
35	0xbceb86c5	-0.028750787
36	0xbb171aa3	-0.0023056648
37	0x3ce9c783	0.028537517
38	0xbd0034d8	-0.031300396
39	0xbd3b56e6	-0.04573717
40	0xbc851fe9	-0.016250568
41	0xbbd1efec	-0.0064067747
42	0x39a8e032	0.00032210496
43	0x3d0461cd	0.032319833
44	0x3b37f792	0.0028071147
45	0xbc4a7078	-0.012355916
46	0xbd004aa1	-0.03132117
47	0xbc948149	-0.018128054
48	0xbca1675e	-0.01970261
49	0x3d40b999	0.047052
50	0xbc83a082	-0.016067747
51	0x3d6c88c4	0.057747617
52	0x38d5a1cf	0.00010186771
53	0x3c251d38	0.010077767
54	0xbca1e066	-0.019760322
55	0xbc50cf66	-0.01274476
56	0xbc94a2dc	-0.018144064
57	0x3cd368cd	0.025806809
58	0xbd34f822	-0.04418195
59	0xbd0c5888	-0.034264117
60	0x3d001a47	0.03127506
61	0x3b87cfe6	0.0041446565
62	0xbd134a7a	-0.0359597
63	0x3c7eafda	0.015544856
