CRL_human_AI_overcooked/human_models/model_random1/actor_best_r3.pt (torch, 419409 bytes, 20 tensors)

base.cnn.0.weight f4 [32, 20, 3, 3]
000000 c0 c9 97 bd e3 54 18 be bb c1 ff 3d 43 27 65 be
       -0.07411528 -0.14876132 0.12488123 -0.22378258
000010 9a 9e 91 3e e4 2f 0f bd 4f fe 49 3e c6 c9 82 b9
       0.28441316 -0.03495778 0.19725917 -0.00024945865
000020 cf ed 3f bd dc a0 38 3d 31 8f d3 bc ab 55 82 3c
       -0.04685765 0.045075282 -0.025825115 0.01590999
000030 e8 a3 f9 3c ec 4d 76 be df 3c 16 3e d0 e6 81 3d
       0.030473664 -0.24053162 0.14671658 0.06342852
000040 04 f8 33 be f7 c0 12 3e b7 e0 f1 3d 8a a6 08 bd
       -0.17575079 0.14331423 0.11810439 -0.03336195
000050 f0 4a 59 bd ab 40 7a be b4 72 f0 bd 13 91 3b 3c
       -0.05304998 -0.24438731 -0.11740628 0.011448163
000060 21 c7 87 3e 64 2e 10 be 8c 4d 17 3e b1 3e a6 be
       0.2651911 -0.14080197 0.14775676 -0.32469705
000070 22 0b a5 3d 1f c8 b2 bc f9 3e f8 bc f2 f7 62 bc
       0.08058764 -0.02182394 -0.030303465 -0.01385306
000080 07 14 35 be f7 6b a8 bd 44 8d 18 3d f8 53 1d 3e
       -0.17683421 -0.08223718 0.037244096 0.15364063
000090 38 f5 ad 3d ed b1 11 3a 59 f7 a6 bd ef e9 44 3d
       0.084940374 0.0005557824 -0.081526466 0.04807466
0000a0 e1 51 01 be 7a ad 4f bd 8b 56 4f 3e 31 33 1f 3d
       -0.1262889 -0.05070255 0.20247857 0.03886718
0000b0 ba 8b 4e be 53 c0 b9 bd 3d 3b 6f 3d b1 41 18 3e
       -0.20170489 -0.09069886 0.058406103 0.1486881
0000c0 28 12 31 be 7a ee 91 3e 7c 4d 1e 3e a5 72 af 3d
       -0.17292082 0.28502256 0.15459245 0.085667886
0000d0 de 60 e3 bd 2c 38 e0 38 1f ee 09 bd 38 99 35 3e
       -0.1110246 0.00010691615 -0.033674356 0.1773423
0000e0 56 8c 3d 3d b0 56 8d bd e5 d0 2e 3d e2 48 74 bc
       0.046276413 -0.069013 0.042679686 -0.014909955
0000f0 5d 3e 47 be b8 c1 64 3e 06 41 47 3d e6 44 fc 3d
       -0.19457383 0.22339523 0.048645996 0.12317829
000100 32 04 9b bd c2 5b 08 be 2a 23 0d bc 83 fa 39 be
       -0.075691596 -0.13316253 -0.008614341 -0.18161969
000110 21 ce 52 3d c4 91 a1 bc 92 69 63 be 41 24 eb 3d
       0.05146611 -0.019722827 -0.2220824 0.11481524
000120 db cc f4 3d 69 83 64 3e 09 9e 19 3d af de 35 be
       0.119531356 0.22315754 0.03750423 -0.17760728
000130 6a 99 66 bd ab 8d 01 bc f8 8c 6f bd 0e 35 39 bd
       -0.05629865 -0.007907311 -0.058484048 -0.045216613
000140 24 48 9d 3d 83 ad d3 bd 57 00 2c bd a4 64 b9 3e
       0.07679775 -0.10335829 -0.04199251 0.36209595
000150 40 18 18 be 61 68 9f be 30 be a0 3e cb af fd 3c
       -0.14853 -0.31134322 0.31395102 0.030967614
000160 fa 10 0c bc 80 b7 0c 3e 0c 88 1d 3d 67 11 eb bd
       -0.008548969 0.13741875 0.038459823 -0.114779286
000170 59 47 a4 bd c6 9c 3c bc 1f ce c7 3c a7 55 54 be
       -0.08021421 -0.011511987 0.024390278 -0.20735799
000180 76 9a 88 3a 1b 3a 76 3c 90 fe 37 3d 36 26 ba ba
       0.001042201 0.015028502 0.044920504 -0.0014202062
000190 7e 10 5e 3d dc bf 33 3e f6 22 01 bd 22 02 7a bd
       0.054214947 0.17553657 -0.031527482 -0.06103719
0001a0 52 ad e1 bd f6 50 e8 bd 2b 96 27 3e ed 2c 88 3d
       -0.11019386 -0.11343567 0.16365878 0.06649194
0001b0 22 a5 a5 3d 7c 55 98 bd 75 ca f0 bc 57 bb 9d bd
       0.08088137 -0.0743818 -0.029393414 -0.07701748
0001c0 de 7c e2 3d 86 cc 93 bc a2 b6 09 be d8 dd 10 bd
       0.11058973 -0.01804186 -0.13448575 -0.035367817
0001d0 4e 4b 10 3e 3f 87 38 3e da 05 0a bc 25 63 4f be
       0.14091226 0.18020342 -0.008424247 -0.20252664
0001e0 b8 04 3e bd bd d8 1e be 5f 77 31 bc 7e 8b 2e 3c
       -0.04639122 -0.15512367 -0.010831683 0.010653375
0001f0 2b 43 49 3e 8d 6e 0e 3d ae 2e 2a 3e 35 44 47 3d
       0.19654529 0.0347734 0.1661937 0.04864903
000200 63 32 9e 3c 4e 92 01 bd 6f 90 f1 3c e8 58 9f bd
       0.019311136 -0.031633668 0.029487817 -0.077806294
000210 0c 73 9c 3c 49 d4 95 bc 8e 70 dc bc d6 29 f9 bd
       0.019097827 -0.018289702 -0.026909139 -0.12166183
000220 96 5d d9 bd c6 8d ab 3d 90 91 93 bd 2f 9f b3 3d
       -0.10613553 0.083766505 -0.07205498 0.08770596
000230 76 52 7c 3d 6a 06 9a be c9 94 9f 3d 12 d0 ae bc
       0.06160208 -0.3008302 0.077920504 -0.02133945
000240 ff 30 d4 bd 04 6d 6b bd 63 d1 1f 3d e7 dd a7 3c
       -0.10360908 -0.057477012 0.039018046 0.020491553
000250 d3 7e 80 bd cf d6 b5 3d 94 4a ce 3d 1f ea 32 3c
       -0.0627419 0.08878862 0.100728184 0.010920077
000260 c7 06 05 3e ea e5 94 bd c1 ba 1a 3d 95 82 18 be
       0.12990867 -0.07270415 0.03777576 -0.14893563
000270 53 e0 96 3d c9 b6 6b be d3 d9 33 bd 86 ee 7e bc
       0.07367005 -0.23018946 -0.043908905 -0.015559798
000280 ec fc 65 be 2b de 23 bc cc 0c 47 bd 77 68 d5 3b
       -0.22459763 -0.010001699 -0.04859619 0.0065126973
000290 bc fc 61 3e 11 c4 20 be ae 66 4a 3e 62 1a b4 3c
       0.22069067 -0.15699793 0.19765732 0.021985237
0002a0 17 d2 2b be 43 dc 14 3c 49 c3 3d be f2 86 8e 3d
       -0.16779362 0.009085718 -0.18531527 0.069593325
0002b0 d4 df d1 3d 4c 3e 15 3e 93 a8 0c be a1 46 cb 3e
       0.1024777 0.14574546 -0.13736181 0.39702323
0002c0 b7 b4 0b be 2c 6a 49 3e aa 36 11 3e 25 85 89 bd
       -0.13643156 0.19669408 0.14181009 -0.067148484
0002d0 44 d3 67 bd 03 75 9b bd b1 4f bc 3d c7 d0 e7 bd
       -0.056597963 -0.075906776 0.091948874 -0.11319118
0002e0 ec a3 4a bc d7 22 5d bd 74 1f fc 3d 31 38 26 be
       -0.012368184 -0.053988304 0.12310687 -0.16232373
0002f0 bd c6 8b 3e c3 eb d9 3c a5 55 85 3d fd 9e 23 be
       0.27300063 0.026601678 0.06510476 -0.15978618
000300 16 cd 68 3c c5 0a 06 3e b6 76 73 3c 6d 1d 89 bd
       0.014209053 0.13090046 0.014859846 -0.06695066
000310 6d 01 4d 3e 90 ca c7 3d 55 0b b5 3b 18 88 46 be
       0.20020075 0.097554326 0.0055250325 -0.19387853
000320 a6 c3 16 3d d6 d3 8a bd 6d df 96 bd 03 a6 12 be
       0.03680768 -0.06778686 -0.07366834 -0.14321141
000330 f6 f5 54 be 8a 0b 3d be 45 fb 63 bd 5c ac 2e 3e
       -0.20796952 -0.18461433 -0.05565955 0.17057937
000340 4c 55 78 3d d6 99 1f 3e a2 3d d7 3d f5 26 15 be
       0.06062822 0.15586028 0.105098024 -0.14565642
000350 bf 74 89 bd 26 42 fe 3d 4c d1 db 3d 19 13 0a 3d
       -0.06711721 0.124149606 0.107332796 0.03370962
000360 99 7e 6a bd 01 62 71 be 28 f8 a7 bc e4 99 a4 bd
       -0.05724964 -0.23572542 -0.020504072 -0.08037165
000370 b8 a7 6d b9 5d 19 b6 bc 8d 02 e2 3d 5f 6f 68 bd
       -0.00022664561 -0.022228891 0.11035643 -0.056746837
000380 e4 f7 88 3c a1 2a bf 3d 4a e5 83 be 56 f8 2e be
       0.016719766 0.09334303 -0.2576087 -0.1708692
000390 00 32 44 be e0 cd 65 3d 04 21 cb 3c ef 53 c0 bb
       -0.19159698 0.05610454 0.024796017 -0.0058693807
0003a0 48 43 f0 bd d6 cf 9e 3d 8e 5f 8b 3d 8a 29 57 bd
       -0.11731583 0.07754485 0.06805335 -0.05252985
0003b0 83 ba 91 be f0 90 ba bd 6a 79 f9 3c 3e 6d 3e 3d
       -0.2846261 -0.09109676 0.030453403 0.0464909
0003c0 5c 90 9e bd d8 8a 47 bd 1c 95 10 3d 16 08 23 3d
       -0.07742378 -0.048716396 0.03529845 0.039802633
0003d0 bf 6b c8 3b 79 45 95 bd 69 1b 98 3c ae cd fe 3c
       0.00611636 -0.072886415 0.018567758 0.031103935
0003e0 cc 48 90 3d 60 fe 71 be 88 d8 e7 3d 2a 73 e3 bb
       0.07045135 -0.23632193 0.11320597 -0.006941219
0003f0 bf 9c 89 3e fd 8f 6b be 7c cf 8c 3c 51 8c 0c 3e
       0.268774 -0.23004146 0.01718878 0.13725401

base.cnn.0.bias f4 [32]
000000 de 07 5c bd 53 6a 70 bc e4 17 7f bd 15 95 78 3b
       -0.05371844 -0.014673787 -0.062278643 0.0037930657
000010 1e ab 18 bd 44 fb 18 bd 96 a2 64 bc f0 83 41 bd
       -0.037272565 -0.037349 -0.013954779 -0.047244966
000020 94 09 a7 bd cf 4c 86 bd db 79 81 bd 17 fa fe bc
       -0.08156124 -0.06557619 -0.0632207 -0.031125112
000030 d2 df 55 bd 04 5d 01 3c bb 33 5f 3d 61 4b 8f bd
       -0.052215405 0.007895712 0.054492693 -0.06996799
000040 ee 25 bf bb 38 f9 e1 bc 04 b3 a8 bd 67 53 3f bd
       -0.005833379 -0.027584657 -0.082372695 -0.046710398
000050 83 c5 fe bc aa 89 04 bd 26 ed ac bd bf 4f 37 bb
       -0.03110004 -0.03235785 -0.0844367 -0.0027971116
000060 75 b8 26 bd 8e 9e df 3a c9 2c 78 bc cf ac 63 bb
       -0.040703256 0.0017060803 -0.015147396 -0.0034740453
000070 a2 e3 b5 3c f2 61 1a bd f0 30 f5 3b 67 d1 3b bb
       0.02220327 -0.037691064 0.0074826404 -0.002865875

base.cnn.2.weight f4 [64, 32, 3, 3]
000000 25 3e a8 3b 02 57 cc bd cc b3 02 bd 12 48 ef 3d
       0.0051343613 -0.09977533 -0.03190975 0.11683668
000010 26 d4 4f be 0c 66 92 3d 59 c9 25 bc 19 32 5f 39
       -0.20295772 0.0714837 -0.010118806 0.000212856
000020 64 95 1d bd 6a d1 6b 3b d6 20 84 bd 8d 14 e3 3c
       -0.038472548 0.0035982975 -0.064515755 0.02771976
000030 35 45 15 be db ea 1e bd cd ba 3d bd 19 72 4d be
       -0.14577182 -0.038798194 -0.046320725 -0.20063056
000040 4a 0f 2c 3d 63 81 ba bd 68 3f 17 3c 95 8e a2 3d
       0.04200677 -0.0910671 0.009231426 0.079373516
000050 aa ea 56 3d 9f e3 03 bd a6 f4 0a 3d cd 4b 0a be
       0.052469887 -0.0321995 0.03392472 -0.13505478
000060 8c dd d6 bd bb 59 be 3d a0 4e 63 3d cc 65 05 3d
       -0.104914755 0.092944585 0.055494905 0.032567784
000070 1a b9 c4 bd 73 5f d6 3d cc a2 fc bc 88 f1 a3 3d
       -0.09605618 0.10467424 -0.030839346 0.08005053
000080 e0 32 ac bd 4b dd 28 be 64 46 c6 3c 89 fd 58 be
       -0.08408141 -0.16490667 0.024203487 -0.21190466
000090 c7 b6 f4 bc be f6 6c 3d 45 ab 56 3e be 5e d1 ba
       -0.029872311 0.0578525 0.20963772 -0.001597367
0000a0 cb 77 9b bc 19 38 15 3d 0c a7 a9 3c 7d 48 b3 3d
       -0.01897802 0.036430452 0.020709537 0.087540604
0000b0 29 a0 50 3d f6 67 51 bd b1 39 35 3d 2c 9c 63 3e
       0.05093399 -0.051124536 0.044244472 0.22227544
0000c0 90 26 17 3e 58 c1 15 3e f8 a1 ce bd 58 3b 95 bd
       0.14760804 0.14624536 -0.10089487 -0.072867095
0000d0 40 89 5a bd ab 01 47 bd f3 ad ef 3d f9 fe ff 3d
       -0.053353548 -0.048585575 0.117031 0.12499804
0000e0 b0 80 30 bc fe 34 12 3d de 8f f9 3c da e5 46 bd
       -0.010772869 0.03569507 0.030464109 -0.048559047
0000f0 ca f2 84 bd 6f 51 a6 bd ee 5e 57 3d ec 6c d8 3c
       -0.06491621 -0.08121001 0.052580766 0.026419125
000100 bf b6 d0 bd 6e 14 73 bd 23 c9 2e be 8a bd 8e bd
       -0.10191106 -0.059345655 -0.17068915 -0.069697455
000110 df 54 f4 bd a8 87 c8 3c de b3 a8 bc 4a 8e be bc
       -0.119302504 0.024478748 -0.02059358 -0.023261208
000120 70 24 ac 3d 84 66 03 bd 4e 92 49 be b9 b8 fc 3d
       0.084053874 -0.03208019 -0.19684717 0.123399206
000130 c6 57 15 be 06 7d 04 3e 95 ef 3b 3d 98 16 97 3d
       -0.14584264 0.12938318 0.04588278 0.07377356
000140 35 44 0e bd c7 b4 10 be e7 2a 8e 3d 90 62 96 3d
       -0.034733016 -0.14131461 0.06941777 0.07343018
000150 62 53 85 bc e1 bf 9a 3d c0 1e 04 3e d9 ff 1b 3d
       -0.016275112 0.07556129 0.12902355 0.038085792
000160 54 bf 39 bd 6e 23 c4 bb 9c 21 a3 bd 35 09 14 be
       -0.04534848 -0.005985669 -0.07965395 -0.14456637
000170 dd b3 30 3d 60 c9 34 bd fb 7f 5e 3d ab 04 ed bb
       0.04314028 -0.04413736 0.05432127 -0.0072332225
000180 e1 3b b4 bc 62 95 6b bd ca af da 3c bc 73 fa 3c
       -0.022001209 -0.05751551 0.02669515 0.030572765
000190 20 50 b9 3c 52 c5 d0 bd d0 11 87 3d 78 88 12 3e
       0.022621214 -0.10193886 0.06595194 0.14309871
0001a0 dc 51 03 be d4 85 15 bd 1b 7f ed bd 48 5d 8d 3a
       -0.12824196 -0.03650458 -0.11596509 0.0010785246
0001b0 4e 67 38 bd 79 f5 1c 3a d5 53 24 3d 17 e9 84 3d
       -0.045020394 0.0005987506 0.04011901 0.06489771
0001c0 b1 3f 01 bd 2b a0 d7 bc 2f 63 69 3d 7a 24 cf bd
       -0.03155488 -0.026321491 0.056979354 -0.10114379
0001d0 0e fb 7f bd 18 81 b4 bd e4 17 1e be 56 3b 13 3e
       -0.062495284 -0.08813685 -0.15438801 0.14378104
0001e0 21 37 19 bd da c3 22 be 7a ec 50 bd e3 8a 10 3c
       -0.03740609 -0.15895024 -0.05100677 0.008822176
0001f0 4d 4c d7 3d ef 04 bd bd 64 02 84 bb 5d 8d ac 3d
       0.105126 -0.09229457 -0.0040286053 0.084254004
000200 9b 8e da 3d 3b 0a a0 bd 87 33 ef bd 49 ec 94 3d
       0.10671731 -0.07814451 -0.1167975 0.0727163
000210 4c f2 2a 3e 68 ca 9f 3d 37 b5 4e be b3 ac 2e ba
       0.16693991 0.07802278 -0.20186315 -0.00066633074
000220 f8 64 1a 3e a9 4a 39 3d 58 f4 d4 3d 77 2b 46 3e
       0.15077579 0.045237217 0.10398167 0.19352518
000230 02 6a 9b 3d 24 51 2e 3e 9c 60 d2 bd 28 a5 5e 3c
       0.07588579 0.1702314 -0.10272333 0.013589181
000240 5f dd 96 3b b6 6f d2 3d c2 12 6e bd 3e 57 58 be
       0.004604026 0.102752134 -0.058123358 -0.2112703
000250 1f f1 11 bd 84 5e 9a 3d 4a 6b ba bb 31 f0 76 3d
       -0.03563034 0.07537559 -0.0056890594 0.060287658
000260 0b f3 ad 3d 5b 94 1d 3d b3 17 2a 3e 28 55 1f 3e
       0.084936224 0.03847156 0.16610603 0.15559828
000270 99 c3 8f 3c e6 94 c0 bd 1d 7e 4e be 56 c9 10 be
       0.017549323 -0.094034 -0.20165296 -0.14139304
000280 a8 60 07 bd e5 5c 71 bc a9 18 7d 3d e6 42 06 bc
       -0.033051163 -0.01473162 0.061791096 -0.008194661
000290 7d 22 ce bc 1a bd 24 bd e5 5b c8 bc 34 7f 7d bd
       -0.02516293 -0.040219404 -0.024457881 -0.06188889
0002a0 61 9f 22 be a3 04 97 bd 27 fb 1e 3e 43 28 cc bd
       -0.1588111 -0.07373931 0.15525495 -0.09968617
0002b0 2c af 65 3d 6c 33 67 3d 62 74 09 3d 8e e0 00 3e
       0.05607526 0.056445524 0.033558257 0.12585661
0002c0 3b 9c a9 bb 45 82 83 bd d8 b4 ba 3d 28 56 3f bd
       -0.005176095 -0.06421331 0.091165245 -0.046713024
0002d0 f5 08 f5 bd 88 2c 49 be 54 7e 01 3e 99 43 fd bd
       -0.11964599 -0.19645894 0.12645847 -0.12366409
0002e0 f4 83 d2 bd ea 3d 00 3e 47 ee ff 3d 7e 81 6a bd
       -0.10279074 0.12523618 0.1249662 -0.0572524
0002f0 33 1f ac 3d 7d 5e 82 bd c8 dc 13 bd 19 e2 cd 3c
       0.08404388 -0.063656785 -0.036099225 0.025132226
000300 2d ee 87 3d 73 ba 9e bc 9a ae 3c bd 0a 9f bf bd
       0.06637225 -0.019376015 -0.04606495 -0.09356506
000310 63 a5 05 bd 64 95 89 bd c0 47 c3 3d a2 42 91 be
       -0.03262843 -0.06717947 0.095351696 -0.2837115
000320 f5 17 78 3c 95 8c b5 3d 35 e7 6f 3d 5c de 12 3d
       0.015142431 0.088647045 0.058570106 0.03585659
000330 9a 87 37 3d f5 7e 29 be e2 c7 e2 bd 0a d4 da bd
       0.044807054 -0.16552337 -0.11073281 -0.106849745
000340 b8 04 e0 bb c3 ed 88 3a ab 90 c0 3d 1a 48 5b 3d
       -0.0068365 0.0010446835 0.09402593 0.05353556
000350 b1 78 c4 3c 2c c8 2e 3d fd af 18 3e 67 22 ca 3d
       0.023983331 0.042671368 0.14910884 0.09869843
000360 03 ab 1b 3c cb de 00 3e 23 6f c8 bc 56 24 94 bd
       0.009501222 0.12584989 -0.024467057 -0.07233493
000370 15 79 8f bd 9e d3 15 3c 48 36 8c bd 02 bf eb 3c
       -0.070055164 0.009144692 -0.06846291 0.028777603
000380 35 89 e4 bd 67 79 0a 3d cc 16 13 be fe 31 2b bd
       -0.11158983 0.033807185 -0.14364165 -0.041795723
000390 f1 b7 cf 3d 3c bc 9b ba 0a 22 29 3e 86 43 46 3d
       0.10142506 -0.001188166 0.16516891 0.04840424
0003a0 da 26 ff bd 1a cf 2d be b6 5c 9d be eb 87 9e 3d
       -0.12458582 -0.16973534 -0.30734795 0.07740768
0003b0 fd 48 96 bd 96 ac 0c bd b6 8b 65 be db 7f fe 3d
       -0.0733814 -0.03434428 -0.22416577 0.1242673
0003c0 fd a3 47 bd c9 00 40 3d d4 47 ba bd c5 34 ba 3c
       -0.048740376 0.04687575 -0.090957314 0.02273024
0003d0 d1 96 37 bd 09 70 3f bc c5 25 ad 3c ab fe ec bb
       -0.044821564 -0.011684426 0.021136174 -0.007232507
0003e0 c5 d4 de 3d 66 33 6d 3e 10 60 2b be 42 2f 20 bd
       0.10880426 0.23164138 -0.16735864 -0.03910757
0003f0 8f 40 b7 bd dd 53 d2 3c 85 c4 bc 3c 32 d4 80 bd
       -0.089478604 0.025674755 0.023042927 -0.06290473

base.cnn.2.bias f4 [64]
000000 d2 6c 03 bc bf b7 81 bd 63 d0 22 bd cd 68 3d bd
       -0.00802155 -0.06333875 -0.039749514 -0.046242524
000010 89 e8 8e bc bb 77 f7 bc 68 ef e8 bc 4d d4 b2 bc
       -0.017444866 -0.03020846 -0.02843447 -0.021829749
000020 64 46 48 bd c0 49 1a bd f1 04 61 bd 66 a4 ce bb
       -0.048895255 -0.03766799 -0.054936353 -0.006306219
000030 2b a0 20 bd 03 9c 5d bc ce fd 5b 3c 9d 29 32 3d
       -0.039215248 -0.013525966 0.013427211 0.043496717
000040 ee 48 69 3c 37 5b bb 3c 36 9f e2 bb 72 99 2a 3d
       0.014238579 0.022870643 -0.006915952 0.041650243
000050 7d 9b 66 bb be ce ad bc 15 c6 b8 ba 72 67 a7 bb
       -0.0035187893 -0.021216746 -0.0014097119 -0.005108767
000060 ea 18 15 bd ce 03 16 3c 34 48 41 bc be db 80 bb
       -0.036400713 0.009156181 -0.011797 -0.0039324453
000070 99 85 6c bd ff 22 cd bc 08 e2 09 3c a1 ce a4 3b
       -0.057744596 -0.025041102 0.008415706 0.005029515
000080 a6 c0 5c bc af 94 2c bc 70 cd 8c bc 15 35 17 bc
       -0.013473665 -0.010533496 -0.017187804 -0.009228964
000090 9a b8 89 bb ec ff 16 bd a9 7f a3 bc 2e 61 04 bd
       -0.0042029144 -0.03686516 -0.019958334 -0.03231924
0000a0 f3 f7 ca 3c c9 6b 0c bd c3 31 a9 3c 42 8a 4d 3b
       0.024776435 -0.03428248 0.020653611 0.0031362926
0000b0 3b 5c b0 bb c1 9e c4 bc 2c 34 97 bc d1 f9 6d 3a
       -0.0053820885 -0.024001481 -0.018457495 0.0009078058
0000c0 09 49 25 3c 94 ee 18 bd 5b c2 4a bc 12 05 ea bc
       0.010088214 -0.0373369 -0.0123754395 -0.02856687
0000d0 7f 59 e2 bb 64 4b 1c bc 02 4f d0 bc 17 bd af bc
       -0.0069076414 -0.009539459 -0.025428299 -0.02145247
0000e0 a5 4f bb 3b ed 29 70 bc 05 b9 36 bd 07 c6 9a bb
       0.0057162815 -0.014658433 -0.044610042 -0.0047233137
0000f0 83 63 bc bc a0 2e 6b bd e7 22 87 bd cf 26 0f bd
       -0.02299667 -0.057417512 -0.06598454 -0.03494912

base.cnn.4.weight f4 [32, 64, 3, 3]
000000 12 fa 59 3d 63 4d 15 bd 85 7e 8a 3c ef 94 15 bc
       0.053217 -0.036450755 0.016906032 -0.009129747
000010 cb 75 2d 3d ed db 9e 3d a9 b7 cd 3c bf e9 79 3d
       0.042348664 0.07756791 0.02511199 0.061013933
000020 45 a5 43 bc c4 2b d0 3d 15 e1 4c bd 46 e4 7d 3d
       -0.011941259 0.10164598 -0.050019342 0.061985277
000030 ee c3 87 3d 81 94 f0 3d a3 2c fb bc e5 81 8b bd
       0.066291675 0.11747075 -0.030660933 -0.06811885
000040 87 5f 84 3c b2 56 cf bb c4 fd c4 bd e3 d4 7e 3c
       0.016158832 -0.0063274736 -0.096187145 0.015553686
000050 ad 74 9f bc 8b 59 c5 bd c3 00 a0 bd 53 b2 01 3b
       -0.019464815 -0.096362196 -0.07812645 0.0019790127
000060 8e d0 1b bd 3b ea 61 bd 01 38 dc bc 89 6c de 3c
       -0.03804069 -0.05515502 -0.026882173 0.027151363
000070 fe 6b 11 bd 59 c0 a9 bc 7f 43 8f 3d 81 b1 05 be
       -0.03550338 -0.020721601 0.06995296 -0.13055994
000080 b3 1b 44 3d 31 19 67 3d 7f ae 74 bd 2b fa dd bd
       0.04787798 0.05642051 -0.059736725 -0.108387314
000090 91 43 bc 3d b2 bc d8 3c a6 16 ee 3c 8a 48 1d 3d
       0.09192575 0.026457164 0.029063534 0.038399257
0000a0 84 18 39 bd 63 b2 fa bc 4f d6 14 3c 96 74 96 3d
       -0.045189396 -0.03060264 0.009084298 0.07346456
0000b0 e2 71 13 3e c1 7d b7 bd 8c 9b e5 3d f7 43 3b 3c
       0.14398912 -0.089595325 0.11211309 0.011429778
0000c0 7c 10 05 3e 65 67 8b bd 94 4e 9d 3c 3d 4e 58 bb
       0.1299457 -0.0680683 0.019202508 -0.0033005618
0000d0 9b 39 50 3d 89 db aa bd 5e d9 10 bd a3 30 8a 3c
       0.050836187 -0.08342654 -0.035363548 0.016868895
0000e0 f6 8e ee bd a6 8d 35 be 8c 99 05 3d 58 77 25 bc
       -0.116483614 -0.17729816 0.032617137 -0.010099255
0000f0 cc 0b 8c 3c 06 12 49 bd 48 fc 17 bd cf 52 d0 3c
       0.017095469 -0.049089454 -0.03710583 0.025430111
000100 da b3 18 be c7 71 7a 3d 8d 92 98 bd 6d 16 c5 bc
       -0.14912358 0.061143663 -0.07449827 -0.024058545
000110 e1 a3 63 bd 37 17 86 3c 23 28 4c 3d 96 2a 26 be
       -0.05557621 0.016368492 0.049842965 -0.16227183
000120 a8 c9 ae bc 6a 32 df bb 7c 30 9a 3d 62 13 39 bb
       -0.021336392 -0.0068114297 0.07528779 -0.0028240313
000130 11 0b 3a 3c 41 ac c1 bc 50 2f 99 bd 0d e4 60 3d
       0.0113551775 -0.023641707 -0.07479727 0.054904986
000140 cf 21 e2 bd d1 2e 21 3e d7 33 59 bd a4 72 4c be
       -0.11041605 0.15740515 -0.053027954 -0.19965607
000150 e5 0e e8 bd 23 53 28 3d 7a e6 88 3d 5c 5a 1d bd
       -0.11330966 0.04109491 0.06684585 -0.03841625
000160 74 80 04 3d 88 80 88 bd 1c fc 81 bd 29 eb ba 3c
       0.032349065 -0.066651404 -0.06346914 0.022817211
000170 40 6a c0 3d 85 b3 fd bd 38 82 08 bd 3e 3a f6 bc
       0.093952656 -0.12387756 -0.03332731 -0.030057069
000180 13 29 21 3d 0a 63 a0 bd a3 f9 dd 3b 99 fb af 3c
       0.039345812 -0.0783139 0.006774144 0.021482276
000190 5b 06 bb bc 76 8c ea bb 85 5f 9b bb 73 40 cf bd
       -0.022830179 -0.0071578575 -0.0047416114 -0.101197146
0001a0 9f 5d f6 bd 77 65 61 bd 52 17 29 3e 9c 44 4a 3d
       -0.120295756 -0.055028405 0.16512802 0.049381837
0001b0 1c 32 d5 3c ef 4d 25 38 9b 68 2f be 4e d0 23 bd
       0.02602487 3.9411647e-05 -0.17129748 -0.039993577
0001c0 fa 1c ae bd 6a 9d 06 3e cb 16 39 bd 1b 0c cb bd
       -0.085016206 0.13145986 -0.045187753 -0.09914418
0001d0 3e 66 b5 bc 45 3c 7b bd df 05 b4 3c a5 00 ee bd
       -0.02214348 -0.061336774 0.021975456 -0.11621217
0001e0 88 be 0d 3e ef be f2 bc 23 f4 a8 bd b7 05 2f bd
       0.13842213 -0.02963206 -0.082496904 -0.04273006
0001f0 95 96 e3 3c 99 79 d2 3d 0e 5c af bd 11 0b b7 3d
       0.027781764 0.10277099 -0.0856248 0.089376576
000200 21 6b 01 bd 69 85 32 bd 0c 98 1e be 60 59 8b bd
       -0.031596307 -0.04358426 -0.15487689 -0.06804156
000210 b2 3a 99 bc 68 e3 99 3d e4 e8 8c bd 56 1d c2 bd
       -0.018704746 0.075140774 -0.06880358 -0.09478252
000220 e1 50 84 3c 6b 26 1a 3d a6 1e de bc 52 c2 5a be
       0.016151847 0.037634294 -0.027114224 -0.2136319
000230 55 0a 91 3c 62 30 b9 3d 40 36 01 be f9 de bd 3b
       0.017705122 0.090424314 -0.12618351 0.0057944027
000240 33 c5 8f 3d f9 6d 84 bd ce 24 43 3d 5a 48 b4 3d
       0.07020035 -0.06466288 0.04764252 0.088028625
000250 b2 88 71 bd 1b 5d 15 bd 80 69 4b 3d 34 ad ea bd
       -0.058968253 -0.036465745 0.04966116 -0.11458817
000260 6c a5 42 3d 84 9e 9f bd ac 14 e1 bc da 02 38 3c
       0.04752104 -0.07793906 -0.027475677 0.011231149
000270 cf a9 65 bc 2b 73 e2 bd f8 58 3c 3c c8 f5 bf bd
       -0.014017536 -0.11057123 0.011495821 -0.09373051
000280 98 ec df bd fd 47 2d 3c 62 b8 04 bd f6 66 96 3d
       -0.109337986 0.010576245 -0.032402404 0.07343857
000290 c7 32 b6 bb 28 09 08 bd 95 7f 01 be 7e 38 f7 3d
       -0.0055602523 -0.033211857 -0.12646325 0.12071322
0002a0 ee 96 1c bd ab 05 07 3d e2 d2 49 bd 8d ec 1e bd
       -0.038229875 0.03296439 -0.04927338 -0.03879981
0002b0 77 9b d8 3d bf 07 1c 3d ef 2a 4f 3d 6c 43 d5 3c
       0.105765276 0.038093325 0.050578054 0.026033126
0002c0 a8 16 0e 3d bd 02 21 be a0 02 de bd 65 9a 63 3c
       0.034689575 -0.15723701 -0.108403444 0.013891791
0002d0 1f ad 67 3b 70 9e 0e be 5d 45 5b 3d 04 1c 99 bd
       0.003535099 -0.13927627 0.053532947 -0.07476047
0002e0 4d 77 a8 3d 43 96 5c 3d 3b 21 a8 bd 7a 03 c6 3d
       0.0822588 0.05385424 -0.08209463 0.09668632
0002f0 a8 d6 b7 3d 09 07 09 3d dd fd 81 3c 1f 16 b0 bb
       0.08976489 0.033453975 0.015868122 -0.005373731
000300 0b 26 41 3b c0 96 5a 3d ae c6 43 be 94 f9 0c 3e
       0.0029472138 0.053366423 -0.19118759 0.13767081
000310 b6 b9 fa 3c c9 2f a9 3d 8a 3d e6 bd b0 b6 52 bc
       0.030606132 0.082610674 -0.112422064 -0.012860939
000320 a2 b0 cb 3d 93 47 2f bd f0 12 06 3d 47 30 ee bd
       0.099457994 -0.042792868 0.032732904 -0.11630302
000330 86 da 46 bd 36 af 2b be a1 38 c6 3c 39 76 e0 3c
       -0.048548244 -0.16766056 0.024196925 0.027400123
000340 a8 ad d4 3d cd 60 f8 bb 3c 57 ef ba 1f 02 90 bd
       0.10384685 -0.007579899 -0.0018260251 -0.070316546
000350 5b fd 26 3e 18 d5 04 3d 4e 1f a3 bc a8 30 1d 3d
       0.16307585 0.032429785 -0.019912388 0.03837648
000360 73 7a eb bd 12 ac 5b bd 07 2a df bc 14 dd a0 bd
       -0.11497965 -0.053630896 -0.02724172 -0.07854667
000370 bd bd 48 3d bf fa 2c 3d a1 b3 9b 3d 57 8f e6 bd
       0.049009074 0.042231318 0.07602621 -0.11257809
000380 b3 3c 09 bd ef 31 b1 bd 51 61 d1 3c cc 79 33 be
       -0.033505153 -0.08652102 0.0255591 -0.1752693
000390 3a 5b 2c bc d1 22 cc 3d 61 38 36 bd 45 5a 2d 3d
       -0.010519797 0.09967578 -0.04448736 0.042322416
0003a0 b2 c7 83 3d 5b 38 77 3d b8 be a9 3d cf 7f e9 bd
       0.06434573 0.06035648 0.0828833 -0.11401331
0003b0 f3 ec 47 bd 23 55 83 3c 3f d0 8e 3d 5d 6b 14 3d
       -0.048809957 0.016031807 0.069733135 0.036235202
0003c0 d5 c1 84 3d f8 33 a2 bd ed 9c 03 3e cc 28 a1 bd
       0.06482283 -0.079200685 0.12852831 -0.078691095
0003d0 3f 44 d3 bc 53 75 77 3d 0d 67 87 bd fa 77 5d 3d
       -0.025789378 0.060414623 -0.06611452 0.054069497
0003e0 28 cc 28 bd b5 e5 27 bd c8 fe 8b 3d 4a da dd 3c
       -0.041210324 -0.04099055 0.06835705 0.027081627
0003f0 4a d9 ab bd c0 9b c9 b9 e9 cc 26 bc f2 f2 e5 bd
       -0.08391054 -0.0003845375 -0.01018069 -0.11227979

base.cnn.4.bias f4 [32]
000000 6a b6 aa bb dd 93 bd bc 01 a3 bd 3a 63 85 be bc
       -0.0052097337 -0.023141796 0.0014468135 -0.023256963
000010 08 27 b2 3a 95 4b 36 bc 6e dd 1e bd 25 19 df 3b
       0.0013591954 -0.011126419 -0.03878539 0.0068084174
000020 84 55 e7 bc f9 02 81 bb 77 6f bc bc 06 03 20 3c
       -0.02823902 -0.003937122 -0.02300237 0.009766346
000030 ca db ff bb 2f 7d 50 bc e1 23 31 bd 0e be a5 bc
       -0.0078081833 -0.012725159 -0.043247107 -0.020232227
000040 45 4e 8c bc 0c c6 7a 3a 4a 75 01 bd 66 3d e7 bb
       -0.017127166 0.00095662544 -0.031605996 -0.00705688
000050 c3 56 a3 bc f3 6d 40 bc 60 2f 0e bd 06 af 53 bc
       -0.019938832 -0.011744964 -0.03471315 -0.012920147
000060 86 88 47 b9 40 a8 30 bb 31 4e dc 3b 6a c9 47 bd
       -0.00019028978 -0.0026955754 0.0067231883 -0.048776068
000070 a7 7a a8 bc c0 25 0b bd 66 9b fe bc e2 f0 e9 3c
       -0.020566298 -0.033971548 -0.03107996 0.028557245

base.cnn.7.weight f4 [64, 800]
000000 81 07 16 bb cb 1d 17 bc f5 2c 1e 3e 49 48 04 be
       -0.0022892656 -0.009223412 0.15446837 -0.129182
000010 77 ee a8 bd a2 09 d6 bc dc 71 17 bd b3 90 7b bd
       -0.082486086 -0.02612764 -0.03697382 -0.061417293
000020 25 0d 1a 3e 3f 2e 82 bc c1 a8 ad 3d 5f 45 91 bd
       0.15044077 -0.015891192 0.08479453 -0.070933096
000030 a2 c6 1d bb d1 79 41 be 97 d7 18 3c 07 d7 4b bd
       -0.0024074693 -0.18894126 0.009328744 -0.049765613
000040 83 46 19 be 91 94 9d bd 74 c3 6a 3c 21 56 20 3c
       -0.14968304 -0.076943524 0.014328826 0.00978616
000050 fe 4f 48 3c cb 46 29 be 30 64 01 bd 7a fd 8a bc
       0.012226103 -0.16530912 -0.031589687 -0.01696657
000060 b1 e8 ba bd cc fa cd 3c 35 34 d7 bb d9 6c a5 bd
       -0.091264136 0.025144003 -0.006567503 -0.08077402
000070 1a 05 b9 bd 6d 3d 1b 3d d7 00 1f 3d ba b5 c6 bd
       -0.09034176 0.037900377 0.03881916 -0.0970263
000080 70 f3 18 3d 2f af 8a bd ed 80 f7 bc 94 fe 22 bd
       0.037341535 -0.06771695 -0.030212844 -0.039793566
000090 10 35 9d ba 0f ac 17 be f4 48 ee 3d 98 69 9b bd
       -0.0011993963 -0.14811729 0.116350085 -0.075885
0000a0 f4 a7 a3 3d 90 a9 6a bc 4d 6b 44 3c 0a 39 01 bc
       0.07991019 -0.014322653 0.011988473 -0.007887134
0000b0 6c d6 0f 3d 30 c7 c2 3d 1a cf ec 3c da a1 d8 bd
       0.035116598 0.09510648 0.028907347 -0.10577746
0000c0 4b e8 9b bd df 70 71 3d 7a a3 eb 3d ab e2 89 3b
       -0.07612666 0.058945533 0.1150579 0.004207929
0000d0 38 08 2a 3d a7 58 13 bd b7 e6 2e 3e 27 4e 3c bd
       0.041511744 -0.035973217 0.17080198 -0.04597297
0000e0 f3 f5 00 be 23 7b ab 3c e0 0d 13 3d 22 3b a1 bd
       -0.12593822 0.02093274 0.035901904 -0.07872607
0000f0 69 43 ae 3d ad 37 88 3b 69 53 3a bd 29 0b 5f 3d
       0.08508951 0.0041570277 -0.045489702 0.054454003
000100 7b 40 e9 bb fc 49 04 bd 49 c8 ea bd f3 b4 dc 3d
       -0.0071182824 -0.03229712 -0.114639826 0.10776701
000110 b1 f7 80 bd 01 bd 05 3d 83 c2 87 3b b8 7c 87 bc
       -0.062972434 0.03265095 0.0041430607 -0.016538963
000120 0a 70 23 bd ca cc b9 bd a1 2c 4e bc ea 64 01 bd
       -0.03990177 -0.090722635 -0.012583883 -0.03159038
000130 88 95 59 3d 0f 4e 4b bd ac a1 91 bd 21 69 95 3d
       0.05312112 -0.04963499 -0.071109146 0.072954424
000140 4c 12 85 bb bf df 8a 3c 23 f2 29 3c ca b5 0f 3d
       -0.004061019 0.016952394 0.010372671 0.035085477
000150 54 1f 88 bd 3d 45 e9 bd 4d 8e d7 bd bd 1e 2a bd
       -0.066466 -0.11390159 -0.105251886 -0.04153322
000160 cd 45 88 bc c5 cf 14 3e a2 1c 69 3d 00 bb 8e 3c
       -0.016634846 0.14532383 0.056912072 0.017423153
000170 5d a9 d0 3d dc bc 39 3d a3 ba 1e 3d 14 08 7c 3c
       0.101885535 0.045346126 0.03875221 0.015382785
000180 49 08 bf 3b 79 0d f0 bd 25 30 21 bd 4e a2 72 3d
       0.005829845 -0.1172132 -0.039352555 0.059236817
000190 6e 1e 06 bd cf d5 46 bc 80 85 1a 3d e2 6b 48 3d
       -0.032743864 -0.012135937 0.03772497 0.04893101
0001a0 45 69 32 bc 5b 78 36 3c 56 f4 56 bd 7c 79 25 3d
       -0.010889356 0.011137093 -0.05247911 0.04039906
0001b0 b4 9c 12 3d c9 58 7f 3d c1 20 c9 3c 77 a5 5b 3d
       0.035793975 0.06234053 0.024551751 0.053624596
0001c0 ef 8a 04 be 72 a4 14 bd b2 0a 80 bd df ed 32 bd
       -0.12943624 -0.03628964 -0.0625204 -0.043683883
0001d0 6f 75 91 bc 58 5f 82 3d fe 3d dd bc 49 f7 5a bd
       -0.017756192 0.063658416 -0.0270071 -0.053458486
0001e0 53 ee 0d be d8 65 2c 3d 38 80 2a 3d 4d 03 92 bd
       -0.13860445 0.042089313 0.041626185 -0.07129536
0001f0 5f 19 b2 bc e6 b5 d3 bd a7 61 db bd 54 38 e9 3c
       -0.021740614 -0.10337429 -0.10711985 0.028469242
000200 a5 be 8b 3d 20 36 9d bc c6 a2 54 3a 1c 90 3f bd
       0.06823472 -0.019190848 0.00081114133 -0.046768293
000210 37 f6 25 bd 06 33 38 be 3d d5 46 be 74 fb 00 bd
       -0.040518012 -0.17988214 -0.19417281 -0.031489804
000220 53 7f 63 3d a5 e9 97 bb b9 1f 7b 3c cd 89 1c bd
       0.055541348 -0.004636007 0.0153273875 -0.038217355
000230 69 13 a8 3c 59 b0 2d bc 6b 02 09 3e 36 31 b0 bc
       0.020517068 -0.010601127 0.13379829 -0.02150784
000240 27 f0 c8 bc a1 f6 a8 3c 4c 2a 53 3b e6 b9 81 bd
       -0.024528576 0.020625414 0.0032221256 -0.063342854
000250 b8 47 dc 3c f1 cc 86 3c 79 34 e0 bc 94 67 a1 bd
       0.026889667 0.016455146 -0.02736877 -0.07881084
000260 38 d9 d9 3d e8 d4 58 bd 33 d8 7d 3d 79 19 45 bd
       0.10637134 -0.05293742 0.06197376 -0.048119996
000270 4a 85 81 bd 88 1f 90 3d 5f 86 13 3e 07 bd 83 3c
       -0.06324251 0.07037264 0.14406727 0.016081346
000280 88 21 ec bd 42 20 2f 3d 37 4a 71 bd 88 b2 1f bd
       -0.11529833 0.042755373 -0.058908667 -0.03898862
000290 3a 5f 36 bd e5 23 09 be 63 05 07 bd e1 ab e1 3c
       -0.04452441 -0.13392599 -0.03296412 0.027547779
0002a0 a1 cd 1f 3c 4a 30 08 be 66 35 0e 3d 39 03 28 bd
       0.009753616 -0.13299671 0.034718893 -0.0410187
0002b0 e0 1d 72 bd a6 40 56 3c a9 7f f8 3c 6e d2 59 3c
       -0.059110522 0.013076937 0.03033431 0.013294799
0002c0 c2 5f 55 bd 0f 99 20 bd 13 eb 57 3b ca 81 2b bc
       -0.052093275 -0.039208468 0.0032946512 -0.010467956
0002d0 82 a7 99 bd 98 fc 62 bc 3b 6f 43 bd 1f be 79 bd
       -0.07502653 -0.013854168 -0.0477135 -0.06097233
0002e0 23 db 17 3b ea d5 52 bd a5 53 cc bd c6 b5 93 bd
       0.0023171387 -0.051473536 -0.099768914 -0.07212405
0002f0 7b 88 df 3d b1 91 bf 3d 36 2d f9 bd 8e 5d ce 3d
       0.109147035 0.0935396 -0.121668264 0.10076438
000300 81 e7 89 bd eb 92 cd bc 56 57 4f bc 36 8d 92 bc
       -0.06733609 -0.02509447 -0.0126551 -0.0178896
000310 2c 75 5f 3d 84 6f fb 3b cd b2 90 bd d1 ba 8b 3d
       0.054555103 0.007673206 -0.070653535 0.06822742
000320 0b 5e 01 bd 9f e6 33 bb c7 3d c1 3d 56 48 50 3d
       -0.031583827 -0.0027450693 0.09435611 0.050850235
000330 6c 66 b0 bc dd 66 5b 3c ca 8f af bd c4 5c ff bd
       -0.021533214 0.013391224 -0.085723475 -0.124688655
000340 e1 24 55 bd d2 d5 ae 3d e2 19 3f bd e9 be 67 bd
       -0.052037124 0.08536877 -0.046655543 -0.05657855
000350 95 a7 b6 bc 5d 01 d1 bc 79 60 e0 3c 73 c0 19 bc
       -0.022296706 -0.025513345 0.027389752 -0.009384262
000360 62 5a cb bd cb 59 af 3c a2 74 ac 3b 9a 06 4e 3c
       -0.099293485 0.021405121 0.005262927 0.012574816
000370 6a ad c7 3d 61 14 6f bd d5 60 32 3d 2b 23 b1 bc
       0.09749873 -0.058369044 0.043549377 -0.021623215
000380 5b a1 2d 3d 5c ef b3 bb f2 1a bb bd b8 94 26 3d
       0.04239021 -0.0054911803 -0.09135999 0.040669173
000390 89 9e a6 bb cf 1c a9 bd 08 b6 1d bd 74 a3 bf bc
       -0.005084817 -0.08257448 -0.038503677 -0.02339337
0003a0 4b c2 97 bc 87 98 27 bd 1d da 83 39 0a 8d 21 bd
       -0.018525263 -0.040916946 0.00025148774 -0.039441146
0003b0 b6 a3 94 3d ff e6 c9 bd 01 1d 6c bc e4 00 15 3e
       0.07257788 -0.09858512 -0.014411212 0.14551121
0003c0 9e a5 9c bd 34 ee 62 3d 05 53 47 3e f4 cd 3a 3c
       -0.076487765 0.05540295 0.19465263 0.011401642
0003d0 8d d3 af bd 89 61 bd 3c 9c b6 89 bd 7a cf 33 bc
       -0.08585272 0.023117797 -0.06724283 -0.010974759
0003e0 9e 16 ba bd c0 0b 03 bd fb c9 10 3c de 3f 08 bd
       -0.09086345 -0.031993628 0.008837218 -0.033264033
0003f0 40 f5 a0 3d 04 e1 0c be 5c 14 b5 3d bf 1b 00 bd
       0.07859278 -0.13757712 0.08841774 -0.03127646

base.cnn.7.bias f4 [64]
000000 44 a7 92 bc 5b d2 40 bb a9 61 8b bc a7 56 38 3b
       -0.017902024 -0.0029422257 -0.017014341 0.002812782
000010 5d f0 01 bd dd 19 cb bb 8a 32 a7 bb 7c 9b 2a bd
       -0.03172337 -0.0061981515 -0.0051024603 -0.041652188
000020 1b 90 a9 bc 29 96 b7 3a ef a1 ba bc 16 6f 83 bc
       -0.020698598 0.0014006543 -0.022782294 -0.01604418
000030 5c 0a 3b bd b3 7b d8 bc 37 ab 91 bc 9c e3 42 3c
       -0.045664176 -0.026426172 -0.017781837 0.011895087
000040 90 72 95 bc 22 7c 9d bc e8 ca 74 39 4f 13 35 bd
       -0.018243104 -0.01922423 0.00023345242 -0.044207867
000050 3d da 27 bd d8 08 52 ba ca 73 bd bc ae 52 79 3a
       -0.040979613 -0.0008012182 -0.023126502 0.00095109164
000060 90 45 43 bd d6 1d b7 bb fb 79 a4 bc 1d 74 4d bc
       -0.04767376 -0.0055882735 -0.020077696 -0.012539891
000070 27 6f 7f 3a 29 c1 8e 3c 45 6d 4a bc 73 f2 e6 ba
       0.0009744041 0.01742609 -0.012355153 -0.0017619863
000080 1c c0 19 bd b5 40 1b bd ae 66 06 bd a6 24 a3 bb
       -0.037536725 -0.037903506 -0.032812767 -0.004978734
000090 74 9d 44 bd 10 ff 09 bd 3b 59 9f bc f2 8d 23 bd
       -0.04800172 -0.033690512 -0.019451728 -0.03993029
0000a0 2a 29 07 bd b3 b3 73 bd a8 6c ed bc eb cc ed bb
       -0.03299824 -0.059497546 -0.028982475 -0.007257094
0000b0 b2 68 a7 3b 2f 91 90 bc dc 6d db bc e0 b6 b3 bb
       0.005108916 -0.017647354 -0.026785783 -0.005484447
0000c0 eb 9b 1f bd 32 eb 15 bd 06 8f 44 bd 40 0d ec bc
       -0.038967054 -0.036601253 -0.04798796 -0.028814912
0000d0 65 64 60 bc 35 c2 55 bc 09 eb 17 39 8e 60 48 bc
       -0.013695811 -0.013046791 0.0001448804 -0.012230052
0000e0 42 a7 05 3c df bd 2c bd 23 6c ca bb b5 56 20 bd
       0.008157553 -0.042173263 -0.0061774417 -0.03914519
0000f0 03 41 94 bc 85 b1 83 bc dd 86 ee bc 25 d7 0d bd
       -0.018097406 -0.016075859 -0.029117042 -0.034629006

base.cnn.9.weight f4 [64]
000000 fd ae 83 3f 44 96 80 3f 0e 63 82 3f d9 79 80 3f
       1.0287777 1.0045857 1.0186479 1.0037185
000010 fc 8d 88 3f b5 1b 75 3f 31 8e 76 3f 89 75 6e 3f
       1.066833 0.957454 0.96310717 0.93148094
000020 00 57 81 3f 44 df 7f 3f 3d 6e 84 3f 58 06 81 3f
       1.0104675 0.9995005 1.0346142 1.0080061
000030 47 e6 81 3f c9 e2 79 3f 61 91 7d 3f b8 19 83 3f
       1.01484 0.9761167 0.99049956 1.0242224
000040 3d a7 82 3f 31 9d 80 3f da ae 7e 3f e5 15 86 3f
       1.0207287 1.0047971 0.9948555 1.0475432
000050 cf b8 83 3f 92 d4 8b 3f a5 b3 6e 3f da 5c 79 3f
       1.0290774 1.0924246 0.93242866 0.97407305
000060 94 d8 86 3f d7 a1 88 3f a8 1d 84 3f 3e 67 86 3f
       1.0534844 1.067439 1.032155 1.0500257
000070 d6 c5 82 3f c7 33 7c 3f 3b 0e 83 3f 7d 4c 78 3f
       1.0216625 0.98516506 1.0238718 0.9699171
000080 67 d7 7b 3f 71 5d 82 3f d5 69 84 3f 9c 95 87 3f
       0.9837555 1.0184766 1.0344797 1.0592532
000090 58 6b 7e 3f 72 86 77 3f 09 e9 77 3f ef 61 7b 3f
       0.99382544 0.9668952 0.9683996 0.9819631
0000a0 5b ad 77 3f bf 73 72 3f 18 87 84 3f f8 96 87 3f
       0.96748894 0.94707865 1.0353727 1.0592947
0000b0 a9 4d 89 3f 20 21 82 3f d8 e0 88 3f 8a a6 76 3f
       1.0726825 1.0166359 1.0693617 0.9634787
0000c0 86 6d 74 3f 86 8a 83 3f a0 e3 7c 3f a2 11 7b 3f
       0.9547962 1.0276649 0.9878483 0.9807378
0000d0 e2 3c 7e 3f ab 8d 7f 3f 7d 0e 81 3f 26 b3 86 3f
       0.9931165 0.99825543 1.0082546 1.0523422
0000e0 dc 27 81 3f b4 a0 74 3f c5 f0 77 3f 1a 0b 6a 3f
       1.0090289 0.95557714 0.9685176 0.9142319
0000f0 76 fa 84 3f 8e 3a 6f 3f 3d f0 70 3f 73 8f 89 3f
       1.0388935 0.9344872 0.94116575 1.0746902

base.cnn.9.bias f4 [64]
000000 95 4e 45 bc 46 94 98 3d fe f3 f4 3b 89 85 07 3b
       -0.012042661 0.07450156 0.007475375 0.0020678958
000010 72 88 8b bd ae 40 ac bc a0 56 1f 3d f9 4c f5 3c
       -0.06813134 -0.021026935 0.03890097 0.02994393
000020 47 29 55 3d 00 01 48 bc e2 a4 8b bd 64 67 88 3c
       0.05204132 -0.01220727 -0.06818558 0.016650863
000030 d2 30 a2 3c 2d af f4 3c 61 0f 0f bd 41 05 93 3b
       0.01979867 0.029868687 -0.034926776 0.0044867103
000040 a5 10 d5 3c 44 90 71 3d 83 fe 74 bc aa 9b fe bc
       0.026008913 0.058975473 -0.014953258 -0.031080086
000050 e3 8c 08 bd 80 55 0a bb 4c a2 a9 3d 7a 52 89 3c
       -0.033337485 -0.002110809 0.08282909 0.01676296
000060 fc 38 d1 bc 49 dd 2b bd cc 40 7b bc a8 1b 55 bc
       -0.025539868 -0.04195908 -0.015335273 -0.013007082
000070 cd 62 92 3c 91 de 8d bc 87 1d 30 bb d7 37 14 3d
       0.017869378 -0.017318042 -0.0026873068 0.036186066
000080 18 10 e1 3b 0f c2 bc bd 44 7c f2 3b 1e 9e 4b bb
       0.0068683736 -0.09216701 0.0074000675 -0.0031069587
000090 dd a1 82 bc 9b f6 ad 3c fc e9 a8 3c 58 54 ca 3b
       -0.015946323 0.021235755 0.020619385 0.0061746053
0000a0 aa 7a 29 3d 9d 15 83 3d 6d a1 1f bc 78 e7 c2 3b
       0.041376747 0.06400607 -0.009743077 0.0059480034
0000b0 3d 2d d3 bc 98 ca 57 bd 05 44 48 bd c5 5f 88 bc
       -0.025778407 -0.052683443 -0.048892993 -0.016647229
0000c0 58 58 82 bc 7c e9 49 bd be 6a 1c 3c 68 c6 e7 3c
       -0.015911266 -0.049294934 0.009546934 0.02829285
0000d0 91 09 16 bd ca e1 2c bd 0d a6 b3 bc b7 89 34 3d
       -0.036630217 -0.042207517 -0.021929765 0.044076648
0000e0 45 fa e1 3c db 99 44 3d 87 95 a9 bc 7a eb a8 3d
       0.027585158 0.04799829 -0.020701183 0.082480386
0000f0 dd 6c 85 bb ac 23 20 3d f0 17 77 3d d5 0d d5 bc
       -0.0040718154 0.03909652 0.060325563 -0.026007572

base.cnn.10.weight f4 [64, 64]
000000 a2 b6 32 3e 70 ca 18 bd 36 de dc 3d cf aa 8e be
       0.17452481 -0.037302434 0.10784571 -0.27864692
000010 cc 89 57 3e 9d a3 11 bc 2a f8 00 bd 25 c0 30 3e
       0.21048659 -0.008889106 -0.031486668 0.17260797
000020 c0 bc a2 be f9 38 af 3d 8e d3 86 bd d4 7f 83 3e
       -0.3178463 0.085557885 -0.065833196 0.25683463
000030 9c bc c3 3e 56 02 4e be c9 4c 6e be a6 a3 2f be
       0.38229835 -0.20118079 -0.23271479 -0.1715227
000040 f6 c1 d2 ba 2c d7 9b 3d a6 6b 4a 3d f5 9a 27 3e
       -0.0016079533 0.076094 0.049419068 0.16367705
000050 b5 68 70 be ac 45 35 bd d4 ce 19 be 0b 2b b9 bc
       -0.23477443 -0.044255897 -0.15020305 -0.022603532
000060 cc 99 ec bd 42 1b f0 bd 9c 20 aa 3d 82 18 e6 bd
       -0.11552772 -0.11723949 0.08307001 -0.11235143
000070 5a 0c 0d 3e 66 ad 47 be e8 40 36 be b6 90 bb be
       0.13774243 -0.1949974 -0.17798197 -0.36633843
000080 ec 7a 58 3d be 8a 3f bd a8 80 48 bd 1b d0 c3 3d
       0.052851602 -0.046763174 -0.04895082 0.09561177
000090 ab 3b 2c be 27 bb a7 bd 28 43 43 bc 66 34 ef 3d
       -0.16819637 -0.08189993 -0.011917867 0.11679916
0000a0 8c cf ca bd 05 37 83 bd d3 19 3b 3e a3 5f 1a 3d
       -0.09902868 -0.064069785 0.1827157 0.037688863
0000b0 5c ed 18 3e 45 73 00 bd 83 57 b1 bd b6 d4 56 be
       0.14934295 -0.03135993 -0.0865927 -0.2097958
0000c0 d2 db 30 bd 99 ab 6f be f3 93 35 be 6b ac ef 3d
       -0.043178387 -0.23405303 -0.1773222 0.11702808
0000d0 a3 5c 93 3e 7e 68 d1 bd ea b8 bf bd da 73 6a 3e
       0.28781614 -0.102250084 -0.093614414 0.22895756
0000e0 99 e8 ae 3d 97 38 4f 3d 91 36 ca be b0 62 73 3e
       0.08540458 0.050591078 -0.39494756 0.23768115
0000f0 ad ab 26 3e f5 d2 16 bf 72 b8 28 3e 6d bf 54 3e
       0.16276427 -0.58915645 0.1647661 0.20776148
000100 d5 76 34 3e 35 58 4e 3e 27 8a 0a be e9 9b 1f 3e
       0.17623456 0.20150836 -0.13529263 0.15586819
000110 ad 29 48 3e dc 9b 4b 3d 50 74 f0 3d e9 40 9e 3e
       0.19547148 0.049709186 0.11740935 0.30908898
000120 b2 b5 89 bd 0d c7 e7 3d 68 2c f0 3e fb 90 a2 3d
       -0.06724109 0.11317263 0.4690888 0.07937809
000130 33 e8 1b 3e eb d4 00 be 32 cf 23 be 2f b3 cc 3c
       0.15225296 -0.12581222 -0.15997007 0.024987785
000140 3a b8 93 3d 7e 39 81 bd b4 51 16 bd 9d 1c cd 3e
       0.07212873 -0.06309794 -0.036699012 0.40060893
000150 9b 49 dc 3c d9 38 4e be fe 60 8a 3e 11 7a 27 3b
       0.026890567 -0.20138873 0.27027124 0.0025554935
000160 7d 32 5c 3e eb 07 c2 bc 50 67 29 3e 3e e3 e4 bc
       0.21503635 -0.023685416 0.16543317 -0.027940389
000170 8a 76 4e be a9 bd 34 3e 5d 24 5f be 04 1a dc 3b
       -0.20162407 0.17650475 -0.21791215 0.0067169685
000180 29 6e a2 be f1 d4 50 3e d6 a3 76 3e d3 6c 22 be
       -0.3172467 0.2039373 0.24085936 -0.15861826
000190 b1 d1 98 bc 6b 0d 1a 3e 08 d7 5b 3d 90 75 16 3e
       -0.018654676 0.15044181 0.053671867 0.14693284
0001a0 a5 6f c8 3d 29 d9 84 bd 7f e9 0c be 06 c6 c1 bd
       0.097869195 -0.064867325 -0.13760947 -0.09461598
0001b0 fc 70 4e be 61 e0 21 bd 5f 3c 09 be b6 6b 09 3c
       -0.20160288 -0.039520625 -0.13401936 0.008387497
0001c0 f0 6a 74 3d d0 ad f3 3d 01 65 8e 3e a3 2b 74 3e
       0.059672296 0.118983865 0.27811435 0.23844771
0001d0 98 55 6a be 8e 7e f5 3d 02 56 e5 3d c9 38 d2 bd
       -0.22884214 0.11987029 0.11198045 -0.10264737
0001e0 1b 09 e5 be 71 e9 2d 3d 32 fb ec be b1 02 31 3d
       -0.4473351 0.042458955 -0.46285397 0.043215457
0001f0 b9 b7 47 3e 9d 6c e5 bd 01 ad 8f be 9a 93 2c 3e
       0.19503678 -0.11202357 -0.2806168 0.1685318
000200 81 1e fb 3d 25 b4 ac bd 69 56 17 be 08 d5 5c bd
       0.122616775 -0.08432797 -0.14779057 -0.0539141
000210 43 00 34 be 6f 8a 97 3e ed 74 b9 3e 74 a4 7c 3e
       -0.17578225 0.29597804 0.3622202 0.24672109
000220 e2 c9 c3 bd bc 88 5f 3c d3 19 ae bd c8 64 76 bd
       -0.095599905 0.01364344 -0.08501019 -0.060154706
000230 a8 17 41 be 12 57 ca be fa 33 83 be 5c f0 21 3e
       -0.1885668 -0.39519554 -0.25625592 0.15814346
000240 73 98 bb be b5 98 4e be 68 c6 c4 bd 05 31 5f be
       -0.36639747 -0.2017544 -0.096081555 -0.21796043
000250 9d 05 a6 3d 2a 24 c7 3c 93 93 05 3e 6f 1e 53 be
       0.081065394 0.024309237 0.13044576 -0.20617078
000260 c5 99 87 3e c1 1d b9 bd 61 a8 a1 be c8 80 bb 3d
       0.26484504 -0.09038878 -0.31573775 0.091554224
000270 90 5c 11 be d5 a4 02 bd 2f f8 1c 3e fc 73 14 3c
       -0.14195466 -0.031895477 0.1532905 0.009060856
000280 0f 73 86 3d eb 4c b4 3e 7f 9c f6 bd 51 b9 9f 3e
       0.065649144 0.35214934 -0.12041568 0.31196073
000290 3b a7 bd bd 9f 11 05 be 10 2f 17 be a2 a5 e7 bd
       -0.09260412 -0.12995003 -0.14764047 -0.11310889
0002a0 8f cb b8 bd 40 b6 9e 3d d8 c1 fb 3d 4c 43 a0 bd
       -0.09023201 0.07749605 0.12292832 -0.07825336
0002b0 3a d0 42 3e 24 77 29 bc 44 ff 05 bf d8 5b 55 bc
       0.19024745 -0.010343347 -0.5234263 -0.013022386
0002c0 6e 2c e4 bb fa d0 a7 3e 00 2d 46 3e ae ba 26 3d
       -0.0069633042 0.32776624 0.19353104 0.040705375
0002d0 a9 40 00 3f 9c a0 cd bc b3 a2 02 bd 18 4d a3 be
       0.50098664 -0.025100999 -0.031893443 -0.31894755
0002e0 77 8e d7 be 50 7c 0f be 85 e8 5a 3d ac 98 94 3d
       -0.4210088 -0.14012265 0.053444404 0.07255682
0002f0 45 10 37 bd ba 42 78 be 89 bd 8b 3d 75 1f 9e bd
       -0.04469325 -0.24244204 0.0682326 -0.07720844
000300 29 40 3a 3d af b0 36 be 9b 97 6d bd c4 5a 85 be
       0.045471344 -0.17840837 -0.05800591 -0.2604581
000310 87 d2 a3 3e 5c 46 fa bc a7 1c 0f bc 4d 9a 11 3e
       0.31996557 -0.030551128 -0.008734859 0.14219017
000320 b1 79 8a 3e d5 25 a4 3c f5 5b 44 3e 01 1d b5 3b
       0.27045968 0.020037571 0.19175704 0.005527139
000330 27 37 94 3e 26 9a 28 3e 92 c0 af bc 01 ed 70 3e
       0.28948328 0.16465053 -0.02145413 0.2352791
000340 e5 95 bf bc 84 4d 90 be 3d 4a 27 3e 0b 3d 04 3d
       -0.023386905 -0.2818414 0.16336913 0.032284778
000350 e4 5e 22 3e 0c ce 3c 3e e0 3d ab 3d ba 38 64 3e
       0.1585651 0.18437976 0.08361411 0.22287264
000360 6f 04 43 3d d7 a5 b0 bd a6 b6 23 3e 35 89 b1 3e
       0.04761165 -0.086253814 0.15987644 0.34674993
000370 e0 15 0d be 43 d7 21 bd 66 ab 08 3e e1 c1 88 3c
       -0.13777876 -0.03951193 0.13346633 0.016694011
000380 a8 6d bc bd f8 f0 af be f5 b9 75 be d0 19 33 bd
       -0.09200603 -0.34363532 -0.23996718 -0.04372579
000390 a0 d9 a4 bd 6a 2f 3e 3c 71 32 32 3c d1 91 a3 3e
       -0.08049321 0.011607984 0.010876284 0.31947187
0003a0 94 2f 48 3e 4b bb 08 bd 57 9b 44 bd a2 70 c9 bd
       0.195494 -0.03338174 -0.047999706 -0.09835936
0003b0 60 38 fd 3d c3 80 a8 be 4c d3 02 bf d0 f2 19 3e
       0.12364268 -0.32910737 -0.51103663 0.15034032
0003c0 5b 94 2f 3e 33 ee 37 bd 13 bb 93 bd 99 36 0c bd
       0.17146437 -0.0449049 -0.07213416 -0.034231756
0003d0 81 5a 12 3f ba 9e 85 3e cc 8f 48 3e 60 ac 51 be
       0.5716935 0.2609766 0.19586104 -0.20475912
0003e0 60 d8 85 3d 17 f2 9d 3b c0 62 9f bd 31 ec 69 3c
       0.06535411 0.004820119 -0.07782507 0.014277504
0003f0 6d b2 a5 3d 93 d3 42 3e 54 f1 98 3c ed 45 48 be
       0.08090673 0.19026022 0.018669762 -0.19557925

base.cnn.10.bias f4 [64]
000000 65 14 4a 3c e2 22 ba bd 7e 5b 1e bd 7e 16 0e 3b
       0.012333964 -0.090886846 -0.038661472 0.0021680887
000010 12 25 0f bd 89 b4 98 bc 32 41 83 bc b1 d0 46 3c
       -0.034947462 -0.018640773 -0.016022298 0.012134717
000020 1c d5 ee bb 1a 2f 50 bb c1 b9 c8 bd a7 08 14 bd
       -0.007288588 -0.0031766356 -0.09801055 -0.036141064
000030 c2 87 1f bd 45 e6 e9 bd b6 3d bf bd 06 a0 45 3d
       -0.038947828 -0.114208736 -0.09337942 0.048248313
000040 71 ad 90 bd 66 cf 50 bd 08 f7 37 bd c8 25 ce bd
       -0.07064331 -0.05097904 -0.04491332 -0.100658
000050 75 49 9c bd a9 a4 23 3d 56 fe 00 3b f2 b6 c4 3c
       -0.07631198 0.039951954 0.0019682846 0.024013016
000060 0f 28 b0 bc 23 58 5d bd 98 16 71 3c b5 41 0a bc
       -0.021503476 -0.05403913 0.014714859 -0.008438517
000070 35 72 84 bd a3 c2 8e 3c 49 a8 53 bd ad 3c 4e bc
       -0.06467096 0.017426794 -0.05167416 -0.012587708
000080 2f 00 23 bc 58 d7 fe bc 8f 99 48 bd 54 ac c4 3b
       -0.009948774 -0.031108543 -0.04897457 0.0060019884
000090 2d 01 6b 3c b3 df 77 3c 60 01 13 bb b7 76 2d bd
       0.014343542 0.015129018 -0.002243124 -0.042349543
0000a0 ce e5 4a 3c fb 92 fb bd 74 5b 84 bd a8 96 8b bc
       0.012383891 -0.12283894 -0.06462756 -0.017039612
0000b0 e1 63 29 3d 87 d9 86 bc 5b e0 46 bd 26 45 ed bb
       0.041355018 -0.016461147 -0.048553806 -0.007240909
0000c0 c0 09 52 bd 2e 35 a1 bd 29 35 98 bd 00 4f 4a bd
       -0.05127883 -0.07871471 -0.074320145 -0.049391747
0000d0 d6 2d f5 3b c6 49 09 bb be 73 e1 3b 1f 62 2c bd
       0.0074822707 -0.0020948513 0.0068802526 -0.042085763
0000e0 ba c5 ca bc 53 11 19 bd 2b 83 86 bd 57 a6 25 3d
       -0.024752486 -0.037370037 -0.06567987 0.040441837
0000f0 e8 1c 07 3b e5 ae 64 bb 85 1f cb bd 4f b8 7e bc
       0.0020616595 -0.0034894284 -0.09918121 -0.015546872

base.cnn.12.weight f4 [64]
000000 30 e3 7f 3f f4 86 79 3f 9e c9 82 3f f9 56 79 3f
       0.99956036 0.9747155 1.0217779 0.97398335
000010 37 8d 7a 3f 12 43 78 3f 1a 1d 80 3f f4 56 8e 3f
       0.97871727 0.9697734 1.0008881 1.1120286
000020 76 a2 80 3f d8 b6 88 3f 60 9d 66 3f 8c 62 86 3f
       1.0049579 1.06808 0.90083885 1.0498824
000030 33 14 71 3f 4f 5f 5a 3f 81 7c 76 3f 2a 2a 7e 3f
       0.94171447 0.8530168 0.9628373 0.9928309
000040 54 46 75 3f fd 77 82 3f 4f 09 6c 3f eb 70 6b 3f
       0.9581044 1.0192868 0.92201704 0.91969174
000050 be 33 86 3f 81 e9 87 3f 5c 68 82 3f 99 c4 80 3f
       1.048454 1.0618135 1.0188098 1.0059997
000060 85 f8 85 3f 71 1b 7f 3f 69 a5 79 3f b8 20 84 3f
       1.0466467 0.9965125 0.9751802 1.0322485
000070 f7 1e 82 3f 8f 3a 8b 3f 90 3b 85 3f 36 b7 82 3f
       1.01657 1.0877246 1.0408802 1.0212162
000080 33 b9 6d 3f 17 2a 83 3f 12 ad 6f 3f c7 c1 89 3f
       0.92860717 1.024722 0.9362346 1.0762261
000090 6d 8a 86 3f 1b cd 85 3f cd ef 80 3f 75 2d 7b 3f
       1.0510994 1.0453218 1.0073181 0.98116237
0000a0 b0 66 82 3f d1 ec 6d 3f 9e 00 6c 3f 59 9f 82 3f
       1.0187588 0.9293948 0.9218844 1.0204879
0000b0 9c 9d 88 3f 45 95 8c 3f 82 77 87 3f d1 dd 79 3f
       1.0673099 1.0983053 1.0583346 0.9760409
0000c0 9d f0 7e 3f 3e 2f 85 3f 89 55 86 3f bd 7d 85 3f
       0.99585897 1.0405042 1.0494853 1.0428997
0000d0 80 01 7d 3f b0 90 74 3f 92 5d 76 3f f4 8e 84 3f
       0.98830414 0.95533276 0.96236527 1.0356126
0000e0 91 36 79 3f b0 68 51 3f 96 91 81 3f cb 0c 8c 3f
       0.97348887 0.81800365 1.0122554 1.0941404
0000f0 c5 91 71 3f 15 24 77 3f d6 b8 7c 3f e5 65 79 3f
       0.9436305 0.9653943 0.9871954 0.97421104

base.cnn.12.bias f4 [64]
000000 8a 4c c0 39 0f ec 04 bd 5b b5 86 3d 56 d7 e8 bb
       0.0003667812 -0.032451686 0.065775596 -0.007105748
000010 3e db 12 3d 41 f2 92 3c 68 1b ac bc 4d bc 8b bc
       0.035853617 0.017937781 -0.021009162 -0.017057562
000020 db 60 b1 3c 18 be 6b bd 65 71 af 38 8f 48 da bc
       0.02165263 -0.057554334 8.365772e-05 -0.026645927
000030 d1 0a 23 3c 20 eb 28 bd 53 b8 25 bc d3 b2 00 3d
       0.009951309 -0.041239858 -0.010114747 0.03142054
000040 09 3d 21 bd ca 08 21 bd 4f ad 69 bc 4e 42 0b 3d
       -0.03936485 -0.039315023 -0.014262511 0.03399878
000050 5d 15 8e bc f4 c0 1e 3a 22 73 19 bd 44 c0 00 bc
       -0.017344171 0.0006055974 -0.037463315 -0.00785834
000060 01 c2 cf 3b d4 2e f9 bc b6 cb 99 3d e7 65 55 3d
       0.0063402657 -0.030417837 0.07509558 0.052099135
000070 b8 fa af bd 83 39 c1 3c 7d a0 15 bd 88 87 02 bd
       -0.08592743 0.023586994 -0.036530007 -0.031867534
000080 e9 46 20 3d df 8d 19 3b ea d5 69 3b 64 86 84 3d
       0.039130125 0.002343051 0.0035680481 0.064709455
000090 2d a2 f0 3a 0c b4 8a bc c4 da f2 3c 15 29 5f 3d
       0.0018358879 -0.016931556 0.029645331 0.05448254
0000a0 96 62 42 3a 54 aa aa 3d 83 55 eb bc 8c 3f 64 bd
       0.0007415203 0.08333269 -0.028727299 -0.055724666
0000b0 e1 93 de 3c 4b 89 66 3c ae 4a 61 bd 8d 06 e4 3c
       0.027170124 0.014070819 -0.05500286 0.027835155
0000c0 fb cb 86 39 26 36 bd 3c a4 61 f0 bc 76 df 0f 3d
       0.0002571045 0.023097109 -0.029343434 0.03512522
0000d0 90 0e b3 3c a3 96 b1 3b 8d f5 bd bd d8 97 2f bd
       0.02185753 0.0054195686 -0.09275351 -0.04286942
0000e0 d4 5f 85 3d 87 0a d1 3d 85 92 97 3c 57 10 55 bc
       0.065124184 0.10207086 0.018502483 -0.013004384
0000f0 80 e6 e8 3b 92 5a 92 bc a1 48 c0 3b dd 6e c9 bc
       0.007107556 -0.017865453 0.005868033 -0.024588997
