CRL_human_AI_overcooked/human_models/model_random1/actor_best_r9.pt (torch, 419408 bytes, 20 tensors)

base.cnn.0.weight f4 [32, 20, 3, 3]
0	0x3e139f01	0.14416124
1	0xbe6f86a7	-0.2339121
2	0xbc175749	-0.009237119
3	0x3ddf5263	0.10904386
4	0x3e17183c	0.14755338
5	0x3c709016	0.01468279
6	0x3d0dc17d	0.034608353
7	0x3e47095f	0.19437169
8	0xbe451e82	-0.19249919
9	0xbd243e29	-0.040098343
10	0xbe0d7748	-0.13815033
11	0x3dbfeed3	0.09371724
12	0x3d5fe50b	0.05466179
13	0xbeaca452	-0.33719116
14	0xbe40732a	-0.18793932
15	0x3e18ebfc	0.14933771
16	0x3e1f9e1a	0.15587655
17	0xbd469419	-0.04848108
18	0x3e8a80c9	0.2705138
19	0xbe05a78f	-0.130522
20	0xbdfcf410	-0.12351239
21	0x3e795c71	0.2435167
22	0x3c0412ec	0.008061152
23	0x3e09f046	0.13470563
24	0x3e828e59	0.25499228
25	0x3da69ac1	0.08134986
26	0xbe41fb08	-0.18943417
27	0x3e0bda84	0.13657576
28	0x3dfc2dab	0.12313398
29	0xbe383c2c	-0.17991704
30	0x3e41f8f2	0.18942621
31	0x3e8c1977	0.27363178
32	0xbe64b67b	-0.22335236
33	0xbe1f6f0f	-0.15569709
34	0xbc028841	-0.007967056
35	0xbe0027f5	-0.12515242
36	0x3d8c48ec	0.06849846
37	0x3e4e2c89	0.20134176
38	0x3e36f71f	0.17867707
39	0xbe040c68	-0.12895358
40	0xbd9c5282	-0.076329246
41	0x3d8f76e4	0.070050985
42	0x3d1e4dc7	0.038648393
43	0x3d79abf6	0.06095501
44	0x3e409db1	0.18810154
45	0x3d7e1c9e	0.06203901
46	0xbec2254f	-0.3791909
47	0xbdf735f1	-0.120708354
48	0x3ea0dc8e	0.3141827
49	0x3e810a77	0.25203297
50	0xbd1ab68b	-0.037771743
51	0xbe8a20e0	-0.26978207
52	0x3d9447e6	0.07240276
53	0xbc8022bd	-0.015641565
54	0xbe92e155	-0.2868754
55	0xbe5af785	-0.21383484
56	0x3cc87e78	0.024474367
57	0xbd789f7b	-0.060698967
58	0x3cb41bf0	0.021985978
59	0xbbe28e9d	-0.0069139735
60	0xbe257ccf	-0.16160892
61	0xbdb4c0f7	-0.088258676
62	0xbe42c319	-0.19019736
63	0xbe4dc922	-0.20096257
64	0xbe89f1a9	-0.26942185
65	0xbda4f8f8	-0.080552995
66	0xbdcaeb08	-0.0990811
67	0xbe9f6e66	-0.31138915
68	0xbe045b62	-0.12925485
69	0x3e21597e	0.15756795
70	0x3d588b8a	0.05286745
71	0xbdab9d1a	-0.08379574
72	0xbd4b2956	-0.049599968
73	0x3e360718	0.17776144
74	0x3e1a39ad	0.15061064
75	0x3e133ba4	0.1437822
76	0xbe1ad80b	-0.15121476
77	0xbd458c8d	-0.048229743
78	0x3e167498	0.14692914
79	0x3e13ffc2	0.14453033
80	0x3c5afc57	0.013365827
81	0x3d5805a7	0.052739765
82	0xbe1bbbe3	-0.15208392
83	0xbe26c6af	-0.1628673
84	0xbebc4f8b	-0.36779436
85	0xbe6eb36c	-0.23310632
86	0x3d5a000c	0.0532227
87	0xbd4085f5	-0.04700275
88	0x3dd017e0	0.10160804
89	0x3e07a66c	0.13247079
90	0x3d87783e	0.06614731
91	0xbe10c391	-0.14137103
92	0xbaf50e4d	-0.0018696279
93	0xbd9b6bd6	-0.075889274
94	0xbd0ed1a3	-0.034867894
95	0xbcfe548e	-0.031046178
96	0x3cc3e4c1	0.02391279
97	0xbd148869	-0.036262903
98	0xbd1cb8dd	-0.038262237
99	0x3cc8d559	0.024515795
100	0xbe8940ba	-0.26807195
101	0xbd38d7d1	-0.045127694
102	0xbdbcc363	-0.092169546
103	0xbdb90929	-0.0903495
104	0xbce92489	-0.028459804
105	0x3c327258	0.0108915195
106	0x3da9b498	0.08286399
107	0x3d617127	0.05503955
108	0xbe3cae1d	-0.18425794
109	0x3e5d74e3	0.2162662
110	0x3dbb55b2	0.091472045
111	0xbea0bafa	-0.31392652
112	0xbe973d5a	-0.29538995
113	0xbda4eeaa	-0.08053334
114	0xbdd16695	-0.10224644
115	0xbddcb369	-0.10776407
116	0x3dc602ae	0.0966848
117	0xbc88be36	-0.016692262
118	0xbe91a5d2	-0.28446823
119	0xbc7dd79f	-0.015493303
120	0x3e2ad52c	0.16682881
121	0x3c58c6a2	0.0132309515
122	0x3e5b6e5c	0.21428818
123	0xbe8cc753	-0.27495822
124	0x3dac9eed	0.0842875
125	0x3e4361f9	0.19080342
126	0x3bb1e416	0.0054288013
127	0x3df8b332	0.12143554
128	0x3e334c63	0.17509608
129	0x3e511dae	0.20421478
130	0xbd6f4b13	-0.058421206
131	0xbba9066c	-0.0051582363
132	0x3d4db9fe	0.050226204
133	0xbda6f88b	-0.081528746
134	0xbdc813f7	-0.09769433
135	0x3e6a5c21	0.22886707
136	0xbd9e93db	-0.07743045
137	0xbe040119	-0.12891044
138	0x3e581fbc	0.21105856
139	0x3d701978	0.05861804
140	0xbe35b22c	-0.17743748
141	0xbe207cea	-0.15672651
142	0xbe0ed0db	-0.1394686
143	0x3e033008	0.12811291
144	0xbe276947	-0.16348754
145	0xbe202526	-0.15639171
146	0x3e1bc802	0.15213016
147	0x3b510b2a	0.0031897523
148	0xbda3fb19	-0.080068775
149	0xbcb663ab	-0.022264322
150	0xbe6eb556	-0.23311362
151	0x3d19299b	0.037393194
152	0xbd34a1f2	-0.044099756
153	0xbbb678f3	-0.0055686175
154	0xbe85434b	-0.26027903
155	0xbd0a8e1d	-0.033826936
156	0x3e2a566b	0.16634528
157	0x3e1a245e	0.15052935
158	0xbcea2fac	-0.028587185
159	0x3e4214f4	0.18953305
160	0x3dfbb9f0	0.12291324
161	0xbd22c98c	-0.03974299
162	0x3df55313	0.11978736
163	0x3e53a979	0.20670117
164	0xbda2b9a3	-0.07945564
165	0x3e17bd2c	0.14818257
166	0xbcfed74f	-0.031108527
167	0x3d462ce0	0.04838264
168	0xbe42c7f0	-0.19021583
169	0x3de1d9dc	0.110278815
170	0xbcdf95b3	-0.027293062
171	0x3f053cad	0.5204571
172	0x3e9ae60d	0.3025364
173	0x3dd6872c	0.10475001
174	0xbc8b9712	-0.01703981
175	0xbe64fca8	-0.22362006
176	0x3e1ee058	0.15515268
177	0xbdc86bd5	-0.09786192
178	0x3e932914	0.28742278
179	0x3dd9537f	0.10611629
180	0xbeb6490a	-0.356026
181	0x3e695dac	0.22789639
182	0xbe37e185	-0.17957123
183	0x3e02213f	0.12707995
184	0xbd0263f2	-0.031833597
185	0x3d4db199	0.0502182
186	0xbe9d33fe	-0.3070373
187	0xbe1e721a	-0.15473214
188	0xbc0ab79c	-0.008466627
189	0x3d67848d	0.056522895
190	0xbc726243	-0.014793935
191	0xbe997540	-0.29972267
192	0x3e5e1aa8	0.21689856
193	0xbd426678	-0.047461003
194	0xbd884874	-0.06654444
195	0x3de8726e	0.11349951
196	0xbe4bddd5	-0.19908841
197	0xbdfbaed0	-0.12289202
198	0xbe3fad18	-0.18718374
199	0x3f03712c	0.5134456
200	0x3de21917	0.11039942
201	0x3e401600	0.18758392
202	0x3e486754	0.19570667
203	0xbccdfe12	-0.025145564
204	0x3e1bf4a6	0.15230045
205	0xbdfa2f03	-0.12215998
206	0x3d449559	0.04799399
207	0x3d89ad36	0.067224905
208	0xbe50ae97	-0.203791
209	0xbe286e59	-0.16448344
210	0xbe2f1deb	-0.17101257
211	0xbc259ae8	-0.010107733
212	0x3e24e61a	0.16103402
213	0xbe12c473	-0.14332752
214	0xbed41fa7	-0.414304
215	0xbe46f22e	-0.19428322
216	0x3d0f40fc	0.034974083
217	0xbdedd5c2	-0.11613037
218	0x3c88a8d6	0.01668207
219	0xbd7a32e2	-0.061083682
220	0xbc6b621b	-0.014366652
221	0xbeb0b224	-0.3451091
222	0xbe617c0d	-0.22019978
223	0x3e24b049	0.16082872
224	0x3e419c75	0.1890734
225	0xbe9f90ac	-0.31165063
226	0xbc8adc5e	-0.016950782
227	0xbd4eb891	-0.050468985
228	0x3d749031	0.059707824
229	0xbe9be9b7	-0.30451748
230	0x3d1b25a8	0.03787771
231	0xbe8caf50	-0.27477503
232	0xbe3e60b8	-0.18591583
233	0x3e737992	0.23776844
234	0x3cc167e6	0.023609113
235	0x3d089543	0.033345472
236	0xbdc64c93	-0.09682574
237	0x3cb719da	0.022351194
238	0xbd13456e	-0.035954885
239	0xbe4b0a81	-0.19828226
240	0xbd212e28	-0.03935066
241	0xbd53f9f4	-0.051752046
242	0x3e775480	0.24153328
243	0xbea18bca	-0.31551963
244	0x3df13669	0.11777956
245	0x3d88968d	0.0666934
246	0x3d403ff0	0.046935976
247	0xbe85138b	-0.25991473
248	0x3d00c8fc	0.031441674
249	0xbe5052a1	-0.2034402
250	0xbd99be76	-0.07507031
251	0xbe1382cc	-0.14405364
252	0x3dd1b00b	0.10238656
253	0x3e0c1f03	0.13683705
254	0xbea06ded	-0.31333867
255	0x3ecf824b	0.40529093

base.cnn.0.bias f4 [32]
0	0xbd2895ab	-0.04115836
1	0xbd23d0fa	-0.039994217
2	0xbd3acd3a	-0.045605876
3	0x3c82b834	0.015956976
4	0xbdd801ce	-0.10547219
5	0xbde8b7ef	-0.113632075
6	0xbde136b2	-0.109967604
7	0xbd7b20cc	-0.061310574
8	0xbdf9e3e3	-0.12201669
9	0xbded6eac	-0.115933746
10	0xbdd2a5d1	-0.10285533
11	0xbde8835f	-0.11353182
12	0x3ced1807	0.028942121
13	0xbd805ec5	-0.06268076
14	0xbd8a2531	-0.06745375
15	0xbd85263b	-0.065014325
16	0xbd87c9c8	-0.066302836
17	0xbe17cd93	-0.14824514
18	0xbdee5bd8	-0.116386116
19	0xbd202f19	-0.039107416
20	0xbdcc1a5a	-0.09965964
21	0xbcdda2b7	-0.027055128
22	0xbda7d59d	-0.081950404
23	0xbc9043be	-0.017610427
24	0xbdeeef85	-0.116667785
25	0xbd2f651a	-0.042821027
26	0xbe2810d2	-0.16412666
27	0xbdf119fa	-0.11772533
28	0xbdf0afd9	-0.1175229
29	0xbdc75189	-0.097323485
30	0xbd1ac2ee	-0.037783556
31	0xbd0db020	-0.034591794

base.cnn.2.weight f4 [64, 32, 3, 3]
0	0xbe65e4e7	-0.224506
1	0xbe746732	-0.23867491
2	0xbd6cc304	-0.05780317
3	0xbdfd2222	-0.12360026
4	0xbe3f9494	-0.18709022
5	0x3e0d5aa0	0.13804102
6	0xbd277b1c	-0.04088889
7	0x3bea27c0	0.007145852
8	0x3e04471d	0.12917753
9	0x3dca0ae6	0.0986536
10	0x3dcb086e	0.09913717
11	0xbe571126	-0.21002635
12	0xbd19edfd	-0.03758048
13	0x3c580904	0.013185743
14	0xbe5178b2	-0.20456198
15	0xbc592860	-0.013254255
16	0xbca7750d	-0.020441556
17	0xbdef2f0b	-0.116788946
18	0xbd05a293	-0.032625746
19	0xbd2ad732	-0.041709132
20	0xbbcff9f2	-0.0063469345
21	0x3d80b6b1	0.062848456
22	0x3e62f052	0.22161987
23	0xbd06232b	-0.032748383
24	0x3e1bde54	0.1522153
25	0xbe16c785	-0.14724548
26	0x3dcd500d	0.10025034
27	0xbe93cf2c	-0.28868997
28	0xbe0ee3e6	-0.13954124
29	0xbe1b21a6	-0.15149555
30	0xbd0c0d1d	-0.034192193
31	0xbdd323bc	-0.1030955
32	0xbe357901	-0.1772194
33	0xbd1746fb	-0.036932927
34	0xbd8f07bb	-0.06983896
35	0x3c3fc1e4	0.011703942
36	0xbcd399ed	-0.025830233
37	0xbd933be8	-0.071891606
38	0x3cc2ad54	0.02376429
39	0xbe337a64	-0.17527157
40	0xbb6ed8e7	-0.0036445202
41	0x3ccb5bf9	0.02482413
42	0x3d89aaba	0.06722017
43	0x3dbf5f13	0.09344306
44	0xbb6c0a61	-0.0036016928
45	0xbdb9c5e6	-0.09070949
46	0xbdca3040	-0.09872484
47	0xbe2900b9	-0.16504182
48	0x3c8b76f8	0.017024502
49	0xbd4f5f7b	-0.050628167
50	0xbde0a5e2	-0.1096914
51	0xbe1ad8f9	-0.15121831
52	0xbde43d8f	-0.11144554
53	0xbcf4742b	-0.02984055
54	0xbe1d4818	-0.15359533
55	0xbd518d74	-0.05116029
56	0x3ac54bd0	0.0015052501
57	0x3d57a9e6	0.052652262
58	0xbcdb0f07	-0.026740564
59	0x3e412a9e	0.18863913
60	0xbdcc6bab	-0.099814735
61	0xbddb3a7b	-0.10704514
62	0xbe227268	-0.15863955
63	0xbd413d32	-0.0471775
64	0x3d24b3e7	0.04021063
65	0xbe7117b4	-0.23544198
66	0xbdd11eff	-0.1021099
67	0xbde48ca9	-0.11159641
68	0xbe58b58c	-0.21163005
69	0xbaaadc12	-0.0013035557
70	0x3d288879	0.041145775
71	0xbe60bc40	-0.21946812
72	0x3e1bea0e	0.15226004
73	0xbdcc6092	-0.09979357
74	0xbe4e0fb0	-0.20123172
75	0xbdeb7d2e	-0.114984855
76	0xbe22af38	-0.15887153
77	0xbca5ee45	-0.020255217
78	0x3d9c23e7	0.07624035
79	0xbe21c936	-0.15799412
80	0xbd73c7b8	-0.05951664
81	0xbde7a00e	-0.11309825
82	0x3d8e2f2c	0.06942591
83	0xbe14883f	-0.14505099
84	0x3d1e134b	0.038592618
85	0xbd32814f	-0.04358035
86	0xbe21eafc	-0.15812296
87	0xbdf2ffc6	-0.11865191
88	0x3c3d0cfc	0.01153874
89	0x3d61b83c	0.05510734
90	0xbd1c86e8	-0.038214594
91	0xbe601971	-0.21884705
92	0x3e4f472b	0.20241992
93	0xbbd30c2c	-0.00644066
94	0x3d963fd6	0.073363945
95	0x3cdb2efe	0.026755806
96	0xbc92baa7	-0.017911268
97	0xbe450440	-0.19239902
98	0x3d6e39cf	0.0581606
99	0x3d42d3ba	0.0475652
100	0x3d3f324e	0.046678834
101	0x3d48fdfb	0.04907034
102	0xbda3c7a3	-0.07997062
103	0xbd0229a1	-0.03177798
104	0xbe22b7fa	-0.15890494
105	0xbd95dbb7	-0.07317298
106	0xbd33f7d6	-0.043937527
107	0xbe8334a3	-0.25626096
108	0xbd71234f	-0.058871564
109	0x3dc37d37	0.09545367
110	0x3e285365	0.16438062
111	0xbe097eba	-0.13427249
112	0xbc86b787	-0.016444935
113	0xbe35ebe5	-0.17765768
114	0xbe869899	-0.26288298
115	0xbe422260	-0.18958426
116	0xbcaa8e88	-0.020819917
117	0xbdf6a60b	-0.12043389
118	0xbdaa9066	-0.08328323
119	0xbdf215a3	-0.11820533
120	0x3da08f00	0.07839775
121	0xbc8b7967	-0.017025663
122	0x3d4debbc	0.050273642
123	0xbe74de94	-0.23913032
124	0x3bd9020b	0.006622558
125	0xbd98c2ff	-0.074590676
126	0xbdccf911	-0.10008443
127	0xbe8235de	-0.25431722
128	0xbdd2e556	-0.102976486
129	0xbd33f4c8	-0.043934613
130	0xbd0baad6	-0.03409847
131	0xbb938385	-0.0045017623
132	0x3dd6051c	0.10450193
133	0xbd377ae1	-0.04479492
134	0xbe36a513	-0.17836408
135	0xbb2df4e0	-0.0026543662
136	0xbc971931	-0.01844463
137	0xbdb8d22c	-0.09024462
138	0xbe8c62d8	-0.27419162
139	0xbe370500	-0.17873001
140	0xbc6b92fe	-0.014378307
141	0x3ce00282	0.027344946
142	0xbe317334	-0.17329103
143	0xbdd5cf99	-0.10439987
144	0x3d06ea1b	0.032938104
145	0xbdd84f53	-0.10562005
146	0xbda9a289	-0.08282954
147	0x3df64c23	0.12026241
148	0xbd8ad107	-0.0677815
149	0xbd4cb292	-0.049974985
150	0xbd6a9fb8	-0.057281226
151	0xbd1416d4	-0.036154583
152	0x3c5bed6b	0.013423304
153	0xbd48342e	-0.048877887
154	0xb9d825f2	-0.00041227002
155	0xbe7ba45d	-0.24574418
156	0xbd1be02a	-0.038055576
157	0xbd41df3e	-0.04733204
158	0xbd116da9	-0.03550497
159	0xbdc83204	-0.09775165
160	0x39d65b60	0.0004088534
161	0xbdebcf0e	-0.11514102
162	0x3b9d8007	0.004806522
163	0x3dbd5144	0.09244016
164	0xbdaae3a4	-0.083442
165	0xbd0c6126	-0.034272335
166	0x3d8a9912	0.06767477
167	0xbe35ff31	-0.17773129
168	0x3e087197	0.13324581
169	0xbd54f1ee	-0.051988535
170	0x3da76acd	0.081746675
171	0xbd0a68e9	-0.033791456
172	0x3d2c79e6	0.04210844
173	0xbdb6bc61	-0.08922649
174	0xbd63b3ec	-0.05559151
175	0xbe1c2312	-0.15247753
176	0xbe297791	-0.16549517
177	0xbe023ea9	-0.12719215
178	0xbd9564df	-0.0729463
179	0xbe8d90de	-0.27649587
180	0xbe231c14	-0.1592868
181	0x3e058d24	0.13042122
182	0xbc9c8a8d	-0.019109035
183	0xbe3702b5	-0.17872126
184	0xbc1b2584	-0.009469394
185	0xbe6a4994	-0.2287963
186	0xbe3af1e6	-0.1825634
187	0xbdf6bb3b	-0.1204743
188	0xba62ee90	-0.00086567644
189	0xbe9a3e9c	-0.30125892
190	0xbe7500de	-0.23926112
191	0x3d4e913e	0.050431482
192	0xbe1da4f5	-0.15394957
193	0xbdc932ae	-0.098241195
194	0xbe16578f	-0.14681838
195	0xbded3c9c	-0.11583826
196	0xbdf5085a	-0.119644836
197	0x3c9d8ab6	0.019231182
198	0xbdc4fbaa	-0.096183136
199	0x3d27beb9	0.04095337
200	0xbe4a62e4	-0.19764286
201	0xbd18182c	-0.037132427
202	0xbe07661c	-0.13222545
203	0x3d4282df	0.04748809
204	0xbd707c90	-0.058712542
205	0xbe30badf	-0.17258786
206	0x3d6b1ee0	0.05740249
207	0xbd189442	-0.037250765
208	0xbe97bffe	-0.29638666
209	0x3d6e16e9	0.058127318
210	0xbe3471f7	-0.17621599
211	0xbd9fab6e	-0.077963695
212	0x3dafac32	0.085777655
213	0xbe113fc9	-0.14184488
214	0xbdc7b8dd	-0.09752057
215	0xbe5a044d	-0.21290703
216	0x3d7685a0	0.06018603
217	0xbe581aee	-0.21104023
218	0xbd9215bf	-0.07133054
219	0x3dd86399	0.10565872
220	0xbde64bc3	-0.11244919
221	0xbda25769	-0.079268284
222	0xbdd2f32d	-0.10300288
223	0xbb9b5fbc	-0.004741637
224	0xbdc68e6c	-0.096951336
225	0x3da1ca0d	0.07899866
226	0x3d1b1e9b	0.037870985
227	0x3d3f1d0d	0.046658564
228	0xbcdab385	-0.02669693
229	0x3d7e8c22	0.06214536
230	0xbdf922ad	-0.12164817
231	0xbc8e6449	-0.017381804
232	0xbd2f09eb	-0.042734068
233	0x3e1f306c	0.15545815
234	0xbe4d0adc	-0.20023674
235	0x3d7a3050	0.06108123
236	0x3d827933	0.06370773
237	0xbe669455	-0.22517522
238	0xbb6bf2aa	-0.0036002793
239	0xbd20b970	-0.039239347
240	0xbd845658	-0.06461781
241	0xbb438f05	-0.0029839885
242	0x3d6ab4fd	0.05730151
243	0x3d99459c	0.0748398
244	0xbde7d6a8	-0.11320239
245	0x3cd9c88f	0.026584892
246	0xbe13fbc1	-0.14451505
247	0xbddbe978	-0.1073789
248	0x3e20ba6b	0.15696113
249	0x3d0524e7	0.032505896
250	0xbde5294b	-0.11189517
251	0xbd175575	-0.036946733
252	0x3ceff39b	0.029290965
253	0xbd0c1e8f	-0.03420883
254	0x3ce528e9	0.027973609
255	0x3d91975c	0.07108948

base.cnn.2.bias f4 [64]
0	0xbe0adf8d	-0.1356184
1	0xbd2cf767	-0.04222813
2	0xbba5af36	-0.005056287
3	0xbdc2a72b	-0.09504541
4	0xbd4b653b	-0.049657088
5	0xbd8285db	-0.06373187
6	0xbc62c053	-0.013839799
7	0xbd5696e4	-0.052389994
8	0xbcc02495	-0.023454944
9	0x3d8c3f39	0.06847996
10	0xbc4056c4	-0.011739437
11	0xbd481ea2	-0.04885734
12	0xbdab01ee	-0.083499774
13	0xbcfcf583	-0.030878788
14	0x3a9d337a	0.0011993491
15	0xbd14cf19	-0.036330316
16	0x3c64603d	0.013938961
17	0xbd07db43	-0.03316809
18	0xbd2ee269	-0.04269639
19	0xbd353a33	-0.044244956
20	0xbdc6c460	-0.09705424
21	0xbdd617b1	-0.104537375
22	0xbd13fc53	-0.036129307
23	0xbd0a39d7	-0.033746567
24	0xbcaf0506	-0.0213647
25	0xbcc4a1f2	-0.024003003
26	0xbcc81b15	-0.024426976
27	0xbe1099d7	-0.14121185
28	0xbc9d126b	-0.019173821
29	0x3c02a12b	0.007972996
30	0x3b8a1d5c	0.0042149257
31	0xbd71359f	-0.058889028
32	0xbca2934c	-0.019845627
33	0xbd760040	-0.060058832
34	0xbde436b5	-0.11143247
35	0xbd795492	-0.06087167
36	0x3d49a5ff	0.04923057
37	0xbc49d1af	-0.012318059
38	0x3c055c9b	0.008139755
39	0x3d07c74f	0.03314906
40	0xbd4ae999	-0.049539182
41	0x3ba7d75c	0.0051221084
42	0xbd21f1b8	-0.03953716
43	0xbc79baf8	-0.015242331
44	0xbd0fd8c8	-0.035118848
45	0x3cb1ced1	0.021705063
46	0xbd74923f	-0.059709784
47	0xbc8059ee	-0.015667882
48	0xbdb93a01	-0.090442665
49	0xbd27d54c	-0.0409749
50	0xbd5043aa	-0.05084578
51	0xbdd29427	-0.10282164
52	0xbc8ef88d	-0.017452503
53	0xbd8b7ee5	-0.068113126
54	0xbcd128a2	-0.02553207
55	0xbdac38aa	-0.08409245
56	0xbd9424bf	-0.07233571
57	0xbc234f3f	-0.009967624
58	0xbc316de0	-0.010829419
59	0x3d37b32d	0.04484861
60	0xbd047d6e	-0.03234618
61	0xbce9ec09	-0.028554933
62	0x3cc482d5	0.023988167
63	0x3d01763b	0.031606894

base.cnn.4.weight f4 [32, 64, 3, 3]
0	0xbd35aa39	-0.04435179
1	0x3d93030a	0.07178314
2	0x3d9c073d	0.07618568
3	0xbc32bc5a	-0.010909164
4	0xbd189bf8	-0.03725812
5	0xbc9c9994	-0.0191162
6	0xbd2a87d1	-0.04163343
7	0xbe1bf1b4	-0.15228921
8	0x3d3cc29d	0.046084035
9	0x3c5bce3f	0.013415872
10	0xbc03cf6f	-0.0080450615
11	0x3dacdd7f	0.084406845
12	0x3d0b40c3	0.03399731
13	0xbd00cde6	-0.03144636
14	0x3d048eb1	0.032362644
15	0xbc86bb84	-0.016446836
16	0x3d8bd911	0.068285115
17	0x3d1a65ae	0.037694626
18	0xbd427111	-0.04747111
19	0xbda86c25	-0.08223752
20	0x3d82d91b	0.06389066
21	0x3d9637fa	0.073348954
22	0x3d396e6d	0.045271326
23	0x3d8925f8	0.06696695
24	0x3c4a1be2	0.012335749
25	0xbcd12513	-0.025530374
26	0x3e198ceb	0.14995162
27	0x3d3b2602	0.045690544
28	0xbd0f43dc	-0.034976825
29	0x3d184976	0.037179433
30	0xbc807eed	-0.015685523
31	0xbd317ef4	-0.043333963
32	0x3d58e4d1	0.05295259
33	0x3d00245f	0.031284686
34	0xbdde4dd5	-0.10854689
35	0x3d445bbc	0.047939047
36	0x3e1b62c5	0.15174396
37	0xbbc7b2b2	-0.0060943
38	0x3c53df3a	0.012931639
39	0x3bcadd8b	0.0061909608
40	0xbe50d7fb	-0.2039489
41	0xbb981a58	-0.0046418123
42	0xbc3a1dc3	-0.011359635
43	0x3d6c78da	0.05773244
44	0xbc45e046	-0.012077397
45	0x3e323559	0.17403163
46	0xbd92265a	-0.07136221
47	0xbe34ee15	-0.17668946
48	0xbd835373	-0.06412401
49	0xbd2a92cc	-0.041643903
50	0x3db0023b	0.085941754
51	0xbd483b16	-0.048884474
52	0xbdb1a9e7	-0.086749844
53	0x3dd0938f	0.101843946
54	0x3e1724e2	0.14760163
55	0xbd4a8d9d	-0.04945146
56	0x3da705fe	0.0815544
57	0xbdecb3ff	-0.11557769
58	0xbe4804e1	-0.19533111
59	0xb98aa248	-0.0002644232
60	0xbd5e305e	-0.054245345
61	0xbe9c495a	-0.30524713
62	0xbd0bc306	-0.034121536
63	0x3debe7fe	0.115188584
64	0xbd6717c4	-0.05641915
65	0x3e0e47fb	0.13894646
66	0x3c199efe	0.009376286
67	0xbe074ed2	-0.13213661
68	0x3c9ad18f	0.018898753
69	0x3d5e6f4c	0.05430536
70	0x3de7dd89	0.11321551
71	0xbcd24649	-0.02566828
72	0xbd9e4081	-0.07727147
73	0x3db3444c	0.08753261
74	0x3cfee19e	0.031113442
75	0x3de28d14	0.11062065
76	0xbd02bf83	-0.03192092
77	0x3bd46872	0.0064821774
78	0xbe86315f	-0.26209542
79	0xbd190224	-0.037355557
80	0x3e3f5b98	0.18687284
81	0xbd3eb17b	-0.046555977
82	0x3cc7012b	0.02429255
83	0xbd9676a2	-0.07346846
84	0xbac3892b	-0.0014918199
85	0xbd11ab4c	-0.035563752
86	0xbe1bc48d	-0.15211697
87	0xbd337ea0	-0.04382193
88	0xbdda3d4b	-0.10656222
89	0xbd41a7a4	-0.047279015
90	0x3d32209c	0.04348813
91	0x3c80fc2d	0.015745247
92	0xbb413ec5	-0.0029486876
93	0x3d217312	0.03941638
94	0x3e4fe111	0.203007
95	0x3d99aad0	0.07503283
96	0x3dc2f5d1	0.09519542
97	0xbe57741b	-0.21040384
98	0x3db352ad	0.087560035
99	0x3c2a72fb	0.01040339
100	0xbdf96aa4	-0.12178543
101	0x3cf1f557	0.029535932
102	0xbd952ed7	-0.072843246
103	0xbe364608	-0.17800152
104	0x3d54441a	0.05182276
105	0xbe021b98	-0.12705839
106	0x3da1cf2c	0.07900843
107	0xbb35f463	-0.0027764074
108	0x3db942c7	0.0904594
109	0xbd5ae040	-0.053436518
110	0x3cbb56e7	0.022868587
111	0x3d1d348c	0.03838019
112	0xbe49448a	-0.19655052
113	0x3c9af5e2	0.018916074
114	0xbe0cd62b	-0.13753574
115	0xbe49484f	-0.1965649
116	0xbe20ed44	-0.1571551
117	0xbe457834	-0.19284135
118	0x3d2ab18b	0.041673224
119	0x3c1a2860	0.00940904
120	0x3d7fa5bb	0.062413912
121	0x3d69edc7	0.057111528
122	0x3c920920	0.017826617
123	0x3c8a5c52	0.016889725
124	0xbd2a0a2f	-0.041513618
125	0xbde6ea47	-0.112751536
126	0xbd588d29	-0.052868996
127	0xbdb0b0c0	-0.086274624
128	0xbd5d3d3f	-0.054013487
129	0x3d52118c	0.051286265
130	0xbdd8789a	-0.10569878
131	0x3ce18e2e	0.027533617
132	0x3db6456e	0.088999614
133	0xbe200e70	-0.15630507
134	0x3c7934e9	0.015210369
135	0x3d631374	0.055438474
136	0x3b479697	0.0030454749
137	0xbd8107b5	-0.06300298
138	0xbd4d37ad	-0.050101925
139	0x3d07d7ad	0.03316467
140	0x3d04f133	0.032456588
141	0xbdd674c8	-0.10471493
142	0x3c6e2b0e	0.014536632
143	0xbc387649	-0.01125867
144	0xbd5eddb9	-0.05441067
145	0x3d4daec0	0.050215483
146	0xbdf44062	-0.119263425
147	0x3c74b2be	0.014935194
148	0xbd36c13c	-0.044617876
149	0xbc802458	-0.01564233
150	0xbd2296b4	-0.039694503
151	0x3d2a61fa	0.041597344
152	0xbd75fb5d	-0.06005417
153	0xbd590153	-0.05297978
154	0xbd07006b	-0.032959383
155	0x3e1aa0a5	0.15100344
156	0x3da695c0	0.08134031
157	0x3d907b3e	0.070547566
158	0xbbbb3777	-0.005713399
159	0x3dd29a8e	0.10283385
160	0xbd935e66	-0.071957394
161	0x3e0ecd69	0.13945545
162	0x3dcfce55	0.101467766
163	0x3de5085a	0.111832336
164	0x3e483297	0.19550548
165	0x3e02e479	0.12782468
166	0xbd14b307	-0.036303546
167	0xbd497ad6	-0.04918941
168	0x3daaa788	0.08332735
169	0xbbe98a6d	-0.0071270973
170	0x3d5110de	0.051041476
171	0xbc4accbe	-0.012377916
172	0xbc6f1207	-0.0145917
173	0xbc379193	-0.011204141
174	0x3d0e5009	0.034744296
175	0xbe23e9f9	-0.16007222
176	0xbc1d75b8	-0.009610586
177	0xbd2f6ac1	-0.042826418
178	0xbd8b3d68	-0.06798822
179	0x3c00dc75	0.007865061
180	0x3d692d72	0.056928106
181	0xbe74988b	-0.23886316
182	0xbd86f09c	-0.06588861
183	0x3e18bd6a	0.14916006
184	0x3c8c9c71	0.01716444
185	0x3d9b336e	0.07578169
186	0xbe552d1f	-0.20817994
187	0x3da8072f	0.08204495
188	0x3b354ba7	0.00276635
189	0xbde3b38e	-0.11118232
190	0xbcc3d890	-0.023906976
191	0x3e2934d0	0.16524053
192	0xbd3a39ed	-0.0454654
193	0x3e5bec9c	0.21476978
194	0x3e54c4c0	0.20778179
195	0xbe0a7ad9	-0.13523425
196	0x3e3810b2	0.17975119
197	0x3dafb9b7	0.08580344
198	0x3d5f86d5	0.054571945
199	0x3e607e51	0.21923186
200	0xbe80e1c1	-0.25172237
201	0x3dfa94e2	0.122354284
202	0xbcff195b	-0.03114002
203	0xbc424d80	-0.011859298
204	0x3d24f60e	0.04027372
205	0x3dbc5ba3	0.09197166
206	0x3cb5c43a	0.022188295
207	0x3e50a269	0.20374455
208	0x3aea0d6e	0.0017856786
209	0x3e68ae7a	0.22722808
210	0x3d483a3f	0.048883673
211	0xbdd7f919	-0.105455585
212	0x3dc0a44b	0.094063364
213	0xbea488ac	-0.32135522
214	0xbe01b833	-0.12667923
215	0x3d547213	0.051866602
216	0x3dd29e25	0.1028407
217	0xbde6c027	-0.11267119
218	0xbdd586ad	-0.10426078
219	0xbc0bcf3e	-0.008533297
220	0xbcddee1d	-0.02709108
221	0xbd533ba6	-0.051570557
222	0xbdc6c936	-0.09706347
223	0xbe45c6a6	-0.1931406
224	0xbc87b492	-0.016565595
225	0x3df21980	0.1182127
226	0xbd8cbb14	-0.0687162
227	0xbdc8a61b	-0.09797307
228	0xbe0131f9	-0.1261672
229	0x3d051d85	0.032498855
230	0xbcd90e02	-0.026495937
231	0x3d591807	0.05300143
232	0x3d90442c	0.07044253
233	0xbd4bb1ff	-0.049730297
234	0xbdbd71bb	-0.09250208
235	0x3e125d92	0.14293507
236	0xbccacd13	-0.02475599
237	0xbd755b04	-0.059901252
238	0xbe4ab3e5	-0.19795187
239	0xbdabc986	-0.08388047
240	0xbcb14851	-0.021640928
241	0x3e2397e3	0.15975909
242	0xbdee6a61	-0.11641384
243	0x3d555052	0.052078553
244	0x3e10ba31	0.14133526
245	0x3c184b5a	0.009295309
246	0xbde3c938	-0.11122364
247	0x3cbaf60e	0.022822406
248	0x3df165b3	0.11786976
249	0xbdde996d	-0.108691074
250	0xbe0b29b5	-0.13590129
251	0xbdfc16da	-0.12309046
252	0x3dea7223	0.11447551
253	0x3d984bc5	0.07436327
254	0x3b49b4c5	0.0030777913
255	0xbdcd7adb	-0.100331984

base.cnn.4.bias f4 [32]
0	0xbdaf5f45	-0.08563093
1	0xbd74a5ce	-0.059728436
2	0xbd168092	-0.036743708
3	0xbdcee081	-0.101014145
4	0xbd0e2c44	-0.034710184
5	0xbd36825e	-0.04455792
6	0xbd03de92	-0.03219468
7	0xbc2cdcd3	-0.0105506955
8	0xbc9be5a9	-0.019030409
9	0xbd26370c	-0.04057984
10	0xbe0a7471	-0.13520981
11	0xbd3ca3c4	-0.046054617
12	0xbd1f0b54	-0.038829163
13	0xbcc97afc	-0.024594776
14	0xbdaa0533	-0.08301773
15	0xbd84fe05	-0.06493763
16	0xbddc90dc	-0.10769817
17	0xbd2a139b	-0.041522603
18	0xbcbdea3f	-0.023182986
19	0xbcae17f7	-0.021251662
20	0xbd59c8c7	-0.05316999
21	0xbbd6c0de	-0.0065537533
22	0xbda79c64	-0.08184126
23	0x3af67c48	0.0018805349
24	0xbd2b2a0c	-0.041788146
25	0xbe12c8d5	-0.14334424
26	0xbd7f4587	-0.062322166
27	0xbd924236	-0.07141535
28	0xbd1cd1a7	-0.038285878
29	0xbcf8f7a0	-0.030391514
30	0xbd2ec82b	-0.042671364
31	0xbd32d994	-0.04366453

base.cnn.7.weight f4 [64, 800]
0	0xbc1ca734	-0.009561349
1	0xbe3b0c7f	-0.18266486
2	0xbdf34ed5	-0.118802704
3	0xbd87b0c2	-0.06625511
4	0x3dde3a26	0.10850935
5	0xbd299e40	-0.041410685
6	0x3def39ba	0.11680932
7	0x3e39a83e	0.18130586
8	0xbdaf560a	-0.085613325
9	0xbd80037f	-0.06250667
10	0xbe4b9839	-0.19882287
11	0xbcacf2d4	-0.021111883
12	0xbdacecf8	-0.08443636
13	0xbdae8b52	-0.08522667
14	0xbe105168	-0.14093554
15	0xbe2b145a	-0.16706982
16	0xbd9bbae5	-0.07604007
17	0xbc5566d8	-0.013025008
18	0x3d034044	0.03204371
19	0xbd981ae1	-0.07427002
20	0x3d78d5d3	0.060750794
21	0x3dc618ad	0.09672675
22	0x3d64790f	0.055779513
23	0xbd6404bc	-0.055668578
24	0x3da4390e	0.08018695
25	0xbe424a77	-0.18973719
26	0xbe4b0c8c	-0.19829005
27	0xbd11ca2e	-0.035593204
28	0x3c93cc0b	0.018041631
29	0xbe3ac682	-0.18239787
30	0x3c5181e8	0.01278732
31	0x3db190cc	0.08670196
32	0x3cd840c1	0.026398065
33	0x3df9bda5	0.12194375
34	0xbd8f7151	-0.07004035
35	0x3cab5521	0.020914616
36	0xbce8d7d2	-0.028423224
37	0xbd4273be	-0.04747366
38	0x3e1605be	0.14650628
39	0xbe423a0c	-0.18967456
40	0xbdfee0fc	-0.12445256
41	0xbd313877	-0.04326674
42	0xbc1a0ceb	-0.009402494
43	0xbdd4d640	-0.103924274
44	0xbdc44b6e	-0.095846996
45	0xbdd280c1	-0.10278464
46	0xbd947739	-0.072493024
47	0x3e32fdd5	0.17479642
48	0xbd41025b	-0.047121387
49	0xbdc56efa	-0.09640308
50	0x3caf3397	0.021386905
51	0xbca83da9	-0.020537214
52	0xbde564ed	-0.11200891
53	0x3da0274d	0.07819996
54	0x3de41eb4	0.11138669
55	0xbd9be599	-0.07612152
56	0x3ca3d6dc	0.019999914
57	0xbc322a64	-0.0108743645
58	0x3da21e3e	0.079159245
59	0x3c933b6d	0.017972672
60	0xbe23e15b	-0.16003935
61	0xbe03fadd	-0.12888665
62	0x3e05671a	0.13027611
63	0xba1bb4f8	-0.0005939747
64	0x3b260b5c	0.002533636
65	0xbdda12fe	-0.10648154
66	0xbd7723b8	-0.0603368
67	0xbe83ef27	-0.25768396
68	0xbe2299f3	-0.1587904
69	0x3dfcb32e	0.12338863
70	0x3e03bc11	0.1286471
71	0x3ce47128	0.027885988
72	0xbe77e96f	-0.24210142
73	0x3dd6546f	0.10465323
74	0xbe030206	-0.1279374
75	0xbdef103d	-0.11673019
76	0x3e223b13	0.15842848
77	0x3d00cab9	0.03144333
78	0xbca59e91	-0.020217212
79	0xbd67ade1	-0.05656231
80	0xbd6f0f60	-0.058364272
81	0xbd1aa5d0	-0.037755787
82	0xbe46f4c8	-0.19429314
83	0xbd0f2cd6	-0.03495487
84	0xbd954ce1	-0.07290054
85	0x3ce48dcd	0.027899647
86	0x3cbffb96	0.023435395
87	0x3d53d926	0.05172076
88	0x3b827b64	0.0039819945
89	0x3dd5b2c3	0.10434487
90	0x3d944ced	0.07241235
91	0xbda9b707	-0.08286863
92	0x3d61785d	0.055046428
93	0x3ca5900d	0.02021029
94	0xbcb6d075	-0.022316197
95	0xbde12fdf	-0.10995459
96	0xbe22c1c4	-0.15894228
97	0xbe4d43e6	-0.20045432
98	0x3c8ccaca	0.017186541
99	0xbd86db73	-0.06584825
100	0x3c7c8d23	0.015414509
101	0x3d82ffab	0.06396421
102	0xbd5d6b85	-0.054057617
103	0xbdfa70de	-0.12228559
104	0xbe124a8a	-0.14286247
105	0x3da6b831	0.081406005
106	0xbe80128c	-0.2501415
107	0x3dc6500c	0.096832365
108	0xbdb6154e	-0.08890782
109	0x3daac833	0.08338966
110	0x3e76bea0	0.24096155
111	0x3dd0609a	0.10174675
112	0xbd597abc	-0.053095564
113	0x3d0852f5	0.03328224
114	0xbc79645f	-0.015221684
115	0xbbb3a7af	-0.005482636
116	0xbdade159	-0.08490247
117	0xbdddf961	-0.10838581
118	0xbded2f3d	-0.115812756
119	0x3e8e31b7	0.27772304
120	0xbd734fb2	-0.059402175
121	0x3d39372c	0.04521863
122	0xbdce1ff1	-0.10064686
123	0xbde83dff	-0.1133995
124	0x3df5a708	0.11994749
125	0xbd32a32b	-0.04361264
126	0x3ceb7e26	0.028746676
127	0x3cc2ef9f	0.0237959
128	0x3d720296	0.059084497
129	0x3e3d0086	0.18457231
130	0x3d318022	0.043335088
131	0xbcf77ec1	-0.030211808
132	0x3d7c65c0	0.061620474
133	0x3de2e355	0.110785164
134	0xbd85ae22	-0.06527354
135	0x3b977c9b	0.0046230084
136	0x3e3f8805	0.18704231
137	0xbdd41623	-0.10355785
138	0xbe289fbc	-0.16467184
139	0xbe2359d8	-0.15952241
140	0x3de5a6bc	0.11213443
141	0xbe13e23e	-0.14441773
142	0x3e12cd0d	0.14336033
143	0xbb67eba4	-0.0035388255
144	0xbda2c3cb	-0.07947501
145	0x3dff3be7	0.12462597
146	0x3d88148b	0.06644543
147	0xbc449d20	-0.012000352
148	0x3c351217	0.011051676
149	0xbd86b989	-0.06578357
150	0xbd565731	-0.052329246
151	0xbd2caf6e	-0.04215949
152	0x3e1796b6	0.14803585
153	0xbd4920d7	-0.049103584
154	0xbdcf2a2e	-0.10115467
155	0xbdc65e09	-0.096859045
156	0x3da20c1d	0.07912467
157	0xbdd81843	-0.105515026
158	0xbcdbdfcd	-0.026840115
159	0xbdcf36fd	-0.1011791
160	0xbdc81e51	-0.097714074
161	0x3c156564	0.009118412
162	0xbbb2046e	-0.005432657
163	0xbb99920b	-0.004686599
164	0xbcf38f37	-0.029731376
165	0xbd49bfd2	-0.0492552
166	0xbdf153d8	-0.1178357
167	0xbded6b35	-0.11592714
168	0x3db7f3d1	0.08982051
169	0xbd19254b	-0.03738908
170	0xbd21ca77	-0.039499726
171	0xbd82f93f	-0.06395196
172	0xbe2805f9	-0.16408528
173	0x3dc8d8a8	0.09806949
174	0xbe2ecaad	-0.17069502
175	0xb96e4337	-0.00022722488
176	0xbcf5751b	-0.029963067
177	0xbd77a9cc	-0.060464665
178	0x3d9d1332	0.07669677
179	0x3d225f60	0.039641738
180	0xbe37da27	-0.17954312
181	0x3c4f7f27	0.012664593
182	0xbe338dbc	-0.17534536
183	0xbd17e469	-0.037083063
184	0x3d74dcfe	0.059781067
185	0x3d0f228f	0.034945067
186	0xbdf136be	-0.11778019
187	0xbddf493d	-0.10902641
188	0xbe16f72c	-0.14742726
189	0xbdeef586	-0.11667924
190	0x3d4f4b6d	0.05060904
191	0xbb7b5950	-0.0038352795
192	0xbda55d48	-0.080744326
193	0xbd403e08	-0.046934158
194	0x3da77a17	0.08177584
195	0x3c4a6f9e	0.012355713
196	0xbdf383d1	-0.11890376
197	0xbd6a1273	-0.0571465
198	0xbe0266ee	-0.12734577
199	0xbb4366c7	-0.0029815899
200	0x3dd5c4ec	0.104379505
201	0xbe855fe0	-0.2604971
202	0x3e432aea	0.19059339
203	0x3ab707bc	0.0013964097
204	0x3e034233	0.12818222
205	0xbe058810	-0.13040185
206	0x3e435f1c	0.1907925
207	0x3d8d5bb9	0.0690226
208	0x3dfd4d7f	0.12368297
209	0xbc51df6a	-0.012809614
210	0x3cc8cce4	0.024511762
211	0xbd0619ab	-0.032739323
212	0x3d0edd26	0.034878872
213	0xbc9dec90	-0.01927784
214	0xbe1d1727	-0.15340863
215	0x3d575963	0.05257548
216	0x3c866b12	0.016408477
217	0xbae8f9ca	-0.0017774638
218	0xbd135c9f	-0.035977002
219	0xbe018587	-0.12648593
220	0xbd30af2d	-0.04313581
221	0xbdb9db71	-0.09075058
222	0xbdb005bb	-0.08594843
223	0xbc1d03d5	-0.009583433
224	0xbe48aa7a	-0.19596282
225	0xbb4f3c8a	-0.0031621777
226	0x3e49da36	0.19712147
227	0xbe387eb9	-0.18017091
228	0xbcc5b059	-0.02413194
229	0xbe035bac	-0.12827939
230	0xbc08bab0	-0.008345291
231	0xbd9eb24a	-0.0774885
232	0x3da7834f	0.08179342
233	0xbe66ed89	-0.2255155
234	0x3d0a44c8	0.033757
235	0xbd3cac0c	-0.046062514
236	0x3d853723	0.06504657
237	0x3d39510f	0.04524332
238	0x3d5bf25e	0.053697936
239	0xbeaa6376	-0.33279008
240	0x3e07b3dd	0.13252206
241	0x3e109848	0.1412059
242	0x3d5a8533	0.053349685
243	0x3d80e280	0.062932014
244	0xbe925e19	-0.28587416
245	0x3d3f0680	0.04663706
246	0xbdb24a2b	-0.08705553
247	0xbe5c543d	-0.2151651
248	0x3d9eda0a	0.077564314
249	0xbda4bb77	-0.080435686
250	0x3e286ca1	0.16447689
251	0x3de721ac	0.11285719
252	0xbda8fc4a	-0.08251245
253	0xbd3b59d7	-0.045739975
254	0xbdb4e0a1	-0.08831907
255	0xbdbfc738	-0.0936417

base.cnn.7.bias f4 [64]
0	0xbdbf4df4	-0.0934104
1	0xbc255c7f	-0.010092854
2	0xbd1db9f3	-0.038507413
3	0x3d097435	0.03355809
4	0xbe01645b	-0.12635939
5	0xbdaf8073	-0.085694216
6	0xbd6f2819	-0.05838785
7	0xbdfb7867	-0.12278824
8	0xbd73fc3d	-0.059566725
9	0x3c2e711d	0.0106470855
10	0xbcdaeea3	-0.026725119
11	0xbcce95c2	-0.025217894
12	0xba0152a7	-0.00049332756
13	0x3cd3aaae	0.025838222
14	0xbd50888b	-0.050911468
15	0xbc85ee54	-0.016348995
16	0xbd1f612e	-0.038911037
17	0xbd983a96	-0.074330494
18	0xbd92e1a0	-0.07171941
19	0xbcb65d46	-0.022261273
20	0xbc5c5a3e	-0.01344925
21	0xbca0a845	-0.019611487
22	0xbd0a686e	-0.033791
23	0xbd58ac75	-0.052898843
24	0xbdc6fc4d	-0.09716091
25	0xbdad4b84	-0.08461669
26	0xbce07441	-0.027399184
27	0xbd74ca26	-0.059763096
28	0x3da421dc	0.08014271
29	0xbc8719b7	-0.016491754
30	0xbc201a02	-0.009771826
31	0xbdb033d6	-0.08603637
32	0xbd752a09	-0.05985454
33	0xbd5dc337	-0.05414125
34	0xbd809380	-0.062781334
35	0xbd368c86	-0.044567607
36	0xbd5a7e51	-0.05334312
37	0xbc5900af	-0.013244792
38	0xbda7eb9b	-0.08199235
39	0xbdb95e00	-0.09051132
40	0xbc9a4310	-0.018830806
41	0xbcb8de5c	-0.022566967
42	0xbd400b77	-0.046885934
43	0xbd0faec2	-0.03507877
44	0x3c3c3ca9	0.011489072
45	0xbd37b0bd	-0.044846285
46	0xbd9f21fa	-0.077701524
47	0xbdae2dcf	-0.08504831
48	0x3987d606	0.00025908666
49	0xbd43d718	-0.04781255
50	0xbd736e26	-0.059431218
51	0xbcabb2e5	-0.020959327
52	0xbd13ada7	-0.03605428
53	0xbc929b4e	-0.01789632
54	0x3cb68d2d	0.022284115
55	0x3b4757df	0.0030417365
56	0xbc9b779f	-0.018977938
57	0xbd1e7d9e	-0.038694017
58	0xbc7b2747	-0.015329189
59	0xbd7f171f	-0.06227791
60	0xbc96cfff	-0.018409727
61	0xbd8a31bb	-0.067477666
62	0xbd9c0783	-0.0761862
63	0xbce5c059	-0.02804582

base.cnn.9.weight f4 [64]
0	0x3f768a32	0.9630462
1	0x3f801a0c	1.0007949
2	0x3f854e45	1.0414511
3	0x3f66a11a	0.9008957
4	0x3f7f8c1f	0.9982318
5	0x3f6478b7	0.89246696
6	0x3f873120	1.0561867
7	0x3f64f285	0.89432555
8	0x3f73c95d	0.9522913
9	0x3f92ccda	1.1468766
10	0x3f7fa76f	0.9986486
11	0x3f75e0c0	0.96046066
12	0x3f89280c	1.0715346
13	0x3f8a7075	1.0815569
14	0x3f800da4	1.0004163
15	0x3f779002	0.96704113
16	0x3f8bc93b	1.0920786
17	0x3f7a7fc4	0.97851205
18	0x3f84924c	1.0357146
19	0x3f8300f0	1.0234661
20	0x3f613196	0.8796629
21	0x3f8b2200	1.0869751
22	0x3f702a00	0.93814087
23	0x3f7d2fdd	0.9890116
24	0x3f4772e6	0.77909696
25	0x3f817cda	1.0116227
26	0x3f62666e	0.88437545
27	0x3f73b6d2	0.95200837
28	0x3f6fdb17	0.9369368
29	0x3f7eb840	0.99499893
30	0x3f9954a3	1.1978954
31	0x3f89a942	1.0754778
32	0x3f83a58c	1.0284896
33	0x3f7dccf8	0.9914088
34	0x3f939f25	1.1532942
35	0x3f8509f6	1.0393665
36	0x3f963d0e	1.1737382
37	0x3f635ed8	0.88816595
38	0x3f68d182	0.90944684
39	0x3f8782d4	1.05868
40	0x3f61a138	0.88136625
41	0x3f9a1f20	1.2040749
42	0x3f7cceba	0.9875294
43	0x3f52c5e7	0.82333225
44	0x3f6a75be	0.9158591
45	0x3f8cd376	1.1002033
46	0x3f89d77e	1.0768888
47	0x3f8885f5	1.066588
48	0x3f774814	0.9659436
49	0x3f6f67cb	0.9351775
50	0x3f873ca8	1.0565386
51	0x3f86cc4a	1.0531094
52	0x3f8123f9	1.0089103
53	0x3f83eb78	1.0306234
54	0x3f723950	0.946187
55	0x3f81480d	1.0100113
56	0x3f8d6862	1.104748
57	0x3f9c5bc5	1.2215506
58	0x3f64c5e9	0.89364487
59	0x3f9229c2	1.1418993
60	0x3f7d0daa	0.98848975
61	0x3f7adbdb	0.9799172
62	0x3f6a381d	0.9149187
63	0x3f8158ac	1.0105186

base.cnn.9.bias f4 [64]
0	0x3dc343fc	0.09534451
1	0x3deb579a	0.11491318
2	0x3bb02b79	0.005376276
3	0xbd3c403c	-0.045959696
4	0x3b44c490	0.0030024387
5	0x3ca42dfb	0.020041456
6	0xbdbbfa9e	-0.09178661
7	0x3e313716	0.1730617
8	0xbcbff139	-0.023430454
9	0xbdda1782	-0.10649015
10	0x3d9ffb84	0.07811645
11	0x3de706c2	0.11280586
12	0x3df438bf	0.11924886
13	0xbdcfaeb7	-0.10140746
14	0xba8dfa8a	-0.0010832113
15	0x3dbc53cf	0.09195673
16	0xbe24e1bb	-0.16101734
17	0x3da01c08	0.078178465
18	0xbcf84559	-0.030306505
19	0x3e0cc292	0.13746098
20	0xbd610443	-0.054935705
21	0xbc323984	-0.010877971
22	0x3da55750	0.08073294
23	0x3d7c44c9	0.061589036
24	0x3d8d95ae	0.06913315
25	0x3d8f2f93	0.06991496
26	0x3b940c1a	0.004518044
27	0x3ce4fdab	0.02795299
28	0x3d0d16cb	0.034445565
29	0x3e12da18	0.14341009
30	0x3b4aa133	0.0030918836
31	0x3da1c76a	0.07899363
32	0xbc4938ac	-0.012281578
33	0x3d2307ab	0.039802235
34	0x3d48608b	0.048920196
35	0xbd83d938	-0.064379156
36	0xbd03cc39	-0.032177184
37	0x3e06c4c4	0.13160998
38	0x3e1d5352	0.15363815
39	0x3d533c0a	0.05157093
40	0x3e0e2be2	0.13883927
41	0xbd0339c2	-0.032037504
42	0x3d11b8ce	0.035576634
43	0xbd32401a	-0.043518163
44	0x3c37f02e	0.011226697
45	0xbd5008cc	-0.05078964
46	0xbcd9a7ad	-0.026569212
47	0xbe176bc1	-0.14787199
48	0x3c30d6e5	0.010793422
49	0xbc751a7c	-0.014959928
50	0xbe0a461d	-0.13503309
51	0xbdaafaf7	-0.08348649
52	0x3db6d4b1	0.089272864
53	0xbe20389a	-0.15646592
54	0x3cb95ebd	0.022628183
55	0x3d1b92e6	0.03798189
56	0xbdbeae28	-0.093105614
57	0xbe0d4396	-0.13795313
58	0x3d7269e6	0.059183024
59	0xbe13a256	-0.14417395
60	0xbd919cfe	-0.07110022
61	0x3d57089e	0.052498452
62	0x3ce43dd5	0.027861515
63	0x3d786e18	0.06065187

base.cnn.10.weight f4 [64, 64]
0	0xbcb20ba5	-0.021734068
1	0x3d5efa9a	0.05443821
2	0xbe4a7ddb	-0.19774573
3	0xbbc4e031	-0.006008171
4	0x3da4b137	0.080416135
5	0x3e0d102f	0.13775705
6	0x3e9418c0	0.28925133
7	0x3e5b7e43	0.21434884
8	0x3d235c4e	0.03988295
9	0xbdb391d4	-0.08768049
10	0x3d2c2b0d	0.042033244
11	0x3e988724	0.29790604
12	0x3e0d8127	0.13818799
13	0x3db9d54f	0.090738885
14	0x3e219224	0.15778404
15	0xbe004a9a	-0.12528458
16	0x3da2bf07	0.07946592
17	0xbcd53934	-0.026028253
18	0xbe27c4ce	-0.16383669
19	0xbf2dcffd	-0.6789549
20	0x3d236aab	0.03989665
21	0x3e492944	0.19644648
22	0x3dae0d62	0.08498646
23	0x3d938e87	0.07204919
24	0xbd93d75d	-0.07218812
25	0xbda4cf39	-0.08047337
26	0x3e5b42b3	0.21412162
27	0x3e454e3d	0.19268127
28	0xbcfd83ae	-0.030946579
29	0xbc9cf64e	-0.019160416
30	0xbe5d064f	-0.21584438
31	0xbe938461	-0.28811935
32	0x3d0a5b67	0.033778574
33	0x3f08eb38	0.53483915
34	0xbea66607	-0.32499716
35	0xbe13fad2	-0.14451149
36	0x3ecb6159	0.39722708
37	0xbeb24591	-0.348187
38	0xbbdee0e9	-0.0068017137
39	0xbdb113bc	-0.08646342
40	0xbe1bdc80	-0.15220833
41	0x3d8f1105	0.06985668
42	0x3e3af0d4	0.18255931
43	0xbe4bdb54	-0.19907886
44	0x3e21f950	0.15817761
45	0x3e64a520	0.22328615
46	0xbe6ac915	-0.22928269
47	0x3f009742	0.502308
48	0x3ebd18d2	0.36933
49	0x3e1931c6	0.14960393
50	0xbe1c9b7d	-0.15293689
51	0x3d969305	0.073522605
52	0x3e3e4869	0.1858231
53	0xbcbb7be1	-0.022886219
54	0x3d6a1da5	0.057157177
55	0xbe74b1c8	-0.23895943
56	0x3ec9505e	0.39319128
57	0x3daf861b	0.085705005
58	0x3e52aa39	0.20572747
59	0xbea7b803	-0.32757577
60	0x3e8ff284	0.28114712
61	0x3e323afc	0.17405313
62	0xbdccb243	-0.09994938
63	0x3d2fc0eb	0.04290859
64	0xbd231835	-0.039818007
65	0x3c522a2e	0.012827439
66	0x3d62a4ef	0.055333074
67	0xbe1e3801	-0.15451051
68	0x3dee43f2	0.11634053
69	0xbd2306e2	-0.039801486
70	0x3e0e76c1	0.13912489
71	0xbe63c33c	-0.22242445
72	0xbeb5a324	-0.3547603
73	0x3e663d3f	0.22484301
74	0xbd847ad2	-0.064687386
75	0x3db83810	0.08995068
76	0xbebe11f5	-0.37123075
77	0x3ca04f76	0.01956914
78	0xbcfe9a9e	-0.031079587
79	0x3d8e726e	0.069554195
80	0x3e81d5eb	0.2535852
81	0x3ea6d8ce	0.32587284
82	0x3e97a04e	0.2961449
83	0x3e1d7e49	0.15380205
84	0x3c62b672	0.013837444
85	0xbc07329a	-0.00825181
86	0x3ed4fc52	0.41598755
87	0xbe6fad78	-0.23406017
88	0xbd0b82de	-0.03406035
89	0xbd005dfe	-0.031339638
90	0x3efc15fa	0.49235517
91	0x3e2d4c81	0.16923715
92	0xbd89034e	-0.066900834
93	0xbb7a6a90	-0.003821049
94	0x3f150ab5	0.5821946
95	0xbda76796	-0.08174054
96	0xbe6626c2	-0.22475722
97	0xbc74e07d	-0.0149461
98	0x3e00283b	0.12515347
99	0x3e7d7139	0.24750222
100	0x3d673a27	0.056451943
101	0x3dcb4a0f	0.09926235
102	0x3d0f9ea3	0.035063397
103	0xbe56e5a4	-0.20986038
104	0xbd0111cb	-0.03151111
105	0x3e4cc881	0.19998361
106	0xbcae2ad3	-0.021260655
107	0x3e743bf8	0.23851001
108	0xbe46da88	-0.194193
109	0xbe36edf1	-0.17864205
110	0x3e385ce1	0.1800418
111	0x3e5b3689	0.21407522
112	0x3e142785	0.144682
113	0x3dec1a23	0.11528423
114	0xbd8f6e40	-0.070034504
115	0xbe0ee125	-0.13953073
116	0xbb28e952	-0.0025773835
117	0x3e80abd8	0.25131106
118	0xbdf7a99c	-0.12092897
119	0xbd3f7320	-0.04674065
120	0xbd4fe187	-0.05075219
121	0x3e0f1d99	0.13976134
122	0x3dbaf8f6	0.09129517
123	0xbd0f37da	-0.034965374
124	0xbe8abe9d	-0.2709855
125	0x3e7fd576	0.24983773
126	0x3e17355d	0.1476645
127	0xbd853970	-0.06505096
128	0xbe293dbd	-0.16527458
129	0xbe10db62	-0.14146188
130	0xbd355002	-0.044265755
131	0x3da2bd45	0.079462565
132	0x3e9cb202	0.3060456
133	0xbe0ce516	-0.13759264
134	0xbd5d3b34	-0.05401154
135	0xbe8dbd08	-0.27683282
136	0xbcfdaf8a	-0.030967493
137	0x3e04d20d	0.12970753
138	0x3e8db752	0.27678925
139	0x3e514328	0.20435774
140	0x3e1b3a3e	0.15158936
141	0xbdcfa405	-0.10138706
142	0xbc0d6812	-0.008630769
143	0x3e9cc2b7	0.30617306
144	0xbe03d5ba	-0.12874499
145	0xbed3d4c1	-0.41373256
146	0x3c81d61b	0.015849164
147	0xbd2d334a	-0.04228524
148	0x3d975464	0.07389143
149	0xbdba5dbc	-0.0909991
150	0x3e3edefd	0.18639751
151	0xbd1b3043	-0.037887823
152	0xbd986562	-0.07441212
153	0xbeb955d6	-0.361983
154	0x3eb47511	0.35245565
155	0x3df828a8	0.121171296
156	0x3d91af6f	0.071135394
157	0xbec5e3fd	-0.38650504
158	0xbc18b345	-0.009320085
159	0xbdba7ee9	-0.091062374
160	0x3e38fdf5	0.18065627
161	0x3e17def2	0.1483114
162	0x3e20f471	0.15718247
163	0xbe8e2e4e	-0.27769703
164	0x3e10e0fa	0.14148322
165	0xbe779103	-0.24176411
166	0x3e844c51	0.25839475
167	0x3e16b2ed	0.14716692
168	0xbee86906	-0.45392627
169	0x3ef260fc	0.47339618
170	0xbd920ce8	-0.07131368
171	0x3cc958ba	0.024578441
172	0x3e071cc8	0.13194573
173	0xbea92324	-0.33034623
174	0x3e869c8c	0.2629131
175	0x3e1723d5	0.14759763
176	0x3e69c01c	0.2282719
177	0xbd07a49e	-0.033115976
178	0x3e6d50ee	0.23175403
179	0x3d825f35	0.063658156
180	0xbd6de4bd	-0.05807947
181	0x3de1c4e1	0.1102388
182	0xbe7730aa	-0.24139658
183	0x3cc15067	0.02359791
184	0x3d8b59e8	0.06804258
185	0xbe267aa6	-0.16257724
186	0x3e06dcb2	0.13170126
187	0xbdca1cff	-0.09868812
188	0x3e8fd03b	0.28088555
189	0xbe4cc1f1	-0.19995858
190	0x3e3f0945	0.1865588
191	0xbea6654f	-0.32499167
192	0x3cb2ffee	0.021850552
193	0x3cc894c5	0.024485001
194	0x3dd6a9b1	0.10481585
195	0x3e95375e	0.29143804
196	0x3d68177e	0.05666303
197	0xbda99de3	-0.082820676
198	0x3d71ec3c	0.05906318
199	0x3e21bf13	0.15795545
200	0x3dc1998c	0.09453115
201	0x3e35fdd6	0.17772612
202	0xbe7a200b	-0.24426286
203	0xbd232500	-0.039830208
204	0xbe97b817	-0.29632637
205	0x3efd6ebc	0.49498546
206	0xbea3f694	-0.32024062
207	0xbe25825f	-0.16163014
208	0x3e48478d	0.19558544
209	0x3db4923a	0.08816953
210	0x3e9468d7	0.28986236
211	0x3d7da99f	0.06192934
212	0xbeb041a2	-0.34425074
213	0x3e5399f5	0.20664199
214	0x3e907a71	0.28218415
215	0x3cb65848	0.022258893
216	0xbcdeb3b3	-0.027185297
217	0x3db220fb	0.08697697
218	0xbe0b8f04	-0.13628775
219	0x3d5a2138	0.053254336
220	0x3d64f593	0.05589826
221	0x3e795443	0.2434855
222	0xbea00181	-0.31251147
223	0xbe4485eb	-0.1919171
224	0x3c0b478a	0.008500943
225	0x3ecae318	0.39626384
226	0x3e3670e9	0.1781651
227	0xbde70f51	-0.11282218
228	0x3eac3d92	0.33640724
229	0x3dcf4190	0.10119927
230	0xbed8c7af	-0.42339846
231	0x3e4aabe3	0.19792132
232	0x3e3c9f84	0.18420225
233	0x3e63ac76	0.22233757
234	0xbebc201b	-0.36743245
235	0x3e13794f	0.14401744
236	0x3d7c6401	0.06161881
237	0x3ddebeb7	0.1087622
238	0x3db582af	0.088628165
239	0x3d928607	0.0715447
240	0x3eae8197	0.34083244
241	0x3e18db76	0.14927468
242	0xbdd4df07	-0.103941016
243	0xbdf221fb	-0.118228875
244	0xbee8a28a	-0.45436507
245	0xbe86233d	-0.2619876
246	0xbe5f7054	-0.21820194
247	0x3e1957e4	0.14974934
248	0x3ddfce9c	0.109280795
249	0x3eb69f10	0.3566823
250	0xbdfe5a97	-0.124196224
251	0xbe826932	-0.25470883
252	0xbe85b309	-0.26113155
253	0xbe35bdc0	-0.17748165
254	0xbcd47907	-0.025936617
255	0xbdbb045b	-0.0913169

base.cnn.10.bias f4 [64]
0	0xbd8a2bfb	-0.0674667
1	0xbe0028d8	-0.1251558
2	0xbd77d93f	-0.060509916
3	0xbcd8eb17	-0.026479287
4	0xbda0e505	-0.07856182
5	0xbd9227af	-0.07136475
6	0xbddc3b4c	-0.107534975
7	0xbd80f235	-0.06296197
8	0xbd69fe2d	-0.057127167
9	0xbc9936bb	-0.018702855
10	0xbd9c4ab1	-0.07631434
11	0xbd5d04c9	-0.05395964
12	0xbdafa9d4	-0.08577314
13	0xbc5c9a3a	-0.013464505
14	0xbd58d2e2	-0.05293549
15	0xbd0314c9	-0.032002244
16	0xbda9e2d5	-0.08295218
17	0xbe11844c	-0.14210624
18	0xbdeda5d0	-0.11603892
19	0xbde33265	-0.11093596
20	0xbd399985	-0.045312423
21	0xbe0ea8ab	-0.13931529
22	0xbd833206	-0.064060256
23	0xbd426fe3	-0.047469985
24	0xbce94d7b	-0.028479328
25	0xbdb906a0	-0.09034467
26	0xbd982582	-0.07429029
27	0x3b42270d	0.0029625327
28	0xbce13c92	-0.027494702
29	0xbe0aff2b	-0.13573901
30	0x3c2defa2	0.010616215
31	0x3d2e7ea3	0.04260124
32	0xbd1ac272	-0.037783094
33	0xbdb67906	-0.08909802
34	0xbd10198f	-0.035180625
35	0xbe48fe61	-0.19628288
36	0xbe2f324f	-0.17109035
37	0x3b1680d2	0.0022964966
38	0xbe1e0118	-0.15430105
39	0xbcdcb9c5	-0.02694405
40	0xbd91cfb0	-0.07119691
41	0xbdfee5e6	-0.124461934
42	0xbd93ee44	-0.0722318
43	0xbe27802d	-0.16357489
44	0xbbf9b52f	-0.0076204757
45	0xbd98be0f	-0.07458126
46	0xbd6297a1	-0.055320386
47	0xbdb8696f	-0.09004485
48	0xbdbba2ac	-0.091618866
49	0xbd839b7c	-0.06426141
50	0xbd068ad4	-0.03284724
51	0xbcd40d38	-0.02588521
52	0xbde86a05	-0.113483466
53	0x3c115d4c	0.008872341
54	0xbdb865ee	-0.090038165
55	0xbdf92c5b	-0.12166663
56	0xbde10105	-0.109865226
57	0xbddba84b	-0.10725459
58	0xbcbdd798	-0.023174092
59	0xbe198278	-0.14991176
60	0xbd5007f6	-0.050788842
61	0xbdbedfc0	-0.09320021
62	0xbdf5507a	-0.1197824
63	0xbd4180d3	-0.047241997

base.cnn.12.weight f4 [64]
0	0x3f8cc7de	1.0998495
1	0x3f4b36f2	0.79380715
2	0x3f892582	1.0714571
3	0x3f8ae8fa	1.0852349
4	0x3f88c25e	1.0684316
5	0x3f817a2e	1.0115411
6	0x3f950bad	1.1644188
7	0x3f840716	1.0314662
8	0x3f8236fc	1.017303
9	0x3f51cb84	0.81951165
10	0x3f7f3701	0.99693304
11	0x3f6c95ee	0.92416275
12	0x3f6cdaa3	0.92521113
13	0x3f856cda	1.0423844
14	0x3f78b104	0.97145104
15	0x3f87990e	1.0593584
16	0x3f7ce59f	0.98787874
17	0x3f71440f	0.94244474
18	0x3f5f06dd	0.8711985
19	0x3f80a479	1.0050193
20	0x3f6a5b21	0.915453
21	0x3f98967d	1.1920925
22	0x3f98716a	1.1909611
23	0x3f8743ca	1.0567563
24	0x3f8df00d	1.1088883
25	0x3f566381	0.8374558
26	0x3f7f5bbb	0.99749345
27	0x3f959357	1.168559
28	0x3f7f51c4	0.9973414
29	0x3f64d8ed	0.893935
30	0x3f817d54	1.0116372
31	0x3f7c7d13	0.9862835
32	0x3f722fc5	0.9460414
33	0x3f632649	0.88730294
34	0x3f8ec49b	1.1153749
35	0x3f638f03	0.88890094
36	0x3f7afe7c	0.9804456
37	0x3f8c808e	1.0976732
38	0x3f649245	0.8928569
39	0x3f7ea76c	0.99474216
40	0x3f696b68	0.91179514
41	0x3f880792	1.062731
42	0x3f71c8ae	0.9444684
43	0x3f8df4a1	1.109028
44	0x3f8b4ac9	1.0882198
45	0x3f886ffe	1.0659177
46	0x3f8a1269	1.0786868
47	0x3f849bfd	1.0360104
48	0x3f69b545	0.9129222
49	0x3f8b2201	1.0869752
50	0x3f808b0d	1.0042435
51	0x3f8b0db6	1.0863559
52	0x3f7a1fe3	0.97704905
53	0x3f612a14	0.8795483
54	0x3f85198f	1.0398425
55	0x3f745bf5	0.95452815
56	0x3f79adb6	0.97530687
57	0x3f728797	0.94738144
58	0x3f8fa4ec	1.1222205
59	0x3f87f95c	1.0622973
60	0x3f69c701	0.9131928
61	0x3f81d42e	1.0142877
62	0x3f8a6a2f	1.0813655
63	0x3f6790af	0.90455145

base.cnn.12.bias f4 [64]
0	0x3d05d081	0.032669548
1	0xbc46eb56	-0.012141069
2	0xbce48515	-0.02789549
3	0x3c2af083	0.010433319
4	0xbd0bfc85	-0.03417637
5	0xbd10f1dd	-0.03538691
6	0xbb6c9414	-0.0036099004
7	0xbe10278a	-0.14077583
8	0x3de23913	0.11046042
9	0x3e353768	0.17696917
10	0x3d29ca35	0.041452605
11	0xbd47099a	-0.04859314
12	0x3ce9f753	0.028560316
13	0x3adf06f0	0.0017015617
14	0xbd3aa543	-0.045567762
15	0x3c897226	0.016778063
16	0x3cbd3a86	0.023099195
17	0xbc10cfa1	-0.008838565
18	0x3d713177	0.058885064
19	0x3d753d13	0.059872698
20	0xbc1b1ea8	-0.009467758
21	0xbdd55411	-0.10416425
22	0x3ddc7dcb	0.107661806
23	0x3d2a1865	0.04152717
24	0xbcdf6288	-0.027268663
25	0x3c5142b9	0.012772256
26	0x3db132d1	0.086522706
27	0x3e4ecfb3	0.20196418
28	0x3d728b68	0.05921498
29	0x3e34fc06	0.17674264
30	0x3d9ae11a	0.07562466
31	0x3cfed4b5	0.031107286
32	0xbc9808b9	-0.018558847
33	0x3d2ec6b4	0.042669967
34	0xbd2acb05	-0.04169752
35	0x3d5b843c	0.053592905
36	0xbd15f849	-0.036613736
37	0xbd10b08e	-0.035324626
38	0xbc6a2960	-0.014292091
39	0x3d084024	0.033264294
40	0x3d00465d	0.031317104
41	0x3d26a0b7	0.040680613
42	0x3c3567a7	0.011072076
43	0xbe476582	-0.19472316
44	0x3da3d460	0.07999492
45	0xbd950059	-0.07275457
46	0xbcedb033	-0.029014682
47	0xbc65da73	-0.014029133
48	0x3ce92aa6	0.02846272
49	0x3be64986	0.0070278076
50	0x3e105a42	0.1409693
51	0xbd8595e1	-0.06522728
52	0x3e000bf4	0.1250456
53	0x3e08c9df	0.13358258
54	0xbc0e199c	-0.008673098
55	0x3d673441	0.056446318
56	0xbd0a65b7	-0.03378841
57	0xbc67ce45	-0.0141483
58	0x3c8814d8	0.016611502
59	0xbd4992e0	-0.049212337
60	0x3c7e923a	0.015537793
61	0x3dee1705	0.116254844
62	0x3ba6721f	0.0050795223
63	0x3cf115d2	0.02942935
