CRL_human_AI_overcooked/human_models/model_random1/actor_best_r5.pt (torch, 419411 bytes, 20 tensors)

base.cnn.0.weight f4 [32, 20, 3, 3]
00000000: f979 6bbe 73da 4a3e 5ea6 d23d 652c b83b
00000010: 48ad 943e b5ca 2ebe ab0d ccbd 5fbd 3dbe
00000020: 04b9 b3bd cb25 943d 3af5 1ebe b30f 1f3e
00000030: 09f3 26bd 02f3 01be 07d9 f43d 745e 24be
00000040: 9239 f0bd b9d2 8fbd 267c 00bd 5acf b73d
00000050: 5cfc 593d 35e4 1dbe 7f70 d43d 45bd c9bd
00000060: b897 c03d c5ad d3bd b877 cd3d 26f3 27be
00000070: b275 7ebe c3e2 bfbd da70 13be a8fd 853d
00000080: cf37 363e d8e4 b8bd 9458 aa3c 4c07 22be
00000090: 0a9c 17bd 0bfa c63d 7b16 293e 2bdf 223d
000000a0: c819 cebd 0a8d be3d 04db 1abe 8616 6e3e
000000b0: 171e a93c c7df 1dbe c585 6b3e 6285 3dbe
000000c0: 35e9 073e 1287 8e3e 8295 023e 7312 873d
000000d0: b19c 35bd 6be8 663e 49ce 5d3e d0e2 6abd
000000e0: fe1d c23c be24 cabb 0a50 57be cbc9 0cbe
000000f0: 9496 bdbd 3adc 493e ec0e 7f3e b6fc 303e
00000100: ff1f 783e 099e 3e3d 322c da3d f040 40bd
00000110: 1e4b 0a3e a957 e3bd 04c6 493e ce8c 313e
00000120: dae8 a8bd 7bce 84bc 6cfa e6bd 4c44 9c3e
00000130: c0fe cb3d a23d a1bd 7bf0 da3d a303 33be
00000140: b6a8 acbd 612b e13c 4387 6c3d c15f 48bd
00000150: 046d 48bd 2808 ebbc f84e d4bd 8648 d93d
00000160: 79e5 78bd d46e d0bd 607f 8b3e e62b 2abc
00000170: 6a42 4f3e c831 1c3e 2692 be3d d45a c73d
00000180: 0c64 873d f1d4 253d 1fb2 3db9 d900 98bd
00000190: 9f69 01be f626 fe3d 5452 ddbd 44af 803d
000001a0: 51b8 38bd 6cf8 023e 2e8e 82bd d183 a3bd
000001b0: 172e ff3d 4b64 cd3c f991 15be 571c 69bd
000001c0: 0b99 36be 2719 e23c 61c5 753d 30f5 8cbd
000001d0: 395d afbd dcc8 8dbc 7f6f 10be 0253 823e
000001e0: 589a 873d 31e0 243e eb4a 3d3e 83d9 a1bd
000001f0: 0eb0 56bc 7fc8 873d 016b b6bc 6314 d13d
00000200: ec2f 013e 29e6 23bd b91d 1dbe 8304 3b3e
00000210: 83dd 97bd e4d1 b63b 2e0b aebd 580b 5ebd
00000220: cc29 573e 28e7 40be 2c08 ea3c c279 66be
00000230: e575 ea3b 00d0 14bd e736 a2bd c720 33be
00000240: 0001 e93d 363a 8bba 0a35 2ebd f004 20be
00000250: e697 81bd 1a1e 21be 3469 193d 8a52 4abd
00000260: 7bc2 b6bd 47d9 d03d 4cc5 c0be 4a5a 97bc
00000270: a41e af3c 8f19 6e3d c74b 98ba 795a bdbe
00000280: 79d9 943c a94d fb3b 51d5 6dbe 5fab 96bd
00000290: f832 923e b838 75be cae0 9e3e ef7a de3e
000002a0: 79be 54bd aec7 163d 3b01 01be 3dea 2c3e
000002b0: 7f83 7d3c 1397 20be f358 d7bd 92f8 0ebe
000002c0: 2372 cd3d 77bc 2e3d 3ade 053d c805 0abe
000002d0: e3f7 18be 86bf 363e 73c1 443e a302 05be
000002e0: dab1 9abd f680 ed3d 0f30 9dbc bfdf c53c
000002f0: c560 febd 26bd e13c a00f 95bd d7dd a33b
00000300: 5230 37ba 6023 473d 7bcb 943c c40b 183e
00000310: bc4a 393e d0f1 9fbd 9246 b3be 71c1 b33e
00000320: 0d6f 463d bfae 00be 6b77 99be 82f8 f73c
00000330: 8cef 26be fddb 0d3e b1b6 d33a db87 803e
00000340: b699 b83d d9f2 b73d 206d 47bd 45fd 083e
00000350: 0753 d93e d9a6 5b3e 234b 76bd ea52 f03b
00000360: ef27 403d b74a 0fbd 3caf 6f3e aeb6 8e3d
00000370: b282 70bd 490b a13d 4886 54be 922e c4bd
00000380: 42a2 40be e4ec 57bd f355 33be e3c0 95bd
00000390: 8da8 283e 231c 1abe bad8 263e b0c2 3cbe
000003a0: 0440 8a3e 2db8 373e 2958 09be 87e6 cb3d
000003b0: 1a17 03be e28e 3dbe 1ffc 9f3e ed13 7d3e
000003c0: 00de 1d3e b964 ac3d 4bbc 863c 111f 053e
000003d0: ba05 0dbe 85d5 da3d c65e dd3c 4d90 babe
000003e0: 7039 88bb 7c52 2a3c 0033 32be 13cc 6f3e
000003f0: adc1 84be 6a11 a9bd 3de6 be3c ba0c c9bd
-0.22995748 0.19809894 0.10285638 0.0056205266 0.29038453 -0.17069514 -0.099635445 -0.1852927
-0.08775523 0.07233771 -0.15523234 0.15533333 -0.04075912 -0.12690356 0.11955457 -0.16051656
-0.11729731 -0.07022614 -0.031368397 0.08975096 0.053219184 -0.15419085 0.103730194 -0.098505534
0.09403938 -0.10335878 0.100326 -0.16401348 -0.24849585 -0.09369423 -0.14398518 0.06542522
0.17794727 -0.090280235 0.02079419 -0.15823096 -0.037014045 0.09715661 0.16512482 0.03976361
-0.10063511 0.09304245 -0.1512261 0.2325078 0.02064423 -0.15417396 0.23000248 -0.18507913
0.13272555 0.27837425 0.12752345 0.06595316 -0.044338886 0.22549598 0.21660723 -0.05734521
0.023695942 -0.006168931 -0.21026626 -0.13748853 -0.09257236 0.19712916 0.24908036 0.17283902
0.24230956 0.046537433 0.10652961 -0.04693693 0.13505217 -0.11100704 0.19704443 0.17338869
-0.08247538 -0.016211739 -0.11278233 0.30520856 0.09960699 -0.07873084 0.10690399 -0.17481856
-0.084306166 0.027486505 0.057746183 -0.048919443 -0.04893209 -0.028690413 -0.103666246 0.10609536
-0.060765717 -0.10177389 0.27245617 -0.010386443 0.20240179 0.15253365 0.09305219 0.09734121
0.06610879 0.04048628 -0.000180908 -0.07422037 -0.12637947 0.12409775 -0.108067185 0.06283429
-0.045097653 0.12790078 -0.06374775 -0.07984126 0.12459963 0.025072237 -0.14606465 -0.056911793
-0.17831819 0.027599884 0.06000269 -0.06882703 -0.08562703 -0.017307691 -0.14105032 0.25453955
0.066212356 0.16101147 0.1848561 -0.07902815 -0.013103498 0.066300385 -0.02226782 0.102089666
0.12615937 -0.04001442 -0.1534337 0.1826344 -0.07415297 0.00557922 -0.08498226 -0.054210037
0.21012038 -0.18838179 0.02856835 -0.22507384 0.0071551674 -0.036331177 -0.07920628 -0.17492972
0.11377144 -0.0010622207 -0.04253105 -0.15626884 -0.063278005 -0.15734139 0.037453845 -0.04939512
-0.08923813 0.10197692 -0.37650526 -0.01847567 0.021376915 0.058129843 -0.0011619263 -0.36983088
0.018170105 0.00766917 -0.23225905 -0.07356905 0.2855451 -0.23947418 0.31030875 0.43453166
-0.05193946 0.036811523 -0.12598126 0.1688623 0.015473246 -0.1568263 -0.105150126 -0.1396201
0.100315355 0.042660203 0.032682635 -0.13478768 -0.14938311 0.17846498 0.1921442 -0.12989287
-0.07553454 0.11596863 -0.019187955 0.024154542 -0.12420801 0.027556013 -0.07278371 0.0050008106
-0.0006988096 0.04861772 0.018163433 0.14848238 0.18094915 -0.07809794 -0.35014778 0.35108522
0.04844575 -0.1256666 -0.2997392 0.030269865 -0.16302317 0.1385345 0.0016152469 0.2510365
0.09013693 0.089818664 -0.048688054 0.13377865 0.42446157 0.21450366 -0.06013025 0.007334103
0.046913084 -0.034983363 0.2340669 0.06968437 -0.05871839 0.078634806 -0.20754349 -0.09579195
-0.18811896 -0.05271615 -0.17513256 -0.07312181 0.16470547 -0.15049796 0.16293612 -0.18433642
0.27001965 0.17941351 -0.13412537 0.09956079 -0.12801781 -0.18511537 0.3124704 0.24714632
0.15416718 0.08417649 0.016447207 0.13000132 -0.13771716 0.10685257 0.02702273 -0.36438218
-0.0041572377 0.010395642 -0.17402267 0.23417692 -0.25929013 -0.082552746 0.023303146 -0.098168805

base.cnn.0.bias f4 [32]
00000000: 596a 8c3c 77c0 0abd d6de f0bc 060f d43c
00000010: 4887 97bc f10c 28bd 9acc aebb 0895 11bd
00000020: 14be 81bb a809 44bc d1e3 b1bc dc5f c93c
00000030: 9e47 8dbd 5cdc 6c39 a551 14bd d8ae f9bc
00000040: 61c3 cabb 72b1 503b 9fe2 9bbd 5025 d5bb
00000050: cbad 1fbd d29f 043d 84fc 90bd a703 81bd
00000060: f4b6 52bc 133f 14bd dc81 aabc 9b6e 7abc
00000070: 450f 85bd b1ec 52bd 91e8 4a3c 9edc 14bc
0.017140554 -0.033874955 -0.029403131 0.02588607 -0.018497124 -0.041027967 -0.005334449 -0.035542518
-0.0039594267 -0.011965193 -0.021715077 0.024581842 -0.068984255 0.00022588804 -0.036210675 -0.03047888
-0.0061878418 0.0031844047 -0.07611584 -0.006504692 -0.0389841 0.03237898 -0.070794135 -0.06299525
-0.012861002 -0.036192965 -0.020813875 -0.015285159 -0.06497053 -0.051495258 0.01238455 -0.009085802

base.cnn.2.weight f4 [64, 32, 3, 3]
00000000: 421d f93c bf92 e6bc 954e c53d 47a4 253e
00000010: 2870 fd3d 3c4e 023c 6c13 6c3d 491d 75bd
00000020: da50 a93c 4158 1dbd 1dd2 c6bd 2ea6 24be
00000030: 4365 983d 0346 843d 3b65 c73d 958c 8f3d
00000040: 50d6 043e baa6 8bbd 04bf 023d d0ef f9bc
00000050: 14ca 003e 321e 863d af8a 483d 9989 453d
00000060: 652d 08be 13b2 cdbd 0d81 80be d617 443e
00000070: 57ae 53bc a595 9fbd 88ab e7bd cb3e a1bc
00000080: 0c30 173e bca1 8bbc 469a dcbd ce93 6ebd
00000090: f3f0 7d3b 3977 23be 65a5 7dbd 8089 5f3d
000000a0: b3f7 d93d e8fe 6bbe 935c dd3c 3a9c 453d
000000b0: cb5a 7b3c c476 2fbd b572 c23c bd0a 5bbd
000000c0: 7ccd 4abc 7c6c ec3d 1dcd c73c 77fd 1c3d
000000d0: 7e7f 9bbd 1cf1 9b3d 2fd4 e7bc 5616 6abd
000000e0: 6dda 37bd cd5d 0dbe 8634 e4bd 4980 e03b
000000f0: 77b4 2f3c a4e9 86bd 1370 6ebc f770 153d
00000100: 9a1c 02bd 4210 ce3c 658c 27be 6233 9dbd
00000110: 6870 893d 90bb 81bc 3864 abbc 8f1e 063e
00000120: ae6c e13d 0240 c5bd 1113 8a3d 048d cbbd
00000130: d45f 54be e3a4 11be 7e2e b83c 6d34 183d
00000140: e741 edbd d85d 09bd f0b8 15bd 8bfa ff3c
00000150: 0b42 46bb 8193 4dbd d49b 993d 7941 6b3d
00000160: 3e29 dd3d 1a63 aa3c 9dd6 4dbd 7e46 35be
00000170: c623 ab3d 1526 473e c5c8 d93d 8def d73d
00000180: 02e4 3ebc 7c02 9abd 9bc1 233e 73e0 cabd
00000190: 0754 d43c 528f 863b da62 84be 7383 063e
000001a0: c4df 733d 0351 383d 659e 02bd 1726 133d
000001b0: 343d d4bd f6ab 96be b2a2 833d 598e ea3d
000001c0: 01f2 b8bd 75a4 363d d243 903c a86b dd3c
000001d0: 8a2e 0b3d 31da 11bd 2654 c8bd a105 93bd
000001e0: 5288 87bc 1c07 41be 1e2e 263e e5c9 cdbc
000001f0: 6572 e4bc e1c2 253d b3d4 0b3d d850 c13c
00000200: 6302 0abe 33f4 4ebc 3859 b7bd d3af 153e
00000210: cc4c 1abe db78 36bd 0d61 34be 1778 4a3d
00000220: 1691 ffbd e343 a83d 7727 813c eb61 7f3d
00000230: 25a8 873d a959 32bd 24c4 1f3c 0433 173e
00000240: f09e 07bb a6f8 83bc 9fa2 c93d 3fa9 bfbb
00000250: 2655 513e 52e7 92bd 057a a3bd fa92 013e
00000260: 52fc 363e 0746 8a3d 1fda 693d cb43 d0bc
00000270: e8b9 5dbd 7bc9 283d d25c 213e aea4 87bd
00000280: 8e6a 273e ea50 f23d 16ca e9bd f816 84bc
00000290: f752 243c 1062 293d 94e4 913d 9692 863d
000002a0: 2a2a a0bb d105 74bd 9367 203e cdee 1bbe
000002b0: 343f d23b 6aa0 51be 271f 2d3d 4fa0 87bd
000002c0: 428e 4c3e 6697 183d b82d 06bd a4f2 f33d
000002d0: 70f0 e3bd 4e35 c93d aa66 193d 8465 b13d
000002e0: c3fa 813c 7270 7abe 9fa0 763d b984 873b
000002f0: 389e 2b3c 91f7 88bd ceb7 213d bd3a 05bc
00000300: 920c d73c 3a1b d6bd 487f 8e3d 569f a83d
00000310: d173 cfbc a2ab 4d3d a912 f1bd 9f9d babd
00000320: 33f3 afbd b9c1 be3d 70ee c2bd 090d c4bd
00000330: 7085 adbd 47b4 8a3d a60e f03c 375a f53d
00000340: 33f4 fdbc 6f3e 8cbc 58c0 8d3d 8f6e b3bc
00000350: a7b3 6bbd 474b 0fbe 4dcb 183d 29c4 943d
00000360: 87e3 9bbc 7fc6 04be a8eb 84be ede8 b538
00000370: dee0 9ebd 31dc 753e e68c ea3d 1580 67bd
00000380: 66c5 2dbe 0088 17be 4768 6a3d 157a adbd
00000390: 5240 02bd 2545 e73d a6b6 d33d 2310 a6bd
000003a0: 5206 253d 7659 b7bc 592b dd3c 2556 13be
000003b0: 85cf ff3d 8a1b 0fbd a2a0 433d b5e9 0d3b
000003c0: f38a f3bc 6197 a2bc a0d8 bbbc 117e 663d
000003d0: 570d b4bd f9db c6bd dcff 37bd ff05 bd3d
000003e0: cc99 89bd 6fd7 8f3d 1a2e 8dbc 2e2c 4cbc
000003f0: 419f 9e3d 11cb bcbd 89ad a93c 981e 893d
0.030409459 -0.028146146 0.09634129 0.16175948 0.12374908 0.007953223 0.05763571 -0.05984238
0.020668436 -0.038414244 -0.09708045 -0.16079018 0.07441189 0.06458666 0.09736105 0.07009236
0.12972379 -0.0681891 0.031920448 -0.03050986 0.12577087 0.06548728 0.048960384 0.048226926
-0.13298567 -0.100437306 -0.25098458 0.19149718 -0.012919984 -0.07792214 -0.11312014 -0.019683262
0.14764422 -0.017044894 -0.10771613 -0.058246426 0.0038748353 -0.15963449 -0.06192531 0.05457449
0.10642948 -0.23046458 0.027021682 0.048244692 0.015341471 -0.042837873 0.023736337 -0.053477038
-0.012378093 0.11544129 0.024389798 0.03832766 -0.075926766 0.07614347 -0.02829942 -0.057150207
-0.04488604 -0.13805313 -0.111428306 0.0068512303 0.0107241785 -0.06587532 -0.014553088 0.036484685
-0.031765558 0.025154237 -0.1636215 -0.07675816 0.06710893 -0.015836507 -0.020921811 0.13097595
0.11007057 -0.09631349 0.06741918 -0.09939006 -0.2073968 -0.14223056 0.022483107 0.037159372
-0.115848355 -0.033536762 -0.036553323 0.031247398 -0.0030251767 -0.0501895 0.07500425 0.057435486
0.10798882 0.020799208 -0.0502535 -0.17702672 0.083564326 0.19448121 0.10633997 0.105437376
-0.011651041 -0.07520005 0.15991823 -0.099060915 0.025918974 0.0041064406 -0.25856668 0.13136081
0.05953957 0.044999134 -0.031889338 0.035924997 -0.10363236 -0.2942807 0.06427516 0.11452932
-0.090305336 0.044590432 0.017610464 0.027028874 0.03397993 -0.035608474 -0.09781675 -0.07178808
-0.016544495 -0.18850368 0.1622853 -0.025120685 -0.027886579 0.040469054 0.034138393 0.02359812
-0.13477473 -0.012631464 -0.08952564 0.14617853 -0.15068358 -0.04454885 -0.17615147 0.049430933
-0.12478845 0.08216073 0.015765889 0.06234924 0.06623868 -0.043542538 0.009751353 0.14765555
-0.00206941 -0.016109776 0.09845471 -0.005849033 0.20442638 -0.07173027 -0.07982258 0.12653723
0.1786969 0.06751638 0.057092782 -0.025422951 -0.054132372 0.04120777 0.15758064 -0.06623207
0.16349241 0.118318394 -0.11415498 -0.016124234 0.010029546 0.041353285 0.07123676 0.06570928
-0.004887839 -0.05957586 0.1566451 -0.15227814 0.006416226 -0.2047135 0.042266037 -0.06622373
0.19976142 0.03725376 -0.032758445 0.119115144 -0.11129844 0.0982462 0.037451424 0.08661941
0.015866643 -0.24456957 0.060211774 0.004135695 0.010474734 -0.066878445 0.03948193 -0.00813168
0.026251111 -0.10454412 0.06957871 0.08233516 -0.02532378 0.05021251 -0.11771137 -0.09112095
-0.085913084 0.093142934 -0.095181346 -0.09572799 -0.08472717 0.067726664 0.02930386 0.11980098
-0.031000232 -0.017119614 0.06921452 -0.021903304 -0.057544377 -0.1399356 0.037303258 0.07263977
-0.019029392 -0.12966345 -0.2596104 8.6741384e-05 -0.07757734 0.24009778 0.114526555 -0.056518633
-0.16969833 -0.14797974 0.057228353 -0.08470551 -0.031799622 0.11292485 0.10337572 -0.081085466
0.04028923 -0.022381525 0.026998209 -0.1438833 0.12490753 -0.034938373 0.047760613 0.0021654193
-0.029729342 -0.019847574 -0.022930443 0.05627257 -0.08791607 -0.09709925 -0.04492174 0.09229659
-0.067187876 0.070235126 -0.017233897 -0.012461705 0.07745219 -0.09218419 0.02071263 0.066952884

base.cnn.2.bias f4 [64]
00000000: 62b9 58bd 9150 493c 26ab 783c 5d8b bfbc
00000010: 822b 0dbc 8c2d 98bc 8a8f 06bd 0809 c3bb
00000020: 221e eb3a 2d3a 0dbd 31cb 47bc 3bd2 a5bc
00000030: b336 8bbb 4e31 f1bc e588 5f3c 6c20 b63c
00000040: 3d16 2b3c 4a2d 32bd a52a da3b 7af8 82bc
00000050: 657a 31bc 2d49 10bd 1cf3 c7bc a773 c93c
00000060: 16b5 13bd afa0 29bd 83a6 b33c c875 87bc
00000070: 0605 88bc 05be e9bc e524 07bc e2c1 12bb
00000080: 252c 143c 33ce b43c 479c 48bd b29e f5bc
00000090: 08e0 a1bc fb5f f43c 01b7 cfbc 64df 6bbd
000000a0: 2c83 dcbc b05f e63c 1550 143c e4ec d1bc
000000b0: 08a7 86bd 4b6f 583c bf6c 48bd 51d6 4a3c
000000c0: ff31 68bc 2a59 e3bc f0a5 dcbc 282e 6fbc
000000d0: 2a6e 443c c9fe b5bc 3991 3ebd 5981 abbc
000000e0: d9fe 50bc c3b7 37bd 5655 f23c 6d9b 5dbc
000000f0: 4c24 b4ba 31cb 40bc 3f85 393c 2a39 3cbc
-0.05291117 0.012287275 0.015177524 -0.023381883 -0.00861633 -0.018576406 -0.032851733 -0.0059520043
0.0017938057 -0.03447931 -0.012194441 -0.020241847 -0.004248464 -0.029442456 0.013643478 0.022232257
0.010442314 -0.043500222 0.0066579157 -0.015987623 -0.010832404 -0.035226036 -0.024407916 0.02459128
-0.03606137 -0.041413005 0.021929985 -0.016535655 -0.016603958 -0.028532991 -0.008248542 -0.0022393395
0.009043728 0.02207098 -0.048977163 -0.029982898 -0.019760147 0.029830923 -0.025355818 -0.05758609
-0.026918016 0.0281218 0.009052296 -0.025625654 -0.065748274 0.013210128 -0.048931833 0.012380199
-0.014172076 -0.027752478 -0.026934594 -0.014598407 0.011989156 -0.022216218 -0.046525214 -0.020935701
-0.012756073 -0.044852983 0.029581707 -0.013525826 -0.0013743727 -0.011767195 0.011323272 -0.011488238

base.cnn.4.weight f4 [32, 64, 3, 3]
00000000: 6ab3 8bbd 8669 86b8 c4e0 8b3c 8e49 0d3d
00000010: 17dd 7d3d b89f 27bd 1281 6abd 06ca e3bc
00000020: f1ff 133d f59e 0dbe 56f4 02be d2ae 6f3c
00000030: b82d edbd 88ea e1bd 2669 0dbe d404 0c3e
00000040: 9e12 a93d 88bf 943c 60f3 cd3c 7a30 4ebd
00000050: 8666 cfbc bd69 b43d 41d6 033d a356 6fbd
00000060: 556d 013e 0583 0bbe 032a 91bc 4553 a43a
00000070: 9030 15bd 74c2 083d b17b 07bc 92ce 493e
00000080: 873f 243c 7482 b43b 21ee f83d 42ab 073e
00000090: f28c e43c 6e95 4f3d 1503 9d3d 2d80 02be
000000a0: 6cab 643d c8ff 3f3e b376 c63d f750 82bd
000000b0: a2e9 a53b c018 0eb9 8518 91bd f618 63bd
000000c0: 5c73 1bbd 7f12 2fbd 3216 96bd 408c b1bd
000000d0: d6e3 a43d aec3 43bd 8a11 b7bd 6035 b63d
000000e0: ea7d 4d3b 3a0f 473d 4504 2cbc 1b78 f4bd
000000f0: 905a 70bc ad82 c13d aac1 13bd 1cfe 1fbe
00000100: 2b9c 56bd 72bb 2dbd 2a84 59bd 6cb5 26bd
00000110: 1bac b1bc 1769 9c3c d668 873c 0a9f 94bd
00000120: 14f5 09bd e4ec 2fbc 546e 56bc fc91 fd3d
00000130: c8da 193d a866 b83c d6e2 6a3d 92fd 27bd
00000140: 17a3 e83d 07d9 a9bd 94cb 17bd 78bd c5bd
00000150: cb23 76bc 8e28 06be f3f4 98bd 2d06 1bbc
00000160: ece2 4e3d 896d ec3c 3ac5 9e3c cf45 cfba
00000170: 2281 363d 4c7c 2cbe 00ea 30be 792c d23c
00000180: cc41 c53d f10e 733b 0fb4 a3bd a041 fc3b
00000190: 43fa 203e 6c5e 38bb c6d2 aebd 2d69 9dbd
000001a0: 3435 2f3d 4154 a1bd 8edc b9bd b78c acbd
000001b0: 8c8e 723d 3c9a eebd ee46 e5bb d052 063d
000001c0: d714 71bd 3f2c 9bbd 2787 8c3d d74d 1cbe
000001d0: ccdb 973d 8f4b 403e 8004 b5bd 3bf0 8d3d
000001e0: 71c5 443d bdee d1bc 5a9a 91bd ffab 913d
000001f0: ca88 26bd 80f1 b9bc 2d0c 5ebe 1d3b acbd
00000200: 9b94 a4bd 6654 243d 3361 773d 6b76 b33d
00000210: a931 53bd ffa9 8abd 7649 21bd 4b12 22bd
00000220: 1234 273d 8ae6 d73d ab36 a6bd e746 d73c
00000230: f220 f6bc 4f6d e43b 931c bd3d 0ce5 7a3d
00000240: 283d f13d 61f6 2f3d a0b8 5c3d e5cb cebd
00000250: be1f d33d f4f9 ebbd 47fc 2dbe 5333 1e3e
00000260: 4899 f23c cd1e 7cbc e2fe adbc e3f9 37be
00000270: 3d50 34bd aed6 f8bd 24ef 62bd 02a4 6b3d
00000280: dd62 0a3d b3cd 3b3d 34d2 483b c734 733d
00000290: 19d6 a83d 8619 6cbd c9bc 0dbe 758b 30bd
000002a0: 5c55 ba3c 6bb1 933d 18dd bb3a 8813 5abd
000002b0: 6eaf 903d e3ed 8fbd b214 d2bd 5514 6ebd
000002c0: cc07 5bbc 390c 773d 0b88 41bd 0b68 543e
000002d0: 17c6 0b3d ec41 43bd 68dc 2cbe bce8 c03b
000002e0: b928 483d a270 d03d 3386 5ebc 23e9 c53c
000002f0: a691 bdbd 45ce 99be 3a04 f2bd e88e 8c3d
00000300: de92 213d e059 f2bc cf2b dc3d 7f76 e3bc
00000310: 00d3 bcbc 20eb 61bd e93f 23bd 9105 7fbe
00000320: 1fbb 0a3e 3524 ee3b 1118 fabc 44df 76bd
00000330: 1333 e03c b6fe d73b 3cc3 aebc 85f1 ae3d
00000340: 961b ea3d 28a3 9fbb 5719 fb3b c841 9e3d
00000350: 4e4e 59bd 88e7 023c 6043 80bd 1296 953d
00000360: 5eac b6bd a27b ac3d 8aa6 8e3d 0a86 5d3c
00000370: 6149 423d 1baa bebd a988 e83b 2692 7bbc
00000380: 006b ee3d edd2 1bbd e3f1 19be 9120 f83d
00000390: af61 b8bd 2664 4e3b 44b8 363d 0486 91bd
000003a0: 4457 cf3d 53ec 38bc 1b05 4cbd 6b2b 8c3d
000003b0: 5389 05be 330f 963d efd7 6d3d 5062 41bd
000003c0: 6aad c3bd 6113 113d 9f13 813d c569 27bd
000003d0: 1c5a 95bd 328b 073e 1622 5f3d 0e44 24bc
000003e0: 7dc1 c13d 2a7c 073e f0f4 99bd bf1d c53d
000003f0: 7266 57bd 66b2 573d de67 a9bd cbcc 5ebe
-0.0682133 -6.409273e-05 0.01707495 0.034493975 0.061978426 -0.040923804 -0.057251997 -0.027806293
0.036132757 -0.13830169 -0.1278852 0.014629083 -0.11580986 -0.110310614 -0.13809642 0.13673717
0.08255504 0.018157735 0.025140464 -0.0503392 -0.025317442 0.088092305 0.03218675 -0.058432233
0.12639363 -0.13624199 -0.017720228 0.0012537023 -0.036423266 0.03338857 -0.008269236 0.19707707
0.010024912 0.0055087153 0.121547945 0.13248923 0.02789924 0.050679617 0.076666035 -0.12744208
0.055827543 0.18749917 0.09690609 -0.06363099 0.0050632516 -0.00013551395 -0.07084755 -0.055443726
-0.037951812 -0.04274225 -0.07328452 -0.08669329 0.08051269 -0.047794037 -0.08938892 0.08896899
0.0031355568 0.048598506 -0.010499065 -0.11936971 -0.014670029 0.094487526 -0.036073364 -0.15624279
-0.052395027 -0.04241509 -0.053104557 -0.04070036 -0.021688512 0.01909308 0.016529482 -0.07256897
-0.03368099 -0.0107376315 -0.013087828 0.1238136 0.03756216 0.022509888 0.057345234 -0.041013308
0.11359232 -0.08293348 -0.03705938 -0.09655279 -0.015023182 -0.13101408 -0.07468595 -0.009461922
0.05050938 0.028860824 0.019381154 -0.0015813651 0.044556744 -0.1684429 -0.17276764 0.025655972
0.096316904 0.0037087763 -0.07993328 0.007698253 0.15720467 -0.0028132452 -0.085362956 -0.07686076
0.042775348 -0.07877398 -0.090752706 -0.08425277 0.059217975 -0.116505116 -0.006996981 0.03279382
-0.058857765 -0.07576799 0.06861716 -0.15264069 0.0741497 0.18778823 -0.08838749 0.06930586
0.048039857 -0.025626535 -0.07109518 0.07112884 -0.040657796 -0.022698164 -0.21684332 -0.084097125
-0.08036157 0.04011955 0.06039543 0.08762821 -0.05156103 -0.067707054 -0.0393767 -0.039568227
0.040821142 0.10542019 -0.08115896 0.026278926 -0.030045006 0.0069710384 0.09233966 0.061253592
0.11779243 0.042959575 0.05388701 -0.100974835 0.10308789 -0.11522284 -0.16990767 0.15449266
0.029614106 -0.015388203 -0.021239702 -0.17966418 -0.044021834 -0.12150322 -0.055403844 0.057529457
0.03378569 0.045850467 0.003064287 0.059376504 0.08243961 -0.05764153 -0.13841547 -0.043101747
0.02274578 0.07211574 0.0014332859 -0.053241283 0.070647106 -0.07027795 -0.102578536 -0.05812486
-0.013368558 0.06031439 -0.04724888 0.20742814 0.03412446 -0.04767029 -0.16880953 0.005887119
0.04886696 0.10177733 -0.0135818 0.02415902 -0.09256296 -0.30040184 -0.118172124 0.06863195
0.039446704 -0.029583871 0.10750543 -0.027766464 -0.023049831 -0.055155873 -0.03985587 -0.24904467
0.13547944 0.0072675 -0.030529054 -0.060271516 0.027368104 0.006591643 -0.02133333 0.0854216
0.11431043 -0.0048717447 0.007662933 0.077273905 -0.053053193 0.007989772 -0.06262851 0.07304014
-0.08919595 0.084220186 0.069653586 0.013520727 0.04743326 -0.09309789 0.0070963693 -0.015354669
0.116415024 -0.03804295 -0.15033679 0.121155865 -0.09003007 0.0031492799 0.044609323 -0.071056396
0.101240665 -0.011286813 -0.049809556 0.06844219 -0.13040666 0.07327118 0.05806726 -0.0472129
-0.095545605 0.03541887 0.063025706 -0.040872354 -0.072925776 0.13236693 0.054475866 -0.010025991
0.09460733 0.13230959 -0.07517421 0.09624814 -0.052587934 0.05266037 -0.08271764 -0.2175781

base.cnn.4.bias f4 [32]
00000000: 9399 a9bc 258e fabc 380e 4ebc 0140 97bc
00000010: 4723 993a 25c8 5fbd 8465 a73a eeb6 f9bc
00000020: 65a5 dbbc 3dc3 003d 1a69 a6bc 07af 8dbc
00000030: 8cce 74bc 3585 19bd 32b2 29bd f09f a8ba
00000040: 55c1 0bbd 8049 fdbc ddf0 4cbd 8bd5 24bc
00000050: 19c0 acbc d042 43bd c2f5 6e3b 2c40 eebc
00000060: 3273 53bd b80b f1bb fded a0bc 7007 12bd
00000070: b962 41bd 00ed 03bd 116a f4bc 180f acbc
-0.020703113 -0.030585358 -0.012576632 -0.018463137 0.0011683487 -0.054634232 0.0012771343 -0.030482735
-0.026812265 0.031436194 -0.020313788 -0.017295374 -0.014941823 -0.03748055 -0.041429706 -0.0012865048
-0.034119923 -0.030918837 -0.050034393 -0.010060678 -0.021087693 -0.04767114 0.00364624 -0.029083334
-0.05162353 -0.0073561333 -0.019644732 -0.035651624 -0.04721329 -0.032208443 -0.029835733 -0.021003291

base.cnn.7.weight f4 [64, 800]
00000000: 2d85 18bc 44e3 a53d c7b1 abbd 35c4 5bbc
00000010: ff8c d8bc 1a70 50bd b582 a0bd 4d97 eebd
00000020: 3fd6 61bb f928 b53d 3420 3d3d eccc f7bd
00000030: fc20 db3c 3a19 2eba 535a 103d 0d3d 07be
00000040: a4fb e63d ca68 373d e43f a63d 8e8d 4cbc
00000050: 6361 0d3d c367 a1bc 30b5 15bc 17ef a9bd
00000060: f708 03be 15f9 653d a2db 8fbc faef 073e
00000070: adc7 6cbd 8481 503d be07 0d3e f6c5 b63d
00000080: 84cb 2d3e f319 2b3b 6338 283d aefd 2cbd
00000090: 0af6 d1bc 671c 66bd 18df efbd 1b7e 4f3d
000000a0: 1b5f 0bbd 3aa1 a3bd 1dff ae3c 5397 bebd
000000b0: 2f98 8d3c 7bfa f4bd 0853 143c 2537 9a3c
000000c0: 2600 d1bd 8735 863d 9ac8 363d 196e 13bd
000000d0: d411 633c c2c9 583d 281d bd3b c6a4 f53b
000000e0: c0f7 acbd 862c 4b3c d776 aa3d 5750 203d
000000f0: cb8d 8c3d bca2 02be 4262 0ebd 32d1 63bd
00000100: 2200 db3c ed14 19be 495e 3bbd 9356 543d
00000110: b743 33bd bdb8 ae3b 3ad0 6a3d 4992 8ebd
00000120: db1b 81bc 1f5a cabc 3b3e 3b3d 7dda 19bd
00000130: ce8c 29be a067 cbbd b453 abbd b01b 10bd
00000140: 6ba8 dcbc b606 c1bd 06a6 1cbd 3366 973d
00000150: 7f2d 7f3d 4e34 9abb 044a 11bd 97eb a2bc
00000160: 7642 e63c 4e6f 66bc 3e28 81bd 9cc3 aa3c
00000170: b97f 0abc 24ba 60bd 9cda e0bd 6e21 11bd
00000180: 89d0 00bd 78bc 703c 06b3 743d ee4e ab3d
00000190: 4252 dd3d 58ea 5cbc 6ff9 d43c 2648 40bb
000001a0: 6d8a 7abd 7ac6 ba3c a628 02bc 38c9 703c
000001b0: f877 aebd ce57 1bbe d238 103d ad28 d8bb
000001c0: 56e2 9dbc 9ebe 183d e3c9 aa3c cb4e b23c
000001d0: bbb9 83bd 0832 903d 24fc e23c 426b 7fbc
000001e0: df1d c43d be5e 5fbd 532b 6cbd 7c79 983d
000001f0: 3070 abbd 79a6 91bd d6a5 fb3c a8e3 a1bd
00000200: cdc8 87bd 2594 9e3c 1b7a bfbd ae5c 273d
00000210: bf26 f93d 5ecb 213c 6eb2 6f3a 596d 7b3c
00000220: 193f 12be c35e 9bbd 508c e2bd 1c3c cfbd
00000230: 242b 543d 1fc0 c43d 34ca 39bd 89ab 30be
00000240: 3856 90bd 8689 e03c d875 5f3c a798 dfbd
00000250: 44be 963c a113 21bd 88d7 c5bc 45f2 01bd
00000260: 33e4 89bd 2a59 88bd 1636 a53c 9a3e c4bd
00000270: 2873 823c 5df6 8ebd b881 01bd 964e a33d
00000280: c620 03bb ce66 37be c77d b63d 85d1 e6ba
00000290: c70a 58bd c291 20bd cb3c 333d c7fd c3bc
000002a0: 3e47 c83d 107e 18be 48d9 54bd 412f 103d
000002b0: 91f5 8bbd d095 a93d dafc 9fbd 97e0 f7bd
000002c0: 44be 7cbd 37d2 9e3d 9ce4 5dbd 61e9 703a
000002d0: 12ff fabb 4143 0d3e df7d 3a3d 9bc4 2dbd
000002e0: a6d8 32be cc43 b4bd 0012 e5bd 2314 49bc
000002f0: 0ce4 afbc 38da 613d c4a9 dc3c fcb8 073c
00000300: 83d8 17be 7206 0ebc 53fc b5bd 02dd 15be
00000310: 9f12 d6bd d02d 773c ce16 99bb 239a 78bd
00000320: efee 6dbd 9aa6 573d 59e0 b53d e697 83bd
00000330: bc7e c6bd 3d28 d2bd 2784 903d 8b44 bdbc
00000340: cb23 e53d 9196 f7bc 0820 8cbd e383 5e3c
00000350: f13c 713d 9124 103c 2dbb a4bb 2caf e63d
00000360: c716 6f3d c5c2 d0bd 91f4 b5bc f29d a5bd
00000370: b221 35bd 48db 33be 7045 dabd 8f58 dfbd
00000380: 1929 2b3d 35ef 663d b12e 863d 397c adbd
00000390: 6e5b 5d3c e36a f13d 1f76 193d a323 05be
000003a0: f3e9 c8bc 9d4f 7abd e897 a53d bca7 f7ba
000003b0: f8ab 39bd 531a 08be 3bc7 23bd 9871 b6bd
000003c0: 2b5f 123e d40f 7ebd bf32 8bbd 5669 723d
000003d0: 835a d83c ae9c f53d 1529 f4bc 7cfb 84bc
000003e0: 7efc e5bd ed94 793d e00a 013d bc10 0f3d
000003f0: f8dc 80bc 97ea 83bd 665c d4bd 4409 f03d
-0.009309095 0.08099988 -0.08383518 -0.013413479 -0.02643442 -0.05088816 -0.078374304 -0.11649952
-0.0034459976 0.088457055 0.04617329 -0.120996326 0.026749127 -0.00066413323 0.03524239 -0.13206883
0.112784654 0.04477767 0.08117655 -0.012484921 0.034516703 -0.019702798 -0.009137437 -0.08297556
-0.12796389 0.056145746 -0.017560784 0.13275138 -0.057807613 0.050904766 0.13772485 0.08924477
0.16972166 0.0026107996 0.0410694 -0.042234115 -0.025630016 -0.05617943 -0.11712474 0.050657373
-0.034026247 -0.07989736 0.021361882 -0.093062066 0.01728448 -0.11961838 0.009052999 0.018825123
-0.102051064 0.06553178 0.044624902 -0.03599367 0.013859231 0.052926786 0.005771298 0.007496449
-0.08445692 0.012400752 0.08323448 0.039139118 0.06862982 -0.1275739 -0.034761675 -0.055619426
0.026733462 -0.14949389 -0.045744214 0.051840376 -0.04376575 0.005332081 0.057327487 -0.069614954
-0.015760353 -0.024701176 0.045713644 -0.037561882 -0.16557619 -0.09931874 -0.083655745 -0.035182655
-0.026935777 -0.09425108 -0.03824427 0.0739254 0.062299248 -0.0047059422 -0.035470977 -0.019887729
0.028107863 -0.014064623 -0.06306504 0.020845227 -0.008453303 -0.054865018 -0.109791964 -0.03543227
-0.031448875 0.014693372 0.059741043 0.08364664 0.10806705 -0.013483606 0.025997845 -0.0029339879
-0.06116717 0.02279972 -0.007944262 0.014696412 -0.08518976 -0.15170214 0.035210438 -0.006596646
-0.019272964 0.03729116 0.02084822 0.021766087 -0.0643191 0.07040793 0.02770812 -0.015589537
0.0957601 -0.054533713 -0.057658505 0.07445046 -0.083710074 -0.0711183 0.030718725 -0.0790475
-0.066300966 0.01935775 -0.09349462 0.04085987 0.12165593 0.009875147 0.00091437146 0.015345895
-0.14281882 -0.07586434 -0.11061919 -0.10118887 0.051798955 0.09606957 -0.04535885 -0.17252935
-0.07047695 0.027409326 0.013638936 -0.10917788 0.018401273 -0.03932536 -0.024150625 -0.031725187
-0.06732979 -0.06657632 0.020167392 -0.09582253 0.015924051 -0.06980584 -0.03161785 0.079739735
-0.0020008548 -0.1791031 0.08910709 -0.0017610049 -0.052744653 -0.039201505 0.04375915 -0.023924721
0.09779213 -0.14891839 -0.051965028 0.035201315 -0.068339474 0.082805276 -0.078118995 -0.12103384
-0.06170489 0.07754939 -0.054173097 0.00091900496 -0.0076598013 0.13795187 0.045530196 -0.042423826
-0.17465457 -0.08801994 -0.11185074 -0.012272867 -0.021471046 0.05513975 0.02693642 0.00828385
-0.14828686 -0.008668529 -0.08886018 -0.14635089 -0.104527704 0.015086606 -0.004671908 -0.06069387
-0.058089193 0.052649118 0.088806815 -0.06425457 -0.096921414 -0.10261581 0.07056456 -0.023103973
0.111884676 -0.030223163 -0.06842047 0.013581249 0.05889601 0.008797781 -0.005027196 0.1126388
0.05837133 -0.10193399 -0.022211345 -0.08086766 -0.044221587 -0.17564118 -0.106577754 -0.10905563
0.04178724 0.05638047 0.065518744 -0.08470959 0.013510568 0.11787965 0.037466165 -0.13001876
-0.024525618 -0.06111108 0.080856144 -0.0018894593 -0.045330018 -0.13291292 -0.039984923 -0.08908385
0.14294116 -0.062026814 -0.067967884 0.059182487 0.026410347 0.11992775 -0.029804746 -0.016233198
-0.112298 0.060933042 0.03150451 0.03492807 -0.015730366 -0.06441229 -0.10369186 0.11720517

base.cnn.7.bias f4 [64]
00000000: 9a63 adbc d63b 41bd 9782 1abd efa2 2abc
00000010: e8d0 e5bc 83b9 0ebc abde ebbc b464 9abd
00000020: edc9 ebbc d5a0 87bd 1633 ffbc c344 6dbc
00000030: 2670 4cbd dec3 01bd 1454 a3bc cf8f 8a3b
00000040: 4504 93bc f9cb c73b eaef b5bc 4b8f 46bd
00000050: f6f1 e5bc 0582 1bbd 6101 913b 66fb 33bd
00000060: ea83 e43b 8552 813c fe8f 76bd 3226 7c3a
00000070: ff26 d7bb 6e42 88bc 68e9 cebb 48eb 5bbd
00000080: 7c99 d5bc fb93 10bd 3a7e e1bc 8c19 e33c
00000090: 68a0 a63c 4712 cb3b 623a 2bbb 2db1 5cbb
000000a0: 136e 57bd b30a 7b3c 5ccc 883b 375c 33bb
000000b0: 6238 4bbd 217b 59bd 324c d6bc b292 6fbc
000000c0: 1bc0 663b 7838 5d3b 42c0 9c3b ce25 9fbc
000000d0: 3831 42bd 25d9 85bc 2f4f ac3c 5e6f edbc
000000e0: 102a e43b 95ed 57bc 9f79 a7bd 60f6 5abd
000000f0: 9db8 7bbd 20cb 42bd c5e4 dabc c69a 8abd
-0.021165658 -0.047176205 -0.037722196 -0.010414823 -0.028053716 -0.008711222 -0.0287927 -0.07538739
-0.02878281 -0.06622473 -0.03115229 -0.014481726 -0.04991164 -0.031680934 -0.019937553 0.004228569
-0.017946372 0.0060973135 -0.022209127 -0.0484765 -0.028069478 -0.037965793 0.004425213 -0.043940924
0.006973733 0.015786419 -0.060195915 0.00096187287 -0.006565928 -0.016633239 -0.0063144453 -0.05369118
-0.026074164 -0.035297375 -0.02752601 0.027722143 0.02034016 0.006197247 -0.0026127328 -0.003367494
-0.05259521 0.015322375 0.004174752 -0.0027368197 -0.049614318 -0.05309594 -0.02615938 -0.014622377
0.0035209719 0.0033755582 0.004783661 -0.019427206 -0.04741022 -0.016338894 0.021033851 -0.028983768
0.006963022 -0.013179203 -0.08177494 -0.053457618 -0.061455358 -0.047556996 -0.026720414 -0.06767802

base.cnn.9.weight f4 [64]
00000000: cb3f 893f d3f6 7b3f bc23 7c3f 097e 813f
00000010: e88a 853f 7758 813f 6200 853f 1c09 783f
00000020: ddc2 823f 5e9c 5a3f a8ae 833f a2f0 803f
00000030: 83ee 753f d061 883f 3c0c 843f 1a2e 703f
00000040: c86c 7e3f cbf6 7d3f 984c 843f 14f7 803f
00000050: 252a 7b3f 1e83 7c3f 2fee 893f 9ff2 913f
00000060: 0a26 7e3f c812 883f 3b8b 853f 5a7f 853f
00000070: 4fba 7b3f 556f 813f 0476 853f 0649 6c3f
00000080: c31e 743f 3c58 5b3f dc1a 7c3f 0249 733f
00000090: 1864 823f 811f 833f fd8f 753f bcef 863f
000000a0: 9a3c 813f e7ac 803f 806b 883f 85ff 7d3f
000000b0: acee 843f 4a12 593f 03ec 7f3f 72c4 783f
000000c0: ffe6 843f 7990 823f 4e50 783f ffc3 8b3f
000000d0: efc9 723f 9b64 823f ded5 7d3f b320 763f
000000e0: ae23 863f 7921 7c3f fe2f 693f 644b 753f
000000f0: 42b2 833f abcb 883f 373b 803f dbb9 833f
1.0722593 0.984235 0.98492026 1.0116588 1.0433016 1.0105122 1.0390742 0.968889
1.0215718 0.8539485 1.0287676 1.0073435 0.96067065 1.065485 1.0316234 0.93820345
0.99384737 0.992047 1.0335875 1.0075402 0.9811118 0.9863757 1.0775813 1.1402167
0.99276793 1.0630732 1.0433115 1.042949 0.9833116 1.0112101 1.042664 0.92298925
0.9535944 0.8568151 0.98478484 0.95033276 1.0186796 1.0243989 0.95922834 1.0541911
1.0096619 1.0052766 1.0657806 0.99218017 1.0385337 0.8479353 0.999695 0.9717475
1.0382994 1.020034 0.96997535 1.0919188 0.94839376 1.0186952 0.9915446 0.96143645
1.0479639 0.98488575 0.91088855 0.9581816 1.0288775 1.0687155 1.0018071 1.0291094

base.cnn.9.bias f4 [64]
00000000: 02b7 3abd 44f3 c83c cc84 f8bc 6c36 993c
00000010: 5f1e cabc 69b2 843d 3861 82bc 49fe a53c
00000020: f715 96bc bb24 0c3e a1ec 94bc 833f ee3c
00000030: 6ed0 c63c 989e 78bc 97c0 3e3d d8a4 6c3d
00000040: dd26 e53c 0a5c 7f3d c445 64bd e268 c7bb
00000050: 14af 88bd 38f9 0fbc af08 2d3d add3 60bd
00000060: 41a9 683b 5969 b6bc 0461 34bd daa8 5abc
00000070: c71b 1d3d 6046 0b3c 6fe2 a5bd 78bf 563d
00000080: edee a33b a54d ee3d 0dfd 3d3a c868 e1b9
00000090: 879f 113c 2375 4fbd dccf 10bd 8859 18bd
000000a0: b9e2 f3bc b3fe 833c 2d80 d83c fef5 3fbb
000000b0: 919e 07bc 72f6 063e 348e 7e3d 3a1c 1c3c
000000c0: 968e 143c 1eaf 7d3c 6e84 483c 18ee 14bd
000000d0: 755a f63c b827 7e3d 42be 943c bcda 5f3d
000000e0: 2a68 4ebc aee1 c1bd 42d1 ba3d 56ee 2fbb
000000f0: 5190 913b 9cdb 02bd aca0 ae3c 1762 0bbd
-0.045584686 0.02453006 -0.03033676 0.018702708 -0.024672685 0.064793415 -0.015915498 0.020262854
-0.01832102 0.13685887 -0.01817924 0.02908302 0.024269309 -0.01517453 0.046570387 0.057774395
0.027972633 0.062343635 -0.055730596 -0.006085501 -0.066740185 -0.008787446 0.04224461 -0.05488937
0.0035501274 -0.02226703 -0.044037834 -0.013345921 0.03835657 0.008500665 -0.080998294 0.052428693
0.0050028474 0.11635903 0.00072474853 -0.00042993412 0.008888132 -0.05064882 -0.03535448 -0.03719476
-0.029771196 0.016112661 0.026428306 -0.002929091 -0.008277551 0.13179949 0.062147334 0.009528214
0.009067198 0.015483646 0.012238605 -0.036359876 0.03007243 0.062049598 0.018157128 0.05465196
-0.012598077 -0.09466873 0.09121944 -0.002684494 0.0044422527 -0.031947717 0.021316849 -0.034029093

base.cnn.10.weight f4 [64, 64]
00000000: a4df 36bd d79a 0f3d cc7f 383e cc93 35bd
00000010: d83e 223e 38bf 173e ac3e 643e ff30 b93d
00000020: d3e6 ed3e 3147 3f3b b222 d2bd 9e9d 05be
00000030: c71c 403d 4e07 b53d 9269 13be 3c1f ed3c
00000040: 5301 2a3d 1dd0 493e f16e 573e 4b7a 973e
00000050: a0d7 7cbb a39e 293e c08f a0bd cb19 9a3e
00000060: c166 1e3e 3c73 03be 8a37 5b3e dc40 64be
00000070: 1cf7 e5be 8da6 cd3e fa20 e23c 486c 52be
00000080: 6ea8 bdbe 72c9 e83d b837 97bc a5f4 c1bd
00000090: 74d4 7a3e 8d06 0cbd f7f4 be3e 4af6 e2bd
000000a0: d375 56bd 854e 793d d0c6 0e3e d5b1 b43e
000000b0: b8b2 ac3d 9592 ebbd f592 833d ec2f 8f3d
000000c0: 0bdc 993e 3751 97be 221b 693d 45c5 c83d
000000d0: 571e 61be 7584 2cbe b9e2 80be ed15 273c
000000e0: 0e9b 0c3d 7aa3 c4bd d210 463d 996c 2b3e
000000f0: a342 09be efc3 b43e 2833 623e d9cb dbbd
00000100: a023 873c 9c21 56be c52f d8be bed9 b0be
00000110: 42a8 ebbd b079 913b 626f 90bd ad68 593d
00000120: 3407 633e 796e 70be a1a5 693e 80a2 83bd
00000130: 07e9 5a3e 1152 583e 6bb0 943d fc54 953d
00000140: ca13 5d3d 7b78 1cbd 287f 3ebe 1408 e13a
00000150: ca7d 1e3e bdeb 92be ca0e bebd c6b7 123e
00000160: 2063 f23d 2ffc ea3d 389d aaba 4401 0a3b
00000170: a0d8 ac3e eeea 04bf 1295 66be 96ab b2be
00000180: 00c1 f3bd 91b4 683e ffc1 093d ef0d cc3d
00000190: 4d6c 203e 7186 0f3e 9076 903d 762d c5bc
000001a0: 72e3 803e 08fd 8cbe 49ac 95bd 8dc3 c8bd
000001b0: 2989 553d 9ec6 7e3d 43f7 103e 1f90 23be
000001c0: ac58 743e 50cc 313d 77c6 e23c 1028 d03d
000001d0: 50bf 513c 146b 323d 4e99 ecbd e88e bebe
000001e0: 30cf 6a3d 297b 9e3b 107d b8bd 8136 5fbe
000001f0: 552d a9be 6bee 163e 8514 2dbd 4f29 1e3e
00000200: 33ad 7a3e 871e 163e f090 113e 8a31 7abe
00000210: e2af 74bd 58a2 fd3d ada9 68be c8cc fe3d
00000220: 73f8 043e 5e1a 54be fd59 2e3e 7c25 683e
00000230: c149 1bbd 62f1 4d3d e2be 243d 7525 bf3e
00000240: 1f8a b5bc ad73 45bd f7f2 96bc 980b 2dbe
00000250: ec12 31be c34d d33d f9ae 403e a227 a03d
00000260: d496 dabd 01f4 a33b 5c9f 67bd f4b2 843e
00000270: 20e9 123e dafc 883d af1f 70be 4de5 9a3d
00000280: aa28 6dbe ef4d 193e 94ae e93c 72f0 29be
00000290: 43e9 1d3e 472b 6abe 6059 16bd c5d2 a83d
000002a0: d310 853d 01bb 5fbe 8bfc 79bd aa92 28be
000002b0: 8618 663e 26dd d5be 8db1 a93e c316 933e
000002c0: 200b cebd 0002 94be 2320 ddbe 46e9 25bd
000002d0: 328c e5bc 07da 51bd bb41 733e ca81 b03e
000002e0: 63f2 2ab9 4218 993e 73ee bf3d 763f 2fbe
000002f0: 0680 3f3e bb00 703e b268 74be 571f d6bd
00000300: bddf 5a3c 83bf ec3d a6c1 833e 9de3 a03d
00000310: 9d96 c43d d8af 5abe 23f3 0abe 432c 6c3d
00000320: 9e1d 8ebd 8e36 07bd d4b5 3bbd 0984 9c3d
00000330: d215 853e 1999 a53e 8df1 79bc b8e9 15be
00000340: f7d1 c53e dd22 3e3e 6850 59be 9c16 0e3e
00000350: c0fe 8fbe f794 bb3d 59b9 61bd ee91 a53e
00000360: 023f b8bc 1532 b7bd 27b4 383e d785 9b3d
00000370: a6a5 9a3e 0015 cebd 1b60 423e 1f56 13be
00000380: 3028 a5be 82d8 a4be db34 a63e b915 9ebd
00000390: 3b74 cf3c 6c54 d23d e9e6 e0bb 1f04 e5bc
000003a0: b5a2 593e 3cb2 ebbd 324c 59be 4c10 e7bd
000003b0: 32b8 2ebe af67 e23c bc82 eabe 560d c23e
000003c0: f7dc f03d 2a25 593d e271 073e a3fa d63c
000003d0: 9455 653e deaf 3ebc 9aa2 08be cb71 f23e
000003e0: 1de0 7bbe 982f 963c 2c4a 6d3e f8de fb3d
000003f0: 2dc9 e3bb f8f1 1ebe d46d ddbd 1aec 1f3e
-0.044646874 0.035059776 0.180175 -0.044330403 0.15844285 0.14819038 0.22289532 0.090425484
0.46465167 0.002918672 -0.10260524 -0.13048407 0.046902444 0.08839284 -0.1439574 0.028945558
0.04150517 0.19708295 0.21038415 0.2958549 -0.003858067 0.16564421 -0.07839918 0.30097803
0.15468885 -0.12836927 0.21407905 -0.22290367 -0.44915092 0.4016613 0.027603615 -0.20549119
-0.37042564 0.11366548 -0.018459186 -0.0947049 0.24495107 -0.034185935 0.37296268 -0.11082132
-0.05235846 0.060865898 0.13943028 0.35291925 0.084325254 -0.11502568 0.06424514 0.06991562
0.30050692 -0.2955415 0.05691064 0.09803251 -0.2198423 -0.16847403 -0.25172976 0.010198099
0.03432756 -0.09601493 0.048355885 0.16740645 -0.13404326 0.35305735 0.22089827 -0.1073224
0.01649648 -0.20911258 -0.42223945 -0.34541124 -0.11506702 0.004439555 -0.070524946 0.053078342
0.22170717 -0.23479642 0.22817089 -0.06427479 0.21377955 0.21125056 0.072602116 0.072916
0.05397395 -0.038200837 -0.18603194 0.0017168545 0.15477672 -0.2869548 -0.092801645 0.14327917
0.11835313 0.114738815 -0.0013016826 0.0021057883 0.33759022 -0.51920974 -0.22517803 -0.34896535
-0.11902046 0.2272513 0.033632275 0.09963595 0.15666313 0.14016129 0.07053864 -0.024069529
0.25173527 -0.27536798 -0.073082514 -0.09802923 0.05213276 0.062201135 0.14156823 -0.15972947
0.2386195 0.04340774 0.027682526 0.10163891 0.01280196 0.04355915 -0.11552678 -0.37218404
0.057326496 0.004836459 -0.09008229 -0.21798135 -0.33042398 0.14739387 -0.042255897 0.15445445
0.24480133 0.14660083 0.14215446 -0.2443296 -0.059738047 0.1238448 -0.22720976 0.12441403
0.12985401 -0.20713183 0.17026515 0.22670549 -0.037912134 0.05027903 0.040221103 0.37333265
-0.022160588 -0.04820602 -0.018426402 -0.16898954 -0.17292374 0.10317566 0.18816747 0.07820059
-0.106732994 0.0050034528 -0.05654846 0.2591778 0.14346743 0.066888526 -0.23449586 0.07563267
-0.23160043 0.14971136 0.028525628 -0.16595629 0.15421014 -0.22868071 -0.03670633 0.08243326
0.064973496 -0.2184868 -0.06103186 -0.16462198 0.22470292 -0.41770285 0.33143273 0.28728303
-0.10060716 -0.28907776 -0.4318858 -0.04050567 -0.028020952 -0.051233318 0.23755543 0.3447402
-0.0001630276 0.2990132 0.093716525 -0.17114052 0.18701181 0.23437779 -0.23868063 -0.10455196
0.013359007 0.115599655 0.2573368 0.07855914 0.0959904 -0.21356142 -0.13569312 0.0576594
-0.06939243 -0.03301101 -0.0458277 0.07642371 0.2599321 0.32343367 -0.015255344 -0.14639938
0.38636753 0.18567987 -0.21222079 0.13875812 -0.28124046 0.09159272 -0.055108402 0.32337898
-0.022490982 -0.08945099 0.18037473 0.07593887 0.30204505 -0.10062599 0.18981974 -0.14388321
-0.32257223 -0.32196432 0.324622 -0.07718987 0.025323978 0.102700084 -0.006863464 -0.027956067
0.21253474 -0.11508605 -0.21220472 -0.11282405 -0.17062452 0.02763733 -0.45802867 0.379008
0.11760896 0.053013958 0.13227037 0.02624256 0.22395927 -0.01163861 -0.13343278 0.47352442
-0.24597211 0.018333241 0.23172826 0.12298387 -0.0069514723 -0.15521991 -0.10811964 0.1561741

base.cnn.10.bias f4 [64]
00000000: df44 babc c887 3dbc f85f 81bd 1e83 39bd
00000010: d95a bb3c 401b 3cbc 1cdb 063e 02a2 edbb
00000020: 19e3 ca3a 9c61 de3c 6029 38bb 7050 c4bc
00000030: 03b3 093b a2cb 1abd 2222 103d 6fa3 a8bd
00000040: dc90 c7bd ceb4 8dbc 8494 a1bd 0fbd a8bc
00000050: f005 1abd e810 2fbc c5c1 63bd 0855 7dbd
00000060: d930 51bd 70a7 98bb e9db 76bd ef66 943c
00000070: 4a20 75bd b116 b3bd a24c 19bd 4723 bdbd
00000080: 5b6d 05be 0952 f1bc a5d5 ffbd f2e4 31bd
00000090: c00d c0bb d92f ed3b 5572 06be 16c9 67bd
000000a0: d1cf 88bc 8082 d4bd 14b4 cbbd 37b1 4b3c
000000b0: b587 0f3d e7a4 84bc 1bc2 36bd 2035 b6bd
000000c0: 894e 0f3d 9f5d 183c 324d a3bc f58a 2fbc
000000d0: ad13 cbbd 27b5 c23b 93ee 01bb 2ce8 98bd
000000e0: d5d9 54bd d5f3 aabc 41fc acbc 34a9 40bb
000000f0: c301 12bd 83f2 173d a743 f3bc bd44 58bd
-0.022737918 -0.011568017 -0.06317133 -0.04529106 0.022870468 -0.011481106 0.13169521 -0.007251979
0.0015479057 0.027146153 -0.0028100833 -0.023964137 0.002101124 -0.037791856 0.0351888 -0.082342975
-0.097444266 -0.017298128 -0.07889655 -0.020597963 -0.03760332 -0.010685183 -0.055604715 -0.06184867
-0.051071975 -0.004658632 -0.060268316 0.018115489 -0.059845246 -0.087445624 -0.0374266 -0.09235244
-0.13029997 -0.029458063 -0.12491921 -0.04343123 -0.005861014 0.00723837 -0.13129552 -0.056588255
-0.016700657 -0.103764534 -0.099464566 0.012432388 0.03504153 -0.016191913 -0.044618707 -0.088968515
0.034987006 0.009299665 -0.01993427 -0.010714282 -0.09915862 0.005942005 -0.001982604 -0.07466158
-0.051965553 -0.020868221 -0.021116378 -0.0029397728 -0.03564621 0.03709651 -0.029695345 -0.05279993

base.cnn.12.weight f4 [64]
00000000: 66e2 853f f3d7 7b3f 5040 763f afec 803f
00000010: 5f3f 6e3f b639 8d3f f067 733f dcc0 763f
00000020: 1196 853f dec8 8e3f 5109 8f3f d6d6 803f
00000030: 13fb 883f 1c36 883f 8809 883f 2558 5e3f
00000040: 18ba 703f ee5d 7b3f 0cde 6f3f e937 7d3f
00000050: 1a2f 833f 79aa 7c3f 52de 883f 2a41 863f
00000060: a149 823f 4b7a 7f3f a2b8 853f d832 833f
00000070: c79e 683f e5cf 803f 3277 7f3f 56ea 643f
00000080: 408b 6e3f 6f08 773f 2c10 7b3f 46c0 743f
00000090: 60b7 673f 1ea2 813f 93a4 7e3f d008 823f
000000a0: e03f 763f 620c 803f 17ad 7f3f e3c8 853f
000000b0: 7d1e 883f f35c 663f 1cfd 7b3f fc7d 903f
000000c0: 25cc 6b3f 4f9f 7a3f 6e55 843f e104 7a3f
000000d0: ceca 8a3f f50f 7b3f 561c 803f 186d 783f
000000e0: f461 863f 47dc 8e3f 8d6c 853f 802c 893f
000000f0: beca 843f cc54 813f 0cf6 7f3f 14ae 823f
1.0459716 0.9837639 0.96191883 1.007223 0.93065447 1.1033237 0.9508047 0.9638803
1.0436422 1.115505 1.1174718 1.0065563 1.0701622 1.0641513 1.0627909 0.8685325
0.94033957 0.981902 0.9369819 0.9891344 1.0248749 0.9869762 1.0692847 1.0488636
1.017872 0.9979598 1.044697 1.0249891 0.90867275 1.0063444 0.9979125 0.8942007
0.9318123 0.96497244 0.9807155 0.95605886 0.90514183 1.0127599 0.9946987 1.0158939
0.96191216 1.0003779 0.9987349 1.0451931 1.0634304 0.8998558 0.9843309 1.1288447
0.92108375 0.97899336 1.0338571 0.97663695 1.0843141 0.98071223 1.0008647 0.97041464
1.0498643 1.1160973 1.0423752 1.0716705 1.0374372 1.0104003 0.9998481 1.0209374

base.cnn.12.bias f4 [64]
00000000: f476 2bbd fdfb 3ebd 4c69 473d 9810 78bd
00000010: 5e46 223d a2de 51bd bce2 973d 7237 243d
00000020: 3b2b 273d 9345 c4bc 197d 5c3c 05dc 55bc
00000030: f697 2ebd a480 ddbc 76ab ce3c 2189 0d3d
00000040: 275a 183d 469a c83c b20f 39bc a35b 3abc
00000050: 542a 363d 2a67 313d ff03 d73c 5bdd acbd
00000060: b002 73bd 7087 6f3b 3ac3 12bc 3def 403d
00000070: d4d1 0d3d 9a3b f73c 9d53 9fbc 1631 533d
00000080: 39f9 fb3c 56db ef3a 8437 14bd 459d a5bc
00000090: b16f 773d eb00 1c3b 40c4 37bd 5fdb 913c
000000a0: 0162 303c 2388 29bd 18bf 663c 72cc 603a
000000b0: 6c78 21bd 39b6 de3b 8be3 b4bc aa8d 9abd
000000c0: 83b6 a73c 9af3 e93b 4221 6abd a76a 113d
000000d0: b7d5 98bc 019e ae3d 4134 0e3c 8193 c3bc
000000e0: 5b88 cb3b e809 45bd 8317 be3c f021 403d
000000f0: 0caf d33c 89b9 183d 59d1 dfbc d4f9 03bd
-0.04186149 -0.046627034 0.048684403 -0.0605627 0.03961789 -0.05123771 0.07416293 0.04009194
0.040812712 -0.023958957 0.01345756 -0.013052945 -0.04262539 -0.02703888 0.025228243 0.034554604
0.03719535 0.024487626 -0.011295246 -0.011374387 0.04447396 0.043311276 0.026247023 -0.08440658
-0.059328735 0.0036549233 -0.008957678 0.047103155 0.034623936 0.030179787 -0.01944905 0.051560484
0.030758487 0.001829962 -0.036185756 -0.020216594 0.06040925 0.0023804258 -0.044864893 0.0178048
0.010765553 -0.041389596 0.014083646 0.00085753866 -0.039421484 0.006796625 -0.022081157 -0.075465515
0.02047277 0.0071396353 -0.057160623 0.035502102 -0.018656595 0.085262306 0.0086794505 -0.023874046
0.006211323 -0.04810515 0.02320457 0.046907365 0.025840305 0.037286315 -0.027321504 -0.032220677

base.cnn.13.weight f4 [64, 64]
00000000: 40eb c3be 07b3 813e e1a0 613e 0bff 74be
00000010: 3419 2a3e 0ed5 90bc c69b 633b 53bf 03bf
00000020: c865 8d3e 56bf 323c 0814 1d3e 38cd db3d
00000030: c57e 80bb 412d 73bd 209b e33a 08b7 733e
00000040: aa50 32be 18a9 1d3d efe3 003e b43e 0c3e
00000050: 4d8c c43d 7b97 683e a13f 0e3e 168d 50bd
00000060: b314 0abe 0889 613e 62dc d9bc b8ce 44bd
00000070: c65e 053e 0aaf abbe 30ed 38bd 7933 123e
00000080: 8a00 1c3e 1b6e 57be 8e15 3dbe 3e0e 73bd
00000090: 3500 6a3d 3baf 79be 5bfa e43d 5913 c73e
000000a0: 2fb1 a0bd 2734 763e a591 a03d c851 b93c
000000b0: 5e9e 0ebe b237 113e 5c52 e73c c7cf 10be
000000c0: b826 aebc 0278 b33d 0aaf ac3e 2c10 a23e
000000d0: e62a ed3e 58eb 4d3e 4793 acbe f896 a5be
000000e0: 0e07 163e 274f 733d 2f6a 45be 9985 1cbd
000000f0: d3ba b5be 14a0 56bb 28d1 40be 230e aa3e
00000100: 4d8a c0bd 35e6 d43d 452e b7bc 5fe9 643d
00000110: f8f2 6ebe f179 e0be fa2a 553e e79f 163d
00000120: 57ac 09be e289 0dbe 2604 f0bd d595 3fbc
00000130: b213 f53d d55d 303e 7d5f edbe 9b62 56be
00000140: ec2e 24be d42c d0be acbc 3a3e 697e dabd
00000150: 3429 883e b985 8abe 90c9 2ebe 70e5 c73d
00000160: 4496 1dbe 239e 873d e578 e5bd 0e8f 06be
00000170: 98e8 2b3e 6695 39be 1e78 3cbe a026 e73d
00000180: 30a2 b8bb fc70 c7bd 4b87 27bd e70e 6bbe
00000190: 0605 a23d 99bc 7abe 9c95 9b3e b180 d53d
000001a0: a76a 0dbe c0de 6e3e f814 5fbe c9c2 593e
000001b0: 85df 12be 60cb 21b9 e3a0 f3bd 39ca 083e
000001c0: 513d 7a3c 665a ec3d de6d c93d 94b4 e83d
000001d0: 744e 85bd f30c 113d 5ded 133e 4432 95bc
000001e0: 7670 49be f0a6 613e 6961 0f3e 1d3f b03a
000001f0: 0b92 ce3d 65f7 1cbe a31a 8a3d 8986 e73e
00000200: bc0c e7bc cd26 533e 21df c6bd 013a 7a3e
00000210: ae63 81bd 93c0 fc3c c4fe e43d caf0 4d3e
00000220: 5e67 0bbe 6e02 acbd c7fd 503d f9b6 69bd
00000230: 0989 6fbe 01cf 6ebd 5a5e a9be 7122 953c
00000240: 477c d9be 85b7 9f3e 6604 db3c 818a 79bd
00000250: 7aaf 3abe 5d37 753e f04b 59bd 593f ed3e
00000260: f5a6 623d 55a8 2bbe d3e1 9a3e f3a8 a13c
00000270: b429 76bd 9063 ff3d 937a 1c3e fbf1 d6bd
00000280: f717 5d3e aab1 20be 763b d73e f566 dc3d
00000290: a7b4 7a3c 41d8 84be 55f7 0abc 24bb 3dbd
000002a0: 3329 543e 181e e23d a7c9 8bbd 870a 883d
000002b0: a81d fd3d 57bc d8bd e431 d53e 5d6a 66bd
000002c0: 08b1 98be f757 1a3c 18bd 59be 1f66 d13d
000002d0: 089e 01be 8c83 6f3e 3e2d 403d ee4e 603d
000002e0: b98d bf3d 553c 243e cda6 d3be ddcf d8bd
000002f0: 9c04 bf3c a015 323e a506 903d 0ea3 c8bd
00000300: 55f5 babd 73f3 123d d90f 28bd 2b1d 4abe
00000310: d4e5 d9bd 9df9 f9be c234 adbd 3893 f53d
00000320: 16c3 a73e 00b7 b03d acac f8bd ed44 a2bd
00000330: 63a7 52bc 7d0c 49bd f49a 6f3d 1591 ef3c
00000340: 11d6 09be 633c 1abe 2edc 93bd cc79 893e
00000350: a5d3 a33e 2df5 093e 6852 093f aee1 653c
00000360: c44d efbd a499 8f3e 0c46 db3d f6b4 203e
00000370: d743 443e b547 0c3e 4f34 1f3e bc72 2d3e
00000380: 18c0 b83e f04f a03d 445d 243e 64a0 833e
00000390: 89a9 cb3c 5716 9bbe 1124 dc3d 0491 d2bd
000003a0: 4886 07be 2cd1 f43d cd33 85bd 3ed8 b83d
000003b0: 67f5 38bd 83da 38bd 933e 51bc 67a3 34be
000003c0: d8b3 abbc 0db1 173c c54f 30be bb38 523e
000003d0: 2dbf a73d b5ca 88be 25f9 ed3b 0351 d9be
000003e0: 867b c93c ce07 383d 3270 62be a7ff c7bd
000003f0: 4631 633d dc15 05be a57c 93bd a4e6 10bf
-0.3826542 0.253319 0.22034027 -0.23925416 0.16611177 -0.017679717 0.00347303 -0.5146381
0.27616715 0.010909876 0.15339673 0.10732502 -0.003921362 -0.05936933 0.0017364956 0.2380029
-0.17413583 0.03849134 0.1258695 0.13695794 0.09597073 0.22714035 0.1389146 -0.0509158
-0.13484459 0.2202493 -0.026594345 -0.048048705 0.13024434 -0.33531982 -0.045148075 0.14277448
0.1523458 -0.21038096 -0.18465254 -0.059339754 0.057129104 -0.24383251 0.11180564 0.3888195
-0.07846295 0.24043332 0.078402795 0.022622004 -0.139276 0.14181402 0.028237514 -0.14141761
-0.021258697 0.08763124 0.33727294 0.31652963 0.4632179 0.20109308 -0.33706114 -0.32341743
0.14651129 0.059401657 -0.19278787 -0.038213346 -0.35494098 -0.0032749223 -0.18829787 0.3321391
-0.09401379 0.10395471 -0.02236093 0.055886623 -0.23334873 -0.43843034 0.20817176 0.03677359
-0.13444649 -0.1382213 -0.11719541 -0.011693438 0.11966647 0.17223294 -0.46361914 -0.20936053
-0.16033524 -0.406592 0.18236035 -0.10668642 0.26593935 -0.27055147 -0.17069077 0.097605586
-0.15389353 0.06621959 -0.112046994 -0.13140509 0.16787946 -0.18123397 -0.18405196 0.11286664
-0.0056345686 -0.09738347 -0.04090051 -0.22954904 0.079111144 -0.24486007 0.3038758 0.104249366
-0.13810216 0.2332716 -0.21785343 0.21265711 -0.14343078 -0.0001542992 -0.11895921 0.13358392
0.015273408 0.1154068 0.09835409 0.113625675 -0.06509104 0.03541274 0.14446016 -0.018212445
-0.19671807 0.22036338 0.14002003 0.0013446544 0.10086449 -0.15328749 0.06743362 0.4521983
-0.028204314 0.2062027 -0.09710527 0.24436189 -0.063178405 0.030853545 0.11181405 0.20111385
-0.1361365 -0.08398901 0.05102327 -0.057059262 -0.23392119 -0.058302883 -0.33079797 0.0182049
-0.4247763 0.31194702 0.026735496 -0.060923103 -0.18231001 0.239469 -0.053050935 0.46337393
0.055335004 -0.16763432 0.30250415 0.019733882 -0.060098365 0.12470162 0.15281133 -0.10495373
0.21591173 -0.15692773 0.42037553 0.10761825 0.01530186 -0.2594624 -0.00848182 -0.04632105
0.20718841 0.11040896 -0.068255715 0.06642633 0.12359172 -0.10582798 0.41639626 -0.05625378
-0.29822564 0.0094203865 -0.2126354 0.10224556 -0.1265794 0.23390025 0.046918146 0.054762773
0.09353203 0.1603864 -0.41338196 -0.10586522 0.023317628 0.17391062 0.07032517 -0.09796725
-0.091288246 0.035876703 -0.04103074 -0.19737689 -0.10639539 -0.48823252 -0.084573284 0.119909704
0.32766026 0.086286545 -0.121423095 -0.07923303 -0.012857291 -0.049084175 0.058497384 0.029243985
-0.13460566 -0.15062098 -0.0721973 0.26850736 0.3199741 0.13472433 0.53641367 0.014030857
-0.116847545 0.28046906 0.1070672 0.15694031 0.19166504 0.13699229 0.15547298 0.16938299
0.36084056 0.07827747 0.16051203 0.25708306 0.024861114 -0.3029048 0.107490666 -0.10281566
-0.13234818 0.11953959 -0.06504021 0.0902562 -0.04515591 -0.045130264 -0.0127712665 -0.17640458
-0.02095978 0.009258521 -0.1721793 0.20529453 0.08190761 -0.26717153 0.0072623664 -0.4244462
0.024595033 0.044929318 -0.22113112 -0.09765559 0.055466913 -0.1299662 -0.072015084 -0.5660193
