CRL_human_AI_overcooked/human_models/model_unident_open/actor_best_r5.pt (torch, 590163 bytes, 20 tensors)

base.cnn.0.weight f4 [32, 26, 3, 3]
-0.13685669 0.058670808 -0.14873031 0.13931249 -0.04319542 0.09253863 0.05744936 0.118253075
-0.11288883 0.017149277 0.16053522 -0.0023420034 -0.02367028 -0.048222356 -0.13131848 -0.064699195
-0.1976549 0.048177168 -0.030520247 -0.07431918 -0.12747873 0.014819336 -0.06536079 0.06501565
-0.115333594 -0.05965081 -0.114213325 0.11753422 -0.10771172 0.16170277 0.051585652 0.024209991
-0.10526308 0.0603375 0.031443086 0.33721244 0.04939918 -0.10105284 -0.1005791 -0.20460327
-0.25104666 0.09299627 -0.1889678 -0.04209861 -0.010295866 0.102879696 0.17156912 -0.15583763
0.022156138 -0.11044682 0.13072287 0.03684011 -0.04891715 -0.06486254 -0.044129647 -0.01825726
-0.13166715 0.079871476 0.047346897 -0.17773622 -0.027876683 -0.016518228 0.056716524 -0.10851337
0.075317994 -0.22464289 0.07297907 0.026115173 0.0982199 0.14533126 -0.09999954 -0.13222384
-0.0051687565 0.10706515 0.077170305 -0.06759158 0.098675735 -0.10813178 0.093476675 -0.09086611
0.016902527 0.03203529 0.11444431 0.121796824 -0.123791344 0.014718022 0.055281967 0.0048951055
0.0012743677 -0.0089872265 -0.16619974 -0.08580557 0.025869502 -0.003602756 -0.042263027 -0.1131517
0.08878454 0.1742397 0.09709096 -0.008710402 0.08400949 -0.02361966 -0.027839465 -0.18512033
0.0005936544 -0.07823337 0.11776137 0.05663656 -0.09163733 -0.0064578736 0.19369808 -0.03411641
-0.12843554 -0.078737155 0.12753867 -0.14521068 -0.09913157 0.02822037 -0.02772676 -0.08356804
0.079435125 -0.0603866 -0.0443918 0.054260843 -0.16164784 -0.067782395 -0.05317782 0.02516906
-0.027319543 -0.07218853 0.10633593 -0.18370199 0.086002916 -0.016141096 0.09274188 0.061926115
-0.03567956 -0.067214355 0.03127414 -0.029083606 0.12873681 -0.06576221 -0.10361742 -0.1058676
0.01277055 0.054346014 0.023875533 -0.10947861 -0.06740789 0.019257676 0.059136283 0.10960317
-0.07938445 0.05639159 -0.046724316 0.034914028 0.20119485 0.09565837 0.059014622 -0.0634058
-0.07081166 0.06999645 0.16235337 -0.03627261 -0.02896532 -0.14264414 -0.006927202 0.004930265
-0.054078672 0.01624008 0.022968022 0.31908527 0.05134093 -0.047486007 -0.16450731 0.04883765
-0.06781109 -0.095901005 0.14373997 -0.10699399 -0.19318402 0.097681865 -0.13325457 -0.12373436
-0.19948982 -0.20369905 0.07357205 -0.01715827 -0.106991485 0.035854887 0.12719956 0.06852014
-0.06450606 0.004378753 0.18322735 -0.06191217 0.014575549 -0.07739187 0.035854407 -0.10096517
-0.23249282 -0.0005421395 0.18167292 0.0394687 0.23591208 0.0031951682 0.02983942 0.07160294
0.004411299 0.00069886533 0.07470795 -0.17883842 -0.14530857 0.23333037 0.1268597 -0.021025356
0.123153165 0.2651 0.1297129 0.21461198 -0.1901471 -0.19264059 0.03120807 0.20949309
0.116539456 -0.049228195 -0.11166496 0.04897019 -0.18801035 0.0046069236 0.1809703 0.09921001
0.15662217 0.065073825 -0.22367787 0.17497374 0.05510117 0.1607421 0.07363724 0.13649346
-0.017286757 -0.03199172 -0.008198819 -0.055360455 0.15523672 0.14281908 0.06963238 0.026496468
-0.17041287 -0.061850764 -0.012973638 0.13119847 0.07376893 -0.029467542 0.004911857 0.11151229
00000000: 2924 0cbe cd50 703d c24c 18be efa7 0e3e
00000010: aeed 30bd e584 bd3d 0550 6b3d ab2e f23d
00000020: 4232 e7bd a47c 8c3c 5863 243e 4c7c 19bb
00000030: 2de8 c1bc ce84 45bd 5a78 06be 0381 84bd
00000040: 0c66 4abe 6c55 453d 9905 fabc a734 98bd
00000050: c989 02be cdcc 723c e1db 85bd ed26 853d
00000060: 0534 ecbd 6854 74bd ade8 e9bd c8b5 f03d
00000070: f697 dcbd 6995 253e 7a4b 533d 0854 c63c
00000080: 2b94 d7bd 7424 773d 77ca 003d 1ca7 ac3e
00000090: cb56 4a3d cbf4 cebd 6afc cdbd 8583 51be
000000a0: 3089 80be d474 be3d c680 41be 986f 2cbd
000000b0: feaf 28bc 97b2 d23d d1af 2f3e e693 1fbe
000000c0: ca80 b53c f131 e2bd 37dc 053e a8e5 163d
000000d0: 595d 48bd a7d6 84bd 4ac1 34bd 4090 95bc
000000e0: c1d3 06be a893 a33d d2ee 413d 7c00 36be
000000f0: a45d e4bc 3c51 87bc 964f 683d 423c debd
00000100: 5240 9a3d c908 66be 0d76 953d 7def d53c
00000110: 8427 c93d b8d1 143e 8fcc ccbd b065 07be
00000120: ac5e a9bb f944 db3d 770b 9e3d 746d 8abd
00000130: 8116 ca3d 3274 ddbd b370 bf3d 0318 babd
00000140: 2b77 8a3c 7037 033d c761 ea3d 9d70 f93d
00000150: 5186 fdbd dc23 713c 586f 623d 1f67 a03b
00000160: af08 a73a 293f 13bc 4430 2abe d5ba afbd
00000170: 47ec d33c 371c 6cbb ff1b 2dbd 14bc e7bd
00000180: abd4 b53d e46b 323e a0d7 c63d 13b6 0ebc
00000190: 2b0d ac3d 047e c1bc 970f e4bc 2f90 3dbe
000001a0: 799f 1b3a d138 a0bd e02c f13d bdfb 673d
000001b0: 5aac bbbd 929c d3bb ca58 463e a6bd 0bbd
000001c0: 9b84 03be f240 a1bd 7f99 023e 1cb2 14be
000001d0: 7e05 cbbd 682e e73c 3b23 e3bc b825 abbd
000001e0: e2ae a23d f157 77bd 2dd4 35bd 9e40 5e3d
000001f0: 0387 25be 7fd1 8abd fcd0 59bd 582f ce3c
00000200: 3ccd dfbc 94d7 93bd a7c6 d93d 601c 3cbe
00000210: 4c22 b03d 553a 84bc 74ef bd3d 3da6 7d3d
00000220: bb24 12bd aea7 89bd 5019 003d be40 eebc
00000230: 95d3 033e 56ae 86bd 5f35 d4bd 1dd1 d8bd
00000240: 923b 513c ed99 5e3d 9f96 c33c 5236 e0bd
00000250: 260d 8abd 46c2 9d3c e338 723d a077 e03d
00000260: 5194 a2bd defa 663d ff61 3fbd 0302 0f3d
00000270: 0606 4e3e 89e8 c33d 51b9 713d e6da 81bd
00000280: b405 91bd 4c5a 8f3d f63f 263e 9792 14bd
00000290: ae48 edbc 4e11 12be 95fd e2bb 0f8e a13b
000002a0: 9981 5dbd eb09 853c 6f27 bc3c 255f a33e
000002b0: de4a 523d b080 42bd 9b74 28be fd09 483d
000002c0: 8ae0 8abd bf67 c4bd 9230 133e aa1f dbbd
000002d0: 08d2 45be 6e0d c83d e373 08be 7168 fdbd
000002e0: 0f47 4cbe 7c96 50be f1ac 963d 808f 8cbc
000002f0: 5a1e dbbd 93dc 123d 9a40 023e 4a54 8c3d
00000300: c11b 84bd a47b 8f3b f39f 3b3e 9e97 7dbd
00000310: 49ce 6e3c a17f 9ebd 12dc 123d d4c6 cebd
00000320: 9912 6ebe 5e1e 0eba 7708 3a3e eea9 213d
00000330: f092 713e 0766 513b cd71 f43c 90a4 923d
00000340: a88c 903b 0f34 373a 7b00 993d 6b21 37be
00000350: c5cb 14be 28ee 6e3e 82e7 013e 5e3d acbc
00000360: ba37 fc3d 30bb 873e 75d3 043e 3ec3 5b3e
00000370: ecb5 42be 9343 45be 11a8 ff3c 5b85 563e
00000380: 3dac ee3d 81a3 49bd 99b0 e4bd f794 483d
00000390: c985 40be adf5 963b 4750 393e 9e2e cb3d
000003a0: 9061 203e 6d45 853d d00b 65be 512c 333e
000003b0: c4b1 613d 9499 243e 1fcf 963d f1c4 0b3e
000003c0: f59c 8dbc c009 03bd 5754 06bc a5c1 62bd
000003d0: 60f6 1e3e 2a3f 123e 6c9b 8e3d 1f0f d93c
000003e0: b680 2ebe 3a57 7dbd 628f 54bc e458 063e
000003f0: 2a14 973d ea65 f1bc a5f3 a03b 8e60 e43d

base.cnn.0.bias f4 [32]
-0.029984642 -0.023919469 -0.012787145 -0.004197309 -0.0049666516 -0.038566504 0.00025953003 -0.016369663
-0.026884472 -0.013571214 -0.034160785 -0.0055874893 -0.029397184 -0.008934531 -0.020030627 -0.06772467
-0.032485917 -0.035470832 -0.03569849 0.0121446615 -0.029851904 -0.04354888 -0.026599089 0.0030096094
-0.029834405 0.022925688 -0.038274232 -0.047658496 -0.015191009 -0.009775858 -0.039421678 -0.03561388
00000000: 5aa2 f5bc c3f2 c3bc 2c81 51bc 9489 89bb
00000010: 4bbf a2bb e9f7 1dbd 8811 8839 ac19 86bc
00000020: d33c dcbc cc59 5ebc 2eec 0bbd 4217 b7bb
00000030: 5dd2 f0bc 2462 12bc 4517 a4bc 3bb3 8abd
00000040: f40f 05bd dd49 11bd 9438 12bd 67fa 463c
00000050: fb8b f4bc 4f60 32bd 55e6 d9bc de3c 453b
00000060: 4867 f4bc a7ce bb3c 71c5 1cbd 8e35 43bd
00000070: b6e3 78bc ec2a 20bc a078 21bd dcdf 11bd

base.cnn.2.weight f4 [64, 32, 3, 3]
0.1319964 -0.02417357 -0.00092673715 0.022600047 0.053192165 0.01577336 -0.08742389 0.06314612
-0.14529908 0.025527315 -0.05062815 -0.08192 -0.13126242 0.03837432 0.07471193 0.20172936
0.0030691521 0.075125106 -0.10370487 0.008029397 -0.09119634 -0.041216332 0.019176785 -0.052786604
-0.020084513 0.0210339 -0.029918665 -0.021287214 0.18954173 0.040851478 0.2663208 -0.2565208
0.2016443 -0.08003426 0.0031921472 0.092758164 0.014261767 0.100217365 -0.10649762 1.5988237e-05
0.10073426 0.01635011 -0.21963507 0.04273256 0.024304604 -0.065313056 -0.1141835 0.062269896
0.0501456 -0.090508565 -0.021478688 -0.090603516 0.020986417 0.20332839 0.0560919 0.07965886
0.08633485 -0.01120108 0.035702594 -0.12324236 -0.056824077 -0.07691024 -0.011187375 0.06886066
0.086016834 -0.042134076 -0.2804362 -0.1463485 0.05809505 0.05433122 -0.023306869 0.2023955
0.040596012 0.10316935 -0.0023381906 0.112059 -0.04294806 -0.10950393 -0.00442528 -0.012050175
-0.031055762 -0.0033555224 0.10773261 0.03949685 -0.14274324 -0.04745618 0.083556816 -0.02355396
-0.014706905 0.010890319 -0.04700599 0.015415797 0.08297297 -0.13575514 0.08562289 -0.11887161
0.03181342 0.0005403749 0.0346821 0.05467602 -0.004915067 -0.038401548 0.11463328 -0.006566663
0.09002101 0.05632379 0.18066758 -0.04353417 0.0074214935 0.023108834 -0.012688615 -0.05771746
-0.015950495 0.020949299 -0.17154317 -0.06537101 -0.13486418 -0.02386834 -0.06905263 -0.016582854
0.00057150394 0.06796466 -0.017621303 -0.0683774 0.014316404 -0.17435238 0.045984156 0.12729658
0.08478845 0.06943852 0.086584404 0.050915204 0.13275217 -0.047982883 0.081728324 -0.0903732
0.0008426218 -0.055504575 -0.10298976 0.080442384 0.0001137143 -0.0736442 -0.09138445 0.0068159592
0.057120126 -0.020882556 0.01634087 0.020997642 -0.0656499 -0.05190778 -0.060402192 0.07289899
0.10240915 0.06744712 0.07743311 0.028166207 -0.1271678 0.11622409 -0.074253164 0.12494883
-0.011232404 -0.018782696 0.042041436 0.06409461 0.086225495 -0.049560066 -0.06989874 0.0033377477
-0.01681794 0.053398255 -0.06585922 0.08229793 0.28477576 -0.05022627 0.014343266 -0.028830623
0.04659409 -0.04441279 -0.112253375 0.05163169 0.12461963 -0.038505618 0.038490914 0.027091345
-0.104648925 0.12552488 0.0018693352 -0.12122206 -0.12444448 0.053503413 -0.027179768 -0.07464563
-0.0053463746 -0.030449465 -0.15522327 -0.05038043 -0.1406775 -0.17237085 -0.17672944 0.052685987
-0.11204772 0.014479984 0.10703316 -0.13007008 -0.076568015 -0.091992244 -0.10913987 0.13707942
0.0031928548 -0.08548603 -0.028001973 -0.1186254 -0.123988345 0.16721137 0.03012831 0.23289223
-0.14318319 0.07332345 -0.02483463 6.605733e-05 0.031689107 0.06433039 0.11679972 -0.007185353
-0.0037089149 0.013868251 -0.09781003 0.06597023 0.17540574 -0.02517174 0.14412728 0.071803354
0.090065226 -0.12316855 -0.005845369 -0.039532814 0.118828304 -0.104743734 -0.16895573 0.024626099
-0.08712812 -0.17912373 -0.21196835 -0.1012056 0.028086107 -0.19755334 -0.11820832 0.16169263
0.066940725 0.15556839 -0.02634021 0.08131265 -0.0678195 0.03948557 0.1325591 0.16879709
00000000: 102a 073e a707 c6bc 47f0 72ba bc23 b93c
00000010: 07e0 593d 2237 813c 4c0b b3bd c152 813d
00000020: 48c9 14be a91e d13c 775f 4fbd acc5 a7bd
00000030: a869 06be 642e 1d3d 9102 993d 2492 4e3e
00000040: d423 493b 31db 993d 3863 d4bd bb8d 033c
00000050: 26c5 babd 75d2 28bd a218 9d3c c436 58bd
00000060: 4788 a4bc 494f ac3c fd17 f5bc 8662 aebc
00000070: 3a17 423e e153 273d 335b 883e b256 83be
00000080: d87b 4e3e 01e9 a3bd 5833 513b fef7 bd3d
00000090: 30aa 693c c33e cd3d 6d1b dabd 7a1e 8637
000000a0: c44d ce3d aaf0 853c 04e8 60be 5608 2f3d
000000b0: 731a c73c dac2 85bd 0ad9 e9bd b80e 7f3d
000000c0: 7965 4d3d 8e5c b9bd 13f4 afbc 568e b9bd
000000d0: b5eb ab3c 5135 503e 9fc0 653d 2f24 a33d
000000e0: 53d0 b03d bc84 37bc e23c 123d 7e66 fcbd
000000f0: 5dc0 68bd 1e83 9dbd 404b 37bc d106 8d3d
00000100: 9829 b03d c894 2cbd 5595 8fbe 62dc 15be
00000110: 13f5 6d3d 6a8a 5e3d 0cee bebc c440 4f3e
00000120: 0148 263d 744a d33d 543c 19bb 307f e53d
00000130: 4eea 2fbd 9943 e0bd f001 91bb 196e 45bc
00000140: a768 febc 53e8 5bbb eaa2 dc3d 73c7 213d
00000150: 492b 12be 6961 42bd d61f ab3d 3cf4 c0bc
00000160: 3bf5 70bc 4f6d 323c 5a89 40bd 8a92 7c3c
00000170: bced a93d 6503 0bbe 0e5b af3d f572 f3bd
00000180: ca4e 023d f2a7 0d3a d10e 0e3d f6f3 5f3d
00000190: 920e a1bb f14a 1dbd dac4 ea3d 292d d7bb
000001a0: ef5c b83d c6b3 663d ec00 393e e350 32bd
000001b0: 0030 f33b bd4e bd3c e9e3 4fbc 2569 6cbd
000001c0: 9daa 82bc dd9d ab3c 03a9 2fbe 3ce1 85bd
000001d0: d619 0abe 8987 c3bc 776b 8dbd c4d8 87bc
000001e0: fbd0 153a 0e31 8b3d 8d5a 90bc 7309 8cbd
000001f0: 5a8f 6a3c 6e89 32be e259 3c3d 095a 023e
00000200: 91a5 ad3d c835 8e3d 2a53 b13d 768c 503d
00000210: 2ff0 073e b389 44bd 2e61 a73d 9615 b9bd
00000220: 64e3 5c3a c458 63bd 4cec d2bd fabe a43d
00000230: e679 ee38 c5d2 96bd c527 bbbd 6958 df3b
00000240: cbf6 693d e511 abbc 4add 853c 3f03 ac3c
00000250: 7473 86bd 419d 54bd 4a68 77bd 114c 953d
00000260: e3bb d13d b721 8a3d 4095 9e3d d1bc e63c
00000270: 4738 02be e506 ee3d 0b12 98bd 2ce5 ff3d
00000280: 1e08 38bc 2bde 99bc a433 2c3d 0944 833d
00000290: fe96 b03d 7fff 4abd 1227 8fbd 1dbe 5a3b
000002a0: c7c5 89bc 21b8 5a3d 33e1 86bd d18b a83d
000002b0: 21ce 913e 10ba 4dbd 0500 6b3c 332e ecbc
000002c0: 72d9 3e3d 30ea 35bd 19e5 e5bd c07b 533d
000002d0: 9438 ff3d 11b8 1dbd a6a8 1d3d abee dd3c
000002e0: 2d52 d6bd 9889 003e 7b04 f53a 4543 f8bd
000002f0: bfdc febd 6526 5b3d 1ba8 debc cfdf 98bd
00000300: a430 afbb 2871 f9bc d9f2 1ebe b65b 4ebd
00000310: c30d 10be fc81 30be 90f8 34be 43cd 573d
00000320: 4679 e5bd 743d 6d3c 3434 db3d 1731 05be
00000330: b1cf 9cbd 6e66 bcbd b984 dfbd 8c5e 0c3e
00000340: 373f 513b 4d13 afbd 6564 e5bc e0f1 f2bd
00000350: 9aed fdbd 7539 2b3e a5cf f63c 4d7b 6e3e
00000360: 9d9e 12be 9b2a 963d fe71 cbbc 4288 8a38
00000370: 70cc 013d a7bf 833d b134 ef3d 1c73 ebbb
00000380: 4411 73bb a937 633c a050 c8bd 661b 873d
00000390: 909d 333e f734 cebc 1a96 133e a30d 933d
000003a0: 1e74 b83d cb3f fcbd 828a bfbb 29ed 21bd
000003b0: 415c f33d e283 d6bd bb02 2dbe acbc c93c
000003c0: 3a70 b2bd 366c 37be 3b0e 59be e244 cfbd
000003d0: d614 e63c 6c4b 4abe 3417 f2bd c192 253e
000003e0: 3818 893d 524d 1f3e 6dc7 d7bc 3f87 a63d
000003f0: f3e4 8abd 9fbb 213d 93bd 073e 25d9 2c3e

base.cnn.2.bias f4 [64]
0.00420178 -0.020645546 -0.030804878 0.018787827 0.0026824994 -0.026904164 -0.035160787 -0.013309249
-0.0050709113 0.015071987 -0.0043770554 0.012209092 -0.015375888 0.006702897 -0.042138807 -0.02739689
0.010272911 -0.026589556 -0.024235407 -0.0071925 -0.014070113 -0.00023512346 0.00034840225 -0.03116586
-0.040257882 -0.026437916 -0.037203558 0.003728404 -0.055450995 0.012347411 -0.0084931655 -0.004369001
-0.037188 -0.0050027366 0.008110553 -0.039766397 -0.055148415 -0.033011466 -0.0101378 0.011407599
-0.021159537 -0.014448282 0.010704883 -0.034212995 0.0008520187 -0.0038094947 -0.028157948 -0.0052174805
0.010991279 -0.01494873 -0.031070303 0.0045675496 -0.019159827 0.031287454 -0.005304589 -0.035239417
0.0044786707 0.041854065 -0.02536799 -0.037097078 0.0017455758 -0.0064363945 -0.018522548 -0.013418345
00000000: 16af 893b d920 a9bc 835a fcbc eee8 993c
00000010: dfcc 2f3b 1f66 dcbc c204 10bd 090f 5abc
00000020: e329 a6bb 7ff0 763c 676d 8fbb a508 483c
00000030: 26eb 7bbc faa3 db3b be99 2cbd 716f e0bc
00000040: b64f 283c 57d2 d9bc 5589 c6bc 10af ebbb
00000050: 5586 66bc 798b 76b9 c2a9 b639 8c4f ffbc
00000060: 73e5 24bd 5494 d8bc c262 18bd 3d58 743b
00000070: 9520 63bd cc4c 4a3c eb26 0bbc d629 8fbb
00000080: 7252 18bd ffed a3bb 20e2 043c 17e2 22bd
00000090: 4ee3 61bd 0837 07bd 0419 26bc f0e6 3a3c
000000a0: c456 adbc 7db8 6cbc 8963 2f3c ed22 0cbd
000000b0: 025a 5f3a b7a8 79bb 7fab e6bc 66f7 aabb
000000c0: c414 343c 85eb 74bc 2687 febc 62ab 953b
000000d0: 12f5 9cbc 4627 003d 1ed2 adbb 3557 10bd
000000e0: d0c1 923b 2b6f 2b3d 88d0 cfbc 1bf3 17bd
000000f0: cecb e43a 64e8 d2bb 99bc 97bc 9ed8 5bbc

base.cnn.4.weight f4 [32, 64, 3, 3]
0.025235856 0.14528127 0.028969359 0.01775965 -0.031443 0.0657344 -0.013304126 -0.019319503
0.12997095 0.008500494 0.08235802 0.0991165 -0.010011599 0.07413696 -0.0116265 -0.07547567
-0.08065197 -0.025195638 -0.06302303 -0.009955495 0.047811624 -0.091427684 0.10932868 -0.02853878
-0.031006288 -0.0013613062 0.15093698 -0.0099738445 0.037548736 -0.006906164 -0.11346737 -0.061585695
-0.10598637 -0.0021527503 0.15859544 -0.14803119 0.09633159 0.063819945 0.11363887 0.06470924
-0.07235424 0.005412583 -0.039409935 -0.0196227 -0.17774709 -0.08836168 0.03120152 0.07905349
-0.04103575 0.007277822 -0.047617197 -0.048731443 -0.08388948 -0.033614367 -0.014799929 -0.100750186
-0.11955486 0.14277592 0.07364466 0.11103491 -0.054561593 0.015239011 0.11869325 0.048700128
-0.013099495 0.05259664 -0.096423335 0.088907085 0.11152759 -0.07930996 -0.035003122 -0.061890714
-0.015978584 -0.043524798 -0.012185816 0.07510901 0.09053503 -0.009053296 0.028259138 0.039065853
0.013956567 0.0018413299 0.09565126 -0.0182789 0.021164635 -0.0803689 -0.17815566 0.097050115
0.0032127262 -0.09565138 -0.068698235 0.12733267 0.035915613 -0.032610595 -0.09431271 -0.15991522
0.015545242 -0.06887406 0.061913893 0.0369511 -0.120338224 0.032891188 -0.028091135 -0.055174135
0.026435927 0.05390643 -0.054666586 0.048735704 -0.084834486 -0.037374172 0.048700977 -0.22333696
0.017841052 0.09125713 0.02157894 -0.039594393 0.020812945 0.08999318 -0.11974871 -0.061847802
0.08127719 -0.045295533 -0.036584396 -0.04122883 -0.006807243 0.05776493 -0.042740546 0.13863595
-0.0355537 -0.02282387 0.008564158 0.009943165 -0.048725948 -0.11463621 0.012690482 -0.06835823
-0.047428936 -0.08677532 -0.09013134 0.012629327 0.005489744 -0.03671434 -0.021281242 0.049161665
-0.034929805 0.11072247 0.014940409 0.05071435 0.0551477 -0.08420452 -0.00845166 -0.02047533
0.099971674 -0.03339818 -0.063789554 -0.15234031 0.017875595 -0.0014781539 0.103337124 -0.02262753
-0.057076808 0.024668315 0.030896457 -0.03769064 0.0058441088 -0.024031878 0.017568799 0.011053015
0.027893247 -0.022941388 -0.08783208 0.03305782 -0.105340965 -0.02183123 -0.113460794 -0.061733615
-0.037041992 -0.20637397 0.028554007 -0.036539607 -0.002345577 -0.06678341 0.083279975 0.013350273
-0.023335602 -0.06196919 -0.13685076 0.031750206 -0.14478606 -0.013020277 0.2127826 -0.072846085
-0.05894226 -0.10439537 0.019468434 -0.009045187 -0.0051648784 0.018620852 0.099530034 0.06577895
0.041709375 0.017882718 0.17630969 -0.080405824 0.025642978 -0.0005916353 -0.02269007 0.033472303
-0.04966301 0.04065234 -0.048125036 0.0290557 0.030290442 0.01642245 0.03474288 0.062410366
0.030362014 0.058211572 -0.02292834 0.053295694 -0.046924386 -0.07784462 0.05057274 0.07475897
0.00972944 0.03215744 -0.01763506 0.0698527 -0.09927902 -0.08354966 0.0054681525 0.0018439173
0.07480479 0.11910326 0.06079668 -0.019261677 -0.094020724 -0.098200396 -0.008149399 -0.10295942
-0.009705518 -0.108258195 0.09056111 0.05357768 -0.06644807 0.007346117 0.094249085 -0.0241727
-0.010491121 0.021982701 -0.025583902 0.04456834 -0.029398024 -0.02442338 -0.008178937 0.117134854
00000000: 6dbb ce3c 9dc4 143e 2651 ed3c af7c 913c
00000010: 60ca 00bd c29f 863d 8df9 59bc ef43 9ebc
00000020: 1b17 053e a845 0b3c 52ab a83d 97fd ca3d
00000030: b107 24bc 1ed5 973d 137d 3ebc fd92 9abd
00000040: dc2c a5bd 1567 cebc 3812 81bd 5f1c 23bc
00000050: 1fd6 433d 703e bbbd b7e7 df3d 29ca e9bc
00000060: e600 febc db6d b2ba 398f 1a3e 5669 23bc
00000070: b4cc 193d 1a4d e2bb 9561 e8bd 4841 7cbd
00000080: 620f d9bd 2815 0dbb d866 223e 7d95 17be
00000090: 7f49 c53d 08b4 823d 7fbb e83d 4786 843d
000000a0: 762e 94bd 095c b13b 506c 21bd c9bf a0bc
000000b0: 5503 36be f8f6 b4bd 549a ff3c cce6 a13d
000000c0: 1a15 28bd cc7a ee3b 400a 43bd 9f9a 47bd
000000d0: 3fce abbd 38af 09bd 677b 72bc 1d56 cebd
000000e0: 2ed9 f4bd da33 123e 03d3 963d 4566 e33d
000000f0: fa7b 5fbd 0bad 793c 7215 f33d c979 473d
00000100: 449f 56bc 936f 573d 9979 c5bd eb14 b63d
00000110: 9468 e43d 436d a2bd 6f5f 0fbd 1e81 7dbd
00000120: 85e5 82bc 0f47 32bd 04a7 47bc c1d2 993d
00000130: 6e6a b93d 4754 14bc b57f e73c 8403 203d
00000140: 16aa 643c c758 f13a cfe4 c33d a2bd 95bc
00000150: 7561 ad3c 7398 a4bd 706e 36be 36c2 c63d
00000160: 9a8c 523b dfe4 c3bd a9b1 8cbd 7f63 023e
00000170: 401c 133d b092 05bd 0627 c1bd d1c0 23be
00000180: 78b1 7e3c d80d 8dbd 6c99 7d3d 095a 173d
00000190: e373 f6bd e9b8 063d 611f e6bc 46fe 61bd
000001a0: 2890 d83c fdcc 5c3d 12ea 5fbd 179f 473d
000001b0: b4bd adbd a915 19bd ad7a 473d 72b2 64be
000001c0: 6627 923c 05e5 ba3d 51c6 b03c bb2d 22bd
000001d0: e97f aa3c 584e b83d d03e f5bd 1f54 7dbd
000001e0: a874 a63d cf87 39bd 85d9 15bd 90df 28bd
000001f0: 4b0f dfbb eb9a 6c3d b610 2fbd 95f6 0d3e
00000200: c2a0 11bd 20f9 babc af50 0c3c a8e8 223c
00000210: dc94 47bd 64c6 eabd bdeb 4f3c 66ff 8bbd
00000220: d844 42bd 42b7 b1bd c896 b8bd 3deb 4e3c
00000230: 4fe3 b33b c761 16bd 0056 aebc be5d 493d
00000240: 8e12 0fbd 76c2 e23d 9ec8 743c dab9 4f3d
00000250: 8ee2 613d 6b73 acbd d578 0abc e1bb a7bc
00000260: f3bd cc3d 88cc 08bd 19a4 82bd 19ff 1bbe
00000270: d76f 923c 9dbe c1ba 6aa2 d33d 5f5d b9bc
00000280: 5fc9 69bd 3515 ca3c 911a fd3c 8061 1abd
00000290: f07f bf3b 80de c4bc 71ec 8f3c b417 353c
000002a0: 6180 e43c 94ef bbbc 4ee1 b3bd a367 073d
000002b0: 01bd d7bd 68d7 b2bc 225e e8bd 63dc 7cbd
000002c0: 58b9 17bd b353 53be 18ea e93c 8eaa 15bd
000002d0: 41b8 19bb bec5 88bd b18e aa3d 1abb 5a3c
000002e0: 4e2a bfbc 68d3 7dbd 9b22 0cbe 810c 023d
000002f0: cc42 14be 0053 55bc afe3 593e 5430 95bd
00000300: 706d 71bd 3dcd d5bd 447c 9f3c 4432 14bc
00000310: 243e a9bb c28a 983c 67d6 cb3d 1db7 863d
00000320: 73d7 2a3d c77e 923c 878a 343e cfab a4bd
00000330: 3911 d23c f917 1bba 87e0 b9bc 411a 093d
00000340: 716b 4bbd 1183 263d c21e 45bd 3806 ee3c
00000350: a923 f83c 6088 863c 8d4e 0e3d 03a2 7f3d
00000360: c2b9 f83c 426f 6e3d 37d4 bbbc 964c 5a3d
00000370: c933 40bd 006d 9fbd 5d25 4f3d 3b1b 993d
00000380: 3b68 1f3c 85b7 033d 6777 90bc ef0e 8f3d
00000390: cd52 cbbd 161c abbd 302e b33b 99af f13a
000003a0: 4133 993d 69ec f33d f105 793d aaca 9dbc
000003b0: f08d c0bd 4a1d c9bd 0f85 05bc 63dc d2bd
000003c0: e503 1fbc 79b6 ddbd 1a78 b93d 4574 5b3d
000003d0: ed15 88bd b2b7 f03b aa05 c13d d305 c6bc
000003e0: f3e2 2bbc 1115 b43c 5595 d1bc 4b8d 363d
000003f0: 20d4 f0bc 8a13 c8bc f300 06bc 66e4 ef3d

base.cnn.4.bias f4 [32]
-0.02696634 -0.021903714 0.010564226 -0.0069404794 -0.0072473795 -0.013531079 -0.030492034 -0.016187446
-0.0365916 -0.01029042 -0.018929275 -0.026277596 -0.022328574 0.02615707 -0.024996536 -0.017432483
-0.022776822 -0.023331013 -0.0335231 -0.029473783 -0.034724765 0.0005488046 -0.0344416 -0.0066398084
-0.008646746 -0.02940175 0.0030615828 -0.0056785746 -0.02281862 -0.02463476 -0.008467729 -0.0037081745
00000000: 84e8 dcbc 6b6f b3bc 9315 2d3c f66c e3bb
00000010: 6d7b edbb 75b1 5dbc 6eca f9bc 899b 84bc
00000020: 13e1 15bd 2699 28bc 9111 9bbc 1d44 d7bc
00000030: 6aea b6bc 5a47 d63c 89c5 ccbc 91ce 8ebc
00000040: 7596 babc ae20 bfbc 854f 09bd 0173 f1bc
00000050: 8e3b 0ebd a7dd 0f3a a312 0dbd c092 d9bb
00000060: 15ab 0dbc f0db f0bc d6a4 483b 5613 babb
00000070: 1dee babc d6ce c9bc 3bbc 0abc d804 73bb

base.cnn.7.weight f4 [64, 1440]
0.030860765 0.15635416 0.048622105 -0.07542841 0.006071673 0.091657504 0.090552546 -0.029687822
0.023585007 0.064264126 0.1166817 0.0060920347 -0.04484896 0.0036121781 -0.061493702 0.07693465
-0.011547235 0.07917705 0.0075517236 -0.03621065 0.030777352 -0.007612235 -0.038876336 0.010207163
-0.022234857 -0.10447693 -0.14417562 -0.01696573 -0.030918749 -0.0047725732 0.04751736 -0.014548662
-0.0056258934 -0.06504218 0.02417886 -0.050319627 -0.0010139545 0.030066542 0.14867812 0.032219715
0.007821464 -0.024701448 -0.024830945 -0.055197127 0.0039626514 0.05374389 -0.009630566 0.05027355
0.020234898 0.02871854 -0.033280287 -0.029483166 -0.01608535 0.050188307 0.022601131 -0.033159636
-0.035959642 0.0073537375 0.041216977 -0.004326923 -0.028101092 -0.009086432 0.058536623 -0.023927316
-0.04348986 -4.794887e-05 0.06361676 0.07053333 0.001510003 0.055940192 -0.038126655 0.044993006
0.01223909 -0.016447473 -0.020602945 0.003781813 0.099566296 0.013248646 0.029198198 0.05707234
-0.017311 0.027934194 -0.028912202 -0.118613295 0.027926922 -0.07483787 0.044772398 -0.06492253
-0.019720439 0.024390532 0.020131195 0.012625492 0.018747553 -0.06805649 -0.031678513 -0.042614836
-0.034397367 -0.08040135 0.10110519 -0.094137214 0.083019905 -0.024920667 0.015680319 0.016974242
-0.04046238 0.04409836 -0.012614347 -0.027192611 -0.023193097 -0.04249128 -0.016109584 0.07227186
-0.015514007 -0.013887256 -0.0014896723 -0.008096674 -0.029878864 -0.010523271 -0.01688013 -0.008318545
0.057305876 -0.088174574 0.04448318 -0.048769865 0.074953035 -0.045607187 -0.06308783 0.017780207
0.0129699055 -0.027067564 0.07441725 -0.010480091 0.033956587 0.0512937 -0.010410636 -0.0020804077
-0.13457374 0.02173302 -0.09836097 -0.02676937 0.019744607 -0.05800898 0.06280011 -0.00089149683
-0.09280214 0.04277453 0.009756195 0.11470141 0.069544055 0.0040909676 0.18888249 -0.18342508
0.015859943 0.10238485 -0.00163906 0.014426978 0.14283067 -0.17406678 -0.030039858 0.043861534
-0.030713957 -0.022713972 0.052004825 -0.023007672 -0.026495816 0.014223814 -0.025963627 0.0049127685
-0.021068757 0.033174463 -0.013722467 -0.07187421 -0.02267996 -0.0020709024 -0.01244982 0.03557627
0.028936818 -0.014018462 -0.04215875 0.026204446 0.041101236 -0.08549826 -0.08784305 -0.007749711
-0.005930075 -0.045380227 0.05148351 0.032038987 -0.05739308 -0.11752486 -0.019013155 -0.0040009753
0.019476706 -0.052938014 0.03817589 0.033052675 -0.11637089 -0.028910302 0.03701801 0.025051337
-0.05649522 -0.0005542333 0.08036651 0.045000885 0.0094395485 -0.05593512 0.024945961 0.028653322
-0.020910325 -0.023571923 -0.06254253 0.02419486 0.06119383 0.02432115 -0.028402084 0.021214092
-0.007418047 0.0702823 -0.013445156 -0.03601032 -0.041879874 0.09024986 0.029149849 -0.0832599
0.003553687 0.008324899 0.0013017337 0.060024522 0.0012286963 -0.050442297 -0.09743795 0.031088388
0.01959343 -0.046950005 -0.047972858 -0.0030330585 0.0008621887 0.10389077 -0.08247308 -0.034239754
0.013001833 -0.03357858 0.08788951 -0.021022312 -0.018533014 -0.034033913 0.07341602 0.042869203
0.08900325 -0.065774255 0.036081146 -0.018285288 -0.08517798 -0.13117006 0.02382569 0.049710028
00000000: b7cf fc3c 4e1b 203e f927 473d 367a 9abd
00000010: e2f4 c63b eeb6 bb3d 9d73 b93d e033 f3bc
00000020: 5835 c13c e99c 833d d1f6 ee3d b19f c73b
00000030: 8bb3 37bd 4bba 6c3b d2e0 7bbd ea8f 9d3d
00000040: 9d30 3dbc 9427 a23d 7374 f73b 9e51 14bd
00000050: c920 fc3c 0e70 f9bb cb3c 1fbd f23b 273c
00000060: e025 b6bc 00f8 d5bd c6a2 13be b7fb 8abc
00000070: 5149 fdbc 3f63 9cbb 90a1 423d 835d 6ebc
00000080: 6a59 b8bb d634 85bd bf12 c63c f41b 4ebd
00000090: abe6 84ba 1c4e f63c 143f 183e d2f8 033d
000000a0: 9925 003c b15a cabc 446a cbbc 6216 62bd
000000b0: 21d9 813b 8e22 5c3d 86c9 1dbc a3eb 4d3d
000000c0: a8c3 a53c 2543 eb3c e950 08bd ae86 f1bc
000000d0: 6dc5 83bc 4192 4d3d 0226 b93c 66d2 07bd
000000e0: 6b4a 13bd 9ff7 f03b 22d3 283d dcc8 8dbb
000000f0: 4334 e6bc 42df 14bc 19c4 6f3d 3803 c4bc
00000100: 6c22 32bd b51c 49b8 8149 823d c773 903d
00000110: 4beb c53a 8b21 653d b22a 1cbd 964a 383d
00000120: 7786 483c dabc 86bc 82c7 a8bc 4bd8 773b
00000130: 6ae9 cb3d d910 593c 0f31 ef3c b0c4 693d
00000140: cccf 8dbc 40d6 e43c 48d9 ecbc 87eb f2bd
00000150: 00c7 e43c 9944 99bd 4363 373d 1af6 84bd
00000160: c28c a1bc a7ce c73c 2dea a43c 27db 4e3c
00000170: 7894 993c 3361 8bbd 54c1 01bd e58c 2ebd
00000180: 41e4 0cbd 77a9 a4bd 3d10 cf3d 03cb c0bd
00000190: 5706 aa3d 6d26 ccbc 0374 803c 910d 8b3c
000001a0: e1bb 25bd 7ba0 343d 68ac 4ebc 0ac3 debc
000001b0: 73ff bdbc 560b 2ebd 3ff8 83bc 4503 943d
000001c0: 762e 7ebc 6087 63bc 1c41 c3ba eaa7 04bc
000001d0: 85c4 f4bc cc69 2cbc 3348 8abc 824a 08bc
000001e0: 91b9 6a3d df94 b4bd ff33 363d e9c2 47bd
000001f0: fa80 993d 9ace 3abd 3134 81bd cca7 913c
00000200: ba7f 543c ccbc ddbc 1268 983d b0b4 2bbc
00000210: 1016 0b3d 5819 523d 5f91 2abc 7357 08bb
00000220: b3cd 09be 7209 b23c 7a71 c9bd 704b dbbc
00000230: 71bf a13c d39a 6dbd 589d 803d 57b3 69ba
00000240: 0c0f bebd 5834 2f3d 73d8 1f3c 93e8 ea3d
00000250: 1d6d 8e3d 860d 863b 696a 413e c9d3 3bbe
00000260: b6ec 813c 26af d13d bad5 d6ba 225f 6c3c
00000270: 3442 123e 903e 32be 2616 f6bc 27a8 333d
00000280: d69b fbbc a712 babc 0303 553d 967a bcbc
00000290: c10d d9bc 000b 693c acb1 d4bc 4afb a03b
000002a0: 6398 acbc f2e1 073d 33d4 60bc c932 93bd
000002b0: 53cb b9bc fab7 07bb 54fa 4bbc 6cb8 113d
000002c0: e80c ed3c b1ad 65bc a7ae 2cbd b5aa d63c
000002d0: c559 283d b619 afbd 0fe7 b3bd 4af1 fdbb
000002e0: 1351 c2bb 9ee0 39bd 5fe0 523d 503b 033d
000002f0: 0215 6bbd e0b0 f0bd 7ac1 9bbc 9d1a 83bb
00000300: 9d8d 9f3c 88d5 58bd 525e 1c3d 3e62 073d
00000310: dc53 eebd 4cd5 ecbc 32a0 173d 7638 cd3c
00000320: 8867 67bd f849 11ba 3297 a43d d952 383d
00000330: 56a8 1a3c 391c 65bd 795b cc3c 5fba ea3c
00000340: 214c abbc e819 c1bc 4c16 80bd 4d34 c63c
00000350: 62a6 7a3d 263d c73c 7dab e8bc 2dc9 ad3c
00000360: 1713 f3bb 2bf0 8f3d 1249 5cbc 8f7f 13bd
00000370: 3b8a 2bbd ebd4 b83d aacb ee3c 2b84 aabd
00000380: f9e4 683b 2865 083c ef9e aa3a 46dc 753d
00000390: 350c a13a 959c 4ebd 8c8d c7bd 13ad fe3c
000003a0: 6782 a03c a64e 40bd 307f 44bd 47c6 46bb
000003b0: 8104 623a afc4 d43d a5e7 a8bd fc3e 0cbd
000003c0: a405 553c b189 09bd 6aff b33d fc36 acbc
000003d0: 8cd2 97bc 2567 0bbd 235b 963d 9e97 2f3d
000003e0: 5647 b63d a7b4 86bd d3c9 133d 07cb 95bc
000003f0: cb71 aebd 7251 06be 182e c33c be9c 4b3d

base.cnn.7.bias f4 [64]
-0.022133822 -0.027349243 -0.0063467375 -0.010927563 -0.040227164 -0.025789367 -0.011193127 -0.043076023
-0.029213771 -0.025338799 0.007364801 -0.019546427 -0.0204689 -0.04603673 0.008281756 -0.0564439
-0.0006898926 0.02279218 -0.01730582 -0.00040317187 -0.007749001 -0.03315153 -0.014584307 -0.025931798
0.0074214954 0.0065004607 -0.052614912 -0.020776374 0.0007291409 0.013092589 -0.021737373 -0.021583293
-0.008591692 -0.028528616 -0.0045336797 -0.010780181 0.004518169 -0.0049008806 -0.0395087 -0.043823916
-0.020146914 -0.0035064023 0.007049807 -0.053606614 -0.022904685 0.0070809396 -0.008397067 0.002364494
-0.04251573 -0.0061900527 -0.008184244 -0.010768457 -0.0027808752 -0.022848573 -0.02554106 0.0027932855
-0.0065807686 -0.013784386 -0.01660391 -0.026844326 -0.039050616 -0.0070609394 -0.009628274 -0.0025777775
00000000: fd51 b5bc 850b e0bc 4bf8 cfbb 8509 33bc
00000010: 3dc5 24bd 3944 d3bc 6163 37bc 7c70 30bd
00000020: b851 efbc 5093 cfbc 6e54 f13b d41f a0bc
00000030: 65ae a7bc 0391 3cbd 34b0 073c b831 67bd
00000040: e9d9 34ba aab6 ba3c efc4 8dbc d060 d3b9
00000050: 55eb fdbb e6c9 07bd 04f3 6ebc ec6e d4bc
00000060: 0430 f33b d101 d53b bc82 57bd 3733 aabc
00000070: d123 3f3a 4c82 563c 9312 b2bc 72cf b0bc
00000080: 2bc4 0cbc d8b4 e9bc 438f 94bb 5b9f 30bc
00000090: 260d 943b 9197 a0bb e0d3 21bd b580 33bd
000000a0: 240b a5bc abcb 65bb 1102 e73b 9c92 5bbd
000000b0: 9ba2 bbbc 3a07 e83b da93 09bc a0f5 1a3b
000000c0: f924 2ebd edd5 cabb 3517 06bc 2f6e 30bc
000000d0: 583f 36bb ee2c bbbc 7c3b d1bc 8e0f 373b
000000e0: 7da3 d7bb e8d7 61bc ec04 88bc a2e8 dbbc
000000f0: 8af3 1fbd 745f e7bb e8bf 1dbc eeef 28bb

base.cnn.9.weight f4 [64]
1.0044835 1.0313214 1.0279286 1.0649742 0.94114554 0.9964929 0.98270935 1.0079386
0.97415626 0.97943467 1.0768192 1.0530227 0.9918322 0.99965525 0.93097264 0.969927
1.0000064 1.0560852 0.99534386 1.0536027 0.964541 1.0276191 1.0133733 0.9756291
0.97750115 1.012312 0.9688943 0.9589929 0.9425228 1.0165836 1.0922955 0.92887807
1.0027789 0.9629454 1.0127825 1.0188069 0.95092016 1.0216049 1.006429 1.133518
1.0165235 1.0783224 0.9805427 0.94317126 1.0472889 0.9531091 0.9565951 1.0202137
1.0678797 0.9133412 1.0079955 1.01528 0.9889851 0.95073444 1.0419577 1.0369252
1.0096834 1.048242 1.0060302 1.0582095 1.0067475 1.0106903 0.9617749 1.0498085
00000000: ea92 803f 5702 843f 2a93 833f 1351 883f
00000010: eaee 703f 291a 7f3f d792 7b3f 2204 813f
00000020: 4e62 793f 3bbc 7a3f 36d5 893f 73c9 863f
00000030: b7e8 7d3f 68e9 7f3f 3954 6e3f 234d 783f
00000040: 3600 803f cd2d 873f dbce 7e3f 74dc 863f
00000050: 29ec 763f 0689 833f 37b6 813f d4c2 793f
00000060: 843d 7a3f 7193 813f 7509 783f 8f80 753f
00000070: 2d49 713f 691f 823f 57d0 8b3f f4ca 6d3f
00000080: 0f5b 803f 9783 763f dba2 813f 4468 823f
00000090: 816f 733f f3c3 823f aad2 803f 1e17 913f
000000a0: 711d 823f 7806 8a3f d904 7b3f ac73 713f
000000b0: 900d 863f f5fe 733f 6be3 743f 5d96 823f
000000c0: 48b0 883f bbd0 693f ff05 813f b2f4 813f
000000d0: 212e 7d3f 5563 733f df5e 853f f7b9 843f
000000e0: 4e3d 813f cb2c 863f 99c5 803f 6973 873f
000000f0: 1add 803f 4d5e 813f e136 763f 2060 863f

base.cnn.9.bias f4 [64]
0.008457182 -0.00063819456 -0.029322041 0.008535736 0.100429654 0.0075185015 -0.00036179024 -0.010308717
0.041604213 -0.03209017 -0.01831059 -0.036467813 0.038204014 -0.0115486365 -0.012450304 -0.003190562
-0.008224523 -0.030237375 -0.03367426 -0.044988766 -0.04281608 -0.030361569 0.010315506 0.00744834
0.07946925 0.022422452 0.02980109 0.06079439 0.002910077 -0.02536082 -0.018342782 0.008700274
-0.012204336 0.035364367 -0.057362746 -0.034745757 0.025047863 0.0323006 -0.005299584 -0.040179886
-0.025394496 0.0032907487 0.04168943 0.065892845 0.004391303 0.009333062 0.036174305 -0.024424247
0.037210956 0.103750676 -0.013415525 -0.035800196 -0.047651336 0.024721932 -0.039858248 0.005064656
-0.006429883 -0.008178846 0.0023903782 -0.04558843 -0.009668992 -0.027942026 0.04022148 -0.021440985
00000000: fe8f 0a3c 834c 27ba c734 f0bc 79d9 0b3c
00000010: 10ae cd3d c35d f63b aaae bdb9 e5e5 28bc
00000020: 2e69 2a3d fb70 03bd 1700 96bc 465f 15bd
00000030: d07b 1c3d 7e36 3dbc 5cfc 4bbc bf18 51bb
00000040: 26c0 06bc 5fb4 f7bc 05ee 09bd 2446 38bd
00000050: ea5f 2fbd d3b8 f8bc 5e02 293c 3411 f43b
00000060: c6c0 a23d 4aaf b73c 6a21 f43c 8a03 793d
00000070: feb6 3e3b 7fc1 cfbc 9a43 96bc 988b 0e3c
00000080: b2f4 47bc 3ada 103d 33f5 6abd 9151 0ebd
00000090: 2d31 cd3c a24d 043d 22a8 adbb aa93 24bd
000000a0: 1e08 d0bc 9aa9 573b 89c2 2a3d d4f2 863d
000000b0: ebe4 8f3b b3e9 183c 822b 143d 5c15 c8bc
000000c0: 846a 183d 3c7b d43d cacc 5bbc 3aa3 12bd
000000d0: 0c2e 43bd a685 ca3c 6742 23bd 6af5 a53b
000000e0: c5b1 d2bb 9100 06bc e4a7 1c3b efba 3abd
000000f0: b16a 1ebc ade6 e4bc 47bf 243d 01a5 afbc

base.cnn.10.weight f4 [64, 64]
0.16375628 0.006440859 -0.009264074 -0.056790028 0.12258007 0.26814306 0.024017178 0.015371597
-0.1749254 -0.18007888 -0.17715047 -0.27235284 0.017153937 0.022778222 -0.102591306 -0.10270451
-0.00925328 0.19046772 0.30826128 -0.06579335 0.15534756 -0.0010032494 -0.3274578 -0.3141477
0.06928328 0.23117848 0.1316714 0.05902078 0.10891403 -0.34522054 0.2261997 -0.0634718
0.13367008 -0.08575037 -0.553559 0.19119722 -0.63383424 -0.1875924 -0.092963316 -0.09898666
0.10593957 0.23716031 0.06644664 0.19766727 -0.06665689 0.15326136 0.02179328 0.019800667
0.20057915 -0.16580467 -0.05265766 0.18498933 0.10256814 -0.08982153 0.1629652 0.27821445
-0.091942035 0.016727833 -0.10881851 0.00658987 -0.21961704 0.2724561 0.061638188 0.13979617
0.23207825 0.5091923 -0.11686808 0.18371637 -0.05250176 -0.09738638 0.15012193 -0.4110137
0.061874866 0.0075662234 0.28408685 -0.19866496 -0.22470134 -0.09421806 -0.0029645148 -0.044584595
-0.26165783 0.16717774 -0.032181513 0.35679653 -0.1169045 0.14150384 -0.25998256 -0.069080256
0.38402426 0.019792773 -0.16726428 -0.119248785 -0.06579238 -0.0825618 -0.028388344 0.19522111
-0.09705013 -0.31959504 -0.053957704 0.040300738 -0.0361504 -0.13988107 -0.1303538 0.25418139
-0.25009686 -0.00735218 -0.063665345 -0.02252835 -0.023728894 0.0015214455 -0.22855824 -0.04271796
-0.14685063 -0.0055931034 0.14653052 -0.021630252 0.20285617 0.105652876 -0.16243994 -0.4532202
-0.031123409 -0.33260658 -0.06665484 -0.034175985 -0.15340896 0.17975564 0.12659405 -0.037864834
-0.26682606 -0.23410547 0.10260322 -0.33336407 -0.14557523 0.24506819 0.16314296 0.04573381
0.26789176 0.1345083 0.19723241 0.26491 0.18097512 0.041461166 -0.028215298 -0.11155935
-0.04290119 0.41608474 -0.02901186 -0.1300289 0.073567405 -0.12221412 -0.38485575 0.1012338
0.2237262 -0.35022262 -0.034412 -0.30176008 -0.36964065 -0.0019232006 -0.035847764 0.17960481
-0.0025940854 0.012456855 -0.07868271 0.06869071 -0.0664883 -0.4372367 -0.1269546 0.047366552
-0.049752895 -0.013454415 0.23002067 -0.07055943 -0.35445103 0.052888855 -0.094686866 -0.03276469
-0.14200817 -0.14784269 -0.10497084 -0.15777792 0.1146518 -0.05230566 0.05611522 0.10469769
-0.09856207 -0.07978144 0.11675584 0.2012562 0.29997498 -0.22930863 -0.13143402 0.013096182
0.04368877 -0.038549703 -0.22104117 0.030645967 0.054274783 0.24306874 -0.16756292 0.24133691
-0.2623206 0.100304864 -0.042179495 0.22062913 0.11693924 0.2542789 -0.09202094 -0.3462316
-0.029606927 -0.24739006 0.10261832 -0.134684 -0.2572032 0.04038927 0.21703869 -0.3013036
0.13298215 -0.2169088 -0.18115965 -0.12872218 -0.0037762297 -0.070888706 0.1442498 0.025795422
0.17538437 0.15052196 0.1491318 0.24660084 -0.18954064 -0.19286178 -0.05188835 0.42925408
0.09153341 -0.002268558 -0.08509369 0.22976588 0.17160366 -0.04753789 -0.11585593 0.089442454
-0.19254102 0.15406889 0.30506158 -0.11044288 0.17802283 0.13610755 0.04624693 -0.037718955
-0.22843032 -0.073921636 0.3931133 0.22916931 -0.124385215 0.0014651625 -0.004163932 0.027414879
00000000: baaf 273e d70d d33b 58c8 17bc a99c 68bd
00000010: 420b fb3d 0c4a 893e acbf c43c 27d9 7b3c
00000020: a51f 33be 9966 38be ef66 35be d571 8bbe
00000030: 6a86 8c3c 6599 ba3c 641b d2bd be56 d2bd
00000040: 129b 17bc f809 433e 6cd4 9d3e aabe 86bd
00000050: 6e13 1f3e 777f 83ba 8ca8 a7be f8d7 a0be
00000060: 64e4 8d3d 0dba 6c3e ded4 063e c6bf 713d
00000070: 520e df3d bfc0 b0be e5a0 673e 81fd 81bd
00000080: cfe0 083e e49d afbd 0bb6 0dbf 34c9 433e
00000090: f642 22bf 3918 40be 8d63 bebd 85b9 cabd
000000a0: d8f6 d83d 27da 723e 2d15 883d 4a69 4a3e
000000b0: 6883 88bd 8cf0 1c3e d287 b23c 0235 a23c
000000c0: 9f64 4d3e b3c8 29be 8faf 57bd d86d 3d3e
000000d0: 3f0f d23d 5af4 b7bd 59e0 263e 2072 8e3e
000000e0: 1b4c bcbd cf08 893c 3ddc debd d6ef d73b
000000f0: 4ae3 60be 5e7f 8b3e 5378 7c3d ba26 0f3e
00000100: eca5 6d3e 6d5a 023f 8858 efbd 2520 3c3e
00000110: 160c 57bd 8372 c7bd 90b9 193e 6370 d2be
00000120: 8070 7d3d 15ee f73b d573 913e d46e 4bbe
00000130: 1c18 66be 66f5 c0bd 4e48 42bb 569e 36bd
00000140: 04f8 85be a430 2b3e c3d0 03bd 09ae b63e
00000150: a06b efbd 62e6 103e 6f1c 85be f379 8dbd
00000160: d49e c43e 7424 a23c 5447 2bbe b538 f4bd
00000170: 28be 86bd 2916 a9bd ac8e e8bc 0be8 473e
00000180: 38c2 c6bd f6a1 a3be c102 5dbd 6312 253d
00000190: 7112 14bd fc3c 0fbe 777b 05be 1024 823e
000001a0: b20c 80be 8eea f0bb fa62 82bd 608d b8bc
000001b0: 1963 c2bc 3d6b c73a 2c0b 6abe 07f9 2ebd
000001c0: 0360 16be 5a46 b7bb 190c 163e ed31 b1bc
000001d0: 87b9 4f3e 8960 d83d a856 26be 7a0c e8be
000001e0: 85f6 febc 694b aabe 5582 88bd 1efc 0bbd
000001f0: 3d17 1dbe dd11 383e dfa1 013e 2818 1bbd
00000200: 6d9d 88be 58b9 6fbe a321 d23d b2ae aabe
00000210: ac11 15be 28f3 7a3e f30e 273e 6053 3b3d
00000220: 1c29 893e 8bbc 093e 4bf7 493e 49a2 873e
00000230: 8b51 393e 2fd3 293d c523 e7bc 3a79 e4bd
00000240: 29b9 2fbd 0f09 d53e 48aa edbc 4c26 05be
00000250: 82aa 963d 664b fabd d00b c5be ab53 cf3d
00000260: 7b18 653e 6150 b3be 99f3 0cbd 4c80 9abe
00000270: 8a41 bdbe e713 fcba 1bd5 12bd 53ea 373e
00000280: 8801 2abb d617 4c3c 6724 a1bd b7ad 8c3d
00000290: 052b 88bd 7ddd dfbe 6300 02be 6e03 423d
000002a0: b1c9 4bbd e86f 5cbc 8a8a 6b3e 7681 90bd
000002b0: 9b7a b5be fca1 583d 30eb c1bd 4534 06bd
000002c0: 976a 11be 1364 17be f4fa d6bd 8990 21be
000002d0: 90ce ea3d 763e 56bd 13d9 653d be6b d63d
000002e0: e9da c9bd 7464 a3bd b01d ef3d 1b16 4e3e
000002f0: 5296 993e e2cf 6abe a496 06be 5e91 563c
00000300: fff2 323d 4be6 1dbd 9e58 62be 400d fb3c
00000310: 3c4f 5e3d 03e7 783e 9d95 2bbe 0621 773e
00000320: e34e 86be a36c cd3d 68c4 2cbd 9aec 613e
00000330: d77d ef3d d830 823e 7975 bcbd 4545 b1be
00000340: 3a8a f2bc d253 7dbe 8e29 d23d 9aea 09be
00000350: 23b0 83be 386f 253d 643f 5e3e 7744 9abe
00000360: 792c 083e 571d 5ebe ea81 39be bfcf 03be
00000370: 9f7a 77bb 192e 91bd 38b6 133e ec50 d33c
00000380: f697 333e 6e22 1a3e 02b6 183e ee84 7c3e
00000390: f116 42be 8f7d 45be e188 54bd 31c7 db3e
000003a0: de75 bb3d 16ac 14bb 9a45 aebd bf47 6b3e
000003b0: dfb8 2f3e 17b7 42bd e045 edbd 9b2d b73d
000003c0: 7929 45be 3cc4 1d3e 0831 9c3e e02f e2bd
000003d0: 9e4b 363e c75f 0b3e 6c6d 3d3d 317f 1abd
000003e0: a3e9 69be 3a64 97bd 2546 c93e 5cab 6a3e
000003f0: adbd febd b20a c03a 9871 88bb 2b95 e03c

base.cnn.10.bias f4 [64]
0.0087768175 0.0074535618 -0.046389926 -0.017227937 -0.011757923 0.055517938 -0.022874465 -0.00081160496
-0.011619432 -0.016602244 0.04989128 -0.041013073 -0.029286562 -0.05934544 -0.01571419 -0.018982237
-0.010251511 -0.041976117 0.013774644 0.037609152 -0.042967115 -0.0014745597 0.011871545 -0.026802303
-0.06064913 -0.036437 -0.06871138 -0.10137121 -0.04094394 -0.02795585 0.021043336 -0.095701404
-0.0076454272 -0.06057732 0.09008206 -0.01948006 0.023298282 -0.040943004 -0.0030963854 -0.090042956
0.04845518 -0.05282359 -0.044341143 -0.00044050746 -0.01169803 -0.0082577905 -0.015938874 0.027034285
-0.016827721 -0.07536016 -0.04593518 -0.024645163 -0.06444024 -0.007272709 -0.032507744 -0.078389265
-0.07712977 -0.008498381 -0.08686989 -0.018522467 0.017078903 -0.034112107 -0.057217725 -0.031755514
00000000: a4cc 0f3c 023d f43b 5d03 3ebd 9a21 8dbc
00000010: 4ea4 40bc c766 633d 3b63 bbbc e3c1 54ba
00000020: 6e5f 3ebc 6e01 88bc cc5a 4c3d 53fd 27bd
00000030: 5fea efbc 3414 73bd 0cbb 80bc a380 9bbc
00000040: f4f5 27bc 26ef 2bbd 0baf 613c 0e0c 1a3d
00000050: 49fe 2fbd 0346 c1ba de80 423c 8190 dbbc
00000060: 396b 78bd f73e 15bd 8db8 8cbd b59b cfbd
00000070: d5b4 27bd ab03 e5bc 1363 ac3c 19ff c3bd
00000080: 7e86 fabb ed1f 78bd f17c b83d a694 9fbc
00000090: 0adc be3c dab3 27bd baec 4abb 7168 b8bd
000000a0: f078 463d 8c5d 58bd 0f9f 35bd e9f3 e6b9
000000b0: 18a9 3fbc af4b 07bc 3e92 82bc 0177 dd3c
000000c0: 4ada 89bc 6d56 9abd 8726 3cbd a7e4 c9bc
000000d0: 3ff9 83bd e84f eebb d726 05bd 8d8a a0bd
000000e0: 36f6 9dbd cb3c 0bbc d7e8 b1bd 6ebc 97bc
000000f0: 0ee9 8b3c 23b9 0bbd 225d 6abd 1212 02bd

base.cnn.12.weight f4 [64]
1.0163531 0.9612405 0.90201026 0.91815764 0.96499115 1.0314844 0.99373144 0.9581201
1.0238563 1.0544946 1.028212 1.0736725 0.96402955 0.925038 0.97143686 0.995012
1.0897325 0.99981624 1.0319239 1.048551 0.9453668 1.0122974 0.92249084 1.0100069
0.96817106 0.8680846 1.0631138 1.0679297 0.8476058 0.8823843 0.93687 1.0043238
1.0234947 1.0768858 1.0207655 0.9855623 1.0040454 0.9914063 0.98121184 1.0159606
1.0615437 1.0021988 0.9342391 1.1234386 0.91835576 1.0522407 0.95542806 0.99855584
1.1023784 0.9631615 0.9799146 1.0024263 0.9503172 1.0209378 0.94846565 0.82736886
1.0092778 1.0660552 1.0532842 1.0853082 1.0657308 0.9821237 1.0432872 0.94222105
00000000: dc17 823f db13 763f 25ea 663f 610c 6b3f
00000010: a909 773f ae07 843f 2f65 7e3f 5c47 753f
00000020: b90d 833f aef9 863f 739c 833f 1a6e 893f
00000030: a4ca 763f 4acf 6c3f 16b0 783f 1bb9 7e3f
00000040: 5b7c 8b3f f5f3 7f3f 1516 843f eb36 863f
00000050: 8f03 723f f692 813f 5c28 6c3f e847 813f
00000060: 0fda 773f cb3a 5e3f 1d14 883f ecb1 883f
00000070: b2fc 583f f0e3 613f b6d6 6f3f af8d 803f
00000080: e001 833f 65d7 893f 72a8 823f d04d 7c3f
00000090: 8f84 803f cecc 7d3f b330 7b3f ff0a 823f
000000a0: aae0 873f 0d48 803f 4b2a 6f3f d6cc 8f3f
000000b0: 5d19 6b3f d3af 863f ef96 743f 5ba1 7f3f
000000c0: bc1a 8d3f c191 763f afdb 7a3f 814f 803f
000000d0: fd47 733f 17ae 823f a5ce 723f 72ce 533f
000000e0: 0430 813f 7f74 883f 04d2 863f 61eb 8a3f
000000f0: de69 883f 756c 7b3f 6f8a 853f 6635 713f

base.cnn.12.bias f4 [64]
0.016930886 0.037636798 0.029512446 0.048860744 -0.019962478 0.01839928 0.023048712 -0.0017116582
0.0052852794 -0.024009725 0.0474575 -0.084776364 -0.018765429 -0.028907109 -0.018187193 -0.00012435579
0.04339815 -0.06466877 0.015061438 0.004407367 0.042545702 0.049831618 0.018206246 -0.027299184
0.017139098 0.034626774 -0.09413415 -0.04849212 0.11346022 0.016799161 0.090260096 -0.04058543
-0.027056571 -0.030954055 0.1193999 -0.020279514 -0.034231216 0.02011427 0.0121040465 -0.0014266106
0.009689541 0.009514168 0.033017196 -0.024232404 0.021302346 0.028694468 -0.014015192 0.041370787
0.00889556 -0.009387306 -0.011288195 -0.062260836 0.058260694 0.01806188 0.0105417445 0.019090846
-0.053406965 -0.021774782 -0.03775314 0.016504357 -0.030392073 -0.03192205 -0.028006833 -0.03616112
00000000: a4b2 8a3c 0b29 1a3d 16c4 f13c 3422 483d
00000010: 5a88 a3bc 16ba 963c a7d0 bc3c b859 e0ba
00000020: 2330 ad3b 0bb0 c4bc cc62 423d 3b9f adbd
00000030: f5b9 99bc 9ace ecbc 4ffd 94bc 8165 02b9
00000040: 42c2 313d 0f71 84bd 40c4 763c ad6b 903b
00000050: 6744 2e3d 3d1c 4c3d 4425 953c 8aa2 dfbc
00000060: 4b67 8c3c ced4 0d3d 68c9 c0bd ac9f 46bd
00000070: d55d e83d 659e 893c 49da b83d e83c 26bd
00000080: bea5 ddbc 5c93 fdbc ef87 f43d 3921 a6bc
00000090: 0836 0cbd aec6 a43c 0d50 463c 1cfd baba
000000a0: e1c0 1e3c 50e1 1b3c 0a3d 073d 0983 c6bc
000000b0: 4282 ae3c a910 eb3c fa9f 65bc 6a74 293d
000000c0: afbe 113c 37cd 19bc 1ff2 38bc 3805 7fbd
000000d0: c4a2 6e3d 82f6 933c 48b7 2c3c 6864 9c3c
000000e0: 43c1 5abd 0761 b2bc 09a3 1abd 2534 873c
000000f0: ccf8 f8bc b2c0 02bd 966e e5bc af1d 14bd

base.cnn.13.weight f4 [64, 64]
-0.29311872 -0.30896825 -0.11364326 -0.04266411 0.11017574 -0.13787991 0.056298863 0.13324608
0.1890978 -0.00933212 -0.15096126 -0.27252617 0.031931516 0.04987362 -0.0040193615 -0.26963547
-0.023306558 0.14859381 0.2679157 -0.20762727 -0.20525149 -0.10459573 0.11141181 0.09943165
-0.21396416 -0.056693994 -0.2197811 -0.18199877 -0.027235098 -0.037260476 0.37477845 -0.233019
-0.19979678 0.10961795 -0.17744382 0.12350885 0.072805375 0.0168987 -0.12668382 -0.08403106
-0.24604693 0.14312394 0.10193945 0.012869103 -0.39619994 -0.019376587 -0.31078258 0.17091243
0.014164179 -0.41295475 0.05901405 0.16279255 0.14170712 0.18463328 0.06846969 -0.3153166
0.2096456 0.37662765 -0.38149184 0.2800748 0.15574723 -0.27524242 0.22644506 -0.052489705
0.040506106 0.015779622 -0.06482424 0.012539996 -0.08649468 0.016235508 0.133216 0.3065128
0.17905435 0.030936701 -0.11979594 0.09117207 0.18220216 0.14659251 0.07434111 0.30695406
0.073356874 -0.10475077 0.26175964 0.071031414 -0.095078655 0.45137033 -0.11531924 -0.06902775
0.0058225603 -0.03385434 -0.1889516 -0.3058215 -0.3070267 -0.21510373 0.05385287 0.13946673
-0.12212815 0.23594928 0.3401597 -0.22481465 0.18762472 -0.018883975 0.3200286 -0.33619556
0.010946515 -0.023376878 -0.2805082 -0.2354066 0.04522071 0.22347946 0.20417498 -0.035692602
0.091006406 0.0704877 0.054846976 -0.3180437 0.15268308 -0.17256764 0.055048555 -0.104784034
0.11923461 -0.32361758 -0.17274204 0.1574745 -0.3174323 -0.23383287 -0.032379102 0.31931672
-0.07465521 0.00819987 -0.10567268 0.08083647 0.18492033 0.061926745 0.0685838 -0.050828587
0.027750924 -0.2975048 -0.357575 -0.12978113 0.0049514924 -0.2412004 0.023843043 0.13091955
0.17861584 -0.30747288 -0.32746536 -0.0072602644 0.14154166 -0.005472524 -0.17544784 -0.20454098
-0.10689082 0.022406118 -0.09924162 0.07527807 -0.22043486 0.062651485 -0.1607472 0.12039454
-0.15318617 0.06888387 0.21581157 -0.008136737 0.15961939 -0.05303796 -0.0801675 -0.3069548
-0.067999035 -0.12961566 -0.22519359 -0.19291593 0.016404724 0.08663847 -0.24256495 0.041931875
0.27073738 -0.013083388 0.1207068 -0.35042328 -0.26090005 0.3269556 -0.37123063 -0.1401168
0.36783504 0.13923791 0.2888994 0.22698896 -0.0074486397 -0.12140461 0.103287615 0.11013131
-0.047638852 0.27055192 0.3258655 0.041210815 0.02620017 0.30454484 0.13272786 -0.335801
-0.18424973 0.12412752 -0.02214145 -0.13790609 0.12674543 0.21448909 -0.00048012295 -0.19875771
-0.31868833 -0.18515481 0.08007142 0.041861672 0.08266066 0.26716813 0.07591654 0.15367132
0.26408592 -0.17016833 0.28211957 -0.111797 -0.096588105 0.3916685 -0.20137747 -0.3271239
0.3423447 0.12754369 -0.17071986 0.1166042 0.42872652 -0.010157758 0.2911108 -0.25553197
-0.30934608 0.16306485 -0.12801026 0.12133134 -0.047796957 0.14962973 -0.15607053 -0.19522144
0.16677964 -0.13913451 -0.07595051 0.048914455 -0.16370942 -0.09608717 -0.10367477 -0.03311636
0.24955381 -0.13284212 0.1406703 -0.2766025 0.047956694 0.047428153 -0.09264721 0.013465613
00000000: a813 96be 1631 9ebe ccbd e8bd 90c0 2ebd
00000010: d2a3 e13d 6430 0dbe a399 663d a971 083e
00000020: dba2 413e c0e5 18bc 9795 1abe 8d88 8bbe
00000030: 9fca 023d 4848 4c3d d9b4 83bb a90d 8abe
00000040: 65ed bebc fa28 183e 3f2c 893e 3e9c 54be
00000050: 722d 52be 4936 d6bd e02b e43d d2a2 cb3d
00000060: 6c19 5bbe f637 68bd 4c0e 61be e35d 3abe
00000070: 241c dfbc 719e 18bd f6e2 bf3e 889c 6ebe
00000080: 8797 4cbe 607f e03d d5b3 35be 35f2 fc3d
00000090: fc1a 953d 246f 8a3c 67b9 01be 7a18 acbd
000000a0: baf3 7bbe 158f 123e a1c5 d03d eed8 523c
000000b0: b8da cabe a6bb 9ebc e51e 9fbe ab03 2f3e
000000c0: df10 683c ce6e d3be b7b8 713d 17b3 263e
000000d0: ac1b 113e 8210 3d3e d639 8c3d 2d71 a1be
000000e0: 56ad 563e 57d5 c03e e652 c3be f765 8f3e
000000f0: 347c 1f3e 93ec 8cbe 37e1 673e 72ff 56bd
00000100: bbe9 253d 4444 813c 92c2 84bd 8e74 4d3c
00000110: 1f24 b1bd 5400 853c c669 083e 3fef 9c3e
00000120: 065a 373e f76e fd3c 9357 f5bd 6cb8 ba3d
00000130: 3493 3a3e 591c 163e 2740 983d 1529 9d3e
00000140: 213c 963d 9287 d6bd 5c05 863e eb78 913d
00000150: 99b8 c2bd 031a e73e 7e2c ecbd 6c5e 8dbd
00000160: 2dcb be3b d9aa 0abd 877c 41be a394 9cbe
00000170: 9b32 9dbe 2744 5cbe d494 5c3d 5ed0 0e3e
00000180: 531e fabd b09c 713e 6a29 ae3e d035 66be
00000190: b220 403e 91b2 9abc cada a33e d321 acbe
000001a0: 0359 333c de80 bfbc c59e 8fbe 6e0e 71be
000001b0: 5a39 393d cdd7 643e 3f13 513e 6832 12bd
000001c0: 9161 ba3d db5b 903d 39a7 603d a0d6 a2be
000001d0: f458 1c3e 92b5 30be 987a 613d 0399 d6bd
000001e0: 4631 f43d 34b1 a5be 4ae3 30be ff40 213e
000001f0: 7d86 a2be e271 6fbe f39f 04bd 7b7d a33e
00000200: d5e4 98bd bf58 063c eb6a d8bd 978d a53d
00000210: c15b 3d3e e6a6 7d3d aa75 8c3d a331 50bd
00000220: e855 e33c 8d52 98be 1214 b7be 58e5 04be
00000230: 2140 a23b 3dfd 76be 7c52 c33c c60f 063e
00000240: 12e7 363e 166d 9dbe 8aa9 a7be 83e7 edbb
00000250: 4cf0 103e dc52 b3bb 99a8 33be 3173 51be
00000260: 93e9 dabd 098d b73c 313f cbbd 642b 9a3d
00000270: adb9 61be 6c4f 803d ea9a 24be 6a91 f63d
00000280: d6dc 1cbe fd12 8d3d b5fd 5c3e f34f 05bc
00000290: 4473 233e 553e 59bd dc2e a4bd 2e29 9dbe
000002a0: 1443 8bbd f8b9 04be 2699 66be c18b 45be
000002b0: 3363 863c 836f b13d f262 78be c2c0 2b3d
000002c0: 179e 8a3e b55b 56bc 2035 f73d ae6a b3be
000002d0: b194 85be b966 a73e f111 bebe c77a 0fbe
000002e0: e054 bc3e 6294 0e3e 9fea 933e cb6f 683e
000002f0: b813 f4bb fba2 f8bd 7588 d33d 868c e13d
00000300: f520 43bd c885 8a3e d8d7 a63e accc 283d
00000310: bda1 d63c 4ded 9b3e d0e9 073e 1cee abbe
00000320: f6ab 3cbe 9236 fe3d fc61 b5bc 4137 0dbe
00000330: 8ec9 013e 07a3 5b3e 03b9 fbb9 2487 4bbe
00000340: 1e2b a3be 3999 3dbe 7cfc a33d 2577 2b3d
00000350: fe49 a93d 43ca 883e 227a 9b3d 045c 1d3e
00000360: 4536 873e 9b40 2ebe fa71 903e d3f5 e4bd
00000370: fccf c5bd c688 c83e e535 4ebe c97c a7be
00000380: ce47 af3e d09a 023e 30d1 2ebe 2fce ee3d
00000390: 0b82 db3e ba6c 26bc 7a0c 953e 16d5 82be
000003a0: 9c62 9ebe 79fa 263e 1f15 03be 917c f83d
000003b0: bec6 43bd 8938 193e f4d0 1fbe 21e8 47be
000003c0: 48c8 2a3e 4779 0ebe f18b 9bbd 865a 483d
000003d0: 71a3 27be 5ac9 c4bd 7053 d4bd 05a5 07bd
000003e0: 098b 7f3e c407 08be e00b 103e d89e 8dbe
000003f0: 3d6e 443d 0644 423d d2bd bdbd e09e 5c3c
