CRL_human_AI_overcooked/human_models/model_unident_open/actor_best_r8.pt (torch, 590163 bytes, 20 tensors)

base.cnn.0.weight f4 [32, 26, 3, 3]
0	0x3b837a7e	0.004012405
1	0xbe2048d3	-0.1565278
2	0xbe89139e	-0.2677278
3	0x3d6150cf	0.055008706
4	0xbd408a0a	-0.047006644
5	0xbeaa97cc	-0.33318937
6	0x3ec16beb	0.37777647
7	0xbe28e393	-0.16493063
8	0x3e4fccf5	0.20293029
9	0xbd5fc9dc	-0.054635867
10	0xbd39d316	-0.045367323
11	0xbd6191ce	-0.05507069
12	0x3dedcf0a	0.11611755
13	0x3cdda2dd	0.027055198
14	0x3e245f08	0.16051877
15	0xbe718142	-0.23584464
16	0x3db7a8cc	0.08967742
17	0xbe3de2ed	-0.18543597
18	0xbc53326b	-0.012890439
19	0x3e013d23	0.12620978
20	0xbde4049a	-0.1113369
21	0x3e1a9d77	0.1509913
22	0x3e30368e	0.17208311
23	0xbe44800d	-0.19189472
24	0x3d2219ac	0.039575264
25	0xbe0fb80c	-0.14035052
26	0x3df22144	0.11822751
27	0xbe995eb9	-0.2995508
28	0x3b8c5909	0.0042830748
29	0x3e66f479	0.22554196
30	0xbce406a8	-0.027835205
31	0xbe0f3c31	-0.13987805
32	0xbe86600b	-0.2624515
33	0x3d5611e5	0.05226316
34	0xbd17c80d	-0.037056018
35	0xbbadb31f	-0.005300894
36	0x3e71533e	0.2356691
37	0xbd0ff3d2	-0.035144635
38	0xbd848125	-0.06469945
39	0xbd8cfc8a	-0.068841055
40	0xbd9790cf	-0.07400667
41	0xbd8d8f4d	-0.06912098
42	0x3e773467	0.24141084
43	0xbe61e674	-0.22060567
44	0x3df1093c	0.117693394
45	0x3e4e87b3	0.20168953
46	0x3d7bf10d	0.06150918
47	0xbe3c670e	-0.18398687
48	0x3d13d97e	0.03609609
49	0xbd0dff7d	-0.03466748
50	0xbd90e59b	-0.07075044
51	0x3e595db1	0.21227147
52	0x3d919535	0.07108537
53	0x3d92d4fd	0.071695305
54	0x3e09d648	0.13460648
55	0xbe484269	-0.19556583
56	0xbe0c6cdf	-0.13713406
57	0x3d32e6a6	0.043676995
58	0xbdb68879	-0.08912749
59	0x3c13da5b	0.009024228
60	0xbe65d8bb	-0.22445957
61	0xbbf1c814	-0.0073785875
62	0x3d595f16	0.053069197
63	0xbdb82d5b	-0.08993026
64	0xbd7be7a3	-0.061500203
65	0x3e571b31	0.21006466
66	0x3d6f8066	0.05847206
67	0x3e05c043	0.13061623
68	0xbe2e558e	-0.17024824
69	0xbd1b50fe	-0.037919037
70	0x3e38bd78	0.18041027
71	0xbe3823f9	-0.17982472
72	0x3e22408e	0.15844938
73	0x3abdea2f	0.0014489348
74	0xbd4690c7	-0.048477914
75	0xbdbca235	-0.09210626
76	0xbdcb9c01	-0.09941865
77	0x3e3878b1	0.1801479
78	0x3e15010b	0.14551179
79	0xbd200400	-0.039066315
80	0xbe44dc2a	-0.19224611
81	0xbe3ec463	-0.18629603
82	0x3d8ef819	0.069809146
83	0xbe40a24f	-0.18811916
84	0xbe59c07f	-0.21264838
85	0x3e09af4d	0.13445778
86	0x3c30e366	0.0107964035
87	0x3c9f48c6	0.01944388
88	0x3e3b47eb	0.18289153
89	0xbd9db173	-0.076998614
90	0xbd019715	-0.031638224
91	0x3d18088b	0.037117522
92	0x3e2b21f7	0.16712175
93	0x3d71d3ab	0.059039753
94	0x3d724d63	0.059155833
95	0x3de48371	0.11157883
96	0xbe36b850	-0.17843747
97	0x3ce37076	0.027763586
98	0x3e466e93	0.19378118
99	0x3d0b50e9	0.03401271
100	0x3b93ac33	0.0045066117
101	0x3d92a67c	0.071606606
102	0xbd9453e0	-0.072425604
103	0x3b84748d	0.0040422142
104	0x3d9df19e	0.077121004
105	0xbd0cbf4d	-0.034362126
106	0xbdbfac9b	-0.09359094
107	0x3d06b158	0.032883972
108	0xbdfa14a0	-0.12210965
109	0xbc1727be	-0.009225784
110	0xbda77396	-0.08176343
111	0xbbb2865d	-0.0054481463
112	0xbdd71af8	-0.10503191
113	0x3ad81ec3	0.001648866
114	0x3d0e139c	0.03468667
115	0x3d472fb4	0.048629478
116	0x3df458e9	0.11931021
117	0xbd7b5a27	-0.061365273
118	0xbca3dd44	-0.020002969
119	0x3cd28175	0.025696496
120	0xbad54695	-0.0016271645
121	0x3d4f28bc	0.050575957
122	0xbdbcda6a	-0.09221347
123	0x3e43bc41	0.19114782
124	0x3c0c3843	0.008558336
125	0xbd1d4dd2	-0.038404293
126	0xbe3c5648	-0.18392289
127	0x3d788e9c	0.060682878
128	0x3c119dfc	0.008887764
129	0x3ddc325a	0.10751791
130	0x3cb0a4f8	0.021563038
131	0x3df870fb	0.12130924
132	0x3d07b8a1	0.03313506
133	0x3de92f46	0.1138597
134	0x3dca2d7e	0.09871958
135	0x3d215672	0.03938908
136	0x3e3ee293	0.18641119
137	0xbdec7c67	-0.11547165
138	0x3df25220	0.1183207
139	0x3c910963	0.017704671
140	0x3e40fee6	0.18847236
141	0xbceee3a6	-0.029161286
142	0xbd601cfd	-0.054715145
143	0xbd5eaa4b	-0.054361623
144	0x3d81e5fd	0.06342695
145	0xbe24a5db	-0.16078894
146	0xbd2d85b7	-0.04236385
147	0x3dca186e	0.09867941
148	0x3d1f4489	0.03888372
149	0xbe7de61f	-0.24794815
150	0xbe30fa94	-0.17283088
151	0x3e7695ba	0.24080554
152	0xbe1adecc	-0.15124053
153	0x3e1db57f	0.15401267
154	0x3c9b576a	0.01896258
155	0xbc4fceb3	-0.012683558
156	0x3c2e6615	0.010644455
157	0xbd35fdfa	-0.044431664
158	0x3b2f59f7	0.0026756504
159	0x3d3e5d9d	0.046475995
160	0x3e42f91a	0.19040337
161	0xbe43fd66	-0.19139633
162	0xbd6d38e4	-0.057915583
163	0xbd6b571d	-0.057456125
164	0x3d31e887	0.043434646
165	0xbc93bcd3	-0.018034374
166	0x3d430dac	0.04762046
167	0xbd519066	-0.0511631
168	0xbc94e1d6	-0.018174093
169	0xbdb08b06	-0.086202666
170	0x3d4b5386	0.0496402
171	0xbd5b580c	-0.053550765
172	0x3dd18c12	0.102317944
173	0x3c2298ac	0.009924095
174	0x3bcf6dea	0.0063302414
175	0x3de46e32	0.111538306
176	0xbd09ddf0	-0.03365892
177	0xbe926a5b	-0.28596768
178	0x3e4d48d3	0.20047311
179	0xbdd2fcfa	-0.10302158
180	0x3d49edbb	0.049298983
181	0x3d4d739c	0.05015908
182	0xbe49997b	-0.19687454
183	0x3c80b615	0.015711823
184	0x3d8fb41e	0.070167765
185	0x3d4513af	0.048114475
186	0x3e0a3204	0.13495642
187	0xbdff40df	-0.12463545
188	0x3e2f7f0a	0.17138305
189	0x3e258ce4	0.16167027
190	0x3d53768a	0.05162672
191	0xbd48bfd9	-0.049011085
192	0xbd9b4110	-0.07580769
193	0x3db6a3d4	0.089179665
194	0x3d830351	0.06397117
195	0x3dbe1ca7	0.09282809
196	0xbd8b9c7e	-0.06816958
197	0xbd955ccc	-0.0729309
198	0xbca20afd	-0.01978063
199	0xbe22c707	-0.15896235
200	0xbc17171a	-0.009221816
201	0x3ebf3c7e	0.3735084
202	0x3debfe9c	0.11523172
203	0xbe44a868	-0.19204867
204	0xbe9731d2	-0.29530197
205	0xbddeaaa5	-0.108723916
206	0x3d5b139e	0.053485505
207	0xbe937ed7	-0.2880771
208	0x3c2154fd	0.009846923
209	0xbe2a783f	-0.16647433
210	0xbdf8308c	-0.121186346
211	0xbd2c82bb	-0.04211686
212	0xbdc46b20	-0.09590745
213	0xbe2be439	-0.16786279
214	0xbcb62797	-0.022235675
215	0xbec91eec	-0.39281404
216	0xbd7573ab	-0.059924763
217	0xbe02413f	-0.12720202
218	0xbe48fdab	-0.19628017
219	0xbd9190d3	-0.07107701
220	0xbeafa0d4	-0.3430239
221	0x3d8875e3	0.0666311
222	0xbdf470d2	-0.11935581
223	0xbe497bf9	-0.19676198
224	0x3d874434	0.066048056
225	0x3cda04d6	0.026613634
226	0x3daa85ee	0.08326326
227	0xbd14e668	-0.036352545
228	0xbe8126d0	-0.25224924
229	0x3e0c17fd	0.13681026
230	0x3d8bbae9	0.0682276
231	0x3c6be807	0.014398581
232	0x3c8b9d31	0.017042728
233	0xbd612542	-0.054967172
234	0x3da74332	0.08167113
235	0xbddd547a	-0.10807128
236	0xbc3a59b0	-0.011373922
237	0x3d681717	0.056662645
238	0xbe5c288c	-0.21499842
239	0x3d741bf0	0.059596956
240	0x3e82dbdc	0.25558364
241	0x3e2aa978	0.1666621
242	0x3e7018b7	0.23446928
243	0xbdd59dd4	-0.10430494
244	0xbdb1ac9f	-0.08675503
245	0xbd8feb99	-0.070273586
246	0x3d61d472	0.055134244
247	0xbe4eecb6	-0.20207486
248	0xbc94a516	-0.018145125
249	0x3cffe6f3	0.031238055
250	0x3ddb698b	0.1071349
251	0xbd0acfa3	-0.033889424
252	0x3cd72c4d	0.026266241
253	0x3e1f9bfb	0.15586846
254	0x3de13cde	0.109979376
255	0x3e805636	0.25065774

base.cnn.0.bias f4 [32]
0	0x3c1bf7a8	0.009519495
1	0xbd37cc1a	-0.04487238
2	0xbd0c1618	-0.034200758
3	0xbd9b511e	-0.07583831
4	0xbd1160ab	-0.03549258
5	0xbdc029dc	-0.09382984
6	0xbc296b41	-0.010340513
7	0xbce7550b	-0.028238794
8	0xbd7d402e	-0.061828785
9	0xbdddf60b	-0.108379446
10	0xbd3642ba	-0.04449723
11	0xbdbcf761	-0.09226871
12	0xbdc6eba6	-0.09712915
13	0xbdd89b23	-0.10576465
14	0xbd3e5072	-0.046463437
15	0xbdb1f7ae	-0.08689819
16	0xbd0aa3ec	-0.033847734
17	0x3893bdd8	7.0448674e-05
18	0xbd7e3b9f	-0.062068578
19	0xbc8bd8ca	-0.017071147
20	0xbd94bafc	-0.07262227
21	0xbd296ccb	-0.04136352
22	0xbd9c8ac6	-0.076436564
23	0xbc362d49	-0.011119195
24	0xbcdd6356	-0.027024906
25	0xbd002f15	-0.0312949
26	0xbcc16666	-0.023608398
27	0x3b4b4c18	0.0031020697
28	0xbd68587f	-0.05672502
29	0xbd923d3b	-0.07140585
30	0x3d0ea14a	0.034821786
31	0x3d1ed21f	0.038774606

base.cnn.2.weight f4 [64, 32, 3, 3]
0	0xbd214f57	-0.039382305
1	0x3d3906fd	0.04517268
2	0xbc923721	-0.017848553
3	0xbe4d2cd5	-0.20036633
4	0xbd01f397	-0.031726446
5	0x3d0411ae	0.032243423
6	0xbe22d455	-0.1590131
7	0x3c8296fa	0.015941132
8	0x395d042d	0.00021077758
9	0xbc76b220	-0.015057117
10	0x3e857ad6	0.2607028
11	0xbe5cf03f	-0.21576022
12	0x3e12690b	0.14297883
13	0xbd049af4	-0.032374337
14	0xbd15f119	-0.03660688
15	0xb8a54fba	-7.882663e-05
16	0xbca32772	-0.01991627
17	0x3c5e96f8	0.013585798
18	0x3d6911cc	0.056901738
19	0x3c96c507	0.018404497
20	0xbe0a04f5	-0.13478453
21	0x3d3ceee0	0.046126246
22	0x3db104ef	0.08643519
23	0x3d37505e	0.04475438
24	0x3c7216e8	0.014775969
25	0x3d172dac	0.03690879
26	0x3df07478	0.11740965
27	0x3c8da02a	0.017288286
28	0xbc7a26d8	-0.01526805
29	0x3d030d1c	0.031994924
30	0xbe2240c3	-0.15845017
31	0xbdb2215e	-0.086977705
32	0xbda24bff	-0.07924651
33	0xbdebb404	-0.11508945
34	0xbdd4b97f	-0.10386943
35	0x3c1a2131	0.0094073275
36	0x3bcf0416	0.0063176258
37	0x3d75a32e	0.059970073
38	0xbdd08e52	-0.101833954
39	0x3dea96e2	0.1145456
40	0x3e2232c2	0.15839675
41	0xbd568c19	-0.0523797
42	0x3cf2b91f	0.029629288
43	0x3cc7fe91	0.024413379
44	0xbdd27870	-0.10276878
45	0xbd38eacc	-0.045145795
46	0x3c946f7f	0.018119572
47	0x3d8f7c6d	0.07006154
48	0xbb88c0c7	-0.0041733715
49	0x3e030b9b	0.12797396
50	0x3e172c4d	0.14762993
51	0xbd05cc26	-0.032665394
52	0x3d91771e	0.07102798
53	0xbc79dfae	-0.015251083
54	0xbc14e134	-0.009086896
55	0x3c97f24d	0.018548155
56	0x3bdc5cdb	0.0067249364
57	0xbe43e06c	-0.19128579
58	0x3d1840f8	0.037171334
59	0xbd5b762c	-0.053579494
60	0xbe734fee	-0.2376096
61	0x3ddd23c6	0.10797839
62	0xbd933ea7	-0.07189684
63	0x3cd23e2f	0.025664417
64	0xbd8bd28a	-0.068272665
65	0xbe523e39	-0.20531549
66	0xbe2cb449	-0.16865648
67	0xbd3d52fe	-0.046221726
68	0x3d249471	0.040180627
69	0xbd74cf7f	-0.059768196
70	0x3cf4f96b	0.029904088
71	0x3e111a6b	0.14170234
72	0xbd5a72b1	-0.053332034
73	0xbb48d82e	-0.0030646431
74	0x3c4106aa	0.011781374
75	0x3dc15c45	0.09441427
76	0xb8805113	-6.118617e-05
77	0xbd38054e	-0.044926934
78	0x3d1886f6	0.037238084
79	0x3dbcdf8a	0.09222324
80	0xbd3ede3c	-0.046598658
81	0xbd2076a8	-0.03917566
82	0x3cd3a1fa	0.025834072
83	0x3dbd1f81	0.092345245
84	0xbca6aed4	-0.020347036
85	0xbb0758b1	-0.002065223
86	0xbe307fc0	-0.17236233
87	0xbcbd6975	-0.023121575
88	0x3d99b920	0.07506013
89	0xbdfd2417	-0.12360399
90	0xbe98d0f4	-0.2984692
91	0xbc7353be	-0.014851509
92	0xbd3274db	-0.043568473
93	0xbd4bdbeb	-0.049770277
94	0xbd27ab75	-0.040935
95	0x3e0324fd	0.12807079
96	0x3dbb7509	0.09153182
97	0xbdc8cb8c	-0.098044485
98	0xbe10df27	-0.14147626
99	0xbe02f362	-0.12788156
100	0xbd26e003	-0.040740978
101	0x3cd9777e	0.026546236
102	0xbdd432fb	-0.10361286
103	0xbc4d5cf0	-0.012534365
104	0x3d5f185c	0.05446659
105	0xbde130ce	-0.10995637
106	0xbc0c33dc	-0.008557286
107	0x3e463582	0.19356349
108	0xbe2de075	-0.16980155
109	0x3d2d4fe3	0.042312514
110	0x3d38c9d1	0.045114342
111	0x3bceead4	0.006314615
112	0x3c325b3e	0.010886012
113	0xbbc7c283	-0.0060961857
114	0xbabdc143	-0.0014477152
115	0x3bc2becf	0.0059431563
116	0xbc0b450d	-0.00850035
117	0x3ddc61b0	0.1076082
118	0xbd58b67e	-0.052908413
119	0x3e3c487a	0.18387023
120	0x3e10b168	0.14130175
121	0x3c491772	0.012273656
122	0x3d8b22fe	0.067937836
123	0x3dc2ba7a	0.09508224
124	0xbe15ec0c	-0.14640826
125	0x3d2f92c6	0.042864583
126	0xbd0407fe	-0.032234184
127	0xbe3aaccf	-0.18229984
128	0x3e079c48	0.1324321
129	0x3e04775b	0.12936155
130	0xbe10d30a	-0.14143005
131	0xbdcdf3ec	-0.1005629
132	0x3c189e95	0.009315153
133	0x3cc8a71c	0.024493746
134	0xbda1f385	-0.07907776
135	0xbd9e65ec	-0.07734284
136	0x3da7e326	0.08197622
137	0x3dff6085	0.124695815
138	0xbd2bd8a0	-0.041954637
139	0xbc79ea7a	-0.0152536575
140	0x3b5b1773	0.0033430725
141	0x3df326bd	0.11872623
142	0x3d8aeddb	0.067836486
143	0xbe716b7b	-0.23576157
144	0x3dd76d2e	0.10518871
145	0xbdf45550	-0.119303346
146	0xbcebacd8	-0.028768942
147	0xbcf70265	-0.030152509
148	0xbd8a69f8	-0.06758493
149	0x3e26694d	0.16251107
150	0xbd42282d	-0.047401596
151	0x3d8fd188	0.07022387
152	0x3db320df	0.08746504
153	0x3cd69dd0	0.026198298
154	0x3e0d0b5d	0.13773866
155	0x3d4c4c22	0.049877293
156	0x3dffe48e	0.12494765
157	0x3e24920a	0.16071334
158	0xbe04b02b	-0.12957828
159	0x3cfc5f99	0.030807303
160	0xbce9382f	-0.028469173
161	0x3cf5d828	0.030010298
162	0x3e821c1c	0.2541207
163	0xbda4b8ca	-0.08043058
164	0x3b77a4af	0.0037787368
165	0x3d0196f4	0.0316381
166	0xbd4d0310	-0.05005175
167	0xbcdb5cf1	-0.026777716
168	0xbc4cce70	-0.01250039
169	0xbd3b7d50	-0.045773804
170	0xbcb42528	-0.021990374
171	0xbe0495ad	-0.12947722
172	0xbddda324	-0.10822132
173	0x3e23d046	0.15997419
174	0xbd1cd398	-0.03828773
175	0xbc760d68	-0.015017845
176	0xbe84cbb2	-0.25936657
177	0x3e74ea28	0.23917449
178	0xbe149a9d	-0.14512105
179	0xbe2c90a9	-0.16852058
180	0xbe07e87f	-0.13272284
181	0xbd89d1cb	-0.06729468
182	0xbd3ef349	-0.046618734
183	0xbda6864a	-0.08131082
184	0x3db09019	0.086212344
185	0xbe1acacc	-0.15116423
186	0x3e0858c7	0.13315116
187	0xbdcc4a66	-0.09975128
188	0xbdc1321e	-0.09433387
189	0xbc9fd98f	-0.01951292
190	0x3e0941dd	0.13404031
191	0x3d90a000	0.070617676
192	0xbe28c884	-0.1648274
193	0x3d73e3eb	0.05954353
194	0x3cc67ac1	0.024228455
195	0x3ddf3fbe	0.1090083
196	0xbda4c2a8	-0.0804494
197	0x3ca6b169	0.020348268
198	0x3e304642	0.17214301
199	0x3bc91e00	0.0061376095
200	0xbe490aec	-0.19633073
201	0xbdb53d43	-0.08849575
202	0x3e4bd8dd	0.19906946
203	0xbda8b255	-0.08237139
204	0xbd262816	-0.040565573
205	0x3dae9fb2	0.08526553
206	0x3c759074	0.014988054
207	0x3dc26c44	0.09493306
208	0xbd810c8e	-0.06301223
209	0x3c9faece	0.019492533
210	0x3c08f077	0.008358113
211	0xbc861354	-0.016366638
212	0xbe1cc96d	-0.15311213
213	0x3d012ceb	0.031536978
214	0x3db86617	0.09003847
215	0xbd9f1679	-0.07767958
216	0x3dc249b1	0.09486712
217	0x3d0e5fd5	0.03475936
218	0xbd198bc8	-0.03748682
219	0x3ab0a273	0.0013476148
220	0xbd8ce3ef	-0.068794124
221	0x3db8038b	0.08985051
222	0xbd83b914	-0.06431785
223	0xbd98b7d9	-0.07456941
224	0x3d78dec8	0.060759336
225	0xbe07bbb8	-0.13255203
226	0xbc7202b0	-0.014771149
227	0x3b59fc91	0.0033262114
228	0x3aa24c8a	0.001238243
229	0xbdb39272	-0.087681666
230	0x3e6c4653	0.23073702
231	0xbd992c19	-0.07479114
232	0x3d584756	0.052802406
233	0xbde3b1af	-0.11117875
234	0x3de98232	0.11401786
235	0xbd115389	-0.035480056
236	0xbe1c3086	-0.15252885
237	0x3e0a4b41	0.1350527
238	0xbe071dae	-0.13194916
239	0x3dcfb0a6	0.10141115
240	0xbd5a1739	-0.053244803
241	0xbda69943	-0.08134701
242	0xbe3df0a0	-0.18548822
243	0xbdd17a5c	-0.10228416
244	0x3cdd4cd2	0.02701417
245	0xbdaa5c7c	-0.08318421
246	0x3d7b384e	0.061332993
247	0x3e1c1b75	0.15244849
248	0xbc17f8bd	-0.009275612
249	0x3d4922e1	0.04910553
250	0x3db7338d	0.089453794
251	0x3d321796	0.043479525
252	0xbb8e3d3c	-0.004340796
253	0xbd2efbc7	-0.042720582
254	0x3daf372e	0.085554466
255	0xbd8d27c9	-0.06892354

base.cnn.2.bias f4 [64]
0	0xbccf9e70	-0.025344104
1	0xbdc25c8f	-0.094903104
2	0xbd89ede1	-0.06734825
3	0xbda70371	-0.08154953
4	0x3cdcefd4	0.026969828
5	0xbb8a6d7d	-0.004224478
6	0x3b6aa1ef	0.0035802086
7	0x3d026d4c	0.031842515
8	0xbcbe3114	-0.023216762
9	0xbd0d888d	-0.034554053
10	0xbd956885	-0.07295326
11	0xbcb0c01a	-0.021575976
12	0xbd04546f	-0.032307085
13	0xbd8f4c5a	-0.06996985
14	0x3c36b619	0.011151814
15	0xbcfc2b03	-0.030782228
16	0x3d42346f	0.047413286
17	0xbd335e4a	-0.043791093
18	0xbd3b075b	-0.04566131
19	0xbd3bcfcb	-0.045852464
20	0xbd772551	-0.060338322
21	0xbb40b51e	-0.002940483
22	0xbb150dbf	-0.002274379
23	0xbd7006e0	-0.058600307
24	0x3b9e5792	0.0048322165
25	0xbdbb339e	-0.091407046
26	0xbcf83e14	-0.030303039
27	0xbc19730e	-0.00936581
28	0xbd897a53	-0.067127846
29	0xbc8cc2e3	-0.017182773
30	0xbd0131dc	-0.03154169
31	0xbdbb08d4	-0.09132543
32	0xbc221bbb	-0.009894307
33	0xbd73a18e	-0.059480242
34	0xbd44b362	-0.048022635
35	0xbd0e8ad7	-0.034800377
36	0xbd1bf6f5	-0.038077313
37	0xbce0a19a	-0.027420808
38	0x3c650c58	0.013979994
39	0x3c7d7a19	0.015471005
40	0xbc9bfd82	-0.01904178
41	0xbbbacc0b	-0.0057005933
42	0xbc06afc2	-0.008220615
43	0xbd7605b5	-0.060064036
44	0x3c969903	0.018383509
45	0xbbe1d12d	-0.006891391
46	0xbd0016b6	-0.03127166
47	0x3c84a9e7	0.016194297
48	0xbd7fb727	-0.062430527
49	0xbd31d0c1	-0.043411974
50	0xbd3d86ed	-0.046271253
51	0xbd01b80f	-0.031669673
52	0xbc1ad405	-0.009449963
53	0xbd0e95a9	-0.034810696
54	0x3d07ee7d	0.033186425
55	0xbc93a72e	-0.018024053
56	0xbc7a4c13	-0.015276927
57	0xbd287850	-0.041130364
58	0x3d1431b3	0.03618021
59	0x3b871229	0.004122038
60	0x3c198b01	0.00937152
61	0xbae7fa5f	-0.0017698518
62	0xbd6eb3fa	-0.058277108
63	0x3ba7c6ff	0.0051201577

base.cnn.4.weight f4 [32, 64, 3, 3]
0	0xbc4fa679	-0.0126739675
1	0x3de30f02	0.11086847
2	0xbdca1602	-0.09867479
3	0x3d8c58ee	0.068528995
4	0x3dfa0fd4	0.1221005
5	0x3ca1127e	0.019662138
6	0x3cd46717	0.025928063
7	0x3d1313d5	0.035907585
8	0xbdb62187	-0.088931136
9	0x3d72f8c6	0.05931928
10	0x3b8323b4	0.004002059
11	0x3df3b939	0.11900563
12	0xbb650c9d	-0.0034950145
13	0xbdb19b0b	-0.0867215
14	0x3dbaa391	0.09113229
15	0x3c6f803c	0.014617976
16	0xbe08ee93	-0.13372259
17	0x3bb00743	0.0053719594
18	0xbcdef6ad	-0.027217234
19	0xbdfd4c25	-0.12368039
20	0xbd130637	-0.0358946
21	0xbce2b0b6	-0.027672153
22	0x3e0541ac	0.13013333
23	0xbccbccf5	-0.024878005
24	0x3da8824f	0.082279794
25	0x3d40ff1a	0.047118284
26	0xbc693a62	-0.014235111
27	0xbdb96d45	-0.09054045
28	0xbe620a5a	-0.22074261
29	0xbe0677b2	-0.13131598
30	0x3da8f78e	0.08250342
31	0xbd94c1de	-0.0726354
32	0xbdfedf67	-0.12444954
33	0x3a9eb947	0.001210966
34	0x3daf3876	0.08555691
35	0xbd835a87	-0.06413751
36	0x3df098fa	0.11747928
37	0xbc99266c	-0.018695079
38	0x3d2a6fbd	0.04161047
39	0x3e6de76b	0.2323281
40	0x3c1a8a03	0.009432319
41	0xbde1f16c	-0.11032376
42	0xbd56ac92	-0.05241067
43	0xbcca6dad	-0.0247105
44	0x3ce1b6d5	0.027553001
45	0xbca837be	-0.020534392
46	0x3db89355	0.09012476
47	0x3d8436d8	0.06455773
48	0x3be8206e	0.007083944
49	0xb7db5be7	-2.614963e-05
50	0xbd87dfed	-0.06634507
51	0x3cb6c19d	0.022309119
52	0xbdec9c56	-0.11553256
53	0x3daee1bb	0.085391484
54	0x3d010c11	0.031505648
55	0xbe483f4b	-0.19555394
56	0xbe88a35b	-0.2668713
57	0xbd096af5	-0.033549268
58	0x3e0cfa4e	0.13767359
59	0xbd1047ab	-0.035224598
60	0xbd989747	-0.07450729
61	0x3d8f5676	0.06998913
62	0x3de13801	0.1099701
63	0xbe1e705b	-0.15472548
64	0xbda560b8	-0.08075088
65	0x3d0e3a8a	0.034723796
66	0xbcc67b04	-0.02422858
67	0xbc9afb11	-0.018918546
68	0xbe0f738c	-0.14008921
69	0xbdbbcffe	-0.09170531
70	0x3d329c56	0.043606125
71	0xbe035383	-0.12824826
72	0xbc1e3081	-0.009655119
73	0xbd75789a	-0.059929468
74	0xbd7fffb1	-0.062499706
75	0xbb29681e	-0.0025849412
76	0x3d61b83f	0.05510735
77	0xbcdb1deb	-0.026747664
78	0xbc5e33f3	-0.01356219
79	0xbc088b35	-0.008333971
80	0x3dd7fb65	0.105459966
81	0xbc8f2f2b	-0.017478546
82	0x3d02c352	0.031924553
83	0xbde053ad	-0.1095346
84	0xbe0aff3b	-0.13573925
85	0x3d9f4445	0.07776693
86	0xbd3a391e	-0.045464627
87	0x3cdd4327	0.02700956
88	0xbd9e7a0f	-0.077381246
89	0x3dec1e6f	0.11529242
90	0xbc6c3057	-0.014415822
91	0xbde6facf	-0.11278307
92	0x3d11ea96	0.03562411
93	0x3c9d4eea	0.019202668
94	0xbd16ddad	-0.0368325
95	0x3e47c1bc	0.19507498
96	0x3d77207d	0.060333718
97	0xbd305f4f	-0.043059643
98	0x3c8ab078	0.01692985
99	0x3d25cfa0	0.04048121
100	0xbe2a9615	-0.16658814
101	0xbd946e0a	-0.07247551
102	0xbd8d809f	-0.06909298
103	0x3d53f104	0.051743522
104	0x37b506bd	2.158002e-05
105	0x3ca2b896	0.019863408
106	0xbdf27009	-0.11837775
107	0xbdd201ba	-0.102542356
108	0xbcdde5a1	-0.027087035
109	0xbc6ee49b	-0.014580871
110	0xbdd71cf1	-0.10503567
111	0x3c1971b0	0.009365484
112	0xbe176833	-0.14785843
113	0xbc072c1f	-0.008250265
114	0x3c08742b	0.008328478
115	0xbd217bdb	-0.03942476
116	0xbc652cff	-0.013987779
117	0x3cbafbe8	0.022825196
118	0xbc456bef	-0.012049659
119	0xbd4b044d	-0.04956465
120	0x3d34560f	0.044027384
121	0xbc93e956	-0.0180556
122	0x3e269fd5	0.16271909
123	0x3c33827c	0.010956403
124	0x3d92118d	0.07132254
125	0xbca29d80	-0.019850492
126	0xbd5bd61f	-0.053671
127	0xbdad7f5b	-0.08471557
128	0xbe0883da	-0.13331547
129	0x3c973bef	0.018461196
130	0xbda16fcb	-0.07882651
131	0xbe09377e	-0.13400075
132	0xbdea18a6	-0.114304826
133	0xbdfb0519	-0.12256832
134	0xbda8eaf6	-0.0824794
135	0xbc98335a	-0.018579174
136	0x3def4560	0.11683154
137	0xbdb9d9e8	-0.090747654
138	0x3e2fbb97	0.17161404
139	0xbcdbe8d6	-0.026844423
140	0xbd7c7ebf	-0.061644312
141	0x3e3541fc	0.17700952
142	0xbe04ccf3	-0.12968807
143	0x3c0fc2b0	0.008774444
144	0x3def3546	0.11680083
145	0xbd192385	-0.03738739
146	0x3c2d6906	0.010584122
147	0x3ceb4472	0.02871916
148	0xbd8560ab	-0.065125786
149	0xbc942467	-0.018083764
150	0xbd9d065e	-0.0766723
151	0xbd6c686a	-0.057716765
152	0x3c77a67e	0.015115378
153	0x3d34b1b5	0.044114787
154	0xbe27cdbb	-0.16387074
155	0x3d51b0db	0.051194053
156	0xbd959388	-0.0730353
157	0xbab0a393	-0.0013476483
158	0xbd3e4d6d	-0.046460558
159	0x3d77cb0f	0.060496386
160	0x3c9b91b2	0.018990371
161	0xbdc1a020	-0.094543695
162	0xbba9a371	-0.0051769544
163	0x3ba94353	0.0051654964
164	0x3d5d52cb	0.054034036
165	0xbd60ea5f	-0.054911014
166	0x3cd7e17e	0.02635264
167	0x3e05fc36	0.13084492
168	0x3c441407	0.0119676655
169	0xbd75e715	-0.06003483
170	0x3cf88e24	0.030341215
171	0x3c7e9bde	0.015540091
172	0xbc59bb6d	-0.013289315
173	0xbdb278e8	-0.08714467
174	0xbd600d57	-0.054700222
175	0xbe12615f	-0.14294957
176	0xbe3551ad	-0.17706938
177	0xbde2922b	-0.110630356
178	0x3dac282c	0.084061
179	0x3dc089c7	0.09401279
180	0xbcb7417e	-0.022370096
181	0xbe5defac	-0.21673459
182	0x3d56e584	0.052464977
183	0xbd739a78	-0.059473485
184	0xbd70facd	-0.058832932
185	0xbdde66e5	-0.10859469
186	0x3dfb9a70	0.12285316
187	0x3cfb331a	0.030664016
188	0x3d0f2b0f	0.034953173
189	0xbe00b32c	-0.12568349
190	0x3b24c7c7	0.002514349
191	0xbe5ac509	-0.21364225
192	0xbdd6ad9c	-0.10482332
193	0x3c50b6d1	0.012738899
194	0x3d815623	0.063152574
195	0xbd74777e	-0.05968427
196	0xbdf4487f	-0.1192789
197	0xbc73005b	-0.014831628
198	0xbd705a93	-0.05868013
199	0xbd9c852a	-0.076425865
200	0x3d4fd226	0.050737523
201	0x3e0d2786	0.13784608
202	0x3e07ddc4	0.1326819
203	0x3d95602f	0.07293736
204	0x3c3164ad	0.010827226
205	0xbdb21054	-0.086945206
206	0x3e448d7d	0.19194598
207	0x3cbe45c6	0.02322663
208	0xbd3b671f	-0.04575264
209	0xbd0ad86d	-0.033897806
210	0x3a07d7db	0.0005182006
211	0x3dc226bc	0.09480044
212	0x3c908bd5	0.017644802
213	0x3c064e85	0.008197431
214	0x3cf00876	0.02930091
215	0xbc5060ee	-0.012718422
216	0xbd96d685	-0.07365135
217	0xbd58ddfb	-0.052946072
218	0xbd450522	-0.0481006
219	0x3d1fbae1	0.03899658
220	0xbd53e1cc	-0.05172901
221	0xbd887fea	-0.06665023
222	0xbe027c3a	-0.12742701
223	0x3c1f499b	0.009722139
224	0x3de75bce	0.11296807
225	0xbc412e7d	-0.011790869
226	0x3d812047	0.063049845
227	0x3d1e0960	0.03858316
228	0xbc14b8e0	-0.009077281
229	0xbe2735cd	-0.16329117
230	0xbcaaf4e9	-0.020868735
231	0xbd0c2d37	-0.034222808
232	0xbd731c46	-0.059353136
233	0x3b150c77	0.0022743025
234	0x3c059d87	0.008155233
235	0x3c972caa	0.018453915
236	0x3d2c3c72	0.042049833
237	0xbc7c1fd8	-0.0153884515
238	0xbbf0f6dc	-0.0073536467
239	0xbd3df9af	-0.046380695
240	0x3df2fe12	0.11864866
241	0x3d16ed2b	0.036847275
242	0xbdfde695	-0.12397496
243	0xbda9145f	-0.082558386
244	0xbe4f8903	-0.2026711
245	0xbda32fce	-0.079681024
246	0x3cecaaf2	0.028890107
247	0xbe1c6e4c	-0.1527645
248	0x3a865a89	0.001025037
249	0xbe1396f2	-0.1441305
250	0x3ce79cc1	0.028272988
251	0xbd24eb57	-0.0402635
252	0x3badd533	0.0053049563
253	0xbdf146d8	-0.117810905
254	0xbdba50be	-0.090974316
255	0xbdbec60e	-0.0931512

base.cnn.4.bias f4 [32]
0	0xbd1ff3ef	-0.039050993
1	0xbd11f436	-0.03563329
2	0xbcb5e7c5	-0.022205243
3	0xbd26ad38	-0.040692538
4	0xbd3a0124	-0.045411244
5	0xbc7b7f92	-0.015350239
6	0xbcf2939d	-0.029611403
7	0xbcc16c5a	-0.023611236
8	0xbcf5b68f	-0.029994277
9	0xbd0160c4	-0.031586424
10	0xbd5ce1d0	-0.05392629
11	0xbc2f01f8	-0.010681622
12	0xbc864350	-0.016389519
13	0xbcc9ab12	-0.024617705
14	0xbce4bb5e	-0.027921375
15	0xbcedcb58	-0.029027626
16	0xbcb20eee	-0.021735635
17	0xbd315114	-0.043290213
18	0xbd6114fc	-0.054951653
19	0xbd30ca50	-0.04316169
20	0xbcd6e7f6	-0.026233654
21	0xbc335479	-0.010945433
22	0xbd28d5b0	-0.041219413
23	0xbba05b77	-0.004893716
24	0xbd144a46	-0.036203645
25	0xbd840155	-0.064455666
26	0xbd15eb5a	-0.036601402
27	0xbd4622a4	-0.04837288
28	0xbcf565bc	-0.029955737
29	0xbd2537cb	-0.04033641
30	0xbd8dae3e	-0.06918
31	0x3b838fe4	0.004014956

base.cnn.7.weight f4 [64, 1440]
0	0xbd03d892	-0.03218896
1	0x3d3e4db8	0.046460837
2	0x3ca095d0	0.019602686
3	0xbe79305b	-0.24334852
4	0xbc432cf5	-0.011912574
5	0x3c9377e0	0.018001497
6	0x3e0f8559	0.14015712
7	0xbe1475f0	-0.14498115
8	0x3e0936ac	0.13399762
9	0x3c8aaf96	0.016929429
10	0x3d0ece1c	0.03486453
11	0x3d301b87	0.042995002
12	0xbbe1dfa3	-0.0068931147
13	0x3dffb06e	0.12484823
14	0xbcf4265d	-0.02980345
15	0xbce97ba6	-0.028501343
16	0x3cbbcf77	0.022926075
17	0xbe0b08dc	-0.13577598
18	0xbdac1a16	-0.08403413
19	0xbc94bb0f	-0.018155603
20	0xbdebc4ae	-0.11512123
21	0xbbf46fcc	-0.0074596163
22	0x3c9631bd	0.018334264
23	0xbcdf6d0c	-0.027273677
24	0xbc9bdeb0	-0.019027084
25	0x3d353a9e	0.044245355
26	0x3db47be2	0.08812691
27	0xbcea9aac	-0.028638206
28	0x3c241828	0.010015525
29	0x3d5bdc42	0.05367685
30	0xbcd77192	-0.026299272
31	0xbd10a97f	-0.035317894
32	0x3deda62b	0.1160396
33	0xbd07d208	-0.033159286
34	0xbba7517c	-0.0051061492
35	0x3dacedbf	0.08443784
36	0x3e075416	0.1321567
37	0x3be7064d	0.0070503117
38	0x3d206219	0.039156053
39	0xbd28b5a3	-0.041188847
40	0xbccc5448	-0.024942532
41	0xbc659bd4	-0.014014203
42	0x3d9958a7	0.07487612
43	0xbda34dd3	-0.07973828
44	0xbdcb400b	-0.099243246
45	0x3d85b365	0.065283574
46	0x3deaee6d	0.11471257
47	0xbc88e1a8	-0.016709164
48	0xbdc1cbcd	-0.094627
49	0x3ccde179	0.025131928
50	0x3bc3a187	0.0059701833
51	0x3ac4984b	0.0014999
52	0x3d4c1c4c	0.049831674
53	0x3cf8ce51	0.030371817
54	0x3d95e24f	0.073185556
55	0x3cb07422	0.021539751
56	0xbcf5a8b1	-0.029987665
57	0xbd0cbd71	-0.034360353
58	0x3c15b1f9	0.00913667
59	0xbd5fbc69	-0.05462304
60	0x3d92c0ee	0.07165705
61	0xbd9be514	-0.076120526
62	0x3c72b4fb	0.014813657
63	0xbdd7914d	-0.10525761
64	0xbd940d34	-0.07229081
65	0xbe1c2a57	-0.15250526
66	0xbd066062	-0.03280676
67	0xbdac14a9	-0.08402378
68	0x3d1647dc	0.036689624
69	0xbe0d4955	-0.13797505
70	0xbdfeae23	-0.12435558
71	0xbdf00e92	-0.11721529
72	0x3e180da0	0.14848948
73	0xbd550abd	-0.052012194
74	0xbdc9c894	-0.0985271
75	0xbd032710	-0.032019675
76	0x3b95b4c4	0.004568668
77	0xbe38669a	-0.1800789
78	0xbbfe9b09	-0.0077699465
79	0x3d87e25f	0.06634974
80	0x3e003596	0.12520441
81	0xbd72eeeb	-0.05930988
82	0xbdc7c66d	-0.097546436
83	0xbcf9fc70	-0.03051588
84	0xbd069324	-0.032855168
85	0xbd412e74	-0.04716344
86	0xbad1ee54	-0.0016016462
87	0xbd8c6192	-0.068545476
88	0xbd54355e	-0.051808707
89	0x3cfa9610	0.030589134
90	0xbd1fa4ca	-0.038975514
91	0xbd5fc153	-0.054627728
92	0xbd352a87	-0.04423001
93	0x3b58f3c1	0.0033104273
94	0xbbf4be4f	-0.0074689756
95	0x3db3489a	0.08754082
96	0x3c047d35	0.008086492
97	0xbd11ff4b	-0.035643857
98	0xbce45438	-0.02787219
99	0x3dbc3779	0.09190268
100	0x3c397173	0.011318552
101	0xbdc1ef28	-0.094694436
102	0x3d76c573	0.060246896
103	0x3c607931	0.013700769
104	0xbcc222a7	-0.023698164
105	0xbd45a199	-0.048249815
106	0x3da72286	0.08160882
107	0x3ac98f51	0.0015377795
108	0x3d82584a	0.06364496
109	0xbcf3b7b6	-0.029750686
110	0xbdd7f2e5	-0.10544375
111	0x3dcf5f70	0.10125625
112	0x3d9079c2	0.070544735
113	0xbd70e2a4	-0.05880989
114	0x3c60dec8	0.01372499
115	0x3d8477c8	0.06468159
116	0x3c629d4c	0.013831448
117	0x3bf1482a	0.007363339
118	0x3c807303	0.015679842
119	0x3d8ed198	0.069735706
120	0xbd6b6e87	-0.057478454
121	0x3d82b5f9	0.06382365
122	0x3bcf5021	0.006326691
123	0xbb01f506	-0.0019829883
124	0x3ddac614	0.10682312
125	0xbce2c556	-0.027681988
126	0x3c11015e	0.008850424
127	0x3d344953	0.04401524
128	0x3d171208	0.03688243
129	0xbcf7ef4a	-0.03026547
130	0x3dfc1262	0.12308194
131	0x3cbcc755	0.023044268
132	0xbd1d298d	-0.038369704
133	0x3daa0f02	0.08303644
134	0x3dcad960	0.09904742
135	0xbd67baa3	-0.056574475
136	0x3d8dae48	0.06918007
137	0x3d9b45cd	0.07581673
138	0x3ca92d91	0.02065161
139	0xbdfff571	-0.12497986
140	0x3ca6ff79	0.02038549
141	0xbc19740c	-0.009366047
142	0xbd496ab9	-0.049174044
143	0x3d822fcf	0.06356775
144	0xbd19bca7	-0.03753343
145	0x3dbb7f18	0.091551006
146	0xbc30f366	-0.010800218
147	0xbdf833f8	-0.12119287
148	0xbd22a36a	-0.039706625
149	0x3ca87125	0.020561764
150	0x3e04e771	0.12978913
151	0x3de57634	0.11204186
152	0xbd4b1055	-0.049576122
153	0xbdccb6c4	-0.09995797
154	0x3d503c50	0.05083877
155	0x3dcba103	0.0994282
156	0x3c54184f	0.012945249
157	0xbca8b179	-0.020592438
158	0x3da77b94	0.081778675
159	0x3d48d60d	0.04903226
160	0x3daa37e8	0.083114445
161	0xbe317a24	-0.17331749
162	0x3d22aa1d	0.039713014
163	0x3d350111	0.04419047
164	0xbd8ba7e5	-0.06819133
165	0x3b4e0d06	0.0031440868
166	0x3dcdacfc	0.1004276
167	0xbd7cc110	-0.061707556
168	0xbccbed17	-0.024893327
169	0x3d149f4c	0.03628473
170	0x3d86eb4c	0.06587848
171	0xbd969179	-0.073519655
172	0x3e0a29c8	0.13492501
173	0x3dc6dcd2	0.09710087
174	0x3ced6c39	0.028982269
175	0xbca3248e	-0.019914892
176	0x3d68efcb	0.05686931
177	0xbe1ad4c6	-0.15120229
178	0x3de26869	0.11055071
179	0xbbb0bfd5	-0.005393962
180	0x3b92545f	0.004465624
181	0x3e62f396	0.22163233
182	0x3d6380b5	0.055542666
183	0xbc43fb50	-0.011961773
184	0x3de24e99	0.110501476
185	0x3d1d072c	0.038336918
186	0x3d355e99	0.04427967
187	0x3d2a02df	0.041506644
188	0xbd112cf0	-0.035443246
189	0xbe2073e5	-0.1566921
190	0x3de8cb18	0.11366862
191	0xbdc85eb5	-0.09783689
192	0x3dd076db	0.1017892
193	0x3c25576c	0.010091644
194	0xbc07b976	-0.008283963
195	0xbda0e53e	-0.078562245
196	0x3d6037b6	0.05474063
197	0xbce68ed9	-0.028144287
198	0xbdd5d20e	-0.104404554
199	0x3db6faa3	0.08934524
200	0xbd30d629	-0.04317299
201	0xbd9bb625	-0.07603101
202	0xbc0930d7	-0.008373461
203	0xbdcff988	-0.10155016
204	0xbe0304d9	-0.12794818
205	0x3cb65677	0.022258027
206	0xbdaed13e	-0.085360035
207	0xbd12c4ab	-0.03583209
208	0xbcf56676	-0.029956084
209	0x3ce1c2e6	0.027558755
210	0xbd1a3f0d	-0.037657786
211	0xbdc16955	-0.094439186
212	0xbdc17eab	-0.09447988
213	0xbe17f230	-0.14838481
214	0xbdaf8e76	-0.08572094
215	0xbc1c79a1	-0.009550483
216	0x3df6e613	0.12055602
217	0xbd974c41	-0.07387591
218	0x3c9b996e	0.01899406
219	0xbd20d3ff	-0.039264675
220	0xbcacd9cb	-0.021099946
221	0xbd22fa44	-0.039789453
222	0x3def9cca	0.11699827
223	0x3e134932	0.1438339
224	0xbd49be77	-0.049253907
225	0x3d0e684f	0.034767445
226	0xbd7ceb0c	-0.061747596
227	0xbc892df5	-0.016745547
228	0xbda682ce	-0.08130418
229	0xbdcdddc6	-0.100520656
230	0xbe937ef6	-0.288078
231	0x3d90e69d	0.07075236
232	0xbdb69bb8	-0.0891642
233	0x3d797cf4	0.06091018
234	0x3cecacf2	0.02889106
235	0x3d369478	0.044575185
236	0x3c94c8bd	0.018162126
237	0xbe299035	-0.16558917
238	0xbe039969	-0.1285149
239	0x3e2d3ff1	0.16918923
240	0xbd64466d	-0.055731226
241	0x3a5fcd59	0.0008537374
242	0x3e521c97	0.20518719
243	0x3d88c30b	0.066778265
244	0xbca527b2	-0.02016053
245	0xbbcf6abe	-0.0063298633
246	0xbbd72d60	-0.0065666884
247	0xbd9afe4c	-0.075680345
248	0x3d18327f	0.03715753
249	0xbc205288	-0.009785302
250	0xbcf3a0a2	-0.029739682
251	0xbb6da280	-0.0036260188
252	0xbcb11cc0	-0.021620154
253	0xbdcc0bbf	-0.09963178
254	0xbd95cfe6	-0.07315044
255	0xbdcfd5f0	-0.10148227

base.cnn.7.bias f4 [64]
0	0xbcab9923	-0.020947045
1	0x3cb2d414	0.021829642
2	0xbd03c4b3	-0.03217001
3	0xbd889f95	-0.06671063
4	0xbc050146	-0.008117979
5	0xbd1e96ad	-0.038717914
6	0xbcda22a0	-0.026627839
7	0xbc97d375	-0.018533448
8	0xbdc6db66	-0.09709816
9	0xbce83fa3	-0.028350657
10	0xbce74d91	-0.028235229
11	0xbd3c54d6	-0.045979343
12	0xbd09a46c	-0.03360407
13	0xbd92f7a6	-0.071761414
14	0x3c197b00	0.009367704
15	0xbd11de78	-0.035612553
16	0xbc50123a	-0.012699658
17	0xbbeacb86	-0.007165375
18	0x3d144d06	0.036206268
19	0xbb88de35	-0.00417688
20	0x3c3bede5	0.011470293
21	0xbca262f3	-0.019822573
22	0xbd95fc8c	-0.0732356
23	0xbcb00ef1	-0.0214915
24	0xbd0f6c4c	-0.03501539
25	0xbd654ce1	-0.05598152
26	0x3cea53f9	0.028604494
27	0xbd141c00	-0.036159515
28	0xbd10975d	-0.0353006
29	0xbd21177f	-0.03932905
30	0xbcd40b98	-0.025884435
31	0xbdc4451b	-0.09583493
32	0xbd5f8cc2	-0.054577596
33	0xbd34213a	-0.043977
34	0xbbbde6fe	-0.0057953587
35	0xbcff0d91	-0.031134399
36	0xbd2e9e6d	-0.042631555
37	0xbcdce90f	-0.0269666
38	0xbd22afb2	-0.039718337
39	0xbcc35d1f	-0.023848115
40	0xbd093fb4	-0.033508018
41	0x3a906f72	0.0011019541
42	0xbd0c88e4	-0.034310237
43	0xbc13dfd0	-0.009025529
44	0xbd760add	-0.060068954
45	0xbcaef9c3	-0.02135933
46	0x3ca52fc3	0.020164376
47	0xbc54c4af	-0.012986346
48	0xbc5aaec6	-0.013347333
49	0xbd1b0b94	-0.03785284
50	0xbb8f23c2	-0.0043682763
51	0x3cd53bb1	0.02602944
52	0x3c0fd9b4	0.008779932
53	0xbc2410bd	-0.010013756
54	0x3b2f9862	0.0026793708
55	0x3c03d559	0.0080464715
56	0xbcb95cc8	-0.02262725
57	0xbd232483	-0.039829742
58	0xbd380da9	-0.044934902
59	0x3bbddda2	0.005794243
60	0xbdada59e	-0.084788546
61	0xbbd12e1e	-0.0063836714
62	0xbd5b2d8e	-0.05351024
63	0xbcf8d2c2	-0.030373935

base.cnn.9.weight f4 [64]
0	0x3f757c86	0.9589313
1	0x3f77c669	0.96787125
2	0x3f9183fc	1.1368403
3	0x3f7fba92	0.9989406
4	0x3f83ecda	1.0306656
5	0x3f882fa3	1.0639538
6	0x3f75b461	0.9597836
7	0x3f77708b	0.966561
8	0x3f88d3c1	1.0689622
9	0x3f81cfef	1.0141581
10	0x3f76785b	0.962774
11	0x3f8089c7	1.0042046
12	0x3f84a4e2	1.0362818
13	0x3f80446e	1.0020883
14	0x3f792c2b	0.9733302
15	0x3f85ef61	1.0463678
16	0x3f84d390	1.0377064
17	0x3f8beeaf	1.0932215
18	0x3f7cb47d	0.98712903
19	0x3f753896	0.9578947
20	0x3f7ef4f2	0.99592507
21	0x3f7d8ffd	0.99047834
22	0x3f6ff865	0.93738395
23	0x3f92a922	1.1457865
24	0x3f8308d0	1.0237064
25	0x3f876290	1.0576954
26	0x3f7ef589	0.99593407
27	0x3f74be18	0.9560256
28	0x3f7659b1	0.9623061
29	0x3f81424e	1.009836
30	0x3f840e9c	1.0316958
31	0x3f8a9dc5	1.0829397
32	0x3f884143	1.0644916
33	0x3f8815ac	1.0631614
34	0x3f8c720e	1.0972307
35	0x3f8187a3	1.0119518
36	0x3f80bb65	1.0057188
37	0x3f774043	0.9658243
38	0x3f6dbf18	0.9286971
39	0x3f855e90	1.0419483
40	0x3f861f98	1.0478392
41	0x3f7f7e20	0.99801826
42	0x3f7f9895	0.99842197
43	0x3f826255	1.0186259
44	0x3f85812f	1.0430049
45	0x3f806fbc	1.0034099
46	0x3f84b8b4	1.0368867
47	0x3f820d69	1.0160342
48	0x3f80825e	1.0039785
49	0x3f740690	0.95322514
50	0x3f86e4bd	1.0538555
51	0x3f7899ba	0.9710957
52	0x3f7dd008	0.99145555
53	0x3f713024	0.9421408
54	0x3f821ed6	1.016566
55	0x3f89b456	1.0758159
56	0x3f697942	0.9120065
57	0x3f937230	1.1519222
58	0x3f8ebe97	1.1151913
59	0x3f87e1a6	1.0615737
60	0x3f6d349a	0.9265839
61	0x3f75ccd1	0.9601565
62	0x3f75dab8	0.96036863
63	0x3f8db346	1.1070335

base.cnn.9.bias f4 [64]
0	0x3cb1b13a	0.021690954
1	0xbd80b320	-0.062841654
2	0xbdc17fb1	-0.09448183
3	0x3b0426ed	0.0020164803
4	0xbd5c8d06	-0.053845428
5	0xbc176721	-0.009240896
6	0x3d42a7d3	0.04752333
7	0xbcfa234e	-0.030534413
8	0xbdc77ec4	-0.097409755
9	0xbcd1bb8d	-0.025602126
10	0x3ce9ac14	0.028524436
11	0x3d5b6dd2	0.05357153
12	0x3d1f5e29	0.038908157
13	0x3d2d7b1c	0.042353734
14	0xbc24bf46	-0.010055369
15	0xbcdb0112	-0.026733909
16	0xbd828887	-0.06373697
17	0xbd349499	-0.044087026
18	0x3ddc6650	0.10761702
19	0x3d324a83	0.04352809
20	0xbc59e848	-0.013300009
21	0x3dbb27da	0.091384605
22	0x3d1e560c	0.03865628
23	0xbe1f6a2b	-0.15567844
24	0xbde5eef0	-0.11227214
25	0x3a88a2d6	0.0010424505
26	0xbce09571	-0.02741501
27	0xbd849f86	-0.06475739
28	0x3cb685be	0.02228057
29	0xbc909a28	-0.017651632
30	0xbd7f8c1a	-0.06238947
31	0xbd582f60	-0.052779555
32	0xbd79a820	-0.060951352
33	0xbb5b3f96	-0.0033454648
34	0xbccea95f	-0.025227247
35	0x3c5ad45c	0.0133562945
36	0xbc894cbc	-0.016760223
37	0x3e0e41a8	0.13892233
38	0x3d20b7e5	0.039237875
39	0x3b7bcd5d	0.0038421967
40	0x3b34512e	0.0027514207
41	0x3cfb7712	0.030696426
42	0xbd22ac2d	-0.03971498
43	0xbcbc44f4	-0.022982098
44	0xbc72b1f2	-0.014812933
45	0x3d750432	0.059818454
46	0xbca381e0	-0.01995939
47	0x3cf9af9d	0.030479247
48	0xbd8ac666	-0.06776123
49	0xbb8ff338	-0.0043930076
50	0x3d69091d	0.056893457
51	0xbbf062a0	-0.0073359758
52	0x3ba57a94	0.005050013
53	0x3bbf15ac	0.005831441
54	0x3c500afd	0.012697932
55	0x3d6d0bde	0.057872646
56	0x3d2c2c9b	0.042034727
57	0x3cd5de74	0.02610705
58	0xbde59c21	-0.1121142
59	0x3c7ee2d4	0.01555701
60	0x3db0e595	0.08637539
61	0xbcbb0f21	-0.022834362
62	0x3d75c105	0.05999853
63	0xbd60ab57	-0.054850902

base.cnn.10.weight f4 [64, 64]
0	0x3e1cbe69	0.1530701
1	0x3c85c72b	0.016330322
2	0x3d245cb7	0.040127482
3	0x3ec003a9	0.37502792
4	0xbd871e98	-0.06597632
5	0x3d7a7783	0.06114913
6	0x3e66565c	0.22493881
7	0xbe57c753	-0.2107213
8	0x3e94b90a	0.29047424
9	0x3e9506ab	0.2910665
10	0x3e505844	0.2034617
11	0x3e25a6b3	0.16176872
12	0x3cf060b3	0.029342985
13	0xbda7bae5	-0.08189944
14	0xbe3ebd1b	-0.18626826
15	0xbe7baa30	-0.2457664
16	0x3beaecff	0.0071693654
17	0x3ed5ef55	0.41784158
18	0xbe534d0a	-0.20634857
19	0xbedc4849	-0.430239
20	0xbea792e6	-0.32729262
21	0x3de7d926	0.11320715
22	0xbe44313a	-0.19159403
23	0x3e6bdb96	0.23032984
24	0xbdd74d83	-0.10512831
25	0x3de0a03f	0.109680645
26	0x3d9058f5	0.07048217
27	0x3dc61ea3	0.09673812
28	0xbea41155	-0.32044473
29	0x3e020eb5	0.12700923
30	0x3dab9086	0.08377175
31	0xbe301a8c	-0.17197627
32	0x3e81ad0d	0.2532734
33	0x3c9695ea	0.018382031
34	0xbc34ea8b	-0.0110422475
35	0xbe8b1bbf	-0.27169606
36	0xbe40efde	-0.18841502
37	0xbe6a6c5c	-0.22892898
38	0x3e395789	0.18099798
39	0xbdac1a40	-0.08403444
40	0xbe0f36d8	-0.13985765
41	0xbe568473	-0.20948963
42	0xbe933cf8	-0.28757453
43	0x3da3c30d	0.07996187
44	0xbe8eb45f	-0.27871987
45	0x3c462aec	0.012095194
46	0xbee343d2	-0.4438768
47	0x3d40937b	0.04701565
48	0x3d2d5e94	0.042326525
49	0x3e7ca0e6	0.24670753
50	0x3de55ce9	0.11199362
51	0xbd28fc9d	-0.041256536
52	0x3d2de44f	0.04245406
53	0x3d6bcca6	0.057568215
54	0xbd8a7888	-0.06761271
55	0xbdcb4587	-0.09925371
56	0x3e3936e2	0.18087342
57	0xbe951a26	-0.29121512
58	0x3df58705	0.119886436
59	0x3e298511	0.16554667
60	0x3ea105f1	0.31449845
61	0x3efce386	0.49392337
62	0xbb9910c5	-0.0046711885
63	0x3da8906a	0.0823067
64	0x3d74fb05	0.059809703
65	0x3e084a2d	0.13309546
66	0xbd995399	-0.07486648
67	0x3c821f1f	0.01588398
68	0x3e3a78da	0.18210164
69	0x3e648cb5	0.223193
70	0x3d341aaf	0.04397076
71	0x3e0e6edb	0.13909476
72	0x3d9e5f44	0.07733014
73	0x3da7bbd3	0.081901215
74	0x3e2a9117	0.1665691
75	0xbe94be86	-0.29051608
76	0xbe0c149f	-0.13679741
77	0x3eb242c2	0.34816557
78	0x3e56113e	0.20905015
79	0xbda674c4	-0.0812774
80	0xbe3b00e7	-0.18262063
81	0xbe5b103c	-0.21392912
82	0xbcdcda6a	-0.026959617
83	0x3e154dd9	0.14580478
84	0x3e08cba2	0.1335893
85	0x3e1a9336	0.15095219
86	0x3e27c5e8	0.16384089
87	0xbe61b29a	-0.22040787
88	0x3e58b641	0.21163274
89	0xbe745a45	-0.2386256
90	0x3eb179cc	0.34663236
91	0x3da51d62	0.08062245
92	0xbdd25d7d	-0.10271738
93	0x3e496003	0.19665532
94	0xbe8fcfef	-0.28088328
95	0x3e586ee2	0.21136048
96	0xbc5b9556	-0.013402304
97	0xbd8bb971	-0.068224795
98	0x3d359577	0.044331994
99	0x3df764c1	0.12079764
100	0xbdb38bc1	-0.0876689
101	0x3e73ec6b	0.23820655
102	0x3dec2406	0.115303084
103	0xbd5534e0	-0.05205238
104	0xbc2039c2	-0.009779396
105	0x3cbaa0fb	0.02278184
106	0x3d174948	0.03693512
107	0x3e89fb43	0.2694951
108	0xbd63cfa1	-0.055617932
109	0xbeb0cbfb	-0.34530625
110	0x3dd81974	0.1055173
111	0xbe1c8e1a	-0.15288582
112	0x3c203482	0.009778144
113	0xbe127253	-0.14301424
114	0xbe93f741	-0.28899577
115	0x3ee832be	0.45351213
116	0xbe9753f6	-0.29556245
117	0xbe7e7e9b	-0.24852984
118	0x3e0effaf	0.13964723
119	0xbd754a1f	-0.05988514
120	0x3de27249	0.110569544
121	0xbd69253a	-0.056920268
122	0xbc9c0392	-0.019044671
123	0xbea6b3bf	-0.3255901
124	0xbcc2c68f	-0.02377632
125	0x3dd87e27	0.10570937
126	0x3e79b1cf	0.24384235
127	0x3e32127d	0.17389865
128	0xbe742ff5	-0.23846419
129	0xbe788123	-0.24268012
130	0xbd65079d	-0.055915464
131	0x3e6f76dd	0.23385186
132	0xbde7aa8c	-0.11311826
133	0x3eacdcca	0.337622
134	0x3c7f31b5	0.015575816
135	0xbea67555	-0.32511392
136	0xbbb5d25c	-0.0055487584
137	0xbe7d244d	-0.24720879
138	0x3e375cd3	0.17906503
139	0x3d5c05e9	0.053716574
140	0x3e32a3c5	0.17445286
141	0x3d445912	0.047936507
142	0x3e856c7e	0.26059335
143	0xbd97c3d1	-0.07410396
144	0xbea037db	-0.31292614
145	0xbe5bdd28	-0.21471083
146	0xbd727787	-0.05919602
147	0x3e0512f4	0.12995511
148	0xbdebc97a	-0.11513038
149	0xbdc1e4fb	-0.09467503
150	0xbe83d67d	-0.2574958
151	0xbe971c14	-0.2951361
152	0x3dff58fe	0.12468146
153	0x3e0b1166	0.13580856
154	0xbedd28ce	-0.43195194
155	0x3e3e264f	0.18569301
156	0xbdab93f3	-0.083778284
157	0x3ded18b6	0.11576979
158	0xbd847fc7	-0.06469684
159	0xbe11b0ed	-0.14227648
160	0x3d615224	0.055009976
161	0x3e2f209b	0.17102282
162	0xbe2a60a5	-0.1663843
163	0xbde89660	-0.11356807
164	0xbcf62ea8	-0.030051544
165	0xbdff3432	-0.12461127
166	0x3da6bff1	0.08142079
167	0xbd5953a2	-0.053058274
168	0xbe90d22d	-0.2828535
169	0x3e57e3ff	0.21083067
170	0x3d3d53f5	0.046222646
171	0xbe3341b2	-0.1750553
172	0x3e56520f	0.2092974
173	0x3e2830a7	0.1642481
174	0xbe96741f	-0.29385468
175	0x3e9fbc26	0.31198233
176	0xbd9b548e	-0.07584487
177	0xbdf9dcf6	-0.12200348
178	0xbc355346	-0.011067217
179	0x3e72bf5b	0.23705809
180	0x3b493ac7	0.00307052
181	0x3d2747f5	0.040840108
182	0xbec736c6	-0.38908976
183	0xbd696b9b	-0.056987386
184	0xbe5039c7	-0.2033454
185	0x3dddbcb5	0.10827009
186	0x3eb77789	0.35833386
187	0x3e1ca777	0.15298258
188	0xbe8c4952	-0.2739969
189	0xbb9e0bfc	-0.004823206
190	0x3ea0c872	0.31402928
191	0xbde8f383	-0.11374571
192	0x3dc93e04	0.09826282
193	0x3de3856f	0.11109435
194	0xbdc69e36	-0.09698145
195	0xbe896c52	-0.26840454
196	0x3e62bbc1	0.22141935
197	0x3dc27171	0.094942935
198	0xbc4e7f23	-0.012603554
199	0x3eb40c29	0.35165527
200	0x3db5340c	0.08847818
201	0x3e1132bd	0.14179511
202	0xbd87e621	-0.066356905
203	0x3d307713	0.043082308
204	0x3e03e3b4	0.1287983
205	0xbe911e83	-0.2834359
206	0x3b4715c8	0.0030377973
207	0x3d673ea7	0.056456234
208	0x3e5a1224	0.21295983
209	0xbe699a31	-0.22812726
210	0x3dc9d6b6	0.09855406
211	0xbe840fc3	-0.25793275
212	0x3e38572f	0.18002008
213	0x3c5ddb16	0.013541004
214	0xbed766cf	-0.42070624
215	0xbe978355	-0.29592386
216	0x3e85a9bb	0.26106057
217	0x3d846b9f	0.064658396
218	0x3d803330	0.06259763
219	0xbeea409c	-0.45752418
220	0xbe80d2bf	-0.25160787
221	0x3d07f769	0.033194933
222	0x3dc42ba6	0.09578638
223	0xbe90188d	-0.2814373
224	0xbd33ccd5	-0.043896515
225	0x3f1b593f	0.60683054
226	0xbe81cbf1	-0.25350907
227	0x3dcc6a59	0.09981222
228	0x3c974080	0.018463373
229	0x3e126c66	0.14299163
230	0x3e02d760	0.12777472
231	0x3e08b361	0.13349678
232	0x3e21715a	0.15765896
233	0x3e60bc57	0.21946846
234	0xbe3b2c08	-0.18278515
235	0x3e913cf1	0.28366807
236	0xbe86ff46	-0.26366633
237	0xbe871992	-0.26386696
238	0x3eb28379	0.3486593
239	0xbcc929c1	-0.024556043
240	0x3e810a19	0.25203016
241	0xbd8f44b8	-0.06995529
242	0x3da2f054	0.07955995
243	0x3d1fdc64	0.03902854
244	0xbdd01681	-0.10160542
245	0xbe467e62	-0.19384149
246	0xbe37a841	-0.17935278
247	0x3df9a0c1	0.121888645
248	0xbe685827	-0.22689877
249	0x3db02463	0.0860069
250	0x3e1905db	0.1494364
251	0x3e1ab276	0.1510714
252	0x3e3e7e51	0.18602873
253	0x3e0c1f2e	0.13683769
254	0xbe1cadcc	-0.15300673
255	0xbe17d5c4	-0.14827639

base.cnn.10.bias f4 [64]
0	0xbd4cd35b	-0.05000625
1	0x3cc9f6bb	0.024653783
2	0xbb948ae4	-0.0045331586
3	0x3d2ce000	0.04220581
4	0x3d228990	0.03968197
5	0xbde116be	-0.10990666
6	0xbe1b868d	-0.15188046
7	0xbd44006f	-0.047851976
8	0xbde2d9cf	-0.110767
9	0x3c741fa4	0.014900122
10	0x3cb05c7e	0.021528479
11	0xbc9ed52f	-0.019388763
12	0xbdf53d3e	-0.11974572
13	0xbd8b209c	-0.06793329
14	0xbd23c2b4	-0.039980605
15	0xbdb4ab53	-0.0882174
16	0xbd69bfca	-0.05706767
17	0x3b0de01f	0.002164848
18	0xbc851af5	-0.016248206
19	0x3d014346	0.031558298
20	0xbab6f624	-0.0013958854
21	0xbd7df8b8	-0.062004775
22	0xbd751086	-0.05983021
23	0xbcf0279a	-0.029315758
24	0xbce79db7	-0.028273446
25	0xbcb0e8fe	-0.021595474
26	0xbc3a4383	-0.011368635
27	0xbd317e6b	-0.043333452
28	0xbd0a1d26	-0.033719204
29	0xbd7c0e25	-0.061536927
30	0x3c3123c2	0.010811748
31	0xbd948dd9	-0.07253618
32	0xbde7e084	-0.1132212
33	0xbd09f096	-0.033676706
34	0xbdd287b5	-0.1027979
35	0x3cfa781e	0.030574854
36	0xbc4aeba4	-0.012385283
37	0xbd5c9853	-0.053856205
38	0xbd9498b6	-0.0725569
39	0xbdcef818	-0.10105914
40	0xbe033b16	-0.12815508
41	0x3caa26ad	0.020770395
42	0xbd702c6a	-0.058636107
43	0x3db80294	0.08984867
44	0xbe33d2e0	-0.17560911
45	0xbdb9a8c1	-0.090653904
46	0xbe340fb5	-0.17584117
47	0xbd81fe0f	-0.06347286
48	0xbd8692ef	-0.06570994
49	0xbd2d440a	-0.042301215
50	0x3d6e5733	0.05818863
51	0xbe0951f0	-0.13410163
52	0xbd83af02	-0.064298645
53	0xbd4d1712	-0.05007083
54	0xbdacbba3	-0.08434226
55	0xbdb32d20	-0.08748841
56	0xbd3ae33e	-0.04562687
57	0xbe139a91	-0.14414431
58	0xbdfa770e	-0.12229739
59	0xbd9f8d7b	-0.07790657
60	0xbd6a9bf5	-0.05727764
61	0x395da092	0.0002113602
62	0xbd59d150	-0.05317813
63	0x3ccb3c2b	0.024808964

base.cnn.12.weight f4 [64]
0	0x3f8e99b2	1.1140654
1	0x3f6eb23e	0.93240726
2	0x3f87cc37	1.0609196
3	0x3f811ff6	1.0087879
4	0x3f6fc5f9	0.9366146
5	0x3f8dd549	1.1080714
6	0x3f76aee8	0.96360636
7	0x3f5e7f20	0.8691273
8	0x3f741331	0.95341784
9	0x3f74f00f	0.956788
10	0x3f78543a	0.9700352
11	0x3f862222	1.0479167
12	0x3f7e0e2e	0.99240386
13	0x3f89f78d	1.0778672
14	0x3f813701	1.0094911
15	0x3f75f3ff	0.96075433
16	0x3f7c406d	0.98535806
17	0x3f877648	1.0582972
18	0x3f8bff9b	1.093738
19	0x3f895212	1.0728171
20	0x3f69c714	0.91319394
21	0x3f8f7d01	1.1210023
22	0x3f6cd5d3	0.9251377
23	0x3f767404	0.96270776
24	0x3f812aae	1.009115
25	0x3f852857	1.0402936
26	0x3f8205c4	1.015801
27	0x3f802ec7	1.0014275
28	0x3f768dd6	0.96310174
29	0x3f6de6af	0.9293012
30	0x3f8d0990	1.1018543
31	0x3f7124a0	0.9419651
32	0x3f815d5a	1.0106614
33	0x3f8f67fd	1.120361
34	0x3f76727c	0.9626844
35	0x3f927193	1.144091
36	0x3f86ad20	1.0521584
37	0x3f817592	1.0114005
38	0x3f8fad0f	1.1224688
39	0x3f7cd24c	0.9875839
40	0x3f6ea434	0.93219304
41	0x3f84b674	1.036818
42	0x3f85f85c	1.0466418
43	0x3f8a742d	1.0816704
44	0x3f7dfb85	0.99211913
45	0x3f8dd26e	1.1079843
46	0x3f6a2a33	0.9147064
47	0x3f8a99ca	1.0828183
48	0x3f6d41bf	0.92678446
49	0x3f7a5c38	0.97796965
50	0x3f7a2c50	0.97723866
51	0x3f508376	0.81450593
52	0x3f863ff1	1.0488263
53	0x3f7f7e79	0.99802357
54	0x3f54b0ac	0.8308208
55	0x3f6fad9d	0.9362429
56	0x3f8873b9	1.0660316
57	0x3f5f2b07	0.8717503
58	0x3f6a600a	0.91552794
59	0x3f77afb9	0.96752506
60	0x3f7fa474	0.9986031
61	0x3f836816	1.026614
62	0x3f816f44	1.011208
63	0x3f8284ec	1.0196815

base.cnn.12.bias f4 [64]
0	0xbd095511	-0.03352839
1	0x3c6f0f8b	0.014591108
2	0xbbf19965	-0.0073730224
3	0x3a31667b	0.0006767285
4	0x3d0a1fa6	0.03372159
5	0xbdc13b67	-0.09435158
6	0x3c4bebda	0.012446368
7	0xbc9cde8e	-0.019149091
8	0xbd58b0c6	-0.05290296
9	0x3d7cd78a	0.06172899
10	0x3cfd4824	0.030918188
11	0xbcb279cd	-0.021786595
12	0xbceb69e9	-0.028737025
13	0x3d10e75b	0.035376888
14	0xbd03de08	-0.032194167
15	0xbd08ed47	-0.03342941
16	0x3ce67cd5	0.028135696
17	0xbc6d92d8	-0.014500342
18	0x3c2a8a34	0.010408927
19	0xbd50525c	-0.050859794
20	0x3c456543	0.012048068
21	0x3d5e7675	0.05431219
22	0xbc092028	-0.008369483
23	0x3c8390ee	0.016060319
24	0xbcb9bf89	-0.022674339
25	0x3c9cc4f6	0.019136887
26	0x3af50a6c	0.0018695123
27	0xbc866811	-0.016407045
28	0x3c6c9ba8	0.014441408
29	0x3cebe3cd	0.028795147
30	0xbc874b09	-0.016515272
31	0x3d349237	0.044084754
32	0x3bb9d4da	0.005671126
33	0x39ad5192	0.00033057906
34	0x3c34cec7	0.011035628
35	0x39300ac7	0.00016788683
36	0xbbd2f11f	-0.0064374353
37	0x3b015b2f	0.0019738188
38	0xbd937dff	-0.07201766
39	0xbcc6aeab	-0.02425321
40	0x3d839ac1	0.06426001
41	0xbd20a3f0	-0.039218843
42	0xbdaa5b8b	-0.08318242
43	0x3d71ba42	0.05901552
44	0x3b8aeff0	0.0042400286
45	0xbd66cc76	-0.056347333
46	0xbccad398	-0.024759099
47	0xbcac3067	-0.021019174
48	0xbcb98d0d	-0.022650266
49	0x3ced9257	0.029000444
50	0x3c9a9e31	0.01887426
51	0x3dcf0537	0.101084165
52	0xbc22463c	-0.0099044405
53	0xbd3e4166	-0.046449088
54	0x3d2eef25	0.042708535
55	0x3db455c2	0.088054195
56	0xbd4e677d	-0.050391663
57	0xbc2e9ae2	-0.010657044
58	0xbbeae801	-0.0071687703
59	0xbce6ce68	-0.028174594
60	0xbdb85552	-0.090006486
61	0xbc854bf0	-0.016271561
62	0xbd28914e	-0.0411542
63	0x3d2e494b	0.042550366
