CRL_human_AI_overcooked/human_models/model_unident_open/actor_best_r6.pt (torch, 590162 bytes, 20 tensors)

base.cnn.0.weight f4 [32, 26, 3, 3]
000000 64 b2 fc bc 6a 34 d1 3d 9b dd 2b be 43 23 73 3e
       -0.030846782 0.10215075 -0.16783755 0.2374392
000010 89 4c 2f be b3 b4 21 3e ff 92 83 be 05 31 40 3e
       -0.1711904 0.15791588 -0.25698087 0.187687
000020 5b c2 40 bd d6 30 a0 bd 4c 0b ca 3b 5e 86 30 be
       -0.04706035 -0.07821815 0.0061658975 -0.17238757
000030 6d e4 c9 bd 9b 6a cd be 5a 8b 06 3d b7 68 9a 3d
       -0.09858022 -0.40120396 0.03284774 0.07539504
000040 1d c4 75 bd 1f 56 8a be 7e 45 1b bd b7 b3 14 3e
       -0.06000148 -0.2701883 -0.03790807 0.14521681
000050 d9 80 17 3d e7 05 8d 3e e2 bd 49 3e 60 57 85 bd
       0.036988113 0.27543566 0.19701341 -0.06510806
000060 f7 f8 16 be 21 9d 8f 3e 2d 97 9c 3e 62 bb c7 bd
       -0.1474341 0.28049567 0.30584088 -0.09752537
000070 59 cc a6 3e a0 91 5b 3e 06 14 5a bd fc c0 7e be
       0.3257778 0.2144227 -0.053241752 -0.24878305
000080 00 f1 79 3d 12 0e bc bd 9f c2 1a 3d 98 de 75 be
       0.06102085 -0.09182371 0.03778326 -0.24010694
000090 21 71 eb 3c 3f 0e 3b be 8a 4a 55 3d e6 42 86 bd
       0.028740468 -0.18267153 0.05207304 -0.065557286
0000a0 7d bc 0f 3e 12 a7 38 3e 40 f3 3f 3d 49 c1 2d 3e
       0.14036746 0.18032482 0.04686284 0.16968264
0000b0 ab 93 c0 bc 1f 00 18 bd dd 98 31 be e2 72 b2 be
       -0.023507914 -0.03710949 -0.17343469 -0.34853274
0000c0 7e 45 b5 bd 36 f2 11 be 30 01 05 3e ee 9b 5a 3d
       -0.08851145 -0.14252552 0.12988734 0.053371362
0000d0 e6 ab 03 bd f0 c1 c6 3e f4 ab eb 3d 97 9b 7a be
       -0.032146357 0.38819838 0.11507407 -0.24473415
0000e0 ec 60 bf 3b 8e 70 5a 3e 7f 3d 3c be 6e 46 88 3e
       0.0058404114 0.21331999 -0.18382834 0.26616234
0000f0 ec 30 e4 3d 8e f4 01 be 96 9b c0 bd 9a 94 48 bc
       0.111421436 -0.12690946 -0.09404676 -0.012242461
000100 71 a4 cb bd f3 03 f9 bd ca 1c e0 bd d6 49 22 3c
       -0.09943474 -0.121589564 -0.10942991 0.009905299
000110 9a 5f f6 3d 20 17 5e bd 61 5e 1c be 04 a6 ab 3c
       0.12029953 -0.054221272 -0.15270378 0.020953186
000120 a0 6f 68 bd 2b a8 e2 bd aa 07 54 bd 6a c1 bf 3d
       -0.05674708 -0.11067232 -0.05176512 0.09363063
000130 15 28 18 3e 04 5c b4 3b 19 ac 21 bd 28 f3 f0 bd
       0.1485904 0.005504133 -0.039470766 -0.117651284
000140 45 5b 0d be 38 5d c5 bd 4a 2b bd 3e 01 d8 e4 bc
       -0.13804348 -0.09636921 0.3694709 -0.02793503
000150 01 b1 de bd 3c 1d 0d be 07 da da bd 0c 6b 4e 3e
       -0.108736046 -0.13780683 -0.10686117 0.20158023
000160 33 fe 64 bd 20 59 87 be 41 07 76 bc 26 2b 3f 3d
       -0.055906486 -0.26435184 -0.015016378 0.04667201
000170 88 99 fe bd 4c b8 84 3d 7b 4e cf bc 25 42 85 3d
       -0.124316275 0.06480464 -0.025305977 0.06506757
000180 0b db e1 3d 4f 4e e9 3c 57 02 1b be 50 6d ce bd
       0.11028107 0.028479723 -0.15137611 -0.100794435
000190 09 da 7e bc d2 58 db bd 64 40 74 be cc c3 e1 bd
       -0.015554913 -0.107103005 -0.23852688 -0.110236734
0001a0 6f 41 dd 3c ba 3b 06 be 0f 07 06 3e 5b 95 a0 be
       0.02700874 -0.13108721 0.1308863 -0.3136395
0001b0 77 f6 cf bd 78 dd b8 bd fa 4e 0d bd 6c 4f 23 be
       -0.10154431 -0.09026617 -0.034499146 -0.15948266
0001c0 a9 56 44 3c 01 76 cb 3d c8 75 07 3e 07 7b b0 bc
       0.011983552 0.09934617 0.13228524 -0.021543039
0001d0 fc 21 1d 3d 50 f1 19 3e fa 7e ff bc b0 70 fd 3c
       0.03836249 0.1503346 -0.031188477 0.030937523
0001e0 c3 c3 36 bd af 87 e1 bd ac d0 38 be 96 df 46 bd
       -0.044620287 -0.11012208 -0.18048352 -0.048553072
0001f0 25 fb bd bd 5a b2 68 bd b2 44 b4 3d 50 1f ce 3d
       -0.09276418 -0.056810714 0.08802165 0.10064566
000200 cb dd 18 3e d7 6d 64 bd 70 8d 74 be 48 e6 ff 3d
       0.14928357 -0.055768814 -0.23882079 0.124950945
000210 e7 1e e2 bd dd c8 87 3d 1a fb f2 bd 08 af 8e 3d
       -0.110410504 0.066301085 -0.118643 0.06966978
000220 74 db f9 bd 86 2a 64 3e cc dd 56 bd da 91 17 bd
       -0.122000605 0.22281846 -0.052457616 -0.03700433
000230 c6 7e a0 3d c6 a0 9c 3d 29 55 0a 3d e8 d7 62 be
       0.0783668 0.076478526 0.03377262 -0.22152674
000240 11 79 1b be 0a 5d 85 bd 4c bd db 3c 05 c3 d2 bd
       -0.15182902 -0.065118864 0.026823662 -0.10291103
000250 e8 36 a2 bd 23 ec 7d 3d be 1f 93 bd b1 d5 48 bd
       -0.07920629 0.061992776 -0.07183789 -0.049031917
000260 ae 96 b5 3d 4c ec 10 bd 3e 8b 6f be ff 1a 99 bc
       0.088666305 -0.0353816 -0.2339296 -0.01868963
000270 05 9e 82 bc 1a 85 72 bd e0 21 bb bd 9f 3e b0 bd
       -0.01594449 -0.059208967 -0.091373205 -0.08605694
000280 59 f9 28 bd 41 78 87 bd 3e 8c aa 3d cd f5 b1 3c
       -0.04125342 -0.066147335 0.0832753 0.021723652
000290 3f bd 4a bd 41 ca a0 3d 50 99 18 be 45 27 24 be
       -0.049496885 0.07851077 -0.14902234 -0.16030605
0002a0 f0 eb 68 3c 15 67 34 3d 5e 1e 6f bd d3 c3 09 3d
       0.014216408 0.04404362 -0.05837857 0.03363402
0002b0 56 a6 10 bd dc 12 52 3d 1d 31 41 be 49 e5 38 bd
       -0.03531488 0.051287517 -0.18866391 -0.04514054
0002c0 5a e9 de bd 21 d1 24 bd bd b3 e8 3d 44 0e d5 3d
       -0.10884352 -0.040238503 0.11362407 0.104031116
0002d0 ca de ab 3d 62 4a 97 3d a1 d9 de 3d 8d 03 e1 bb
       0.08392103 0.07387234 0.10881353 -0.0068668784
0002e0 f6 ad 52 be ec be ab 3d e0 8f c5 bd 9c 93 1c 3c
       -0.20574173 0.08386025 -0.096465826 0.009556677
0002f0 3d 18 f9 bb 10 28 14 3d ce 14 ac 3d 0d 09 d3 3d
       -0.0076017664 0.03617102 0.08402406 0.10304461
000300 48 de d4 3b da 0f ae 3d b2 65 49 3d 31 fb e6 3c
       0.0064962246 0.08499117 0.04916925 0.02819595
000310 9b 15 e7 3d 27 36 e9 bc 9d 67 a5 bd 9a 9e ee 3d
       0.11283418 -0.028468205 -0.08076403 0.116513446
000320 a2 51 22 3d 22 35 d7 3d b2 2a ef 3d 6d 0e f8 bd
       0.039628632 0.10508181 0.11678065 -0.121121265
000330 b5 57 b6 3d ec 8e b1 bd 6d fa 5a bc e6 d7 d9 bc
       0.089034475 -0.08669838 -0.01336537 -0.026592206
000340 25 28 f0 bd 79 c6 94 bd 64 cf ba bd ba e9 a2 3c
       -0.11726407 -0.07264418 -0.09121588 0.01988684
000350 95 d7 44 3e a2 8b 07 be 27 6d 37 3c 80 aa 2b 3e
       0.19222863 -0.1323686 0.011195458 0.1676426
000360 19 a6 7f bb 96 54 a9 3d 7c f0 f9 3d 00 60 a5 3b
       -0.0039008914 0.082680866 0.12204072 0.0050468445
000370 26 7a 8e 3d 74 4f 91 3d 46 a5 63 be 1f 25 cc 3d
       0.06956892 0.070952326 -0.22231016 0.09968018
000380 ae 17 4f be 15 26 97 bd b4 09 7a be fc 5b 3e 3c
       -0.20223877 -0.073803104 -0.24417764 0.0116186105
000390 d7 c9 15 bd 89 f8 67 be 1c 79 80 bc d3 e7 93 bd
       -0.036569443 -0.22653402 -0.01568275 -0.07221951
0003a0 c4 cc ea bd 04 fb 1b be e3 18 aa bd 0f c7 2c 3e
       -0.11464837 -0.15232474 -0.08305528 0.1687281
0003b0 e7 5d f3 3d ad 76 6c bc 3b f3 84 3e a2 97 2a bd
       0.11883145 -0.014432591 0.2596682 -0.041648515
0003c0 92 a6 92 be 16 48 67 3d 32 e0 9c 3e bb 44 61 3e
       -0.28642708 0.05646523 0.30639797 0.21998875
0003d0 37 ac 28 3d 74 90 08 3d 9a e3 12 be 6b 51 27 be
       0.041179862 0.033340886 -0.14344636 -0.16339652
0003e0 41 93 3c bd 21 bf c8 bc 1d 12 44 bd 21 a1 86 be
       -0.04603887 -0.0245052 -0.047868837 -0.26294807
0003f0 11 b5 93 be b4 c8 b7 3e 3b 23 2d 3d c8 c9 01 be
       -0.2884908 0.35895312 0.042269927 -0.1267463

base.cnn.0.bias f4 [32]
000000 28 32 8c bd b2 b8 10 bc 52 8e 1d bc 78 11 8b bc
       -0.06845504 -0.008833097 -0.009616451 -0.016976103
000010 2a b6 60 bd 9f 67 7d bd 64 d2 9f bd 97 a4 e4 bc
       -0.054861225 -0.0618664 -0.07803801 -0.027910514
000020 c7 da 47 bd c9 83 ba bd 47 8b 76 bd 35 e5 f8 bc
       -0.048792627 -0.09107167 -0.06019142 -0.030382732
000030 ab 4d 8c bc d6 dd 69 3b 41 74 54 bd e6 05 51 bc
       -0.017126879 0.0035685203 -0.05186868 -0.012757754
000040 f4 a6 1a bd 13 19 36 bd d3 ad 6a 3c 55 4c 92 bc
       -0.037756875 -0.044457506 0.0143236695 -0.017858664
000050 cf 64 33 3c b8 b1 a8 bc e6 87 8b bc 09 14 12 3d
       0.010949328 -0.020592555 -0.017032575 0.03566364
000060 19 72 a9 3c bb 3a 8e bd bd a4 d1 3b 8e 6f 13 bc
       0.020684289 -0.06944796 0.006397812 -0.008998765
000070 94 1a c0 3c 16 e7 86 bd e9 3c 4a 3b 8a b2 04 3b
       0.023450173 -0.06587045 0.003085906 0.002024802

base.cnn.2.weight f4 [64, 32, 3, 3]
000000 94 8d bc 3c a8 af b5 bb 35 66 0b 3e 8f c7 df 3c
       0.023016728 -0.0055446215 0.13613208 0.027316837
000010 ed 04 51 bd 63 e8 41 be a8 a6 33 be f9 d0 6e 3c
       -0.05103009 -0.18936305 -0.17544043 0.01457619
000020 1f b4 42 bd 86 73 e3 3b 59 69 1c 3e 33 86 98 3d
       -0.047535058 0.0069412617 0.15274562 0.074474715
000030 60 fe 9f bd bd 1a 16 3e 11 a0 0e 3c c6 b7 ba bd
       -0.0781219 0.14658637 0.008705155 -0.09117083
000040 6c ad 23 3e 42 a7 91 bd 59 28 93 bd 07 a9 fa 3c
       0.15984124 -0.0711198 -0.0718543 0.030598177
000050 66 3d 9e bd ca ba 9b bc 2e 2f 98 bc a9 27 ea 3d
       -0.077265546 -0.019009966 -0.018577185 0.11433346
000060 df e7 08 bd f6 30 97 3d 1b 6d 52 bd 66 cc e3 3c
       -0.033424255 0.073823854 -0.051373582 0.027807426
000070 1e 75 f2 bd 12 55 32 bc cc 70 b9 3d 5b f1 33 be
       -0.118387446 -0.01088454 0.090547174 -0.17572539
000080 34 10 0c 3c 8b 10 37 bc 70 dc 08 bd 45 d9 3b 3c
       0.008548785 -0.011173378 -0.03341335 0.011465375
000090 13 2d ad 3d f3 0e ce bd d1 6f de bc cd a4 b4 bd
       0.08455863 -0.10061445 -0.027152928 -0.08820496
0000a0 4f 52 f8 bd 61 f4 be bd 6d 5f d1 bb 56 b0 cc 3d
       -0.12125074 -0.09323955 -0.0063895495 0.09994571
0000b0 6b 0d a3 bd 8f 4c 6e bd 56 ea 8b 3d e4 43 44 bd
       -0.07961544 -0.05817848 0.068318054 -0.047916308
0000c0 19 ed cd 3d 2b 9c 63 bd 6a cd 6c 3e 17 4c 23 3d
       0.100549884 -0.055568855 0.23125234 0.039867487
0000d0 e8 f3 0d be 13 18 b7 bc 06 b7 02 3e 1e 8b 14 be
       -0.13862574 -0.022350347 0.1276513 -0.14506194
0000e0 9a 80 b7 3d 4f e7 9c bd 79 1a 16 be 38 15 8e 3d
       0.08960076 -0.07661306 -0.14658536 0.06937641
0000f0 4f 91 b6 3b 0e cc 33 3e c7 9d 0f 3e 35 a9 6f 3c
       0.0055715214 0.1755831 0.14025031 0.014627744
000100 e6 16 eb bd 28 33 25 3d c2 66 97 3d 05 75 84 bd
       -0.11478977 0.04033199 0.07392646 -0.06467632
000110 43 2c b3 3d 01 67 b0 3d c5 af 4f 3c 38 b5 4e 3e
       0.08748677 0.086133964 0.012676184 0.20186317
000120 2e 5c b3 bd 69 c2 30 bc f1 c2 f7 3a e8 ad 8e bb
       -0.08757816 -0.0107885385 0.0018902702 -0.0043542273
000130 07 be 3d bd e6 fd c6 3c 5d 77 3a be 45 8c 4d 3b
       -0.046323802 0.02429099 -0.18209596 0.0031364125
000140 83 64 1a 3e d9 4f d6 3d 4d 1f e2 3d 63 16 2b be
       0.15077405 0.104644485 0.110411264 -0.16707759
000150 19 c6 71 3c 9e 43 5c 3c c6 a2 8b bb 2d 3d 92 3c
       0.014756703 0.013443856 -0.0042613475 0.017851437
000160 08 10 51 3d fb 2e a8 bd 7a cf 06 3d a1 a4 00 be
       0.05104068 -0.08212086 0.03291271 -0.12562801
000170 ff 1c ea bd 16 aa 10 be 94 1d 26 3e 87 fd 14 3e
       -0.11431312 -0.14127383 0.1622222 0.14549838
000180 ce f4 a5 3d 56 52 35 be 30 92 bc 3b 39 be 69 bd
       0.081033334 -0.1770719 0.0057547316 -0.057066176
000190 c8 ab 4a bd 18 2d 90 bd 7d 11 0f ba f4 65 02 be
       -0.04948023 -0.07039851 -0.0005457623 -0.12734205
0001a0 7a 9e c3 3d 6e 4d fb 3c fc 33 a4 bd 86 1c 30 bd
       0.095517114 0.03067657 -0.08017728 -0.042995952
0001b0 c7 6e fc bc 9d c1 1e 3e 5e f4 20 be fa 5b 9f 3d
       -0.030814542 0.15503545 -0.15718219 0.07781215
0001c0 4a ea 10 be fc b6 37 be d6 e7 37 bd 82 28 97 3d
       -0.14151874 -0.17940897 -0.04489883 0.07380773
0001d0 e5 51 53 bd e7 24 9d bd ed 14 9f bd f0 a2 93 bd
       -0.051591773 -0.07673054 -0.07767663 -0.07208812
0001e0 2b 78 df 3d 42 f4 43 be a6 db 1a 3e 45 fe 2a be
       0.10911592 -0.19136146 0.15122852 -0.16698559
0001f0 cc 16 80 bd 67 44 53 bd 3f d7 63 3e 31 07 bb 3d
       -0.06254348 -0.051578905 0.22250079 0.09132231
000200 02 78 7e 3d 30 f8 9e 3d 59 74 92 bd 88 a2 00 3e
       0.062126167 0.07762182 -0.07151098 0.12562001
000210 20 d5 0a be 26 66 98 bd 20 f3 7a 3d 11 94 9b bd
       -0.13557863 -0.07441358 0.06126702 -0.07596601
000220 36 e8 93 be 90 59 88 bd 33 e5 04 3d 13 70 39 3e
       -0.288881 -0.06657708 0.032445144 0.18109159
000230 7c 86 6f bd 22 58 69 bd c5 42 08 bd ef fd 8f 3d
       -0.058477864 -0.056968816 -0.0332668 0.07030856
000240 8d 78 02 bd 60 d0 cd bd ed 42 4d be 27 42 5d 3d
       -0.031853247 -0.1004951 -0.20045061 0.054018166
000250 e6 82 b4 3c 20 09 94 3d 27 19 4d bc 43 a7 81 3d
       0.022035073 0.07228303 -0.012518204 0.06330731
000260 cd a2 6a bd 58 96 1b be 49 74 db bd 26 07 c0 bd
       -0.057284165 -0.1519407 -0.10715539 -0.093763635
000270 31 8c 44 3d 9b aa 17 bd 16 81 1b bc 1b 65 bf 3d
       0.04798526 -0.037027936 -0.009491226 0.09345456
000280 15 60 11 3e cf 63 02 be d2 67 c5 bd 21 7c de 3d
       0.14196809 -0.12733386 -0.09638943 0.108635195
000290 09 00 19 be 87 01 00 be c6 aa 4f bc 31 86 74 be
       -0.1494142 -0.12500583 -0.012674993 -0.23879315
0002a0 70 e7 ce 3d dc 8a 31 be 37 2a e4 3d b5 30 39 3b
       0.10102737 -0.17338127 0.11140864 0.0028257791
0002b0 97 69 cf bd 1c 4d 2b bc bf bb 93 bd 66 a4 64 be
       -0.101275615 -0.010455396 -0.07213544 -0.22328338
0002c0 7f 08 94 bd 22 8b 22 be 6e 8e 67 3d 82 0d ac 3c
       -0.07228183 -0.15873387 0.056532316 0.021002535
0002d0 35 4e 86 3d c5 c7 b5 3d 40 24 6d bd 88 0e e4 3c
       0.065578856 0.08875994 -0.0578959 0.02783896
0002e0 d9 5a 0f 3d 7a 97 be 3a df 32 b3 bd 1d 65 41 3e
       0.03499875 0.0014540993 -0.08749937 0.18886228
0002f0 ac f5 2a be 92 9a c1 3c c0 e4 ee bd e5 b3 a2 3d
       -0.16695279 0.023633275 -0.11664724 0.079444684
000300 cf 8f 74 3c b6 18 f7 bd 98 45 fa bd f3 ec 6f 3c
       0.014926865 -0.1206526 -0.12220305 0.014643895
000310 67 1e c4 bd 6f 9c a7 bd 37 14 8b 3d 69 dc 01 bc
       -0.09576111 -0.08184134 0.06790965 -0.007926085
000320 92 66 1c be f4 03 0e be 16 71 9e bd 83 96 8e bc
       -0.15273502 -0.13868695 -0.07736413 -0.017405754
000330 84 cb f6 3d 7f e6 2b bd f8 25 2a be 9f 61 1c 3e
       0.12050536 -0.041967865 -0.16616046 0.15271614
000340 21 8a b6 3c 6f 10 77 3e ca e4 49 bd 72 b6 dd bc
       0.022282662 0.24127363 -0.049290456 -0.027064536
000350 c4 a5 9f 3d d6 c8 82 3c de 9c a8 3c 11 3d 03 bd
       0.07795289 0.015964907 0.020582613 -0.03204066
000360 62 bf 11 bd 58 f1 c6 3c 5f a6 5c bd 88 08 14 3e
       -0.035582907 0.024285004 -0.0538696 0.1445638
000370 98 60 75 bc e4 37 34 be 30 e5 3a bc 94 72 1c 3c
       -0.014976643 -0.17599446 -0.011407182 0.009548802
000380 54 8a 88 3d 79 65 f0 3c 5c 6b 0f 3c 87 4c 8b bd
       0.06667009 0.029345261 0.008753624 -0.06801706
000390 9b 3f c4 bc a9 76 d9 bd 02 9d 5d 3d 4d b6 b2 bd
       -0.02395611 -0.10618336 0.054104812 -0.08726177
0003a0 db 29 55 ba 50 49 e8 bd b8 98 16 be 52 02 15 be
       -0.0008131542 -0.11342108 -0.14706695 -0.14551666
0003b0 86 46 1b be 74 1a d6 3d 53 a5 d6 bb 48 c4 d0 bd
       -0.15163621 0.10454264 -0.00655047 -0.10193688
0003c0 22 5f 9b 3b 69 fa 91 bd 7b f6 e7 3d 2f 21 cd 3d
       0.0047415653 -0.0712784 0.11326309 0.10016095
0003d0 c8 2b 6d 3d 9e 60 97 bd 97 4a b4 bd 56 63 90 3d
       0.05790308 -0.07391475 -0.088032894 0.07050197
0003e0 98 f8 a9 bd 25 dc 04 be 2c c7 c5 bc 0b 6c ab 3c
       -0.082993686 -0.12974603 -0.024142824 0.020925542
0003f0 5b 57 a8 bd 90 c0 a1 bd 9b 89 03 be 56 20 19 be
       -0.08219787 -0.078980565 -0.12845461 -0.14953741

base.cnn.2.bias f4 [64]
000000 1d b6 59 bd 3e 0e 3d bc 8d 57 12 bd 78 43 2d bd
       -0.053152192 -0.01153904 -0.035728026 -0.04230067
000010 37 d4 04 bd 94 ae 93 bd 05 20 a1 bd 5a af 98 bc
       -0.032428946 -0.072110325 -0.07867435 -0.018638302
000020 90 57 10 bd f1 f0 68 bb d7 be 05 bd f3 5d cf 3b
       -0.035239756 -0.0035544003 -0.032652702 0.0063283383
000030 37 ac 8e bc de 49 a8 bc 2d d7 bb bc a7 f0 66 bc
       -0.017416103 -0.020543035 -0.022929752 -0.014095462
000040 e4 a0 7a 3c b7 60 a3 3c ef 63 48 bd ad b5 2b bd
       0.015297148 0.019943578 -0.04892343 -0.041921306
000050 94 52 45 3b d8 5f 0c 3a c2 97 6b 3b 09 08 27 bd
       0.0030109035 0.0005354858 0.003594861 -0.040779147
000060 32 2d 40 bd 7e 80 40 bd d8 5c ee bc 56 16 a4 b9
       -0.0469181 -0.04699754 -0.029097006 -0.0003129716
000070 a0 74 3e bb 3c 0d 8e 3c d7 b9 24 3d 4e 8d 47 bc
       -0.0029061213 0.017340295 0.040216293 -0.012179686
000080 0e 20 20 bd ff 12 53 bc 94 34 cd bb 06 4f ae bd
       -0.03909307 -0.012882947 -0.0062623713 -0.08511166
000090 2c d6 01 bb 70 c4 a6 bc 9b 4d 79 3c 98 60 5e bd
       -0.0019811494 -0.02035734 0.0152162565 -0.054291338
0000a0 a4 a8 43 bd 0e 9e 11 bc 5d 03 ba 3c 10 f0 07 bd
       -0.04776825 -0.008887781 0.022706682 -0.033187926
0000b0 2e c0 c0 3c 48 94 ca bc a3 13 43 bd 4a 5e 02 bd
       0.023529138 -0.02472891 -0.04762615 -0.031828202
0000c0 90 05 d5 bc 8e 63 ce bc e4 e5 5f bd ad 39 e1 3c
       -0.026003629 -0.025193956 -0.0546626 0.027493322
0000d0 69 12 0a bc fa f1 2d bd ec 65 25 bd 78 79 a3 bd
       -0.008427241 -0.042467095 -0.040380403 -0.07982153
0000e0 fb 1e 3d bd 86 24 58 bd 87 f7 9b ba 25 7f 93 bc
       -0.046172123 -0.052769206 -0.001189933 -0.018004963
0000f0 65 8e 83 3c 1f 65 d6 3c 79 67 81 bd 9e 37 41 3d
       0.01605911 0.026171265 -0.06318564 0.04717218

base.cnn.4.weight f4 [32, 64, 3, 3]
000000 2b f5 6b 3d 09 65 73 3d fb f1 24 3d 9a bc 6d bc
       0.057606857 0.059422527 0.040269833 -0.014510298
000010 42 de 9e bc 1e 9a 4b bd 51 0d 10 3b f8 23 51 bd
       -0.01939309 -0.049707524 0.0021980593 -0.051059693
000020 bc fa 37 3d 91 ef ab 3d 63 fc 93 bd 62 10 b3 bc
       0.044916853 0.08395303 -0.07225873 -0.021858398
000030 6c 62 0c bd c1 57 fb bd b5 2c 6a bd d6 29 13 bc
       -0.03427355 -0.12272597 -0.057171542 -0.008982142
000040 d8 d7 f2 3d bb ea 02 bc 40 e3 cd 3c 89 87 e1 3c
       0.11857575 -0.007990534 0.025132775 0.027530449
000050 e3 76 3c 3d 38 e9 76 bc d4 af df bc c0 d7 80 3d
       0.046011817 -0.015070252 -0.027305521 0.06291151
000060 c1 72 93 3c 9f 07 0e be 46 db cd 3a b4 25 1d bd
       0.017999055 -0.13870095 0.0015705607 -0.038366035
000070 89 90 10 bc ed 89 eb bb 5d 33 06 be 60 37 b9 bd
       -0.008823522 -0.007188073 -0.13105531 -0.09043765
000080 aa 5f 5e 3c 58 67 b9 bc ae bf 7c 3d aa 00 d0 3d
       0.013572613 -0.022632286 0.061706237 0.10156377
000090 05 eb 03 bb f8 d5 cc 3c 7e 7f ef 3d 7d 53 5c bd
       -0.0020129096 0.025004372 0.11694239 -0.053790558
0000a0 7f 8c d8 bc 05 c5 cf bc 5a 5a 0e 3e a2 4f f5 3a
       -0.026434181 -0.0253625 0.13901654 0.0018715749
0000b0 3e ad 3e bc ce 20 f7 bc ad cd 9e bd 46 55 82 3d
       -0.011637984 -0.03016701 -0.07754073 0.06363921
0000c0 3b 1f 18 bc 56 8b 55 bd a2 0d e1 bc 38 2f 04 be
       -0.00928479 -0.052134834 -0.027472321 -0.12908638
0000d0 72 4a 48 3d 2f e0 3d bd 1f 66 e0 3c 8e b6 99 3c
       0.04889912 -0.046356376 0.027392445 0.018763807
0000e0 a4 25 ba bc fd 80 a9 bd af f0 ec bd 34 6e 48 ba
       -0.022723027 -0.08276556 -0.11569344 -0.0007645816
0000f0 62 b5 6d bd 30 12 18 3d 9a 5f 93 bd a9 2a e2 bd
       -0.05803431 0.03712672 -0.07195969 -0.11043293
000100 ab a4 d9 bc 9f 56 ec 3d 48 ea 08 be 0a ef 9a 3c
       -0.026567778 0.11539959 -0.13370621 0.01891281
000110 9a 54 9e 3d 02 e2 e3 bd 2e 05 8b 3b 9e 85 b8 3d
       0.0773098 -0.11127092 0.004242561 0.090098605
000120 32 37 d3 3c 62 55 22 3b 74 59 d0 bc 04 82 49 bc
       0.025783155 0.002477013 -0.02543328 -0.012299065
000130 f2 2b 06 3d d6 74 a2 3c a8 3f 79 bd c9 32 4c bd
       0.032756753 0.019831102 -0.060851723 -0.04985312
000140 5a bb c6 3d a5 c8 5a bd 3b 43 6c 3d 36 c3 cf bd
       0.09703703 -0.053414006 0.057681303 -0.101446554
000150 f5 f5 ea bb 1e eb 1b be 87 25 fb bc 0a fc db bc
       -0.0071704336 -0.15226409 -0.030657543 -0.02685358
000160 c4 81 bc 3d 5c 0b 18 3c ec 5a a8 3d cc 2a 00 be
       0.09204438 0.009280052 0.08220467 -0.12516326
000170 77 99 42 bc 20 08 12 be 16 af 7f bd bf 42 7f bd
       -0.011877409 -0.14260912 -0.062422834 -0.062319513
000180 d8 64 cb bd cc 9e 91 bd 08 16 18 3d 0b 58 91 bd
       -0.09931344 -0.07110366 0.037130386 -0.07096871
000190 6b e7 32 bd 68 19 18 bc db c0 c0 bc e3 05 03 bd
       -0.04367773 -0.009283401 -0.02352946 -0.031988036
0001a0 45 84 20 bd ff fe d1 bc 3f cd 49 be 8b a5 e7 3b
       -0.039188642 -0.025634287 -0.19707201 0.007069295
0001b0 98 b6 9a 3c df 12 9a bc b2 51 0b bd 2c ab 31 be
       0.018885896 -0.018807827 -0.034013458 -0.17350453
0001c0 62 33 cd 3d 40 37 95 bd c7 c0 e1 3d 26 81 25 bd
       0.10019566 -0.07285929 0.110230975 -0.04040637
0001d0 15 66 2f bc 11 7d 1c 3e 57 1f d9 bd 67 2b a9 3d
       -0.010705491 0.15282084 -0.10601681 0.082602315
0001e0 48 62 99 bd 3f ac 15 be 36 91 01 be 69 d3 07 be
       -0.07489449 -0.14616488 -0.1265305 -0.1326424
0001f0 cf 50 9a bd 4e f8 a0 3d 1a 5c 21 3d 48 8d b3 bd
       -0.07534944 0.0785986 0.039394476 -0.08767182
000200 44 ff 27 bd c1 35 43 3d 4c fd 4c be 3a 6f c0 bd
       -0.041014925 0.047658686 -0.200185 -0.09396215
000210 97 6b d9 bd 76 b0 17 bd 21 7e 28 bc 7e 89 a8 bc
       -0.10616224 -0.03703352 -0.010283978 -0.020573374
000220 ee de 8e 3c 30 07 b6 bd 0c dd bf bc 30 3a ee 3c
       0.017440286 -0.0888809 -0.023420833 0.02908048
000230 f9 d0 ed bd ae a9 6e bd 15 70 97 bc db 5b ff bc
       -0.11612124 -0.058267288 -0.018486062 -0.03117173
000240 d7 8c b9 bc 57 96 c9 bd 7a ab 89 bd 9f 38 a2 bc
       -0.022650165 -0.09843128 -0.0672216 -0.01980239
000250 bc 2f 5b bd 83 3c 10 3c 72 c5 85 3d 8d 88 3d bd
       -0.05351232 0.00880349 0.065318 -0.046272803
000260 28 f8 f4 ba 91 51 59 3d db 85 00 bd cb d9 b8 3d
       -0.0018689679 0.053056303 -0.031377655 0.09025916
000270 2e 6a 1f 3d c9 ec 09 3a d5 a5 1d be a8 30 7c bd
       0.03891962 0.0005261419 -0.15395291 -0.06156984
000280 1f d9 4d bd 87 62 89 bd 17 fa d9 3d 3f d8 5b 3c
       -0.05025589 -0.06708246 0.10643404 0.013418256
000290 0d ff 9c bd 6b 46 88 3d 72 c6 fa bb 03 93 5a 3d
       -0.076658346 0.06654056 -0.007653051 0.053362858
0002a0 05 75 38 bd a9 08 aa 3d bc 4f 17 bd 7a ba 9a ba
       -0.045033474 0.08302433 -0.036941275 -0.0011804842
0002b0 24 6e 23 bd 5f df 05 bd 1c a6 b2 bd c6 b5 ca 3d
       -0.03989996 -0.032683726 -0.08723089 0.09897952
0002c0 d4 26 e3 bc 7b 59 70 bd ba 94 0c bd bf 8a 85 bb
       -0.027728476 -0.058679085 -0.034321524 -0.0040753777
0002d0 b0 bf eb 3a e2 8a 1c bb 87 74 bf bd 24 9a 08 bd
       0.0017986204 -0.0023886492 -0.09348398 -0.033350125
0002e0 55 21 8f bd 6d db 1b 3c fb c4 5d 3d 39 d7 e6 3c
       -0.069887795 0.009512764 0.054142933 0.028178798
0002f0 9e a1 d4 bc a6 4d 75 bd 83 82 53 3c 06 6d 1a 3d
       -0.025955971 -0.059888504 0.012909534 0.03770163
000300 6a b7 5b bd 21 93 4d 3c 58 db b9 3d 5e c1 93 3d
       -0.053641714 0.012547285 0.090750396 0.07214616
000310 47 d9 d2 bd 8d 30 5c 3c 28 91 be ba 8b 85 7f bd
       -0.102953486 0.01343931 -0.001453911 -0.062383216
000320 53 bf 61 bd 25 c9 74 bd 28 3a 18 be e5 8c 76 3d
       -0.0551141 -0.05976214 -0.14865935 0.06019296
000330 4f c9 c8 3b 62 f6 4b 3d 89 5a e1 3c f4 e0 8d 3d
       0.0061275135 0.049795516 0.02750899 0.06927672
000340 cb b1 ef 3b f6 a5 0d bc 76 55 3c 3e 90 b1 6f 3c
       0.0073148957 -0.008645525 0.18391976 0.014629737
000350 6a 22 58 3d 5a c4 fa bc 01 ec 24 3b d3 4a 35 bd
       0.052767195 -0.030611206 0.0025165083 -0.04426081
000360 28 a5 13 bd a5 66 a7 3c 40 23 c1 bc 70 cd 0f be
       -0.036046177 0.020434687 -0.023576379 -0.14043212
000370 99 f5 33 bd 92 7a 8f 3d 14 d6 ae 3d 33 88 d0 bd
       -0.043935392 0.070058 0.08536926 -0.10182228
000380 74 39 29 3b bd 1f 9d bc 19 f9 30 bb a6 51 24 3d
       0.0025821598 -0.019180173 -0.0027003943 0.04011693
000390 14 c0 94 3d ed 03 1d 3d d1 0d 56 3c 8f 11 df 3d
       0.072631985 0.038333822 0.0130648175 0.10892021
0003a0 65 b6 c0 bc a5 f7 97 bd 84 32 be bc 80 17 91 3d
       -0.023524472 -0.07420281 -0.023217447 0.070845604
0003b0 4b 95 63 3d 30 e3 fc bc 6c 3b 83 bd 7c f1 b4 bd
       0.0555623 -0.03087005 -0.06407818 -0.08835122
0003c0 32 15 fd bc 45 06 4f bd 0b 48 37 bc ff 94 f1 3c
       -0.030893896 -0.05054309 -0.01118661 0.029489992
0003d0 8e 2d e9 bd a4 be ba 3c 08 47 63 3d 7e 78 fc bc
       -0.11385642 0.022795983 0.055487663 -0.030819174
0003e0 7b e3 fc bd 51 20 72 3d 4b 11 45 3b ba 3b a7 bd
       -0.12348076 0.05911285 0.0030070122 -0.08165689
0003f0 7f 93 bd bd 4b 27 0c 3c b1 ac 0e bc 97 10 0c bd
       -0.09256648 0.00855429 -0.008708165 -0.03419551

base.cnn.4.bias f4 [32]
000000 55 9b 56 bd fb da 62 bd b1 97 d9 bc f0 8d de 3c
       -0.05239423 -0.055384617 -0.02656159 0.02716729
000010 60 e2 20 bd d6 b1 ec 3c 02 fa 3a bd 46 eb b7 bc
       -0.039278388 0.028893393 -0.045648582 -0.022451054
000020 e8 31 5c bc 4f 70 26 bd a5 4c 9e bc 88 b0 e2 bc
       -0.013439633 -0.04063445 -0.019323656 -0.027672067
000030 14 7d bc bc 4a 5d a4 bc 17 c0 a3 bc 3e 37 8e bc
       -0.02300886 -0.020064015 -0.019989057 -0.017360326
000040 f2 84 91 bd a1 1c c9 bc e0 70 26 bb 9e 8f 4c bd
       -0.071054354 -0.024549784 -0.0025396869 -0.04994165
000050 7b 59 7e bd 73 e2 c8 39 46 62 57 bc 17 2c 0f bd
       -0.062097054 0.0003831569 -0.013145989 -0.034954157
000060 7b 70 5d bd d9 ac 5d bc ef bc 46 bb dd 2e bc bb
       -0.054062348 -0.01352998 -0.0030325016 -0.005742891
000070 5a 23 b9 bd bd 57 03 bd b6 07 4d bd 4a 71 54 3c
       -0.09039946 -0.032066096 -0.05005618 0.012966463

base.cnn.7.weight f4 [64, 1440]
000000 ee e8 53 3d 31 a5 e2 3d 29 1b 56 bd 83 8e bb 3d
       0.05173581 0.11066664 -0.052271996 0.09158041
000010 0f c2 1f bd 37 c7 e3 3c 9c f8 c9 3d 09 09 34 3d
       -0.039003428 0.027804954 0.098618716 0.04395393
000020 fd 87 f5 bc 88 6a be bd 5f 67 02 3d 2d 47 f7 bd
       -0.02997207 -0.09297663 0.031836864 -0.120741226
000030 52 d1 ae bd 0c cc 91 bb 9c 61 65 bd 5a c4 0f 3d
       -0.085360184 -0.004449373 -0.05600129 0.035099365
000040 4c 87 97 3d 33 45 7c bc 87 c3 f8 bc ce 11 56 3d
       0.07398853 -0.015397358 -0.030366672 0.052263074
000050 8b ac ab 3c 59 72 55 bd 90 42 49 bc ca ff c2 3a
       0.020956298 -0.052111004 -0.012283936 0.0014877256
000060 36 fa 07 3c a2 32 aa 3d e7 cd c4 3c 87 cf e7 bc
       0.008299401 0.08310439 0.024023963 -0.028297199
000070 ee 5c 99 3c ff 87 27 bd b0 37 4d bd 04 3f 17 bd
       0.01872107 -0.04090118 -0.050101936 -0.03692533
000080 8c 03 33 3c 94 fe b5 3c 9e c7 54 bd 03 7e d8 bc
       0.010926139 0.022216119 -0.051948182 -0.026427275
000090 77 38 d8 3d 11 2e c4 bc bb 49 b5 bd 09 d5 c9 bc
       0.10557645 -0.023947747 -0.088519536 -0.024637716
0000a0 3d 03 eb 3c ca cd 58 bc bf 22 9e 3c e4 9f 88 bd
       0.028688068 -0.013232658 0.019303678 -0.06671122
0000b0 c7 55 6a bd 58 ad f3 3b 7e 56 3c 3d c0 24 d4 3b
       -0.05721071 0.0074364357 0.045980923 0.0064741075
0000c0 68 fe 95 3d d3 b2 d1 bd 50 cd 27 38 cc 1a 63 bc
       0.07323915 -0.10239186 4.0007115e-05 -0.013861369
0000d0 23 69 9e 3c 00 d9 f6 3c 1a c9 5d bd 1f a6 d6 3c
       0.019337242 0.03013277 -0.054146864 0.02620226
0000e0 23 2b 5a bd d7 c6 14 3d 5f 50 61 bd e1 38 6e 3d
       -0.053263795 0.03632244 -0.05500829 0.058159713
0000f0 18 94 7f bc 6b 61 bb 3d 6a 36 25 bd 6b b4 a4 3d
       -0.015599273 0.091494404 -0.040335096 0.080422245
000100 ce 6b ed bd 3d 8e 12 bd 45 4a 25 3e e5 cd 94 bd
       -0.11592828 -0.03578018 0.16141613 -0.07265834
000110 bc 28 08 3e 38 2f 0c 3d 30 46 5a bb 3d dd b8 bd
       0.13296789 0.03422472 -0.0033305995 -0.09026573
000120 5c b3 63 bd e8 40 8f 3c 09 89 7b 3d 5e fb eb bc
       -0.055590972 0.017487004 0.061409984 -0.028806385
000130 b2 5e 4a bc 1e 1f d0 3c 93 ef e0 bd f9 17 8e bc
       -0.012351679 0.025405463 -0.10983195 -0.017345415
000140 e5 76 dc 3c 9d 48 46 3d 14 4f 61 bc 91 3e 7c bc
       0.026912162 0.048409093 -0.013751764 -0.015395776
000150 f9 a3 43 3d 71 5c 04 3d 75 20 68 3d 05 9b 7c be
       0.0477638 0.03231472 0.05667158 -0.2466851
000160 58 67 11 bc 4f 89 ad 3d 8f 63 1e bc 75 90 64 bd
       -0.008874737 0.08473455 -0.009667291 -0.055801827
000170 f8 d9 8f bc 34 91 6a 3d 5d 41 97 bd 4b e0 1b 3c
       -0.01755999 0.057267383 -0.07385514 0.009513925
000180 4e fd 9c bb a4 41 31 bc 92 24 12 ba f6 48 50 3d
       -0.0047909385 -0.010818873 -0.00055749074 0.05085083
000190 7f 5f 5a 3d 50 fa ca bd 9f a4 da bc 7b dc d5 3c
       0.05331373 -0.099110246 -0.026689826 0.02610611
0001a0 f6 2d 2e bd 6f e2 86 bd 53 f7 5e bd 1f e0 32 3d
       -0.0425243 -0.065861575 -0.054435086 0.04367077
0001b0 31 1b 8c bc 14 40 53 bd cc 5b 75 3d 20 4f 8c bd
       -0.01710281 -0.05157478 0.059901997 -0.068510294
0001c0 81 6c e0 bd 08 f2 09 3e fa 32 ba ba ed ed ad bd
       -0.109581955 0.13471234 -0.0014205866 -0.08492646
0001d0 88 3d 82 bd 4d 4d 1f bd ee 84 9e bd 37 86 81 3d
       -0.063593924 -0.03889208 -0.07740198 0.063244276
0001e0 99 08 60 bd 0d 95 50 3d c3 a9 40 bd 93 09 95 3c
       -0.0546957 0.050923396 -0.047036897 0.018193042
0001f0 b9 e9 0d be dc 3d 81 3c 07 18 1a bd d9 cf 9b 3d
       -0.1385869 0.015776567 -0.03762057 0.07608003
000200 e8 bd de 3c 30 67 31 3d d8 f6 ed bd 6e 1d b2 bc
       0.027190164 0.043311298 -0.11619347 -0.021742549
000210 4e 58 b4 3b 4b 72 14 3c db 81 fb bd 16 de 64 3d
       0.005503691 0.009060453 -0.12280627 0.05587586
000220 00 d0 c0 bd 86 d1 27 be 4d 85 ba bc 86 f7 41 3d
       -0.09414673 -0.1638852 -0.02276864 0.047355197
000230 f9 88 d2 3d bc fa d4 3d f3 fc 0d 3d ba f6 8e bc
       0.10280032 0.10399386 0.03466506 -0.017451633
000240 a9 ac 14 3d d7 df cc 3d cf 29 8e 3c 8e 8a 7b 3c
       0.036297474 0.100036316 0.01735392 0.015352858
000250 64 1e 84 bd e7 6f e1 3d 24 f5 88 3c 0c be 3c be
       -0.06451109 0.11007672 0.016718455 -0.18431872
000260 7f 7b cd 3b 26 6a 03 bd 25 24 dd 3d 13 82 16 bc
       0.0062708254 -0.032083653 0.1079791 -0.009186286
000270 1f 42 ac 3c 86 42 5e 3c 5e 10 23 be cf 32 e4 bc
       0.021027623 0.013565665 -0.15924212 -0.027856259
000280 a8 42 0d bd 41 49 3e 3d 7b 4a 1c 3b c5 e8 39 3d
       -0.034487396 0.04645658 0.0023848105 0.045388002
000290 bf d3 73 3d 23 65 9e bc 5e 6f 40 3b a2 8a 02 3b
       0.05952811 -0.019335335 0.0029363255 0.0019919057
0002a0 62 8e ca bc f6 ac a4 3c a8 e5 1e bd f7 8d a8 bd
       -0.024726097 0.020102005 -0.038793236 -0.08230203
0002b0 f4 7c b5 bc 5e f4 f7 bd bb ad ed bd 4c c6 bf bc
       -0.022154309 -0.12107156 -0.11605402 -0.023409985
0002c0 69 79 5a 3d 76 34 70 3d 53 63 9f bd fa 32 bf bc
       0.053338442 0.05864378 -0.077826165 -0.023339737
0002d0 e1 7c a0 bd 0f 47 7a bd 59 e6 10 bc 83 be 01 3d
       -0.07836319 -0.061102923 -0.008843982 0.031675827
0002e0 42 0a a5 bd 42 4b 1b bd 4b 90 b3 3d c8 af a6 bc
       -0.08058597 -0.03791357 0.08767756 -0.02034749
0002f0 00 14 fa bb cd e2 a8 bd e5 23 99 bb 4e 5f 9e bd
       -0.0076317787 -0.08246384 -0.0046734684 -0.07733022
000300 ec b3 44 3d 3c 27 e4 bd 9c 0e ac 3d ae 8e e8 bd
       0.04802315 -0.11140296 0.08401224 -0.11355339
000310 90 31 f5 bc 9b ef 2e 3d a9 fc 2d bd f2 17 d7 3d
       -0.02993086 0.042708974 -0.042477284 0.10502614
000320 a1 97 78 3d d7 c3 ba 3c 90 5d d3 3d 57 41 90 3d
       0.06069148 0.022798462 0.1032058 0.070437126
000330 d3 2e 4c bc 55 fc af bb 3c 62 ac bc a1 bd 3a bd
       -0.012462336 -0.0053706565 -0.021042936 -0.045591
000340 fc 06 9a 3d d3 18 d7 bc 05 e6 8d bd be 0e a1 3c
       0.075208634 -0.026256954 -0.06928638 0.01966035
000350 a5 8d ab 3d e0 ab b8 3b 2a 10 77 bd 30 d8 75 bd
       0.08376626 0.0056357235 -0.06031815 -0.060020626
000360 e2 f7 cb 3d ef ee 2b 3e 90 02 c0 bd 3a 0c 76 bd
       0.09959389 0.16790365 -0.09375489 -0.060070254
000370 2a d8 e9 3c 04 ed b7 bd 79 d0 01 be 0d 52 f9 bd
       0.028545458 -0.08980754 -0.12677182 -0.12173853
000380 28 76 28 bd 03 7c a6 bd c0 e3 18 3c 45 0e 48 bd
       -0.041128308 -0.08129122 0.009331644 -0.048841733
000390 60 64 b1 bc 02 6f b5 bd 3c 11 36 3d 1a 01 d9 bd
       -0.021654308 -0.08859064 0.04445003 -0.10595913
0003a0 6c cc 4f 3b b9 40 8b 3a b4 d8 01 3b 50 22 4c 3d
       0.0031707538 0.0010624147 0.0019813003 0.04983741
0003b0 74 21 e9 3d 16 f7 d9 bd 57 e4 1a be c7 94 7f bb
       0.11383334 -0.10642831 -0.15126167 -0.003899859
0003c0 49 8b 0d 3e b1 a9 f5 3d 14 2b dd 3d 98 24 46 be
       0.13822664 0.11995257 0.10799232 -0.19349897
0003d0 39 e6 0e be cc 55 5b 3d 79 0d 7a bd d3 6e 38 bd
       -0.1395501 0.05354862 -0.061048005 -0.045027565
0003e0 aa 68 81 bb 54 1c 3d bd 74 19 4f bc cb 98 07 bd
       -0.0039492445 -0.046169594 -0.012640346 -0.0331047
0003f0 0b 88 c9 bd fb 70 c1 bc ad b3 a6 3d f6 cc fa bc
       -0.09840401 -0.023613444 0.08139739 -0.030615311

base.cnn.7.bias f4 [64]
000000 76 a0 41 bd b9 df ca bb 80 e2 91 bd 17 da 30 bd
       -0.047272168 -0.0061912206 -0.071232796 -0.043176737
000010 56 03 a4 bd b1 d8 1f bd 7e 0f 79 bd 46 eb 4a bd
       -0.08008449 -0.039025012 -0.06080579 -0.04954078
000020 f6 d7 1c bc 25 e0 45 bc 79 12 11 bd 90 b0 79 bd
       -0.0095729735 -0.012077366 -0.035418008 -0.0609594
000030 b5 23 c2 bc 94 12 41 bd 5d 70 32 3c a8 e3 e4 bc
       -0.023698667 -0.047136858 0.010891047 -0.027940586
000040 6b 4b 31 ba 24 e4 98 bc 72 21 d9 bc 26 d8 8c bd
       -0.00067632523 -0.018663473 -0.026505206 -0.068771645
000050 55 a9 56 bd d9 e3 8f bd 00 75 27 bd e6 03 05 bd
       -0.05240758 -0.0702588 -0.040883064 -0.03247442
000060 9f 0f 0a bc 8d 11 5a bd 7c 5d d3 bc 43 b5 39 bd
       -0.008426576 -0.053239394 -0.025801413 -0.04533888
000070 25 5d f1 bc 07 ac cb bb c1 6c 9c bb aa 1f 50 bd
       -0.02946336 -0.0062155756 -0.0047737067 -0.050811447
000080 60 4f e4 bc e5 ce 6d bc 65 51 c8 bc e1 59 b9 bc
       -0.02786988 -0.0145146595 -0.024452874 -0.022625865
000090 a7 93 28 bd b9 47 bd bc c0 65 a0 3c b1 81 e2 bc
       -0.041156437 -0.02310549 0.019579768 -0.027649732
0000a0 91 dd 34 bc 2e 80 00 bd 93 72 be bb b5 ba 33 bd
       -0.011039154 -0.03137224 -0.005811998 -0.04387923
0000b0 8e 68 29 bd 03 53 18 bd dc bf d0 bc c4 24 88 bd
       -0.041359477 -0.03718854 -0.02548211 -0.066476375
0000c0 50 13 67 bd 31 4c 35 bd a6 b9 4e 3c aa a4 06 3c
       -0.056414902 -0.044262115 0.012617504 0.00821797
0000d0 11 4e 2a bd 45 3a 59 bd 17 06 05 bd 4c 4e c8 bc
       -0.041578356 -0.053034086 -0.03247651 -0.024451397
0000e0 fb 1a 78 bd 5f b8 95 bc 1e 08 0a bd f7 07 f8 bc
       -0.060572606 -0.018276392 -0.033699147 -0.030277235
0000f0 7d cc 36 bd 68 5f f8 bb b5 bd 7b bd ff d1 63 bb
       -0.04462861 -0.0075797327 -0.061460216 -0.0034762619

base.cnn.9.weight f4 [64]
000000 a9 67 78 3f 6a cc 85 3f fb f5 82 3f a1 87 81 3f
       0.9703317 1.0453007 1.0231317 1.0119516
000010 5c dd 80 3f f6 22 6a 3f 64 a4 89 3f b6 04 77 3f
       1.0067554 0.91459596 1.0753293 0.96491563
000020 e0 82 80 3f 14 53 77 3f a1 a9 7f 3f 87 ef 7b 3f
       1.003994 0.9661114 0.9986821 0.98412365
000030 97 2a 81 3f f3 e4 79 3f 0c 63 86 3f 26 21 88 3f
       1.0091122 0.97614974 1.0498977 1.0635116
000040 19 69 82 3f 8f b0 76 3f b3 73 7c 3f 74 16 8b 3f
       1.0188323 0.9636316 0.98614043 1.0866227
000050 45 8f 7f 3f 82 51 84 3f 42 ab 79 3f 22 ca 76 3f
       0.99827987 1.0337374 0.97526944 0.9640218
000060 2a 27 88 3f 0c 68 79 3f 26 f7 7d 3f 03 d6 85 3f
       1.0636952 0.9742439 0.99205244 1.0455936
000070 57 8d 87 3f 74 41 6d 3f fa 75 80 3f b3 5f 6a 3f
       1.0590008 0.92678 1.0036004 0.91552275
000080 b2 73 84 3f 09 08 87 3f 87 34 84 3f 47 35 7f 3f
       1.0347807 1.0549327 1.032853 0.9969067
000090 7c 6e 84 3f 0c 8d 77 3f f2 0d 84 3f 4c aa 86 3f
       1.0346217 0.96699595 1.0316756 1.052072
0000a0 e4 65 79 3f db 46 5b 3f 5d 02 7e 3f b2 6a 81 3f
       0.974211 0.8565499 0.99222356 1.0110686
0000b0 52 01 85 3f d3 c6 88 3f dc d0 80 3f 1e e5 71 3f
       1.0391028 1.0685676 1.0063739 0.9449023
0000c0 08 7c 86 3f 10 d6 82 3f 00 dd 81 3f 64 d6 72 3f
       1.0506601 1.0221577 1.0145569 0.94858384
0000d0 e9 6e 82 3f 3d 1e 93 3f a4 d5 7c 3f 95 10 81 3f
       1.0190097 1.1493603 0.9876349 1.0083185
0000e0 cc f3 88 3f b0 b5 82 3f 9c 71 7b 3f 98 df 82 3f
       1.0699401 1.0211697 0.9822023 1.0224485
0000f0 89 d7 6a 3f 71 f8 73 3f a2 30 89 3f c3 b7 8a 3f
       0.9173513 0.95300967 1.0717967 1.083733

base.cnn.9.bias f4 [64]
000000 01 44 5e 3d 2b 60 29 bc b7 c2 91 bd 4b ff 49 bd
       0.054264072 -0.01033787 -0.07117217 -0.049315732
000010 52 93 4c bd aa 07 8c 3d 38 d0 1a be a0 36 e1 3c
       -0.049945183 0.06837399 -0.15118492 0.027491868
000020 13 ed 32 3d 28 26 8d b8 21 78 00 bd 61 d2 93 3c
       0.043683123 -6.730511e-05 -0.031364564 0.018044652
000030 d8 03 df 3a 52 62 a4 bd 4a f4 b0 3c 91 b0 7f bd
       0.0017014695 -0.080265656 0.021600861 -0.062424246
000040 ea 11 db 3c 4d 85 f5 bc 17 9f 8f bd 82 22 f0 bd
       0.02674194 -0.02997079 -0.07012766 -0.11725332
000050 ba f1 0e bd 19 81 54 bd 6b f3 2d 3d 8f 38 31 bd
       -0.034898497 -0.05188093 0.04246847 -0.04326683
000060 68 95 16 bc 21 80 81 3c c5 4f 3b 3d 7c 1b 72 bd
       -0.009190895 0.015808167 0.04573037 -0.059108242
000070 49 69 60 bc 10 91 e2 3d 09 5d b4 3c 0b e3 4b 3d
       -0.013696977 0.11062825 0.022017019 0.049777072
000080 79 f6 2e bd 00 df 70 3c 88 86 97 bd 6b 99 e8 bb
       -0.042715523 0.014701605 -0.07398707 -0.007098367
000090 df fc b0 bd 05 7f a5 bc 7a c9 75 3d cc 5f 56 bd
       -0.08641981 -0.02020217 0.060006596 -0.052337453
0000a0 2d 61 81 ba a3 ff 30 3e cd 25 af 3b 17 8e c7 bc
       -0.000987088 0.17285018 0.0053450824 -0.024359746
0000b0 01 2e f9 bd 79 f4 90 3d 2c e7 7f bb 0c e1 ef bc
       -0.12166978 0.070778795 -0.0039047701 -0.029282115
0000c0 3c f1 53 bd 12 06 68 3c 76 1e 45 bd a0 f3 d4 3d
       -0.05174373 0.0141616035 -0.048124753 0.1039803
0000d0 5f c3 41 3d 97 45 19 be c3 c5 38 bb 7a 0a c3 bb
       0.04730546 -0.14967953 -0.0028194047 -0.0059521766
0000e0 5a 70 69 bd c8 36 8e 3b 44 14 aa 3d a5 87 df bc
       -0.056991912 0.0043400265 0.083046466 -0.02728636
0000f0 43 d6 05 3e a9 ab 4f 3d c3 e8 3b 3c c4 01 c0 bc
       0.13070016 0.050700817 0.011469069 -0.023438342

base.cnn.10.weight f4 [64, 64]
000000 bf 84 25 be 57 d8 1e 3d 78 4f 5c be 01 34 c4 3d
       -0.1616392 0.038780537 -0.2151469 0.095802315
000010 63 ba 7a 3e 80 12 1a 3e 49 8a 1b 3d 4c 3d d4 bd
       0.24485163 0.1504612 0.037973676 -0.10363254
000020 1b a3 92 3d db 30 80 3d b3 7c 21 3d 5f 43 8a 3e
       0.07160016 0.062593184 0.039425563 0.27004525
000030 3c f2 ed bd 6d ed ae bd 9c d8 de 3d 1c 56 4f bd
       -0.11618468 -0.08541379 0.10881159 -0.05061923
000040 cd f9 03 bf c3 ab 45 3e 11 11 0b bd d0 2d aa be
       -0.5155304 0.19303803 -0.033951823 -0.33238077
000050 a0 9e 09 bc c9 69 35 be 3a f7 45 be 60 41 a5 bd
       -0.008399636 -0.17716135 -0.1933259 -0.0806911
000060 28 30 94 3e 56 a6 a9 3e 47 8f 0f 3c a9 e7 54 3d
       0.2894299 0.33134717 0.008762187 0.05197874
000070 7c e9 b2 3d 74 cc 0c be 50 d0 a4 be fb e2 e3 bd
       0.0873594 -0.13749868 -0.3219018 -0.111272775
000080 22 79 c6 bc 55 9f 42 be ae 48 a6 be b9 81 41 3e
       -0.024227683 -0.19006093 -0.32477325 0.18897142
000090 bf 27 05 3c e8 7e 3d 3e 1d f8 11 3f 03 68 00 be
       0.008127152 0.18505442 0.57019216 -0.12539677
0000a0 bb 9d 14 3e 2e b2 95 3d 6c 64 20 3e 12 73 6b 3e
       0.14513294 0.07309376 0.15663308 0.22993115
0000b0 18 aa e4 be 76 9f 4f be 73 10 90 3d c7 f3 72 be
       -0.4466102 -0.20275673 0.070343874 -0.23725806
0000c0 05 6d 32 be d7 34 95 be 62 fb 98 bd 63 e5 58 be
       -0.174244 -0.29141876 -0.074698225 -0.21181254
0000d0 5f 2a 0a 3d 67 cd 53 3e 1d 85 f8 3c 0a 01 bb be
       0.033731814 0.20683824 0.03033691 -0.3652423
0000e0 ee 64 85 3d 53 f3 e7 3d 48 36 00 bc 59 b8 64 3e
       0.065133914 0.11325707 -0.007825442 0.22335948
0000f0 34 9b e4 bc f5 75 76 3e 76 08 75 3e 56 bc 21 be
       -0.027906038 0.24068435 0.23929009 -0.157945
000100 69 e8 f5 be 91 1d 82 be ca 0d af 3d 91 64 69 3d
       -0.48028877 -0.25413182 0.08547552 0.056980673
000110 6e 29 c1 3d 30 d8 94 3c 97 fb a0 3d 50 25 d8 bd
       0.0943173 0.018169492 0.07860487 -0.10553992
000120 88 24 77 be f0 c3 a1 bd 77 db 17 bd 90 6e d5 3c
       -0.2413503 -0.078987 -0.037074532 0.026053697
000130 8f 5c 24 be 24 f5 54 3e 2f e1 00 bd ae 32 53 be
       -0.16050933 0.20796639 -0.03146475 -0.20624802
000140 74 7b 5d be b4 54 ad bd 58 49 2c 3e 89 88 0e 3e
       -0.21629125 -0.084634215 0.16824853 0.13919272
000150 98 34 28 3c 1f 2d 5a bd 3a 5c 9c ba 16 28 1e 3d
       0.010266446 -0.053265687 -0.0011929341 0.038612448
000160 1e 26 91 3d af a6 91 bd 74 05 8b 3e 74 20 c3 3e
       0.070873484 -0.071118705 0.27152598 0.38110697
000170 26 7d 38 be 0a 3d c4 be d5 c3 84 be 3a d9 d4 ba
       -0.1801649 -0.3832782 -0.25930658 -0.0016239055
000180 f4 91 1d be 0b 68 6c 3c 5f 5f 78 be e5 38 07 bd
       -0.15387708 0.014429103 -0.24255131 -0.033013243
000190 d8 5c 13 3b 88 ea 6d 3d 9f 98 00 bd be bf 93 3e
       0.002248576 0.058084995 -0.03139555 0.28857225
0001a0 ae ca 01 be 4d 12 bc 3c e6 01 68 3c ed ba 66 bd
       -0.12674972 0.022957945 0.014160609 -0.05633061
0001b0 4b ea 53 be 6b 8c ec 3d b6 1a 42 be ee 10 27 3d
       -0.20694844 0.1155022 -0.18955502 0.04078763
0001c0 a8 d0 2c 3e 2d 1d 36 3e 4c 6a 72 bb 83 76 5d 3e
       0.16876471 0.17784567 -0.0036989627 0.2162724
0001d0 90 c2 e8 be a5 1c 11 be 9b 2d d6 bd ff d6 c2 bd
       -0.4546094 -0.14171083 -0.10457917 -0.095136635
0001e0 a5 3d 29 3e 12 a6 84 3e b4 f8 e0 3e 19 a0 45 3e
       0.16527422 0.25907952 0.43939745 0.19299354
0001f0 33 9b 59 3d 8c f5 90 3c df 09 9d be 3b fc d8 3c
       0.053126525 0.01769521 -0.30671594 0.02648746
000200 d0 03 22 3e 25 cd 5e be 8b 2f 22 3e 7a d4 a2 be
       0.15821767 -0.21757944 0.15838449 -0.31802732
000210 7b 24 cb 3d eb c9 06 3e 7d 6c 4d 3d f0 09 7d 3d
       0.099190675 0.13162963 0.05015229 0.061777055
000220 92 b3 31 be a6 a6 cd bd 63 d0 bd be d9 d1 f6 3d
       -0.17353657 -0.10041551 -0.3707305 0.12051744
000230 a9 cf be 3d 9a b1 15 3e a4 f5 84 3e 57 d1 f4 3d
       0.09316952 0.14618531 0.2596866 0.11953991
000240 f8 42 56 3e 06 1d 10 bd 32 33 f4 3d a9 eb a8 bb
       0.20923984 -0.03518393 0.11923827 -0.005155046
000250 09 ac 4a 3c c1 d8 84 be bd 6e 1d bd c8 cc cb bd
       0.012370118 -0.2594662 -0.038435686 -0.09951168
000260 57 91 9b be 72 d5 0d 3e ca 95 ad be a4 7a 72 bc
       -0.30384323 0.13850954 -0.33903342 -0.014799748
000270 0c 99 71 3e fb 85 a0 bd a0 09 f2 bd 9f 44 49 be
       0.23593539 -0.07838055 -0.11818242 -0.19655083
000280 f2 96 c0 3e 82 65 1f bf af 83 e9 bd 05 04 89 be
       0.37615162 -0.62264264 -0.1140207 -0.2676088
000290 b2 61 6b 3e 6b 02 19 3c 8e fa fc bd f0 da b0 3e
       0.22986487 0.009338955 -0.12352477 0.34542036
0002a0 39 67 ad 3e 4b 22 0f 3e 4c ea b4 3d b9 ed 84 3e
       0.33867815 0.13977925 0.08833751 0.25962618
0002b0 96 5d 18 3e cc 08 e0 3d ec 8b ae bd 10 d4 e6 3d
       0.1487945 0.10939178 -0.08522782 0.112709165
0002c0 a7 f6 c8 3d 2a aa 28 3e 12 f5 8e bd 5d b8 59 be
       0.0981267 0.16471162 -0.06980337 -0.21261735
0002d0 12 2e 14 3e 60 c9 99 bd 57 71 8b be f1 75 1f 3c
       0.144707 -0.07509112 -0.2723491 0.009732709
0002e0 4d d1 62 3e bb 19 56 3e b2 98 00 be 71 99 2f be
       0.22150154 0.20908253 -0.12558249 -0.17148377
0002f0 4a 1d 27 3e b5 40 36 3e 4f c0 23 3e 8d bc 2f be
       0.16319767 0.17798121 0.15991329 -0.1716177
000300 6a 9b b1 3c fc 7d 71 be 68 89 cc 3d 22 d3 f9 bd
       0.021680553 -0.23583215 0.09987146 -0.121984735
000310 ca 92 98 be 40 c9 cf 3c 27 7e 5c bd c9 d2 80 3d
       -0.2979949 0.025364518 -0.053831246 0.06290204
000320 69 31 4d bd f1 ad 19 3e bc 7e a5 3e a9 70 c8 bd
       -0.05009595 0.1500776 0.32323253 -0.09787113
000330 d3 4d ce be d8 c6 9b be e8 a8 a3 3c 2f 00 c5 3e
       -0.4029375 -0.30425143 0.019978002 0.38476703
000340 f9 80 cb bd 0d 72 fd bd d0 96 48 be 10 79 0f 3e
       -0.09936709 -0.12375269 -0.1958878 0.14011025
000350 d9 d7 6c be af 12 b9 3e 56 70 40 bd 34 52 01 be
       -0.23129214 0.36147067 -0.046982132 -0.12629014
000360 72 aa 84 be 0e f7 5f 3e ea e5 65 be 94 e8 37 3e
       -0.2591129 0.21871588 -0.22450987 0.17959815
000370 64 e0 8f be 13 0d e8 bd 81 3e 41 be 4a b0 b1 be
       -0.28100884 -0.11330619 -0.188715 -0.3470481
000380 02 6d 86 3e ee 72 42 be aa a2 c8 bd e5 a7 49 be
       0.2625504 -0.18989155 -0.09796651 -0.19692953
000390 b7 25 13 be 4b 44 9a 3e 55 52 73 be a3 43 14 bd
       -0.14369856 0.30130228 -0.23761876 -0.036197316
0003a0 50 77 96 3d e6 9c bb bd 07 e5 09 3e 85 70 99 be
       0.07346976 -0.091607854 0.13466273 -0.29968658
0003b0 ba e0 1e 3e e8 3f 4f 3c 15 a1 15 be 8c d7 24 bd
       0.15515414 0.012649514 -0.14612229 -0.040244624
0003c0 d2 9b 4c 3e 49 b8 1e be eb cb aa bd a2 11 93 3d
       0.19981316 -0.15499987 -0.083396755 0.071810976
0003d0 f2 9c 06 be d1 b4 8e be bc 62 aa be 20 8e d9 bd
       -0.13145807 -0.27872327 -0.33278453 -0.10622811
0003e0 87 f4 3a be dd b0 2e 3e f6 b3 6b bd 32 19 69 3e
       -0.18257342 0.17059655 -0.05754467 0.22763517
0003f0 88 cb ec 3d d0 5c 7c 3d 64 c5 71 3d bb 0c a7 be
       0.11562258 0.06161195 0.059026137 -0.326269

base.cnn.10.bias f4 [64]
000000 02 d8 f0 3b 58 96 dc bc 03 b9 77 bd 0d df 93 3c
       0.007349969 -0.026927158 -0.060479175 0.018050695
000010 db d0 92 bd b4 dc bf bd 05 cf 57 bc ea a6 61 bd
       -0.07168742 -0.09368268 -0.013171916 -0.055090822
000020 24 4d a5 bd 2e a1 94 bd 8e 38 b8 bc 4f 3e e6 bc
       -0.08071354 -0.07257305 -0.022487905 -0.028105883
000030 ff 3c 73 bd 9b 9a 1b bd 88 f3 0f 3c 0b d7 a5 bc
       -0.059384342 -0.03798924 0.00878609 -0.020244142
000040 eb 32 79 3b a3 55 50 bd d8 1c 53 bd 66 c8 03 3d
       0.0038024734 -0.05086292 -0.05154118 0.032173537
000050 00 27 a0 3c 4d 63 7e bd 1f 39 bc bd 12 84 53 bd
       0.019549847 -0.06210642 -0.091905825 -0.051639624
000060 1e fb d8 ba 76 b5 aa bd b4 28 7f bc 7d 2a 53 bd
       -0.0016554331 -0.08335392 -0.015573669 -0.05155419
000070 7d cd cc bd e7 ad 08 be 0f 47 94 bd 2e 38 a9 bc
       -0.10000131 -0.13347588 -0.07240116 -0.020656671
000080 2c 70 0b be f0 7e 92 bc 1b 90 b0 bd 5c f1 98 bd
       -0.13617009 -0.017882794 -0.08621236 -0.07467911
000090 5b a5 56 bd 4c ee 58 bd 9b e6 e8 bc 7b bd ab bd
       -0.05240379 -0.052961633 -0.028430274 -0.0838575
0000a0 58 45 84 bc 80 b9 45 3c 1d f9 9f bc 5c 80 b8 bd
       -0.016146347 0.012068152 -0.019527966 -0.090088576
0000b0 88 7a 12 bd 58 4a 68 be 17 36 67 bc 3a 7a 0e 3e
       -0.035761386 -0.2268461 -0.014112017 0.13913813
0000c0 53 09 ce bd ff 9f 11 be ae 1b 4c bd 7d fc 61 bd
       -0.10060372 -0.1422119 -0.049831085 -0.055172432
0000d0 18 4f 1a bd 57 c7 f5 bd 2e 74 47 bc a0 b3 b6 bd
       -0.037673086 -0.12000912 -0.0121736955 -0.089209795
0000e0 9c 68 4e bd 5e 48 7c bd c2 53 a1 bc fa e4 2c 3b
       -0.050392732 -0.061592452 -0.01969326 0.0026381598
0000f0 a9 a6 82 bd fd ac d5 bd 6f 05 86 bd 37 8f b4 bd
       -0.06379444 -0.104333855 -0.06544005 -0.088163786

base.cnn.12.weight f4 [64]
000000 09 39 8d 3f 06 5b 62 3f 5c 5b 76 3f cb a7 86 3f
       1.1033031 0.8842014 0.96233153 1.0519956
000010 09 2e 7e 3f ef be 79 3f c4 2d 4d 3f 5e 1c 90 3f
       0.99288994 0.97556967 0.8014796 1.1258657
000020 49 cd 3c 3f 35 86 73 3f 13 b5 6a 3f 2a 3e 6b 3f
       0.7375074 0.9512666 0.9168255 0.9189173
000030 10 86 6e 3f 5c 1a 82 3f 3c 05 83 3f f1 5b 84 3f
       0.93173313 1.0164294 1.0235972 1.0340558
000040 34 8f 66 3f b4 d0 84 3f 9b e5 70 3f 04 34 74 3f
       0.9006226 1.0376191 0.9410035 0.9539187
000050 2c 4c 8c 3f 5c 70 56 3f 86 d1 8e 3f ea 34 82 3f
       1.0960746 0.83765197 1.1157691 1.0172398
000060 ab 20 86 3f e7 0d 75 3f 32 b3 73 3f db 77 86 3f
       1.047872 0.9572434 0.95195305 1.0505327
000070 81 bb 86 3f da d5 7c 3f 60 1f 86 3f 89 a7 82 3f
       1.0525972 0.9876381 1.0478325 1.0207378
000080 7c ba 85 3f b8 1e 70 3f 72 cd 81 3f 2f ce 81 3f
       1.0447536 0.93796873 1.0140822 1.0141047
000090 f6 42 87 3f 01 c0 7f 3f 32 19 85 3f f3 7f 66 3f
       1.056731 0.9990235 1.0398314 0.90038985
0000a0 8d 0c 80 3f fa 3a 8c 3f a8 47 86 3f 53 e8 7a 3f
       1.000383 1.0955498 1.0490618 0.9801075
0000b0 48 ec 89 3f 77 2f 4e 3f b0 95 7c 3f 97 dd 6a 3f
       1.0775232 0.80541176 0.98665905 0.9174437
0000c0 58 23 81 3f ca 57 76 3f 2e 5f 8e 3f 2a 4e 75 3f
       1.0088911 0.96227705 1.1122797 0.95822394
0000d0 82 73 91 3f 10 4a 79 3f 4f 8b 8b 3f ce ea 86 3f
       1.1363375 0.97378635 1.0901889 1.0540407
0000e0 57 75 85 3f 15 5d 88 3f 1f 47 90 3f 14 b1 89 3f
       1.0426434 1.0653406 1.1271704 1.0757165
0000f0 ee bb 71 3f 22 86 6a 3f c8 6d 82 3f b3 a3 80 3f
       0.9442738 0.9161092 1.0189753 1.0049957

base.cnn.12.bias f4 [64]
000000 40 dd 06 bc 4a 8a 57 3d 08 c5 bb 3c 2e b3 86 bc
       -0.008231461 0.052622117 0.0229211 -0.016442861
000010 39 56 32 3d 6e 47 0b 3d 9e 57 26 3e 88 7d a9 bc
       0.04353926 0.034003668 0.16244361 -0.02068974
000020 62 9b 5b 3c 02 48 20 3a f0 0a 4d bd 00 81 19 38
       0.013403745 0.00061142456 -0.05005926 3.6598183e-05
000030 be cd 00 3d e0 60 17 3d a3 9c 88 3d 18 bd cb bb
       0.03144621 0.03695762 0.06670501 -0.00621761
000040 99 4c 98 3d fb ed b3 bd ae 10 a3 3c 3f 55 9a 3d
       0.07436485 -0.087856255 0.019905414 0.07535791
000050 1a bf ff 3c 4f f1 ed 3d ca 35 a4 3c 36 ce 15 3d
       0.031219054 0.116182916 0.02004518 0.03657361
000060 00 ab 0f bd 93 85 63 bc c2 c3 50 3d 69 db 42 bc
       -0.035075188 -0.013886827 0.05096794 -0.011893132
000070 db 39 94 bd 83 ad 65 3d d0 9f ec bc 49 0c 23 bd
       -0.072375976 0.056073677 -0.028884798 -0.039806638
000080 9b 1b 9c bc 43 d5 34 3c ea 28 6b bc 66 ed 06 bd
       -0.019056132 0.011037174 -0.014353016 -0.032941245
000090 10 42 c0 bc f2 37 d4 3d 07 48 49 3d 85 1d b4 bd
       -0.023469001 0.10362233 0.049140956 -0.08794693
0000a0 b1 d4 97 bb a4 90 dc 3c 6c bb 89 3d 8e 76 55 bd
       -0.004633509 0.026924439 0.06725201 -0.052115016
0000b0 04 9e 38 3d ea d6 89 3d 42 e9 8d 3d 17 de 07 3e
       0.04507257 0.06730445 0.06929256 0.13268314
0000c0 ac 17 5b 3d c6 6f 17 bb 4a 17 9a bd 6e 83 a9 3d
       0.053489372 -0.0023107394 -0.07523973 0.08277021
0000d0 79 c9 29 bd b6 6e 23 bd b7 ef 34 3d 9b 48 89 bd
       -0.041451905 -0.039900504 0.044173922 -0.067033015
0000e0 66 17 90 bd c8 d6 93 bb c3 6c b1 bd 2b de 2a 3d
       -0.07035713 -0.004511688 -0.08663323 0.041715782
0000f0 0b e2 a0 bc 71 0f 18 be 09 23 4d bb 62 d3 bd 3c
       -0.019639036 -0.1484964 -0.00313014 0.023172084
