CRL_human_AI_overcooked/human_models/model_unident_open/actor_best_r12.pt (torch, 590162 bytes, 20 tensors)

base.cnn.0.weight f4 [32, 26, 3, 3]
-0.06440538 0.05785158 -0.19287626 -0.19798703 -0.17214294 -0.14785337 0.26314002 0.18355455
-0.0063743694 -0.2586034 0.09256932 -0.19241296 0.057370435 0.12857834 0.10746783 -0.14706467
0.082203716 0.12425638 0.108505294 0.29166946 -0.041528 -0.04226037 -0.14010057 -0.044683482
0.1260553 0.0773145 -0.13650282 0.015816877 -0.20512755 0.0066053933 -0.22715355 0.05782891
-0.11290102 0.119273156 -0.010120059 -0.06774985 -0.03932696 -0.15453719 0.0337907 -0.21357036
-0.22894107 -0.14231072 -0.07546838 0.11821585 -0.008299266 -0.122549914 0.12670681 -0.18396012
-0.03783786 -0.064738795 -0.048262235 0.17509195 0.119523875 0.25687915 0.05109399 0.057729073
0.021550884 0.13886736 0.1980268 0.19277716 -0.042923 -0.054491017 0.0023324932 -0.06990319
0.26591334 0.15806557 -0.032265756 0.101379395 0.04771065 -0.077548 0.023999644 0.25727525
0.07082712 -0.038353793 0.018694488 0.19592945 0.21005791 0.04913781 0.006054076 -0.08700915
-0.0032687588 -0.08552251 0.08428131 -0.13054195 -0.0033779219 -0.03599928 -0.08321664 0.07297989
-0.3145407 -0.13521676 -0.094442785 -0.003025271 -0.06397801 -0.036742 -0.1631857 0.08384259
-0.0787681 -0.014161222 0.0022923814 0.013745025 0.07613216 -0.1802759 -0.059758965 -0.044331
0.10353361 0.08127936 0.026181001 0.1303747 0.07895608 -0.05406123 -0.1585091 -0.031171693
-0.016611096 -0.025109867 0.13606653 -0.1821118 0.19801012 0.008474408 0.15571143 0.039283518
0.04375257 -0.002880878 0.049666937 0.0074290778 -0.09932603 0.14977337 -0.052667968 -0.060964577
-0.15800147 0.01968594 -0.003426273 0.19078046 0.06901275 0.16446383 0.17578669 -0.07861128
-0.032892287 -0.053146083 -0.059969258 0.026302814 -0.12897272 0.039300125 -0.024172276 -0.007179741
-0.1424276 0.06785738 -0.00016916856 0.06546249 -0.04083176 0.018891463 0.10197113 -0.030915206
0.065287285 -0.012767629 -0.033930946 0.04334714 0.011225627 -0.040095143 0.113894396 -0.020174338
-0.17729324 -0.0029067798 0.12750456 0.11490514 0.05229019 0.09814253 0.0606321 -0.028665973
0.003095048 0.044712294 -0.10684112 0.18561327 -0.17956747 -0.052815307 -0.08861188 -0.06872958
0.035101756 -0.18673685 -0.03142799 -0.16319548 -0.0016645335 0.12440822 0.17803718 0.091187485
0.077694125 0.03183714 -0.10758762 0.15544553 -0.021101126 0.050530046 -0.15338162 0.12903401
0.07575877 -0.018062022 -0.032634124 -0.11929652 0.03613838 -0.0027960844 -0.11818888 0.042748213
0.08108788 0.055861574 0.13521501 0.151426 0.3177477 -0.04283948 -0.15296005 -0.025316026
0.21347503 0.008524155 -0.08669894 0.25065196 -0.16645363 0.21399282 -0.15168487 -0.1064799
0.07660063 0.26360226 0.06874355 -0.087167814 0.004072801 -0.028925097 0.10704068 0.1622858
0.0820665 -0.0999944 0.19110624 -0.08881474 0.0021600714 -0.116140984 -0.08256915 -0.06477247
0.11524293 0.03262138 -0.008423171 0.0009029715 0.012394999 0.24338455 0.29607525 -0.085455745
0.04433358 0.16020922 0.1556487 0.11953386 0.25104895 0.26091853 -0.10154397 -0.0027435916
0.10338365 -0.08718281 0.016037766 -0.030694459 -0.29976052 -0.09541261 0.1506461 0.37122715
00000000: f8e6 83bd c7f5 6c3d 5b81 45be 1dbd 4abe
00000010: 3d46 30be e066 17be 4aba 863e b9f5 3b3e
00000020: 16e0 d0bb aa67 84be fc94 bd3d e707 45be
00000030: 43fd 6a3d 0aaa 033e 1818 dc3d 1f98 16be
00000040: 6c5a a83d 217a fe3d 0638 de3d b355 953e
00000050: 4419 2abd 3619 2dbd 8676 0fbe 0706 37bd
00000060: a414 013e 1157 9e3d 65c7 0bbe 6592 813c
00000070: f50c 52be 0e72 d83b f19a 68be 02de 6c3d
00000080: a638 e7bd 7c45 f43d 9bce 25bc 6fc0 8abd
00000090: 4e15 21bd ff3e 1ebe 1e68 0a3d 30b2 5abe
000000a0: 876f 6abe e7b9 11be 2a8f 9abd 271b f23d
000000b0: a5f9 07bc 73fb fabd 6ebf 013e 0b60 3cbe
000000c0: dffb 1abd c695 84bd 9fae 45bd 4e4b 333e
000000d0: efc8 f43d aa85 833e ef47 513d 5275 6c3d
000000e0: 7b8b b03c 3f33 0e3e 8ac7 4a3e 6067 453e
000000f0: 07d0 2fbd f931 5fbd bedc 183b 6729 8fbd
00000100: cb25 883e f1db 213e 1929 04bd 00a0 cf3d
00000110: 3e6c 433d 7cd1 9ebd e79a c43c 95b9 833e
00000120: cf0d 913d de18 1dbd 2f25 993c bba1 483e
00000130: 6c19 573e ba44 493d 4561 c63b da31 b2bd
00000140: ac38 56bb 6d26 afbd ae9b ac3d caac 05be
00000150: 2060 5dbb fb73 13bd 7c6d aabd 7b76 953d
00000160: 7b0b a1be 4376 0abe 386b c1bd a043 46bb
00000170: e706 83bd c87e 16bd 271a 27be aab5 ab3d
00000180: 2b51 a1bd 7804 68bc c73b 163b d032 613c
00000190: 2eeb 9b3d 3f9a 38be d1c5 74bd 6c94 35bd
000001a0: 6e09 d43d cb75 a63d 8a79 d63c f280 053e
000001b0: bab3 a13d 4f6f 5dbd 3650 22be c75b ffbc
000001c0: fe13 88bc 35b3 cdbc 0655 0b3e 847b 3abe
000001d0: 2ac3 4a3e 3ed8 0a3c d172 1f3e c1e7 203d
000001e0: e535 333d 1dcd 3cbb 8f6f 4b3d 9f6f f33b
000001f0: 726b cbbd 315e 193e 5eba 57bd feb5 79bd
00000200: 23cb 21be 6944 a13c 528b 60bb f45b 433e
00000210: 8f56 8d3d 3569 283e 6d01 343e f3fe a0bd
00000220: 10ba 06bd b5af 59bd 53a2 75bd 0079 d73c
00000230: 6d11 04be 2bf9 203d f004 c6bc 0844 ebbb
00000240: 8ad8 11be cff8 8a3d d762 31b9 3311 863d
00000250: 343f 27bd 45c2 9a3c 3dd6 d03d e341 fdbc
00000260: 57b5 853d 512f 51bc 2dfb 0abd c58c 313d
00000270: b1eb 373c ce3a 24bd 7741 e93d a744 a5bc
00000280: 5c8c 35be ac7f 3ebb 8e90 023e 6353 eb3d
00000290: 3d2e 563d f3fe c83d 5d59 783d e7d4 eabc
000002a0: 4ad6 4a3b 3d24 373d 84cf dabd 6811 3e3e
000002b0: 89e0 37be dd54 58bd 257a b5bd 18c2 8cbd
000002c0: dcc6 0f3d f237 3fbe a3ba 00bd b71c 27be
000002d0: 7a2c daba bdc9 fe3d 614f 363e 81c0 ba3d
000002e0: 191e 9f3d a967 023d e656 dcbd 1d2d 1f3e
000002f0: 45dc acbc 98f8 4e3d 1210 1dbe 7e21 043e
00000300: 6a27 9b3d cef6 93bc 5cab 05bd bc51 f4bd
00000310: d705 143d 833e 37bb 030d f2bd c018 2f3d
00000320: 6711 a63d 1bcf 643d ce75 0a3e 6b0f 1b3e
00000330: d4af a23e 7378 2fbd 8fa1 1cbe 8e63 cfbc
00000340: 3399 5a3e e6a8 0b3c 378f b1bd 7455 803e
00000350: d272 2abe ef20 5b3e 4753 1bbe 2212 dabd
00000360: cbe0 9c3d e0f6 863e 6bc9 8c3d 0a85 b2bd
00000370: 2275 853b 53f4 ecbc 2538 db3d 402e 263e
00000380: 7b12 a83d ddc9 ccbd 5bb1 433e 81e4 b5bd
00000390: fc8f 0d3b 53db edbd 041a a9bd 6ea7 84bd
000003a0: 7c04 ec3d ff9d 053d 5701 0abc 64b5 6c3a
000003b0: 6514 4b3c cd39 793e 2d97 973e 6c03 afbd
000003c0: 2197 353d e30d 243e 5f62 1f3e 2bce f43d
000003d0: 7d89 803e 1d97 853e 49f6 cfbd d4cd 33bb
000003e0: cfba d33d e78c b2bd a261 833c f272 fbbc
000003f0: 367a 99be b067 c3bd f942 1a3e 7c11 be3e

base.cnn.0.bias f4 [32]
-0.05941443 -0.009808508 -0.032439057 -0.00068543083 -0.020645957 0.0011144696 -0.053179994 -0.061721295
0.0019071372 0.011768754 -0.031510495 -0.07586849 -0.016759558 -0.02031644 -0.023933806 -0.07420106
0.029282387 -0.0341474 -0.03459465 -0.032961693 -0.09291477 -0.09072749 -0.0031762738 -0.07848292
-0.044610087 -0.059916746 -0.060478088 -0.016602084 0.03114596 -0.119529575 0.047824282 -0.027913453
00000000: 8c5c 73bd ddb3 20bc d1de 04bd 7cae 33ba
00000010: b621 a9bc 6513 923a 44d3 59bd 78cf 7cbd
00000020: e8f8 f93a bbd1 403c 2611 01bd f060 9bbd
00000030: 574b 89bc aa6e a6bc d410 c4bc baf6 97bd
00000040: 9ee1 ef3c 25de 0bbd 1fb3 0dbd d702 07bd
00000050: 194a bebd 56cf b9bd 0829 50bb a7bb a0bd
00000060: 11b9 36bd 436b 75bd dfb7 77bd 1801 88bc
00000070: d025 ff3c eccb f4bd 65e3 433d c1aa e4bc

base.cnn.2.weight f4 [64, 32, 3, 3]
0.06944501 0.05257553 0.013433349 0.046427827 0.020129204 -0.11302751 0.0037109146 -0.026573528
0.03213416 -0.023542836 -0.01266962 0.06721165 0.011983139 -0.070581466 -0.03995116 -0.03215457
0.038721945 -0.13828309 0.08479986 -0.13774355 0.027369723 0.034964345 0.14453578 -0.020528547
0.078582995 -0.07342355 0.053132627 0.039035715 0.026695367 0.070209675 0.23349588 -0.1115187
0.12115601 -0.0077013797 0.0069367164 0.24371698 0.023568602 -0.033685558 -0.076443814 0.20641251
-0.07559357 -0.032282896 -0.05360606 0.030814081 0.12692742 0.25272664 -0.111267924 -0.1186388
0.009116664 0.051956322 -0.12964575 0.1116857 -0.08172225 -0.101634815 0.05568176 -0.19964351
0.0051136194 0.09366351 0.010430825 -0.010418072 -0.007220974 0.13474236 -0.025164 -0.082990706
-0.098196045 0.16067086 -0.2505898 0.017530221 -0.0079073915 -0.06302789 0.0058018174 0.1645181
0.046881516 -0.037377924 0.054464936 0.07603649 -0.046045993 -0.09810188 -0.04514406 0.12010821
-0.02756905 -0.062055856 0.113678165 0.0730256 0.0979292 0.08190669 -0.08960576 0.072550334
0.103221215 -0.035972863 -0.008240744 0.044001073 -0.059222095 -0.13408217 -0.09016592 -0.06942006
-0.12476352 -0.124775246 -0.08926772 0.09018926 0.024888683 0.06335007 -0.1535652 0.055724315
-0.017161643 -0.026104828 -0.26018333 0.13712355 0.14499703 -0.02031038 0.053086635 0.12873827
-0.14733365 0.05648955 -0.013563588 0.014763686 0.14064345 -0.019965174 0.04373756 0.083307184
0.109320074 0.108024366 -0.068128444 -0.09496848 0.08909887 -0.00327974 0.038500246 -0.22428669
0.029696565 -0.028739743 -0.14848746 0.03648715 -0.078482725 -0.01238433 0.0062507694 -0.025111007
0.028646352 0.026917461 -0.103142925 0.036036942 -0.10165064 0.11510043 -0.07020682 0.011945127
-0.1016033 -0.03631292 -0.06840519 0.04030228 -0.07206818 -0.09370696 0.11359843 -0.10333024
0.09445683 0.20597857 0.046529897 -0.049098846 0.010868403 0.119408235 -0.0891588 -0.0143076265
0.03964016 -0.054300994 -0.057616223 0.04427205 0.13914101 -0.052611157 0.06719606 0.20317553
0.13344924 -0.031267714 -0.08213696 -0.06606122 -0.029952742 0.25841215 0.0058681723 0.03420047
0.08005416 0.030608132 -0.029054606 0.025279576 0.09324058 0.015596075 -0.11500693 -0.04026009
-0.0041990005 0.12530085 -0.17674287 0.0009108484 -0.18417305 -0.17597872 0.060619827 0.009331821
0.105070844 0.0021508331 -0.08868082 -0.019535014 -0.07083393 -0.037336946 -0.10746497 0.2727282
-0.058422644 -0.12889089 0.0024863584 0.15609813 0.07923087 -0.0046643545 0.16021633 0.095094174
-0.10039379 0.05468931 0.0979002 -0.023023568 0.010799681 0.16807815 -0.036688168 0.074425384
-0.014910635 -0.004398056 -0.05793622 0.06992365 0.066427365 0.051204283 0.02935479 0.1266711
-0.051635325 0.053610932 0.027565395 -0.0339921 -0.09192261 0.084170364 -0.034559168 -0.058971867
-0.1085319 0.09362731 -0.032169726 0.012314 0.16626948 -0.028815433 0.12430825 -0.050580945
0.21791568 -0.12161938 0.07101052 -0.011351844 0.021646287 -0.100012586 -0.03123115 0.23273444
0.032685086 -0.086193405 0.106053434 -0.14332177 -0.112289004 0.040577997 0.025175938 0.037718464
00000000: 2f39 8e3d 7059 573d 8d17 5c3c 1b2b 3e3d
00000010: 00e6 a43c f87a e7bd d132 733b bab0 d9bc
00000020: 1c9f 033d e8dc c0bc 3d94 4fbc 43a6 893d
00000030: ee54 443c 048d 90bd d4a3 23bd 83b4 03bd
00000040: e79a 1e3d 159a 0dbe 8dab ad3d a50c 0dbe
00000050: 7836 e03c c636 0f3d 3001 143e 7c2b a8bc
00000060: 1ff0 a03d 165f 96bd 99a1 593d eae3 1f3d
00000070: 3eb0 da3c 17ca 8f3d 8b19 6f3e eb63 e4bd
00000080: a420 f83d db5b fcbb 654d e33b f290 793e
00000090: f112 c13c def9 09bd 938e 9cbd cd5d 533e
000000a0: cdd0 9abd 123b 04bd 0792 5bbd d06d fc3c
000000b0: 43f9 013e 6365 813e 70e0 e3bd e6f8 f2bd
000000c0: 0f5e 153c 27d0 543d dbc1 04be 79bb e43d
000000d0: ff5d a7bd ea25 d0bd 8f12 643d 596f 4cbe
000000e0: 2690 a73b a8d2 bf3d 0de6 2a3c 90b0 2abc
000000f0: ec9d ecbb e7f9 093e bc24 cebc 08f7 a9bd
00000100: 021b c9bd e786 243e 4e4d 80be 8a9b 8f3c
00000110: 018e 01bc c414 81bd 2c1d be3b 6f77 283e
00000120: d506 403d 9819 19bd a016 5f3d 05b9 9b3d
00000130: b99a 3cbd a3e9 c8bd fae8 38bd 4bfb f53d
00000140: 7dd8 e1bc 482e 7ebd 19d0 e83d 728e 953d
00000150: 1b8f c83d b2be a73d 3a83 b7bd 4595 943d
00000160: a565 d33d 4858 13bd 2f04 07bc 783a 343d
00000170: de92 72bd d64c 09be e9a8 b8bd 1b2c 8ebd
00000180: 0484 ffbd 2a8a ffbd ffd1 b6bd 26b5 b83d
00000190: 5ae3 cb3c aebd 813d 3240 1dbe 2e3f 643d
000001a0: 9396 8cbc cbd9 d5bc c036 85be 1e6a 0c3e
000001b0: 1a7a 143e f461 a6bc 5f71 593d f7d3 033e
000001c0: a2de 16be 9661 673d d039 5ebc 63e3 713c
000001d0: d604 103e 018e a3bc 2826 333d f59c aa3d
000001e0: 34e3 df3d e13b dd3d ed86 8bbd d67e c2bd
000001f0: 7879 b63d e8f0 56bb 6fb2 1d3d 69ab 65be
00000200: 3646 f33c 9c6f ebbc 190d 18be 8d73 153d
00000210: 8dbb a0bd a5e7 4abc 41d3 cc3b 99b5 cdbc
00000220: c1ab ea3c 0282 dc3c 993c d3bd 799b 133d
00000230: 362e d0bd c6b9 eb3d 98c8 8fbd 7eb5 433c
00000240: 6415 d0bd dbbc 14bd 0518 8cbd 0114 253d
00000250: 7b98 93bd 6fe9 bfbd 4ba6 e83d ce9e d3bd
00000260: 9572 c13d 0cec 523e 2296 3e3d df1b 49bd
00000270: 6311 323c 4e8c f43d e498 b6bd 896a 6abc
00000280: b85d 223d b86a 5ebd fdfe 6bbd 9c56 353d
00000290: fb7a 0e3e cc7e 57bd 179e 893d 3f0d 503e
000002a0: eba6 083e 9312 00bd 6c37 a8bd 1b4b 87bd
000002b0: 745f f5bc 994e 843e cc49 c03b cb15 0c3d
000002c0: 6ff3 a33d e8bd fa3c ed03 eebc 1d17 cf3c
000002d0: ebf4 be3d ae86 7f3c c188 ebbd c4e7 24bd
000002e0: c597 89bb de4e 003e 15fc 34be 00c6 6e3a
000002f0: dc97 3cbe c433 34be 7f4c 783d 7fe4 183c
00000300: 622f d73d fef4 0c3b 4a9e b5bd e507 a0bc
00000310: 6111 91bd a0ee 18bd 9816 dcbd 08a3 8b3e
00000320: 954c 6fbd f9fb 03be 2cf2 223b 30d8 1f3e
00000330: cb43 a23d 71d7 98bb c00f 243e bcc0 c23d
00000340: 429b cdbd e601 603d e67f c83d ec9b bcbc
00000350: 25f1 303c ae1c 2c3e 5546 16bd 566c 983d
00000360: bc4b 74bc 911d 90bb 884e 6dbd 2134 8f3d
00000370: 120b 883d 95bb 513d 7579 f03c 12b6 013e
00000380: 907f 53bd 2397 5b3d d3d0 e13c 4d3b 0bbd
00000390: ec41 bcbd 8361 ac3d ea8d 0dbd 7c8c 71bd
000003a0: f945 debd adbf bf3d 67c4 03bd a9c0 493c
000003b0: 8c42 2a3e 580e ecbc 5395 fe3d f72d 4fbd
000003c0: 4a25 5f3e 9513 f9bd f76d 913d 16fd 39bc
000003d0: 8e53 b13c 66d3 ccbd 78d8 ffbc f051 6e3e
000003e0: cce0 053d 2b86 b0bd 8b32 d93d f1c2 12be
000003f0: c7f7 e5bd 1d35 263d c53d ce3c ad7e 1a3d

base.cnn.2.bias f4 [64]
0.016030941 -0.02092438 0.0040338165 0.027201446 -0.007190492 -0.025593236 -0.00929324 -0.0012260341
-0.060267806 -0.047204394 -0.0028748896 -0.037460305 -0.021419035 -0.03887455 0.0077626817 -0.016614791
-0.037718542 -0.025465425 -0.038447417 -0.005349332 0.006630889 -0.02335119 -0.014674029 -0.05706172
-0.038686942 0.005049696 -0.002925496 -0.026103234 -0.021571033 -0.024935074 -0.01469375 0.004101865
-0.05816843 -0.10054216 -0.043259628 -0.019744579 0.012584401 0.015279706 0.019927496 -0.028783564
0.023863373 0.032955732 0.00999434 -0.017069446 -0.041748878 -0.042274427 -0.032396767 -0.023671385
-0.012002721 -0.011680539 -0.01860218 -0.027312899 -0.068753384 -0.047752436 -0.0141015425 -0.053048044
-0.041798458 -0.07386134 0.00067303877 -0.07066449 -0.0031486268 -0.03489547 -0.08570482 -0.020574264
00000000: 5253 833c 9b69 abbc 1b2e 843b 91d5 de3c
00000010: 389e ebbb e8a8 d1bc ac42 18bc e1b2 a0ba
00000020: 60db 76bd 6559 41bd a568 3cbb fa6f 19bd
00000030: f976 afbc ec3a 1fbd 185e fe3b be1b 88bc
00000040: c27e 1abd de9c d0bc 0a7b 1dbd 7349 afbb
00000050: ee47 d93b ff4a bfbc 576b 70bc 8db9 69bd
00000060: 3376 1ebd ec77 a53b aeb9 3fbb 73d6 d5bc
00000070: bcb5 b0bc a444 ccbc 0ebe 70bc f068 863b
00000080: 0542 6ebd 0ce9 cdbd 0231 31bd 62bf a1bc
00000090: ce2e 4e3c bb57 7a3c fd3e a33c 82cb ebbc
000000a0: 1f7d c33c 97fc 063d 4dbf 233c 39d5 8bbc
000000b0: df00 2bbd f327 2dbd 79b2 04bd 7eea c1bc
000000c0: 10a7 44bc bb5f 3fbc 9963 98bc 4dbf dfbc
000000d0: 93ce 8cbd 0f98 43bd 280a 67bc e848 59bd
000000e0: dc34 2bbd 9d44 97bd de6e 303a 8bb8 90bd
000000f0: 3159 4ebb 8dee 0ebd 0286 afbd 5c8b a8bc

base.cnn.4.weight f4 [32, 64, 3, 3]
-0.11577361 -0.048625086 -0.050097913 -0.013072599 -0.017103286 0.13426292 -0.002286249 -0.11114954
0.114781454 -0.15434287 0.065828905 0.08619056 -0.085211314 -0.13721433 0.009115891 0.013319842
-0.0982806 -0.104271814 0.007872884 0.11143968 -0.011090307 0.063940115 0.12645222 0.15857446
0.06516059 -0.038451094 0.1875266 -0.1314302 0.0066880425 -0.041768596 0.033335745 0.06812764
-0.104739584 0.047786918 -0.09296806 -0.020250183 -0.0008770123 0.014063359 -0.09925281 0.055081096
-0.013888739 0.07095359 -0.18186097 0.046170574 -0.17268123 -0.08213748 0.050797153 -0.0017042109
0.079246715 0.021860767 -0.09560531 -0.06675696 0.0690697 0.0522651 0.00025446631 -0.024259884
0.054236583 0.024670111 -0.033014793 -0.00095370796 -0.036632456 -0.003547178 0.05508858 -0.037023142
-0.00076711463 -0.101940535 0.12295523 -0.23993556 0.18751933 0.009933605 0.0069181086 0.02080741
-0.038232155 0.02632026 -0.009215821 0.07717944 -0.1197333 -0.15409638 -0.064660475 -0.061088417
0.110234044 -0.056074504 -0.0102232685 -0.1054491 -0.122999154 -0.015834052 0.1390316 -0.05508254
0.058859896 -0.06332654 0.020671105 0.013868115 0.023216307 0.0032679823 0.070827134 -0.12813836
0.053809837 0.006106485 -0.021322463 -0.025311878 0.101500556 -0.026183086 -0.08206051 -0.24924135
0.00034121703 -0.036079954 -0.16251688 -0.06323046 -0.07699438 0.045617808 -0.11007505 -0.042973608
-0.055206817 0.0039141485 -0.03537668 0.051369265 -0.09136606 0.037169993 -0.055758245 -0.019094765
-0.030057484 -0.04306239 0.14450578 -0.00528201 0.16089605 -0.031850357 -0.13290659 0.031821575
0.07870648 -0.13539459 0.11956778 -0.07870623 0.056967787 0.15524957 0.05070268 -0.039845034
-0.13936546 -0.15653269 -0.026078334 -0.08655886 -0.14354423 -0.03519882 -0.03631266 0.07535947
0.054783355 0.019614952 -0.112549454 -0.07590849 -0.07179009 -0.026291277 -0.07634593 -0.14361465
-0.090668924 0.14971317 -0.1433193 0.05743056 0.13845062 0.09329229 -0.06643058 -0.122828014
-0.02125874 0.0028802904 0.02428846 0.049061384 0.056379337 -0.055784818 0.00445136 -0.0026528353
-0.049271878 -0.031976495 0.013462022 -0.0046658427 -0.122786865 0.040409796 0.020261332 0.08456249
0.070381194 -0.012443693 -0.1151777 -0.077280164 0.17593865 0.01699379 -0.042059798 -0.09287966
-0.04982568 0.14811434 -0.004841149 -0.010535829 0.010516989 0.24958856 -0.15475933 0.034690328
0.043153428 0.032198615 0.16022272 0.1476195 0.035130195 0.02598517 -0.0740464 0.08217825
-0.08705315 0.04142068 0.15554997 0.013467742 0.03672837 0.0019289308 0.0036149528 0.10995657
-0.03066298 -0.08366469 -0.086012684 -0.02285075 0.04277974 0.027016412 0.0187678 0.0917991
0.06597862 -0.11597757 -0.0034361575 -0.018259194 -0.028320652 -0.049565166 -0.006769513 -0.07951408
0.031789456 -0.15459277 -0.04023753 0.0087590935 -0.08285466 -0.0021988857 0.040186845 0.049708094
0.011233007 0.020628335 -0.059809655 0.080375485 -0.023255453 -0.0026707149 0.19496608 -0.048263215
0.113373406 0.05866222 -0.014032787 -0.159333 -0.049478058 -0.030370284 -0.16584541 0.014638438
0.031829946 -0.08387757 -0.052266657 -0.036056172 -0.056429546 -0.040436164 -0.010823898 0.006047005
00000000: b71a edbd 192b 47bd 7833 4dbd 742e 56bc
00000010: 311c 8cbc 387c 093e e5d4 15bb 5fa2 e3bd
00000020: 8a12 eb3d 0f0c 1ebe 4ed1 863d ad84 b03d
00000030: 4583 aebd ea81 0cbe d15a 153c 773b 5a3c
00000040: 5747 c9bd 768c d5bd 45fd 003c 7d3a e43d
00000050: 1eb4 35bc 09f3 823d b17c 013e 5861 223e
00000060: ea72 853d e57e 1dbd f906 403e a395 06be
00000070: 5e27 db3b 8c15 2bbd 108b 083d 8186 8b3d
00000080: b581 d6bd 37bc 433d 0a66 bebd b6e3 a5bc
00000090: 4de7 65ba 016a 663c 0f45 cbbd b79c 613d
000000a0: 988d 63bc 1e50 913d c339 3abe 5b1d 3d3d
000000b0: 59d3 30be b237 a8bd ad10 503d d45f dfba
000000c0: 1a4c a23d 5a15 b33c b7cc c3bd dfb7 88bd
000000d0: 6a74 8d3d ee13 563d e469 8539 aabc c6bc
000000e0: 2e27 5e3d f918 ca3c 853a 07bd 4202 7aba
000000f0: ea0b 16bd c677 68bb 90a4 613d 94a5 17bd
00000100: 3118 49ba 33c6 d0bd f4cf fb3d abb1 75be
00000110: 1105 403e 8fc0 223c 4db1 e23b 4d74 aa3c
00000120: 5299 1cbd 969d d73c f4fd 16bc 4110 9e3d
00000130: bb36 f5bd 71cb 1dbe b66c 84bd d937 7abd
00000140: 63c2 e13d 61ae 65bd 7f7f 27bc b3f5 d7bd
00000150: fbe6 fbbd 6ab6 81bc 4d5e 0e3e 3b9e 61bd
00000160: 1317 713d 58b1 81bd 7356 a93c 1737 633c
00000170: 2030 be3c a52b 563b d10d 913d b436 03be
00000180: b467 5c3d e918 c83b 72ac aebc db5a cfbc
00000190: 86df cf3d e97d d6bc 570f a8bd 2039 7fbe
000001a0: 60e5 b239 93c8 13bd d36a 26be f97e 81bd
000001b0: 3baf 9dbd bdd9 3a3d 076f e1bd 1805 30bd
000001c0: 8b20 62bd 4242 803b 23e7 10bd 9468 523d
000001d0: 211e bbbd 903f 183d c262 64bd a06c 9cbc
000001e0: 1d3b f6bc 3062 30bd 53f9 133e b614 adbb
000001f0: efc1 243e 8575 02bd aa18 08be 5757 023d
00000200: dd30 a13d e1a4 0abe f4df f43d bb30 a1bd
00000210: 0e57 693d bef9 1e3e 9dad 4f3d 8c34 23bd
00000220: d2b5 0ebe 1b4a 20be 3ba2 d5bc c645 b1bd
00000230: 42fd 12be a32c 10bd 95bc 14bd 1156 9a3d
00000240: 8364 603d 89af a03c 5480 e6bd e975 9bbd
00000250: af06 93bd ce60 d7bc 415b 9cbd b80f 13be
00000260: a1b0 b9bd 694e 193e 4bc2 12be 4f3c 6b3d
00000270: 00c6 0d3e 0710 bf3d c20c 88bd 418d fbbd
00000280: cf26 aebc 41c3 3c3b 98f8 c63c 97f4 483d
00000290: 05ee 663d 9f7e 64bd b7dc 913b 31db 2dbb
000002a0: 4fd1 49bd c9f9 02bd d08f 5c3c ede3 98bb
000002b0: ae77 fbbd be84 253d 18fb a53c 192f ad3d
000002c0: 0424 903d a2e0 4bbc 49e2 ebbd 1045 9ebd
000002d0: 4329 343e 9036 8b3c e546 2cbd b137 bebd
000002e0: 0316 4cbd 49ab 173e 80a2 9ebb 789e 2cbc
000002f0: 734f 2c3c 2594 7f3e 3b79 1ebe 7217 0e3d
00000300: a6c1 303d b2e2 033d 6d11 243e 9129 173e
00000310: aee4 0f3d dade d43c a4a5 97bd 124d a83d
00000320: ec48 b2bd bba8 293d 7e48 1f3e cea7 5c3c
00000330: 7d70 163d 2dd4 fc3a d8e8 6c3b e930 e13d
00000340: ee30 fbbc 6558 abbd 6b27 b0bd 7f31 bbbc
00000350: cf39 2f3d 8651 dd3c eebe 993c 2b01 bc3d
00000360: cc1f 873d a685 edbd 2831 61bb 4e94 95bc
00000370: b600 e8bc d804 4bbd cad2 ddbb 47d8 a2bd
00000380: a935 023d 914d 1ebe 1cd0 24bd 4d82 0f3c
00000390: b4af a9bd 2e1b 10bb f69a 243d b79a 4b3d
000003a0: a50a 383c c1fc a83c f8fa 74bd e79b a43d
000003b0: 3882 bebc 2907 2fbb 30a5 473e a6af 45bd
000003c0: 5130 e83d cc47 703d c6e9 65bc 3128 23be
000003d0: 81a9 4abd 1acb f8bc 61d3 29be 0fd6 6f3c
000003e0: 1e60 023d 01c8 abbd 9015 56bd a3af 13bd
000003f0: ab22 67bd 64a0 25bd b856 31bc f425 c63b

base.cnn.4.bias f4 [32]
0.0021054286 -0.023710912 -0.068956405 0.017175397 -0.047589738 -0.069814764 -0.033691417 -0.028241506
-0.052265152 -0.041073166 -0.011964424 -0.026522843 -0.0202646 -0.02618616 0.007986293 -0.05879964
0.005282592 -0.049073644 -0.04705935 -0.04382093 0.019348126 -0.051547736 0.0010663274 -0.034806028
-0.031512514 -0.049135923 -0.033858817 -0.052855477 -0.043288525 -0.018995624 -0.012888996 -0.022102501
00000000: 3bfb 093b 633d c2bc 0439 8dbd 6bb3 8c3c
00000010: 75ed 42bd 0bfb 8ebd 0300 0abd bb5a e7bc
00000020: fc13 56bd 563c 28bd 6e06 44bc 6f46 d9bc
00000030: f201 a6bc 5c84 d6bc f1d8 023c e4d7 70bd
00000040: 9819 ad3b 7201 49bd 4ec1 40bd 937d 33bd
00000050: f67f 9e3c b823 53bd 03c4 8b3a c490 0ebd
00000060: 4413 01bd c042 49bd 8baf 0abd fc7e 58bd
00000070: 4f4f 31bd b69c 9bbc 5e2c 53bc 4e10 b5bc

base.cnn.7.weight f4 [64, 1440]
-0.06270453 -0.05108734 0.0339457 0.09891796 0.00081858126 -0.09436302 -0.021436043 -0.060151726
-0.01802161 -0.03445428 0.09989361 0.046109617 0.008821433 0.113775834 -0.0378015 -0.045135897
-0.05151339 -0.0874554 -0.040571358 -0.07200606 -0.07181958 0.023551097 -0.024791192 0.12534319
0.06899179 0.036348376 -0.068921044 -0.0589688 -0.011986615 -0.06431107 -0.07759343 0.034839675
0.0072824825 -0.0074758264 0.05747824 -0.028763989 -0.07788899 -0.08814342 0.039184332 0.023494774
0.12884745 0.14675644 -0.05930161 -0.031053774 -0.13721609 0.059243016 -0.07364316 -0.026522975
-0.09654273 0.06122449 0.018586667 -0.046425242 -0.06151209 -0.14276645 -0.20735596 -0.055006836
-0.011577245 -0.15257046 -0.023950122 0.033747785 0.05946179 -0.1301543 0.020381598 0.056991734
-0.04946299 0.040570095 -0.21527736 0.069941096 -0.008465406 0.043139223 0.02771277 -0.091413125
0.059857547 0.021047493 0.086462766 -0.012233488 -0.09637414 -0.13631146 -0.1555069 -0.08409931
-0.110184796 0.1503873 -0.08728179 0.055833027 -0.032548808 -0.026118508 0.16891852 0.07087014
-0.047228474 0.06867004 0.006232597 0.0019995035 0.03645917 -0.038506337 -0.022443062 0.121832035
-0.1317715 0.02254635 0.018083422 0.072765574 -0.0068617803 -0.05642184 -0.09712453 -0.04532859
0.03370372 0.039193142 0.07107261 -0.034396723 0.05120323 0.0007531305 0.04490826 0.1866299
-0.19939902 0.09469823 -0.07406254 0.010731597 0.005672055 -0.00012546775 0.058569893 -0.019512476
-0.0013928639 0.03776105 0.024080463 0.028189939 -0.017018072 0.04565145 0.049731977 -0.09146157
-0.03060286 -0.009884236 -0.059730023 0.03763107 -0.10370728 -0.01305047 -0.047870703 -0.00946359
-0.02159829 -0.059072856 0.04776148 0.024161318 0.07802603 -0.04776271 -0.009805133 -0.04013886
-0.09730059 -0.061542474 -0.13635284 -0.042241033 0.0005994631 -0.017218634 -0.05751666 0.02157355
-0.026703432 -0.0031823553 -0.042007357 -0.037988644 -0.10148907 0.0058328337 -0.033796567 0.02490704
0.060778845 -0.076859325 -0.052649546 -0.0039397688 0.0013892248 0.2607059 -0.0036283801 -0.13251176
-0.013427939 -0.016668692 0.116696686 -0.06271974 -0.044372756 -0.02957178 0.023240708 0.108966574
-0.07517104 0.03134417 0.026029574 0.07118235 0.004609434 -0.107129864 -0.0018165566 0.0122542195
0.013420048 -0.02295524 -0.00920153 0.05602974 0.041132417 -3.391587e-05 0.0041656457 0.06982664
-0.048566762 0.049590047 0.05560248 0.027514802 -0.055727273 0.004753445 0.09026379 0.09519208
0.006310938 0.093630366 -0.080339 0.07750126 -0.07399499 -0.0003246672 0.07544048 0.053182624
-0.08317873 -0.016925866 -0.004306933 0.049244516 0.10532995 0.037107017 -0.27164775 0.041749295
0.03586677 -0.09427424 -0.02178764 -0.126884 -0.17529549 -0.045678496 0.08408442 0.02061932
-0.041687086 -0.05957791 -0.011462906 -0.12862286 -0.0010060954 -0.036240913 -0.052522603 -0.010093062
-0.030172944 -0.03981102 0.09757017 0.05837498 -0.08235992 0.12860748 0.056136727 0.10334391
-0.029382063 0.0840641 0.022803077 0.07319668 0.015839221 -0.046436578 -0.00050985947 -0.115761764
0.17081055 0.024586303 -0.07397159 0.019977072 -0.0199235 0.010706172 -0.052778084 0.02795648
00000000: 3c6b 80bd f540 51bd a50a 0b3d 8095 ca3d
00000010: 0f96 563a 6641 c1bd a49a afbc a861 76bd
00000020: 0ea2 93bc ee1f 0dbd 0595 cc3d 70dd 3c3d
00000030: c687 103c 4e03 e93d bfd5 1abd 6be0 38bd
00000040: b4ff 52bd d11b b3bd 272e 26bd ea77 93bd
00000050: 2516 93bd 3bee c03c e616 cbbc f759 003e
00000060: 914b 8d3d 09e2 143d 7a26 8dbd 4589 71bd
00000070: 8263 44bc 86b5 83bd 4ee9 9ebd 0cb4 0e3d
00000080: e4a1 ee3b c7f7 f4bb 4e6e 6b3d 75a2 ebbc
00000090: 4384 9fbd 8a84 b4bd c07f 203d 1d78 c03c
000000a0: 96f0 033e 5247 163e 3fe6 72bd 7c64 febc
000000b0: 6082 0cbe cea8 723d 3ad2 96bd b646 d9bc
000000c0: 32b8 c5bd 88c6 7a3d 1143 983c 6528 3ebd
000000d0: 1af4 7bbd 5e31 12be 1f55 54be d94e 61bd
000000e0: 7cae 3dbc 6e3b 1cbe 0c33 c4bc 1e3b 0a3d
000000f0: 358e 733d 2b47 05be 4ff7 a63c 2a70 693d
00000100: b499 4abd d42c 263d ab71 5cbe 473d 8f3d
00000110: 7cb2 0abc c1b2 303d e405 e33c ce36 bbbd
00000120: 302d 753d cb6b ac3c 6413 b13d f86e 48bc
00000130: ce5f c5bd 3b95 0bbe 333d 1fbe 423c acbd
00000140: 91a8 e1bd 21ff 193e ccc0 b2bd 2cb1 643d
00000150: e651 05bd 7bf6 d5bc faf8 2c3e 5d24 913d
00000160: a572 41bd e1a2 8c3d d03a cc3b 1a0a 033b
00000170: 3656 153d d2b8 1dbd 83da b7bc 1383 f93d
00000180: 1cef 06be 1fb3 b83c af23 943c 1e06 953d
00000190: c9d8 e0bb 961a 67bd 3ae9 c6bd 79aa 39bd
000001a0: e90c 0a3d fd88 203d 848e 913d 94e3 0cbd
000001b0: 7aba 513d bb6d 453a b9f1 373d e91b 3f3e
000001c0: 422f 4cbe 25f1 c13d 1aae 97bd 95d3 2f3c
000001d0: a5dc b93b fe8f 03b9 fce6 6f3d a1d8 9fbc
000001e0: c290 b6ba 55ab 1a3d 6444 c53c 96ee e63c
000001f0: 7c69 8bbc 04fd 3a3d c2b3 4b3d 3450 bbbd
00000200: d9b2 fabc 7ef1 21bc 78a7 74bd 0923 1a3d
00000210: 7b64 d4bd a3d1 55bc 1214 44bd 2c0d 1bbc
00000220: e6ee b0bc 61f6 71bd 8ba1 433d f5ed c53c
00000230: 1ccc 9f3d d5a2 43bd b5a5 20bc a568 24bd
00000240: 8845 c7bd f613 7cbd 14a0 0bbe ef04 2dbd
00000250: 4a25 1d3a 180e 8dbc 9796 6bbd 03bb b03c
00000260: 28c1 dabc 108f 50bb e80f 2cbd fb99 1bbd
00000270: 80d9 cfbd 5b21 bf3b 456e 0abd d909 cc3c
00000280: 3df3 783d 6c68 9dbd 0da7 57bd 2d19 81bb
00000290: a616 b63a 3e7b 853e 1eca 6dbb 2ab1 07be
000002a0: dc00 5cbc c88c 88bc acfe ee3d 3573 80bd
000002b0: 35c0 35bd 8440 f2bc 4c63 be3c de29 df3d
000002c0: 46f3 99bd bf62 003d f93b d53c 0dc8 913d
000002d0: bc0a 973b e766 dbbd 8619 eeba ecc5 483c
000002e0: c3df 5b3c a10c bcbc 04c2 16bc 717f 653d
000002f0: 777a 283d e340 0eb8 f87f 883b 4501 8f3d
00000300: f1ed 46bd ef1e 4b3d 6dbf 633d b966 e13c
00000310: 4842 64bd c9c2 9b3b 39dc b83d 11f4 c23d
00000320: fccb ce3b 47c1 bf3d c688 a4bd fbb8 9e3d
00000330: af8a 97bd 1838 aab9 8a80 9a3d 06d6 593d
00000340: 9c59 aabd 1da8 8abc 2c21 8dbb 9eb4 493d
00000350: 3bb7 d73d 87fd 173d 6a15 8bbe 4f01 2b3d
00000360: 09e9 123d da12 c1bd fe7b b2bc e1ed 01be
00000370: a980 33be 6019 3bbd 7434 ac3d d9e9 a83c
00000380: 14c0 2abd f707 74bd eace 3bbc b6b5 03be
00000390: f6de 83ba 5a71 14bd f121 57bd 5f5d 25bc
000003a0: 402d f7bc e110 23bd dfd2 c73d 9a1a 6f3d
000003b0: 51ac a8bd aeb1 033e a0ef 653d f9a5 d33d
000003c0: a7b2 f0bc cd29 ac3d 85cd ba3c 24e8 953d
000003d0: 41c1 813c 4834 3ebd 17a8 05ba 8114 edbd
000003e0: f6e8 2e3e 3769 c93c 6b7e 97bd f5a6 a33c
000003f0: 9c36 a3bc f168 2f3c d52d 58bd fd04 e53c

base.cnn.7.bias f4 [64]
-0.01929616 -0.038563065 -0.053185556 -0.04546502 -0.036077067 0.006942066 -0.00135196 -0.06469438
-0.0309005 -0.065156005 -0.04899961 -0.023059787 -0.03342525 -0.029401721 -0.06573276 -0.024949286
-0.054102924 -0.0021149851 0.0027592892 -0.03657429 -0.014434866 -0.045073915 -0.05090959 -0.010653689
-0.029250141 -0.035582032 -0.027384728 -0.077137716 0.041908987 0.01760925 -0.053692795 -0.027369363
-0.04349007 -0.00048463012 -0.03648898 -0.05401747 -0.033504378 -0.043234296 0.018822225 -0.00872316
-0.015191913 -0.075227745 -0.022421086 -0.07106049 -0.017535603 -0.03187521 -0.003940977 -0.054371465
0.00026302345 -0.03260814 -0.011442787 -0.00054707314 -0.03991231 -0.02448356 -0.041289806 -0.063855805
0.012217123 -0.04039952 -0.038398422 -0.048353218 -0.0369145 -0.035478093 -0.0501971 -0.03185576
00000000: fb12 9ebc 4ef4 1dbd 19d9 59bd 8739 3abd
00000010: 8cc5 13bd 457a e33b 4034 b1ba 7d7e 84bd
00000020: 0c23 fdbc 8370 85bd d1b3 48bd e1e7 bcbc
00000030: eae8 08bd e1db f0bc e69e 86bd 7262 ccbc
00000040: 079b 5dbd 909b 0abb 31d5 343b ecce 15bd
00000050: 3780 6cbc 6d9f 38bd 9386 50bd cf8c 2ebc
00000060: fe9d efbc 77be 11bd f055 e0bc 61fa 9dbd
00000070: c2a8 2b3d 4641 903c faec 5bbd b735 e0bc
00000080: a522 32bd f415 feb9 7875 15bd 6c41 5dbd
00000090: e33b 09bd 7216 31bd 1131 9a3c 96eb 0ebc
000000a0: 80e7 78bc 0111 9abd 6dac b7bc 2a88 91bd
000000b0: d3a6 8fbc 958f 02bd 5023 81bb 9db4 5ebd
000000c0: 69e6 8939 1d90 05bd 877a 3bbc 7569 0fba
000000d0: 177b 23bd bf91 c8bc 801f 29bd d5c6 82bd
000000e0: 542a 483c f879 25bd aa47 1dbd 060e 46bd
000000f0: a933 17bd 7a51 11bd 799b 4dbd 2f7b 02bd

base.cnn.9.weight f4 [64]
0.9705368 1.0157906 1.0012989 1.0213677 0.9927364 0.97730553 1.0068524 0.9405765
1.040813 0.9449491 0.9567113 1.0484768 0.96822673 0.9911883 0.96365935 0.9873231
1.0299313 1.0319959 1.0258875 0.9148825 1.0014169 0.9331191 0.9500822 0.9438534
0.9363333 1.0586112 1.1046393 1.0120922 1.0970821 1.02053 1.0075312 1.0929872
1.0417924 0.92004734 0.95399386 1.1384532 0.95244116 1.0766746 0.9484586 0.9561175
1.0205423 1.0588337 0.9507983 0.9528041 1.1059443 1.0416545 0.9626537 1.0015993
0.9729789 0.96836597 1.0117388 1.0729973 0.9842158 1.089605 0.9286968 1.029241
1.0781137 0.9182228 0.96556145 1.0077231 0.92186105 1.0012951 0.9872204 0.988082
00000000: 1a75 783f 6d05 823f 902a 803f 2dbc 823f
00000010: f923 7e3f b230 7a3f 8ae0 803f 9fc9 703f
00000020: 5c39 853f 2fe8 713f 08eb 743f 7d34 863f
00000030: b5dd 773f 84be 7d3f 61b2 763f 35c1 7c3f
00000040: cad4 833f 7118 843f 4850 833f bd35 6a3f
00000050: 6e2e 803f e5e0 6e3f 9638 733f 60a0 713f
00000060: 8ab3 6f3f 9280 873f d264 8d3f 3d8c 813f
00000070: 306d 8c3f baa0 823f c8f6 803f 01e7 8b3f
00000080: 7459 853f 3988 6b3f f138 743f d6b8 913f
00000090: 2fd3 733f 79d0 893f 2fce 723f 1ec4 743f
000000a0: 21a1 823f dd87 873f 8467 733f f8ea 733f
000000b0: 958f 8d3f ef54 853f 7970 763f 6834 803f
000000c0: 2515 793f d5e6 773f a880 813f fa57 893f
000000d0: 91f5 7b3f 2d78 8b3f 13bf 6d3f 2bbe 833f
000000e0: a1ff 893f a610 6b3f 092f 773f 12fd 803f
000000f0: 16ff 6b3f 702a 803f 7aba 7c3f f1f2 7c3f

base.cnn.9.bias f4 [64]
-0.015054734 -0.07263185 -0.010733639 -0.0026784127 -0.023319656 0.14949182 0.013221977 0.013476485
0.02362605 0.03086497 0.10964941 0.06426495 0.068810254 -0.019990487 0.023471832 -0.030802967
-0.00474362 0.0348007 -0.041924383 0.028351063 -0.02947252 0.051847555 0.056441035 0.08468385
-0.020337977 -0.047016993 -0.07383845 0.02031562 -0.046446484 0.03137976 0.05577046 0.057365566
-0.012869733 -0.0004246549 0.03820626 -0.09987117 0.025197733 0.031085592 0.028739417 0.17117849
-0.029688362 -0.11432675 0.061138336 0.12652951 -0.048299223 0.08197292 -0.013977578 0.06908451
0.035669442 0.06802542 0.021744246 -0.03827127 -0.065644145 -0.0015413711 0.09903253 -0.09918311
0.011201811 0.012306346 -0.0012176142 -0.027037727 0.053618316 0.14386943 -0.042608555 0.047387738
00000000: 22a8 76bc 02c0 94bd 25dc 2fbc 4f88 2fbb
00000010: dd08 bfbc 6214 193e fea0 583c 7acc 5c3c
00000020: 6b8b c13c 89d8 fc3c df8f e03d 589d 833d
00000030: 64ec 8c3d 17c3 a3bc 0048 c03c 8156 fcbc
00000040: 5e70 9bbb 2e8b 0e3d e7b8 2bbd 7d40 e83c
00000050: 5b70 f1bc 1a5e 543d b72e 673d ba6e ad3d
00000060: d49b a6bc e494 40bd 9d38 97bd f16c a63c
00000070: ab3e 3ebd 1088 003d 916f 643d 28f8 6a3d
00000080: 93db 52bc 37a4 deb9 2b7e 1c3d 4289 ccbd
00000090: 7a6b ce3c 36a7 fe3c ed6e eb3c 6a49 2f3e
000000a0: 0235 f3bc 2524 eabd 316c 7a3d f490 013e
000000b0: 68d5 45bd 6be1 a73d 3602 65bc 2e7c 8d3d
000000c0: 1f1a 123d e950 8b3d fd20 b23c 56c2 1cbd
000000d0: 7070 86bd d507 caba 91d1 ca3d 8420 cbbd
000000e0: cd87 373c 8ea0 493c 5a98 9fba 397e ddbc
000000f0: e19e 5b3d 8252 133e 4f86 2ebd a519 423d

base.cnn.10.weight f4 [64, 64]
0.019396365 -0.3387527 0.00033750923 -0.2262088 -0.09475803 0.07219599 0.13391814 0.12266915
0.2326592 -0.05628248 -0.008402082 0.065795355 -0.3408089 0.11209086 0.1464818 -0.09418389
-0.25403497 0.1785026 0.3918293 -0.08291163 0.24885413 0.14445491 -0.01792543 -0.09976016
-0.11807909 0.006183508 0.046125136 0.003515803 0.30506667 -0.047141597 -0.18939999 -0.14121464
0.055473827 0.23899078 -0.058759775 0.33027402 0.23247679 -0.30853835 -0.20939334 -0.16826618
0.12701938 0.35690027 -0.046802342 -0.07110066 0.59657854 0.30822524 0.11147779 0.2126644
-0.342704 -0.031328775 -0.29258713 -0.04785588 -0.17976227 0.17165728 0.2987371 -0.075817846
0.088557065 0.12559482 0.08796635 0.022415979 0.064538024 -0.18566984 0.17557053 0.1220178
-0.022008698 0.034026925 0.048898138 0.005304618 -0.1213596 0.15721084 0.09490145 0.006807178
0.11603422 -0.014202954 0.24619798 0.020917255 0.033998065 0.030442962 -0.48702142 -0.084846996
0.27028045 0.07308374 0.3310557 -0.21392292 0.09638324 0.084267825 0.26954678 -0.5174309
0.44292158 0.13346764 0.07970238 -0.21688326 -0.42675766 0.15348978 0.021668924 -0.28040987
0.13707662 -0.20844087 -0.048615932 -0.44852751 -0.116541296 -0.045530133 -0.08092616 -0.15501893
0.30399927 -0.12229739 -0.3695196 0.13078572 -0.11719923 -0.10831162 0.064603575 0.18329388
-0.115370065 0.093501076 0.17087322 0.1479917 -0.2345154 -0.10808757 -0.17978498 -0.09242089
-0.30961645 0.14700264 -0.101857714 0.098515004 -0.007387961 -0.41923863 -0.16702187 0.24779548
-0.17140336 0.3380284 0.37394294 -0.040926386 0.21728294 -0.42199472 -0.09326261 -0.06721586
0.24041685 0.15308678 0.3250886 0.054896537 -0.005829507 -0.2631477 0.27751437 0.030685073
0.349379 -0.024218127 0.11878773 0.375467 0.04508196 0.263137 0.07620779 -0.19178972
0.18180872 0.24161945 0.11219054 0.22595249 -0.3952015 0.18677849 0.23900734 -0.1586936
0.06093043 0.022155393 0.12001534 -0.05411674 -0.014653941 0.096258715 0.124267735 -0.10555784
-0.12992631 0.39436856 0.23484857 0.10744661 0.0055734753 0.1374145 -0.23171186 -0.25100312
-0.19677198 -0.010600119 -0.15702808 0.14026625 -0.03622281 0.18643303 0.20506416 0.24890281
-0.013219349 0.0054831323 -0.118020855 -0.035231974 0.12888189 0.07865843 0.1004606 -0.4618335
0.36630252 -0.14522637 -0.27330515 0.051886983 0.20338334 -0.15256381 -0.027726471 0.14200386
0.26130486 0.108532 -0.1270267 0.152674 0.024741983 0.026169255 -0.206217 0.009786443
0.10528874 -0.0142109925 0.27172565 0.06240686 0.3829589 0.111793146 -0.3404985 0.014743387
-0.19599399 0.04778442 0.36892375 0.049204115 -0.027554695 0.26814628 -0.027765263 -0.060592998
-0.25453377 -0.042065613 0.06368341 -0.23051247 0.016981602 0.07371393 0.008963155 -0.39709976
0.11901759 -0.20172225 0.0743367 -0.39218527 -0.41689655 0.14276007 -0.09558231 -0.24886297
0.1376362 -0.015731446 -0.3474531 -0.29501122 -0.16763371 -0.09462672 -0.018674823 0.064170346
-0.25721422 -0.07591321 0.04955209 0.17096885 -0.0021404056 0.062649295 0.33597034 0.24637732
00000000: 20e5 9e3c fe70 adbe b9f3 b039 48a3 67be
00000010: 7f10 c2bd 7edb 933d d621 093e f739 fb3d
00000020: 373e 6e3e 7588 66bd e3a8 09bc b7bf 863d
00000030: 817e aebe e58f e53d 53ff 153e 7ce3 c0bd
00000040: df10 82be 63c9 363e da9d c83e 93cd a9bd
00000050: 9ed3 7e3e fdeb 133e 5ad8 92bc 0e4f ccbd
00000060: 73d3 f1bd 069f ca3b b6ed 3c3d 6369 663b
00000070: b331 9c3e 8c17 41bd 12f2 41be 929a 10be
00000080: 8638 633d 00ba 743e 17ae 70bd ad19 a93e
00000090: 650e 6e3e bdf8 9dbe 356b 56be f84d 2cbe
000000a0: 5e11 023e a2bb b63e d0b3 3fbd 399d 91bd
000000b0: 5fb9 183f b3cf 9d3e 784e e43d b2c4 593e
000000c0: e676 afbe 9a52 00bd fbcd 95be 8704 44bd
000000d0: 9a13 38be edc6 2f3e 12f4 983e 6346 9bbd
000000e0: 685d b53d ee9b 003e b427 b43d b7a1 b73c
000000f0: 832c 843d 3c20 3ebe c3c8 333e 78e4 f93d
00000100: 964b b4bc d15f 0b3d 6a49 483d 5cd2 ad3b
00000110: 628b f8bd e1fb 203e b15b c23d bf0e df3b
00000120: 59a3 ed3d 82b3 68bc 531b 7c3e aa5a ab3c
00000130: 8e41 0b3d 8563 f93c df5a f9be 43c4 adbd
00000140: 3362 8a3e eeac 953d 2280 a93e 9c0e 5bbe
00000150: 9364 c53d 9c94 ac3d 0902 8a3e 5a76 04bf
00000160: 9ec6 e23e beab 083e 003b a33d a516 5ebe
00000170: fb7f dabe 6d2c 1d3e 0783 b13c e291 8fbe
00000180: d05d 0c3e 8671 55be 8021 47bd 66a5 e5be
00000190: 34ad eebd ce7d 3abd 9dbc a5bd 48bd 1ebe
000001a0: cba5 9b3e 0e77 fabd ac31 bdbe b1ec 053e
000001b0: 2606 f0bd 7cd2 ddbd e14e 843d 64b1 3b3e
000001c0: 2447 ecbd 7e7d bf3d 64f9 2e3e 238b 173e
000001d0: ce24 70be 045d ddbd 8e19 38be 2a47 bdbd
000001e0: 0c86 9ebe dc87 163e c79a d0bd 3cc2 c93d
000001f0: b516 f2bb 72a6 d6be c807 2bbe 19be 7d3e
00000200: 5d84 2fbe 0f12 ad3e 7375 bf3e 6da2 27bd
00000210: 6b7f 5e3e b10f d8be 7800 bfbd 78a8 89bd
00000220: d62f 763e c8c2 1c3e 0372 a63e 31db 603d
00000230: 7305 bfbb 4cbb 86be 5d16 8e3e 435f fb3c
00000240: cee1 b23e 1865 c6bc fb46 f33d 363d c03e
00000250: dca7 383d e5b9 863e d412 9c3d 8664 44be
00000260: 112c 3a3e 176b 773e 27c4 e53d 1760 673e
00000270: da57 cabe dc42 3f3e 57be 743e 9380 22be
00000280: 3092 793d 3a7f b53c 9aca f53d 84a9 5dbd
00000290: 1517 70bc 4a23 c53d 1580 fe3d b52e d8bd
000002a0: 670b 05be adea c93e 257c 703e f80c dc3d
000002b0: b3a1 b63b 63b6 0c3e e045 6dbe 7b83 80be
000002c0: 987e 49be 1fac 2dbc f8cb 20be f5a1 0f3e
000002d0: 5f5e 14bd 4de8 3e3e 57fc 513e 61e0 7e3e
000002e0: f895 58bc d9ab b33b ebb4 f1bd 674f 10bd
000002f0: 9df9 033e ac17 a13d 49be cd3d 7175 ecbe
00000300: 018c bb3e 39b6 14be a7ee 8bbe 7287 543d
00000310: b943 503e b039 1cbe a022 e3bc 7669 113e
00000320: c0c9 853e 0646 de3d 4a13 02be 9356 1c3e
00000330: b3af ca3c e860 d63c 8d2a 53be 5157 203c
00000340: 9fa1 d73d 39d5 68bc a01f 8b3e 569e 7f3d
00000350: 3013 c43e cef3 e43d d255 aebe 3f8e 713c
00000360: a6b2 48be 99b9 433d 93e3 bc3e 418a 493d
00000370: 62ba e1bc 784a 893e fa73 e3bc 5d30 78bd
00000380: 4052 82be fe4c 2cbd 736c 823d 760b 6cbe
00000390: 001d 8b3c 54f7 963d 32da 123c a950 cbbe
000003a0: 7fbf f33d 4790 4ebe d73d 983d 82cc c8be
000003b0: 7773 d5be b22f 123e a8c0 c3bd efd5 7ebe
000003c0: 81f0 0c3e 3cdf 80bc 5fe5 b1be b60b 97be
000003d0: 2ca8 2bbe a7cb c1bd f1fb 98bc be6b 833d
000003e0: 95b1 83be 6378 9bbd 22f7 4a3d 7512 2f3e
000003f0: 0c46 0cbb 464e 803d 4e04 ac3e 564a 7c3e

base.cnn.10.bias f4 [64]
-0.039666325 0.015709633 -0.22646609 -0.048707884 -0.08100575 -0.18744476 -0.114912756 0.0863166
0.028551362 -0.18723258 -0.06429388 -0.03854679 -0.00043444664 0.077363394 -0.0030419398 -0.10385151
0.0062965136 0.02244832 -0.07132136 -0.050083913 0.015577341 -0.011712497 -0.042262275 0.026702914
-0.088085756 -0.05416189 -0.029157024 -0.06975418 -0.09700724 0.022367656 -0.036564358 0.102683336
-0.0013793366 -0.025839768 0.01572997 0.07196032 -0.09200146 -0.17609459 -0.014724977 -0.088870265
0.008857406 -0.15109858 0.017224636 -0.057540007 -0.08985665 -0.0472392 -0.09646674 0.11790066
-0.059107788 -0.059612125 0.050571255 0.10493777 0.005695413 -0.012399471 0.02133319 0.021135245
0.010965306 -0.086956844 0.032217525 -0.07945443 0.006002172 -0.09834361 -0.027219925 -0.09263763
00000000: 2879 22bd 7db1 803c bae6 67be eb81 47bd
00000010: 58e6 a5bd 85f1 3fbe 6157 ebbd c2c6 b03d
00000020: 8ce4 e93c e6b9 3fbe 82ac 83bd 3de3 1dbd
00000030: 71c6 e3b9 b370 9e3d 485b 47bb 1ab0 d4bd
00000040: fc52 ce3b 8ae5 b73c ef10 92bd ca24 4dbd
00000050: 1b38 7f3c c6e5 3fbc 351b 2dbd 12c0 da3c
00000060: 4e66 b4bd dcd8 5dbd b6da eebc 48db 8ebd
00000070: bbab c6bd 603c b73c 82c4 15bd a44b d23d
00000080: dbca b4ba ecad d3bc 23dc 803c ef5f 933d
00000090: 436b bcbd 2452 34be 0841 71bc 9d01 b6bd
000000a0: a71e 113c 96b9 1abe ae1a 8d3c 12af 6bbd
000000b0: c306 b8bd e47d 41bd 5b90 c5bd e775 f13d
000000c0: 021b 72bd d82b 74bd ce23 4f3d 9de9 d63d
000000d0: 96a0 ba3b 2727 4bbc f1c2 ae3c d223 ad3c
000000e0: d4a7 333c 6e16 b2bd 86f6 033d 01b9 a2bd
000000f0: dead c43b 6068 c9bd 52fc debc ccb8 bdbd

base.cnn.12.weight f4 [64]
1.0415246 1.084142 0.95416784 1.0334458 0.94301385 1.0348456 1.1076697 1.097995
1.0676434 0.9311971 1.0002631 0.8937812 1.105346 1.0344502 0.9453366 1.0456957
0.86839885 0.9068957 0.9550033 1.152783 1.0444493 1.0027124 0.9861802 1.0763043
0.9950956 1.1046077 1.1107124 0.9943066 0.87166035 1.0167526 1.0052936 1.0762228
0.93839395 1.0278383 1.0288116 1.0534033 0.96129245 0.853751 0.8987075 0.9568959
0.95536846 0.94092023 0.9926212 1.0200006 0.9119187 1.0759134 0.92602855 1.019624
0.9657123 0.9968741 1.0054936 0.9807959 0.99936867 0.8779354 0.8829759 0.9966133
0.99016327 1.0047224 1.0593399 1.1361933 0.9922463 1.0665915 1.1144131 1.1050607
00000000: ae50 853f 2ac5 8a3f 5844 743f f447 843f
00000010: 5b69 713f d275 843f 1fc8 8d3f 1a8b 8c3f
00000020: 8aa8 883f ef62 6e3f 9f08 803f d8ce 643f
00000030: fa7b 8d3f dd68 843f 9401 723f 5bd9 853f
00000040: 634f 5e3f 512a 683f 197b 743f 658e 933f
00000050: 84b0 853f e158 803f 4e76 7c3f 57c4 893f
00000060: 96be 7e3f c963 8d3f d32b 8e3f e18a 7e3f
00000070: 2225 5f3f f324 823f 76ad 803f abc1 893f
00000080: 963a 703f 3590 833f 19b0 833f ebd5 863f
00000090: 4317 763f 6d8f 5a3f b211 663f 21f7 743f
000000a0: 0793 743f 26e0 703f 6c1c 7e3f 618f 823f
000000b0: 8173 693f 88b7 893f 3510 6d3f 0a83 823f
000000c0: ec38 773f 2433 7f3f 04b4 803f 7115 7b3f
000000d0: a0d6 7f3f 60c0 603f b50a 623f 0d22 7f3f
000000e0: 577b 7d3f be9a 803f 7398 873f c86e 913f
000000f0: db03 7e3f 1286 883f 17a5 8e3f a172 8d3f

base.cnn.12.bias f4 [64]
-0.047368135 0.041250437 -0.014439817 -0.021549439 -0.011749515 -0.06389438 -0.10192457 0.007607466
0.0148649905 -0.03190214 0.0012081185 0.017056532 0.0399391 0.046762407 0.028075516 -0.08241088
0.063859865 0.084846295 -0.08739203 -0.05543369 -0.016691487 -0.025190523 0.04213286 -0.031773914
0.0057745944 -0.043171775 -0.011650622 -0.031823643 0.10565943 -0.0021809905 0.009248359 0.06777801
0.10068547 0.12307535 0.053849794 0.036803436 -0.048662946 -0.013015757 -0.02791485 -0.022344446
0.028393105 0.09496405 -0.00040908522 0.002889584 0.08774171 -0.02283484 0.014443934 0.1312878
0.046686005 -0.059211902 0.12052776 0.19416724 0.028706567 0.095445916 0.12520449 0.006246305
3.6733003e-05 -0.015240656 -0.014084764 -0.026716627 0.037353188 -0.04342576 -0.0625915 0.012697673
00000000: 1705 42bd 38f6 283d fb94 6cbc 7388 b0bc
00000010: 0a81 40bc 0fdb 82bd d4bd d0bd 0d48 f93b
00000020: 4a8c 733c d1ab 02bd bb59 9e3a 24ba 8b3c
00000030: 2f97 233d f089 3f3d a0fe e53c 09c7 a8bd
00000040: f6c8 823d e5c3 ad3d 98fa b2bd 700e 63bd
00000050: 96bc 88bc 5b5c cebc 8193 2c3d 5d25 02bd
00000060: cf38 bd3b e3d4 30bd 40e2 3ebc 8259 02bd
00000070: f963 d83d f3ee 0ebb 6e86 173c 33cf 8a3d
00000080: 2f34 ce3d ee0e fc3d 9a91 5c3d 33bf 163d
00000090: cc52 47bd 0b40 55bc afad e4bc b30b b7bc
000000a0: a898 e83c 837c c23d 7d7a d6b9 2d5f 3d3b
000000b0: edb1 b33d 2110 bbbc 40a6 6c3c 4f70 063e
000000c0: d339 3f3d 2e88 72bd 42d7 f63d c7d3 463e
000000d0: 092a eb3c 2679 c33d 9b35 003e cead cc3b
000000e0: c311 1a38 f2b3 79bc c8c3 66bc d4dc dabc
000000f0: a8ff 183d 36df 31bd f92f 80bd e709 503c

base.cnn.13.weight f4 [64, 64]
-0.17743987 0.16031958 0.34873918 -0.0630165 -0.08070335 0.012069668 0.17644411 -0.44261998
-0.20387374 0.21073957 -0.19099523 -0.25998035 -0.44983158 0.06369565 0.19843832 -0.21164978
0.085406005 -0.14147244 -0.053502936 -0.057136618 -0.10271267 -0.19293638 -0.11930083 0.19322273
0.14859264 0.1451359 -0.11710598 0.32636487 -0.052888162 0.13787559 0.0029387474 -0.12702824
-0.22878806 -0.08335856 0.27997133 0.3002308 -0.07966714 -0.09370889 0.004797877 -0.19197102
0.052266616 -0.1808111 -0.023070633 0.27822548 0.4057159 0.18219714 -0.1452902 0.04718983
-0.1323053 0.19067806 -0.49109083 0.10461184 -0.04397755 -0.2654212 -0.053575728 -0.3253394
0.035565123 -0.111179546 0.094650954 -0.01200573 0.16022888 -0.44962084 -0.27657405 0.10461081
0.06637854 0.010491807 -0.15076323 0.15572305 0.14661036 0.07429607 -0.20260666 0.298746
-0.057062577 -0.04426095 -0.30157647 0.083711594 -0.12274536 0.39733762 0.1490861 -0.04513425
0.0312604 -0.031208593 0.25042495 0.20473349 -0.33828324 0.13909325 0.24872322 0.02809823
-0.046039525 0.18776865 0.17168854 -0.10068083 0.4530337 0.15901248 0.22905467 -0.10808684
-0.12105674 -0.07804635 -0.06710552 -0.14184281 -0.2514523 -0.1374407 0.30209085 0.35865942
-0.21451983 -0.0607713 0.15357138 -0.20443644 -0.102054514 -0.45129153 -0.090375334 -0.0368414
-0.09515001 -0.07040036 -0.22441843 0.0024434687 -0.368481 -0.14484803 -0.058686532 -0.32217598
0.31358296 0.051937796 0.19433889 -0.24270438 0.1389831 -0.35208592 -0.09780497 -0.34255996
0.54891443 0.0542283 -0.082787305 -0.28728983 -0.059048146 0.14968193 0.09837071 0.13853025
0.1427462 -0.054047126 -0.22698171 0.019850554 -0.4432553 -0.1300541 0.18016331 -0.0111753
-0.005331053 0.21655211 -0.03804759 0.0168334 0.19598974 -0.099824354 0.12762548 0.021599699
-0.05102395 -0.14939536 0.12272639 0.42941704 0.16048916 0.17892838 -0.2710688 -0.17761874
-0.3817279 -0.1248921 -0.0096804965 0.24280591 -0.008338855 0.16408351 -0.031546906 0.16709118
0.20429848 0.14297077 -0.29467335 -0.26035058 0.12558489 -0.104201026 -0.022577472 0.35564777
0.0762451 -0.20318893 -0.040590826 -0.21054088 -0.15423745 0.07492764 -0.21816759 0.12963006
-0.28042358 0.080905266 0.1835906 -0.19767924 0.18375218 0.13155478 0.4546153 -0.5243194
-0.094151065 -0.20378569 -0.16266274 -0.09767006 -0.009859077 -0.5328411 0.012136592 -0.0248721
0.11175505 0.05384204 0.1352516 0.032560516 -0.3194566 -0.36605638 0.2193008 0.011540436
-0.34146807 -0.42478412 0.07545833 -0.06891736 -0.28870198 0.11178783 -0.09885559 0.08586648
0.16040164 -0.10996196 -0.3986874 0.31993786 0.15693115 -0.047584753 0.10551995 0.14472315
0.06046932 -0.09827021 0.15228096 0.0579372 0.2896597 -0.1653911 -0.019453883 0.27840304
-0.16185 -0.007602802 -0.052509025 0.20803185 -0.12471314 0.13086218 0.26465523 -0.166351
0.020045927 0.005598559 0.14691785 -0.27384618 -0.08187875 0.15008862 0.038179576 2.9901597e-05
-0.6598233 -0.18655093 -0.028609978 -0.08440278 0.20306127 -0.15819402 0.08708559 0.002650579
00000000: ccb2 35be d12a 243e f18d b23e cb0e 81bd
00000010: cc47 a5bd dbbf 453c c4ad 343e 169f e2be
00000020: 47c4 50be 1dcc 573e 4194 43be 251c 85be
00000030: 5350 e6be dd72 823d 6a33 4b3e b8ba 58be
00000040: 58e9 ae3d 27de 10be e525 5bbd 1608 6abd
00000050: 055b d2bd 1d91 45be fe53 f4bd 2edc 453e
00000060: ab28 183e 819e 143e 43d5 efbd 4c19 a73e
00000070: 42a1 58bd 422f 0d3e 0098 403b b113 02be
00000080: 6b47 6abe e5b7 aabd 6758 8f3e dab7 993e
00000090: 8728 a3bd 72ea bfbd 8237 9d3b 0d94 44be
000000a0: 8515 563d 8c26 39be a0fe bcbc 9273 8e3e
000000b0: ffb9 cf3e e391 3a3e f4c6 14be 204a 413d
000000c0: 0a7b 07be 1c41 433e 4270 fbbe bb3e d63d
000000d0: ce21 34bd 4ae5 87be 3972 5bbd e392 a6be
000000e0: bcac 113d 1ab2 e3bd 5cd8 c13d aeb3 44bc
000000f0: 0a13 243e b434 e6be 1d9b 8dbe 313e d63d
00000100: 79f1 873d d4e5 2b3c ad61 1abe dd75 1f3e
00000110: 0721 163e 8a28 983d 1f78 4fbe 3cf5 983e
00000120: 73ba 69bd f84a 35bd 3b68 9abe fc70 ab3d
00000130: eb61 fbbd d66f cb3e 07aa 183e b1de 38bd
00000140: e80a 003d 2aa9 ffbc b337 803e a8a5 513e
00000150: 7633 adbe 766e 0e3e 4db1 7e3e 422e e63c
00000160: f193 3cbd 6d46 403e 1fcf 2f3e c031 cebd
00000170: 08f4 e73e 2bd4 223e 4f8d 6a3e a25c ddbd
00000180: 99ec f7bd c4d6 9fbd 9e6e 89bd 3e3f 11be
00000190: 5bbe 80be 41bd 0cbe a7ab 9a3e 35a2 b73e
000001a0: 16ab 5bbe 54eb 78bd d141 1d3e c957 51be
000001b0: f501 d1bd af0f e7be b416 b9bd 02e7 16bd
000001c0: 02de c2bd 102e 90bd f2cd 65be 9a22 203b
000001d0: 8ba9 bcbe 0b53 14be 4a61 70bd 40f4 a4be
000001e0: f28d a03e babc 543d c600 473e 7f87 78be
000001f0: 9651 0e3e 9b44 b4be f94d c8bd 0564 afbe
00000200: a885 0c3f 7e1e 5e3d 648c a9bd a717 93be
00000210: 78dc 71bd 3846 193e 9576 c93d e0da 0d3e
00000220: 0f2c 123e 8560 5dbd e56d 68be a19d a23c
00000230: 5cf2 e2be e72c 05be bb7c 383e 9b18 37bc
00000240: 1db0 aebb d6bf 5d3e cad7 1bbd 33e6 893c
00000250: 89b1 483e b670 ccbd 41b0 023e daf1 b03c
00000260: 7dfe 50bd 19fb 18be f957 fb3d 8ddc db3e
00000270: 4557 243e 0039 373e 88c9 8abe b0e1 35be
00000280: d771 c3be 6ec7 ffbd f29a 1ebc 1da2 783e
00000290: b19f 08bc 8205 283e 5437 01bd f319 2b3e
000002a0: 9f33 513e ee66 123e 6ddf 96be ac4c 85be
000002b0: 5399 003e 5967 d5bd 64f4 b8bc 7717 b63e
000002c0: 6426 9c3d c210 50be 9142 26bd 0798 57be
000002d0: 6cf0 1dbe aa73 993d 5367 5fbe bebd 043e
000002e0: ae93 8fbe a9b1 a53d 2dff 3b3e 6d6c 4abe
000002f0: 8829 3c3e 4cb6 063e 56c3 e83e cc39 06bf
00000300: 46d2 c0bd 32ad 50be 1091 26be 3e07 c8bd
00000310: f787 21bc 4668 08bf 8ed8 463c 93c0 cbbc
00000320: d5df e43d 7989 5c3d 657f 0a3e 2d5e 053d
00000330: d18f a3be be6b bbbe 6490 603e 1914 3d3c
00000340: e7d4 aebe 4e7d d9be e689 9a3d 8b24 8dbd
00000350: bfd0 93be 05f1 e43d cd74 cabd c4da af3d
00000360: 5440 243e bc33 e1bd c120 ccbe e5ce a33e
00000370: 8fb2 203e 3be8 42bd d81a d83d 4e32 143e
00000380: adae 773d e441 c9bd 8aef 1b3e 8f4f 6d3d
00000390: 474e 943e 495c 29be c05d 9fbc d88a 8e3e
000003a0: 02bc 25be ed20 f9bb b413 57bd 4d06 553e
000003b0: 9a69 ffbd bc00 063e e480 873e eb57 2abe
000003c0: 5b37 a43c 1e74 b73b a271 163e 9135 8cbe
000003d0: 0cb0 a7bd d5b0 193e 3062 1c3d 31d5 fa37
000003e0: 2eea 28bf 3507 3fbe 795f eabc 5ddb acbd
000003f0: 4bef 4f3e 9dfd 21be ee59 b23d 56b5 2d3b
