CRL_human_AI_overcooked/human_models/model_unident_open/actor_best_r2.pt (torch, 590163 bytes, 20 tensors)

base.cnn.0.weight f4 [32, 26, 3, 3]
0.06133205 -0.12267757 -0.116275296 0.20885865 0.12093299 -0.0144404955 0.016501877 -0.0023252475
-0.12431523 -0.19510514 0.13145414 0.02470142 0.10523743 -0.032973386 -0.044042647 0.046022467
0.0040669874 -0.07855934 -0.08916357 0.33790654 -0.15808731 -0.097716376 0.016326027 -0.13236704
0.21415308 0.18641113 0.107530765 0.16195968 -0.03525197 0.013335708 0.057053577 -0.01845647
0.14638932 0.065170854 -0.15013514 0.021550998 -0.050688926 -0.23529063 -0.06723937 -0.014971452
-0.06461989 -0.062192798 -0.012118576 0.013995877 0.0025202553 0.018490944 -0.056001738 -0.08555679
0.058361985 -0.007920524 -0.12877457 0.0029697763 0.082628965 0.16193582 0.10544604 0.05096636
0.35030365 0.09518851 0.023261504 0.26334742 -0.06561167 -0.16662125 -0.06697665 -0.11858416
0.08926046 0.10432821 -0.06272684 -0.18186328 0.21340531 0.08562205 -0.17453218 0.05526348
0.04529294 0.25354996 0.19014187 -0.08245171 0.13784997 -0.11098586 0.12568593 0.27303022
-0.028747361 -0.07638732 0.08971312 -0.09375233 0.16030213 -0.08321562 0.018694457 0.063668266
-0.081623 -0.04097238 -0.03446674 0.12632634 0.15351452 -0.012674747 0.031680733 -0.08921072
0.03838299 -0.015778065 -0.09771849 0.13307665 0.018473962 0.052566398 -0.08278496 -0.10020864
0.054798122 0.17093655 0.14626543 0.1045802 -0.0465197 -0.090240605 -0.04886959 0.08327735
0.11796303 0.06126556 -0.019324653 -0.13915211 0.08509062 -0.17303759 -0.06988983 -0.093654364
0.085414745 0.033552594 -0.062449552 0.008380109 0.03885353 -0.103950106 0.14780368 -0.12488366
0.0053000962 0.032784596 -0.029314427 -0.056239374 0.00578278 -0.06866736 -0.07590759 -0.1374452
-0.05528822 -0.060052954 -0.09217449 -0.043763086 0.0261889 -0.17665337 -0.052588657 0.013928786
-0.04178118 -0.08361022 -0.03911414 -0.05633217 0.09257342 0.0727688 -0.032843698 -0.09661998
0.19657668 -0.13220692 -0.0312401 -0.13502738 -0.04691755 0.13283414 -0.02550963 -0.11615391
0.095241055 -0.18319942 -0.099230886 0.015888171 0.027055617 -0.038725443 -0.099919334 0.03178896
-0.093290985 0.046893254 0.17538951 -0.095828325 -0.004352646 0.05005416 0.02583456 -0.019554371
0.12714143 0.06693829 0.036208954 0.013130862 -0.0019471045 0.06407984 -0.022753544 0.04547345
-0.029715942 0.020290336 -0.03783753 -0.05462118 -0.288832 -0.1270063 0.11286387 0.07686854
-0.07864448 -0.088679776 -0.13758133 -0.0199169 -0.093679935 -0.21205719 0.018997064 0.27235427
0.07869981 0.045653466 -0.007517454 0.5149458 -0.16388272 -0.09254085 -0.0317331 0.013449786
-0.025004229 0.011337895 0.17628345 -0.24150068 -0.07204428 0.19709875 0.12664388 0.0084727
-0.010783394 -0.03139984 -0.021740668 -0.08363076 -0.052027408 -0.22404845 0.06170644 0.113169834
0.31027302 0.20456254 -0.07972406 0.047853645 0.046595916 0.04191999 0.115796514 -0.22611812
-0.009932001 0.060107652 -0.06395695 0.19097069 0.16952872 -0.21839121 -0.15007988 0.015590401
0.06879855 -0.020037849 0.0649245 0.0773925 0.0850302 0.06427337 0.08981216 0.089324385
-0.07050993 -0.04833762 -0.034279153 0.14538315 0.115006074 -0.039166726 0.09238583 -0.020972969
00000000: 5137 7b3d 613e fbbd be21 eebd 0bdf 553e
00000010: b7ab f73d d497 6cbc f22e 873c 2e63 18bb
00000020: fc98 febd a4c9 47be ea9b 063e a25a ca3c
00000030: b986 d73d 1a0f 07bd 1066 34bd 0e82 3c3d
00000040: 5d44 853b b8e3 a0bd 649b b6bd 1602 ad3e
00000050: a4e1 21be 861f c8bd 29be 853c 3a8b 07be
00000060: f24a 5b3e 8fe2 3e3e 1739 dc3d c2d8 253e
00000070: 5f64 10bd 037e 5a3c 03b1 693d 0632 97bc
00000080: 15e7 153e 4c78 853d 07bd 19be b88b b03c
00000090: 319f 4fbd 07f0 70be cbb4 89bd d24a 75bc
000000a0: 6f57 84bd e0bd 7ebd fe8c 46bc f64e 653c
000000b0: de2a 253b 527a 973c 1462 65bd 6638 afbd
000000c0: fa0c 6f3d 16c5 01bc 7bdd 03be 94a0 423b
000000d0: 6039 a93d 81d2 253e 18f4 d73d 1ac2 503d
000000e0: 005b b33e 32f2 c23d e98e be3c 79d5 863e
000000f0: 695f 86bd c39e 2abe 0e2b 89bd 41dc f2bd
00000100: 30ce b63d 07aa d53d ee76 80bd 5e3a 3abe
00000110: ec86 5a3e 9d5a af3d 90b8 32be f55b 623d
00000120: 1785 393d 4dd1 813e 8db4 423e 71dc a8bd
00000130: 8b28 0d3e 8e4c e3bd d0b3 003e 9eca 8b3e
00000140: 967f ebbc f570 9cbd 83bb b73d 3901 c0bd
00000150: 3e26 243e f36c aabd 1e25 993c 8264 823d
00000160: f629 a7bd a8d2 27bd ff2c 0dbd b15b 013e
00000170: e932 1d3e bea9 4fbc a8c3 013d 1cb4 b6bd
00000180: 7b37 1d3d 0041 81bc a220 c8bd 3f45 083e
00000190: b556 973c dd4f 573d 298b a9bd 303a cdbd
000001a0: ff73 603d fe09 2f3e 9bc6 153e 252e d63d
000001b0: 718b 3ebd 11d0 b8bd 7b2b 48bd 518d aa3d
000001c0: 9a96 f13d 99f1 7a3d bc4e 9ebc e47d 0ebe
000001d0: fe43 ae3d c430 31be 6622 8fbd dccd bfbd
000001e0: eded ae3d 726e 093d 1acb 7fbd ba4c 093c
000001f0: e124 1f3d cbe3 d4bd d959 173e 01c3 ffbd
00000200: 6eac ad3b 2449 063d cf24 f0bc 425b 66bd
00000210: 797d bd3b 79a1 8cbd 7075 9bbd 6fbe 0cbe
00000220: e775 62bd 16fa 75bd fbc5 bcbd ec40 33bd
00000230: 1b8a d63c 9fe4 34be 3467 57bd 9035 643c
00000240: be22 2bbd d63b abbd 2636 20bd 90bc 66bd
00000250: 2297 bd3d cf07 953d 1d87 06bd b2e0 c5bd
00000260: 664b 493e 4061 07be 3deb ffbc 9e44 0abe
00000270: 9e2c 40bd ac05 083e 92f9 d0bc 1ae2 edbd
00000280: be0d c33d a198 3bbe 9039 cbbd e927 823c
00000290: bea3 dd3c 929e 1ebd 82a2 ccbd 2435 023d
000002a0: 580f bfbd 2413 403d 4f99 333e a441 c4bd
000002b0: a4a0 8ebb 9705 4d3d 00a3 d33c 7d30 a0bc
000002c0: 5d31 023e f116 893d d74f 143d d422 573c
000002d0: fc35 ffba 4b3c 833d a465 babc 5e42 3a3d
000002e0: d96e f3bc eb37 a63c 87fb 1abd 75ba 5fbd
000002f0: cae1 93be f10d 02be 2c25 e73d 416d 9d3d
00000300: 5b10 a1bd be9d b5bd 1fe2 0cbe c428 a3bc
00000310: 44db bfbd 8525 59be bb9f 9b3c 0572 8b3e
00000320: 5e2d a13d 21ff 3a3d fa54 f6bb 7dd3 033f
00000330: dfd0 27be 0f86 bdbd 91fa 01bd 7e5c 5c3c
00000340: abd5 ccbc 94c2 393c a683 343e f44b 77be
00000350: f48b 93bd 41d4 493e efae 013e 14d1 0a3c
00000360: d5ac 30bc 1e9d 00bd 7c19 b2bc 9b46 abbd
00000370: b11a 55bd f56c 65be e4bf 7c3d 96c5 e73d
00000380: 1bdc 9e3e d878 513e 5e46 a3bd 2f02 443d
00000390: 5cdb 3e3d 4cb4 2b3d b926 ed3d 828b 67be
000003a0: d5b9 22bc 7133 763d ddfb 82bd d28d 433e
000003b0: f098 2d3e f2a1 5fbe 8aae 19be e26e 7f3c
000003c0: 41e6 8c3d 6a26 a4bc 23f7 843d f67f 9e3d
000003d0: 5024 ae3d c2a1 833d 70ef b73d b4ef b63d
000003e0: 8367 90bd abfd 45bd 4c68 0cbd 52df 143e
000003f0: 4e88 eb3d 4a6d 20bd c834 bd3d 81cf abbc

base.cnn.0.bias f4 [32]
0.008805253 -0.04944557 -0.014898976 0.022829544 -0.003923253 0.0060364795 -0.04127135 0.0135858655
-0.02129245 -0.026888417 -0.024552025 -0.04024735 -0.020773586 -0.0446888 -0.016715398 0.0033059868
-0.032636493 -0.039919693 -0.018076109 -0.03273207 -0.025119973 -0.042373575 -0.013573054 -0.040099252
0.015009162 -0.06330704 -0.050016288 -0.016808018 -0.039145026 -0.017576493 0.0391262 0.02261327
00000000: e843 103c 7087 4abd d61a 74bc 0605 bb3c
00000010: a28e 80bb a9cd c53b 260c 29bd 4097 5e3c
00000020: 816d aebc 1945 dcbc 5421 c9bc 68da 24bd
00000030: 5e2d aabc 9a0b 37bd bbee 88bc 41a9 583b
00000040: d8ad 05bd d582 23bd 5914 94bc 1012 06bd
00000050: 67c8 cdbc ea8f 2dbd 8461 5ebc 1d3f 24bd
00000060: fde8 753c 1fa7 81bd e1dd 4cbd f8b0 89bc
00000070: 8956 20bd 94fc 8fbc cb42 203d 773f b93c

base.cnn.2.weight f4 [64, 32, 3, 3]
0.050253183 -0.0247391 -0.040703528 -0.09871203 0.011526583 -0.11639576 -0.07485693 0.014112593
-0.09390765 -0.025388248 0.097020194 0.10920319 0.037336305 -0.082986906 -0.055831153 -0.11055485
-0.1796045 -0.04455598 0.04887583 -0.055387553 0.124431774 0.009184514 -0.05335138 0.08645061
-0.07417631 -0.15476617 -0.0525191 -0.008580851 -0.09221127 -0.034747127 -0.05473656 -0.05549155
0.08978978 -0.06293866 -0.041412268 -0.06743312 -0.22062753 0.07447679 0.018705733 0.013357935
-0.023837646 0.037055578 -0.09745088 0.037679773 0.11574747 -0.16071793 -0.005824061 -0.022180445
-0.061771356 0.08698939 0.09818012 0.104913495 0.045751844 0.09466353 0.0131789055 -0.010557727
-0.142942 0.1307695 -0.15484367 0.093662344 -0.13155052 0.052635666 -0.057538606 0.021188302
0.025920466 0.08343848 -0.013515456 -0.10399549 0.02474294 0.049369078 0.05308101 0.03242149
-0.061590847 0.10555496 0.043849174 0.0533772 -0.16668361 -0.14633021 -0.06867367 -0.119770095
0.124427795 0.031465266 -0.07528332 -0.1048866 0.091537416 0.115039565 0.07466624 -0.07784385
0.1357854 -0.081196584 0.19559206 -0.03792382 -0.06792342 -0.15004714 -0.05675112 0.019371184
0.17449425 -0.059982352 0.0012689354 -0.071836 -0.003314608 -0.28394696 -0.011936407 0.032372955
0.13601111 -0.021417512 -0.037790116 -0.011956799 -0.08964803 0.18719606 -0.015947964 -0.1893061
0.18778107 0.08644694 0.07569713 -0.1996881 0.22311671 -0.06149394 -0.06962434 0.048625372
0.031553417 -0.022755705 0.115425184 -0.037647054 0.03344759 0.09002226 0.04144912 0.13005106
0.029525297 0.18534221 -0.13794695 0.19380945 -0.054833904 -0.031360794 -0.11290225 0.017215852
0.0304981 0.11145697 0.14655922 0.043467306 0.08275549 0.035768364 -0.0010957447 0.08752149
-0.11569204 -0.104603626 -0.03311197 0.04798101 -0.032060657 0.019638596 0.06691152 -0.03290607
-0.021973168 0.116794884 -0.11156855 -0.12265651 -0.0045131515 -0.12552132 -0.042294923 -0.13510892
0.037041485 -0.0684981 0.13807099 0.1907817 0.007622564 -0.044559803 -0.1559116 0.13063814
-0.0012091227 -0.05968951 -0.011576379 -0.0038984953 -0.025983075 0.044032805 -0.06851358 -0.014848341
-0.008040644 0.033010464 -0.13266373 -0.019188454 -0.16605245 -0.023866883 0.15745886 0.0956961
-0.063876666 -0.024924634 0.03443495 -0.02100212 -0.031968877 0.030004026 -0.10607711 -0.013446856
-0.10400577 -0.13431242 0.15389171 0.064428315 -0.065582894 0.01684989 0.10721916 0.14647648
0.03124124 -0.056580387 0.062373355 -0.010844706 -0.08734935 0.15152322 -0.057104822 0.060142808
-0.07251977 0.017503837 -0.07886263 0.04569646 -0.13513839 0.13515656 -0.018982604 0.0027168458
-0.10633872 -0.026331158 0.11882233 -0.0037240805 -0.0010866635 0.10704108 0.117685236 -0.1585426
-0.033760075 -0.0008869339 0.13165957 0.07172201 0.0006788496 -0.028631464 -0.11430804 -0.010256628
-0.06714691 0.14636005 -0.06378447 -0.041810483 -0.07185799 0.0033461861 -0.08358749 -0.15890716
-0.012886704 0.10586891 0.060253818 0.2343588 -0.009889674 0.13138488 0.009899765 -0.03090719
-0.07593095 0.05427357 0.018573169 0.03723829 -0.23913403 0.018152494 0.063823186 -0.04711159
00000000: 48d6 4d3d a7a9 cabc beb8 26bd 8829 cabd
00000010: fed9 3c3c e660 eebd 974e 99bd 8138 673c
00000020: a752 c0bd 04fb cfbc 86b2 c63d eca5 df3d
00000030: f4ed 183d 0af5 a9bd 35af 64bd 956a e2bd
00000040: 3eea 37be 5580 36bd 0632 483d 0fde 62bd
00000050: 16d6 fe3d a57a 163c fa86 5abd 040d b13d
00000060: c0e9 97bd 067b 1ebe 451e 57bd b396 0cbc
00000070: 43d9 bcbd 0153 0ebd 7133 60bd 1c4b 63bd
00000080: b4e3 b73d fce5 80bd e99f 29bd 601a 8abd
00000090: 2fec 61be 4a87 983d c43c 993c 3ddb 5a3c
000000a0: 2b47 c3bc 97c7 173d 5494 c7bd 1b56 1a3d
000000b0: 020d ed3d 3e93 24be c4d7 bebb c4b3 b5bc
000000c0: f603 7dbd 7e27 b23d a912 c93d e3dc d63d
000000d0: 4966 3b3d f4de c13d 56ec 573c 51fa 2cbc
000000e0: 635f 12be 71e8 053e 578f 1ebe 0bd2 bf3d
000000f0: 2eb5 06be 7f98 573d 9aad 6bbd 1793 ad3c
00000100: 2857 d43c cbe1 aa3d ee6f 5dbc 96fb d4bd
00000110: b5b1 ca3c 3b37 4a3d 796b 593d 65cc 043d
00000120: af46 7cbd 332d d83d 319b 333d 0da2 5a3d
00000130: 1caf 2abe 96d7 15be c8a4 8cbd 064a f5bd
00000140: 00d4 fe3d b9e1 003d 242e 9abd c9ce d6bd
00000150: f877 bb3d dd99 eb3d 9dea 983d 996c 9fbd
00000160: 540b 0b3e 654a a6bd 4949 483e 0256 1bbd
00000170: 6f1b 8bbd f5a5 19be dd73 68bd 51b0 9e3c
00000180: 9fae 323e 0eb0 75bd 6852 a63a c11e 93bd
00000190: e539 59bb 7f61 91be eb90 43bc 8199 043d
000001a0: 7f46 0b3e c773 afbc cfc9 1abd 73e6 43bc
000001b0: 6399 b7bd 53b0 3f3e 4ea5 82bc 75d9 41be
000001c0: ae49 403e 180b b13d 1907 9b3d 0a7b 4cbe
000001d0: b578 643e 12e1 7bbd 3597 8ebd 662b 473d
000001e0: 283e 013d 2c6a babc 0a64 ec3d cc33 1abd
000001f0: 5700 093d 975d b83d 8dc6 293d 1b2c 053e
00000200: 09df f13c 59ca 3d3e f741 0dbe fc75 463e
00000210: 8499 60bd 2d74 00bd 4b39 e7bd 4208 8d3c
00000220: 27d7 f93c 8d43 e43d 9f13 163e c60a 323d
00000230: b67b a93d d981 123d 179f 8fba 783e b33d
00000240: f3ef ecbd 6d3a d6bd 6ba0 07bd bc87 443d
00000250: 0952 03bd 1fe1 a03c e808 893d 84c8 06bd
00000260: 1301 b4bc 2832 ef3d 0d7e e4bd 5633 fbbd
00000270: 0fe3 93bb a988 00be 713d 2dbd fe59 0abe
00000280: d0b8 173d bb48 8cbd 7b62 0d3e 475c 433e
00000290: b4c6 f93b 5784 36bd 4aa7 1fbe 01c6 053e
000002a0: 6d7b 9eba fd7c 74bd daaa 3dbc e67d 7fbb
000002b0: 75da d4bc be5b 343d d950 8cbd 7546 73bc
000002c0: e8bc 03bc fb35 073d 00d9 07be 1b31 9dbc
000002d0: a709 2abe 7b84 c3bc e53c 213e 51fc c33d
000002e0: c5d1 82bd bf2e ccbc aa0b 0d3d a30c acbc
000002f0: ccf1 02bd 01cb f53c f53e d9bd 3450 5cbc
00000300: fa00 d5bd 3289 09be ca95 1d3e fef2 833d
00000310: 5350 86bd c808 8a3c b895 db3d eefd 153e
00000320: a1ed ff3c d6c0 67bd 347b 7f3d fead 31bc
00000330: 37e4 b2bd e728 1b3e bfe6 69bd 4e58 763d
00000340: 3f85 94bd 3564 8f3c bb82 a1bd 362c 3b3d
00000350: b861 0abe 7b66 0a3e 6881 9bbc 1c0d 323b
00000360: 1dc8 d9bd 71b4 d7bc 1f59 f33d b40f 74bb
00000370: 606e 8eba 5b38 db3d f504 f13d fe58 22be
00000380: 0148 0abd 2081 68ba c4d1 063e fde2 923d
00000390: d3f4 313a 888c eabc 551a eabd 6a0b 28bc
000003a0: 5284 89bd 69df 153e 6fa1 82bd 7841 2bbd
000003b0: 482a 93bd b04b 5b3b eb2f abbd 8fb8 22be
000003c0: c122 53bc cdd1 d83d b5cc 763d c1fb 6f3e
000003d0: 4d08 22bc c289 063e a032 223c 1331 fdbc
000003e0: b081 9bbd f74d 5e3d c226 983c 2d87 183d
000003f0: 8ddf 74be 8ab4 943c bbb5 823d 15f8 40bd

base.cnn.2.bias f4 [64]
-0.008292758 -0.01990413 0.009352322 0.03642379 -0.0005013004 -0.018026868 -0.01761573 -0.039680537
-0.021558026 -0.004005841 -0.013827369 0.0059937933 -0.018297028 -0.017519243 -0.0024672388 -0.021889534
4.406079e-05 -0.023515357 -0.028594049 -0.010695027 -0.03921443 0.010608789 -0.02217085 -0.0061477358
-0.019756105 -0.03350193 -0.018431323 0.004902877 0.009896669 0.0034933912 -0.036925506 -0.011688563
0.0092727635 -0.030265352 -0.058332436 -0.004934814 -0.014509061 -0.025665034 -0.025404673 -0.03948188
-0.015622303 0.013052543 0.025682323 -0.018370679 0.014756602 -0.012210774 -0.020280087 -0.008645067
-0.012429074 -0.025646467 -0.009287714 -0.0001856624 -0.02588088 -0.018434212 -0.014196929 -0.0293274
0.021557268 0.0039527155 -0.048003837 -0.002402148 0.0023927547 -0.027170297 0.0075468067 -0.023229757
00000000: 59de 07bc fc0d a3bc 7b3a 193c 1d31 153d
00000010: b369 03ba 15ad 93bc dd4e 90bc 0f88 22bd
00000020: 759a b0bc 6e43 83bb 308c 62bc 9567 c43b
00000030: a6e3 95bc 8484 8fbc 66b1 21bb ae51 b3bc
00000040: eacd 3838 47a3 c0bc 113e eabc 323a 2fbc
00000050: 4f9f 20bd 7cd0 2d3c a49f b5bc f272 c9bb
00000060: 8ed7 a1bc 5239 09bd 49fd 96bc 50a8 a03b
00000070: a325 223c 61f1 643b 333f 17bd 6381 3fbc
00000080: caec 173c 0bef f7bc feed 6ebd 38b4 a1bb
00000090: 6ab7 6dbc 7a3f d2bc 761d d0bc c0b7 21bd
000000a0: b0f4 7fbc 55da 553c bc63 d23c 1b7e 96bc
000000b0: adc5 713c b30f 48bc 6d22 a6bc 0aa4 0dbc
000000c0: 51a3 4bbc 8a18 d2bc 7f2b 18bc 5fae 42b9
000000d0: 2404 d4bc 5803 97bc 3c9a 68bc 0440 f0bc
000000e0: de98 b03c c885 813b ac9f 44bd 5b6d 1dbb
000000f0: c3cf 1c3b 3e94 debc 344b f73b 554c bebc

base.cnn.4.weight f4 [32, 64, 3, 3]
-0.067294456 -0.08560229 -0.026589379 -0.104330644 0.12059836 -0.04426002 -0.120221704 -0.00047155967
-0.0011218911 -0.04474143 0.033592373 -0.031530064 -0.015080723 0.002661547 -0.12080693 -0.030667191
-0.029761096 0.030210901 -0.033439353 -0.09934447 0.039059546 -0.037238188 -0.102294326 0.061423056
-0.006960422 0.024586558 -0.054390326 -0.034310818 0.025456017 0.036729638 -0.08536167 -0.008039691
-0.12698504 0.0110419225 0.08052566 -0.07017489 0.1586777 -0.0064297994 0.13749604 0.117292024
-0.14532828 0.022976309 0.027008764 -0.10143586 -0.087775245 0.03196422 -0.14746101 -0.091364674
0.0061008716 0.097693324 -0.046632368 0.032154687 -0.028042844 -0.014488892 0.06429887 -0.022752713
-0.03385242 -0.13450189 0.016617581 -0.020114824 0.038118605 0.051857993 -0.08760146 -0.022897273
-0.0023371421 -0.036715228 -0.097548544 -0.06442245 -0.06415655 -0.14141485 -0.046982862 -0.011151928
-0.011231216 0.05099612 -0.049367834 -0.016843338 0.10623529 -0.07360414 -0.012115459 -0.033774145
0.0033417002 0.06062721 0.050451268 0.017376792 0.04800448 0.062184665 -0.09278386 -0.0759776
-0.0803658 0.08497512 -0.040458925 0.017576165 -0.119410105 0.028509691 0.022117179 0.011470794
0.0006809199 0.04459049 0.033286333 0.042299703 -0.027730323 -0.09362558 -0.16875449 0.06997
-0.017616153 0.06997135 0.0076503847 0.096400075 -0.0142470095 -0.09909403 0.18805005 0.03181416
0.0077889157 -0.056462195 -0.065006636 -0.03205862 0.023174062 0.07255713 0.07726584 -0.019104024
0.03180149 -0.002588483 0.062891416 -0.12383702 -0.023878513 -0.1571828 -0.026813893 -0.060552496
-0.27662927 0.062874824 -0.037958365 0.03838727 -0.054501854 0.038139034 0.039708175 -0.033219587
-0.17247385 0.09691197 0.026070837 0.056443322 0.030659538 -0.0068824026 -0.069342986 0.07451288
-0.0602058 -0.09468549 -0.018156007 0.08041723 -0.03570751 -0.12144357 0.09043847 0.0078119407
0.020683214 0.11720461 0.1535166 -0.019996919 0.016283449 0.019506015 -0.010059954 0.0616587
-0.06570327 -0.008461845 -0.03908248 -0.08673298 -0.059326887 -0.026132626 0.13555989 -0.11647587
-0.013964631 0.021037774 -0.0506191 -0.06784588 0.075833954 -0.08387219 -0.08618495 0.032577023
-0.0392013 0.0904381 0.0069533163 -0.008020364 -0.09556558 0.031185484 -0.04580851 -0.015396192
0.058336057 -0.042424068 0.011582394 0.06203986 -0.018153667 -0.08903363 -0.019178491 0.014335502
-0.058902577 0.03191498 -0.064022124 -0.068510205 -0.12682556 -0.002957687 -0.10349723 -0.09549314
-0.032202523 0.054964438 -0.2047651 -0.0036442399 -0.042614043 0.046318766 -0.049189057 -0.008735108
0.07927045 0.066210516 -0.044400327 0.038644288 -0.026487079 0.097294986 -0.019237224 -0.074632555
-0.051878195 -0.021362005 0.04695287 -0.04951145 0.17392148 -0.05741587 -0.078510866 -0.11254283
-0.025871417 -0.06603789 -0.0183423 -0.01804586 -0.02809953 -0.0023607686 -0.06451944 0.03848555
0.026255714 -0.0051523317 -0.11191741 -0.17225476 -0.07279011 -0.0807756 0.031230466 -0.05014688
-0.011248064 0.0824 -0.040617313 -0.09593342 -0.011010633 -0.04512597 -0.08719069 -0.0027528058
-0.022159962 0.07738031 -0.009631518 0.050923046 -0.066616066 -0.10251312 -0.08880755 0.054381322
00000000: add1 89bd 4150 afbd f8d1 d9bc 4eab d5bd
00000010: 46fc f63d ff49 35bd cc36 f6bd ab3b f7b9
00000020: 6b0c 93ba ca42 37bd 2898 093d ab25 01bd
00000030: 2315 77bc 596d 2e3b a069 f7bd c339 fbbc
00000040: 8bcd f3bc da7c f73c b4f7 08bd 1d75 cbbd
00000050: e7fc 1f3d 1287 18bd b07f d1bd be96 7b3d
00000060: 4014 e4bb c069 c93c 64c8 5ebd 8089 0cbd
00000070: 2389 d03c d171 163d 19d2 aebd e8b8 03bc
00000080: 5e08 02be 2ee9 343c a3ea a43d dab7 8fbd
00000090: 687c 223e 11b1 d2bb c3cb 0c3e cd36 f03d
000000a0: f0d0 14be d038 bc3c 7c41 dd3c 9bbd cfbd
000000b0: 82c3 b3bd eaec 023d 0500 17be 671d bbbd
000000c0: d2e9 c73b 7013 c83d 9501 3fbd a2b4 033d
000000d0: 1bba e5bc d162 6dbc 20af 833d e663 babc
000000e0: d6a8 0abd ddba 09be 9821 883c d8c7 a4bc
000000f0: 4122 1c3d 0c69 543d 6568 b3bd 1093 bbbc
00000100: bd2a 19bb b562 16bd 88c7 c7bd ebef 83bd
00000110: 8264 83bd 0ecf 10be 1a71 40bd 94b6 36bc
00000120: 2203 38bc 4fe1 503d ed35 4abd 0afb 89bc
00000130: e391 d93d c4bd 96bd eb7f 46bc c256 0abd
00000140: 6d00 5b3b 3d54 783d fda5 4e3d c659 8e3c
00000150: 58a0 443d 59b5 7e3d 7705 bebd 259a 9bbd
00000160: d396 a4bd 7007 ae3d 42b8 25bd e4fb 8f3c
00000170: 498d f4bd 288d e93c 162f b53c ffef 3b3c
00000180: c37f 323a 85a4 363d 4057 083d 7442 2d3d
00000190: b42a e3bc c5be bfbd facd 2cbe 6e4c 8f3d
000001a0: c04f 90bc 244d 8f3d 14b0 fa3b 676d c53d
000001b0: 4a6c 69bc d0f1 cabd 3190 403e 914f 023d
000001c0: 293a ff3b e744 67bd 3322 85bd e64f 03bd
000001d0: 88d7 bd3c d598 943d 8d3d 9e3d 0b80 9cbc
000001e0: 4742 023d 8aa3 29bb 37cd 803d 439e fdbd
000001f0: df9c c3bc 87f4 20be cfa8 dbbc e505 78bd
00000200: 5aa2 8dbe 84c4 803d 3b7a 1bbd f83b 1d3d
00000210: 563d 5fbd ad37 1c3d 0aa5 223d 4311 08bd
00000220: fc9c 30be c879 c63d 8292 d53c 1d31 673d
00000230: b629 fb3c c785 e1bb b203 8ebd 359a 983d
00000240: 5b9a 76bd 77ea c1bd e8bb 94bc cab1 a43d
00000250: 0a42 12bd 68b7 f8bd ce37 b93d 4ffb ff3b
00000260: d86f a93c f808 f03d 7533 1d3e 94d0 a3bc
00000270: de64 853c 14cb 9f3c 81d2 24bc d58d 7c3d
00000280: 708f 86bd 8da3 0abc f314 20bd 10a1 b1bd
00000290: c000 73bd 1714 d6bc 36d0 0a3e e78a eebd
000002a0: e8cb 64bc 6957 ac3c f955 4fbd c8f2 8abd
000002b0: d54e 9b3d 2fc5 abbd bc81 b0bd 7c6f 053d
000002c0: 8b91 20bd 9c37 b93d a5d8 e33b d867 03bc
000002d0: e3b7 c3bd b378 ff3c b4a1 3bbd 4f40 7cbc
000002e0: caf1 6e3d dcc4 2dbd 15c4 3d3c 821d 7e3d
000002f0: 00b7 94bc 4457 b6bd 361c 9dbc 74df 6a3c
00000300: d443 71bd 48b9 023d 081e 83bd 144f 8cbd
00000310: 8fde 01be c1d5 41bb 5bf6 d3bd e891 c3bd
00000320: cbe6 03bd 6422 613d f1ad 51be 33d4 6ebb
00000330: 108c 2ebd bfb8 3d3d 777a 49bd b31d 0fbc
00000340: 8c58 a23d 6199 873d 1edd 35bd 7949 1e3d
00000350: 6efb d8bc 9842 c73d 6297 9dbc f4d8 98bd
00000360: 3b7e 54bd 5fff aebc a751 403d 85cc 4abd
00000370: 7918 323e e72c 6bbd 4eca a0bd db7c e6bd
00000380: 4bf0 d3bc e03e 87bd 9742 96bc e9d4 93bc
00000390: fc30 e6bc 20b7 1abb c522 84bd 06a3 1d3d
000003a0: 3916 d73c e4d4 a8bb f434 e5bd 8d63 30be
000003b0: fb12 95bd ae6d a5bd 09d7 ff3c d166 4dbd
000003c0: cd49 38bc 55c1 a83d 575e 26bd be78 c4bd
000003d0: f165 34bc 02d6 38bd 0891 b2bd 6b68 34bb
000003e0: cf88 b5bc 9179 9e3d 84cd 1dbc af94 503d
000003f0: 016e 88bd 66f2 d1bd bce0 b5bd f3be 5e3d

base.cnn.4.bias f4 [32]
-0.009963139 -0.008454279 -0.039971605 -0.027668856 -0.016692832 -0.0034744581 -0.027342124 -0.03414825
-0.03297841 -0.02179333 -0.05178641 -0.028145794 -0.00941511 -0.031599715 -0.021415789 -0.004590735
-0.0189513 -0.015240443 -0.021240866 -0.014412264 -0.016261077 -0.0010744028 -0.036346424 -0.0024472321
-0.02776961 -0.012353127 -0.035559583 0.0031790927 -0.038739163 -0.03980624 -0.0018517983 -0.01625264
00000000: 6f3c 23bc d183 0abc 44b9 23bd cca9 e2bc
00000010: 68bf 88bc bcb3 63bb 97fc dfbc 09df 0bbd
00000020: 5f14 07bd ed87 b2bc fd1d 54bd 0292 e6bc
00000030: d541 1abc b46e 01bd 2a70 afbc e06d 96bb
00000040: c23f 9bbc 0db3 79bc 5301 aebc 6b21 6cbc
00000050: f335 85bc fad2 8cba fddf 14bd be61 20bb
00000060: 187d e3bc c564 4abc eda6 11bd 5358 503b
00000070: f5ac 1ebd de0b 23bd 0ab8 f2ba 4224 85bc

base.cnn.7.weight f4 [64, 1440]
0.0065056565 0.034306835 0.02648322 0.020315893 -0.023211973 0.00083546876 0.0018492249 -0.09726856
-0.024015535 0.07956369 -0.06294792 0.034179088 0.001707504 -0.07517491 -0.083264776 0.019729773
-0.066363886 0.007942037 0.0061181816 0.03323694 0.021808775 -0.03531961 0.025447236 -0.021843517
-0.039464317 -0.12503928 -0.16002327 0.061670512 0.019125082 0.0062061097 0.056333076 -0.06588408
0.013474167 -0.027869415 -0.084557995 -0.019429523 0.0051434557 0.036749937 -0.041977525 0.007011817
0.035545208 0.042634472 -0.14283645 -0.020731207 -0.04094316 -0.010727619 -0.030589622 -0.050750803
0.0256004 0.012426387 0.06720381 -0.027562054 0.060921118 0.041709613 0.019555852 -0.04485373
-0.03909623 0.020271296 0.032040235 -0.03445598 -0.040986642 -0.036802184 0.00026641114 0.013096911
-0.09734105 -0.048700046 -0.122874506 -0.082182236 -0.018834205 0.0038833905 -0.043808926 -0.024251357
0.029975913 0.016066683 -0.123417884 0.01997493 -0.008762119 0.07629958 -0.08240021 0.018371133
-0.044293057 -0.0018192581 -0.0691706 0.014758179 -0.013377342 0.10767792 0.06405379 0.010026896
-0.09459139 -0.05499515 0.058071967 -0.054083113 0.0063894214 0.0665131 0.043893244 -0.019568695
-1.9136727e-05 0.0040047877 -0.15773587 -0.019222882 -0.04262173 -0.02587241 -0.09984403 0.017976306
0.062171586 -0.04342619 0.043961562 -0.099472865 -0.054776266 0.04830758 -0.049084514 0.037454158
0.0152797615 -0.0028368367 0.13734971 -0.042296175 -0.004127623 0.0935251 -0.109794766 -0.024101527
-0.06922927 0.02752812 0.01949363 -0.01760776 0.032957517 -0.08338738 0.041655593 -0.05695511
0.038400788 -0.037920948 -0.047078185 -0.05740282 -0.0016317785 -0.0030059556 0.007755955 -0.05745405
-0.040573314 0.093250304 0.07425588 -0.027014323 0.13631174 -0.02757953 -0.08320626 -0.03414237
0.11413239 -0.008890836 0.07125818 -0.023985323 0.022985091 -0.007042282 -0.024969123 -0.06001804
-0.02996597 -0.026819827 -0.045764484 -0.07262272 -0.11052461 0.09055544 0.042492148 -0.008906246
-0.06587374 0.06390938 0.043231633 -0.13337524 -0.025033083 -0.057399917 0.050297447 0.049488835
0.08058848 -0.03193149 -0.07053867 0.10111462 -0.06784419 0.08533375 -0.032927867 -0.020949343
-0.01722793 -0.123510495 0.078200325 -0.06562437 0.017452268 0.0030028862 0.064289406 0.06079406
0.069173515 -0.011432452 -0.00932339 0.042280804 -0.0440159 0.067554526 -0.003233636 0.08982093
0.040978942 -0.0042014197 -0.007886539 0.060303874 -0.03274533 0.026855834 -0.04539819 0.018715523
0.07089715 0.0318342 0.029788228 0.07406892 -0.07616143 -0.053053312 -0.017764265 0.0016253452
0.11904976 -0.061832987 -0.0074369535 0.080549926 -0.0859302 0.04117106 -0.03375262 0.027697194
0.019505493 -0.016140154 -0.013192138 -0.027814694 0.056573924 -0.020656912 -0.03950055 0.005572802
0.08762308 0.08519628 -0.036716398 -0.019031186 0.04384365 0.0040252046 0.09579589 0.036768008
0.017945286 -0.07210539 0.010109965 -0.0004953786 -0.008247595 0.025111424 0.07010272 -0.052281354
-0.04071807 -0.025302846 0.069554865 0.0075499937 0.055236485 -0.075525574 -0.032506637 -0.0027686371
-0.0029184541 -0.072668366 -0.08160327 0.039892927 -0.022838911 0.005843164 -0.012731593 -0.0124436645
00000000: 672d d53b 5385 0c3d 56f3 d83c 846d a63c
00000010: 0927 bebc 5c03 5b3a b161 f23a bd34 c7bd
00000020: 3abc c4bc 4af2 a23d d7ea 80bd 5fff 0b3d
00000030: 54ce df3a 4ef5 99bd b986 aabd 55a0 a13c
00000040: cae9 87bd 511f 023c 077b c83b 7523 083d
00000050: 51a8 b23c 4cab 10bd b976 d03c 2df1 b2bc
00000060: 56a5 21bd 4c0a 00be 24dd 23be 389a 7c3d
00000070: 34ac 9c3c 9f5c cb3b 83bd 663d 3cee 86bd
00000080: c1c2 5c3c 664e e4bc be2c adbd aa2a 9fbc
00000090: 6f8a a83b 1a87 163d a0f0 2bbd 62c3 e53b
000000a0: da97 113d 7ca1 2e3d b843 12be 7ed4 a9bc
000000b0: 04b4 27bd e5c2 2fbc 1697 fabc 13e0 4fbd
000000c0: eeb7 d13c 0b98 4b3c 27a2 893d d1c9 e1bc
000000d0: 6c88 793d b3d7 2a3d 9833 a03c 8bb8 37bd
000000e0: 5e23 20bd fd0f a63c 9f3c 033d b721 0dbd
000000f0: 9ce1 27bd e3bd 16bd 19ad 8b39 6d94 563c
00000100: bf5a c7bd b379 47bd a1a5 fbbd 294f a8bd
00000110: 314a 9abc 7b80 7e3b fd70 33bd c8aa c6bc
00000120: 0c90 f53c 479e 833c 84c2 fcbd 77a2 a33c
00000130: fe8e 0fbc f442 9c3d 71c1 a8bd 0f7f 963c
00000140: a36c 35bd 2c74 eeba 51a9 8dbd 4acc 713c
00000150: a42c 5bbc 3e86 dc3d a22e 833d da47 243c
00000160: 21b9 c1bd 9842 61bd dfdc 6d3d 4186 5dbd
00000170: 5a5e d13b 0538 883d 67c9 333d 874e a0bc
00000180: cf87 a0b7 983a 833b 8385 21be 4e79 9dbc
00000190: 2094 2ebd 60f2 d3bc 077b ccbd 0c43 933c
000001a0: a2a7 7e3d a9df 31bd 0a11 343d 6eb8 cbbd
000001b0: 145d 60bd 2bde 453d d80c 49bd 8869 193d
000001c0: f757 7a3c 39ea 39bb 67a5 0c3e c13e 2dbd
000001d0: 0341 87bb 168a bf3d 14dc e0bd 9170 c5bc
000001e0: 13c8 8dbd a782 e13c 1bb1 9f3c 263e 90bc
000001f0: 76fe 063d 01c7 aabd 0e9f 2a3d c349 69bd
00000200: 254a 1d3d ff52 1bbd 0ed5 40bd 381f 6bbd
00000210: 67e1 d5ba 91ff 44bb ab25 fe3b f054 6bbd
00000220: 3430 26bd 04fa be3d 7813 983d 244d ddbc
00000230: 4e95 0b3e 77ee e1bc 0b68 aabd dfd8 0bbd
00000240: 3ebe e93d deaa 11bc cfef 913d de7c c4bc
00000250: 3b4b bc3c f1c2 e6bb 0c8c ccbc 7ad5 75bd
00000260: 327b f5bc 41b5 dbbc 8a73 3bbd 38bb 94bd
00000270: ba5a e2bd 2175 b93d 3f0c 2e3d 81eb 11bc
00000280: d0e8 86bd ece2 823d a713 313d 8593 08be
00000290: 2e12 cdbc 2d1c 6bbd b204 4e3d ceb4 4a3d
000002a0: 930b a53d 98ca 02bd 9476 90bd 2f15 cf3d
000002b0: e5f1 8abd 76c3 ae3d 5fdf 06bd f59d abbc
000002c0: 9621 8dbc 12f3 fcbd 7e27 a03d 1266 86bd
000002d0: 0ff8 8e3c 12cc 443b 2aaa 833d 3103 793d
000002e0: d8aa 8d3d 2e4f 3bbc 22c1 18bc a32e 2d3d
000002f0: 044a 34bd 075a 8a3d 69eb 53bb 09f4 b73d
00000300: 89d9 273d 10ac 89bb 8b36 01bc 3201 773d
00000310: f81f 06bd c400 dc3c 74f3 39bd 4c51 993c
00000320: 8632 913d 9464 023d 7106 f43c 72b1 973d
00000330: 86fa 9bbd 6e4e 59bd 5d86 91bc 8909 d53a
00000340: 5cd0 f33d 9644 7dbd b0b1 f3bb 5cf7 a43d
00000350: 2cfc afbd fca2 283d 3040 0abd 3ae5 e23c
00000360: fcc9 9f3c 5b38 84bc d623 58bc a4db e3bc
00000370: 0fba 673d af38 a9bc 54cb 21bd 0d9c b63b
00000380: bb73 b33d 637b ae3d ef63 16bd 4ae7 9bbc
00000390: 6695 333d dde5 833b a330 c43d 0d9a 163d
000003a0: fe01 933c feab 93bd 44a4 253c 4cdc 01ba
000003b0: ec20 07bc 79b6 cd3c 0492 8f3d f924 56bd
000003c0: fec7 26bd ea47 cfbc c872 8e3d f065 f73b
000003d0: a73f 623d 27ad 9abd ae25 05bd 0672 35bb
000003e0: 8943 3fbb 27d3 94bd 9d1f a7bd c466 233d
000003f0: ab18 bbbc 0378 bf3b 2c98 50bc 83e0 4bbc

base.cnn.7.bias f4 [64]
-0.03876172 -0.0127795 -0.019442996 -0.035634644 -0.00021881663 -0.020987086 -0.014991021 -0.026604256
-0.0061214725 0.0076231323 -0.055458404 -0.031641092 -0.018041989 -0.013350393 -0.006462522 -0.036638748
-0.002330409 -0.035811927 -0.011389998 -0.0082462495 0.000106271065 -0.0001116902 -0.0067380355 -0.033324104
0.005987982 -0.0049517066 -0.033138506 -0.009255901 -0.029997814 0.014668634 0.00653964 0.013872048
-0.0061814766 -0.042218335 -0.0073422394 -0.0019602415 -0.031344034 -0.01891437 -0.0055023157 -0.009541052
0.011550191 -0.021385811 -0.012191124 -0.03917827 0.005680765 -0.0062089292 -0.014396821 -0.015459145
-0.035780255 -0.029510546 0.0012726415 -0.026039617 0.014018423 -0.017093342 -0.013278875 -0.032051165
-0.00919519 -0.04377979 -0.021303799 0.002157222 -0.0017975786 -0.04327801 -0.01145188 -0.03995982
00000000: 9cc4 1ebd 1c61 51bc eb46 9fbc a2f5 11bd
00000010: 2472 65b9 1ced abbc e69c 75bc 2bf1 d9bc
00000020: a296 c8bb 78cb f93b 5a28 63bd 179a 01bd
00000030: cbcc 93bc 9bbb 5abc 90c3 d3bb 8312 16bd
00000040: c6b9 18bb 87af 12bd 1d9d 3abc 471b 07bc
00000050: d8dd de38 383b eab8 bdca dcbb db7e 08bd
00000060: d536 c43b ed41 a2bb 3ebc 07bd 10a6 17bc
00000070: fabd f5bc b654 703c 7a4a d63b 9647 633c
00000080: fc8d cabb 22ed 2cbd 2b97 f0bb 6577 00bb
00000090: 9a62 00bd 4ff2 9abc c54c b4bb 1352 1cbc
000000a0: 033d 3d3c 4c31 afbc 48bd 47bc 6579 20bd
000000b0: b625 ba3b 4674 cbbb a5e0 6bbc 5b48 7dbc
000000c0: 518e 12bd 1ac0 f1bc c3ce a63a 0951 d5bc
000000d0: 87ad 653c 5607 8cbc a38f 59bc 1548 03bd
000000e0: 6ca7 16bc 7052 33bd 4e85 aebc 2e60 0d3b
000000f0: bb9c ebba 4844 31bd aba0 3bbc e9ac 23bd

base.cnn.9.weight f4 [64]
1.0403423 1.0076243 1.0285878 0.97145003 0.974433 1.0620323 1.0217686 1.0211351
1.0756658 0.9372627 0.9602571 1.0648683 0.9703936 0.9619585 0.9756146 0.98536396
0.90188223 0.9770253 1.0123652 1.0423108 0.9876277 0.96727014 0.9853914 1.0383824
0.9879209 0.9942411 1.0205067 0.987141 0.98806226 1.0112417 1.025363 0.9628374
1.0376152 1.0535283 1.032569 0.98298365 0.9522706 1.0090233 0.9517329 1.0248085
0.98591524 1.0011301 0.98107785 1.0471753 1.01593 1.1211779 1.0619057 1.0049192
0.97523564 1.0017838 1.0199577 1.0048062 1.0118979 0.98594683 0.99839157 0.9828539
1.0048386 0.98855746 0.96439445 1.0031319 1.0305041 0.9746046 1.0503229 0.98517275
00000000: f029 853f d5f9 803f c4a8 833f f3b0 783f
00000010: 7174 793f adf0 873f 50c9 823f 8eb4 823f
00000020: 6baf 893f 73f0 6f3f 69d3 753f 9b4d 883f
00000030: b76b 783f ea42 763f e1c1 793f d040 7c3f
00000040: c1e1 663f 541e 7a3f 2f95 813f 716a 853f
00000050: 2bd5 7c3f 049f 773f 9c42 7c3f b7e9 843f
00000060: 62e8 7c3f 9686 7e3f f79f 823f 46b5 7c3f
00000070: a6f1 7c3f 5e70 813f 183f 833f 837c 763f
00000080: 93d0 843f 04da 863f 392b 843f d1a4 7b3f
00000090: 02c8 733f ad27 813f c4a4 733f ed2c 833f
000000a0: f164 7c3f 0825 803f eb27 7b3f d709 863f
000000b0: ff09 823f c282 8f3f 87ec 873f 31a1 803f
000000c0: 0ba9 793f 743a 803f f98d 823f 7d9d 803f
000000d0: df85 813f 0367 7c3f 9796 7f3f 509c 7b3f
000000e0: 8d9e 803f 1a12 7d3f 8ee2 763f a066 803f
000000f0: 8fe7 833f b07f 793f fb70 863f 4834 7c3f

base.cnn.9.bias f4 [64]
-0.009611974 -0.0050973734 0.04610708 0.015936133 0.042907182 -0.02373173 0.01496645 0.0009098587
-0.022328502 0.049328376 0.08290594 -0.02589625 0.0368179 0.05862384 -0.001833457 0.00981641
0.07552879 -0.025681091 -0.00044445906 -0.02107672 0.007220051 0.021711579 0.034036636 -0.035046402
0.0060404735 0.0005411718 -0.011621031 -0.0041142125 0.022585418 0.08018369 -0.025201382 0.08032623
0.015625006 0.005939659 -0.05928078 0.012743054 0.06847457 -0.015890788 0.094770074 -0.081838615
-0.015520716 0.042812023 0.008708577 0.019858532 0.0022692573 -0.028552005 -0.009194317 -0.010415414
0.020485476 -0.0034355205 -0.0048411675 -0.02595292 -0.0076700114 0.041731976 0.026038187 -0.00610364
-0.0138710225 0.0007917973 0.035645552 -0.002489347 -0.018742252 0.026805425 -0.0023396104 -0.031596657
00000000: 8a7b 1dbc de07 a7bb c7da 3c3d 7e8c 823c
00000010: 71bf 2f3d 0c69 c2bc d735 753c 9583 6e3a
00000020: 43ea b6bc 8d0c 4a3d 97ca a93d 5f24 d4bc
00000030: 5ece 163d 8d1f 703d 9c50 f0ba 02d5 203c
00000040: d7ae 9a3d 2761 d2bc 4906 e9b9 16a9 acbc
00000050: 2d96 ec3b 7bdc b13c 006a 0b3d d18c 0fbd
00000060: 2aef c53b 6ddd 0d3a 2366 3ebc 84d0 86bb
00000070: 0e05 b93c 5937 a43d 2173 cebc 1482 a43d
00000080: 0300 803c 79a1 c23b 67d0 72bd 3ec8 503c
00000090: 653c 8c3d 662d 82bc d016 c23d 019b a7bd
000000a0: 9a4a 7ebc a95b 2f3d 6bae 0e3c 5cae a23c
000000b0: d2b7 143b e5e5 e9bc c3a3 16bc 6aa5 2abc
000000c0: 28d1 a73c 7826 61bb a8a2 9ebb 389b d4bc
000000d0: b854 fbbb 26ef 2a3d 094e d53c 0b01 c8bb
000000e0: 4943 63bc 9e90 4f3a 1201 123d 5024 23bb
000000f0: 5a89 99bc 0d97 db3c 2654 19bb 7f6b 01bd

base.cnn.10.weight f4 [64, 64]
0.21603866 -0.20383899 0.01764741 0.16663827 0.065199114 -0.044828396 0.08220311 -0.1078555
0.3784728 0.029907143 -0.04936726 -0.27583486 -0.04416701 -0.0607861 -0.05717933 0.24187051
-0.10557589 0.35052064 0.15288398 -0.22790244 -0.24419482 0.23972547 -0.006784537 0.2218851
-0.22258322 0.016342843 0.2704083 0.14123482 0.055164013 0.008798363 0.23623611 -0.08415481
0.008812861 0.14805835 -0.07954872 0.32003132 0.033460237 -0.22112808 -0.18922222 -0.018624261
0.04294275 -0.10758749 -0.028194778 -0.027355252 -0.0030728653 0.15741922 0.007738077 0.102474906
0.27117658 0.42713067 0.045216963 -0.035370156 0.18578234 -0.24225138 -0.36779383 0.2058259
0.05338799 0.08796036 0.17580573 0.14810246 -0.166268 -0.08959564 -0.034319095 -0.59036
0.20029192 0.11537554 0.28298616 0.06676928 -0.23811261 -0.013730566 -0.23771672 -0.030357944
0.09650532 -0.3634214 0.17239872 -0.17434566 0.20493056 -0.024991253 0.054992672 0.24077806
0.39865026 0.038598336 -0.16217463 -0.06785258 -0.1813795 -0.2096672 0.18790291 0.22620255
-0.012088275 -0.038180124 -0.1028299 0.22894493 0.045444522 0.047560684 -0.11821076 0.04746616
0.009148283 0.02527621 -0.07918715 -0.18351299 0.034911174 0.57765275 -0.09796219 0.067899995
0.03379788 -0.016208977 -0.078627504 0.13864237 -0.25998154 0.2289436 0.3275131 0.14141494
-0.1445366 -0.11329393 0.07963723 -0.054297667 0.28141415 -0.19658636 -0.10066982 -0.13120437
-0.09516675 -0.26448265 -0.09872057 0.18661372 -0.2666366 0.08083191 0.20131092 -0.133785
-0.3874123 -0.083366886 -0.06190753 0.2018228 -0.06485228 0.22022066 0.1432895 -0.0052939234
-0.064046904 -0.06031674 -0.06746078 0.14123398 0.29077703 0.094498545 -0.17715228 0.11287221
0.13767838 0.17410617 -0.11439806 0.29708448 -0.12417467 -0.36521697 0.2111213 0.24379927
0.18258464 -0.13057837 -0.034535892 0.055292625 0.22454764 -0.3489986 0.2532569 -0.04671097
-0.094991684 0.034888513 -0.023912735 0.019201433 -0.18718372 -0.07363356 -0.1343219 0.003528089
-0.21309622 -0.24782847 0.17929475 0.07851595 0.027336882 -0.077857465 0.17175068 0.0339409
-0.051991098 0.38925624 -0.0753904 -0.25782493 -0.16142188 -0.10044351 0.07159431 0.03789846
0.08259921 0.015460776 0.19521546 -0.26433897 0.4092159 -0.14587899 0.17883752 0.18570365
0.021741169 0.46580893 -0.07247493 0.15115665 0.015323948 0.33377588 0.4462767 0.3901076
0.11208532 -0.12321857 0.16897786 -0.42786968 -0.0719998 0.25074115 -0.12019626 -0.1493478
0.33269334 -0.09460552 -0.012494579 -0.12752295 -0.029839633 0.2875981 -0.1753369 0.073621735
-0.07296578 -0.28408676 0.23121184 0.029321892 -0.07997046 -0.17203987 0.20141807 0.100349754
0.020058982 0.30534253 -0.0053211492 -0.13671519 0.3956695 -0.016709693 -0.19023648 0.19869375
0.30647832 -0.104769215 -0.19292332 -0.15119107 0.22105576 -0.15788947 0.40832293 -0.04999466
0.07237958 0.14270206 -0.07648532 0.18900804 -0.06725828 0.07202594 -0.07156219 0.086518094
0.00083171664 0.02619474 -0.24807514 -0.030839728 0.30897138 0.09052826 -0.09432747 0.19747223
00000000: 3d39 5d3e 2bbb 50be 4d91 903c 39a3 2a3e
00000010: 1d87 853d fb9d 37bd 1b5a a83d 58e3 dcbd
00000020: 30c7 c13e d3ff f43c 5335 4abd 3a3a 8dbe
00000030: 77e8 34bd d8fa 78bd e034 6abd e7ac 773e
00000040: 2c38 d8bd 7177 b33e 9e8d 1c3e 425f 69be
00000050: 350e 7abe 987a 753e d250 debb d935 633e
00000060: dbec 63be 6de1 853c f572 8a3e dc9f 103e
00000070: a9f3 613d 0227 103c e1e7 713e 5b59 acbd
00000080: d163 103c 9c9c 173e 70ea a2bd 25db a33e
00000090: 9a0d 093d 666f 62be 78c3 41be e891 98bc
000000a0: bde4 2f3d d456 dcbd bcf8 e6bc 1f18 e0bc
000000b0: 2062 49bb 8132 213e b28f fd3b 5dde d13d
000000c0: a8d7 8a3e dfb0 da3e 6c35 393d 4ce0 10bd
000000d0: ba3d 3e3e bf10 78be 794f bcbe 06c4 523e
000000e0: 5dad 5a3d 9024 b43d 6b06 343e 2ca8 173e
000000f0: 2942 2abe eb7d b7bd 2e92 0cbd d521 17bf
00000100: 5319 4d3e 034a ec3d 90e3 903e 55be 883d
00000110: cbd3 73be 2bf6 60bc 036c 73be 39b1 f8bc
00000120: 95a4 c53d 5f12 babe 4a89 303e ab87 32be
00000130: 51d9 513e 75ba ccbc ff3f 613d 868e 763e
00000140: e31b cc3e 4a19 1e3d 1b11 26be 4bf6 8abd
00000150: 8cbb 39be 00b3 56be 9f69 403e a4a1 673e
00000160: e60d 46bc c362 1cbd 7c98 d2bd 8a70 6a3e
00000170: 0924 3a3d fece 423d 7c18 f2bd e06b 423d
00000180: aee2 153c 0e10 cf3c df2c a2bd d4ea 3bbe
00000190: 05ff 0e3d 0de1 133f 67a0 c8bd 270f 8b3d
000001a0: a56f 0a3d b0c8 84bc 7507 a1bd 44f8 0d3e
000001b0: 4d1c 85be 3170 6a3e ccaf a73e 14cf 103e
000001c0: 6701 14be a606 e8bd d818 a33d 3b67 5ebd
000001d0: 8415 903e ef4d 49be fb2b cebd 705a 06be
000001e0: c9e6 c2bd 456a 87be 032e cabd ab17 3f3e
000001f0: 9884 88be 338b a53d 7324 4e3e effe 08be
00000200: e85a c6be 42bc aabd c092 7dbd a3aa 4e3e
00000210: 46d1 84bd 8681 613e 7cba 123e a678 adbb
00000220: 062b 83bd b00e 77bd e128 8abd a49f 103e
00000230: bae0 943e 7488 c13d 6867 35be 8c29 e73d
00000240: 90fb 0c3e e348 323e 8849 eabd 751b 983e
00000250: 4a4f febd b8fd babe 2f30 583e 84a6 793e
00000260: 78f7 3a3e 56b6 05be 8275 0dbd 857a 623d
00000270: d1ef 653e f2af b2be e3aa 813e 0154 3fbd
00000280: 008b c2bd 42e7 0e3d a4e4 c3bc 534c 9d3c
00000290: 17ad 3fbe 31cd 96bd ae8b 09be 8337 673b
000002a0: e535 5abe bfc6 7dbe 0b99 373e f8cc a03d
000002b0: 99f1 df3c bc73 9fbd 69df 2f3e 9d05 0b3d
000002c0: 9ef4 54bd 984c c73e 4866 9abd a101 84be
000002d0: c74b 25be 54b5 cdbd 0aa0 923d 6a3b 1b3d
000002e0: c629 a93d 324f 7d3c 90e6 473e 7057 87be
000002f0: bf84 d13e 4d61 15be 2f21 373e 1929 3e3e
00000300: 891a b23c 827e ee3e bc6d 94bd cfc8 1a3e
00000310: 4c11 7b3c ace4 aa3e 617e e43e 2fbc c73e
00000320: fd8c e53d 055a fcbd 8808 2d3e bc11 dbbe
00000330: a274 93bd 2561 803e 7529 f6bd a1ee 18be
00000340: c856 aa3e 8ac0 c1bd 10b6 4cbc 6095 02be
00000350: 3f72 f4bc 0f40 933e 848b 33be fec6 963d
00000360: 156f 95bd d273 91be ccc2 6c3e 7734 f03c
00000370: 8dc7 a3bd 382b 30be 8a40 4e3e 2c84 cd3d
00000380: bc52 a43c db55 9c3e 095d aebb 11ff 0bbe
00000390: 3195 ca3e c4e2 88bc 5acd 42be 6076 4b3e
000003a0: baea 9c3e 3e91 d6bd b18d 45be d5d1 1abe
000003b0: 715c 623e c7ad 21be b40f d13e 33c7 4cbd
000003c0: bf3b 943d 7d20 123e 56a4 9cbd 538b 413e
000003d0: b6be 89bd 5682 933d 338f 92bd 6630 b13d
000003e0: 8f07 5a3a 5a96 d63c 6907 7ebe 99a3 fcbc
000003f0: 7f31 9e3e e166 b93d c32e c1bd 2936 4a3e

base.cnn.10.bias f4 [64]
0.029659351 -0.017016448 -0.07091538 -0.0818373 -0.04667063 0.01598611 -0.008286198 -0.0051532793
-0.13556999 0.027086908 -0.045871846 0.015233411 -0.03765584 0.02841833 0.028000727 -0.006251685
0.0101284655 0.004385551 -0.017208157 -0.097314425 -0.011199397 -0.03372283 -0.08084138 -0.01864198
-0.014019275 0.011389127 -0.011315434 -0.058453105 -0.007955915 -0.055554133 -0.021744208 -0.03905956
-0.002742877 0.034972448 -0.07886142 -0.019414397 -0.00024639297 0.028950745 0.02202725 -0.0039620576
-0.023869619 -0.06252412 0.029685887 -0.071097076 -0.029153496 0.011666321 0.0077959667 -0.051990762
0.053705096 0.03648109 -0.04840656 -0.06228203 0.02324833 -0.088942796 -0.02331357 -0.021244304
-0.018744636 0.014199897 -0.083784044 -0.06707772 -0.020050058 -0.0076211886 0.034683075 -0.00775641
00000000: 2bf8 f23c 1466 8bbc 153c 91bd 509a a7bd
00000010: b429 3fbd 4df5 823c d5c2 07bc d7dc a8bb
00000020: dcd2 0abe 5de5 dd3c 1ee4 3bbd 8f95 793c
00000030: 033d 1abd 8fcd e83c c861 e53c efda ccbb
00000040: ddf1 253c abb4 8f3b 1ff8 8cbc c94c c7bd
00000050: ad7d 37bc f320 0abd 2a90 a5bd 11b7 98bc
00000060: 1ab1 65bc 7699 3a3c 5f64 39bc 866c 6fbd
00000070: 8759 02bc bb8c 63bd e920 b2bc ebfc 1fbd
00000080: d7c1 33bb 453f 0f3d 1982 a1bd f10a 9fbc
00000090: 4e2e 81b9 1d2a ed3c 7e72 b43c 26d4 81bb
000000a0: 388a c3bc a50c 80bd d12f f33c 589b 91bd
000000b0: 50d3 eebc 1924 3f3c 4f75 ff3b 44f4 54bd
000000c0: e0f9 5b3d 326d 153d f545 46bd 711b 7fbd
000000d0: 4873 be3c a427 b6bd 1afc bebc 8908 aebc
000000e0: 5a8e 99bc afa6 683c f896 abbd 0b60 89bd
000000f0: 0540 a4bc 2abb f9bb d70f 0e3d 7c29 febb

base.cnn.12.weight f4 [64]
0.9982074 0.98981136 0.83521193 1.020141 0.9747141 0.95283926 1.0730481 1.021784
0.9560336 0.9788494 0.95935816 1.0360993 1.0021124 1.0413489 1.065578 0.9726697
0.9952171 0.96887374 0.79653496 0.8958354 0.9604056 0.9787398 0.9933031 1.0171489
1.0588254 0.9743104 1.05166 0.95273143 0.98196495 0.9462938 0.9211133 1.0392108
0.9871709 0.95268446 0.8614042 0.9504178 1.0501807 1.0570688 1.1829656 0.96863455
1.1119152 0.93929356 1.0613165 1.0011694 0.9927729 1.0220476 1.0386081 1.016247
1.0462353 0.9941211 1.0173756 0.98653775 1.0699266 0.9541141 0.9476854 0.94672316
0.97518164 0.9865828 1.0042657 0.9471793 1.0467211 0.9169495 1.1053123 1.0177268
00000000: 858a 7f3f 4764 7d3f 73d0 553f fb93 823f
00000010: dd86 793f 46ed 733f a459 893f d1c9 823f
00000020: 9ebe 743f e095 7a3f 7f98 753f e79e 843f
00000030: 3845 803f ec4a 853f dc64 883f e200 793f
00000040: 8cc6 7e3f 1c08 783f b7e9 4b3f 7855 653f
00000050: 24dd 753f b18e 7a3f 1d49 7e3f ef31 823f
00000060: 9787 873f 686c 793f cb9c 863f 35e6 733f
00000070: 0e62 7b3f 4f40 723f 15ce 6b3f dc04 853f
00000080: 3bb7 7c3f 21e3 733f fc84 5c3f 954e 733f
00000090: 526c 863f 084e 873f 6b6b 973f 6ff8 773f
000000a0: 3d53 8e3f 8b75 703f 38d9 873f 5226 803f
000000b0: 5d26 7e3f 75d2 823f 1cf1 843f 6214 823f
000000c0: 0aeb 853f b87e 7e3f 5d39 823f bd8d 7c3f
000000d0: 5bf3 883f d240 743f 839b 723f 735c 723f
000000e0: 81a5 793f b190 7c3f c78b 803f 587a 723f
000000f0: f5fa 853f 34bd 6a3f e07a 8d3f df44 823f

base.cnn.12.bias f4 [64]
0.0038115059 -0.004146652 0.0674301 0.03408388 0.026277972 0.059113313 -0.04908119 0.03472055
-0.018338026 0.06332704 -0.0045447946 -0.005744249 0.034486208 -0.001958371 -0.043558203 0.01898655
-0.0060045584 0.046157036 0.05380695 0.025462575 -0.016996965 0.025149845 -0.027847284 0.007745706
-0.021366421 0.04012608 -0.010640636 -0.016508633 0.009681024 -0.0039024549 0.0030838193 0.009904835
0.00030735479 0.04949251 0.058968276 0.047388613 -0.012121404 -0.005681526 -0.04035787 0.027020676
-0.029499529 -0.022020644 0.007548638 -0.052374188 0.01149195 -0.028471164 0.033661895 0.002076709
0.01738164 0.008585491 -0.038615055 -0.049978882 0.0029772904 0.029393177 -0.025357543 0.05956601
0.038989697 -0.012819838 -0.09328673 0.04283709 -0.072152406 0.06886928 0.019277671 -0.040890135
00000000: 75ca 793b a3e0 87bb cb18 8a3d 8a9b 0b3d
00000010: e744 d73c cd20 723d 5c09 49bd 2337 0e3d
00000020: a139 96bc 9bb1 813d 80ec 94bb 413a bcbb
00000030: 6941 0d3d 0358 00bb 166a 32bd ae89 9b3c
00000040: e3c1 c4bb 290f 3d3d ad64 5c3d e496 d03c
00000050: 383d 8bbc 0c07 ce3c fd1f e4bc b1cf fd3b
00000060: a208 afbc 3f5b 243d 1056 2ebc 1d3d 87bc
00000070: 289d 1e3c 54c0 7fbb e719 4a3b e447 223c
00000080: 7624 a139 a8b8 4a3d b888 713d 901a 423d
00000090: da98 46bc 182c babb 4b4e 25bd 775a dd3c
000000a0: ffa8 f1bc a364 b4bc 915a f73b 5186 56bd
000000b0: bb48 3c3c 5c3c e9bc 0ee1 093d 6519 083b
000000c0: f163 8e3c 29aa 0c3c d22a 1ebd a8b6 4cbd
000000d0: a51e 433b f6c9 f03c 9fba cfbc 7dfb 733d
000000e0: a9b3 1f3d 4c0a 52bc 1d0d bfbd f275 2f3d
000000f0: a4c4 93bd 560b 8d3d 35ec 9d3c 6a7c 27bd
