CRL_human_AI_overcooked/human_models/model_unident_open/actor_best_r1.pt (torch, 590162 bytes, 20 tensors)

base.cnn.0.weight f4 [32, 26, 3, 3]
0	0xbd7a0eb1	-0.061049167
1	0xbe859995	-0.26093736
2	0xbd852d27	-0.06502753
3	0x3e5d4879	0.21609677
4	0x3d7a8897	0.06116542
5	0xbda22c46	-0.07918601
6	0x3e750ead	0.2393138
7	0x3df641a4	0.12024239
8	0xbe334429	-0.1750647
9	0xbdf79d52	-0.12090553
10	0x3d42b79f	0.047538396
11	0x3b675756	0.003529986
12	0x3db828fd	0.08992193
13	0xbdb1bb11	-0.08678258
14	0x3decef4f	0.11569082
15	0x3daf3348	0.08554703
16	0x3d8b97f9	0.06816096
17	0x3d0703d9	0.032962654
18	0xbe7a020d	-0.24414845
19	0xbe2b53dd	-0.1673121
20	0xbeb47f04	-0.35253155
21	0x3dcd4a1a	0.100238994
22	0x3ba57c90	0.0050502494
23	0x3e5b6d41	0.21428396
24	0x3c2d6834	0.010583926
25	0x383cc8ae	4.500959e-05
26	0x3da151f9	0.07876963
27	0x3e61bc06	0.22044381
28	0xbd3005e7	-0.04297438
29	0x3e560647	0.20900832
30	0x3d6e258f	0.058141287
31	0xbdbe7399	-0.09299392
32	0xbc8130f8	-0.01577042
33	0x3e1c7586	0.15279207
34	0xbd5d6e6b	-0.05406038
35	0x3c78c6e7	0.015184141
36	0xbd2d8d75	-0.042371232
37	0x3d279516	0.040913664
38	0x3d1ae2b9	0.037813876
39	0xbdad72d5	-0.08469168
40	0x3e5eb910	0.21750283
41	0xbd1a52ee	-0.037676744
42	0x3e081353	0.13288622
43	0x3e90fe2c	0.28318918
44	0x3da6240e	0.08112346
45	0x3dda0b10	0.10646641
46	0x3c31edce	0.01085992
47	0x3d9e8c37	0.077415876
48	0x3e1006fc	0.14065164
49	0x3dc1afea	0.09457381
50	0xbd258d96	-0.04041823
51	0x3dc2deda	0.09515162
52	0xbdf9b1cd	-0.12192116
53	0xbe0f4dd4	-0.13994533
54	0xbe741e30	-0.2383964
55	0x3dd6f17b	0.104952775
56	0x3d8af923	0.067858
57	0x3dbfb743	0.09361126
58	0x3bc20597	0.0059210765
59	0x3daf9458	0.08573216
60	0x3e0dbc78	0.13841426
61	0x3e4c5ae7	0.19956551
62	0xbdc18d62	-0.09450795
63	0xbdcb90cb	-0.099397264
64	0x3d46a66f	0.048498567
65	0xbcc5c6b7	-0.024142606
66	0x3e005b5b	0.1253485
67	0xbb9635d4	-0.0045840535
68	0xbea758b1	-0.32684854
69	0xbdfb4c8d	-0.1227046
70	0xbd407416	-0.04698571
71	0x3e20428c	0.15650386
72	0xbd093329	-0.033496056
73	0xbea5f564	-0.3241378
74	0x3d9de53d	0.07709739
75	0xbc095af4	-0.008383501
76	0xbe0651d7	-0.13117157
77	0x3e0ab95f	0.13547276
78	0xbe20b593	-0.15694265
79	0xbb9bef36	-0.004758741
80	0x3e78c677	0.24294458
81	0x3decc9ae	0.11561905
82	0x3d201cd7	0.039090004
83	0xbd2780d1	-0.040894333
84	0xbe921545	-0.28531852
85	0xbdb39c79	-0.08770079
86	0xbe85dae4	-0.26143563
87	0x3e26813f	0.16260241
88	0x3db76b42	0.08956005
89	0xbe56e1a1	-0.20984508
90	0x3d9864d8	0.074411094
91	0xbba1e910	-0.0049411133
92	0x3de90af6	0.11379044
93	0x3d890f02	0.06692316
94	0x3c372452	0.011178093
95	0x3dc96116	0.09832971
96	0x3d7c094c	0.061532304
97	0xbe105c2d	-0.14097662
98	0xbd79dcda	-0.061001636
99	0x3c1ae30f	0.009453549
100	0x3e132c8a	0.14372459
101	0xbd69cfab	-0.057082813
102	0xbdf2e347	-0.11859756
103	0xbe17a5f2	-0.14809397
104	0x3e065aa3	0.13120513
105	0x3bc18811	0.005906113
106	0x3deda183	0.116030715
107	0xbbde6ef6	-0.00678813
108	0xbdabc6af	-0.08387505
109	0x3c46f27b	0.012142773
110	0x3e07755f	0.13228367
111	0xbd0af06c	-0.03392069
112	0xbd816a10	-0.06319058
113	0x3cfc4996	0.030796807
114	0xbdd47bba	-0.103751615
115	0x3c5a9423	0.013340983
116	0x3e167f54	0.1469701
117	0xbe1d2145	-0.15344723
118	0xbe0aa5c9	-0.13539805
119	0xbd496779	-0.049170945
120	0x3d04ce4f	0.032423314
121	0xbcaccccb	-0.021093747
122	0xbdc98410	-0.09839642
123	0x3d0779bd	0.033075083
124	0xbe2f7fc6	-0.17138585
125	0x3cb112e6	0.021615457
126	0xbde0c6a1	-0.109753855
127	0x3d5e863f	0.054327246
128	0x3d3be7ea	0.045875467
129	0x3dc0a76b	0.094069324
130	0xbce1b068	-0.027549937
131	0x3dd13523	0.10215213
132	0xbd027407	-0.031848934
133	0x3c1209b9	0.008913451
134	0x3d5367c1	0.05161262
135	0x3d020f21	0.03175271
136	0xbe5fe081	-0.21862985
137	0xbe42f570	-0.1903894
138	0xbd945936	-0.07243578
139	0x3cad6a6a	0.021168906
140	0x3d7b37f5	0.06133266
141	0x3c119d5f	0.008887618
142	0x3c416649	0.011804172
143	0xbdc0f54a	-0.09421785
144	0xbe0bddeb	-0.13658874
145	0x3dae494d	0.08510075
146	0xbde7903d	-0.11306808
147	0x3dac8a50	0.084248185
148	0x3c9aa41e	0.018877085
149	0xbd9f3a88	-0.07774836
150	0xbdc65318	-0.096838176
151	0x3dfed902	0.12443735
152	0xbda4be81	-0.08044148
153	0x3dc2b59b	0.09507295
154	0xba23d67a	-0.0006249916
155	0xbe84a80f	-0.2590947
156	0x3ded398c	0.11583242
157	0x3e0c509e	0.13702628
158	0xbdb24ad5	-0.08705679
159	0x3de19755	0.110151924
160	0x3b87700b	0.0041332296
161	0xbd159c9d	-0.03652631
162	0x3c7e3055	0.015514453
163	0xbcb57b16	-0.022153419
164	0xbdc902ba	-0.09814973
165	0x3df38427	0.118904404
166	0x3e2e921d	0.17047925
167	0xbe79fc34	-0.24412614
168	0xbe0c23c0	-0.13685513
169	0x3d7df899	0.06200466
170	0x3e0f0785	0.13967712
171	0x3e95bbdf	0.29244897
172	0xbc123fe0	-0.008926362
173	0x3d07a82f	0.033119377
174	0x3d4c96cf	0.04994851
175	0xbe627bac	-0.2211749
176	0xbd04fdef	-0.032468732
177	0xbe72356a	-0.23653188
178	0x3d86157e	0.06547068
179	0x3cef6c47	0.029226435
180	0xbdbe21b7	-0.09283774
181	0x3ce0144b	0.027353426
182	0xbd0d956b	-0.034566324
183	0xba769a70	-0.0009407168
184	0xbdb7896d	-0.08961759
185	0x3c32a10a	0.0109026525
186	0x3ce27a42	0.027646188
187	0x3da31820	0.07963586
188	0x3d1e9359	0.03871474
189	0x3ca54ad1	0.020177277
190	0x3c923eed	0.017852271
191	0xbd153061	-0.03642309
192	0x3b5e6209	0.0033932945
193	0x3da8ee0f	0.08248531
194	0xbe37fc2c	-0.1796729
195	0x3df6a3bf	0.12042951
196	0xbcfcd314	-0.030862369
197	0xbd8c9988	-0.06865221
198	0xbe27bbd8	-0.1638025
199	0xbc86ac88	-0.016439691
200	0xbda0e4e2	-0.07856156
201	0xbd8bd62b	-0.06827959
202	0xbe774271	-0.24146439
203	0xbdb2afa6	-0.087249085
204	0x3e12f306	0.14350519
205	0xbd30246f	-0.043003496
206	0x3d69bc0d	0.057064105
207	0x3e883d58	0.26609302
208	0x3bbe1484	0.0058007855
209	0xbe6a4751	-0.22878768
210	0xbe8302af	-0.25587985
211	0xbe0051e1	-0.12531234
212	0xbe54c98e	-0.20780012
213	0x3dbd1c05	0.0923386
214	0x3e9cc028	0.30615354
215	0xbe8d3307	-0.27577993
216	0x3e51adb0	0.20476413
217	0xbe601ebf	-0.21886729
218	0xbe261ab4	-0.16221124
219	0xbe793376	-0.24336037
220	0xbc90f53b	-0.01769506
221	0xbe3af0ba	-0.18255892
222	0xbe559d39	-0.20860757
223	0xbd976460	-0.07392192
224	0xbdfbef0f	-0.12301456
225	0x3cc1efb0	0.023673862
226	0x3da69c41	0.08135272
227	0x3dd37936	0.103258535
228	0x3cf49cd6	0.029859941
229	0x3cf7c3f5	0.030244807
230	0x3d4b46bd	0.04962801
231	0xbcc45b17	-0.023969216
232	0x3d610b17	0.054942217
233	0xb9c5daa7	-0.00037737677
234	0xbe4a01b9	-0.1972722
235	0xbe8f94da	-0.28043252
236	0x3ec61446	0.38687342
237	0xbe1c0e3b	-0.15239803
238	0xbd4f073c	-0.05054401
239	0x3db5fd49	0.08886201
240	0xbde496e0	-0.111615896
241	0x3e5372cc	0.2064926
242	0xbd3706de	-0.044684283
243	0x3b572d47	0.0032833384
244	0x3e239a10	0.15976739
245	0xbde02a61	-0.10945583
246	0x3e019764	0.12655407
247	0x3e31650a	0.173237
248	0x3e1c23da	0.15248051
249	0x3d7f20eb	0.062287252
250	0xbe3c1810	-0.18368554
251	0xbce20075	-0.027588109
252	0xbdb89478	-0.09012693
253	0xbe917639	-0.2841051
254	0x3e2c4fcd	0.16827317
255	0xbd6c1f84	-0.057647243

base.cnn.0.bias f4 [32]
0	0xbdb42dca	-0.08797796
1	0xbc041691	-0.008062021
2	0xbb6fafc3	-0.0036573268
3	0xbde72403	-0.112861656
4	0xbcbb3b78	-0.022855505
5	0xbd62149a	-0.05519543
6	0xbc0ac319	-0.0084693665
7	0xba0a96f2	-0.0005286775
8	0xbd634094	-0.05548151
9	0xbcc53988	-0.024075285
10	0xbd6ddeb3	-0.05807371
11	0xbd9ca8fd	-0.076494195
12	0xbe05fdf2	-0.13085154
13	0xbc592bb4	-0.013255049
14	0xbd295e6e	-0.04134982
15	0x3cbc6b19	0.023000287
16	0xbd26b189	-0.040696654
17	0xbc8c0cab	-0.017095884
18	0xbd71e2d9	-0.05905423
19	0x3d457d13	0.048214983
20	0xbc7995c6	-0.015233463
21	0xbd1460d5	-0.03622516
22	0xbd1af296	-0.037829004
23	0xbd132aab	-0.035929363
24	0xbc8ae16d	-0.016953195
25	0x3c05c361	0.008164258
26	0xbc930e5c	-0.017951183
27	0x3c9e997f	0.019360302
28	0xbde0e1aa	-0.10980542
29	0xbd4fbf3c	-0.050719485
30	0xbcdf958a	-0.027292985
31	0xbd5b4600	-0.053533554

base.cnn.2.weight f4 [64, 32, 3, 3]
0	0xbd4e26fa	-0.05033014
1	0x3badb57d	0.005301176
2	0xbe0aad9b	-0.13542788
3	0xbd20787a	-0.039177395
4	0x3c967225	0.018364975
5	0xbe03c050	-0.1286633
6	0x3e26e2b4	0.16297418
7	0x3e15f124	0.14642769
8	0xbd505b85	-0.05086853
9	0xbe04d77d	-0.12972827
10	0xbe10d973	-0.1414545
11	0x3e782952	0.24234512
12	0x3ddcedda	0.10787554
13	0xbd00c19e	-0.031434648
14	0x3d7f5b12	0.06234271
15	0xbe839b4f	-0.2570443
16	0xbdac99af	-0.0842775
17	0xbcf2e073	-0.029648041
18	0x3dbc07c0	0.09181166
19	0x3cb6e132	0.022324178
20	0x3e2a891c	0.16653866
21	0xbdca91bc	-0.09891078
22	0xbe3b6847	-0.18301497
23	0xbd3a39ad	-0.04546516
24	0x3d587946	0.05285003
25	0xbcc73419	-0.024316834
26	0xbd5e4d61	-0.054273013
27	0x3c42e98a	0.0118965
28	0xbde70e01	-0.11281968
29	0x3cdc7a90	0.026913911
30	0x3d7c38da	0.061577655
31	0xbe0a5456	-0.13508734
32	0xbcf53ebc	-0.02993714
33	0xbaebf95e	-0.0018003394
34	0x3d156a11	0.036478106
35	0xbd78df0b	-0.060759585
36	0xbd94ec62	-0.07271649
37	0x3e82466e	0.2544436
38	0x3e904ec6	0.281851
39	0xbd27789a	-0.0408865
40	0xbdde99f3	-0.10869207
41	0x3c14aa10	0.009073749
42	0xbe859a84	-0.2609445
43	0xbd81ab2f	-0.06331479
44	0xbdf0e959	-0.117632575
45	0xbcf21ffa	-0.029556263
46	0xbc9378cc	-0.018001936
47	0xbb8fef5c	-0.0043925475
48	0xbcf95289	-0.030434864
49	0xbd3597fa	-0.04433439
50	0x3e578dc6	0.21050176
51	0x3e069398	0.1314224
52	0x3cc64c8b	0.02420642
53	0xbe7a3b20	-0.24436617
54	0xbe4695ce	-0.19393083
55	0x3d7c527a	0.061602093
56	0xbdcc9588	-0.09989458
57	0xbdb0772c	-0.0861648
58	0x3df7ef7c	0.12106225
59	0xbdd1daf0	-0.10246837
60	0xbde90159	-0.1137721
61	0xbd093773	-0.033500146
62	0x3c9f60a8	0.019455269
63	0xbd17913f	-0.03700375
64	0x3e28779f	0.16451882
65	0x3d20792b	0.039178055
66	0x3cc72544	0.024309762
67	0x3d8e5f21	0.06951738
68	0xbdabe323	-0.08392932
69	0xbddae143	-0.106874965
70	0x3d40dde9	0.04708663
71	0xbd973e02	-0.07384874
72	0x3d14e56b	0.036351603
73	0xbd417fa3	-0.047240864
74	0x3cde4fcb	0.027137658
75	0xbdbdb2d5	-0.09262625
76	0xbcda96c3	-0.026683217
77	0x3e2ce1c6	0.16883
78	0xbdc93455	-0.09824435
79	0xbd6bcc71	-0.057568017
80	0x3d4f817c	0.050660595
81	0xbc8ca32f	-0.017167656
82	0x3d8e9059	0.06961126
83	0xbde7dcef	-0.113214366
84	0x3d873018	0.0660097
85	0xbd1a50fa	-0.03767488
86	0xbe27a8c7	-0.16372977
87	0xbce41a26	-0.0278445
88	0xbd981a20	-0.07426858
89	0xbd8287e3	-0.063735746
90	0x3d6ca48c	0.05777411
91	0x3e0bb82d	0.13644476
92	0xbd62297c	-0.055215344
93	0xbda4a86a	-0.08039935
94	0x3b95c619	0.004570734
95	0x3ba2c3af	0.004967175
96	0xbe216bc2	-0.15763763
97	0xbd9e5196	-0.07730405
98	0xbdc6694c	-0.096880525
99	0x3d1be09d	0.038056005
100	0x3db97150	0.09054816
101	0x3dc0c0dd	0.09411786
102	0xbdcc60c6	-0.099793956
103	0xbd711725	-0.058859963
104	0x3e28435e	0.16431949
105	0x3dc0cdcc	0.09414253
106	0x3dab24c5	0.083566226
107	0x3d632930	0.0554592
108	0x3c8a459f	0.016878901
109	0xbe3d5010	-0.18487573
110	0xbddc08d5	-0.10743872
111	0x3e6ab9e5	0.22922476
112	0x3d8938a1	0.06700254
113	0x3dba8b22	0.09108569
114	0x3d05d174	0.032670453
115	0xbca0f163	-0.019646352
116	0xbc8f72e7	-0.017510844
117	0xbde139fe	-0.10997389
118	0xbda4b449	-0.08042199
119	0xbda8e09f	-0.08245968
120	0x3c97e076	0.018539649
121	0xbbdf1088	-0.0068073906
122	0xbd7f2708	-0.062293082
123	0x3e0d00a4	0.13769776
124	0xbe167fd5	-0.14697202
125	0x3d83b7bf	0.06431531
126	0x3e24bdea	0.16088071
127	0xba87c24e	-0.001035759
128	0xbcbf6f5e	-0.023368534
129	0x3e45382a	0.19259706
130	0x3dbac1cd	0.09118996
131	0x3d94cf10	0.072660565
132	0xbe4d56d0	-0.20052648
133	0x3b4ea173	0.0031529337
134	0x3e2728da	0.16324177
135	0xbe5f7b32	-0.21824339
136	0xbd8db478	-0.06919187
137	0xbe1a7b17	-0.15086018
138	0x3d58ca8e	0.052927546
139	0x3d863773	0.06553545
140	0x3d29da68	0.041468054
141	0xbe2201f8	-0.15821064
142	0xbdf7265d	-0.12067864
143	0x3dbf508d	0.09341536
144	0xbd3bc86a	-0.045845427
145	0x3c1c85d4	0.0095533915
146	0xbd9b3aa6	-0.07579546
147	0x3d255e19	0.04037294
148	0xbdc7367d	-0.0972719
149	0xbddbe93b	-0.107378446
150	0x3d812953	0.0630671
151	0x3c8f1498	0.017465875
152	0xbdd7977a	-0.10526939
153	0x3e13d57e	0.1443691
154	0x3b44534c	0.0029956875
155	0x3c60ad09	0.01371313
156	0xbc8901c9	-0.016724484
157	0xbe122960	-0.14273596
158	0x3e51bd5a	0.20482388
159	0x3e0cc3eb	0.13746612
160	0x3d98fd67	0.07470208
161	0xbd361e00	-0.044462204
162	0xbdba4964	-0.090960294
163	0xbd43288e	-0.047646098
164	0xbd3eb201	-0.046556477
165	0xbdaac5ab	-0.083384834
166	0xbdbc1ad9	-0.09184808
167	0x3ddbe12b	0.10736307
168	0x3d606c7f	0.05479097
169	0xbb29b7c7	-0.0025896893
170	0x3c6c9d7d	0.014441845
171	0x3e4d01d0	0.20020223
172	0xbd27aa0d	-0.040933657
173	0x3ddde52c	0.10834727
174	0xbdc38b07	-0.09548002
175	0xbc2a6eb4	-0.01040237
176	0x38772423	5.8923044e-05
177	0xbe0a0945	-0.13480099
178	0xbd6ad749	-0.05733422
179	0x3e3202b5	0.17383845
180	0xbe28e40c	-0.16493243
181	0xbdd506b2	-0.10401668
182	0x3dc4e952	0.09614815
183	0xbddb220d	-0.10699854
184	0x3dfdb6df	0.123883955
185	0xbe12db4b	-0.14341466
186	0xbe353c85	-0.17698868
187	0xbc18c66a	-0.009324649
188	0x3dd5dc5d	0.104424216
189	0x3d6ab1be	0.057298414
190	0xbe269c20	-0.16270494
191	0x3e2db952	0.16965225
192	0xbe31025c	-0.17286056
193	0xbe24acb2	-0.16081503
194	0x3d78c32b	0.060733
195	0x3d8e9bf9	0.06963343
196	0xbbb4429e	-0.0055011055
197	0x3da163bd	0.07880352
198	0xbc8c4c16	-0.017126124
199	0x3d8cde78	0.0687837
200	0xbcd1986e	-0.02558538
201	0xbd072784	-0.03299667
202	0xbc27ef39	-0.010249906
203	0xbbb44f00	-0.0055025816
204	0xbd047e5b	-0.032347064
205	0xbe2f3931	-0.1711166
206	0xbcb195ee	-0.021677937
207	0xbe317e10	-0.17333245
208	0xbd09fe1d	-0.033689607
209	0xbe5c1570	-0.21492553
210	0xbdc693d1	-0.096961625
211	0x3d175c29	0.036953125
212	0xbd449766	-0.047995947
213	0xbd62a0cc	-0.05532913
214	0xbe098526	-0.13429698
215	0x3df0b0de	0.11752485
216	0x3e04ad7f	0.12956809
217	0xbe04dd8e	-0.12975141
218	0xbcd3e2f6	-0.02586506
219	0x3d0136f7	0.03154656
220	0x3d0b3e50	0.033994973
221	0xbc469a2d	-0.012121719
222	0x3d901a3d	0.070362546
223	0x3d28d6bd	0.041220415
224	0xbe1e64c1	-0.15468122
225	0x3dfb8cbe	0.12282704
226	0x3d064414	0.032779768
227	0x3dd75f1e	0.10516189
228	0x3a1b8859	0.0005933098
229	0xbdb82b36	-0.08992617
230	0x3e3c8b71	0.18412568
231	0xbdc5c4e6	-0.09656696
232	0xbc4af484	-0.012387399
233	0xbcff39d6	-0.031155508
234	0xbcab6d68	-0.020926192
235	0xbc3f44cf	-0.01167412
236	0x3d5c882f	0.053840812
237	0x3b88e68f	0.0041778754
238	0x3b3bf372	0.002867904
239	0x3e53d159	0.20685329
240	0xbda9bf4e	-0.082884416
241	0xbe4483ba	-0.19190875
242	0xbdf0e7ba	-0.11762948
243	0x3bc1394d	0.0058967234
244	0xbe463494	-0.19355994
245	0xbe0ee86d	-0.13955851
246	0x3e569a16	0.20957217
247	0x3c46546e	0.012105091
248	0xbc1722e7	-0.00922463
249	0xbd515642	-0.051107652
250	0x3b08918e	0.002083871
251	0xbe88c899	-0.26715544
252	0x3d13d90e	0.03609567
253	0xbccb37ca	-0.024806876
254	0x3dfaa6be	0.12238835
255	0xbd3ba2cf	-0.045809563

base.cnn.2.bias f4 [64]
0	0x3c109d74	0.008826602
1	0xbd4b1b2c	-0.04958646
2	0xbd49222f	-0.049104866
3	0xbc18941e	-0.009312658
4	0xbd0f1e16	-0.0349408
5	0xbc9e1170	-0.019295424
6	0xbd387ff2	-0.045043893
7	0xbc2073ca	-0.009793231
8	0xbcb3552e	-0.021891203
9	0xbbdedf61	-0.006801531
10	0xbcd89a23	-0.026440686
11	0x39827fcb	0.00024890745
12	0xbccef424	-0.0252629
13	0x3c38e4f6	0.011285057
14	0xbd620811	-0.055183474
15	0xbd66311f	-0.05619919
16	0xbd88d36e	-0.06680952
17	0xbc0df745	-0.008664911
18	0x3bf67298	0.007520985
19	0xbc9a497b	-0.018833866
20	0xbc1a087c	-0.009401437
21	0x3d0b2a11	0.033975665
22	0xbc436b3b	-0.011927421
23	0xbda0b031	-0.07846106
24	0x3c4be189	0.0124439085
25	0xbd31da5a	-0.043421127
26	0xbd247959	-0.04015479
27	0x3c89fe30	0.016844839
28	0xbd4537a4	-0.048148766
29	0xbc9bce24	-0.019019194
30	0xbdb5d319	-0.08878154
31	0xbd100e96	-0.03517016
32	0xbd29155d	-0.04128014
33	0xbb30beb7	-0.0026969144
34	0x3cfd50c7	0.030922307
35	0xbdb3dd41	-0.08782435
36	0xbd008c79	-0.031383965
37	0xbd49375f	-0.04912507
38	0xbd5ca3a3	-0.053866994
39	0xbb28bf76	-0.0025748885
40	0xbce52ab1	-0.027974458
41	0xbc5465d7	-0.012963734
42	0xbc3b7a04	-0.011442665
43	0xbca6710b	-0.020317575
44	0xbc1b8a26	-0.009493386
45	0xbc75bc93	-0.014998573
46	0x3cb015d6	0.021494787
47	0x3b491dbd	0.0030687891
48	0x3b4008d3	0.0029302135
49	0xbc21231e	-0.009835033
50	0xbad6cc7e	-0.0016387848
51	0xbd1d1de1	-0.038358573
52	0xbcba3a58	-0.022732899
53	0x3cadfc1c	0.02123838
54	0xbcdb6b19	-0.026784467
55	0xbc973bd3	-0.018461144
56	0xbd711975	-0.05886217
57	0x3b05ed93	0.0020435795
58	0xbcdaa612	-0.026690517
59	0xbd2a8d1e	-0.041638486
60	0xbd520874	-0.051277593
61	0xbb9bae13	-0.004750976
62	0xbd326c6e	-0.043560438
63	0xbc3e83c3	-0.011628094

base.cnn.4.weight f4 [32, 64, 3, 3]
0	0xbca8926e	-0.020577636
1	0xbe65d0c2	-0.22442916
2	0x3d42653e	0.047459833
3	0xbda07a48	-0.07835823
4	0x3c57aac1	0.0131632695
5	0xbdf1cadd	-0.11806271
6	0xbdf36c68	-0.11885911
7	0xbd3bd4c5	-0.04585721
8	0x3d3b1266	0.045671843
9	0xbdeadb53	-0.11467614
10	0xbd804ff9	-0.062652536
11	0xbe3d566d	-0.1849
12	0xbd2035b3	-0.03911371
13	0x3d8a6ccc	0.067590326
14	0x3e1e4d43	0.1545916
15	0x3d81461b	0.063122
16	0xbd41ace3	-0.04728402
17	0x3c3c1efa	0.011481995
18	0xbe077091	-0.13226534
19	0x3de1c79c	0.110244006
20	0x3ba33b1f	0.004981413
21	0xbd7f0e3d	-0.062269438
22	0xbd320c20	-0.043468595
23	0x3c2699d9	0.010168516
24	0xbe3c9efa	-0.1842002
25	0x3e0ec771	0.13943268
26	0x3cff673b	0.031177154
27	0x3df0c2ef	0.11755931
28	0xbd27a02c	-0.040924236
29	0xbe25df0e	-0.1619837
30	0x3d12703c	0.035751566
31	0xbdbfb462	-0.09360577
32	0xbd85b048	-0.065277636
33	0xbdf469c7	-0.11934238
34	0xbde15417	-0.11002367
35	0xbdd272d3	-0.10275807
36	0xbd2f9a6e	-0.042871885
37	0xbd9e92f1	-0.077428706
38	0x3c9fa6e7	0.019488765
39	0x3d0e9b3a	0.034816004
40	0xbd8eeedf	-0.06979155
41	0x3c744e13	0.0149111925
42	0x3ccfb5b5	0.0253552
43	0x3c1277f2	0.00893973
44	0xbdbec2d9	-0.09314508
45	0xbdd35c9a	-0.10320397
46	0x3c887322	0.016656462
47	0x3da8907f	0.082306854
48	0xbe23cd58	-0.15996301
49	0xbd9a128e	-0.0752307
50	0x3cc0f112	0.023552451
51	0xbcd87245	-0.026421675
52	0x3b4179ef	0.002952214
53	0xbd57212a	-0.052521862
54	0x3d8f5e56	0.07000415
55	0x3dce3e7d	0.100705124
56	0xbde676da	-0.11253138
57	0xb9bba083	-0.0003578701
58	0xbdcad348	-0.0990358
59	0xbe1df3f8	-0.15425098
60	0xbd240318	-0.040042013
61	0x3d009fd5	0.031402428
62	0xbd86119f	-0.0654633
63	0xbd01bc4e	-0.031673722
64	0xbda812aa	-0.08206685
65	0xbdb7ea6a	-0.08980258
66	0x3d86b441	0.065773495
67	0x3dbfdd85	0.09368423
68	0xbd5fc9c0	-0.054635763
69	0x3b930281	0.0044863825
70	0x3dd37ad3	0.10326161
71	0xbd82d542	-0.06388332
72	0xbc4922dd	-0.012276378
73	0x3dc8c791	0.09803689
74	0xbd1e5337	-0.03865358
75	0xbc0992a4	-0.008396778
76	0xbda528a0	-0.08064389
77	0x3da2f734	0.079573065
78	0xbd86f70b	-0.065900885
79	0xbd49b0a0	-0.04924071
80	0xbd8db835	-0.069199
81	0x3e5127f0	0.20425391
82	0xbd9d2ac3	-0.07674172
83	0x39c5b589	0.00037710022
84	0xbd1f3d9d	-0.03887712
85	0xbaa02c97	-0.001222032
86	0x3d55a075	0.052154977
87	0xbe1d78a4	-0.15378052
88	0xbd68f499	-0.05687389
89	0x3da7c60c	0.08192071
90	0xbda2e6e4	-0.07954195
91	0x3e522066	0.20520172
92	0xbe05c730	-0.13064265
93	0xbe355031	-0.17706372
94	0x3cfb1332	0.030648801
95	0xbda529b0	-0.08064592
96	0xbb29dda7	-0.0025919469
97	0x3ceed011	0.029151948
98	0xbc6e53f9	-0.014546388
99	0xbc17772b	-0.00924472
100	0xbdaf7491	-0.08567155
101	0x3e4e0203	0.20117955
102	0xbdb9d8fd	-0.0907459
103	0xbcc92928	-0.024555758
104	0xbd984d23	-0.07436588
105	0x3da6abb6	0.0813822
106	0xbe0451be	-0.12921807
107	0xbd48a2ef	-0.04898351
108	0x3c4d99de	0.012548892
109	0xbdd8834b	-0.10571917
110	0x3d9167e9	0.070998974
111	0x3d4ee378	0.0505099
112	0xbe2d7f86	-0.16943178
113	0x3d810e8f	0.06301605
114	0xbd886047	-0.066589884
115	0xbd1bdc61	-0.038051967
116	0xbd0b01c2	-0.033937223
117	0xbd5a8935	-0.053353507
118	0x3d876b16	0.06612222
119	0xbe0f77fd	-0.14010616
120	0xbdc57186	-0.096407935
121	0xbdce8702	-0.100843444
122	0xbd9aae56	-0.07552783
123	0x3c92252c	0.01783999
124	0x3ce119a9	0.027478056
125	0x3da3120e	0.07962428
126	0xbcd350d8	-0.025795385
127	0xbc8a6e7e	-0.01689839
128	0x3da5a9a4	0.08088997
129	0xbd2fba1f	-0.04290211
130	0x3dce59a0	0.10075688
131	0xbc9b5cae	-0.018965092
132	0x3cafdbe7	0.021467162
133	0xbd556dd8	-0.05210671
134	0xbcd7d58c	-0.026346944
135	0xbd2b0cbe	-0.0417602
136	0xbaf607bb	-0.0018770614
137	0x3d9dd725	0.07707051
138	0xbd01ab33	-0.03165741
139	0x3e6708ff	0.22562025
140	0xbd2677ef	-0.04064172
141	0xbe05721c	-0.1303181
142	0xbe3baef7	-0.18328463
143	0x3e140961	0.14456703
144	0x3dbb49af	0.091449134
145	0xbc9d1779	-0.019176232
146	0x3cebd034	0.028785802
147	0x3d16781c	0.03673564
148	0xbd838bed	-0.06423173
149	0xbd736aa0	-0.059427857
150	0xbdae90ea	-0.08523734
151	0x3ca88d4f	0.020575194
152	0x3e47d7bc	0.1951589
153	0xbd94b56a	-0.072611645
154	0xbe03419c	-0.12817997
155	0x3cc7bd7c	0.024382345
156	0xbd3b4439	-0.04571936
157	0xbaa78728	-0.0012781369
158	0xbd0a7c4a	-0.033809938
159	0xbdb875ae	-0.090068206
160	0xbc9d1e95	-0.019179622
161	0x3db8c37b	0.0902166
162	0x3c5ce64f	0.013482644
163	0x3da51121	0.08059908
164	0xbe0c0891	-0.13675143
165	0xbbbc558e	-0.0057475036
166	0xbd8bda27	-0.06828719
167	0xbcda73ec	-0.026666604
168	0xbdcfd43a	-0.10147901
169	0xbcf32bc9	-0.029683964
170	0x3c087810	0.008329406
171	0xbd99b82b	-0.075058304
172	0x3cfeecbf	0.031118749
173	0xbddb7e68	-0.107174695
174	0xbd3c91f2	-0.04603762
175	0x3de8145b	0.113320075
176	0xbd194757	-0.03742155
177	0xbe03741f	-0.12837265
178	0xbdc9d3f0	-0.09854877
179	0xbb473a8d	-0.003039989
180	0xbc97e163	-0.01854009
181	0x3de73624	0.112896234
182	0xbdc2b104	-0.09506419
183	0xbdb69a10	-0.08916104
184	0xbd704668	-0.058660895
185	0xbdd2d76d	-0.102949955
186	0x3e15b6b5	0.14620478
187	0xbd3f155a	-0.04665122
188	0x3d413c1a	0.047176458
189	0x3cf0707f	0.029350517
190	0x3ddec536	0.10877459
191	0xbe3e1ada	-0.1856493
192	0xbdd516a7	-0.10404711
193	0xbd5a2898	-0.05326137
194	0xbe0a5f05	-0.1351281
195	0xbb4b48fb	-0.0031018842
196	0x3ccd58a5	0.025066683
197	0xbd80f84c	-0.06297359
198	0x3d89c1e2	0.06726433
199	0xbde6302f	-0.11239659
200	0x3dcdebf7	0.10054772
201	0xbdea18bf	-0.11430501
202	0xbe38675d	-0.1800818
203	0xbc5d74ae	-0.013516588
204	0xbd1cbb95	-0.03826483
205	0xbd695bfb	-0.056972485
206	0xbc142774	-0.0090426095
207	0xbb878b65	-0.00413649
208	0xbde568cc	-0.11201629
209	0xbe01436d	-0.12623377
210	0xbd730256	-0.0593284
211	0x3d964f9f	0.07339405
212	0x3ce83c31	0.028349014
213	0xbe4b3ca4	-0.19847351
214	0xbc1963c6	-0.009362167
215	0x3d1c82e4	0.038210765
216	0x3bdca801	0.006733895
217	0xbdbbf254	-0.0917708
218	0xbc4ce6b8	-0.0125061795
219	0x3df0dc80	0.11760807
220	0x3d458f30	0.048232257
221	0xbd52a857	-0.051430073
222	0x3d8cb812	0.06871046
223	0x3de3bae9	0.11119635
224	0xbd81083d	-0.063003995
225	0xbd0f616a	-0.03500501
226	0xbe32248a	-0.17396751
227	0xbdfc1661	-0.12308956
228	0xbcdd6942	-0.02702773
229	0x3d221976	0.039575063
230	0xbd829f01	-0.06377984
231	0xbddd5d51	-0.10808814
232	0xbd059457	-0.03261217
233	0xbca920c7	-0.020645512
234	0x3c32449b	0.010880615
235	0xbe00ccf2	-0.1257818
236	0xbdc7dae3	-0.09758546
237	0x3d258a78	0.040415257
238	0x3e0409b8	0.12894332
239	0x3dac2b53	0.08406701
240	0xbdac0346	-0.08399062
241	0x3d555268	0.05208054
242	0x3c1ada3a	0.009451443
243	0xbd80797c	-0.06273171
244	0xbd19d5c5	-0.037557382
245	0x3d04c748	0.032416612
246	0xbd4fe490	-0.050755084
247	0x3d7c0b33	0.061534118
248	0xbde68860	-0.1125648
249	0xbde9e4e4	-0.114206105
250	0x3e02bd0c	0.12767428
251	0x3bf6ffb1	0.007537805
252	0x3d7254e6	0.059162997
253	0xb9a0db31	-0.00030680888
254	0xbcbb9b0e	-0.022901084
255	0xbd1f35da	-0.038869716

base.cnn.4.bias f4 [32]
0	0xbd52e2e6	-0.05148592
1	0xbd27d8ef	-0.04097837
2	0xbd2e6ea3	-0.04258598
3	0xbd60f90e	-0.054925017
4	0x3bb2056c	0.0054327752
5	0xbc6018b0	-0.013677761
6	0xbd976baf	-0.07393586
7	0x3a126881	0.00055850303
8	0xbd24ba4f	-0.04021674
9	0xbd283ebc	-0.041075453
10	0xbd93b32c	-0.07211909
11	0xbd0488b0	-0.032356918
12	0xbd8644b7	-0.06556075
13	0xbd4fffde	-0.050781123
14	0xbd240ac3	-0.040049326
15	0xbd86efcd	-0.06588707
16	0xbc96d2e2	-0.018411104
17	0xbd81e3c1	-0.06342269
18	0xbbc610b5	-0.006044472
19	0xbd2d54f3	-0.042317342
20	0xbc404c97	-0.01173701
21	0xbd981c52	-0.07427277
22	0xbc7151aa	-0.014728943
23	0xbd195baf	-0.037440952
24	0x3d28101e	0.041030996
25	0xbd585942	-0.052819498
26	0xbc30fbaa	-0.010802189
27	0xbd5ce4e6	-0.053929232
28	0xbd30fc4a	-0.04320935
29	0xbd271443	-0.040790807
30	0xbd80f942	-0.06297542
31	0xbcbd29aa	-0.023091156

base.cnn.7.weight f4 [64, 1440]
0	0xbd19c237	-0.037538733
1	0xbda1a211	-0.0789224
2	0xbe442911	-0.1915629
3	0xbc8a232a	-0.01686247
4	0xbd8bf7e2	-0.06834389
5	0x3d324f42	0.043532617
6	0xbcdffbd8	-0.027341768
7	0x3de49aee	0.11162363
8	0xbca7b7c7	-0.020473374
9	0x3b955886	0.004557672
10	0x3d048609	0.03235439
11	0xbdb6eca6	-0.08931856
12	0x3cce778d	0.02520349
13	0x3dbaede0	0.09127402
14	0x3d6ec510	0.058293402
15	0xbc5377ef	-0.012907012
16	0x3d9754f2	0.07389249
17	0xbd1ef12f	-0.03880423
18	0xbcdead97	-0.027182383
19	0x3c57fcaa	0.013182798
20	0x3d10482e	0.035225086
21	0x3d323ca3	0.04351486
22	0xbd39f1db	-0.045396667
23	0xbd4d2224	-0.050081387
24	0xbd800ae0	-0.06252074
25	0x3cf0da81	0.029401066
26	0x3dfda3cf	0.1238476
27	0x3ad51594	0.0016257041
28	0x3db0d0fe	0.08633612
29	0x3e08c1e4	0.13355213
30	0x3e1aafd1	0.15106131
31	0xbd6438d3	-0.055718254
32	0xbd45d142	-0.048295267
33	0x3dd053d2	0.101722375
34	0xbc32aea7	-0.010905898
35	0x3ccadbac	0.02476295
36	0xbe50a83e	-0.2037668
37	0x3c514efc	0.012775179
38	0xbd5d2257	-0.053987827
39	0x3bdcaa1c	0.006734146
40	0x3d4c01d1	0.04980642
41	0x3e28cfdf	0.16485547
42	0xbd975f91	-0.07391275
43	0x3e3858b2	0.18002585
44	0xbe459f1b	-0.19298975
45	0xbccf2b74	-0.025289275
46	0xbd69f899	-0.057121847
47	0xbd8baeff	-0.06820487
48	0x3dd49f2f	0.10381924
49	0x3e4b4561	0.19850685
50	0xbd86500a	-0.06558235
51	0xbdc6ec57	-0.09713047
52	0xbcc864e8	-0.024462178
53	0x3d0b35e3	0.033986937
54	0xbd9d0bef	-0.07668292
55	0x3d4b9d86	0.049710773
56	0xbc286360	-0.010277599
57	0xbd9f8105	-0.077882804
58	0xbd81c55a	-0.0633647
59	0xbd82c37b	-0.06384941
60	0x3e0b0d2e	0.13579246
61	0xbe0a2596	-0.134909
62	0xbd803886	-0.06260781
63	0xbdd1d40c	-0.10245523
64	0x3e3b2e5c	0.18279403
65	0xbd618b5f	-0.055064555
66	0x3e0c7df9	0.1371993
67	0xbdc17695	-0.09446446
68	0xbd44f75e	-0.04808747
69	0x3ca2cdce	0.019873526
70	0xbe1eef8a	-0.15521064
71	0xbe4556b7	-0.1927136
72	0x3ccb1257	0.024789019
73	0xbe1898f4	-0.14902097
74	0xbc8b29ff	-0.016987799
75	0x3c3f5dcd	0.011680079
76	0xbd4cc927	-0.04999652
77	0x3c5fe8f4	0.01366638
78	0x3d0ea577	0.03482577
79	0x3d17fdda	0.037107326
80	0x3daf20e6	0.08551197
81	0x3cc72248	0.024308339
82	0xbd31315c	-0.043259963
83	0xbc7e952f	-0.015538498
84	0x3cf87a7c	0.030331843
85	0xbc0de88c	-0.0086614005
86	0x3e0aae2d	0.13543005
87	0xbd3ed722	-0.046591885
88	0x3d0259b1	0.031823818
89	0xbe382b5f	-0.17985295
90	0xbe69bda3	-0.22826247
91	0x3d31f7b9	0.043449137
92	0xbd3c7f23	-0.046019685
93	0x3be9fbfb	0.007140634
94	0x3ba981be	0.005172937
95	0xbd6a2bd8	-0.05717072
96	0x3e04fd7f	0.12987326
97	0x3d4ed6dc	0.050497875
98	0x3d8e7cb9	0.06957383
99	0xbd44e91f	-0.048073884
100	0xbdaf1332	-0.08548583
101	0x3e31010f	0.1728556
102	0xbd6f13d2	-0.05836851
103	0xbe1216cc	-0.14266509
104	0x3cc22abd	0.02370202
105	0x3e00e67e	0.12587926
106	0x3dcf9427	0.1013568
107	0xbcbbbf84	-0.02291847
108	0x3d971345	0.07376722
109	0x3cd3bdbb	0.025847306
110	0x3e115229	0.14191498
111	0x3e0ffccb	0.14061277
112	0xbcd493de	-0.025949415
113	0x3c0237ba	0.007947857
114	0xbdd7e02f	-0.105408065
115	0xbbadaefc	-0.005300401
116	0x3ca16513	0.019701516
117	0xbd979cd4	-0.074029595
118	0x3e2f0d13	0.17094831
119	0xbc3181ec	-0.010834198
120	0x3dab2e5e	0.08358453
121	0xbd030fda	-0.03199754
122	0xbcf5fd86	-0.030028116
123	0x3d986360	0.07440829
124	0x3dfe7b26	0.124258325
125	0xbd1dae45	-0.038496275
126	0x3da1c108	0.07898146
127	0x3e2929b1	0.1651981
128	0xbe0cf652	-0.13765839
129	0x3d1901ed	0.037355352
130	0x3bd4d2af	0.006494842
131	0xbe22f25b	-0.15912764
132	0x3a565c38	0.0008177194
133	0x3c8cf38e	0.01720598
134	0xbd1f2e9b	-0.038862806
135	0xbd8e1cc9	-0.06939084
136	0x3d8c45f2	0.068492785
137	0xbdb4341b	-0.08799001
138	0xbe313554	-0.173055
139	0xbdd562cd	-0.104192354
140	0x3d7c851c	0.06165038
141	0x3d611deb	0.054960173
142	0x3c0f04a0	0.00872913
143	0xbdcd53fd	-0.10025785
144	0xbe03a84c	-0.12857169
145	0xbd8be31b	-0.06830426
146	0x3d8bd232	0.06827201
147	0xbb04af52	-0.00202461
148	0xbdb8f5d5	-0.09031264
149	0x3dd359fa	0.10319896
150	0xbcf7b0e9	-0.030235725
151	0xbd7d618d	-0.06186061
152	0x39e53b6d	0.0004372256
153	0xbdc40324	-0.095709115
154	0x3dab7c43	0.083733104
155	0x3c8a2431	0.01686296
156	0x3e03b3ae	0.12861511
157	0xbda9314b	-0.08261355
158	0x3dead464	0.114662915
159	0xbd9868cd	-0.07441864
160	0xbd861bce	-0.06548272
161	0xbc785b3e	-0.015158473
162	0x3d6eac76	0.05826994
163	0x3c2a2f4d	0.010387254
164	0x3e4a61db	0.19763891
165	0x3d08ff3c	0.033446535
166	0x3da82ccb	0.082116686
167	0x3d238553	0.03992207
168	0x3da27e1f	0.07934212
169	0x3b0490bf	0.0020227877
170	0xbe0e4986	-0.13895234
171	0x3cd1dd18	0.025618121
172	0x3d78080d	0.060554553
173	0x3e0ba3ce	0.13636705
174	0xbd0ebe3a	-0.034849383
175	0x3bad3d63	0.005286859
176	0x3db0ba81	0.08629323
177	0xbada9999	-0.0016677856
178	0x3bfa4c09	0.0076384586
179	0xbdaa9103	-0.0832844
180	0xbda08061	-0.07836986
181	0xbdf4bc9e	-0.119500384
182	0xbd8d3727	-0.06895285
183	0xbdbc42dc	-0.0919244
184	0xbd2b7f63	-0.041869532
185	0xbe0d77e6	-0.13815269
186	0xbe28d21a	-0.16486397
187	0x3c2bdb03	0.010489228
188	0x3cb37e22	0.02191073
189	0x3de45c29	0.11150391
190	0x3e06aacd	0.13151093
191	0x3d9db753	0.07700982
192	0xbcb83569	-0.022486405
193	0x3e0fc33b	0.14039318
194	0x3c054f49	0.008136579
195	0xbdbcb141	-0.09213496
196	0x3df851a9	0.121249504
197	0x3dd56240	0.1041913
198	0x3b0afb8e	0.0021207067
199	0x3db182e5	0.08667544
200	0xbe3bec1a	-0.18351784
201	0x3d426ae8	0.047465235
202	0xbcb5043d	-0.022096748
203	0x3cce9993	0.025219714
204	0x3c8f3631	0.017481895
205	0xbdd1d47f	-0.102456085
206	0xbd03b036	-0.03215047
207	0x3d0599c2	0.032617338
208	0xbb58271b	-0.0032982293
209	0xbb0224a3	-0.0019858263
210	0x3d9b18f3	0.07573118
211	0xbd8d252f	-0.06891858
212	0xbda3ec4a	-0.08004053
213	0x3c3d8d46	0.011569327
214	0x3e08cfaf	0.13360475
215	0x3d35fb8a	0.04442934
216	0x3c059c40	0.008154929
217	0xbd3e98d3	-0.046532463
218	0xbd03c5a5	-0.03217091
219	0x3d83f0a0	0.0644238
220	0x3c2dc168	0.010605194
221	0x3c8a7454	0.016901173
222	0xbc816446	-0.015794884
223	0xbd4014b6	-0.04689475
224	0x3e130628	0.14357817
225	0x3d726285	0.059175987
226	0xbd922b92	-0.07137217
227	0xbca119ab	-0.01966556
228	0xbc33d846	-0.010976857
229	0xbe5f1ba1	-0.21787883
230	0x3e14a25b	0.14515059
231	0x3d4b8dcf	0.049695786
232	0x390c1c59	0.00013362001
233	0x3ce12d01	0.02748728
234	0x3cbcdd8c	0.02305486
235	0x3cfc6249	0.030808585
236	0xbd384db0	-0.044995964
237	0xbcea9042	-0.02863324
238	0x3e2173b8	0.157668
239	0x3e27ace8	0.16374552
240	0x3dc3022e	0.095219
241	0xbc07b166	-0.008282041
242	0xbc3e5ec4	-0.011619274
243	0x3c57bf09	0.013168105
244	0x3c253552	0.010083513
245	0xbd20342a	-0.039112248
246	0xbd106490	-0.035252154
247	0xbdea2202	-0.11432268
248	0x3de689f0	0.11256778
249	0x3d822a69	0.06355745
250	0xbd9e0482	-0.077157035
251	0xbc6c86b5	-0.0144364135
252	0x3dea991a	0.11454983
253	0xbe169140	-0.14703846
254	0xbdb1f53c	-0.08689353
255	0xbd8b47e4	-0.068008214

base.cnn.7.bias f4 [64]
0	0xbcb6f822	-0.022335116
1	0xbc7e7d0e	-0.015532745
2	0xbd8d2171	-0.06891144
3	0xbccfc3ea	-0.025361974
4	0xbd27ad68	-0.040936857
5	0xbd45e04d	-0.048309613
6	0xbd10aadb	-0.03531919
7	0x3bd04f2a	0.0063570933
8	0xbd26a47f	-0.04068422
9	0xbce82e15	-0.028342286
10	0xbd408126	-0.046998166
11	0xbd0401be	-0.032228224
12	0xbd29caed	-0.04145329
13	0xbd2ef551	-0.04271442
14	0xbd10f4f1	-0.035389844
15	0xbc807ba7	-0.015683962
16	0xbcd7c2eb	-0.026338061
17	0xbd9393cc	-0.072059244
18	0xbd8bae34	-0.06820336
19	0xbcacc569	-0.021090226
20	0xbcdfb7a0	-0.027309239
21	0xbd7299c5	-0.059228677
22	0xbd8fa0d9	-0.07013101
23	0x3c5e7435	0.013577511
24	0xbd42a917	-0.047524538
25	0x3b2b7d4a	0.0026167207
26	0xbd32af93	-0.043624472
27	0xbce2aeb3	-0.027671194
28	0x3c8bbaee	0.017056908
29	0xbd0a53e4	-0.03377141
30	0xbbece8fd	-0.007229923
31	0xbd44fa20	-0.0480901
32	0xbc07f10d	-0.008297217
33	0xbd024104	-0.031800285
34	0xbce24ae0	-0.027623594
35	0x3a4e1429	0.00078612805
36	0xbc074fa4	-0.008258734
37	0xb9b82952	-0.00035126
38	0xbd4b1e0e	-0.04958921
39	0xbd02f909	-0.03197578
40	0xbc5f00f9	-0.013611072
41	0xbcc01eb6	-0.023452144
42	0xbd0ee64e	-0.034887604
43	0xbd32377d	-0.04350995
44	0xbbe9b194	-0.0071317647
45	0xbd28d234	-0.04121609
46	0xbcdeb58e	-0.027186181
47	0x3c79a18d	0.015236271
48	0xbdacf2e1	-0.08444763
49	0xbd02effa	-0.03196714
50	0xbd341a78	-0.043970555
51	0xbd155f9c	-0.036468133
52	0x3c337102	0.010952236
53	0xbcd4b00e	-0.025962856
54	0xbc5c84a2	-0.0134593565
55	0x3b95cb4f	0.0045713554
56	0xbd83b9d6	-0.0643193
57	0xbd50cefc	-0.050978646
58	0xbc76e199	-0.015068435
59	0xbc11bf58	-0.008895718
60	0xbc7406fb	-0.014894242
61	0xbcc51c2e	-0.024061289
62	0xbc840906	-0.016117584
63	0xbd3489bd	-0.04407667

base.cnn.9.weight f4 [64]
0	0x3f8407d7	1.0314893
1	0x3f8412b8	1.0318213
2	0x3f7888c2	0.97083676
3	0x3f8efe8c	1.1171432
4	0x3f6e94c6	0.9319576
5	0x3f8869aa	1.0657246
6	0x3f851b0b	1.0398878
7	0x3f877beb	1.0584692
8	0x3f79a830	0.9752226
9	0x3f758145	0.95900375
10	0x3f692131	0.9106627
11	0x3f809a4f	1.0047091
12	0x3f640c14	0.8908093
13	0x3f809c82	1.0047762
14	0x3f80b618	1.0055571
15	0x3f78874f	0.97081465
16	0x3f90e415	1.1319605
17	0x3f824939	1.0178596
18	0x3f68d01d	0.90942556
19	0x3f61b85b	0.8817193
20	0x3f871dee	1.0556009
21	0x3f9021cd	1.1260315
22	0x3f73c8ac	0.95228076
23	0x3f873c0a	1.0565197
24	0x3f81da61	1.0144769
25	0x3f8dae79	1.106887
26	0x3f7daec6	0.9909481
27	0x3f859885	1.043717
28	0x3f7c286e	0.9849919
29	0x3f853550	1.0406895
30	0x3f6bcf45	0.92113143
31	0x3f773536	0.9656557
32	0x3f8c8c19	1.0980254
33	0x3f8ce481	1.1007234
34	0x3f85029e	1.0391424
35	0x3f852091	1.0400563
36	0x3f7e6eeb	0.99388
37	0x3f71ff25	0.94529945
38	0x3f78eb00	0.9723358
39	0x3f6e7407	0.93145794
40	0x3f82b888	1.0212564
41	0x3f6e4cdb	0.9308602
42	0x3f841652	1.0319312
43	0x3f847ef1	1.035124
44	0x3f847f05	1.0351263
45	0x3f751e58	0.95749426
46	0x3f81ad17	1.0130948
47	0x3f7b6b9e	0.98211086
48	0x3f885540	1.0651016
49	0x3f7a16ea	0.97691214
50	0x3f83bee1	1.0292627
51	0x3f716ea8	0.94309473
52	0x3f7c126e	0.9846562
53	0x3f7caa8d	0.9869774
54	0x3f877113	1.0581383
55	0x3f78a3c1	0.9712487
56	0x3f885224	1.0650067
57	0x3f76b189	0.9636465
58	0x3f89207d	1.071304
59	0x3f7c3480	0.9851761
60	0x3f7709fc	0.9649961
61	0x3f90ea20	1.1321449
62	0x3f819591	1.0123769
63	0x3f870063	1.0546993

base.cnn.9.bias f4 [64]
0	0x3d09243d	0.033481825
1	0x3d63536d	0.055499483
2	0x3d9e6ef0	0.077360034
3	0xbcde50ab	-0.027138075
4	0xbb44c6ff	-0.0030025837
5	0x3d1a69ac	0.037698433
6	0x3daf1c6e	0.085503444
7	0x3d175ca6	0.03695359
8	0x3ce3bca0	0.027799904
9	0x3c762787	0.0150240725
10	0x3d91d55b	0.071207725
11	0x3c948789	0.018131034
12	0x3e284373	0.1643198
13	0xbd0adad6	-0.033900104
14	0xbcc2b86a	-0.023769576
15	0xbd4879f7	-0.04894444
16	0xbdb3be8e	-0.0877658
17	0xbbc8be86	-0.006126228
18	0x3dabbcdb	0.08385631
19	0x3e01c675	0.12673362
20	0x3c52b781	0.012861134
21	0x3b983bde	0.0046458086
22	0x3db17a5e	0.08665918
23	0x3d576143	0.05258299
24	0xbe064f98	-0.131163
25	0x3a24929c	0.000627795
26	0xbcb79b70	-0.022412986
27	0x3c82b477	0.015955193
28	0x3c94a7d7	0.018146439
29	0xbe16639c	-0.14686435
30	0xbc720f4e	-0.014774157
31	0x3d0a7121	0.033799294
32	0xbd07fbec	-0.033199236
33	0xbdad65a6	-0.084666535
34	0xbd9589bc	-0.07301661
35	0xbcf8c358	-0.030366585
36	0x3d290467	0.041263964
37	0x3d1236b2	0.035696693
38	0x3c86ef66	0.016471576
39	0x3d86f3c0	0.065894604
40	0xbd47f392	-0.04881627
41	0x3cd3a72e	0.025836553
42	0xbc9f87a6	-0.019473862
43	0xba985450	-0.0011621807
44	0x3cdffaef	0.027341334
45	0x3c75be7a	0.014999026
46	0xba3ffd92	-0.00073238567
47	0xbc0553fd	-0.0081377
48	0xbd11a709	-0.035559688
49	0xbcf6133d	-0.03003847
50	0xbd06e29c	-0.032930955
51	0xbd36a106	-0.044587158
52	0x3d23fcf6	0.040036164
53	0x3c41a0a7	0.011818088
54	0x3ca42bd3	0.020040428
55	0x3d09f9b4	0.0336854
56	0x3d3a272c	0.045447513
57	0x3c811b55	0.015760103
58	0xbca319af	-0.019909708
59	0x3c647388	0.01394356
60	0x3d9aa331	0.075506575
61	0xbd3a5d45	-0.045499105
62	0x3ca7faad	0.020505274
63	0xbce414a9	-0.027841883

base.cnn.10.weight f4 [64, 64]
0	0x3cf8f6c0	0.030391097
1	0x3ecad37d	0.39614478
2	0x3dd663eb	0.104682766
3	0x3c92a2f0	0.01789996
4	0xbdef49ff	-0.116840355
5	0x3e7d3585	0.24727447
6	0xbe489633	-0.19588546
7	0xbd51ebb2	-0.051250167
8	0x3e9ffb10	0.31246233
9	0x3e0afb2f	0.13572381
10	0x3c96773f	0.018367408
11	0x3e87d6bb	0.26531014
12	0x3e89a5d2	0.26884323
13	0xbe045213	-0.12921934
14	0xbe95923d	-0.29213133
15	0x3e35731f	0.17719696
16	0xbda56b14	-0.08077064
17	0x3ea5194e	0.32245868
18	0x3d1b5628	0.037923962
19	0xbc2325bb	-0.009957726
20	0xbe645912	-0.22299603
21	0x3ea19a22	0.31562907
22	0xbe1fc0cf	-0.15600894
23	0x3e9c2912	0.30500084
24	0xbcb15cbe	-0.021650668
25	0x3de52e36	0.11190455
26	0x3e76507b	0.24054138
27	0x3e9b89ee	0.3037867
28	0x3e2fd5f5	0.17171462
29	0xbe558000	-0.2084961
30	0x3e536d99	0.20647277
31	0xbdc27788	-0.09495455
32	0xbe041079	-0.12896909
33	0x3ec12b73	0.37728462
34	0xbe0d98aa	-0.13827768
35	0x3e3c11a0	0.18366098
36	0xbd9f0b11	-0.077657826
37	0x3e3a4a29	0.18192352
38	0x3e2f2e51	0.17107512
39	0xbe97ae00	-0.2962494
40	0xbea40a08	-0.32038903
41	0xbe1c2138	-0.15247047
42	0xbda46a74	-0.08028117
43	0xbe65fa1d	-0.22458692
44	0x3dfc8b40	0.12331247
45	0xbe5e9357	-0.21735893
46	0x3e716c66	0.23576507
47	0x3e1dc2b1	0.154063
48	0xbe521072	-0.20514086
49	0xbc1f4605	-0.009721284
50	0x3e8cc080	0.27490616
51	0xbd264c92	-0.040600367
52	0xbe0ed73d	-0.13949294
53	0xbe553500	-0.20820999
54	0x3e840220	0.2578287
55	0xbe9a9ace	-0.30196232
56	0x3e5ae183	0.21375088
57	0x3db63b8b	0.08898076
58	0xbe944071	-0.28955415
59	0x3ea66bd3	0.32504138
60	0xbeb46bf3	-0.3523861
61	0xbe3860f3	-0.18005733
62	0xbe07f359	-0.13276424
63	0x3e27a50a	0.16371551
64	0xbe76b2f3	-0.24091701
65	0xbe9991a4	-0.29993927
66	0xbe831dbf	-0.25608632
67	0x3d56ad13	0.05241115
68	0xbdc02247	-0.09381538
69	0x3cfb9cd8	0.030714437
70	0x3e7f9d44	0.24962336
71	0xbe0fd31b	-0.14045374
72	0xbe14232f	-0.14466546
73	0xbe230eba	-0.15923586
74	0x3db50720	0.088392496
75	0x3e89e20c	0.26930273
76	0xbe3e4e10	-0.18584466
77	0x3e71e018	0.23620641
78	0xbe96dbaf	-0.2946448
79	0xbe568b96	-0.20951685
80	0xbdc2cb99	-0.095114894
81	0xbe0e237d	-0.13880725
82	0x3da55f21	0.08074785
83	0x3e5c1758	0.2149328
84	0xbaa4ad53	-0.0012563862
85	0x3e36ae0d	0.17839833
86	0x3db246c5	0.087049045
87	0x3e3ccba1	0.18437053
88	0x3e5cf197	0.21576534
89	0xbe988bea	-0.29794246
90	0x3d0f09e7	0.034921553
91	0xbe302c71	-0.17204453
92	0x3ec3e2e0	0.3825903
93	0x3e84ce32	0.25938565
94	0x3c07601c	0.00826266
95	0x3d43ca08	0.047800094
96	0xbdc989a9	-0.0984071
97	0x3d2cdbc0	0.042201757
98	0x3e55323f	0.20819949
99	0xbd9147a1	-0.0709374
100	0x3c94c81d	0.018161828
101	0x3d0727e6	0.032997034
102	0xbe0dfb43	-0.1386538
103	0xbe6afb2d	-0.22947378
104	0xbe6a7a49	-0.2289821
105	0x3e411824	0.18856865
106	0xbde9279e	-0.113845095
107	0x3e6c6ba1	0.23087932
108	0x3efc3a6b	0.4926332
109	0x3eb2d731	0.34929803
110	0x3dabf4c4	0.08396295
111	0xbe31d3f2	-0.17366007
112	0x3e7dceff	0.24785994
113	0x3ea9e7dc	0.33184707
114	0x3d771ac0	0.060328245
115	0x3d6821dd	0.05667292
116	0xbdef62e3	-0.11688783
117	0xbd320582	-0.043462284
118	0x3d8b96c2	0.06815864
119	0x3c590307	0.013245351
120	0x3e0d8bd4	0.13822871
121	0x3e054acc	0.13016814
122	0x3eba38d6	0.36371487
123	0x3e685974	0.22690374
124	0xbe81732f	-0.2528319
125	0x3ed414a8	0.4142201
126	0x3dcfc3c6	0.10144763
127	0x3e1fd34e	0.1560795
128	0x3e43064b	0.1904537
129	0x3e4b2a18	0.19840276
130	0x3d05d808	0.032676727
131	0xbe82b5b8	-0.25529265
132	0xbd1b3a73	-0.03789754
133	0x3e2297f3	0.15878277
134	0xbead94dc	-0.33902633
135	0xbe9923a5	-0.29910007
136	0x3eb9a743	0.36260423
137	0xbdf94d5c	-0.12172958
138	0xbbb196af	-0.005419574
139	0xbd9d52e4	-0.07681826
140	0xbd90f009	-0.07077033
141	0xbe7db215	-0.24774964
142	0x3d8cad82	0.068690315
143	0xbf048498	-0.5176482
144	0x3e6eb498	0.23311079
145	0xbdf94817	-0.12171953
146	0x3e1d8525	0.15382822
147	0xbcb6eb1a	-0.022328902
148	0xbe85c701	-0.2612839
149	0x3e4ae464	0.19813687
150	0x3eb911be	0.3614635
151	0x3d603de6	0.05474653
152	0x3cff5a72	0.031171057
153	0xbe534783	-0.20632748
154	0xbcd8a8d6	-0.026447695
155	0x3e72c6ec	0.23708695
156	0xbe093bf1	-0.13401772
157	0x3e37b448	0.17939866
158	0xbe48a7e5	-0.19595297
159	0x3d6fdaf6	0.058558427
160	0x3e8fc064	0.2807647
161	0xbe33ecbc	-0.17570776
162	0x3d94d5b1	0.07267321
163	0xbdc5c5ae	-0.09656845
164	0xbdad8e0b	-0.08474358
165	0xbdc3d2ab	-0.09561666
166	0x3ee22350	0.44167566
167	0x3e1ff258	0.1561979
168	0xbe101206	-0.14069375
169	0x3e2a6a14	0.16642028
170	0x3d90f46c	0.0707787
171	0xbdfc8a4c	-0.123310655
172	0xbe0f3d86	-0.13988313
173	0x3d1738e1	0.03691948
174	0xbccb7195	-0.024834434
175	0x3f0912cf	0.53544325
176	0x3e88f59c	0.26749885
177	0x3ded6c66	0.11592941
178	0x3ec15858	0.37762713
179	0xbdacc79f	-0.08436512
180	0xbea513ca	-0.3224166
181	0xbd6aac26	-0.05729308
182	0xbe343694	-0.17598945
183	0x3d768a05	0.06019022
184	0x3da03386	0.07822327
185	0x3e79e86f	0.24405073
186	0x3e4aebd0	0.19816518
187	0x3d2aae03	0.041669857
188	0xbe16be37	-0.14720999
189	0x3df0973a	0.11747594
190	0xbe2edbf3	-0.17076091
191	0x3e11906f	0.14215253
192	0xbf194281	-0.598671
193	0x3d9299df	0.07158255
194	0x3c4201a6	0.011841213
195	0x3d001b87	0.031276252
196	0xbe100b61	-0.1406684
197	0xbe89d19e	-0.26917738
198	0xbed6da7d	-0.41963568
199	0xbe4045b1	-0.18776585
200	0xbe7c1668	-0.24617922
201	0x3e02afbc	0.1276235
202	0x3d1679d5	0.03673728
203	0x3ea57a56	0.32319897
204	0x3e5b71e0	0.21430159
205	0xbe0483ef	-0.12940954
206	0xbe91d9dd	-0.2848653
207	0x3a6fbb32	0.0009145021
208	0x3d877e3c	0.06615874
209	0xbdc00a16	-0.09376924
210	0xbdfecf3c	-0.124418706
211	0xbe2609c8	-0.16214669
212	0x3ead9b36	0.3390748
213	0x3e351c0a	0.17686477
214	0xbe164e29	-0.14678253
215	0x3df2a2e0	0.11847472
216	0x3c1c5b91	0.0095433155
217	0x3e14befa	0.14525977
218	0xbe68990b	-0.22714631
219	0xbe7799aa	-0.24179712
220	0xbd142565	-0.036168475
221	0xbeb2ec54	-0.3494593
222	0x3c955ecf	0.018233685
223	0xbe38349b	-0.17988817
224	0xbd359675	-0.04433294
225	0xbe097aee	-0.134258
226	0x3d2243d9	0.039615486
227	0x3d8e869b	0.06959268
228	0xbe83855f	-0.25687692
229	0x3ce6a91f	0.028156815
230	0x3e0338f3	0.12814693
231	0x3f02170f	0.50816435
232	0x3e1cff97	0.15331875
233	0xbe58c796	-0.21169886
234	0xbe5953dc	-0.21223396
235	0xbe82be73	-0.25535926
236	0x3d584959	0.052804325
237	0xbe50f912	-0.20407513
238	0xbeb1512c	-0.34632242
239	0x3d2f8c08	0.042858154
240	0xbd61790b	-0.055047076
241	0xbc616734	-0.013757516
242	0xbe1772f6	-0.14789948
243	0x3e421146	0.18951902
244	0x3e31bc60	0.17357016
245	0xbdec292d	-0.11531291
246	0x3dcc6b9f	0.099814646
247	0x3e4b08f9	0.19827642
248	0xbe0ea032	-0.13928297
249	0xbe0f0321	-0.13966037
250	0x3dd28b1d	0.1028044
251	0xbec5df6a	-0.38647014
252	0xbdbbfb50	-0.091787934
253	0x3e137ebf	0.14403819
254	0x3df59ec9	0.119931765
255	0xbda43d1e	-0.0801947

base.cnn.10.bias f4 [64]
0	0x3ced1838	0.028942212
1	0xbde2812c	-0.11059794
2	0xbde729a9	-0.11287243
3	0x3b3ea141	0.0029087814
4	0xbda2cb8b	-0.07948979
5	0xbde3dab6	-0.111257
6	0xbd7fc3ab	-0.062442463
7	0xbd4c777b	-0.049918633
8	0xbd9f7dca	-0.07787664
9	0xbd2575a2	-0.040395387
10	0x3d0d2ec5	0.03446843
11	0xbd9bed3a	-0.07613607
12	0xbd5d1371	-0.05397362
13	0xbd3a3133	-0.045457076
14	0xbd0108ea	-0.03150264
15	0xbd73ed0a	-0.05955223
16	0xbe025a9a	-0.12729874
17	0xbdbedb90	-0.09319222
18	0xbdaf230a	-0.08551605
19	0xbdcd1fbe	-0.1001582
20	0x3c4533d6	0.012036284
21	0xbdc54574	-0.09632388
22	0xbb4ead9b	-0.0031536582
23	0xbdb47988	-0.08812243
24	0xbd6df52f	-0.058095153
25	0xbdd8bd61	-0.10582996
26	0xbd1ef12f	-0.03880423
27	0xbd46721e	-0.048448674
28	0x3dadf490	0.08493912
29	0xbd71b7c5	-0.059013147
30	0xbd7eb06a	-0.06217996
31	0x3c4f8634	0.012666274
32	0xbc72f6b3	-0.0148293255
33	0xbd7110bc	-0.05885385
34	0xbe006a4e	-0.12540552
35	0xbd8602a3	-0.06543472
36	0xbe1fea7f	-0.15616797
37	0xbd9e8083	-0.077393554
38	0xbd78b3b1	-0.060718242
39	0x3ac4b707	0.001500816
40	0x3dc035e4	0.09385279
41	0x3dd2a021	0.102844484
42	0xbde31874	-0.110886484
43	0x3d3fc30d	0.046816874
44	0x3c1f36c3	0.009717646
45	0x3d5e0dad	0.05421226
46	0xbdd3b314	-0.10336891
47	0x3c61a198	0.013771437
48	0xbe12b0f1	-0.1432531
49	0xbc88e116	-0.016708892
50	0xbd2d0a2e	-0.042246036
51	0xbdb9741c	-0.09055349
52	0x3d4fc0a5	0.05072083
53	0x395f6a53	0.00021306546
54	0xbcbe9d8b	-0.023268482
55	0xba74ddd3	-0.0009340916
56	0xbd4b229a	-0.049593545
57	0x3d8d1b5d	0.06889985
58	0xbd761731	-0.06008071
59	0xbcbb1938	-0.022839174
60	0xbd358a24	-0.044321194
61	0xbd5893d9	-0.052875374
62	0xbd1a3428	-0.037647396
63	0xbd8af2d3	-0.06784596

base.cnn.12.weight f4 [64]
0	0x3f792852	0.9732715
1	0x3f8994a7	1.074849
2	0x3f88fe36	1.0702579
3	0x3f8989b4	1.0745149
4	0x3f705702	0.93882763
5	0x3f9c5940	1.2214737
6	0x3f60cf8f	0.8781671
7	0x3f81356a	1.0094426
8	0x3f841dea	1.0321629
9	0x3f4f303f	0.8093299
10	0x3f72fb41	0.94914633
11	0x3f8804df	1.0626487
12	0x3f85b36a	1.0445378
13	0x3f739aeb	0.9515826
14	0x3f7e4ef2	0.9933921
15	0x3f60d6bd	0.87827665
16	0x3f6893a3	0.90850276
17	0x3f7a6433	0.9780914
18	0x3f922ebd	1.1420513
19	0x3f7f6101	0.9975739
20	0x3f7d2eb8	0.9889941
21	0x3f79c7e2	0.9757062
22	0x3f70222b	0.93802136
23	0x3f846795	1.0344111
24	0x3f7eb486	0.99494207
25	0x3f82e189	1.0225078
26	0x3f752953	0.9576618
27	0x3f7c5447	0.985661
28	0x3f8add26	1.0848739
29	0x3f6b0270	0.91800594
30	0x3f9305e9	1.1486179
31	0x3f88c576	1.068526
32	0x3f76be3c	0.96384025
33	0x3f68d9cf	0.9095735
34	0x3f6b2e34	0.91867375
35	0x3f834016	1.0253932
36	0x3f6e2dbe	0.9303855
37	0x3f7bc0ff	0.98341364
38	0x3f5c4b53	0.86052436
39	0x3f945dac	1.1591086
40	0x3f826da1	1.0189706
41	0x3f85333b	1.0406259
42	0x3f7276ad	0.94712335
43	0x3f86b5b0	1.0524197
44	0x3f82a804	1.0207524
45	0x3f8b0f04	1.0863957
46	0x3f875d1f	1.0575293
47	0x3f7d0c9f	0.98847383
48	0x3f73b0fc	0.9519193
49	0x3f8d23b0	1.1026516
50	0x3f67dc0e	0.9057015
51	0x3f81cd86	1.0140846
52	0x3f858965	1.0432554
53	0x3f8bd895	1.092547
54	0x3f856de6	1.0424163
55	0x3f87fe9a	1.0624573
56	0x3f8122b5	1.0088717
57	0x3f8d9f67	1.1064271
58	0x3f7ecb4c	0.99528956
59	0x3f8115d6	1.0084789
60	0x3f7d00eb	0.98829526
61	0x3f62bed3	0.88572425
62	0x3f8a1576	1.0787799
63	0x3f73d585	0.9524768

base.cnn.12.bias f4 [64]
0	0x3e08a70a	0.1334497
1	0xbd7c2a94	-0.061564043
2	0xba7c7db9	-0.0009631771
3	0xbbbd4a49	-0.0057766777
4	0x3dde4b62	0.10854222
5	0xbda1840d	-0.07886515
6	0x3dcd082c	0.10011324
7	0x3bb45acd	0.0055039884
8	0xba9484a4	-0.0011331034
9	0x3e33b699	0.17550124
10	0x3c862415	0.016374627
11	0x3d221b53	0.03957684
12	0x3b21f65d	0.0024713494
13	0xbd2d4972	-0.04230637
14	0x3b5a9e58	0.003335854
15	0x3c917ac6	0.017758738
16	0x3e0bbd18	0.13646352
17	0x3d47c04d	0.048767377
18	0xbd9f51aa	-0.07779248
19	0xbc970f61	-0.01843995
20	0x3d11249a	0.035435297
21	0xbc2530ad	-0.010082406
22	0xbb0bc2da	-0.0021325857
23	0x3c91c3d5	0.017793575
24	0x3c827af9	0.015927779
25	0xbdb2c69b	-0.08729287
26	0x3d43e40a	0.047824897
27	0x3c2706a3	0.010194453
28	0x3d567746	0.05235984
29	0x3ccf0263	0.025269693
30	0xbcbf4c14	-0.023351707
31	0x3d365a14	0.0445195
32	0xbc32a20b	-0.010902892
33	0xbd95dd1c	-0.07317564
34	0x3c9456a7	0.018107725
35	0x3bb1f149	0.0054303748
36	0x3e0465c0	0.1292944
37	0x3caa7a94	0.020810403
38	0xbcf67bd0	-0.030088335
39	0xbd3a2eb3	-0.045454692
40	0x3d81b189	0.0633269
41	0x3d83cd12	0.064355984
42	0xbd3892d8	-0.045061916
43	0x3d631f55	0.055449802
44	0x3b012dbd	0.00197111
45	0x3cd1d259	0.025612997
46	0xbdb26aaa	-0.08711751
47	0xbd119bdf	-0.03554904
48	0x3da0f432	0.078590766
49	0x3d3608fe	0.04444217
50	0x3cc2e002	0.023788456
51	0x3d8973a0	0.06711507
52	0x3d428b7b	0.0474963
53	0xbc842a1e	-0.016133364
54	0x3c8b23de	0.016984876
55	0xbcda7d2d	-0.026671017
56	0xbd07d607	-0.033163097
57	0xbd12b391	-0.03581578
58	0xbcd7d369	-0.026345925
59	0x3d4d66eb	0.05014698
60	0x3d922652	0.07136215
61	0xbcc1291f	-0.023579178
62	0x3d00ae61	0.0314163
63	0xbd0180f1	-0.03161711
