CRL_human_AI_overcooked/human_models/model_unident_open/actor_best_r9.pt (torch, 590163 bytes, 20 tensors)

base.cnn.0.weight f4 [32, 26, 3, 3]
00000000: 3f35 073a 395c e8bd a95f 1dbd 7b45 d83d
00000010: ddc6 e1bd d94a bdbd 9809 613d 3427 513e
00000020: 216e ad3d 895e bbbc 8747 c7bc 738a c4bc
00000030: a0fd a2bd c747 ef3c 99bb 4c3e 2874 133d
00000040: 07d8 89be 351a fe3d 131c 6abd 0704 bbbd
00000050: b37f 0c3e 2946 2abd 1db3 2e3e 9f69 26be
00000060: dabd 5dbc 5455 d5bc 0b5a 923e 249a f83d
00000070: 8235 43be ca8c 0c3e 355f 76b9 9715 5dbe
00000080: 4f4e 25be c3f2 aabd 0a03 2cbe 6432 55be
00000090: 29a4 5d3d a928 f5bc 1d16 183e c766 913e
000000a0: 52e0 96be adf0 a93c d1b7 ff3d a27b 1fbe
000000b0: 75e3 0c3e 0b41 6abe 777c 5fbd e0b9 8c3d
000000c0: 43a9 4f3d 3de5 73bd 3744 a13d f78f 60be
000000d0: 1c11 683e 5c87 d9bd 33dc 533b fec7 493d
000000e0: c246 cfbd 9bf0 e73d b311 46be af8e 9e3d
000000f0: 92a5 0a3d f6e6 acbd fa45 823e a451 fe3c
00000100: 8077 e0ba 4bee b93d f6d2 803a 3648 7b3d
00000110: ee53 993e 903e 79bd d44b 66be f1e7 c7bd
00000120: 8eab 293d dbb5 5a3b 2e71 173e 1dd3 4d3e
00000130: 44af 923d f771 8e3e 2411 453e 97a7 53be
00000140: e28d 4bbd 2f89 6cbd 4379 74bd adcb d9bd
00000150: a005 53be d26e 0dbe 2cfa 863d 4899 27be
00000160: 539b ffbc 6ab8 cd3b c2a2 02be f46c 2cbe
00000170: a70e 983c 7548 43be 51a9 cb3b c93f 553c
00000180: 7d6b 09bd f6db 3ebd b54d 5dba d19d a83a
00000190: 4e37 a33d 3c43 53be a0ca 36be ed01 b73c
000001a0: 77d7 903d 2d91 b63d b422 2b3d 1b5a 0abe
000001b0: 4461 f3bd 2524 5f3b eb22 d93b a178 06be
000001c0: 1cbf 70bc b99b 82bc b87a 9c39 5f90 393d
000001d0: 2633 0cbe 384d 183e e0e8 47bd 067f 0f3c
000001e0: effa 90bd 8b17 49bd 561f e4bd 56fc a2bd
000001f0: 9747 66bb e730 e3bb b0d7 a9bc bab0 9cbd
00000200: 806a 36bc 2b46 5fbe 6df1 253d 6279 423d
00000210: 434f f6bd 4f10 01bb b365 e9bc 6f98 8b3d
00000220: 29dd 103d c174 1cbb cd9c b53a 91f3 853d
00000230: 4e21 093d 1b3a e8bd c4b3 67be db3a 943d
00000240: db1c 8c3d c46b 4e3b e2ff aabc 582d 263d
00000250: e52b 99be f556 9a3d 237d e4bd 9794 173d
00000260: 8884 bebd 2840 87bd 5893 ec3d dca6 d43c
00000270: e181 ffbd 96a7 d03d 888a eebc 9f9e 1ebc
00000280: a924 dc3b 1174 58bb 5403 3bbe c877 b2bd
00000290: b349 03bd 0111 4bbd a650 a53d 381d 0d3d
000002a0: 66b7 ee3c c2ce 043e 6961 00be bf0e 523d
000002b0: 349c 2fbb 6a08 6c3d df50 563d 22d3 623d
000002c0: 802b 87be 16d9 ff3c 4557 4ebe 5043 0a3d
000002d0: 28d9 303e 16db c03d d68c 3ebd ed05 c3bd
000002e0: 93da 2d3d 648d 373c 6505 7dbc 4570 afbd
000002f0: f970 a23d 177a f93a 2af9 343d c9a2 59bd
00000300: 76e1 f9bd f70f 2f3e e79f 0a3e 7e23 ff3d
00000310: bdb5 78bc c1d8 3c3e 5b3c 973d 8f0a bdbc
00000320: e861 2ebe deaa 043d 5fc5 623e 5e73 013e
00000330: e304 5d3e 4dd6 023e 0b43 f73c b654 733c
00000340: a884 17bd 2f39 9bbd a4ea 96be d2ab 4e3e
00000350: 44a4 1ebe faef 5dbe 77d0 c33c 9384 b33d
00000360: 5ece 8d3b 74da 7abd ded5 d7bd 2ac8 23bd
00000370: b7d4 7abd c053 563e db1e 063e 059c 743d
00000380: 4751 ff3d f2bd 1c3d d212 24be 6f74 d0bd
00000390: 73d5 1e3d ccd4 21be 60f0 14be c5e2 c6bb
000003a0: 32ad 84bd 04b6 3dbb e19d 82be 8ce8 dc3d
000003b0: 40aa 2f3e d8e7 d4bd 9db3 06be 46d7 59be
000003c0: 0873 043e 3004 debd 45af 1f3e 6544 9f3d
000003d0: 7432 64be fb4b c2be cf3d 89be 32b9 56be
000003e0: 2877 3c3e 929e 473c 81a0 b03c 0f20 58be
000003f0: 1d8c 4bbe 49c1 bf3d 00f4 52be bbba 93bd
0.00051577756 -0.11345715 -0.038421307 0.10560127 -0.11024258 -0.09242792 0.05494079 0.20425111
0.08468271 -0.022872226 -0.0243261 -0.023991799 -0.079585314 0.02920903 0.19993438 0.035999447
-0.26922628 0.12407342 -0.05715568 -0.091316275 0.13720588 -0.041570816 0.17060514 -0.16251229
-0.013534034 -0.026041664 0.28584322 0.12138775 -0.1906338 0.13725582 -0.00023495856 -0.21590267
-0.16143154 -0.083470844 -0.16798034 -0.20820004 0.054111633 -0.029926615 0.14852186 0.28398725
-0.29468018 0.020744646 0.12486232 -0.15574506 0.13758643 -0.22876374 -0.05456206 0.0687139
0.05069853 -0.05954479 0.07874339 -0.21929918 0.22662777 -0.10621521 0.0032327294 0.049262993
-0.10120918 0.11325189 -0.19342689 0.077420585 0.033849306 -0.0844249 0.25444013 0.031044789
-0.0017125458 0.09078654 0.0009828496 0.061348163 0.29946846 -0.06085068 -0.22489864 -0.09761036
0.041423373 0.0033372554 0.14789268 0.20100065 0.071623355 0.27821323 0.1924482 -0.20669399
-0.049695857 -0.057748016 -0.059685957 -0.10634551 -0.20607615 -0.13811806 0.06590685 -0.16367066
-0.031201994 0.0062780874 -0.127574 -0.16838437 0.018561674 -0.19070609 0.0062152524 0.013015696
-0.033549774 -0.04659649 -0.000844206 0.0012864416 0.07969533 -0.20631117 -0.17850733 0.022339785
0.07072347 0.08914409 0.041781142 -0.13510935 -0.11883786 0.0034048643 0.006626477 -0.13131954
-0.0146940015 -0.015943395 0.0002984607 0.0453037 -0.13691387 0.14873207 -0.04880607 0.008758312
-0.07079112 -0.049094718 -0.11138789 -0.079582855 -0.0035137886 -0.00693332 -0.02073273 -0.076508954
-0.01113379 -0.2180411 0.040513445 0.04747904 -0.12026837 -0.0019693559 -0.028490877 0.06816184
0.035367165 -0.0023873302 0.0013855934 0.06540597 0.033479027 -0.11339208 -0.22627169 0.07237788
0.06841441 0.0031497339 -0.020873968 0.040570587 -0.299163 0.07536117 -0.111566804 0.03700694
-0.09302622 -0.06604034 0.11551541 0.025958471 -0.12475944 0.101882145 -0.029118791 -0.009681373
0.0067182374 -0.0033028165 -0.18262988 -0.08714253 -0.032052707 -0.049576763 0.08072023 0.034451693
0.029140186 0.12969497 -0.12537159 0.051283594 -0.0026795985 0.05762521 0.05232322 0.055377133
-0.26400375 0.031231444 -0.20150478 0.0337556 0.17270339 0.09416787 -0.04652103 -0.09522615
0.042444777 0.011203144 -0.015443181 -0.085663356 0.07931704 0.0019033578 0.044182934 -0.05313376
-0.122012064 0.17095934 0.1353756 0.124579415 -0.0151800485 0.1844206 0.07384559 -0.023076324
-0.17029536 0.032389514 0.22145604 0.12641665 0.21583895 0.12777062 0.030183336 0.01485174
-0.036991745 -0.07579266 -0.29475892 0.20182732 -0.1549235 -0.21673575 0.023903115 0.08765521
0.0043275794 -0.06124349 -0.10538839 -0.039985813 -0.061238017 0.20930386 0.13097708 0.059719104
0.12466674 0.038267083 -0.16022804 -0.10178458 0.03877778 -0.15803832 -0.14544821 -0.0060695135
-0.06478347 -0.00289476 -0.25511077 0.10786542 0.17154789 -0.10395783 -0.13154455 -0.21273527
0.12934506 -0.108406425 0.15594204 0.07776717 -0.22284871 -0.37948593 -0.2680497 -0.20969084
0.1840483 0.012183802 0.02156091 -0.2110598 -0.19877668 0.09363038 -0.20600891 -0.072133504

base.cnn.0.bias f4 [32]
00000000: 8061 28bd a648 1bbc 1b2d 5d3d 6785 01bd
00000010: 5b11 6fbc 01b5 11bd 7bd1 0fbc d1e9 66bd
00000020: bc8c b1bc 3c57 26bd 056b 98bb a956 0fbc
00000030: 2218 a0bd 5f55 66bc 2b33 83bd a056 213c
00000040: 765f 5ebd 0691 a4bc e822 adbd d546 b7bd
00000050: b5b0 7b3b a3a9 a0bd 4335 08bc ca8f d73c
00000060: ae81 f2bc 517e 60bd 61d8 08bb ee21 f1bb
00000070: e16d b8bc 0dc5 afbc 4a67 40bd 7c11 613b
-0.04110861 -0.00947777 0.053998094 -0.031621363 -0.01459154 -0.03557301 -0.008777971 -0.05637533
-0.021673553 -0.040610537 -0.0046514296 -0.008748689 -0.07817103 -0.01405844 -0.06406244 0.009847313
-0.054290257 -0.020088684 -0.084539235 -0.08949057 0.0038404886 -0.07844856 -0.00831348 0.026313681
-0.029602852 -0.054807965 -0.0020880925 -0.007358781 -0.022513332 -0.021456266 -0.046973504 0.0034342697

base.cnn.2.weight f4 [64, 32, 3, 3]
00000000: 11fe a93c 7f5c 963b 941b a2bd ee39 b93d
00000010: cd10 2cbe aa78 703d 761a eabd 6b79 4abd
00000020: 4c32 7fbd 74d6 653d 9cb5 453e 7722 d4bd
00000030: a5e2 633d b4a9 e63d c3d9 dbbd 6d35 723d
00000040: f7ff 413e 8181 ea3d 2f87 09be a4e4 14be
00000050: 2191 df3b d3b7 153d b79c 743d c31a 1b3c
00000060: 862c 683d 7eba e33d 60a9 a9bd 8292 b1bd
00000070: 35de d2bd 7347 123d 8351 3cbc b5b5 33be
00000080: 105e 6fbd 2885 67bd 6485 99bd 85e2 c2bd
00000090: ec17 d03a 6f70 da3d 00f3 693d 95ac 64bd
000000a0: 75a9 98bd 600f d4bc 5694 1fbc 4497 283d
000000b0: 8e55 1fbd 108f 453d be32 d13d e384 18bd
000000c0: 525d 7fbd d525 96bc 068c 68bb 88c0 3a3e
000000d0: 2b35 763d 2617 a2bc c047 9b3d 4297 0dbe
000000e0: 1f35 c9bd e409 163e 3830 5bbd fd30 393d
000000f0: 029d a3bd cbf6 0d3c 1324 513d 0c1b 233d
00000100: 401c c23b e2f2 25bb f153 893d aa39 d5bd
00000110: a022 cd3b aa49 cdbd a8e7 3abe c632 b63c
00000120: aa1f 833b 70fd ed3d e7ed c23d 1509 fc3c
00000130: 60b2 0e3e fb83 28be 30c4 14be 76b1 95bd
00000140: bb8c e93b ffc7 ec3d 5807 2d3d 12e0 fdbd
00000150: 9b45 943d 1217 653c 74cf 0cbe bad7 113d
00000160: a689 eabc 5f86 bc3c 9196 1bbe 82cc c7bb
00000170: d933 0fbe a7fe e83d 95b4 f0bc 1b3b 2ebe
00000180: 80e2 acbc 7757 0dbe 10a3 16bd e341 5bbe
00000190: ed74 363e fc39 8ebd c501 71bd 1441 17be
000001a0: 44c9 823d e499 fb3c 5c45 b6bd 1e5f 3dbd
000001b0: 7a73 ffbd e744 f43d f34d 023e d24a 903c
000001c0: abda c33d 8700 993d 783a 22be 911d 383d
000001d0: f871 cfbd e7d2 f6bc 59d8 09bd 42ca 57bd
000001e0: 8305 8fbd 5fbc 74be 2c91 bfbd 1a1b c4bd
000001f0: 71fa 2f3e 281d 76bc d9d7 40b9 4e43 8cbc
00000200: 6175 9dbd 8982 27be a74b f3bc 1410 a03c
00000210: 0d07 913c f22b 1d3c 50f9 a53d af97 3cbe
00000220: b665 a13d 347e 0bbe 7134 ddbd afd8 78bd
00000230: 766a 6abd 4d31 d73d 2346 0abe a0fc 353e
00000240: ed7f 583c 6c7a ef3d 0f24 fbbd 7612 893c
00000250: c470 f2bd 49ca ca3d 7c2e 71be 934d 4ebe
00000260: 685c 883c 63b7 b23d 2fb0 e3bd 99b2 ed3b
00000270: f065 57bd dc21 05be 29f4 9f3c b78c 98bd
00000280: ed13 013e 380d c8bd dfeb 3d3d 59e2 8e3c
00000290: 22f5 08bd 9dc7 cd3d a8ff 493d 0cb7 1dbe
000002a0: a86e 6b3d 2a63 24be afe3 0f3e ac59 d3bd
000002b0: 90dc 27bc ec74 1cbd fa83 d6bb 5b2a 743d
000002c0: 6b39 0b3e 38b0 00bd ca0e 72bd 9ac7 b23d
000002d0: 5e35 f3bd d41a 5bbd ece2 473d 81d0 b93d
000002e0: 5b5c d13c daf9 0cbd d7de 1f3d ad01 6b3e
000002f0: 57cd bdbd 2445 3bbd 346d 49be f406 a9bd
00000300: 5e2f d2bb f34c 8ebd 92d6 513d 8f9f d5bd
00000310: 477d babb 5900 32bd f075 563d 4b08 803c
00000320: be3d 363d 859d 96bc b30b 73bc 35d2 f23c
00000330: 0556 64bc d120 823c 699c 913b 2465 053e
00000340: 33d6 bf3c 1f13 7b3c 3650 86bd 5e57 6bbe
00000350: a5f1 68bd 0368 563d f908 cc3d 4f3a 8bbc
00000360: e4b6 71bb c3a5 353e a756 a63d c7a8 ddbd
00000370: 35d9 2c3d c321 6abc abda a63e 7c16 65bd
00000380: 82eb 84bc 4f7a febd 300c 3fbd 8895 0bbe
00000390: 4de0 00be 0b9a 773d 4d5e 23bc 3754 023e
000003a0: db6e 8ebd bc33 cfbd ae9b 81bd 12db 58bd
000003b0: 4e5d d9bc 5458 433d 17d4 d9bd e346 ca3d
000003c0: e8a3 be3c a424 e7bd 72f2 163e bfa9 903d
000003d0: 5ea5 323e a5c8 00bc 4fcf c33d 8be0 5f3d
000003e0: 641e 78bc 5ea4 7b3d b0e3 52bc d2b9 f1bd
000003f0: 09b5 2fbe 72f5 2bbd aa6c 67bd b73b acbb
0.020751031 0.004588663 -0.07915416 0.09044252 -0.16803284 0.058708824 -0.11430828 -0.0494322
-0.062303826 0.05611272 0.1930756 -0.10358136 0.055636067 0.11262837 -0.10734894 0.059132982
0.18945299 0.11450482 -0.13430475 -0.14540344 0.0068227206 0.03655226 0.059719767 0.00946683
0.056683086 0.11119555 -0.08284259 -0.08670522 -0.10296289 0.03571267 -0.011494043 -0.17549784
-0.058439314 -0.056523472 -0.07496145 -0.095158614 0.001587627 0.10665976 0.05711651 -0.05582865
-0.07454196 -0.025886238 -0.009739956 0.041159883 -0.03889995 0.04823214 0.102147564 -0.037236106
-0.062344857 -0.018328587 -0.003548385 0.18237507 0.0601093 -0.019786429 0.075820446 -0.13827232
-0.09824585 0.1465221 -0.05351278 0.045212734 -0.07988931 0.008664797 0.051059794 0.039820716
0.005923778 -0.0025321771 0.06705464 -0.10411389 0.006260231 -0.10023816 -0.18252432 0.022241008
0.0040015774 0.11620605 0.095180325 0.03076605 0.13935232 -0.16456597 -0.14527965 -0.073092386
0.007127372 0.11561584 0.04224333 -0.12396254 0.07239839 0.013982551 -0.13751012 0.035606124
-0.028630089 0.023013292 -0.15194155 -0.0060973773 -0.13984622 0.11376696 -0.029382983 -0.17014734
-0.021104097 -0.13802896 -0.036776602 -0.21411853 0.17818041 -0.069446534 -0.05883958 -0.14770919
0.063860446 0.03071303 -0.08899948 -0.04623329 -0.12473197 0.119272046 0.12725048 0.017613802
0.09563192 0.07470804 -0.15842617 0.04495007 -0.1012916 -0.030129863 -0.03365359 -0.052683122
-0.06983473 -0.23899983 -0.09353861 -0.09575482 0.1718538 -0.0150216 -0.00018390956 -0.017121937
-0.07688404 -0.16358389 -0.02969916 0.019538917 0.017703557 0.009592997 0.08104193 -0.18417238
0.07880728 -0.13622361 -0.10801018 -0.06075352 -0.057230435 0.1050745 -0.13503318 0.1777215
0.013214094 0.11693272 -0.12262737 0.016732436 -0.118379146 0.09901864 -0.23552889 -0.2014678
0.016645625 0.087263845 -0.11117589 0.0072539565 -0.05258745 -0.13001198 0.019525604 -0.07448714
0.12605257 -0.09768146 0.046367522 0.017441915 -0.033436902 0.10047839 0.04931608 -0.15401858
0.057478577 -0.16053453 0.14051698 -0.10319838 -0.010245457 -0.038197443 -0.0065464946 0.059610706
0.13596122 -0.031418055 -0.059096135 0.08729477 -0.11875413 -0.053492382 0.048800394 0.09072972
0.025556734 -0.034417965 0.039030876 0.22949858 -0.09267681 -0.045720235 -0.19670564 -0.08253279
-0.006414338 -0.06948271 0.05123002 -0.10430824 -0.0056912038 -0.043457363 0.052358568 0.015628954
0.044492476 -0.018385658 -0.014834332 0.02964125 -0.013936524 0.015884789 0.0044436944 0.13026863
0.023417568 0.015324383 -0.06558268 -0.22982547 -0.056871075 0.052345287 0.09962649 -0.016995577
-0.0036882693 0.17739014 0.081219964 -0.10823207 0.042199332 -0.014290276 0.32588705 -0.055929646
-0.01622558 -0.12425672 -0.046642482 -0.1363126 -0.12585564 0.06044964 -0.0099712135 0.12727438
-0.06954738 -0.101172894 -0.06328522 -0.052943297 -0.026533749 0.04769166 -0.10636156 0.09876802
0.023271516 -0.112862855 0.14740923 0.070636265 0.17445895 -0.007860337 0.09561025 0.0546575
-0.015143964 0.06143605 -0.012871668 -0.118030205 -0.17158903 -0.04198212 -0.056500115 -0.005256142

base.cnn.2.bias f4 [64]
00000000: f780 fbbc f08e e53a 877c 43bd f3b0 91bb
00000010: 0bd6 4dbd 14af dfbc 8d81 06bd 32db adbc
00000020: 7631 313b 0356 2d3d 1a26 12bd f12b 523a
00000030: bec2 11bc f4de d03c f5d5 b0bb 91a9 16bc
00000040: 6c1d 3d3c 61fd 33bc ab06 10bd 3600 efbc
00000050: 9f41 9cba 6af5 213c a1f9 26bd 425e 1dbd
00000060: 5a11 6abc 6254 1b3b e794 323c 4da4 30bc
00000070: 485b f8bc 9210 503c 4831 4abc 7a5e 12bc
00000080: 5c4b 883a 2108 7dbc 78a4 603c 103b 1dbd
00000090: 7168 2a3c 2d9a 13bc d718 04bd d931 e6bb
000000a0: 87e7 223c 7ee3 45bd ea0d bfbb cebf c4bc
000000b0: 1612 bbbc 51ef 78bd 2a6a c3bc f91b b0bc
000000c0: 703a 0bbd e812 febc b6f0 71bb 518c a3bd
000000d0: 29f4 cfba c67c 29bc 9239 e53b f1ce 523b
000000e0: 9e2f a83b 5783 263b fe70 1fbd 6e6f a9bc
000000f0: 0d4c 653c 454d 30bd f480 22bb 0b85 e3bc
-0.030701144 0.0017513912 -0.04772618 -0.004446143 -0.050252955 -0.027305163 -0.032838393 -0.021222685
0.0027037538 0.042318355 -0.035680868 0.0008017412 -0.008896528 0.025496937 -0.0053965994 -0.009195701
0.011542659 -0.010985703 -0.03516261 -0.029174905 -0.0011921412 0.009885171 -0.04076541 -0.03841997
-0.0142863635 0.002370142 0.010899759 -0.01078136 -0.030316964 0.012699263 -0.012340851 -0.008933658
0.0010398435 -0.015443833 0.013711087 -0.038386405 0.010400877 -0.009008926 -0.03225025 -0.0070249853
0.009942896 -0.048312657 -0.005830516 -0.02401724 -0.022835772 -0.060775105 -0.023854334 -0.021497713
-0.033991277 -0.031014875 -0.0036917157 -0.079857476 -0.0015865612 -0.01034469 0.0069953883 0.0032166804
0.0051326295 0.0025407874 -0.038926117 -0.020683017 0.013995183 -0.04304244 -0.00247961 -0.0277734

base.cnn.4.weight f4 [32, 64, 3, 3]
00000000: 85c5 fabd 3c83 35bc 2397 35bd bbd0 fbbc
00000010: 5100 a53c 5fe9 543d 7cfe c2bd 8058 a3bc
00000020: f6df ca3c c597 4a3c f64a c03b a4f6 1d3e
00000030: d98d cd3c 40dd 28bd 4745 a5bd a128 f3bc
00000040: 72cf a93d d460 11bd ed5b 773d 1367 033d
00000050: be92 953c 62e4 0cbd bbe0 6839 a5a0 e3bb
00000060: 98a9 ec3c 8afa 2c3d 38b4 c03c 7d28 82bd
00000070: 735f 2ebc 7b70 f13d 7efe 893d 93a6 ae3d
00000080: fbf2 06be 3ff4 babd 8632 5bbd cec8 ef3c
00000090: 76bc aabd 2dcd ea3c 3ce9 73bd 8c58 ad3d
000000a0: 11fe 43bd 6d98 753d 4e1f a83d 37c1 513d
000000b0: 2542 0d3d ae61 9ebd 8684 c63d a076 36bd
000000c0: 15b7 933d b3b0 773d 77a0 fbbd cbd4 22be
000000d0: 99c4 50bd c170 d33d 9b60 20bd 5434 883d
000000e0: 75e7 863d e478 c8bc 9c7b 0abe 29ef 49bc
000000f0: a69a 75bd fd39 cdbd 6169 3b3b ff0c 41bd
00000100: fc38 da3c 3dab 50bd 5136 a53d 41a9 efbc
00000110: 5504 01be 050f 393c 3e87 31be d28c b43c
00000120: c8b4 29bd 693d 063d 7f23 e93d 27f7 8cbc
00000130: 719a 12bd 422a 533c f237 e9bd 991a 8fbd
00000140: 1018 103e ba21 dc39 d5fd 9e3c 3a2a 11be
00000150: 414a 87bd 7971 9f3b 9c17 ea3c 315f 82bc
00000160: 2a50 db3c 3b95 d73c 3ea1 913d ec79 07be
00000170: 58b6 15be 2531 133d b856 1ebd e666 6fbe
00000180: 3d03 87bd 4b60 09bd 28bc dab9 cb10 7ebd
00000190: 9e09 a7bc 3e2e 4bbe 4e15 e4bc 2349 a4bc
000001a0: ac32 b6bd a852 393d 53b4 043e 5afa e9bd
000001b0: 8fd3 c03d a285 0f3e bb36 c4bb 822a d8bc
000001c0: 1dc1 30bc c606 51be b464 08be 3d6c 033d
000001d0: 7739 043d 0c20 183e 0378 33be d490 503c
000001e0: fa42 f63d 7d58 2abd 80d8 943d 9756 c4bc
000001f0: 4877 363d 64fa 433d 3a39 1b3d b993 01be
00000200: 1713 953d 31e6 143d a024 3f3c d701 c0bd
00000210: 229a d4bd 2743 703d 428f d33d 32c5 e5bd
00000220: e60f fbba 83af ca3d 0353 e13d 7499 913d
00000230: 8e88 33bd f9c9 6bbd e8e1 073d adfa 833d
00000240: 6a59 f2bd 02d1 8dbd 6145 59bd 9cda 8cbd
00000250: 3c1b a5bd 8828 1abe 8621 dabd ff7b 98bd
00000260: e090 dc3d 2656 b4bd ee3a 233d 4462 5c3c
00000270: 5569 3e3d 0f0d 973d 4810 a1bc 872a 0fbd
00000280: 1a4b 363d 3bea 823d fedd 813d 3818 d73d
00000290: 355a 953c 92b0 c3bb 179b 3f3d 631e 0d3e
000002a0: 6b23 fabd 633b af3d b1b5 21bd 2e05 80bc
000002b0: 180c 913d b1e4 8a3d a88f 063d 3413 153d
000002c0: ffd5 6bbd 77bd aa3c b3c8 07be be78 453d
000002d0: 8c8f 5c3d a3f5 15be 9e98 73bd 893c f73c
000002e0: 7a71 06bd 872c 79bd 0816 87bd 69d3 cf3d
000002f0: 62c1 ae3d 637f f1bd e43c 58be 04bc 203e
00000300: c5c0 e13d 6923 66bd b164 023b c289 cbbc
00000310: 33af 1c3e cdda 3d3d 0c81 91bd 6bdf 4bbd
00000320: 96b5 f83c 9af5 bbbc 9d62 0e3d 491d 98bd
00000330: a176 9ebd 4585 30be a12f ed3d 2b57 f6bd
00000340: 5d89 89bc 0dd8 a13c e61d 30be 8fe7 a3bd
00000350: 0d2d 91bd 31d9 dcbc d180 4ebd a904 eebd
00000360: b864 e0bd b640 f0bd cf9c 103d c531 c9bd
00000370: 9040 6b3d c75b 9b3d 24fb 20be 5737 0bbe
00000380: c4fe 8f3d 72ed 0b3d 601d b63d d9a3 b5bd
00000390: ba78 b7bc a360 be3d bb27 7d3d c843 e0bc
000003a0: 88d1 163d eb6f 28bd a14a 9b3d 1b16 6c3d
000003b0: 3dbf 0dbb 6d0c d7ba 0dbf f1bd c024 d83d
000003c0: c6ed 943d d2e5 75bc bb8a 893d d977 dfbc
000003d0: a153 0e3e c1ee 1d3d 121b 6d3d 04e9 1cbe
000003e0: 46d1 9fbd e1a1 b1bc eb37 043c 60b8 f9bd
000003f0: 2b99 c7bd 59a9 ccbd 8ece f53c d4d3 8c3d
-0.12244705 -0.011078652 -0.04433359 -0.030739179 0.020141752 0.051980373 -0.09521195 -0.019939661
0.024764996 0.012365286 0.005868311 0.15426117 0.025092052 -0.041226625 -0.08069854 -0.02968246
0.0829152 -0.035492733 0.0603904 0.03208072 0.018258449 -0.03439749 0.00022208963 -0.0069466406
0.028889462 0.04223112 0.023523435 -0.06355379 -0.010642874 0.11789032 0.06737994 0.08527865
-0.13178627 -0.091286175 -0.05351498 0.029270556 -0.08336727 0.028662289 -0.0595486 0.084641546
-0.04784972 0.059959818 0.08209096 0.051209655 0.03448691 -0.07733475 0.096932456 -0.044546723
0.072126545 0.060471248 -0.122864656 -0.15901487 -0.05096874 0.103242405 -0.03915463 0.06650606
0.06587116 -0.024471708 -0.13523716 -0.012325087 -0.059961937 -0.10020826 0.0028596746 -0.047131535
0.0266385 -0.050944556 0.08067001 -0.029255511 -0.12599309 0.011295085 -0.17336747 0.022039805
-0.041432172 0.03277341 0.113837235 -0.017207695 -0.035791818 0.012888493 -0.11387624 -0.06987495
0.14071679 0.00041986798 0.019408146 -0.14176264 -0.0660596 0.004865822 0.028575711 -0.015914531
0.026771624 0.026316276 0.07110833 -0.13230103 -0.1462034 0.03593554 -0.03865692 -0.23379096
-0.065924145 -0.033539098 -0.00041720388 -0.062027734 -0.020390328 -0.19841859 -0.02784219 -0.020054406
-0.08896384 0.045244843 0.12959413 -0.11424704 0.094153516 0.1401582 -0.0059879697 -0.026387457
-0.010788229 -0.2041274 -0.13319665 0.032085646 0.032281365 0.14855975 -0.1752625 0.012729842
0.120244935 -0.041588295 0.072678566 -0.02396707 0.04454735 0.047846213 0.037896372 -0.12654008
0.07279032 0.03635234 0.011666447 -0.09375351 -0.10380961 0.05865779 0.10330059 -0.11219253
-0.0019154518 0.098967575 0.11002161 0.07109347 -0.0438314 -0.057565663 0.033174425 0.06444297
-0.11833461 -0.06924631 -0.05304468 -0.06877634 -0.08061835 -0.15054524 -0.10650925 -0.074455254
0.1076982 -0.08805494 0.03985112 0.013451163 0.04648717 0.073755376 -0.019661084 -0.034952667
0.044505216 0.06392332 0.0634117 0.10502666 0.01823149 -0.0059719766 0.046778765 0.13781123
-0.12213787 0.08556249 -0.039479915 -0.01562747 0.07082385 0.06781901 0.032851845 0.036395267
-0.05757713 0.020842297 -0.13260154 0.04821085 0.053847834 -0.14644484 -0.05947172 0.030180233
-0.032823063 -0.06083348 -0.06595999 0.10147745 0.085329786 -0.11791875 -0.21116978 0.15696722
0.11023096 -0.056186114 0.0019896443 -0.024845961 0.15301208 0.046351243 -0.07104692 -0.049773615
0.030360024 -0.02294426 0.034762014 -0.07427461 -0.077374704 -0.17238338 0.1158135 -0.12028345
-0.016789133 0.019756341 -0.17198905 -0.08003151 -0.07088671 -0.026959034 -0.050415818 -0.116219826
-0.109567106 -0.11731093 0.035305794 -0.09823946 0.05743462 0.075858645 -0.15720803 -0.13595329
0.070310146 0.034161992 0.088923216 -0.08869142 -0.022396434 0.09295776 0.061805468 -0.02737607
0.03682092 -0.04112236 0.07582594 0.05763827 -0.002162888 -0.0016406901 -0.11804018 0.105538845
0.07271914 -0.015008407 0.06715914 -0.027278828 0.1389909 0.03855777 0.057887144 -0.15323263
-0.078035876 -0.021683635 0.0080699725 -0.1219337 -0.09746011 -0.09993238 0.03000572 0.068763405

base.cnn.4.bias f4 [32]
00000000: b313 a23c e1be 3f3b 112f c4bc 71f9 7dbc
00000010: 036e febb ab38 a0ba 5a91 0fbd 21e3 dfbb
00000020: cf1e 223a c1e7 8a3a a672 d03c dbd2 243b
00000030: 6b40 673b 30ff 3bbd e3ce 17bd cac7 f83a
00000040: 78ef cbbb 84e8 19bc 99f5 1fbd ee45 34bd
00000050: e844 f1bc 4f85 12bd 3e3e 87bc 3522 1aba
00000060: d9b8 a7bc 4360 c6bc cd3e d2bc c1c9 adbc
00000070: c332 31bd 0e16 bdbb ad3b 6abd 9c5f 24bd
0.019784784 0.002925806 -0.023948224 -0.015501366 -0.0077645793 -0.001222392 -0.035050727 -0.006832496
0.00061844004 0.0010597632 0.025445294 0.0025150094 0.0035286199 -0.045897663 -0.037062537 0.001898044
-0.0062236153 -0.009393815 -0.03905258 -0.044012003 -0.029451802 -0.035771664 -0.016509172 -0.0005879731
-0.020473884 -0.024215823 -0.025664711 -0.021214368 -0.0432613 -0.0057704514 -0.057185818 -0.040130243

base.cnn.7.weight f4 [64, 1440]
00000000: 378d f1bd b3b3 a9bd b9ab ddbc 588f 163d
00000010: f170 fabd 3229 cc3d 81c9 a73d e162 0e3d
00000020: 5312 22bc 7a09 55bd ff40 193e ce6a 073c
00000030: 75c6 e5bd 9e17 c0bb c5bc 04bd 24ef 3c3d
00000040: b44d 8bbd 3eb2 50bd 532e 45bc a848 c13d
00000050: 40da ac3d 092b 373b dc3a 023e d59b cb3d
00000060: 8a04 e3bd 336a 253d 21c4 f9bd c39d c03d
00000070: 2907 063d 1ae4 18be c720 85bd 8c6f 68bd
00000080: 1fff 943d 43b7 52bd 001d 7bbd c321 3e3d
00000090: d44d 493d 593a 03be 56f1 e33b 30ed 0d3c
000000a0: 07fd 1ebe fc48 1b3c 4467 59bc f672 203d
000000b0: 9bd7 37bd f344 5e3c 2689 083d 7176 b73d
000000c0: 79af acbd 299d df3c c8f5 34bd c2f3 d6bd
000000d0: 8793 013c 4b48 993d 3340 39be e21d 84bc
000000e0: c9aa db3b 174f 9fbd d6b9 873d 0958 1f3d
000000f0: 5488 79bc 50a6 f4bc d5f5 dbbc 9875 db3b
00000100: a4e3 993c 4259 c33c bb87 cfbd 2bcd f33c
00000110: 993e bdbd 2d77 923c b8d2 7d3d c6db 26be
00000120: 0871 e93d 9535 113e 8918 83bd d335 ca3d
00000130: b74f 183d e8e1 933c 7dfe 3a3d 6ce9 873b
00000140: 9b17 0ebd 9fb6 3dbc 7411 09be b691 d73c
00000150: b944 48bd fa5f c93b 0610 37bd 5b7f 043e
00000160: 89e9 60bd 919e 6fbc a639 513d 5a44 23bc
00000170: 0993 7a3d cb28 8ebd ac48 7abd 1aa2 8b3c
00000180: d7fa 0e3c bfbb f8bd 0f94 fc3c 8578 9c3d
00000190: 6bf5 50bd b8d7 bdbd 96f8 c7bc f9e7 d23c
000001a0: bb80 8c3d d574 e7bd 88dc 0fbd e6bc 44bd
000001b0: c693 abbd 4d6d 49bd 0da3 de3d ffed fe3d
000001c0: 8950 37bd 7c98 673d 0139 493b 8b43 d33d
000001d0: f6be f13c 5b1d 3d3d 990a 813d 9564 d23d
000001e0: fa3c 6e3d d85d b73c 59ff babb bd95 a3bc
000001f0: 6c15 983d 2c0c 0b3d 8f71 24bd 02db a7bd
00000200: ab19 0fbd 6ebe a5bd 2483 15be de29 b9bc
00000210: 37db 7ebd 967d 0dbd a576 dd3b cb94 383d
00000220: fd68 b5bd 6154 a63d 6b09 c93c 5635 fc3c
00000230: d824 22be dbb9 eabc b8aa b1bb 7d7a c93c
00000240: 7bd3 40bd c086 953d 2163 5c3b 0179 503d
00000250: 18a9 20ba c71d 8b3c 5fb4 acbd bcfa ff3b
00000260: cac4 95bc c848 0ebe 6fa9 e9bd 531e 0e3d
00000270: 3c77 a2bd b30c 3ebd cbd1 8ebc 5282 6ebd
00000280: 442f fa3b 3942 363d 8c40 91bd 0dcc 623c
00000290: 0dd1 da3d ccf8 08be 6821 dd3c 7996 673d
000002a0: d87d 1b3e b1b0 4abd 3060 22be 2ba1 053d
000002b0: 44e2 0bbe 1117 3b3d 268e d13c b307 cb3b
000002c0: 581b 9e3b 196b 043a dc26 b5bc 213b c63c
000002d0: 738b b6bd f7da 3bbb 9519 963d 03b3 703d
000002e0: 26ee 68bd a7f3 1c3e 7e0d 913c 709c a13c
000002f0: 4736 a3bd d7e5 c7bc bade 80bd ad4c 843d
00000300: ea9a aa3d d327 663d 5f43 a1bd bf5c 923c
00000310: 1962 6dbc 21b9 113d 7319 ba3c 0c9d ff3c
00000320: a4e1 a4bd ec83 0a3e 37e6 9fbc 822b c73d
00000330: 57d8 323d 3154 9a3d 5b4c b03d 03cc b63d
00000340: 93b5 e3bb 62d8 dcbc 05e8 5e3c c26b c43d
00000350: 1572 d8bc becd 32bd cba2 03bc 5a23 413c
00000360: c5b9 983b 9d54 83bd d6de 1d3d e3e0 823d
00000370: de81 133d 4865 c1bd b224 69bd 0852 743d
00000380: f9d5 bcbc 2438 96bd f271 48bd 7186 d03d
00000390: 6720 c6bd 662f 323d 3a97 b6bd bdbd 3f3c
000003a0: 7119 483d c6c3 4e3d ba42 023a ec2f b33d
000003b0: 95c9 cf3c 1d64 723d a62e da3d edf6 4ebd
000003c0: d366 333d b739 3a3e 3059 c03d f6eb 793d
000003d0: 9d9a ddbd 1408 5bbd e37d 1dbd 04a8 1b3d
000003e0: 69f8 00bd 49b1 45bd 1071 b13c 3642 bf3d
000003f0: d0bf 35bd 1acf a7bc 9f5f 7e3d 68e1 bf3d
-0.11794513 -0.08286228 -0.027059423 0.036757797 -0.12228573 0.09968795 0.08192731 0.034762267
-0.009892064 -0.05201099 0.149662 0.00826521 -0.11219493 -0.0058621904 -0.032406587 0.0461265
-0.0680193 -0.050951235 -0.01203497 0.09437686 0.084400654 0.0027949235 0.12717766 0.09941832
-0.1108485 0.040384483 -0.12195612 0.09405091 0.032721672 -0.14930764 -0.065003924 -0.056747004
0.07275223 -0.051444303 -0.061306953 0.046418916 0.04914649 -0.12815227 0.0069562597 0.008662507
-0.1552621 0.00947785 -0.013269249 0.039172135 -0.04488335 0.013566243 0.03333392 0.08958138
-0.08431906 0.02729662 -0.044179708 -0.10495712 0.007908708 0.07484492 -0.18090896 -0.01612753
0.006703709 -0.07778757 0.06627242 0.038902316 -0.015230257 -0.02986446 -0.02685062 0.006697368
0.018785305 0.023846272 -0.101333104 0.029760918 -0.09240455 0.017879093 0.061968535 -0.16294774
0.11398512 0.14180596 -0.06401164 0.098735474 0.037185397 0.018052056 0.045652855 0.004147699
-0.03469048 -0.011579185 -0.13385564 0.026314598 -0.048893664 0.0061454745 -0.044693016 0.12939207
-0.054910216 -0.0146252075 0.05108037 -0.009965027 0.06117538 -0.069413744 -0.06110446 0.01704507
0.008726797 -0.12145185 0.030832319 0.07640175 -0.0510153 -0.09269661 -0.024410527 0.025745379
0.06860491 -0.11301581 -0.035122424 -0.04803171 -0.08377795 -0.049176503 0.10870943 0.12447738
-0.04475454 0.056541905 0.0030704143 0.10315617 0.029510003 0.046170574 0.063008495 0.10273091
0.05816362 0.022383615 -0.0057067093 -0.019968862 0.07425961 0.033947155 -0.04014736 -0.08196069
-0.03493659 -0.08092962 -0.14600807 -0.022602972 -0.06222078 -0.034543596 0.0067585283 0.045063775
-0.088579156 0.08121563 0.024540624 0.030787151 -0.15834367 -0.028653076 -0.0054219626 0.02459454
-0.047076683 0.07301092 0.0033628421 0.05089665 -0.00061287126 0.016981972 -0.084328406 0.0078118723
-0.018282313 -0.13894951 -0.1140927 0.03469689 -0.079328984 -0.04639883 -0.017434021 -0.058229752
0.007635029 0.04449675 -0.070923895 0.013842595 0.106844045 -0.13376158 0.026993468 0.056539986
0.15184724 -0.049484912 -0.15857005 0.032624405 -0.13660532 0.045676295 0.025580477 0.006195986
0.004825037 0.0005051359 -0.022113256 0.024198117 -0.089133166 -0.0028664449 0.07329098 0.05876447
-0.05686774 0.15327321 0.017706629 0.019727916 -0.07969337 -0.024401588 -0.06292482 0.06459937
0.08330329 0.056190323 -0.07874178 0.01786649 -0.01448872 0.035576943 0.022717213 0.031202815
-0.0805085 0.13526887 -0.019518955 0.09725095 0.04366335 0.075355895 0.08608314 0.08925631
-0.0069491356 -0.026958648 0.013605122 0.09590866 -0.026421586 -0.043653242 -0.008034418 0.011788214
0.0046608173 -0.06412623 0.03854259 0.0639055 0.036012523 -0.09443146 -0.05691976 0.059648544
-0.023051249 -0.07334927 -0.04893679 0.10181893 -0.09674149 0.043502234 -0.08915563 0.011702952
0.048852388 0.050479673 0.00049690495 0.08749375 0.025364676 0.059177507 0.10653429 -0.050528456
0.043799233 0.18186079 0.09392011 0.061016046 -0.10820506 -0.0534745 -0.038450133 0.03800203
-0.031486902 -0.048264775 0.021660358 0.093388006 -0.04437238 -0.020484496 0.06210291 0.09369165

base.cnn.7.bias f4 [64]
00000000: 867c 14bb 0d34 16bd 377c fcbc 8105 02bb
00000010: 0d6b 2abc 8287 50bd b47b 15bb 6eeb 56bc
00000020: 7848 edbb f36f 78bc 2147 01bd faf1 f5bc
00000030: 08b0 14bd 94ad 02bd 2e4f 153c 4201 07bd
00000040: dc8b 8fbb 4041 73bd 7ed8 b23b 4980 e0bc
00000050: bc26 b9bc ab2c 50bc 32f3 1abd 7d68 47bd
00000060: 4c47 6dbd e3e6 a4bc 3111 92bc b894 55bc
00000070: 880d 4fbd 76c2 aebc 076b 48bc ac2c 16bd
00000080: 5ebc 9fbc 61d7 38bd b8fb 913b be54 b1bc
00000090: 3a69 09bd ee95 1bbd c264 94bc f0fc 20bd
000000a0: 0094 a8bb f22c bebc 1026 95bc 4324 1ebd
000000b0: 27e9 15bd 5d38 47bd 3001 f1bc d61c 37bc
000000c0: 3910 c8bc 3e5a e8bc d625 4b3c 8820 06bd
000000d0: 8322 b8bc ed99 613c 2dc6 f0bc 442e 183c
000000e0: e0c0 f7bc ed31 403a 12b9 2cbd 2d2f 1dbd
000000f0: be12 86bc 55ae 893b 6daa 97bb 21f0 34bb
-0.002265723 -0.036670733 -0.030820949 -0.0019839706 -0.010401499 -0.05091048 -0.0022809329 -0.013117654
-0.007241305 -0.0151634095 -0.031561974 -0.03002261 -0.03630069 -0.03190382 0.009113116 -0.032960184
-0.004380686 -0.0593884 0.005457937 -0.027404921 -0.022601478 -0.012705962 -0.037829585 -0.048683632
-0.057929322 -0.020129627 -0.017830463 -0.013035946 -0.050550014 -0.02133296 -0.012232549 -0.036663696
-0.019499 -0.045127276 0.004455056 -0.021646854 -0.033547617 -0.03798478 -0.018114451 -0.03930372
-0.005144596 -0.023214791 -0.018206626 -0.0386088 -0.036599305 -0.048637737 -0.029419512 -0.011176309
-0.024421798 -0.028363343 0.0123991575 -0.032745868 -0.022477394 0.013769609 -0.029391373 0.009288374
-0.030243337 0.0007331658 -0.042168684 -0.03837507 -0.016366359 0.00420169 -0.0046284706 -0.0027608948

base.cnn.9.weight f4 [64]
00000000: f126 6c3f 2d7e 5a3f 930a 833f b425 893f
00000010: c35f 6d3f c705 883f 84bb 833f d2c4 603f
00000020: 7155 753f 840a 843f 3562 6f3f a7f1 7b3f
00000030: 7889 7c3f 64d0 873f 4def 773f 7e54 8d3f
00000040: 436b 7b3f 907b 8b3f ffbd 823f 3e82 793f
00000050: 73e8 803f c22f 853f 0cda 7b3f 9dc3 8a3f
00000060: e5ea 7c3f 3ef4 783f 2503 883f bd5d 843f
00000070: 9638 7c3f 9627 8c3f 7dca 873f 1bcc 8d3f
00000080: e3a3 713f ccab 8a3f 9fc2 733f 5899 803f
00000090: 26f8 8a3f ca7d 7a3f 3bde 853f 4fbd 813f
000000a0: 4568 853f f11d 703f d604 833f 7d28 853f
000000b0: 76a1 833f ed68 893f a7d2 7e3f f06b 773f
000000c0: a7c8 7f3f af9f 783f 19c1 723f 09cf 7d3f
000000d0: 8b61 7b3f e3e7 813f b324 813f 50c7 8c3f
000000e0: ed54 843f 7649 893f 92e4 833f d788 733f
000000f0: aaff 7f3f 2084 7e3f b64f 763f 8bc4 7e3f
0.9224692 0.8534878 1.0237602 1.0714631 0.92724246 1.0626763 1.02916 0.87800324
0.958335 1.0315709 0.9350923 0.9841561 0.9864726 1.0610471 0.9684952 1.104141
0.98210543 1.0897083 1.0214232 0.9746436 1.0070938 1.04052 0.9837959 1.0840946
0.9879592 0.97247684 1.062596 1.0341107 0.98523843 1.0949581 1.060867 1.1077913
0.94390696 1.0833678 0.95218843 1.0046797 1.0856979 0.9784819 1.0458444 1.0135897
1.0422446 0.93795687 1.0235851 1.0402981 1.0283649 1.0735146 0.9954018 0.96649075
0.99915546 0.9711866 0.94825894 0.99144036 0.98195714 1.0148891 1.0089325 1.0998325
1.0338417 1.0725543 1.0304129 0.95130676 0.9999949 0.99420357 0.9621538 0.9951865

base.cnn.9.bias f4 [64]
00000000: 0ce3 6fbc d877 d73d 6d53 f2ba 334c 48bc
00000010: b3eb cc3d e717 6fbd 9e9a c3bc 9508 f23d
00000020: 211a e13c f3c2 e83c bf92 9c3c 6cfb a4bb
00000030: f589 313c b032 88bd 7a08 03bc facd acbc
00000040: 05db 2639 00ce 99bd d4e0 793c 0633 dd3c
00000050: 197d 13bd e1d8 ce3c 7b1c 033d 5095 cfbd
00000060: e6b3 b93c 0c09 a1bc d34a 073c ecae 5e3c
00000070: 4966 c43c 3ccf 9bbc e14c 503c 058b cbbd
00000080: 939d 5d3d 3e31 78bd 254c 2cbc e530 153d
00000090: c40d 76bd 38d7 b23c b22a 0a3d 6aae 04bd
000000a0: 3687 dcbc 22ef 233d fa4c bebc 0f1d dc39
000000b0: 5f97 acbd df42 5fbd d3c1 483d 00e7 0a3d
000000c0: feab 87bd 408a fa3c eae3 293d f7cb 23bd
000000d0: af92 693d 5ab9 85bd c5ca 6c3b aaa0 30bd
000000e0: 6310 243d 47f6 a23d 4f40 8dbc c440 923d
000000f0: b39e bbbc 3b48 343d 80b4 8f3d f47f 12bd
-0.014641535 0.10520905 -0.0018487998 -0.012225199 0.100058936 -0.058372404 -0.023877438 0.11818043
0.02747828 0.028413272 0.019112943 -0.0050348546 0.010836114 -0.06650293 -0.007997626 -0.021094311
0.00015912585 -0.075099945 0.015251357 0.027001869 -0.036007974 0.0252499 0.032009583 -0.10135901
0.02266879 -0.019657634 0.008257586 0.013591509 0.023974555 -0.019019715 0.012713642 -0.09938625
0.054105353 -0.060593836 -0.010516201 0.036423583 -0.06007172 0.02183114 0.033732124 -0.032392897
-0.026919942 0.040022977 -0.023230065 0.0004198332 -0.08427309 -0.054507133 0.04901297 0.033911705
-0.06624602 0.0305835 0.04147712 -0.039989438 0.057024654 -0.06529494 0.0036131602 -0.04312197
0.04005469 0.0795713 -0.017242579 0.07141259 -0.022902822 0.044014197 0.070168495 -0.035766557

base.cnn.10.weight f4 [64, 64]
00000000: 798d f7be 8206 4d3d c1d7 b3be 34df 03bd
00000010: 2e26 823d 9ae1 d53d 38c0 64bd b965 07be
00000020: 5048 a53e b58c bf3e 70b8 2e3d 5c04 be3e
00000030: fd6c 34be 83c0 05bd c793 88be aae5 2abd
00000040: ae64 883d 9ca0 4ebe ffe5 1e3e ce0c dcbd
00000050: 959d 5f3d 4d9e c53d 883c 133e 4292 debe
00000060: 9d06 843d dfc9 4ebd 690b 163e e81e 8c3e
00000070: 4612 4bbe d673 7cbc a95d 823e cc6e 17be
00000080: f241 123e 7a06 0fbd 0dca 63be c2d4 963b
00000090: 13dd cf3e 8958 113e f85e b53d 51a9 68be
000000a0: 47a5 823e d2fd 92bc ffda 20be 6e64 a43d
000000b0: 3492 b53d 01cc 13be ca33 48be 11b9 a9bd
000000c0: e605 94be 655d 71bd 0ac1 b8be a2fd c13d
000000d0: 625e df3d 4a29 3f3d 8885 423d 9366 6dbd
000000e0: 44ca a2bd 194d 433e b6d9 933e 0368 0ebe
000000f0: fe7f a23e e4f3 81bd 6c82 5cbe d069 5ebc
00000100: e626 4d3b 5d64 c6bd 7122 383d 1b4b 373e
00000110: bbb9 26be 0d12 633e ba6c 92be 9d21 33be
00000120: bdf2 7bbe f910 f83d 7e3d 273e dc41 88bd
00000130: 0572 c03e 7741 d1bd e56f 82bd 6570 71bd
00000140: 83d3 613d 3b55 2cbe 1844 53be 33f2 5b3e
00000150: cf15 893e 5c7c 74bd c90d 62bd e68d 903e
00000160: 177a abbe bdc9 503e f2d5 05be 26db efbd
00000170: f931 9d3d da1b ac3e a9eb 63be f516 95bd
00000180: 07ea 0abe e7c2 853e b9ea 2abe 0bec fc3e
00000190: d4da 093e 6006 1fbe 5739 d83c f121 b7bc
000001a0: 0f84 253e 38c2 ac3b 1cf1 9e3e 7392 c33e
000001b0: 4fe3 01be 5100 56bd 6e67 603d a5d2 843c
000001c0: ce6d 72bd 7bf0 2ebe a8d3 5aba 6b40 d2bc
000001d0: c6a5 8cbd ec6b 383e efe4 d1bd 2801 00be
000001e0: 0597 0ebe f77d a0bd 4a04 c13e a0cc b33d
000001f0: 9c20 693e 1394 a2be 2070 bfbd 72c0 1abe
00000200: eb51 87ba dda3 5f3d 0542 9e3c 5d87 39bd
00000210: f708 fe3d 03aa 963d 00ca 533d 84bb babd
00000220: 2e1d e6bd 6120 1ebe 9a17 0bbd 22cd 82be
00000230: 5d97 c8bd 881c a13e 2d22 46bd 8783 4dbe
00000240: 72af 273d bdaf 333e 227e 9ebe 36b1 303e
00000250: 561b 0f3f ea4a 0cbe 31d2 44be 1c6a c73d
00000260: f738 673e 1d52 e8bc 88db 19bc ef92 0e3c
00000270: 2cf1 4abd fb21 87be 93e5 293e a2a3 77be
00000280: 87ea b93e 3883 f83d afc3 133e 1af9 abbd
00000290: 2a25 7d3d d52a 753d 3f9b afbd 17fd 20bc
000002a0: 5fb6 553e e211 4cbe 2472 823e be06 223f
000002b0: 7f70 883d a90f 4e3e 7d89 69be 8964 b4bc
000002c0: 2d0c 99be cc68 8ebd fd4f 9fbe 574a c1bd
000002d0: b8d0 b9bd ab68 18be f6f8 c0be b9fe 7b3e
000002e0: 9625 8bbe 42aa a13d f88f 0c3e f96f 143e
000002f0: 705d 1cbd 8cfc b43d 1183 673e 7468 053e
00000300: 1ace 74be 4139 85be ce8c 233e 70f1 223f
00000310: 1b29 a63b a075 65bd d14b 83bd 6467 583c
00000320: de97 c03e 5987 873d 40fa 503e c957 593c
00000330: 164d 163d 32fe 243e 35a0 cabd d12f 243d
00000340: fc57 0e3d 0851 cfbd 541a 3a3c 99e2 f5bb
00000350: c4c8 b43e 8030 88be 9518 99bc cd6a ce3e
00000360: 4674 7abd ab4b 2fbd 16f7 99be 5949 fc3a
00000370: 926c 7c3e 4faf cfbc 84b8 fcbd 230f c03d
00000380: eb0d 263e a037 bb3e d31c 443c 683b e93d
00000390: 9454 84be f56d 483e d43e 16bd e9f3 4e3e
000003a0: e68c c3bd d1f9 7ebe fa71 8abe 8e28 50bd
000003b0: b412 dc3e 91e0 8f3e ecef ab3d 19e7 08bd
000003c0: a2bb 9cbd b529 8dbd 7434 a1bd a19c 03be
000003d0: 1acb c4be 159b 59be 286c cb3e cdba 77bd
000003e0: 1130 c23c b60e d43d d60a be3e 1a53 7c3e
000003f0: cfca 963e 835b 23bd 31e2 c23d b9e5 a13d
-0.48350123 0.050055034 -0.35125545 -0.032195285 0.063549384 0.10443421 -0.055847377 -0.13222398
0.32281733 0.37412038 0.042656362 0.371127 -0.176197 -0.032654297 -0.26675245 -0.04172293
0.06659828 -0.20178455 0.15517424 -0.1074463 0.05459364 0.09649334 0.1437856 -0.4347096
0.06446574 -0.050485488 0.1465279 0.2736733 -0.1983119 -0.015408477 0.25462082 -0.1478836
0.14282969 -0.034918286 -0.22245045 0.0046029994 0.40598354 0.1419393 0.088560045 -0.22720839
0.25516722 -0.017943297 -0.1570854 0.08026968 0.08865777 -0.1443329 -0.19551006 -0.08287252
-0.2891075 -0.05892696 -0.36084777 0.09472205 0.10906674 0.046670236 0.047490627 -0.05795915
-0.07948735 0.19072379 0.28877038 -0.13906865 0.31738275 -0.063453466 -0.21534127 -0.013575032
0.0031303703 -0.096871115 0.04495472 0.17899744 -0.16281788 0.22174855 -0.28598577 -0.17493291
-0.24604316 0.12112612 0.16332051 -0.06653187 0.3758699 -0.102175646 -0.063689984 -0.05894508
0.055133354 -0.16829388 -0.20631444 0.2147911 0.2677445 -0.05968891 -0.055188928 0.2823326
-0.33491585 0.20389457 -0.13069895 -0.11711721 0.07675547 0.33615 -0.22257866 -0.07279769
-0.13565837 0.2612526 -0.16691102 0.49398836 0.13462383 -0.15529776 0.02639453 -0.022355052
0.16163658 0.005272176 0.31043327 0.3819767 -0.12684368 -0.052246395 0.05478614 0.016213724
-0.05918675 -0.17083924 -0.0008347579 -0.025665483 -0.06867556 0.18009919 -0.10248744 -0.12500441
-0.13924797 -0.07836526 0.37698585 0.087792635 0.22766346 -0.31753597 -0.09347558 -0.15112475
-0.0010324096 0.05459963 0.01931859 -0.045295108 0.12404054 0.07356646 0.051706314 -0.09117797
-0.11236034 -0.15442039 -0.033958055 -0.2554713 -0.09794495 0.3146708 -0.048372436 -0.20069705
0.040938802 0.17547508 -0.30955607 0.172551 0.55901086 -0.13700452 -0.19220807 0.09737036
0.22580324 -0.028359467 -0.009390719 0.008702024 -0.049546406 -0.26393113 0.16591482 -0.24183515
0.36311743 0.12134403 0.14430116 -0.08397122 0.06180302 0.0598553 -0.08574533 -0.009825966
0.2087035 -0.19928697 0.25477707 0.6329154 0.06662082 0.20123161 -0.22806354 -0.022020595
-0.29892102 -0.06953582 -0.31115714 -0.09438007 -0.09073013 -0.14883678 -0.37689942 0.24608888
-0.27177113 0.07893802 0.13726795 0.14495839 -0.038175046 0.08837232 0.22608592 0.13028127
-0.23906747 -0.26020244 0.15971681 0.63649654 0.005070818 -0.05602038 -0.06410945 0.013208244
0.37615865 0.066176124 0.20407963 0.0132655585 0.03669461 0.16112593 -0.09893838 0.040084664
0.034751877 -0.10122877 0.011358816 -0.007503819 0.35309422 -0.26599503 -0.01868848 0.40315858
-0.061146043 -0.042796772 -0.30071324 0.0019247934 0.24650791 -0.025352148 -0.12339881 0.09377887
0.16216247 0.36565876 0.011969763 0.11388284 -0.25845778 0.19573195 -0.03668101 0.20210232
-0.095483586 -0.24899985 -0.27040082 -0.050819926 0.4298302 0.28101018 0.08395371 -0.033423517
-0.076529756 -0.068927206 -0.07871333 -0.12852718 -0.38436204 -0.21250565 0.39730954 -0.06048088
0.02370456 0.103543684 0.37117642 0.24641076 0.29451606 -0.039882194 0.09515799 0.07905144

base.cnn.10.bias f4 [64]
00000000: 0adf 953c e785 e5bd 5819 8abc cad1 6cbd
00000010: ae78 06be b8d7 c2bc c412 cabc ec12 b9bc
00000020: c8ca c4bd 9ad2 c2bd 2e65 bebd a73e 2ebd
00000030: 4a56 1cbc 6f6d b7bc 2ffa 89bd 2685 9dbc
00000040: e6af 19be 660a 613d 08bf ffbc 9584 2fbc
00000050: 9837 a3bd 4966 01bd 38b8 313d 3db3 cfbd
00000060: 8ceb 433b 24e8 61bc 1cab b2bc aa07 f3bd
00000070: 4c31 9dbd 95d4 69bb 3f61 a4bb 051a febb
00000080: a184 65bd 4c08 2bbe 9859 c5bd 15c2 563b
00000090: 5e72 0ebd a380 10be 2ee2 a53c 7ea9 bfbd
000000a0: 3217 54bd 7e35 bfbc d42e a9bc e06f 0abd
000000b0: 76ff a8bd 074a 733c 505f cdbd 1f35 c7bc
000000c0: e5bf 27bd 661a b8bc 34ad 2c3c d516 9abd
000000d0: b382 a4ba a601 2abc d070 5dbd 9668 f4bd
000000e0: d975 a0bd 287f 6e3d fe23 78bd c19d cdbd
000000f0: c7be 31bd 4b0e 98bd 2da9 1bbc 76a0 5cbd
0.01829483 -0.112071805 -0.016857788 -0.057817258 -0.13131973 -0.023784503 -0.024667151 -0.02259203
-0.0960899 -0.09512825 -0.09296642 -0.04254022 -0.009542057 -0.02239105 -0.06737172 -0.01922853
-0.15008506 0.054941557 -0.03121902 -0.010712762 -0.07969588 -0.031591687 0.043388575 -0.10141609
0.0029895036 -0.013788257 -0.021810107 -0.11866696 -0.07675418 -0.0035679687 -0.0050164755 -0.0077545666
-0.056034688 -0.16702384 -0.09636229 0.003276949 -0.034777038 -0.14111571 0.020249452 -0.093585
-0.051779933 -0.023340937 -0.020652212 -0.0337981 -0.0825185 0.014849192 -0.10027945 -0.024317322
-0.04095449 -0.022473525 0.010539342 -0.07523886 -0.0012551158 -0.01037637 -0.054062665 -0.11934011
-0.07834978 0.058226734 -0.0605812 -0.10039855 -0.04339483 -0.07424601 -0.009500784 -0.053863965

base.cnn.12.weight f4 [64]
00000000: 398c 8a3f 4f28 6a3f e453 8f3f 3662 913f
00000010: b6bd 863f 7d12 6f3f 4862 823f a2e4 883f
00000020: 3d18 883f 8a4e 6a3f 9ddd 653f 3a18 8a3f
00000030: d102 793f 2740 963f 0a72 7e3f 8df1 733f
00000040: 1b6c 6f3f 1be0 8c3f 60a0 813f 396a 603f
00000050: 71fa 7d3f 2f42 7c3f 7492 843f 5b55 7e3f
00000060: 2266 7b3f a913 6d3f ba30 8e3f 1053 633f
00000070: 6feb 833f c7e1 783f 9c57 5c3f 6f79 783f
00000080: 5cd9 813f a898 663f 154b 633f 9f44 813f
00000090: dc54 853f 3f0d 843f 2214 843f 54a4 823f
000000a0: e179 6d3f 6b2e 813f 8954 7f3f 1c62 8f3f
000000b0: 292b 793f afb6 843f 189f 5c3f 91ea 6d3f
000000c0: d203 7f3f 20ba 883f 7795 683f c626 7d3f
000000d0: e88f 823f f40e 843f 95cb 8d3f f9f5 783f
000000e0: b74d 8b3f fd8d 763f 7506 813f e550 7b3f
000000f0: 0fc6 883f 03e0 813f 67c4 823f 5936 853f
1.0824043 0.91467756 1.1197476 1.1358097 1.0526645 0.93387586 1.0186243 1.0694773
1.0632397 0.9152609 0.8979128 1.0788643 0.9726992 1.1738328 0.9939276 0.9529045
0.9352433 1.1005892 1.0127068 0.8766208 0.9921027 0.9853849 1.0357194 0.9934899
0.9820272 0.92608124 1.110862 0.8879862 1.0306224 0.9721951 0.8607118 0.9706029
1.0144458 0.90076685 0.8878644 1.0099066 1.0416522 1.0316542 1.0318644 1.0206399
0.927641 1.0092291 0.99738365 1.1201816 0.9733148 1.0368251 0.8618026 0.92936045
0.99615204 1.0681801 0.90853065 0.9888729 1.0200167 1.0317063 1.1077753 0.97250324
1.0883092 0.96310407 1.0080096 0.9817031 1.0685443 1.0146488 1.0216187 1.040721

base.cnn.12.bias f4 [64]
00000000: beea 193d 720e af3d 4e0d 51bd 90f2 e7bd
00000010: 9167 4bbd 2d16 1cbd d1a1 463c 71fa 9b3c
00000020: 883e 19bc aaf6 ddbc 847b c9ba 440b 47bc
00000030: fe73 8cbd 7cb6 9cbd 9783 c9bd d61c 4bbd
00000040: cb6e 69bd 91a7 d23c f02c a13c 4544 2a3d
00000050: ca81 e03c b668 82bc 50dd f93c 76bb 5a3d
00000060: 2c4a 093d aa7e 8b3c 6102 63bd 2f8a 2d3d
00000070: 680f 61bc 2827 6d3c 9923 9b3d 90eb a6ba
00000080: a845 12bd 2308 0e3e 5769 1f3c 2e1c 0e3d
00000090: 6e35 7bbd 251b 86bd 1e12 b3bc 4936 b6bc
000000a0: 9b86 7e3d bde9 8cbd 06d8 2c3d bec6 4abd
000000b0: ea82 993c 6724 823c 30e3 82bb 0916 0d3b
000000c0: 5e93 ab3b b5de c03b 4142 92bc b042 27bd
000000d0: 715e 98bc a3c9 8dbd 79e3 9e3c 4c26 d13c
000000e0: 0241 2e3b 4c90 5e3d a4ed eabc 534a 4e3d
000000f0: eb02 37bd a6c8 1bbb 9165 30bc 55c5 183c
0.037577383 0.08547677 -0.05103808 -0.11325562 -0.049659315 -0.038107086 0.012123541 0.019040318
-0.0093532875 -0.027095158 -0.0015371894 -0.012148682 -0.06858061 -0.07651994 -0.09839552 -0.049588047
-0.056990426 0.025714668 0.019674748 0.041569013 0.027405638 -0.01591907 0.030501038 0.053401433
0.033518 0.017028172 -0.05542219 0.04236811 -0.013736583 0.014474668 0.07575149 -0.0012734998
-0.03571096 0.13870291 0.009729705 0.034694843 -0.06133025 -0.06548146 -0.021859225 -0.022242682
0.06214009 -0.068805195 0.042198204 -0.04950594 0.018739183 0.015886499 -0.003994368 0.0021528027
0.0052360734 0.0058859237 -0.017853858 -0.040835083 -0.01859972 -0.06923225 0.019395577 0.025530957
0.002658904 0.05433683 -0.028677769 0.05036385 -0.044680517 -0.0023770719 -0.010766403 0.009324391

base.cnn.13.weight f4 [64, 64]
00000000: 10ad 623d 20e0 6ebd 6b77 3fbe a73f 2f3e
00000010: a216 18be d7dc 7d3e a26d 37be 2a79 d63d
00000020: 94a4 f43d 0a43 2c3e 0295 543e b1c0 923e
00000030: a00e 01be dcf1 203e dba4 e0bc 88d9 243e
00000040: 1e45 32be 4723 753d cb74 b63d c28a 7b3e
00000050: d535 dabc aa32 6abe 9893 82be c77a 6abe
00000060: ab72 1fbc e339 0bbe 65b7 863e 4784 1c3e
00000070: 62fb 95be 54c9 21be 5771 26bf 5f92 4b3d
00000080: cc82 613e e662 aa3e 8b6b ca3d 55f3 873e
00000090: 64a6 153e a18f ba3c f579 2dbd 377d c73d
000000a0: f3d5 03be c5cf da3e 3b17 24bd 1632 743c
000000b0: fe1e 343e 4430 14be b92a 90bd 41fd d8bd
000000c0: b6f5 683c fb90 99be 0abf 0cbe 11e1 ca3e
000000d0: a9e3 c13c 9007 1abe 9b40 2ebb 77f7 36bd
000000e0: b61f 1abe e5bd 0bbd 1983 6f3e afa9 993e
000000f0: 5c94 063e c0fd 4dbe fdd9 3f3e b865 f8bd
00000100: a03f 4c3d 27f2 193e 3d42 d13d fda4 c33e
00000110: e96a 833e 4a42 1fbe c155 bd3d 9b4e 3cbd
00000120: f704 dc3d 7670 f4bd 6e62 ec3d 57a8 973e
00000130: 0556 60bd b1a7 d63e e326 29bd 256e 053e
00000140: dde6 99bc 57b9 493d 8c26 8cbe 46b8 7fbc
00000150: 96b7 d3bd 37cb 623e 29d3 2ebe 7d9a 803d
00000160: 64fb 89bd 3955 df3d 63e4 7b3e d3b9 35be
00000170: e7d0 30be 3045 8bbe c477 7139 132d 843d
00000180: 51ae b33c f01e 593e 4eaf 9f3d f3fb 813b
00000190: db4f 1a3e 5b14 26be 96c4 2bba 5673 b0bd
000001a0: 3d0e 6abe 0328 913c 48ad 95bd e629 d1be
000001b0: 912f 50bd 1272 c3bd 73b9 143e 645e d73d
000001c0: b05d 2f3d 00c9 af3e bed3 e63d 75fb 4cbe
000001d0: b2be 1abc 88b7 dc3b 4a1a f6be 1ea9 1abe
000001e0: 738b a73c 8fa2 3bbe 5ecc bebd 3b72 0f3e
000001f0: ee63 573d 7ba6 653d 1365 0abf 52ba 59be
00000200: e9d8 5d3d e1e7 19be c023 8f3e f980 7e3c
00000210: ba36 75bd 069c 45bd 3ebd 933d 8635 fa3d
00000220: 6a6e 66bb 2eed 803e a958 af3c ead4 b33e
00000230: b369 7f3e 5d6d 9f3e 8dda 8abd 4bfa 7b3e
00000240: 3ea5 41be 1a1e 153e 00a0 923e 9ba5 3a3e
00000250: 61b0 3a3e 1dd2 9e3d 5873 27be 344e a73e
00000260: 9f5e d53d ce0d 8a3e d931 963e 6dd9 733e
00000270: eeea 093d f4a0 183e ea51 ecbd 0052 413e
00000280: e733 82be 0136 12bd fd58 773e 5145 873e
00000290: 4690 d2bd c7d0 953e 0b9b a4bc 04d0 07bd
000002a0: 2d20 ed3d 9b26 1ebd 9d17 543d ed47 b43d
000002b0: 409e f03b ac06 2c3e 203d 823e d647 57bd
000002c0: 8a3b 24be 30bf 973e 3275 80bc a7c7 aabd
000002d0: 62b1 aa3d be10 6b3e 4c95 aa3d 351d 733e
000002e0: f813 ca3e 67b6 09be a13e 8a3e d856 45be
000002f0: 8fae 0f3e 19cb 0a3e 3a30 f93c fc93 d8bd
00000300: b9b7 cd3e a124 4dbe bad0 7ebc 5153 5c3e
00000310: db2c 98be 5f1d 89bd b5e2 bdbe 617b 89bd
00000320: 4a99 3c3e 844c d7be b888 e93c a678 8fb9
00000330: 339b 173e bcb8 d13d c341 053f 2a13 3dbd
00000340: a5c8 393d e367 5ebd 0571 a8be 5e8a 163e
00000350: ddd1 6f3e 9b9d fb3d b559 063e 3840 633d
00000360: 54b4 e53d 856f 78be aeff 093e 569d 673e
00000370: c517 d0bd 240a 3ebd 72e9 433d ec6b f63d
00000380: ae2b 9b3d 14e5 8e3d d868 e0bd 7cc3 fb3d
00000390: 8982 1a3e b3e7 0ebe 9210 303e 0ddd 203e
000003a0: ce62 bfbd db99 49be 216a 5c3e 4fc9 27bd
000003b0: 639b 85be 14e7 653d 1f2c 50bd b1af 11bb
000003c0: ecb9 bebe 71e5 a1be b668 f23d 0a3a 723d
000003d0: c56d f7bd 30df cb3d 6d1e a63e 5b94 08bd
000003e0: 5613 0ebd 8b4e 173c fc47 063e 5714 833d
000003f0: 9e24 b23d 5f39 e53e 4c4f e7bd 1cc0 1ebd
0.055340827 -0.05831921 -0.18697898 0.17114125 -0.14852384 0.24791275 -0.17912915 0.10472329
0.11945453 0.16822448 0.20759967 0.28662637 -0.12603235 0.15717262 -0.02742236 0.16098607
-0.17409179 0.059848096 0.08908995 0.2456465 -0.026636997 -0.2287089 -0.2550323 -0.22898398
-0.009731929 -0.13596301 0.26311794 0.15284835 -0.29293352 -0.15799457 -0.6501669 0.049700137
0.22022551 0.3327858 0.098837934 0.26552835 0.14614254 0.022773566 -0.042352635 0.0974068
-0.12874584 0.4273664 -0.040061217 0.01490452 0.17589948 -0.14471537 -0.07039399 -0.10595179
0.014218738 -0.29993424 -0.1374475 0.39624837 0.023668127 -0.15041947 -0.00265888 -0.044669595
-0.1505116 -0.034116644 0.23389854 0.3001227 0.13142532 -0.20116329 0.187355 -0.12128776
0.049865365 0.1503378 0.10217712 0.38211814 0.25667503 -0.15552631 0.09244872 -0.0459734
0.107431345 -0.11935513 0.115422115 0.2962062 -0.054769535 0.41924813 -0.04129685 0.13030298
-0.018786842 0.04924902 -0.2737316 -0.015607899 -0.103377506 0.22147833 -0.17072739 0.06279466
-0.06737402 0.10904927 0.24598841 -0.17746668 -0.1726719 -0.27201223 0.00023028167 0.0645391
0.021933706 0.21203208 0.077971086 0.0039668023 0.15069525 -0.16218702 -0.0006552426 -0.086157486
-0.22856994 0.017719274 -0.073084414 -0.40852278 -0.050826613 -0.095432416 0.14523868 0.105160505
0.042813957 0.34333038 0.11270855 -0.20017798 -0.009444879 0.006735746 -0.48066932 -0.15103576
0.020452237 -0.1832373 -0.09316324 0.14008419 0.052585535 0.05606697 -0.54060477 -0.21262482
0.05416194 -0.15029861 0.27956963 0.015533679 -0.059866644 -0.0482445 0.072138295 0.1221724
-0.0035161027 0.25180954 0.021404581 0.35123378 0.24942665 0.31138125 -0.067799665 0.24607198
-0.18910691 0.14562264 0.28637695 0.18227236 0.18231346 0.0775492 -0.16352594 0.32676852
0.10418438 0.26963657 0.29334906 0.2381341 0.033671312 0.14905149 -0.11539061 0.18878937
-0.25430223 -0.035696033 0.2415504 0.26420072 -0.10281424 0.29260847 -0.020093461 -0.033157364
0.11578403 -0.038611036 0.051780332 0.08802781 0.0073430836 0.1679942 0.2543726 -0.052558742
-0.16038337 0.29638052 -0.015680883 -0.08338862 0.08334614 0.22955605 0.08329257 0.2374161
0.3946836 -0.13448487 0.27000907 -0.1927141 0.14031433 0.13554038 0.030418504 -0.10575101
0.40179232 -0.20033504 -0.015552694 0.21516158 -0.29721722 -0.06695055 -0.37087026 -0.06712986
0.1841785 -0.42050564 0.028507575 -0.00027364976 0.14805298 0.102403134 0.5205347 -0.046160854
0.045357365 -0.054298293 -0.32898727 0.1470122 0.234199 0.1228592 0.13120158 0.055481166
0.112160355 -0.24261291 0.1347644 0.22618613 -0.10160784 -0.04639639 0.047830053 0.12032303
0.075766906 0.06977287 -0.10957497 0.12293145 0.15088858 -0.13955574 0.17193821 0.15709324
-0.093450174 -0.19687597 0.2152486 -0.040963467 -0.26095113 0.056128576 -0.050823327 -0.0022229964
-0.37251222 -0.31620362 0.11836378 0.05913738 -0.12081484 0.09954679 0.32445088 -0.033344608
-0.03468641 0.009235035 0.13113397 0.06400364 0.086983904 0.44770333 -0.112944216 -0.03875743
