CRL_human_AI_overcooked/human_models/model_unident_open/actor_best_r11.pt (torch, 590163 bytes, 20 tensors)

base.cnn.0.weight f4 [32, 26, 3, 3]
0	0xbd667932	-0.056267925
1	0xbe8da854	-0.27667487
2	0xbdf7c4c9	-0.12098081
3	0x3e183e3d	0.14867492
4	0x3deda290	0.11603272
5	0xbe376d67	-0.17912827
6	0x3e0f5d90	0.14000535
7	0x3e033043	0.12811379
8	0xbe0c72c2	-0.13715652
9	0xbdcb4014	-0.09924331
10	0x3d7b7844	0.06139399
11	0xbcd06ec7	-0.025443448
12	0x3de0728f	0.1095935
13	0xbdfef87f	-0.124497406
14	0x3e37a8bc	0.17935461
15	0x3d92ff5b	0.071776114
16	0xbcbd4715	-0.023105184
17	0x3d990187	0.074709944
18	0xbe32abd3	-0.17448358
19	0xbdcd8e81	-0.10036946
20	0xbe58d0ae	-0.21173355
21	0x3dc66e48	0.09689003
22	0x3e01411f	0.12622498
23	0x3dcdc93e	0.100481495
24	0x3ca5bb53	0.020230925
25	0xbbca7351	-0.0061782976
26	0x3b31d0e0	0.0027132556
27	0x3e7bed67	0.2460228
28	0xbd35f677	-0.0444245
29	0x3cf96190	0.03044203
30	0xbb0d8163	-0.0021592013
31	0xbd79fe91	-0.06103379
32	0xbd196879	-0.03745315
33	0x3e0173ab	0.1264178
34	0xbd921229	-0.0713237
35	0x3c52289a	0.012827063
36	0xbd9238f5	-0.0713977
37	0x3c031241	0.007999958
38	0x3c0c7ba0	0.008574396
39	0xbe1f1f7c	-0.15539354
40	0x3e4e940e	0.20173666
41	0xbe03033d	-0.12794204
42	0x3d952f79	0.07284445
43	0x3e89cdd3	0.26914844
44	0x3e01fcfa	0.12694159
45	0x3dbbb30a	0.09165008
46	0xbc7ccf14	-0.015430231
47	0x3da33d69	0.079706974
48	0x3e054199	0.13013305
49	0x3dc2fd59	0.095209785
50	0xbc501ac3	-0.012701693
51	0xbc822775	-0.015887955
52	0xbdc01c0e	-0.09380351
53	0xbdde0e84	-0.108426124
54	0x3b3fbc6e	0.00292566
55	0x3d8aff6b	0.06786998
56	0x3cd1fe3c	0.025633924
57	0x3d2eea8b	0.042704146
58	0x3c83dbb8	0.016095981
59	0x3d235d4a	0.03988389
60	0x3e0bfa43	0.13669686
61	0x3db48899	0.088151164
62	0xbd5dc4a5	-0.054142613
63	0xbda70697	-0.08155554
64	0x3d6468ee	0.05576413
65	0xbda4ab27	-0.08040457
66	0x3de6aa16	0.1126291
67	0x3c89e927	0.016834809
68	0xbe651331	-0.22370602
69	0xbe09cf25	-0.13457926
70	0xbdba5948	-0.0909906
71	0x3e25700b	0.16156022
72	0xbe1a2138	-0.15051734
73	0xbe3a594d	-0.18198128
74	0x3d8047bd	0.06263683
75	0x3bcea99e	0.006306841
76	0xbe788ef1	-0.24273278
77	0x3dc606c2	0.09669258
78	0xbe3e09ae	-0.1855838
79	0xbcb3894e	-0.021916058
80	0x3e5c2a61	0.21500541
81	0x3e0b4051	0.13598754
82	0xbce1f99f	-0.027584849
83	0xbd081636	-0.033224307
84	0xbe44a91e	-0.19205138
85	0xbe08aee6	-0.13347968
86	0xbe072d6c	-0.13200921
87	0x3e17f527	0.14839612
88	0x3d2a0881	0.041512016
89	0xbdb1e05f	-0.086853735
90	0x3d3bed2b	0.045880478
91	0x3ccdf3bd	0.025140638
92	0x3e367882	0.17819408
93	0x3c44b1d1	0.012005285
94	0xbd67c626	-0.056585453
95	0x3d4e7d03	0.05041219
96	0x3db50c92	0.08840288
97	0xbdc72223	-0.09723308
98	0xbd89415a	-0.06701918
99	0x3c70e8ca	0.014703939
100	0x3e285407	0.16438304
101	0xbd6a4ef9	-0.05720422
102	0xbdf616b8	-0.12016052
103	0xbdf1190e	-0.11772357
104	0x3e06dfb3	0.13171272
105	0x3d5c076c	0.053718016
106	0x3e1326af	0.14370225
107	0x3c138a4d	0.009005141
108	0xbdabc6af	-0.08387505
109	0x3c46f27b	0.012142773
110	0x3e07755f	0.13228367
111	0xbc761fe1	-0.015022249
112	0xbb1a7623	-0.002356895
113	0x3c825370	0.015908927
114	0xbd9a5404	-0.07535556
115	0x3c51213a	0.0127642695
116	0x3d3c2a1e	0.045938604
117	0xbe1d2145	-0.15344723
118	0xbe0aa5c9	-0.13539805
119	0xbd496779	-0.049170945
120	0x3d57e253	0.052706074
121	0xbb0fdfbd	-0.0021953427
122	0xbd19db62	-0.037562735
123	0xbb3b53c5	-0.0028583866
124	0xbe126bf4	-0.14298993
125	0x3cac5979	0.021038758
126	0xbd88832d	-0.06665645
127	0x3dc7449d	0.09729884
128	0x3ceea449	0.029131072
129	0x3daf2bf5	0.08553306
130	0xbdd1c25f	-0.102421515
131	0x3e120fe9	0.14263882
132	0xbd027407	-0.031848934
133	0x3c1209b9	0.008913451
134	0x3d5367c1	0.05161262
135	0x3d020f21	0.03175271
136	0xbe257a54	-0.16159946
137	0xbe08b8b6	-0.13351712
138	0xbd945936	-0.07243578
139	0x3d839df5	0.06426612
140	0x3dd59d7e	0.1043043
141	0x3c119d5f	0.008887618
142	0x3b56263a	0.0032676593
143	0xbe2d25b1	-0.1690891
144	0xbd873b3f	-0.06603097
145	0x3e2e1d9a	0.1700348
146	0xbda13380	-0.07871151
147	0xbc1a6f73	-0.009425986
148	0x3c52c384	0.012863997
149	0xbd5af374	-0.05345483
150	0xbde54622	-0.111950174
151	0x3db5d0b6	0.08877699
152	0xbd9d8503	-0.076913856
153	0x3cff963c	0.031199567
154	0xbe0c661c	-0.13710827
155	0xbe8625bc	-0.26200664
156	0x3b0d8f3e	0.0021600272
157	0x3da24d86	0.07924943
158	0x3d189459	0.03725085
159	0x3d4465b3	0.04794855
160	0xbd911f28	-0.07086021
161	0x3c94036c	0.018068038
162	0x3d0edd2d	0.0348789
163	0xbd2f2850	-0.042763054
164	0xbcd4a070	-0.025955409
165	0x3dee41f2	0.11633672
166	0x3d969c6a	0.07354052
167	0xbe51f3cd	-0.20503159
168	0xbdcc181f	-0.09965538
169	0x3cf283d6	0.02960388
170	0x3df9d704	0.12199214
171	0x3e97c7fd	0.29644766
172	0xbd82fcea	-0.06395896
173	0x3c73308f	0.01484312
174	0x3d9de889	0.07710368
175	0xbd9fa72d	-0.07795558
176	0xb90371a8	-0.00012535474
177	0xbe197097	-0.14984356
178	0x3d581452	0.052753754
179	0xbd1685e5	-0.036748786
180	0xbd3497de	-0.044090144
181	0x3d0827dd	0.03324114
182	0xbcbb7813	-0.022884404
183	0xbcf3dcd0	-0.029768378
184	0xbdcfa907	-0.10139661
185	0x3c5f2711	0.013620154
186	0x3d5d8e34	0.054090694
187	0x3d36bd97	0.0446144
188	0x3d2c5d10	0.04208094
189	0x3a8648cc	0.0010245084
190	0xbd5aea0e	-0.05344587
191	0x3cd30895	0.025760928
192	0xbb9778c3	-0.00462255
193	0x3c44079e	0.011964707
194	0xbd972967	-0.07380944
195	0x3dec1325	0.11527089
196	0xbd965388	-0.07340151
197	0xbe02e5b3	-0.12782936
198	0xbd9414d6	-0.07230537
199	0xbda5e425	-0.08100156
200	0xbd2f44b6	-0.042790137
201	0x3c2e9540	0.010655701
202	0xbe20659d	-0.15663762
203	0xbc896479	-0.016771542
204	0x3df08d78	0.11745733
205	0xbdbb7a05	-0.09154133
206	0x3dc209ed	0.094745494
207	0x3e8165fa	0.25273114
208	0xbd17373a	-0.036917903
209	0xbe4b8b0f	-0.19877265
210	0xbe86f44e	-0.26358265
211	0xbd8416fb	-0.06449696
212	0xbe1cfe3c	-0.15331358
213	0x3d9c602f	0.07635533
214	0x3e53dcac	0.20689648
215	0xbded76eb	-0.115949474
216	0x3df71166	0.12063865
217	0xbe4a6cd4	-0.19768077
218	0xbdf25eaf	-0.11834466
219	0xbdde72f5	-0.1086177
220	0xbc890d93	-0.016730106
221	0xbda8d1e7	-0.08243161
222	0xbde7c909	-0.11317641
223	0xbdf34c32	-0.118797675
224	0xbdf00fac	-0.11721739
225	0x3a98c089	0.001165406
226	0x3d4016af	0.046896633
227	0x3d5bbeff	0.053648945
228	0x3c1a7cbd	0.009429154
229	0x3a467d18	0.0007571741
230	0x3c019f2a	0.007911483
231	0xbd8295de	-0.06376241
232	0x3c79ba31	0.015242145
233	0xbd6c5ed9	-0.05770764
234	0xbdf67ef6	-0.120359346
235	0xbe3a6b3e	-0.18204972
236	0x3ea5ade6	0.32359236
237	0xbdf5d49b	-0.12003442
238	0x3cc41e73	0.0239403
239	0x3d0853a9	0.03328291
240	0xbd356ab3	-0.04429121
241	0x3e07bd58	0.13255823
242	0x3cb58f52	0.022163067
243	0x3ce5cb20	0.02805096
244	0x3d8c6c69	0.06856615
245	0xbd7462b6	-0.05966445
246	0x3dad6213	0.08465972
247	0x3e0dc4ac	0.13844556
248	0x3d827b6f	0.06371199
249	0x3d811d07	0.06304365
250	0xbe284caa	-0.16435495
251	0xbd0b396f	-0.03399032
252	0xbd5edefe	-0.05441188
253	0xbe43523c	-0.19074339
254	0x3e02f1ad	0.12787504
255	0xbd1c2ddd	-0.038129676

base.cnn.0.bias f4 [32]
0	0xbd338b19	-0.043833826
1	0x3a7e056e	0.000969014
2	0x3cb982fb	0.022645464
3	0xbceb77a7	-0.028743578
4	0x3b1e6c46	0.0024173423
5	0xbc4c0775	-0.01245295
6	0xbc4a0a52	-0.012331562
7	0xbbd08e4e	-0.0063646203
8	0xbb16229c	-0.0022908812
9	0xbc8e2a82	-0.017354254
10	0xbcc16fd3	-0.023612892
11	0xbd134f86	-0.03596451
12	0xbd80c48f	-0.062874906
13	0xbd532c56	-0.051555954
14	0xbcc04fd8	-0.023475572
15	0x3ca3bf3c	0.019988649
16	0xbcdce55b	-0.026964834
17	0xbc9514df	-0.018198429
18	0xbd4cf605	-0.05003931
19	0x3ca5ae76	0.020224791
20	0xbc906acb	-0.017629048
21	0xbcc54af4	-0.024083592
22	0x3c398d85	0.011325245
23	0xba32c57d	-0.0006819589
24	0xbd14bc54	-0.036312416
25	0x3cb801c3	0.022461778
26	0x3af0c621	0.0018369594
27	0xbca60140	-0.020264268
28	0xbd7033bb	-0.058643084
29	0xbd5541c4	-0.052064672
30	0xbc10b552	-0.008832293
31	0xbbbfaf41	-0.0058497493

base.cnn.2.weight f4 [64, 32, 3, 3]
0	0xbd80080e	-0.06251536
1	0xbcd53e8f	-0.026030807
2	0xbd9c2eac	-0.076260895
3	0xbc8980d4	-0.016785063
4	0x3d6b0397	0.05737647
5	0xbd89a467	-0.067208104
6	0x3ddbdc4b	0.10735377
7	0x3dbe9c65	0.09307174
8	0xbce02818	-0.027362868
9	0xbdc39ef8	-0.09551805
10	0xbe204a1c	-0.1565327
11	0x3e25d162	0.16193154
12	0x3dd630df	0.1045854
13	0x3cb7c587	0.022433056
14	0xbbd4c45c	-0.0064931344
15	0xbe2ec66f	-0.17067884
16	0xbd58b897	-0.052910414
17	0xbd5e765a	-0.054312088
18	0x3e1db2ba	0.1540021
19	0x3c81dbeb	0.015851935
20	0x3e1cb7c5	0.15304478
21	0xbd736652	-0.059423752
22	0xbe0f467a	-0.13991728
23	0xbd6e18bf	-0.05812907
24	0x3d59fde1	0.053220633
25	0xbc55edab	-0.013057153
26	0xbc815a90	-0.015790254
27	0xbc899a92	-0.016797338
28	0xbd953778	-0.072859704
29	0xbc139c67	-0.009009457
30	0x3db5b376	0.0887212
31	0xbdd0f7a0	-0.10203481
32	0xbd159145	-0.036515493
33	0xbb356375	-0.002767769
34	0x3d0e9aef	0.034815725
35	0xbda49465	-0.080361165
36	0xbdb5cd88	-0.088770926
37	0x3e5cb854	0.2155469
38	0x3e76224f	0.24036525
39	0x3c2e4de8	0.0106386915
40	0xbde4f275	-0.111790575
41	0x3c41ccc2	0.011828603
42	0xbdf05da9	-0.11736614
43	0xbd3b3010	-0.045700133
44	0xbdf92626	-0.12165479
45	0xbcb5d442	-0.022195939
46	0xba486fa0	-0.0007646028
47	0xbd068800	-0.032844543
48	0xbcb17f43	-0.021667128
49	0xbc6058ce	-0.013693048
50	0x3e784375	0.24244483
51	0x3d6453fa	0.05574415
52	0xbb90f2f4	-0.0044234935
53	0xbe73b2a1	-0.2379861
54	0xbdf8b7bd	-0.1214442
55	0x3df0f239	0.1176495
56	0xbdcd9c35	-0.1003956
57	0xbda4eec7	-0.08053356
58	0x3d582d87	0.052777793
59	0xbd85692e	-0.06514202
60	0xbdc6372d	-0.09678493
61	0x3d19b7fe	0.037528984
62	0xbd1661cb	-0.036714356
63	0xbd2e852a	-0.042607464
64	0x3e0d1c7c	0.13780397
65	0x3d0ac54e	0.03387957
66	0x3c343375	0.010998596
67	0xbb1cb0e5	-0.0023909148
68	0xbdd36d21	-0.10323549
69	0xbe102d48	-0.14079773
70	0x3d89e2e3	0.06732728
71	0xbe188b72	-0.14896944
72	0x3cac04c7	0.020998372
73	0xbc7b6d90	-0.015345946
74	0x3d2bb69d	0.0419222
75	0xbd9dfd05	-0.07714275
76	0x3cfe6435	0.031053642
77	0x3e0b1efb	0.13586037
78	0xbd58341d	-0.052784074
79	0xbd9cfd4b	-0.07665499
80	0xbc248004	-0.010040287
81	0xbd321591	-0.0434776
82	0x3d0346e9	0.032050047
83	0xbddd7d3f	-0.108149044
84	0x3d8e7805	0.06956486
85	0xbd48e76d	-0.04904883
86	0xbe0e045d	-0.13868852
87	0xbd233b13	-0.03985126
88	0x3b1321db	0.00224506
89	0xbd4b6ff0	-0.0496673
90	0x3c64faa6	0.013975775
91	0x3da17327	0.07883292
92	0xbd750ee5	-0.059828658
93	0xbd38b0b2	-0.045090385
94	0x3c310dd7	0.010806522
95	0x3cc94ffd	0.024574274
96	0xbe1b3f2d	-0.15160818
97	0xbddd5937	-0.10808032
98	0xbd87d9c1	-0.0663333
99	0x3cdae2ae	0.026719417
100	0x3da6efda	0.08151217
101	0x3d95b202	0.07309343
102	0xbda3d425	-0.07999448
103	0xbd0fefa1	-0.035140637
104	0x3df8c17f	0.121462815
105	0x3e1e0860	0.15432882
106	0x3d0992cf	0.033587273
107	0x3d3a5746	0.045493387
108	0xbd524fec	-0.05134575
109	0xbe091c4d	-0.13389702
110	0xbdc18c93	-0.094506405
111	0x3e7341c6	0.2375556
112	0x3d40bd0a	0.04705528
113	0x3dba34da	0.09092112
114	0x3cff295d	0.031147653
115	0xbcef5f93	-0.029220378
116	0xbc309249	-0.010777065
117	0xbd66b992	-0.056329317
118	0xbd38f683	-0.045156967
119	0xbd5b2f5e	-0.05351197
120	0x3d6ccbc1	0.057811502
121	0xbc1515e8	-0.009099461
122	0xbde7de81	-0.11321736
123	0x3e441bb7	0.19151197
124	0xbe0c2ec0	-0.13689709
125	0x3b4e0239	0.003143443
126	0x3e1372a0	0.14399195
127	0xbd69f615	-0.057119448
128	0x3ca65777	0.020305378
129	0x3e8ddbca	0.27706748
130	0x3d838e3f	0.06423616
131	0x3d2b0ec1	0.041762117
132	0xbe16700c	-0.1469118
133	0xbccf7054	-0.025322117
134	0x3e2fa1d9	0.17151584
135	0xbe4fcff2	-0.20294169
136	0x3d55ccfc	0.05219744
137	0xbe02ba99	-0.12766494
138	0x3daaa05a	0.08331366
139	0xbc63519f	-0.01387444
140	0x3d39d8b3	0.045372676
141	0xbe0dfff9	-0.13867177
142	0xbd6ee05f	-0.058319446
143	0x3d82accb	0.06380614
144	0xbb7e3857	-0.0038790905
145	0xbc274aca	-0.010210702
146	0xbd89c4b8	-0.06726974
147	0x3c7f4ccf	0.015582277
148	0xbcd1d5e1	-0.02561468
149	0xbdc28d4c	-0.094996065
150	0x3d867545	0.06565336
151	0x3d04b255	0.032396633
152	0xbd87e45e	-0.066353545
153	0x3dadf166	0.08493309
154	0x3d176964	0.036965743
155	0xbce09e3a	-0.027419198
156	0xbc0f42e6	-0.008743977
157	0xbe26fcbe	-0.16307351
158	0x3e0de622	0.1385732
159	0x3d390ac4	0.045176283
160	0x3cacdae4	0.021100469
161	0xbc8d6354	-0.017259277
162	0xbd1e77b1	-0.038688365
163	0x3c706ebb	0.014674838
164	0xbd92064c	-0.07130107
165	0xbd912437	-0.070869856
166	0xbd31c679	-0.04340217
167	0x3d46f477	0.048572984
168	0x3da4e5b9	0.080516286
169	0xb94a5c52	-0.00019298613
170	0xbd08fd28	-0.033444554
171	0x3e3742a0	0.17896509
172	0xbd2d9e14	-0.042387083
173	0x3d802150	0.06256354
174	0xbd328b97	-0.043590154
175	0x3bb1cb8d	0.0054258765
176	0xbc7c0274	-0.015381444
177	0xbd8cf774	-0.068831354
178	0xbd0ea562	-0.03482569
179	0x3daedea4	0.08538559
180	0xbc5c6121	-0.013450892
181	0xbde3d8ba	-0.11125322
182	0x3d779ead	0.06045406
183	0xbdad5a41	-0.0846448
184	0x3e14cb67	0.14530717
185	0xbdf277af	-0.11839234
186	0xbdf7cb64	-0.120993406
187	0x3da1bd9b	0.078974925
188	0x3e043888	0.1291219
189	0x3daac99f	0.083392374
190	0xbe0f78e7	-0.14010964
191	0x3db35b58	0.08757657
192	0xbe15ea5f	-0.14640187
193	0xbe16f20e	-0.14740774
194	0xbd5da927	-0.054116394
195	0x3da0b6b2	0.07847346
196	0x3b787a34	0.0037914636
197	0x3c1f978b	0.0097407205
198	0x3dc461da	0.09588976
199	0x3d9075ab	0.070536934
200	0xbd7811e0	-0.060563922
201	0xbcf798a3	-0.03022415
202	0xbc8714c3	-0.016489392
203	0x3cd57dfc	0.02606105
204	0x3c421087	0.011844761
205	0xbd17eab2	-0.037089057
206	0x3cc7dd38	0.024397478
207	0xbe1da35d	-0.1539435
208	0xbd2c04db	-0.041996818
209	0xbe1ca3de	-0.15296885
210	0xbd81c670	-0.06336677
211	0x3cb0082b	0.02148827
212	0xbd85dafa	-0.06535907
213	0xbd6428db	-0.055703025
214	0xbdac1dba	-0.084041074
215	0x3d48c6f1	0.04901785
216	0x3d9a40fe	0.075319275
217	0xbdd29554	-0.10282388
218	0xbcc10e4c	-0.023566388
219	0x3d119175	0.03553911
220	0x3d5a67cc	0.053321645
221	0xbd2b7b7a	-0.041865803
222	0x3db1fe94	0.08691135
223	0x3d0f4c08	0.03498462
224	0xbd69ad83	-0.05705024
225	0x3e252226	0.16126308
226	0x3b15729b	0.0022803906
227	0x3de7c291	0.113164075
228	0x3d9ac925	0.075578965
229	0xbd3630db	-0.044480186
230	0x3dbbe7ff	0.09175109
231	0xbcb5ecf5	-0.022207716
232	0xbc072a09	-0.008249768
233	0xbd1cf74a	-0.03832177
234	0xbc3fd14c	-0.011707615
235	0xbd70e6bf	-0.058813807
236	0x3dafd3e7	0.08585339
237	0x3c180203	0.009277823
238	0x3d3d4bb3	0.04621477
239	0x3e30c2d5	0.17261823
240	0xbdb765d5	-0.0895497
241	0xbdf6f8c3	-0.12059166
242	0xbda15695	-0.07877842
243	0xbd025f08	-0.03182891
244	0xbde69739	-0.11259312
245	0xbe1c1500	-0.15242386
246	0x3ddf5fd1	0.109069474
247	0xbb559f74	-0.0032596262
248	0xbceb8529	-0.02875002
249	0xbdb458ee	-0.088060245
250	0x3d849939	0.064745374
251	0xbe7f83d3	-0.2495263
252	0x3caaad44	0.020834573
253	0xbd8b8b61	-0.06813694
254	0x3d58721c	0.0528432
255	0x3d54aa02	0.051919945

base.cnn.2.bias f4 [64]
0	0xbc8a5b45	-0.016889224
1	0xbcba405c	-0.022735767
2	0xbd16f115	-0.036851007
3	0xbbb9599f	-0.0056564356
4	0xbce0ddd5	-0.027449528
5	0xbc59c8e4	-0.013292525
6	0xbb281726	-0.0025648563
7	0x3c1856b6	0.009298017
8	0xbc60fdf8	-0.013732426
9	0xbc9cb356	-0.019128483
10	0xbaa149da	-0.0012305335
11	0xbc0c7399	-0.0085724825
12	0x3b6975b1	0.0035623128
13	0x3ac2cee0	0.0014862679
14	0xbd31f636	-0.043447696
15	0xbd11c5bb	-0.03558896
16	0xbc2a0804	-0.010377888
17	0xbc4b70c4	-0.012417022
18	0xbcd3a487	-0.025835289
19	0xbc947bf9	-0.018125521
20	0xbc26bb18	-0.010176443
21	0x3c7cc668	0.015428163
22	0xbafde978	-0.0019371947
23	0xbcbf2c72	-0.023336623
24	0xbb7b559f	-0.0038350595
25	0xbca31861	-0.019909086
26	0xbca2279b	-0.019794276
27	0x3c18c7ed	0.00932501
28	0xbcf13832	-0.029445741
29	0x3c339f7b	0.010963316
30	0xbcc20f5c	-0.023688965
31	0xbaceccf0	-0.0015777629
32	0xbc1d3707	-0.009595639
33	0xba66b630	-0.0008800952
34	0x3a43b9f3	0.0007466368
35	0xbd4946e9	-0.04913989
36	0xbc81b9fc	-0.015835755
37	0xbd230c9d	-0.03980695
38	0xbd39ac62	-0.045330413
39	0xbcc97c9f	-0.024595557
40	0x3c7999cd	0.015234423
41	0x3b46b57a	0.003032057
42	0x39bb0488	0.00035670795
43	0x3c5cb0e2	0.0134699065
44	0xbc58de01	-0.013236524
45	0xbba709a0	-0.005097583
46	0x3cc1fff6	0.023681622
47	0xbbf46ff0	-0.007459633
48	0x3b6eba34	0.0036426904
49	0x3c5e6932	0.013574885
50	0x3a7ed02e	0.0009720352
51	0xbc3add52	-0.011405306
52	0x3c322e7e	0.010875342
53	0x3c5e42b2	0.013565706
54	0xbca23f54	-0.019805588
55	0xbcc113ef	-0.023569075
56	0xb95b6723	-0.00020923889
57	0x3c0e262b	0.008676092
58	0x3bac1187	0.005251113
59	0xbd0ab73b	-0.03386615
60	0xbc9a8227	-0.01886089
61	0xbb326b7d	-0.0027224713
62	0xbc9e1c0c	-0.019300483
63	0xbb1558b4	-0.0022788467

base.cnn.4.weight f4 [32, 64, 3, 3]
0	0xbda3962a	-0.07987626
1	0xbe28c546	-0.16481504
2	0x3c0ad41a	0.0084734205
3	0xbd39403f	-0.045227285
4	0x3d52b498	0.05144176
5	0xbd8d7af9	-0.06908221
6	0xbcef6c62	-0.029226486
7	0xbccdac50	-0.025106579
8	0x3c6d42fa	0.0144813005
9	0xbcb2d4d0	-0.021829993
10	0xbc8b8d97	-0.017035289
11	0xbdc4a07b	-0.09600922
12	0x3bacef30	0.005277537
13	0x3d83ecb3	0.06441631
14	0x3e01414d	0.12622567
15	0x3d5dec5a	0.05418048
16	0xbd4474ef	-0.04796308
17	0x3b92aaa8	0.00447591
18	0xbe45b15e	-0.19305941
19	0x3e0f85b0	0.14015841
20	0x3d0ab95e	0.033868186
21	0xbd2cdf61	-0.04220522
22	0xbcefc178	-0.029267058
23	0xbcca7ae8	-0.02471681
24	0xbe18429e	-0.14869162
25	0x3e0b726f	0.13617872
26	0x3cf3a905	0.02974368
27	0x3d9ca28c	0.07648191
28	0xbd03f080	-0.03221178
29	0xbd1ff809	-0.039054904
30	0x3b3d5029	0.002888689
31	0x3d13d6c4	0.03609349
32	0x3cb0a3c3	0.021562463
33	0xbd99db6b	-0.07512554
34	0xbdfd3358	-0.12363309
35	0xbd736c41	-0.05942941
36	0xbd7ec8ee	-0.06220334
37	0xbdf78001	-0.12084962
38	0xbd680f6e	-0.05665534
39	0x3d5ea09b	0.054352384
40	0xbd661d36	-0.0561802
41	0x3d82bc25	0.06383542
42	0xbb245757	-0.0025076473
43	0x3d47f782	0.048820026
44	0xbd6352e4	-0.055498973
45	0xbdc5b05c	-0.096527785
46	0x3d230993	0.039804053
47	0x3c22d68b	0.009938846
48	0xbe216b5c	-0.1576361
49	0xbd46aa04	-0.048501983
50	0x3db297cc	0.08720359
51	0xbd05ea4c	-0.032694146
52	0x3cfb4d25	0.030676434
53	0x3ad75cb7	0.001643083
54	0x3df94c42	0.12172748
55	0x3da7a3d8	0.081855476
56	0xbde1631f	-0.11005234
57	0x3be88238	0.0070956014
58	0xbdca2ab4	-0.09871426
59	0xbe2d7384	-0.16938597
60	0xbd23435a	-0.039859153
61	0x3d64d206	0.055864356
62	0xbc90b6d0	-0.017665297
63	0xbd5d8a23	-0.054086816
64	0xbcad80c5	-0.021179566
65	0xbdc50ad5	-0.09621207
66	0x3d226a43	0.03965212
67	0x3d9701e4	0.073734075
68	0xbc480914	-0.012209196
69	0x3d09c1d6	0.033632122
70	0x3dea0c89	0.11428172
71	0x3c6b85ca	0.0143751595
72	0x3d58b74b	0.052909177
73	0x3d337363	0.043811213
74	0xbd85758b	-0.0651656
75	0x3cc895e8	0.024485543
76	0xbd9b50ef	-0.07583796
77	0x3dacae44	0.08431676
78	0xbd5f4e1a	-0.054517843
79	0xbd243a2b	-0.040094536
80	0xbdac36cc	-0.08408889
81	0x3e1be7dd	0.15225168
82	0xbd987a88	-0.07445246
83	0xbc7abbc6	-0.015303558
84	0xbd682dc4	-0.05668427
85	0xbc89f375	-0.016839722
86	0x3a35495d	0.0006915534
87	0xbdab8627	-0.08375197
88	0xbd3b3b66	-0.045710944
89	0x3db23df5	0.087032236
90	0xbdf0650c	-0.11738023
91	0x3e368ffd	0.17828365
92	0xbd90304d	-0.07040463
93	0xbe0dfb03	-0.13865285
94	0x3d8043fe	0.062629685
95	0xbcf07c71	-0.029356213
96	0x3b81c716	0.0039605005
97	0xbc684b33	-0.014178085
98	0x3ce6d765	0.02817888
99	0xbc7404f7	-0.014893762
100	0xbdd6b695	-0.104840435
101	0x3e4bbf1f	0.19897126
102	0xbd9950f6	-0.07486145
103	0xbc1592cf	-0.00912924
104	0xbd9e7f1e	-0.077390894
105	0x3e1000c3	0.1406279
106	0xbdef1862	-0.116745725
107	0x3cafb8ab	0.021450361
108	0xbcb8cce5	-0.022558639
109	0xbdf7d2ac	-0.12100729
110	0xbbc19974	-0.0059081856
111	0x3dc5eb91	0.09664071
112	0xbe005ae7	-0.12534676
113	0x3d6293d9	0.05531678
114	0xbd1a1f5b	-0.03762756
115	0xbc8daded	-0.017294848
116	0x3d064873	0.032783937
117	0xbd28784f	-0.04113036
118	0x3d6681a8	0.056275994
119	0xbdb97686	-0.0905581
120	0xbd1a8f5c	-0.037734374
121	0xbdba9403	-0.09110262
122	0xbd9b91f0	-0.07596195
123	0x3cd8ef61	0.026481332
124	0x3d75d4a8	0.060017258
125	0x3d9a61d2	0.07538189
126	0xbd84fa4f	-0.06493055
127	0x3a8e91b3	0.0010877162
128	0x3d61cc9e	0.05512678
129	0xba8b9e60	-0.0010652058
130	0x3daa7690	0.08323395
131	0x3c4ce7ee	0.012506468
132	0xbd573009	-0.052536044
133	0xbdd99a88	-0.106251776
134	0xbd8f212b	-0.06988748
135	0xbd48da32	-0.049036212
136	0xbcc2aeba	-0.023764957
137	0x3d894da0	0.06704259
138	0xbd024690	-0.031805575
139	0x3e38f180	0.18060875
140	0xbd804ec5	-0.06265024
141	0xbdb58e70	-0.088650584
142	0xbe4c69a6	-0.19962177
143	0x3d1c91db	0.038225036
144	0x3dd1d08c	0.10244855
145	0xbcadd799	-0.021220969
146	0x3703220b	7.816135e-06
147	0x3d05a215	0.032625277
148	0xbd2fbdf5	-0.042905767
149	0xbd966c38	-0.0734486
150	0xbd5cf84e	-0.05394774
151	0x3af7f6dd	0.0018918175
152	0x3e04df2c	0.12975758
153	0xbdb13ec7	-0.08654552
154	0xbd7de661	-0.061987285
155	0x3d4d5ebe	0.05013918
156	0xbd08f0d0	-0.03343278
157	0x3cafb99c	0.02145081
158	0xbc187e57	-0.0093074655
159	0xbdaf5b08	-0.08562285
160	0xbb56a9f8	-0.0032755118
161	0x3d998571	0.07496155
162	0x3bab4991	0.0052272757
163	0xbb509772	-0.003182855
164	0xbda60c3e	-0.08107804
165	0x3c2a18ee	0.01038192
166	0xbdc74e3f	-0.09731721
167	0x3c7f926f	0.015598877
168	0xbdd227c1	-0.10261489
169	0x3b81b851	0.00395874
170	0x3d5d47d4	0.05402358
171	0xbda92ebe	-0.082608685
172	0x3cf9e9a0	0.030506909
173	0xbd69016c	-0.05688612
174	0xbc965bf9	-0.018354403
175	0x3e18ea43	0.14933114
176	0xbcdf7770	-0.027278632
177	0xbd170aba	-0.036875464
178	0xbd3e3117	-0.046433534
179	0xbcadba9d	-0.021207148
180	0x3bc7358d	0.006079382
181	0x3d71d7af	0.059043583
182	0xbd4fce62	-0.05073393
183	0xbd4629ef	-0.048379835
184	0xbd3c378c	-0.04595141
185	0x3a1aa77b	0.00058995903
186	0x3df593c7	0.11991077
187	0xbd1c1fc2	-0.038116224
188	0x3d7b7072	0.061386533
189	0x3d530e61	0.051527385
190	0x3dbafa51	0.09129775
191	0xbe0e850d	-0.13917942
192	0xbdaf26da	-0.08552332
193	0xbc9e1ef1	-0.019301863
194	0xbdb466b0	-0.088086486
195	0x3d331fff	0.043731686
196	0x3c2eb33f	0.010662853
197	0xbd894c14	-0.06703964
198	0x3cfa9c17	0.030592008
199	0xbd46f890	-0.04857689
200	0x3db48ec7	0.08816295
201	0xbd0f9d80	-0.035062313
202	0xbd92c1be	-0.0716586
203	0xbc78655b	-0.015160884
204	0xbd62122c	-0.05519311
205	0xbcdc9cca	-0.026930232
206	0xbc46f31a	-0.012142921
207	0xbc44b8a6	-0.012006914
208	0xbe3c7058	-0.1840223
209	0xbe0b5d30	-0.13609767
210	0xbd015b93	-0.031581473
211	0x3d8ceb1f	0.06880783
212	0x3d1ad444	0.03780009
213	0xbe19185f	-0.14950703
214	0xbda64339	-0.081182905
215	0x3c7bd66f	0.015370949
216	0xbc4dbe43	-0.012557569
217	0xbdd2272c	-0.10261378
218	0xbc59c076	-0.013290515
219	0x3c8e0a63	0.017338937
220	0x3d3dd97a	0.04634998
221	0xbcd314a3	-0.025766676
222	0x3d679361	0.056537036
223	0x3c0d5a69	0.0086275125
224	0x3c083c86	0.008315211
225	0xbd7d075a	-0.06177459
226	0xbe134c10	-0.14384484
227	0xbd97142e	-0.07376896
228	0xbc7ab98c	-0.015303027
229	0x3d2733b2	0.040820785
230	0xbcc1d536	-0.023661237
231	0xbd970ce4	-0.073755056
232	0xbd233b6a	-0.039851584
233	0x3d42a229	0.04751793
234	0xbc42dc34	-0.011893321
235	0xbc107ffe	-0.008819578
236	0xbd3b94a2	-0.045796044
237	0x3c982a7e	0.01857495
238	0x3b6c2c45	0.003603713
239	0x3e02e0cb	0.12781064
240	0xbd962af9	-0.07332415
241	0x3d81e91c	0.0634329
242	0x3c7e2351	0.01551135
243	0xbd30dd22	-0.04317964
244	0xbc50ae54	-0.012736876
245	0x3d65567d	0.055990685
246	0x3ceeaefe	0.029136177
247	0x3d482812	0.04886634
248	0xbd3d41bb	-0.046205264
249	0xbcdd13f9	-0.026987063
250	0x3e069687	0.13143359
251	0x3c14f7d0	0.009092286
252	0x3cf5a8e9	0.02998777
253	0x3cf6062f	0.030032245
254	0xbc360662	-0.01110992
255	0xbd413d02	-0.047177322

base.cnn.4.bias f4 [32]
0	0xbbc7fac0	-0.00610289
1	0xbc467f5b	-0.012115325
2	0xbcd3738f	-0.025811939
3	0xbc37c656	-0.011216721
4	0xbbe4bb01	-0.0069803004
5	0x39de45ae	0.00042395055
6	0xbcaa6f0f	-0.02080491
7	0x3b27af37	0.0025586614
8	0xbc83e496	-0.01610021
9	0xbd0add92	-0.033902712
10	0xbcef8c6a	-0.02924176
11	0xbc180d99	-0.009280586
12	0xbc6b1696	-0.014348647
13	0xbc2a69e3	-0.010401222
14	0xbbf74134	-0.0075456146
15	0xbcffd044	-0.031227238
16	0xbc9de8aa	-0.019275982
17	0xbd0464b5	-0.032322604
18	0xbbd90227	-0.006622571
19	0xbcdca821	-0.026935639
20	0x3c00ffd4	0.007873494
21	0xbcbaf3f0	-0.022821397
22	0xbb8d0062	-0.004303024
23	0xbc6e7487	-0.0145541495
24	0x3bbf62de	0.0058406433
25	0xbcb5f36c	-0.0222108
26	0xbc6c5d75	-0.014426579
27	0x3b072863	0.0020623438
28	0xbcd845b9	-0.026400434
29	0xbc69abbb	-0.014262135
30	0xbc8a5623	-0.016886776
31	0x3be5c7bd	0.007012336

base.cnn.7.weight f4 [64, 1440]
0	0xbd395924	-0.045251027
1	0xbccd13f0	-0.025033921
2	0xbdd8c9e0	-0.105853796
3	0xbcc69114	-0.0242391
4	0xbcdbbe70	-0.026824206
5	0xbc010d6c	-0.007876735
6	0xbd1276dc	-0.035757884
7	0x3d929624	0.07157543
8	0xbbf7e4fa	-0.007565138
9	0xbc8557ce	-0.01627722
10	0xbd0882e7	-0.033327963
11	0xbdb95e91	-0.0905124
12	0x3ccadecf	0.024764447
13	0x3d11c2cb	0.03558616
14	0x3dad6e80	0.08468342
15	0x3d0ef9b5	0.034906108
16	0x3d4bafd0	0.049728215
17	0xbd072537	-0.032994475
18	0xbd16a484	-0.036777988
19	0x3c3e8232	0.011627721
20	0x3d677378	0.056506604
21	0x3d5e3c3d	0.054256666
22	0x3d2006c7	0.039068963
23	0xbd996b79	-0.07491202
24	0xbd6f8517	-0.058476534
25	0x3daf6153	0.08563485
26	0x3cffa8d2	0.03120843
27	0xbc67d484	-0.014149789
28	0x3dab30a5	0.083588876
29	0x3ce37cc4	0.027769454
30	0x3dad991e	0.084764704
31	0xbd78d453	-0.060749363
32	0xbc792dbb	-0.015208657
33	0x3cb62450	0.022234112
34	0xbc2cc444	-0.01054484
35	0x3dae4604	0.08509448
36	0xbdab8a87	-0.08376031
37	0x3c2121cd	0.009834719
38	0x3ccb5e34	0.024825193
39	0x3c9ccedf	0.019141613
40	0xbd6c45f2	-0.057683893
41	0x3dae3c12	0.08507551
42	0xbcbc56a9	-0.022990542
43	0x3ddc84c7	0.10767513
44	0xbd4f1a5a	-0.05056224
45	0xbcd45503	-0.025919443
46	0xbd6c5aff	-0.05770397
47	0xbb47decf	-0.0030497795
48	0x3d96941f	0.073524706
49	0x3dabcae7	0.0838831
50	0xbd36cb4c	-0.044627473
51	0xbda0a330	-0.078436255
52	0x3d5c406f	0.053772386
53	0x3ccff2ea	0.025384385
54	0xbdc35e05	-0.09539417
55	0x3d351404	0.04420854
56	0xbd22d4de	-0.039753787
57	0xbd48b836	-0.049003802
58	0xbd478ab6	-0.04871627
59	0xbd695004	-0.056961074
60	0x3dd6be7b	0.1048555
61	0xbdcb6a68	-0.09932405
62	0xbca4046a	-0.020021636
63	0xbd2e0369	-0.04248372
64	0x3d8befe2	0.068328634
65	0xbd4ade09	-0.049528155
66	0x3e0a81cd	0.13526078
67	0xbd4fa5c2	-0.05069519
68	0x3d43ba6d	0.04778521
69	0xbd110def	-0.03541368
70	0xbe1e91db	-0.15485327
71	0xbe11db9e	-0.14243934
72	0xbd3f0286	-0.046633266
73	0xbd907a7a	-0.070546106
74	0xbd444dbd	-0.0479257
75	0x3c43236d	0.011910302
76	0x3cf7573e	0.030192968
77	0xbd1f3529	-0.038869057
78	0x3ce62d19	0.028097676
79	0x3db38cee	0.087671146
80	0x3da26c11	0.07930768
81	0x3cc8a2c3	0.024491673
82	0xbd78577a	-0.0606303
83	0x3d2f1eb6	0.042753898
84	0x3cf66861	0.030079069
85	0x3900e6a2	0.00012292949
86	0x3dfd5df0	0.12371433
87	0xbd32a660	-0.0436157
88	0xb9b2096c	-0.00033957826
89	0xbe0fe6e4	-0.14052922
90	0xbe233905	-0.1593972
91	0x3cf523db	0.029924324
92	0xbcaee0bf	-0.021347402
93	0xbbbe032b	-0.0057987175
94	0xbcf1bf19	-0.029510068
95	0xbd948264	-0.072514325
96	0x3d2d100a	0.042251624
97	0x3a533b3c	0.0008057838
98	0x3d5b9bb6	0.053615294
99	0x3d93a19d	0.0720856
100	0xbd4e42fc	-0.05035685
101	0x3dc716d7	0.09721153
102	0xbc19c2e5	-0.009384845
103	0xbda8e373	-0.082465075
104	0x3bf3ddb3	0.0074422
105	0x3db8d457	0.090248756
106	0x3dc20a60	0.09474635
107	0xbb7ed9d5	-0.0038887162
108	0x3d8af07a	0.067841485
109	0xb9648b81	-0.00021795744
110	0x3e052006	0.13000497
111	0x3cbde5f3	0.023180937
112	0x3ccfbf62	0.025359813
113	0x3c93dd88	0.01804997
114	0xbca769fd	-0.020436281
115	0xbe2e41a6	-0.1701723
116	0x3d15c344	0.036563173
117	0x3cfbb126	0.03072412
118	0x3da71945	0.08159117
119	0x3c41466a	0.011796573
120	0x3c842365	0.016130159
121	0xbd7b24de	-0.061314456
122	0xbda563b3	-0.08075657
123	0x3d11fc7e	0.035641186
124	0x3dab5d12	0.08367361
125	0xbcfb2d9f	-0.030661402
126	0xbd444651	-0.04791862
127	0x3d50d172	0.050980993
128	0xbdc0c76c	-0.09413037
129	0x3d29ab48	0.041423112
130	0xbd189959	-0.03725562
131	0x3d18c9a9	0.037301693
132	0xbd56009d	-0.05224668
133	0xbcfc9fca	-0.030837912
134	0xbc8d02ab	-0.017213186
135	0x3c93c533	0.018038368
136	0xbc8d7c8d	-0.017271305
137	0xbcb9c2ad	-0.022675836
138	0xbd9fc731	-0.078016646
139	0xbdd96aaa	-0.10616048
140	0x3d8580c0	0.06518698
141	0xbccaba2d	-0.024746979
142	0x3d806744	0.06269696
143	0xbd010799	-0.031501386
144	0xbdb6b62a	-0.08921464
145	0xbc566f62	-0.013088079
146	0x3dc167c4	0.0944362
147	0x3da861ad	0.08221755
148	0xbd179fd2	-0.03701765
149	0x3d04b6e5	0.032400984
150	0xbca2e731	-0.019885631
151	0xbd5699fa	-0.052392937
152	0x3c2f2449	0.010689803
153	0xbdc59b0d	-0.09648714
154	0x3d9e8051	0.07739318
155	0xbd7ed5f6	-0.062215768
156	0x3db6718c	0.08908376
157	0xbd279388	-0.04091218
158	0x3d97f796	0.0742027
159	0xbd2440ee	-0.040100984
160	0xbd874628	-0.06605178
161	0xbd4513b8	-0.04811451
162	0x3c8f0098	0.017456338
163	0x3d4b4d4b	0.04963426
164	0x3db4bf7a	0.08825584
165	0xbb9f5809	-0.0048627895
166	0xbd902b2a	-0.07039483
167	0x3d5dba9a	0.054133035
168	0x3d86c3a8	0.06580287
169	0xbbfcc51a	-0.007713926
170	0xbcebb225	-0.02877147
171	0x3d134c2e	0.035961322
172	0x3d7cda54	0.06173165
173	0x3b89d155	0.0042058625
174	0xbd3bf129	-0.045884285
175	0xbd226d54	-0.039655045
176	0x3d914103	0.07092478
177	0x3d2ed6a0	0.04268515
178	0x3a0b898e	0.00053229264
179	0xbdc3b7cc	-0.09556541
180	0xbd90b356	-0.070654556
181	0x3952a484	0.00020088447
182	0x39cee1b6	0.0003945955
183	0xbbdb0a19	-0.0066845533
184	0xbd489354	-0.048968628
185	0xbdb7ccc2	-0.08974601
186	0xbc91d7c3	-0.017803079
187	0xbd826e37	-0.06368678
188	0xbc1608bf	-0.009157359
189	0x3d319f20	0.043364644
190	0x3dcac485	0.099007644
191	0x3da46669	0.08027346
192	0x3d6172b5	0.055041034
193	0x3dbb2a34	0.09138909
194	0xbc8d319c	-0.01723557
195	0xbdb6c240	-0.08923769
196	0x3c83e19a	0.016098786
197	0x3e1eb67a	0.15499297
198	0xbe1d0e82	-0.15337566
199	0xbb47825b	-0.0030442688
200	0xbd5b933b	-0.053607207
201	0xbb38f6d1	-0.0028223286
202	0x3c710342	0.014710249
203	0xbd434d38	-0.047681063
204	0x3c605c12	0.013693826
205	0xbdc5d6cd	-0.096601106
206	0x3c3f1646	0.011663025
207	0x3ccb7e9f	0.024840651
208	0x3d59b99c	0.053155527
209	0xbd19a5f9	-0.0375118
210	0xbd209b11	-0.039210383
211	0xbcc6717a	-0.024224032
212	0xbda94052	-0.08264221
213	0xbd1d6c2c	-0.03843324
214	0x3b58115b	0.003296933
215	0xbd147d9d	-0.036252607
216	0xbcb11cdc	-0.021620207
217	0xbda38174	-0.079836756
218	0xbd222fb0	-0.03959626
219	0x3d0e5b02	0.03475476
220	0xbbdc398a	-0.0067207264
221	0x3d856478	0.065133035
222	0xbc932761	-0.017963113
223	0x3cd0e2af	0.025498716
224	0x3de3b3d2	0.111182824
225	0x3d4f135f	0.050555583
226	0xbd8fcba0	-0.0702126
227	0x3c24cef7	0.01005911
228	0x3da2a336	0.07941286
229	0xbde46569	-0.11152155
230	0x3d291de9	0.04128829
231	0xbd1d4e47	-0.03840473
232	0xbc75a25c	-0.014992323
233	0xbc97a569	-0.01851149
234	0x3d967ba4	0.07347801
235	0x3c3ae9a1	0.011408241
236	0xbc291362	-0.010319563
237	0x3ccd1d22	0.025038306
238	0xbc51ef3d	-0.0128133865
239	0xbbfa37c3	-0.007636042
240	0x3d8c3b28	0.06847221
241	0x3cdce3e9	0.026964145
242	0xbccd6e77	-0.025077088
243	0xbdb336fa	-0.0875072
244	0xbca0e171	-0.019638749
245	0x3cabf193	0.020989215
246	0x3d0a900e	0.033828788
247	0x3c3d0d8e	0.011538876
248	0x3d31392c	0.043267414
249	0xbc712077	-0.014717213
250	0xbd8061d4	-0.06268659
251	0xbe201db2	-0.15636328
252	0x3b9e32b5	0.004827822
253	0xbd92fade	-0.07176755
254	0xbdadb555	-0.08481852
255	0xbd302c03	-0.043010723

base.cnn.7.bias f4 [64]
0	0xbb9df73e	-0.0048207333
1	0xbc29a938	-0.010355286
2	0xbcf606b5	-0.030032495
3	0xbceb7802	-0.028743748
4	0xbd17fcb1	-0.03710622
5	0xbc867224	-0.016411848
6	0xbc98df33	-0.018661117
7	0xbb8fe155	-0.0043908753
8	0xbc5cf2ef	-0.013485654
9	0xbcc6c2ac	-0.024262749
10	0xbcc364b6	-0.023851734
11	0xbcc83d99	-0.024443435
12	0xba4ce562	-0.0007816163
13	0xbc303157	-0.010753951
14	0xbc71ef9b	-0.014766599
15	0xbb4c417e	-0.0031166966
16	0xbcd4a9b1	-0.025959821
17	0xbc6f7c5e	-0.014617054
18	0xbd0195cc	-0.031636998
19	0xbc8c5efe	-0.01713514
20	0xbbef3d16	-0.007300983
21	0xbcd6b293	-0.026208198
22	0xbcef8c3c	-0.029241674
23	0xbccc2e24	-0.024924345
24	0xbcab6270	-0.020920962
25	0xb99bd27e	-0.00029720733
26	0xbc9fd8dc	-0.019512586
27	0xbc4a2f2a	-0.012340346
28	0xbc0cdc44	-0.008597437
29	0xbc80cd38	-0.015722856
30	0xbce61396	-0.028085511
31	0xbcbeaad2	-0.023274813
32	0xbcdbe68f	-0.026843337
33	0xbc9bb7b7	-0.0190085
34	0xbc5c8532	-0.013459491
35	0xbc45a612	-0.01206352
36	0xbc96cb94	-0.01840762
37	0xbc2345de	-0.009965388
38	0xbc2b7e01	-0.010467053
39	0xbbe00e90	-0.0068376735
40	0xbb79887b	-0.0038075733
41	0xbc0970f7	-0.008388749
42	0xbc80c154	-0.015717186
43	0xbc492a04	-0.012278084
44	0xb918a39f	-0.00014556803
45	0xbc6e5967	-0.014547682
46	0xbc054d8b	-0.0081361635
47	0xbb5d7fac	-0.0033798022
48	0xbc4ea5d4	-0.012612779
49	0xbc79f9a9	-0.0152572775
50	0xbcc55a63	-0.024090951
51	0xbc894b24	-0.016759463
52	0x3b7d924d	0.0038691938
53	0xbbf4531e	-0.0074561974
54	0xb9285535	-0.0001605347
55	0x3a9c987f	0.0011947303
56	0xbb8021fa	-0.0039103003
57	0xbc32ee33	-0.010921049
58	0xbc625a02	-0.013815405
59	0xbc8a490b	-0.016880533
60	0xbcd47ed7	-0.025939388
61	0xba719213	-0.0009215187
62	0xbcc6a1b7	-0.024247034
63	0xbccdf6cd	-0.025142098

base.cnn.9.weight f4 [64]
0	0x3f7559e6	0.958403
1	0x3f86223e	1.04792
2	0x3f7a6350	0.9780779
3	0x3f842d48	1.0326319
4	0x3f778788	0.9669118
5	0x3f7e6ca3	0.99384516
6	0x3f7c85c9	0.9864164
7	0x3f7ec83e	0.99524295
8	0x3f805e42	1.0028765
9	0x3f80a669	1.0050784
10	0x3f802bdc	1.0013385
11	0x3f848290	1.0352345
12	0x3f7ab3db	0.9793069
13	0x3f7fadac	0.9987438
14	0x3f806924	1.0032086
15	0x3f75276a	0.95763266
16	0x3f85121b	1.039615
17	0x3f837172	1.0268996
18	0x3f7c1626	0.98471296
19	0x3f7c8ea7	0.9865517
20	0x3f7f848d	0.9981163
21	0x3f86b03c	1.0522532
22	0x3f795e1c	0.97409225
23	0x3f82a23a	1.0205758
24	0x3f81d47e	1.0142972
25	0x3f837257	1.0269269
26	0x3f840550	1.0314121
27	0x3f7b393e	0.9813422
28	0x3f831fec	1.0244117
29	0x3f869a88	1.0515909
30	0x3f75794f	0.9588823
31	0x3f72c1d4	0.9482701
32	0x3f825bdd	1.0184284
33	0x3f8ec8f1	1.1155072
34	0x3f87372f	1.0563716
35	0x3f846377	1.0342854
36	0x3f79cc04	0.9757693
37	0x3f7a9ec7	0.97898525
38	0x3f7c8274	0.98636556
39	0x3f7379a9	0.95107514
40	0x3f814acd	1.0100952
41	0x3f755826	0.9583763
42	0x3f81bab5	1.0135103
43	0x3f840278	1.0313253
44	0x3f808e84	1.0043492
45	0x3f706509	0.9390417
46	0x3f829aa1	1.0203439
47	0x3f79b684	0.9754412
48	0x3f85fce3	1.04678
49	0x3f8472d4	1.0347543
50	0x3f82a40e	1.0206316
51	0x3f73c217	0.9521803
52	0x3f859a9f	1.0437812
53	0x3f7eb442	0.994938
54	0x3f846a01	1.034485
55	0x3f811e05	1.0087286
56	0x3f88c870	1.0686169
57	0x3f769a6e	0.9632939
58	0x3f7970a8	0.97437525
59	0x3f8527d7	1.0402783
60	0x3f7e34dc	0.99299407
61	0x3f85071d	1.0392796
62	0x3f758baa	0.95916235
63	0x3f84d63b	1.0377878

base.cnn.9.bias f4 [64]
0	0x3d4726d9	0.048621032
1	0x3c7b0012	0.015319841
2	0x3d029d70	0.031888425
3	0xbd0795df	-0.033101913
4	0x3cc8d3e3	0.024515098
5	0x3c510429	0.0127573395
6	0x3d1d9285	0.03846981
7	0xbb8629d4	-0.004094342
8	0x3d067755	0.032828648
9	0xbc079c03	-0.008276942
10	0xbb9e3343	-0.004827888
11	0x3b7572ba	0.0037452416
12	0x3cedf27c	0.02904629
13	0x3c95df4d	0.018294955
14	0x3c03dbd7	0.008048019
15	0xbab80240	-0.0014038756
16	0xbd29a704	-0.041419044
17	0xbce25e68	-0.027632907
18	0x3c94624b	0.018113276
19	0x3c294322	0.010330947
20	0x3baf601a	0.0053520324
21	0xbb829a38	-0.0039856695
22	0x3d32e867	0.043678667
23	0x3c94c5cf	0.018160729
24	0xbd646e42	-0.055769213
25	0x3ccdc46c	0.025118075
26	0xbd00158a	-0.03127054
27	0xbc1edea6	-0.009696638
28	0x3a11cb0a	0.0005561566
29	0xbd8a6cd4	-0.067590386
30	0x3d4b6a2e	0.049661808
31	0x3d107192	0.03526456
32	0xbc363e1a	-0.011123205
33	0xbd67a7e7	-0.05655661
34	0xbd8ecdd2	-0.06972851
35	0xbcb44b25	-0.022008488
36	0x3c46ffb3	0.012145924
37	0x3d38d95d	0.04512917
38	0x3c33a1d4	0.010963876
39	0x3d93d302	0.07217981
40	0xbd15a314	-0.036532477
41	0xbc24e42d	-0.010064167
42	0xbc1e1782	-0.009649159
43	0xbd3326f6	-0.043738328
44	0x3ce43711	0.027858289
45	0xb9b163c7	-0.0003383441
46	0xbb1a4bb6	-0.0023543662
47	0x3b5532c2	0.0032531475
48	0xbd070ac9	-0.03296927
49	0xbd637eb1	-0.055540744
50	0xbd581744	-0.052756563
51	0xbd70e1a9	-0.058808956
52	0x3c76bb70	0.015059337
53	0x3ce8666a	0.028369147
54	0xbca3416b	-0.019928655
55	0xbd550fc1	-0.052016977
56	0x3c1506a3	0.009095821
57	0x3c4fa9f8	0.012674801
58	0x3cd3e67d	0.025866741
59	0x3c7ca750	0.01542075
60	0x3cd10e2b	0.025519451
61	0xbd231c05	-0.039821643
62	0x3d3ed916	0.046593748
63	0xbd1d7d92	-0.03844983

base.cnn.10.weight f4 [64, 64]
0	0xbdb55759	-0.08854551
1	0x3ea3e994	0.32014143
2	0x3e0d0f6e	0.13775417
3	0x3d7c55b7	0.06160518
4	0x3c3dcd0f	0.011584534
5	0x3dd064cf	0.10175478
6	0xbdbcdf68	-0.09222299
7	0xbe431c6a	-0.19053808
8	0x3ea5911d	0.32337275
9	0x3e02b052	0.12762573
10	0x3d340393	0.04394872
11	0x3ea93983	0.3305169
12	0x3e2df287	0.16987048
13	0xbdbceb06	-0.09224515
14	0xbe19a508	-0.1500436
15	0x3e4ac0fd	0.19800182
16	0xbd948e59	-0.07253713
17	0x3ea24998	0.31696773
18	0x3d6f2f58	0.05839476
19	0xbc86e417	-0.016466184
20	0xbd2bfad3	-0.04198725
21	0x3ec2e646	0.3806631
22	0xbe2415f7	-0.16024004
23	0x3e33565c	0.17513412
24	0xbdd396d9	-0.10331506
25	0x3e648ed0	0.22320104
26	0x3e894416	0.26809758
27	0x3e77b6df	0.24190854
28	0x3e88ac73	0.26694068
29	0xbe845120	-0.25843143
30	0xbde5dda5	-0.11223916
31	0xbd44d525	-0.048054833
32	0xbde50be2	-0.11183907
33	0x3eb2b1e0	0.34901333
34	0xbddc2f91	-0.1075126
35	0x3db7e71f	0.0897963
36	0x3d143cc2	0.036190756
37	0x3e176901	0.1478615
38	0x3e4d67b2	0.20059088
39	0xbe8b713e	-0.27234834
40	0xbe798f03	-0.24370961
41	0xbde1e943	-0.11030819
42	0x39e77418	0.0004414625
43	0xbe51627c	-0.20447725
44	0x3e0dd001	0.13848878
45	0xbe67e0fa	-0.22644415
46	0x3e675a42	0.22593024
47	0x3db0b63e	0.0862851
48	0xbe0aa387	-0.13538943
49	0x3cc6c8d7	0.02426569
50	0x3e9925bd	0.29911605
51	0x3cd8053b	0.026369682
52	0xbd9443b9	-0.072394796
53	0xbe6aeceb	-0.2294194
54	0x3e70d62d	0.23519202
55	0xbea3c03f	-0.3198261
56	0x3e1cbd92	0.1530669
57	0x3def7a16	0.11693208
58	0xbe034e31	-0.12822796
59	0x3e8f1db1	0.2795234
60	0xbeb70c83	-0.35751733
61	0xbd580ede	-0.052748553
62	0xbc089624	-0.008336578
63	0x3e4a9120	0.19781923
64	0xbe68420d	-0.22681446
65	0xbe5c7f3f	-0.21532916
66	0xbe84127a	-0.25795346
67	0x3e40403f	0.18774508
68	0xbdbc034c	-0.09180316
69	0x3d9dbb6f	0.07701766
70	0x3e79cb79	0.24394025
71	0xbe3f2858	-0.18667734
72	0xbdea4cff	-0.11440467
73	0xbcf3ce75	-0.029761532
74	0x3daa4302	0.08313562
75	0x3dd87880	0.105698586
76	0xbe401dd4	-0.18761379
77	0x3e047de4	0.12938648
78	0xbe966f15	-0.29381624
79	0xbe1d751b	-0.15376703
80	0xbdd36cb9	-0.103234716
81	0xbe2bb9ce	-0.16770098
82	0x3db7ead3	0.08980336
83	0x3e762d3d	0.24040695
84	0xbd692c28	-0.056926876
85	0x3e5c1124	0.21490914
86	0x3d94fad9	0.07274408
87	0x3e25eb15	0.16202958
88	0x3e35ba4a	0.17746845
89	0xbeaf9b02	-0.3429795
90	0x3cdd2e28	0.026999548
91	0xbddfcbf7	-0.10927575
92	0x3ec2e024	0.3806163
93	0x3e346015	0.17614777
94	0x3cd87d1e	0.026426848
95	0x3c9a0c43	0.018804675
96	0x3e0ec619	0.13942756
97	0x3ab859ce	0.001406485
98	0x3e9f1ffc	0.3107909
99	0xbd86fb19	-0.06590862
100	0xbc276f4f	-0.010219409
101	0x3bdd26e9	0.006749023
102	0xbe11747b	-0.1420459
103	0xbe6ff1a9	-0.2343203
104	0xbe0e8c58	-0.13920724
105	0x3cf92b81	0.030416252
106	0xbdead59e	-0.114665255
107	0x3e519d84	0.20470244
108	0x3f051dc9	0.51998574
109	0x3e7c01dd	0.24610086
110	0x3dd14825	0.102188386
111	0xba98a9ed	-0.0011647322
112	0x3e83b278	0.25722098
113	0x3e738020	0.23779345
114	0x3d6221c4	0.055207983
115	0x3d2f15de	0.042745464
116	0xbe109afa	-0.14121619
117	0x3c86411d	0.01638847
118	0x3e2c108b	0.16803186
119	0x3d56eeac	0.05247371
120	0x3d930f13	0.071806096
121	0x3dfc35ec	0.12314972
122	0x3e419c31	0.18907239
123	0x3e61a5f3	0.22035961
124	0xbe4e1c80	-0.2012806
125	0x3eb38115	0.3505942
126	0x3d9f0ae5	0.0776575
127	0x3e178788	0.14797795
128	0x3d873c96	0.06603353
129	0x3dd6337f	0.10459041
130	0x3bfc407f	0.007698118
131	0xbe82e714	-0.25566924
132	0xbd2ddf15	-0.042449076
133	0x3e14e91d	0.1454205
134	0xbe74e075	-0.23913749
135	0xbe91666a	-0.28398448
136	0x3e885500	0.2662735
137	0xbe3011a6	-0.17194232
138	0xbd0dd74e	-0.03462916
139	0xbd1458e5	-0.03621759
140	0xbd597bba	-0.05309651
141	0xbe5b82ce	-0.21436617
142	0x3d859b04	0.065237075
143	0xbecc5a05	-0.3991243
144	0x3e2ee9b5	0.1708134
145	0xbdb492db	-0.08817073
146	0x3e03e11e	0.12878844
147	0xbd3d8eb1	-0.04627866
148	0xbe7f2bd9	-0.2491907
149	0x3e234d75	0.15947516
150	0x3e997078	0.2996862
151	0x3dcd8274	0.100346476
152	0x3d628e19	0.055311296
153	0xbe9bac9a	-0.30405122
154	0xbd59a218	-0.0531331
155	0x3dbdcaab	0.092671715
156	0xbddf292a	-0.10896523
157	0x3ea3649f	0.31912705
158	0xbda49d9f	-0.08037876
159	0x3e1d2a67	0.15348206
160	0x3eb84939	0.35993364
161	0xbe1d4e36	-0.15361866
162	0xbdb87de7	-0.09008389
163	0xbdd4bd55	-0.10387675
164	0xbdbf6e61	-0.09347225
165	0x3d83fc26	0.06444578
166	0x3ed45e0e	0.41478008
167	0x3d9eaac4	0.07747415
168	0xbe0abffe	-0.13549802
169	0x3e1cdfa3	0.15319686
170	0x3c740d46	0.014895743
171	0xbdaee50a	-0.085397795
172	0xbe543df0	-0.20726752
173	0xbd01b3ee	-0.031665735
174	0xbb17d014	-0.0023164796
175	0x3ec3a3da	0.38210946
176	0x3e87bc3e	0.26510805
177	0x3d759ab6	0.059961997
178	0x3eaadbc8	0.33370805
179	0xbe095f2f	-0.13415216
180	0xbe708008	-0.2348634
181	0xbdd0d23e	-0.101963505
182	0xbe814fd6	-0.25256222
183	0x3d155898	0.036461443
184	0x3d70ff25	0.058837075
185	0x3e5c1e0b	0.21495835
186	0x3ddd650c	0.10810289
187	0xbb05e119	-0.0020428358
188	0xbd8018a0	-0.06254697
189	0x3e118814	0.14212066
190	0xbd8c639d	-0.06854937
191	0x3decc658	0.115612686
192	0xbef1ec65	-0.47250667
193	0x3d8be122	0.0683005
194	0x3bb99849	0.0056639058
195	0x3ca887fe	0.020572659
196	0xbe70a6b1	-0.23501088
197	0xbea9f9ab	-0.33198294
198	0xbebbf2c1	-0.36708644
199	0xbe31ceb4	-0.17364007
200	0xbe73aa21	-0.23795368
201	0x3e12eba0	0.14347696
202	0x3d18b507	0.037282016
203	0x3e7b9b4f	0.24570964
204	0x3e539068	0.20660555
205	0xbd9958a5	-0.07487611
206	0xbeb466d7	-0.3523471
207	0xbe0c0393	-0.13673238
208	0x3d9e03f1	0.077155955
209	0xbd74fdbf	-0.059812304
210	0xbdf0dcfd	-0.117609
211	0xbe4aaec6	-0.19793233
212	0x3e2775eb	0.16353576
213	0x3e320ebb	0.17388432
214	0xbe03cbdc	-0.12870735
215	0x3d966393	0.07343211
216	0xbd662d78	-0.056195706
217	0x3db22dcf	0.087001435
218	0xbe67c975	-0.22635444
219	0xbe4b1cd4	-0.19835216
220	0xbe0af0c6	-0.1356841
221	0xbe4fc305	-0.20289238
222	0x3cf577bd	0.029964322
223	0xbe4a2096	-0.19738993
224	0x3da64573	0.08118715
225	0xbdab06ab	-0.08350881
226	0x3da911e4	0.082553655
227	0x3c3fd08e	0.011707438
228	0xbe56fa50	-0.20993924
229	0x3d952afa	0.07283588
230	0x3e04ec35	0.12980731
231	0x3ee6dcd3	0.4509035
232	0x3e018d56	0.12651572
233	0xbea15b68	-0.3151505
234	0xbe5533b6	-0.20820507
235	0xbe8fab97	-0.280606
236	0x3e34b009	0.17645277
237	0xbe3d71e3	-0.18500476
238	0xbe9fc24c	-0.31202924
239	0xbb1bc8e0	-0.0023770854
240	0xbd8bdcc8	-0.0682922
241	0xbd1001be	-0.03515791
242	0xbe129fd7	-0.14318787
243	0x3de7568b	0.11295804
244	0x3e2b9f02	0.16759875
245	0xbd6fa0c1	-0.058502916
246	0x3e0878cc	0.1332733
247	0x3e356882	0.17715648
248	0xbe38d3a6	-0.18049487
249	0xbe1052a1	-0.1409402
250	0x3e73a03e	0.23791596
251	0xbed27288	-0.41103005
252	0xbdc0536f	-0.09390914
253	0x3e0f7323	0.14008765
254	0x3e4d58c3	0.20053391
255	0xbdae9095	-0.085236706

base.cnn.10.bias f4 [64]
0	0xbce07a1f	-0.027401982
1	0xbdba0773	-0.09083452
2	0xbd9c3809	-0.07627875
3	0x3c5c209f	0.013435512
4	0xbcd3eee6	-0.025870752
5	0xbd0d7595	-0.034535963
6	0xbd41db8b	-0.047328513
7	0xbcac2516	-0.021013778
8	0xbcadd824	-0.021221228
9	0xbc577ea2	-0.01315275
10	0x3d2cce52	0.04218895
11	0xbbc941c6	-0.006141874
12	0xbd6525b6	-0.055944167
13	0xbc78b0dd	-0.015178886
14	0xbd36d0d7	-0.04463276
15	0xbd385fea	-0.045013346
16	0xbd15a685	-0.03653576
17	0xbc929fe8	-0.017898515
18	0xbba00312	-0.0048831785
19	0x3d0741f1	0.03302187
20	0xbb88c0a5	-0.0041733556
21	0xbdd039e5	-0.101672925
22	0xbd4508eb	-0.048104208
23	0xbd6c7a46	-0.057733797
24	0xbbd12da9	-0.006383617
25	0xbd82d7f5	-0.06388847
26	0x3c706775	0.014673104
27	0xbc20b7c0	-0.009809434
28	0x3d9d472f	0.07679593
29	0xbd588bd5	-0.05286773
30	0xbd812484	-0.06305793
31	0x3ce8be9c	0.028411202
32	0xba95ee7d	-0.0011438873
33	0xbd8c71c6	-0.06857638
34	0xbda38515	-0.07984368
35	0xbc0cd66c	-0.008596044
36	0xbdfdc195	-0.123904385
37	0xbceb8eed	-0.028754676
38	0xbcc1001a	-0.023559619
39	0x3a9dcce8	0.0012039216
40	0x3d0146fc	0.031561837
41	0x3d5f73d6	0.05455383
42	0xbc911852	-0.017711792
43	0x3d28c6cf	0.041205224
44	0xbcb49fe5	-0.0220489
45	0x3c6ac185	0.014328365
46	0xbd2f6ea6	-0.042830132
47	0xbd2f949f	-0.042866345
48	0xbe1f4ea3	-0.15557341
49	0xbdc51add	-0.096242644
50	0xbcf9b2b9	-0.03048073
51	0xbc4da30a	-0.012551079
52	0x3d083fa3	0.033263814
53	0x3c4295bd	0.011876521
54	0x3ccf78f7	0.025326235
55	0xbc6c1569	-0.014409401
56	0xbac35e9d	-0.0014905516
57	0x3db7bd9e	0.089717135
58	0xbc88acaa	-0.016683895
59	0xbcf6330f	-0.030053644
60	0x3ca28935	0.019840816
61	0xbc8d06d9	-0.01721518
62	0xbca2a220	-0.019852698
63	0xbd30413f	-0.043030974

base.cnn.12.weight f4 [64]
0	0x3f774561	0.9659024
1	0x3f782557	0.96931976
2	0x3f7accfa	0.9796902
3	0x3f8c8273	1.097731
4	0x3f77cca7	0.9679665
5	0x3f8e15ea	1.1100438
6	0x3f6c9a53	0.9242298
7	0x3f839964	1.0281186
8	0x3f8944e8	1.0724154
9	0x3f61ec55	0.8825124
10	0x3f6ac376	0.917045
11	0x3f84c9bf	1.0374068
12	0x3f75c16d	0.9599827
13	0x3f7b96df	0.98277086
14	0x3f666664	0.89999986
15	0x3f70ea38	0.9410739
16	0x3f736c2f	0.9508695
17	0x3f721802	0.94567883
18	0x3f8bb62d	1.0914971
19	0x3f8244b2	1.0177214
20	0x3f79cb03	0.97575396
21	0x3f6c1f43	0.922352
22	0x3f724579	0.94637257
23	0x3f8c6caf	1.0970668
24	0x3f776f99	0.9665466
25	0x3f81e246	1.0147178
26	0x3f5744a5	0.8408912
27	0x3f839dac	1.0282493
28	0x3f84a418	1.0362577
29	0x3f73e2b5	0.952678
30	0x3f847078	1.0346823
31	0x3f88aa33	1.0676941
32	0x3f7dd7fe	0.991577
33	0x3f6e812a	0.9316584
34	0x3f73f1ba	0.9529072
35	0x3f7afd3e	0.98042667
36	0x3f6effb0	0.933589
37	0x3f7358a9	0.9505716
38	0x3f6726a0	0.9029331
39	0x3f85140e	1.0396745
40	0x3f856f3f	1.0424575
41	0x3f810d85	1.0082251
42	0x3f7b008e	0.9804772
43	0x3f86e845	1.0539633
44	0x3f77f9a1	0.9686528
45	0x3f839083	1.0278476
46	0x3f875b92	1.057482
47	0x3f756d5a	0.9586998
48	0x3f692bc7	0.91082424
49	0x3f81490b	1.0100416
50	0x3f6ac0c8	0.9170041
51	0x3f7c3f35	0.98533946
52	0x3f8a28cd	1.0793701
53	0x3f7cc6ea	0.9874102
54	0x3f83f88f	1.0310229
55	0x3f834c5d	1.0257679
56	0x3f899812	1.0749533
57	0x3f8864f3	1.0655807
58	0x3f802464	1.0011106
59	0x3f7bfdd7	0.98434204
60	0x3f8493af	1.035757
61	0x3f7da468	0.9907899
62	0x3f8df2c4	1.1089711
63	0x3f72d1d6	0.94851434

base.cnn.12.bias f4 [64]
0	0x3d64b00f	0.055831965
1	0xbcd4623d	-0.02592575
2	0x3c8b0d67	0.016974164
3	0x3bdafcbe	0.0066829612
4	0x3d30a5c4	0.043126836
5	0xbc8c3c0e	-0.01711848
6	0x3d95cafe	0.07314108
7	0x3c4976d2	0.012296395
8	0xbc9b4c22	-0.018957201
9	0x3da1a9f6	0.078937456
10	0x3d07a605	0.033117313
11	0x3c9b29ee	0.018940892
12	0xbcc8e70a	-0.02452423
13	0x3b1e624b	0.0024167474
14	0xbb5ebfbe	-0.00339888
15	0xbb381a59	-0.0028091876
16	0x3d8c3f44	0.068480045
17	0x3d0e70c0	0.034775496
18	0xbd140400	-0.036136627
19	0x3c823362	0.015893642
20	0x3bc88354	0.006119171
21	0x3d5e8262	0.05432356
22	0xbc9f903a	-0.019477952
23	0xbd1278c1	-0.03575969
24	0x3d248e68	0.04017487
25	0xbdc278d6	-0.09495704
26	0x3da29122	0.07937838
27	0xbc80c5b7	-0.015719278
28	0x3d26aa2c	0.040689632
29	0xbc599d01	-0.013282062
30	0xbb9ad6f9	-0.004725334
31	0x3cc1b978	0.023648009
32	0x3c29a68d	0.01035465
33	0xbd1500bc	-0.036377653
34	0x3a06acb1	0.00051374274
35	0x3d128b0d	0.03577714
36	0x3d8627a4	0.065505296
37	0xbb7a6252	-0.0038205576
38	0xbc05ff32	-0.008178519
39	0xbc846b1d	-0.016164357
40	0xbc3f3da9	-0.011672416
41	0x3ce8043e	0.028322335
42	0xbd056c50	-0.032573998
43	0x3cb0727e	0.02153897
44	0x3c8de3aa	0.017320473
45	0x3d000ad6	0.031260334
46	0xbd33c193	-0.04388578
47	0xbd457184	-0.04820396
48	0x3d7d7f6e	0.061889105
49	0xbbd9537b	-0.006632266
50	0xbce51b51	-0.027967127
51	0x3cc2fc5e	0.023801979
52	0x3cb92acd	0.022603417
53	0x3c8e3222	0.01735789
54	0x3ca3cab8	0.019994125
55	0xbcbea51d	-0.023272092
56	0xbc6e254a	-0.014535258
57	0x3d433754	0.047660187
58	0xbb3e5d77	-0.0029047409
59	0x3cb7002c	0.02233895
60	0x3d1b6ae9	0.037943754
61	0xbafb689e	-0.0019180959
62	0x3d74d2e2	0.059771426
63	0xbd1c6aee	-0.038187914
