CRL_human_AI_overcooked/human_models/model_unident_open/actor_best_r4.pt (torch, 590163 bytes, 20 tensors)

base.cnn.0.weight f4 [32, 26, 3, 3]
0	0x3e4f7137	0.20258032
1	0xbde48231	-0.111576445
2	0x3e37107c	0.17877382
3	0x3e3cd56b	0.18440787
4	0x3d62c681	0.05536509
5	0xbd8c2e1b	-0.068447314
6	0xbe532d33	-0.20622711
7	0xbdfb9af7	-0.122854166
8	0x3e2664c8	0.16249382
9	0x3e816f23	0.25280103
10	0xbd870a6a	-0.06593783
11	0xbe8ee29b	-0.2790726
12	0xbdc8814c	-0.097902864
13	0xbe016986	-0.1263791
14	0xbe629ea4	-0.22130829
15	0xbdea0684	-0.11427024
16	0x3e4803c4	0.19532686
17	0xbcab037e	-0.020875689
18	0xbc87b411	-0.016565355
19	0x3bf70c8f	0.007539339
20	0x3e2c268e	0.16811582
21	0x3e197735	0.1498688
22	0x3e746207	0.2386552
23	0xbd67d79e	-0.056602113
24	0x3d7c843a	0.06164954
25	0xbc2e4512	-0.010636585
26	0x3e34767c	0.17623323
27	0x3e56d077	0.2097796
28	0xbe7daf58	-0.2477392
29	0xbd78646c	-0.060642645
30	0xbd643704	-0.05571653
31	0x3deb0604	0.11475757
32	0xbe22ebe9	-0.15910305
33	0xbdba2bea	-0.09090407
34	0x3db2605c	0.08709785
35	0x3ceb92c0	0.0287565
36	0x3e07d322	0.13264135
37	0x3d924d30	0.071436286
38	0x3c869ede	0.016433176
39	0x3e1770ae	0.14789078
40	0x3dc4bafc	0.09605977
41	0x3d1b73ed	0.037952352
42	0xbdeb6cf2	-0.11495389
43	0xbdbf2e16	-0.09334962
44	0x3e6f30a3	0.23358397
45	0xbdf7513c	-0.12076041
46	0xbdc0ee59	-0.09420461
47	0x3cadab20	0.021199763
48	0xbda61134	-0.0810875
49	0x3c31c209	0.010849484
50	0xbd3cbd8e	-0.04607921
51	0xbd94c877	-0.07264798
52	0xbda46110	-0.08026326
53	0xbcdd06b9	-0.026980745
54	0xbe3daf32	-0.18523863
55	0xbe5a4157	-0.21313988
56	0xbe99e4bf	-0.30057332
57	0x3deb4059	0.11486883
58	0x3e050666	0.12990722
59	0xbd3a5d13	-0.04549892
60	0xbe330a61	-0.17484428
61	0xbd67b238	-0.056566447
62	0xbe1dfe7e	-0.15429112
63	0xbca77ba7	-0.020444704
64	0xbe38d040	-0.18048191
65	0xbe082f3b	-0.13299267
66	0xbe0171bf	-0.12641047
67	0x3c738b44	0.0148647465
68	0xbd83e2b6	-0.06439726
69	0xbe45d299	-0.19318618
70	0xbdb35805	-0.08757023
71	0xbdf41ab8	-0.11919159
72	0xbd995b21	-0.074880846
73	0xbda2c57d	-0.07947824
74	0xbcdd2702	-0.02699614
75	0xbe784bb1	-0.24247624
76	0xbe1d56e8	-0.15365183
77	0x3b712f1b	0.0036801759
78	0x3cbe1b1c	0.023206286
79	0xbd855998	-0.06511229
80	0xbe871c0d	-0.2638859
81	0xbde54c63	-0.1119621
82	0x3d1d0204	0.038332
83	0xbe52cbad	-0.20585509
84	0xbda3b024	-0.079925805
85	0x3e21811c	0.15771908
86	0xbe77b1a9	-0.24188866
87	0xbe269e0f	-0.16271232
88	0x3cc75a37	0.02433501
89	0x3dab92d2	0.08377613
90	0x3e56639b	0.20936434
91	0xbd43c597	-0.04779586
92	0xbd39d0f3	-0.045365285
93	0x3d1dbd65	0.0385107
94	0xbda23d12	-0.079218045
95	0xbcfc7b7d	-0.030820603
96	0xbe204f99	-0.15655364
97	0xbe547add	-0.20749994
98	0xbe5f4c9c	-0.21806568
99	0xbd3f65d9	-0.04672799
100	0x3e183f86	0.14867982
101	0x3ce18b88	0.027532354
102	0x3db7404c	0.089478105
103	0xbd8c7830	-0.068588614
104	0xbdbc01f1	-0.09180058
105	0xbde61f87	-0.11236482
106	0xbc5a8c51	-0.013339118
107	0x3e806598	0.2507751
108	0xbd6ec893	-0.05829675
109	0xbd26d2d8	-0.04072842
110	0xbd932777	-0.07185262
111	0xbd8ed7cf	-0.06974756
112	0xbdc66063	-0.09686353
113	0xbddf6386	-0.109076545
114	0xbdb3877a	-0.087660745
115	0x3d10b00f	0.035324153
116	0xbbdd6e6a	-0.006757547
117	0xbda819a2	-0.08208014
118	0x3dbfe30a	0.09369476
119	0x3d3834a7	0.04497209
120	0xbe16adf7	-0.147148
121	0xbdc32d7c	-0.0953016
122	0xbcd94a88	-0.026524797
123	0x3d1e78d4	0.03868945
124	0x3e6f6ee1	0.2338214
125	0xbdc29b75	-0.09502307
126	0x3b95585c	0.0045576524
127	0x3d8facfd	0.07015417
128	0x3dea27da	0.11433382
129	0x3d8b2943	0.067949794
130	0xbdf07ff0	-0.11743152
131	0x3d140289	0.03613523
132	0x3d1f6488	0.038914233
133	0x3e9ce299	0.3064163
134	0xbe05e065	-0.13073881
135	0x3d82935b	0.06375762
136	0x3d0cef78	0.034408063
137	0xbc2cc2f8	-0.010544531
138	0xbd23969e	-0.03993856
139	0x3e185349	0.14875521
140	0x3ccc2bdf	0.024923263
141	0xbb685dbc	-0.003545626
142	0xbdf73b86	-0.120719
143	0xbe04753f	-0.12935351
144	0x3c863a99	0.016385363
145	0x3cfd33e1	0.030908527
146	0xbdb44e38	-0.088039815
147	0x3e0bb863	0.13644557
148	0xbe024feb	-0.12725799
149	0x3d834707	0.06410032
150	0x3e2ffd5b	0.17186491
151	0xbce0d367	-0.027444554
152	0x3d0abffc	0.033874497
153	0xbe12a3a5	-0.14320238
154	0xbd250239	-0.040285323
155	0x3cbd6696	0.023120206
156	0x3d70ef45	0.058821935
157	0x3db3871c	0.087660044
158	0x3e9437fa	0.28948957
159	0xbde08c65	-0.10964278
160	0xbe222d27	-0.15837537
161	0x3cab6e30	0.020926565
162	0xbd3232ed	-0.043505598
163	0x3dd34460	0.10315776
164	0x3d8c668a	0.06855495
165	0xbdaa63d5	-0.08319823
166	0xbdb71640	-0.08939791
167	0x3be14005	0.006874087
168	0xbcf96975	-0.030445794
169	0x3e79055e	0.24318454
170	0xbcde85be	-0.027163383
171	0xbd58603b	-0.052826148
172	0x3d431922	0.04763139
173	0xbc381fc4	-0.011238042
174	0xbd8fa28b	-0.070134245
175	0xbd1c53be	-0.0381658
176	0x3dfc97ef	0.123336665
177	0xbc7fc38e	-0.015610589
178	0xbe4fee45	-0.20305736
179	0xbc8173f9	-0.01580237
180	0x3d6044b6	0.054753028
181	0x3cc2e66a	0.02379151
182	0x3db5346f	0.088478915
183	0x3dbb3178	0.09140295
184	0x3d95cd1c	0.07314512
185	0x3e58637f	0.21131705
186	0x3d6ce1cd	0.057832528
187	0xbe1dacad	-0.15397902
188	0x3c8f3eae	0.017485943
189	0xbd2340df	-0.039856788
190	0x3e543fca	0.20727459
191	0x3d95dec0	0.07317877
192	0xbdf059c7	-0.11735874
193	0xbdbfb1d7	-0.09360092
194	0x3c9269a3	0.017872637
195	0xbd266ec4	-0.040632978
196	0xbdd6512c	-0.10464701
197	0xbb4e82f7	-0.0031511167
198	0x3d8b90ff	0.06814765
199	0xbc6b00bf	-0.01434344
200	0x3d746100	0.05966282
201	0x3d4e3d97	0.050351705
202	0xbe4d33be	-0.2003927
203	0x3d224fbe	0.03962683
204	0xbd9c446c	-0.07630238
205	0xbb6961e2	-0.0035611321
206	0x3e217086	0.1576558
207	0xbbde99df	-0.006793245
208	0xbd5dc0af	-0.054138836
209	0x3e03a985	0.12857635
210	0xbd8b9da5	-0.06817178
211	0x3d09a22a	0.033601917
212	0xbdc310e8	-0.09524709
213	0xbe60843e	-0.21925446
214	0xbd095782	-0.03353072
215	0x3bc9ea17	0.006161939
216	0xbc65c737	-0.014024547
217	0x3d57dfb4	0.052703574
218	0xbdfa5212	-0.12222685
219	0x3d7c7991	0.061639372
220	0x3d3b634f	0.045749005
221	0xbdcfd187	-0.10147386
222	0xbda91709	-0.08256347
223	0x3c4c5b64	0.012472961
224	0xbe6de2be	-0.23231027
225	0xbdbd8615	-0.0925409
226	0x3d35e30a	0.044405974
227	0x3c8ca271	0.017167302
228	0xbd99af58	-0.07504147
229	0xbe1223ea	-0.14271513
230	0xbca5d3f0	-0.020242661
231	0xbd89c150	-0.067263246
232	0xbdada154	-0.084780365
233	0xbda4bcfb	-0.08043858
234	0x3e01a7f4	0.12661725
235	0x3d7c56a3	0.06160606
236	0xbd9a4cd8	-0.07534188
237	0x3dff7c91	0.12474931
238	0xbd7b3241	-0.061327223
239	0x3e64206f	0.22277997
240	0x3e547906	0.20749292
241	0xbda7b038	-0.08187908
242	0x3dd6f2bc	0.10495517
243	0xbd43c7ef	-0.047798093
244	0xbd451f63	-0.048125636
245	0x3de2b6a2	0.11069991
246	0xbe1228d2	-0.14273384
247	0xbda4255c	-0.08014938
248	0xbd7e680b	-0.06211094
249	0x3cdec9cc	0.027195834
250	0xbe21354f	-0.15742992
251	0x3aa3976c	0.001248104
252	0xbdf4c067	-0.1195076
253	0xbe5ea97f	-0.21744345
254	0xbd9b8f69	-0.07595713
255	0xbd6976df	-0.05699813

base.cnn.0.bias f4 [32]
0	0xbd614c48	-0.055004388
1	0xbd8ed9dc	-0.06975147
2	0xbd840e6f	-0.064480655
3	0x3ca02d41	0.019552829
4	0x3b47542a	0.0030415156
5	0xbbb6b92f	-0.005576275
6	0xbcdb85b6	-0.026797157
7	0xb8e76152	-0.00011033066
8	0xbccd808f	-0.025085716
9	0xbca520c6	-0.02015723
10	0xbd8e5ca2	-0.06951262
11	0xbd5babe8	-0.05363074
12	0xbd7e5ba6	-0.06209912
13	0xbd6d6cb7	-0.057965007
14	0xbd1ddc23	-0.038540017
15	0xbd4eddf5	-0.050504643
16	0xbc335692	-0.010945933
17	0x3ce725a7	0.028216196
18	0x3d26de37	0.040739264
19	0xbc9342f1	-0.017976256
20	0xbbb9ee12	-0.005674132
21	0xbd76a5a3	-0.060216557
22	0xbd0ddcd7	-0.034634437
23	0xbd339fa1	-0.043853406
24	0xbc91ee22	-0.017813746
25	0xbbb984ff	-0.0056616063
26	0xbd6522fb	-0.055941563
27	0xbd5d8096	-0.054077707
28	0xbd3ae7fc	-0.045631394
29	0x3bd230eb	0.006414523
30	0xbcb4791b	-0.022030404
31	0xbcebbf2d	-0.028777683

base.cnn.2.weight f4 [64, 32, 3, 3]
0	0x3e324f72	0.17413118
1	0x3c431dbc	0.011908945
2	0x3c42c5e8	0.011888005
3	0x3d4822ed	0.048861433
4	0xbe2529a8	-0.16129172
5	0xbce9ebdb	-0.028554847
6	0x3e340051	0.17578246
7	0xbe7375a5	-0.23775347
8	0xbd51a95b	-0.0511869
9	0x3e63a8d5	0.22232373
10	0xbd659832	-0.056053348
11	0x3ca4b689	0.02010657
12	0x3d6ffa40	0.058588266
13	0xbe2fb036	-0.17157063
14	0xbd598b4e	-0.053111367
15	0xbb65698f	-0.0035005545
16	0xbd584f48	-0.052809983
17	0x3d712b3a	0.058879115
18	0xbcb5a749	-0.022174494
19	0x3ca00c91	0.019537242
20	0xbd16b3a1	-0.0367924
21	0xbd3191c9	-0.043351922
22	0x3e38fd2d	0.18065329
23	0xbd81a5a3	-0.06330421
24	0x3c956e9e	0.018241223
25	0x3cfce694	0.030871667
26	0x3da9d1d9	0.082919784
27	0xbb94bf39	-0.004539397
28	0xbe0a8df8	-0.1353072
29	0xbe0eec82	-0.13957408
30	0x3da44b26	0.08022146
31	0xbe24b2f8	-0.16083896
32	0xbcb320f1	-0.021866294
33	0xbc966c12	-0.018362079
34	0xbd1ddc6f	-0.0385403
35	0xbd2cc38b	-0.04217867
36	0x3e0a5c36	0.13511738
37	0xbd78a006	-0.060699485
38	0xbe30c080	-0.17260933
39	0xbbe091e4	-0.006853329
40	0xbd635049	-0.055496488
41	0xbd91e280	-0.071232796
42	0xbd8172c5	-0.06320719
43	0xbe331176	-0.1748713
44	0x3e180911	0.14847209
45	0x3d674694	0.056463793
46	0xbe895625	-0.26823536
47	0xbca7888d	-0.020450855
48	0x392eb429	0.00016661048
49	0xbe19f42e	-0.15034553
50	0x3c1d2743	0.00959188
51	0xbdc37008	-0.09542853
52	0x3de9c155	0.11413828
53	0xbca47950	-0.020077378
54	0xbe18aae2	-0.14908937
55	0x3d2690a4	0.040665284
56	0xbd8eab76	-0.06966297
57	0xbcd7a5c0	-0.026324153
58	0x3c38d368	0.011280872
59	0xbd16ba0b	-0.03679852
60	0x3e030dc2	0.12798217
61	0x3d8abb78	0.06774038
62	0x3dfeaf63	0.12435796
63	0x3e317ff3	0.17333965
64	0x3dffe868	0.124955
65	0xbdd9bd99	-0.10631866
66	0xbccd25bf	-0.025042413
67	0x3d63d1e4	0.05562009
68	0x3d8f1a20	0.06987405
69	0x3dabbfcf	0.08386194
70	0xbd8a0b89	-0.067404814
71	0xbc42b0df	-0.01188299
72	0x3dc3b502	0.09556009
73	0xbd5ea514	-0.05435665
74	0x3d5acf1a	0.053420164
75	0x3d97c76c	0.074110836
76	0xbe015f69	-0.12634052
77	0x3b84e3aa	0.00405546
78	0x3d432227	0.047639992
79	0xbda59ca7	-0.0808652
80	0x3ce42918	0.027851626
81	0xbd073faa	-0.0330197
82	0x3e334c04	0.17509466
83	0xbd596de4	-0.053083315
84	0xbe001735	-0.12508853
85	0x3b5aaf16	0.003336852
86	0x3b7ce8e1	0.0038590955
87	0x3e0f44c7	0.1399108
88	0x3dd8b2d8	0.10580987
89	0x3cd85074	0.02640555
90	0x3e54f67d	0.20797153
91	0xbddcca51	-0.10780776
92	0xbe409eaf	-0.18810533
93	0xbdef27b9	-0.11677498
94	0x3cf3bad2	0.029752169
95	0xbda525cc	-0.0806385
96	0xbcfbd338	-0.030740365
97	0x3d1fe95a	0.0390409
98	0xbd6e5bdc	-0.058193073
99	0xbdaaedd7	-0.083461456
100	0x3e82af7c	0.2552451
101	0x3de1f614	0.11033264
102	0x3d6572b2	0.056017585
103	0xbc69c312	-0.0142677
104	0xbcfff763	-0.031245893
105	0x3d156012	0.036468573
106	0x3cc471bb	0.023980012
107	0x3d99c0ab	0.075074516
108	0xbd79c1a8	-0.0609757
109	0xbe33d923	-0.175633
110	0xbe474c19	-0.19462623
111	0xbd1e2ef1	-0.038618986
112	0xbd994677	-0.07484143
113	0xbd6ee330	-0.05832213
114	0x3cea18e4	0.028576322
115	0xbd7d37df	-0.06182086
116	0xbdc75229	-0.09732468
117	0x3cf07db0	0.029356807
118	0x3d1de12d	0.038544822
119	0x3cf42873	0.029804444
120	0x3ceba04f	0.028762965
121	0xbdfd27d6	-0.12361114
122	0xbce797b3	-0.028270578
123	0x3dc6cc4e	0.09706937
124	0x3e14b7b0	0.14523196
125	0xbdc241be	-0.094851956
126	0xbd0b9e88	-0.034086734
127	0x3d8e3197	0.06943052
128	0x3dbfb0c4	0.09359887
129	0x3db4ff38	0.088377416
130	0x3db7de8a	0.08977993
131	0x3dfcf85c	0.12352058
132	0xbcc92446	-0.02455343
133	0x3d181b7e	0.037135594
134	0xbd83bd32	-0.064325705
135	0xbd33a9d0	-0.043863118
136	0xbcebf93e	-0.028805371
137	0x3dedf5cb	0.11619147
138	0x3cca2ba0	0.024679005
139	0x3dd45ba5	0.10369042
140	0x3db1b17b	0.0867643
141	0x3de8032b	0.11328729
142	0xbd5c31f4	-0.053758577
143	0xbe3dfef5	-0.1855429
144	0x3de42776	0.11140339
145	0x3dc67459	0.0969016
146	0x3e4a9aa9	0.1978556
147	0xbe264772	-0.16238192
148	0x3e10fddd	0.14159341
149	0xbe1f6a63	-0.15567927
150	0x3e22abab	0.15885799
151	0x3c4181fb	0.011810775
152	0x3e64d3af	0.22346376
153	0x3ce08047	0.027404917
154	0x3d9a1bd5	0.0752484
155	0x3b61cbfe	0.0034453864
156	0xbcaed4ec	-0.021341763
157	0x3cc389e4	0.023869462
158	0xbce5c330	-0.028047174
159	0x3d0aa4c0	0.033848524
160	0xbe9ea55a	-0.30985528
161	0xbd3b0f6f	-0.045669015
162	0x3d9f7f28	0.07787925
163	0xbe067217	-0.1312946
164	0x3e13c137	0.14429174
165	0x3da84f98	0.08218306
166	0xbdd9240d	-0.10602579
167	0x3ca22149	0.019791262
168	0xbe28d8c7	-0.16488944
169	0xbd917ef6	-0.07104294
170	0x3dc2abed	0.095054485
171	0xbd4ece5b	-0.050489765
172	0x3d0530a8	0.032517105
173	0x3ae48a34	0.0017436207
174	0xbd3fdba5	-0.04684033
175	0xbe045ca7	-0.12925969
176	0xbd3bd1e0	-0.04585445
177	0x3c88be53	0.016692316
178	0xbdc5bfb9	-0.09655709
179	0x3dbac1f5	0.091190256
180	0xbd72b492	-0.059254237
181	0xbcaf14ac	-0.021372162
182	0x3e046699	0.12929763
183	0xbc839a2b	-0.016064724
184	0x3dd9b6c4	0.10630563
185	0xbd1fb230	-0.038988292
186	0xbd85eea8	-0.06539661
187	0xb9be4d44	-0.0003629719
188	0x3da6dc77	0.08147519
189	0x3d8ad802	0.067794815
190	0x3d4c10c2	0.04982067
191	0x3e28f46e	0.16499493
192	0x3ccfd8a3	0.025371855
193	0xbdecd629	-0.11564285
194	0xbd747832	-0.05968494
195	0x3e0d37b1	0.13790776
196	0x3daac7c0	0.083388805
197	0xbdeb066d	-0.11475835
198	0x3d453e9b	0.04815541
199	0x3dc50f6c	0.09622082
200	0xbddddf43	-0.108335994
201	0x3c2c32fb	0.010510202
202	0xbdf358c5	-0.11882166
203	0xbdf92e40	-0.121670246
204	0xbcaf5ed9	-0.021407532
205	0xbd5712ce	-0.052508168
206	0xbd59e723	-0.053198945
207	0xbbc54a6e	-0.0060208356
208	0x3cf56bf8	0.02995871
209	0xbd81ddca	-0.06341131
210	0x3d7614bd	0.06007837
211	0x3be5c416	0.0070119007
212	0x3d9a6b86	0.0754004
213	0xbe361e99	-0.1778511
214	0x3c29be91	0.010360376
215	0x3d8da934	0.069170386
216	0xbdcd4c5a	-0.100243285
217	0x3d9e134b	0.077185236
218	0xbdd2e748	-0.1029802
219	0x3da398af	0.079881065
220	0xbd27af8b	-0.040938895
221	0xb7934028	-1.755364e-05
222	0x3c544d2a	0.0129578505
223	0xbd9dc89a	-0.07704277
224	0x3d56e7b9	0.05246708
225	0xbd738710	-0.059454978
226	0xbd831fbb	-0.064025365
227	0x3e5c847e	0.21534917
228	0xbe959075	-0.29211774
229	0xbdffa187	-0.12481981
230	0xbd78d29a	-0.06074772
231	0xbd2982c5	-0.041384477
232	0xbc57aceb	-0.013163785
233	0x3db76cee	0.089563236
234	0x3e13ab95	0.14420922
235	0xbd84a911	-0.06477559
236	0xbddcdc12	-0.107841626
237	0x3d3f36ca	0.04668311
238	0x3dc5704d	0.0964056
239	0xbd52713e	-0.051377527
240	0xbcdba0b8	-0.026810035
241	0x3cbe981d	0.023265893
242	0xbd1ab2f6	-0.037768327
243	0x3da75d18	0.08172053
244	0xbdfa6642	-0.122265354
245	0x3dc743c2	0.09729721
246	0xbe230bbd	-0.15922447
247	0xbc0cfd2e	-0.008605285
248	0xbc71ec4a	-0.014765808
249	0x3da7fb9e	0.08202289
250	0xbe28ef37	-0.16497503
251	0x3d90aad5	0.070638336
252	0xbc2e72bd	-0.010647473
253	0xbc931503	-0.017954355
254	0xbe0e9f71	-0.1392801
255	0x3dbd431a	0.09241314

base.cnn.2.bias f4 [64]
0	0xbd231535	-0.039815146
1	0xbb9a03b0	-0.0047001466
2	0xbd16457a	-0.03668735
3	0xbc6ff90f	-0.014646783
4	0xbc9200a1	-0.017822566
5	0x3c92dc25	0.017927239
6	0xbb094a2e	-0.0020948756
7	0xbb09cfe9	-0.0021028465
8	0x3c848a8f	0.016179351
9	0xbc1c814a	-0.009552309
10	0xbca964a6	-0.020677876
11	0xbd073daf	-0.03301781
12	0xbca7580a	-0.020427722
13	0xbd815c9c	-0.06316492
14	0x3cbbbbf3	0.02291677
15	0xbca3b996	-0.019985955
16	0xbcd7b3c3	-0.026330834
17	0xbd2ab347	-0.04167488
18	0x3b9b6a7d	0.004742919
19	0xbc94c9ad	-0.018162573
20	0xbd52e546	-0.051488183
21	0x3cd1ebe4	0.025625177
22	0xbb9e3fb7	-0.0048293727
23	0x3ca07727	0.019588066
24	0xbd568d41	-0.052380804
25	0xbc86c830	-0.016452879
26	0x3cfaf286	0.030633222
27	0xbc40728b	-0.011746059
28	0xbcbec300	-0.023286343
29	0xbcb1d204	-0.021706589
30	0xbd445ba3	-0.047938954
31	0xbd7b63a5	-0.061374325
32	0xbc3591a8	-0.01108209
33	0xbd0d72d1	-0.034533326
34	0xbcd8cb49	-0.026464121
35	0x3c04186d	0.008062464
36	0x3bf94e62	0.007608221
37	0xbd4563f6	-0.048191033
38	0xbcc4d547	-0.02402748
39	0xba00e804	-0.00049173855
40	0xbb27b6ce	-0.0025591138
41	0xbcdd465c	-0.027011089
42	0xbbebf091	-0.0072003086
43	0xbc37c68f	-0.011216774
44	0xbd729f94	-0.059234217
45	0xbce04e92	-0.027381215
46	0xbbd62821	-0.0065355455
47	0xbbdaab5d	-0.00667326
48	0xbb2ed2ff	-0.0026676056
49	0x3c314f9e	0.010822205
50	0x3abdb226	0.0014472648
51	0x3c9a8e0e	0.018866565
52	0xbc9d254e	-0.019182827
53	0xbc930521	-0.017946782
54	0xbdabb0be	-0.0838332
55	0xbbe2ab1a	-0.0069173696
56	0xbd126cee	-0.035748415
57	0xbc7efabf	-0.015562712
58	0xbd3463c7	-0.044040468
59	0x3c721eac	0.014777821
60	0x3d477db1	0.048703853
61	0x3be63ddf	0.0070264186
62	0x3c83a0ab	0.016067823
63	0xbd0abba1	-0.033870343

base.cnn.4.weight f4 [32, 64, 3, 3]
0	0xbc2958f8	-0.010336153
1	0xbd8b3458	-0.06797093
2	0xbe328c79	-0.17436399
3	0x3d437c8a	0.04772619
4	0xbe0a8c86	-0.13530168
5	0x3c9052d9	0.01761763
6	0x3d662ef8	0.056197137
7	0xbd7fe01e	-0.062469594
8	0x3d0c2b8c	0.034221217
9	0xbb6f569d	-0.0036520131
10	0xbc3f3602	-0.011670591
11	0x3cd7a85a	0.026325393
12	0xbb6b566b	-0.0035909663
13	0x3bea4991	0.007149883
14	0xbdd65a54	-0.104664475
15	0xbb2b8bf6	-0.0026175953
16	0xbc582ef3	-0.013194787
17	0xbddd857b	-0.10816475
18	0xbca49276	-0.02008937
19	0xbcbebe9d	-0.02328425
20	0x3e1db4a2	0.15400937
21	0x3e3aa129	0.1822554
22	0x3d7b2aef	0.06132024
23	0x3d8f22c6	0.069890544
24	0xbbc75480	-0.006083071
25	0x3dfb3e96	0.12267797
26	0xbd89f2e0	-0.06735778
27	0x3d29a4d4	0.041416958
28	0x3cb99c47	0.022657527
29	0xbd8138f6	-0.063096926
30	0xbe043d6b	-0.12914054
31	0xbe2732ca	-0.16327968
32	0xbd2942d6	-0.041323505
33	0x3c5d960e	0.013524545
34	0x3dcec16c	0.10095486
35	0x3cd2d6fd	0.02573728
36	0x3d80f006	0.06295781
37	0x3d44e350	0.048068345
38	0xbc487094	-0.012233872
39	0x3b5457d8	0.0032400992
40	0xbe275386	-0.16340455
41	0xbe07bdc7	-0.13255988
42	0xbcd2d64b	-0.025736948
43	0xbda6816a	-0.081301525
44	0xbd962de1	-0.073329695
45	0xbcbd289e	-0.023090657
46	0x3ca34448	0.01993002
47	0xbd96bbf2	-0.073600665
48	0xbd0845d6	-0.033269726
49	0x3d397125	0.04527392
50	0xbc91f4c4	-0.017816909
51	0xbd92ab65	-0.07161597
52	0xbc9d2db9	-0.019186841
53	0xbbd69a0e	-0.0065491265
54	0xbe325dee	-0.17418644
55	0x3d9c5d1b	0.07634946
56	0x3c20d8d4	0.009817321
57	0x3dbfd29b	0.09366342
58	0xbdd7022e	-0.104984626
59	0xbd94f7d1	-0.0727383
60	0xbdaf5875	-0.08561794
61	0x3db60cf6	0.08889191
62	0xbddeeb44	-0.10884717
63	0x3ca983df	0.020692764
64	0x3ba4a8ef	0.0050250213
65	0x3db1ee92	0.08688082
66	0xbbc6b8cf	-0.0060645114
67	0xbd53297e	-0.051553242
68	0xbc8beeca	-0.017081637
69	0x3c9b7e3d	0.018981094
70	0x3da36a5b	0.0797927
71	0xbcbb1768	-0.02283831
72	0x3de428c2	0.111405864
73	0xbca8cec9	-0.020606415
74	0xbd91fd9f	-0.071284525
75	0x3d30eeb1	0.043196384
76	0x3c910973	0.017704701
77	0x3d019f71	0.031646196
78	0xbca3c0b2	-0.019989345
79	0xbd58ffd3	-0.052978348
80	0x3df63148	0.120211184
81	0x3de3231d	0.11090682
82	0xbd8cde68	-0.06878358
83	0xbdecf2fe	-0.115697846
84	0x3d8037dc	0.06260654
85	0x39e5e537	0.00043849062
86	0x3e0d79e1	0.13816024
87	0xbd3f16d7	-0.04665264
88	0x3e0cf44e	0.1376507
89	0xbd2eb0f0	-0.04264921
90	0xbe215a47	-0.15757094
91	0xbd87f035	-0.06637613
92	0xb8b0c246	-8.42852e-05
93	0x3d6fc826	0.058540486
94	0xbcd4f2ae	-0.025994625
95	0xbd895455	-0.06705538
96	0xbd7a5dae	-0.061124496
97	0xbe11c9f9	-0.14237203
98	0x3b590fde	0.003312103
99	0x3d373856	0.04473146
100	0x3ca45210	0.020058662
101	0x3cd2198c	0.025646947
102	0xbd17e424	-0.037082806
103	0xbda01f30	-0.078184485
104	0xbdba591b	-0.09099027
105	0x3cf83340	0.030297875
106	0x3ab4c4ad	0.0013791524
107	0x3d19c678	0.03754279
108	0xbdb2d11c	-0.08731291
109	0x3d34b4ad	0.04411762
110	0x3d6e869a	0.058233835
111	0xbd30e130	-0.043183506
112	0x3d8b69f0	0.06807315
113	0xbd533fa1	-0.051574353
114	0xbc1e6e3e	-0.0096698385
115	0xbb254d7a	-0.0025223182
116	0xbdd70f30	-0.10500944
117	0xbcf5b47c	-0.029993288
118	0x3c245eef	0.0100324
119	0x3db8ed1b	0.09029599
120	0xbd32fb67	-0.043696787
121	0x3c8ff2b9	0.017571794
122	0xbdd34918	-0.10316676
123	0xbd7d3c8a	-0.061825313
124	0x3d9754bd	0.073892094
125	0x3decd0c0	0.115632534
126	0xbd28f22e	-0.041246586
127	0xbd01691f	-0.031594392
128	0x3df3d7a8	0.119063675
129	0xbd752651	-0.059850994
130	0x3d2014e1	0.03908241
131	0xbda01182	-0.07815839
132	0x3bf7a26e	0.007557205
133	0x3d003b36	0.031306468
134	0xbdde47ea	-0.1085356
135	0xbbd749b5	-0.006570066
136	0xbe551552	-0.20808914
137	0xbd856b97	-0.06514662
138	0x3bf1258f	0.0073592137
139	0x3d5179fe	0.05114173
140	0xbe0a11fc	-0.13483423
141	0x3dd7ec26	0.105430886
142	0xbdca64fa	-0.09882541
143	0xbddd4223	-0.1080363
144	0x3cf7f808	0.030269638
145	0x3ca71e0e	0.020400073
146	0x3cf1a8c1	0.029499413
147	0x3dfe29a6	0.124102876
148	0xbdc85584	-0.09781936
149	0xbc86cbe3	-0.016454643
150	0xbe70d19d	-0.23517461
151	0xbe27c60a	-0.1638414
152	0xbd569928	-0.052392155
153	0x3dfd2e77	0.12362378
154	0xbc2a5a95	-0.010397573
155	0xbca304e1	-0.019899787
156	0xbd2e1cd9	-0.04250798
157	0x3d1797f5	0.037010152
158	0xbe3f4edd	-0.18682428
159	0x3d97a268	0.074040234
160	0x3d0332bf	0.032030817
161	0xbbaf4be4	-0.005349623
162	0xbe1a405b	-0.15063612
163	0xbdaa5984	-0.08317855
164	0xbdd0f7d0	-0.102035165
165	0xbae92d26	-0.0017789945
166	0xbc409878	-0.011755101
167	0xbe9067c3	-0.28204164
168	0x3d5d5990	0.05404049
169	0x3deae23a	0.114689305
170	0x3cb592e5	0.022164771
171	0x3d06ed48	0.032941133
172	0xbd95e6d7	-0.0731942
173	0x3d8cfd8c	0.06884298
174	0x3bc71a30	0.00607612
175	0xbdc0c6d4	-0.094129235
176	0xbd3cb4da	-0.04607091
177	0xbe0b69e2	-0.1361461
178	0x3e2329c3	0.159339
179	0x3c2070b2	0.009792494
180	0xbd87a558	-0.06623334
181	0xbdaac960	-0.083391905
182	0x3cd19351	0.025582941
183	0x3ccdcf65	0.025123307
184	0xbe006b57	-0.12540947
185	0xbe083817	-0.13302647
186	0x3d495432	0.04915256
187	0x3d25df7a	0.040496327
188	0xbd1650c9	-0.036698136
189	0xbe01bab0	-0.12668872
190	0xbc3fa211	-0.0116963545
191	0x3d82cc1e	0.063865885
192	0x3e24f4bd	0.16108985
193	0xbdb4315f	-0.08798479
194	0x3bee7340	0.0072769225
195	0x3d918206	0.07104878
196	0xbddf3162	-0.10898091
197	0x3dad793b	0.084703885
198	0xbdb3f3d2	-0.087867394
199	0xbd83f2fd	-0.06442831
200	0xbddbc55d	-0.107310034
201	0x3dc5a740	0.09651041
202	0x3d891c9e	0.066949114
203	0x3dee04ce	0.1162201
204	0xbdd612b4	-0.10452786
205	0xbd1b7ec7	-0.0379627
206	0xbdbea665	-0.09309081
207	0xbd1d0f29	-0.038344536
208	0x399327f9	0.00028067807
209	0xbe04e3d0	-0.12977529
210	0xbdb1ae9b	-0.086758815
211	0xb9cfd58a	-0.00039641216
212	0x3dd245d9	0.10267229
213	0x3d5f6afd	0.05454539
214	0xbdf7cb72	-0.12099351
215	0x3d3f3b66	0.046687506
216	0xbba8dbda	-0.0051531615
217	0x3d8bfc04	0.068351775
218	0xbdeb4959	-0.11488599
219	0x3c05253c	0.008126553
220	0x3cc40a37	0.023930652
221	0xbc29f6ba	-0.010373766
222	0x3c006ada	0.007837975
223	0xbcdddccf	-0.027082829
224	0xbc729001	-0.014804841
225	0xbd7f400a	-0.06231693
226	0xbd4d49de	-0.050119273
227	0xbbfc019a	-0.0076906206
228	0xbbce9eff	-0.006305575
229	0xbce997db	-0.028514793
230	0x3bc76c00	0.0060858727
231	0x3db62465	0.088936605
232	0x3bf93e3f	0.0076062973
233	0xbcca919b	-0.024727633
234	0xbd299b6b	-0.041407984
235	0xbe094008	-0.13403332
236	0x3dabaa51	0.08382095
237	0xbd429487	-0.047504928
238	0x3ddacbe1	0.10683418
239	0x3e0aa200	0.1353836
240	0xbd8047cd	-0.06263695
241	0xbd99dee7	-0.075132184
242	0xbe84b929	-0.25922516
243	0xbd09e05b	-0.033661228
244	0x3db080aa	0.08618291
245	0xbcc1021d	-0.023560578
246	0xbd7c0b74	-0.06153436
247	0x3dea23c7	0.11432605
248	0xbcd95851	-0.02653137
249	0x3de0d3a2	0.10977866
250	0x3e4c8a97	0.19974743
251	0xbd36a6e6	-0.04459276
252	0x3e05b928	0.13058913
253	0xbe333c47	-0.17503463
254	0x3d4b7aff	0.049677845
255	0x3db11c7d	0.08648012

base.cnn.4.bias f4 [32]
0	0xbac91a62	-0.0015342946
1	0xbb9cb8ce	-0.0047827726
2	0xbce92428	-0.028459623
3	0xbcd8c8f7	-0.026463015
4	0xbc086473	-0.00832473
5	0xbc872fb3	-0.016502237
6	0xbca63f08	-0.020293728
7	0xbcbfbe1a	-0.023406077
8	0xbc938925	-0.018009732
9	0xbd0a5e55	-0.03378137
10	0xbcc08ca5	-0.023504565
11	0xbc9a78bd	-0.0188564
12	0xbc9e1ad8	-0.01929991
13	0xbd0a1cff	-0.03371906
14	0xbcff5def	-0.03117272
15	0xbcfdbd70	-0.03097412
16	0xbc90c264	-0.017670818
17	0xbd00c44b	-0.0314372
18	0xbd14a1a7	-0.036286976
19	0xbd0fec93	-0.035137724
20	0xbbce7548	-0.006300602
21	0xbd11acf5	-0.035565335
22	0xbd0b8071	-0.03405804
23	0xbc9a7ac1	-0.018857362
24	0xbc8c08df	-0.017094074
25	0xbcc07b01	-0.023496153
26	0xbd33af1e	-0.043868177
27	0xbd0bf966	-0.03417339
28	0xbd1c435a	-0.03815017
29	0xbd24bc9a	-0.040218927
30	0xbd2d1bfe	-0.042263024
31	0x3ccf6039	0.025314437

base.cnn.7.weight f4 [64, 1440]
0	0x3cf859b7	0.030316217
1	0xbda67b2e	-0.081289634
2	0xbcdf0a5e	-0.027226623
3	0xbd80563a	-0.062664464
4	0x3d525051	0.051346127
5	0x3cdf12b6	0.027230602
6	0xbd36a132	-0.04458732
7	0xbd8e6882	-0.06953527
8	0x3d2c7142	0.0421002
9	0xbd53f895	-0.05175074
10	0x3a0f15d7	0.00054582715
11	0xbe1c2179	-0.15247144
12	0xbdf6cacb	-0.120503984
13	0x3d44d894	0.048058107
14	0xbd78cd80	-0.060742855
15	0xbd0f30cf	-0.034958657
16	0xbcf3a24e	-0.029740479
17	0xbc1161cf	-0.008873417
18	0x3d2adb6c	0.041713163
19	0xbd2a753a	-0.041615702
20	0xbdca29ee	-0.09871279
21	0x3c2c8b4f	0.010531261
22	0xbd82bd0e	-0.063837156
23	0xbd11c2cf	-0.035586175
24	0xbdbe77a0	-0.093001604
25	0x3c872e98	0.01650171
26	0x3c46d705	0.012136226
27	0x3d274222	0.040834554
28	0x3c4b3661	0.012403102
29	0xbb364100	-0.002780974
30	0xbe196280	-0.14978981
31	0x3c08f099	0.008358144
32	0x3d80d2a9	0.0629018
33	0x3da5d303	0.08096888
34	0xbde5f994	-0.11229244
35	0x3ba22f07	0.0049494538
36	0x3dc178f4	0.09446898
37	0xbd97f725	-0.07420186
38	0xbe5156e2	-0.204433
39	0xbc7fbf93	-0.01560964
40	0xbcbe27f2	-0.023212407
41	0x3d76fe0d	0.060300875
42	0xbd75fe4f	-0.06005698
43	0x3da25465	0.07926253
44	0x3da671e9	0.081271954
45	0x3a64ce47	0.00087282475
46	0xbc8014ab	-0.015634855
47	0x3b8fbbe7	0.0043864134
48	0xbdbba9e4	-0.091632634
49	0xbc3d17de	-0.011541335
50	0x3ab98bf5	0.001415609
51	0x3d5bd15f	0.05366647
52	0xbd00233c	-0.031283602
53	0x3cc167cc	0.023609065
54	0xbcf9246a	-0.030412871
55	0x3d1e209c	0.038605317
56	0xbc301d79	-0.010749214
57	0x3cb5d3ae	0.022195663
58	0xbd8f9a66	-0.07011871
59	0xbd58032c	-0.0527374
60	0xbdbcae51	-0.09212936
61	0xbd181374	-0.037127927
62	0xbda97dc3	-0.0827594
63	0xbd05734c	-0.03258066
64	0xba90e5f5	-0.0011054861
65	0xbda8bdc3	-0.08239319
66	0x3d8bd2e5	0.06827334
67	0x3c206016	0.009788534
68	0xbc83689f	-0.016041098
69	0xbd34437f	-0.04400968
70	0x3d990bf8	0.07472986
71	0x3de58697	0.112073116
72	0xbdc5dfbd	-0.09661815
73	0xbb0b7733	-0.0021280765
74	0xbc008ffe	-0.00784683
75	0x3c545eeb	0.012962083
76	0xbcba536b	-0.022744855
77	0x3d1f2778	0.038856
78	0x3c24b2f2	0.0100524295
79	0xbd49ed28	-0.049298435
80	0x3da9adaf	0.08285081
81	0xbd2a9f22	-0.041655667
82	0xbdbed235	-0.093174376
83	0xbdd6a339	-0.10480351
84	0x3d52487d	0.05133866
85	0x3e028d49	0.12749209
86	0xbdb09a5a	-0.0862319
87	0x3d4cfb1b	0.05004416
88	0x3d41d2f5	0.047320325
89	0xbdc822f1	-0.097722895
90	0xbd64abea	-0.055828013
91	0xbc61118c	-0.013737094
92	0xbcefd14d	-0.029274607
93	0xbd02c2b1	-0.031923953
94	0x3c9a067f	0.018801926
95	0xbd3689d1	-0.044565026
96	0xbcd800b4	-0.026367523
97	0x3d2c4d41	0.042065863
98	0xbb96ec14	-0.0046057794
99	0x3e1edef7	0.15514742
100	0xbd72afb7	-0.059249606
101	0xbd2c12d7	-0.042010155
102	0xbd0f1066	-0.03492775
103	0x3d5eb889	0.054375205
104	0xbcd80a07	-0.026371969
105	0x3da46fd9	0.08029146
106	0xbdc1e83b	-0.094681226
107	0xbda52fce	-0.08065759
108	0x3bbf2b46	0.005834016
109	0xbd060b11	-0.032725397
110	0xbc9804e1	-0.018557014
111	0x3d2a2394	0.041537836
112	0xbdb1ffd3	-0.08691373
113	0xbdafb396	-0.08579175
114	0xbb40960c	-0.002938631
115	0x3cc69a89	0.02424361
116	0x3b64b472	0.0034897593
117	0xbdb1396f	-0.08653533
118	0xbcc2e870	-0.023792475
119	0xbd77299c	-0.060342416
120	0xbdeb0d9e	-0.11477207
121	0x3d4cab95	0.04996832
122	0xbc6e9f78	-0.0145643875
123	0xbabe2051	-0.0014505481
124	0xbdc8afe0	-0.097991705
125	0xbd3ad2c4	-0.045611158
126	0x3cc15bd1	0.023603352
127	0xbbae6416	-0.00532199
128	0xbda221e8	-0.07916623
129	0x3d0a5c3b	0.033779364
130	0xbd858dd9	-0.06521196
131	0xbd3b2083	-0.045685302
132	0xbd39d6ed	-0.045370985
133	0xbdbd5136	-0.092440054
134	0xbd594579	-0.05304477
135	0x3d812c00	0.063072205
136	0xbc1b523a	-0.009480054
137	0xbbfcb848	-0.0077123977
138	0x3e0298b6	0.12753567
139	0x3d35cbfb	0.044383984
140	0xbdb6a3e4	-0.089179784
141	0x3cb08190	0.021546155
142	0x3d5c1fb3	0.05374117
143	0x3e8b3c7c	0.27194583
144	0x3d9610e8	0.07327443
145	0xbd2f5551	-0.042805973
146	0xbe111aee	-0.14170429
147	0xbdefe9cd	-0.11714516
148	0xbe005b3b	-0.12534802
149	0x3e4f8c15	0.20268281
150	0x3be45353	0.006967941
151	0x3d7242b2	0.059145637
152	0xbcfc6e6b	-0.03081437
153	0xbcdc29c3	-0.026875382
154	0xbba044ea	-0.0048910277
155	0xbc15c63e	-0.009141503
156	0x3d94c122	0.072634
157	0xbe3e5ea2	-0.18590787
158	0xbdd4a5a3	-0.10383155
159	0xbd42aa0b	-0.047525447
160	0xbcb27a7f	-0.021786926
161	0xbd92e219	-0.07172031
162	0x3cb32e54	0.021872677
163	0xbdec0238	-0.11523861
164	0xbcecaf61	-0.02889222
165	0x3d994916	0.07484643
166	0xbd32ac02	-0.04362107
167	0x3e2f8dfa	0.17144004
168	0x3d9bf815	0.07615677
169	0xbd4b606c	-0.049652502
170	0x3e58cb8a	0.21171394
171	0xbe021cf8	-0.12706363
172	0xbe060925	-0.13089426
173	0xbddd62cf	-0.10809862
174	0x3d56561c	0.052328214
175	0xbbda7e25	-0.0066678696
176	0x3e0c03a8	0.1367327
177	0x3dd7b7d8	0.10533112
178	0x3cbddb54	0.023175873
179	0xbe42bf2c	-0.19018239
180	0xbd935a21	-0.07194925
181	0x3d531745	0.051535863
182	0xbcc2cef4	-0.023780324
183	0xbd8815b2	-0.06644763
184	0xbc416c46	-0.0118056
185	0xbdd135d6	-0.102153465
186	0x3c15e4e5	0.009148811
187	0x3c871254	0.016488232
188	0xbcd1082c	-0.025516592
189	0xbdae24dc	-0.08503124
190	0xbc57513e	-0.013141928
191	0x3d9c5fea	0.07635482
192	0xbc902996	-0.017597955
193	0xbd101055	-0.035171825
194	0x3d2dadc0	0.04240203
195	0xbcaeb726	-0.021327566
196	0x3dc3fec6	0.095700786
197	0xb9e5619e	-0.00043751014
198	0xbd97ff3a	-0.074217275
199	0x3d5796c0	0.052634
200	0xbbfe2f4b	-0.0077571026
201	0x3d7660b9	0.060150836
202	0xbe27db94	-0.16392356
203	0x3d0913eb	0.03346626
204	0x3d6bdd4d	0.057584096
205	0xbda0b9b9	-0.07847924
206	0x3e7bf990	0.2460692
207	0x3dc205c4	0.09473756
208	0x3d1733fc	0.03691481
209	0x3d809e9f	0.062802546
210	0x3da15c30	0.078789115
211	0xbe0b9073	-0.13629322
212	0xbcdda4b9	-0.027056085
213	0x3cdc3f37	0.026885612
214	0xbc8503c2	-0.016237143
215	0xbd93f72b	-0.07224878
216	0x3d72e8dd	0.059304107
217	0xbd832319	-0.06403179
218	0x3c475aba	0.012167627
219	0xbd8283f9	-0.06372828
220	0x3c89c811	0.016819032
221	0x3dd6f9a0	0.10496831
222	0xbd5e53ba	-0.054279067
223	0xbe15293a	-0.14566508
224	0xbdcc2e09	-0.09969718
225	0x39fe4644	0.00048499007
226	0x3d523f01	0.051329616
227	0xbe242639	-0.16030206
228	0x3d46f4d7	0.04857334
229	0xbd648af8	-0.055796593
230	0x3bf348a4	0.007424431
231	0x3d761ddd	0.060087074
232	0xbd8061bb	-0.062686406
233	0xbdac83fa	-0.0842361
234	0xbcb837a0	-0.022487462
235	0x3d4693f6	0.04848095
236	0xbe18ee03	-0.14934544
237	0x3aef032f	0.0018235202
238	0xbdcbc114	-0.09948936
239	0x3b8df3c9	0.00433204
240	0x3d123dde	0.035703532
241	0x3d210957	0.039315548
242	0xbd0c67d2	-0.0342787
243	0xbdc0a58c	-0.094065756
244	0x3dbab3db	0.09116336
245	0x3d62b7d5	0.055351097
246	0x3d2d87e3	0.04236592
247	0xbc81848c	-0.015810274
248	0xbc3fd9c0	-0.0117096305
249	0xbd3af733	-0.045645904
250	0x3ccc5f0e	0.02494767
251	0x3df94475	0.1217126
252	0x3d3d77e3	0.04625691
253	0x3ca0063a	0.019534219
254	0x3ca7a90d	0.020466352
255	0x3cae0e76	0.02124713

base.cnn.7.bias f4 [64]
0	0x3c3791f6	0.011204233
1	0xbbac3957	-0.005255859
2	0xbc5812e0	-0.013188094
3	0x3ca46595	0.02006797
4	0xbc9ddc16	-0.019269984
5	0x3d16d278	0.036821812
6	0xbd1c4dae	-0.03816002
7	0xbca4c96c	-0.020115577
8	0xbce11a12	-0.027478252
9	0xbd51b272	-0.05119557
10	0xbca821e6	-0.020523977
11	0x3b9ff7b6	0.0048818244
12	0xbbc26a36	-0.0059330715
13	0xbc2f7c55	-0.010710795
14	0x3c26296f	0.0101417145
15	0xbd13765d	-0.036001552
16	0xbd019584	-0.03163673
17	0xbd5577ad	-0.052116085
18	0xbd995adf	-0.074880354
19	0xbc069e77	-0.008216492
20	0xbca84263	-0.020539468
21	0xbc50f98a	-0.012754807
22	0xbd488925	-0.048958916
23	0xbd0adc94	-0.033901766
24	0x3c088a1d	0.00833371
25	0xbb62bbf8	-0.0034596901
26	0xbd547e1b	-0.051878076
27	0x3c66cac8	0.014086433
28	0xbc03aae3	-0.008036348
29	0xbd2b76ee	-0.041861467
30	0xbd33d683	-0.043905746
31	0xbcd3d721	-0.025859417
32	0xbbea71e3	-0.0071546896
33	0xbc8a5d8c	-0.01689031
34	0xbc9272ef	-0.01787707
35	0xbd33ff98	-0.043944925
36	0xbc1662c3	-0.00917882
37	0x3c7af6d3	0.015317637
38	0xbc49a498	-0.012307309
39	0x3ca4ee0f	0.020133046
40	0xbd204158	-0.039124817
41	0xbd03b959	-0.032159183
42	0xbd81008e	-0.06298934
43	0xbd683953	-0.056695294
44	0xbd6be7fe	-0.057594292
45	0xbd19e70b	-0.037573855
46	0xbd2edb8c	-0.042689845
47	0x3b02eaa7	0.001997629
48	0xbd5b18cc	-0.053490445
49	0xbd370242	-0.044679888
50	0xbd361035	-0.04444905
51	0xbd2d8301	-0.042361263
52	0xbd0dc6b5	-0.03461333
53	0xbc4917a1	-0.0122737
54	0xbd49382c	-0.049125835
55	0xbd04c8d1	-0.032418076
56	0xbb9c77bf	-0.004775017
57	0xbd6141c1	-0.05499435
58	0xbba18e14	-0.004930267
59	0xbd04b773	-0.032401513
60	0xbcf76fef	-0.030204741
61	0xbd692966	-0.056924246
62	0xbd04822d	-0.032350708
63	0xbd98e16b	-0.0746487

base.cnn.9.weight f4 [64]
0	0x3f7f05f0	0.99618435
1	0x3f85c33c	1.0450206
2	0x3f83c427	1.0294236
3	0x3f779f84	0.96727777
4	0x3f86bf2a	1.0527089
5	0x3f8032cb	1.0015501
6	0x3f6e300c	0.93042064
7	0x3f7f37c3	0.9969446
8	0x3f804616	1.0021389
9	0x3f872a0b	1.0559705
10	0x3f8001a4	1.0000501
11	0x3f7eaee5	0.9948562
12	0x3f77dca5	0.9682105
13	0x3f896f20	1.0737038
14	0x3f85cadb	1.0452532
15	0x3f6c5a5c	0.9232538
16	0x3f8b3019	1.0874053
17	0x3f7da42f	0.9907865
18	0x3f7b86be	0.98252475
19	0x3f852ee4	1.0404935
20	0x3f90a682	1.1300814
21	0x3f83e4c6	1.0304191
22	0x3f5713c9	0.84014565
23	0x3f7e0d3b	0.9923894
24	0x3f814f10	1.0102253
25	0x3f81d3aa	1.014272
26	0x3f8bbfc1	1.0917894
27	0x3f7b4084	0.9814532
28	0x3f81d9df	1.0144614
29	0x3f72d232	0.9485198
30	0x3f72322f	0.94607824
31	0x3f8a26aa	1.0793049
32	0x3f7dd7f9	0.99157673
33	0x3f8807fe	1.0627439
34	0x3f849515	1.0357996
35	0x3f80443b	1.0020822
36	0x3f81b2ec	1.0132728
37	0x3f90c31c	1.1309543
38	0x3f79350c	0.9734657
39	0x3f850d0e	1.0394609
40	0x3f833fcf	1.0253848
41	0x3f81219a	1.0088379
42	0x3f787186	0.97048223
43	0x3f6a6a15	0.9156812
44	0x3f7c1f34	0.9848511
45	0x3f914fe9	1.1352512
46	0x3f768f5f	0.96312517
47	0x3f82773d	1.0192639
48	0x3f825fdb	1.0185503
49	0x3f822f41	1.0170671
50	0x3f85e089	1.0459148
51	0x3f5d7e4c	0.8652084
52	0x3f8c206e	1.0947397
53	0x3f8177f7	1.0114735
54	0x3f75913d	0.9592474
55	0x3f86150f	1.0475177
56	0x3f6fe3bf	0.9370689
57	0x3f82e1e6	1.0225189
58	0x3f8b45d3	1.0880684
59	0x3f86a5da	1.0519364
60	0x3f897ab0	1.0740566
61	0x3f7bd366	0.98369443
62	0x3f6e42bc	0.9307058
63	0x3f82f80c	1.0231948

base.cnn.9.bias f4 [64]
0	0xbc80cec9	-0.015723603
1	0x3d51324e	0.051073365
2	0x3cacc809	0.021091478
3	0x3cbce0cd	0.023056412
4	0xbb29eb10	-0.0025927462
5	0x3db9de72	0.09075631
6	0x3d3a8514	0.04553707
7	0x3caee24b	0.02134814
8	0x3a945a3b	0.0011318395
9	0xbe060391	-0.13087298
10	0x39cca2cf	0.00039031214
11	0x3c8f3ebe	0.017485972
12	0x3c905bb4	0.017621852
13	0xbc047eb3	-0.008086848
14	0xbdc8cd0b	-0.09804734
15	0x3d199810	0.037498534
16	0xbd979a3e	-0.07402466
17	0x3cd606dc	0.026126318
18	0x3c78bdb0	0.015181944
19	0x3cbc8620	0.023013175
20	0xbe3de164	-0.18543011
21	0x3d04fa2d	0.03246515
22	0x3e0a6659	0.13515605
23	0xbc2e09e0	-0.010622472
24	0xbd2cc925	-0.042184014
25	0xbc4948f8	-0.0122854635
26	0xbdc706ea	-0.09718116
27	0x3b97821f	0.004623666
28	0x3cbb5196	0.022866052
29	0xba1e2009	-0.0006031995
30	0x3d81eec1	0.06344367
31	0xbc938846	-0.018009316
32	0x3c956d3d	0.018240565
33	0xbca02af8	-0.01955174
34	0x3bbc0fac	0.005739173
35	0xbd45cb56	-0.04828962
36	0xbc64c3b9	-0.01396268
37	0xbd8a8849	-0.067642756
38	0x3d7d6602	0.06186486
39	0xbc030220	-0.007996112
40	0x3d4ceddc	0.050031528
41	0x3d962754	0.0733172
42	0x3d016ff1	0.031600896
43	0x3d628863	0.05530585
44	0x3cc83134	0.024437524
45	0xbe074563	-0.13210063
46	0xbcc5e37a	-0.02415632
47	0xbcadbf1b	-0.02120929
48	0x3c81da6f	0.015851228
49	0xbcb65f5b	-0.022262266
50	0xbd807802	-0.0627289
51	0x3e154f26	0.14580974
52	0xbcf44b37	-0.029821021
53	0x3cb6595f	0.022259412
54	0x3a534aed	0.0008060176
55	0xbcfa6eab	-0.030570349
56	0xbc66c9ab	-0.014086167
57	0xbc9e7e4a	-0.019347329
58	0xbd21394e	-0.03936129
59	0xbd8a4645	-0.06751684
60	0xbdccf651	-0.100079186
61	0x3be692f8	0.007036563
62	0x3d45d170	0.04829544
63	0xbd567078	-0.052353352

base.cnn.10.weight f4 [64, 64]
0	0x3c5e221d	0.013557938
1	0x3db9f72b	0.09080347
2	0xbe8a9d79	-0.27073267
3	0xbdb5cf9b	-0.08877488
4	0xbdb8c6ad	-0.090222694
5	0xbd9f8343	-0.07788708
6	0xbb9777c6	-0.0046224324
7	0x3efc94c1	0.4933224
8	0x3ef39027	0.47570917
9	0x3d885114	0.066560894
10	0xbdf03db0	-0.11730516
11	0xba528522	-0.00080307026
12	0x3d1e19ff	0.03859901
13	0xbe34e149	-0.17664064
14	0x3de66dd0	0.11251414
15	0xbd6026ed	-0.054724623
16	0xbe6cea31	-0.23136212
17	0x3e92d7e5	0.2868034
18	0x3ef3c085	0.47607818
19	0xbe231a45	-0.1592799
20	0x3e79f173	0.24408512
21	0x3e5a6c35	0.2133034
22	0x3d3eca33	0.04657955
23	0x3ea02c7f	0.31283948
24	0x3dc045a0	0.0938828
25	0x3da47eb6	0.08031981
26	0x3df19611	0.11796201
27	0xbeb986fb	-0.36235794
28	0xbe228fb2	-0.15875128
29	0x3d5e3a9c	0.054255113
30	0xbe1401b5	-0.14453776
31	0x3d512ae2	0.051066287
32	0xbe1c11e1	-0.15241195
33	0x3ddeaf41	0.10873271
34	0x3ec434c8	0.3832152
35	0x3e83aced	0.2571787
36	0x3e47b864	0.19503933
37	0x3ec73eda	0.3891514
38	0xbb52d70f	-0.0032171642
39	0x3dba844d	0.091072656
40	0xbd19f209	-0.03758434
41	0x3e5c320c	0.21503466
42	0xbe2dfcc0	-0.16990948
43	0x3e0f43dc	0.1399073
44	0x3e6646c0	0.22487926
45	0x3da32baa	0.07967313
46	0xbe098dd2	-0.13433006
47	0xbd2c5eb5	-0.042082507
48	0xbe678c04	-0.22612005
49	0xbdaaf228	-0.08346969
50	0x3deebdca	0.11657293
51	0xbd70ebbd	-0.058818568
52	0x3dc4ba2d	0.09605823
53	0xbdbe958e	-0.09305869
54	0x3d0e4a9c	0.03473912
55	0xbdddb234	-0.10825005
56	0x3c0c0b9a	0.008547688
57	0xbe8d52fa	-0.2760237
58	0xbd8834e1	-0.06650711
59	0x3ccca12c	0.024979196
60	0x3eb8e928	0.36115384
61	0xbc8f1d0a	-0.017469902
62	0x3d110bf3	0.035411786
63	0x3e513bca	0.20432964
64	0xbdec72fa	-0.115453675
65	0xbddb015e	-0.1069362
66	0x3d018e36	0.031629764
67	0x3bd53bd2	0.0065073753
68	0xbe2867bc	-0.16445822
69	0xbb720c9d	-0.0036933788
70	0xbe6a1a93	-0.228617
71	0xbeb9e64d	-0.36308518
72	0xbdb74928	-0.089495
73	0x3e2869d8	0.16446626
74	0x3de52b56	0.11189906
75	0x3cab052a	0.020876486
76	0xbe46bdf9	-0.19408406
77	0xbd219466	-0.039448164
78	0x3e24baa9	0.1608683
79	0xbef6fa89	-0.48238018
80	0x3e25690a	0.1615335
81	0x3e6f862a	0.23391023
82	0x3d9f1fe3	0.07769754
83	0xbe53a230	-0.20667338
84	0x3e8bb5b1	0.27287057
85	0x3d8dc2ed	0.06921945
86	0xbd68e297	-0.056856718
87	0xbcd165b7	-0.025561197
88	0xbdbf94f2	-0.09354581
89	0x3ed37aef	0.41304728
90	0x3e617028	0.2201544
91	0x3e5fbdac	0.21849698
92	0x3e9f83fa	0.31155378
93	0xbeb91641	-0.3614979
94	0xbdfa9dde	-0.12237142
95	0x3cdd7aae	0.027036037
96	0xbd7aa7f9	-0.061195347
97	0xbb09df6e	-0.0021037715
98	0xbe2d91a6	-0.16950092
99	0xbcda1df3	-0.026625609
100	0x3e0c5378	0.13703716
101	0x3dc3cac6	0.0956016
102	0x3c9119c6	0.017712485
103	0x3e83c154	0.25733435
104	0x3e725bd3	0.2366784
105	0x3ed04957	0.40680954
106	0xbc9f5641	-0.019450309
107	0x3cc803e8	0.024415925
108	0xbdb5454f	-0.0885111
109	0x3e8d5171	0.27601197
110	0xbe054b1d	-0.13016935
111	0xbe9a0fe8	-0.3009026
112	0x3e37e9a7	0.17960225
113	0xbd3fbbf5	-0.04681011
114	0x3dcea8ff	0.10090827
115	0x3de9138a	0.1138068
116	0xbd99898b	-0.07496937
117	0xbd8e6a60	-0.06953883
118	0x3d0b66e5	0.034033675
119	0xbe60385e	-0.21896502
120	0xbeb5519d	-0.35413828
121	0x3d3e0fb4	0.046401694
122	0x3ecfaaca	0.4055999
123	0x3e59f27e	0.2128391
124	0x3dd2828f	0.10278808
125	0x3cbc90da	0.02301829
126	0xbc944866	-0.018100929
127	0x3ee56594	0.4480406
128	0x3da425bc	0.0801501
129	0xbd32d2ab	-0.04365794
130	0x3e4a67b8	0.19766128
131	0xbf1bcb65	-0.6085723
132	0x3e6d5f0e	0.23180792
133	0xbe1d2529	-0.15346207
134	0x3e12d426	0.1433874
135	0x3d65601e	0.055999868
136	0x3e4076df	0.18795346
137	0x3e4a62cd	0.19764252
138	0xbcdea812	-0.027179752
139	0x3ddeae41	0.1087308
140	0x3d8fd8ef	0.07023799
141	0x3e07071c	0.13186306
142	0x3b25dc7e	0.0025308426
143	0x3cd1cc26	0.02561004
144	0x3dcbcbde	0.09950994
145	0xbe9ea3e4	-0.30984414
146	0xbdc62d1c	-0.09676573
147	0xbe976a97	-0.2957351
148	0x3dea6bec	0.11446366
149	0xbd3de15f	-0.04635751
150	0x3b1e561a	0.0024160207
151	0xbe4ad93d	-0.19809432
152	0x3dbe46fd	0.09290884
153	0xbe09b2cf	-0.13447116
154	0x3e91d9fb	0.28486618
155	0xbc15deaf	-0.00914733
156	0xbe330b73	-0.17484836
157	0x3e1b1fb4	0.15148813
158	0x3e573f89	0.2102033
159	0xbe6ac053	-0.22924928
160	0x3e4c2503	0.19935994
161	0xbc84d9e4	-0.01621718
162	0x3ec97597	0.39347526
163	0x3e40f8bb	0.18844883
164	0x3e401cad	0.18760939
165	0xbeb822c4	-0.35964024
166	0xbe98646c	-0.29764116
167	0xbd9b2439	-0.07575268
168	0xba458452	-0.0007534671
169	0x3dc0e62c	0.09418902
170	0xbca5dd7d	-0.020247215
171	0x3c966d0d	0.018362546
172	0x3e9fdc53	0.31222782
173	0x3e3d94fe	0.18513867
174	0xbe478334	-0.19483644
175	0xbe7f2a0e	-0.24918386
176	0x3dddfa2c	0.10838732
177	0xbe2683da	-0.16261235
178	0xbd1164b0	-0.035496414
179	0x3e883388	0.26601815
180	0xbeeccecc	-0.46251523
181	0x3ec1f3c3	0.37881288
182	0xbd07d044	-0.033157602
183	0xbdd2c622	-0.10291697
184	0x3da9941d	0.082802035
185	0xbe2968d6	-0.16543898
186	0xbc8fdeb2	-0.017562244
187	0x3e18b7f7	0.14913927
188	0xbe56034e	-0.20899698
189	0x3e76110c	0.2402994
190	0xbc62a625	-0.013833557
191	0x3e246283	0.16053204
192	0xbedea5dc	-0.43485916
193	0x3e3d0c1f	0.18461655
194	0x3e44f793	0.19235067
195	0xbdad1b2a	-0.08452447
196	0xbca11b22	-0.019666258
197	0xbe0b5fa3	-0.13610701
198	0x3d99060f	0.07471859
199	0x3db22b58	0.086996734
200	0xbd2b9255	-0.0418876
201	0x3dd5cff3	0.10440054
202	0x3ec325dc	0.38114822
203	0xbef3c467	-0.4761078
204	0x3e607235	0.21918567
205	0xbe900919	-0.2813194
206	0x3e07a0eb	0.13244979
207	0x3cca050e	0.024660613
208	0x3cfce654	0.030871548
209	0x3e450c6f	0.19243024
210	0x3dd880fc	0.10571477
211	0x3e254dab	0.16142909
212	0x3d06a87e	0.03287553
213	0xbe691e01	-0.22765352
214	0x3c274a8c	0.010210644
215	0x3d71e116	0.05905255
216	0x3ebf5482	0.37369162
217	0x3e96062b	0.2930158
218	0xbe3fa2dd	-0.18714471
219	0xbdf8084e	-0.12110959
220	0xbe2629d1	-0.16226889
221	0x3dc6e9a1	0.0971253
222	0x3e8ee943	0.2791234
223	0x3d5044e5	0.050846953
224	0x3df681a9	0.120364495
225	0xbeba3e3f	-0.36375615
226	0xbe6b6bc3	-0.22990327
227	0x3ec14c30	0.3775344
228	0x3eb41105	0.35169235
229	0xbe0f7d27	-0.14012586
230	0x3e360324	0.17774636
231	0xbd88c6a3	-0.06678512
232	0x3e9aebd7	0.30258057
233	0x3d6fc9af	0.05854195
234	0xbd87886c	-0.06617817
235	0xbe23dbfa	-0.16001883
236	0x3e64ce40	0.22344303
237	0x3d5ef78f	0.05443531
238	0x3e20ce44	0.15703684
239	0xbe0a8f5c	-0.1353125
240	0xbe9ca7b1	-0.30596688
241	0x3d5da883	0.054115783
242	0xbe2781ad	-0.16358061
243	0x3e7ac058	0.24487436
244	0x3e099f38	0.13439643
245	0x3e90d47c	0.28287113
246	0x3e253eaa	0.16137186
247	0x3e4c4b2b	0.1995055
248	0xbe24e09a	-0.16101304
249	0x3e3d5a49	0.18491472
250	0xbb99d783	-0.0046948805
251	0x3cb216ef	0.021739451
252	0x3e13f546	0.14449033
253	0x3ce3d584	0.027811773
254	0x3d981200	0.07425308
255	0x3e012632	0.12612227

base.cnn.10.bias f4 [64]
0	0xbdfa7829	-0.1222995
1	0xbd83acc3	-0.06429436
2	0xbc8c9cb2	-0.017164562
3	0xbc77f115	-0.015133162
4	0x3d6aa044	0.057281747
5	0xbdb9a62c	-0.09064898
6	0xbd11ba3b	-0.035577994
7	0xbd86c17c	-0.06579873
8	0xbd6f9a9e	-0.058497064
9	0xbd22dc2b	-0.03976075
10	0xbd8c42f4	-0.06848708
11	0xbd54e2f9	-0.05197427
12	0xbe145b65	-0.14487989
13	0x3cdf59c9	0.027264493
14	0xbd1bc2b9	-0.0380275
15	0xbdb56c82	-0.08858587
16	0xbd22cec0	-0.039747953
17	0x3c70f038	0.01470571
18	0xbda9129c	-0.082555026
19	0xbcb8b8cd	-0.022549057
20	0xbdcc9eab	-0.09991201
21	0xbdd00fce	-0.101592645
22	0xbd104005	-0.035217304
23	0xbcd9f86d	-0.026607716
24	0xbde34ba8	-0.11098415
25	0x3c6b6d67	0.014369345
26	0xbccefeaa	-0.025267918
27	0xbcadb86f	-0.021206109
28	0xbbb7d06c	-0.0056095626
29	0xbd8d7f19	-0.069090076
30	0xbda00b86	-0.07814698
31	0x3cbb9254	0.022896923
32	0x3cb770f5	0.02239273
33	0x3b18a839	0.0023293628
34	0x3d63407b	0.055481415
35	0xbdf67d67	-0.12035637
36	0xbc1c940b	-0.009556781
37	0xbd97d77c	-0.07414147
38	0xbda82fe0	-0.082122564
39	0xbd6cf77c	-0.057853207
40	0xbb83dd0d	-0.004024154
41	0xbda98e91	-0.082791455
42	0xbcfe61c2	-0.031052474
43	0xbd855ce8	-0.06511861
44	0xbc85e8c6	-0.016346347
45	0xbe00f244	-0.12592417
46	0xbc066909	-0.008203753
47	0xbcdddac4	-0.027081855
48	0xbd8a3cca	-0.06749876
49	0xbd3c725c	-0.0460075
50	0xbd9f8d45	-0.07790617
51	0xbcd15e80	-0.025557756
52	0x39db0f53	0.00041782352
53	0xbd3c547e	-0.045979016
54	0xbcad0d4b	-0.021124503
55	0x3b1f962e	0.0024350989
56	0x3cf69a72	0.030102942
57	0xbd317378	-0.04332301
58	0x3c8c4081	0.017120602
59	0xbd91495c	-0.0709407
60	0x3c26de72	0.010184871
61	0xbcdbf625	-0.02685077
62	0xbd2086a4	-0.039190903
63	0xbbf69897	-0.0075255143

base.cnn.12.weight f4 [64]
0	0x3f7661ab	0.9624278
1	0x3f899e3c	1.0751414
2	0x3f87c142	1.0605853
3	0x3f81d1ed	1.0142189
4	0x3f6a4406	0.91510046
5	0x3f6a891b	0.91615456
6	0x3f848250	1.0352268
7	0x3f7b8dcd	0.98263246
8	0x3f837774	1.0270829
9	0x3f823389	1.0171977
10	0x3f84cefe	1.0375669
11	0x3f768adf	0.9630565
12	0x3f583ce9	0.8446794
13	0x3f8f960d	1.1217667
14	0x3f655cf6	0.8959497
15	0x3f672012	0.9028331
16	0x3f878b33	1.0589355
17	0x3f843fa8	1.0331926
18	0x3f780166	0.96877134
19	0x3f845d57	1.0340985
20	0x3f7f278a	0.99669707
21	0x3f796c82	0.97431195
22	0x3f84601b	1.0341829
23	0x3f8bbd53	1.0917152
24	0x3f6f33b8	0.9343829
25	0x3f846615	1.0343653
26	0x3f938d6a	1.1527531
27	0x3f6e4e07	0.9308781
28	0x3f7c0126	0.9843925
29	0x3f80d84f	1.0066012
30	0x3f6ae46a	0.9175478
31	0x3f7e3d24	0.99312043
32	0x3f7537d3	0.95788306
33	0x3f61d5f4	0.8821709
34	0x3f801f22	1.0009501
35	0x3f74b0a3	0.95582026
36	0x3f7f6574	0.9976418
37	0x3f612d5f	0.87959856
38	0x3f714e29	0.9425989
39	0x3f866d83	1.050217
40	0x3f7823bc	0.96929526
41	0x3f725c24	0.94671845
42	0x3f7d883b	0.99035996
43	0x3f8c1b07	1.0945748
44	0x3f80404e	1.0019624
45	0x3f6f824f	0.9355821
46	0x3f84717e	1.0347135
47	0x3f8755ae	1.0573022
48	0x3f6caa06	0.92446935
49	0x3f789f1c	0.9711778
50	0x3f6b1bc0	0.9183922
51	0x3f8ecb9f	1.115589
52	0x3f89f297	1.0777158
53	0x3f85486d	1.0412728
54	0x3f7a8aee	0.9786824
55	0x3f84c99b	1.0374025
56	0x3f8d589e	1.1042669
57	0x3f83ba83	1.0291294
58	0x3f883c2e	1.0643365
59	0x3f695d34	0.9115784
60	0x3f8039c7	1.0017632
61	0x3f95984f	1.1687106
62	0x3f80ca91	1.0061818
63	0x3f7eaf4c	0.9948623

base.cnn.12.bias f4 [64]
0	0x3c9ca6cb	0.019122502
1	0xbcaecc33	-0.021337604
2	0x3d9076c9	0.070539065
3	0x3da211b4	0.07913533
4	0x3d3d91da	0.046281673
5	0x3c94f302	0.018182281
6	0xbd479d92	-0.048734255
7	0x3cc25fc1	0.0237273
8	0xbc8305ae	-0.01599392
9	0x3d003615	0.031301577
10	0xbd95ce62	-0.07314755
11	0xbbff1c4a	-0.0077853547
12	0x3dab5efa	0.08367725
13	0x3cfdd252	0.030984078
14	0x3d939b4c	0.07207355
15	0xbcb14267	-0.021638108
16	0x3ce87e68	0.028380588
17	0x3ca2ad61	0.019858064
18	0x3ca3dfac	0.020004116
19	0xbd61ea6f	-0.055155214
20	0xbc28cc71	-0.010302649
21	0xbd7b09b3	-0.061288547
22	0x3c1f265c	0.009713735
23	0x3bdf97d7	0.0068235206
24	0xbc44d023	-0.012012514
25	0xbd05dd29	-0.032681618
26	0xbdc279f3	-0.09495916
27	0x3d6decf5	0.058087308
28	0x3e25c610	0.16188836
29	0xbcce96e4	-0.025218435
30	0x3d4ea4c2	0.050450094
31	0xbd1963fc	-0.03744887
32	0x3d860c40	0.06545305
33	0x3d97084d	0.0737463
34	0xbd0ae08f	-0.033905562
35	0xbbb04b1c	-0.0053800475
36	0x3dbc540a	0.09195717
37	0x3e06ea5a	0.13175336
38	0xbc8ec7c4	-0.01742924
39	0x3d559a03	0.05214883
40	0x3c37e424	0.011223827
41	0xbbcefb84	-0.006316604
42	0xbce39e89	-0.027785556
43	0xbdb16fb1	-0.086638816
44	0xbd73b54c	-0.05949907
45	0xbcadc780	-0.021213293
46	0xbd18e4b0	-0.03732747
47	0x3d67e317	0.056613054
48	0xbb0e91f0	-0.0021754466
49	0x3b3e6f02	0.0029057865
50	0x3d66b5b9	0.056325648
51	0xbd8531f3	-0.06503668
52	0x3d047d4f	0.032346066
53	0xbcf35812	-0.029705081
54	0xbc982ad4	-0.01857511
55	0x3c5a7595	0.013333698
56	0x3984d801	0.00025337937
57	0x3d01250a	0.031529464
58	0xbc135ca6	-0.008994257
59	0x3acefeed	0.0015792527
60	0x3de7c5bb	0.11317011
61	0x3ba63411	0.005072125
62	0xbc4a9a54	-0.012365896
63	0x3c82d808	0.015972152
