CRL_human_AI_overcooked/human_models/model_many_orders/actor_best_r3.pt (torch, 426323 bytes, 20 tensors)

base.cnn.0.weight f4 [32, 26, 3, 3]
00000000: f131 d03d 5d80 c4bd b624 39be 8709 44bd
00000010: 105e 54bd 40b4 02bd 8a66 5dbe e05e 38be
00000020: 2da9 263d 685c 653e 3798 633e 9347 83bd
00000030: 12a8 4d3e 0183 b53c eee4 25be f73a 44be
00000040: 6eab b3be 0186 ddbd 55d7 92bd 2094 c8bd
00000050: 6c2d c63d 6311 723e f5dc 1c3e 8c6f 8c3c
00000060: c287 6e3d e64a 98be c91f 14be c221 2abe
00000070: a6a7 1d3e 14c0 aabe bf87 0f3e 1583 853e
00000080: 09bb dbbd ef19 febc b1ff 5fbe f803 323d
00000090: 49ea 8f3e 03b7 44be 3885 a2bb b455 153e
000000a0: 7e84 233d 1e56 5a3e cd09 f7bd 7bdb 50bd
000000b0: d2c6 033a 5a0f d3bd c4cc 59bd 5ed0 583d
000000c0: 9ede 39bb 3969 71be 9c76 5f3d 993d bcbe
000000d0: f8ee 923d 1f33 4ebd 593f 153e 19b8 153e
000000e0: 8083 febd 7bdc e33d 1825 11be 0e88 8a3d
000000f0: d0c6 9cbe c6f3 4bbe f877 5dbe 6c18 8d3e
00000100: b4be 81be 5a25 c03e 36e8 1bbe 26ad 30be
00000110: 2cfe 88be da54 d03d e15c 3fbe 0d97 4abd
00000120: 8d3f 1bba 0165 e13d 1df6 83be f3d3 8d3d
00000130: 611d 683e d4b7 44bd c6a1 8cbe 10f0 7abd
00000140: 1291 f8bd 36a3 383e e389 0d3e b939 fc3d
00000150: 7d81 9cbb 1ef4 91ba 23fd 1e3c 3206 2d3e
00000160: a4c5 17be 69b9 013e c108 37bc f7f3 84bd
00000170: cd28 c9bd 35a4 0bba be84 faba 1838 513d
00000180: a17f 013e 0884 31be 80ad 183e 88e7 79bd
00000190: 3ee1 0b3e c7a2 ac3d 8409 13bd 7008 0d3d
000001a0: cac4 993c ee55 dabb 2d3a 7ebd ff6c 3fbc
000001b0: 8bef 6a3d 97c1 9e3d 7ded 463e de40 1c3e
000001c0: 6ae0 09bd bfb1 5b3d 85f8 753e a4cd 723d
000001d0: 0e80 83bc 2e36 8abb 55cc dabd 39ee 093d
000001e0: 5123 f33d 79e5 e9bd 8cc4 05be e260 82bd
000001f0: 7577 08be a4c9 c53d 41cc 6b3e 948c 8fbc
00000200: 35d7 a3bd 210d c43d d52d f33d afe8 d23c
00000210: 0d69 8739 1f19 45be 8119 443d 9162 d33c
00000220: 64a4 bd3b 2fc1 55be a113 b2bd 9933 9b3d
00000230: f124 2cbd 3e39 f13d 0599 23bd af81 b23d
00000240: 2888 423e 7dc5 6cbe 1b2d 383d 3e26 ef3c
00000250: 0031 1bbe 10dd 2f3e 9a84 423c 7fd6 a1bd
00000260: 2561 6e3d f075 92be f1d5 7c3e 7906 98bd
00000270: 8a05 8abe b599 1d3d b624 1c3e 7bba 4f3b
00000280: c627 163e 82ac 10bd 557f 743e 717d 6b3d
00000290: 325e cabc 3c7d 563c 3a2c e13d 1e49 b1bd
000002a0: 337f 8d3d ecfd a03d 3f35 043e 96e7 5cbc
000002b0: dee4 3d3e 7976 f8bc 918b 8f3d f798 62bd
000002c0: eb29 6dbe 83ce 74be a72a 8ebd ee3f 8e3c
000002d0: c98d 843d 406f 913c 0790 deba 77f9 9a39
000002e0: d281 1fbe da8b 243e e56e c9bd bf5a 73bd
000002f0: b90d f83d 22c0 b2bd e53c 7a3e 8968 48bd
00000300: fca1 1d3e 9e34 6cbc c6d4 073c 966c 863c
00000310: fbe0 09be f501 b0bd 26bf 21be 1f8e 80bd
00000320: fc65 c63c 0787 74be 6d4e cb3e 4c10 ea3b
00000330: 5daa 06bd e51a 35be 33dc 77bd b57d 103e
00000340: 3927 f73d 44ad 133c 9e49 e83b 17de 71be
00000350: bb99 b5bc 8d06 00be afe2 10be 766c 89bd
00000360: 2f39 953c 7f3b 14be c84d 823e ac7e 093e
00000370: fc77 7cbd 570a b23d 279c 2ebe 8813 6abd
00000380: 5460 e93d 4ffe 833e 110a bfbd 9852 013e
00000390: 3677 fe3c 434f 873d 0a19 c5bc eed6 273d
000003a0: 57a6 1e3e 8292 c9bc e934 f93d cead 2d3e
000003b0: 043b 08bd ec11 20be fd98 2f3e 067f af3d
000003c0: b988 d93a 4ed7 42be 7497 d8be f9b8 71be
000003d0: 12d8 31bb 5464 1cbe cc05 3fbc c3d4 893d
000003e0: caf1 35be 5a1e ebbd 5040 3fbd 5391 143e
000003f0: 33dc 54be a739 7dbd 151d 0b3d 0f97 e63d
0.101657756 -0.09594796 -0.1808041 -0.04786065 -0.051847517 -0.03191018 -0.21621147 -0.18004942
0.040688682 0.22398531 0.22226034 -0.06410136 0.20083645 0.022157194 -0.16200611 -0.19163118
-0.35091728 -0.10816575 -0.071699776 -0.097938776 0.09676632 0.23639445 0.15318663 0.017143033
0.058234937 -0.29744643 -0.1446525 -0.1661444 0.15395984 -0.3334967 0.14016627 0.2607657
-0.107290335 -0.031018225 -0.21874882 0.043460816 0.28108433 -0.19210438 -0.0049597286 0.14583474
0.039921276 0.21321914 -0.12062416 -0.050990563 0.000502688 -0.103056625 -0.053173795 0.05293309
-0.002836145 -0.23575296 0.054556474 -0.36765745 0.07174486 -0.05034172 0.14574946 0.14621009
-0.124274254 0.11126038 -0.14174306 0.067642316 -0.30620432 -0.19917211 -0.21627796 0.27557695
-0.25340807 0.37528497 -0.152253 -0.17253551 -0.26756418 0.10172434 -0.18687774 -0.04946046
-0.00059222506 0.11005593 -0.25773707 0.06925192 0.22667457 -0.048026875 -0.27467173 -0.061264098
-0.12137045 0.1803101 0.13822131 0.12315697 -0.0047761784 -0.0011135375 0.009703907 0.16896895
-0.14821488 0.12668385 -0.011171521 -0.06491845 -0.09822235 -0.0005326898 -0.0019113047 0.051078886
0.12646343 -0.17335522 0.14909935 -0.06101182 0.13660142 0.08429485 -0.035897747 0.034431875
0.018770594 -0.0066630756 -0.0620672 -0.011683702 0.057357352 0.07751768 0.19426532 0.1525912
-0.033661284 0.05363631 0.24020584 0.059278145 -0.016052272 -0.0042178845 -0.106835045 0.033674452
0.118719704 -0.114207216 -0.13063258 -0.06366135 -0.13326819 0.096576005 0.23027135 -0.017523088
-0.08000032 0.09572817 0.11873976 0.025745718 0.00025827475 -0.19247864 0.047875885 0.025803836
0.005787419 -0.20874475 -0.0869515 0.07578201 -0.042027418 0.11778496 -0.039940853 0.087161414
0.18997252 -0.23122211 0.04496489 0.02919304 -0.15155411 0.17174172 0.011872435 -0.0790224
0.058198113 -0.28605604 0.24690987 -0.074231096 -0.2695735 0.038476665 0.15248379 0.0031696844
0.1466361 -0.035320766 0.23876698 0.057492677 -0.024703119 0.013091382 0.10994764 -0.08656524
0.06909027 0.07860932 0.12910937 -0.013482949 0.18544337 -0.03032993 0.07009042 -0.05532166
-0.23160522 -0.23906903 -0.06941729 0.017364468 0.06472356 0.017753243 -0.0016980179 0.00029559035
-0.15576866 0.16068974 -0.098356046 -0.059412714 0.121119924 -0.08728053 0.24437292 -0.048927817
0.15393823 -0.014416842 0.008290475 0.0164092 -0.1346473 -0.08594123 -0.15795574 -0.062771074
0.024218552 -0.23879634 0.39708272 0.007143056 -0.032877315 -0.1768604 -0.060512733 0.14110453
0.12068028 0.009013478 0.007088854 -0.23619877 -0.022168031 -0.12502499 -0.14148973 -0.067101404
0.018215744 -0.14475821 0.25449967 0.13427228 -0.061637864 0.086933784 -0.17051755 -0.057147533
0.11395326 0.2577996 -0.09328092 0.12629163 0.031062704 0.06606915 -0.024059791 0.040976457
0.15493141 -0.024605993 0.12168295 0.16960832 -0.033259407 -0.15631837 0.17148204 0.0856915
0.0016596533 -0.19027445 -0.4230305 -0.23605718 -0.0027136845 -0.15272647 -0.011659097 0.06730034
-0.17768016 -0.114803985 -0.046692193 0.14508562 -0.20787124 -0.06182256 0.03396328 0.11259281

base.cnn.0.bias f4 [32]
00000000: eb1e 12bd 7420 a2bd bb62 98bd 9399 acbd
00000010: ded7 b2bd 9d86 6dbd 7400 c5bc a209 f0bd
00000020: 600f 24be c828 0ebd 9b28 08be 5d5a 35be
00000030: af43 93bd 9d10 abbd b649 34be 36ae c1bd
00000040: de2e b7bd 5a89 c2bd 3798 a2bd 1cdd 9dbd
00000050: cd6e 02bc 0fd5 11be 249c b3bd d1c0 babd
00000060: 675b efbd 22ff 55bd d473 a0bd f449 c5bc
00000070: c9c9 4e3c 6cf5 dcbd afa1 91bd 9ef5 13be
-0.035674017 -0.07916346 -0.07440706 -0.084277295 -0.0873258 -0.057989705 -0.024048068 -0.11720587
-0.1602149 -0.03470686 -0.1329674 -0.17710252 -0.07190644 -0.08352778 -0.17606243 -0.09457056
-0.08944486 -0.09498854 -0.07939189 -0.07708189 -0.007960987 -0.14241432 -0.08770016 -0.09118808
-0.116873555 -0.052245267 -0.078345925 -0.024083115 0.0126213515 -0.10788998 -0.07110917 -0.14449164

base.cnn.2.weight f4 [64, 32, 3, 3]
00000000: c6b0 a1bd ff79 4ebe 67c8 c6bd 41d6 56bb
00000010: b338 d2bd 36cb d8bd bbc4 9dbe 75a6 50be
00000020: f8f5 32be d56f efbd c636 2b3d 0e6c 63bd
00000030: 2d89 0b3d 1580 51be 584f 5a3d fdf9 0cbd
00000040: 1d79 d83d 9a60 ac3d a822 a0be 045a 43be
00000050: 85bb a03d 4e4b 0ebd c0ed 34be fa8c 4dbe
00000060: f02e 30be ef1c 26be c1b7 f3bd d664 bc3d
00000070: 1b50 72bd b3a8 72be 303a 963d 1f18 26be
00000080: f3d8 e9bd dced ac3d 1d3d fbbd a4b9 44be
00000090: 99e4 a83d 268a 823d 101c 6e3d bdd7 133e
000000a0: 8bd9 ddbd 26f9 9d3d 0247 393e 81c2 373e
000000b0: 76f8 21be 69ea 083d 07bf 0c3c f15b b23c
000000c0: 6b1d 0a3e 0480 5b3d 417b 89be 18d0 1abe
000000d0: b7bb eb3d 8001 37bd aa76 c6bc c771 19bd
000000e0: df52 babd 3a71 41bd e591 b63d e5d5 9cbd
000000f0: 33df 01be 41cd 233d 442d 4d3d fd9f 45be
00000100: dde8 07bd 6ffc 733d 2dfa 85be 1326 2ebe
00000110: 57ae 87be 1bc9 dcbd 69b7 14be 6688 95be
00000120: cf3e 38bd a924 8cbd 96ef 64bd db35 113e
00000130: ae64 91bd 844e 09be 4fc4 2b3e 625e 813b
00000140: fe97 b7bc 5243 9c3d 32a3 97be 06b9 9ebe
00000150: 3bde 303e 0d87 79be c7a7 0bbe 2584 c53d
00000160: 168c 843d c5e1 563d 3af3 51be 302e c7bd
00000170: 8643 d53c 5830 b53d 55ed 82be 1f01 12be
00000180: a041 5b3d f149 2cbd 7ecb fe3d 2fbe 7bbe
00000190: 07a9 48be 814c e1bd 54c8 9b3c 3ad3 84be
000001a0: af15 20be 0804 1d3d 6b2a dc3d 849f 0b3e
000001b0: 6f5e 203d eb42 3dbd 2d4a d23b 7925 9f3d
000001c0: ba7a 2ebe 1cec 84bd 000e cebc ee81 1a3e
000001d0: 16f9 21be 2e5f 523d dd49 7cbd bbe2 63bd
000001e0: 913e 6a3e d29f b8be 8053 bf3d bfa8 31bd
000001f0: d3e8 03bd df8b d93d 04bd 0dbe 4c7c 0f3e
00000200: b7a2 6cbd 37ad a2bd 0bd5 0a3d a9d6 5dbe
00000210: d884 703e 5109 76be f06d 1dbe 6034 5f3e
00000220: 5a86 46bc adba afbc 40ce 1fbd 6861 8dbd
00000230: a3aa a6bd 08f5 a13c dbe0 4f3e 32d6 90be
00000240: 216a 7d3d 8fd7 763d ff22 7dbe 1c5d 90be
00000250: b6e6 04be e2bb 46be 0a1f 88bc c58c 1cbd
00000260: d9ad 783d 5409 a43d 7fda 833d 6f4f 96bd
00000270: 8574 1bbe ef03 d73d 049e a7bc 4a17 26be
00000280: 21e4 92bd b295 b13d 5190 2a3e b4ba ae3c
00000290: 8bcd a73c 67c1 013e 793e 1b3e dfbb 52bd
000002a0: a0a5 793d 4097 de3c 28fc 103e 325f 4fbe
000002b0: 7255 3abd 1502 5dbe cfae 6bbe 7773 82bc
000002c0: 3831 c6bd eb5a 43bc 8120 133e 72e7 0cbc
000002d0: 5fa3 003d 23c9 29be 21c7 17bb 07c7 a13d
000002e0: aa38 82bc ed98 90be 962d 2c3e 5dcf 80bd
000002f0: 6feb 0ebe 2b2b 3c3d 90d2 6dbd a6f0 3a3d
00000300: 75be 6b3e 119d c73d 0f28 6abc e922 673e
00000310: 96ef 5dbe 6d74 073e ac67 573e 20fc d43d
00000320: 4946 10be d264 733d 9c3a 9abe 01e3 01bd
00000330: f1d3 4dbd 308d e53d 6b0b d9bc e3a7 173e
00000340: 7694 f6bc 412b f63d 1b66 f4bd e63c a6bd
00000350: 7f8a 613c c499 603d f3cf 64be 0b6c 66bd
00000360: 42ba 51be 3475 8e3d b37a 95bd 8c90 4f3e
00000370: 3062 6abd 5ac5 2cbe 3ace a23d e5a2 e2bc
00000380: 0020 813e 80cc 073d 4c7e 8ebd 3e8b 273d
00000390: 5529 aebb 7b16 9cbe ff15 53bd 470a cabd
000003a0: 5c73 82bd 50cc 3fbc 5f61 29bd 789d cb3d
000003b0: 78e6 e5bd f060 e33c 33bd a6bd 0324 bfbd
000003c0: 2cbd adbd 864f bc3d 7ac1 4c3d c7f3 7c3d
000003d0: 2ebe 35bd 0157 d73c f971 b43d c61e 75bd
000003e0: 4387 80be 7e83 57bd 4574 52be 3b5e 79be
000003f0: dcee 85bd e584 3c3d 4f97 32bd 7628 f23d
-0.07895045 -0.20163725 -0.097061925 -0.0032781514 -0.10264721 -0.105856344 -0.30814156 -0.20375998
-0.17476642 -0.11691252 0.041800283 -0.05552297 0.034066368 -0.20459016 0.053298324 -0.034418095
0.105699755 0.08416863 -0.3127644 -0.19077307 0.078482665 -0.034739785 -0.1766882 -0.2007331
-0.17205405 -0.16221975 -0.11900283 0.091989204 -0.059158426 -0.23697166 0.07335317 -0.16220139
-0.11418333 0.084438056 -0.12267516 -0.19211441 0.082467265 0.06374006 0.05813223 0.14437766
-0.10832509 0.07713537 0.18093494 0.17945291 -0.15817437 0.033426676 0.008590466 0.021772357
0.13487785 0.053588882 -0.26851848 -0.15118444 0.11510413 -0.044679165 -0.024226505 -0.037462022
-0.09097838 -0.047227122 0.08914546 -0.07657985 -0.126828 0.039990667 0.050091997 -0.19299312
-0.03318106 0.05956691 -0.2616743 -0.17006712 -0.26500198 -0.10780545 -0.1452309 -0.29205626
-0.044981774 -0.0684293 -0.05589255 0.141807 -0.07099281 -0.13408858 0.16774105 0.003948019
-0.022411343 0.07630028 -0.29616696 -0.31000537 0.17272274 -0.24367924 -0.1363822 0.09644345
0.06472032 0.052461404 -0.2050294 -0.097256064 0.026033174 0.088471115 -0.25571695 -0.1425824
0.05352938 -0.042062704 0.12441157 -0.24584268 -0.19595729 -0.1100092 0.019016422 -0.25942403
-0.15633272 0.038333923 0.10750278 0.13635069 0.03915256 -0.046206396 0.006417534 0.07770819
-0.17039004 -0.06490347 -0.02515316 0.15088627 -0.15817675 0.0513603 -0.06159388 -0.05563615
0.2287543 -0.36059433 0.09342098 -0.04337382 -0.03220446 0.106223814 -0.13841635 0.14012259
-0.057772364 -0.07943194 0.03389458 -0.21663918 0.23488176 -0.24026991 -0.15373969 0.21797323
-0.012116993 -0.021451319 -0.039015055 -0.069033444 -0.08138015 0.01977016 0.2030062 -0.28288418
0.06186879 0.060264166 -0.24720381 -0.28196037 -0.12978634 -0.19407609 -0.016616363 -0.038220186
0.06071267 0.08009592 0.06438159 -0.073393695 -0.15181167 0.10498797 -0.02046109 -0.16219822
-0.071724184 0.0867113 0.16656615 0.021329261 0.020483753 0.12671433 0.1516055 -0.0514487
0.060948968 0.027171731 0.1415869 -0.20251158 -0.045491643 -0.21582825 -0.23015903 -0.015924199
-0.096773565 -0.011923532 0.14367868 -0.008600103 0.031405803 -0.16580634 -0.0023159462 0.078992896
-0.01589616 -0.28241673 0.16814265 -0.062895514 -0.13956998 0.045939606 -0.058062136 0.045639656
0.23021872 0.09746755 -0.014291777 0.22571911 -0.21673426 0.13228007 0.21035641 0.103996515
-0.14089312 0.05942232 -0.3012284 -0.03171063 -0.05025095 0.1120857 -0.026494702 0.14810137
-0.030100089 0.12019969 -0.119335376 -0.08117084 0.01376593 0.054834142 -0.22344951 -0.05625538
-0.20481208 0.069559485 -0.07298794 0.20269984 -0.057222545 -0.16872159 0.07949491 -0.027665565
0.25219727 0.03315401 -0.06957683 0.040904276 -0.0053149858 -0.304859 -0.05153465 -0.098652415
-0.06369659 -0.011706427 -0.041352626 0.09942144 -0.11225599 0.027756184 -0.08141556 -0.093330406
-0.08483347 0.091948554 0.0499892 0.06175592 -0.044370823 0.026286604 0.08810801 -0.0598438
-0.25103197 -0.052615635 -0.20552166 -0.24352352 -0.065396994 0.046025176 -0.04360133 0.118241236

base.cnn.2.bias f4 [64]
00000000: 43e3 d8bd 98de 3fbd 90f8 82bd af6f a6bd
00000010: 19d9 723c 7d56 66bd cdb0 5dbd 4e90 553c
00000020: bbd9 e6bc 425a ddbc 48a3 6b3c 934f 37bd
00000030: f036 84bd 9fd9 a4bd d048 b3bc 3161 a8bd
00000040: 0f8f 53bd 9d94 293d 8f35 573c 0eb7 fbbd
00000050: e903 95bc 2caa 91bc acf4 81bd 7930 90bd
00000060: 3f1c 93bd 1e16 b0bd c0db 35bd 2965 d43c
00000070: fdfb fabc 9be4 eebd f538 07be b4e7 13bc
00000080: f8b9 3dbd 8f80 a4bd af8f b8bc 6619 95bc
00000090: 5e44 f3bc 4928 d1bc 3b62 54bd 57c4 1fbd
000000a0: 21fd eabd a06b 83bd 799f 09bc 76ab ebbc
000000b0: a774 37bd ae06 81bd d49d c03c d550 f9bc
000000c0: 32ae 103c cf4f 14bd 0680 80bd ae5c 0ebd
000000d0: 9c0b 91bd 30ec dfbc 2679 9fbc b2d3 43bd
000000e0: cb49 dabb 6372 86bd 45fc 22bd 941c 07bd
000000f0: feba 3fbd e584 7fbd 8499 81bd 9385 0ebe
-0.10590222 -0.04684314 -0.06395066 -0.08126771 0.014822268 -0.056234825 -0.05412369 0.013034893
-0.028179994 -0.027020577 0.014382191 -0.044753622 -0.06455791 -0.080493204 -0.021885306 -0.08221663
-0.051650103 0.041401494 0.013135328 -0.12290774 -0.018190341 -0.01778134 -0.063454956 -0.070404954
-0.07183122 -0.085979685 -0.044399023 0.025927143 -0.030637736 -0.11664697 -0.13205321 -0.00902741
-0.04631993 -0.08032333 -0.022529451 -0.018200587 -0.029695686 -0.025531905 -0.051851492 -0.039005604
-0.11474062 -0.06417012 -0.008399838 -0.028768282 -0.044788983 -0.06300102 0.023512758 -0.030434052
0.008830594 -0.036208924 -0.062744185 -0.034756355 -0.070822924 -0.027334303 -0.019466948 -0.04780931
-0.006661629 -0.06564786 -0.039791364 -0.03298624 -0.04680919 -0.062382597 -0.06328109 -0.13918142

base.cnn.4.weight f4 [32, 64, 3, 3]
00000000: 16b2 c33b 215c 3fbd 693d 2a3e dc7e 67be
00000010: 3cf1 a43a c010 02bd b292 70bb 950e 35be
00000020: 3138 19be 74af 1b3e ed84 603c 4238 163d
00000030: 94a8 51bd 53f7 893c d40d ab3d eb96 de3d
00000040: 12f3 903d 4360 a03c de06 f9bc 76e5 71bd
00000050: d47f aa3d cb69 ad3c 24ec 343e bcb6 42be
00000060: 102f 56bd b2dc 203e b1ff e63d 7c80 f9bd
00000070: 400e 07be f994 acbb 8dfd fabd 8af5 0cbe
00000080: dfdb 4fbd 01bd 8c3e e627 9a3d 09c7 243e
00000090: 0553 37be 9a95 fabd 3a14 ea3d e1bf f73d
000000a0: 8812 2bbe 9f6d 10be c944 62be 9512 6abc
000000b0: 7cb1 083c 0df1 eb3b 00a5 843d 8d2b c1bd
000000c0: 365b a33d b8bf 56be 217c 44bd f61d 39bd
000000d0: b671 babd 9312 a4bc 5d09 3ebd d5ca ea3d
000000e0: ef08 d53a 0a70 503e d15d e83b 068b da3d
000000f0: 343d 0f3d 6403 01be 046b 463e 4997 343d
00000100: fbbb 09be 01cd ecbd 2a2c eabd ed71 d23d
00000110: 9a40 1bbe 0b4d 5a3c b522 09be 0870 be3d
00000120: 22e1 0bbe 63e2 55be 22db a3bc 5ed7 b6ba
00000130: 0b12 d8bd e230 e9bd dc68 37bd 3e70 933d
00000140: f781 73bd 22df 72be d995 5a3d 48d8 15bd
00000150: 47e2 77bd 273d 3a3d 5b88 27be f940 4a3e
00000160: f067 30ba e076 8d3a 8173 12be b434 1ebe
00000170: 26e8 7bbd 6911 ab3d f776 e5bd ff24 bf3b
00000180: d2f6 1cbe 966c 9fbc 56f1 aebd 094f 09bc
00000190: bdd7 4e3d 527e b33d 8e13 f93b 9adb 8fbc
000001a0: 0481 2e3c 537d 883c 8c54 2fbd 17ad f63c
000001b0: de0f 4bbe 41fc 42be b890 a23d 9504 c6bd
000001c0: 4b01 febd 1b76 37be f468 65bd 32df 3a3d
000001d0: 58d6 0a3e 5ae3 f039 1ff9 a4bd c96a d23c
000001e0: 8c79 c63d 0ce1 25be ec86 1ebd 6831 f0bd
000001f0: 79d6 c4bc be8a 74be 5536 96bd 1bdf 94bc
00000200: 24c7 8a3d 23aa b83d 5274 4cbe b6c2 37be
00000210: e824 193e 9136 9e3d e060 99bd 880e b8be
00000220: 2377 9e3b 7364 0ebe 1cf0 01bc c081 bcbc
00000230: 15bc ed3d b1e4 493e cc05 5cbd 8c39 8abd
00000240: 1409 b4bd 532b 04bd 3c39 3cbd 8956 b8bd
00000250: 3b5b 983c 49f6 8f3e 9455 093e 1c78 d5bd
00000260: 4893 e9bd 5865 243c 280d 063e 5409 e13d
00000270: 0481 39bc 1043 a5ba 1f05 9dbc 7177 5abc
00000280: b568 90be 8b5a 6f3e 6490 f5bd b573 f83d
00000290: 3dcd 433d bc43 003d 0215 cf3d c086 5fbc
000002a0: 129d dbbd 2143 e3bd f1a7 4d3d eebf 8cbd
000002b0: 23fc 17bc 36a0 d83d 602f 06be 5d2d 853d
000002c0: 3b24 03be 95c1 8d3d 3872 6abe 2c2c 88bc
000002d0: e0e2 14be c539 123c 2628 36be 3533 39bd
000002e0: cdf2 83bd 3bdd 723d 3575 6abe 71c1 eabb
000002f0: e9cb 20be 299e 363e 94ab ddbd 10e3 283e
00000300: 7a10 72bd e3e4 a8be 0cbf 2cbe 667e 1dbe
00000310: d79d f13d f32c 163e 101c cebd 4b21 33be
00000320: 2e69 a3bd 78dd 74bd e619 1ebe d7e9 f5bd
00000330: ddee b8bd b003 b13d 16eb fb3b 9154 86bd
00000340: cb71 943c 6805 ec3c 5691 7c3d efa2 01be
00000350: 6642 dfbd 72b9 d33d 60b2 383d 0ba8 04bd
00000360: fa73 6a3e a162 67be 6128 bfbd 94c6 3b3d
00000370: f71a e53d 2a99 0c3d 3a6b 923d a18d 05bd
00000380: aee5 5cbd 9d82 fdbb 3f2a d43c b54f 6fbd
00000390: c77e 73bd 4089 1dbc 19ec 543c ef1f 90bd
000003a0: 3222 8cbd 835f e73d 09e1 20bd 5432 47bd
000003b0: 619f f2bc 4d7d 723d 896c 443b f8d7 2a3e
000003c0: fff3 b5be 03d1 f6bd 9646 c8bd 3523 44bd
000003d0: ae15 fc3c 1f87 1e3e d803 2fbd 172e 4f3b
000003e0: 5228 5a3d 04ee 363e 2202 803d 583e e7bd
000003f0: 5627 903d fe7e e53d d45c cfbd ec46 febc
0.005972157 -0.04671872 0.16624989 -0.22606987 0.00125841 -0.031754255 -0.003670853 -0.17681344
-0.14962842 0.15203649 0.013703567 0.036674745 -0.05118616 0.016841566 0.08352247 0.10868629
0.07077612 0.019577151 -0.030398782 -0.05905672 0.083251625 0.02116861 0.17668205 -0.1901502
-0.052290976 0.15709189 0.11279238 -0.121827096 -0.1318903 -0.0052667824 -0.12255392 -0.1376554
-0.050746795 0.2748795 0.07527141 0.16091551 -0.17902763 -0.122355655 0.11429639 0.12097145
-0.16706288 -0.14104317 -0.22096552 -0.014286657 0.008343097 0.0072003664 0.06476784 -0.09432135
0.079763815 -0.20971572 -0.04796994 -0.04519459 -0.0910372 -0.020028388 -0.04639565 0.114644684
0.0016253273 0.2035524 0.007091262 0.10671048 0.034970477 -0.1259895 0.1937676 0.04408959
-0.13450615 -0.11562539 -0.11434205 0.10275636 -0.15161362 0.013324033 -0.13392146 0.09298712
-0.136601 -0.20887141 -0.020001952 -0.0013949682 -0.105503164 -0.11386277 -0.044777736 0.07199143
-0.059450116 -0.23717931 0.053365562 -0.036583215 -0.06051853 0.045468476 -0.16360609 0.19751348
-0.0006729355 0.0010792874 -0.14301874 -0.15449792 -0.06150069 0.0835293 -0.11204331 0.0058332677
-0.1532853 -0.019460957 -0.08542125 -0.00838066 0.050498713 0.08764328 0.007601208 -0.017560769
0.010650877 0.016661322 -0.04280524 0.030111833 -0.19830272 -0.1904154 0.07937759 -0.09668843
-0.1240259 -0.17916147 -0.056008294 0.045623012 0.13558328 0.00045945757 -0.080553286 0.025685685
0.09691152 -0.1619913 -0.03870289 -0.117281735 -0.02402805 -0.23881051 -0.07334582 -0.018172791
0.06776264 0.09016826 -0.19966248 -0.1794537 0.14955485 0.077252515 -0.074891806 -0.35948586
0.0048359795 -0.13905506 -0.007930782 -0.023011088 0.116081394 0.19716145 -0.053716466 -0.067492574
-0.08790794 -0.03226788 -0.04595302 -0.0900088 0.01859819 0.28117588 0.13411552 -0.104233
-0.11405045 0.010033928 0.13090956 0.10988107 -0.011322264 -0.0012608487 -0.019167481 -0.013334141
-0.28204885 0.23374383 -0.11990431 0.12131444 0.047803152 0.031314597 0.10111429 -0.013642967
-0.10723318 -0.11096788 0.05020899 -0.06872545 -0.009276423 0.10577433 -0.1310401 0.06502793
-0.1280679 0.069216885 -0.22895133 -0.016622625 -0.14539671 0.008924906 -0.17788753 -0.04521485
-0.06442795 0.059293013 -0.22896273 -0.0071641733 -0.15702786 0.17833771 -0.108237416 0.16492867
-0.059097745 -0.32987127 -0.16869754 -0.15380248 0.11797684 0.14665584 -0.10063946 -0.17493169
-0.07979046 -0.05978152 -0.15439567 -0.12007492 -0.090299346 0.086432815 0.0076879365 -0.065590985
0.018120667 0.028811172 0.06166204 -0.1265981 -0.10901336 0.10338105 0.045091987 -0.03238682
0.22895804 -0.22596218 -0.093338735 0.045843676 0.11186784 0.034325756 0.07149358 -0.03260577
-0.053929977 -0.0077365176 0.02589905 -0.058425624 -0.059447076 -0.0096152425 0.012995743 -0.07037341
-0.0684246 0.11297514 -0.03927711 -0.04863198 -0.029617013 0.059201527 0.0029971919 0.16683948
-0.35537717 -0.120515846 -0.09779088 -0.04788514 0.030772056 0.15481232 -0.042728275 0.0031613165
0.05326111 0.17864233 0.06250407 -0.11291188 0.07038753 0.112058625 -0.101251274 -0.031039678

base.cnn.4.bias f4 [32]
00000000: 622c e4bc 09be 9abc 1928 86bd 7bc6 6bbc
00000010: 490d 11bc ff98 69bd ee94 98bd 048f b0bb
00000020: da2e 16bd 2d95 9abd 1597 d7bd 5702 16bd
00000030: ae40 f9bd 2ef2 4dbd 591a d0bd ce55 91bd
00000040: 0d8f 80bc ff20 e6bc 91b4 c8bb 4baa 05bd
00000050: 3bd3 16be 64f5 bdbd 5d2d dfbd f11d edbd
00000060: 3a58 7dbd 4f55 5fbd 4232 dabd d3cb 19be
00000070: abac 9abd 1f23 bfbd 2a49 1dbd 2213 d9bc
-0.027853195 -0.018889444 -0.06550617 -0.014390583 -0.008853265 -0.057030674 -0.07450281 -0.0053881425
-0.036665775 -0.07547984 -0.105268635 -0.036623325 -0.1217054 -0.05027979 -0.101612754 -0.07096444
-0.015693212 -0.028091906 -0.006125041 -0.032633107 -0.14729016 -0.0927532 -0.10897324 -0.115779765
-0.061851718 -0.054524716 -0.10654117 -0.15019159 -0.07552465 -0.09332871 -0.038399853 -0.026498381

base.cnn.7.weight f4 [64, 800]
00000000: 229c 32bd 4245 2fbe df5f 8dbe f61d 86be
00000010: 45e3 fe3a f962 cc3d c3c4 10be 0605 b83c
00000020: 595d 2abe 630a bb3d 869a 4dbe 9c90 d63c
00000030: 7529 1d3e 0d0e 3cbe 101d 6e3d 2fe2 c0bd
00000040: 4d8d 85bd b8ce c93c 8ef2 15be 62d2 c03d
00000050: f139 15be e566 6d3d 65c6 38be fbbe f9bd
00000060: 7e24 dbbc a818 c93b 56f8 53bd 4f44 26bd
00000070: 911a 9bbd 5945 223d a09d 39be 5969 a13d
00000080: 5e39 b6bd 1c09 463e 0c9e 663d c47b b83d
00000090: 15c6 b2bc 1fa9 223e 92a0 80bd 7c38 8fbd
000000a0: 6a53 383d 0392 10bd 7d8f babc 816a ecbd
000000b0: ff36 dbbd abf7 87be d843 bdbc 37d4 be3c
000000c0: e3f3 14bd 25f2 eabd 811f 4a3d 9560 22be
000000d0: 3342 95bd 8346 8abe 6313 49bd dd1c 233d
000000e0: 0ff3 463d 7f17 863d c4b5 25be 4bda 31bc
000000f0: 41da 883e e250 babe 9ea2 783e f460 e2bc
00000100: b8ce 0e3c e2b5 15be 44bf 1bbd ad37 35be
00000110: 4066 d2bd 27ec cc3b 4d24 5f3e c516 75be
00000120: 859e 523d 9cff 7dbe c344 293a 0a8f 213e
00000130: 4260 ffbc 028b cabc 2dc7 51be 1873 823d
00000140: 2fe6 393c a3d8 6cbc 0f27 a23c 6ea2 a7be
00000150: c871 c6bd 427c 8abc cfcf 2abd addc cb3d
00000160: e882 40be 03dc 9bbd ac26 213d 6036 1f3d
00000170: 2ad8 813c 07ab 043e 4a53 883e 87bf d23d
00000180: ace1 623e ffd8 253c 9436 863d f4ec ab3c
00000190: 1245 093d 669b 85be a288 00be 2c59 39bd
000001a0: c90d b7bd c2ad b9bc ce67 0c3e 5dfa 30be
000001b0: 8ff5 a0bc 50cb 0abd e6de 5d3d 1958 99bd
000001c0: 214d f73d 826a 47be d6b7 23bc 2e77 653e
000001d0: 7d3f 97bd 8f93 5cbc 9099 c1bd 1133 243d
000001e0: 56af 4e3e 6c93 ca3c 833f 313d 92bc 8e3d
000001f0: c241 8a3d 3e29 1ebd 1475 f4bd ef13 3bba
00000200: b3ad 0b3c b69b 153d aab8 e5bd 1eeb 373d
00000210: 17ec 863d 4f3b 883d 95ba 89bb 82b7 873d
00000220: 8ea1 be3d 1031 223d dd7e bf3d 2b6d 3b3c
00000230: e548 90bd c07b febd fe6a 843d 53fe 813e
00000240: 363f 1d3e 0928 e2bd 20cc 2fbe 33df ffbc
00000250: bec8 0d3e 56d3 3e3d e6d7 003e 794c ebbc
00000260: 2b68 bc3d 46d3 dfbd bf9b 25be 6016 78bb
00000270: bd4d 243d 09fb 8d3d 8b20 d53e f39f 1cbc
00000280: ae39 a3bb 0325 3c3d 83ab a4bd 8416 ee3d
00000290: 4f3d 9abc ae19 3cbe 7bbd 3dbd 9e3e c7bd
000002a0: 7c3b e1bc 7c72 c53c 925c 78be 7a12 0e3e
000002b0: 8374 4d3e a9fb 3c3e fac0 343d 64de 1abe
000002c0: e59f dc3c 6844 24bd 2750 bebd d073 453e
000002d0: ce18 bdbd 6bcf d4bc d9df 883e e0fd 0d3e
000002e0: 0638 46bd 545f fbbd b1a7 67bc 7a5d 96bd
000002f0: b64a 213d 2b14 38be 8a9f 2f3d a888 2abe
00000300: 5d05 99bd 73fc 823e 154a 963d 0461 243e
00000310: c1e9 173e 6404 263d b0cc 24be b330 963d
00000320: 1d34 5b3c 1a8a efbd 2406 4b3c 7012 ca3a
00000330: 398b 4f3d 4955 433e e461 8cbd 0429 a23b
00000340: 0ccc a53d a9ff 483e fa40 33bd fbc6 0bbe
00000350: eae2 c5bd 1f87 6f3d 5b28 433d dfb1 843c
00000360: 5d6f adbb bdee 48bd 42fa fa3c c142 59be
00000370: db9f 523d 2f51 02be e4f4 133d 7a1b edbd
00000380: 515c 81bc 68a4 623b 6a00 c73b 8c00 ccbc
00000390: 4aef 5a3e 0cb8 97bb db1f c03d 42d7 34be
000003a0: 16e2 c7bd 1346 d33d df2b 84bd cf5c 8dbe
000003b0: 82ee da3d 8815 80bd f508 02be 0ede 083e
000003c0: 2d84 743e c24a a9bc 59da 633d 19cf 293e
000003d0: 37cb 96bc 4e73 6fbe bb6e 7c3d 9566 c0bd
000003e0: 3968 40bc c1cc a23d ddbe b0bb cc79 aa3d
000003f0: 53c6 84bd 5a53 7c3d a0f7 e23b 9713 a03d
-0.04360593 -0.17116264 -0.27612206 -0.26194733 0.0019446394 0.09979815 -0.14137559 0.022463333
-0.16637172 0.091328405 -0.20078477 0.026192002 0.15347846 -0.18364735 0.058133185 -0.09418141
-0.065210916 0.024634704 -0.14643309 0.09415127 -0.14572884 0.057959456 -0.18044432 -0.1219463
-0.0267508 0.0061369725 -0.051750503 -0.040592488 -0.075734265 0.039616916 -0.18126535 0.078814216
-0.08897661 0.19339412 0.05630307 0.090079814 -0.021822968 0.15884827 -0.06280626 -0.069931954
0.045001425 -0.035295498 -0.022773499 -0.115437515 -0.10703849 -0.26556143 -0.02310364 0.023294551
-0.0363654 -0.11471967 0.04934645 -0.15857156 -0.07288017 -0.2700692 -0.049090754 0.039822448
0.048571642 0.0654745 -0.1618262 -0.010855268 0.26729015 -0.36389834 0.24280784 -0.027634121
0.008716278 -0.14620164 -0.038024202 -0.1769702 -0.10273409 0.0062537375 0.21791191 -0.23934467
0.051420707 -0.24804538 0.00064570847 0.15777221 -0.031173829 -0.024724487 -0.20486136 0.06369609
0.011346384 -0.014455947 0.019794015 -0.32741112 -0.09689671 -0.016904954 -0.041702088 0.099542
-0.18799937 -0.07610323 0.03934352 0.038870215 0.015850145 0.12955867 0.26626045 0.10290437
0.221564 0.010122537 0.06553379 0.020987011 0.033513136 -0.26095122 -0.12552121 -0.045251057
-0.08938176 -0.022665862 0.13711473 -0.17283006 -0.019648341 -0.0338853 0.05416765 -0.074875064
0.12075258 -0.19474223 -0.00999256 0.22408745 -0.07385156 -0.013462915 -0.09453118 0.040087763
0.20184073 0.0247285 0.04327346 0.06969561 0.067508236 -0.03861355 -0.119363934 -0.0007136454
0.0085253 0.03652545 -0.112168625 0.04490196 0.06587999 0.06651937 -0.0042031505 0.06626798
0.09308158 0.03959757 0.09350369 0.011439602 -0.070451535 -0.12425947 0.0646572 0.25389346
0.15356144 -0.11042792 -0.17167711 -0.03123436 0.13846108 0.046588264 0.12582359 -0.028722988
0.09199556 -0.10928969 -0.16172694 -0.0037855133 0.0401132 0.06932647 0.4162639 -0.009559619
-0.004981241 0.045933735 -0.08040526 0.11625388 -0.018828062 -0.18369171 -0.04632328 -0.0972874
-0.027494185 0.024102442 -0.24254063 0.13874236 0.20063977 0.18455376 0.04412935 -0.15123898
0.026931712 -0.0401043 -0.092926316 0.1928246 -0.09233247 -0.02597781 0.26733282 0.13866377
-0.048393272 -0.12274042 -0.014139102 -0.07342048 0.03937789 -0.17976443 0.042876758 -0.16653693
-0.07471726 0.25583228 0.07338349 0.16052634 0.14835264 0.04053153 -0.16093707 0.073335074
0.013379124 -0.11696263 0.012391601 0.0015416872 0.050669882 0.19075502 -0.06854609 0.004948737
0.080955595 0.19628777 -0.04376314 -0.13650124 -0.09662421 0.05847847 0.047645908 0.016198097
-0.0052928166 -0.049055804 0.03063691 -0.21216871 0.05142198 -0.12726282 0.036122218 -0.11577506
-0.01579109 0.0034582857 0.0060730474 -0.024902605 0.21380344 -0.0046300944 0.09381076 -0.1766024
-0.09759919 0.103161 -0.0645368 -0.2760987 0.10690023 -0.06254107 -0.1269873 0.13365957
0.23878546 -0.02066553 0.055628154 0.16582908 -0.018407447 -0.23383829 0.06162904 -0.09394566
-0.011743599 0.0794921 -0.0053938464 0.08324012 -0.0648314 0.061602928 0.006926492 0.078162365

base.cnn.7.bias f4 [64]
00000000: 7eb8 56bc 4f15 35bd dc4b c0bd e6db bbbd
00000010: b43f 38bc fd44 bfbc 9746 b7bc 166f 3abd
00000020: aa3e 2e3d 7098 b2bd f5ca 88bd 1e23 a9bd
00000030: 261b cdbd 54ab e93c 7627 90bd 9e02 00bc
00000040: 0b9c fcbc e4a6 9abd 2744 d6bd 9a49 adbd
00000050: 8ad6 8abd 91fa e7bd 9d6d 9fbc e58d 9dbd
00000060: ba32 3abd 3ccd d5bd 0c95 a3bd d076 45bd
00000070: 8095 79bb c757 f0bc 2725 26bc e40d 63bd
00000080: c4d2 6fbd 68f3 13bd a8cf 76bd 8e3b cebc
00000090: a68c b0bd c1de 573c d3a6 aabc 0648 81bd
000000a0: 2b8c 61bc 4ed5 84bd 6d3a b33c 9667 a8bc
000000b0: 7e53 40bc 63e8 afbd c968 76bc 47b0 39bd
000000c0: 157a 423d 54cf 2abc 6367 16bd 39f6 83bd
000000d0: dc83 5fbd 1744 04bd 602a 723c 944a 1abd
000000e0: 8fa4 d0bd 829c 00bd 2b03 52bd 7064 e23c
000000f0: 7351 d0bd ffc5 5dbd 5bb8 a2bd 7f76 91bd
-0.01310551 -0.044209775 -0.09389469 -0.09172802 -0.011245657 -0.023348326 -0.022372527 -0.045516096
0.04254023 -0.087204814 -0.06679336 -0.08258651 -0.10014944 0.028524078 -0.070387766 -0.007813124
-0.030836126 -0.07551363 -0.10462218 -0.08461304 -0.06779201 -0.113270886 -0.019461447 -0.0769308
-0.045458533 -0.10439536 -0.07987413 -0.04820901 -0.0038083494 -0.02933873 -0.010140694 -0.05543317
-0.05855061 -0.036120802 -0.06025663 -0.025174882 -0.086205766 0.013175667 -0.020831501 -0.063125655
-0.013766329 -0.06485997 0.021878446 -0.020557206 -0.011738656 -0.08589246 -0.015039631 -0.045334127
0.047479708 -0.010425407 -0.03671969 -0.064434476 -0.05456911 -0.032291498 0.014780611 -0.03766878
-0.10187637 -0.031399257 -0.051272552 0.027635783 -0.10171785 -0.054143902 -0.07945319 -0.071026795

base.cnn.9.weight f4 [64]
00000000: a482 7f3f a6db 893f 5b19 983f b823 903f
00000010: 5002 573f e64f 823f d188 8e3f 02a5 883f
00000020: 8b6a 8c3f 31b2 853f 3141 563f 9a98 803f
00000030: 7314 763f f9cc 833f 501d 713f 898a 7f3f
00000040: 4182 983f 6e3d 873f c7e8 7b3f 00d0 7c3f
00000050: 822d 933f 4544 7a3f 3a4d 823f 6f6d 843f
00000060: 0cb4 5e3f 4e55 8f3f da3e 7d3f e5bc 803f
00000070: 4289 873f 37dc 823f feb2 833f 5a73 733f
00000080: ebc9 823f 7649 863f 98f3 763f 526d 653f
00000090: e430 923f a000 8c3f 3243 633f 63a0 6b3f
000000a0: 4d79 863f d97b 6b3f c47d 783f a495 8e3f
000000b0: adff 933f 7745 8a3f cce4 6d3f 2268 763f
000000c0: 4c31 803f 5149 733f 9024 693f d426 6c3f
000000d0: e88e 913f dbf1 993f 8cdf 823f b34e 5a3f
000000e0: 71b6 943f 3cd7 863f 84b8 7e3f 4806 853f
000000f0: c48d 883f 5a1c 8a3f e788 723f 67de 653f
0.99808717 1.0770156 1.1882738 1.12609 0.83987904 1.0180633 1.1135503 1.0675356
1.0970014 1.0445005 0.83693224 1.004657 0.96124953 1.0296928 0.9418535 0.9982076
1.191475 1.0565622 0.98402065 0.9875488 1.1498263 0.9776042 1.0179818 1.0345896
0.8699348 1.1197908 0.9892403 1.0057646 1.0588763 1.0223454 1.0288999 0.9509789
1.021787 1.0491168 0.96465445 0.89619935 1.142117 1.0937691 0.88774407 0.92041606
1.0505768 0.9198585 0.97066903 1.1139417 1.1562401 1.0802449 0.9292724 0.96252644
1.0015044 0.95033747 0.91071415 0.92246747 1.1371737 1.2026933 1.0224471 0.85276335
1.1618177 1.0534434 0.995003 1.0392542 1.0668263 1.0789902 0.94740146 0.89792484

base.cnn.9.bias f4 [64]
00000000: 08b1 b73d dfb5 f6bc 3616 7ebe a432 09be
00000010: 9ece 0c3d 7810 e23b 9acd 3e3e bbd9 0dbe
00000020: 498c d33d de11 5dbc bb45 943d 02b9 8bbd
00000030: 3699 f3bd 636d 403d 3631 8d3d 82a0 e8bb
00000040: 5bf5 d3bd 9a52 1f3d d15c ac3d 106c 8fba
00000050: e403 2dbe 4de0 c83d 997d 153e ea6b e7bd
00000060: 228a 253e f37a 0bbe 7f34 7b3b 98c9 433e
00000070: 8646 1e3d 4ce9 f3bd db40 96bd 433e a93d
00000080: e426 bb3d 56ac 1bbc 9192 513e 574f 08bb
00000090: 41be c9bd 5e19 31bd 4466 043e 2c93 5c3d
000000a0: 0bd6 f5bd 1647 873d ba4a babc 9886 a5bc
000000b0: ba3e ba3d 7a3f 233c 1587 34be ff73 05bd
000000c0: fc69 c9bb ba15 1d3d f276 913d 73b9 9bbc
000000d0: c571 09be 04bd f2bd c6a7 c33d 4676 ae3d
000000e0: aa7e 31be 1f67 003b 67ae 88bd ec86 8c3d
000000f0: 68be adbd 47ff aebc 6ce7 273d e6ea 093e
0.08969313 -0.03011602 -0.2481316 -0.13398224 0.034376733 0.006898936 0.18633118 -0.13852589
0.10329492 -0.013493029 0.072398625 -0.06822397 -0.11894457 0.04697932 0.06894152 -0.007099212
-0.10349532 0.038897134 0.08416141 -0.0010942239 -0.16896015 0.09808407 0.14598693 -0.1129988
0.16165975 -0.1362112 0.003833085 0.1911987 0.038641475 -0.11909732 -0.07336589 0.082638286
0.09138277 -0.009501537 0.20466067 -0.0020799243 -0.09850741 -0.043237083 0.12929636 0.05385129
-0.12003716 0.066053554 -0.02274071 -0.02020578 0.090939954 0.009963864 -0.17629655 -0.032581326
-0.0061466675 0.0383508 0.07102765 -0.019009328 -0.13422306 -0.11852458 0.095534846 0.085186526
-0.17333475 0.0019592715 -0.066738896 0.06861672 -0.08483583 -0.02136196 0.040992185 0.13468513

base.cnn.10.weight f4 [64, 64]
00000000: 67cd aa3c ce09 233e 0645 d83e 63fc a93e
00000010: 2c46 8a3d 3e4b 5fbd 4c40 aebe b7d8 46be
00000020: d487 c23d 7eb0 463d 0d69 a43e e0c7 bebd
00000030: 2224 f53d e30e 40be c278 96bc 6b79 8fbe
00000040: 055c ccbc 1351 153f 583e 783c 30ec 8f3e
00000050: 36f9 fb3d f5d7 c93d 34a0 b8be dbd8 0fbe
00000060: 0270 45be 8b1b c23e ea0a bbbd 13de c8bc
00000070: e16c 343d 6634 fabb 28ba 8cbc ed5b 08be
00000080: 99ed 353d ad6d 1a3e 9658 8e3c 7540 b23d
00000090: bb87 293f 7f3a 403e a1d8 18be 0391 953d
000000a0: d194 f9bd b536 933e 1c32 7f3d 9bc2 cd3d
000000b0: b0c5 2bbb 00a4 033e 9eaa d0be dfb4 2fbd
000000c0: 1037 2d3e 2ce4 50bd 1506 69be dc03 823e
000000d0: ef22 f33c 8be6 0dbe f742 26bd 34a8 dcbd
000000e0: cc50 a43e 65f3 1e3e b100 abbd 4cf1 3cbe
000000f0: 2b5b 1c3e 9447 973d b984 ebbe 1464 8b3e
00000100: e0eb 223e 88f1 133d 8fbf 56bd c12c af3d
00000110: 9510 0cbe 32e6 74be 6e67 c9bc 5120 2d3e
00000120: 46ee f93c 3a26 c6bd e1ee 323e e14d a33e
00000130: 93d2 9d3d 6b94 113e d4fd 25be e7e5 c9bd
00000140: fb24 3a3e cfd9 963e 828c f23d 247b 52bd
00000150: adc4 293e e441 54be 9411 583e 4dac 643b
00000160: dd9d 55be 1286 c4bb f550 043e 2361 babe
00000170: 0bea 64be 7fc7 4b3e 5945 b43e 5753 9dbd
00000180: fb79 2e3e 131f afbe 1976 b03d f54a 74bd
00000190: d2b2 0b3e 2211 96be 9d16 60be b8bc 29be
000001a0: 1124 6dbe 01dd 87be ab7a 2fbf 929a 7dbc
000001b0: 7e12 0b3e 8d6a 863d 820c 37bd 6380 d43d
000001c0: 404b 8d3d 3d47 edbe 4372 603e 7b89 1abf
000001d0: c411 1d3c fd0d cbbc 394a 00bc ccab 5c3e
000001e0: c42f a73d 543c 1dbe 98b1 d8be bfe5 ffbd
000001f0: a1b4 f9bd 9fac d33d dabc b73e 79ac 053e
00000200: beba 70be 586f ca3d 1e74 4bbe 2886 afbd
00000210: 3a25 40be 9d9a 463e 881d 933d 990a 04be
00000220: a5ab 143e 35a1 83be 7532 25be 8c88 58be
00000230: c09b 313e 9dde b23b 38e8 b93e a200 50be
00000240: d2d6 d9be ba45 2c3d 90d8 d33e 6ed7 ccbe
00000250: 68e9 a93d cb18 7e3c 410b 1ebd 6f3a ad3e
00000260: 27af dbbd c1cf 02bf 1ea3 253e 76d9 9dbd
00000270: 54a4 793e 040f c0bd f8e0 273d 8fed 2fbd
00000280: 439d 2c3e 5b63 4bbe 75eb b63c 245d 5abe
00000290: 7f80 653e 3481 4fbd c03c 1dbe 98c1 cb3e
000002a0: 4d06 66bd a9b3 113e f3c6 42be 4d78 033e
000002b0: 3c5d 543e 1171 7dbe 1bac 543e 413c b2bd
000002c0: 56d1 a9bd 6fd6 863e 729e 033d dbfc be3b
000002d0: e771 b23e cfff 2ebe f3ec acbe 9205 bebe
000002e0: 5211 e4bd dd83 82bd 9b4a ecbd 945b d4bd
000002f0: 8cb2 1d3d f488 d43e 323a 2d3e c0ca be3e
00000300: 9b4e 8a3e d767 13be b48f 783e e338 993d
00000310: 723a a73d 516a 06be 2356 513e ea2d 0d3e
00000320: d283 4bbe 7b8c 95bd 2b44 2b3e eb00 21be
00000330: a6d7 bd3e 311e 2cbd a0d3 3ebd cb44 be3d
00000340: 2203 15be c963 f63c 854b 4cbe bebd b2be
00000350: e238 9cbe 9c32 ddbd e537 81be 202a e1bd
00000360: 992a c1be 3c86 9c3c 9358 993e d7c3 0dbd
00000370: 787b dc3e a9f5 0dbe 1153 bc3e 38bc d03e
00000380: 7e52 083c 9690 c8bd a95a 0bbd 81d6 96bd
00000390: bac8 6fbe a889 fabe 36e0 19be 64a5 9dbb
000003a0: 6cc0 753d 5fd2 4c3d cea9 29be 9dde b33e
000003b0: a17c e5bc b538 6abd 5b0f c13d 0110 943b
000003c0: 61fe b4bd b0b1 0cbe 3b1d abbe f009 263e
000003d0: 6ba5 c43e 0025 373e 32f9 433e 00fb a4be
000003e0: 5e8b d5bd a25c cfbd 2835 693e f4e1 68be
000003f0: a987 06be 5f11 ad3e da25 a43e 41ea 243d
0.020849897 0.15921709 0.4224016 0.33200368 0.067516655 -0.054515116 -0.3403343 -0.19418608
0.094985634 0.04850816 0.32111397 -0.09315467 0.119697824 -0.18755679 -0.018368129 -0.28022322
-0.024946222 0.58326834 0.015151583 0.28109884 0.123033926 0.09855644 -0.36059725 -0.14047568
-0.19281009 0.3791164 -0.09132941 -0.024519956 0.044049148 -0.007635641 -0.01717861 -0.13316317
0.044416044 0.150809 0.017376225 0.087037005 0.66222733 0.18772314 -0.14926387 0.073030494
-0.121865876 0.28752676 0.062303647 0.10046884 -0.002621036 0.1285553 -0.4075517 -0.0428971
0.16915536 -0.05099885 -0.22756226 0.2539357 0.029679744 -0.13857476 -0.040591206 -0.1077427
0.32092893 0.15522535 -0.08349741 -0.18451422 0.15269153 0.07386699 -0.45999697 0.2722479
0.15910292 0.036119014 -0.05242878 0.08553458 -0.136782 -0.23915938 -0.024585452 0.16906859
0.030509125 -0.0967526 0.17473938 0.31895354 0.077061795 0.14216773 -0.16210109 -0.098583035
0.1817817 0.2946305 0.11843206 -0.051386967 0.16578932 -0.2072826 0.21100456 0.0034892738
-0.20861001 -0.0059974277 0.12921508 -0.36402234 -0.22354905 0.1990032 0.35209158 -0.076819114
0.1703872 -0.34203395 0.08616275 -0.059641797 0.13642433 -0.29309946 -0.21883626 -0.16575897
-0.2315829 -0.265358 -0.6854655 -0.015478747 0.13581273 0.06563292 -0.044689663 0.1037605
0.068991184 -0.46343413 0.21918587 -0.6036603 0.009586755 -0.024786944 -0.007830196 0.2154991
0.081634074 -0.15355045 -0.42322993 -0.124949925 -0.12192655 0.10335659 0.3588627 0.13054074
-0.23508736 0.098845184 -0.19868514 -0.0857051 -0.18764201 0.19394918 0.07183367 -0.12894668
0.14518602 -0.2570893 -0.16132529 -0.21145838 0.1734457 0.0054586665 0.3630998 -0.20312741
-0.42546707 0.042058684 0.41376162 -0.4000811 0.08296472 0.015508841 -0.03858495 0.33833644
-0.10726767 -0.5109826 0.16175506 -0.07707493 0.24379092 -0.09377864 0.04098603 -0.042951163
0.16856866 -0.1986212 0.022329072 -0.21324593 0.22412299 -0.050660327 -0.15355206 0.39796138
-0.056158353 0.14228691 -0.19021206 0.1283886 0.20738691 -0.24750163 0.20768778 -0.08702899
-0.08291881 0.26335475 0.032133527 0.0058284826 0.34852526 -0.1708977 -0.33774528 -0.37113625
-0.11136116 -0.06372807 -0.11537667 -0.1036903 0.038500354 0.41510737 0.16916731 0.3726406
0.27013096 -0.1439508 0.24273568 0.074815534 0.081654444 -0.13126494 0.20443015 0.13787046
-0.19874504 -0.07302185 0.16725223 -0.15723006 0.3707859 -0.04202098 -0.04658854 0.09290465
-0.14551976 0.030076878 -0.19950683 -0.34910387 -0.30512148 -0.108006686 -0.25237957 -0.10994363
-0.37727812 0.019106977 0.2995039 -0.034610596 0.4306295 -0.13863243 0.36782125 0.407686
0.008320449 -0.097932026 -0.034022007 -0.07365132 -0.23416415 -0.48933148 -0.15026936 -0.004810976
0.05999796 0.050005313 -0.16568682 0.35130778 -0.02801353 -0.057182986 0.09426757 0.0045185094
-0.088375814 -0.13739657 -0.3342074 0.16214728 0.38407454 0.17885208 0.19138029 -0.32222748
-0.10426973 -0.1012509 0.22774184 -0.22742444 -0.13137688 0.33802316 0.32060128 0.040262464

base.cnn.10.bias f4 [64]
00000000: 8c9d 06be da45 5cbd 0f4b af3d 0114 e6ba
00000010: 0097 a1bd 88d1 8dbe fa9e 9ebd 4017 92bd
00000020: 7ff8 26bd eca3 6dbc 45c4 9fbd 9fe8 873b
00000030: c064 fdbd 02cd 73bd 897a 41be 7437 40bd
00000040: de97 903d 0f1d dcbd cc05 2fbe 35ae 0fbe
00000050: be4c b33d 5722 67be 541a abbd 6676 f0bc
00000060: 9d79 87be 5046 52bd 15d3 57be 41fa 0bbd
00000070: 81cd aabd f568 283c 7c73 a73d 2a19 b1bd
00000080: 8cd3 40bd f5fb c5bd 3144 d8bc 7c35 983c
00000090: 5701 03be 9e99 f2bd fc94 68be 0862 edbc
000000a0: 11a9 c6bc 1507 abbe 582a 85bd 8588 44bd
000000b0: 5343 ddbd 7a1f 07be c2ee f83d cf3b 2ebe
000000c0: 46b4 9b3c d221 98bd 66c2 70bd 8a7d 6ebd
000000d0: f085 45be c6a8 c83d 398a 0dbe 0729 1bbe
000000e0: 6825 1bbe c8cb 83bd eb56 e2bd 2db5 98bd
000000f0: e66a 36be ad35 0dbe eebd 8a3d cd4d b7bd
-0.13146037 -0.053777553 0.08559238 -0.0017553569 -0.07890129 -0.27698922 -0.07745166 -0.07133341
-0.040764328 -0.014504414 -0.07801107 0.0041476036 -0.12372732 -0.059521683 -0.188944 -0.046927884
0.07060216 -0.1074773 -0.17092055 -0.14031298 0.08754872 -0.22571693 -0.08354631 -0.029353332
-0.2645997 -0.051336586 -0.21076615 -0.034174208 -0.08339978 0.01027893 0.08176324 -0.08647378
-0.047076747 -0.096671976 -0.026399704 0.01858019 -0.1279348 -0.118457064 -0.22713083 -0.028977409
-0.024250539 -0.3340384 -0.06502217 -0.047981758 -0.10803857 -0.13195601 0.121549144 -0.17015003
0.01900686 -0.07428326 -0.058779143 -0.058225192 -0.19289374 0.09797816 -0.13822259 -0.1515237
-0.15150988 -0.064353526 -0.110517345 -0.074564315 -0.17814216 -0.13790007 0.067745075 -0.08950386

base.cnn.12.weight f4 [64]
00000000: a391 643f c470 8d3f 4374 7a3f abf7 703f
00000010: 0b57 853f 46f2 793f ca50 8d3f c703 9d3f
00000020: 3cda 823f 75cf 4a3f df97 913f 808a 803f
00000030: 5ec5 8e3f a465 793f fc85 823f 9e30 6b3f
00000040: a315 713f e4c1 583f da61 5b3f 1a3b 753f
00000050: 61bd 813f efe3 8b3f 604a 7c3f 11bb 713f
00000060: 0f73 7f3f c620 863f ad34 843f 319a 833f
00000070: 198e 583f 5071 643f fabf 8d3f f9ff 843f
00000080: 3d77 723f 79d5 8c3f baaf a13f 9c98 823f
00000090: 08a9 883f cddc 8b3f c2ec 933f 487e 803f
000000a0: ce29 603f 3a40 5c3f 22b7 853f 7534 783f
000000b0: 633d 8d3f 229a 723f 3d70 893f 844a 8c3f
000000c0: 1258 933f bdcd 703f 02ac 723f 7d1a 783f
000000d0: 84a1 7b3f dbc2 8b3f 777d 933f c498 803f
000000e0: 63b6 663f 39bc 803f 2a74 643f b3be 913f
000000f0: 087a 603f 6a89 8c3f 8af5 7b3f 0154 923f
0.89284724 1.1050038 0.9783365 0.9412791 1.0417188 0.97635305 1.104028 1.2266778
1.022285 0.79222804 1.1374472 1.0042267 1.1153982 0.97420716 1.0197139 0.9187106
0.9417364 0.84670854 0.85696185 0.95793307 1.0135919 1.0928935 0.9855099 0.94426066
0.9978494 1.0478752 1.0328575 1.028143 0.84591824 0.892354 1.1074212 1.0390617
0.94713193 1.1002647 1.2631752 1.0202823 1.0676584 1.0926758 1.1556628 1.0038538
0.8756379 0.860355 1.0446513 0.96955043 1.1034359 0.9476644 1.0737377 1.096024
1.1511252 0.9406393 0.94793713 0.9691542 0.9829333 1.091884 1.1522664 1.004662
0.9012205 1.0057441 0.8923975 1.1386322 0.87686205 1.0979435 0.9842154 1.1431886

base.cnn.12.bias f4 [64]
00000000: 481c f53c 421f f1bd 99e4 2a3d e081 153e
00000010: 5ac4 51bd b01d bebd fda9 ccbd f5aa f0bd
00000020: 8bec 16bb a146 1d3e b995 8dbd 38ff 283e
00000030: ff78 8abd 4567 133c d3db 22bd ad26 8b3d
00000040: 4fd2 cb3d c170 a7bd 1dc0 9e3d fec4 8c3d
00000050: c9ea 1ebd 0c4d 25bc 031c d43d 3b8c 093d
00000060: c365 06be a801 28bd 2a92 59bd 064d f33b
00000070: fc06 553d 6047 403e d8f4 b1ba df93 2f3d
00000080: 33fb b3bb f76e a4bd 043e 97bd 3253 0d3e
00000090: 16a4 a8bd f057 553c 2ced d1bd a7d6 febc
000000a0: de58 b5bc 1756 c23c 6472 6a3d 2dea 46bc
000000b0: a837 9cbc 3d81 243e 391e 373e d2e3 78bd
000000c0: 4d5a 1d3e 2dba 183d e5ce a6bd b9d9 47bd
000000d0: 6526 f5bb 2376 9d3d 675e 263d 14bd 21bd
000000e0: 6ab9 ef3d 29c1 f03d d659 a6bc a45a fdbd
000000f0: 1ae3 a6bb cba4 d7bc 21bc 3a3e 7401 65bd
0.029920712 -0.1177354 0.041721914 0.14600325 -0.051212646 -0.09283006 -0.0999336 -0.117513575
-0.0023029174 0.15358974 -0.06913323 0.16503608 -0.067613594 0.008996789 -0.039760422 0.06794486
0.099522226 -0.08175803 0.077514865 0.06873511 -0.038798127 -0.01008917 0.10356905 0.033581
-0.13124757 -0.041017205 -0.05311791 0.0074249534 0.052008614 0.18777227 -0.0013576997 0.04286563
-0.0054925918 -0.08028977 -0.073848754 0.13801268 -0.08234422 0.013021454 -0.10250315 -0.031108214
-0.022137102 0.023722691 0.057237998 -0.012140793 -0.019069508 0.16064925 0.17882623 -0.06076414
0.15366478 0.037286926 -0.08144931 -0.04879162 -0.0074813836 0.076885484 0.040617373 -0.03948696
0.11705287 0.117555924 -0.020306509 -0.12370804 -0.0050929906 -0.026323697 0.18235828 -0.05590959

base.cnn.13.weight f4 [64, 64]
00000000: b3dc 06bd bff6 523e b7be 45be 9d70 d63d
00000010: 2f38 0f3e 4dcc 403e a4b8 e8bd 520b 9c3e
00000020: 8fef f53d 8977 f93d c02a e03d 2fd2 02bf
00000030: 7d0b c53e ee17 b4be d982 a73e 78f8 6c3e
00000040: 37cb 123d da21 8bbe 9a31 41be 4c59 18be
00000050: b95b 3fbe 85fc b5be f960 bd3d 6c08 d63d
00000060: c390 403e 9d22 2ebd cf9b 4ebe 6014 693e
00000070: bab2 9f3e 713c 64be 5986 663e 7d86 2c3d
00000080: 3e90 453e 9775 1dbd fcef 393e 278c c1be
00000090: 72c0 4e3e 9d97 d03c d3ec 0fbe b168 c5bd
000000a0: 64d2 36be a30b 063e bd99 b4bd f3e0 a9bd
000000b0: 6dd0 8e3d 3e6a 3fbd 672c 6dbb 8381 923d
000000c0: ed0b adbe cd95 0dbf 9ee2 71be f496 d43c
000000d0: ac98 88be 70c0 61be b1df edbc 3f45 05bd
000000e0: 3a1a 353e c46a f13d d0a5 113e 33d9 a9be
000000f0: a2e4 843e d4da 63be eda4 81bd 7e8b 963e
00000100: 2570 283d 2afc 6f3c d69d 503e 82ec 683e
00000110: 159a a0be b9f0 353e ab5e 243d d7eb 5c3e
00000120: a127 43be e198 88be 610d b43e e0ec ebbd
00000130: d4d4 633b f0d8 7bbe 654d 9ebd e0a5 953c
00000140: 24c4 7cbe d315 193e 7adf 31be 197c a93d
00000150: 53dd 723e 2504 b63d d2af 723d 3e10 c5be
00000160: 792e a6be 033d ffbd 1ff5 2abd d425 42be
00000170: a9d4 523d e431 943e ccbc 493e 7314 0c3e
00000180: 8937 bcbe 128a 133e 74e3 ad3e 759d 9dbd
00000190: 391d d43d 9637 6b3c e579 1ebe 133d 5ebe
000001a0: 392e bbbd 1f01 7b3d f1af 2e3e 5538 523d
000001b0: 290d f93e a52e f4be a81a 873e 31f4 babe
000001c0: 4d84 2e3e dfd9 5c3d c703 54be 28b0 4bbd
000001d0: d845 ab3b da15 c5bc 491c c13e ea26 dfbe
000001e0: 54e9 5a3e 472a 763e eaf4 ea3d bb43 14be
000001f0: 6afe 97bd 0671 a53e 4997 d8bc dddc 653e
00000200: ed01 c8bd fdc4 563c 4ed2 843d 0e3a 85be
00000210: 54c0 f4bd e009 85be 811c 3c3e e750 bf3e
00000220: 297f e33d 76ea e43d 3f62 aa3d 97c3 0cbe
00000230: 5a3e cf3e 5cab ccbe 0534 1b3d 961d b93d
00000240: de0a a2bd 33a0 9b3e 9e93 26be 8f43 da3e
00000250: 3c39 4fbe 68c7 d2bd f87b ddbe b2c9 9bbe
00000260: c4c2 2b3d 0557 85be cc8c 9a3e 42d5 a63e
00000270: 5be9 113e 9722 fc3d 8119 5e3a 8925 843e
00000280: fd60 cdbe 6e19 8c3d 5d3d f43e 3279 b83e
00000290: da1e babd 89c1 493d 7a3c 883e 314c 7cbd
000002a0: 8cc1 c03d 2cf8 6c3d 9f58 0f3d ce35 383d
000002b0: 1e09 393d 7833 923d a353 f0bd 7364 0b3f
000002c0: 1623 9fbe 9b43 e43d 9f86 a93d ce68 803d
000002d0: 2b56 78bc 4059 fbbc 84a8 dd3d e211 823e
000002e0: f856 aa3e 0184 f9be ed39 003e f3ef b93c
000002f0: ee7f b5bd 8d1c 5ebe b977 5f3e 8a1e 0b3e
00000300: 49e1 cabd e6ae 0b3e 59f9 c9bd c95b e33e
00000310: 01df 50be bdeb a83d 450b b83e 9380 4b3d
00000320: acf4 1abe 158d 843e 5f44 0c3e 858e 08be
00000330: ca4c ab3e a0df 07be eeb5 7c3e a876 a9be
00000340: c095 cbbd 2faa e5bc f809 803e 8585 e73d
00000350: 4721 4bbd 4576 e83d 95b4 8fbe 5df9 9d3e
00000360: 5e66 33bd 678a d1bd 4962 8a3e eeba 3c3c
00000370: a436 7cbe daae febd 91aa 50be 56c8 f33e
00000380: dfee 4fbe 1520 573e 9381 b83d b3a6 13be
00000390: c513 933c da50 94bd e467 153f a692 4f3d
000003a0: 3c85 dc3d a3d9 933d a543 28bc feec 573e
000003b0: df4c 173e 759e a93e 9e70 013d 3923 e23d
000003c0: d788 27bc 718a 7cbd a69e 4abe bdea cb3d
000003d0: 72cc 5abb 80a9 2f3d 888b d6bd a09a efbd
000003e0: 09e4 693d 956e 303e 481c 593d 3b18 153e
000003f0: d591 e0bc 6bf1 b8bd e39d 93bc e853 473e
-0.03292532 0.20601939 -0.19311033 0.10470698 0.13986276 0.18827935 -0.113633424 0.30477387
0.12008583 0.12181003 0.10945654 -0.51101965 0.38485327 -0.35174507 0.32717016 0.23141658
0.035838332 -0.27174264 -0.18866578 -0.14877814 -0.18687333 -0.3554422 0.09247012 0.10450825
0.18805222 -0.04251348 -0.20176624 0.22761679 0.31191045 -0.22288682 0.22512187 0.042120446
0.19293305 -0.03844222 0.18157953 -0.3780224 0.201906 0.02546292 -0.14055185 -0.09639109
-0.17853695 0.13090377 -0.08818386 -0.08294859 0.06973348 -0.04673218 -0.0036189796 0.07153609
-0.3379816 -0.553067 -0.23621604 0.025950886 -0.2667898 -0.22046065 -0.029037328 -0.03253674
0.17685786 0.11787942 0.14223409 -0.33173522 0.25955683 -0.22251445 -0.06330285 0.294033
0.041122574 0.014647523 0.2037271 0.2274647 -0.31367555 0.1776761 0.040129345 0.21574341
-0.19058086 -0.26679137 0.35166457 -0.1151979 0.0034764307 -0.24594474 -0.077296056 0.018267572
-0.24684197 0.14949732 -0.17370406 0.08275623 0.23717241 0.08887509 0.059249707 -0.38488954
-0.3245733 -0.12462809 -0.041737672 -0.18959743 0.05147234 0.28944314 0.19700927 0.13679676
-0.3676112 0.14408138 0.33962595 -0.07696048 0.10357136 0.014356514 -0.15476187 -0.21702985
-0.09139676 0.061280366 0.17059304 0.051323254 0.48642853 -0.47691837 0.26387525 -0.36514428
0.17042656 0.053918716 -0.20704566 -0.049728543 0.005226832 -0.024058271 0.37716892 -0.43584377
0.2137807 0.24039565 0.11472495 -0.14478962 -0.074215725 0.32312793 -0.026439326 0.22447534
-0.09765992 0.013108489 0.06485425 -0.26020855 -0.11950746 -0.25984097 0.18370248 0.3736641
0.11108238 0.111775324 0.0831952 -0.13746487 0.40477258 -0.39974487 0.037891407 0.09038846
-0.07912229 0.3039566 -0.16267249 0.42629668 -0.20236677 -0.1029194 -0.43258643 -0.3042732
0.04193379 -0.26042953 0.30185544 0.32584578 0.14249174 0.12311285 0.00084724283 0.25809887
-0.4011306 0.06840788 0.47703066 0.36029965 -0.09087916 0.049256835 0.2660864 -0.0615961
0.09411916 0.057853863 0.034996625 0.044973187 0.04517471 0.07138723 -0.117347024 0.5445015
-0.31081456 0.11145707 0.0827763 0.0626999 -0.015157263 -0.030682206 0.108231574 0.25404269
0.33269477 -0.48733523 0.12522097 0.022697425 -0.08862291 -0.21690579 0.21823014 0.13585868
-0.09906251 0.13640937 -0.098620124 0.44405964 -0.20397569 0.082480885 0.35946098 0.049683165
-0.15132397 0.25888887 0.13697957 -0.13335617 0.33457023 -0.132689 0.24678776 -0.3309834
-0.09940672 -0.028035251 0.25007606 0.11304764 -0.049592283 0.11350683 -0.2806746 0.30854312
-0.043798797 -0.10231476 0.2702811 0.011519177 -0.24630219 -0.12435694 -0.20377566 0.47613782
-0.20305966 0.21008332 0.09009089 -0.1441906 0.017953763 -0.07241984 0.5836165 0.050676964
0.107676 0.07219245 -0.010270034 0.21086499 0.14775418 0.33128706 0.03160154 0.110418744
-0.010225496 -0.061655466 -0.19787082 0.09956882 -0.003338602 0.042886257 -0.10475832 -0.11699414
0.057102237 0.17229684 0.053005487 0.14560024 -0.027413288 -0.09030422 -0.018019622 0.19465601
