CRL_human_AI_overcooked/human_models/model_many_orders/actor_best_r11.pt (torch, 426319 bytes, 20 tensors)

base.cnn.0.weight f4 [32, 26, 3, 3]
000000 85 cf 57 be ab 77 4c bd 0c 02 23 bc fd 09 c6 be
       -0.21075256 -0.04991881 -0.0099492185 -0.38679495
000010 b7 04 fb 3d 83 83 b9 3d d6 47 a5 3d ca a0 92 3d
       0.12256759 0.09058287 0.08070342 0.07159574
000020 03 84 2b 3e 4a 51 67 3d 4b 34 35 3e d3 df d4 bd
       0.16749577 0.056474008 0.1769573 -0.103942536
000030 6d da 31 3e f2 ff 72 be 4f 02 80 bd b7 8c 85 3e
       0.17368479 -0.23730448 -0.0625044 0.2608392
000040 39 64 61 be 0c 38 11 bd f3 d3 77 bd fd 99 75 be
       -0.22010888 -0.03545384 -0.060504865 -0.23984523
000050 1c ed 17 bd 12 1f ce bc ab f5 4d be ad 56 68 3d
       -0.03709136 -0.0251613 -0.20113246 0.056723285
000060 e8 14 88 3e b3 c4 77 3e 8b 78 a6 3d 6a c9 b6 bd
       0.2657845 0.24196129 0.081284605 -0.089251354
000070 dd a1 5d be 47 e7 28 be 51 f1 86 bd df b6 e3 3d
       -0.21643777 -0.16494475 -0.06588996 0.11118864
000080 11 f6 99 3d f1 40 28 be 8c 07 29 bd c1 4e b2 bd
       0.075176366 -0.16431023 -0.041266963 -0.08706427
000090 46 31 8a 3d 3e c5 b1 3d f2 58 a4 3c c2 8b 27 be
       0.067476794 0.08680199 0.020061944 -0.16361907
0000a0 3e ea 41 3e 3c 97 41 3d ca c1 35 be 06 fe d7 3d
       0.18937013 0.04726337 -0.17749706 0.10546498
0000b0 f4 d8 1a 3d 93 9f b7 bd 21 3a 2b 3e a5 30 7c bb
       0.03780456 -0.08965983 0.16721393 -0.0038481143
0000c0 2d 52 24 be e6 a0 05 bd 11 ac 5e 3e a0 df cf bd
       -0.16046973 -0.032624148 0.21745326 -0.10150075
0000d0 a3 5a 52 bd 9e 0b 97 3e 5d a0 44 3d 6e 84 0a 3d
       -0.05135597 0.2950105 0.048004497 0.0338177
0000e0 bd 94 23 bd 64 70 bf bd ed c8 9c bc 1a a9 c9 bc
       -0.03993677 -0.09347609 -0.019138778 -0.024616767
0000f0 7f e1 03 bc 0b ea dc bd 85 58 3a be ec 30 85 3c
       -0.008049368 -0.10786828 -0.1819783 0.01625868
000100 3b 49 90 3d ef c0 bf 3d d1 97 1f 3d e3 82 98 bd
       0.070452176 0.09362971 0.038963143 -0.0744684
000110 df f5 03 be 1e f8 88 ba 19 6b bf bc ce 46 06 3e
       -0.12886761 -0.0010449921 -0.023366498 0.13112947
000120 e7 16 2d be 9e 78 96 bb ac 44 38 bd fe 80 85 3e
       -0.16903268 -0.0045920154 -0.044987366 0.26074976
000130 78 73 88 bd 1a b4 e9 bd d1 30 52 3e 78 6d f2 3d
       -0.06662649 -0.11411305 0.20526434 0.11837286
000140 1c 88 ea 3c de 72 04 3e 7d d6 59 be 02 27 93 3e
       0.028629355 0.12934443 -0.21273227 0.28740698
000150 83 32 f6 3d 2e 38 5c bd 37 29 27 3d 0c af 45 bd
       0.12021353 -0.053764515 0.04081079 -0.04826264
000160 64 f2 e2 bd 91 54 a6 bd c4 6b e0 bd 90 b3 66 bd
       -0.110813886 -0.081215985 -0.10958055 -0.056323588
000170 e9 14 aa bd 25 3f 09 be cb 28 0c bd bd c4 21 3d
       -0.083047695 -0.13402994 -0.03421859 0.039494265
000180 6b 82 62 bd 96 26 f7 bd 4b 9d f6 3d f7 e9 12 be
       -0.055300158 -0.120679066 0.1204172 -0.14347063
000190 27 dd 92 ba d6 66 8f bd f3 de 1d 3d bb 51 7e be
       -0.0011204825 -0.07002036 0.0385427 -0.24835865
0001a0 7a 01 81 3d c3 49 52 3e 20 14 3f 3e fe 0a ff bd
       0.0629911 0.2053595 0.18660021 -0.124532685
0001b0 26 15 3a 3e 6b 53 96 bd 55 62 39 3e 16 f8 e5 bd
       0.1817213 -0.073401295 0.18103917 -0.11228959
0001c0 a4 b5 ff 3c 44 3a fa bd fa 4f 01 3e cb c0 22 3d
       0.031214543 -0.122181445 0.12628165 0.039734643
0001d0 bd 84 26 be f2 50 ec bd f1 33 62 3d ba 02 b0 3b
       -0.16261573 -0.115388766 0.055225316 0.005371419
0001e0 8d 11 15 be 27 3c 4f 3d 0f a2 86 bd 2b 79 21 3d
       -0.14557476 0.050594475 -0.06573879 0.039422195
0001f0 dc 07 2d 3e bc 16 fe 3d 24 b7 78 3e d9 85 07 3e
       0.1689753 0.1240668 0.24288613 0.13234653
000200 12 80 e7 3d c6 65 21 3e b9 0e bf bd 74 90 47 be
       0.11303724 0.1576148 -0.0932898 -0.19488698
000210 76 47 b8 bd f1 82 cd bd d8 96 2a bd 74 ab 42 bd
       -0.08998005 -0.10034741 -0.041647762 -0.04752679
000220 70 c2 12 3e 44 2c 84 3c 7a c8 02 be 9a 34 98 3d
       0.14331985 0.016134389 -0.12771788 0.07431908
000230 2a c3 10 3c ee b0 90 3d 4d 4f b7 3d 9e 76 a8 bd
       0.008835593 0.07064997 0.08950672 -0.082257494
000240 4f b9 f0 3d ab 73 2f 3d 39 e4 2b be f1 13 b6 bc
       0.11754095 0.04283492 -0.16786279 -0.022226306
000250 64 f6 56 3d 58 d2 e6 bd fe 60 19 be 26 ce b0 3d
       0.05248107 -0.11270589 -0.14978406 0.0863307
000260 16 cb ac bd 38 a8 b8 bd 05 8f 53 3e 07 69 aa 3c
       -0.08437173 -0.0901646 0.20660026 0.020802034
000270 a0 5e 71 3e 74 84 58 3e 92 69 78 3d 2a 51 66 be
       0.23571253 0.21144277 0.060647555 -0.22491899
000280 54 e4 21 be 33 a2 2a bd 29 78 d9 bd 20 ea 5c bd
       -0.15809757 -0.04165859 -0.10618622 -0.053934216
000290 16 44 63 3e 21 20 80 bd b0 ff 80 3c db 91 fb bd
       0.22193941 -0.06256128 0.015746921 -0.12283679
0002a0 4c 77 ff bd 67 d5 1d bc e3 75 98 3d 93 82 d7 bc
       -0.12473926 -0.009633399 0.0744436 -0.02630738
0002b0 29 dd a8 bb ed 30 96 bd 36 9a 34 be f5 1e 28 be
       -0.0051533175 -0.073335506 -0.17636952 -0.16418059
0002c0 c1 2a 31 bc c9 22 db bd f7 e6 74 3e e1 91 aa 3d
       -0.010813416 -0.10699994 0.23916231 0.083286054
0002d0 b2 ef fd 3d ab 41 a1 3d 65 3b c2 3d 59 49 84 bd
       0.12399234 0.07873853 0.09483985 -0.064593025
0002e0 ae 03 f3 bc 41 cd 28 3c 00 c8 d4 3d b4 bd af 3c
       -0.02966484 0.010302843 0.103897095 0.021452762
0002f0 e0 77 14 be 66 82 f8 3d e2 c4 bb 3d b0 24 bc bd
       -0.14498854 0.121342465 0.09168412 -0.09186685
000300 96 aa 49 bb c3 51 c0 bd 4e 78 c1 3d 02 3b 43 be
       -0.0030771843 -0.09390595 0.094467744 -0.19065478
000310 a9 4b f3 3c 5e 5e 1e 3d 0d 46 d7 bc 85 a7 44 3c
       0.029699164 0.038664214 -0.02627852 0.01200283
000320 6d 73 2c be e7 3f dc bd 6f f9 21 3e 0c 93 9c 3d
       -0.16840906 -0.10754376 0.15817808 0.076452345
000330 9e 19 b9 be 21 f9 e2 3d c0 91 3a be 35 81 85 3e
       -0.36152357 0.11082674 -0.18219662 0.2607514
000340 16 e5 99 bd 4f 87 a3 3d c9 e3 46 be d8 97 f3 3b
       -0.07514398 0.079847924 -0.1942283 0.0074338727
000350 f8 f6 74 be b9 5a ca bc 15 ec ff bc c5 04 93 be
       -0.23922336 -0.024701463 -0.031240502 -0.28714576
000360 64 dd 14 be 68 16 0c bc e8 f8 47 bd d1 2d 45 3c
       -0.14537579 -0.008550264 -0.04882136 0.012034849
000370 69 d1 a1 bd fb 87 4a 3e 09 95 7f be f1 d8 23 3a
       -0.0790127 0.19778435 -0.24959196 0.00062502833
000380 19 8a b7 3e 9f 86 91 bd e6 e7 d8 bd a5 21 89 3d
       0.35847548 -0.07105755 -0.10591106 0.0669587
000390 e0 c7 8f 3d 33 ca c6 3c 3d 20 22 bd 84 7a 26 3e
       0.07020545 0.024266338 -0.039581526 0.16257674
0003a0 55 d4 3a bd 00 9f c7 3d 56 4b 3a 3d 31 d1 6a 3b
       -0.04561265 0.09747124 0.045482002 0.0035830254
0003b0 ce 4b bf 3e 9d d9 31 3e bc 88 e2 bd 08 51 65 3e
       0.37362522 0.17368169 -0.11061236 0.22394192
0003c0 29 9c 25 be e2 36 86 3e 07 fc da 3d a2 f4 6c 3e
       -0.16172852 0.26213747 0.10692602 0.23140195
0003d0 42 7a fd 3c cc 35 52 3d 31 18 6e 3e e2 56 12 3d
       0.030942086 0.051320836 0.23251416 0.03572739
0003e0 fd 9a 00 3e 5e 14 72 3d f8 6e 6e 3d af af ec 3d
       0.12559123 0.059101455 0.058211297 0.115569465
0003f0 03 01 04 bc 14 5a 30 be f1 cf da ba db 93 89 3d
       -0.008056882 -0.17221862 -0.0016694051 0.06717654

base.cnn.0.bias f4 [32]
000000 3f 71 29 bd e1 2a 91 3c 2a b8 6d bd ff f9 2b be
       -0.041367766 0.017720642 -0.05803696 -0.16794585
000010 97 fd 12 be a7 44 88 bd 20 d7 d9 bd 81 5f b4 bd
       -0.1435455 -0.066537194 -0.10636735 -0.088072784
000020 23 c9 18 bd f5 b0 ab bd aa 99 87 bd 05 0a ec bc
       -0.037301194 -0.08383361 -0.06621106 -0.028813371
000030 41 e3 5c bd 08 62 9e bd 29 88 6e bd 65 63 31 be
       -0.053927664 -0.07733542 -0.05823532 -0.17323072
000040 3d 05 d0 bd 64 71 f6 bc 7d 62 14 bc 9e 75 92 b9
       -0.10157249 -0.030083366 -0.009056685 -0.00027934922
000050 b5 8c 01 bd 6e d0 27 bd ce 0d da bd ad c9 7c bd
       -0.03162833 -0.04097026 -0.10647164 -0.06171577
000060 99 df eb bd a9 8a 0e bd 20 31 27 be ab ac 83 bd
       -0.11517257 -0.034800205 -0.16327333 -0.06429418
000070 ba 74 17 bd e4 c8 05 be 2d 05 9d bd fc 95 8a bd
       -0.036976553 -0.13064915 -0.07667003 -0.067668885

base.cnn.2.weight f4 [64, 32, 3, 3]
000000 70 6b 1d 3c 10 b3 56 3d 5e 79 33 bd 18 0d 7f 3e
       0.009608135 0.05241686 -0.043816917 0.24907339
000010 a9 d2 c0 3d a3 db d2 3d c0 5f 45 be 6b 69 1a be
       0.0941518 0.10295799 -0.19274807 -0.15079276
000020 58 6b 41 bd aa 83 a7 3d 41 06 8b be 22 cc 3b 3e
       -0.04722151 0.0817941 -0.2715321 0.18339589
000030 8c 40 7c bd 70 63 b0 3d 60 08 ae bc 3d f9 ea 3d
       -0.061584994 0.08612716 -0.021244228 0.1147332
000040 64 53 1c be 3e c5 d9 3d 89 f4 ce 3b 4a ab cf bd
       -0.15266186 0.10633324 0.006315772 -0.10140093
000050 b8 a1 0e 3d 27 86 41 be 9c 70 1a 3e 51 28 fb 3c
       0.034822196 -0.18898831 0.1508202 0.030658873
000060 39 27 44 be 03 2c 42 bd 33 bb 12 3c da f8 a8 3d
       -0.19155587 -0.047405254 0.008955765 0.0825059
000070 e2 3a 4d be 23 9b a3 3d cb e0 07 b9 1d 8b 19 3a
       -0.20041993 0.07988574 -0.00012958345 0.00058572163
000080 d0 32 27 be 2b 44 22 be 05 63 df bd c0 63 ca 3d
       -0.16327977 -0.15846317 -0.10907558 0.09882307
000090 3a e2 2a bd 8b 97 2b 3d 26 3d 20 3d fe 5b 18 3d
       -0.041719653 0.04189257 0.039120816 0.037197106
0000a0 5c ec c4 bc 6b c4 06 3e c3 5f 32 bd 08 6b 54 3e
       -0.024038486 0.13160865 -0.043548357 0.20743954
0000b0 07 30 45 be 91 b2 06 bd 40 9e 10 be 4f 8d 6a 3e
       -0.19256602 -0.032885138 -0.14122868 0.22905467
0000c0 5f 63 16 3b 47 9b b5 3d c5 5d a1 3d e2 46 0f be
       0.0022947413 0.088675074 0.07879213 -0.13991883
0000d0 e8 7f 1d 3c af 99 56 3e f3 d4 1f 3d 49 ca 47 3d
       0.009613015 0.20957063 0.039021444 0.0487769
0000e0 11 64 01 be cc 7c e8 3a a6 ed 36 3d 3d c6 5e 3d
       -0.12635829 0.0017737388 0.044660233 0.054388274
0000f0 6c 52 97 bc d0 b7 54 bd f6 3d 2f bc 68 65 87 3d
       -0.018471919 -0.05193311 -0.010695925 0.066111386
000100 fc ad bd 3d 45 21 93 bd c7 86 85 bd 75 89 33 be
       0.092617005 -0.0718408 -0.06519847 -0.17532904
000110 2f a8 bd bd 4b c1 06 3c 35 5a 09 3e b3 5b 0e be
       -0.09260594 0.008224796 0.13413318 -0.13902168
000120 e4 a8 90 3d 0a 94 b9 3d c8 6c cb 3c 91 15 65 bd
       0.07063463 0.09061439 0.024832144 -0.05592877
000130 48 fa f2 3d 00 de 54 3e db d7 85 3d 83 ef 04 3d
       0.118641436 0.20787811 0.06535312 0.03245498
000140 00 fb 02 be 6d 01 8f 3b be a0 68 be 32 8c e6 bd
       -0.12791061 0.0043641836 -0.22717568 -0.11257209
000150 a6 64 2d bc 61 a1 b8 3a c4 1a 19 3e 7b 73 fb bd
       -0.0105830785 0.0014086181 0.14951617 -0.122778855
000160 2f c5 cd bd 80 0f 5f 3d 89 56 05 be 38 74 13 be
       -0.100473754 0.05445814 -0.13021292 -0.14399803
000170 76 dc 72 be 48 e5 5e 3d 63 7d e1 bd a0 e4 69 be
       -0.23716912 0.05441788 -0.11010244 -0.2284112
000180 9e 9a 79 be 42 98 7b bb a4 02 49 be aa 0c 6a 3e
       -0.24375388 -0.0038390313 -0.19629914 0.22856393
000190 96 09 f8 bd 05 18 2e 3e 01 15 87 3b 8c af 9a 3c
       -0.12111203 0.1700135 0.004122377 0.018882535
0001a0 0e 1d 8d be 2e 92 80 bc 76 6a 46 3a ae 8d 40 3d
       -0.2756123 -0.015694704 0.00075689645 0.047010116
0001b0 c2 61 66 bd 90 8c 0d be f1 50 32 bd ff 5b a4 bc
       -0.056245573 -0.13823152 -0.043534223 -0.020063398
0001c0 f1 46 1c be d8 49 b0 3c 49 1a 18 3e a1 0c b0 3c
       -0.15261437 0.021519586 0.14853777 0.021490397
0001d0 73 bb 3e 3d 6a dc 7e bd e9 fb 98 3d bd b5 29 be
       0.046565484 -0.062221922 0.07469923 -0.16573234
0001e0 17 d0 ef 3c 74 d3 ef 3d f6 8c 02 be a0 9f 82 bd
       0.02927403 0.11710253 -0.12749085 -0.06378102
0001f0 b1 b5 0b 3e f2 b9 cc 3b d1 5e 02 be 97 4a b7 bd
       0.13643529 0.0062477523 -0.12731482 -0.08949774
000200 91 d8 7d be 41 aa 4d 3d 82 4a 00 be 1c 2b b0 ba
       -0.24789645 0.050211195 -0.12528422 -0.0013440582
000210 7e 7b ba 3e 30 86 00 3e 44 26 21 3e bf ba 19 3d
       0.36422342 0.12551188 0.15737253 0.03753161
000220 4f f9 02 3e 50 a0 9a 3d 99 d4 79 bd b0 69 34 be
       0.12790416 0.075501084 -0.060993765 -0.17618442
000230 3d 87 41 3e cb f4 25 be d8 27 8f 3d 0b 6e 92 3d
       0.18899246 -0.16206662 0.069900215 0.07149895
000240 b7 0c 10 be 47 09 86 3d 61 4f c0 3d a0 b0 ba bd
       -0.1406735 0.06544738 0.0939014 -0.0911572
000250 66 e1 88 3e 41 f5 3a be 99 48 bf 3c 8c 99 a7 bd
       0.26734465 -0.1825762 0.023350047 -0.081835836
000260 f4 72 1e 3d cb eb a1 bc de eb 40 3d 31 cb f1 bd
       0.038683847 -0.019765755 0.04709994 -0.11806334
000270 e1 0a e4 3d cc 20 df bd 99 d5 ff bd ad d1 e8 bd
       0.111348875 -0.108949274 -0.124919124 -0.113681175
000280 af f7 e7 3d df 74 09 be bc d2 95 bd 67 fb 0a be
       0.11326539 -0.13423489 -0.07315585 -0.13572465
000290 4c 48 72 3e de 5f 8f 3b fe 88 6e bd 5c 2d 12 be
       0.23660392 0.004375442 -0.058236115 -0.14275116
0002a0 08 93 a2 bd e6 4b 39 be 83 e8 23 bd be 2e 34 3e
       -0.079382 -0.18095359 -0.040016662 0.17595956
0002b0 11 bf 27 bb 50 bd 1c bd 35 9d 02 ba 6d 31 6e 3c
       -0.0025596062 -0.03826648 -0.0004982532 0.014538151
0002c0 f1 11 30 3e b8 06 d6 bd 0c 56 88 3d 27 45 c8 3c
       0.17194344 -0.104505 0.06657037 0.024447037
0002d0 73 00 36 3c 0c bd f6 3c 06 f9 3b be ad 54 3b 3d
       0.011108506 0.030119441 -0.18356714 0.04573505
0002e0 b0 4a 5b bb b6 48 1e bd a1 8a a2 be 3c e8 59 be
       -0.0033461265 -0.03864356 -0.3174639 -0.21279997
0002f0 40 a2 01 bc 1e 99 59 3d e1 b2 92 3c 49 3e 1c 3a
       -0.007912219 0.05312454 0.017907562 0.0005960209
000300 3c c0 3d 3d e5 55 ff bc 12 92 66 3d 6b dd 02 3e
       0.046325907 -0.031168887 0.056291647 0.12779777
000310 a5 7b c2 bd 8e d0 85 3d 63 05 7d 3c e4 b1 aa 3d
       -0.094962396 0.06533919 0.015443179 0.08334711
000320 46 64 7f 3e e6 ae 31 3d e4 8c a6 bc 15 2c 0b 3e
       0.24940595 0.043379687 -0.020330854 0.13591035
000330 3b b1 04 be de 54 8f bd 6f e2 a1 3d 75 a2 2c 3e
       -0.12958233 -0.06998609 0.07904517 0.16858847
000340 a4 dd a1 3d dc 9c 60 bd db 48 4a bd b1 d4 f2 bd
       0.07903603 -0.054837093 -0.049385887 -0.11856974
000350 5c 09 a6 bc bd a0 85 bd 59 ca 19 3e cb 45 5a bd
       -0.020268135 -0.06524799 0.15018596 -0.053289216
000360 61 81 49 3e 93 42 8b be fd b9 73 3e 8b 2b 61 bb
       0.1967826 -0.2719923 0.23801418 -0.003435823
000370 24 a9 cf 3c 80 2c ff bd f9 ae a4 3e d9 fd 14 3d
       0.025349207 -0.124596596 0.32164744 0.0363749
000380 08 89 c5 bd 76 0e 8b be 14 dd 2d 3c d1 be df bd
       -0.09645277 -0.2715947 0.010611791 -0.10925067
000390 4e e3 63 bd aa 55 5d be 94 67 46 bd 72 86 bf bd
       -0.055636697 -0.2161471 -0.048438624 -0.09351815
0003a0 af b0 1a 3c 5e f1 1a 3d ac db 18 be a7 7a fa 3c
       0.009441539 0.037827842 -0.14927548 0.030576063
0003b0 72 4e 32 bd 8d 11 74 3c 6d 4a 76 be a0 00 57 3d
       -0.043531843 0.014896763 -0.24051829 0.05249083
0003c0 e5 3a bd 3d 25 fe 03 3e f2 8e f8 bd f0 5d 1e be
       0.09239749 0.12889917 -0.1213664 -0.15465522
0003d0 a8 2f 96 bb 90 f6 89 3d 48 55 b2 3d 25 2f 21 bd
       -0.004583318 0.06736481 0.08707672 -0.0393516
0003e0 80 92 c2 bd 2f c4 1f 3c a1 9a 20 bd ee 9c a4 bd
       -0.09500599 0.009751364 -0.039209966 -0.080377445
0003f0 34 4e 08 be 75 21 0d bd 7c ba 87 be 53 ab a0 bd
       -0.13311082 -0.034455735 -0.26509464 -0.078451775

base.cnn.2.bias f4 [64]
000000 2e 28 37 bd e6 1f 4e bd bd 38 f8 bc fc d7 0a be
       -0.044716053 -0.05032339 -0.030300492 -0.13558954
000010 ff 05 de bd ee cc 9a bd 34 05 4f 3c 6b b1 d3 bd
       -0.108409874 -0.075586185 0.012635518 -0.10336574
000020 66 29 a4 bd 3e b8 c9 bd 94 af 4b 3c 8e f2 aa bc
       -0.080157086 -0.098495945 0.012431998 -0.020867612
000030 87 6e 39 bd 49 c7 0c bd 9c bc 8f bc c8 9b 82 bd
       -0.045271423 -0.03436974 -0.01754599 -0.06377369
000040 bd 71 c6 bc 90 be 9e bc f4 6d 56 bd 38 d2 82 bd
       -0.024224157 -0.019377977 -0.052350953 -0.06387752
000050 44 68 ee ba 23 24 df bc 61 9d d8 bc 1a 6b bc bd
       -0.0018189033 -0.027238911 -0.026442232 -0.092001155
000060 b8 47 a0 bd a9 29 2a 3c 73 d5 aa 3b d0 ad 95 3b
       -0.07826179 0.010385909 0.0052134334 0.004567839
000070 5f 91 af 3c a7 11 c2 bc e4 0f 6e bd fa 78 95 bd
       0.021431623 -0.023690058 -0.058120623 -0.07298465
000080 d6 57 ca bc d8 3b 85 bd 59 ac a4 39 97 4d 00 bd
       -0.024700087 -0.06505555 0.00031408927 -0.031323995
000090 1e 0e e2 bd 4c 53 06 bd 50 81 c5 bc 37 57 4e bd
       -0.11037849 -0.03279428 -0.024109513 -0.050376143
0000a0 78 32 4d bd 18 66 18 bc 0f 28 3c bd cf f2 bc bb
       -0.05009696 -0.009301685 -0.04593664 -0.0057662497
0000b0 cf 3a 51 bd aa df 12 bd 75 a2 0c bd 71 0d 0a be
       -0.051081475 -0.035857834 -0.03433462 -0.1348169
0000c0 3b 57 b6 bd 94 fb a2 bb 68 05 11 bd 38 b1 15 3d
       -0.08903357 -0.004973838 -0.035405546 0.036545962
0000d0 ae d7 88 bd 88 70 14 bd 6a 86 ba bc 0c 5a 6c bd
       -0.06681763 -0.03624013 -0.022769172 -0.057703063
0000e0 2e 9e c3 bc b2 e8 1a bd 64 c0 9d bd 8c a4 d9 3b
       -0.023879137 -0.03781957 -0.07702711 0.00664193
0000f0 e6 a6 22 bc ec 99 1a bd b3 d3 42 bd f3 33 f0 bb
       -0.009927487 -0.037744448 -0.047565173 -0.0073304116

base.cnn.4.weight f4 [32, 64, 3, 3]
000000 b2 12 46 bd e1 7e 75 bd 57 0b 19 3d 85 92 8b bd
       -0.048357673 -0.059935454 0.03736433 -0.06815056
000010 f6 48 14 bd 89 3b 60 be cd 1b 43 bd a2 fb ca 3c
       -0.036202393 -0.21897711 -0.047633935 0.024778191
000020 bf 1b 15 be 0b 9b 26 3e 42 f5 05 be f5 47 aa 3d
       -0.14561366 0.16270082 -0.1308184 0.08314506
000030 49 0e 58 bc ad 76 7b bc bc b2 08 3e 79 3c c5 bb
       -0.013187 -0.015348119 0.13349432 -0.006019172
000040 50 b0 b8 3b 16 3e a0 3d 03 e4 a5 3d ed da 68 bc
       0.0056362525 0.07824342 0.081001304 -0.014212352
000050 d3 4d e6 bd 03 8e 4c 3d ae ef 72 bd df 70 fd 3b
       -0.112453125 0.04994012 -0.059310608 0.0077344025
000060 b0 3b 99 3d 07 4f 74 be 5d 4b 33 bd 28 c7 71 bd
       0.074820876 -0.23858272 -0.043773044 -0.05902782
000070 84 9b 76 bc 45 2b e5 bd b2 12 a9 ba 89 7b d2 bc
       -0.015051726 -0.11189894 -0.0012899248 -0.025693672
000080 82 f5 2f 3d 54 c5 bc bd 6f 7e e1 bd 44 8b 88 3d
       0.042958744 -0.09217325 -0.110104434 0.06667188
000090 9e 2b 56 be fc ed 73 bd 17 b0 8b bd 45 76 b7 3d
       -0.20915076 -0.05955313 -0.06820696 0.08958105
0000a0 98 5f 14 3b 6e a7 b3 bd 3a 55 e6 3d e9 9d 2d be
       0.0022639986 -0.08772169 0.112467244 -0.16954769
0000b0 ee 3d e9 bc 12 81 02 be a9 d5 06 3d b3 75 7e 3b
       -0.028471913 -0.12744549 0.032918606 0.0038827478
0000c0 b9 35 03 be c0 36 62 bd 26 6e 8d bd 5c 1b 21 3d
       -0.12813462 -0.055227995 -0.06905775 0.039332733
0000d0 30 93 bc bd 1b 82 8c 3d 8d ee 05 3d fc c0 96 bc
       -0.09207761 0.06860753 0.032698203 -0.018402569
0000e0 3b aa ca 3d 56 ca 92 bd a6 92 9c bd b5 a9 9c bd
       0.0989575 -0.07167499 -0.076451585 -0.076495565
0000f0 19 a9 8a bb ae 60 17 3e c5 36 51 3e 6e 4c 6a 3d
       -0.004231584 0.14782974 0.20431049 0.057201795
000100 e4 2e f5 ba e5 f4 aa 3c c0 61 75 3d 8e 0b 83 bc
       -0.0018705991 0.020868728 0.059907675 -0.01599672
000110 49 4f 27 3d 19 ed a1 3d 78 a3 c2 bc 5b 02 db 3d
       0.040847097 0.07906551 -0.023759589 0.10693809
000120 1c 23 d5 bd d7 91 93 bb 9f da c3 bc 62 5b 38 3e
       -0.10407087 -0.0045034694 -0.023907958 0.1800361
000130 4f 6b 43 be 62 b9 89 3e e0 81 55 bd 5b ed a3 3d
       -0.19083904 0.26899248 -0.05212581 0.08004256
000140 65 e3 8f bd 72 74 11 3e 7f 7d 2f be ae a0 c4 bd
       -0.07025794 0.14204577 -0.17137717 -0.0960096
000150 c8 4f bb 3d 0b f2 82 bd d4 22 79 be 1c fb 18 3e
       0.091460764 -0.06393822 -0.24329692 0.1493954
000160 dc 4c 38 bc ed 18 4d bc 01 50 43 bd 39 40 a8 bc
       -0.011248793 -0.01251815 -0.04768372 -0.020538436
000170 b2 01 c8 bd e9 80 c6 3d 74 ec 52 be f6 47 ac bd
       -0.09765948 0.096925564 -0.20598012 -0.08412163
000180 13 c8 fa 3c 02 92 b9 3c 3e 0e e4 bd 5f 2c 5a bc
       0.030612981 0.02265263 -0.11135529 -0.013316243
000190 56 42 29 3d f0 83 b7 3d 69 e7 d8 bd 89 97 4c be
       0.04132303 0.08960712 -0.10591013 -0.19979681
0001a0 5f 93 5c bb 2b ab 92 3d 6b 74 5c 3d bf c3 07 bd
       -0.0033657176 0.07161554 0.053821962 -0.033145662
0001b0 d7 82 f0 3c 9a c9 51 bd d5 53 4a bd 66 1c 06 bd
       0.029359264 -0.051217653 -0.049396355 -0.032741927
0001c0 29 c8 3f ba 2a 5c 61 be f0 cf 37 be d2 eb 3d 3d
       -0.0007315898 -0.22007814 -0.17950416 0.046367474
0001d0 ab 57 95 3d 11 92 d2 bd 8d 26 e1 3a 08 45 c2 bd
       0.07292112 -0.10281766 0.0017177627 -0.09485823
0001e0 e8 38 23 3e d1 7d d4 3c 1d 87 a8 bc 4d f1 7e 3d
       0.15939677 0.0259389 -0.02057224 0.06224184
0001f0 1e c4 dc bd 55 1b d1 bd 88 38 11 bd 32 e7 e4 bc
       -0.10779594 -0.10210291 -0.035454303 -0.027942274
000200 9f 10 0d 3d c1 83 2f 3e d7 0d 58 3d 9a 62 dd bc
       0.03443968 0.17140104 0.052747574 -0.027024556
000210 67 f7 b6 bd a1 a4 8e bd 8b 70 e0 bc 39 68 19 bb
       -0.08933907 -0.06964994 -0.027397415 -0.0023408069
000220 e3 fe 06 3e f2 23 81 bb 0a cb 90 bd c1 03 89 bd
       0.13183169 -0.0039410526 -0.07069977 -0.06690169
000230 9d 1a bd bb 0f 8c 30 3e 1d b8 09 3e f6 c5 77 3d
       -0.005770995 0.17240928 0.1344914 0.060491525
000240 88 96 4d ba aa 34 38 be 66 2f 94 3c 7b b3 d6 bd
       -0.00078425603 -0.1798884 0.018089008 -0.10483452
000250 9a 72 9f bd be 06 ab 3d ab 5f 52 bd f9 6d f4 bd
       -0.077855304 0.08350895 -0.051360767 -0.11935038
000260 38 53 65 bd fb 14 9f bd df 1d a7 be 05 1e b6 bd
       -0.055987567 -0.077676736 -0.32639977 -0.088924445
000270 2d ce 84 bc 76 01 a2 bd 35 2e f6 3d 1a 70 05 3d
       -0.016211594 -0.07910435 0.12020532 0.03257761
000280 c3 28 d1 bd 1f e1 df bd 9d 3e 1f 3d e1 c6 99 bd
       -0.10212853 -0.1093161 0.038878072 -0.07508636
000290 bd 5a 1c be d4 63 53 3e 5f 54 9c bd e9 cc 9e bd
       -0.15268989 0.2064355 -0.0763328 -0.07753927
0002a0 db 47 2a 3e b0 72 54 3e 4a 67 c5 3d 85 95 bf bd
       0.16628973 0.20746875 0.096388415 -0.093546905
0002b0 7b 88 01 3e 96 35 49 3e 9b e2 cd 3b 5b 72 23 bd
       0.1264972 0.19649348 0.006283117 -0.03990398
0002c0 5f 3a 63 be c9 65 ab be 19 0b c7 bd c7 fb f4 3c
       -0.22190236 -0.33476093 -0.097189136 0.029905213
0002d0 2c f8 95 3d 04 0d b7 bb 81 8a b0 bd 2f b3 c5 bd
       0.07322726 -0.0055862684 -0.086201675 -0.09653317
0002e0 47 1e b3 bd 6b 06 bc bc 42 f4 ec 3c 97 28 2b be
       -0.08746009 -0.02295228 0.028925065 -0.16714703
0002f0 0c 6c 57 bd 18 73 10 3d d9 43 b9 bc 5d 86 13 3e
       -0.052593276 0.035266012 -0.02261536 0.14406724
000300 36 ab fd bc e0 7b 2e 3d ad 1f 3c 3d 0a 76 0b be
       -0.030965429 0.042598605 0.045928646 -0.13619247
000310 5d dc 37 bd 8e 5e a0 bd 32 0e 45 bd e5 f9 27 bd
       -0.04488789 -0.07830535 -0.04810924 -0.041009802
000320 cb f6 18 3d 21 42 a8 bc bf 54 19 3e 95 a3 6b 3d
       0.037344735 -0.020539345 0.14973734 0.05752905
000330 95 e0 81 be 56 80 fe bc 7d d2 4f 3b 93 79 12 be
       -0.25366655 -0.031067055 0.0031711154 -0.1430419
000340 2b b2 73 bd 85 ca e7 bc e7 2c af 3d 50 be 66 be
       -0.059496086 -0.028294811 0.08553486 -0.22533536
000350 fb 72 4e 3d e6 91 2f 3e 19 e0 28 be f1 22 08 bc
       0.050402623 0.171455 -0.16491736 -0.008309112
000360 1d b6 2b 3d d9 ff 98 3e 71 36 4c bd 80 c4 74 3c
       0.041921724 0.29882696 -0.049856607 0.014939427
000370 fb 00 af 3d f2 0d 00 be 42 16 85 3e 8e ce 95 bc
       0.08545109 -0.1250532 0.25993544 -0.01828697
000380 93 c4 f0 3d 6e fd 22 3e 10 dc a9 bd 90 17 e5 bd
       0.117562436 0.15916988 -0.08293927 -0.11186135
000390 33 96 c0 bd 27 38 c4 bb 60 a0 99 3d e2 3b f8 3d
       -0.09403648 -0.005988139 0.07501292 0.12120797
0003a0 dc bd 91 bd ae 69 3e 3d 86 22 33 3e a9 89 e8 3d
       -0.07116291 0.046487503 0.17493638 0.113543816
0003b0 ab b6 82 bb b8 18 46 be f5 da 90 bd 2f 3b e5 3d
       -0.003989061 -0.19345367 -0.07073013 0.11192929
0003c0 e3 d9 6d 3c d5 ad ed bb 0b 61 5f 3d 29 1a 40 3d
       0.01451728 -0.0072533884 0.054535907 0.04689995
0003d0 76 ae 11 bd 46 41 f1 3d 43 1c d0 bd 3b 20 44 3d
       -0.03556677 0.11780028 -0.101616405 0.0478823
0003e0 e1 a6 51 bd 24 83 97 bc 56 e3 e5 3d 5f 82 f9 3c
       -0.05118454 -0.01849515 0.112250015 0.030457674
0003f0 16 4d d8 3c 45 aa 7c 3d 6e 6d 07 be 3d 88 ac 3c
       0.026403945 0.06168582 -0.13225338 0.021061057

base.cnn.4.bias f4 [32]
000000 0b 0e cc bc c4 28 eb bc b2 0a 7b bc d3 3f ac bd
       -0.02490904 -0.028705962 -0.015322374 -0.08410611
000010 b7 d3 54 bd 71 5c 90 bd fc d8 94 bd 85 2c cf bd
       -0.05195972 -0.07048882 -0.07267949 -0.10115913
000020 65 d5 7f bd 5e 61 08 bd f7 5d 0c 3b fd 84 d9 3b
       -0.06245937 -0.03329598 0.0021418312 0.006638168
000030 08 3d 46 bd 07 0d 78 bd b3 b0 a2 bd 41 5a a6 bc
       -0.048398048 -0.0605593 -0.07943859 -0.020306708
000040 f0 6f 9e bd df e2 9b bd 90 4c 83 bd 6e 7b 83 bd
       -0.07736194 -0.076116316 -0.064110875 -0.06420027
000050 38 d8 72 bd 53 43 8b bd 75 c3 98 bd e1 f4 97 bd
       -0.059288234 -0.067999505 -0.074591555 -0.07419754
000060 34 06 af bd bb 60 a1 bd f5 91 ed bc 77 5a d1 bc
       -0.08546105 -0.07879778 -0.029000262 -0.025555832
000070 70 db 2c bc f0 37 d3 bd 2c 1e b8 ba 0e 7f 23 bd
       -0.010550365 -0.103134036 -0.0014047078 -0.03991609

base.cnn.7.weight f4 [64, 800]
000000 5d 45 29 bb 92 b6 86 bc 65 97 21 3e 86 f2 dd bd
       -0.0025828697 -0.016444478 0.15780409 -0.10837273
000010 34 48 52 3d a2 23 03 bd d8 4d 0b bd 6b d2 4a 3d
       0.05133839 -0.032016404 -0.034009784 0.049517076
000020 f9 c4 4e 3a 4b 9f 5f bd b6 a8 79 bd a6 36 45 3c
       0.00078876276 -0.054595273 -0.06095191 0.012036955
000030 73 55 0d 3e e7 53 76 bc d7 68 2b be d8 39 24 bd
       0.13802128 -0.015034652 -0.16739212 -0.040094227
000040 56 be d7 bd 19 97 aa 3d 76 08 86 bd a4 80 b8 3e
       -0.105343506 0.08329601 -0.065445825 0.36035645
000050 6a 94 16 3e a3 00 5c bc c6 a0 1f bd d9 62 dc 3d
       0.14705053 -0.013427886 -0.038971685 0.10761041
000060 2e 5e 16 3d 03 7b 75 bd 3b 6a 3a 3c 18 cc 84 3d
       0.03671091 -0.059931766 0.011377866 0.0648424
000070 1e a0 c4 bd 43 6f 48 3d 7c a1 be bd 87 82 89 be
       -0.096008524 0.048934232 -0.093081445 -0.26857397
000080 d1 73 b3 bd be 42 4d bc df 74 53 3d 7c d6 f5 3c
       -0.087623246 -0.01252812 0.05162513 0.0300095
000090 7a d5 d5 bc a3 64 aa 3d 8d 4d 76 bd 33 a7 85 be
       -0.02610277 0.08319976 -0.060132552 -0.26104125
0000a0 65 38 cd bd 45 9b ff bd 6d 38 83 3e 00 8e 95 3d
       -0.10020522 -0.12480787 0.25628987 0.07302475
0000b0 ca 40 5d bd 0b 2b 8b 3e 2a e1 82 3e a8 a2 0b bd
       -0.054016866 0.27181277 0.25562412 -0.034090668
0000c0 f7 26 fe bc 75 f6 d3 bd 8d bd 8e bd d8 1d 1f bd
       -0.03102444 -0.10349742 -0.06969748 -0.03884682
0000d0 5a 0d 04 be 5d b9 15 bd 0f 66 ef bc f1 0f 6e 3d
       -0.12895718 -0.03655373 -0.02922347 0.05812067
0000e0 34 ee ca bd 5e a2 e3 3d ff 84 a8 bc d9 22 9d bc
       -0.09908715 0.111149535 -0.02057123 -0.019181656
0000f0 0a 2d ec 3c 15 9f 06 3d 8b ac a0 bc 52 38 df 3b
       0.02883007 0.032866556 -0.019613525 0.006812134
000100 9f 0e d9 3d 0a e4 f9 bd 4c 4f bf 3d b0 d0 4e 3d
       0.10598492 -0.12201698 0.093412966 0.05049199
000110 5c aa 86 3c 30 28 23 bc 1e 36 99 bd 0b 2b 1c 3d
       0.016438656 -0.009958312 -0.07481025 0.038126986
000120 6c 49 8c 3d 33 70 84 bc 71 9b c0 3d 89 1b 04 3c
       0.068499416 -0.016166782 0.09404648 0.0080632055
000130 70 bb d8 bc 2f 39 42 3d 81 39 c8 ba a0 24 5d bd
       -0.026456565 0.047417816 -0.0015275927 -0.053990006
000140 1c cf 1e be a7 4d 67 bd ca c9 f0 bc f2 f6 ad bd
       -0.15508693 -0.05647054 -0.029393096 -0.08494367
000150 19 01 1c 3e 60 02 04 be 56 cc 90 bc 08 23 2d bd
       0.15234794 -0.12891531 -0.01767556 -0.042269737
000160 13 89 f4 3d 16 ec d1 bd a9 03 33 3d d0 03 16 bd
       0.11940207 -0.10250108 0.043704662 -0.03662473
000170 bb 57 7a bd 03 b5 ca 3c 70 11 d9 bd 94 2d 4d bd
       -0.061118823 0.024744516 -0.10599029 -0.050092295
000180 46 24 5e be 73 9c 48 3e ec b9 65 3e 00 fe f0 3c
       -0.21693525 0.1959093 0.22434205 0.029417992
000190 ac 04 9d 3d 71 47 ac bd ce 6d 02 bd 03 c3 b6 bc
       0.07666907 -0.08412064 -0.031843 -0.022309786
0001a0 ee 51 9a 3c 63 19 83 ba 28 e1 ef 3d 94 ca 14 3c
       0.018837895 -0.0010002073 0.11712867 0.0090815015
0001b0 ad e6 c4 3c 4b 15 18 3d e4 d7 30 bc b2 bc 07 3b
       0.024035776 0.03712968 -0.01079366 0.0020711836
0001c0 ef 10 91 bd 43 e5 96 3d 07 1e 2b be 50 46 b9 bd
       -0.07083308 0.07367947 -0.16710673 -0.09046614
0001d0 fd f6 cb bb 7f d2 4e 3e 2c 14 0c be e5 d9 8f bc
       -0.0062245117 0.20197485 -0.1367957 -0.017559955
0001e0 4e aa 5b be 73 40 8a be 31 54 81 bd 43 05 8c ba
       -0.21451685 -0.27002296 -0.06314886 -0.001068272
0001f0 ca 29 09 be f2 20 25 bd 5d a4 48 3c 83 e5 06 bc
       -0.13394848 -0.040314622 0.0122462185 -0.008233431
000200 97 a4 8b bc 72 07 3f be 17 7a 16 bd f4 1f a4 bd
       -0.017046256 -0.18655184 -0.036737528 -0.08013907
000210 a4 ae 38 3e 1a 63 36 be 4b 05 29 3e 1e f3 fc bd
       0.1803537 -0.17811242 0.16505925 -0.123510584
000220 d2 cb e7 bd 4a 6a 84 3d aa b4 e7 bb ae 24 b8 3d
       -0.113181725 0.064655855 -0.0070710974 0.08991371
000230 b7 cc 85 3c 30 df 92 bd 4b 75 30 be 65 96 b0 3d
       0.016332967 -0.07171476 -0.17232244 0.086224355
000240 3d dc b0 bd 0a 1e fb bd 50 2a 84 bd ac 2a 52 3e
       -0.08635757 -0.12261589 -0.06453383 0.2052409
000250 e6 9b 46 bd 99 d3 b0 bd 75 4b f5 3d cb e1 0f be
       -0.04848852 -0.08634109 0.11977283 -0.14050977
000260 73 cd f0 3d a0 86 f4 bc 5c 31 1a bd 12 7c 31 be
       0.11757936 -0.02984935 -0.03764473 -0.17332485
000270 5f a1 51 bd 8a 99 21 3e 19 a0 60 3e 6f 36 08 be
       -0.051179286 0.15781227 0.21936072 -0.13302015
000280 0f 20 6a 3d 97 58 17 bd 8f 92 21 3e 2b ae 56 3e
       0.05715948 -0.03694972 0.15778564 0.20964877
000290 8b 06 bd bc a1 92 a7 3d a3 40 93 b9 72 85 96 bb
       -0.023074409 0.08182264 -0.00028086183 -0.0045935446
0002a0 bb a4 ce 3c 0b 3a 08 bd 52 f4 bb bc bc 68 51 3d
       0.025225034 -0.03325848 -0.02294365 0.051125273
0002b0 38 d9 1f bd b3 94 e0 ba 5a 94 71 3d 6e 1e 11 3d
       -0.039025515 -0.001713416 0.05897937 0.03542941
0002c0 f0 0a a4 ba 3a 00 43 3e b9 4b d8 bd ee e8 65 3d
       -0.0012515467 0.19043055 -0.10561318 0.056130342
0002d0 12 37 28 be 61 d1 99 3c 2f 27 a2 3d 15 bc a3 bd
       -0.16427258 0.018776597 0.0791763 -0.07994858
0002e0 30 6b e6 3d f6 e5 bb 3b 65 f8 a4 3d 9b 93 9c 3d
       0.11250913 0.0057342006 0.0805519 0.07645341
0002f0 a1 09 15 3e a4 b5 b0 bc ca ea 1d bd fb 7a d8 bd
       0.14554454 -0.021570988 -0.03855399 -0.10570332
000300 b9 5f b8 bd 3f 72 d9 3d dd 28 81 3d 44 5c da bd
       -0.09002633 0.10617494 0.06306622 -0.106621295
000310 b1 42 0d be 4d fd dd 3d 92 ec 60 3c 1a 99 6b be
       -0.13794972 0.10839329 0.013728278 -0.23007622
000320 cf 34 2b 3e ce ea 90 be 8e 5e c4 bc a2 85 75 be
       0.16719364 -0.28304142 -0.023970868 -0.23976758
000330 81 69 93 bd 38 0a ee bc 3a 5e 94 3b a1 47 b5 3d
       -0.07197858 -0.029057607 0.0045278342 0.08851553
000340 47 e7 3f bc bc a1 88 bd b0 dc 66 be 8c ec d4 bd
       -0.011712856 -0.066714734 -0.22545123 -0.1039668
000350 55 11 f5 3d 04 1e 0e be 40 23 38 3d c8 46 b7 3d
       0.119661964 -0.13878638 0.044955492 0.08949047
000360 0f 5b 44 bc 32 4b ac bd c2 78 bc bd 38 68 f9 bd
       -0.011984601 -0.0841278 -0.0920272 -0.12178081
000370 2a 89 00 bd de c3 52 bc b5 78 e0 3c 4d d1 e9 3d
       -0.03138081 -0.012864081 0.027401308 0.11416874
000380 a1 6c c9 bd ec 56 bd 3d 54 47 8b 3d e8 c7 5a bd
       -0.098351724 0.09245095 0.06800714 -0.0534133
000390 4f 4d 3d bd 94 d3 c7 bc 33 63 79 be 3b c2 23 3d
       -0.046216305 -0.02439288 -0.24354248 0.039980154
0003a0 56 6e c8 bc 4b a6 8d bc 76 35 b3 bc 9b 14 84 3d
       -0.024466675 -0.017291209 -0.021876078 0.06449243
0003b0 f6 40 5e 3c 5a 95 26 3e c4 3e 1a bd c8 24 de bc
       0.013565293 0.1626791 -0.037657514 -0.027117148
0003c0 99 f9 87 bd 8a 16 6f be 6b 5a 16 3d 24 19 d9 bc
       -0.06639404 -0.23348442 0.036707323 -0.026501246
0003d0 b7 a5 80 bd d5 f8 20 3d 16 80 27 bd f4 ce 11 bd
       -0.062816076 0.039299805 -0.040893637 -0.035597757
0003e0 46 a6 33 3d f4 f5 38 be b7 98 39 3c 52 b9 84 bd
       0.043859743 -0.18062574 0.011327914 -0.064806595
0003f0 3f ae 60 be d7 01 57 be 5c 27 c2 bb c7 56 b0 3b
       -0.2194147 -0.20996796 -0.005925102 0.0053814384

base.cnn.7.bias f4 [64]
000000 67 26 a4 bc e7 4f 57 bd 8d 8c c3 bc f8 c1 20 bd
       -0.020037843 -0.052566435 -0.02387073 -0.039247483
000010 b1 dc d5 bd 00 7a 4d bd 58 ed c4 3c b7 64 89 bd
       -0.10442484 -0.050165176 0.024038956 -0.06708663
000020 9e f1 a8 3c 59 a8 6f bd f9 4c 96 bd b4 52 e5 bc
       0.020623025 -0.05851016 -0.073389 -0.027993537
000030 15 72 d4 3c cb f4 56 bd d4 48 e0 bc 60 c1 e5 bd
       0.025933305 -0.052479547 -0.027378477 -0.11218524
000040 af a9 af bd f0 c9 f6 bd b0 83 d3 bd 28 45 7e bd
       -0.085772865 -0.12050235 -0.10327852 -0.06207767
000050 be a8 d4 3c e8 61 14 3c 6a 82 87 bd d9 22 b6 bc
       0.025959369 0.009056546 -0.066166714 -0.022233414
000060 60 ab 50 bc 7b 27 8d bd b3 2f a7 3c 91 78 76 3d
       -0.0127361715 -0.06892296 0.020408487 0.060173575
000070 e6 94 25 bd f7 a6 b3 3c 27 00 52 3b bf 3c 97 bc
       -0.040425204 0.021930201 0.0032043548 -0.018461583
000080 a8 f4 20 bd 88 02 ce bd 65 3a cb bc ce 9d 5d bd
       -0.039295822 -0.100590765 -0.024808118 -0.054105572
000090 d0 6f 12 3d 4c 3b 88 bd 0b 38 72 3b 0a 37 cc bd
       0.035751164 -0.06651935 0.0036959674 -0.09971435
0000a0 8e 9b 50 bb 0f 00 21 bd bc 20 fc 3c 04 d4 06 3b
       -0.0031831 -0.039306697 0.030777328 0.0020573149
0000b0 ba a0 fa 3a b3 5b 30 bd 30 f4 85 bc 3d 54 8c bd
       0.0019121387 -0.0430562 -0.01635179 -0.06852005
0000c0 34 fa bb 3c 1a d0 a2 bc 21 0e 12 bb 1a 2f 2b bd
       0.022946455 -0.019874621 -0.0022286254 -0.041792966
0000d0 e7 a1 4a 3c 6e e7 a9 bd b8 56 7d ba 79 04 81 bd
       0.012367702 -0.08296095 -0.0009664106 -0.06299681
0000e0 a1 4c 34 bd fd 53 c7 bc 88 87 72 bb e8 16 ff bc
       -0.04401839 -0.02433204 -0.0037007052 -0.031138852
0000f0 6e 83 3a bd df 0a 0d bd 30 1c 7e ba 9d 0a af bb
       -0.045535497 -0.034434196 -0.00096935313 -0.0053418414

base.cnn.9.weight f4 [64]
000000 4d 8e 85 3f 49 8e 98 3f 5f 22 74 3f 44 08 80 3f
       1.0434052 1.1918422 0.95364946 1.0002522
000010 2d 8a 82 3f 3d f1 89 3f 38 e3 8b 3f 97 23 83 3f
       1.0198418 1.0776745 1.0928717 1.0245236
000020 7c 34 82 3f aa cd 88 3f 24 df 89 3f 19 ac 72 3f
       1.0172267 1.0687764 1.0771222 0.9479385
000030 dd 65 80 3f a9 f0 87 3f bf de 87 3f dc 70 87 3f
       1.0031086 1.0620319 1.0614852 1.0581317
000040 32 8e 7e 3f c0 a2 6b 3f 64 f1 81 3f 4c 5d 7c 3f
       0.9943572 0.9204521 1.0151792 0.9857986
000050 d5 0c 7e 3f a9 f9 97 3f 19 f1 87 3f 88 1d 8d 3f
       0.9923833 1.1873065 1.0620452 1.1024637
000060 1a 22 86 3f b2 a7 7e 3f e2 03 6d 3f ae 9f 7a 3f
       1.0479157 0.9947463 0.9258405 0.978999
000070 27 a4 81 3f f3 a9 8b 3f 7c 03 63 3f 96 f9 82 3f
       1.012822 1.0911239 0.8867719 1.0232418
000080 c0 cb 83 3f 3c a5 83 3f 3a f8 7e 3f 65 de 8a 3f
       1.0296555 1.02848 0.99597514 1.084912
000090 11 37 70 3f 82 3c 85 3f fc c8 83 3f 13 7a 73 3f
       0.93834025 1.040909 1.029571 0.95108145
0000a0 6c b2 6a 3f d0 10 7f 3f ef d7 71 3f cf 20 5d 3f
       0.916785 0.9963503 0.94470114 0.86378187
0000b0 f0 bb 78 3f 1c 4c 96 3f 01 51 66 3f 3e 2f 92 3f
       0.9716177 1.1741977 0.8996735 1.1420667
0000c0 21 fa 86 3f c7 d4 6d 3f 35 4d 79 3f 36 b7 85 3f
       1.0545083 0.929028 0.97383434 1.0446537
0000d0 1e 2c 73 3f 86 29 6d 3f 73 0f 81 3f e7 2a 8c 3f
       0.9498919 0.92641485 1.008284 1.0950593
0000e0 f4 43 7c 3f 1d ce 82 3f 8b 77 80 3f 15 df 78 3f
       0.9854119 1.0219151 1.0036482 0.97215396
0000f0 55 72 7d 3f fe ca 83 3f e7 7c 6f 3f 56 fc 79 3f
       0.9900258 1.0296323 0.9354996 0.9765066

base.cnn.9.bias f4 [64]
000000 21 d1 6a bc 47 95 6a be 3e 8e ec bc 1f 94 de bc
       -0.014332087 -0.22908507 -0.02887642 -0.027170239
000010 db 80 12 bc db 51 fd bd e4 3d 36 bd 7c e1 3d bd
       -0.008941854 -0.12369128 -0.044492617 -0.046357617
000020 47 1a 70 bd 29 7c 9d bd dd 85 31 be 7c 63 61 bd
       -0.05861881 -0.07689697 -0.17336221 -0.055026516
000030 0c 9f cb bd 48 d3 05 3d ce b2 8c 3d 2d c3 ba bd
       -0.09942445 0.032672197 0.06870042 -0.09119258
000040 bf 7a 98 3c ec 2a c3 3d 68 ee 9d bc 24 30 02 3e
       0.018613217 0.09529671 -0.01927872 0.12713677
000050 60 c0 ef 3d ad da 3a be df 66 83 3d 6d c0 2a bd
       0.117066145 -0.1824748 0.064161055 -0.041687418
000060 2f 39 fb bc 80 e5 23 3d 55 c1 15 3e 5d 42 65 3d
       -0.030666916 0.04001379 0.14624532 0.055971492
000070 9b d3 6f bd d5 54 aa bc 3e 4c 00 3e 14 7d 97 bb
       -0.058551412 -0.020792404 0.12529084 -0.004623065
000080 3a c9 9c bc d1 2e 4d bd 22 a7 f2 bc 58 dc 9d bc
       -0.019138921 -0.050093476 -0.02962071 -0.019270107
000090 1b 2c fa bc 09 47 32 3d 60 da 42 3d 5e d4 7f 3d
       -0.03053861 0.043524776 0.04757154 0.06245839
0000a0 f8 32 8a 3d 6e 2e 94 3d 84 b0 91 3d 68 68 21 3e
       0.06748003 0.07235418 0.07113746 0.15762484
0000b0 69 36 46 3d b8 5e ec bd 09 cd 53 bb 59 e0 2c be
       0.048391733 -0.11541504 -0.0032318255 -0.16882457
0000c0 9a 79 c8 3d 02 7a 4c 3c da 3f 85 bd 94 d8 ae bb
       0.09788819 0.012480261 -0.06506319 -0.0053358767
0000d0 75 82 53 3d d1 f1 1d 3d 92 34 44 3d e5 33 d9 bd
       0.051638085 0.038560692 0.047901697 -0.10605601
0000e0 19 da fa bd 8e 3c c6 bc 3b 9b 3f bd 84 e4 f2 3d
       -0.1224863 -0.024198797 -0.0467789 0.11859992
0000f0 1a 27 4d 3d de de 9b 3d ab cd 31 bc 75 b7 97 3d
       0.05008612 0.07610868 -0.010852258 0.074080385

base.cnn.10.weight f4 [64, 64]
000000 c9 fe c4 3e 51 6d 66 3e 5c b9 66 3e 62 0c d8 be
       0.38475636 0.22502638 0.22531646 -0.42196947
000010 15 c7 4a bd f6 b9 47 3e 89 d7 27 3c 4f 2f 33 bd
       -0.049506266 0.19504532 0.010244259 -0.04374629
000020 ff 45 5a 3e 37 07 d2 bd 3b 0b 2b 3e 66 74 a0 be
       0.21315764 -0.10255282 0.16703503 -0.31338805
000030 f3 b6 1d be f7 cb ab 3d b6 99 f5 3d 65 81 36 3d
       -0.15401821 0.083885126 0.11992209 0.044556994
000040 a0 e2 a8 3d 52 9b 9d 3e e9 01 85 3d 2e 59 d3 be
       0.0824635 0.30782562 0.06494505 -0.41278976
000050 c4 6a 24 3d 1c 6e a3 3e da f1 c0 3d 61 2a c3 3e
       0.040140882 0.31919944 0.094211295 0.3811827
000060 a3 99 9a 3d da b4 ea 3d 87 79 35 3d 17 2c 3f be
       0.07548835 0.11460276 0.04430535 -0.18669163
000070 b4 d6 3b 3e e1 89 95 3e 93 05 16 be c7 5c 97 3c
       0.18343621 0.29206756 -0.14650564 0.018476857
000080 a6 16 36 3e 64 6a 2d be 15 69 16 3c ac 30 72 3e
       0.17782077 -0.16935116 0.009180327 0.2365138
000090 45 99 4c 3e 5b e9 af be 6b be 9f 3e bd 88 c3 3e
       0.19980343 -0.34357724 0.31199965 0.3819026
0000a0 f5 41 5f 3e ae 17 49 be 60 e4 26 3e 6a e6 d4 bc
       0.21802504 -0.1963794 0.16298056 -0.025988776
0000b0 b9 44 71 be 0d 5d 54 be a3 e1 00 be fb 4c b0 bd
       -0.23561372 -0.20738621 -0.12586074 -0.08608433
0000c0 e7 10 2d be a6 f3 5d be eb 92 c9 bd b3 d7 08 3d
       -0.16900979 -0.21674976 -0.098424755 0.03340883
0000d0 63 04 1c be bc 72 80 3d cf 6e a1 be 3c 39 01 3e
       -0.15236048 0.06271884 -0.31529853 0.1261949
0000e0 6a db 21 3d 93 26 ad 3e ad 22 2c be a4 b6 a1 3d
       0.03951589 0.33818492 -0.16810103 0.07896164
0000f0 76 ee 0f 3e a7 a0 a0 3e 7f 2a 8a 3e 85 5f 32 bd
       0.1405581 0.31372568 0.26985547 -0.043548126
000100 cf f7 48 3d 63 88 c5 3d 1e dc b7 3e 9a 7f 09 bd
       0.049064454 0.09645154 0.35910124 -0.033568956
000110 a1 4b 17 3d 2d 94 10 3d 02 25 d5 bc 7c ec 76 bd
       0.03693736 0.03529756 -0.026018623 -0.060284123
000120 b1 d5 88 3c e0 e0 3a 3d 8b 1e 3a 3e d1 ba 36 3c
       0.016703459 0.045624614 0.18175714 0.011152939
000130 ec 7e c0 be b1 50 54 be 92 9b 55 3d 29 e7 52 3e
       -0.37596834 -0.20733906 0.052150317 0.20595993
000140 b0 bd 87 3d e6 2a 3f 3e 50 76 bc 3d c1 a6 ee bd
       0.06627977 0.18668708 0.09202254 -0.116528995
000150 d7 6a 81 bc 85 4f 8f 3e 1c 8d 26 bd 12 07 09 be
       -0.015798016 0.27990356 -0.040661916 -0.13381603
000160 c5 18 1a 3e e0 8f 9a 3d 3d d4 16 be a8 50 80 3d
       0.15048511 0.07546973 -0.147294 0.06265384
000170 1e 9a ad 3c d0 bf 05 3d c3 42 95 be c8 5d 96 3d
       0.021191653 0.03265363 -0.29152498 0.07342106
000180 99 3a e6 bb a9 c5 33 be f1 c1 4f be c4 4f 3c be
       -0.0070260284 -0.1755587 -0.20288827 -0.18389803
000190 3f af 72 be 2f f3 1d bf 2f 49 66 be 59 fe 07 be
       -0.23699664 -0.61699194 -0.22488855 -0.1328062
0001a0 cc 26 33 be 29 81 72 be 7b 6e b6 3d 67 13 85 3e
       -0.17495269 -0.23682083 0.08907791 0.25991365
0001b0 6c e6 d3 3e 19 c8 81 3e 66 92 4c be 92 78 6b 3e
       0.41386735 0.25347975 -0.19977722 0.22995213
0001c0 2a c0 62 3e ab 44 c0 3e b7 0d b0 bd e2 5d b1 3e
       0.22143617 0.3755239 -0.08596366 0.3464194
0001d0 12 19 e0 bd 79 d8 95 be eb d4 5f 3d ae 74 71 3d
       -0.10942282 -0.29266718 0.054646414 0.058949165
0001e0 27 1b b1 3e 0b 3b 1d be 18 a9 e8 3d df f4 a6 bd
       0.34591028 -0.15354554 0.11360377 -0.08152174
0001f0 0b 98 33 3e 2a 68 0f be 59 21 4e be fc 22 0a 3e
       0.17538469 -0.14004579 -0.20129909 0.13489908
000200 88 64 c8 3e d7 8e 91 3e b9 d5 1e bd e1 20 99 3e
       0.391392 0.2842929 -0.03877804 0.29907897
000210 d9 95 24 3e fe a4 22 3e d1 70 32 3e 11 21 0d 3e
       0.16072787 0.15883252 0.17425849 0.13782145
000220 9b 90 94 3d 34 41 1b be a1 51 bf be be 73 2c 3d
       0.07254144 -0.15161592 -0.37366965 0.042102568
000230 88 6c 23 be 19 d7 50 3e 53 b6 46 bc 87 d8 a8 3c
       -0.1595937 0.20394553 -0.01212843 0.02061106
000240 81 60 53 3e 7a 3a 99 3e 3f dd f4 3d c3 95 3a 3e
       0.20642282 0.29927427 0.11956262 0.18221192
000250 3c da 29 be 8d ec 39 be 77 90 c1 3e da 8c fe bd
       -0.16587156 -0.18156643 0.3780553 -0.12429209
000260 11 8e 94 bd 0b b6 6b be b2 53 29 3d 83 52 22 bf
       -0.072536595 -0.23018663 0.041339584 -0.6340715
000270 da 46 c3 3e e3 49 91 3e 3a 6f 42 3e ef e9 5e 3e
       0.38139993 0.28376684 0.18987742 0.21768926
000280 68 91 07 bd 38 c9 55 3e 8d b5 a3 3c 03 1a 2f 3e
       -0.033097655 0.2087754 0.019984031 0.17099766
000290 8a 23 e2 3d 99 59 40 3d 40 58 94 3e 32 b4 af bd
       0.11041935 0.046960447 0.2897358 -0.085792914
0002a0 0b 95 6e 3d 6e 95 b7 bd a9 f3 03 be db f7 60 bd
       0.058247607 -0.08964048 -0.12885918 -0.054923873
0002b0 7e 0a f9 3d c5 36 8b 3e 78 e7 78 bd 85 25 93 3d
       0.12160204 0.27190223 -0.06076762 0.07184891
0002c0 b1 40 61 3e 1b 28 ab 3e b6 6e a3 be d9 51 ad 3d
       0.21997334 0.33429036 -0.31920403 0.08462877
0002d0 fd 47 fb bd 49 27 8d 3d 4f 87 44 bd 66 98 19 3e
       -0.1226959 0.06892259 -0.047980603 0.14999542
0002e0 0f 9f bd 3d 4f 06 3e be 5c 0f 64 3e 8a e4 2e be
       0.09258854 -0.18557094 0.22271484 -0.17079368
0002f0 3e b4 d3 bd 58 29 a6 3d b1 94 59 be ad ab 41 bd
       -0.10337113 0.081133544 -0.21248128 -0.047282863
000300 02 47 0c be 77 ee 43 3e 4f de 9b be 90 7d 11 3d
       -0.13698962 0.19133936 -0.30443045 0.035520136
000310 02 04 6a 3e b7 fe 06 bc a4 fe 07 be 56 03 19 bd
       0.22853091 -0.00823944 -0.13280731 -0.037356697
000320 1e c5 0e 3e 84 91 5d 3d 6c 3d 76 3e 25 9d ad bd
       0.13942382 0.054093853 0.24046868 -0.084772386
000330 3f a1 0f bd 6a f2 9c 3e a0 08 6b 3e 2c 3f 6a bd
       -0.035065886 0.30653697 0.22952509 -0.05718915
000340 98 54 1d be ff 51 92 3e c0 26 85 bc 4b 16 34 be
       -0.15364301 0.28578183 -0.016253829 -0.17586629
000350 3a 8d 46 3e 34 52 6d 3d a0 26 a1 bd 2a 6d 6a 3e
       0.19389811 0.057939723 -0.07868695 0.22893205
000360 e4 ad 7d 3e 97 9e 76 bd 36 a4 50 3e 0a 12 93 bc
       0.24773365 -0.060209837 0.20375142 -0.017952938
000370 85 e3 0b 3d e5 c6 1d be dc 0f d9 bc 9f d6 90 3e
       0.034152526 -0.15407903 -0.02649682 0.28288743
000380 f2 af bd 3c 6e 25 59 be bf d7 43 3c 69 cd 9b be
       0.023155186 -0.21205685 0.011953293 -0.30430153
000390 ba fa 23 3e f7 56 bf bd 78 e6 b0 3e a1 ae ed 3d
       0.16013613 -0.09342759 0.34550834 0.116055734
0003a0 c7 d1 be 3d 57 4c b1 3e 1e a1 2b 3e 3a 34 a9 3e
       0.093173556 0.34628555 0.1676068 0.33047658
0003b0 52 1e 9a bd 97 0f 8a 3d e6 b4 b8 3d a2 b5 a0 3e
       -0.075253144 0.06741255 0.09018879 0.31388575
0003c0 1d f3 f7 be ca ba 17 3e 01 cf 96 be 4e 12 e2 3d
       -0.48427668 0.14817348 -0.29454806 0.110386476
0003d0 f9 cd 04 bf 78 2d 4d 3d 96 b2 b9 bd b8 e2 08 3f
       -0.5187679 0.05009219 -0.09067266 0.53470945
0003e0 98 49 83 3e 65 41 19 bd b0 5c 69 be 67 0f 30 3e
       0.25642085 -0.03741588 -0.22789264 0.17193376
0003f0 54 ea 90 be 6b 72 49 be 04 c7 3f 3d 13 47 e9 bb
       -0.28303778 -0.19672553 0.046820655 -0.0071190684

base.cnn.10.bias f4 [64]
000000 30 f3 96 bd 3a 92 72 bd 51 ad b9 bc 13 99 d1 bd
       -0.07370603 -0.059221484 -0.022665652 -0.10234275
000010 24 e2 bf bd c2 96 70 bd ce 9c c7 bd 71 26 ad bc
       -0.09369305 -0.058737524 -0.09746705 -0.021136494
000020 43 46 bc bd 2a 37 a1 bd 5c 4f 49 bb 70 48 cc 3c
       -0.09193089 -0.0787185 -0.0030717468 0.024936885
000030 2f 91 a1 bd 60 d4 e4 bd d8 31 03 be b6 88 ac bd
       -0.0788902 -0.1117332 -0.12811983 -0.08424513
000040 4c ef c9 bd 2f a2 d4 bd 3a 84 77 bd e0 9e 31 bc
       -0.098600954 -0.103824966 -0.060428835 -0.010841101
000050 89 db 90 bc 6a a6 c6 bd 47 21 26 3c 9f e2 83 bd
       -0.017682808 -0.0969971 0.01013977 -0.06439709
000060 0c ef f1 bd dc b6 8b bd d8 19 2b be d8 d2 4e bc
       -0.11813173 -0.06821987 -0.16709077 -0.012623511
000070 c2 71 2e be 83 5a bf 3b f5 b0 2c bd c2 85 fa bd
       -0.17035583 0.0058396473 -0.042160947 -0.122325435
000080 f8 f2 07 be 24 a7 25 be fd d4 5d 3c 9f c4 1c bd
       -0.13276279 -0.1617704 0.01353955 -0.03827345
000090 eb 40 0a bd d0 6f 01 3b 49 8c 44 be e4 3b 95 bc
       -0.033753317 0.0019750483 -0.1919414 -0.018217035
0000a0 eb ca b7 bd 38 df 9a bd 2c 7a 7b 3c 3a 97 f7 bd
       -0.089742504 -0.07562107 0.015348952 -0.12089391
0000b0 20 8f eb bd 56 eb d4 bd 7c 1f d7 bd 0f 43 91 3d
       -0.11501908 -0.10396449 -0.10504052 0.070928685
0000c0 2d de ca bd 93 f7 69 bd b0 08 05 be fc bf 6c bd
       -0.09905658 -0.05712087 -0.12991595 -0.057800278
0000d0 70 2d 9e bc b6 39 01 be 83 4c a6 bd 08 3e c6 3b
       -0.019308776 -0.12619671 -0.08120062 0.006049875
0000e0 fd 52 f9 3b 4e e9 61 bc 3b 15 d4 bd ce 73 36 be
       0.00760877 -0.013788534 -0.10355612 -0.17817613
0000f0 09 f6 d6 bd 27 43 00 bd d9 b6 34 bd 1d 0e bf 3c
       -0.10496146 -0.03131404 -0.04411969 0.02332216

base.cnn.12.weight f4 [64]
000000 04 37 74 3f c9 f4 6d 3f c7 3f 8a 3f bb 9c 6f 3f
       0.9539645 0.9295164 1.0800713 0.93598527
000010 b7 c8 6d 3f 94 41 86 3f 3f bb 91 3f f6 1d 96 3f
       0.9288439 1.0488763 1.1385268 1.1727893
000020 64 0a 56 3f 0d 19 81 3f 73 fb 6f 3f 38 8c 6a 3f
       0.83609605 1.008577 0.93743056 0.91620207
000030 3e 64 8b 3f a4 f0 86 3f 74 9d 89 3f 5d c5 79 3f
       1.0889966 1.0542188 1.0751176 0.9756678
000040 2f b9 95 3f e6 e7 88 3f a6 ed 83 3f 56 21 85 3f
       1.1697139 1.069577 1.03069 1.0400798
000050 67 0c 70 3f 82 b1 86 3f 32 46 88 3f d1 d0 72 3f
       0.93768924 1.0522921 1.0646422 0.9484988
000060 32 12 84 3f 9e e0 81 3f e3 ff 4a 3f 93 0b 71 3f
       1.0318053 1.0146673 0.792967 0.94158286
000070 3f 19 6f 3f 85 73 61 3f e8 a9 87 3f 95 55 81 3f
       0.933979 0.88066894 1.0598726 1.0104243
000080 bd 19 82 3f 7d 6e 85 3f 8b 1b 63 3f f6 fc 90 3f
       1.0164105 1.0424343 0.887139 1.1327198
000090 05 c6 96 3f 33 a5 76 3f 5e 84 94 3f cf a1 84 3f
       1.1779181 0.96345824 1.1602895 1.036188
0000a0 10 26 97 3f 22 5e 8e 3f 55 59 8d 3f 8a d1 84 3f
       1.1808491 1.1122477 1.1042887 1.0376446
0000b0 a4 e2 78 3f b2 3c 84 3f 49 ab 84 3f e3 f5 64 3f
       0.97220826 1.0331023 1.0364772 0.89437693
0000c0 c2 da 61 3f 20 b9 90 3f 00 1b 72 3f 4a 1d 86 3f
       0.8822442 1.1306496 0.9457245 1.0477688
0000d0 aa 71 81 3f 9b ff 81 3f 38 33 66 3f 06 b3 7f 3f
       1.0112813 1.015613 0.89921904 0.99882543
0000e0 ba 94 71 3f 69 d9 94 3f 03 24 74 3f b4 c5 77 3f
       0.94367564 1.1628848 0.9536745 0.96786046
0000f0 fe 0a 81 3f 66 f2 87 3f 21 fe 86 3f b5 bd 77 3f
       1.008148 1.0620849 1.0546304 0.96773845

base.cnn.12.bias f4 [64]
000000 8b 60 a2 3d 41 87 1c 3d 58 15 60 3c 68 36 6a 3d
       0.0792857 0.038214926 0.013676964 0.057180792
000010 da c7 d7 3c ad 64 c0 3c cc d3 7d bd d0 e0 ef bd
       0.026340414 0.023485506 -0.061969563 -0.117128015
000020 29 20 67 3d 1c 1a 67 3c 0f 84 e4 3d 45 5e 6f 3d
       0.056427155 0.014105346 0.11158001 0.05843951
000030 0a 36 d6 bd 08 58 8c bd e5 e3 e8 3c d3 0d c9 3d
       -0.10459526 -0.06852728 0.028428981 0.0981709
000040 16 c5 18 3c 44 9f 9c 3c 41 ae 8c 3d fb 15 f5 3d
       0.009324333 0.019118913 0.06869174 0.11967083
000050 82 4f ed 3c 2d 28 b8 bd c4 2f ae 3d 75 ce 2a 3e
       0.028968576 -0.08992038 0.08505204 0.1668032
000060 67 45 bc bd 7c 0f 23 bd dd d1 21 3e bb bf fc 39
       -0.09192925 -0.03980969 0.15802713 0.00048208036
000070 66 ad 41 be dd 3c 45 3e 6b 52 c6 bc 81 97 0d be
       -0.18913803 0.19261499 -0.024209222 -0.13827325
000080 4e 32 da 3c d4 78 41 bd db bb 10 3e b1 e7 b1 bc
       0.026635315 -0.04723437 0.14134161 -0.021716924
000090 bb a7 ae bd 11 3e 24 bd d0 4b 5d be 7d 89 5e 3c
       -0.08528086 -0.040098254 -0.21610951 0.013582584
0000a0 8f 45 e9 bc 30 b8 ba 3d fa 7c 48 3d 06 34 0a bd
       -0.028475551 0.09117162 0.048947312 -0.03374102
0000b0 74 07 91 bc 3e 76 98 3d 74 56 70 bd e8 96 4d 3e
       -0.01770375 0.07444428 -0.058676198 0.20077097
0000c0 2c 09 28 ba 88 c6 16 be 2e c5 e7 3d 03 a3 93 bd
       -0.0006410058 -0.14724171 0.11316906 -0.072088264
0000d0 85 18 73 3c d1 36 3f 3c 56 55 bc bd da aa 88 3c
       0.014837389 0.011670784 -0.09195964 0.01668303
0000e0 91 96 9f bd a8 69 b3 bd 8a a3 e6 bc 4c 72 a2 bd
       -0.0779239 -0.08760387 -0.028154153 -0.07931957
0000f0 b1 5b fa 3c e8 e1 6b 3c ab 0a 38 bd 3d 9d 6c 3c
       0.0305613 0.014397122 -0.04493205 0.014441785
