CRL_human_AI_overcooked/human_models/model_many_orders/actor_best_r12.pt (torch, 426323 bytes, 20 tensors)

base.cnn.0.weight f4 [32, 26, 3, 3]
-0.18384667 -0.26863226 0.1755479 0.121077485 -0.09509546 -0.1747058 -0.08465057 -0.25541687
0.11262854 -0.031241203 -0.01165083 -0.35034683 0.13394803 -0.23060937 0.19686866 0.116373286
0.17450373 0.017757097 -0.07159657 -0.09332565 0.11757438 0.0406966 -0.17124408 -0.037465665
-0.048874974 -0.40621427 -0.38521758 0.23197466 0.050594956 0.114971496 0.0008294873 -0.014095112
0.06475925 -0.21195821 -0.18087246 -0.083831824 -0.12680914 -0.08035246 0.18502672 0.089672856
-0.33534563 0.013276847 0.0026863085 0.039336603 0.22464699 0.10893095 0.02029415 0.19148669
0.029259674 -0.09341785 -0.2402848 -0.038238686 -0.4516272 0.041534215 -0.114487484 0.23976457
-0.15161332 0.108796224 -0.05396848 0.10522537 0.101532966 -0.02148406 0.0089413095 0.095307015
-0.1253139 -0.1438309 0.12673293 -0.0044431323 0.23402625 0.13383774 0.11017395 0.16066347
-0.11056117 -0.05626586 -0.21991499 -0.04542988 -0.03738847 0.18813013 0.27701834 0.059212867
0.07010264 0.13938473 -0.24241358 0.036274686 0.002082536 -0.017792154 -0.0061676805 -0.12672104
-0.22570282 -0.06259837 -0.1341902 0.029087624 0.11768519 -0.075418815 -0.0440502 0.020182494
0.005732533 -0.10614038 0.13146962 0.2512737 -0.122408636 0.1466751 -0.17412926 -0.16054595
-0.12373442 0.09072199 -0.1747952 -0.07576169 -0.030202497 -0.12706032 -0.0013936758 0.08020245
-0.19406733 0.0308669 -0.11259975 -0.015729053 -0.13250312 0.23711418 -0.09679754 0.03062551
-0.13099833 -0.0609302 0.055679172 -0.21376057 0.1264912 -0.14574026 0.099180065 0.014368226
-0.019830605 0.02671692 -0.11238659 -0.084614284 -0.21756959 -0.15583757 0.11369121 -0.1116669
-0.18399285 0.004181838 0.0803963 -0.07873588 0.08788281 0.21765026 -0.09208736 -0.050510578
-0.26196122 0.031516008 -0.16262716 0.037604075 0.126407 0.12083423 -0.17697197 -0.025047652
-0.030621102 -0.13938287 0.06139491 -0.026199516 0.14415757 0.086935855 0.015317849 0.0063987114
-0.021078145 0.09140388 0.021719966 -0.087686375 -0.13831395 0.014169053 0.11294159 0.13812572
0.19630899 -0.05099589 0.027990038 -0.06316946 0.09559957 -0.22474039 -0.0048004515 -0.25778618
0.07750039 -0.016239986 0.118740246 0.15318778 0.10454615 -0.036982432 -0.0038198465 0.053597204
-0.06493484 0.07515347 -0.10457902 0.034631975 0.024817266 -0.13912368 -0.20268783 -0.35675624
0.12176623 -0.11589202 0.02709415 -0.045581724 0.20766495 0.11859527 -0.11709078 0.052132525
-0.20311442 0.43395653 0.062062897 -0.17249066 0.15620907 -0.081513 -0.3498665 -0.031346913
-0.016331375 -0.14425594 0.15647045 0.038540058 0.24021898 0.22881879 0.24630603 0.38561112
0.2441993 -0.10176666 0.02012061 0.11276431 -0.022772357 -0.16068688 -0.28322938 -0.112677835
0.19591841 -0.05446567 0.08501746 0.23013097 0.0081419675 0.026851919 0.027834415 0.09531036
0.0066533745 0.0740456 0.043663945 0.21303858 -0.009208266 0.020884354 0.08896566 -0.07546478
0.09345199 0.121976145 0.14597893 -0.1407456 0.087216906 0.42872402 -0.06852002 0.047900837
0.10680391 -0.18712579 0.013177794 0.14159818 0.08107955 0.18101858 -0.10366945 0.17813328
00000000: 4d42 3cbe 2b8a 89be d4c2 333e 79f7 f73d
00000010: 69c1 c2bd 14e6 32be 475d adbd 00c6 82be
00000020: cba9 e63d 8ded ffbc 1fe3 3ebc a960 b3be
00000030: ac29 093e dd24 6cbe f097 493e 1e55 ee3d
00000040: 1bb1 323e 5577 913c 39a1 92bd 8521 bfbd
00000050: d6ca f03d 7ab1 263d 9c5a 2fbe 9975 19bd
00000060: 2031 48bd 51fb cfbe 3d3b c5be c48a 6d3e
00000070: a83c 4f3d 2d76 eb3d f371 593a 2fef 66bc
00000080: 7fa0 843d 930b 59be a136 39be 05b0 abbd
00000090: 41da 01be d58f a4bd a577 3d3e 67a6 b73d
000000a0: 6cb2 abbe 2287 593c c70c 303b 6b1f 213d
000000b0: dc09 663e 3117 df3d eb3f a63c 1615 443e
000000c0: fcb1 ef3c dc51 bfbd 380d 76be 2ba0 1cbd
000000d0: ae3b e7be c81f 2a3d 6a78 eabd d884 753e
000000e0: 8640 1bbe 8ed0 de3d 0e0e 5dbd 6680 d73d
000000f0: 84f0 cf3d 57ff afbc 927e 123c 5330 c33d
00000100: 4952 00be 6848 13be 47c6 013e b297 91bb
00000110: 94a4 6f3e c30c 093e e1a2 e13d f784 243e
00000120: e56d e2bd 0877 66bd 6531 61be af14 3abd
00000130: a724 19bd 2fa5 403e 59d5 8d3e 3189 723d
00000140: f991 8f3d dfba 0e3e 443b 78be c494 143d
00000150: 287b 083b dac0 91bc 411a cabb 29c3 01be
00000160: a41e 67be 9333 80bd 2869 09be 2b49 ee3c
00000170: ef04 f13d 2e75 9abd fc6d 34bd c255 a53c
00000180: f9d7 bb3b 2160 d9bd f99f 063e f2a6 803e
00000190: 61b1 fabd ff31 163e f14e 32be 2866 24be
000001a0: 7968 fdbd 73cc b93d 83fd 32be f228 9bbd
000001b0: 3a6b f7bc 1a1c 02be 00ac b6ba 2f41 a43d
000001c0: 96b9 46be 95dc fc3c b39a e6bd 37da 80bc
000001d0: e6ae 07be 0fce 723e ca3d c6bd 59e2 fa3c
000001e0: 6d24 06be f291 79bd d80f 643d 0de4 5abe
000001f0: e986 013e ef3c 15be eb1e cb3d b568 6b3c
00000200: cb73 a2bc 71dd da3c f12a e6bd 414a adbd
00000210: 90ca 5ebe e293 1fbe f0d6 e83d 9eb1 e4bd
00000220: 9f68 3cbe cd07 893b d1a6 a43d 4740 a1bd
00000230: e7fb b33d b6df 5e3e 4c98 bcbd 2ee4 4ebd
00000240: c81f 86be ee16 013d bc87 26be bb06 1a3d
00000250: d670 013e f077 f73d 2438 35be bc30 cdbc
00000260: 1bd9 fabc 62ba 0ebe 3b79 7b3d 5ea0 d6bc
00000270: 0b9e 133e 6d0b b23d b7f7 7a3c 48ac d13b
00000280: 13ac acbc f531 bb3d 12ee b13c ea94 b3bd
00000290: 2ca2 0dbe 5125 683c ec4d e73d d470 0d3e
000002a0: 3905 493e 11e1 50bd 5d4b e53c fd5e 81bd
000002b0: b5c9 c33d 5822 66be 1b4d 9dbb 8dfc 83be
000002c0: 86b8 9e3d b809 85bc 162e f33d 42dd 1c3e
000002d0: 4b1c d63d e47a 17bd 6456 7abb be88 5b3d
000002e0: 8ffc 84bd 10ea 993d 862d d6bd 42da 0d3d
000002f0: 944d cb3c 7076 0ebe 668d 4fbe c1a8 b6be
00000300: 9360 f93d cc58 edbd 8df4 dd3c e7b3 3abd
00000310: 1fa6 543e 14e2 f23d 4acd efbd ea88 553d
00000320: 3afd 4fbe 8d2f de3e aa35 7e3d 64a1 30be
00000330: 45f5 1f3e 4af0 a6bd b421 b3be 9f65 00bd
00000340: 60c9 85bc d4b7 13be ca39 203e 2edc 1d3d
00000350: f7fb 753e 794f 6a3e a637 7c3e d26e c53e
00000360: 620f 7a3e 0a6b d0bd fad3 a43c f9f0 e63d
00000370: 188d babc 1a8b 24be 7103 91be a3c3 e6bd
00000380: d69e 483e 6517 5fbd a21d ae3d 74a7 6b3e
00000390: e365 053c 8ef8 db3c 0005 e43c 1432 c33d
000003a0: 8d04 da3b 38a5 973d f7d8 323d c926 5a3e
000003b0: 44de 16bc aa15 ab3c a133 b63d 478d 9abd
000003c0: c263 bf3d a1ce f93d 807b 153e 9d1f 10be
000003d0: c79e b23d b781 db3e 3954 8cbd ab33 443d
000003e0: 02bc da3d e79d 3fbe ade7 573c 1dff 103e
000003f0: 090d a63d ef5c 393e a650 d4bd 9268 363e

base.cnn.0.bias f4 [32]
-0.09084015 -0.050475232 -0.08663208 0.045639925 -0.04517218 -0.07526767 -0.030559206 -0.10222896
-0.09756004 -0.1011407 -0.04197132 -0.07307737 -0.05859051 -0.12678522 -0.017214276 -0.12916353
-0.076002896 -0.06701754 0.006436449 0.00651616 -0.03229813 -0.0928318 -0.09208905 -0.04071273
-0.061005216 -0.15257472 -0.15385589 -0.15299334 -0.07534775 -0.083827175 -0.1643805 0.007634599
00000000: 670a babd 1ebf 4ebd 296c b1bd eef0 3a3d
00000010: 7706 39bd f025 9abd 4d57 fabc 6b5d d1bd
00000020: 8fcd c7bd db22 cfbd 1eea 2bbd 97a9 95bd
00000030: 9afc 6fbd fcd3 01be f404 8dbc 7243 04be
00000040: 68a7 9bbd 7e40 89bd d9e8 d23b 8385 d53b
00000050: 0b4b 04bd 991e bebd 2f99 bcbd 64c2 26bd
00000060: 9be0 79bd 8c3c 1cbe 668c 1dbe 49aa 1cbe
00000070: ec4f 9abd 95ad abbd 5d53 28be a92b fa3b

base.cnn.2.weight f4 [64, 32, 3, 3]
-0.14383212 0.012821635 0.005174594 0.06487747 -0.11040837 0.10533706 -0.0402461 -0.20974855
-0.10499423 0.022547351 0.033496115 0.16458033 -0.15417597 -0.13947436 0.03758954 -0.24263625
-0.050959364 0.055546686 -0.107608125 -0.118139654 -0.197347 -0.07203823 -0.1512566 -0.020828726
-0.009980747 0.13129619 -0.008124289 0.064667605 -0.40265924 -0.08652443 0.024485152 0.18367662
-0.12755692 0.005984891 0.036221348 -0.11926197 -0.20595175 0.04762908 0.059894025 -0.052769233
-0.2887832 0.07797551 0.026218837 -0.25718206 -0.32886982 0.17823395 -0.04260688 -0.31809062
-0.0033513114 -0.08284297 -0.068448275 -0.0071670623 -0.051494997 -0.04741365 0.15495647 0.062176067
0.06761245 -0.009894277 -0.16309561 0.054568604 -0.078414395 0.15765773 0.05715608 0.08788775
-0.22704814 -0.005723416 0.10405065 -0.011834243 -0.2514409 -0.12227773 0.057541687 -0.16422999
-0.017627385 -0.18072014 0.0120751085 0.01824734 0.0540437 -0.22393745 -0.053672995 0.07368517
-0.017102554 -0.22490942 -0.028580993 0.097465545 -0.18816513 -0.03886364 -0.15083821 -0.22472045
-0.05774664 -0.1105732 -0.13031916 0.14869596 0.026704483 -0.17500713 0.07073694 -0.03901406
0.11400738 0.09403738 -0.10474284 -0.13369477 0.0536564 -0.054375757 -0.08974097 0.01992179
0.20102271 -0.14634138 0.07018702 -0.11200863 -0.09918198 2.7495444e-05 0.060237575 0.1754234
0.03606606 0.03793673 -0.023425372 -0.2500891 -0.049974628 -0.013084803 -0.12341183 0.10077863
-0.10047265 -0.10398838 -0.22007193 0.033763666 -0.026712 0.04351139 0.070782244 -0.30966312
0.065382324 0.11344828 -0.16393882 0.15750343 0.017515134 -0.35333592 -0.2157627 -0.013219571
-0.01645454 -0.10618459 0.004625531 0.037912764 -0.039200947 0.0003647036 -0.11500546 -0.1980223
0.12594718 -0.10253731 -0.21114668 -0.2887222 -0.11446071 -0.15631922 -0.03230173 0.015846714
0.031124147 0.15751748 0.1165087 -0.014022206 0.14324482 0.035009515 -0.059025925 0.078462064
-0.038139015 -0.1201428 -0.027190411 -0.30448592 0.050156094 0.030957434 -0.27997184 0.0736038
-0.04305879 -0.07651562 -0.09210025 -0.14583895 0.18713154 0.023140406 -0.3412647 -0.3369925
0.11335202 -0.05324579 0.12624054 -0.068583906 0.013157152 -0.12964287 -0.06848063 -0.10648962
-0.1317629 -0.015794422 -0.07041103 0.055123597 0.104737386 -0.21056987 -0.17588906 -0.10810523
-0.06663076 0.048842926 -0.1463573 0.073486134 -0.2246152 -0.110593915 -0.019295229 0.1411227
-0.07271385 -0.060354102 -0.24206002 -0.17671824 -0.14397617 -0.04783564 0.0036951725 -0.003816897
0.23264861 -0.033675265 0.009854994 0.022321612 -0.072020985 0.15508436 0.123785466 -0.029209975
-0.040523745 -0.17953706 0.18115598 -0.09102236 0.20607935 0.06552158 -0.04157924 0.039443813
-0.115946166 -0.040365092 -0.13501285 0.123553306 0.034615725 -0.052527834 -0.20691226 -0.015613996
0.013532332 -0.098223224 -0.03818794 0.08354389 -0.10015014 -0.09931463 -0.033401616 -0.0649911
-0.045418914 0.12532888 -0.04210509 -0.033805266 -0.24244967 0.014766599 -0.018906534 -0.046711247
-0.06977715 0.149089 -0.112680994 -0.17608412 0.09481529 0.01742016 -0.15843782 -0.10534712
00000000: ba48 13be d611 523c a48f a93b 7bde 843d
00000010: c91d e2bd f5ba d73d 18d9 24bd 53c8 56be
00000020: 3707 d7bd 39b5 b83c 3933 093d bf87 283e
00000030: 4ee0 1dbe 5ed2 0ebe 7df7 193d a375 78be
00000040: c4ba 50bd ec84 633d a661 dcbd 34f3 f1bd
00000050: 5515 4abe c888 93bd 03e3 1abe 01a1 aabc
00000060: 4986 23bc 8272 063e bd1b 05bc 7370 843d
00000070: 5a29 cebe b833 b1bd 1695 c83c b915 3c3e
00000080: 489e 02be e81c c43b d65c 143d 9f3f f4bd
00000090: 04e5 52be b616 433d 7053 753d 8d24 58bd
000000a0: 64db 93be a0b1 9f3d e3c8 d63c 5ead 83be
000000b0: a061 a8be f682 363e 8d84 2ebd c6dc a2be
000000c0: ada1 5bbb 93a9 a9bd 9c2e 8cbd add9 eabb
000000d0: 6bec 52bd d134 42bd e9ac 1e3e 55ac 7e3d
000000e0: 6578 8a3d 9b1b 22bc 8902 27be 5483 5f3d
000000f0: ba97 a0bd 0771 213e 7e1c 6a3d 7efe b33d
00000100: 4f7f 68be 7e8b bbbb 8218 d53d 6ae4 41bc
00000110: ddbc 80be bf6c fabd d5b0 6b3d e82b 28be
00000120: 4e67 90bc b30e 39be add6 453c 727b 953c
00000130: ed5c 5d3d dc4f 65be 37d8 5bbd 40e8 963d
00000140: a81a 8cbc a84e 66be b022 eabc 049c c73d
00000150: 5cae 40be 7b2f 1fbd 5575 1abe 1e1d 66be
00000160: be87 6cbd 3474 e2bd 6372 05be c143 183e
00000170: 5cc3 da3c 1235 33be 87de 903d 35cd 1fbd
00000180: b47c e93d ab96 c03d 6a83 d6bd 48e7 08be
00000190: d0c6 5b3d 1db9 5ebd 1dca b7bd 0633 a33c
000001a0: e6d8 4d3e 84da 15be 36be 8f3d c864 e5bd
000001b0: ec1f cbbd 04a6 e637 adbb 763d 31a2 333e
000001c0: 01ba 133d 8b63 1b3d 91e6 bfbc ae0b 80be
000001d0: 32b2 4cbd a461 56bc 57bf fcbd 0765 ce3d
000001e0: 9bc4 cdbd dcf7 d4bd 895a 61be c54b 0a3d
000001f0: 20d3 dabc 0039 323d 48f6 903d 2a8c 9ebe
00000200: 2be7 853d 9257 e83d 94df 27be 9448 213e
00000210: e67b 8f3c 72e8 b4be e6f0 5cbe e696 58bc
00000220: accb 86bc 4e77 d9bd c491 973b 6a4a 1b3d
00000230: 2c91 20bd b035 bf39 fc87 ebbd 5cc6 4abe
00000240: 4cf8 003e 15ff d1bd d636 58be 65d3 93be
00000250: 606a eabd 2512 20be d24e 04bd f8d0 813c
00000260: 11f8 fe3c 434c 213e 1d9c ee3d 65bd 65bc
00000270: c5ae 123e 2366 0f3d 2bc5 71bd b8b0 a03d
00000280: a837 1cbd 6e0d f6bd 6dbe debc 94e5 9bbe
00000290: 7a70 4d3d 729a fd3c 7858 8fbe 97bd 963d
000002a0: 6a5e 30bd 39b4 9cbd 0e9f bcbd ce56 15be
000002b0: 699f 3f3e f390 bd3c 3fba aebe 488a acbe
000002c0: 1b25 e83d 4218 5abd 3345 013e b875 8cbd
000002d0: 1891 573c 1ac1 04be 933f 8cbd 3b17 dabd
000002e0: dbec 06be 4e63 81bc a833 90bd 48c9 613d
000002f0: 8e80 d63d a19f 57be 431c 34be 4666 ddbd
00000300: b575 88bd 850f 483d b0de 15be e67f 963d
00000310: 8701 66be 107f e2bd 0711 9ebc 7882 103e
00000320: 00eb 94bd dd35 77bd 95de 77be a0f5 34be
00000330: 7d6e 13be 4eef 43bd b52a 723b e824 7abb
00000340: 703b 6e3e 13ef 09bd d776 213c d0db b63c
00000350: bd7f 93bd 6fce 1e3e 3c83 fd3d c249 efbc
00000360: 3afc 25bd 90d8 37be f480 393e ee69 babd
00000370: 7706 533e 2e30 863d fe4e 2abd d68f 213d
00000380: 2f75 edbd de55 25bd cf40 0abe 8409 fd3d
00000390: 38c9 0d3d 6d27 57bd cfe0 53be d9d1 7fbc
000003a0: b7b6 5d3c 4229 c9bd f56a 1cbd 0f19 ab3d
000003b0: 841b cdbd 7865 cbbd 22d0 08bd 0e1a 85bd
000003c0: 2f09 3abd 3756 003e 6376 2cbd 6477 0abd
000003d0: ba44 78be 9bef 713c e0e1 9abc 4b54 3fbd
000003e0: 53e7 8ebd c9aa 183e 4bc5 e6bd 654f 34be
000003f0: 852e c23d b9b4 8e3c 863d 22be 3bc0 d7bd

base.cnn.2.bias f4 [64]
-0.10888717 -0.05133461 -0.030576102 -0.046974383 0.008198559 -0.1013247 0.008618241 -0.019597704
-0.014647688 -0.029490232 -0.034995854 -0.041024942 -0.043288946 -0.07531909 -0.047723833 -0.028967757
0.05148789 0.004633094 -0.04218521 0.06575831 -0.026970642 -0.009918079 -0.019746708 0.04434261
-0.055771735 -0.067893036 -0.04981211 -0.02608835 0.020058041 -0.060104944 -0.02056807 -0.08472419
-0.04155676 0.01216866 0.027676003 0.047090605 -0.08312459 -0.052598827 0.010666822 0.008896139
0.044615738 -0.03268869 6.486807e-05 0.0032730184 -0.016647512 -0.093424916 -0.016524697 0.003955179
-0.06121879 0.010048198 -0.0047396165 -0.07228461 -0.052213464 -0.044760514 0.007340541 -0.09304748
-0.0057712365 -0.016734987 0.0032694081 -0.050913572 -0.03490072 -0.016065754 -0.11421123 -0.014511098
00000000: 3d00 dfbd 3d44 52bd bc7a fabc 3668 40bd
00000010: 4053 063c 5383 cfbd 8633 0d3c 5d8b a0bc
00000020: dbfc 6fbc 8095 f1bc d057 0fbd c509 28bd
00000030: c04f 31bd e540 9abd 117a 43bd ca4d edbc
00000040: f7e4 523d 36d1 973b 66ca 2cbd 4bac 863d
00000050: 89f1 dcbc 707f 22bc d9c3 a1bc 99a0 353d
00000060: e770 64bd 810b 8bbd c807 4cbd 3cb7 d5bc
00000070: c350 a43c 9a30 76bd 5e7e a8bc e083 adbd
00000080: 6c37 2abd 0f5f 473c c9b8 e23c 14e2 403d
00000090: 3a3d aabd de71 57bd e5c3 2e3c 1dc1 113c
000000a0: febe 363d 93e4 05bd c809 8838 2380 563b
000000b0: 5d60 88bc 9055 bfbd cd5e 87bc 729a 813b
000000c0: 8ec0 7abd 32a1 243c c94e 9bbb f409 94bd
000000d0: c9dd 55bd cd56 37bd ec88 f03b ad8f bebd
000000e0: a41c bdbb d017 89bc 9143 563b c08a 50bd
000000f0: 0ff4 0ebd 549c 83bc 94e7 e9bd f5bf 6dbc

base.cnn.4.weight f4 [32, 64, 3, 3]
-0.19206966 -0.23011327 -0.15018097 0.09242025 -0.06783561 -0.1763256 0.11115928 -0.085028656
0.099022724 0.10421712 -0.07070865 -0.028455403 0.11844294 0.06573324 0.0390138 -0.047075484
0.008352149 0.07479773 0.10615035 -0.028832747 0.18070751 0.08785539 0.05805441 -0.26289195
0.13098188 -0.03978203 0.014752945 0.011033356 -0.023468321 0.17404109 0.012957616 -0.11890814
0.0073027057 0.14678295 -0.31120244 0.02285188 0.17979452 -0.04862152 -0.06491148 -0.20237947
0.10540479 0.11887162 -0.2376733 -0.11216443 -0.07847359 0.06026694 0.019290946 0.06742531
-0.1908894 -0.101506725 0.11044605 0.08627568 0.13139684 0.046815693 0.14127067 -0.20979516
0.027697913 -0.13141738 0.06075898 -0.13977444 -0.09878141 -0.085962094 -0.2771652 0.14433484
0.0717647 0.016500227 -0.039363846 -0.025356688 -0.113106124 0.097475946 -0.03294593 0.063552715
0.009487694 -0.28708345 0.054439023 0.05624639 0.08824545 -0.06250296 -0.029221982 0.00092639175
0.10337818 -0.029950712 -0.15717308 -0.19150344 0.058193557 -0.12340804 0.033405326 -0.03855567
-0.029361362 0.19873853 0.078557454 -0.15548772 -0.0129926065 -0.055991195 0.03242457 0.058161445
-0.09109458 0.021072475 -0.11558973 -0.13331667 -0.005861816 0.09443629 0.031038428 0.062660486
0.0069902847 -0.047297362 -0.17482948 -0.1182884 0.18736239 -0.10446088 -0.082032144 -0.18521053
0.08097103 0.11369375 0.039082836 0.09966287 -0.062128503 0.044534106 0.060747925 -0.028186662
-0.023590969 -0.11899554 -0.018019922 0.08894665 0.009493727 0.18885218 0.036612492 0.11144463
0.031186469 0.15872008 0.009953068 -0.0065782433 0.094653934 -0.099832855 0.033554185 0.13886775
-0.021294326 0.08955214 -0.023070216 -0.061258424 0.11800915 0.03957021 -0.19360074 0.054131575
-0.12674645 -0.06784341 -0.14471091 -0.011206255 -0.016055709 -0.07640957 0.07722615 -0.25407013
-0.06633699 -0.038615063 0.128129 0.072571166 0.07347419 -0.19681872 -0.14203508 -0.10213709
0.04381233 0.1996986 0.037153147 -0.11974823 -0.15540555 0.013255625 0.010436638 -0.08686021
0.117581874 0.013903543 -0.037055664 0.0121057965 0.061751265 -0.06063351 -0.008264247 -0.07405635
0.120788425 -0.06916561 -0.12509128 -0.030239927 0.16124006 -0.01076656 -0.18053712 0.0766068
0.13008302 0.07615371 -0.052949987 -0.08798087 0.021895347 0.0409845 -0.1175882 -0.22182643
0.037479635 0.033451896 -0.2331565 -0.02134681 0.00040146388 0.045462452 0.011304623 -0.060654588
-0.1357056 0.042587005 -0.043030735 0.005851464 0.09098255 -0.12418387 -0.028988624 0.1289331
-0.0408806 0.028495805 -0.110571384 -0.11810569 -0.0012828927 0.1394123 -0.115208365 -0.03199443
-0.18581931 0.0145637235 -0.131075 -0.0012810675 0.08749701 0.22096035 -0.052040376 0.17766902
-0.15930007 -0.11774381 -0.05681476 -0.02535718 0.07262126 0.05625466 0.030230766 0.0577094
0.052609198 -0.08184445 -0.009439449 0.12125873 0.15866409 -0.05641726 0.0036248292 0.04352679
-0.16373867 -0.10623965 -0.16090055 -0.011222757 -0.0378233 0.09011875 0.007394983 -0.20193179
0.022235276 -0.08581486 0.026150627 -0.15855674 0.11085803 0.07910544 -0.0842672 0.013323716
00000000: e9ad 44be d0a2 6bbe 0ac9 19be d446 bd3d
00000010: 65ed 8abd b38e 34be 7aa7 e33d 8123 aebd
00000020: 6dcc ca3d c96f d53d b2cf 90bd 4e1b e9bc
00000030: 3692 f23d 269f 863d efcc 1f3d 39d2 40bd
00000040: 74d7 083c 8d2f 993d 5b65 d93d a732 ecbc
00000050: 640b 393e 87ed b33d 76ca 6d3d c699 86be
00000060: 1d20 063e 7bf2 22bd 56b6 713c 40c5 343c
00000070: a340 c0bc d437 323e 2e4c 543c 1c86 f3bd
00000080: 894b ef3b 454e 163e ed55 9fbe de33 bb3c
00000090: 0e1c 383e 5c27 47bd 4ff0 84bd 903c 4fbe
000000a0: 77de d73d f772 f33d a160 73be 77b6 e5bd
000000b0: c3b6 a0bd 78da 763d 0c08 9e3c 4816 8a3d
000000c0: 8378 43be c2e2 cfbd 8a31 e23d 4eb1 b03d
000000d0: e58c 063e d0c1 3f3d 42a9 103e 8bd4 56be
000000e0: bce6 e23c 4792 06be 69de 783d 0821 0fbe
000000f0: e84d cabd e50c b0bd 99e8 8dbe 83cc 133e
00000100: 5ff9 923d 7c2b 873c fc3b 21bd d4b8 cfbc
00000110: 2fa4 e7bd 78a1 c73d 50f2 06bd ed27 823d
00000120: 4672 1b3c 9afc 92be 74fb 5e3d 9d62 663d
00000130: 08ba b43d 8d01 80bd f062 efbc 19d9 723a
00000140: f0b7 d33d 325b f5bc fbf1 20be 7a19 44be
00000150: 5e5c 6e3d 5bbd fcbd 06d4 083d 8dec 1dbd
00000160: 3d87 f0bc 1d82 4b3e bbe2 a03d 2c38 1fbe
00000170: f1de 54bc 0657 65bd a0cf 043d b23a 6e3d
00000180: cc8f babd 2fa0 ac3c 4fba ecbd 2a84 08be
00000190: 7a14 c0bb d067 c13d 4d44 fe3c 2454 803d
000001a0: c20e e53b e1ba 41bd 8006 33be 3041 f2bd
000001b0: eddb 3f3e 96ef d5bd 7800 a8bd d4a7 3dbe
000001c0: 24d4 a53d 45d8 e83d 5315 203d 0c1c cc3d
000001d0: 757a 7ebd 6569 363d d1d2 783d b7e7 e6bc
000001e0: d941 c1bc efb3 f3bd 849e 93bc a929 b63d
000001f0: 948b 1b3c 7762 413e fbf6 153d 153d e43d
00000200: c47a ff3c 8487 223e 3112 233c 4e8e d7bb
00000210: ecd9 c13d 2b75 ccbd 1d70 093d 5933 0e3e
00000220: 7071 aebc 1d67 b73d c0fd bcbc 1dea 7abd
00000230: c8ae f13d 5f14 223d 463f 46be 12b9 5d3d
00000240: d2c9 01be 7cf1 8abd 192f 14be 719a 37bc
00000250: 4387 83bc 9f7c 9cbd be28 9e3d 7b15 82be
00000260: b0db 87bd d42a 1ebd 4034 033e 31a0 943d
00000270: a379 963d d98a 49be a571 11be 402d d1bd
00000280: 8f74 333d ca7d 4c3e e62d 183d 8f3e f5bd
00000290: a222 1fbe 1f2e 593c 6ffe 2a3c c4e3 b1bd
000002a0: c4ce f03d b0cb 633c aec7 17bd 6457 463c
000002b0: e5ee 7c3d d85a 78bd c466 07bc dbaa 97bd
000002c0: ec5f f73d b3a6 8dbd ee17 00be b9b9 f7bc
000002d0: 1d1c 253e 3a66 30bc b9de 38be 07e4 9c3d
000002e0: 7c34 053e 7af6 9b3d 16e2 58bd 502f b4bd
000002f0: df5d b33c 5ddf 273d 15d2 f0bd 7826 63be
00000300: 3f84 193d db04 093d 94c0 6ebe 81df aebc
00000310: 927b d239 d636 3a3d 0737 393c f270 78bd
00000320: 69f6 0abe b66f 2e3d ff40 30bd a3bd bf3b
00000330: 0f55 ba3d 1d54 febd 8d79 edbc 0a07 043e
00000340: 6b72 27bd 0970 e93c 4073 e2bd 65e1 f1bd
00000350: bc26 a8ba 19c2 0e3e 5df2 ebbd 970c 03bd
00000360: 6b47 3ebe af9c 6e3c 8638 06be 7ee9 a7ba
00000370: a231 b33d 6e43 623e 4a28 55bd deee 353e
00000380: 8f1f 23be ab23 f1bd 98b6 68bd dcb9 cfbc
00000390: 75ba 943d 496b 663d 83a6 f73c b160 6c3d
000003a0: be7c 573d 109e a7bd eba7 1abc 7f56 f83d
000003b0: d778 223e c915 67bd 8b8e 6d3b 2649 323d
000003c0: 1cab 27be 2c94 d9bd 1dc3 24be a8df 37bc
000003d0: 9bec 1abd 2e90 b83d 9d51 f23b 35c7 4ebe
000003e0: c126 b63c b4bf afbd d739 d63c b35c 22be
000003f0: 8909 e33d 0802 a23d 4894 acbd b74b 5a3c

base.cnn.4.bias f4 [32]
-0.020428875 -0.055237193 -0.049817376 -0.031854674 -0.05732566 -0.06282379 0.0031972995 -0.09030694
-0.053326346 -0.052058075 -0.014935754 -0.06415324 -0.044607 -0.04022233 -0.041591655 0.0049793525
-0.12268131 -0.053288165 -0.06426747 0.011523403 -0.029515566 -0.0836504 -0.07373825 -0.07458804
-0.05108845 -0.11574739 -0.00941472 -0.050597522 -0.05233648 -0.0823731 -0.010655598 -0.04023811
00000000: 755a a7bc 6540 62bd 4e0d 4cbd 0c7a 02bd
00000010: 50ce 6abd c2a9 80bd c989 513b d8f2 b8bd
00000020: ba6c 5abd d93a 55bd 18b5 74bc c662 83bd
00000030: d4b5 36bd 2bc0 24bd 035c 2abd d629 a33b
00000040: 5740 fbbd b144 5abd aa9e 83bd a8cc 3c3c
00000050: a1ca f1bc e750 abbd 1404 97bd 9dc1 98bd
00000060: 1f42 51bd f80c edbd 3340 1abc 593f 4fbd
00000070: c75e 56bd 3ab3 a8bd d194 2ebc b7d0 24bd

base.cnn.7.weight f4 [64, 800]
0.023054486 0.012892326 0.09006793 -0.046350125 -0.17790699 0.07559161 -0.13680165 -0.0776377
-0.05686077 0.11367393 0.032085635 -0.14539215 -0.098350786 -0.036374748 0.009766628 -0.075261
0.033714674 -0.063663214 0.021729745 -0.07728491 -0.09313975 -0.22479334 -0.08559469 -0.040891394
0.012228956 -0.055624172 0.073207326 0.0044690515 0.02704225 0.0064353277 -0.059575673 -0.058000218
-0.10897781 0.012985545 0.044056427 -0.05885781 -0.05496541 -0.06666725 -0.001529944 -0.039914906
0.016953358 -0.12681787 -0.0020881342 0.05038238 -0.20452149 0.0121103395 -0.078869924 0.08928651
-0.074990235 0.07329551 0.023317669 -0.05653939 -0.0115979565 -0.05717154 -0.064244874 -0.11914648
-0.030276654 0.07375075 0.04946669 0.0048081414 0.037682533 -0.055803776 0.14487875 -0.02399858
-0.0518556 -0.020819452 0.011622361 0.026813624 -0.005784153 0.03414316 -0.024472747 -0.20525517
0.0015680493 -0.1828844 0.0011060297 -0.047074344 0.03435871 -0.10009655 -0.0688633 -0.03887305
0.09735972 0.038617928 -0.11538747 -0.12976857 0.007338717 0.0013337273 -0.005580971 -0.0893173
-0.04395052 -0.10516689 0.09194426 0.11865045 -0.039938174 0.09471471 -0.07478639 -0.038299885
-0.08129002 0.11274484 -0.045012422 0.0014372008 0.035708968 0.06300583 -0.037797313 -0.032717727
-0.00034171063 -0.094706096 -0.0077562616 -0.025776 -0.22220401 -0.040861502 -0.11162256 -0.06690477
0.015109672 0.13349943 0.09656786 -0.04210459 -0.0139838 0.030840728 -0.103313364 -0.11033643
-0.03732247 -0.019260438 -0.111336194 -0.0650774 -0.023419574 -0.06328485 -0.056007866 -0.124416545
0.10698742 -0.031110436 -0.02505532 0.11682733 0.010733937 -0.111721806 0.062173232 0.12012761
-0.013378769 -0.17313763 0.008204326 -0.2071373 0.0032378805 0.050299253 -0.012649933 -0.06339329
-0.15220825 0.019747399 -0.023697238 0.06570551 -0.12944372 -0.009665703 -0.0272155 -0.08954475
0.009109561 0.033863742 -0.0020393708 0.02327533 -0.08044715 0.15553692 0.09086919 -0.015281936
-0.090710886 0.07376513 -0.006711152 -0.02500078 -0.096821554 -0.054231852 -0.11902282 0.0024458624
-0.06469261 0.16444533 -0.092804596 -0.018548066 -0.025384378 0.010297715 -0.038423773 -0.17860915
-0.12623821 0.049507134 0.040164992 -0.120233245 0.00051644584 -0.00678848 -0.030641824 0.00976762
-0.112295985 -0.009010647 -0.01720104 -0.096923605 -0.056626033 0.028218161 0.0057167215 -0.06651957
-0.023855459 -0.17553039 -0.0052729268 0.013943904 0.14454278 -0.01880119 -0.036412653 -0.0512957
-0.044035334 -0.008993494 0.13532868 -0.00072766334 0.07087482 0.040759154 -0.1612656 0.06859532
0.06734692 0.005848482 -0.16745041 -0.1366129 -0.15551355 -0.1611783 -0.1248543 -0.051834244
-0.05292914 -0.11850131 -0.09057781 -0.027915705 -0.09483963 -0.0050701965 -0.16468038 0.043462373
-0.14507222 -0.08458708 -0.06292641 0.006482189 -0.011819949 0.02828546 -0.06747599 -0.047047272
-0.0030379454 -0.18166764 -0.054454003 -0.069940224 0.01862402 -0.00767895 0.005692217 -0.0093092965
-0.00026433 -0.071208104 -0.13386191 0.10914925 0.115932055 -0.10367583 -0.16138095 0.064886734
0.021338627 0.029462019 0.074743725 -0.08368068 -0.056799572 0.063854136 0.023457553 0.015119872
00000000: c3dc bc3c 563a 533c 8975 b83d a1d9 3dbd
00000010: 402d 36be c6cf 9a3d bb15 0cbe 8400 9fbd
00000020: d7e6 68bd e1cd e83d 3a6c 033d aee1 14be
00000030: 236c c9bd b0fd 14bd 3504 203c 7022 9abd
00000040: 6618 0a3d dc61 82bd 9402 b23c 8d47 9ebd
00000050: 0ec0 bebd 3a30 66be 454c afbd bc7d 27bd
00000060: f65b 483c 2cd6 63bd b9ed 953d 1f71 923b
00000070: b587 dd3c 71df d23b 9f05 74bd a391 6dbd
00000080: c22f dfbd 53c1 543c 8374 343d e314 71bd
00000090: 6923 61bd d788 88bd 6788 c8ba d07d 23bd
000000a0: c5e1 8a3c 8bdc 01be 14d9 08bb c15d 4e3d
000000b0: 156e 51be 726a 463c 8e86 a1bd d9db b63d
000000c0: 7b94 99bd f51b 963d b204 bf3c d995 67bd
000000d0: 5b05 3ebc b42c 6abd d192 83bd 1203 f4bd
000000e0: bf06 f8bc a20a 973d 959d 4a3d 9d8d 9d3b
000000f0: 0059 1a3d 8092 64bd 185b 143e ac98 c4bc
00000100: 8a66 54bd 8e8d aabc b76b 3e3c 3fa8 db3c
00000110: fe88 bdbb b3d9 0b3d 127b c8bc 692e 52be
00000120: 0187 cd3a 0c46 3bbe 33f8 903a 07d1 40bd
00000130: b8bb 0c3d 6cff ccbd 3408 8dbd 5939 1fbd
00000140: 8864 c73d d52d 1e3d 4450 ecbd 0de2 04be
00000150: 9f79 f03b 76d0 ae3a 94e0 b6bb fdeb b6bd
00000160: 7605 34bd bd61 d7bd 464d bc3d 02ff f23d
00000170: 3696 23bd c9f9 c13d 9b29 99bd 57e0 1cbd
00000180: 627b a6bd c4e6 e63d f25e 38bd 7560 bc3a
00000190: 9143 123d 3309 813d 5bd1 1abd 0603 06bd
000001a0: a027 b3b9 45f5 c1bd 3d28 febb 3128 d3bc
000001b0: 7389 63be 645e 27bd 5e9a e4bd 5e05 89bd
000001c0: 8f8e 773c 13b4 083e 5fc5 c53d dd75 2cbd
000001d0: 4f1c 65bc b2a5 fc3c f595 d3bd 11f8 e1bd
000001e0: 72df 18bd 11c8 9dbc 3b04 e4bd 4d47 85bd
000001f0: 68da bfbc 7d9b 81bd 8168 65bd 1ace febd
00000200: 381c db3d 50db febc d040 cdbc 2b43 ef3d
00000210: 65dd 2f3c 67ce e4bd 5ca9 7e3d 7705 f63d
00000220: a032 5bbc fe4a 31be 706b 063c cd1b 54be
00000230: 9f32 543b 9706 4e3d aa41 4fbc 57d4 81bd
00000240: 7bdc 1bbe 4cc5 a13c b620 c2bc 9c90 863d
00000250: e58c 04be e65c 1ebc 0af3 debc 3d63 b7bd
00000260: 4540 153c b5b4 0a3d f7a6 05bb e8ab be3c
00000270: 7ac1 a4bd 1245 1f3e a019 ba3d 1661 7abc
00000280: a1c6 b9bd 2c12 973d 39e9 dbbb 70ce ccbc
00000290: 614a c6bd 3822 5ebd 3cc2 f3bd c34a 203b
000002a0: 8f7d 84bd 5b64 283e 5610 bebd 1df2 97bc
000002b0: e6f2 cfbc bfb7 283c 3f62 1dbd 51e5 36be
000002c0: 9744 01be fec7 4a3d 0c84 243d d93c f6bd
000002d0: 1862 073a e671 debb 9004 fbbc 5e08 203c
000002e0: 70fb e5bd 65a1 13bc 32e9 8cbc e27f c6bd
000002f0: b3f0 67bd c629 e73c 5653 bb3b 6a3b 88bd
00000300: 866c c3bc 3dbe 33be 84c8 acbb f974 643c
00000310: 0603 143e f404 9abc 6f25 15bd 711b 52bd
00000320: 655e 34bd 7359 13bc 9a93 0a3e a9c0 3eba
00000330: d126 913d 12f3 263d cf22 25be b47b 8c3d
00000340: 2fed 893d 9fa4 bf3b 1f78 2bbe 41e4 0bbe
00000350: f23e 1fbe ed0b 25be 9cb3 ffbd 2550 54bd
00000360: 3acc 58bd d1b0 f2bd dc80 b9bd 7aaf e4bc
00000370: 483b c2bd e423 a6bb f9a1 28be 9a05 323d
00000380: d08d 14be fe3b adbd 90df 80bd 8b68 d43b
00000390: 76a8 41bc e9b6 e73c da30 8abd a4b4 40bd
000003a0: 4418 47bb 1507 3abe 290b 5fbd d23c 8fbd
000003b0: 6791 983c b49f fbbb c785 ba3b 0586 18bc
000003c0: c695 8ab9 8ed5 91bd 1913 09be a489 df3d
000003d0: c96d ed3d fe53 d4bd 0c41 25be 56e3 843d
000003e0: 58ce ae3c 555a f13c 3d13 993d c760 abbd
000003f0: aba6 68bd f5c5 823d 0e2a c03c 57b9 773c

base.cnn.7.bias f4 [64]
-0.11081108 -0.05665551 -0.028066974 -0.06750148 0.017393107 -0.017868198 -0.013118597 -0.0071802037
-0.09617079 -0.0316556 -0.046067264 -0.036285948 -0.113728434 -0.036757264 -0.06317023 -0.08709145
-0.04412337 -0.037598345 -0.06072269 -0.09476247 -0.035197638 -0.07034162 -0.12166331 -0.09718935
-0.061309922 -0.05356012 -0.00042682167 -0.046810407 -0.08484249 -0.100269794 0.041130733 -0.10232339
-0.04193358 -0.0021633669 -0.032105517 -0.09078455 -0.0713872 -0.028817415 -0.055887457 -0.038317226
-0.031973094 -0.1096738 -0.041624065 -0.08577581 -0.061545245 0.044382036 -0.008998081 -0.040415127
-0.056322623 -0.023758568 -0.1382059 -0.06106883 -0.09824859 -0.023852194 -0.09079377 -0.061090652
-0.10167944 -0.08168106 -0.08939356 -0.04357846 -0.068697095 -0.041324243 -0.109007254 -0.12744923
00000000: ebf0 e2bd 9c0f 68bd b6ec e5bc 373e 8abd
00000010: fd7b 8e3c 5460 92bc 62ef 56bc ea47 ebbb
00000020: 31f5 c4bd 4da9 01bd 07b1 3cbd 93a0 14bd
00000030: 74ea e8bd c98e 16bd 655f 81bd 015d b2bd
00000040: b5ba 34bd b900 1abd 5bb8 78bd d312 c2bd
00000050: 662b 10bd 440f 90bd 9d2a f9bd 360b c7bd
00000060: 1d20 7bbd db61 5bbd 09c7 dfb9 45bc 3fbd
00000070: e6c1 adbd 405a cdbd b378 283d ed8e d1bd
00000080: 8cc2 2bbd 46c7 0dbb 1381 03bd 40ed b9bd
00000090: 7433 92bd 8012 ecbc 3fea 64bd 86f2 1cbd
000000a0: 38f6 02bd a89c e0bd ff7d 2abd 3aab afbd
000000b0: de16 7cbd f0c9 353d b06c 13bc 558a 25bd
000000c0: 8db2 66bd 54a1 c2bc d985 0dbe 4f23 7abd
000000d0: 8f36 c9bd ad65 c3bc 16f2 b9bd 313a 7abd
000000e0: 4f3d d0bd 6648 a7bd f913 b7bd 547f 32bd
000000f0: 10b1 8cbd 9c43 29bd 323f dfbd 0d82 02be

base.cnn.9.weight f4 [64]
0.9629322 1.0764029 0.8285556 1.1254481 0.88506633 0.9717624 1.0869741 1.0032282
0.9397439 1.0965853 1.0810336 0.849074 0.9002464 0.95975536 1.0628663 1.055295
0.9100952 1.178827 0.8013196 0.923174 1.202373 0.96930754 1.172442 1.1007297
1.1235613 1.0715815 0.91311795 1.0090193 0.8732663 1.0595816 0.9821004 0.99433005
0.90162665 1.009662 1.1634811 1.0890557 0.9823687 0.9606097 1.0647979 1.1374183
1.1155498 0.9254901 1.0365758 1.1166204 1.0571352 1.1030756 0.9397873 1.048049
0.93228865 1.022646 1.0694001 1.0086348 0.9144293 1.0955957 0.9865483 0.86996454
1.2364342 0.9165694 1.0252658 0.92632425 0.84786236 1.1472777 1.0413337 0.95650053
00000000: ba82 763f 92c7 893f 381c 543f af0e 903f
00000010: b593 623f 6cc5 783f f821 8b3f c869 803f
00000020: 0e93 703f e85c 8c3f 4f5f 8a3f ea5c 593f
00000030: 8c76 663f 87b2 753f 010c 883f e813 873f
00000040: 00fc 683f cee3 963f 4823 4d3f 2255 6c3f
00000050: 5ce7 993f 8a24 783f 9412 963f b6e4 8c3f
00000060: dbd0 8f3f 9529 893f 19c2 693f 8b27 813f
00000070: 618e 5f3f 5fa0 873f ef6a 7b3f 6a8c 7e3f
00000080: 01d1 663f 9b3c 813f f3ec 943f 2d66 8b3f
00000090: 847c 7b3f 84ea 753f 4c4b 883f ec96 913f
000000a0: 56ca 8e3f ebec 6c3f 84ae 843f 6bed 8e3f
000000b0: 3550 873f 9531 8d3f e795 703f 7826 863f
000000c0: 78aa 6e3f 10e6 823f 1ae2 883f f21a 813f
000000d0: 0a18 6a3f 7b3c 8c3f 6e8e 7c3f ffb5 5e3f
000000e0: 7a43 9e3f 4ba4 6a3f e93b 833f 9623 6d3f
000000f0: 820d 593f ffd9 923f 6c4a 853f 38dd 743f

base.cnn.9.bias f4 [64]
0.08238354 -0.085878335 -0.0070288554 -0.016329177 0.07323029 -0.0439433 -0.013739163 -0.025517508
0.05311495 -0.07108978 -0.09905191 0.11986961 0.12455366 0.041882332 0.025766358 0.020536244
0.08806305 -0.049866956 0.1757651 0.06989121 -0.13222066 -0.005604348 -0.20220582 -0.13773124
-0.081699856 0.09773573 0.08556308 -0.02293962 0.16031297 -0.11877959 -0.015578554 -0.01272888
0.07036445 0.124417424 -0.070141464 -0.04193568 0.020958781 0.08301727 0.13770117 -0.17831796
-0.08880488 0.13182452 -0.06606975 -0.13546433 0.046067443 -0.1263544 0.18348086 0.057054024
0.094443776 -0.022885574 -0.0062970323 -0.1038487 0.09088063 0.09840597 -0.070633285 0.13785653
-0.121776074 0.15262698 0.008320071 0.14460404 0.033904035 0.006860999 -0.008886941 0.0392888
00000000: b4b8 a83d fbe0 afbd 5052 e6bb c4c4 85bc
00000010: c3f9 953d e4fd 33bd 3a1a 61bc 180a d1bc
00000020: 108f 593d 8597 91bd badb cabd 337e f53d
00000030: fd15 ff3d cf8c 2b3d f813 d33c a03b a83c
00000040: 665a b43d 4b41 4cbd c4fb 333e 1f23 8f3d
00000050: da64 07be aea4 b7bb 0b0f 4fbe 6b09 0dbe
00000060: 4152 a7bd ac29 c83d b23b af3d dfeb bbbc
00000070: 1529 243e b742 f3bd 313d 7fbc cb8c 50bc
00000080: 3d1b 903d 90ce fe3d 54a6 8fbd bfc4 2bbd
00000090: c0b1 ab3c f504 aa3d 8901 0d3e fc98 36be
000000a0: 55df b5bd 02fd 063e 944f 87bd 29b7 0abe
000000b0: 37b1 3c3d 0c63 01be 68e2 3b3e 7bb1 693d
000000c0: bd6b c13d 877a bbbc 5657 cebb a1ae d4bd
000000d0: a01f ba3d 1289 c93d 2fa8 90bd 432a 0d3e
000000e0: bc65 f9bd 3f4a 1c3e e850 083c 1513 143e
000000f0: f5de 0a3d 3bd2 e03b 889a 11bc 4bed 203d

base.cnn.10.weight f4 [64, 64]
0.015623824 0.14174812 -0.20739952 0.33527678 -0.7406428 0.28520402 0.14762826 0.22164124
0.18552384 0.35607702 -0.27236828 0.09534943 0.343558 -0.07111145 -0.24451639 0.011565669
0.12713794 0.07549041 -0.16386083 -0.084614605 0.098028846 -0.09137648 0.06631063 -0.10235038
0.07118821 -0.12725502 0.08069735 -0.36112127 -0.0033955823 0.15220521 -0.12292048 0.18245034
-0.32721227 0.020961892 0.19059283 0.14600755 -0.011249647 -0.33446795 0.2039878 0.27886745
0.08876207 -0.095269 0.068894625 0.5757125 0.11462822 0.1760799 -0.0429585 -0.10047871
-0.19756573 0.2233472 0.26051572 -0.016774675 -0.04382196 0.086293906 -0.116799034 0.30736417
0.31130853 0.24188812 0.29808176 -0.1091438 -0.04937915 0.10987781 0.12569636 0.18449946
0.23757093 0.08469894 -0.15632805 0.45720333 0.22659056 0.3041323 0.30991802 0.10241132
0.30272883 0.06646668 0.25190613 0.2383261 0.08714373 0.33086342 -0.17712395 0.26162213
-0.28531775 -0.02950051 0.0034261663 0.032703716 0.119501784 0.44947368 -0.037924152 -0.05695728
-0.40165725 -0.008932608 -0.09332887 0.12500583 0.3133704 0.16412376 -0.17922457 0.2750439
-0.36263534 0.09711363 -0.18584943 0.064449824 0.411246 -0.027635593 0.15424831 -0.2013206
0.053282596 -0.15343294 -0.019377518 -0.18172036 -0.048326697 0.22044343 0.0015740356 -0.24385817
0.18300426 0.49107224 -0.06802299 0.040662274 -0.20772335 0.21243927 0.045737505 -0.02618448
0.27160904 0.28431123 0.12197348 0.13967437 0.058496796 -0.079275206 0.027420564 0.3164608
-0.052918367 0.4404227 -0.068040535 0.26784173 -0.3309682 0.19310696 0.4220587 0.07546412
0.1318295 0.35007817 0.042615954 0.4184627 0.0329985 0.034146257 -0.1050745 0.08883858
-0.058351234 0.35404366 -0.06490986 0.33913282 0.11002485 0.14272846 0.08216531 0.35826892
0.17623897 0.18432854 -0.25867078 0.27146965 0.06320615 0.20323145 -0.15711592 0.27306953
-0.4201314 0.22045024 -0.04970825 0.25850022 0.15033056 -0.0419059 -0.45851383 0.15429759
0.02551989 -0.09154606 0.025221853 0.48027158 0.11162671 -0.17829645 0.18716756 -0.050926246
0.23412435 -0.23142408 0.039931767 0.2598432 0.12254029 -0.23807128 0.49890208 0.21828909
0.037556667 0.35053104 0.1444308 -0.1743015 0.43507454 0.053128015 0.28536177 0.18749312
0.10422896 -0.14488277 -0.200021 -0.031152738 -0.10889181 -0.016630702 0.039549615 -0.07955284
-0.022665847 0.16617928 0.035720646 -0.15958896 0.114666924 0.4080836 0.16730505 -0.4241935
0.0061021023 0.4335949 0.2861449 0.00943821 0.19756341 0.4926734 0.00021208466 -0.03383034
0.5189085 -0.124347985 -0.3638112 -0.112706035 0.2225993 0.29889885 0.18511657 -0.006994319
-0.09090023 -0.13038826 -0.29979607 0.15943387 -0.063721895 -0.15713419 -0.052827828 0.28900456
0.06539571 -0.03653516 0.3242229 0.24400145 -0.27008507 -0.009718283 -0.21982391 0.1282489
-0.2043092 0.31148404 0.3729394 0.11005184 0.023194535 -0.10592218 0.015887031 -0.15966335
0.26501858 0.46230924 0.2932741 0.066205785 0.35170144 0.27450734 0.11522754 0.31745622
00000000: 11fb 7f3c 6b26 113e 8a60 54be 66a9 ab3e
00000010: c49a 3dbf 4306 923e dd2b 173e ecf5 623e
00000020: f6f9 3d3e ba4f b63e db73 8bbe 9046 c33d
00000030: d6e6 af3e e1a2 91bd 8162 7abe ef7d 3d3c
00000040: 7330 023e b79a 9a3d 22cb 27be 6c4a adbd
00000050: 59c3 c83d 9823 bbbd decd 873d 139d d1bd
00000060: 20cb 913d 244f 02be a744 a53d e3e4 b8be
00000070: 6b88 5ebb afdb 1b3e bcbd fbbd 43d4 3a3e
00000080: 5e88 a7be 46b8 ab3c c42a 433e 0183 153e
00000090: 7050 38bc 623f abbe 2ee2 503e b7c7 8e3e
000000a0: e3c8 b53d 651c c3bd a018 8d3d e561 133f
000000b0: 33c2 ea3d 4a4e 343e 41f5 2fbd c8c7 cdbd
000000c0: ac4e 4abe 21b5 643e 5162 853e 0b6b 89bc
000000d0: a87e 33bd dcba b03d 5534 efbd d65e 9d3e
000000e0: d563 9f3e 85b1 773e 2c9e 983e c986 dfbd
000000f0: cb41 4abd 9e07 e13d 8cb6 003e 6ded 3c3e
00000100: cb45 733e a376 ad3d 7614 20be 8e16 ea3e
00000110: 5b07 683e 3bb7 9b3e 93ad 9e3e 07bd d13d
00000120: 46ff 9a3e af1f 883d d7f9 803e c20b 743e
00000130: 6978 b23d ee66 a93e fb5f 35be 56f3 853e
00000140: 2b15 92be 0eab f1bc 8889 603b 55f4 053d
00000150: 5abd f43d 6a21 e63e 5b56 1bbd 094c 69bd
00000160: 05a6 cdbe 135a 12bc 3523 bfbd 8701 003e
00000170: 1672 a03e 0f10 283e a586 37be 8ed2 8c3e
00000180: 57ab b9be 83e3 c63d 504f 3ebe 45fe 833d
00000190: d68e d23e 0a64 e2bc 45f3 1d3e fd26 4ebe
000001a0: da3e 5a3d 861d 1dbe 9abd 9ebc e714 3abe
000001b0: 37f2 45bd ecbb 613e df4f ce3a f5b5 79be
000001c0: 7865 3b3e d26d fb3e a34f 8bbd 7c8d 263d
000001d0: 6eb5 54be ae89 593e 4057 3b3d d680 d6bc
000001e0: 5710 8b3e 3e91 913e 3bcd f93d cc06 0f3e
000001f0: 569a 6f3d 0a5b a2bd 17a1 e03c 2607 a23e
00000200: eec0 58bd 167f e13e d658 8bbd 8d22 893e
00000210: aa74 a9be d5bd 453e 1418 d83e ef8c 9a3d
00000220: 50fe 063e 723d b33e 118e 2e3d be40 d63e
00000230: 6f29 073d f2dc 0b3d 4d31 d7bd 00f1 b53d
00000240: b401 6fbd 3645 b53e 76ef 84bd d1a2 ad3e
00000250: b554 e13d 6927 123e 4946 a83d 066f b73e
00000260: fd77 343e 9fc0 3c3e 7f70 84be 12fe 8a3e
00000270: 3a72 813d e81b 503e ffe2 20be c5cf 8b3e
00000280: 761b d7be b5bd 613e e19a 4bbd 245a 843e
00000290: 41f0 193e 85a5 2bbd 53c2 eabe 3000 1e3e
000002a0: 170f d13c 807c bbbd 0f9e ce3c 28e6 f53e
000002b0: 8b9c e43d 5893 36be daa8 3f3e 0a98 50bd
000002c0: 4bbe 6f3e 6ffa 6cbe 7e8f 233d 2b0a 853e
000002d0: 67f6 fa3d f5c8 73be 1870 ff3e 2d87 5f3e
000002e0: 05d5 193d ce78 b33e abe5 133e 187c 32be
000002f0: 17c2 de3e c39c 593d f01a 923e 32fe 3f3e
00000300: fe75 d53d 265c 14be 4ed2 4cbe 0734 ffbc
00000310: ab02 dfbd 1c3d 88bc c7fe 213d 99ec a2bd
00000320: baad b9bc e72a 2a3e d04f 123d 4a6b 23be
00000330: 7ed6 ea3d 55f0 d03e 0452 2b3e e42f d9be
00000340: 25f4 c73b 2700 de3e 9681 923e b9a2 1a3c
00000350: 104e 4a3e b03f fc3e 0b63 5e39 af91 0abd
00000360: 30d7 043f 28aa febd 7645 babe 6cd2 e6bd
00000370: 12f1 633e 4509 993e 338f 3d3e 9a30 e5bb
00000380: e629 babd 8084 05be df7e 99be a242 233e
00000390: a080 82bd c9e7 20be fe61 58bd 68f8 933e
000003a0: 30ee 853d e4a5 15bd 8b00 a63e 84db 793e
000003b0: 9748 8abe 6f39 1fbc 8519 61be ae53 033e
000003c0: 6e36 51be d67a 9f3e eaf1 be3e dc62 e13d
000003d0: 7702 be3c baed d8bd 8525 823c ca7e 23be
000003e0: 84b0 873e ccb3 ec3e 0628 963e e696 873d
000003f0: 3612 b43e 3a8c 8c3e 6bfc eb3d 9f89 a23e

base.cnn.10.bias f4 [64]
-0.11767134 -0.047308408 -0.32112685 -0.1019002 -0.16675837 -0.21173394 -0.0706452 -0.11650403
-0.096949756 0.0018091575 -0.09190499 0.023310073 -0.114637494 -0.05303202 -0.06657625 -0.08778139
-0.12654011 -0.08004057 -0.016310016 -0.05687688 -0.0638795 -0.07434478 -0.12098062 -0.076708555
-0.025782747 -0.103043966 -0.05419706 -0.06795562 -0.17667538 0.03471493 0.16483855 -0.14898206
0.02698462 -0.047310784 -0.012645332 -0.07613231 0.026215158 -0.052127294 0.013526169 -0.11989531
-0.11414604 -0.041021153 0.030244673 -0.108421154 -0.005765163 0.026733924 -0.085021816 -0.03710285
-0.08626025 -0.11852911 -0.07137432 -0.13278893 -0.09062912 -0.0081956955 -0.10175944 -0.064763874
0.008746105 -0.043130457 -0.060099497 -0.13450158 -0.10986346 0.0034177003 -0.16300969 0.073291324
00000000: acfd f0bd 76c6 41bd bd6a a4be 0db1 d0bd
00000010: b5c2 2abe c8d0 58be 6eae 90bd aa99 eebd
00000020: 988d c6bd 4121 ed3a af38 bcbd c4f4 be3c
00000030: 10c7 eabd 1a38 59bd 2159 88bd bbc6 b3bd
00000040: bb93 01be 4fec a3bd 959c 85bc bbf7 68bd
00000050: 41d3 82bd 1342 98bd b0c4 f7bd 6019 9dbd
00000060: 5736 d3bc b708 d3bd bdfd 5dbd 512c 8bbd
00000070: 64ea 34be 3e31 0e3d 70cb 283e c18e 18be
00000080: da0e dd3c f4c8 41bd 5e2e 4fbc 42eb 9bbd
00000090: 2cc1 d63c 6e83 55bd dd9c 5d3c ac8b f5bd
000000a0: 66c5 e9bd cc05 28bd adc3 f73c e90b debd
000000b0: b1e9 bcbb 1a01 db3c eb1f aebd 28f9 17bd
000000c0: 37a9 b0bd 64bf f2bd b32c 92bd d2f9 07be
000000d0: c39b b9bd 3d47 06bc 4167 d0bd eca2 84bd
000000e0: d34b 0f3c 90a9 30bd e42a 76bd c8ba 09be
000000f0: 1800 e1bd 7ffb 5f3b 03ec 26be c319 963d

base.cnn.12.weight f4 [64]
0.85212886 0.8980752 0.79683 1.0308108 1.0573049 1.1288368 1.0416024 1.0085777
1.1484956 1.1845279 1.0624287 0.91512644 1.1920073 0.9900619 1.184917 0.9722158
0.78858364 1.0426162 1.0001929 0.904462 1.1256179 1.1419842 1.1329796 1.1398761
1.109967 1.0677062 1.0440657 0.9255577 1.125534 1.0812455 0.93454075 0.7711818
0.83133006 1.1526588 0.954755 1.0518888 0.98087776 1.0295959 0.95453644 0.91333455
0.98806745 0.8178151 0.92091745 0.78518844 0.9787205 0.9922733 0.9428293 0.9836534
1.0922569 1.0788145 0.8549665 1.0320804 1.1053389 0.9798779 1.1539761 0.9788497
1.1034732 1.0131378 1.0331237 1.1375953 1.0803922 1.1340709 1.1428897 0.9152178
00000000: 1e25 5a3f 42e8 653f 0dfd 4b3f 9cf1 833f
00000010: c455 873f b97d 903f 3a53 853f 1319 813f
00000020: e701 933f 9c9e 973f aafd 873f ba45 6a3f
00000030: b293 983f b274 7d3f 5cab 973f 22e3 783f
00000040: 9ee0 493f 7374 853f 5206 803f d28a 673f
00000050: 3f14 903f 8a2c 923f 7a05 913f 76e7 913f
00000060: 6613 8e3f 99aa 883f f2a3 853f 59f1 6c3f
00000070: 8011 903f 4166 8a3f 103e 6f3f 2c6c 453f
00000080: 0cd2 543f 538a 933f d36a 743f 4ba4 863f
00000090: ce1a 7b3f ccc9 833f 805c 743f 4bd0 693f
000000a0: fdf1 7c3f 555c 513f 3fc1 6b3f 1c02 493f
000000b0: 6d8d 7a3f 9f05 7e3f 435d 713f b6d0 7b3f
000000c0: 13cf 8b3f 9816 8a3f 16df 5a3f 361b 843f
000000d0: bf7b 8d3f 47d9 7a3f 7db5 933f e595 7a3f
000000e0: 9c3e 8d3f 80ae 813f 663d 843f b99c 913f
000000f0: 4b4a 8a3f 3c29 913f 364a 923f b74b 6a3f

base.cnn.12.bias f4 [64]
0.11136242 0.03636631 0.10143572 0.0073676337 -0.0832523 -0.14182878 -0.0150187425 0.03386151
-0.08987048 -0.05764062 -0.07218723 0.086465664 -0.014653945 0.016183356 -0.098513804 0.14337331
-0.0071556475 -0.10187509 0.05072723 -0.010444333 -0.077114284 -0.03692393 -0.10939635 0.002684716
-0.20021379 0.0031375224 -0.043754607 0.040760648 -0.16046162 -0.022216791 0.03107261 0.13828394
0.28620818 -0.13736008 0.008773075 -0.12176165 -0.15630245 -0.022190044 0.095010884 0.1204433
-0.029378792 0.1258315 -0.047032315 0.08456841 0.089772046 0.022870304 0.077175066 0.047350116
-0.23566936 -0.18918306 -0.022997556 -0.0135361925 -0.0057559106 0.09426585 -0.11992752 -0.08756465
-0.09072955 -0.06313605 0.036121517 -0.18232144 -0.15407433 -0.11321974 -0.13372588 0.1358887
00000000: fb11 e43d d7f4 143d 88bd cf3d 316c f13b
00000010: 2f80 aabd 903b 11be 2c11 76bc 5eb2 0a3d
00000020: 040e b8bd 9218 6cbd e6d6 93bd e914 b13d
00000030: 1a17 70bc f592 843c 9bc1 c9bd 74d0 123e
00000040: ec79 eabb e3a3 d0bd 5bc7 4f3d b51e 2bbc
00000050: 18ee 9dbd 8c3d 17bd 320b e0bd 0ff2 2f3b
00000060: d804 4dbe e49e 4d3b 0838 33bd a3f4 263d
00000070: 0d50 24be fdff b5bc fc8b fe3c 4e9a 0d3e
00000080: e189 923e 1fa8 0cbe f2bc 0f3c 2c5e f9bd
00000090: c00d 20be e5c7 b5bc 1195 c23d faaa f63d
000000a0: cbab f0bc f9d9 003e f5a4 40bd 3432 ad3d
000000b0: 68da b73d 815a bb3c f60d 9e3d 32f2 413d
000000c0: 4f53 71be 34b9 41be 5f65 bcbc e8c6 5dbc
000000d0: 149c bcbb 740e c13d 8f9c f5bd 1855 b3bd
000000e0: 6ad0 b9bd 794d 81bd 28f4 133d 79b2 3abe
000000f0: a9c5 1dbe c0df e7bd 70ef 08be 6826 0b3e

base.cnn.13.weight f4 [64, 64]
0.16717243 0.07842798 0.01877287 0.24044113 -0.50999767 0.25054792 -0.02982882 0.037368715
-0.23586252 -0.15401386 0.5861088 0.03574939 -0.2771616 0.08626678 -0.27797288 0.1617879
0.29313877 -0.36773458 0.02950154 -0.32733798 0.5185565 -0.08634329 0.28989387 -0.02255977
0.020761041 0.035986397 0.10485593 0.17162094 0.11985963 -0.09262248 -0.044598594 0.21528786
0.13730994 0.115227714 -0.4724878 0.11152506 -0.4986919 0.1660365 -0.14607844 0.56461626
0.07252293 -0.13744926 0.28919703 0.074618645 -0.11152971 0.2591415 0.19606315 0.19101773
0.08875291 0.13397422 -0.29293472 -0.0054933615 -0.065121815 -0.08357476 0.17981838 0.033756107
-0.013815553 -0.15765816 -0.08265172 -0.23663035 0.08960884 0.23145957 0.16445921 -0.04551637
0.19434963 -0.05203513 -0.036894448 -0.076840736 0.003951498 0.20099512 0.035419416 -0.25460958
0.4673927 -0.018487811 0.068951875 0.29360852 -0.031186301 -0.28847 -0.43643132 0.17858209
-0.13396788 -0.24222304 -0.024716828 0.15139025 0.15314339 0.05206805 -0.1185166 -0.25028872
0.28744718 0.39438036 -0.06376909 0.06607469 0.09345358 -0.49273232 0.00035140105 0.081095554
0.15392873 -0.6596467 0.16129382 -0.33006322 0.29648376 0.053423084 0.045927286 -0.36975256
-0.034909476 -0.285713 0.021426717 0.11181614 -0.18394254 0.11315938 0.255772 -0.025290638
0.16388775 -0.2602742 0.0154242935 0.22066036 0.4577118 0.03762186 0.2552057 0.08357243
0.23383516 0.18449582 0.003082788 0.38229236 0.36536998 -0.060208715 0.047398202 0.0806515
-0.15222323 -0.28591916 -0.27792537 0.012544405 0.03199766 0.11351805 0.20332983 -0.3974569
0.024613664 0.13526206 0.25769216 -0.21669956 0.21026503 0.27143714 0.011440572 0.16485603
0.06710305 0.095726095 0.13864483 -0.18583255 0.070131026 0.17712913 -0.28398222 -0.27001035
0.0065790503 0.036052607 0.00650677 -0.13151483 0.24061175 -0.2723834 0.00015725601 0.0765696
-0.3899184 0.37074727 -0.015246399 0.16139741 -0.027202236 -0.08723971 0.12970904 0.0229628
-0.24436358 -0.5401039 0.10205312 0.4851868 -0.08810432 0.18211406 0.16072528 -0.49781448
-0.35946283 -0.09909664 0.02804849 0.096705616 -0.22351347 -0.27019948 0.15560274 0.10296827
-0.24429081 -0.22207296 0.36539432 0.020135168 0.22876102 0.016081473 -0.41102412 -0.091875
0.2147735 -0.014731756 0.08138771 -0.2718971 -0.13850719 0.11643616 0.05378359 0.13960788
0.24819158 -0.028553413 0.03534025 -0.079322904 0.21020019 -0.085465945 -0.28923485 -0.030585937
-0.30748776 0.34888995 0.076629825 0.10479621 0.047786947 -0.21993956 0.10549879 -0.017597
0.3043804 -0.102382034 0.08037733 -0.40966314 0.2750801 0.27056047 -0.23062259 0.4110126
-0.13540022 0.20574562 0.11306669 0.21203928 0.024533452 0.042591512 -0.3816788 0.32100946
0.15537071 0.19652042 -0.06669107 0.020468174 -0.054874055 -0.34568477 -0.0510924 -0.07515462
0.09020311 -0.01427489 0.0954266 0.29017338 -0.1336553 0.041248076 0.2961824 0.01619718
0.21160625 -0.012933824 -0.52493626 0.32421446 -0.051884335 0.08977998 0.4453265 -0.14368445
00000000: 402f 2b3e d99e a03d 90c9 993c 3336 763e
00000010: 358f 02bf d147 803e 925b f4bc f00f 193d
00000020: f285 71be cfb5 1dbe 3a0b 163f f46d 123d
00000030: 20e8 8dbe a3ac b03d 7652 8ebe baab 253e
00000040: 4916 963e b547 bcbe 37ad f13c d898 a7be
00000050: 1ec0 043f c0d4 b0bd f86c 943e 44cf b8bc
00000060: 0f13 aa3c 7966 133d b5be d63d 66bd 2f3e
00000070: f778 f53d dbb0 bdbd 04ad 36bd 6c74 5c3e
00000080: fa9a 0c3e 82fc eb3d ece9 f1be 4067 e43d
00000090: 8b54 ffbe 7905 2a3e 9695 15be b18a 103f
000000a0: e786 943d 80bf 0cbe a211 943e a9d1 983d
000000b0: b069 e4bd 32ae 843e c7c4 483e 279a 433e
000000c0: 16c4 b53d 8a30 093e 8afb 95be a801 b4bb
000000d0: 965e 85bd 3e29 abbd 4f22 383e d843 0a3d
000000e0: a15a 62bc 2471 21be 4e45 a9bd 3a4f 72be
000000f0: d784 b73d bd03 6d3e ff67 283e 606f 3abd
00000100: 9703 473e ca22 55bd a21e 17bd ad5e 9dbd
00000110: 917b 813b aad1 4d3e f313 113d 305c 82be
00000120: 194e ef3e c073 97bc a436 8d3d db53 963e
00000130: 6a7a ffbc 57b2 93be ed73 dfbe 39de 363e
00000140: e02e 09be 5109 78be f27a cabc 0c06 1b3e
00000150: 9fd1 1c3e 4f45 553d d5b8 f2bd d825 80be
00000160: 472c 933e 39ec c93e 5e99 82bd 2b52 873d
00000170: 9764 bf3d 6947 fcbe 403c b839 6d15 a63d
00000180: 7e9f 1d3e 9bde 28bf 352a 253e 0cfe a8be
00000190: b8cc 973e 2ad2 5a3d 401e 3c3d 3550 bdbe
000001a0: 3dfd 0ebd f948 92be 1587 af3c dcff e43d
000001b0: 6f5b 3cbe 1bc0 e73d 8cf4 823e 502e cfbc
000001c0: 31d2 273e a942 85be 2db6 7c3c caf4 613e
000001d0: 3359 ea3e 6119 1a3d 52aa 823e 0628 ab3d
000001e0: 7c72 6f3e 79ec 3c3e 9a08 4a3b d3bb c33e
000001f0: c611 bb3e 6a9d 76bd 9e24 423d 9d2c a53d
00000200: 68e0 1bbe ff63 92be 3c4c 8ebe 0c87 4d3c
00000210: fa0f 033d 277c e83d b235 503e 797f cbbe
00000220: 98a2 c93c 2382 0a3e 3af0 833e 7de6 5dbe
00000230: b74f 573e cff9 8a3e 3d71 3b3c 05d0 283e
00000240: 536d 893d 0b0c c43d e9f8 0d3e e34a 3ebe
00000250: dba0 8f3d 5761 353e 1e66 91be cc3e 8abe
00000260: 1395 d73b e6ab 133d be36 d53b d3ab 06be
00000270: ed62 763e d675 8bbe 17e5 2439 86d0 9c3d
00000280: 62a3 c7be 96d2 bd3e 08cc 79bc 5d45 253e
00000290: 39d7 debc bcaa b2bd 72d2 043e 7b1c bc3c
000002a0: 723a 7abe 4044 0abf 3a01 d13d 676a f83e
000002b0: 0a70 b4bd 1c7c 3a3e 2b95 243e 8ae1 febe
000002c0: 830b b8be 2ef3 cabd f2c5 e53c 980d c63d
000002d0: b7e0 64be 9657 8abe 5356 1f3e 07e1 d23d
000002e0: 5f27 7abe 1867 63be f714 bb3e 82f2 a43c
000002f0: 5440 6a3e 4bbd 833c c171 d2be f628 bcbd
00000300: 96ed 5b3e 775d 71bc 9aae a63d 1936 8bbe
00000310: d4d4 0dbe 1576 ee3d 2f4c 5c3d 5ef5 0e3e
00000320: ef25 7e3e d9e8 e9bc f0c0 103d 0c74 a2bd
00000330: b83e 573e c508 afbd 9716 94be 5c8f fabc
00000340: 096f 9dbe b4a1 b23e 19f0 9c3d 659f d63d
00000350: 3fbc 433d d637 61be c00f d83d 9527 90bc
00000360: bfd7 9b3e acad d1bd df9c a43d 5ebf d1be
00000370: 4dd7 8c3e e786 8a3e 5428 6cbe 3e70 d23e
00000380: 5ba6 0abe fbae 523e 828f e73d d320 593e
00000390: 61fa c83c 7074 2e3d 676b c3be 5a5b a43e
000003a0: 8019 1f3e a63c 493e 5495 88bd dfac a73c
000003b0: 9ec3 60bd 98fd b0be 4446 51bd aaea 99bd
000003c0: 68bc b83d 3ae1 69bc 056f c33d 9b91 943e
000003d0: efdc 08be bef3 283d 38a5 973e f3af 843c
000003e0: 4faf 583e 64e8 53bc 3962 06bf 70ff a53e
000003f0: ab84 54bd 91de b73d d601 e43e 0422 13be
