CRL_human_AI_overcooked/human_models/model_many_orders/actor_best_r4.pt (torch, 426323 bytes, 20 tensors)

base.cnn.0.weight f4 [32, 26, 3, 3]
00000000: 5dd4 fbbd baa6 b23e c526 3b3d 44e3 c23d
00000010: 3bf2 6bbc 5365 5f3e dc04 b73d 2a69 e53d
00000020: ec2d 90bd 0421 90bd f0fa e4bb 7c10 7abd
00000030: 785a b33d 3847 f6bc de54 c0bb 8223 3dbc
00000040: 2b74 b8bd d54d 8bbd f6c7 95be db90 cc3d
00000050: d66c c6bd 298a 683e 314c a2bb 0903 093e
00000060: b303 7d3e 744d 663e db08 ba3d d0f7 07be
00000070: dd38 a53d addd 98bc fd06 223e f2bd be3d
00000080: c235 80bd 501f 38be 02dd d23d a804 223d
00000090: c870 f63d d101 a6bc 0482 f3bd 83da 1fbe
000000a0: e8de 2f3d 412b 48be 7d45 d3bd 1d4e c73d
000000b0: d2a6 97bd 369d 4dbe 0603 483d a8c1 523b
000000c0: 72a0 b1bd e38f 57bd 1b87 e33d 948a 14be
000000d0: 6ad1 743d b7c2 74be a59e 05be a0fb c23d
000000e0: 7820 2aba 24af 653e cae6 53be 0ff2 4b3e
000000f0: 752b ba3d 0447 02be cfe5 dd3c 9647 4c3d
00000100: 2ca5 72be 5dbb 5bbd b410 0dbc 3cda 6fbc
00000110: 4320 2b3d e25d 89bd a915 2ebd a118 c0be
00000120: db14 7b3d f506 cdbd df03 863d f790 2cbc
00000130: 6909 b73d 593d fcbc 8f29 533d ccb7 08be
00000140: d3f7 313d 71ad 0bbe f6bf 88be ee73 86bd
00000150: 05b6 98bb a09e f8bd ca77 a0bd 795b b3bd
00000160: 0387 463c 7f4b aa3d 3da6 823d fe58 453d
00000170: b702 dabd 8376 1bbb 85e8 09be 543c 113e
00000180: 9689 433d 55ae 1f3e 92c2 6f3c 2ec6 973d
00000190: 4052 4e3d 89e4 52bd 6560 49bd a733 0f3d
000001a0: e0d7 5cba 921f 9dbe 0d82 003d 0a77 0fbe
000001b0: d2c5 af3b 5180 873d 660c 8c3c ff98 3ebe
000001c0: c973 08bc 7245 27bd 2aab 9d3b f918 d63d
000001d0: cfc1 aabc e244 403e 1ba4 863d 0228 a1bd
000001e0: 3a00 d5bc f375 063d 9d20 693e 746d d5bc
000001f0: 43b8 00bd 6a5f 79bd 21b6 023e efb5 a53d
00000200: 4574 653d 655d 30be 8f8e 173d b762 2d3b
00000210: 4d72 0dbe 6690 003d c5c7 6dbd e99d 05be
00000220: cda2 0ebe 64d4 173e 5a16 5f3d 7e90 8ebc
00000230: 9a66 d8bb 34d1 173e 0b11 3abe 1e7f 10bd
00000240: ce86 8e3d 7ae6 063d cea3 0fbd e6e4 22bd
00000250: 45b5 0f3e 3ee3 a4bd c85e c6bd dafe bfbb
00000260: 7147 bbbd 6b85 a93d 1650 50bd 8772 5dbe
00000270: 3940 b13d ecaf 80bc c9fe 8ebd 1986 1ebd
00000280: 4e43 d9bc cb81 10bd 13d2 813d b463 553e
00000290: 8fc3 bdbd 4163 53be e9b0 1cbc 6da2 d1bd
000002a0: eea9 85bc fc3d b43c 968f 1bbd 1dee e83c
000002b0: 30f2 713d b6c9 0f3d cc87 7c3d d162 cebd
000002c0: c1df d13d 8237 febd 2802 99bd 5d70 8c3b
000002d0: 4696 22bd 462e 9bbd a277 953d 9e68 293d
000002e0: 7eb6 e53c 9713 263e e625 b73c 98b7 3cbe
000002f0: 0385 353e 753e 053d ed5c f4bd ed8b d33b
00000300: e51b 43be d766 2c3e b6ed 133d 57cb 8bbd
00000310: 1357 36be edbd 113e e079 f03b 0dfa 6dbd
00000320: 7d76 f5bc 069e 8e3e c39e babd 749a fbbc
00000330: 8a0a 36be 35de 35be 8c3d 8e3d c9b8 183c
00000340: 48b7 07be 48bd cdbd b98a 5dbd a48a 3d3e
00000350: b51a a0bd e690 00be 4555 223e ae9c 0c3e
00000360: 70c5 42bc 1d19 743a 325b f03c fcd2 083d
00000370: 43ee 8bbd 2acd 21be d03a a9bd 7ea8 b33d
00000380: 40d4 bd3c 68b2 46bc 5d0a 6fbe 179d ffbb
00000390: f343 483d 5e8e ba3c 3d61 6d3d 3d6a 43bc
000003a0: e2d2 b1bd b9d6 753b 9a77 6b3d d383 89bd
000003b0: 21a3 8a3d c65f 8fbd efa8 753e 2446 bf3d
000003c0: b25b db3c ee70 88bd da1f 253e 03ac 2abd
000003d0: 4d95 62be e012 53bd 24f6 23bd 956f 24be
000003e0: 58c4 c93d 62f8 bf3d 5683 f93c 1cf5 c53d
000003f0: 998b 913d 58f1 8dbd ecbc de3d e5fb f13d
-0.122963645 0.34892827 0.04569127 0.09516004 -0.014401014 0.21815996 0.08936474 0.11201699
-0.07040009 -0.07037547 -0.006987922 -0.061050877 0.0875749 -0.030063257 -0.005869492 -0.01154411
-0.09006532 -0.06801955 -0.2925412 0.099885665 -0.096887276 0.22708954 -0.0049529304 0.13380064
0.24708442 0.22490484 0.0908372 -0.13278127 0.080674864 -0.01866039 0.15822978 0.09313573
-0.062602535 -0.17980695 0.1029606 0.03955522 0.1203323 -0.020264538 -0.11890033 -0.156107
0.04293719 -0.1954775 -0.10315988 0.09731696 -0.07404865 -0.20079502 0.04883101 0.0032158885
-0.08673181 -0.052627455 0.11109754 -0.14505988 0.059770025 -0.23902403 -0.130488 0.0952065
-0.00064898236 0.22430092 -0.20693508 0.19916557 0.0909032 -0.12722403 0.02708712 0.049872957
-0.2369582 -0.05364548 -0.008609939 -0.0146394335 0.041778814 -0.0670736 -0.042501125 -0.3751879
0.061299186 -0.100110926 0.06543707 -0.010532609 0.08937342 -0.030790972 0.051553305 -0.13351363
0.043449234 -0.13640381 -0.26708955 -0.065650806 -0.0046603703 -0.1213963 -0.07835348 -0.087576814
0.01211715 0.08315181 0.06379364 0.048180573 -0.10645049 -0.0023721762 -0.13467605 0.1418317
0.047738634 0.15593846 0.0146337915 0.07410847 0.05037141 -0.05148748 -0.049164195 0.03496137
-0.0008424502 -0.3068815 0.031374026 -0.14010254 0.005364158 0.06616271 0.017095756 -0.18613051
-0.008328387 -0.040837713 0.004811664 0.10453982 -0.020844368 0.18776277 0.065742694 -0.07868959
-0.026001085 0.03282733 0.22766347 -0.026053168 -0.031425726 -0.06088201 0.12764789 0.08091342
0.056019086 -0.17223127 0.03700119 0.0026456544 -0.13813134 0.03138771 -0.058051843 -0.13048519
-0.13929291 0.14827114 0.054464675 -0.017402884 -0.006604028 0.14825898 -0.18170564 -0.03527748
0.06959306 0.032934643 -0.035068326 -0.039769076 0.14033993 -0.080511555 -0.09686047 -0.005859238
-0.09144486 0.082774006 -0.050857626 -0.2162572 0.086548276 -0.015708886 -0.0698219 -0.038702104
-0.026521351 -0.03528003 0.063388966 0.20838815 -0.092658155 -0.20643331 -0.009563663 -0.102360584
-0.01631638 0.022002213 -0.03797873 0.028433854 0.05906886 0.035104476 0.061652943 -0.100774415
0.10247756 -0.12412931 -0.074711144 0.0042858557 -0.039694093 -0.07577185 0.07298209 0.041359536
0.02804112 0.1621841 0.022356939 -0.1842941 0.17726521 0.032530267 -0.11931787 0.0064558894
-0.1905361 0.16836105 0.03611537 -0.06825893 -0.17806654 0.14232607 0.0073387474 -0.058099795
-0.029963726 0.27854937 -0.09112313 -0.030713297 -0.17777458 -0.17760547 0.06945333 0.0093214
-0.1325351 -0.10045868 -0.054087374 0.18509918 -0.07817594 -0.12555274 0.1585284 0.13731644
-0.011887893 0.00093116035 0.02934036 0.033404335 -0.06832554 -0.1580092 -0.08263171 0.08772372
0.023172498 -0.012127496 -0.23343797 -0.007800709 0.048892926 0.022772964 0.05795406 -0.011927185
-0.08682801 0.0037512018 0.057487108 -0.067145966 0.067693956 -0.07000689 0.23990224 0.0933955
0.026777122 -0.06662165 0.16125432 -0.04166795 -0.22127266 -0.051531672 -0.04002966 -0.1605819
0.09851903 0.09373547 0.030458134 0.096658915 0.07106704 -0.06930798 0.10875878 0.11815623

base.cnn.0.bias f4 [32]
00000000: 6123 7abd e087 823d 8869 61bb 14ed 2c3b
00000010: 6835 30bd 63ef 5ebd fdae 93bc 59b2 1e3c
00000020: 6ae1 22bd cd30 68bd ea69 7fbd 8345 9dbd
00000030: ca9d 8fbd 2dae d0bd eaca 863c b59e 4c3c
00000040: 476e 97bd 67de d6bd cd19 21bd 174e 07bc
00000050: 2275 18bd 25cd 71bd 66ac 013d b24b 82bd
00000060: db7d 233c 067b e03c 9150 7ebd ae14 b3bd
00000070: 0b00 e6bc 9959 70bd 54f1 62bc fa41 d9bc
-0.061068896 0.06373572 -0.0034395177 0.0026386427 -0.043019682 -0.054427516 -0.018027777 0.009686076
-0.039765753 -0.056687165 -0.062356867 -0.07679274 -0.07012518 -0.101894714 0.016454179 0.012489011
-0.073940806 -0.10491639 -0.039331246 -0.008258364 -0.03722108 -0.05903353 0.031658553 -0.06362094
0.009978737 0.027402412 -0.062088553 -0.08744179 -0.028076192 -0.058679197 -0.013851482 -0.026520718

base.cnn.2.weight f4 [64, 32, 3, 3]
00000000: 7f61 603d b9ed 5b3c 7fb0 173e 5e6e c3bd
00000010: 7122 643c 4a16 79bd 9408 a43d 23fb 6abd
00000020: 672c 1b3e 8564 a9bc 941e bfbd 3e2b 983d
00000030: 6e9f e53a c561 b0bd 30f1 313e c4a6 a23d
00000040: af5a 86bd a79e 7d3d 4dbc 72bc a478 3ebe
00000050: f72e debb 875f a93c c4a9 95bd 1272 f1bd
00000060: 5244 ca3d 4daf 80bb df78 fd3d 4678 65be
00000070: 4637 70be 5a6f 5dbe 3941 55bd bace 70be
00000080: 055b afbd 03fb e6bd bed0 273d 219d 283e
00000090: 2f57 ab3d f812 08be cd27 a43e db1d e53d
000000a0: 2763 f6bd 9700 8dbc 5926 afbc 415a ebbc
000000b0: 29c4 0c3e 9233 a43b 55e0 18bd d5e5 463d
000000c0: 0e08 763d c0a6 1dbe ab57 8b3c 9fc7 0e3d
000000d0: b5bf aa3d 57f2 6c3d c1ba 75bd 9434 7abe
000000e0: 14af 9d3b ce71 3bbe 5d28 e53d f545 39be
000000f0: 2ce7 9dbc a011 a0bd 4ed7 2d3d f62c 34be
00000100: 0454 973d 9518 f83d cee8 05bd 0e3e 823c
00000110: 800e f8bd 0c40 f03c a861 963d b178 223e
00000120: 37ad 1ebe f46e 22bd 5ec7 a5bd acfb 0abe
00000130: ae35 05bd bc8b 4bbc d7f2 84be 9ea1 18bc
00000140: 24d3 7b3d 2c86 06be 8005 41bd 56e9 083e
00000150: 36c2 bbbd 14d1 43be 6250 bcbd 1007 04bd
00000160: 43ce 13bd 4a8e d0bb 14fb 713e d506 2dbc
00000170: 0425 1fbd 4373 16be 9f85 bd3d 1e51 4e3c
00000180: 0379 3bbd 8fd4 e8bc 2bad 84bd 934e c6bd
00000190: 0efe a93c be82 e23d f4d3 dd3b 5d63 bbbd
000001a0: f056 a0bd 31ab 733c 2e10 89bc 583d 92bd
000001b0: 7980 58bd 7158 02be 795f 1fbd 2c7e b0bc
000001c0: a62c e03d adee 8dbc 1405 0d3d 4b57 6c3c
000001d0: c497 3d3e 9394 d93d dcfd 683c 4d2f 6a3e
000001e0: 59bb 2bbe ffe9 c03d 1ab1 9fbc 1df1 4abd
000001f0: e1bf 423e 6f80 cb3d 60d7 f93c b781 1b3c
00000200: 9e23 cd3d f68a f43d baf5 553e 3912 683e
00000210: abd3 963d 6ced 693c ad5e a2bd 5d27 14bd
00000220: a9e7 d6bb d90a 65be 273e 07be e9c9 e73d
00000230: 2504 9d3d d40e 15be 7ade 503d df99 5abe
00000240: 0d91 90bd 63c8 81bd 7b5c ea3d 0f83 6b3c
00000250: c275 75bd c84b d93d 8162 033d 0b1b 52bc
00000260: 00b9 ec3d 3dfc dfbc 613d 58bb 9cd5 a2bd
00000270: 79fc 8f3d e27b c63c e8af 52bd 515b 813d
00000280: 5389 d43d 47af 053e 1a47 1dbe 5bcf 3f3e
00000290: 179a a83d ba9c 8ebc 705a 2ebc aa06 88bd
000002a0: dd8f ac3c 4a6f f43d 1a6f 423b 9aa4 7e3d
000002b0: 1ea2 a23c cb25 87bd 4fcd f4bb 2ddb b63d
000002c0: 35ba 41bd 325a 053d 1aa2 87bd 5f95 1a3e
000002d0: 304c 8abd c5a3 c0bc d5d5 893d 4ba7 423c
000002e0: c009 3a3e 90ee b23d 8ed5 103e b778 02be
000002f0: a79f 76bc 5d24 783d 4733 8cbc d38e 1ebe
00000300: b571 22be aa54 ca3d 204a 0d3d 5253 09be
00000310: 371f 36bc c986 4b3c ef1f b03d a6c1 64bd
00000320: 6821 eebc cf4d 2cbd c6cc b4bd cc8f 07bb
00000330: a0b3 143d e979 673b 659f e33d f99e b8bd
00000340: 3b31 d8bd bd1b 5f3c 7634 18bd 9794 d4bc
00000350: 27df 0b3d 1bd0 84bd d06a 643d 4855 f5bc
00000360: 3fe7 dcbd af9d d73c 50f4 a33d b47d 953d
00000370: 86ba 41bc 018c 8b3d 158f 463e 225d ed3d
00000380: b7b4 0bbd b700 74be 4e8a 3abd d8c2 43be
00000390: f761 ff3d 02f9 4dbc 6bea be3d b24b 5f3b
000003a0: 0943 f33c eda6 61bc 62ba 133e 66ff 0cbe
000003b0: 82c2 c4bd 7ce4 543d 05ee 483d 36dc ef3c
000003c0: fd85 22be eaa2 183e 69fa 1a3c c7ec 693d
000003d0: d1b7 213e ea6e 963d fea6 6abd 4150 9a3a
000003e0: 2d0f 48bd 77a6 a2bc f6a2 55bd 5e15 3cbd
000003f0: aa84 97bc 0d4d 513d fb29 7ebd 0c73 aebd
0.05478048 0.013423377 0.14813422 -0.09542535 0.013924227 -0.060812272 0.08009449 -0.05736841
0.15153657 -0.020677814 -0.09332004 0.07430123 0.0017518827 -0.08612398 0.17377162 0.07941964
-0.06560265 0.06191888 -0.014815402 -0.18600708 -0.006780501 0.020675434 -0.07307771 -0.11789335
0.09876312 -0.0039271475 0.1237657 -0.22409162 -0.23458585 -0.21624509 -0.052064154 -0.2351636
-0.085622825 -0.112783454 0.040970556 0.1646619 0.08366238 -0.13288486 0.32061616 0.11187335
-0.120306306 -0.017212195 -0.02138059 -0.02872956 0.13746704 0.0050110305 -0.037323315 0.04855903
0.060066275 -0.15395641 0.017009577 0.034858342 0.083373465 0.0578483 -0.059992556 -0.2443412
0.0048121307 -0.18305132 0.11189339 -0.18093093 -0.01927527 -0.07815862 0.04244166 -0.17595276
0.073890716 0.12114064 -0.032692723 0.01589873 -0.12112141 0.029327415 0.07342845 0.15866353
-0.15495764 -0.039656594 -0.08094667 -0.13572568 -0.032521896 -0.012423452 -0.25966522 -0.009315876
0.061480656 -0.1313712 -0.047124386 0.1337026 -0.09167902 -0.19122726 -0.09195019 -0.032233298
-0.03608538 -0.0063646184 0.23630935 -0.010560711 -0.03885366 -0.14692406 0.09254002 0.012592582
-0.045769703 -0.028421668 -0.06478342 -0.096829556 0.020751026 0.11060093 0.0067696515 -0.091498114
-0.07829082 0.014872358 -0.016731348 -0.07140607 -0.052856896 -0.1272905 -0.03890941 -0.021544538
0.10946016 -0.017325724 0.03442867 0.014425109 0.18514925 0.106240414 0.014220681 0.22869606
-0.16770686 0.09419631 -0.019493628 -0.04954635 0.19018508 0.09936606 0.030498207 0.009491376
0.10016559 0.11940567 0.20894518 0.22663201 0.07364591 0.014277797 -0.07928214 -0.036170352
-0.0065583778 -0.2236742 -0.13207303 0.11317808 0.07666806 -0.14556438 0.05099342 -0.2134776
-0.07058916 -0.06337049 0.114434205 0.0143745085 -0.059926756 0.10610157 0.032076363 -0.01282383
0.115587234 -0.027341956 -0.003299557 -0.07950899 0.07030577 0.024228994 -0.05143729 0.06316245
0.10377755 0.13055144 -0.15359154 0.18731444 0.08232515 -0.017408717 -0.010641679 -0.06641896
0.021064693 0.11935289 0.0029668272 0.062168695 0.019852694 -0.06599005 -0.0074707638 0.08928523
-0.04729672 0.03255672 -0.06622715 0.15096043 -0.06752813 -0.023515591 0.06730238 0.011880706
0.18167782 0.087369084 0.14143965 -0.12741362 -0.0150527125 0.060581554 -0.017114295 -0.1548417
-0.15863688 0.0987943 0.03449452 -0.1341069 -0.011115841 0.012422272 0.08599841 -0.05584874
-0.029068664 -0.04206639 -0.0882812 -0.0020685075 0.036304116 0.0035320467 0.111143865 -0.09014697
-0.10556265 0.013617453 -0.037159406 -0.02594976 0.03414836 -0.064850055 0.055765927 -0.029947892
-0.10786294 0.026320307 0.08005583 0.072993666 -0.011824256 0.06813813 0.19390519 0.11590029
-0.03410789 -0.23828398 -0.045542054 -0.19117296 0.12469857 -0.012571575 0.093220554 0.0034072218
0.02969505 -0.013772708 0.14426568 -0.13769302 -0.09607412 0.051975712 0.049055118 0.02927981
-0.15871425 0.14905897 0.0094591165 0.057110574 0.15792777 0.07345374 -0.057288162 0.0011773185
-0.048842598 -0.019854767 -0.052157365 -0.045918815 -0.018495876 0.051098872 -0.062051754 -0.08518037

base.cnn.2.bias f4 [64]
00000000: 9775 223d 5383 babc 053a b3bc 6f4d 1ebc
00000010: 6842 65bb 5230 d7bc e6ac 8cbd f1d6 09bd
00000020: 50f2 cabc d3c3 3a3c 6477 3fba 4bf3 1cbc
00000030: 02a3 aabc b6f2 18bd 9c1d f2bc 395c 643c
00000040: ca3e 34bd 26af dabc 3aad 38bb 22e0 93bd
00000050: 669f dabc e5c4 64bc 6d01 8bbc e152 eebb
00000060: d560 6039 9632 0dbd 3084 0abd 6bb8 93bb
00000070: fd06 17bd 8edf 523b 3905 adbc e7a2 85bc
00000080: ae88 87bc b97e 2fbd 8dde 86bb 644e df3c
00000090: 6dae ffbc 4fa8 93bb 8546 76bd cb79 fcbc
000000a0: b949 29bd 0468 61bb 1274 19bd 68d6 aebc
000000b0: ecfa 47bd 1ccf c2bc 4019 5ebd 09ed a2bc
000000c0: 4e33 7dbc a0bf c1bc 4fd7 43bd f79b 763a
000000d0: 3ae7 4b3b ee96 5a3c e97e 333c 1256 8ebd
000000e0: d081 cabc c1d6 02bd 77a6 03bd 0513 383c
000000f0: 0f9a 90bc 9cdc dcbc 17c6 16bd 42b6 5fbd
0.039662924 -0.022767698 -0.021878252 -0.009662016 -0.0034982208 -0.026268158 -0.06868915 -0.03365225
-0.024773747 0.011399227 -0.00073038624 -0.00957949 -0.020829681 -0.037340842 -0.029555134 0.013938003
-0.044005193 -0.026694845 -0.0028179423 -0.07220484 -0.026687335 -0.013962959 -0.016968453 -0.0072730635
0.00021398377 -0.03447207 -0.03381747 -0.0045080683 -0.0368719 0.0032176706 -0.021120654 -0.01631303
-0.016544666 -0.04284546 -0.0041158856 0.02725906 -0.031211102 -0.004506148 -0.060125846 -0.030819794
-0.041330073 -0.0034394274 -0.03746421 -0.021342471 -0.048823282 -0.023780398 -0.0542233 -0.019888418
-0.0154541265 -0.023650944 -0.047812756 0.0009407396 0.0031113164 0.0133416485 0.010955551 -0.0695001
-0.024720103 -0.031943087 -0.032141175 0.011235003 -0.017651586 -0.026960663 -0.036810007 -0.054617174

base.cnn.4.weight f4 [32, 64, 3, 3]
00000000: 3d5b b7bd 2844 0e3e b519 913d c79c 5b3d
00000010: 4f37 f5bd 1210 d9bd 8550 42bd 732f 673d
00000020: ddbd 453d cf73 45bd a129 51bd e769 d8bd
00000030: 62df 233e 31ad 84bc f0c0 a43d b6aa 0ebd
00000040: ef6f 3fbc 4bc8 0abe 68dc 253d 34f8 473d
00000050: e202 2bbd 3489 a5bc 8e1c babd bff4 b93c
00000060: 9fc3 7e3d 2f5c b4bd 3c6c 913d c23e f0bd
00000070: bdda 8ebd 76e5 dbbb 4623 20bd 7844 05be
00000080: 892b e2ba e898 f43c b95d 16bd ec7b 253d
00000090: b35f b43c 09d9 9abc 887f 27be 051b c93b
000000a0: ae43 35bc e0c2 283e 2103 c8bd 7ed0 adbd
000000b0: e4d1 0fbd ea0e 45be ffd5 efbd bd3d 77bd
000000c0: 2bf7 003d 603e b9bd e34a 573c 31fa cabd
000000d0: 1e10 c93d 037a dfbc b4fa b53c ee78 24bc
000000e0: 2ce6 c03b c556 a73d db4d 8dbc b3bf b23d
000000f0: 5dbc 20bd defd eb3d 980f 423d 4c46 4dbe
00000100: b02a b9bc a8de 8e3c 6694 82bd d0b2 843d
00000110: b9b6 43bd 5c82 043c eb3a 34bc 7740 a7bb
00000120: 0b78 9dbc aedd 68bd fc04 69bc 8135 81bd
00000130: 6958 963d 95d2 d2bc 7f3a 14be 4785 b2bd
00000140: 05e3 473d 623e c6bb 6710 abbd 13bb 663d
00000150: 3ce7 dbbd a390 793d 9b8b 9b3d 78d3 a2bd
00000160: ae68 b6bd 2165 98bd 5b96 5cbe efd2 a03d
00000170: 378b 233c 72c6 553e 02c3 6abd cfe8 ffbd
00000180: 8dcc c7bc f5bd c13d 52b8 74bd 4d82 253e
00000190: e4be 253b 72aa f8bb 9617 393c 53c0 d9bd
000001a0: d279 81be 541a 503b 6ff6 e43c eb23 d5bd
000001b0: ce57 123e 058c cebb 7119 ec3d dbec cb3c
000001c0: f002 37be 57a6 823c d334 a03d aaed e5bc
000001d0: 4421 e23c 56c1 a73d 4539 3a3c 6a46 8d3d
000001e0: 1ce6 863d b413 cc3c 5ef4 85bc 0fcd 2d3e
000001f0: 151b 3abd 3da4 3c3d ee59 13bc fe80 b93c
00000200: 8e70 b53c c46e 08be f257 b23d 9437 21bd
00000210: 5a85 e63c beb2 bfbd b19b 00bb 90ca 26bd
00000220: 78ce dd3d 986a 08bc 2c1e 3cbd 6d80 a2bc
00000230: ab95 c5bb c42b e33d 1eaa 873d 291f ab3d
00000240: f928 963d cd25 b5bd b146 d93d 28ca cd3d
00000250: 309a 1ebd 1fcc 223c bbfa 3abe 3279 c83d
00000260: 9fec c73d 5421 7cbd 03c3 c9bd 73fc 3e3d
00000270: 679d a43d 0cc2 203d e66e 5ebd f0b2 a5bd
00000280: acea 2d3d 3751 25be 2477 4fbe c45f 1ebb
00000290: d5c6 173d 6a0f 16bd 4a93 a0bd b1be 01be
000002a0: 2fc6 debd 5019 173d 3e26 e83c d5c8 c6bc
000002b0: b677 27be 6518 17be 4d60 d63d 2862 d1bd
000002c0: fa6e 34bd c0cc 903d bb6c 563a 5653 a5bd
000002d0: e36d 9cbd 9b96 27bd 2296 63bd af23 913d
000002e0: b619 913c 8689 233d 4c77 773c f222 61be
000002f0: 565b 233c adc6 04be de30 5b3c 4670 a7bd
00000300: 98ff a1bd 6cd2 0e3d d9f0 163e 7cfa 53bd
00000310: ca7a 1fbd f3df fdbc 03fb b33d 9b44 88bd
00000320: e6ba ce3d af87 9dbd 84c5 89bd 4695 0d3e
00000330: fd21 22be c41a 0bbe 00c5 f0bd 8866 dabd
00000340: bfe3 533d ac8a ad3c e740 c43d 9605 273c
00000350: ee06 45be 6140 1a3d ffe8 dcbd 20e1 bd3d
00000360: d7ee 32be 277e bdbd 672b 833d cd7b f9bd
00000370: 6fcc 17be f94e 3cbe 6089 593d 6d63 62bd
00000380: 576b 033b a541 ad3c 96c3 62bc 3f11 643d
00000390: fb70 453c de78 68bd 8421 87bd 395c 523d
000003a0: fb30 cf3d 8061 3a3e 314b 683d 4409 f9bd
000003b0: 0848 1b3e 338c f0bd e290 bc3c 86d3 393e
000003c0: 6041 f93c 81e7 d13c ec15 1dbe 6a70 1f3d
000003d0: 6428 3b3e 4536 d93d 466c 1abe b2d0 1ebe
000003e0: 6a29 633d 50d9 c23d 57cd f7bc 1c75 523d
000003f0: 0a4a 44bb 7c8f fc3d ef00 e3bd cb4d 1cbd
-0.08952949 0.13893187 0.07084981 0.05361631 -0.1197344 -0.10598768 -0.04744007 0.056441735
0.04827677 -0.048206147 -0.05106509 -0.10567074 0.16003183 -0.016195865 0.080446124 -0.03483077
-0.011684402 -0.13552968 0.0404934 0.04882069 -0.041750796 -0.020207025 -0.090874776 0.022699712
0.062198278 -0.08806645 0.07100722 -0.1173072 -0.06975315 -0.0067107035 -0.03909614 -0.130144
-0.0017255406 0.029858068 -0.036710475 0.040401384 0.02201829 -0.018902319 -0.16357243 0.006137254
-0.011063499 0.16480589 -0.09766222 -0.08487032 -0.035112277 -0.1924397 -0.117107384 -0.060361613
0.031485718 -0.090451 0.013140413 -0.099110015 0.09817527 -0.02727986 0.022214271 -0.0100385975
0.0058868136 0.08170847 -0.017249038 0.0872797 -0.039242137 0.11523031 0.047378153 -0.20046347
-0.022603363 0.017440155 -0.06375961 0.06479418 -0.04778168 0.008087721 -0.011000375 -0.0051041204
-0.01922228 -0.056852035 -0.01422238 -0.06309033 0.07341082 -0.025735179 -0.1447544 -0.08716827
0.048800487 -0.006049917 -0.08352738 0.05633075 -0.10737464 0.060928952 0.07594987 -0.07950491
-0.08906685 -0.07441164 -0.21541731 0.078527324 0.009981922 0.20876482 -0.05731488 -0.124955766
-0.02438953 0.094600596 -0.059746094 0.16162987 0.0025290782 -0.007588678 0.011297127 -0.10632386
-0.25288254 0.0031753974 0.02794954 -0.104072414 0.14291307 -0.0063033127 0.1152829 0.024893215
-0.17872214 0.015948458 0.078225754 -0.028067429 0.027603753 0.08191173 0.011366193 0.06898196
0.06586859 0.024911739 -0.016351875 0.16972755 -0.045435984 0.046055067 -0.008993609 0.022644516
0.022148397 -0.13323504 0.087081805 -0.039359644 0.028139759 -0.09360264 -0.001962405 -0.040720522
0.108303964 -0.008326195 -0.04592721 -0.019836629 -0.0060298047 0.11092332 0.06624244 0.08355553
0.07332034 -0.088451006 0.106091864 0.10048324 -0.038721263 0.009936362 -0.18259709 0.09788741
0.09761929 -0.06155522 -0.09851649 0.046627473 0.080378346 0.039247558 -0.05430498 -0.0809077
0.04246013 -0.16144262 -0.20260292 -0.0024165967 0.037054855 -0.036635794 -0.07840593 -0.12670399
-0.10877644 0.036889374 0.028338548 -0.024265686 -0.1635426 -0.147554 0.10467587 -0.102238
-0.044051148 0.07070303 0.0008179654 -0.08072536 -0.07638147 -0.040915113 -0.0555631 0.07086884
0.017712455 0.039926074 0.015104126 -0.21985987 0.009970507 -0.12966414 0.01337835 -0.08175711
-0.07910079 0.034868643 0.14740314 -0.051752552 -0.03893546 -0.030990576 0.08788111 -0.066537105
0.10094242 -0.07691895 -0.06727126 0.13826475 -0.15833278 -0.13584429 -0.11756325 -0.106640875
0.051730867 0.021184288 0.09582692 0.010194203 -0.19240925 0.037659053 -0.10786628 0.09271455
-0.17473923 -0.09252577 0.06404763 -0.12181816 -0.14824079 -0.183895 0.053109527 -0.0552706
0.0020052993 0.021149466 -0.013840577 0.05568051 0.012050862 -0.056755893 -0.065981895 0.05135748
0.10116764 0.18201256 0.056712333 -0.121599704 0.15164196 -0.11745491 0.023018304 0.18147096
0.030426681 0.025623085 -0.15340394 0.038925566 0.18277127 0.10606054 -0.15080366 -0.15509298
0.055459417 0.09514105 -0.03024928 0.051381215 -0.0029951357 0.12332055 -0.110841624 -0.038160127

base.cnn.4.bias f4 [32]
00000000: 841d b8bc fe68 39bd 1ac0 36bd 2aa2 28bd
00000010: 725a d1bb 748e a5bc dd70 babc 12b4 85bd
00000020: e8f7 3dbd d699 c2bc d377 2ebd 2ce3 b9bc
00000030: 0e94 e5bc c3a8 28bd b2cd 00bd 1c10 46bb
00000040: e0e9 81bc 70b5 3bba 7758 d5bc 05e0 5dbd
00000050: b7a1 61bc 7491 c43b f38e 66bc 52a3 a5bb
00000060: bb1b 0fbd 9056 64bd 3b94 a73b 6d90 1ebd
00000070: 71b0 90bd a7b7 89bc c156 9cbc b248 3abd
-0.022475012 -0.045266144 -0.044616796 -0.041170277 -0.0063889557 -0.020209529 -0.022758896 -0.06528486
-0.046379 -0.023754995 -0.042594742 -0.022691332 -0.0280247 -0.04117657 -0.031446166 -0.0030222004
-0.01585859 -0.000716052 -0.02604316 -0.05416872 -0.013771466 0.0059987847 -0.014072168 -0.0050548697
-0.034938555 -0.055746615 0.005114106 -0.038711954 -0.070649035 -0.016811205 -0.019084336 -0.045479484

base.cnn.7.weight f4 [64, 800]
00000000: 59ae 12bd f19e 86bb 4141 5dbe 3921 8abd
00000010: 7b6d 95bd 240f 813d 585c 023e e74d 0c3e
00000020: bac9 443d 31f5 adbc 51d3 ce3d 4c7d d83c
00000030: 02d3 a0bc 4145 d7bd 5459 c0bc 4852 82bd
00000040: ed24 cd3a d65e 8a3c cd02 00bb 75a0 86bc
00000050: 5a63 653c e1fc 833d bc43 a9bc c51a 0dbc
00000060: b373 153d 904d cebd 5dde c7bc e72f 78bd
00000070: 7cae 6d3d 9581 0bbe e001 c7bd 1dd0 0f3e
00000080: 8c1d 30bd 1b4d bbbc cb75 26be 8836 c9bd
00000090: 8c3f 2abc 2930 72bd 6b7b 913c 255a 3dbd
000000a0: d8b2 04bd 8116 e0bd c843 d038 65f7 023e
000000b0: 367f 403d 9798 0d3d 5ca1 debd 4d9c 733d
000000c0: 9c6c 873c be11 d23d a358 74bc 3295 083d
000000d0: 5748 f5bd 2219 0f3b 555b d13c 0f0c 43bd
000000e0: 54d9 acbc ff6f 6cbd e406 c2bd 8eb1 9e3d
000000f0: 5fa7 90bc 6e8f 11bd e6bf 65bd e3a7 883c
00000100: 590a 09bd 2d80 773d d6f3 ad3c 9d5f 37be
00000110: fccc 8ebc 2db7 b73c b566 fa3c 72ab 253d
00000120: 46bd 1fbe 2510 113b 2bcc 113c c546 033d
00000130: a15a 4fbd 14b3 223c 8559 10bd c30b 323e
00000140: 02c5 b33d cbea 1ebd b1a4 0bbe e66d b73b
00000150: d7bf 2bbd bd8c 89bc a9e2 99bc a04e 06bd
00000160: b7f8 6ebb 91af feba 0206 dd3c 1236 0e3e
00000170: 7ac0 f33c f089 3c3e abcf 213d fe3d 3abd
00000180: 1863 f53b 6236 c63d 624a 35be 9e7b d3bc
00000190: 9c67 65bd 1a2d 643c 37e3 d1bd 4e4a 193d
000001a0: 49cb 0bbc 1c0a 89bc 3bb6 69be c680 ebbc
000001b0: 4f59 b0bd 10c6 1d3d e94e 8f3d 2af2 c2bd
000001c0: d74d 91bb 6132 8cbd cda0 40bd 3f27 1a3d
000001d0: 6b96 b4bd 45ec 82be d029 a5bd 6f4f a1bd
000001e0: 649a 68bc b5c5 4d3d e03c b0bc 4af1 2fbe
000001f0: 44c1 433d 165a 093c f3e4 723d ec86 29bd
00000200: f964 80bd a189 fc3c 9308 943c 7adb da3d
00000210: 8f9a c1bc 13e4 c7bd 00f9 a23d 35a2 44bd
00000220: cffc 53bd 4901 753c 0a57 bdbd 9e8f 09bd
00000230: bd2e 993d 91b8 d9bc 0011 d8bd 1d2e d23c
00000240: 215e 02bd a2c3 42bd 7ac8 af3d b1b3 81bb
00000250: 9d05 57bb d5b3 b1bd b6cf 673d 7274 633d
00000260: 9e42 b13d fec4 ea3c 9725 7d3c 54d4 b13c
00000270: 4d7e b4bd 3954 49be ddb2 013e 5d55 02bd
00000280: d728 c63d bab7 a33c 00c7 7bbc d52a 36bd
00000290: b7ad 29bc 5f24 48be 7f21 23be 808e 6a3d
000002a0: 465c a6bb 41a5 5fbd e531 293d 2e9e 9cbd
000002b0: 3a25 2ebd 94f6 dbbc 9802 30be 9461 4c3e
000002c0: b654 b938 a748 003d dd72 e33c 3e26 68bd
000002d0: f578 86bd adbc eb3d 850c e13c 8444 293d
000002e0: f9b6 16bc a45a 8f3c 94b2 a0bc 3f13 a9bd
000002f0: f83d 3abd 8bbc a2bc 1d84 a7bd 6fba 5b3d
00000300: 09c2 aabc 4d0e 8fbd 4ac7 eebc e9c0 82bd
00000310: 3d60 57bd 1b6c d63c 1642 81bd e748 e73a
00000320: 1444 39ba de03 10bd 04d5 4c3d 6b33 213e
00000330: ef69 c939 2082 573c 6cce 3dbd 9f37 013d
00000340: 543a 823d 6473 5bbb d1c9 a13b 2a4c 9a3d
00000350: 6996 913c 0095 473d da8c 203d b332 a2bd
00000360: 1745 b03d 76a5 dabd bbf3 8d3c e900 c4bd
00000370: dfb3 8e3d 07d5 b5bd 0fb6 56bc c080 373d
00000380: 4605 673d ed57 983d ca8b 9d3c 477d d93d
00000390: e8e3 58bd 1a1d 833c 686f bbbd 3549 a4bc
000003a0: 1207 83bd ea17 18bd 29fb debd a41f ccbd
000003b0: c964 c43d 9b7b aebd e2c7 7fbd 7e17 bebc
000003c0: 2d75 0fbe 6d68 78bc 4c20 13bd 5daf 64bd
000003d0: d1e4 3d3d 82f0 3abd cf32 7fba 31cb 9cbc
000003e0: 9c35 26be 19f2 753d 3c9c 0bbe 4e8e 493d
000003f0: f2c7 633c 5cf4 923c e3c5 9f3d 7e98 8cbc
-0.035810802 -0.0041083028 -0.21606924 -0.06744618 -0.07296272 0.06301716 0.12730539 0.13701592
0.048043944 -0.02123508 0.10098899 0.026426934 -0.019631866 -0.10511256 -0.023480095 -0.0636335
0.0015651264 0.016890924 -0.001953292 -0.016433934 0.014000738 0.06444717 -0.020662181 -0.008612339
0.036487292 -0.100733876 -0.024398023 -0.06059256 0.05802773 -0.1362365 -0.097171545 0.14044233
-0.042996928 -0.022863915 -0.16255872 -0.09824854 -0.010391127 -0.05912796 0.017759046 -0.046228547
-0.03239712 -0.10941792 9.930838e-05 0.12789686 0.046996318 0.03456935 -0.108706206 0.059475232
0.016531281 0.1025729 -0.014913711 0.03334541 -0.11976688 0.0021835049 0.025556246 -0.04761892
-0.021099724 -0.057723995 -0.094739705 0.077487096 -0.017657934 -0.035537176 -0.05609121 0.016681617
-0.033457134 0.060424972 0.021234434 -0.17907567 -0.017431729 0.022426212 0.030566553 0.040446706
-0.15599546 0.0022134867 0.008898775 0.032049913 -0.05062354 0.009930391 -0.035241622 0.17387299
0.08777811 -0.038798135 -0.13637044 0.0055978177 -0.041931 -0.016790742 -0.018784838 -0.032789826
-0.0036464164 -0.0019430985 0.026980404 0.13887814 0.029754866 0.18411994 0.03950469 -0.045469277
0.0074886195 0.096783414 -0.17704156 -0.025815781 -0.056007013 0.013926769 -0.10248416 0.037424378
-0.008532354 -0.016728453 -0.22823422 -0.028747927 -0.08610784 0.038518965 0.06997473 -0.095188454
-0.004434328 -0.068455465 -0.04702835 0.037635084 -0.088177525 -0.25570884 -0.08064616 -0.07876479
-0.014196966 0.050237376 -0.021513402 -0.17181888 0.047791734 0.008383295 0.059300374 -0.041388437
-0.06269259 0.030827345 0.018070495 0.10686393 -0.02363327 -0.097602986 0.07957649 -0.048006255
-0.05175477 0.01495392 -0.09245117 -0.03358423 0.07479618 -0.026577266 -0.105501175 0.025656754
-0.03182805 -0.04754985 0.0858316 -0.0039581885 -0.0032809742 -0.08676878 0.056594573 0.055530973
0.08655284 0.028658386 0.015450857 0.021707691 -0.088131525 -0.19661035 0.12665887 -0.03181969
0.09675758 0.019985069 -0.0153672695 -0.04447444 -0.010356358 -0.19545124 -0.15930746 0.057264805
-0.005076918 -0.054600958 0.04130735 -0.07647358 -0.04251597 -0.026850976 -0.1718849 0.19959098
8.837266e-05 0.031319287 0.027764732 -0.056677096 -0.065660395 0.115105964 0.02747179 0.041325107
-0.0091988975 0.017499276 -0.019616403 -0.08255624 -0.045469254 -0.019865295 -0.081794955 0.053644594
-0.020844476 -0.069851495 -0.029147763 -0.06384451 -0.052582014 0.026174596 -0.06311433 0.0017645628
-0.00070673344 -0.035159938 0.050007835 0.1574227 0.00038416634 0.013153583 -0.046339437 0.031547185
0.063587815 -0.0033485526 0.0049373885 0.075340584 0.017771916 0.04872608 0.039196827 -0.07919826
0.08606928 -0.106760904 0.017328134 -0.09570486 0.069679014 -0.08878522 -0.01310493 0.04480052
0.056401514 0.074386455 0.019231696 0.10619598 -0.052951723 0.016005088 -0.091521084 -0.02005444
-0.06397833 -0.03713218 -0.10887749 -0.099669725 0.09589536 -0.085196696 -0.062446482 -0.023204561
-0.14009543 -0.015161616 -0.035919473 -0.055831302 0.046360794 -0.045639522 -0.0009735049 -0.019139858
-0.16231388 0.060045335 -0.13633817 0.049207978 0.013902651 0.017938785 0.07801416 -0.017162558

base.cnn.7.bias f4 [64]
00000000: 37c5 0cbd ab63 f2ba c6e0 adbc efd5 63bd
00000010: 196b 96bb 8881 22bd b9c5 983c f217 3cbc
00000020: 099c a33c ba0e 88bd 2b48 7ebd f9ba 15bd
00000030: 31f2 62bc 569c f63b c6e5 35bd eeb2 e2bc
00000040: c73f 37bd 6ef8 92bc 3104 08bd 30a9 2abd
00000050: ddc4 babb 3007 26bd 606b 3abb c3fc febc
00000060: 625f 00bc 4500 a2bc aac6 483c 5ed2 b3bc
00000070: c83f e1bb 52d5 41bc 0900 a73a aff9 893c
00000080: 45db 0fbd 9d11 463c 4de9 cebc cb47 063c
00000090: 5ad6 40bd d002 9e3b 9c62 30bb 6495 c5b9
000000a0: 21d3 52bd 69d1 58bd 8241 b3bd 3cd2 1abd
000000b0: 7ccc 26bd e7f2 59bc e611 25bd 709b 28bd
000000c0: 2b8b b0bc c447 593c 66b7 a9bc bb95 a3bb
000000d0: 173d 69bd 660a 2abd 2cd8 513c 0c21 5d3a
000000e0: cddc 3abd ff43 74bd 042b c2bc 1d18 7dbd
000000f0: 679f 0cbd 81bb 10bd 8448 dcbc 02ae aabc
-0.034367766 -0.0018492838 -0.021225344 -0.055623945 -0.0045904038 -0.039674312 0.018648969 -0.011480318
0.019971864 -0.06643434 -0.062080543 -0.036555264 -0.013851688 0.007525961 -0.044408582 -0.027673211
-0.044738557 -0.017940726 -0.033207122 -0.041665256 -0.0056997375 -0.0405342 -0.0028445348 -0.031126386
-0.007835241 -0.01977552 0.012254396 -0.021950897 -0.0068740584 -0.011830645 0.0012741099 0.016842691
-0.03512122 0.01208916 -0.02525773 0.008195828 -0.04707942 0.0048221126 -0.0026914245 -0.00037686073
-0.05147088 -0.052934084 -0.08752729 -0.03779815 -0.040722355 -0.013302541 -0.040300272 -0.04116386
-0.021550735 0.013261739 -0.020717334 -0.0049922145 -0.056943025 -0.041513823 0.012807887 0.00084354053
-0.04562073 -0.05963516 -0.023702152 -0.061790574 -0.034331705 -0.035335068 -0.026890047 -0.020834927

base.cnn.9.weight f4 [64]
00000000: 3430 6e3f 2e04 863f 0cc6 833f 5bb7 8d3f
00000010: 260f 7e3f ad63 823f 1836 633f 2dc0 763f
00000020: d5f3 7c3f 1828 7d3f 670d 833f 9286 8d3f
00000030: 37a7 753f e222 7b3f b7dd 873f 5ef6 843f
00000040: 2fb8 893f 49f6 783f 4f3e 793f bf68 813f
00000050: 0ee9 833f d7e5 863f 9968 813f ba2f 803f
00000060: a083 803f e926 7f3f 02da 893f abcf 783f
00000070: 41bf 803f 13cc 803f 870f 813f 0804 793f
00000080: 3508 8e3f 973b 6d3f 1894 7b3f c41d 7f3f
00000090: 048c 7b3f 1ef4 893f 7d8d 803f 4699 753f
000000a0: de8b 7d3f 30ae 6e3f 6189 6f3f 5845 813f
000000b0: d833 843f 98e9 813f a203 893f 421f 7b3f
000000c0: 19eb 873f 94e2 783f 3df2 833f c385 753f
000000d0: d6ee 773f 3615 713f 9633 883f 54dc 853f
000000e0: 4380 7e3f f17c 8a3f ecfd 8c3f 5e5f 7c3f
000000f0: 2956 803f 5658 663f a011 6e3f c8c8 7c3f
0.930423 1.0470026 1.0294814 1.1071581 0.99241865 1.0186669 0.88754416 0.96386987
0.9880956 0.98889303 1.0238465 1.1056693 0.95958275 0.981001 1.0614537 1.0387685
1.0759333 0.972508 0.973607 1.0110091 1.0305498 1.0538892 1.0110046 1.0014565
1.0040169 0.9966875 1.0769656 0.97191876 1.0058366 1.0062279 1.0082864 0.97271776
1.1096255 0.9266905 0.9827285 0.99654794 0.9826052 1.0777624 1.0043179 0.95937
0.99041545 0.9323454 0.93569 1.0099287 1.0328321 1.0149412 1.0704234 0.9809457
1.0618621 0.9722073 1.03083 0.9590723 0.9684881 0.9417299 1.0640743 1.0457864
0.9941446 1.0819379 1.1014991 0.9858302 1.0026294 0.8997854 0.92995644 0.9874387

base.cnn.9.bias f4 [64]
00000000: eddd 8a3d a100 fdbc a201 54bc a1a4 a8bd
00000010: cb65 1d3c 67ba b9bc 8d95 093e dc9d 3fbc
00000020: 6d42 66bd 62f4 193d 0089 1abd 8bed 97bd
00000030: 2554 14bd 3d3e 263d 6382 923c c02d 123c
00000040: 21e4 c9bc 0302 c23b 80a4 fa3c 5c38 6ebc
00000050: 9668 c8bc a02d aebd b9b0 68bd 9bcb b43c
00000060: 9b56 ae3c 544a 3d3d 8353 f3bc b142 313b
00000070: 47b4 e43c 5867 c83c d70b 893c 5972 c83c
00000080: 867d a4bd aa83 bc3d 4466 5e3d 8442 0cbd
00000090: f275 273d 3dc4 90bd 0d53 db3c 515f 073b
000000a0: d9c1 2f3c e9a9 2a3d 7e67 983d 03a4 0c3b
000000b0: 387d 983d e997 b43c 5cf4 58bd 825a 02bd
000000c0: 9a2b 98bc 24dc 31bb b151 873c 603e b03c
000000d0: cb40 053d e1a3 a33d 4ab7 f6bc 2b2b 11bd
000000e0: 35ec 5abd 666c a6bd b44e 85bd f03e 3f3c
000000f0: f2ce 053d a269 e33d b9f5 803d 8338 af3c
0.0678061 -0.030884089 -0.012939842 -0.082345255 0.009606789 -0.022671891 0.13435955 -0.011695351
-0.056215692 0.037586577 -0.03772831 -0.074183546 -0.03621306 0.0405867 0.017884439 0.00892204
-0.024644913 0.00592065 0.030596018 -0.014539804 -0.024463933 -0.08504796 -0.05680916 0.022069743
0.021281531 0.046213463 -0.029702907 0.0027047808 0.027917994 0.02446334 0.016729278 0.024468588
-0.08031754 0.092048004 0.054296747 -0.03424312 0.040883966 -0.070686795 0.026773 0.0020656178
0.010727369 0.041665945 0.074416146 0.0021460063 0.074457586 0.022045093 -0.052967414 -0.031824596
-0.018575478 -0.002713927 0.016518446 0.021514118 0.032532495 0.07990242 -0.030116696 -0.03544156
-0.05344792 -0.08126144 -0.06509152 0.01167272 0.03266806 0.11104132 0.06296868 0.021389252

base.cnn.10.weight f4 [64, 64]
00000000: b961 8b3e d253 803e c9e8 d6bd 2764 813c
00000010: 6e69 02be 9e06 9dbd 789c aa3d b7af 683e
00000020: ff43 60bd 1779 853d a032 47be 03ea ae3c
00000030: 3636 fa3e 4dee 583d 7818 ca3d 9230 6b3e
00000040: 0a24 393e ec71 023e 9069 8ebe 23a2 3b3e
00000050: 7577 763e cf42 823e abdc a8bd b593 813e
00000060: 695a 823e 3739 00bf ae41 223e 9ea5 a73e
00000070: c4af 0abe 87a8 0fbd d8a5 b9be ed5a 913c
00000080: 5067 393d f51f b33c 0f94 983d 751f 81be
00000090: c2d6 2b3e ef93 023e 00ba 6d3e 89a4 f43d
000000a0: ea17 bbbd c6af 653e 55ab c7bc 46f4 023e
000000b0: 568e 783e 2036 343d 713c 91be b647 a2bb
000000c0: 33a4 16be d69b 93be a7cc 113c e498 16be
000000d0: 3290 42be d3b7 d7bb 9b9f b7bd 75c2 e33d
000000e0: e581 50bc c13f 4dbd 23eb 003e e5d6 823e
000000f0: 5f87 7a3e ca78 633d 7157 cdbe f5c2 01be
00000100: 2955 3f3e aeba ad3d 1c14 5e3e 2480 983e
00000110: 3809 81be 7499 c33d aae5 833e 11ed acbb
00000120: befd 533b 5934 b8bd ae5e 253e 4e0d 033d
00000130: cc06 8abe 7723 58be 4cd3 b3be 8865 67be
00000140: 5250 d63d 7211 8dbd 0362 16be 8673 eabd
00000150: 0575 833e f7d2 3e3e b42a 0f3e c5f7 333e
00000160: 596f ff3d 4f65 ddbc eeda 33be 79cb e33d
00000170: 620e 47be 7a3c 3a3e 8d08 053e 9e8b 6d3e
00000180: d09f 38be 6f5e 01be d166 dc3c c1d0 adbe
00000190: 075f f3bd 38ff 0e3b ce2d d2bd bff6 2abe
000001a0: f4ba 3dbe 88ec e9bd d5a1 873c 0de0 8abe
000001b0: 9a2f 58be 49a2 143e e4ff 0cbd ac6a 1c3e
000001c0: 33f6 833e 9e68 8d3e fb05 993d fdd7 63be
000001d0: 33e6 b7bd 19a6 313e 756d 973e 0525 d7be
000001e0: e9f8 31bd 41fc 693e e7e3 38bd d057 54be
000001f0: 337d 153d d059 8c3e 590a 94be 40e7 3a3d
00000200: 934b 40bd f870 fcbd 6465 1c3e 872c aabd
00000210: 0faa a3be b50b 813e f8cb 063e 63c5 063e
00000220: 080e acbe 8edb d23d 574c b5bd 059d 8f3c
00000230: 1547 6c3e b561 a63c db04 d1bd ff30 99be
00000240: 8f4c 7abe e46f 9e3e 643d 88b8 db3d 92bd
00000250: 39e1 e63e 4f41 cd3d 161d 97be 0e8d 2c3a
00000260: c1ba 0a3e 1952 afb8 2a56 3bbe 4c4c 98bd
00000270: 11d0 273e 23f6 43be ce2e 44be 1388 b7be
00000280: e988 853e d2db fe3d f51b 283e f21f 743e
00000290: 81af 7bbe 7af4 ecbd fa44 df3c 8884 fdbe
000002a0: c617 6bbd 6441 48be 10d1 2dbd 0960 3fbe
000002b0: 0a26 353e 7d19 0c3e f8fb 21be f684 ce3d
000002c0: 9aad ccbc 0c15 18be 699a b2bd c160 d23d
000002d0: 02c6 783e d028 d33d c01b 8a3e 9a18 57bd
000002e0: 68b0 103e 2ac3 d33e 951d 8e3e 4cd9 953d
000002f0: 6636 86bd 2aff d83d aa10 a73c ff49 a8bd
00000300: 871b edbd 7587 53bc 7737 53be b156 9d3e
00000310: 5f4c 783d 535d a93d cbe8 89be db90 153d
00000320: 8b9e 983d f639 ab3d 1403 9d3e 4e07 d1bd
00000330: df11 b13d 7a14 6bbe 55ac 383e e668 9b3e
00000340: 02a7 d73d 2e5a 8ebc db72 f7be 23ec 803e
00000350: 6d38 403d 7751 af3b c3a2 5cbe 9c3c ecbd
00000360: d75b 0d3c fc11 8bbd 2192 9cbe e5da 19bd
00000370: dc7d 223c f546 9bbe a3cc 67be ea05 abbd
00000380: daca 94bd f7d7 82be 1820 c4bc 9fee 5b3e
00000390: 8771 c53c 99a6 e33d 15f3 783b 63a0 d6bc
000003a0: 9ba0 bc3c ea69 95bc 82fc 9d3c a154 3ebe
000003b0: d112 08bf e48d 94bb 96ab a43d 91d4 943d
000003c0: df37 18be a2b7 9b3d 6176 e63e f330 1b3e
000003d0: 1cf9 213c bdb9 83bd f11e 9f3d 4bef 243e
000003e0: 5932 6a3e 4cfa 163e bd3e 8c3e 2740 8e3e
000003f0: 2d02 c03c 284d 84bd 130e 823b 5764 1dbe
0.27222994 0.2506395 -0.10493619 0.015794827 -0.1273553 -0.07667278 0.08330625 0.2272328
-0.054752346 0.06517237 -0.19452906 0.02135182 0.48869485 0.052961636 0.09867948 0.22967747
0.18080154 0.1273877 -0.27814913 0.18323569 0.24069007 0.25441596 -0.08245214 0.25308004
0.25459602 -0.500873 0.15845367 0.32743543 -0.13543612 -0.03507283 -0.3625934 0.017743552
0.045264542 0.021865824 0.07450115 -0.25219312 0.16781142 0.12751745 0.23215485 0.11945445
-0.091354206 0.22430333 -0.02437369 0.12788495 0.24273047 0.04399693 -0.28366426 -0.0049523963
-0.14711075 -0.2882983 0.008898891 -0.1470676 -0.19000319 -0.006583193 -0.08965989 0.11121074
-0.012726282 -0.05010963 0.12589698 0.25554577 0.24465702 0.055535115 -0.40105775 -0.12672026
0.1868483 0.08482872 0.21687359 0.29785264 -0.25202346 0.09550753 0.25761157 -0.005277284
0.0032347287 -0.089943595 0.16149399 0.03199511 -0.2695831 -0.21107279 -0.35122144 -0.22597325
0.10464539 -0.06888093 -0.14685826 -0.114478156 0.25675216 0.18635164 0.13981134 0.17574985
0.1247241 -0.027025847 -0.17563984 0.11122794 -0.1943908 0.18187132 0.12991543 0.23197791
-0.18029714 -0.1263368 0.026904495 -0.3394833 -0.118833594 0.0021819603 -0.10262643 -0.16695689
-0.18528348 -0.11422068 0.01655666 -0.27124062 -0.21111909 0.14515032 -0.034423724 0.15275067
0.25773773 0.2761888 0.07471844 -0.22250362 -0.08979454 0.17348517 0.29575697 -0.4202043
-0.04345027 0.22850133 -0.04513922 -0.20736623 0.036496352 0.27412271 -0.28914145 0.045630693
-0.046947073 -0.123262346 0.15273052 -0.08309274 -0.31965682 0.25204244 0.13163745 0.13161235
-0.33604455 0.10295783 -0.08852451 0.017530927 0.2307399 0.020310262 -0.10206004 -0.29920194
-0.24443267 0.3094474 -6.49642e-05 -0.07140704 0.45093706 0.10022222 -0.29514378 0.0006582298
0.13547803 -8.359942e-05 -0.18294588 -0.074364275 0.16387965 -0.19136862 -0.1915848 -0.35846004
0.26081017 0.12444271 0.16416915 0.23840311 -0.24578668 -0.11570068 0.02725457 -0.49515176
-0.05739572 -0.19556195 -0.042435706 -0.18688978 0.17690292 0.13681598 -0.15818775 0.10083954
-0.024985123 -0.14851779 -0.08720858 0.102723606 0.24294284 0.10310519 0.26974297 -0.052513696
0.14129794 0.41359836 0.27756944 0.07316837 -0.065533444 0.10595544 0.020393688 -0.08217239
-0.11577516 -0.012910713 -0.20626627 0.30730203 0.06061971 0.08269753 -0.2693542 0.036515098
0.07452115 0.083606645 0.3066641 -0.102064714 0.08645987 -0.2295703 0.1803449 0.3035347
0.10529901 -0.017376985 -0.48329815 0.25180158 0.04692881 0.0053502875 -0.21546464 -0.11534998
0.008627853 -0.067905396 -0.30580238 -0.03756227 0.0099177025 -0.30327573 -0.22636656 -0.083507374
-0.07265253 -0.25555393 -0.023941085 0.21477745 0.024101986 0.1111576 0.0037986685 -0.026199525
0.023025801 -0.01823898 0.019285444 -0.18586971 -0.5315371 -0.0045335162 0.0804054 0.07267106
-0.14865063 0.076033846 0.4501219 0.15155391 0.009886052 -0.06431911 0.077695735 0.16106908
0.22870769 0.14743918 0.27391616 0.2778332 0.023438537 -0.06460029 0.003968963 -0.15370308

base.cnn.10.bias f4 [64]
00000000: 1188 bdbc ec2c 82bd 3719 383c ca3f d2bd
00000010: a8f3 0cbd 6308 d3bd 6a88 08bd 072a 56bd
00000020: f0c2 dfbc 9f1d 87bd 3a3d 86bd 07ca 3e3c
00000030: c719 7f3d 4073 94bc b3c8 8bbd 3a5a 51bd
00000040: 9b95 f5bc 0676 9bbc 831b 14bd f38a 92bd
00000050: 6121 51bd 22ed 073c 4be3 4fbb 6e9b 35bd
00000060: dfca a9bc e000 7ebc 5213 debd 406a 48bd
00000070: 64f5 d9bc 2ce0 95bd 4a77 32bc 3a88 6abc
00000080: 73fa 93bc 1179 803c 58ec 45bc b9a3 9fbb
00000090: e6f0 61bd 075a 2f3a 8b83 2bbc c568 32bd
000000a0: 9720 38bc 9baf 103c f329 89bc 2de6 37be
000000b0: 7422 013c 26f1 aebc 1411 b4bc cec0 c5bc
000000c0: b25d 07bd 50dd 73bc fd4d 25bd deda fdbd
000000d0: 774f 113d 8325 b9bd e825 43bd 0b9f 47bd
000000e0: 33cf babd 7034 7bbd 2e7d 1abd db14 e43c
000000f0: e11f 3d3c a042 babd 6670 b7bc e105 9fbd
-0.02313617 -0.063562244 0.01123648 -0.10266073 -0.034412056 -0.10304334 -0.03333322 -0.052286174
-0.027314633 -0.06597447 -0.06554647 0.011644847 0.062280443 -0.018121362 -0.0682539 -0.051111437
-0.029978564 -0.018977176 -0.03615905 -0.07155409 -0.051057223 0.008296283 -0.003172117 -0.044337682
-0.02072662 -0.015503138 -0.10843529 -0.048929453 -0.02660627 -0.07318148 -0.010892699 -0.0143147055
-0.01806376 0.015682729 -0.0120802745 -0.004871812 -0.05516138 0.00066891353 -0.010468374 -0.043556947
-0.011238239 0.00883093 -0.016743636 -0.17958899 0.007881749 -0.021355223 -0.0219808 -0.024139788
-0.03304834 -0.014884308 -0.04035758 -0.12395261 0.035476174 -0.09040358 -0.047643572 -0.04873566
-0.09121551 -0.061329305 -0.037717037 0.027841976 0.011543245 -0.09094739 -0.022392463 -0.07764793

base.cnn.12.weight f4 [64]
00000000: 72f6 853f ee7e 7c3f c26a 723f bf36 7c3f
00000010: b781 883f 4e7e 603f 9c41 813f 31e7 713f
00000020: a21e 7c3f 50e6 913f ead0 743f ec4b 7c3f
00000030: 751a 7f3f 6c2e 8e3f 5a33 883f 438e 853f
00000040: fc21 873f 9e71 823f ce26 823f 4d59 703f
00000050: 5503 883f b917 843f 4c27 7a3f 9d3d 893f
00000060: 51a2 803f ca52 8b3f 223c 8f3f 8a1d 613f
00000070: 0dd0 763f a683 853f 075a 8c3f b5ec 7c3f
00000080: e20e 903f b165 5e3f 20d9 803f 516c 883f
00000090: ea34 7d3f fe9b 823f d2bc 663f 7884 7d3f
000000a0: 30e3 803f cbad 783f 4d44 803f 553f 6b3f
000000b0: 8a54 8a3f 54d6 653f 72da 7d3f e519 5e3f
000000c0: ea1f 7c3f dd89 883f cbfe 763f 14c5 6c3f
000000d0: 3fb2 8c3f 9aa8 823f aab1 883f 028b 6f3f
000000e0: 0941 833f 413b 803f ec99 5e3f 5e74 7a3f
000000f0: b79c 843f 0235 763f 1cea 623f d5c0 613f
1.0465834 0.9863118 0.9469415 0.98521036 1.0664586 0.87692726 1.0098147 0.94493395
0.9848424 1.1398411 0.9563128 0.9855335 0.99649745 1.1107917 1.0640671 1.043404
1.0557246 1.0190923 1.0168092 0.9388626 1.0626017 1.031974 0.9771621 1.0721928
1.0049535 1.088464 1.1190226 0.879357 0.9641121 1.0430801 1.0964974 0.98798686
1.1254542 0.8687392 1.0066261 1.0658056 0.98908865 1.0203855 0.90131867 0.99030256
1.0069332 0.9714019 1.0020844 0.9189351 1.0807049 0.89780164 0.99161446 0.8675826
0.98486197 1.0667073 0.96482533 0.9248822 1.0991896 1.0207703 1.0679219 0.93571484
1.0254222 1.0018083 0.86953616 0.9783381 1.0360326 0.96174634 0.8863847 0.88184863

base.cnn.12.bias f4 [64]
00000000: 93eb 543b 00af 943b 00a1 123e 79f4 a0bd
00000010: 6a98 debb a111 db3d 9330 3dbb b19f 08bd
00000020: bbbc 133c ffca c1bc 1c4e 29bc 2597 abbc
00000030: a275 103d 1202 73bc 9969 81bb b47d c1bc
00000040: d02a b0bc aefa 0bbd dac6 883b 1d73 743d
00000050: 8237 69bd 7e9d 4dbb 385c 26bc bf7a 66bc
00000060: d209 8bbc b814 8abc a15c adbd bf52 463d
00000070: 197f 3b3d 8d31 5ebc 9f7a 8d3b 4d8c 3ebd
00000080: a4c1 a4ba c841 193e cc24 96bb 439b 29ba
00000090: 0168 c63c 2ebc 1d3d e5be 123d ca2a a33c
000000a0: a4ca 913c f1be cbbb 8e3c f73c 4386 643d
000000b0: 02da 3fbc 45ea f43d 81d1 56bc 7128 e33d
000000c0: 78c3 283d b487 24bd 5efe c33b fab4 fbbb
000000d0: 1656 003d 3aea 37bd 7df2 afbc 3994 1cbd
000000e0: b20a 90bd cbb8 1ebd d18b 093d 4721 523d
000000f0: 5ff8 55bc c976 af3c 5632 ab3d 91f5 b73d
0.0032489046 0.004537463 0.14319229 -0.078591295 -0.0067930715 0.10696722 -0.0028868064 -0.03335542
0.009017165 -0.023656366 -0.010333564 -0.020946095 0.035268433 -0.014832037 -0.003949356 -0.02361951
-0.02150479 -0.034174614 0.0041740956 0.059680093 -0.056937702 -0.003137439 -0.010153823 -0.014067351
-0.016972456 -0.016855583 -0.08464933 0.048418757 0.045775507 -0.0135616185 0.004317596 -0.04652052
-0.0012569916 0.149665 -0.0045820232 -0.0006469974 0.024219515 0.03850954 0.035826582 0.019917864
0.017796822 -0.0062178303 0.030180242 0.055792104 -0.011709692 0.11958746 -0.013111473 0.11091698
0.04120204 -0.04016848 0.0059812507 -0.007681486 0.031332098 -0.04490111 -0.021477932 -0.038227294
-0.0703329 -0.03875045 0.033580605 0.051301267 -0.013059705 0.021418946 0.0835921 0.08982385

base.cnn.13.weight f4 [64, 64]
00000000: ff44 ed39 3f37 d8be a54e c5bc 284f ab3b
00000010: 1231 0bbe 887c 69bd 6a93 063d ef2f 34be
00000020: a48b e6be 9a78 44be de0c 88be 23c5 a0bc
00000030: a06c c0bc 8074 273e a3eb bd3e 45d6 1f3d
00000040: b58c 85be fbf4 babd 5e55 443e 09d4 513e
00000050: 108e 403e 19b0 8abc def6 513e b128 903d
00000060: b280 b9be 921e 413e 2223 e43d a9ac 5ebc
00000070: 3489 81be 1a85 2ebe edaa 14be fe61 653d
00000080: bf10 6bbd 4710 9c3d 5ae2 0e3c e21f c7bd
00000090: 4831 d83d 0d32 bebd 9fb0 2cbf ca61 5dbe
000000a0: 0182 cf3d 6222 ccbd b6c3 4dbe 3904 ac3d
000000b0: 0e88 87be aa84 d93c bf28 99be e704 e3bd
000000c0: 4330 973e 0eb0 28be 8b3c db3e 4a93 e4bd
000000d0: fad1 2f3e 7fa4 063e f5c9 8dbe e0b8 a83d
000000e0: 4649 6dbd 8337 e63d 9ffb 953e c700 7fbe
000000f0: 84ce 85bb db4d 963c ce00 0cbe 7eae 33be
00000100: cd1e 1d3e 6b27 aa3e 846a 893c 84e4 8e3e
00000110: a9c1 adbd b48a d4bc 5555 d63c 8d87 a1be
00000120: 9e66 b23c e9fe a03c 2c1b e83d 16a5 9bbe
00000130: 5cf7 5e3d 5395 2a3e 2833 2a3d 2a5e e9be
00000140: 1f15 bfbc f556 09bd ecb5 2b3e dbb3 25be
00000150: dca0 80be 7c1b 9ebd a4ee a83e 08e2 92be
00000160: 1318 183d f23e 953e 8d7e 463d 876e a4bd
00000170: fe61 72bd 7057 5c3b af26 553d 5caa bfbd
00000180: 6f60 3dbe 9742 c63d bbae e4bd 5d68 80bd
00000190: 2fe5 cd3e ab04 823c b470 ab3c 56c5 f6bd
000001a0: 5149 43be b1a6 95be ecd7 52be ad32 23be
000001b0: b20a 78be 6101 933e a4bb babd 7621 d2be
000001c0: a457 10be b5a4 61be a765 8ebe 9a9c a8bd
000001d0: 0632 9e3e 8d12 66bd 4cd8 683d 457f d23d
000001e0: ce02 47be dc46 cabd 2782 683e 0993 793d
000001f0: d2c1 aabd a725 3dbe 014f 7cbc f7b8 b9bc
00000200: 8ccf 0b3e 746a 123e bdb8 913e 3349 55be
00000210: 05e6 d63d bf2a 643e b7e1 1cbe 37a8 833d
00000220: bc2a 563e b6cc 2c3e 03a3 f2bd 41c9 b93d
00000230: bb67 30be b709 ce3e 435a 6ebe fce5 163e
00000240: 7395 b9bd 81bb 1fbd 7c89 e2bd 1a84 9d3d
00000250: 6a83 633e 7351 3d3e 5e2a 1a3d 8e40 323d
00000260: 0efc 873e ac31 1f3e 02c4 cc3e 17b1 8c3b
00000270: d212 b6bd 447a 91be 2088 96bd 3695 8fbd
00000280: 6e76 193d f510 95be 9db4 9e3e 8bc0 9b3e
00000290: cea9 0f3e f05c afbe 7ae4 853d 7e74 14be
000002a0: eb50 0c3e 19f7 81be dd17 43be 3be9 023e
000002b0: c2ff 14be 0f53 7abd 9b3f 043e 5cad 713e
000002c0: 6873 b9bc 1d81 ef3c d6eb 1e3e e400 233b
000002d0: 143a 8a3d 83a5 23be 9a9b b0be 9bc3 423e
000002e0: d7e7 cb3d 899a 703e f204 6abe 14ea 41be
000002f0: e21f 69be 2798 2ebd 3570 ef3c 288b 42be
00000300: 937f e4bd 7b46 5abe 73fe f5bb 66ef 8a3d
00000310: 27fd 97bd 4aff 433d 164a b23e b5c8 da3d
00000320: 949f a8bd f7f6 1cbe c8ba 143e 6f52 74be
00000330: d2ca 74bd d326 833c 9a61 9a3c 632c a7be
00000340: 1052 543e 295f efbd 80e4 333e d3b1 4c3e
00000350: 261b 7dbd 8d56 82be 25c8 58be 3b6d ff3e
00000360: b767 e8b9 134c 48be 9ab4 9a3e 51ee fbbe
00000370: 3f9d 3abd 37ba d3be 5e65 38be 860a 0bbe
00000380: a5dc 53be e1df 93be 055b 923c 65e2 5f3e
00000390: 1437 88bd 123a c5bd 2dbe e9bd fc97 ea3d
000003a0: 9886 eb3d d78d b53e 7a85 f1bc ebbe 60be
000003b0: 654a 99bd f5ab 71bd d55d 6fbd 9faf 2b3e
000003c0: 22e9 e93d 8fa5 03be 5bcc b13e 137e 5ebe
000003d0: 8e09 89bd cb6f d83d 7d4d d5bb 717a 52be
000003e0: 1a4e 7dbd 70f6 1cbe ec81 01be f3c9 903e
000003f0: 23e2 c0be 999b 2bbe d80e cbbc dc53 a1bd
0.0004525557 -0.4222965 -0.024085352 0.005227942 -0.13592938 -0.057003528 0.03285543 -0.1759641
-0.45028412 -0.19186631 -0.26572317 -0.019625252 -0.023489296 0.16353035 0.3709384 0.039022703
-0.26083913 -0.091287576 0.1917319 0.20491041 0.18804193 -0.016929673 0.20504329 0.07039011
-0.36231 0.18859318 0.111395136 -0.01359097 -0.2529999 -0.17042962 -0.14518328 0.056001656
-0.057389017 0.07620292 0.008720959 -0.09722878 0.10556275 -0.0928689 -0.67457 -0.21619335
0.10132218 -0.099674955 -0.20094189 0.08399243 -0.2647099 0.026552517 -0.299139 -0.110849194
0.29529008 -0.1647341 0.42819628 -0.11160906 0.17169943 0.13148688 -0.27693143 0.08238387
-0.057931207 0.11241057 0.29293534 -0.2490264 -0.0040834565 0.018347671 -0.13672182 -0.17547032
0.15343781 0.332332 0.016774423 0.2790872 -0.08484203 -0.025945045 0.026163736 -0.3154873
0.021777447 0.0196528 0.113333076 -0.30399388 0.05443512 0.16658525 0.041552693 -0.45579654
-0.023325501 -0.033530194 0.16768616 -0.1618189 -0.25122726 -0.07720086 0.32994568 -0.28688073
0.037132334 0.29149586 0.048460532 -0.08028894 -0.059175484 0.0033621453 0.052038845 -0.09358665
-0.18493818 0.0968067 -0.1116614 -0.06269906 0.40213916 0.015871366 0.020927764 -0.120493576
-0.19070937 -0.29228738 -0.2059018 -0.159373 -0.2422283 0.2871199 -0.09117821 -0.41041154
-0.14095932 -0.22035487 -0.2781193 -0.082329944 0.3089754 -0.056170035 0.0568469 0.10278181
-0.19434664 -0.098767966 0.22705899 0.06093124 -0.083377495 -0.18471394 -0.015399695 -0.022671206
0.13653392 0.14298421 0.28461257 -0.20828705 0.104930915 0.22281931 -0.15320478 0.06428569
0.2091474 0.16874966 -0.11847498 0.09071589 -0.1722707 0.40241787 -0.2327662 0.1473617
-0.09061708 -0.038997177 -0.11061379 0.07691212 0.22218099 0.18488102 0.03763806 0.043518595
0.2655949 0.15546292 0.39993292 0.0042935717 -0.088903084 -0.28413594 -0.073501825 -0.070108816
0.03746646 -0.291145 0.30997172 0.30420336 0.14029619 -0.34250593 0.06537719 -0.14497563
0.13702743 -0.25383833 -0.19052072 0.12784283 -0.14550689 -0.061114367 0.12914889 0.23601288
-0.022638038 0.02923637 0.15519652 0.0024872357 0.06749359 -0.15981106 -0.34493715 0.1901993
0.09956329 0.2349645 -0.22853449 -0.1893695 -0.22766069 -0.042625573 0.02922831 -0.18998396
-0.11157145 -0.21315949 -0.0075071394 0.06783943 -0.07421332 0.047850884 0.34822148 0.10682813
-0.08233562 -0.15328585 0.14524376 -0.23859571 -0.059763737 0.016009724 0.018845368 -0.32651052
0.2073443 -0.11688072 0.17567635 0.1998971 -0.06179347 -0.25456658 -0.21170099 0.49888024
-0.00044327762 -0.1956027 0.30215913 -0.49205258 -0.045560118 -0.41353008 -0.18007419 -0.13578233
-0.20689638 -0.28881744 0.017865667 0.21863706 -0.0665113 -0.09630217 -0.11413226 0.1145477
0.11500281 0.35459778 -0.029482592 -0.2194783 -0.07484893 -0.05900188 -0.058439095 0.16766213
0.1142142 -0.12856124 0.34726223 -0.21727781 -0.066912755 0.10568198 -0.0065094815 -0.2055452
-0.06184206 -0.15328383 -0.12647218 0.28279075 -0.3767253 -0.16758575 -0.024787351 -0.07877323
