CRL_human_AI_overcooked/human_models/model_many_orders/actor_best_r6.pt (torch, 426323 bytes, 20 tensors)

base.cnn.0.weight f4 [32, 26, 3, 3]
0.043034095 0.030945282 -0.14718692 -0.1581345 -0.11364841 -0.113639824 -0.17879762 0.006211149
0.13282076 -0.044430777 0.017161604 0.0053052353 0.07064431 0.09946665 -0.17976703 -0.01901657
0.07087747 -0.027073216 0.0022800043 0.062991545 0.23329496 0.0050377096 -0.26500192 0.16578701
-0.085050546 0.32836032 0.04164253 0.060260504 -0.0744026 0.22659078 0.10132953 -0.031376526
-0.008172622 -0.03878473 -0.21032487 -0.09517176 0.15455954 -0.008596179 -0.10177702 -0.20129803
0.033509567 -0.17715642 0.05072233 0.012161857 0.118128754 -0.031676423 0.1209677 -0.18242265
0.02901424 0.046543814 -0.008135459 -0.03677626 -0.11450902 0.03503401 0.031672448 -0.11150399
0.022540577 0.0756791 0.063062504 0.028851977 -0.030226652 -0.08028794 0.23316398 -0.0489435
-0.02962229 -0.10549178 0.10985658 0.09384672 -0.13420682 -0.0063377027 -0.036051113 -0.15506442
0.13167523 0.041640833 -0.15754905 0.0031802158 0.0038134512 0.157549 0.08103897 0.10965291
-0.112600945 0.16988851 -0.0009902752 -0.14183009 -0.09578666 -0.13929833 0.0058220024 -0.068226635
0.026992094 -0.19456142 -0.0725395 0.1180126 0.111129776 -0.017418602 0.046167523 -0.20902397
0.038201164 -0.11091551 -0.035145447 -0.12015286 -0.037570566 -0.05801904 -0.06860213 0.14877038
-0.1655052 -0.06364221 0.14318964 -0.18976057 -0.06367429 -0.1506436 -0.13843533 0.08439154
-0.044611547 0.03124692 0.010751783 -0.08403456 -0.03592391 -0.019688176 0.10512298 0.04031786
0.029640805 -0.02481931 0.104382776 -0.026403835 -0.059369434 -0.20995504 -0.00056823285 0.18979517
-0.050845865 0.0025406724 0.08513598 0.13190188 -0.08799307 0.0009011498 0.086485974 0.123057164
0.054019634 -0.060693003 0.077906944 0.094322056 0.018499581 -0.018020246 -0.05122436 -0.09974658
0.051390633 -0.10453028 -0.018370034 0.09897226 0.009819571 0.06833623 0.073511004 -0.012396643
0.079351485 -0.08754956 -0.11543233 -0.03907761 -0.17242014 0.106214 -0.003675176 -0.14885525
0.018485883 0.07016553 0.11044451 0.055714484 0.023028368 -0.03191374 -0.07481542 0.024983974
0.1036045 -0.055997718 -0.013253814 -0.0693261 -0.07521126 0.101351 0.018979669 0.12991543
-0.047061957 -0.08303267 0.09846874 0.13607115 -0.21825598 0.10970606 0.045684017 0.10268304
-0.00086034567 0.00018997614 0.16198471 -0.06481246 0.08131685 0.05508972 -0.08435874 -0.00467726
-0.32063445 -0.07865867 -0.12094376 -0.1455179 0.0600653 0.047428325 -0.025120886 0.2243906
0.35945195 -0.24425383 0.043279223 -0.31513542 0.084173635 -0.008458773 0.12287213 -0.09238739
-0.12833504 0.026823629 0.15659538 0.11395388 0.082893744 0.050552484 -0.17038324 -0.007879928
0.077874094 -0.20501597 -0.22315745 0.09200723 -0.17175375 0.15852067 -0.03147699 -0.08916482
-0.112421274 -0.113879986 -0.08417518 -0.12463151 0.0051241037 0.016340993 0.0907156 -0.05067883
0.07148486 0.12773158 -0.14656143 0.0033052315 0.045165833 0.07835628 0.05178375 -0.032190394
-0.014218216 -0.0023841432 0.21849096 -0.19301444 0.007965899 0.087883666 0.008228887 -0.04285265
0.14614974 -0.06454547 -0.046346936 0.023438364 0.047795456 0.042320825 0.053951807 -0.013680829
00000000: 8544 303d f680 fd3c 2bb8 16be 03ee 21be
00000010: 7fc0 e8bd ffbb e8bd b916 37be e586 cb3b
00000020: 2a02 083e 0cfd 35bd 7e96 8c3c 8ad7 ad3b
00000030: f7ad 903d 2cb5 cb3d d914 38be a3c8 9bbc
00000040: 3528 913d a6c8 ddbc 206c 153b b601 813d
00000050: e0e4 6e3e 5f13 a53b 55ae 87be 12c4 293e
00000060: fb2e aebd d81e a83e 5c91 2a3d b8d3 763d
00000070: 6460 98bd 6a07 683e db85 cf3d ac84 00bd
00000080: 76e6 05bc bddc 1ebd 675f 57be 69e9 c2bd
00000090: db44 1e3e fdd6 0cbc 7870 d0bd 1221 4ebe
000000a0: 5441 093d 7e68 35be 38c2 4f3d 8742 473c
000000b0: 7ded f13d 23bf 01bd eabd f73d 01cd 3abe
000000c0: 45af ed3c baa4 3e3d 974a 05bc b4a2 16bd
000000d0: b483 eabd d27f 0f3d f8ba 013d 345c e4bd
000000e0: 04a7 b83c a5fd 9a3d ea26 813d fb5a ec3c
000000f0: e29d f7bc 016e a4bd 8ac2 6e3e fb78 48bd
00000100: 72aa f2bc 130c d8bd 7dfc e03d b632 c03d
00000110: 836d 09be 81ac cfbb 55aa 13bd 35c9 1ebe
00000120: dfd5 063e 948f 2a3d 8a54 21be 2b6b 503b
00000130: 18eb 793b 8654 213e c2f7 a53d b491 e03d
00000140: 539b e6bd 41f7 2d3e 1fcc 81ba e83b 11be
00000150: cc2b c4bd 39a4 0ebe 7fc6 be3b 68ba 8bbd
00000160: 861e dd3c 1c3b 47be 978f 94bd 97b0 f13d
00000170: 0298 e33d 75b1 8ebc 281a 3d3d 610a 56be
00000180: d378 1c3d ac27 e3bd acf4 0fbd b412 f6bd
00000190: 98e3 19bd 5fa5 6dbd 467f 8cbd 4357 183e
000001a0: 327a 29be d956 82bd 4ea0 123e 9850 42be
000001b0: ab67 82bd 5142 1abe fec1 0dbe 79d5 ac3d
000001c0: 99ba 36bd 8af9 ff3c 3f28 303c 501a acbd
000001d0: f324 13bd 1949 a1bc b84a d73d 5724 253d
000001e0: 46d1 f23c de51 cbbc a3c6 d53d db4c d8bc
000001f0: 5d2d 73bd 74fe 56be 76f5 14ba aa59 423e
00000200: c143 50bd 6981 263b c65b ae3d 4911 073e
00000210: b635 b4bd 243b 6c3a 8f1f b13d 6505 fc3d
00000220: b143 5d3d 3a99 78bd ad8d 9f3d ec2b c13d
00000230: 6f8c 973c 329f 93bc a2d0 51bd ef47 ccbd
00000240: fc7e 523d f913 d6bd c17c 96bc f8b1 ca3d
00000250: 44e2 203c def3 8b3d f08c 963d 4a1b 4bbc
00000260: 0883 a23d 2f4d b3bd c967 ecbd d80f 20bd
00000270: e88e 30be ba86 d93d 39db 70bb 836d 18be
00000280: b56f 973c f2b2 8f3d bb30 e23d df34 643d
00000290: fda5 bc3c fbb7 02bd d438 99bd 31ab cc3c
000002a0: 992e d43d dd5d 65bd 8626 59bc d8fa 8dbd
000002b0: 5c08 9abd 1d91 cf3d 407b 9b3c 8d08 053e
000002c0: 0ac4 40bd 080d aabd fba9 c93d 3c56 0b3e
000002d0: 7f7e 5fbe 92ad e03d 2a1f 3b3d 7c4b d23d
000002e0: d288 61ba 5534 4739 52df 253e 65bc 84bd
000002f0: 7389 a63d c2a5 613d 46c4 acbd b343 99bb
00000300: 332a a4be cc17 a1bd 5db1 f7bd a502 15be
00000310: 0807 763d 3444 423d 51ca cdbc a6c6 653e
00000320: 160a b83e ad1d 7abe 8e45 313d 6e59 a1be
00000330: 3a63 ac3d aa96 0abc 62a4 fb3d 9a35 bdbd
00000340: 436a 03be 3abd db3c 8a5a 203e a760 e93d
00000350: 32c4 a93d 1f10 4f3d f278 2ebe d01a 01bc
00000360: 747c 9f3d b5ef 51be 6383 64be 496e bc3d
00000370: 37e0 2fbe 3e53 223e 04ee 00bd 0c9c b6bd
00000380: 203d e6bd e939 e9bd 0964 acbd ce3e ffbd
00000390: 19e8 a73b 8cdd 853c 1ac9 b93d 9b94 4fbd
000003a0: a766 923d 11cc 023e 3314 16be 959c 583b
000003b0: cfff 383d 4279 a03d 331b 543d 13da 03bd
000003c0: 85f3 68bc 493f 1cbb 18bc 5f3e 94a5 45be
000003d0: 6783 023c 5afc b33d 74d2 063c 4386 2fbd
000003e0: 47a8 153e 6a30 84bd 49d6 3dbd d001 c03c
000003f0: 2bc5 433d 9a58 2d3d 92fc 5c3d 8e25 60bc

base.cnn.0.bias f4 [32]
-0.027599325 -0.019798331 -0.06052248 -0.047431134 -0.0588395 -0.05202317 -0.051340207 -0.023304995
-0.040934995 -0.094637536 -0.036209937 -0.03480066 -0.05814876 -0.014030189 0.01023656 0.010794983
-0.04316477 -0.06405245 -0.015952837 -0.07018518 -0.028815059 -0.041789155 -0.070695095 -0.055632643
-0.04235516 -0.04440077 -0.024676168 -0.062932156 -0.049107283 -0.08462021 0.0323399 -0.03776114
00000000: fb17 e2bc 1c30 a2bc 6ce6 77bd 2647 42bd
00000010: b001 71bd 3f16 55bd 1c4a 52bd 1eea bebc
00000020: 74ab 27bd 53d1 c1bd df50 14bd 238b 0ebd
00000030: 652d 6ebd e1de 65bc 3fb7 273c 71dd 303c
00000040: 8bcd 30bd ee2d 83bd 86af 82bc 3fbd 8fbd
00000050: 8f0d ecbc 1b2b 2bbd 97c8 90bd 0edf 63bd
00000060: 9b7c 2dbd 95dd 35bd ad25 cabc 93e2 80bd
00000070: b824 49bd 5c4d adbd d876 043d 6dab 1abd

base.cnn.2.weight f4 [64, 32, 3, 3]
0.23710115 -0.050289378 0.014196035 -0.045015067 -0.15909424 -0.2637274 -0.06402505 0.07408327
0.076877885 -0.14771925 -0.05331747 -0.18956536 0.15083204 0.059525345 -0.006553505 0.082330644
-0.020304414 0.06801782 0.039921124 0.0886081 -0.020627502 -0.108958274 -0.03757827 -0.109030865
-0.20305908 -0.077315114 -0.06473118 -0.2326015 -0.04516146 -0.22680874 0.037189234 -0.06883103
0.0018960828 -0.0025126236 -0.06559455 -0.08692404 0.0046979203 0.047940522 0.021114135 -0.06354247
-0.07279939 0.023194553 -0.0078940075 -0.17783275 -0.08062725 -0.12175825 -0.0932428 0.05972427
0.003795488 0.083682574 0.12989794 0.06981871 0.01262603 0.11239073 -0.08608338 -0.11192035
-0.038238544 -0.013235049 0.16338654 0.09171966 0.12563293 -0.10537254 -0.060218055 -0.20231214
-0.003797787 0.16735956 -0.094506435 0.018581325 -0.12097093 0.0019252474 -0.015206775 -0.07589857
-0.23508619 0.015551961 -0.037545044 -0.067852505 -0.03856813 -0.09368292 0.026936106 -0.14389573
0.09967641 -0.19522381 -0.051497146 0.044432823 -0.0030752046 0.03963178 0.114276566 0.10361742
-0.16176514 -0.1856627 0.021574473 0.10186229 -0.1129404 -0.05572871 -0.10744944 -0.04830562
-0.10181015 -0.09363932 -0.03612903 -0.09535194 0.09659277 0.024825105 0.055148553 -0.011545506
-0.027095836 0.07210365 -0.13155694 -0.22848608 0.013155705 -0.053807616 -0.015648078 0.009441505
0.10157414 -0.03661035 -0.036716007 0.12780862 -0.0050089713 0.07730643 -0.03790812 0.108454645
-0.023622204 -0.11042441 0.1560094 0.03437137 -0.16507275 0.07740869 0.12325138 -0.08688479
-0.19409196 -0.16946137 -0.054170303 0.08023569 -0.09874266 0.023203017 0.07067517 0.00067635154
-0.016390475 -0.25500053 0.089039944 0.046656504 0.1443444 -0.08390201 -0.068820275 -0.09610317
0.09349897 -0.20074706 0.0240071 0.038540423 0.13785407 0.047514986 0.01666372 0.18155056
0.050375946 0.0034725042 -0.060627483 -0.2013716 0.020795263 0.07008092 -0.04805391 -0.05917908
0.069531865 -0.027870283 -0.16230257 -0.06460122 0.09651754 -0.033084556 0.06290401 -0.018829364
-0.05906546 -0.14951491 -0.017519146 0.08278468 0.09027975 -0.09681963 -0.0053212373 -0.1593804
-0.027914567 0.07682751 -0.05165244 0.00733896 0.004569258 0.0071040643 -0.0054201786 -0.037559263
0.05702355 -0.040291533 -0.098413005 0.018612541 -0.04759278 -0.041392904 -0.020342171 -0.02412273
0.0032910274 0.019903807 0.12231089 -0.0826197 -0.18004009 0.037515868 -0.08201709 0.09431054
0.10851105 -0.020425491 -0.023763712 -0.002044564 -0.024277367 -0.15496778 0.100934565 -0.074802004
-0.01966161 -0.07341939 0.09013285 -0.09329221 -0.12802821 0.021047942 -0.04139646 -0.04395507
-0.050190084 -0.18212044 0.15036164 -0.10250087 -0.01222863 0.02338315 -0.12382466 0.043955054
-0.008437461 -0.06018139 -0.015690058 0.17122594 -0.121160194 -0.11746775 -0.09746564 -0.12464206
-0.0523057 -0.053502552 -0.11199384 -0.04120063 -0.02639851 0.013539194 -0.020986019 0.028301964
-0.10103814 -0.027128002 0.043908276 0.071108006 0.09658647 -0.10626203 -0.07292159 0.118871175
-0.054856133 -0.012346792 -0.041298732 -0.14643297 -0.049710512 -0.06213246 -0.001313266 0.03974903
00000000: a5ca 723e 3cfc 4dbd 7d96 683c b861 38bd
00000010: 9ae9 22be 4707 87be 911f 83bd f8b8 973d
00000020: 2772 9d3d b743 17be 6b63 5abd 6c1d 42be
00000030: b773 1a3e d9d0 733d c9be d6bb f89c a83d
00000040: 7155 a6bc ed4c 8b3d 5584 233d 2a78 b53d
00000050: 02fb a8bc 8425 dfbd aceb 19bd 934b dfbd
00000060: b8ee 4fbe 6357 9ebd c891 84bd 162f 6ebe
00000070: 39fb 38bd 8d40 68be bd53 183d 48f7 8cbd
00000080: fb85 f83a d4aa 24bb 6f56 86bd 3b05 b2bd
00000090: 03f1 993b 485d 443d 8df7 ac3c 8e22 82bd
000000a0: d917 95bd 8102 be3c de55 01bc ca19 36be
000000b0: e61f a5bd 645c f9bd 15f6 bebd 70a1 743d
000000c0: b9bd 783b c561 ab3d f703 053e 1dfd 8e3d
000000d0: 68dd 4e3c 1c2d e63d 7c4c b0bd 7f36 e5bd
000000e0: 05a0 1cbd d2d7 58bc cd4e 273e 84d7 bb3d
000000f0: eba5 003e 8fcd d7bd 35a7 76bd ea2a 4fbe
00000100: 4be4 78bb 4e60 2b3e 978c c1bd dd37 983c
00000110: 9bbf f7bd 9558 fc3a d625 79bc b670 9bbd
00000120: 6fba 70be a7cd 7e3c d5c8 19bd 41f6 8abd
00000130: 9ef9 1dbd d5dc bfbd 1ca9 dc3c 6759 13be
00000140: 2523 cc3d c0e8 47be acee 52bd 31ff 353d
00000150: 5f89 49bb ef54 223d d509 ea3d 5f35 d43d
00000160: c3a5 25be 5d1e 3ebe f3bc b03c 2d9d d03d
00000170: 4c4d e7bd ca43 64bd 740e dcbd 1ddc 45bd
00000180: d781 d0bd f9c5 bfbd 09fc 13bd e147 c3bd
00000190: 6ed2 c53d 055e cb3c 73e3 613d 5d29 3dbc
000001a0: 16f8 ddbc 14ab 933d ddb6 06be 41f8 69be
000001b0: 078b 573c 6065 5cbd 6630 80bc 8bb0 1a3c
000001c0: 1a06 d03d bcf4 15bd 8663 16bd 43e0 023e
000001d0: 4c22 a4bb d552 9e3d 8b45 1bbd 781d de3d
000001e0: 5a83 c1bc 3126 e2bd eec0 1f3e fec8 0c3d
000001f0: d508 29be 7288 9e3d 386b fc3d a7f0 b1bd
00000200: 0bc0 46be 4887 2dbe aee1 5dbd 9c52 a43d
00000210: 9739 cabd 4114 be3c 25be 903d 2f4d 313a
00000220: 5145 86bc 6e8f 82be 935a b63d e41a 3f3d
00000230: 05cf 133e d1d4 abbd a5f1 8cbd bdd1 c4bd
00000240: 637c bf3d a390 4dbe 8aaa c43c 90dc 1d3d
00000250: 9e29 0d3e 139f 423d 5b82 883c 64e8 393e
00000260: 0257 4e3d f492 633b 8654 78bd 5b34 4ebe
00000270: d45a aa3c 9686 8f3d 2dd4 44bd c365 72bd
00000280: b966 8e3d 3850 e4bc a532 26be a54d 84bd
00000290: fdaa c53d ac83 07bd d1d3 803d 0a40 9abc
000002a0: a0ee 71bd 701a 19be 5084 8fbc 048b a93d
000002b0: 97e4 b83d 5f49 c6bd c65d aebb 9e34 23be
000002c0: 17ad e4bc be57 9d3d 8291 53bd a97b f03b
000002d0: b7b9 953b 36c9 e83b c19b b1bb bed7 19bd
000002e0: 8791 693d bc08 25bd c28c c9bd 5479 983c
000002f0: a6f0 42bd 9b8b 29bd a0a4 a6bc 089d c5bc
00000300: 47ae 573b 4f0d a33c 227e fa3d 8434 a9bd
00000310: 6e5c 38be 3daa 193d 93f8 a7bd e225 c13d
00000320: 0b3b de3d 5c53 a7bc 1eac c2bc 18fe 05bb
00000330: 54e1 c6bc e0af 1ebe c8b6 ce3d cb31 99bd
00000340: 6211 a1bc e85c 96bd 9297 b83d fc0f bfbd
00000350: d419 03be bc6c ac3c 568f 29bd 3b0a 34bd
00000360: 1e94 4dbd c87d 3abe 67f8 193e faeb d1bd
00000370: 975a 48bc 058e bf3c c997 fdbd 370a 343d
00000380: 473d 0abc c380 76bd 7088 80bc da55 2f3e
00000390: d622 f8bd ef92 f0bd 119c c7bd 5644 ffbd
000003a0: 803e 56bd 7e25 5bbd 075d e5bd fec1 28bd
000003b0: b041 d8bc 7fd3 5d3c dfea abbc 85d9 e73c
000003c0: 16ed cebd 8b3b debc 2ad9 333d 13a1 913d
000003d0: 21cf c53d e89f d9bd ea57 95bd bb72 f33d
000003e0: d3b0 60bd 334a 4abc dc28 29bd 86f2 15be
000003f0: 409d 4bbd 9b7e 7ebd e521 acba e1cf 223d

base.cnn.2.bias f4 [64]
-0.060608182 -0.05254157 -0.03329796 -0.015044294 0.0015005784 -0.046061713 0.037523285 -0.003563597
0.013674937 -0.05310066 -0.009190373 -0.010983689 -0.035618335 -0.02057822 -0.023815978 -0.012767173
-0.0629794 0.027776385 -0.024037158 -0.017737249 -0.025237853 -0.0032828092 0.0106276395 -0.018548867
-0.04865695 -0.044974633 -0.009238535 -0.01912513 -0.0035282804 -0.021871576 0.006243146 -0.03886836
0.011261481 -0.0007998923 0.019614909 -0.053412296 -0.025763314 -0.022293966 0.0010627542 -0.02787652
0.009176637 -0.015291038 -0.03279558 -0.0037797254 -0.05334936 -0.013481441 -0.059734467 0.015703715
-0.03482477 -0.033239078 -0.012608154 -0.046186794 -0.0325404 0.011764494 0.012274191 0.0074811676
-0.012222158 -0.02101109 -0.0043573775 -0.038851656 -0.05245068 0.004456134 -0.00083558034 -0.021217912
00000000: 4940 78bd d435 57bd 7163 08bd 587c 76bc
00000010: 0eaf c43a 35ab 3cbd 04b2 193d 3d8b 69bb
00000020: d80c 603c 1480 59bd 3893 16bc eef4 33bc
00000030: 88e4 11bd a893 a8bc ba19 c3bc 682d 51bc
00000040: 58fb 80bd 4d8b e33c 93e9 c4bc b54d 91bc
00000050: 9dbf cebc 6624 57bb 8d1f 2e3c cbf3 97bc
00000060: 834c 47bd 5237 38bd 395d 17bc 4eac 9cbc
00000070: b93a 67bb 052c b3bc 4e93 cc3b 6e34 1fbd
00000080: 1382 383c ddaf 51ba 72af a03c dac6 5abd
00000090: 960d d3bc d6a1 b6bc 1d4c 8b3a 4d5d e4bc
000000a0: 9b59 163c 4387 7abc a854 06bd 45b5 77bb
000000b0: dc84 5abd 43e1 5cbc 21ac 74bd 14a5 803c
000000c0: 6ba4 0ebd b325 08bd 6e92 4ebc 5d2e 3dbd
000000d0: 1549 05bd ddbf 403c b019 493c 9524 f53b
000000e0: 723f 48bc 731f acbc 55c8 8ebb ea22 1fbd
000000f0: 86d6 56bd c304 923b d90a 5bba 30d1 adbc

base.cnn.4.weight f4 [32, 64, 3, 3]
-0.006696044 0.07136608 0.07780048 -0.013509047 -0.076319374 0.014081202 0.04959864 -0.12629755
0.010511389 -0.04624156 0.056350097 -0.00019536373 -0.03517317 0.04621678 -0.06587105 0.11060893
-0.012564648 -0.026868884 0.06971528 0.030196317 0.091231756 0.1266484 0.17015125 -0.054031033
0.0368226 0.047546793 -0.013033542 -0.07629365 -0.07948433 -0.014275931 -0.09228225 -0.008355854
-0.058296345 -0.04570269 -0.03834226 -0.026044995 0.046685863 -0.07412926 -0.006386431 0.035951633
-0.04179569 0.19957416 0.0046036923 -0.048381917 0.1808424 0.026431449 -0.07034148 -0.19640845
-0.066206194 -0.048533514 0.04797223 -0.09776409 0.09106355 0.03561373 -0.08327383 -0.06046484
-0.03567694 -0.0055190474 0.09248502 0.032786235 0.04307198 -0.1423056 0.033840176 -0.049308494
-0.0009332657 0.16302274 -0.0826181 0.038714215 0.004365525 0.05205241 0.11411077 -0.0672254
-0.02814276 -0.08328484 0.053242818 -0.069818236 -0.069061376 -0.15553685 -0.068684384 0.038439177
-0.04111534 0.07725995 -0.04329161 -0.025234057 -0.018794995 0.04155681 -0.051092286 -0.056985892
0.029436631 -0.043481976 0.044728067 -0.1359558 0.04758424 -0.005090421 -0.0035523104 0.048628774
0.06449886 -0.11153145 0.19867806 -0.045336805 -0.114052735 -0.09625003 0.08734959 -0.07004725
-0.028391775 -0.14195724 0.06017332 0.16614904 0.0055854204 -0.09452223 0.028813373 -0.011963517
-0.075574 0.079056576 0.06684155 0.039824944 0.046519373 0.055680186 0.01958444 -0.009017577
0.05346295 -0.05551275 0.041597087 0.013221625 -0.033905216 -0.084920295 0.06620892 -0.0046563908
0.12642168 -0.11975202 0.032587476 0.010946435 0.0070181238 -0.17500368 -0.08391913 0.09706168
-0.11251258 0.07037946 -0.057362664 0.068831965 0.010991872 -0.056910306 -0.07504962 0.0062706405
0.009858384 -0.13122626 0.05987048 -0.06636481 -0.06591049 0.060847964 -0.10558409 -0.04195632
0.024814796 -0.020725189 -0.11740485 -0.019390084 0.054997984 -0.0032278537 -0.044036206 -0.009373023
-0.045597646 0.0039504315 -0.07518579 -0.08602311 -0.06504438 -0.041519735 -0.051096324 -0.110612914
0.13115063 0.031300277 0.037304983 -0.09836135 0.16586927 -0.19568892 -0.02187271 0.06225969
0.10729395 0.060519524 0.03208649 0.017225847 0.08054457 -0.1269374 -0.0056788777 -0.12045362
0.086212054 0.00881353 -0.10471255 0.086040534 0.09169929 0.0044480367 -0.07709734 0.04173311
-0.04875707 -0.030078053 -0.050836228 0.056296322 0.02675691 0.0050729583 -0.018072182 -0.042869426
-0.11783323 -0.035592157 -0.06420727 0.013949322 0.1611173 -0.056446657 0.024606036 -0.10610417
-0.06571732 -0.0053796335 -0.083348356 -0.08520448 -0.059513114 -0.04936486 -0.039460134 0.065881126
-0.08274866 -0.061393913 -0.029832851 0.00046463494 0.0061064665 0.044973854 0.033994216 -0.020382734
-0.026109243 -0.016843388 -0.054037362 -0.10180747 0.09387185 -0.004087453 -0.16553344 -0.015270439
0.13965839 -0.12948355 0.008953943 0.0063892626 -0.075524814 -0.16662544 -0.0182074 0.13101617
-0.036453813 0.124937475 0.09646145 0.019205686 -0.08804268 0.04705371 0.054065544 -0.025632666
0.0466493 -0.10962797 -0.123410285 0.033765417 0.05302467 0.0825156 -0.13354845 0.005179456
00000000: 7d6a dbbb 6128 923d dc55 9f3d 0d55 5dbc
00000010: 554d 9cbd d8b4 663c f227 4b3d 2554 01be
00000020: f637 2c3c ca67 3dbd 5ccf 663d 8dda 4cb9
00000030: be11 10bd ce4d 3d3d 67e7 86bd ef86 e23d
00000040: f4db 4dbc 221c dcbc e2c6 8e3d 445e f73c
00000050: b7d7 ba3d 1eb0 013e 213c 2e3e a54f 5dbd
00000060: 4bd3 163d 6dc0 423d a38a 55bc d83f 9cbd
00000070: aec8 a2bd 98e5 69bc 7afe bcbd fee6 08bc
00000080: 26c8 6ebd be32 3bbd c60c 1dbd 505c d5bc
00000090: ad39 3f3d 15d1 97bd 4445 d1bb 0542 133d
000000a0: f531 2bbd 2b5d 4c3e 92da 963b 1e2c 46bd
000000b0: c02e 393e c486 d83c 320f 90bd 4c1f 49be
000000c0: 1d97 87bd 14cb 46bd 877e 443d 8a38 c8bd
000000d0: 877f ba3d b4df 113d 788b aabd fba9 77bd
000000e0: fc21 12bd 20d9 b4bb c968 bd3d dc4a 063d
000000f0: 3f6c 303d 8fb8 11be ff9b 0a3d b4f7 49bd
00000100: 67a6 74ba 6fef 263e ae33 a9bd cc92 1e3d
00000110: ae0c 8f3b e834 553d e8b2 e93d 78ad 89bd
00000120: a58b e6bc 3e91 aabd 2415 5a3d ddfc 8ebd
00000130: 0d70 8dbd 0d45 1fbe 66aa 8cbd 6672 1d3d
00000140: 8f68 28bd 773a 9e3d 8b52 31bd a7b7 cebc
00000150: f6f7 99bc 7937 2a3d 2546 51bd 0a6a 69bd
00000160: 1725 f13c 281a 32bd c734 373d ff37 0bbe
00000170: b1e7 423d 8ccd a6bb e1cd 68bb f72e 473d
00000180: fa17 843d 9a6a e4bd 4372 4b3e 16b3 39bd
00000190: 7b94 e9bd bc1e c5bd 58e4 b23d ef74 8fbd
000001a0: de95 e8bc 3d5d 11be 4d78 763d f922 2a3e
000001b0: e705 b73b df94 c1bd 060a ec3c a102 44bc
000001c0: 8bc6 9abd 6ae8 a13d 39e4 883d 7b1f 233d
000001d0: 198b 3e3d e810 643d 8c6f a03c 76be 13bc
000001e0: f7fb 5a3d 5661 63bd b561 2a3d 849f 583c
000001f0: 32e0 0abd b1ea adbd 8b98 873d a394 98bb
00000200: af74 013e 8c40 f5bd 727a 053d ad58 333c
00000210: 4af8 e53b 2a34 33be cbdd abbd 46c8 c63d
00000220: ff6c e6bd 1b23 903d 1df5 6abd c6f7 8c3d
00000230: 4117 343c c81a 69bd 9db3 99bd f279 cd3b
00000240: 0f85 213c 2d60 06be c03a 753d 46ea 87bd
00000250: 14fc 86bd b73b 793d 793c d8bd 64da 2bbd
00000260: 6648 cb3c dfc7 a9bc f471 f0bd f4d7 9ebc
00000270: 9145 613d 668a 53bb 4f5f 34bd 4f91 19bc
00000280: 99c4 3abd 9f72 813b 02fb 99bd e22c b0bd
00000290: fd35 85bd 9910 2abd 614a 51bd 0689 e2bd
000002a0: 5a4c 063e b834 003d 1ccd 183d ad71 c9bd
000002b0: a2d9 293e ad62 48be 662e b3bc 0404 7f3d
000002c0: eebc db3d 52e3 773d 206d 033d 381d 8d3c
000002d0: 8df4 a43d e1fb 01be e115 babb 63b0 f6bd
000002e0: f28f b03d a066 103c 8973 d6bd 0536 b03d
000002f0: d6cc bb3d d6c0 913b 36e5 9dbd 56f0 2a3d
00000300: 7eb5 47bd 4066 f6bc a639 50bd f996 663d
00000310: 4f31 db3c 0f3b a63b 1d0c 94bc da97 2fbd
00000320: 8c52 f1bd 15c9 11bd 1a7f 83bd b28b 643c
00000330: effb 243e 9c34 67bd 9992 c93c 254d d9bd
00000340: cd96 86bd a347 b0bb 8bb2 aabd b07f aebd
00000350: 06c4 73bd cf32 4abd f3a0 21bd afec 863d
00000360: 2178 a9bd 2f78 7bbd 0664 f4bc 3f9a f339
00000370: c118 c83b 8136 383d 853d 0b3d b1f9 a6bc
00000380: 0de3 d5bc 25fb 89bc 4856 5dbd 6f80 d0bd
00000390: e23f c03d 0af0 85bb 9981 29be dd30 7abc
000003a0: 9c02 0f3e 5697 04be 8fb3 123c 055d d13b
000003b0: c1ac 9abd dc9f 2abe af27 95bc 1a29 063e
000003c0: 9850 15bd 38df ff3d 958d c53d 3e55 9d3c
000003d0: b84f b4bd 64bb 403d d573 5d3d 99fb d1bc
000003e0: 5613 3f3d a184 e0bd 88be fcbd 9b4d 0a3d
000003f0: 6530 593d f0fd a83d edc0 08be 6db8 a93b

base.cnn.4.bias f4 [32]
-0.010633263 0.008643841 -0.0015585112 -0.01953102 -0.0360371 -0.02302024 -0.049447168 -0.03424716
-0.037918504 -0.022319684 -0.0012163026 -0.027510267 -0.045628954 -0.05732441 0.006857005 -0.0048539853
-0.010413026 -0.03771392 -0.029464591 0.008360877 -0.016987035 -0.0071854936 -0.01415991 -0.00956236
-0.012174546 -0.012886873 0.0012064828 -0.00012710219 -0.045227945 -0.02306679 -0.01370256 -0.00041515214
00000000: 2337 2ebc e69e 0d3c f546 ccba 85ff 9fbc
00000010: a39b 13bd f194 bcbc 1d89 4abd c046 0cbd
00000020: 6f50 1bbd c5d7 b6bc 586c 9fba 365d e1bc
00000030: 6de5 3abd 00cd 6abd bab0 e03b 2e0e 9fbb
00000040: 669b 2abc e979 1abd ba5f f1bc 0ffc 083c
00000050: 6528 8bbc 4a74 ebbb f8fe 67bc 72ab 1cbc
00000060: bf77 47bc 7723 53bc d822 9e3a bc46 05b9
00000070: f040 39bd 91f6 bcbc b480 60bc c7a8 d9b9

base.cnn.7.weight f4 [64, 800]
0.00294357 -0.06476091 -0.003271841 -0.06322089 -0.17754063 -0.006384469 0.06714757 0.043555044
-0.009852498 -0.044186402 -0.11412314 -0.034898605 -0.008873 0.024097525 -0.0016648547 -0.027976263
-0.018882988 0.036985323 -0.04236983 -0.07096051 0.04423218 -0.0069123986 0.038444042 0.10700033
-0.00021103842 -0.08088176 -0.04700251 0.02055032 0.037441537 0.056702387 0.007840139 -0.08065706
-0.13311473 -0.094063915 0.0042409375 -0.023330366 -0.051968325 -0.05943503 -0.03377577 -0.10700084
-0.02267939 -0.14907038 0.0939055 -0.033454068 0.0066270735 -0.117705025 -0.017102206 0.0144140525
-0.07391856 -0.044918787 -0.07523723 -0.07106059 0.014648846 0.12712088 -0.0046051503 0.03799637
-0.019133888 0.12113601 -0.07899343 0.040492322 0.05192738 0.014142128 -0.04219495 -0.08613886
-0.13898821 -0.049710933 -0.14889762 0.028088374 -0.032368068 0.008368997 -0.10383785 -0.18110316
0.16855498 -0.062091377 -0.055974547 0.08489683 0.024958234 -0.0775138 -0.008585216 -0.041401953
-0.17607015 0.0055738958 0.03579244 0.18583103 0.042942185 0.072880924 -0.10180507 -0.0053750034
0.0077277245 0.018791735 -0.07299237 0.037340425 0.07896321 0.05805805 -0.0636714 -0.051352024
0.03959262 -0.072720364 0.05169492 -0.11828849 -0.053257536 0.09652107 -0.049176414 0.0065871743
-0.082312286 -0.008875104 0.0035020125 -0.14726679 -0.11569912 -0.04558167 -0.097957864 -0.07605693
-0.1286975 0.08779609 0.06437233 -0.0068534976 0.016738545 -0.008207586 -0.008570657 0.10155388
0.0032561983 -0.027312547 0.01963632 0.04555862 -0.08991142 -0.018822748 0.0048762 -0.0234401
-0.1178401 -0.08826555 0.013361591 -0.019576546 -0.0014900313 -0.09191287 -0.05252945 -0.13084936
0.037581254 -0.055285763 -0.030906692 -6.151257e-05 -0.02762334 -0.10155096 -0.035195757 0.0729882
-0.0021207377 -0.050396215 -0.009103055 0.0019412312 0.085658744 0.022909796 -0.07243589 0.025102643
-0.01975792 0.10937318 -0.071801566 -0.04377153 0.06001161 -0.069226615 0.042393483 0.011300427
0.038030427 -0.020051252 -0.054128014 -0.05243094 -0.044138577 -0.28884953 -0.015401323 -0.10846123
0.009468936 0.1309502 -0.16885084 0.088105746 -0.026342845 -0.083399504 -0.0971621 -0.026312416
-0.026043495 -0.09335846 0.11699473 0.011102103 0.03497888 -0.016160555 -0.0979262 -0.025613427
-0.14411156 0.0034960369 -0.07458528 -0.004311145 -0.02513366 -0.027732741 -0.022794086 -0.062951595
0.037447102 0.06226473 0.078887045 -0.025865668 0.03398916 -0.058812544 -0.12764344 -0.0077816145
0.07338033 0.0562164 -0.0619968 0.04561137 0.009002657 -0.0034411906 0.005731309 0.047687735
0.041733604 -0.013121091 0.008492437 0.12056973 0.053090256 0.009116183 -0.07498102 -0.062385585
-0.020501373 -0.00425567 -0.07789551 -0.078650415 -0.061123077 0.042531706 0.038303707 -0.03483539
-0.06537213 -0.12272278 0.06997115 -0.050757058 -0.023519287 0.09336755 0.061791632 0.006832348
-0.010574148 -0.046050146 -0.09330538 0.08145447 -0.10773842 -0.08204036 -0.052024644 -0.063218504
0.019507233 0.070805 -0.039829317 -0.057562716 -0.049681187 -0.03256049 -0.05301131 -0.04585963
-0.098657794 -0.0044915588 0.017818859 0.002163923 -0.11267139 -0.053642705 0.09220905 -0.075876094
00000000: e9e8 403b 5ea1 84bd 626c 56bb f479 81bd
00000010: 36cd 35be cf34 d1bb aa84 893d c666 323d
00000020: 5f6c 21bc cdfc 34bd 65b9 e9bd d7f1 0ebd
00000030: 0f60 11bc 2c68 c53c 4137 daba 7a2e e5bc
00000040: 7fb0 9abc ec7d 173d fd8b 2dbd be53 91bd
00000050: cd2c 353d 6781 e2bb 8077 1d3d fd22 db3d
00000060: 324a 5db9 56a5 a5bd b485 40bd 2559 a83c
00000070: 4c5c 193d c340 683d ed73 003c 872f a5bd
00000080: 3a4f 08be 95a4 c0bd 90f7 8a3b 531f bfbc
00000090: bddc 54bd 2572 73bd 7658 0abd 4223 dbbd
000000a0: 21ca b9bc e8a5 18be 8751 c03d 2207 09bd
000000b0: ec27 d93b 550f f1bd ed19 8cbc eb28 6c3c
000000c0: 9d62 97bd c3fc 37bd fa15 9abd 3788 91bd
000000d0: b701 703c fa2b 023e cde6 96bb 15a2 1b3d
000000e0: acbe 9cbc 2816 f83d 4fc7 a1bd 47db 253d
000000f0: ceb1 543d 62b4 673c 9dd4 2cbd 9269 b0bd
00000100: ed52 0ebe b19d 4bbd 9e78 18be 9719 e63c
00000110: 6194 04bd 1e1e 093c f0a8 d4bd 1b73 39be
00000120: ad99 2c3e 8753 7ebd 9145 65bd 64de ad3d
00000130: 3675 cc3c 8ebf 9ebd 01a9 0cbc 1895 29bd
00000140: bc4b 34be 3aa5 b63b 189b 123d 7d4a 3e3e
00000150: 25e4 2f3d 9842 953d 2d7f d0bd cc20 b0bb
00000160: da38 fd3b 20f1 993c 067d 95bd 46f2 183d
00000170: 77b7 a13d 47ce 6d3d 2766 82bd 8056 52bd
00000180: df2b 223d 6aee 94bd 0dbe 533d 3c41 f2bd
00000190: 9324 5abd d7ac c53d 356d 49bd 39d9 d73b
000001a0: 5893 a8bd e268 11bc 0582 653b 1bcd 16be
000001b0: a9f3 ecbd d8b3 3abd 229e c8bd bcc3 9bbd
000001c0: 47c9 03be 70ce b33d a4d5 833d 4e93 e0bb
000001d0: 461f 893c 1c79 06bc f16b 0cbc 7bfb cf3d
000001e0: f165 553b 90be dfbc 59dc a03c ad9b 3a3d
000001f0: 7b23 b8bd 2a32 9abc 88c8 9f3b 7405 c0bc
00000200: 2656 f1bd 92c4 b4bd 93ea 5a3c fe5e a0bc
00000210: 274d c3ba d13c bcbd 1f29 57bd 60fd 05be
00000220: cdee 193d 5373 62bd 0830 fdbc 4f00 81b8
00000230: 584a e2bc f3f9 cfbd 6d29 10bd d67a 953d
00000240: 13fc 0abb 436c 4ebd fb24 15bc e970 fe3a
00000250: da6d af3d 53ad bb3c 4559 94bd 0fa4 cd3c
00000260: 5ddb a1bc 0cff df3d b30c 93bd c749 33bd
00000270: bcce 753d afc6 8dbd caa4 2d3d 6d25 393c
00000280: cbc5 1b3d 8642 a4bc 56b5 5dbd d3c1 56bd
00000290: a7ca 34bd 16e4 93be d555 7cbc ec20 debd
000002a0: 9923 1b3c cf17 063e 3ce7 2cbe c970 b43d
000002b0: f3cc d7bc 5ccd aabd ecfc c6bd 238d d7bc
000002c0: 2b59 d5bc b832 bfbd ef9a ef3d 98e5 353c
000002d0: 0446 0f3d 2463 84bc 888d c8bd 40d3 d1bc
000002e0: fb91 13be c41d 653b 2bc0 98bd 8144 8dbb
000002f0: 1be5 cdbc c62f e3bc aaba babc c4ec 80bd
00000300: 2262 193d 4d09 7f3d 888f a13d 3de4 d3bc
00000310: 3838 0b3d 6ce5 70bd f6b4 02be eafc febb
00000320: 6d48 963d 2b43 663d 5bf0 7dbd fdd2 3a3d
00000330: e17f 133c 9985 61bb b4cd bb3b 3754 433d
00000340: dbf0 2a3d d8f9 56bc dd23 0b3c 43ed f63d
00000350: 2b75 593d 0b5c 153c a68f 99bd 0788 7fbd
00000360: 7ff2 a7bc 2673 8bbb ae87 9fbd 7813 a1bd
00000370: 315c 7abd ba35 2e3d 59e4 1c3d 8eaf 0ebd
00000380: d3e1 85bd 1556 fbbd 094d 8f3d a2e6 4fbd
00000390: 85ab c0bc 7c37 bf3d 3919 7d3d e4e1 df3b
000003a0: 313f 2dbc 149f 3cbd e416 bfbd 9ad1 a63d
000003b0: f6a5 dcbd c704 a8bd cb17 55bd b478 81bd
000003c0: a2cd 9f3c 3602 913d 1124 23bd e2c6 6bbd
000003d0: 807e 4bbd 265e 05bd 6322 59bd 4fd7 3bbd
000003e0: 190d cabd ed2d 93bb dbf8 913c 9bd0 0d3b
000003f0: 42c0 e6bd 74b8 5bbd 19d8 bc3d ed64 9bbd

base.cnn.7.bias f4 [64]
-0.050199855 0.010080125 -0.008236125 -0.014680059 -0.0032394442 0.013248619 0.009171546 0.0077203386
-0.006977913 -0.0315061 0.00013847263 0.004464387 0.011045694 -0.00088449824 -0.036082413 -0.013690586
-0.0076118107 -0.029490735 -0.008301214 -0.020627724 -0.015532797 -0.029411683 -0.021393443 -0.03247892
0.0038587567 -0.022922622 -0.049573913 -0.00819899 -0.0003030873 -0.013388865 -0.026098259 -0.004992091
-0.016139288 -0.019200532 -0.011705234 -0.014920775 -0.012262471 -0.016199144 -0.032850873 0.0062058424
0.03207532 -0.022746662 -0.00524226 -0.014078696 0.025925247 -0.014798754 -0.023035387 -0.03844687
-0.023928953 0.0103930235 -0.00809772 -0.042854894 -0.021618167 -0.006838063 -0.024208449 -0.013581769
-0.022575706 0.008734254 0.009813502 -0.00628319 -0.044675745 -0.01905814 -0.012744213 -0.028208628
00000000: 5d9e 4dbd 1c27 253c d0f0 06bc a184 70bc
00000010: db4c 54bb bc10 593c 4144 163c e5fa fc3b
00000020: faa6 e4bb 8a0c 01bd f732 1139 fe49 923b
00000030: 00f9 343c acdd 67ba 27cb 13bd 7b4e 60bc
00000040: 7f6c f9bb 8e96 f1bc d101 08bc 79fb a8bc
00000050: 467d 7ebc c5f0 f0bc 4d41 afbc 9e08 05bd
00000060: 32e3 7c3b 39c8 bbbc 040e 4bbd 0e55 06bc
00000070: b0e7 9eb9 f85c 5bbc 04cc d5bc b294 a3bb
00000080: 8a36 84bc 6f4a 9dbc 4fc7 3fbc 4476 74bc
00000090: 88e8 48bc 11b4 84bc a38e 06bd 615a cb3b
000000a0: 6961 033d 3557 babc 44c7 abbb 55aa 66bc
000000b0: 2f61 d43c 7976 72bc b5b4 bcbc 777a 1dbd
000000c0: a706 c4bc 8047 2a3c 4dac 04bc 9d88 2fbd
000000d0: 9518 b1bc d411 e0bb cc50 c6bc 1186 5ebc
000000e0: b0f0 b8bc 1e1a 0f3c d0c8 203c 38e3 cdbb
000000f0: eafd 36bd d11f 9cbc 1bcd 50bc c815 e7bc

base.cnn.9.weight f4 [64]
1.0179548 0.98184806 1.0556352 1.0187747 0.9568442 1.01254 0.9505695 1.0061595
0.9795075 0.9270143 1.0571104 0.9698265 1.0332377 1.010873 1.0449882 1.026049
0.9895905 1.0068356 0.97449714 1.0006168 0.9364127 1.0851882 1.0288512 1.0122703
0.9778341 1.0656999 1.0018847 0.9456938 1.1155437 1.0022384 0.9986779 1.0118384
0.9955124 1.0818403 1.0392646 1.0479488 0.97976595 1.0180691 1.022064 0.9993696
1.0269704 1.0370132 1.0593901 0.98350096 0.98821014 1.0069284 0.9825677 0.9884843
1.0840148 1.0260413 1.0078052 0.9417767 0.98337984 1.091552 0.99489427 0.94216603
0.9723675 1.033747 0.9945167 1.1131248 0.96493393 0.99308515 0.9539211 0.98466146
00000000: 584c 823f 655a 7b3f 0e1f 873f 3667 823f
00000010: bef3 743f e99a 813f 8658 733f d6c9 803f
00000020: 01c1 7a3f cf50 6d3f 654f 873f 8d46 783f
00000030: 2241 843f 4964 813f 2cc2 853f 9355 833f
00000040: ce55 7d3f fddf 803f a578 793f 3614 803f
00000050: beb8 6f3f 72e7 8a3f 65b1 833f 1392 813f
00000060: 5653 7a3f db68 883f c23d 803f fd18 723f
00000070: 23ca 8e3f 5949 803f 5ba9 7f3f ec83 813f
00000080: e7d9 7e3f be79 8a3f 9f06 853f 3023 863f
00000090: f1d1 7a3f 1750 823f fed2 823f b0d6 7f3f
000000a0: c473 833f d9bc 843f 189a 873f b8c6 7b3f
000000b0: 57fb 7c3f 08e3 803f 8f89 7b3f 4f0d 7d3f
000000c0: ffc0 8a3f 5255 833f c3ff 803f 4718 713f
000000d0: c8be 7b3f fab7 8b3f 64b1 7e3f cb31 713f
000000e0: 14ed 783f d251 843f a598 7e3f e07a 8e3f
000000f0: e905 773f d43a 7e3f 2c34 743f c612 7c3f

base.cnn.9.bias f4 [64]
-0.027067317 -0.0005456166 -0.08317995 -0.045213714 0.009419065 0.029283294 0.02794574 -0.032535367
-0.009811611 0.08246455 -0.016227584 0.0032134473 0.010720993 0.0068587433 -0.060180802 0.03660684
-0.03162012 0.05155257 0.016164508 0.018095981 -0.018813686 -0.052636057 -0.024965663 -0.008937953
0.0056144055 -0.02884058 -0.009181004 0.036113087 -0.07816617 0.021349723 0.009508759 -0.044668633
0.0129790185 0.019175008 0.013221055 -0.007243453 0.05139526 -0.04304641 -0.038005557 0.020351656
-0.0017670031 -0.020153169 -0.056723595 0.063569084 0.05036738 -0.014671589 -0.007980129 0.024615815
-0.0022544034 0.04216952 -0.0232828 0.055614673 -0.0028507772 -0.05834061 -0.01619183 0.06003853
0.016283847 -0.019631267 0.023999132 -0.1148522 0.0379014 0.01234136 0.1104573 0.017952237
00000000: 47bc ddbc b607 0fba 405a aabd 0432 39bd
00000010: 6c52 1a3c 85e3 ef3c 77ee e43c ce43 05bd
00000020: e1c0 20bc 2de3 a83d b6ef 84bc b398 523b
00000030: 1ba7 2f3c 4fbf e03b 2580 76bd 0ef1 153d
00000040: 1984 01bd ca28 533d 6e6b 843c 063e 943c
00000050: 291f 9abc e898 57bd ca84 ccbc 7e70 12bc
00000060: 0cf9 b73b 1443 ecbc ec6b 16bc 51eb 133d
00000070: 9615 a0bd 9de5 ae3c a0ca 1b3c 75f6 36bd
00000080: f3a5 543c e814 9d3c 209d 583c 7d5a edbb
00000090: d683 523d 6f51 30bd b7ab 1bbd 84b8 a63c
000000a0: c99a e7ba 4218 a5bc 0057 68bd 8230 823d
000000b0: 074e 4e3d 1b61 70bc 16bf 02bc 1ba7 c93c
000000c0: 9dbe 13bb f2b9 2c3d 92bb bebc 36cc 633d
000000d0: 1bd4 3abb 90f6 6ebd bba4 84bc f6ea 753d
000000e0: b465 853c c0d1 a0bc d499 c43c a137 ebbd
000000f0: 803e 1b3d 6a33 4a3c 7037 e23d 9210 933c

base.cnn.10.weight f4 [64, 64]
-0.020706655 -0.29523945 -0.0648977 -0.015377977 -0.17989685 0.19109114 -0.17273982 0.010483393
-0.23649044 0.1616598 0.008921604 -0.16934393 0.0012558978 -0.0040339413 0.06680941 -0.11085082
0.037150975 0.2073711 0.22486797 0.012239141 -0.01603464 -0.36240378 0.07894361 0.15571074
0.08431943 -0.18850012 0.08724563 0.06808829 0.070334285 0.18687236 0.35011432 -0.050577793
-0.11108151 0.37565434 -0.026135176 -0.0516873 -0.009297122 0.028000258 -0.15592985 -0.08245182
-0.33365244 0.17624836 0.29956383 0.46822086 -0.2739066 0.028594077 -0.07105919 0.01865857
0.62960494 -0.1684051 -0.2066065 -0.116228096 -0.07909139 0.42750928 -0.29720733 -0.22327824
0.17363594 -0.27937254 -0.021223325 0.15561926 -0.05480923 0.110014684 0.08505216 -0.020301579
0.2635232 -0.34729353 0.18854038 -0.21036415 -0.3355688 -0.05043626 0.07132276 0.040155422
0.15731221 -0.07164426 -0.21236102 0.024066666 -0.27783296 0.24728458 0.06334966 0.16248901
0.036095805 0.0765212 -0.26045203 -0.07318909 -0.21083185 -0.045495555 0.021861361 0.073674455
0.20144182 0.25244877 -0.24719499 0.10258642 -0.06379455 -0.09820437 0.31645447 0.20474717
0.10625899 0.3973414 -0.16154496 0.19627228 -0.025482869 -0.20683837 0.28256476 -0.075336665
0.22273037 0.29939649 0.1548911 -0.27769652 -0.10886312 -0.039297115 -0.26205495 -0.20833614
-0.42099983 0.3160278 -0.08539225 -0.023510339 0.0053306734 -0.086835854 -0.1732703 -0.16701195
0.22643222 -0.019811507 0.06944316 0.26084554 0.008868517 -0.18559797 0.12778461 0.12470822
0.10426973 0.10037006 -0.13990954 0.2068695 -0.2717987 0.2280325 0.09571733 0.10488659
-0.019231979 -0.13934162 0.02512024 0.09303296 -0.1184296 0.21052942 0.22542958 0.084089436
-0.25509304 -0.33410335 -0.3683977 -0.110641964 -0.16513558 -0.19380708 0.29525137 -0.055922557
-0.13602209 -0.3987098 0.012578299 0.16740717 -0.10374019 0.12195056 -0.20394118 0.18652582
0.08686009 -0.1140068 -0.20406091 -0.18989359 -0.35132223 0.26087496 -0.0841275 0.22758852
0.1294561 -0.16952486 -0.04808176 -0.07093261 0.07762005 0.09887119 -0.13497354 -0.08207396
0.11086562 -0.19866563 0.013309967 0.007876121 0.23851807 -0.5369729 -0.22230619 -0.25809956
-0.15727557 -0.19136451 -0.113532834 0.13811365 0.3465378 0.30483043 0.22195435 0.09816267
0.025985604 -0.02683316 0.04726498 0.06098353 -0.0081056 0.29075387 -0.014891673 0.16801092
0.18400618 -0.21812174 -0.091943465 -0.29880863 -0.18659322 -0.08453514 0.28449816 -0.37847176
0.045071 -0.08491545 0.24493676 0.0010880835 0.14524874 0.02356471 0.1169764 0.15686584
-0.25803337 0.11757039 -0.11445485 -0.016374154 0.33475158 0.12756482 -0.44700038 0.3715884
-0.31346086 0.09082806 0.2751872 -0.050155256 -0.12636954 -0.19409136 0.3175345 -0.08962893
-0.05101089 -0.13239935 0.22833936 -0.0858815 0.04682332 -0.13206986 -0.23052724 -0.015539999
0.16425563 -0.19642268 0.116281874 0.3144253 -0.38710704 0.043334264 0.24944516 -0.09830116
0.068847574 -0.16833581 -0.07066727 -0.003893429 0.17265594 -0.31064647 0.11766663 0.06661531
00000000: 01a1 a9bc a029 97be 16e9 84bd e9f3 7bbc
00000010: e136 38be 65ad 433e b5e2 30be 8ac2 2b3c
00000020: 8d2a 72be 268a 253e eb2b 123c 7f68 2dbe
00000030: f09c a43a 272f 84bb 5fd3 883d c105 e3bd
00000040: 9f2b 183d 1759 543e ca43 663e ae86 483c
00000050: 145b 83bc fd8c b9be 30ad a13d a372 1f3e
00000060: aaaf ac3d 2d06 41be d6ad b23d e071 8b3d
00000070: 6c0b 903d 785b 3f3e 2f42 b33e a92a 4fbd
00000080: b47e e3bd c455 c03e 7019 d6bc 10b6 53bd
00000090: f552 18bc cc60 e53c 13ac 1fbe 80dc a8bd
000000a0: 7ed4 aabe 737a 343e 6e60 993e a5ba ef3e
000000b0: 7c3d 8cbe 203e ea3c 7b87 91bd dbd9 983c
000000c0: ca2d 213f 6372 2cbe a890 53be ff08 eebd
000000d0: abfa a1bd 7fe2 da3e 8f2b 98be 0da3 64be
000000e0: 9fcd 313e eb09 8fbe 8adc adbc a85a 1f3e
000000f0: a57f 60bd 614f e13d d42f ae3d 7f4f a6bc
00000100: 83ec 863e 75d0 b1be bb10 413e b369 57be
00000110: accf abbe 4096 4ebd ab11 923d 037a 243d
00000120: 7416 213e 3aba 92bd 2b75 59be 7527 c53c
00000130: 1f40 8ebe 2b38 7d3e 77bd 813d 8563 263e
00000140: 32d9 133d 26b7 9c3d f859 85be 29e4 95bd
00000150: 4ee4 57be 8c59 3abd 9916 b33c a2e2 963d
00000160: c446 4e3e f740 813e af20 7dbe d418 d23d
00000170: b8a6 82bd 5f1f c9bd 5206 a23e 3ea9 513e
00000180: 509e d93d 5570 cb3e 0b6c 25be 9afb 483e
00000190: 73c1 d0bc 70cd 53be 54ac 903e 1c4a 9abd
000001a0: 6e13 643e 7f4a 993e c69b 1e3e 3d2e 8ebe
000001b0: a1f3 debd 03f6 20bd 112c 86be 1256 55be
000001c0: 4a8d d7be 65ce a13e 22e2 aebd c198 c0bc
000001d0: eeac ae3b ffd6 b1bd c56d 31be 2e05 2bbe
000001e0: d9dd 673e be4b a2bc 3738 8e3d 8c8d 853e
000001f0: 424d 113c 650d 3ebe f8d9 023e 0667 ff3d
00000200: 5e8b d53d d18e cd3d 7244 0fbe 99d5 533e
00000210: 3329 8bbe 5a81 693e 7307 c43d c8ce d63d
00000220: 628c 9dbc 92af 0ebe f6c8 cd3c 1188 be3d
00000230: 388b f2bd 0695 573e 03d7 663e 1537 ac3d
00000240: 8e9b 82be 980f abbe a09e bcbe 4198 e2bd
00000250: 4d19 29be 5d75 46be 302b 973e 0d0f 65bd
00000260: 6049 0bbe b123 ccbe 3615 4e3c c96c 2b3e
00000270: bd75 d4bd 37c1 f93d f5d5 50be a000 3f3e
00000280: b4e3 b13d 667c e9bd 58f5 50be 7773 42be
00000290: 82e0 b3be 6791 853e 0a4b acbd f70c 693e
000002a0: 2490 043e ed97 2dbe 61f1 44bd 1e45 91bd
000002b0: 43f7 9e3d fa7c ca3d 8136 0abe 6416 a8bd
000002c0: 840d e33d 016f 4bbe 0c12 5a3c d90a 013c
000002d0: 153e 743e 0e77 09bf 3ca4 63be a025 84be
000002e0: d90c 21be 0ff5 43be e783 e8bd aa6d 0d3e
000002f0: 676d b13e bc12 9c3e 0048 633e 8309 c93d
00000300: c3df d43c 37d1 dbbc ec98 413d dec9 793d
00000310: 5acd 04bc b1dd 943e 34fc 73bc 0e0b 2c3e
00000320: 1e6c 3c3e 4e5b 5fbe db4c bcbd 72fd 98be
00000330: 4b12 3fbe c220 adbd bea9 913e 0dc7 c1be
00000340: 5e9c 383d 27e8 adbd b4d0 7a3e 069e 8e3a
00000350: 16bc 143e c70a c13c 5391 ef3d 70a1 203e
00000360: f31c 84be bfc8 f03d 4e67 eabd 1723 86bc
00000370: 8f64 ab3e 5aa0 023e 3cdd e4be d640 be3e
00000380: f17d a0be 1004 ba3d 56e5 8c3e 996f 4dbd
00000390: 0467 01be e3bf 46be e293 a23e 5f8f b7bd
000003a0: ccf0 50bd b293 07be cbd1 693e a4e2 afbd
000003b0: cfc9 3f3d 523d 07be 550f 6cbe 7b9b 7ebc
000003c0: a132 283e 0723 49be 3125 ee3d 5afc a03e
000003d0: e532 c6be 457f 313d 8d6e 7f3e 1e52 c9bd
000003e0: f5ff 8c3d 3960 2cbe 00ba 90bd e628 7fbb
000003f0: b8cc 303e 0e0d 9fbe 34fb f03d 9c6d 883d

base.cnn.10.bias f4 [64]
-0.0010131263 -0.028829329 0.018390862 -0.043112487 0.009433713 -0.01545101 -0.008433787 -0.025129966
0.02203369 -0.078018434 -0.012342709 0.06096073 -0.08334923 0.019402698 -0.04698244 -0.022729198
0.018129542 -0.033294953 -0.011768025 -0.044230066 -0.039211806 -0.03677431 -0.049550045 -0.10109045
0.011873467 -0.03517663 -0.103335775 -0.066025876 0.012440003 -0.012611097 -0.023864765 0.008881934
-0.033192165 -0.07562863 -0.09323739 -0.111571275 0.01943893 -0.04738175 -0.020294175 -0.041613627
-0.0377696 0.003081593 -0.014649556 -0.0502805 -0.004952115 -0.016372312 -0.094577745 0.016868386
-0.0035085832 -0.0009156277 -0.029674858 -0.025157206 -0.067222275 -0.034638327 -0.030121835 0.037302684
-0.06870716 -0.03709812 -0.0287912 -0.05067078 -0.064313926 -0.076063894 0.031702086 0.029918
00000000: e1ca 84ba 7c2b ecbc 6fa8 963c b896 30bd
00000010: dc8f 1a3c 3c26 7dbc de2d 0abc 5cdd cdbc
00000020: ff7f b43c 21c8 9fbd 1339 4abc f5b1 793d
00000030: 00b3 aabd 68f2 9e3c a970 40bd 9532 babc
00000040: 6884 943c 4a60 08bd adce 40bc 962a 35bd
00000050: 8f9c 20bd a9a0 16bd fdf4 4abd 8308 cfbd
00000060: ee88 423c 5f15 10bd b5a1 d3bd 9338 87bd
00000070: 28d1 4b3c c69e 4ebc 0a80 c3bc 8885 113c
00000080: 82f4 07bd 2fe3 9abd 3ff3 bebd 7b7f e4bd
00000090: 643e 9f3c 5e13 42bd f83f a6bc 0d73 2abd
000000a0: 4cb4 1abd 8df4 493b b104 70bc edf2 4dbd
000000b0: 5a45 a2bb 3a1f 86bc fab1 c1bd 922f 8a3c
000000c0: 42f0 65bb bc06 70ba b018 f3bc 7c16 cebc
000000d0: d5ab 89bd ebe0 0dbd 11c2 f6bc b3ca 183d
000000e0: 57b6 8cbd 33f4 17bd 86db ebbc 2a8c 4fbd
000000f0: 05b7 83bd 63c7 9bbd 0cda 013d 9816 f53c

base.cnn.12.weight f4 [64]
1.0729142 1.0538633 1.0636845 1.0022439 1.0256566 1.1110016 1.0115296 1.0681547
0.990195 1.0570146 0.9564913 1.0892428 0.9731437 1.079563 0.93514633 0.9725106
0.9730359 1.0385572 1.039919 1.0297658 0.9740982 0.9907062 0.9533644 0.9282298
1.0779127 0.88933337 0.874905 0.97735953 0.9581978 1.0533836 0.9924711 1.0495723
1.0062494 1.0397992 1.018336 0.96453434 0.9905266 0.9212951 1.0220731 0.954339
1.0513759 1.004432 1.0605391 1.0391166 1.0689785 0.9882594 0.9188098 1.1060932
0.86148936 1.0669593 0.9888539 0.984784 0.98600316 1.0083429 1.0348395 1.0288243
1.0694143 1.0419433 1.0326537 1.0549461 0.8581659 1.0264319 1.00626 1.0431857
00000000: 4155 893f fee4 863f d026 883f 8749 803f
00000010: b748 833f 4d35 8e3f cd79 813f 4bb9 883f
00000020: 6b7d 7d3f 414c 873f 9ddc 743f 4f6c 8b3f
00000030: f21f 793f 1f2f 8a3f c065 6f3f 74f6 783f
00000040: e118 793f 71ef 843f 111c 853f 5ecf 833f
00000050: 805e 793f ec9e 7d3f b00f 743f 78a0 6d3f
00000060: 0bf9 893f 5aab 633f c6f9 5f3f 3c34 7a3f
00000070: 734c 753f 46d5 863f 9612 7e3f 6358 863f
00000080: c8cc 803f 2418 853f d658 823f b9eb 763f
00000090: 2793 7d3f ffd9 6b3f 4bd3 823f 904f 743f
000000a0: 7c93 863f 3a91 803f bfbf 873f c601 853f
000000b0: 4ad4 883f 91fe 7c3f 1e37 6b3f 7694 8d3f
000000c0: 918a 5c3f 1f92 883f 8725 7d3f ce1a 7c3f
000000d0: b46a 7c3f 6111 813f 9f75 843f 84b0 833f
000000e0: 91e2 883f 665e 853f ff2d 843f 7908 873f
000000f0: c3b0 5b3f 1f62 833f 21cd 803f 1c87 853f

base.cnn.12.bias f4 [64]
0.06256464 0.011170578 0.022582525 0.026031796 0.0049783913 -0.03968176 -0.04791562 -0.019542675
0.034742106 -0.034860086 0.054602105 0.020234568 0.012567715 0.032710217 -0.018915517 0.059372403
0.0034327998 -0.007669706 0.021368379 -0.013158358 0.006446705 0.01298171 -0.042358223 0.0046557123
0.0018829606 -0.033116102 0.051456288 0.011649659 -0.024342205 0.06812261 -0.0366123 -0.0065307296
0.028193295 -0.0059196246 -0.062029675 -0.01747203 0.036717106 -0.012098627 0.0011572349 0.051751517
-0.08103295 0.022683226 0.031809326 -0.05661113 -0.04670691 -0.045616534 0.08150654 -0.033119693
0.00868244 -0.03043189 0.011499336 0.0647144 -0.058991406 -0.009211943 -0.026397917 0.052110083
-0.06279478 -0.023469279 -0.04578562 -0.030718993 0.077262424 -0.066728145 0.0014089734 0.03167037
00000000: e421 803d cd04 373c fdfe b83c a240 d53c
00000010: c621 a33b 5789 22bd 2b43 44bd f617 a0bc
00000020: bd4d 0e3d 73c9 0ebd 75a6 5f3d f7c2 a53c
00000030: d1e8 4d3c 26fb 053d b7f4 9abc 7a30 733d
00000040: d3f8 603b 2852 fbbb bd0c af3c 2796 57bc
00000050: e23e d33b 3db1 543c d17f 2dbd f28e 983b
00000060: accd f63a c0a4 07bd d4c3 523d 36de 3e3c
00000070: 4e69 c7bc de83 8b3d c7f6 15bd bbff d5bb
00000080: a0f5 e63c 69f9 c1bb d412 7ebd 8121 8fbc
00000090: ad64 163d 5239 46bc 5cae 973a 66f9 533d
000000a0: 9af4 a5bd 2cd2 b93c 7f4a 023d 12e1 67bd
000000b0: bf4f 3fbd 67d8 3abd e7ec a63d 84a8 07bd
000000c0: cb40 0e3c 4d4c f9bc b667 3c3c fc88 843d
000000d0: f9a0 71bd b0ed 16bc 7240 d8bc 6271 553d
000000e0: 8d9a 80bd a542 c0bc b489 3bbd 66a6 fbbc
000000f0: c33b 9e3d c4a8 88bd 4dad b83a cab8 013d

base.cnn.13.weight f4 [64, 64]
0.08891473 0.038732585 0.06697836 -0.1185921 -0.02947106 -0.55057573 0.2875655 0.119734116
-0.00894757 -0.20728216 0.28259885 0.030899435 0.017702846 0.11356854 -0.10440942 0.2042356
0.07255329 0.2763975 0.16361912 -0.17595157 0.033381306 0.016000928 -0.37227646 0.011325723
0.21887827 -0.0019220966 -0.12242149 0.22377543 0.0003285736 0.23970562 0.18679549 0.088919245
0.15178654 0.0066553843 0.14287771 0.06965079 0.17712395 0.058722228 -0.090034164 -0.20203936
0.12840019 -0.066970445 -0.17728342 -0.046486977 0.13166782 0.34976313 -0.15509626 0.26155707
-0.23030615 -0.1358846 -0.04633715 -0.023642676 -0.21497062 -0.052039128 0.16495477 -0.15557167
0.1006602 -0.15633011 0.26417828 0.49431273 -0.23833355 0.009817697 -0.26400468 0.04916493
0.18257214 -0.00911123 0.07703434 0.08528999 -0.48371246 0.19587775 -0.09962038 -0.0808431
0.37940612 0.11914269 0.018888932 -0.09737753 -0.277716 -0.32786646 0.028514042 3.7120484e-05
-0.021001274 0.16605015 0.04888058 -0.041563276 -0.073107176 0.084804416 -0.19124009 -0.024396712
0.15375477 -0.08414352 -0.18854529 -0.1092848 -0.15729837 -0.17844689 0.07718346 -0.13981484
0.12256099 0.10405512 -0.007194436 -0.03320403 0.044645127 -0.0076326276 0.14174546 0.2135294
-0.08072298 -0.11129208 0.14610827 0.07705642 -0.28078565 0.34579134 0.111715145 0.03003638
-0.29498443 0.23958676 -0.005554782 -0.0330559 -0.1706591 0.22078042 -0.13676837 0.28157446
0.25162315 0.22143684 -0.14215824 -0.13164833 -0.2467731 0.27381495 -0.33464786 -0.22213817
0.28829244 -0.032968774 -0.21318033 -0.15136054 -0.1525356 -0.032600462 0.22101118 -0.1576462
0.05991155 -0.28251174 -0.06519703 0.009755611 0.29395464 -0.1995649 -0.03950082 -0.40852538
0.15093382 -0.0030502332 0.07952811 0.31751615 0.26522943 -0.07104563 0.045085315 0.12207569
-0.25077105 -0.19627595 -0.17221655 -0.23875633 0.3716979 -0.012678429 -0.28408158 -0.061056785
-0.04876841 0.1264277 -0.062763624 -0.22305183 -0.06755858 0.2581149 0.040780347 0.23466213
0.1064673 0.12593418 -0.04531943 0.22024027 0.242137 -0.18580462 0.1670775 0.039928496
0.0720864 0.017202698 0.22385773 0.22414851 -0.24321593 0.10702635 0.15880755 0.30680338
-0.0055215475 -0.059065424 0.12924908 0.29536113 0.14519113 -0.07734774 0.21700361 0.177924
0.14611354 0.030253505 0.07315623 -0.19326766 -0.13998006 0.33829162 0.18782957 0.07330208
0.008505831 0.5820384 0.11076997 0.13566937 0.07489032 0.09064119 -0.07837279 -0.18838502
0.14542824 -0.18871222 -0.30289254 0.2748608 0.115016185 0.16697285 0.05541489 0.098883204
-0.08812494 0.22122797 -0.044499885 0.26545432 -0.12117122 0.010386642 -0.13053757 0.13274466
0.14102611 0.10393406 0.32135177 -0.012845848 -0.21574208 -0.33484748 0.09253475 -0.05474994
-0.08610321 0.01652722 -0.27167484 -0.01776525 0.06288775 -0.019964395 -0.21095687 0.40041974
-0.05920272 0.058033474 -0.054413244 0.0009971884 0.10825217 0.37842795 -0.19761616 0.13827866
-0.15827155 -0.20237124 0.18078388 0.02751035 0.06826016 0.1034338 -0.05218531 -0.31542757
00000000: ed18 b63d 0fa6 1e3d f32b 893d 6ae0 f2bd
00000010: 4b6d f1bc 88f2 0cbf c93b 933e 2937 f53d
00000020: d498 12bc c641 54be ccb0 903e d020 fd3c
00000030: 8f05 913c 9f96 e83d 9bd4 d5bd 2323 513e
00000040: d296 943d f983 8d3e c58b 273e a62c 34be
00000050: d6ba 083d 6114 833c 059b bebe 868f 393c
00000060: a021 603e dcee fbba 1eb8 fabd 6325 653e
00000070: 6744 ac39 6475 753e 5147 3f3e 4b1b b63d
00000080: ee6d 1b3e 6915 da3b 894e 123e 13a5 8e3d
00000090: fb5f 353e b886 703d d563 b8bd 68e3 4ebe
000000a0: 577b 033e cd27 89bd c989 35be 2169 3ebd
000000b0: eed3 063e 2714 b33e 8ed1 1ebe cfea 853e
000000c0: 60d5 6bbe 5525 0bbe 06cc 3dbd 49ae c1bc
000000d0: 4221 5cbe fb26 55bd e7e9 283e 2e4e 1fbe
000000e0: ef26 ce3d 0015 20be 6042 873e 8f16 fd3e
000000f0: b60d 74be 68da 203c 9f2b 87be 2a61 493d
00000100: 31f4 3a3e 4547 15bc 2ec4 9d3d 85ac ae3d
00000110: 29a9 f7be 2d94 483e c505 ccbd 1191 a5bd
00000120: 8541 c23e 1501 f43d f6bc 9a3c df6d c7bd
00000130: cb30 8ebe 1dde a7be 4896 e93c d1b1 1b38
00000140: dd0a acbc 0d09 2a3e 0137 483d 413e 2abd
00000150: 37b9 95bd f0ad ad3d 71d4 43be 9ddb c7bc
00000160: e471 1d3e 7053 acbd 0412 41be b6d0 dfbd
00000170: d312 21be c8ba 36be 5d12 9e3d 9f2b 0fbe
00000180: 4201 fb3d da1a d53d 4ebf ebbb f300 08bd
00000190: cfdd 363d 1f1b fabb b925 113e 73a7 5a3e
000001a0: 1752 a5bd 1aed e3bd 689d 153e c2cf 9d3d
000001b0: 23c3 8fbe 900b b13e e9ca e43d db0e f63c
000001c0: 3308 97be 3b56 753e e404 b6bb a065 07bd
000001d0: 42c1 2ebe 4314 623e 020d 0cbe 872a 903e
000001e0: c0d4 803e 57c0 623e ee91 11be d2ce 06be
000001f0: 16b2 7cbe 7931 8c3e f756 abbe 3078 63be
00000200: 119b 933e 440a 07bd f24b 5abe 42fe 1abe
00000210: 4b32 1cbe 1088 05bd c150 623e 016e 21be
00000220: d065 753d 61a5 90be 0586 85bd 00d6 1f3c
00000230: 3981 963e be5a 4cbe 9dcb 21bd 3d2a d1be
00000240: 658e 1a3e 6ce6 47bb a2df a23d 7a91 a23e
00000250: 27cc 873e 5f80 91bd 61ab 383d d202 fa3d
00000260: 1065 80be 90fc 48be 8959 30be 8a7c 74be
00000270: 304f be3e 2fb9 4fbc 2473 91be ae16 7abd
00000280: 62c1 47bd 4376 013e 378a 80bd b367 64be
00000290: 275c 8abd a327 843e 4b09 273d 454b 703e
000002a0: 870b da3d e4f4 003e dea0 39bd aa86 613e
000002b0: c3f2 773e 9143 3ebe 5d16 2b3e 108c 233d
000002c0: 09a2 933d acec 8c3c f63a 653e 3087 653e
000002d0: 990d 79be a230 db3d 729e 223e 5515 9d3e
000002e0: 19ee b4bb 96ee 71bd df59 043e 9339 973e
000002f0: fcac 143e 7e68 9ebd 3236 5e3e b631 363e
00000300: ca9e 153e 33d6 f73c efd2 953d f5e7 45be
00000310: ef56 0fbe 8f34 ad3e 6556 403e 671f 963d
00000320: 0a5c 0b3c 7800 153f 5edb e23d e9ec 0a3e
00000330: 1960 993d 17a2 b93d ea81 a0bd 01e8 40be
00000340: 24eb 143e c73d 41be bb14 9bbe 8eba 8c3e
00000350: 9b8d eb3d eefa 2a3e b9fa 623d 4783 ca3d
00000360: d97a b4bd 9689 623e 8345 36bd a1e9 873e
00000370: 9e28 f8bd bc2c 2a3c a4ab 05be 37ee 073e
00000380: 2669 103e 61db d43d 3888 a43e 6477 52bc
00000390: 7eeb 5cbe 2171 abbe dc82 bd3d 7941 60bd
000003a0: e156 b0bd 1864 873c f718 8bbe 6e88 91bc
000003b0: 4bcb 803d 5f8c a3bc 1405 58be d103 cd3e
000003c0: 8d7e 72bd 82b4 6d3d 6ce0 5ebd 17b4 823a
000003d0: 50b3 dd3d 4fc1 c13e e45b 4abe ec98 0d3e
000003e0: f011 22be 683a 4fbe 691f 393e 635d e13c
000003f0: fccb 8b3d 1ad5 d33d 43c0 55bd b97f a1be
