CRL_human_AI_overcooked/human_models/model_many_orders/actor_best_r9.pt (torch, 426321 bytes, 20 tensors)

base.cnn.0.weight f4 [32, 26, 3, 3]
0.21286893 -0.21786039 0.3093743 -0.05813589 0.13684553 0.009178504 0.18643767 0.31737533
-0.047788013 -0.2202051 0.12749721 -0.24763596 0.15316004 0.328256 -0.09589125 0.13620234
0.08304261 -0.01187584 -0.121073425 -0.13049099 0.0077432455 0.10617541 -0.11742736 0.117729574
0.2688716 -0.122208886 0.08179579 -0.011196501 -0.035415832 0.26971427 -0.01626902 -0.06991506
-0.19186927 -0.12108505 0.28032792 0.088810995 -0.003654963 -0.0835735 -0.010979056 -0.059091926
-0.07569681 -0.26884466 0.29721722 0.04552436 -0.1927852 0.20699555 -0.1001826 0.07015248
-0.036133252 0.14622575 0.034840032 0.19006161 0.08881005 -0.023292527 -0.2190781 0.19649692
0.15502681 0.100233056 0.30056375 0.029215915 0.12481579 -0.15800802 0.13167265 0.06525347
-0.07327131 -0.036151353 -0.3666209 -0.061488293 0.1897036 0.047278546 0.019284056 -0.3113965
-0.291057 0.16408163 -0.005574025 0.16627766 0.1519386 -0.46124607 -0.10874936 0.11233832
0.026548924 -0.053531896 0.13849486 -0.22228198 -0.06309712 0.2061743 -0.08010803 0.0885466
-0.014037998 0.027647734 0.061152752 0.0033414052 0.023612292 0.11046507 0.1383731 0.06694183
-0.13429198 0.015840925 0.2543875 0.024073979 0.15669653 0.018842777 -0.01712583 0.02176101
0.03118644 0.014503126 -0.012861429 -0.14980064 0.04776787 -0.07752352 -0.21372125 -0.053207807
0.054804716 -0.13336417 0.06072431 0.12958267 0.16073875 0.121040486 -0.03889796 0.008250067
-0.14704935 0.04433078 -0.045869388 0.042322613 0.04477053 -0.025208589 -0.008238614 0.06955847
-0.052180767 0.036669396 0.09068298 0.028309012 -0.07928097 -0.18264183 -0.06920329 -0.08362848
0.16820195 0.102211036 0.08979557 0.10550156 0.0036135456 -0.035907283 -0.04077304 0.07971689
0.16929746 0.15029268 0.112578854 0.19495767 -0.12774111 -0.13299006 0.03375595 -0.13298404
0.0957153 -0.31469256 0.10265168 0.035418477 -0.2864509 -0.110375844 0.15117605 -0.057186604
0.28131726 0.052784175 0.036517892 0.14821956 -0.07519149 -0.2084228 0.13505745 -0.16232358
0.02391386 -0.01889478 -0.038117096 -0.06231284 0.09589635 -0.073373176 0.14646699 -0.14846778
0.08313867 0.120058134 0.16314463 0.01147451 -0.123350315 0.009701881 -0.03720335 -0.038687438
0.023638854 0.0050545083 0.057187695 -0.008389142 -0.004620261 0.10764445 0.062454857 -0.04152884
0.083205424 -0.003464081 -0.18212926 0.119173504 -0.08522773 0.04542851 0.10022054 0.14463036
-0.28905687 0.08001175 -0.079722166 -0.09249366 -0.021643996 0.13377944 0.40692455 0.3275836
0.03990868 0.08077201 -0.2909817 -0.180884 -0.2515422 0.29352793 -0.09699345 0.032358266
0.15579224 0.08684323 0.30694702 0.02275217 -0.19332781 -0.14609683 -0.09385041 -0.0130854715
0.107397534 0.008274892 -0.03428997 -0.039093427 -0.1794778 -0.15117645 0.056453247 0.07426421
-0.07495741 0.026599038 0.12840183 -0.123529375 0.10129757 -0.16721247 0.00479308 0.106095515
-0.18943235 -0.08200472 -0.43896714 -0.06271989 0.014502965 -0.0070246374 0.0034118325 -0.22798829
0.055365592 -0.14181036 -0.05931862 -0.01227456 0.05769719 -0.03602834 -0.29568613 -0.0042002867
00000000: 50fa 593e cb16 5fbe 4f66 9e3e e61f 6ebd
00000010: 3c21 0c3e 7061 163c 84e9 3e3e 057f a23e
00000020: 5dbd 43bd 727d 61be a18e 023e 4894 7dbe
00000030: fcd5 1c3e 2c11 a83e a262 c4bd a078 0b3e
00000040: 3e12 aa3d e292 42bc 58f5 f7bd 6e9f 05be
00000050: 0dbb fd3b 7e72 d93d c17d f0bd 341c f13d
00000060: 8aa9 893e a748 fabd 8d84 a73d 8771 37bc
00000070: 3110 11bd fd17 8a3e 9c46 85bc a12f 8fbd
00000080: 6179 44be 70fb f7bd 2487 8f3e 8ae2 b53d
00000090: 1b88 6fbb 9528 abbd 80e1 33bc 600a 72bd
000000a0: ee06 9bbd 02a6 89be db2c 983e c077 3a3d
000000b0: 7c69 45be a4f6 533e 892c cdbd 1aac 8f3d
000000c0: 7600 14bd 34bc 153e 6cb4 0e3d 839f 423e
000000d0: 0be2 b53d f8cf bebc 0256 60be 7d36 493e
000000e0: 59bf 1e3e fd46 cd3d 7ee3 993e 3756 ef3c
000000f0: 6c9f ff3d dbcc 21be 32d5 063e 9ca3 853d
00000100: 450f 96bd 7113 14bd bcb5 bbbe 26db 7bbd
00000110: a941 423e 26a7 413d 99f9 9d3c 5d6f 9fbe
00000120: 6c05 95be 0405 283e 50a6 b6bb b144 2a3e
00000130: cb95 1b3e 7228 ecbe fcb7 debd a211 e63d
00000140: 217d d93c 4344 5bbd 99d1 0d3e e39d 63be
00000150: 1039 81bd 5b1f 533e ae0f a4bd eb57 b53d
00000160: a2ff 65bc 807d e23c 4f7b 7a3d 7afb 5a3b
00000170: 916e c13c 833b e23d aeb1 0d3e cc18 893d
00000180: d683 09be d4c4 813c 143f 823e cb36 c53c
00000190: 0e75 203e 2b5c 9a3c 784b 8cbc 2544 b23c
000001a0: b47a ff3c 859e 6d3c beb8 52bc 5765 19be
000001b0: 3ea8 433d a7c4 9ebd bed9 5abe 6ef0 59bd
000001c0: e97a 603d 9e90 08be 0eba 783d 52b1 043e
000001d0: b398 243e 13e4 f73d 7853 1fbd 4a2b 073c
000001e0: 1b94 16be 3194 353d 8ae1 3bbd 7a5a 2d3d
000001f0: 4e61 373d 3e82 cebc 40fb 06bc ac74 8e3d
00000200: 80bb 55bd a632 163d 00b8 b93d 4de8 e73c
00000210: 105e a2bd 7606 3bbe 74ba 8dbd 6945 abbd
00000220: 223d 2c3e 0554 d13d bde6 b73d 3411 d83d
00000230: 3cd1 6c3b 8413 13bd a201 27bd 9c42 a33d
00000240: 505c 2d3e 53e6 193e be8f e63d fca2 473e
00000250: 91ce 02be 8c2e 08be ae43 0a3d f82c 08be
00000260: 6206 c43d 621f a1be 0b3b d23d f712 113d
00000270: b1a9 92be bb0c e2bd e5cd 1a3e 803c 6abd
00000280: d108 903e 3834 583d c993 153d dec6 173e
00000290: fffd 99bd c96c 55be 804c 0a3e 2738 26be
000002a0: 00e7 c33c 3ac9 9abc ac20 1cbd c03b 7fbd
000002b0: 4e65 c43d ad44 96bd 71fb 153e f007 18be
000002c0: 9b44 aa3d 0ae1 f53d 630f 273e 95ff 3b3c
000002d0: 179f fcbd a3f4 1e3c 8a62 18bd b876 1ebd
000002e0: 45a6 c13c 4aa0 a53b a53d 6a3d 9d72 09bc
000002f0: 8f65 97bb b274 dc3d aad0 7f3d 251a 2abd
00000300: 9b67 aa3d a305 63bb 1880 3abe 3d11 f43d
00000310: e08b aebd 3f13 3a3d 6d40 cd3d fb19 143e
00000320: 43ff 93be 33dd a33d 6045 a3bd 516d bdbd
00000330: c04e b1bc 7afd 083e 6a58 d03e 0ab9 a73e
00000340: 4977 233d cc6b a53d 8efb 94be a839 39be
00000350: 24ca 80be 4b49 963e 80a4 c6bd 1a8a 043d
00000360: 0088 1f3e ddda b13d 2928 9d3e c262 ba3c
00000370: baf7 45be 689a 15be a534 c0bd 7264 56bc
00000380: 3df3 db3d 6a93 073c a473 0cbd 6e20 20bd
00000390: 07c9 37be 00ce 1abe 853b 673d d617 983d
000003a0: 4583 99bd 3ae6 d93c c57b 033e f8fc fcbd
000003b0: 1a75 cf3d bf39 2bbe 450f 9d3b 9b48 d93d
000003c0: 8efa 41be 17f2 a7bd 4dc0 e0be 4973 80bd
000003d0: d89d 6d3c ee2e e6bb 0d99 5f3b c375 69be
000003e0: 08c7 623d bc36 11be 15f8 72bd 3c1b 49bc
000003f0: e453 6c3d 7492 13bd 2c64 97be 8fa2 89bb

base.cnn.0.bias f4 [32]
-0.06026181 -0.116518945 0.010377202 -0.13137832 -0.05141964 -0.082779415 -0.06888482 -0.110884964
0.04432444 -0.07729102 -0.12323389 -0.13286915 -0.08370265 -0.15818724 -0.053536788 -0.14563158
-0.1373813 -0.03160034 -0.011191965 -0.12549704 -0.07635151 -0.11039102 -0.1292399 -0.08162324
-0.07233603 -0.08112363 -0.13619262 -0.042771418 -0.124703325 -0.02326662 -0.19568264 -0.086726986
00000000: 16d5 76bd 7ca1 eebd 2405 2a3c 0a88 06be
00000010: 679d 52bd 4188 a9bd 7c13 8dbd a817 e3bd
00000020: 8b8d 353d c14a 9ebd 0d62 fcbd da0e 08be
00000030: 4c6c abbd d6fb 21be 6449 5bbd 7220 15be
00000040: afad 0cbe 5c6f 01bd 815e 37bc 4c82 00be
00000050: 2e5e 9cbd b014 e2bd 7757 04be 162a a7bd
00000060: ea24 94bd 2524 a6bd 1476 0bbe 1531 2fbd
00000070: 7564 ffbd a399 bebc 0861 48be eb9d b1bd

base.cnn.2.weight f4 [64, 32, 3, 3]
0.15163569 -0.06771218 -0.09249724 0.15552506 -0.063029915 0.10861388 -0.05104386 -0.1508435
-0.12431778 -0.024969272 0.011001195 0.058963675 0.18250039 -0.076273136 -0.04444926 0.10923644
-0.002085073 -0.019233262 0.02424344 0.05523977 0.12020399 -0.022768727 -0.02839037 0.022613669
-0.14843799 -0.1555163 -0.033766605 0.05616361 -0.15472703 -0.0023650033 -0.122046046 -0.08317095
-0.16428694 -0.23088424 -0.0747936 -0.0026788085 0.022349568 -0.20289917 0.25583974 0.1929114
-0.07228626 0.024882136 0.19596827 -0.075220995 -0.14234315 0.025086576 0.047039147 -0.13390906
0.10211121 -0.26413238 0.11039769 0.01248615 0.0244827 -0.1523636 -0.03718637 0.11459045
0.03691629 -0.39625403 -0.21352911 -0.07436034 -0.16651767 0.017194409 0.19911538 0.08319627
-0.026998263 0.019594429 -0.017485678 -0.025603618 -0.19071633 0.16065119 -0.13259506 -0.10873555
-0.21784547 -0.017334674 -0.17075774 -0.09606364 -0.15654431 -0.05162643 -0.18439424 0.06559842
-0.03998344 -0.15560132 0.17647646 0.11422773 -0.00367471 0.06997786 -0.18648794 -0.129793
0.15981023 -0.22852707 -0.056630947 -0.12815012 -0.14632203 -0.17870092 0.17916714 0.09222821
-0.050521225 -0.12507442 -0.19423588 -0.08296197 -0.071097784 0.06156977 0.045175474 -0.11858102
0.080319814 0.16050687 -0.16758963 0.04554945 -0.21942298 -0.283571 -0.10013764 -0.20152926
-0.12897864 -0.026160493 -0.16074857 -0.242647 -0.2920251 -0.084581584 0.06248408 0.017155312
0.073333204 0.17633246 -0.09584708 -0.22604968 0.15159771 0.1181015 -0.17150745 -0.09936854
-0.1042789 0.08329903 -0.039687794 0.15843663 0.15632227 0.041086514 0.11580262 0.017734546
-0.07354135 0.032135263 -0.049376614 -0.24159075 -0.03324391 -0.18064015 0.15495156 -0.07482447
-0.17110401 -0.034817595 0.058468916 -0.023829028 -0.1136734 -0.06459044 -0.2729849 -0.17575115
0.031904325 0.009904643 0.19676022 -0.049901508 -0.08636128 -0.12863792 0.0033490956 0.028556848
-0.084058814 -0.2024575 0.110100955 0.02565188 -0.33266765 -0.12855245 -0.30449238 -0.04226685
0.0131664565 0.13330965 0.08356494 0.153234 0.0073233987 0.03275614 -0.26867875 0.21632431
0.040209245 -0.04158999 -0.027544012 0.17317298 0.13711996 0.14339714 -0.11950526 -0.08573314
-0.22351159 0.082778625 0.30350596 -0.057854563 -0.091615096 0.10307368 -0.1374593 0.08795164
0.15248007 0.026694177 -0.0953745 0.14037827 0.08622806 -0.08401435 0.21407185 0.026654271
0.06527193 -0.1055818 0.116498366 -0.114213616 0.15508296 0.15914948 -0.29486644 0.043461163
-0.1357189 -0.033363223 -0.28185302 -0.31951493 -0.27957258 -0.003114051 0.058194052 0.023843182
0.16523696 -0.0145772435 0.098082185 0.07565755 0.00120167 0.042596772 -0.12020338 0.117878005
-0.3346035 -0.021332465 -0.021829205 0.0710957 -0.12832771 0.24187174 0.077180125 -0.05723954
-0.23810858 0.12200052 -0.13170335 -0.086137384 -0.04138292 -0.017590381 -0.26221704 -0.014832137
-0.10669007 0.06883035 0.0039479616 -0.16953237 -0.23202664 0.016068362 0.03687358 -0.19775975
-0.038277943 -0.05575952 -0.08501318 0.029963339 -0.025592403 -0.32016432 0.06915729 -0.14474681
00000000: 6346 1b3e afac 8abd 316f bdbd f641 1f3e
00000010: d415 81bd f470 de3d 5e13 51bd b876 1abe
00000020: 529a febd 5c8c ccbc 5b3e 343c e583 713d
00000030: 62e1 3a3e 1735 9cbd 6d10 36bd 5bb7 df3d
00000040: b8a5 08bb 138f 9dbc 2e9a c63c 1943 623d
00000050: 822d f63d 7b85 babc ec92 e8bc 4d40 b93c
00000060: 2100 18be aa3f 1fbe da4e 0abd d00b 663d
00000070: c370 1ebe 2cfe 1abb 47f3 f9bd 8855 aabd
00000080: d63a 28be eb6c 6cbe 632d 99bd f38e 2fbb
00000090: 7116 b73c cdc4 4fbe 6dfd 823e 918a 453e
000000a0: d20a 94bd 9fd5 cb3c e8ab 483e 770d 9abd
000000b0: 67c2 11be 5d82 cd3c 1fac 403d 751f 09be
000000c0: af1f d13d 5c3c 87be 2f18 e23d b592 4c3c
000000d0: f18f c83c 3405 1cbe bc50 18bd 66ae ea3d
000000e0: 8935 173d cfe1 cabe 60a7 5abe 3c4a 98bd
000000f0: 9c83 2abe 4adb 8c3c e7e4 4b3e ce62 aa3d
00000100: 762b ddbc 7f84 a03c 203e 8fbc aebe d1bc
00000110: 244b 43be bf81 243e 00c7 07be beb0 debd
00000120: e212 5fbe 7201 8ebc 1edb 2ebe 04bd c4bd
00000130: 274d 20be 3c76 53bd d8d1 3cbe 7758 863d
00000140: adc5 23bd f455 1fbe 3fb6 343e 3af0 e93d
00000150: 67d3 70bb 8d50 8f3d b2f6 3ebe 75e8 04be
00000160: 4ba5 233e 0003 6abe daf5 67bd c939 03be
00000170: 71d5 15be 60fd 36be 9777 373e 25e2 bc3d
00000180: 58ef 4ebd 8213 00be c5e5 46be f7e7 a9bd
00000190: b79b 91bd 9530 7c3d eb09 393d 9bda f2bd
000001a0: b77e a43d ea5b 243e 9e9c 2bbe 0f92 3a3d
000001b0: 6bb0 60be 3830 91be f714 cdbd b05d 4ebe
000001c0: fa12 04be 884e d6bc 469b 24be 7578 78be
000001d0: 5084 95be 1c39 adbd 4fef 7f3d 4c89 8c3c
000001e0: b82f 963d 7f90 343e 794b c4bd 9179 67be
000001f0: 6e3c 1b3e 33df f13d a69f 2fbe bc81 cbbd
00000200: 2d90 d5bd af98 aa3d ab8f 22bd 363d 223e
00000210: f212 203e 554a 283d ed29 ed3d 0a48 913c
00000220: d99c 96bd 44a0 033d 223f 4abd 9163 77be
00000230: c42a 08bd bbf9 38be 9fab 1e3e 923d 99bd
00000240: e435 2fbe e59c 0ebd 1a7d 6f3d 1835 c3bc
00000250: 99cd e8bd fe47 84bd adc4 8bbe 1cf8 33be
00000260: 1cae 023d 1547 223c 837b 493e 8665 4cbd
00000270: 2fde b0bd a9b9 03be 807c 5b3b 0df0 e93c
00000280: 0727 acbd 0551 4fbe 9c7c e13d e423 d23c
00000290: 6a53 aabe 41a3 03be 6de6 9bbe 0120 2dbd
000002a0: 1fb8 573c 5382 083e 1824 ab3d 60e9 1c3e
000002b0: 1ff9 ef3b 4d2b 063d 4390 89be 1f84 5d3e
000002c0: 73b2 243d 445a 2abd fba3 e1bc 4254 313e
000002d0: 2d69 0c3e b3d6 123e 2cbf f4bd db94 afbd
000002e0: 39e0 64be d787 a93d 2265 9b3e e8f8 6cbd
000002f0: b2a0 bbbd 4b18 d33d 21c2 0cbe fd1f b43d
00000300: bc23 1c3e bfad da3c b553 c3bd 52bf 0f3e
00000310: 5698 b03d b70f acbd a735 5b3e 0f5a da3c
00000320: 4aad 853d 453b d8bd b296 ee3d d4e8 e9bd
00000330: 11ce 1e3e 15f8 223e bcf8 96be 5504 323d
00000340: e5f9 0abe e0a7 08bd 0a4f 90be 7697 a3be
00000350: 2324 8fbe 1b15 4cbb e35c 6e3d c752 c33c
00000360: e133 293e 64d5 6ebc 50df c83d 58f2 9a3d
00000370: 5b81 9d3a f479 2e3d 312d f6bd 066a f13d
00000380: 2651 abbe 6cc1 aebc 29d3 b2bc 9f9a 913d
00000390: 5768 03be 3aad 773e 9d10 9e3d 0274 6abd
000003a0: bcd2 73be 69db f93d 3edd 06be cc68 b0bd
000003b0: 2381 29bd b419 90bc 5041 86be 7e02 73bc
000003c0: 5380 dabd edf6 8c3d e75d 813b e599 2dbe
000003d0: 6498 6dbe cca1 833c c008 173d 8881 4abe
000003e0: 55c9 1cbd 1864 64bd 641b aebd ad75 f53c
000003f0: 29a7 d1bc 94ec a3be 56a2 8d3d 8238 14be

base.cnn.2.bias f4 [64]
-0.079347275 -0.045466524 -0.0037848025 -0.08832465 -0.057745468 -0.03194236 -0.06496994 0.004565521
-0.047541488 -0.0035687187 -0.037953194 -0.014821296 -0.13239853 -0.05688046 -0.015493987 0.011395377
-0.05423062 -0.061270338 -0.06282574 -0.054157067 -0.090424724 -0.014696778 -0.10862388 -0.015479133
-0.055457573 -0.056332946 -0.054699562 0.017544487 -0.014648536 -0.02486006 -0.04912935 -0.025772166
-0.16066313 -0.077675626 -0.109773494 -0.08788145 -0.054594602 -0.034133844 0.020097997 -0.030242406
-0.0369181 -0.10871428 -0.11405978 -0.072597824 -0.12898108 -0.108844 -0.023881024 -0.014440885
-0.09649179 -0.0567973 -0.1428851 -0.056879 -0.036097985 -0.047737177 -0.034949392 -0.018938946
-0.028929064 -0.09163255 0.00373851 -0.06673452 -0.11076402 -0.04799338 -0.076239526 -0.02051973
00000000: d380 a2bd 1b3b 3abd 730a 78bb 8ee3 b4bd
00000010: 8386 6cbd fed5 02bd f60e 85bd 5e9a 953b
00000020: ddba 42bd 2ae1 69bb cf74 1bbd 05d5 72bc
00000030: 7b93 07be 7cfb 68bd 7eda 7dbc adb3 3a3c
00000040: ed20 5ebd 9bf6 7abd c8aa 80bd cdd3 5dbd
00000050: 9930 b9bd c1ca 70bc 3276 debd 319c 7dbc
00000060: 7b27 63bd 60bd 66bd a60c 60bd 75b9 8f3c
00000070: 6a00 70bc 53a7 cbbc db3b 49bd 2620 d3bc
00000080: e084 24be 6614 9fbd edd0 e0bd 31fb b3bd
00000090: 979e 5fbd eecf 0bbd 8ea4 a43c ecbe f7bc
000000a0: 6f37 17bd 98a5 debd 2d98 e9bd 2bae 94bd
000000b0: 9e13 04be 9ae9 debd 23a2 c3bc 7699 6cbc
000000c0: 7d9d c5bd 49a4 68bd 7950 12be f4f9 68bd
000000d0: 7bdb 13bd 0f88 43bd 1827 0fbd d925 9bbc
000000e0: a5fc ecbc d9a9 bbbd ca01 753b 1cac 88bd
000000f0: 3fd8 e2bd b594 44bd 7823 9cbd fe18 a8bc

base.cnn.4.weight f4 [32, 64, 3, 3]
0.066731654 0.0111528635 -0.13521834 -0.13589747 0.093968146 -0.06340502 0.018982278 -0.039763078
0.09562594 0.03754964 -0.0009936236 -0.08154334 0.12055946 0.15322873 -0.22125687 0.09984239
0.11999382 0.11291447 -0.07635225 0.24587244 0.042980373 -0.15836796 0.13270138 -0.045127816
-0.076030575 -0.07261599 -0.011188908 0.09002577 0.03128791 -0.075998925 0.19687313 -0.04862987
0.014549999 -0.026188849 -0.026083404 -0.09186823 -0.05319985 -0.03616213 0.17675461 0.13964535
-0.054565966 -0.17127323 -0.078061976 -0.21214975 -0.030161163 0.38755336 -0.0559002 0.007964495
-0.0797575 0.022850432 -0.07451652 -0.09090309 0.05759991 -0.0874698 0.055608507 -0.010847985
-0.103652 0.052425284 -0.035249896 -0.11928078 -0.17779656 -0.04082864 0.073895015 0.13097592
0.0011851646 -0.13627906 -0.13790001 0.12964371 0.22993624 0.14146759 0.0032678272 -0.046640225
0.05626638 -0.048557643 -0.008758038 0.08710891 -0.06084496 -0.26055005 -0.0057706772 -0.18343323
-0.1622955 -0.008367215 0.010869051 0.021582983 -0.020537326 -0.19250159 0.2535557 0.15416707
-0.15729465 -0.11124884 -0.019742005 -0.18443422 -0.053759333 0.006044401 -0.032017987 -0.050019126
-0.10582432 -0.2271904 0.06858737 0.08921726 0.001474582 0.07603862 -0.09853739 0.059827566
-0.002208714 -0.3197358 -0.10761296 -0.14262822 0.03551515 -0.037565142 -0.02375878 -0.20279346
0.007902702 -0.03072083 0.15030035 -0.064085774 0.14718871 0.06806033 0.1228949 0.17570697
-0.106633335 0.15777409 0.03793834 -0.12950468 0.086633705 0.012826794 -0.019832155 0.0065611247
0.08180135 -0.11900072 -0.054962266 0.089182824 -0.08929155 0.027782088 -0.030666174 0.021999905
0.014506725 -0.0073405174 0.09791236 0.030956421 0.041679867 0.08680484 -0.09850557 -0.16386017
0.049804777 -0.16727716 0.04000981 0.039443128 0.028634317 -0.0062931334 -0.07907857 0.082152516
0.007840948 0.04760121 -0.028596664 -0.092296146 0.011905753 0.029145544 -0.050619554 -0.26558626
-0.059334755 -0.13245092 -0.032430597 -0.08247864 0.060404196 -0.029383859 -0.11794864 -0.28832808
-0.07996676 0.047579817 0.17802946 -0.08026898 0.13555674 -0.012974531 0.0660059 -0.009666211
0.19480328 0.1046376 -0.1954307 0.035864893 -0.042762972 0.19105121 0.17128745 -0.08215199
0.07044477 -0.084179126 0.028746553 -0.14059676 -0.14805222 0.031249922 0.0043188524 -0.13263175
0.060348082 -0.11282194 0.004841974 -0.051284995 -0.15558916 -0.117032126 0.28730592 -0.05324469
0.13360307 -0.04056551 -0.102681495 -0.03501088 -0.048283108 0.08891004 -0.13244024 -0.099053904
0.07290876 -0.08771215 -0.11651806 -0.09427934 -0.06259695 0.16428314 -0.008943673 -0.068703875
-0.057804793 -0.21537897 -0.04631656 -0.10216745 -0.09725736 -0.02772292 -0.06222081 0.090471655
-0.12503281 -0.056744915 -0.20066194 0.028475862 0.024956249 0.032646682 0.062015504 -0.042620104
-0.02248447 -0.03807935 -0.01918042 0.046516053 0.018452134 -0.09225045 0.10295387 0.2357762
0.05327603 -0.09102309 0.1638189 -0.027085623 0.08086578 -0.017468803 -0.08832121 -0.051926874
-0.25245172 -0.18538535 0.10087186 0.10525632 0.09122921 -0.050916683 -0.10687821 0.043535493
00000000: 9baa 883d 80ba 363c ad76 0abe b528 0bbe
00000010: 5f72 c03d 7eda 81bd b980 9b3c 9cde 22bd
00000020: 88d7 c33d a7cd 193d 7a3c 82ba 3200 a7bd
00000030: e1e7 f63d fee7 1c3e 2991 62be 2b7a cc3d
00000040: 52bf f53d b43f e73d 925e 9cbd fcc5 7b3e
00000050: 300c 303d 362b 22be dfe2 073e f2d7 38bd
00000060: ebb5 9bbd b1b7 94bd ae51 37bc 6e5f b83d
00000070: c027 003d 53a5 9bbd 1c99 493e 1d30 47bd
00000080: 1e63 6e3c ff89 d6bc ddac d5bc 6925 bcbd
00000090: 16e8 59bd be1e 14bd 29ff 343e 31ff 0e3e
000000a0: 9080 5fbd 4062 2fbe f5de 9fbd c93d 59be
000000b0: 8b14 f7bc 656d c63e 9cf7 64bd 837d 023c
000000c0: e657 a3bd d430 bb3c 1e9c 98bd 662b babd
000000d0: e2ed 6b3d 5e23 b3bd bfc5 633d bfbb 31bc
000000e0: 8047 d4bd e5bb 563d 3262 10bd 7b49 f4bd
000000f0: 4d10 36be ef3b 27bd 4556 973d 8d1e 063e
00000100: 8657 9b3a bd8c 0bbe a935 0dbe 52c1 043e
00000110: 6874 6b3e e1dc 103e 0b29 563b d209 3fbd
00000120: 9377 663d 61e4 46bd e07d 0fbc 2866 b23d
00000130: 9138 79bd d166 85be f317 bdbb ecd5 3bbe
00000140: cb30 26be a516 09bc 1b14 323c ccce b03c
00000150: e53d a8bc 231f 45be 0dd2 813e f9dd 1d3e
00000160: d911 21be 6fd6 e3bd fcb9 a1bc 53dc 3cbe
00000170: bf32 5cbd 1c10 c63b 4b25 03bd dbe0 4cbd
00000180: 6cba d8bd 9aa4 68be 8977 8c3d 8ab7 b63d
00000190: c346 c13a 23ba 9b3d f9cd c9bd c00d 753d
000001a0: 12c0 10bb 69b4 a3be 2f64 dcbd 220d 12be
000001b0: 5578 113d e8dd 19bd c6a1 c2bc 17a9 4fbe
000001c0: 567a 013c 40aa fbbc 56e8 193e 673f 83bd
000001d0: a3b8 163e 3763 8b3d 52b0 fb3d 87ec 333e
000001e0: 9462 dabd 888f 213e 3c65 1b3d e09c 04be
000001f0: 036d b13d 7927 523c 0b77 a2bc b4fe d63b
00000200: 7787 a73d a6b6 f3bd 1d20 61bd 7ca5 b63d
00000210: 7dde b6bd 4397 e33c a137 fbbc 2539 b43c
00000220: 9dad 6d3c b988 f0bb 4786 c83d 5298 fd3c
00000230: 82b8 2a3d bcc6 b13d 4abd c9bd f6ca 27be
00000240: 1800 4c3d b44a 2bbe 54e1 233d 1e8f 213d
00000250: 8492 ea3c a136 cebb f2f3 a1bd 943f a83d
00000260: 5277 003c 7df9 423d 8d43 eabc c305 bdbd
00000270: 5910 433c a3c2 ee3c 7356 4fbd ecfa 87be
00000280: 0009 73bd 37a1 07be f2d5 04bd 90ea a8bd
00000290: 646a 773d 6bb6 f0bc 0e8f f1bd bd9f 93be
000002a0: 9dc5 a3bd 0ee3 423d 5b4d 363e 1064 a4bd
000002b0: 63cf 0a3e 2193 54bc 1a2e 873d 075f 1ebc
000002c0: 837a 473e 3d4c d63d fc1e 48be 11e7 123d
000002d0: 3a28 2fbd eea2 433e fa65 2f3e 4d3f a8bd
000002e0: 5945 903d 1b66 acbd e47d eb3c 99f8 0fbe
000002f0: 009b 17be d6ff ff3c 2985 8d3b 9ed0 07be
00000300: 8d2f 773d 300f e7bd 6ca9 9e3b 3710 52bd
00000310: c452 1fbe 8aae efbd c319 933e 1b17 5abd
00000320: 3ecf 083e 0528 26bd ad4a d2bd 9267 0fbd
00000330: 82c4 45bd 7816 b63d 6a9e 07be c6dc cabd
00000340: 3051 953d 6da2 b3bd 05a1 eebd 8715 c1bd
00000350: d432 80bd d739 283e 7c88 12bc 9eb4 8cbd
00000360: b8c4 6cbd 4e8c 5cbe 6fb6 3dbd 2b3d d1bd
00000370: de2e c7bd 2d1b e3bc 40db 7ebd 3449 b93d
00000380: 9a08 00be 5b6d 68bd 537a 4dbe 3646 e93c
00000390: 0c71 cc3c 87b8 053d f803 7e3d 6b92 2ebd
000003a0: 5a31 b8bc 18f9 1bbd 4220 9dbc 9e87 3e3d
000003b0: ee28 973c ceed bcbd 7bd9 d23d 516f 713e
000003c0: f737 5a3d 506a babd 24c0 273e abe2 ddbc
000003d0: f59c a53d bc1a 8fbc c0e1 b4bd 46b1 54bd
000003e0: 5a41 81be a8d5 3dbe e895 ce3d a090 d73d
000003f0: 61d6 ba3d 038e 50bd f7e2 dabd 4652 323d

base.cnn.4.bias f4 [32]
-0.06618069 -0.06075792 -0.06518113 -0.10759296 -0.082314335 -0.0690954 0.010554869 -0.04458248
0.0031197635 -0.106932156 -0.09448577 -0.1041036 -0.016268678 -0.009972633 -0.05379071 -0.07714055
-0.0022671968 0.014485777 -0.031829458 -0.0549472 -0.15904742 -0.0488646 -0.0697628 -0.08774608
0.01245992 0.014306461 -0.025787828 -0.016775813 -0.060626995 -0.11655209 -0.042764723 -0.09533331
00000000: be89 87bd 4cdd 78bd af7d 85bd b359 dcbd
00000010: 6b94 a8bd e481 8dbd 54ee 2c3c 1e9c 36bd
00000020: f274 4c3b 3fff dabd c181 c1bd 4534 d5bd
00000030: e445 85bc 4164 23bc a653 5cbd ddfb 9dbd
00000040: 4095 14bb c155 6d3c 9b5f 02bd 5110 61bd
00000050: 54dd 22be 3f26 48bd cddf 8ebd 37b4 b3bd
00000060: b124 4c3c a665 6a3c ff40 d3bc 6e6d 89bc
00000070: 0354 78bd ddb2 eebd 102a 2fbd 1c3e c3bd

base.cnn.7.weight f4 [64, 800]
0.09372902 -0.07059588 -0.119500086 0.24328789 -0.027505955 0.011911207 -0.009939151 -0.09109718
-0.13058886 -0.13533671 -0.00036107897 0.106621765 -0.052107193 0.0008406814 -0.03972005 -0.027487902
-0.0040951027 0.2033252 -0.044267103 0.09498452 0.101979665 -0.032973967 0.036006197 -0.09077555
0.19521877 0.07052362 -0.013194069 0.014099256 -0.02379842 -0.16647439 0.017621517 -0.15394212
-0.026839433 -0.05071672 0.021424219 0.04679296 0.081179366 -0.0062895785 -0.2855334 0.101949714
0.12569275 -0.029952675 -0.071649805 0.1396606 0.10252408 -0.09588953 -0.052990064 -0.029157182
0.09499629 -0.06488387 0.0009037139 0.06781235 -0.06742584 -0.036780566 -0.0016058581 -0.25546426
0.13892978 0.097778335 -0.05015326 0.10364399 0.061100494 0.30647567 -0.14328258 0.023209305
-0.21308203 -0.0035613202 0.24519618 0.22770609 -0.008421716 -0.26096663 -0.0949625 -0.02906135
-0.08524245 0.060783323 -0.0046099527 0.03403997 -0.029301548 0.010151474 0.009995222 0.0075228736
0.15799609 -0.090546615 -0.06417367 0.07292074 0.11248244 -0.2909397 0.06439709 -0.03611145
0.013086744 -0.11902826 -0.12484647 0.014965158 -0.0023967526 -0.065595664 0.034006592 -0.19324113
0.025883587 0.1687476 0.11471672 0.16804156 -0.046758235 -0.06292956 0.074938744 -0.12219043
-0.022784213 0.11716881 -0.096931495 -0.30217806 -0.2156889 0.038120642 0.044896405 -0.095560946
-0.012774152 -0.030029833 -0.16626003 -0.15982242 -0.027443973 0.14163755 -0.03078217 0.10707413
-0.06506632 -0.07674593 0.097881325 0.1625637 0.1399945 0.013049601 0.18818672 0.03049167
-0.055675272 0.03484054 0.12993033 -0.0070970114 0.11615749 -0.102789395 0.007870378 -0.0469014
0.004975358 -0.057648476 -0.14396226 0.2452312 0.08747248 0.0013340734 -0.11003268 0.19491658
-0.02125819 0.003415094 0.02853646 -0.014246846 0.029207176 0.2141913 -0.002869156 -0.030183021
0.050673306 0.16480437 0.15922992 -0.15422699 0.07804018 -0.106957264 0.11220818 -0.07671398
-0.007726627 0.18753274 0.0579438 -0.12980828 0.123728216 -0.07779761 -0.091092736 -0.118671305
-0.017461305 0.2324372 -0.039417055 0.04057004 -0.20003653 -0.21055815 -0.028732192 -0.002564697
-0.2081675 -0.08272583 0.03374909 -0.05605887 -0.0047736866 0.108374625 0.10615648 0.061728314
-0.025534362 -0.003708248 -0.1484969 -0.08131528 0.10338526 -0.050962623 0.3132934 0.015433115
0.1821392 -0.34716257 -0.12254759 -0.044421624 0.07080119 0.02267623 -0.094563514 0.035981033
-0.08786288 -0.3407275 0.012545901 -0.34299505 -0.071597494 0.051822636 -0.016826706 -0.042383876
0.1067442 0.057422798 0.057017125 -0.21490188 0.024269534 -0.0040538074 -0.058298364 -0.011708583
-0.04500523 -0.081675194 0.08678834 -0.053063918 0.1750617 -0.023571087 -0.007886891 0.078887396
-0.033418525 -0.0010755098 -0.045829657 -0.14249945 -0.010925456 0.06404575 0.0131509 -0.05971534
-0.01218781 -0.029758472 -0.0034751212 -0.050574478 0.005083977 0.12218535 0.002673777 0.08242763
0.12239393 0.02048927 0.05184898 0.0145999575 0.05962806 -0.08720748 0.03506837 -0.036760986
-0.051125474 0.1041393 -0.027474701 0.02402454 0.0062559578 0.057381105 -0.13299385 0.023151474
00000000: 00f5 bf3d 9394 90bd 76bc f4bd 7620 793e
00000010: 2b54 e1bc 3927 433c d2d7 22bc 2991 babd
00000020: 16b9 05be b595 0abe 334f bdb9 835c da3d
00000030: 5a6e 55bd 2c61 5c3a 7eb1 22bd 4f2e e1bc
00000040: 3630 86bb 7b34 503e 6c51 35bd 3e87 c23d
00000050: b7da d03d b60f 07bd 3c7b 133d 88e8 b9bd
00000060: 6ee7 473e b06e 903d f02b 58bc 9100 673c
00000070: e7f4 c2bc 4378 2abe 005b 903c 01a3 1dbe
00000080: 5fde dbbc 56bc 4fbd d881 af3c faa9 3f3d
00000090: 5e41 a63d cf18 cebb 6f31 92be 03cb d03d
000000a0: 9ab5 003e 505f f5bc 22bd 92bd 3003 0f3e
000000b0: 25f8 d13d bb61 c4bd 1c0c 59bd 0bdb eebc
000000c0: 6a8d c23d d6e1 84bd 37e7 6c3a 34e1 8a3d
000000d0: 8f16 8abd 38a7 16bd a87b d2ba 36cc 82be
000000e0: 9c43 0e3e 0240 c83d 816d 4dbd 4d43 d43d
000000f0: 8344 7a3d 61ea 9c3e abb8 12be 7121 be3c
00000100: 2d32 5abe 0a65 69bb b514 7b3e c92b 693e
00000110: 3dfb 09bc 6b9d 85be b37b c2bd 1112 eebc
00000120: 9893 aebd eff7 783d 160f 97bb 7f6d 0b3d
00000130: cd09 f0bc 5e52 263c 00c3 233c 7082 f63b
00000140: bac9 213e 8170 b9bd 7c6d 83bd 7857 953d
00000150: 325d e63d 0cf6 94be 9fe2 833d 9ae9 13bd
00000160: c869 563c 17c5 f3bd 82af ffbd 6c30 753c
00000170: d612 1dbb 0557 86bd 7f4a 0b3d 01e1 45be
00000180: d109 d43c 2ccc 2c3e 9af0 ea3d 1613 2c3e
00000190: 9085 3fbd 37e1 80bd 7c79 993d fa3e fabd
000001a0: f5a5 babc 33f6 ef3d 0584 c6bd 15b7 9abe
000001b0: 8ddd 5cbe 6424 1c3d 4be5 373d 75b5 c3bd
000001c0: ad4a 51bc 2001 f6bc 1240 2abe 7da8 23be
000001d0: 2fd2 e0bc 6f09 113e e42a fcbc ae49 db3d
000001e0: 7e41 85bd f82c 9dbd 0176 c83d 1977 263e
000001f0: b85a 0f3e fecd 553c 05b4 403e abc9 f93c
00000200: c10b 64bd f4b4 0e3d 750c 053e 0c8e e8bb
00000210: fae3 ed3d 3f83 d2bd c2f2 003c af1b 40bd
00000220: 5408 a33b cf20 6cbd d86a 13be e31d 7b3e
00000230: c624 b33d 13dc ae3a d058 e1bd 3698 473e
00000240: a825 aebc c5cf 5f3b 4bc5 e93c 9a6b 69bc
00000250: e343 ef3c f754 5b3e 7308 3cbb 6242 f7bc
00000260: d08e 4f3d 7ac2 283e 2b0d 233e aeed 1dbe
00000270: 88d3 9f3d 690c dbbd 67cd e53d 381c 9dbd
00000280: a52f fdbb 9508 403e 7a56 6d3d 76ec 04be
00000290: 3865 fd3d 5a54 9fbd d48e babd f109 f3bd
000002a0: 030b 8fbc 0404 6e3e c773 21bd c52c 263d
000002b0: 60d6 4cbe 8e9c 57be c65f ebbc 7a14 28bb
000002c0: dc29 55be 296c a9bd 7c3c 0a3d fc9d 65bd
000002d0: 966c 9cbb 84f3 dd3d 9268 d93d d4d6 7c3d
000002e0: 702d d1bc 1406 73bb 920f 18be a088 a6bd
000002f0: a7bb d33d 2fbe 50bd fe67 a03e 2ddb 7c3c
00000300: b382 3a3e 4bbf b1be 3bfa fabd 73f3 35bd
00000310: 3700 913d 80c3 b93c 84aa c1bd d960 133d
00000320: 74f1 b3bd d673 aebe 538d 4d3c 0c9d afbe
00000330: b5a1 92bd f943 543d 29d8 89bc b79a 2dbd
00000340: b49c da3d 2b34 6b3d ca8a 693d 3d0f 5cbe
00000350: e7d0 c63c cdd5 84bb 44ca 6ebd 5bd5 3fbc
00000360: 6757 38bd 5345 a7bd 16be b13d 8d59 59bd
00000370: 6043 333e 2718 c1bc 0538 01bc b78f a13d
00000380: dde1 08bd 1ff8 8cba e1b7 3bbd 60eb 11be
00000390: af00 33bc 6b2a 833d df76 573c 1398 74bd
000003a0: 61af 47bc 0ac8 f3bc dcbe 63bb 2f27 4fbd
000003b0: 7d97 a63b 503c fa3d 893a 2f3b d1cf a83d
000003c0: aba9 fa3d 1dd9 a73c 995f 543d a934 6f3c
000003d0: 8d3c 743d d699 b2bd daa3 0f3d b092 16bd
000003e0: f268 51bd fc46 d53d a012 e1bc 1dcf c43c
000003f0: c7fe cc3b 7308 6b3d 8a2f 08be 29a8 bd3c

base.cnn.7.bias f4 [64]
-0.0338244 -0.037544716 -0.114605494 -0.048890695 -0.036637977 -0.035834577 -0.03143452 0.015115371
-0.03952962 -0.03771032 0.013518036 -0.059483718 -0.058027957 0.022185922 0.013688431 -0.07473063
-0.008363481 -0.0012385837 -0.040813047 -0.09892079 -0.048593737 -0.10633558 -0.011990897 -0.076460004
-0.026894942 -7.189131e-05 0.075780496 -0.12653546 -0.08270887 -0.05001129 -0.018653652 0.018747693
-0.01717761 -0.029827485 -0.09431785 -0.06640843 0.021566467 -0.102924116 -0.011478425 -0.04635528
-0.060115952 -0.007379285 -0.08978968 -0.008648704 -0.05407267 -0.09091075 -0.100356266 0.030931124
-0.03511289 -0.0824475 -0.020250408 0.028311731 -0.04925182 -0.067615986 -0.032720514 -0.007770144
-0.032829363 -0.013020067 0.0015045899 -0.011221248 -0.075913824 -0.027286708 0.021374026 -0.09556776
00000000: 748b 0abd 7dc8 19bd 49b6 eabd 9c41 48bd
00000010: b411 16bd 47c7 12bd 7cc1 00bd 76a6 773c
00000020: d0e9 21bd 2376 1abd c17a 5d3c 33a5 73bd
00000030: b9ae 6dbd 40bf b53c 7145 603c 5f0c 99bd
00000040: fb06 09bc f957 a2ba 952b 27bd fc96 cabd
00000050: 3a0a 47bd 78c6 d9bd 7875 44bc 1097 9cbd
00000060: c852 dcbc 5ac4 96b8 ce32 9b3d 8392 01be
00000070: 4563 a9bd a3d8 4cbd 8bcf 98bc c394 993c
00000080: 0fb8 8cbc c558 f4bc b829 c1bd 2501 88bd
00000090: 29ac b03c e1c9 d2bd 0110 3cbc 09df 3dbd
000000a0: 253c 76bd eecd f1bb a7e3 b7bd 4bb3 0dbc
000000b0: 4e7b 5dbd 6a2f babd 9687 cdbd 4563 fd3c
000000c0: 89d2 0fbd 3cda a8bd 2fe4 a5bc 01ee e73c
000000d0: 47bc 49bd 407a 8abd f205 06bd b19c febb
000000e0: 1578 06bd 1e52 55bc a935 c53a 53d9 37bc
000000f0: b578 9bbd 6088 dfbc 9518 af3c 08b9 c3bd

base.cnn.9.weight f4 [64]
1.0943005 1.2316806 1.0801525 1.1637715 0.9964798 0.94992983 0.981569 1.1692977
1.0309232 1.0422015 1.0217451 0.8225756 1.0394249 1.134532 1.0364708 0.9985338
1.1482006 1.0070469 1.047877 0.9561823 0.99774754 1.0402371 1.11491 1.1383485
1.1345737 0.99884427 0.9973352 0.9422459 1.0445567 0.9569287 1.0495114 1.0276033
1.0703357 1.1792909 0.92290586 0.8790336 1.0035468 1.0253469 1.105051 1.0133398
1.0881222 0.8812852 1.0453798 0.8883031 1.0086871 0.82289845 1.0862235 0.87994134
1.1263572 0.79523736 0.93202955 1.1281627 1.034559 1.0015309 1.0974663 0.9493542
0.8963474 1.1191413 1.1204184 0.91510844 0.98836905 0.76870215 0.98015606 1.0143834
00000000: 0a12 8c3f b6a7 9d3f 7042 8a3f 77f6 943f
00000010: 4d19 7f3f 9a2e 733f 1b48 7b3f 8cab 953f
00000020: 4bf5 833f dc66 853f 8bc8 823f 5194 523f
00000030: e00b 853f 5838 913f 13ab 843f e99f 7f3f
00000040: 3df8 923f eae6 803f d520 863f 5dc8 743f
00000050: 626c 7f3f 7d26 853f 5fb5 8e3f 67b5 913f
00000060: b639 913f 42b4 7f3f 5c51 7f3f 0737 713f
00000070: 09b4 853f 47f9 743f 6456 863f 8188 833f
00000080: c300 893f 01f3 963f 8f43 6c3f 5908 613f
00000090: 3974 803f 913e 833f 5072 8d3f 1eb5 813f
000000a0: 9747 8b3f e89b 613f 01cf 853f d567 633f
000000b0: a91c 813f 79a9 523f 5f09 8b3f d643 613f
000000c0: 792c 903f ad94 4b3f 7d99 6e3f a367 903f
000000d0: 6e6c 843f 2a32 803f c779 8c3f e008 733f
000000e0: 0677 653f 0640 8f3f df69 8f3f 8c44 6a3f
000000f0: c105 7d3f aac9 443f 82eb 7a3f 51d7 813f

base.cnn.9.bias f4 [64]
-0.0120696295 -0.25437814 -0.037375245 -0.12717782 -0.051018275 0.24652581 0.10132899 -0.034662142
-0.1644945 -0.021841459 0.024229655 0.14377694 0.011893956 0.031396013 0.03433605 0.0755955
-0.055254363 -0.007866517 -0.07829511 -0.034890898 0.06639385 -0.08351589 -0.13673663 -0.042939514
-0.024660224 -0.01576309 0.057214055 0.074995324 0.14606518 0.037462138 0.050943345 0.17373414
0.025922326 -0.13433316 -0.0020902897 -0.0493901 -0.048365165 -0.008198719 0.03956334 -0.014695071
-0.188177 0.22147486 -0.04308936 -0.21464583 -0.15461692 0.192832 -0.1263341 0.04856585
-0.13214536 0.23184209 0.17516412 -0.043084446 0.024175907 0.01857621 -0.16288951 -0.10382253
0.09721101 -0.07976533 -0.064706124 0.071734205 -0.0625617 0.007151281 0.23644382 0.051549137
00000000: b2bf 45bc da3d 82be c916 19bd e73a 02be
00000010: 8af8 50bd 4371 7c3e 9385 cf3d e4f9 0dbd
00000020: 3f71 28be dcec b2bc 457d c63c 433a 133e
00000030: dede 423c 1b99 003d f5a3 0c3d d0d1 9a3d
00000040: 6652 62bd 90e2 00bc 3059 a0bd c2e9 0ebd
00000050: 80f9 873d 610a abbd b004 0cbe 58e1 2fbd
00000060: 3d04 cabc 9921 81bc 4959 6a3d 2697 993d
00000070: 1c92 153e e671 193d f8a9 503d 5de7 313e
00000080: 0f5b d43c a28e 09be 3efd 08bb 464d 4abd
00000090: 8d1a 46bd eb53 06bc 2b0d 223d 98c3 70bc
000000a0: 79b1 40be 4eca 623e 787e 30bd 1ecc 5bbe
000000b0: e653 1ebe c075 453e ba5d 01be fcec 463d
000000c0: 1d51 07be 0368 6d3e 395e 333e 5179 30bd
000000d0: 8d0c c63c 232d 983c 82cc 26be e8a0 d4bd
000000e0: 9116 c73d 015c a3bd a584 84bd 62e9 923d
000000f0: 5920 80bd 4b55 ea3b 541e 723e 3025 533d

base.cnn.10.weight f4 [64, 64]
0.26947454 0.039132066 -0.21076168 0.12831338 0.15636617 -0.008421077 -0.0689617 0.32329068
-0.1693955 0.111513734 0.058324117 -0.35626897 0.16397615 0.2855235 0.012877638 0.046423133
0.089133084 0.26319838 0.22742715 0.28097007 0.51154155 -0.19546951 0.28363898 0.21109262
0.17088075 -0.09717404 -0.32805598 0.21954998 -0.009190214 0.28880477 -0.01791816 0.07184216
0.3040707 -0.005676126 -0.07079789 -0.06850992 -0.049551256 0.12748463 -0.6148013 0.12101319
0.15356538 -0.20496793 0.15835434 0.15100195 0.065363914 -0.24912427 -0.03869155 0.03173908
-0.16372247 0.08839736 -0.04935844 -0.075746424 -0.1969745 0.108701535 -0.20737724 -0.4632522
0.4154901 0.16220751 0.1316227 -0.34169117 -0.2424479 -0.14523086 0.049864084 -0.23391931
-0.051881928 -0.08366511 0.24905221 0.0022452744 0.17441775 -0.10317221 -0.031340696 0.097383186
-0.05798206 -0.036599204 0.11057421 -0.09810885 0.26215157 -0.052514747 -0.03010651 0.2233024
-0.11870124 0.17687292 -0.13596061 -0.07346413 0.12723386 0.40752694 0.029750917 0.09006766
-0.10042126 -0.1734396 -0.16671337 0.29551294 0.13663583 0.25631338 -0.63726896 -0.079113774
-0.09971408 -0.52521497 0.22975521 -0.3442204 -0.33102897 -0.16682138 -0.059004836 0.18299954
-0.009525023 -0.106933005 -0.16992493 -0.10434536 0.085260265 0.38417608 -0.035432324 -0.17396288
0.23117584 0.41630584 0.2381014 0.028091572 0.023590496 0.2081041 0.10342017 -0.13371427
0.17042813 -0.035290476 0.22610855 0.07123017 0.5515365 -0.27662706 -0.00515435 0.31831974
-0.057158813 0.18248528 0.34912294 0.17392522 0.1596737 -0.24938391 -0.2945654 -0.064765535
0.42868206 0.5658545 -0.19839966 0.10001992 -0.0343428 0.23870416 -0.067173645 -0.23649977
0.35777754 0.05238481 -0.16360247 0.20371917 0.074059464 0.11035549 0.019891681 0.122350395
-0.24302255 0.009423962 -0.0032341962 -0.06352818 -0.21227133 0.11770162 -0.08298555 -0.37166256
0.22616318 0.19939013 0.16161908 0.32578206 0.011208862 -0.03925989 0.44154426 -0.3226928
0.29034027 -0.16975555 0.3244026 -0.36357558 0.05972172 0.04846403 0.102423206 -0.036432996
-0.09317263 0.03689087 -0.25355262 0.06698527 -0.2507382 -0.26823214 0.03986369 0.19167733
0.058911134 0.064095154 0.15294525 -0.120198034 -0.079721056 -0.020215107 0.0574117 0.10503566
0.010921247 0.5848163 0.20778842 0.06599377 0.4361878 0.20183541 -0.23679826 0.22561893
0.30852452 -0.11901273 -0.008511966 -0.17080408 0.43304357 0.17807682 0.06873017 0.28843662
0.49797747 -0.11929342 0.3593555 -0.06816466 0.2505113 0.29117504 -0.053798415 -0.303671
-0.012540627 0.14270513 0.017729897 0.06706576 -0.00039447175 0.018623304 -0.10846031 -0.062295035
-0.12503263 0.14309326 0.06815846 -0.09872951 -0.001385569 0.21247156 -0.08003716 0.17442289
0.56229645 -0.0440734 0.23676595 0.025300294 -0.046349145 0.09688575 0.08189892 0.23391703
-0.07954085 0.037456207 0.25727367 0.44288278 -0.696017 0.18838564 0.07196776 0.093683325
0.072208025 0.09391181 0.006758737 0.08853273 0.17005838 -0.19777903 -0.020184148 0.20676127
00000000: 91f8 893e f248 203d e9d1 57be 9564 033e
00000010: 741e 203e 8ff8 09bc cb3b 8dbd 5b86 a53e
00000020: 0476 2dbe 5061 e43d 45e5 6e3d e368 b6be
00000030: 5de9 273e 2330 923e bbfc 523c 2f26 3e3d
00000040: 688b b63d f0c1 863e aae2 683e 4fdb 8f3e
00000050: 63f4 023f 2929 48be 2139 913e aa28 583e
00000060: 5dfb 2e3e 2f03 c7bd f4f6 a7be b6d1 603e
00000070: 8d92 16bc 38de 933e 1bc9 92bc fb21 933d
00000080: 28af 9b3e ccfe b9bb 7cfe 90bd ee4e 8cbd
00000090: 42f6 4abd 558b 023e 9e63 1dbf c3d5 f73d
000000a0: 3e40 1d3e 1de3 51be a427 223e 41a0 1a3e
000000b0: 84dd 853d 6f1a 7fbe 087b 1ebd d600 023d
000000c0: dda6 27be ad09 b53d 132c 4abd f120 9bbd
000000d0: afb3 49be e99e de3d b35a 54be 642f edbe
000000e0: 1ebb d43e ba19 263e 1ac8 063e 25f2 aebe
000000f0: 4344 78be 66b7 14be 483e 4c3d 8b88 6fbe
00000100: 2582 54bd 9d58 abbd 8b07 7f3e 7425 133b
00000110: 919a 323e f44b d3bd 1a5f 00bd d670 c73d
00000120: 997e 6dbd 0ce9 15bd bb74 e23d 4bed c8bd
00000130: bb38 863e b419 57bd eda1 f6bc 62a9 643e
00000140: a319 f3bd 2d1e 353e 4239 0bbe 5d74 96bd
00000150: 9849 023e 5fa7 d03e 32b8 f33c 6575 b83d
00000160: a9a9 cdbd 279a 31be e9b6 2abe 794d 973e
00000170: 43ea 0b3e 823b 833e 0f24 23bf 6706 a2bd
00000180: e536 ccbd 7d74 06bf f344 6b3e a83d b0be
00000190: a17c a9be 39d3 2abe 0eaf 71bd 3b64 3b3e
000001a0: d80e 1cbc b1ff dabd cd00 2ebe 05b3 d5bd
000001b0: ef9c ae3d bab2 c43e 7c21 11bd 5323 32be
000001c0: 5cb9 6c3e 0a26 d53e dad0 733e 4c20 e63c
000001d0: db40 c13c 3e19 553e f4cd d33d 65ec 08be
000001e0: b684 2e3e bf8c 10bd 0089 673e 20e1 913d
000001f0: 7f31 0d3f 10a2 8dbe d2e5 a8bb cefa a23e
00000200: 5c1f 6abd 6cdd 3a3e 3ec0 b23e 7419 323e
00000210: 8181 233e 7f5e 7fbe 47d1 96be cba3 84bd
00000220: 377c db3e d7db 103f 4829 4bbe 3ed7 cc3d
00000230: 09ab 0cbd dd6e 743e 5692 89bd ff2c 72be
00000240: 9e2e b73e 7491 563d 6887 27be c29b 503e
00000250: 7dac 973d 0f02 e23d e1f3 a23c d892 fa3d
00000260: e7da 78be f666 1a3c cff4 53bb 101b 82bd
00000270: a85d 59be 8c0d f13d 54f4 a9bd 8e4a bebe
00000280: 5297 673e ed2c 4c3e 797f 253e e8cc a63e
00000290: 60a5 373c face 20bd 1712 e23e fe37 a5be
000002a0: 7ba7 943e 66d4 2dbe 1918 a63e 9426 babe
000002b0: c39e 743d 3882 463d 42c3 d13d c43a 15bd
000002c0: 4bd1 bebd e21a 173d a6d1 81be 932f 893d
000002d0: c260 80be b955 89be 1c48 233d 1047 443e
000002e0: cd4c 713d 5244 833d ae9d 1c3e 632a f6bd
000002f0: cb44 a3bd 279a a5bc 8828 6b3d f01c d73d
00000300: 08ef 323c 85b6 153f 7dc6 543e be27 873d
00000310: 0254 df3e f1ad 4e3e 3e7b 72be a608 673e
00000320: edf6 9d3e f2bc f3bd c675 0bbc 44e7 2ebe
00000330: e3b7 dd3e c559 363e 67c2 8c3d f7ad 933e
00000340: e7f6 fe3e 1c50 f4bd 72fd b73e ea99 8bbd
00000350: 0443 803e e514 953e ba5b 5cbd c47a 9bbe
00000360: 3477 4dbc 4b21 123e 4a3e 913c c659 893d
00000370: 1ad1 ceb9 e68f 983c 7020 debd 1429 7fbd
00000380: 8e08 00be 0a87 123e aa96 8b3d b332 cabd
00000390: fb9b b5ba 2592 593e 86ea a3bd ea9b 323e
000003a0: a9f2 0f3f 4f86 34bd c672 723e 9042 cf3c
000003b0: 9ad8 3dbd 096c c63d 9fba a73d f287 6f3e
000003c0: 50e6 a2bd ae6b 193d 60b9 833e 88c1 e23e
000003d0: 2c2e 32bf 2ae8 403e d563 933d 0bdd bf3d
000003e0: cde1 933d d654 c03d 6578 dd3b a650 b53d
000003f0: c923 2e3e 9686 4abe 3a59 a5bc 3ab9 533e

base.cnn.10.bias f4 [64]
-0.059449065 -0.01739168 -0.14790499 -0.17207506 -0.13535878 -0.10111429 -0.13062365 -0.15160461
-0.031231545 -0.084594674 -0.10072277 0.0024285617 0.02892979 -0.06703913 0.08779356 -0.013181304
-0.06874415 -0.06435915 -0.113903314 -0.046187375 -0.09997098 -0.07147002 -0.13962305 -0.022777293
-0.091403246 -0.22027619 -0.0645055 -0.102734864 -0.029513087 -0.06413434 -0.10346366 0.04841557
-0.05298889 -0.13561241 -0.0994469 -0.07183927 -0.092020355 -0.016091382 -0.16746558 -0.078921266
-0.10695382 -0.18568303 -0.08291314 -0.18331379 -0.058623128 -0.1282839 -0.027195117 -0.14674826
-0.052156445 0.039185353 -0.14745128 -0.043507967 -0.050353285 -0.17607063 -0.17849664 0.00439862
-0.039852645 -0.028911913 -0.07479484 -0.16170935 -0.06537121 -0.07417158 -0.09175401 -0.048429724
00000000: dd80 73bd ff78 8ebc 6874 17be 7234 30be
00000010: 7e9b 0abe 0215 cfbd 35c2 05be 3d3e 1bbe
00000020: 4cd9 ffbc f93f adbd bd47 cebd 8128 1f3b
00000030: 2bfe ec3c d04b 89bd 1ccd b33d 65f6 57bc
00000040: bcc9 8cbd bbce 83bd 2446 e9bd f92e 3dbd
00000050: 96bd ccbd e05e 92bd 58f9 0ebe 7297 babc
00000060: a031 bbbd 1590 61be 761b 84bd a866 d2bd
00000070: 6ec5 f1bc dd58 83bd c1e4 d3bd 684f 463d
00000080: e10a 59bd fbdd 0abe d1aa cbbd 7820 93bd
00000090: 2b75 bcbd 13d2 83bc 197c 2bbe 79a1 a1bd
000000a0: 9b0a dbbd b123 3ebe 5dce a9bd 9cb6 3bbe
000000b0: ce1e 70bd db5c 03be 4bc8 debc 2d45 16be
000000c0: ffa1 55bd d280 203d 78fd 16be 6935 32bd
000000d0: 3f3f 4ebd dc4b 34be d3c7 36be 4d22 903b
000000e0: 873c 23bd add8 ecbc 092e 99bd 2397 25be
000000f0: 57e1 85bd 45e7 97bd 87e9 bbbd 3f5e 46bd

base.cnn.12.weight f4 [64]
1.0733702 1.0449872 0.96996605 0.9750426 0.9443324 0.95039725 0.9070819 1.1519018
0.89017135 1.1107199 0.99977255 1.0033253 1.024787 0.9936194 0.9724398 0.88764626
1.0753958 0.7702997 0.9420126 1.073595 1.0117269 0.7116735 1.1244736 1.0087615
0.9982711 0.91357267 1.2057687 1.0582982 0.97057885 0.9835939 0.87738436 0.9541814
1.053431 1.0596004 1.1612462 0.94891095 1.0949637 1.0842508 0.950274 1.0667787
0.8663092 1.1998893 0.9164735 1.1746807 0.93996966 1.0021482 0.8700314 1.1296816
0.8812224 1.0634669 1.0315388 1.1692185 1.1207731 1.036367 1.0218931 1.1489044
1.1327822 0.9390434 1.069282 0.9994382 1.0247469 0.7772439 1.0237116 1.1278764
00000000: 3264 893f 24c2 853f b24f 783f 649c 793f
00000010: c5bf 713f 3c4d 733f 8536 683f 8571 933f
00000020: 45e2 633f 122c 8e3f 18f1 7f3f f76c 803f
00000030: 382c 833f d75d 7e3f d1f1 783f c93c 633f
00000040: 92a6 893f 5c32 453f bd27 713f 906b 893f
00000050: 4480 813f 3c30 363f c0ee 8f3f 191f 813f
00000060: b28e 7f3f e6df 693f a156 9a3f 5176 873f
00000070: db77 783f cfcc 7b3f 439c 603f 3b45 743f
00000080: d4d6 863f fca0 873f b7a3 943f d4eb 723f
00000090: c527 8c3f bbc8 8a3f 2845 733f 348c 883f
000000a0: 71c6 5d3f f995 993f 029e 6a3f f05b 963f
000000b0: daa1 703f 6446 803f 61ba 5e3f 6899 903f
000000c0: cb97 613f af1f 883f 7709 843f f4a8 953f
000000d0: 7e75 8f3f ada7 843f 65cd 823f 4d0f 933f
000000e0: 02ff 903f 2665 703f 3cde 883f 2fdb 7f3f
000000f0: e82a 833f 75f9 463f fb08 833f 415e 903f

base.cnn.12.bias f4 [64]
-0.006999489 0.019769067 0.019092854 0.08447901 0.03852875 -0.011706152 0.008146115 -0.19319883
0.07977041 -0.022460002 0.036494818 0.20217425 0.078856185 0.1915084 0.08024603 0.039271932
-0.033369053 0.112483546 0.042009283 -0.015516997 -0.037487604 0.112519436 -0.1696171 0.054717783
0.047465116 -0.03974695 -0.17657267 0.08147328 0.074160665 0.11090369 -0.03171734 -0.026291203
-0.017666351 -0.17123272 -0.12759599 -0.058612097 0.028907042 0.13533472 0.048248064 0.01648505
0.1020903 -0.0774147 0.10381948 -0.08168881 0.004391876 -0.032305922 0.124638475 -0.09995367
0.18515685 0.1594597 -0.020138938 -0.079171166 0.028240632 -0.010301234 0.006137986 -0.06836951
0.018251102 0.06542122 -0.13132791 -0.043309476 0.0374348 0.045784224 0.03145321 -0.016950885
00000000: f85b e5bb bdf2 a13c 9e68 9c3c 5503 ad3d
00000010: 53d0 1d3d 29cb 3fbc 4877 053c ead5 45be
00000020: ab5e a33d 0afe b7bc 977b 153d c406 4f3e
00000030: 5a7f a13d c71a 443e 0858 a43d 9bdb 203d
00000040: fdad 08bd c65d e63d ed11 2c3d 013b 7ebc
00000050: 9a8c 19bd 9770 e63d 1bb0 2dbe c11f 603d
00000060: c86a 423d b3cd 22bd 77cf 34be 77db a63d
00000070: 8ce1 973d 7921 e33d 0bea 01bd a660 d7bc
00000080: 06b9 90bc a157 2fbe 86a8 02be 3d13 70bd
00000090: 76ce ec3c 2f95 0a3e c39f 453d a80b 873c
000000a0: b814 d13d 998b 9ebd 4f9f d43d 764c a7bd
000000b0: bae9 8f3b 3753 04bd 7542 ff3d 82b4 ccbd
000000c0: c299 3d3e 6749 233e 6afa a4bc 7e24 a2bd
000000d0: e658 e73c 82c6 28bc 2921 c93b 5005 8cbd
000000e0: 5683 953c 90fb 853d d37a 06be 4765 31bd
000000f0: 3c55 193d 3d88 3b3d 15d5 003d 95dc 8abc

base.cnn.13.weight f4 [64, 64]
-0.2301204 0.17072485 0.18432452 0.18804933 -0.21584137 0.043117944 -0.5343071 0.3103275
-0.10715366 -0.27384427 0.013238744 -0.1351975 -0.16593726 0.23209502 -0.07605856 0.15772846
-0.3336574 0.32494637 -0.14441466 -0.21286808 0.015133729 0.12536801 0.118420765 0.3396902
0.026363334 -0.19183935 0.11178692 -0.291731 -0.06523273 -0.009652125 0.21232563 -0.2868126
0.099228226 0.016810196 0.49657106 0.09703034 -0.1341403 0.13806736 0.037903357 0.27322444
-0.3040004 0.27717373 -0.3957388 -0.17948353 0.015642343 0.12573893 -0.23051858 0.018306894
-0.3673125 -0.14172654 0.12993349 -0.2135802 -0.07822855 0.24639711 0.14181928 -0.24899034
0.22015831 0.07377879 -0.48816293 -0.10578228 0.3477128 0.35799757 -0.17878841 -0.013416912
0.14737412 0.13134798 -0.4507751 0.062081475 -0.1818434 0.12239321 -0.16199847 0.28274122
0.050009023 0.1475433 -0.012952262 -0.60518813 0.13723479 -0.22948843 -0.004154742 0.1699258
-0.027575793 -0.29332814 0.3048273 0.07175137 0.010955829 0.105820425 0.14145148 0.102468036
-0.1851794 -0.026697075 -0.2209934 -0.47102472 0.14804076 0.5069249 0.21766157 0.31770498
0.31653398 0.37368208 0.1550125 -0.3384775 -0.2802063 -0.11326194 -0.051343277 -0.1437861
-0.26572344 0.124849014 0.17415059 -0.2492724 -0.14476752 0.116648704 0.022510879 -0.053594608
0.1205453 -0.0808701 0.067505516 -0.08998565 -0.40698516 -0.10309126 0.069116935 0.20581442
-0.14683858 -0.3193822 -0.12826313 -0.045594368 0.101956226 -0.040550876 0.3417381 0.0369272
-0.026927505 -0.041203056 0.19266698 -0.16018179 0.278423 -0.12993601 -0.06222888 0.10456393
-0.38509864 0.25948903 -0.42853218 0.049847286 -0.10498434 -0.15474094 -0.11545875 0.056117494
-0.043313526 -0.10885128 0.05989559 0.0035586029 0.3173802 -0.12061676 -0.093306005 0.119993225
-0.08690688 -0.28303343 0.08719444 0.008597312 -0.078652725 -0.1724183 -0.030167064 0.05783171
0.11293971 0.32083574 0.35317442 -0.19317561 0.3008646 -0.013074658 0.07858372 -0.292207
0.048612107 -0.013792332 0.2724914 0.09546257 -0.33958757 -0.22296077 -0.03461365 0.0685178
0.2542385 0.014822536 0.055495612 0.14193131 -0.082762174 -0.054764453 -0.34121877 0.37281194
-0.14378673 0.082649276 -0.35781634 -0.21585436 -0.34371117 0.58815694 -0.038471762 -0.20788836
-0.089039594 0.1389197 -0.014904681 0.00935088 -0.08026307 -0.0085955225 0.105742514 0.0724811
0.22656447 0.18999687 0.09477231 0.23006237 -0.12634999 -0.29429752 0.09461692 0.07617769
0.41258803 -0.3171573 -0.13372672 -0.2899743 0.12511666 -0.10441217 0.3585735 0.13706619
-0.3397837 0.115066454 0.13266869 0.24510616 0.1799669 0.17179272 0.3161653 0.086205006
-0.31855026 0.056920003 0.2729681 0.06775136 -0.09135547 -0.34347174 -0.35362288 0.118876174
0.076238796 0.405824 0.18845119 0.36989135 -0.266593 -0.1259666 0.15921207 0.417116
-0.43704745 -0.0276237 0.08220347 0.031009592 0.1796612 0.28663242 0.4403444 0.017490475
-0.13587387 0.09603902 0.35645637 0.3939627 -0.54013246 -0.07815955 -0.016975394 0.1390531
00000000: afa4 6bbe 7fd2 2e3e 91bf 3c3e 0190 403e
00000010: 8505 5dbe 719c 303d 5ac8 08bf 3fe3 9e3e
00000020: 6173 dbbd 5135 8cbe 51e7 583c 3771 0abe
00000030: 75eb 29be 51aa 6d3e 97c4 9bbd 9283 213e
00000040: 25d5 aabe 5f5f a63e 70e1 13be 17fa 59be
00000050: 76f3 773c 7960 003e 9686 f23d e0eb ad3e
00000060: ebf7 d73c 8971 44be 8af0 e43d c45d 95be
00000070: bd98 85bd f223 1ebc e46b 593e 1ad9 92be
00000080: 2b38 cb3d 89b5 893c 903e fe3e d8b7 c63d
00000090: 135c 09be 8861 0d3e 8d40 1b3d 13e4 8b3e
000000a0: f1a5 9bbe b7e9 8d3e 479e cabe 88ca 37be
000000b0: 5f24 803c b5c1 003e 100d 6cbe 57f8 953c
000000c0: 6210 bcbe c320 11be 490d 053e c5b4 5abe
000000d0: 4a36 a0bd 864f 7c3e 1339 113e 53f7 7ebe
000000e0: 2e71 613e 5619 973d 7ef0 f9be 61a4 d8bd
000000f0: 6a07 b23e 754b b73e 4f14 37be 9cd2 5bbc
00000100: 3ee9 163e 1680 063e fecb e6be 2549 7e3d
00000110: 2835 3abe 4ba9 fa3d ede2 25be 75c3 903e
00000120: 43d6 4c3d 9715 173e b935 54bc 9ced 1abf
00000130: 4787 0c3e 04ff 6abe 8124 88bb 0701 2e3e
00000140: a1e6 e1bc 1b2f 96be 5312 9c3e 62f2 923d
00000150: 1480 333c 61b8 d83d a8d8 103e c3da d13d
00000160: ab9f 3dbe d3b3 dabc 184c 62be 272a f1be
00000170: ff97 173e d5c5 013f ade2 5e3e 3aaa a23e
00000180: be10 a23e 4253 bf3e 99bb 1e3e ec4c adbe
00000190: 3377 8fbe e0f5 e7bd 544d 52bd aa3c 13be
000001a0: e70c 88be d7b0 ff3d 8854 323e 4441 7fbe
000001b0: f03d 14be 84e5 ee3d bc68 b83c 0586 5bbd
000001c0: 74e0 f63d 399f a5bd 5540 8a3d 654a b8bd
000001d0: 5c60 d0be 8321 d3bd 2e8d 8d3d 04c1 523e
000001e0: da5c 16be 1086 a3be 6957 03be 29c1 3abd
000001f0: 6dce d03d ad18 26bd 4cf8 ae3e fa40 173d
00000200: 1297 dcbc 89c4 28bd 7e4a 453e b206 24be
00000210: 768d 8e3e f20d 05be b6e3 7ebd 9d25 d63d
00000220: a62b c5be bfdb 843e 9268 dbbe ab2c 4c3d
00000230: 0802 d7bd 6974 1ebe a375 ecbd 75db 653d
00000240: 8669 31bd 6bed debd 1455 753d 7337 693b
00000250: a87f a23e eb05 f7bd 3817 bfbd 02bf f53d
00000260: 3cfc b1bd c2e9 90be 0093 b23d bddb 0c3c
00000270: ae14 a1bd 6c8e 30be eb20 f7bc f1e0 6c3d
00000280: ef4c e73d 9544 a43e 47d3 b43e d4cf 45be
00000290: ed0a 9a3e 1737 56bc 80f0 a03d 289c 95be
000002a0: 7d1d 473d 3cf9 61bc fe83 8b3e e181 c33d
000002b0: 6cde adbe d44f 64be 0bc7 0dbd 0f53 8c3d
000002c0: 8c2b 823e 39da 723c 5e4f 633d 7156 113e
000002d0: 377f a9bd b150 60bd 3ab4 aebe 35e1 be3e
000002e0: d43c 13be 0644 a93d b433 b7be ed08 5dbe
000002f0: e9fa afbe 7491 163f 9194 1dbd b0e0 54be
00000300: 645a b6bd f740 0e3e c332 74bc 6f34 193c
00000310: f760 a4bd 3cd4 0cbc 888f d83d f970 943d
00000320: 8400 683e 8a8e 423e fc17 c23d 7895 6b3e
00000330: e461 01be 2aae 96be 84c6 c13d 0c03 9c3d
00000340: bd3e d33e 7162 a2be a8ef 08be 8377 94be
00000350: 951e 003e 0cd6 d5bd f296 b73e 145b 0c3e
00000360: 21f8 adbe f6a7 eb3d 4dda 073e 1cfd 7a3e
00000370: 3e49 383e 6eea 2f3e 6be0 a13e 408c b03d
00000380: 0519 a3be f324 693d 7ac2 8b3e 3ac1 8a3d
00000390: 9418 bbbd 87db afbe 0f0e b5be 5a75 f33d
000003a0: 1623 9c3d 2ac8 cf3e 59f9 403e 6662 bd3e
000003b0: e17e 88be 63fd 00be 7d08 233e 3a90 d53e
000003c0: afc4 dfbe 194b e2bc 4b5a a83d d407 fe3c
000003d0: 1bf9 373e 7cc1 923e d274 e13e 2f48 8f3c
000003e0: 8522 0bbe 1bb0 c43d 7381 b63e 7bb5 c93e
000003f0: 1f46 0abf 1d12 a0bd fb0f 8bbc f063 0e3e
