CRL_human_AI_overcooked/human_models/model_many_orders/actor_best_r7.pt (torch, 426323 bytes, 20 tensors)

base.cnn.0.weight f4 [32, 26, 3, 3]
0.14343773 -0.16270395 0.2390192 0.12183297 0.0037241192 -0.036491897 -0.22335461 -0.11804984
-0.43156445 0.08516027 -0.2421235 -0.17494385 -0.21550678 0.036094453 -0.1358055 0.31911817
0.05906281 -0.082317136 -0.10806358 0.016961362 0.13442498 0.02792972 0.12253229 -0.050361175
0.07948629 0.06964125 -0.2944658 -0.04879217 -0.089913994 -0.0039740694 -0.21951756 0.12963615
0.024088379 0.009512796 -0.30857337 -0.07830142 0.1672185 0.15807343 0.3209505 0.5717622
0.05807553 -0.29138625 -0.07185917 0.033898897 -0.38511363 0.15845712 -0.33912694 0.021249894
0.08008344 -0.12826027 -0.36793685 0.12295167 0.060682975 0.19036123 -0.15356041 -0.13170454
-0.29252064 -0.04839386 0.13528776 0.08071023 0.23915169 -0.102839924 -0.2543519 -0.117611855
-0.21406998 0.20980851 -0.0022195277 0.041575693 -0.22962028 -0.45369425 -0.041319434 0.36618057
0.3030353 -0.1610401 -0.20251456 -0.07327461 0.115408875 -0.002528393 0.1958867 0.0034312923
0.054816615 0.33941627 -0.17742684 -0.15686193 -0.3679961 0.24122337 -0.12255735 0.038476106
0.10503505 0.12616354 -0.26640585 0.13410492 0.06264719 -0.21583062 -0.03933513 -0.07530569
-0.24404985 -0.09140521 -0.12165406 -0.028136024 -0.13596438 -0.01182389 -0.13324878 0.07443556
0.03943387 0.017225878 -0.026448818 0.16388555 -0.014518512 -0.11378663 0.027439585 0.086856134
-0.035683997 0.10297004 0.08184086 -0.0009901325 -0.05782352 -0.022124724 0.021081153 0.07367654
0.012925439 0.08707615 0.0848224 0.13006227 0.027172485 -0.10953681 -0.021463146 0.22704558
0.12827024 0.17243043 0.12001259 -0.14137861 0.13387588 -0.06286403 0.0005152221 -0.07713294
0.2737962 -0.032572664 0.0021912016 -0.04600455 -0.014150843 0.06024293 -0.02892009 0.14038107
-0.0153575735 0.13392152 0.15096262 0.2115222 0.28342083 -0.05477084 0.30562145 0.022990458
0.079910204 0.007904753 0.19626512 0.11592268 -0.095794916 0.10843803 0.07911029 0.06341407
-0.03014634 0.10193687 -0.20315585 0.063081145 0.026581092 0.08979308 -0.14201671 -0.11252587
0.09616012 0.0851863 -0.036480937 0.101070516 0.048467465 -0.25028533 -0.082496345 -0.036839876
-0.07735642 0.052148275 0.18433656 0.021002516 0.019713849 0.092147514 0.027372964 0.075396426
-0.04890569 -0.081603944 -0.17716807 -0.004086347 -0.026362052 0.034498177 -0.26134565 0.017476829
0.064361714 -0.12687765 -0.15260015 0.19048351 -0.0893735 -0.09716514 -0.038362198 0.096739866
0.17161003 0.1148123 -0.2876094 0.0434189 -0.008310467 -0.10973718 0.008695558 -0.0265307
-0.13281628 -0.13058248 -0.22531219 -0.13397592 0.23972051 0.045708627 0.437321 0.041210067
0.17427371 -0.15387227 0.14959057 0.16172022 -0.101042725 -0.12240357 0.1824513 0.008524238
0.17894702 -0.040693063 0.1072863 0.033786885 -0.18822266 0.075199574 0.07397654 -0.013114537
-0.09946411 0.01399094 0.10828215 -0.07721196 0.1641229 0.05207983 0.076141156 -0.019152042
0.120909 -0.031991944 -0.021009676 0.12115174 -0.109501384 0.0036027587 0.12085666 -0.19613132
0.21536316 0.16922697 -0.15022466 -0.14557974 -0.19527927 0.23864888 -0.110628136 0.27674085
00000000: 57e1 123e dd9b 26be 73c1 743e 9083 f93d
00000010: 5a10 743b 8778 15bd 12b7 64be 1dc4 f1bd
00000020: 04f6 dcbe 8268 ae3d 39ef 77be 7b24 33be
00000030: cfad 5cbe c7d7 133d 9910 0bbe 7563 a33e
00000040: d8eb 713d e395 a8bd 7050 ddbd 8ef2 8a3c
00000050: b4a6 093e decc e43c 36f2 fa3d 8547 4ebd
00000060: b5c9 a23d 12a0 8e3d 39c4 96be 4cda 47bd
00000070: d424 b8bd e938 82bb 36c9 60be 57bf 043e
00000080: fe54 c53c 8fdb 1b3c 54fd 9dbe 7f5c a0bd
00000090: 543b 2b3e 00de 213e a053 a43e 025f 123f
000000a0: 9be0 6d3d 9430 95be e72a 93bd 92d9 0a3d
000000b0: 9d2d c5be 9542 223e 0ca2 adbe 4214 ae3c
000000c0: c902 a43d a956 03be 3862 bcbe 16ce fb3d
000000d0: b68e 783d 0eee 423e f13e 1dbe 8edd 06be
000000e0: 44c5 95be a438 46bd e088 0a3e 684b a53d
000000f0: 2ee4 743e bd9d d2bd 6a3a 82be 7cde f0bd
00000100: 2935 5bbe 0bd8 563e 7f75 11bb 464b 2a3d
00000110: 9421 6bbe 9d4a e8be 913e 29bd 057c bb3e
00000120: 7127 9b3e b2e7 24be fa5f 4fbe 0011 96bd
00000130: 7d5b ec3d 65b3 25bb 8696 483e 88df 603b
00000140: 6387 603d f8c7 ad3e 62af 35be 6aa0 20be
00000150: fc69 bcbe 4203 773e 59ff fabd 1f99 1d3d
00000160: 9e1c d73d 0431 013e 5966 88be cd52 093e
00000170: 2c4d 803d b402 5dbe e01d 21bd df39 9abd
00000180: 34e8 79be a832 bbbd c425 f9bd 857d e6bc
00000190: 3f3a 0bbe fdb8 41bc 5e72 08be ac71 983d
000001a0: 6985 213d 491d 8d3c 31ab d8bc 9dd1 273e
000001b0: 0edf 6dbc f708 e9bd fbc8 e03c a1e1 b13d
000001c0: 6229 12bd f5e1 d23d 2e9c a73d 55c7 81ba
000001d0: 5bd8 6cbd e93e b5bc 62b2 ac3c bae3 963d
000001e0: 38c5 533c fb54 b23d 5eb7 ad3d 0b2f 053e
000001f0: d598 de3c d654 e0bd 7bd3 afbc a37e 683e
00000200: 4659 033e 9a91 303e 29c9 f53d 8ec5 10be
00000210: c216 093e dbbe 80bd f80f 073a e0f7 9dbd
00000220: 042f 8c3e ea6a 05bd 439a 0f3b 446f 3cbd
00000230: f0d8 67bc 4ac1 763d d3e9 ecbc 0ec0 0f3e
00000240: 559e 7bbc b922 093e f295 1a3e 4799 583e
00000250: 891c 913e 6357 60bd 6a7a 9c3e 7c56 bc3c
00000260: f6a7 a33d f082 013c b9f9 483e df68 ed3d
00000270: 2030 c4bd c214 de3d 9304 a23d 3cdf 813d
00000280: 75f5 f6bc 47c4 d03d 1608 50be b030 813d
00000290: 97c0 d93c 6fe5 b73d d46c 11be f773 e6bd
000002a0: 99ef c43d 2876 ae3d 096d 15bd 0ffe ce3d
000002b0: d285 463d 6625 80be d8f3 a8bd 69e5 16bd
000002c0: 0b6d 9ebd 6e99 553d b9c2 3c3e 780d ac3c
000002d0: f07e a13c d6b7 bc3d 443d e03c 7169 9a3d
000002e0: 5551 48bd f81f a7bd 8c6b 35be c3e6 85bb
000002f0: 3bf5 d7bc f64d 0d3d 19cf 85be 912b 8f3c
00000300: 13d0 833d 37ec 01be 3743 1cbe 1c0e 433e
00000310: 7409 b7bd 84fe c6bd ae21 1dbd 8d1f c63d
00000320: 8aba 2f3e b622 eb3d 8a41 93be 04d8 313d
00000330: a028 08bc e3bd e0bd d077 0e3c e956 d9bc
00000340: fe00 08be 6ab7 05be 3db8 66be fc30 09be
00000350: 4b79 753e f838 3b3d 8ae8 df3e e3cb 283d
00000360: cf74 323e b190 1dbe 452e 193e fc99 253e
00000370: 7def cebd b9ae fabd 83d4 3a3e 3fa9 0b3c
00000380: e33d 373e c5ad 26bd ebb8 db3d 1e64 0a3d
00000390: 71bd 40be 3c02 9a3d 0381 973d 5bde 56bc
000003a0: d7b3 cbbd 413a 653c 08c3 dd3d 4e21 9ebd
000003b0: d50f 283e a951 553d e5ef 9b3d bee4 9cbc
000003c0: 239f f73d fc09 03bd 7c1c acbc 671e f83d
000003d0: 4342 e0bd 431c 6c3b b283 f73d a6d6 48be
000003e0: 2988 5c3e d649 2d3e 7ed4 19be db12 15be
000003f0: 4af7 47be 5f60 743e 0191 e2bd fab0 8d3e

base.cnn.0.bias f4 [32]
-0.0014316259 -0.091035895 -0.037521455 -0.115916766 -0.083031125 -0.07458249 -0.102535225 -0.13424292
-0.030170055 -0.041196477 -0.06995092 -0.14661764 -0.12463405 -0.12936176 -0.059376594 -0.17176075
-0.12661168 -0.09669382 -0.027064532 -0.04835836 -0.031815812 -0.076147564 -0.078352295 -0.15684582
-0.103094645 -0.031868484 -0.10903647 -0.13754903 -0.15647423 -0.048854098 -0.11608258 -0.05188047
00000000: 65a5 bbba 0771 babd 19b0 19bd c565 edbd
00000010: 390c aabd b4be 98bd fdfd d1bd fa76 09be
00000020: 3127 f7bc a3bd 28bd 6e42 8fbd ef22 16be
00000030: 2340 ffbd 6977 04be df34 73bd 0de2 2fbe
00000040: 7ea6 01be 6907 c6bd 70b6 ddbc 6a13 46bd
00000050: 4c51 02bd 41f3 9bbd 2b77 a0bd 319c 20be
00000060: 4923 d3bd 8788 02bd 834e dfbd a7d9 0cbe
00000070: c83a 20be 3c1b 48bd b4bc edbd 9e80 54bd

base.cnn.2.weight f4 [64, 32, 3, 3]
0.009641788 -0.10849542 0.051864464 -0.06779801 -0.048196632 -0.10940629 0.21708901 -0.14639387
-0.20827079 -0.09384744 -0.09823404 -0.29712752 0.033209242 0.08091441 0.08741976 -0.12109771
0.12642822 -0.07098498 0.037235424 0.22071935 -0.19150406 0.18622282 0.025493538 -0.010484492
-0.095684394 0.20144607 0.09551864 -0.20215476 0.0018844968 -0.36145335 0.011544362 0.06022087
0.026044749 -0.089406714 0.15205848 -0.18482919 0.028049028 -0.012927233 0.102954745 -0.2955951
0.0017159244 0.0637786 -0.022876112 0.11391929 0.2335511 -0.030817578 0.17719968 0.105381414
0.09057774 -0.14458261 -0.19228403 0.10373987 -0.023500914 -0.06910475 0.056156017 -0.13977662
0.17266434 0.15946338 0.045791484 -0.22514358 -0.012075271 0.029036716 0.06485101 0.053783074
-0.051124986 -0.13099828 0.0990385 0.30085635 0.10738166 -0.049881477 0.061007947 -0.016272036
0.034179628 -0.12644613 0.06894717 0.07745912 0.05882336 0.040651727 0.11793768 0.14322145
0.13468614 -0.031939946 -0.16096145 0.028556038 0.057965256 -0.07625346 0.14771554 -0.12936337
-0.056296933 -0.25266138 0.017263105 -0.065318115 -0.35879397 -0.2575097 0.12761007 -0.17127758
0.06407178 -0.081722796 0.18323052 -0.06473129 0.14527966 0.08643786 0.01848608 -0.058123115
0.12952341 0.15568699 0.086735226 0.22457403 -0.11029963 0.17919342 -0.15887117 -0.07085662
-0.06467974 -0.09378405 0.07556212 0.03366883 0.027410006 0.1868405 0.120404676 0.020248594
-0.05060122 -0.35513258 -0.1294501 -0.09839227 -0.12346895 0.069871634 -0.2786185 0.38789016
0.10219403 -0.3286346 -0.14350805 -0.028628621 0.004996257 -0.19220452 -0.3108629 -0.3510229
-0.09765225 0.24219355 -0.00052741665 -0.003097974 -0.098949365 -0.062376533 -0.11501792 0.012297919
0.0025360952 0.014559645 -0.13142805 -0.16617973 -0.13302341 -0.028778266 -0.04738026 -0.10443345
-0.24476227 0.0805281 -0.08444606 0.13773532 -0.09118226 -0.092956536 0.095858596 -0.10105921
-0.21416576 0.16154854 0.017070306 -0.05585526 0.093293674 0.04786123 0.09662131 -0.004356709
-0.06923287 0.10856725 -0.16840677 0.09735601 -0.13929741 -0.13070475 -0.006721554 -0.02001321
-0.29293725 0.028464342 -0.008170228 -0.23885047 0.107744925 0.21108706 0.04166544 0.002299902
-0.2600766 -0.12694855 -0.10215006 -0.007596273 0.12857254 0.034883726 -0.0896856 -0.03803633
-0.039762974 -0.14220768 0.11226745 -0.042516585 -0.0751779 0.15476215 -0.07091862 -0.05289355
-0.17090341 0.038830694 0.0814447 0.029926114 0.0053267437 -0.18306999 0.039146904 0.08642706
-0.16616113 0.06540949 -0.06880258 0.00503388 0.045958072 -0.017372437 0.012873096 0.0007124982
-0.020089284 0.15556878 -0.12986912 0.06778359 -0.09590157 0.062053263 0.04082088 0.12528206
0.05983266 0.17988086 -0.03798796 0.086459465 -0.07712401 0.17713593 -0.153314 -0.08822875
-0.071664 0.030503258 0.009044698 0.03054965 -0.14300886 0.27599078 0.17661409 -0.11776612
0.028782602 -0.092139564 -0.046251528 0.13623357 0.14852306 0.15454118 0.08748119 0.2446186
0.05708159 0.12959386 -0.0076791407 0.1967136 -0.039894424 0.1545708 -0.06702728 -0.0056149457
00000000: 97f8 1d3c d932 debd d56f 543d afd9 8abd
00000010: d569 45bd 6810 e0bd 954c 5e3e 46e8 15be
00000020: f044 55be 1633 c0bd ee2e c9bd 1921 98be
00000030: 6a06 083d 74b6 a53d 2209 b33d 1402 f8bd
00000040: 6676 013e 9360 91bd 2c84 183d 4104 623e
00000050: a419 44be 32b1 3e3e d3d7 d03c 26c7 2bbc
00000060: 2ef6 c3bd e147 4e3e 479f c33d a801 4fbe
00000070: 3801 f73a 6a10 b9be 9024 3d3c 29aa 763d
00000080: cc5b d53c de1a b7bd 38b5 1b3e dd43 3dbe
00000090: 13c7 e53c bfcc 53bc f0d9 d23d 3e58 97be
000000a0: dee8 e03a 5b9e 823d af66 bbbc 844e e93d
000000b0: 0528 6f3e 2575 fcbc d573 353e 36d2 d73d
000000c0: d280 b93d 770d 14be 1be6 44be 9275 d43d
000000d0: fd84 c0bc cb86 8dbd da03 663d 9a21 0fbe
000000e0: ecce 303e 5e4a 233e da8f 3b3d 0a8c 66be
000000f0: 5cd7 45bc 68de ed3c 9bd0 843d a44b 5c3d
00000100: 6f68 51bd 6a24 06be b2d4 ca3d d809 9a3e
00000110: eaea db3d 8550 4cbd 78e3 793d ef4c 85bc
00000120: f0ff 0b3d 187b 01be 2d34 8d3d e3a2 9e3d
00000130: c3f0 703d 6d82 263d 4f89 f13d a5a8 123e
00000140: 2aeb 093e 76d3 02bd 14d3 24be 5aee e93c
00000150: fa6c 6d3d c62a 9cbd be42 173e d577 04be
00000160: 9d97 66bd d55c 81be 5b6b 8d3c 81c5 85bd
00000170: d8b3 b7be 50d8 83be 37ac 023e 6463 2fbe
00000180: 1138 833d 485e a7bd c8a0 3b3e d791 84bd
00000190: 31c4 143e 5506 b13d 1f70 973c 8112 6ebd
000001a0: c9a1 043e 696c 1f3e 3da2 b13d bcf6 653e
000001b0: c6e4 e1bd 7b7e 373e 20af 22be 471d 91bd
000001c0: d076 84bd da11 c0bd 50c0 9a3d 54e8 093d
000001d0: f38a e03c 1e53 3f3e ba96 f63d 61e0 a53c
000001e0: 3a43 4fbd f0d3 b5be 918e 04be e381 c9bd
000001f0: 4add fcbd dc18 8f3d 16a7 8ebe 8a99 c63e
00000200: 1b4b d13d cb42 a8be c6f3 12be 9286 eabc
00000210: a4b7 a33b 43d1 44be 6c29 9fbe 46b9 b3be
00000220: e7fd c7bd 9601 783e 5542 0aba 6107 4bbb
00000230: f7a5 cabd 897e 7fbd 848e ebbd 367d 493c
00000240: 9e34 263b 948b 6e3c 1395 06be 052b 2abe
00000250: 4a37 08be 66c0 ebbc ce11 42bd 34e1 d5bd
00000260: f6a2 7abe ebeb a43d 0ef2 acbd 7d0a 0d3e
00000270: c4bd babd ff5f bebd 8351 c43d 22f8 cebd
00000280: 454e 5bbe fb6c 253e 07d7 8b3c 7cc8 64bd
00000290: c110 bf3d 230a 443d 65e1 c53d b9c2 8ebb
000002a0: f7c9 8dbd 8258 de3d d372 2cbe 9662 c73d
000002b0: fba3 0ebe 77d7 05be 7b40 dcbb bef2 a3bc
000002c0: dffb 95be 0d2e e93c 6cdc 05bc 3895 74be
000002d0: 5fa9 dc3d 3527 583e 61a9 2a3d f4b9 163b
000002e0: c328 85be cdfe 01be 0d34 d1bd 28ea f8bb
000002f0: 85a8 033e 3de2 0e3d 15ad b7bd fccb 1bbd
00000300: 80de 22bd e49e 11be 7aec e53d df25 2ebd
00000310: dff6 99bd f879 1e3e c83d 91bd e8a6 58bd
00000320: 4e01 2fbe ef0c 1f3d 7bcc a63d 9c27 f53c
00000330: f78b ae3b b376 3bbe 8158 203d ac00 b13d
00000340: 2526 2abe 69f5 853d 5ee8 8cbd 3ff3 a43b
00000350: 883e 3c3d a450 8ebc aee9 523c f2c6 3a3a
00000360: 4892 a4bc 6c4d 1f3e 69fc 04be 1fd2 8a3d
00000370: 0b68 c4bd 902b 7e3d cc33 273d f149 003e
00000380: 1713 753d b032 383e 4399 1bbd a911 b13d
00000390: 31f3 9dbd 1f63 353e 58fe 1cbe 46b1 b4bd
000003a0: 93c4 92bd f8e1 f93c 3730 143c 4243 fa3c
000003b0: ea70 12be aa4e 8d3e 53da 343e 5d2f f1bd
000003c0: 7ec9 eb3c abb3 bcbd 3e72 3dbd d080 0b3e
000003d0: 6e16 183e 0b40 1e3e 5729 b33d 4c7d 7a3e
000003e0: 63ce 693d 41b4 043e 4da1 fbbb 4a6f 493e
000003f0: 5668 23bd cf47 1e3e 9945 89bd 94fd b7bb

base.cnn.2.bias f4 [64]
0.030564424 -0.044385906 -0.0504368 0.009461173 -0.07417538 -0.11477861 -0.019337008 -0.047773417
-0.049093235 0.021507759 -0.06661625 -0.062033247 -0.006210545 -0.00063729606 -0.036421243 -0.061188262
-0.08145521 -0.09778665 -0.067958385 -0.107456066 -0.007747915 -0.078310855 -0.058589347 -0.041889876
-0.14473797 -0.07312627 -0.07732635 -0.030080352 -0.07823184 -0.046849713 -0.060913213 0.011979641
-0.048061524 -0.014028884 -0.04915426 -0.0142832985 -0.089846484 -0.08523662 -0.12592709 -0.11951347
-0.13355422 -0.015551243 -0.1164705 -0.017660288 -0.048741363 -0.00918862 -0.048032142 -0.006011193
-0.079489045 0.0072455695 -0.0643091 0.017840758 -0.041548353 -0.00984223 -0.03609573 0.021620601
0.021208469 0.047403146 -0.075947106 -0.030414457 -0.019133972 0.015527214 0.019896641 0.006863375
00000000: 3e62 fa3c ffcd 35bd d196 4ebd 0903 1b3c
00000010: 43e9 97bd 0c11 ebbd a568 9ebc 0fae 43bd
00000020: fd15 49bd 0a31 b03c 1a6e 88bd 9316 7ebd
00000030: d481 cbbb 3710 27ba 712e 15bd 8ba0 7abd
00000040: fdd1 a6bd 5e44 c8bd c42d 8bbd ed11 dcbd
00000050: 39e2 fdbb 7161 a0bd 62fb 6fbd b894 2bbd
00000060: 3136 14be 3ac3 95bd 475d 9ebd 126b f6bc
00000070: 0438 a0bd 7ce5 3fbd 2280 79bd 4246 443c
00000080: 29dc 44bd 67d9 65bc fa55 49bd 7f04 6abc
00000090: 6f01 b8bd 8990 aebd 08f3 00be 7ac3 f4bd
000000a0: 70c2 08be a4ca 7ebc 1688 eebd 4fac 90bc
000000b0: 06a5 47bd de8b 16bc 5abd 44bd 8bf9 c4bb
000000c0: 27cb a2bd 3e6c ed3b 7db4 83bd c826 923c
000000d0: 9b2e 2abd 4e41 21bc 1ed9 13bd b01d b13c
000000e0: 62bd ad3c cd29 423d 288a 9bbd bd27 f9bc
000000f0: d9be 9cbc db65 7e3c 48fe a23c 2ae6 e03b

base.cnn.4.weight f4 [32, 64, 3, 3]
0.12123757 -0.2697168 -0.021410204 -0.084886186 -0.13519351 0.10030959 0.13209118 0.016432311
-0.11727645 0.13265146 -0.17994791 -0.17726219 0.10835041 0.046791367 -0.23894238 -0.1232267
0.057097428 -0.25796607 -0.18059897 -0.07094171 0.020219058 0.19015624 -0.15887651 -0.2921563
-0.10131179 0.20907259 -0.064192764 -0.119657576 -0.12579885 -0.12844987 -0.021437382 -0.11883418
-0.08168494 -0.08583779 -0.068133876 0.059401195 -0.09006024 0.09228616 0.04581729 -0.026304122
-0.05385727 -0.095232956 0.07173332 -0.06414665 0.050826218 -0.12820214 0.08847074 -0.04999386
0.06709798 0.12402347 0.101484925 0.072685555 0.0075434544 0.01115417 -0.0016878474 0.19138367
0.0191477 -0.2774664 -0.112892196 -0.25946298 -0.07727175 -0.024091693 0.114155285 0.060484663
0.098032095 -0.013386939 -0.05862148 -0.023807583 0.0118115805 -0.0021985068 0.20098516 -0.045634877
-0.1452893 0.0055153035 -0.011231819 -0.1026967 -0.0059555895 -0.07156926 0.15867193 0.077826165
-0.16950221 -0.009037444 0.05589969 0.24810736 -0.2944243 0.15888433 0.15805924 -0.03994095
0.041903198 -0.20736279 -0.1675526 0.20448594 -0.06496859 -0.031503215 0.07250633 -0.1363049
0.03745936 -0.10856804 -0.026017288 -0.073645346 0.049722765 -0.12230238 0.057428893 -0.15908933
-0.08610268 -0.039588567 -0.18148774 0.20764163 -0.19123623 0.109970346 -0.065998614 0.009778786
0.010587197 -0.08747438 0.16837128 -0.14835712 0.0052597234 0.10191621 0.118407704 -0.099685065
-0.1431246 0.1370232 0.1378372 -0.032432057 -0.41249704 0.08436239 0.21028443 0.082045265
0.18042104 0.079012126 0.1184526 -0.33179018 0.14724623 0.028987497 -0.17811415 0.15098499
-0.027848322 -0.19088654 0.101909995 0.0134153515 0.020878723 0.02732928 -0.05470514 -0.024235582
-0.08003831 0.03423571 0.19949079 0.027964294 -0.033343825 0.0013051907 0.1108473 -0.12753205
0.07099333 0.17493923 -0.018330023 0.020936808 -0.019365305 0.078299865 0.09552557 0.067774646
0.032965444 0.14458652 -0.043915216 -0.049841963 0.040163968 -0.07602623 -0.15964596 -0.08005303
0.08637313 -0.17776114 -0.04292481 -0.2648228 0.0008088809 -0.12547556 -0.18149018 -0.14641368
0.032931037 -0.07288254 0.050188657 -0.05371784 0.06064237 0.0046986807 0.09648474 -0.02175506
0.08351483 0.17815344 -0.15401934 -0.16155529 -0.21922979 -0.047066953 0.07244262 -0.07647451
0.02104479 0.0068027675 -0.10564576 -0.077874124 -0.059575576 0.04024188 0.117949456 -0.16537334
-0.186588 0.07796166 0.06094671 0.12310578 0.20459692 -0.07858347 0.054846123 0.019679165
-0.05056426 0.023094214 -0.10278677 -0.034530446 -0.011450498 0.3241036 0.13282715 0.10838234
-0.055148695 0.14658923 0.05562669 -0.36341763 -0.11953612 0.06415887 -0.10330976 -0.1067556
0.13327053 -0.06850549 -0.18294118 0.096396804 0.17126334 -0.024862276 -0.06576811 0.031077433
-0.107031696 -0.050705973 -0.08697439 -0.094909616 -0.044247366 0.08975569 -0.07469642 -0.19603495
0.023418752 0.070934996 -0.057874374 0.04722904 0.13437934 -0.21310937 0.20640664 -0.003007006
0.1649469 -0.014720703 0.013867778 -0.004136298 -0.01001616 -0.15162008 -0.19515061 -0.046852745
00000000: 674b f83d 5218 8abe 7464 afbc cfd8 adbd
00000010: 2b70 0abe 1d6f cd3d e942 073e 0e9d 863c
00000020: a32e f0bd c9d5 073e 4444 38be 3884 35be
00000030: d2e6 dd3d 4ea8 3f3d 50ad 74be 485e fcbd
00000040: fede 693d 2114 84be f0ee 38be e349 91bd
00000050: 70a2 a53c 51b8 423e 86b0 22be 8395 95be
00000060: 8e7c cfbd 2017 563e 7f77 83bd 080f f5bd
00000070: 6ad1 00be 5d88 03be 739d afbc 565f f3bd
00000080: 6f4a a7bd b9cb afbd c689 8bbd ab4e 733d
00000090: 8171 b8bd 8700 bd3d e9aa 3b3d be7b d7bc
000000a0: 7199 5cbd 7f09 c3bd ebe8 923d 525f 83bd
000000b0: 272f 503d 6c47 03be 2630 b53d 5dc6 4cbd
000000c0: aa6a 893d 0400 fe3d 54d7 cf3d 2adc 943d
000000d0: 152f f73b fbbf 363c c33a ddba 15fa 433e
000000e0: a3db 9c3c 1310 8ebe 0634 e7bd 55d8 84be
000000f0: a740 9ebd f15b c5bc 3fca e93d c4be 773d
00000100: 0dc5 c83d e454 5bbc 141d 70bd 1f08 c3bc
00000110: 5c85 413c d314 10bb 0ecf 4d3e a3eb 3abd
00000120: b8c6 14be b8b9 b43b aa05 38bc a652 d2bd
00000130: 1b27 c3bb e792 92bd e57a 223e 5363 9f3d
00000140: fd91 2dbe ca11 14bc 13f7 643d db0f 7e3e
00000150: c8be 96be 93b2 223e 48da 213e 1f99 23bd
00000160: b0a2 2b3d e956 54be e992 2bbe c364 513e
00000170: 410e 85bd 8409 01bd 337e 943d 8393 0bbe
00000180: fc6e 193d ec58 debd 3522 d5bc 5fd3 96bd
00000190: 19aa 4b3d ac79 fabd 8f3a 6b3d 50e8 22be
000001a0: 9a56 b0bd 9f27 22bd ecd7 39be 02a0 543e
000001b0: 6ed3 43be 2238 e13d 482a 87bd 3437 203c
000001c0: ec75 2d3c c525 b3bd 8569 2c3e eeea 17be
000001d0: c259 ac3b 72b9 d03d bd7f f23d af27 ccbd
000001e0: 418f 12be cf4f 0c3e 3225 0d3e 7ad7 04bd
000001f0: d032 d3be 30c6 ac3d cd54 573e 5907 a83d
00000200: 4bc0 383e 1cd1 a13d 4797 f23d 67e0 a9be
00000210: b7c7 163e 3077 ed3c 8e63 36be cf9b 1a3e
00000220: 2a22 e4bc c377 43be 30b6 d03d 10cc 5b3c
00000230: db09 ab3c a7e1 df3c 7f12 60bd b389 c6bc
00000240: 20eb a3bd be3a 0c3d 5047 4c3e 6015 e53c
00000250: 8993 08bd ef12 ab3a e903 e33d c397 02be
00000260: f364 913d 4523 333e d828 96bc ab83 ab3c
00000270: fda3 9ebc ae5b a03d e9a2 c33d 6fcd 8a3d
00000280: c606 073d 7d0e 143e 71e0 33bd 1627 4cbd
00000290: f982 243d a4b3 9bbd 3b7a 23be d8f2 a3bd
000002a0: 65e4 b03d 0407 36be edd1 2fbd db96 87be
000002b0: 140b 543a aa7c 00be 90d8 39be 78ed 15be
000002c0: b2e2 063d 7143 95bd 9f92 4d3d 3d07 5cbd
000002d0: 2264 783d 64f7 993b cb99 c53d ab37 b2bc
000002e0: d309 ab3d db6d 363e 3fb7 1dbe c06e 25be
000002f0: c67d 60be 47c9 40bd cc5c 943d ab9e 9cbd
00000300: 2066 ac3c c0e9 de3b ce5c d8bd 787c 9fbd
00000310: 8505 74bd abd4 243d 7c8f f13d a157 29be
00000320: ed10 3fbe 5daa 9f3d 42a3 793d e21e fc3d
00000330: db81 513e 5ff0 a0bd 54a6 603d 3336 a13c
00000340: 781c 4fbd 1430 bd3c df81 d2bd cc6f 0dbd
00000350: df9a 3bbc e8f0 a53e d703 083e 8ff7 dd3d
00000360: 99e3 61bd 7d1b 163e d0d8 633d e011 babe
00000370: 5acf f4bd ba65 833d 1194 d3bd aea2 dabd
00000380: 1278 083e 9b4c 8cbd ef54 3bbe b06b c53d
00000390: a85f 2f3e f9ab cbbc 6eb1 86bd 1a96 fe3c
000003a0: 6f33 dbbd 11b1 4fbd a11f b2bd f95f c2bd
000003b0: ba3c 35bd d5d1 b73d 70fa 98bd 63bd 48be
000003c0: afd8 bf3c 5e46 913d ae0d 6dbd 3d73 413d
000003d0: bd9a 093e 5839 5abe 435c 533e 3011 45bb
000003e0: d7e7 283e 1a2f 71bc ad35 633c c889 87bb
000003f0: d21a 24bc 4b42 1bbe 90d5 47be aae8 3fbd

base.cnn.4.bias f4 [32]
-0.06848546 0.009846305 -0.1073569 -0.1745595 -0.05499154 -0.023229955 -0.086181924 0.03278038
0.0019445122 -0.032765806 -0.031960547 -0.07224459 0.006040628 -0.10395358 -0.04738194 -0.039191727
-0.029066121 -0.05612855 -0.0660815 -0.033658627 -0.09401944 -0.09774273 0.018977217 0.025435003
-0.016204078 -0.05037924 -0.09418729 -0.07795423 -0.077519685 -0.12115733 0.047172517 0.031959508
00000000: 1b42 8cbd 6552 213c efdd dbbd babf 32be
00000010: cf3e 61bd bf4c bebc 2680 b0bd b844 063d
00000020: 01df fe3a 7035 06bd 10e9 02bd f9f4 93bd
00000030: 76f0 c53b 9de5 d4bd 9113 42bd 8187 20bd
00000040: 131c eebc 0de7 65bd bd55 87bd a1dd 09bd
00000050: 448d c0bd 572d c8bd 1c76 9b3c 115d d03c
00000060: 6abe 84bc 765a 4ebd 44e5 c0bd 78a6 9fbd
00000070: a4c2 9ebd 5621 f8bd f837 413d f9e7 023d

base.cnn.7.weight f4 [64, 800]
0.13719787 0.12261236 -0.043590136 0.09300008 0.1769362 -0.124525875 -0.14234187 -0.12436117
-0.1258689 -0.061974227 0.0093676 0.06853094 0.08419358 0.14532208 -0.056209423 -0.011263773
-0.1567892 -0.09743603 -0.14738253 0.019784205 0.019938974 -0.09413102 -0.05109009 -0.07153244
0.10328344 -0.15309335 -0.06809592 0.005442528 -0.19252095 0.02113859 -0.05759877 -0.05894576
-0.17342274 -0.005590866 0.061184805 -0.18744814 -0.11155404 0.039944056 -0.0836349 0.028462555
0.025170214 0.008899576 0.046825185 0.17030783 -0.38517967 0.0928385 0.13403578 -0.057960093
-0.10260562 0.074160986 0.0052811177 0.05846299 0.09616387 -0.04383832 -0.030640526 -0.04724379
-0.11959087 -0.06004713 0.017610066 0.12994775 -0.21191709 -0.15833427 0.012948161 -0.1337246
-0.21933307 -0.2580874 0.15553284 0.010439483 -0.027243115 0.07287773 0.013240385 -0.037128083
-0.12030485 -0.07310455 0.025810506 0.031378686 -0.1547539 -0.0060558333 0.055161458 -0.0939454
-0.07193464 -0.1585891 -0.25668958 0.061282776 -0.09624791 -0.10017316 0.006900923 0.032604907
-0.2563854 -0.0056532756 0.22527182 0.22017762 -0.13854088 0.07695322 0.1190507 0.04531453
0.1611814 -0.06160478 -0.11883248 -0.08361263 -0.084724374 0.061590947 -0.2512995 -0.0279059
0.004434982 0.042004928 -0.07544181 0.12112587 0.066661224 0.042731114 -0.079149194 -0.2220632
-0.0574515 -0.076311335 -0.06751922 -0.08994433 0.22753087 -0.02212073 -0.17789246 -0.090026066
-0.17806937 0.10013703 -0.39166984 -0.2105391 -0.07921581 0.008016289 -0.11264337 0.017162977
0.087589055 0.19824384 0.12370941 -0.09470067 0.08834455 -0.08575473 0.007642588 0.057160735
0.18611386 -0.006803447 -0.1184444 -0.05348768 -0.022945624 -0.16139486 0.1695008 -0.22329493
0.044134952 -0.25138175 0.055339865 0.16940336 -0.1475902 -0.05542226 -0.2108659 0.14147633
0.023730604 -0.070249304 0.06370065 0.08407898 -0.08397151 -0.15927783 0.31779212 0.020624556
0.07877001 0.121942386 -0.09324469 0.024743171 -0.1764529 -0.20033982 -0.12874801 0.08948154
-0.12276658 -0.14968932 -0.12519902 -0.25715163 -0.30868337 0.0047477423 0.031419214 0.15455765
1.4768977e-05 0.0069383257 -0.21520498 0.25181186 -0.06740585 0.11044744 0.11346776 -0.0001801262
-0.05245321 -0.08950294 -0.026232528 -0.17104226 0.042476196 0.052804556 -0.06627334 -0.1060006
0.22308408 0.12367252 0.0069898306 -0.1656343 -0.15702145 -0.18532485 0.27774438 -0.12676002
0.026771855 -0.065180436 0.20140614 -0.017703502 -0.021255514 0.06807228 0.04966817 0.27376243
0.051874615 0.058319967 0.2534467 0.10609135 -0.11094991 -0.2641977 -0.2133686 -0.04023726
0.27115846 -0.14353433 -0.41081408 -0.070723206 -0.35332796 0.110984445 0.02691161 -0.16096433
0.1757318 0.17486925 -0.061939567 -0.10636786 -0.14773045 -0.05858526 0.09888489 0.08394228
-0.13002056 -0.21157606 -0.08008742 -0.06802189 0.116056964 0.0539417 -0.20550224 -0.013807524
-0.20718558 0.020087197 -0.3099073 -0.3064664 0.0075682895 -0.14889054 -0.15112168 -0.3429199
0.043727152 0.0085682655 0.0017919706 0.042256 0.06352385 -0.059572704 -0.029042099 0.10556503
00000000: 997d 0c3e 301c fb3d 928b 32bd d376 be3d
00000010: c32e 353e 6c07 ffbd 11c2 11be 12b1 febd
00000020: c7e3 00be b0d8 7dbd 907a 193c f359 8c3d
00000030: af6d ac3d 50cf 143e da3b 66bd b08b 38bc
00000040: 598d 20be 8b8c c7bd 72eb 16be 7c12 a23c
00000050: 0f57 a33c c4c7 c0bd d843 51bd 9a7f 92bd
00000060: 4586 d33d 81c4 1cbe e075 8bbd 3c57 b23b
00000070: 3624 45be d62a ad3c b0ec 6bbd 1c71 71bd
00000080: bb95 31be 9533 b7bb eb9c 7a3d 68f2 3fbe
00000090: 7276 e4bd 619c 233d c648 abbd 4e2a e93c
000000a0: c431 ce3c 87cf 113c c4cb 3f3d 2d65 2e3e
000000b0: 4536 c5be 1d22 be3d ad40 093e 9067 6dbd
000000c0: e522 d2bd b7e1 973d 3a0d ad3b e376 6f3d
000000d0: 90f1 c43d cf8f 33bd d701 fbbc b482 41bd
000000e0: 0fec f4bd fbf3 75bd fc42 903c 0611 053e
000000f0: cb00 59be 6122 22be 8624 543c 1aef 08be
00000100: d998 60be 0824 84be 0044 1f3e 5e0a 2b3c
00000110: f42c dfbc eb40 953d 33ee 583c 9e13 18bd
00000120: 6462 f6bd d7b7 95bd 8e70 d33c f086 003d
00000130: ce77 1ebe 0370 c6bb fbf0 613d 7266 c0bd
00000140: 7852 93bd 2e65 22be d16c 83be a603 7b3d
00000150: a01d c5bd 9627 cdbd 2321 e23b b98c 053d
00000160: f244 83be 1d3f b9bb a8ad 663e 3e76 613e
00000170: a9dd 0dbe a699 9d3d dad0 f33d bb9b 393d
00000180: bd0c 253e 4b55 7cbd 715e f3bd 193d abbd
00000190: f983 adbd ca46 7c3d 54aa 80be ea9a e4bc
000001a0: 5353 913b 5c0d 2c3d 3c81 9abd d710 f83d
000001b0: ae85 883d d206 2f3d f918 a2bd 8964 63be
000001c0: 4452 6bbd 1e49 9cbd 8447 8abd bc34 b8bd
000001d0: dafd 683e 8836 b5bc 7129 36be 965f b8bd
000001e0: d157 36be a514 cd3d f388 c8be 9097 57be
000001f0: e63b a2bd c156 033c 91b1 e6bd 5f99 8c3c
00000200: e461 b33d 6f00 4b3e 5c5b fd3d 6df2 c1bd
00000210: fded b43d 2da0 afbd ad6e fa3b 6021 6a3d
00000220: a294 3e3e 73ef debb fa92 f2bd e615 5bbd
00000230: 76f8 bbbc b244 25be 9e91 2d3e 6da7 64be
00000240: dac6 343d 1cb5 80be 0eac 623d 1378 2d3e
00000250: e321 17be 7402 63bd 3bed 57be 2cdf 103e
00000260: af66 c23c dede 8fbd 7d75 823d 9a31 ac3d
00000270: 41f9 abbd ba19 23be a6b5 a23e d4f4 a83c
00000280: 2c52 a13d eebc f93d 12f7 bebd 31b2 ca3c
00000290: 12b0 34be e225 4dbe 85d6 03be 1942 b73d
000002a0: 0b6d fbbd 2848 19be 2c34 00be 61a9 83be
000002b0: bf0b 9ebe f392 9b3b 6fb1 003d 5c44 1e3e
000002c0: 46c8 7737 e55a e33b b25e 5cbe 7ced 803e
000002d0: 140c 8abd 4432 e23d c961 e83d 42e0 3cb9
000002e0: 2dd9 56bd 514d b7bd 99e5 d6bc b425 2fbe
000002f0: 85fb 2d3d 9749 583d 51ba 87bd d816 d9bd
00000300: 2770 643e 0548 fd3d f30a e53b 0a9c 29be
00000310: 3bca 20be ccc5 3dbe 8334 8e3e 61cd 01be
00000320: a650 db3c 527d 85bd 693d 4e3e ef06 91bc
00000330: 0b20 aebc 7b69 8b3d da70 4b3d 972a 8c3e
00000340: 7a7a 543d ebe0 6e3d c4c3 813e 6c46 d93d
00000350: b539 e3bd ec44 87be 4c7d 5abe d3cf 24bd
00000360: 48d5 8a3e aafa 12be 3956 d2be 54d7 90bd
00000370: 67e7 b4be d04b e33d bd75 dc3c d5d3 24be
00000380: 09f3 333e ed10 333e 58b4 7dbd 65d7 d9bd
00000390: a746 17be 19f7 6fbd 2984 ca3d eee9 ab3d
000003a0: 1c24 05be 65a7 58be e004 a4bd 104f 8bbd
000003b0: 46af ed3d f9f1 5c3d 2e6f 52be f438 62bc
000003c0: 7528 54be e88d a43c 2bac 9ebe 2ae9 9cbe
000003d0: 6aff f73b c376 18be a4bf 1abe 3293 afbe
000003e0: 3e1b 333d e961 0c3c 8ee0 ea3a a114 2d3d
000003f0: cb18 823d 8202 74bd b2e9 edbc 7a32 d83d

base.cnn.7.bias f4 [64]
-0.12041845 -0.09581456 -0.06538302 -0.03837947 -0.08627856 -0.07760177 0.018736234 -0.100471705
-0.11086846 -0.08667444 -0.063838035 -0.067094535 -0.046362527 -0.027340477 -0.020926718 -0.0891058
-0.07884486 -0.033793442 0.0087903375 -0.012696232 -0.041099243 0.01731349 -0.025952952 -0.014984467
-0.058424797 0.0054036886 -0.017278858 -0.06389095 -0.0040922393 -0.04898378 0.005504203 0.036252983
-0.08208478 -0.098863356 0.034304604 -0.078559436 -0.047105215 -0.073139146 -0.056187443 0.024026247
-0.0030931944 -0.06564318 -0.024316298 -0.072428495 -0.13396427 -0.0326336 -0.0074390066 -0.104395635
-0.058961526 -0.07972244 -0.086383194 -0.081655405 -0.02601288 -0.038680032 -0.012069168 -0.050222564
0.0341885 -0.03131205 -0.071847975 -0.05772002 -0.042726982 -0.011428758 -0.02832343 -0.113440245
00000000: f39d f6bd 6d3a c4bd 88e7 85bd cb33 1dbd
00000010: d0b2 b0bd aded 9ebd bb7c 993c 1cc4 cdbd
00000020: 010f e3bd 5e82 b1bd 84bd 82bd dc68 89bd
00000030: a2e6 3dbd 23f9 dfbc 826e abbc 1a7d b6bd
00000040: 6a79 a1bd fe6a 0abd 5905 103c db03 50bc
00000050: ae57 28bd 05d5 8d3c 499b d4bc 6981 75bc
00000060: d74e 6fbd 6d11 b13b 648c 8dbc 42d9 82bd
00000070: 3118 86bb 37a3 48bd 9a5c b43b 027e 143d
00000080: 111c a8bd df78 cabd fc82 0c3d c5e3 a0bd
00000090: 66f1 40bd fac9 95bd ce24 66bd b1d2 c43c
000000a0: 31b7 4abb ee6f 86bd f932 c7bc 6455 94bd
000000b0: ee2d 09be cfaa 05bd e9c2 f3bb 61cd d5bd
000000c0: a481 71bd 8545 a3bd ace9 b0bd f33a a7bd
000000d0: f718 d5bc f46e 1ebd c2bd 45bc 2db6 4dbd
000000e0: 3e09 0c3d 1041 00bd 0825 93bd d46b 6cbd
000000f0: 7d02 2fbd af3f 3bbc 8a06 e8bc 5c53 e8bd

base.cnn.9.weight f4 [64]
1.2341397 0.90434706 1.0163561 1.050348 0.92677045 1.0842644 1.1412305 0.9986991
1.0961609 1.058835 1.128395 1.1466447 0.9942579 1.0103207 0.956069 0.9792908
0.86198384 1.1055778 1.0602063 1.0451905 0.99260765 1.0881612 0.9936912 0.90116143
1.0716888 1.1004889 1.0249023 1.0608234 1.1035705 1.0133246 1.0796531 1.04921
1.1332684 1.0369083 1.0089778 1.1863066 1.1231834 1.1243833 0.96202934 0.93121135
1.0091681 1.004545 1.0021315 1.0589358 1.0548303 1.0180507 1.0335524 0.91340196
0.9827958 0.87585706 1.0050111 0.96248925 1.05549 0.8557822 1.2154454 1.0198067
1.0773184 0.95122075 0.89850044 0.8658927 1.1565769 0.8207064 1.0671098 1.0078342
00000000: 4af8 9d3f 4a83 673f f517 823f ce71 863f
00000010: d440 6d3f 2dc9 8a3f d713 923f bfaa 7f3f
00000020: 004f 8c3f e887 873f 3f6f 903f 41c5 923f
00000030: b087 7e3f 3052 813f f0c0 743f cdb2 7a3f
00000040: f9aa 5c3f 9383 8d3f d7b4 873f cdc8 853f
00000050: 891b 7e3f de48 8b3f 8c62 7e3f 84b2 663f
00000060: 192d 893f d2dc 8c3f 0030 833f 10c9 873f
00000070: cc41 8d3f 9fb4 813f 1332 8a3f 834c 863f
00000080: f00e 913f 69b9 843f 2f26 813f e5d8 973f
00000090: 79c4 8f3f cbeb 8f3f 8e47 763f de63 6e3f
000000a0: 6c2c 813f ee94 803f d845 803f 358b 873f
000000b0: ae04 873f 7c4f 823f 724b 843f b6d4 693f
000000c0: 8198 7b3f 2b38 603f 34a4 803f b265 763f
000000d0: 4c1a 873f 8b14 5b3f b793 9b3f 0789 823f
000000e0: 92e5 893f 3483 733f 2004 663f 25ab 5d3f
000000f0: b60a 943f d119 523f 0e97 883f b600 813f

base.cnn.9.bias f4 [64]
-0.021290308 0.040783476 0.08987931 0.05674984 -0.005902705 0.06376497 0.010234394 -0.13329282
-0.21069777 -0.035176147 -0.035102464 -0.07545945 0.07402164 -0.062229145 0.099114366 -0.07306822
0.18153647 0.06933558 -0.028602097 0.10841765 0.079148784 0.048136737 -0.0391211 0.042207688
-0.12188431 0.027063498 0.1244788 -0.07156766 -0.021166777 0.0436803 0.02393197 -0.0023360732
-0.18685336 -0.035790924 0.03561561 -0.03298589 -0.029446416 -0.14005804 0.018267725 0.15824743
0.0008769593 0.0021865244 -0.0825113 -0.042109463 0.102530405 0.1686425 0.06866022 0.17040531
0.077165276 0.09233454 -0.029253919 0.087444834 0.000582635 0.11466229 0.026448708 -0.05496645
-0.17234775 -0.024584116 0.09948104 -0.12005705 -0.21574336 0.03953183 -0.01663706 0.07583212
00000000: 0369 aebc 930c 273d a512 b83d 8572 683d
00000010: 7a6b c1bb 3597 823d 29ae 273c ea7d 08be
00000020: 28c1 57be dd14 10bd 9ac7 0fbd 7c8a 9abd
00000030: a898 973d fde3 7ebd 79fc ca3d caa4 95bd
00000040: b2e4 393e d0ff 8d3d f24e eabc 130a de3d
00000050: c218 a23d 072b 453d 723d 20bd f8e1 2c3d
00000060: 7b9e f9bd 45b4 dd3c beee fe3d 1192 92bd
00000070: f365 adbc 1dea 323d fb0c c43c ce18 19bb
00000080: 7d56 3fbe 8199 12bd ade1 113d 361c 07bd
00000090: 9c39 f1bc 606b 0fbe 32a6 953c 9d0b 223e
000000a0: bee3 653a cb4b 0f3b affb a8bd f97a 2cbd
000000b0: 76fb d13d 9fb0 2c3e bb9d 8c3d bb7e 2e3e
000000c0: d408 9e3d e419 bd3d eaa5 efbc 4716 b33d
000000d0: f9bb 183a 10d4 ea3d f6aa d83c 8024 61bd
000000e0: ee7b 30be a164 c9bc b7bc cb3d 78e0 f5bd
000000f0: d4eb 5cbe 21ec 213d 724a 88bc df4d 9b3d

base.cnn.10.weight f4 [64, 64]
0.12824225 -0.31858405 0.02470327 0.26756683 0.20137544 -0.13029566 0.2086813 0.14636274
0.10141487 0.12938514 0.2267784 0.16485979 0.16927832 0.3386235 -0.48632678 -0.04046732
-0.053449173 -0.11248762 -0.07142114 0.29384765 -0.21765962 -0.37823302 0.10426728 0.17712972
0.16411251 0.13288811 0.06552293 0.20847473 0.06381992 -0.42480746 0.28313646 0.0056988993
0.28216732 0.4999284 0.21228048 0.21346577 -0.2603182 0.14060737 0.16668095 0.021936998
-0.7958792 -0.05070528 -0.19706827 0.053682987 -0.15375498 -0.30746862 0.19267173 0.3186199
0.16186899 0.23111482 -0.022446103 0.21767662 -0.29460156 0.07997312 0.11055584 0.25315648
-0.019414803 -0.036990408 -0.17096244 0.10003067 0.26665294 0.045855068 -0.35008594 -0.08157272
-0.18817471 0.2185691 0.20082916 0.19934557 -0.2364072 -0.06472421 0.044904064 0.22412477
-0.09963423 0.12303924 -0.25824213 0.1961736 0.15699166 0.2745686 0.10895077 0.12195298
-0.0040380317 -0.14445655 0.07706749 0.24541247 -0.12845401 0.19759846 -0.05082157 0.011831832
-0.21370284 -0.12223191 0.03132258 0.05881028 -0.051656723 0.0065688114 -0.34001327 -0.29662627
0.2939503 0.1292521 -0.18788974 0.27598077 0.34071228 0.050269917 -0.32974735 -0.4301199
-0.54028475 0.07151615 0.07862541 0.027856607 0.25241545 -0.34141016 -0.11432737 0.24109603
-0.14636107 0.08189068 -0.038925916 0.4504411 -0.12707676 -0.34885806 -0.095043555 0.093453884
0.37497675 -0.13212767 0.22820072 -0.05678258 0.07517953 0.0077981693 0.20212638 -0.47868648
0.13637404 -0.08629804 0.16304743 -0.4734924 0.024228627 -0.57815033 -0.4641034 -0.020242233
0.2230071 0.19475651 -0.26999238 0.13644671 -0.05889791 -0.0459408 0.15452369 -0.4356165
-0.08451082 0.31545877 -0.3326895 -0.15628448 0.27468273 0.32807595 -0.028955756 -0.17788889
0.19438516 0.14796944 0.21687782 -0.047132317 -0.070675984 -0.33530152 0.2008379 -0.13157405
0.10261348 -0.1701847 0.4227593 -0.026293369 0.27397975 0.04161203 0.16028434 0.07156007
-0.14338246 0.18633604 -0.12922244 -0.36904114 0.10689686 0.06463817 -0.42752102 0.013537914
0.04907108 -0.3344739 0.06564734 -0.035737213 -0.616552 -0.016636863 0.037840646 -0.01385883
-0.031399813 -0.015177242 -0.09969465 -0.15384288 0.2155364 0.11405556 0.08610429 0.009124389
0.064247675 0.03272002 0.2414531 -0.16061592 0.049975958 0.03297784 -0.2685233 0.22448438
0.074344926 -0.10078179 0.1810859 0.10384708 0.010072857 -0.013820785 -0.17125125 0.044021145
-0.1176191 -0.3406395 -0.48031965 -0.06780375 -0.16601129 -0.06311436 0.20978859 0.034865014
0.34335005 -0.54660296 0.16124615 0.38066968 0.2518066 0.2965625 0.23185699 -0.35461748
0.3177741 0.3733802 -0.3629761 0.024672532 0.058721237 -0.06996483 -0.16233377 0.27399445
0.22972794 0.17376348 0.04287295 0.050147485 -0.10859744 0.46688685 -0.2636518 -0.41001207
-0.11690162 -0.025644805 -0.05414185 -0.023840666 0.17279874 -0.027192876 0.02513834 -0.34242508
0.16602126 0.21525311 -0.08681975 -0.07136767 -0.22107252 -0.276712 0.115407385 -0.2659067
00000000: f051 033e 731d a3be 835e ca3c 85fe 883e
00000010: 5d35 4e3e 3a6c 05be 8db0 553e 1de0 153e
00000020: 99b2 cf3d 8a7d 043e 9938 683e 01d1 283e
00000030: 4c57 2d3e 0f60 ad3e d3ff f8be 0fc1 25bd
00000040: 85ed 5abd e95f e6bd 3f45 92bd 3373 963e
00000050: 2ae2 5ebe c2a7 c1be 158a d53d 7e61 353e
00000060: 1c0d 283e d213 083e e330 863d 667a 553e
00000070: 05b4 823d 5d80 d9be 43f7 903e d5bd ba3b
00000080: 3c78 903e 9ef6 ff3e 0e60 593e c596 5a3e
00000090: 6d48 85be 61fb 0f3e 69ae 2a3e 38b5 b33c
000000a0: bdbe 4bbf 57b0 4fbd 44cc 49be b1e2 5b3d
000000b0: f271 1dbe 876c 9dbe bd4b 453e 2622 a33e
000000c0: fcc0 253e 5da9 6c3e e4e0 b7bc 9fe6 5e3e
000000d0: 04d6 96be f2c8 a33d 1a6b e23d ba9d 813e
000000e0: cb0b 9fbc 4183 17bd c710 2fbe e1dc cc3d
000000f0: bc86 883e 86d2 3b3d 773e b3be 990f a7bd
00000100: dfb0 40be 94d0 5f3e 29a6 4d3e 3f21 4c3e
00000110: bb14 72be 208e 84bd 53ed 373d f780 653e
00000120: 080d ccbd fffb fb3d 5038 84be bbe1 483e
00000130: 6cc2 203e 4194 8c3e 9521 df3d 7cc2 f93d
00000140: 7751 84bb 6bec 13be 8fd5 9d3d 684d 7b3e
00000150: 7389 03be 4057 4a3e 472a 50bd 4dda 413c
00000160: ebd4 5abe b954 fabd 1b4c 003d 0ce3 703d
00000170: 0096 53bd 2f3f d73b 3816 aebe 66df 97be
00000180: a780 963e aa5a 043e 2b66 40be 5a4d 8d3e
00000190: d771 ae3e d4e7 4d3d a5d4 a8be ad38 dcbe
000001a0: 1a50 0abf 0f77 923d 5c06 a13d 8a33 e43c
000001b0: 993c 813e 50cd aebe 7824 eabd e1e1 763e
000001c0: addf 15be 4db6 a73d c870 1fbd 37a0 e63e
000001d0: 6920 02be 869d b2be 32a6 c2bd c064 bf3d
000001e0: f4fc bf3e 7a4c 07be 73ad 693e da94 68bd
000001f0: baf7 993d c987 ff3b 38fa 4e3e 6516 f5be
00000200: a3a5 0b3e 07bd b0bd e8f5 263e 996d f2be
00000210: 1d7b c63c a901 14bf f69e edbe 0ad3 a5bc
00000220: f95b 643e 406e 473e 713c 8abe b0b8 0b3e
00000230: ef3e 71bd 6c2c 3cbd 753b 1e3e 2009 dfbe
00000240: 0214 adbd d083 a13e 4756 aabe 0a09 20be
00000250: 37a3 8c3e 92f9 a73e 9f34 edbc 8128 36be
00000260: e70c 473e 4d85 173e 3815 5e3e d10d 41bd
00000270: 92be 90bd a4ac abbe 73a8 4d3e 59bb 06be
00000280: 0427 d23d e644 2ebe e873 d83e 3165 d7bc
00000290: 1347 8c3e 6071 2a3d 9421 243e 168e 923d
000002a0: dad2 12be e0ce 3e3e e352 04be f6f2 bcbe
000002b0: beec da3d 0461 843d 09e4 dabe 20ce 5d3c
000002c0: c2fe 483d 2a40 abbe 1d72 863d 2f61 12bd
000002d0: 5ad6 1dbf 084a 88bc cbfe 1a3d 2510 63bc
000002e0: 179d 00bd f8a9 78bc b52c ccbd fd88 1dbe
000002f0: 93b5 5c3e f695 e93d 7257 b03d 767e 153c
00000300: 4994 833d 6d05 063d 7b3f 773e 8078 24be
00000310: 97b3 4c3d c613 073d e37b 89be 3cdf 653e
00000320: 2742 983d af66 cebd 956e 393e c7ad d43d
00000330: a008 253c 9370 62bc 7d5c 2fbe 844f 343d
00000340: 48e2 f0bd 4d68 aebe 75ec f5be b1dc 8abd
00000350: ddfe 29be 1a42 81bd d2d2 563e 9ece 0e3d
00000360: 94cb af3e 2cee 0bbf b61d 253e 23e7 c23e
00000370: cbec 803e 0ad7 973e eb6b 6d3e 6c90 b5be
00000380: 49b3 a23e b12b bf3e 01d8 b9be 0d1e ca3c
00000390: ae85 703d b949 8fbd d33a 26be 0049 8c3e
000003a0: cd3d 6b3e 0eef 313e 8c9b 2f3d 7367 4d3d
000003b0: 5668 debd cb0b ef3e 5efd 86be 1aed d1be
000003c0: 1e6a efbd 0e15 d2bc d8c3 5dbd 804d c3bc
000003d0: 27f2 303e 98c3 debc ecee cd3c 5752 afbe
000003e0: 7a01 2a3e 506b 5c3e 8ece b1bd 3729 92bd
000003f0: d660 62be 32ad 8dbe b55a ec3d ec24 88be

base.cnn.10.bias f4 [64]
-0.14302516 -0.12529758 -0.052353982 -0.06270323 0.018457666 -0.122847855 0.11643651 -0.15803826
-0.1974111 0.014439516 -0.05102769 -0.13895893 -0.12538767 0.00076069933 -0.12167004 -0.021217572
0.02250658 -0.12061477 -0.25464213 -0.10507289 -0.118741125 -0.07896919 -0.25135234 -0.105338044
-0.04780712 -0.016379248 -0.09113883 -0.15447277 -0.26737818 -0.011233378 -0.12859477 -0.27127394
-0.015321959 0.024951613 -0.2585316 -0.07256295 -0.14905344 -0.06839109 0.16444671 -0.06003967
-0.032311685 0.0053506796 -0.03884975 -0.16091315 -0.101387344 -0.05054708 0.11540173 -0.14995806
-0.052940972 0.09915365 -0.11795769 -0.15041988 -0.07888281 0.023464574 0.0003388638 -0.10026023
0.06536801 0.06334125 -0.1299592 0.06287057 -0.22702271 0.017354766 -0.078699775 -0.1897672
00000000: 3075 12be 024e 00be 2171 56bd 8d6a 80bd
00000010: 8834 973c a897 fbbd 4476 ee3d c8d4 21be
00000020: 2326 4abe b893 6c3c 6902 51bd 404b 0ebe
00000030: a065 00be ab69 473a 242e f9bd 79d0 adbc
00000040: b85f b83c e004 f7bd 7460 82be 7530 d7bd
00000050: 8c2e f3bd 99ba a1bd 41b1 80be 79bb d7bd
00000060: 66d1 43bd c62d 86bc ffa6 babd 1c2e 1ebe
00000070: cbe5 88be 340c 38bc 59ae 03be 6be4 8abe
00000080: f408 7bbc 5367 cc3c 415e 84be e29b 94bd
00000090: 77a1 18be a110 8cbd b864 283e 28ec 75bd
000000a0: 4259 04bd c154 af3b ea20 1fbd 6bc6 24be
000000b0: 2ba4 cfbd 740a 4fbd be57 ec3d 9b8e 19be
000000c0: a2d8 58bd 1211 cb3d cd93 f1bd ab07 1abe
000000d0: 508d a1bd c738 c03c 88a9 b139 3c55 cdbd
000000e0: aadf 853d 0fb9 813d 0614 05be 49c2 803d
000000f0: a478 68be 952b 8e3c 592d a1bd 5552 42be

base.cnn.12.weight f4 [64]
1.0984966 1.0944256 0.9916786 0.9962982 0.92216736 1.0926545 1.069763 1.0995154
0.88632786 0.9995328 1.0954196 1.0144459 1.0438886 0.9301518 1.1242906 1.059797
1.1657565 0.8867898 0.98676807 1.0375237 1.0397162 1.1581151 0.9720597 0.81287116
1.0934154 1.1805178 1.1354165 0.9718152 0.9212736 0.95515734 0.8948819 1.004995
0.9424836 0.9859998 0.9484658 1.1724323 1.1984222 0.9355573 0.999121 1.0250653
1.0467029 1.0325545 1.0250757 1.1591551 1.0192752 0.96359134 0.9839446 0.98499835
0.8696322 1.087496 1.1389371 1.074032 1.1097523 1.0356187 1.1322567 0.78219783
0.90574795 1.1777261 1.0442522 1.0744123 1.0644286 0.9977845 0.9878242 0.9116043
00000000: 899b 8c3f 2316 8c3f a6de 7d3f 660d 7f3f
00000010: 2913 6c3f 1adc 8b3f feed 883f ecbc 8c3f
00000020: 62e6 623f 62e1 7f3f b636 8c3f 5dd9 813f
00000030: 249e 853f 6e1e 6e3f c1e8 8f3f 6ea7 873f
00000040: 8237 953f a804 633f d59c 7c3f 94cd 843f
00000050: 6c15 853f 1e3d 943f e8d8 783f 5318 503f
00000060: 09f5 8b3f 351b 973f 5455 913f e2c8 783f
00000070: 96d8 6b3f 3185 743f fb16 653f ada3 803f
00000080: 9b46 713f 7c6a 7c3f a8ce 723f 4312 963f
00000090: e665 993f af80 6f3f 65c6 7f3f 5735 833f
000000a0: 5cfa 853f bf2a 843f ae35 833f 325f 943f
000000b0: 9c77 823f ecad 763f cbe3 7b3f da28 7c3f
000000c0: 37a0 5e3f 1233 8b3f b1c8 913f e179 893f
000000d0: 5d0c 8e3f 278f 843f caed 903f 1e3e 483f
000000e0: 19df 673f bbbf 963f 0eaa 853f 5886 893f
000000f0: 323f 883f ce6e 7f3f 0ce2 7c3f e65e 693f

base.cnn.12.bias f4 [64]
-0.0776395 -0.11323526 0.025430199 -0.017230682 -0.03444155 0.09099533 0.17863712 -0.20208658
0.037811678 0.121183164 0.02620748 -0.17962457 -0.03996678 -0.0172415 0.035342954 0.16965178
0.041884966 0.06181238 0.043105267 0.044784397 0.076186284 0.021751773 -0.04396029 0.070045635
0.016549489 0.035048123 -0.23745757 -0.06411398 -0.07303975 -0.008835307 0.015251237 -0.07948821
0.21435766 0.12529571 0.0743231 0.026533162 -0.13334182 0.051996317 0.10461859 0.05624648
0.04095011 0.098308675 0.036353994 -0.17601544 -0.038404398 -0.09268642 0.12631911 0.06328273
-0.06049516 0.2530143 0.0704796 -0.038942244 0.08195407 0.1088185 -0.10578758 0.07762574
0.124685705 -0.015254169 -0.018971553 -0.002178332 -0.18227316 -0.07662932 -0.0105965985 -0.12197957
00000000: 7501 9fbd e3e7 e7bd fe52 d03c 5c27 8dbc
00000010: 9512 0dbd c25b ba3d a6ec 363e c9ef 4ebe
00000020: 6be0 1a3d e12e f83d 12b1 d63c 81ef 37be
00000030: 35b4 23bd 0c3e 8dbc c6c3 103d 32b9 2d3e
00000040: 928f 2b3d fa2e 7d3d 268f 303d d86f 373d
00000050: 8e07 9c3d c630 b23c b40f 34bd 1674 8f3d
00000060: cb92 873c 9f8e 0f3d 1428 73be 314e 83bd
00000070: dd95 95bd f7c1 10bc 53e0 793c b7ca a2bd
00000080: 9380 5b3e 854d 003e b636 983d 135c d93c
00000090: c28a 08be 17fa 543d 4542 d63d b662 663d
000000a0: 4dbb 273d 0f56 c93d ede7 143d 643d 34be
000000b0: ee4d 1dbd 61d2 bdbd cc59 013e 609a 813d
000000c0: c6c9 77bd 178b 813e 9c57 903d e781 1fbd
000000d0: 89d7 a73d 3cdc de3d 29a7 d8bd 3efa 9e3d
000000e0: 385b ff3d 9fec 79bc 3b6a 9bbc 59c2 0ebb
000000f0: d1a5 3abe d5ef 9cbd 5b9d 2dbc 6dd0 f9bd

base.cnn.13.weight f4 [64, 64]
0.10996194 0.090776525 -0.37553906 -0.024714643 -0.38363287 0.1870824 -0.45281252 -0.02146904
-0.22213943 -0.028317006 0.056482777 -0.049939282 0.20310242 0.14511281 -0.03360596 -0.3206081
0.1637841 0.08000951 0.24264573 -0.025185645 0.3036962 -0.014780454 -0.05350353 0.039594416
-0.22182809 -0.11868816 0.055863123 0.16743249 0.04506541 -0.19235271 0.3907199 0.046922456
-0.0002702303 -0.32919273 0.35878673 0.18017711 0.041596465 0.104927 -0.09504969 -0.30397445
0.24160527 -0.47587755 -0.31628495 0.39501905 -0.07881891 0.0627265 -0.051018987 0.005398721
-0.36446962 -0.07532504 -0.19147807 -0.16357034 0.056502532 0.16999334 0.30629987 0.1081684
0.4869157 0.069570385 0.028297827 0.08187129 -0.19098523 -0.32465163 -0.030374542 0.24447596
-0.030012727 -0.19206126 -0.039256193 -0.16958505 -0.05127501 -0.14204125 -0.55031735 -0.020001343
0.13539322 0.16566835 0.006452939 -0.33853573 0.21068177 -0.052708525 -0.17308494 0.09272503
0.082720734 0.2978553 0.4242581 -0.108085625 0.14543654 0.122602694 -0.3712909 -0.063393176
-0.08173033 -0.076062724 0.2044907 0.23414247 -0.14660959 -0.12154462 -0.32307348 0.058865163
-0.20018129 -0.37333095 -0.05558562 0.15867001 -0.26398727 0.37824464 0.1770839 0.0021292055
0.15511657 0.018012563 -0.06434009 -0.35227415 -0.26565495 -0.44203052 -0.17977999 -0.33810565
0.24469712 -0.37813514 -0.07132082 -0.023165697 0.10890666 0.017544016 0.115258425 0.07268464
0.17113942 0.017182536 0.13486557 0.34684452 0.43118724 0.23544665 0.008033318 0.30407783
-0.24449395 0.21270385 0.3027296 0.16976695 0.18968724 0.055782933 0.3420688 -0.48176986
-0.44184533 -0.20883286 0.23704208 0.3012061 -0.11455638 0.008279764 0.26122656 0.19070609
0.6367337 -0.00016009575 -0.043691557 0.2199449 0.1671034 0.07754875 -0.04276173 -0.3252776
0.030774357 0.1968323 -0.24822961 0.018978637 -0.008565629 0.31438076 -0.4384899 -0.1284058
-0.049444094 -0.39812455 -0.12117988 -0.12945966 -0.13524598 -0.15597536 0.2924623 -0.57730323
0.27401343 -0.2626353 0.22471298 -0.2559806 0.11880292 -0.28114802 -0.08210902 -0.18962114
0.09318216 0.05110484 -0.24860136 -0.22710977 -0.23308024 -0.23224823 0.0721221 -0.083004005
-0.093590215 -0.036067277 0.22838742 0.30763423 -0.052243523 0.7281814 -0.087877214 -0.038856816
-0.2985682 -0.18289536 0.001290951 0.13031551 0.0015892889 0.030235952 0.35255566 -0.110528454
0.0263193 0.27822888 0.65122706 -0.01531261 -0.58572865 -0.14876467 0.0120217865 -0.46764842
-0.1364091 0.057935372 0.22321624 -0.40839368 0.12249992 -0.04384007 -0.24779809 -0.07704936
0.15695456 -0.864743 0.43394375 -0.026969265 -0.043234043 -0.16116156 -0.14811337 -0.22823817
0.1027742 0.12148065 -0.19204736 -0.2624544 -0.24653076 -0.1869296 0.1522374 -0.016768016
-0.0395258 0.10889262 -0.42456463 -0.50141144 0.22730589 -0.27310157 -0.007721625 0.101061724
-0.11412401 -0.26999852 0.1395449 0.10355382 -0.30901745 0.07339493 -0.1868744 0.04508368
0.37695098 -0.13543488 0.6412244 0.26373193 -0.37315425 -0.02797903 -0.21512797 0.02004403
00000000: ba33 e13d 0be9 b93d a846 c0be 5d76 cabc
00000010: 876b c4be 8792 3f3e 0bd7 e7be d7df afbc
00000020: 8578 63be 11f9 e7bc 7c5a 673d 228d 4cbd
00000030: 15fa 4f3e 7498 143e 67a6 09bd bf26 a4be
00000040: 05b7 273e 07dc a33d 1f78 783e 2052 cebc
00000050: 117e 9b3e b829 72bc 8426 5bbd c12d 223d
00000060: e726 63be c712 f3bd bbd0 643d 6c73 2b3e
00000070: 8296 383d 1cf8 44be 700c c83e c331 403d
00000080: b2ad 8db9 f38b a8be e5b2 b73e 5980 383e
00000090: 0e61 2a3d f8e3 d63d 69a9 c2bd 8aa2 9bbe
000000a0: 5f67 773e 39a6 f3be 1af0 a1be f03f ca3e
000000b0: cf6b a1bd c076 803d 49f9 50bd c1e7 b03b
000000c0: c39b babe 0444 9abd d412 44be fc7e 27be
000000d0: 336f 673d bc12 2e3e 56d3 9c3e 6587 dd3d
000000e0: 044d f93e eb7a 8e3d d8d0 e73c 23ac a73d
000000f0: a291 43be bd38 a6be 08d4 f8bc e857 7a3e
00000100: 40dd f5bc b5ab 44be 1acb 20bd b4a7 2dbe
00000110: bf05 52bd 4373 11be 99e1 0cbf dbd9 a3bc
00000120: 85a4 0a3e f7a4 293e 2d73 d33b 8e54 adbe
00000130: f6bc 573e e5e4 57bd 2e3d 31be 9fe6 bd3d
00000140: 7d69 a93d 7d80 983e 5c38 d93e ff5b ddbd
00000150: 51ed 143e 1f17 fb3d d719 bebe 48d4 81bd
00000160: 3b62 a7bd c6c6 9bbd 0366 513e 0bc3 6f3e
00000170: d320 16be 63ec f8bd e369 a5be 991c 713d
00000180: 53fc 4cbe 3c25 bfbe bfad 63bd 647a 223e
00000190: 5729 87be 48a9 c13e 7b55 353e 248a 0b3b
000001a0: e1d6 1e3e 158f 933c bdc4 83bd 475d b4be
000001b0: ed03 88be d351 e2be 3f18 38be 2f1c adbe
000001c0: e291 7a3e ee9a c1be a610 92bd fdc5 bdbc
000001d0: 740a df3d 78b8 8f3c 9c0c ec3d afdb 943d
000001e0: 2c3f 2f3e 64c2 8c3c 331a 0a3e 9b95 b13e
000001f0: 93c4 dc3e ed18 713e 2e9e 033c 17b0 9b3e
00000200: 9f5c 7abe 0acf 593e 60ff 9a3e 63d7 2d3e
00000210: 5f3d 423e a57c 643d a423 af3e 8aaa f6be
00000220: 8d39 e2be 48d8 55be 29bb 723e b037 9a3e
00000230: 899c eabd d9a7 073c 7dbf 853e 7548 433e
00000240: fb00 233f 60df 27b9 ebf5 32bd 3c39 613e
00000250: 271d 2b3e e1d1 9e3d ec26 2fbd c98a a6be
00000260: 811a fc3c 688e 493e e72f 7ebe 1679 9b3c
00000270: da56 0cbc 84f6 a03e c081 e0be cf7c 03be
00000280: e485 4abd fbd6 cbbe 282d f8bd 1391 04be
00000290: ec7d 0abe 01b8 1fbe 9ebd 953e 25ca 13bf
000002a0: 7d4b 8c3e 2278 86be 291b 663e e40f 83be
000002b0: f24e f33d a2f2 8fbe c628 a8bd 0b2c 42be
000002c0: 4ad6 be3d 4f53 513d 5b91 7ebe 778f 68be
000002d0: 96ac 6ebe 7bd2 6dbe c0b4 933d 01fe a9bd
000002e0: 3aac bfbd 48bb 13bd 64de 693e 3c82 9d3e
000002f0: 4efd 55bd 196a 3a3f f8f8 b3bd 5328 1fbd
00000300: eedd 98be ec48 3bbe 2135 a93a 6e71 053e
00000310: b04f d03a 63b1 f73c 2d82 b43e be5c e2bd
00000320: 939b d73c 0474 8e3e d1b6 263f bee1 7abc
00000330: 50f2 15bf c455 18be 07f7 443c 9d6f efbe
00000340: d4ae 0bbe a44d 6d3d cc92 643e fa18 d1be
00000350: 3de1 fa3d a591 33bd c8be 7dbe 0ecc 9dbd
00000360: b2b8 203e cc5f 5dbf e02d de3e a6ee dcbc
00000370: 2e16 31bd 8907 25be 08ab 17be 44b7 69be
00000380: 487b d23d d9ca f83d 10a8 44be 6c60 86be
00000390: 8f72 7cbe 796a 3fbe 1fe4 1b3e 145d 89bc
000003a0: cee5 21bd 1803 df3d 8960 d9be 805c 00bf
000003b0: e0c2 683e f8d3 8bbe af05 fdbb 73f9 ce3d
000003c0: d9b9 e9bd 3f3d 8abe dce4 0e3e 0614 d43d
000003d0: 8937 9ebe 1550 963d 015c 3fbe aaa9 383d
000003e0: b8ff c03e 71af 0abe 4827 243f df07 873e
000003f0: 130e bfbe 4734 e5bc 824a 5cbe 6133 a43c
