CRL_human_AI_overcooked/human_models/model_many_orders/actor_best_r2.pt (torch, 426323 bytes, 20 tensors)

base.cnn.0.weight f4 [32, 26, 3, 3]
00000000: 0cbe 9e3d 1c01 503d aec6 76be 5a90 a0be
00000010: 1338 9fbc d7f3 efbd 41cf 8d3d 1e95 f0bc
00000020: c595 41be 1b1d 23be 7c9f c63d 8716 c83d
00000030: 7ed1 c83d 6798 87be 9310 0f3e 9133 c23c
00000040: d30b 13bd 51c9 93bd ce64 073f 8e68 4ebe
00000050: 91ff 97bd 32b8 d93d 8fb1 303e 3d75 b23c
00000060: e237 36be 4897 423d 06da d23c 1f35 33be
00000070: 858f b73d 2307 6a3d 698e acbd 37f0 44bc
00000080: 9946 9dbe 6b79 07bd 1e43 9f3c 5d54 6cbd
00000090: 28a1 01be c030 9b3e 638b 3ebe ba8e 14bf
000000a0: d049 853e a2fc 633e 51cf 933e 6fde 283e
000000b0: 0e91 c93d e8aa bb3d 4b5e e4bd 8fa0 f6bd
000000c0: a95b 8ebe 1153 ff3d bf01 b63d 74a8 0cbe
000000d0: f3ba bf3d ab69 a83e e80a e03d c556 233e
000000e0: c0d8 92bc 3782 14be 4ea1 a33d db1b 013d
000000f0: f605 843e 07ef b73c cc62 babe 7b62 40bd
00000100: 9796 75bd 0f4e 863e fba3 9f3e 2a60 75be
00000110: 146e c2bd 3d64 f0b9 be68 afbd 89a1 a63e
00000120: 3af4 2abd 1791 923e 28cf 58bd ed4f 6abb
00000130: e9ef 7b3e b047 11bd 4938 b6bd 93f1 393d
00000140: 9f35 a3be 0eaa 8b3d cbe0 f23d 32ea 3d3e
00000150: 43cc 28bd c8d1 643c 86a7 813e 991b 09be
00000160: 6309 b4be bb2d ba3e b243 8d3c 0815 eb3d
00000170: f8cb 743c fdaf 863d 8ff0 dfbc 8cd3 1a3e
00000180: 49a7 4b3d a3d9 90be f459 023e effc 0a3c
00000190: 4f6e afbd a4ac 21be 789e 433d 6d8c 87be
000001a0: 3650 8fbc 0f88 78be c895 793c f79d ed3d
000001b0: 6080 883d 034e 9a3d 635c 743d ef6c 3fbd
000001c0: 9d23 0e3d ecd1 2d3e a57d b73d 81f9 c53a
000001d0: 008f 153d 9486 7a3d 12ef a2bd 0ec5 21be
000001e0: 4972 b73d 630b b83d a667 b23d 9afa 16be
000001f0: c272 e1bd 2bd8 ba3d ea72 d8bd 29ad a9bd
00000200: bf42 303e 61b8 2fbe f62e cb3d afa9 9abc
00000210: 03f2 3dbd 5d07 b53d 0e2e 69bd 80e1 86bc
00000220: f9e2 94bd d369 953d 4c28 bc3c 7921 56bc
00000230: 72bb a6bc 439a 9e3c 004b 77be c392 bd3d
00000240: 533d 7a3d bc3b 9b3d b547 e8bd 055c a1bc
00000250: 714f 223c 7795 b23d c36b e13c 81cd 713d
00000260: bcfd 9abc 71fd 383e 811a 8f3e d87a 4bbd
00000270: aa95 873e 67a7 ab3d 7214 8bbd 8478 c1be
00000280: 83fd 4bbe 1005 78bd f8c9 f0be 95d6 36bd
00000290: a266 5b3d 20a5 8c3d 6bfd 8a3d c497 06be
000002a0: b948 ac3e b0d6 313e 0d55 043e d245 503e
000002b0: 9353 dc3b fe1d 99be ccd0 c7bc 89a8 3e3e
000002c0: a666 45bc 7f8f 703e 886a 65bd dc48 963d
000002d0: bf10 20be ea75 e7bd 1b78 2abd a345 23bd
000002e0: c023 77be a683 923d 4d02 1bbe 7c2d d73c
000002f0: 416e 663d 6a31 c83e 4d18 e1bb bf10 54be
00000300: 4d54 81bd 6afa 833e 2e97 be3a 355f 7f3e
00000310: c2cb 1ebd ce9f 113e cd96 89be 8001 25be
00000320: c390 36bc 353b 24be e23a d4be 4cf3 a7be
00000330: 3dec c93d 9d24 eabe 3664 d83e 5d83 07be
00000340: 318a c0bd c746 293e d45f 893e a844 99be
00000350: 9965 9ebc 1331 2fbe 3fc3 ccbe cfe7 3e3d
00000360: d6ce a6bc 9f92 4ebe 2732 de3e 2fd9 3cbe
00000370: f902 b9be caf3 af3e 5351 7b3d 571b 963e
00000380: ead5 b2be fc8f f23d 38a0 f33c 7e77 29bd
00000390: ca93 3dbd 69f9 98bc 576f 023d 2328 36be
000003a0: 37d8 ba3d f6fe 63bd aa8f 00be 4525 563e
000003b0: ac7a cc3d fb55 bfbe 8d4d df3c 825b d0be
000003c0: 287c 89be 74d2 85bd a183 1c3e d251 ac3d
000003d0: b9d1 d7be 412e c13d 9caf b43d 72da 0f3e
000003e0: 3296 483d 835f 503d 0f61 0ebe 1e31 20be
000003f0: 739f 9fbc 0a33 b9be dcbe 96bd 14f4 ffbe
0.07751092 0.050782308 -0.24099228 -0.31360132 -0.019435918 -0.11716431 0.06924296 -0.02936798
-0.18904789 -0.15929072 0.09698388 0.09769922 0.098055825 -0.2648346 0.13971166 0.02370623
-0.03589995 -0.072161324 0.5288819 -0.20157072 -0.07421792 0.106308356 0.17255233 0.02178442
-0.17794755 0.047507554 0.025738727 -0.17500733 0.08962921 0.057135712 -0.084256 -0.012020162
-0.30717924 -0.033074778 0.019441184 -0.057697643 -0.12659132 0.3031063 -0.1860786 -0.58030283
0.26032877 0.2226434 0.28869107 0.16491102 0.0984212 0.09163457 -0.111507975 -0.12042343
-0.27804306 0.124670155 0.08887052 -0.13736135 0.093618296 0.32893118 0.1093958 0.15951069
-0.01792562 -0.14502798 0.07989751 0.031520706 0.25785798 0.022452844 -0.364035 -0.04696892
-0.059958067 0.2623143 0.31179795 -0.23962465 -0.09493652 -0.0004585105 -0.085649 0.32545117
-0.04173682 0.2862632 -0.052931935 -0.0035753206 0.24603237 -0.035468757 -0.08897454 0.0453964
-0.31876847 0.06819545 0.11859282 0.1854637 -0.041210424 0.013966031 0.25323123 -0.13389434
-0.35163411 0.36363015 0.017244194 0.11478621 0.014941208 0.06576536 -0.027336387 0.15119761
0.049720082 -0.28291044 0.12729627 0.008483156 -0.085659616 -0.15788513 0.04775855 -0.26474324
-0.017494302 -0.24270652 0.015233465 0.11602395 0.066651106 0.07534411 0.05965842 -0.046734747
0.034701932 0.1697461 0.08959512 0.0015104265 0.03651333 0.0611635 -0.07955755 -0.15797827
0.08957345 0.08986547 0.087111756 -0.14744034 -0.110082164 0.09123262 -0.10568793 -0.08284981
0.17212962 -0.17160179 0.099210665 -0.01887974 -0.04637338 0.08839295 -0.056928687 -0.016464949
-0.07269854 0.07295575 0.022968434 -0.013069504 -0.020353053 0.019360667 -0.24149704 0.09256508
0.06109364 0.07579753 -0.11341802 -0.019697199 0.009906636 0.087199144 0.027517205 0.059033874
-0.018919818 0.1806543 0.27949908 -0.0496777 0.26481372 0.08381539 -0.06791009 -0.3778726
-0.19920926 -0.060551703 -0.4702909 -0.044638235 0.053564675 0.068674326 0.06786617 -0.13143831
0.33649233 0.17367053 0.1292307 0.20339134 0.00672383 -0.29905695 -0.024391554 0.18618979
-0.012048399 0.2349224 -0.0560098 0.073381156 -0.15631388 -0.11301787 -0.041618448 -0.039861333
-0.24134731 0.07154016 -0.15137596 0.026266806 0.05625749 0.391002 -0.006869352 -0.20709513
-0.06314907 0.25776988 0.0014540905 0.24938662 -0.038768537 0.14221117 -0.26872864 -0.16113853
-0.011142912 -0.1603821 -0.41451174 -0.32802808 0.09859512 -0.4573106 0.42263955 -0.13233705
-0.09401358 0.16530906 0.26830924 -0.29935193 -0.019335555 -0.17108564 -0.3999271 0.04660779
-0.020362299 -0.20173119 0.43397638 -0.18442224 -0.3613508 0.34365684 0.061356854 0.29317734
-0.34928828 0.11843869 0.029739484 -0.041373722 -0.04628352 -0.018673616 0.031844463 -0.17788748
0.09123271 -0.05566307 -0.12554803 0.20912655 0.09984335 -0.37370285 0.027258659 -0.40694815
-0.26852536 -0.065342814 0.15284587 0.084140435 -0.42152193 0.0943265 0.08822557 0.14048174
0.048971362 0.050872337 -0.13904212 -0.15643737 -0.019485211 -0.36171752 -0.07360622 -0.49990904

base.cnn.0.bias f4 [32]
00000000: 3fd4 07be 0e6c 15be 2ad5 f6bd 135d 40be
00000010: e8b3 0fb7 1e5e 73be 6678 bfbd bf09 08be
00000020: 32fe 28be 75ef 19be 7f9c 80be 9d73 a1bd
00000030: 55ad 25bd 9c06 90bd 0c8f 27be 52ee 69bd
00000040: 6daa bcbd 6e77 0fbe e3e6 edbd c872 69be
00000050: 0542 76bc 5def f9bd e7d1 20be e3bb 34bd
00000060: e747 cbbd 9602 53be c6aa 47be 3fd0 76bd
00000070: 2442 b1bd f0a8 88bd 58f8 7bbd 8bda 34be
-0.13264559 -0.14592001 -0.120523766 -0.18785505 -8.565352e-06 -0.23766372 -0.09349136 -0.13284968
-0.16503218 -0.15032752 -0.25119397 -0.078833796 -0.040448505 -0.07032511 -0.16363162 -0.057112046
-0.09212194 -0.14010403 -0.11616304 -0.22797692 -0.015030389 -0.12203858 -0.15705071 -0.044124495
-0.09925824 -0.20606455 -0.19498739 -0.060257193 -0.086551934 -0.06672847 -0.061516136 -0.17661493

base.cnn.2.weight f4 [64, 32, 3, 3]
00000000: c423 d5bd 043e fbbc 65e5 89bc ae98 7ebe
00000010: e552 83bd 2aec c53e f182 58be 3e3b 1b3e
00000020: 8925 febd 3465 fabd 6437 373e 6174 e33d
00000030: fff6 c9bd 7d71 bdbd c9c1 ec3d 8d45 163e
00000040: caf2 a2bd f8b4 f23d a87a bebd f5e1 ac3d
00000050: 20c8 503e d8f3 c1bd e63a f5bd 6d23 753d
00000060: 585d d0be 166d 853d 0d4a 9a3e b75d 73be
00000070: de85 2e3d 96c8 41be 2200 bdbd 8a4f a7bc
00000080: 58fe c8bc 250e 18bb a0d3 953e d377 9f3d
00000090: 622f 373e 0230 eebd ac26 143c 9d12 3c3c
000000a0: b6bc f5bd a5ba c6bc 41fd e9bd 3c6e 25bd
000000b0: 47b2 0d3e d336 93bd 3a86 03be 2601 463e
000000c0: 8144 26bd 1be0 20be 8b34 c6be 6f08 023e
000000d0: ece3 a7bd 0529 893d 77d3 02be 427e 013e
000000e0: 5fd5 a1bd 08e2 64bd 541b 46be 7cca 3e3e
000000f0: 5d22 0c3d a18a 5dbd e367 23be 85e8 e23d
00000100: 7506 3c3d 575d 26bd 8544 efbc a811 eebc
00000110: cece e43d 4484 46be 7f48 ad3d 1277 113e
00000120: 1afc b23d b296 6d3d e9d7 2a3e f96a d43d
00000130: 4067 3dbe 710e d43d ab33 0d3e 07cb b1bd
00000140: e3cf bbbc 8457 a83d dd16 83be e0fb 0c3e
00000150: 6598 9cbd b065 043d e3f5 ca3d af29 693d
00000160: 7086 8e3e 8c3e 24be 6e0c 843e 25b4 203d
00000170: c693 04bd 0690 473b 730d d6be b187 563d
00000180: aac7 133e 8207 443e 87b9 743e 112f 783e
00000190: 8586 a1be 3bf4 e33d 3415 7e3d 54cb 633d
000001a0: 4401 aabd 426f e6bd f4c4 16be 397e eb3d
000001b0: e205 923e b2c4 ce3d 38be d9bd b69e 093c
000001c0: 2d4e ebbd 60bb 06be a243 72bd a200 443e
000001d0: 9707 42be b9a2 033e 3698 41be 01b9 59bc
000001e0: 43f8 48be b592 81bc b717 153e 55bb ddbd
000001f0: 3025 013d 70ba 873e 4122 6fbc 4c7b 0fbd
00000200: 3f8c d6bd 6d10 bbbe e005 49be 01fd dbbc
00000210: 8971 7f3e c5f7 41be 655f a53e 92a0 403d
00000220: 3134 46bd 237f 093e b706 a8be 9d29 2cbe
00000230: 416a 053e aa33 233d ca46 42bc 9c2a 643e
00000240: d500 4c3e 4e99 6e3e 126a 893e c9fc bfbd
00000250: 3b01 41be 6664 3fbe 086b 133a 3e62 c1bd
00000260: 3671 573d 48e8 20bd a80f f3bb a665 123e
00000270: b393 443b 9a06 00be 4b58 30bd 8579 d23c
00000280: 119a a53d ce76 953d 388a 233e 0c93 503e
00000290: 3153 9b3c e5c1 893d 1fdd 86be cf48 253d
000002a0: 013b 3abd 0475 3e3e 5857 85bd 6fd0 843d
000002b0: 9864 05be 0237 0e3e de58 b83e 4a45 0abe
000002c0: 5296 843c 06f9 ef3d a12a 293e 3440 0abd
000002d0: 17e3 063e 245a 533e 46b0 22be 88fc 4ebe
000002e0: 986b f3bd 3295 3a3e b5ce 70bd b392 bcbd
000002f0: 59be 053e 82d8 f1bd 62f6 90bd d350 84be
00000300: e5b7 95be 5cf6 e8bc a1ac 143e 9a75 19bb
00000310: 9f92 4f3d 4baa 8f3d 34ee 0fbe 78ea 59bd
00000320: d5c9 17be cc7b f5bd 86f2 37be 7fb0 88bb
00000330: fa74 8dbe b770 89bd 23e5 693d 4796 343e
00000340: 4d01 033e aae3 7a3e 9343 fabb cb35 0f3e
00000350: 02bf 04bc 2ae9 813e 555a 3d3d 8542 313d
00000360: 367f ff3d 304c b9bd 8adf 6a3e 4803 38bc
00000370: c86a 8c3e 077a 113d 4b33 8dbe 60b5 383d
00000380: a68a a6bd ce94 6d3e 1ca8 a93e b3d0 2f3e
00000390: f623 6e3d 57b6 3dbe 7ddb 4ebe 0aaf d6bc
000003a0: 0b77 933d 1527 73bd 1a4d 523e 5217 81bd
000003b0: d548 813e 630c a23d bfa8 abbe 4e75 3f3e
000003c0: 997f a5bc d232 f23d cca1 e4bd 83a5 dfbd
000003d0: 138a 6e3c be94 fe3d 65d7 8bbd 5347 23bd
000003e0: 0d43 3c3e 4ceb f8bd 1eea 66be d66a 0ebe
000003f0: 2e40 033e df70 803e 601e 7ebd fbe7 d1bd
-0.104072124 -0.03066922 -0.016833017 -0.2486293 -0.06412295 0.3865674 -0.211437 0.15159318
-0.12409503 -0.12226334 0.17892224 0.11106182 -0.09861564 -0.09250162 0.11560399 0.14674969
-0.079564646 0.11850923 -0.093007386 0.084415354 0.20388842 -0.09470338 -0.119741246 0.059848238
-0.40696216 0.06514947 0.3013462 -0.23766218 0.042608134 -0.18924174 -0.09228541 -0.02042367
-0.024535343 -0.002320179 0.2926302 0.077865265 0.17889169 -0.116302505 0.009042423 0.011479047
-0.119988844 -0.02425892 -0.114252575 -0.04038833 0.13837539 -0.07188191 -0.12844172 0.19336376
-0.040592674 -0.1571049 -0.38711962 0.1269853 -0.081977695 0.06697277 -0.1277598 0.1264582
-0.079020254 -0.055879623 -0.19346362 0.18631929 0.03421246 -0.054087285 -0.15957598 0.11079506
0.045904595 -0.04061636 -0.029207477 -0.029061154 0.11172257 -0.19386393 0.08461093 0.14205578
0.08739491 0.058005042 0.16683926 0.10371966 -0.18496418 0.10354317 0.13789241 -0.086813025
-0.022926277 0.08219817 -0.2560338 0.13767958 -0.076462545 0.03232354 0.099101804 0.05692452
0.27836943 -0.16039485 0.25790733 0.0392343 -0.03236749 0.0030450835 -0.41807136 0.0523755
0.14431635 0.19143489 0.23898898 0.24236704 -0.31547943 0.11130568 0.06203194 0.05561383
-0.08301023 -0.112516895 -0.14723569 0.114986844 0.28520113 0.100961104 -0.106319845 0.008399656
-0.1148952 -0.13157415 -0.05914653 0.19140866 -0.18948208 0.12855043 -0.1890572 -0.013288737
-0.19625954 -0.015817026 0.14559828 -0.108267464 0.031529605 0.26509428 -0.014595569 -0.035029694
-0.104759686 -0.3653597 -0.19631147 -0.02685404 0.24945654 -0.18942173 0.32299343 0.04702813
-0.048389617 0.13427405 -0.32817623 -0.16812749 0.13028814 0.039844193 -0.011857698 0.22281879
0.19922192 0.23300669 0.26838738 -0.09374387 -0.18848126 -0.18690643 0.0005623554 -0.09442566
0.0525982 -0.03928402 -0.007417638 0.14296588 0.0029995262 -0.12502518 -0.043052953 0.02569271
0.080860265 0.07298051 0.15970695 0.20368594 0.018960567 0.067264356 -0.26340577 0.04035264
-0.045466427 0.18599325 -0.065108 0.06485068 -0.13026655 0.13888171 0.360053 -0.13502994
0.01618496 0.11717419 0.16520168 -0.033752635 0.13172565 0.20639855 -0.15887555 -0.2021352
-0.11885756 0.18220976 -0.05879088 -0.09207668 0.13060893 -0.11808874 -0.07078244 -0.25842914
-0.29241863 -0.028437786 0.14518978 -0.0023416043 0.05067694 0.07014903 -0.14055711 -0.053202122
-0.14823087 -0.11986503 -0.17963609 -0.0041714306 -0.2762831 -0.06710952 0.057103287 0.17635451
0.12793465 0.2450091 -0.00763745 0.13985364 -0.00810218 0.25373203 0.046228725 0.04327633
0.124754354 -0.09047735 0.22936836 -0.011231251 0.27425218 0.035516765 -0.27578196 0.045094848
-0.08131914 0.23201296 0.3313607 0.17169456 0.058139764 -0.18526588 -0.20200916 -0.026206512
0.0720044 -0.059363443 0.20537224 -0.06303276 0.2525088 0.07912519 -0.3352718 0.18697092
-0.020202445 0.118260995 -0.11163673 -0.10920241 0.014559287 0.12430714 -0.068281926 -0.039862942
0.18384953 -0.12154254 -0.22550246 -0.13907942 0.12817451 0.25086114 -0.062040687 -0.10249325

base.cnn.2.bias f4 [64]
00000000: 5050 8a3c 3638 6fbd 46e0 e1bc 7f5c 77bc
00000010: 5493 6d3c 6321 97bd cc98 9a3d 52d5 c3bc
00000020: 1266 0cbd e732 8dbc 9e98 43be 921e 2aba
00000030: 70ad 8cbd 64e4 3fbc 4a6c d0bd 31ac 7dbd
00000040: 6cff 20bd 9443 98bd 250e b7bd 1250 8ebd
00000050: e4fa ebbd 3870 6abe 38cf 7bbc c446 c1bd
00000060: 4d53 2e3d 05b6 a63c 4c09 87ba 6feb 4ebd
00000070: fe69 12bd 1218 91bd 07de 4fbd 9cfe 9cbd
00000080: da79 d73c fe91 fabd 1899 edbb 337c 0ebe
00000090: a8d0 90bd cbc9 70bd 4930 1fbb 0829 b33d
000000a0: 4fcc 3fbe 6a78 8fbd 683c 06be 280f 82bd
000000b0: 40af cabc b4ce d4bd 3d5e 01bd 95ba 163b
000000c0: c783 193b 4b74 00be 7fba 543d 019b 85bd
000000d0: eae2 10bc 7a41 9e3c d0b5 a2bc 5e1a fbbb
000000e0: 605c a2bd fd05 fe3c c6a8 9a3b 8725 dbbc
000000f0: 3ace 2fbe f6e1 c33c 16e2 87bd eef8 c9bd
0.016884 -0.058403216 -0.027572762 -0.015097736 0.014500458 -0.07379415 0.07548675 -0.02390543
-0.03427703 -0.017236186 -0.19101188 -0.00064895407 -0.06869018 -0.011712167 -0.101769045 -0.061931793
-0.03930609 -0.074347645 -0.08938245 -0.06948866 -0.11522463 -0.2289437 -0.015369229 -0.094373256
0.04255991 0.020350466 -0.0010302453 -0.050517496 -0.035745613 -0.07084669 -0.05074885 -0.076657504
0.02630322 -0.12234877 -0.007250916 -0.13914566 -0.07071048 -0.058786195 -0.0024290255 0.087480605
-0.18730281 -0.07005389 -0.1310898 -0.06350547 -0.024741769 -0.10390988 -0.031584013 0.0022999395
0.0023424493 -0.12544362 0.05193567 -0.06523705 -0.008843163 0.019318331 -0.019862086 -0.0076630553
-0.079277754 0.031008715 0.0047198264 -0.026751293 -0.17168513 0.023911458 -0.06634919 -0.09861933

base.cnn.4.weight f4 [32, 64, 3, 3]
00000000: 65ad b43d dd80 7ebe 9934 573e ed1f 20be
00000010: ce20 48be eb8f b43c 5076 cdbc 8139 23be
00000020: 78e3 0dbd 5935 003d af4e 8bbd e29b cabc
00000030: 4194 cdbe 1bb3 babd b6a8 083d d263 b0bc
00000040: 4979 043c 5b69 46bc a53c 12be ad97 763e
00000050: 6ec2 8bbd 963e 7d3d cf26 3cbc 3a3c 87bd
00000060: 7631 07be 6e9e 773c 657d 033e f058 06bd
00000070: e4ee 793d 173b 813c 2e6c ce3d 24eb 2e3e
00000080: 802a 83be d5fb d53c 27e0 1abe c2b4 a33e
00000090: 133b b43c 0042 ecbd b33f 763d 7cec 8e3d
000000a0: 0b82 bdbd 777f 433d 2472 433e 12a7 d03c
000000b0: 519e 87bd da88 1b3e 8100 873e 92b8 153d
000000c0: 85b9 a2bc 234b 06be d8db babd 117a 543c
000000d0: d77b 5c3d 6bce 833e 038e 71bd 314d 203d
000000e0: c7a3 c03e 782a 03bc 3e21 ba3d 5be0 493e
000000f0: b5f4 0abe 010c aebb 76da 093e f38d 513e
00000100: 7dbb 7dbd d875 8c3e 0d9d 363e 9d94 ff3d
00000110: 0319 efbd 3546 693e 95d3 913e a370 923d
00000120: 4d80 64be c854 05be 721a a83d 496b 493d
00000130: 9912 12be 80f1 cc3c 119c ebbc afa0 aabc
00000140: 414d 233e 037e 3ebe fd51 30be f13a 83bd
00000150: dbdb 2d3e 674a d83d 4999 013d f0b9 73be
00000160: 408e e7bd 85f4 713c 4139 9b3d d4f1 f2bd
00000170: 2bfe d33d 8b2d 2cbd 6343 37be e135 dabd
00000180: 9d54 45be a2a6 08be 2d85 ed3d 1a48 67bd
00000190: f7d5 0dbe 235c 0a3e 377a 153d b1da 67bc
000001a0: ec6c babd daf0 833d 854a 793e 6e79 983d
000001b0: fa97 cdbd 71fc edbd b2f4 67bd 0a0c 5dbe
000001c0: 9839 0dbe 3d88 e63d ec82 8e3c f5c0 1a3e
000001d0: 41d8 fabd e772 85be 1a78 713d c974 02be
000001e0: 8b11 dc3c 0bf2 513d ff8f 783d 662d 083e
000001f0: 19bf f03c 1fb2 5fbe b500 6b3e ef99 98bd
00000200: f9d0 003e 7d65 08bd 46cb 69bd 569a 443b
00000210: 6910 ccbd 7d53 3dbd 8758 d03c 4937 303e
00000220: d13b 663e 79c2 a9bd 27fe b8be 6983 113e
00000230: a92c 8abe 83f9 0c3b 8b76 13bd 4b30 8cbd
00000240: 5c91 83bd 3d1f 4e3e 47da 013d a5c2 2ebe
00000250: aeb2 ae3c 857e 093e a407 6c3e 49c6 8dbe
00000260: 6d43 1ebe b6d2 adbd e0f7 b3bd faa9 493e
00000270: 87c2 5abd 60f9 45be 7d14 153e f406 11bd
00000280: fbb0 bbbd 89cd e9be 547c 98be 1cfa 04be
00000290: f195 babd 4a89 bbbd 20dd 2c3e c479 2dbe
000002a0: 8d15 c53d fb15 763e 9016 e73d a722 203e
000002b0: 3f7b 04be 90da e2bc 3e26 b8bd 1b59 133d
000002c0: 8956 5fbe 4625 29bd c2b2 d4bd 53c9 8abd
000002d0: 4c16 c43b 79a4 0fbd 852f e23c fb5e 853d
000002e0: af62 bfbd 0a5c aabd 831a bf3d 7af3 dd3c
000002f0: a8f0 8d3d 8481 a93d 9c3a edbd f72a a9be
00000300: c9d5 b83c 39dc 01be a1c2 ddbd e632 b03d
00000310: a66a 92bc bd5c 063e 5317 503d bffc 813e
00000320: e6a9 59be 22bf 2dbe bfec 0fbe 71c6 993d
00000330: fa95 33be c444 edbc a81d 35bd e2df 693e
00000340: 4677 49bd 3219 d0bd 7ecd 9d3d 304c 57bd
00000350: 5fd9 9dbd 28eb 40be 0270 acbc afea 63bd
00000360: c048 08be 9bbb 11be 3e11 87bd 066f 03be
00000370: a050 25bc 9d69 25be 6834 d3be 6941 6d3d
00000380: bb05 c6be 47c0 00be 00fc 613d c1f1 1f3e
00000390: 7511 1bbe de6d bcbd 3054 633c 4cd7 02be
000003a0: 8134 8ebe b226 adbc 33be a9bd 9ae7 aa3d
000003b0: fea2 293e 43fe 99bc 53bd 5abe cdda 103e
000003c0: db55 b1bd 57f1 103e 46fb 35be 86a2 eb3c
000003d0: d7a9 ca3d ca24 74bb 5b70 2abd 5bef b8bd
000003e0: db30 11bd d61b 803d ed4f 253e 1917 403e
000003f0: 37b3 9abd 05c5 01be e4ad 433e 9fa7 803d
0.08822135 -0.24853845 0.21016158 -0.15637179 -0.19543764 0.022041282 -0.02508083 -0.15939905
-0.03464076 0.031300876 -0.06802117 -0.024732534 -0.4015217 -0.09116193 0.03336402 -0.021531973
0.008085557 -0.01211008 -0.14280947 0.24081297 -0.06824194 0.061827265 -0.011483862 -0.06603284
-0.13202462 0.015113456 0.12840803 -0.03279966 0.06101884 0.015775247 0.100792274 0.17081887
-0.25618362 0.02612106 -0.1512457 0.31973845 0.022000825 -0.11536026 0.060119342 0.069786996
-0.09253319 0.04772898 0.1908651 0.02547029 -0.06621993 0.15188923 0.26367572 0.036552973
-0.019863853 -0.131146 -0.09123963 0.012968556 0.05382904 0.25743422 -0.058973324 0.039136115
0.37624952 -0.008005731 0.09088372 0.19714491 -0.13569911 -0.0053114896 0.13462242 0.20464306
-0.06194638 0.27433658 0.17833348 0.124795176 -0.116746925 0.22780688 0.28481737 0.0715039
-0.22314568 -0.13020623 0.08208169 0.04917458 -0.14264907 0.0250175 -0.028760942 -0.020828573
0.15947439 -0.18602757 -0.17218776 -0.064077266 0.169784 0.10561066 0.031640325 -0.23801398
-0.11306429 0.014767771 0.0757928 -0.11862531 0.10351213 -0.04203562 -0.178968 -0.10654808
-0.19270559 -0.13344815 0.11597667 -0.056465246 -0.13851152 0.1351171 0.036493506 -0.014151261
-0.091028064 0.06442423 0.24344833 0.07445036 -0.10038753 -0.11620415 -0.056629844 -0.21586624
-0.13791502 0.11256454 0.017396413 0.1511267 -0.122482784 -0.26064226 0.05895243 -0.12739863
0.026863834 0.05125622 0.0606842 0.13298568 0.029387997 -0.21845292 0.22949488 -0.074512355
0.12579717 -0.03329991 -0.057078622 0.0029999218 -0.099640675 -0.0462222 0.025432838 0.1720859
0.22483756 -0.08289046 -0.36131403 0.14210285 -0.26987198 0.0021511025 -0.036001723 -0.06845149
-0.064242095 0.20129104 0.031702306 -0.17066438 0.021325435 0.1342717 0.2304979 -0.27690342
-0.15455408 -0.084874555 -0.08787513 0.19693747 -0.053408172 -0.1933341 0.14558597 -0.03540702
-0.09164616 -0.45664623 -0.29782355 -0.12986034 -0.0911063 -0.09157045 0.16881227 -0.16940981
0.09623251 0.24031822 0.112836 0.15638219 -0.1293764 -0.02769211 -0.08991669 0.03597365
-0.21810354 -0.041295312 -0.10385658 -0.06776681 0.0059841033 -0.035068963 0.02761055 0.06512257
-0.09344994 -0.08318336 0.093312286 0.027093638 0.06930667 0.08276656 -0.115834445 -0.33040592
0.022562878 -0.12681665 -0.10828138 0.08603458 -0.01787312 0.13121314 0.050803494 0.25388142
-0.21256217 -0.16967443 -0.14055155 0.07508553 -0.1753768 -0.028963454 -0.044217736 0.22839311
-0.049186014 -0.101610556 0.0770521 -0.052562892 -0.07707476 -0.18839705 -0.021049503 -0.055643734
-0.13309002 -0.14231722 -0.065950856 -0.12835321 -0.010090023 -0.1615357 -0.4125092 0.057923708
-0.38676247 -0.12573348 0.055171967 0.15619566 -0.15143378 -0.09200643 0.013875052 -0.12777442
-0.27774432 -0.021136615 -0.08288231 0.08344956 0.16566083 -0.018798 -0.21361284 0.14145966
-0.08658954 0.14154564 -0.17771634 0.02876402 0.09895676 -0.0037253373 -0.041611057 -0.090300284
-0.035446983 0.06255309 0.1614377 0.18758811 -0.07553714 -0.12672813 0.19109303 0.06281971

base.cnn.4.bias f4 [32]
00000000: 2a98 e1bc d1d6 13bd 7686 e1ba 90b3 f7bd
00000010: 9331 28bd 797b afbc 564b b3bd 875b c3bb
00000020: 552a 353c bb1c 05be 4605 d4bd 85e4 9ebc
00000030: 1be5 3ebd 42cf 47be 1c65 063c 1c11 09be
00000040: d1af 58bb baf7 9439 e2c2 a6bd f555 b3bd
00000050: d279 42bd 630e 59bb ee8b 14bb 6986 7cbb
00000060: 987e bd3c 86d0 6fbd 2588 1bbe eb7f a0bd
00000070: 4305 b3bc a520 583c e39b 6abc 8d15 01bd
-0.027538378 -0.036093537 -0.001720621 -0.12094796 -0.041062903 -0.021421181 -0.087546036 -0.0059618386
0.011057456 -0.12999241 -0.10352568 -0.019396076 -0.04660521 -0.19512656 0.008202817 -0.13385433
-0.003306378 0.0002841333 -0.0814264 -0.087566294 -0.04747946 -0.0033120147 -0.0022666412 -0.0038532263
0.023131654 -0.058548473 -0.15188654 -0.078368984 -0.021853095 0.013191377 -0.014319393 -0.031514693

base.cnn.7.weight f4 [64, 800]
00000000: bd2e 353d e119 843d 1742 2a3e 75ca e13d
00000010: 6315 b23d 5937 d9bd 6826 23be 2fad 0f3d
00000020: 5ffc dc3d a42c 9c3a 225f 8f3c e09a 34be
00000030: f431 79bd 3ae0 9fbd 7dc8 e93d ad5d c63e
00000040: ed96 89bc fc3e f63d be1c 553e b3d7 48bd
00000050: c66c 4cbd 4e9f 1fbe b914 40bd 3602 34be
00000060: fab2 38be 1923 3cbe 9e3a d0bd bc5a f4bd
00000070: 19bd 903d 7fb0 d93b a24b 48be 316a 84be
00000080: cd4a e2bd 88a0 083e f580 18be 68ac ac3d
00000090: d86a 1abe cdaa 843d 82eb 89be 23d0 85bd
000000a0: e331 bc3b 8c54 acbc 4b30 693d 6d0a f9bc
000000b0: 7847 08be 60ac 99bc 5976 133d 47fd 7ebe
000000c0: 4903 08be 8d4d d23d 4772 2e3c 9a28 2cbe
000000d0: 97f0 74bc cc1f 5dbd 0c5f 9dbd 4477 093d
000000e0: bd5e 49bd 9817 81be 25f1 fa3d d2f9 a73d
000000f0: 9170 783d 5a79 923d a52e 15be b97a 21be
00000100: e8f4 533d d196 a43d 513b bc3c 25a2 99bd
00000110: 6c2e 3a3e ae9e 9c3d f458 063e 94d7 8d3e
00000120: e60c da3d daa9 9bbd 76a9 9fbd a5e3 1cbe
00000130: 799d a6bd f2f7 0cbe d4d3 8a3d e251 b9bd
00000140: 5161 2fbb 0ef9 373e 4b7e a03d 8696 9ebb
00000150: 4422 86bd b59d 3ebe 98d9 853d 7edd 95be
00000160: 513d 61be b987 283d 5a63 50be f409 4cbe
00000170: 52f6 e3bd 3f22 f0bd cd7b 1c3e a9e7 b33d
00000180: 490f aabe 451a 75be 2acb 78bc ca02 0b39
00000190: db03 a83d 0294 81be edd3 6dbe 4103 abbd
000001a0: f03a 9abc 3e9a 39be d132 bebe f7de 143e
000001b0: f169 53be fd27 a3bd f970 73bc 4ed0 30bd
000001c0: 4be0 f5bc a268 01be 6c9c eb3d 156b 34be
000001d0: 6028 e1bb 1200 f6bd f99f 9ebe 7190 d73d
000001e0: e99a 62bc f3e7 f13e d8fc acbd d1b0 90bc
000001f0: 66f7 843e 436b 803c c949 3a3e 26dc 143d
00000200: 081b 143e 06ef 0fbe 2b9e 52be 3ac1 a63d
00000210: bd6d 9ebd 20df 6c3b aa66 7bbd 3d7e b93d
00000220: 8c88 51bd df0f cebe 794d 58bb c955 033e
00000230: b44f 6cbe 74a8 64be 5747 65be f452 5dbc
00000240: 1611 7fbe 90a0 37bd 42cb ab3d c21e 74bd
00000250: eeac 71ba 4bfa d0bd 5618 3bbd 3502 2bbd
00000260: 79dd 423e bca5 02be 05e6 533c 0d8e 893d
00000270: 7aa1 cf3d 2b21 563e 3b74 babc 76f9 0abc
00000280: 9304 2bbd 5ae1 85be d994 21be 0491 f23d
00000290: 6242 103e 2e71 2cbd 5214 0ebe c495 c0bd
000002a0: 7323 2cbe 82a1 833c 9cde 42be f913 af3d
000002b0: dfc2 fcbd 2542 163e be18 51bb 960e f0bc
000002c0: 8186 363d 8885 bebe 8bff d0bd c3ff 2ebe
000002d0: 3b26 36be 0489 06bd 0f41 db3d 486a 0dbe
000002e0: 022f aebd ce68 a2be 3ff8 b8be 2c5f abbd
000002f0: 649d 73be bbb1 9d3d 0a79 d5be ca5a 383d
00000300: d05e 7cbe 8e06 7dbc c170 013e fef7 27be
00000310: 4ba4 273e 3b99 213c 4b33 d3bd 7860 45be
00000320: 00b6 ddbd 4bdb 44be 9244 da3d 6f9f adbd
00000330: 29a4 3bbd cf8b 33be 70cc 4f3e 39ae 0bbe
00000340: 481c 84bd cac7 573d b6a4 56be 4df6 f03d
00000350: 6d15 ddbe 670c 2dbe cd50 d53d 0b4d 083d
00000360: 4b80 1b3d dbaf a0be 3e02 153d e96a d3bd
00000370: 1ac7 a0be 12ef 12be f405 57bd 5dbc 2e3e
00000380: 3345 a3bd 4fc8 efbd 5c85 84be 1a60 b6bb
00000390: b565 b63c 5452 ccbd 67b4 9bbc b6ae 7fbc
000003a0: e1a2 30bc 7850 9d3e 8042 a5bd a40c 1fbe
000003b0: 5ee5 ebbd 9e1d 003e dcaa 353d e1b9 f9bd
000003c0: 5e21 03be e7aa 37bc 0b87 2d3e a1c1 adbd
000003d0: 9e58 f93d 8e8a 1f3e adb4 4e3e f3f5 3ebe
000003e0: 8820 693c c768 a33c cb21 053d 01fd db3d
000003f0: 83af 08be 1ff0 953d 86df 8bbd 8112 28be
0.044234026 0.064502485 0.16626774 0.11024944 0.086954854 -0.1060626 -0.1593262 0.03507727
0.107903235 0.0011915159 0.017501418 -0.17637205 -0.060838655 -0.0780644 0.11415193 0.38743344
-0.0167956 0.12023732 0.20811746 -0.04903383 -0.049908422 -0.15588114 -0.046894763 -0.17578968
-0.18037024 -0.18372764 -0.1016743 -0.11931369 0.070673175 0.0066433544 -0.19560102 -0.25862268
-0.11049423 0.13342488 -0.14892943 0.084313214 -0.1507982 0.0647789 -0.2693749 -0.065338396
0.0057432516 -0.021036409 0.05693082 -0.03040048 -0.13308513 -0.018758953 0.036001537 -0.24901305
-0.13282503 0.10268698 0.010647363 -0.16812363 -0.014949939 -0.053985402 -0.076841444 0.033561006
-0.049162615 -0.25213313 0.12253026 0.08201946 0.060654227 0.07152052 -0.14568575 -0.15769471
0.051747233 0.080365784 0.022977503 -0.0750163 0.18181771 0.07647453 0.1311987 0.27703536
0.106469914 -0.07600756 -0.07795994 -0.15321214 -0.08135504 -0.13766459 0.06778684 -0.09048821
-0.0026760886 0.179661 0.078365885 -0.004839721 -0.065495044 -0.18614848 0.06535643 -0.29270548
-0.21996047 0.04114506 -0.203504 -0.19925672 -0.11130966 -0.11725282 0.15281601 0.0878442
-0.33214787 -0.23935802 -0.015185157 0.00013257112 0.0820386 -0.25308233 -0.23225375 -0.0835023
-0.018826932 -0.18125245 -0.37148145 0.1453818 -0.20645882 -0.079666115 -0.014858478 -0.043167405
-0.030014178 -0.1263757 0.115044445 -0.17618974 -0.006871268 -0.12011732 -0.30981424 0.10525597
-0.013830879 0.47247276 -0.084466636 -0.017662438 0.2597 0.015676146 0.1819221 0.036342762
0.14463437 -0.14056024 -0.20568149 0.08142324 -0.07735775 0.0036143735 -0.061377205 0.09057281
-0.051155612 -0.40246484 -0.0033005162 0.12825693 -0.2307728 -0.22329885 -0.22390495 -0.013508547
-0.24908862 -0.04483086 0.08388378 -0.059599645 -0.0009219189 -0.102039896 -0.045677505 -0.04175015
0.19029798 -0.12758535 0.012933259 0.06716547 0.10138221 0.2091109 -0.022760501 -0.008482328
-0.04175241 -0.26148492 -0.15779437 0.11844066 0.14087823 -0.042100124 -0.13874939 -0.094035655
-0.16810398 0.016068224 -0.19030231 0.08548731 -0.12341856 0.1467367 -0.0031905617 -0.02930383
0.044561867 -0.3721125 -0.10204991 -0.17089753 -0.17788021 -0.032845512 0.10705768 -0.13810074
-0.0850506 -0.31720585 -0.36126897 -0.08367762 -0.23790509 0.07699915 -0.41693908 0.04500846
-0.24645543 -0.015443457 0.12640668 -0.16403195 0.16371267 0.009863193 -0.10312518 -0.19275081
-0.10825729 -0.19224279 0.1065761 -0.08477675 -0.045810852 -0.17533801 0.2029283 -0.1364068
-0.06450707 0.052680768 -0.2096127 0.11765728 -0.4318041 -0.16899262 0.10415802 0.0332766
0.037964147 -0.31384167 0.03637909 -0.10323126 -0.31401902 -0.1434901 -0.05249591 0.17064042
-0.07972183 -0.11708128 -0.25882995 -0.0055656554 0.022265295 -0.0997664 -0.019006921 -0.015605619
-0.010781021 0.30725455 -0.080693245 -0.15532166 -0.11518358 0.12511298 0.044352397 -0.12193657
-0.12805697 -0.01121018 0.16946046 -0.084841974 0.121751055 0.15580198 0.2018611 -0.1864851
0.014228947 0.019947423 0.03250293 0.10741616 -0.13348202 0.0732119 -0.06829743 -0.16413309

base.cnn.7.bias f4 [64]
00000000: 4fdc a6bd b6a9 adbd 4e09 9ebd fd52 bdbd
00000010: cc7b 00bd 9431 ddbd d065 33bd bbcd 57b9
00000020: 57aa 1bbe 0efd bdbd 6dd5 7b3b 99b9 dc3b
00000030: 955f fdbd 2bef 04be 60fd a3bd aaa4 5ebd
00000040: 60d2 55bd b7fe c8bd 1466 ecbd 5624 3bbe
00000050: 9a89 303c f7c5 92bc 356b 04be 331a c5bd
00000060: 7618 10be 9415 05be 2574 24be 6d44 16be
00000070: 8926 96bb af8d e9bd 96dd e8bd b605 c839
00000080: 133a 34bb 1e48 ddbd 149a 643c abf0 a9bd
00000090: 68fd 7e3c 4be0 cdbc c839 1fbe cfa7 acbc
000000a0: 8104 0bbd b62f 1bbe f415 c3bd 0076 72bd
000000b0: d8a8 60bd 8943 0ebe 45e6 25be b46a bfbd
000000c0: 0e73 2bbe 78d7 dabd f0ec 3cbe b0db 42bd
000000d0: 7e0f 9fbd 7ac8 3bbd bf8f 00be 9818 c83c
000000e0: 2f2e 8abd 57ed cebd 299c d4bd b86b 9ebd
000000f0: 768e 51bd 06f9 b4bd 8f96 2cbd cc6a ccbc
-0.08147489 -0.084796354 -0.077166185 -0.092443444 -0.031368062 -0.10800472 -0.043798268 -0.00020580638
-0.15201698 -0.09276782 0.0038426772 0.006735992 -0.123717465 -0.1298186 -0.08007312 -0.054356255
-0.052202582 -0.09814208 -0.11542907 -0.1827558 0.010774994 -0.017916663 -0.12931521 -0.09624138
-0.14071831 -0.12996513 -0.1605993 -0.1467454 -0.0045822305 -0.11403977 -0.11370389 0.00038151228
-0.0027500435 -0.10804771 0.013952751 -0.08297857 0.015563346 -0.025131365 -0.15549386 -0.021076111
-0.033939842 -0.15154919 -0.095256716 -0.059194565 -0.054848522 -0.1389295 -0.16201122 -0.09346524
-0.16743109 -0.10685629 -0.1844976 -0.04757279 -0.07766627 -0.045845486 -0.12554835 0.02442579
-0.0674709 -0.10103863 -0.10381348 -0.077353895 -0.051161252 -0.0883656 -0.04213577 -0.024953268

base.cnn.9.weight f4 [64]
00000000: 12d6 8d3f 9619 a83f 7797 5f3f aad5 923f
00000010: ba8a 7f3f 1657 6b3f aa3a 643f 33cb 843f
00000020: 85f0 6b3f 680f 663f 88c5 973f cf85 853f
00000030: c51e a03f c27c 663f d6a4 723f 22dc 583f
00000040: abfa 7c3f 8cbf 453f 79a8 793f f74a 883f
00000050: a8f7 823f c89c 803f 23ac 973f a4b9 7b3f
00000060: febe 523f fa52 7b3f f1b9 8d3f 6caf 873f
00000070: 79da 893f c7a7 393f 7048 5e3f 1555 6b3f
00000080: 0120 8c3f 31bb 8b3f 5c2a 963f 73d3 833f
00000090: 2c14 7e3f 5d85 643f 36ae 8c3f 7932 9a3f
000000a0: 288f 993f bbc2 8e3f 7a3a 883f a6d4 823f
000000b0: 3906 993f 9de8 753f a14e 833f eedf 853f
000000c0: 53fd 8b3f 8f3a 6e3f 28d8 6e3f c77f 683f
000000d0: 043d 643f dec4 9b3f c4d7 8b3f f165 523f
000000e0: f05a 723f 33df 943f ee59 883f fbe7 7c3f
000000f0: 596e 693f 7181 643f 559a 833f 6c03 933f
1.1080954 1.3132808 0.8734049 1.1471455 0.99821055 0.9192976 0.89152014 1.0374511
0.9216388 0.8986726 1.1857157 1.043146 1.250939 0.90034115 0.9478277 0.84710896
0.9881999 0.772454 0.97522694 1.0647877 1.0231829 1.0047846 1.1849407 0.9833014
0.8232268 0.9817349 1.107237 1.060041 1.0769798 0.7252163 0.8682928 0.919267
1.0947267 1.0916501 1.1731677 1.0298904 0.9924953 0.89265996 1.0990665 1.2046653
1.1996813 1.1153177 1.0642846 1.0221145 1.1955024 0.96058065 1.0258371 1.0458963
1.0936683 0.93058103 0.9329858 0.9081997 0.891556 1.2169454 1.0925221 0.821868
0.9467001 1.1630615 1.0652444 0.98791474 0.91184 0.8926001 1.0281473 1.1485419

base.cnn.9.bias f4 [64]
00000000: 607e dfbd b071 f8bd 5dc0 133e 1226 fbbd
00000010: 9a21 bf3d f94d 173e d394 963d 3619 913d
00000020: 6135 e53d de0d 143e f365 0d3d 87b3 413e
00000030: b00f cdbd ddee 323d 748d 47bd 28be 853e
00000040: 9323 0cbe dc28 0c3e 97bd 003d 7284 bd3d
00000050: a09e 933e a872 8b3d 8942 32bd 6cec 3fbd
00000060: 3b44 2a3e e874 283e c3cb a3bd 9700 aabc
00000070: 7a95 203d d668 4a3e cad4 30bd e943 443d
00000080: edfe 273d fa68 a53d 5131 9bbd a89a 2c3e
00000090: 123c 6ebd 9a33 973d 966f 5ebd 3ebf b039
000000a0: c30c 2abd e7b9 c03d 3f28 de3d b191 903d
000000b0: 7cb2 3f3e 1e25 3e3e b0b6 5fbe 1897 643d
000000c0: 183b 44be 9dab 343e 10a0 a2bc 2eb4 4a3e
000000d0: a85b 053e a7bc 9bbd a141 e4bd 1e08 0fbe
000000e0: e049 cb3d 5e05 edbd 5842 393e 0c0e 7f3d
000000f0: eb54 48bd a940 743d 5b24 5e3d b508 283d
-0.10912776 -0.12131059 0.1442885 -0.12263121 0.09332581 0.14775838 0.07352605 0.07084887
0.11191822 0.14458415 0.034521054 0.1891614 -0.10012758 0.04368483 -0.048718885 0.2612164
-0.13685445 0.13687462 0.031430807 0.092537776 0.2883196 0.06808978 -0.043520484 -0.04685633
0.1662759 0.16450846 -0.07997849 -0.020752234 0.039205052 0.19766554 -0.04317168 0.047916327
0.0410146 0.08076663 -0.07577766 0.16855872 -0.058162756 0.07382889 -0.054305635 0.00033711822
-0.041516077 0.09410458 0.1084752 0.070590384 0.1872043 0.18568847 -0.21847034 0.055808157
-0.19163167 0.1764359 -0.019851714 0.19795296 0.13023245 -0.07604342 -0.1114533 -0.1396794
0.099262 -0.11573289 0.18091714 0.062269256 -0.04890911 0.059631977 0.05423389 0.04102393

base.cnn.10.weight f4 [64, 64]
00000000: 8b85 e03e caa5 9a3e 0eed f23e 2869 723d
00000010: d915 ef3d 7e3f ac3d fd7b fa3d 6e54 033d
00000020: 3fe6 923e f70e eb3d 45e5 b6bd ecb8 b8be
00000030: 4f79 093f f9e9 9e3e 7565 0d3e 71b8 b93c
00000040: fcd6 a3be 2d70 6abd ee89 8f3e 8d34 f03c
00000050: 89f9 27bf b34d 17be ae30 08be 108c 893e
00000060: 2f5a b9be a1a4 af3e 77b8 e63e b602 683e
00000070: 95d8 0e3e 365f 1c3e 7e93 683e 6a2d a23e
00000080: ab1d ae3e 4b4d bd3e 7b32 ebbe d9d4 c53c
00000090: 1860 343e 1e7d b33d 486d fbba 9c58 343d
000000a0: 3d55 8b3d 9b25 963e 33cc 12be 5805 6dbd
000000b0: aebf 833e 9d37 02bd 7ad6 a8be 13eb d13e
000000c0: 9ecf 713e 6ec4 c33e ecf9 333e 652a a7be
000000d0: 3fb6 ebbc a3ca 8cbe f227 023d c6bb b9be
000000e0: 999d a43e 5576 643d c0e5 8a3d ceed 98bd
000000f0: 64df 10be bcab a6bb 4b2b 0bbf b163 c03e
00000100: 4bc1 12bf ba4e d33d 15fb 97be 31cc 1dbd
00000110: 225c 163c 41e5 0bbe 6299 39bd c945 cdbe
00000120: 3fd8 cb3d 8b87 973d 934d 9ebd 1072 1f3e
00000130: 4237 cb3c bcb8 ccbd a2ed 413e 1e0c e53e
00000140: 22e9 0ebf a3d1 8ebe 2c03 173e fa29 203e
00000150: a9d8 6c3e 2d57 863b 8106 94be 2572 23be
00000160: 4430 97be e13a 803e 5bbb 9cbe 8d34 01bd
00000170: 1d6b adbc 1ac2 ef3c 4acd 6dbe 39cc 77be
00000180: e68d f23e 0625 b5be 3642 973d 3b6b 9abd
00000190: 72f0 1b3f 3f78 303e 54cb 80be 7d0b 383d
000001a0: d5a2 37bf 9408 bcbe 1250 a63d f3ee 53be
000001b0: 59fe 233e 07d6 a73d d645 08bd 3402 19bc
000001c0: 9e55 5bbe 7d40 d9be 36d7 7d3d a347 503e
000001d0: 6c53 35bc b014 b63e c33d 85be cd16 59bd
000001e0: bd5e fbbd 80b0 d03d 2a9e 1dbf ec24 303e
000001f0: 5c59 cb3d be5a 4abe 7821 843e e273 793e
00000200: add0 743e 38b5 053f c38e da3d baf2 48be
00000210: c846 d23e 0c25 de3d 5211 eb3d b888 6b3e
00000220: e7c6 aa3c ac33 353e 0eb0 84be dfe8 6e3e
00000230: b4ae d4bd e6ee 083e c36c 503d 5ff4 aebe
00000240: 8b62 c13e 5a63 5bbd 92c4 18bf 7e5e 823e
00000250: 57a5 d9be 10c6 93bd 23de 0abe 1568 1c3e
00000260: eeda dc3c 5904 7fbe d74b 7cbd 03be b1be
00000270: d351 a83e 038e d0be fe25 d33e 2891 3d3e
00000280: d64d 68be fb13 2fbd e317 f8bd 8927 01be
00000290: 2631 80be 17fb 73be 3fd3 223d 43dc a53d
000002a0: be52 cbbe 3a3e d1be b5e5 7ebc 1a2a 9a3e
000002b0: 54fc 003c 16e9 e43e cd46 d83e d1b6 9d3c
000002c0: 8444 2dbe 91b0 223f f5da 253d f3cb 9dbe
000002d0: 8a5e 6a3e fa57 403d 51b1 28bd dfad 0d3e
000002e0: 4c40 e7ba fc4c 833e 1879 13bf c4a2 90bc
000002f0: e501 9ebe 182a e7bd e76e 123e 1159 cdbe
00000300: af60 b0bd 1b54 cbbe a6a6 013e 3cd9 7e3e
00000310: 1a70 5d3e d341 3f3e 5bf2 00bf 1a86 ac3e
00000320: 4db7 103e 307e 86bd c5a3 7c3e b3b5 2abe
00000330: 9a93 5c3e bba0 7cbd 2948 0abf 1a41 5a3d
00000340: d6c4 683e 871a 29be 4b86 263e 6b0f 173e
00000350: b986 213e 0029 4dbe 88b5 03be 369e 87bd
00000360: a0f9 0cbc a0a3 633e 47b9 283d b99c bcbe
00000370: 4c3c e03d 358f 3cbe 437e c8be d48e 6dbd
00000380: 5662 8fbd 6869 42bb 5767 f43d 4adc 3bbe
00000390: 3cec 1ebe c713 ca3e 5d7d 1d3d 0526 8f3e
000003a0: 04ac 6abe 8a94 a7bd 9a45 a93e b06f 2bbe
000003b0: 9621 abbe 81b2 b6be 3767 4dbe 442f 173d
000003c0: 25e3 043d f6e1 ba3d aa61 113e e63b 2cbf
000003d0: c51f 9dbe 26a3 153e 2d58 6b3e 640b 17be
000003e0: 34c4 f03e d0ee 8e3d 68d7 d9bd 2cbe 813d
000003f0: 1ea6 b43c 2271 7e3e ec9b 4c3e 082e 2dbd
0.43851885 0.30204612 0.47446483 0.059182316 0.11674089 0.08410548 0.1223068 0.03206294
0.2869129 0.11477464 -0.089304484 -0.36078584 0.5370073 0.31037882 0.13808234 0.022670956
-0.31999958 -0.057235885 0.2803492 0.029321933 -0.65615135 -0.14775734 -0.1329982 0.26864672
-0.36201617 0.3430529 0.4506261 0.22657284 0.13949807 0.15270695 0.22712514 0.31675273
0.3400701 0.36973032 -0.4593695 0.024149345 0.17614782 0.087640986 -0.0019182349 0.044029817
0.06803367 0.29325566 -0.14335708 -0.057866424 0.25732177 -0.03179132 -0.32976133 0.4099966
0.23614356 0.382358 0.17575806 -0.32649532 -0.028773425 -0.2749835 0.031776376 -0.36276072
0.32151487 0.055776913 0.067821026 -0.07467233 -0.14147717 -0.0050863903 -0.54362935 0.37576059
-0.5732619 0.1031775 -0.29683748 -0.03852481 0.00917724 -0.13661672 -0.045312293 -0.40092304
0.09953355 0.073989 -0.0772964 0.15570855 0.024806622 -0.09996173 0.18938306 0.44735807
-0.5582448 -0.27894315 0.14747304 0.15641013 0.23129524 0.0040997476 -0.28911212 -0.15961511
-0.2952901 0.2504492 -0.3061169 -0.031544257 -0.02116924 0.02926736 -0.23222843 -0.24198999
0.47373885 -0.3537981 0.073856756 -0.07539984 0.60913765 0.1723337 -0.25155127 0.04493283
-0.71732837 -0.36725295 0.08120741 -0.2069662 0.16014995 0.08195119 -0.033269726 -0.009338904
-0.21419379 -0.42432013 0.06197282 0.20339827 -0.011067253 0.35562658 -0.26023683 -0.05300026
-0.12273929 0.10189915 -0.61569464 0.17201585 0.09929153 -0.19761178 0.25806785 0.24360612
0.23907728 0.5222964 0.10671761 -0.19623843 0.41069627 0.1084691 0.11477913 0.23001373
0.020846797 0.17695493 -0.2591557 0.23331021 -0.103848845 0.13372383 0.050884973 -0.34170815
0.37770495 -0.053561546 -0.5967494 0.25462717 -0.42508957 -0.07215512 -0.13561301 0.15274079
0.026959863 -0.24904002 -0.061595764 -0.3471528 0.32874927 -0.40733346 0.41239923 0.18512404
-0.22685942 -0.042743664 -0.12113931 -0.12612738 -0.25037497 -0.23826252 0.03975224 0.08098652
-0.39711565 -0.40867788 -0.015557696 0.30110246 0.00787266 0.4470908 0.42241517 0.019252213
-0.16920668 0.6355067 0.040492017 -0.30819663 0.22887626 0.0469589 -0.041184727 0.13835858
-0.0017643063 0.25644672 -0.5760665 -0.017655738 -0.3086082 -0.112873256 0.14300118 -0.40107015
-0.08612191 -0.39712605 0.12661228 0.24887556 0.21624795 0.18677454 -0.50369805 0.3369606
0.14132424 -0.06567037 0.24671848 -0.16670875 0.2154068 -0.061676722 -0.5401636 0.053284742
0.22731337 -0.16514026 0.16262166 0.14751975 0.15774049 -0.20035172 -0.12862217 -0.06621973
-0.008604437 0.22230387 0.04119232 -0.3683832 0.10949001 -0.18414004 -0.3915883 -0.05799754
-0.07001178 -0.0029664878 0.11933773 -0.18345752 -0.15519804 0.39468214 0.038449634 0.27958694
-0.22917181 -0.081826285 0.33060914 -0.16741824 -0.33424062 -0.35683063 -0.20058905 0.03691031
0.032443184 0.0912513 0.14197412 -0.672789 -0.306883 0.14613017 0.22982855 -0.14750439
0.4702469 0.069791436 -0.106367886 0.063351005 0.022051867 0.24847844 0.19981354 -0.042280227

base.cnn.10.bias f4 [64]
00000000: 0592 c0bd 8ba3 a03d 7579 cabd e5e3 11bd
00000010: a1df b8bd f974 b1bc d842 403d dc71 16be
00000020: 27fa f4bd c6ba 74be b5e2 05be e53c 54bd
00000030: ac3e e1bb e7eb 93bc 1cf9 17be e0b4 083d
00000040: f744 54bd 0844 d9bd ccff 01be 1819 62be
00000050: 1b4a f23c 2878 84be ab12 4bbe c57f 92be
00000060: 3ac4 ecbd a671 ddbd 9982 5bbe 9e79 cabd
00000070: 86d8 5cbc ad39 9fbe 6097 173d 4d9e 14be
00000080: 3179 b6be 98f8 223d 459f 593d b094 8cbd
00000090: 059b b4bd 60b1 f7bb 4b8e 8bbe 11e1 34bd
000000a0: 9fcf 9fbe a42c b1bd e909 81be ac01 ed3d
000000b0: ccea eebd fa3a 9ebc 2cde 0fbe 2d78 5e3d
000000c0: 3032 75be a881 a7be 08aa 1bbd 31dc 0fbe
000000d0: b0a8 793b a813 1dbd 116d 6ebd 1d85 debd
000000e0: e657 26be fc59 9bbd 1d54 b1bc f4aa 34be
000000f0: c6ee 61be 6b72 75be ca7f 94be c3c5 6dbd
-0.09402851 0.07843693 -0.09886447 -0.035617728 -0.09027029 -0.021662222 0.046938747 -0.14691871
-0.11961775 -0.23899373 -0.13074763 -0.051815886 -0.006873926 -0.018056823 -0.14841121 0.03337562
-0.051823583 -0.10608679 -0.12695235 -0.22079885 0.029576352 -0.25872922 -0.1983134 -0.28613105
-0.11560865 -0.10812692 -0.21436538 -0.09886478 -0.013479358 -0.3109869 0.037009597 -0.14513512
-0.35639337 0.03978786 0.053130407 -0.068642974 -0.0881863 -0.0075589865 -0.27256998 -0.044159953
-0.3121309 -0.08651093 -0.25202873 0.115725845 -0.11665878 -0.019315232 -0.14049596 0.054313827
-0.23944926 -0.32716107 -0.03800395 -0.1404884 0.003809493 -0.038348824 -0.058209483 -0.10865233
-0.16244468 -0.075855225 -0.021646554 -0.17643338 -0.22063741 -0.23969428 -0.29003745 -0.05804993

base.cnn.12.weight f4 [64]
00000000: 711d 973f 0d27 833f 353a 8a3f a4b7 783f
00000010: fbe6 513f 162e 903f 5851 333f 0974 683f
00000020: ab20 8c3f 67c0 553f e84a 8e3f 80aa 993f
00000030: 664e 313f 9eb9 b13f f845 8d3f 45bf b73f
00000040: d961 873f 5f79 843f 8051 853f 3c53 613f
00000050: 7d5e 373f d4b1 a43f ce0a 4a3f 1f68 7e3f
00000060: a2de 8a3f 9fe2 4b3f a874 843f e4dc 7f3f
00000070: 8355 8c3f 380c 303f 8653 843f 4bda a33f
00000080: b8ab 683f 3c90 983f 8601 953f d60c 923f
00000090: 89a3 833f d202 873f 4e17 893f e6b9 7f3f
000000a0: 7e17 2f3f 0250 473f 29c9 6e3f 5a64 813f
000000b0: 0d7e 7d3f 6695 643f 658e 8e3f 3c92 423f
000000c0: a588 473f aa19 8f3f fd2f 973f 4be7 723f
000000d0: d459 683f 1936 8a3f 101d 8c3f 0f88 5a3f
000000e0: c4da 853f 3a27 5b3f b2cd 983f 9a6e 873f
000000f0: 0fc4 8d3f 319b 883f de67 993f 13cd 993f
1.180586 1.0246292 1.0799013 0.97155213 0.81993073 1.1264064 0.70045996 0.90802056
1.094747 0.8349671 1.111661 1.2005157 0.6926025 1.3884771 1.1036978 1.4355246
1.0576736 1.034954 1.0415497 0.8801763 0.7162855 1.2866769 0.78922737 0.99377626
1.0849192 0.7964267 1.0348101 0.9994643 1.0963596 0.68768644 1.0337989 1.2800993
0.9088702 1.1919017 1.164109 1.1410167 1.0284282 1.0547736 1.0710237 0.99893034
0.6839522 0.7785646 0.93275696 1.010875 0.99020463 0.89290464 1.1137205 0.76004386
0.7794288 1.1179707 1.181152 0.94884175 0.90762067 1.0797759 1.0946369 0.8536386
1.0457387 0.8560673 1.1937773 1.0580628 1.1075457 1.0672361 1.1984823 1.2015709

base.cnn.12.bias f4 [64]
00000000: 1de3 00be dc25 633e 9ed8 b13d 2f39 013e
00000010: 2fc5 f83d dc2d 133e f993 0d3e c0bb cabd
00000020: 9309 d1bb d13b 0b3e 9d9a b7bd 77a5 3e38
00000030: 1321 273e 0b40 0bbc 1fff 87bd e189 8dbd
00000040: bb0b fcbc dfeb c53b 76e4 d6bd b57c 1dbd
00000050: 1e1f 243e d2a1 aebe d48a f53d 0aa4 8fbe
00000060: 956f 42bc fb94 6a3c ca48 23be 6d7d bd3d
00000070: 804c 20be 954d 40bd f325 523d d365 3cbe
00000080: 109a a83d bc33 b93d 7966 acbc 7d45 7dbe
00000090: be5a 9d3d f940 063e 9da8 7bbe a85b 853e
000000a0: ea1d e03d 1406 183e 4a8d f53c 0331 ab3e
000000b0: ff0c f93c e7ae 5a3d 50f9 853d 72b9 8ebd
000000c0: cc8c ed3d 3cb0 323c 8897 96bd 4b29 043e
000000d0: df60 393e 34db 323d 1e01 f8bc 1d6d 9abd
000000e0: 8a6a 81be c199 9c3d 9415 78bc f08b 853d
000000f0: a74f 61bd 8063 67be ddaa 44bd e97d c43c
-0.12586637 0.22182411 0.086838946 0.1261947 0.12146985 0.14372963 0.13825978 -0.09899092
-0.006379315 0.13597037 -0.08965037 4.545363e-05 0.1632121 -0.008499156 -0.06640457 -0.06911064
-0.030767312 0.006040081 -0.10492794 -0.038449008 0.16027495 -0.34107834 0.1198937 -0.2805484
-0.011867424 0.014317746 -0.15945736 0.09252439 -0.15654182 -0.046948988 0.051305722 -0.18398218
0.0823251 0.09043071 -0.021044957 -0.24733539 0.07683323 0.13110723 -0.2457604 0.2604649
0.10943206 0.14846069 0.029974598 0.3343583 0.030401705 0.053389456 0.06541693 -0.06968965
0.115991205 0.010906275 -0.07353121 0.12906377 0.1810336 0.04366608 -0.03027397 -0.07540343
-0.25276595 0.07646514 -0.015141863 0.065208316 -0.055007603 -0.2259655 -0.04801451 0.02398582

base.cnn.13.weight f4 [64, 64]
00000000: 814e 00bf 06aa 2dbd 5d7e c0bd a267 f93e
00000010: a295 14bd 4a8f 20bf b749 b53c 2292 28bd
00000020: a060 15be e257 fbbe daaa b0be aecf 4abd
00000030: 6623 d73e 565d bd3e 2266 e53c b14d 9f3e
00000040: 4c41 953d 0743 443e 20be c63d ce5f aa3e
00000050: e6df 89be 3103 8c3e 60b8 6c3e 84ef 2f3d
00000060: 16a9 703e 4d3c dbbe a190 ad3d 5e53 abbe
00000070: 05a0 7e3e 0ab0 ad3e 119d b43d 0d9f b6bd
00000080: fa4d 98be 064b b4bd 5cdf 1e3e 6f1c d43c
00000090: 61b1 2fbe f661 b7be 6bb2 c83c 57de 893d
000000a0: 3246 1a3b 1d21 043f f6b4 a6be 3949 69be
000000b0: a05f 9f3e 9b6c ed3e c3fc 7dbb 9db9 98be
000000c0: fee2 653e d1bc a23e d1ed 4b3e 590d 1abd
000000d0: 7cc5 0fbe adea 193e e2e2 68be 0611 89bd
000000e0: b870 0d3e 2630 47be 1562 f43e 9bc4 efbd
000000f0: cda3 2abe 085a cd3e 3b63 f3bd 7fe6 c4be
00000100: a933 153e 1241 30bf 54dc a33e 3d23 173e
00000110: e561 7c3d 2b91 3b3e ed9b 89bb b2c8 ac3d
00000120: 08dc 72be f373 81bb 83ea 92bc f4cc febd
00000130: 2d04 04be 7b6a 813d 3878 ab3e 9507 0bbc
00000140: e43d 3a3d 5565 96bd 083d b3bd f5b8 b63e
00000150: af3d 17bc 665f 80bd 1a10 1d3b e9ff 9d3e
00000160: aac1 16bf 945b 41be 14dc c9bd 818a bb3d
00000170: 4b82 7f3d 9567 5a3e 4a49 813d 8913 de3e
00000180: f8a6 5d3e 0ab3 023f 51bd 98bd 5e87 d6bd
00000190: 6e2a 01be 3ed3 1cbe 6335 c43d 426a 8c3c
000001a0: 1cff 57be 0fff 26be 26e5 34be e175 623e
000001b0: 7e15 ddbd 03b4 bebe e775 0b3d a4fb b8bd
000001c0: 51d6 b03d 81d9 663d aedd 12bf cd52 7b3d
000001d0: bf04 a33e 5b7b adbe bb8e e93c ccb0 eb3e
000001e0: d7c3 d03e 0fcc 8bbe a298 1c3e 3700 32be
000001f0: 2453 993e 5091 c03e f438 9e3e 4fad 143e
00000200: a755 d53e 785c bbbd 29ef edbe 1f17 23be
00000210: d4db 333b cc2f a63e b1a3 b0bc f9ba a53e
00000220: 029a b53d c38a a1be 3221 f1bd 3057 55be
00000230: 8a46 b63d 478d a93e 4980 0fbe f589 1a3f
00000240: 5a15 3dbe f5e0 ebbd a6a5 443e 2f72 323e
00000250: d006 a4bd 7c68 823d d09b e1be 4951 8f3e
00000260: 4d44 383e 90ac 63be 0946 013e ce1e 1cbd
00000270: 224e afbe 4575 cebd ebd3 ac3e 9553 cb3e
00000280: 9b69 3f3e 004c ae3e bceb be3d c24b f23d
00000290: b942 343e 6c59 3dbd 97d5 2e3e 40eb ba3e
000002a0: be79 5dbe 49bb 57bd 8f8f 283e adeb 303e
000002b0: 832b 70bd 736a 36bd 7d18 41be fee6 ac3d
000002c0: 3778 7dbd d2f1 ce3e 0ae9 0d3f f736 dabe
000002d0: e7f7 71be 72fe c1be f760 ccbe 7a61 c23e
000002e0: 5c79 623c 750d ae3e 6133 e5be 164c 6c3e
000002f0: 74cf e03e 3d24 d33d 99ab 8abe f408 f33c
00000300: 34c8 2fbe 311f 81bc 8e49 113d 8762 14be
00000310: 638c aebe 0ccc 4b3d ad20 ef3d 3aa2 aa3e
00000320: e7a3 a13e b308 2e3d 0fbc b83e 1078 943d
00000330: 0456 c83c 36e9 2abf b8f3 993e bea4 4b3e
00000340: 2721 9839 274f 853e 37ae 593e 544c 903e
00000350: 6c62 f4be ce71 ec3c f5de 163e e95e 07bc
00000360: 38a2 9bbd 04d5 a4bc 86bb da3c 2c5f 4cbe
00000370: 32e7 abbe 2a6c c63d a1d1 543e ac89 a33e
00000380: 8074 6ebc aa9b a23e e8d4 55be 7bd3 27be
00000390: 812b a9bd 0afb 03bf 4031 b4bc 9edc 963e
000003a0: 6bba bdbd 1d4e ce3c 2e65 673c a0aa a9bd
000003b0: 34e6 0f3e 937c e6bd 1488 2a3e 05cb cc3e
000003c0: ab37 6fbe 8065 713a 67e0 c23d fa00 2a3f
000003d0: c000 cf3d 3b98 203e 087d 613e ec32 9f3e
000003e0: 43f6 c23e d489 96bc c516 223e f554 cebe
000003f0: 1084 afbb 629b 8ebe f697 533e e675 3cbf
-0.5011979 -0.042398475 -0.09399102 0.48711878 -0.036275513 -0.6271864 0.022129877 -0.041154988
-0.14587641 -0.49090487 -0.3450535 -0.049514465 0.42019194 0.36985272 0.028002802 0.3111396
0.07287845 0.19166194 0.09704232 0.33276218 -0.26928633 0.27346185 0.23117208 0.04295303
0.23502001 -0.42819443 0.084748514 -0.33462042 0.2486573 0.3392337 0.088190205 -0.08917055
-0.2974699 -0.08803372 0.15514892 0.025892464 -0.17157508 -0.35816926 0.024499139 0.06731861
0.0023540375 0.51613027 -0.32559937 -0.22781838 0.31127644 0.46371922 -0.0038755394 -0.29829112
0.22449872 0.3178468 0.19914939 -0.037610386 -0.14040178 0.15030928 -0.22742799 -0.066927
0.1381253 -0.19451961 0.4773108 -0.117074214 -0.16664048 0.4010775 -0.11884161 -0.38457105
0.14570488 -0.6884929 0.32004035 0.14759536 0.061616797 0.18317096 -0.004199496 0.08436717
-0.23716748 -0.00395059 -0.01793409 -0.124414355 -0.12892218 0.06319138 0.33490157 -0.008485694
0.04546918 -0.07343546 -0.08751875 0.35687986 -0.009231015 -0.06268196 0.0023965896 0.30859306
-0.5888926 -0.1888259 -0.0985643 0.09157277 0.062380116 0.21328576 0.06312807 0.4337428
0.21645725 0.5105444 -0.07457984 -0.10475038 -0.12613842 -0.15314957 0.09580495 0.017140511
-0.2109341 -0.16308235 -0.17665538 0.2211528 -0.10795115 -0.37246713 0.034047987 -0.09032372
0.086346276 0.05635977 -0.57369506 0.06135826 0.31839558 -0.33883175 0.028510442 0.46033323
0.40774414 -0.27304122 0.152926 -0.17382894 0.29946244 0.37610865 0.30902827 0.14519237
0.4166691 -0.091484964 -0.46471527 -0.15926789 0.002744426 0.3245834 -0.02156243 0.3236921
0.08867265 -0.3155118 -0.1177391 -0.2083404 0.08900173 0.331156 -0.1401378 0.60366756
-0.18465176 -0.115175165 0.19203815 0.1742637 -0.08009112 0.06367585 -0.44064188 0.27991703
0.17994805 -0.22233796 0.12624373 -0.038115315 -0.34239298 -0.10080961 0.3375543 0.39712206
0.18692629 0.34042358 0.093223065 0.11830856 0.17603578 -0.046227857 0.17073666 0.36507607
-0.21628472 -0.052668843 0.16461013 0.17277403 -0.058635246 -0.04453511 -0.18856998 0.08442496
-0.061882224 0.4041887 0.55433714 -0.4262006 -0.23629723 -0.3788944 -0.39917728 0.37964994
0.01382288 0.33994642 -0.44765761 0.230759 0.43908274 0.10309646 -0.27084044 0.029667355
-0.17166215 -0.015761944 0.035470538 -0.1449071 -0.34091482 0.04975514 0.11676154 0.33326894
0.3157036 0.042488765 0.36080977 0.072494626 0.024455078 -0.667621 0.30068755 0.19887063
0.000290164 0.2603695 0.21257864 0.28183234 -0.4773134 0.02886286 0.14733489 -0.008262374
-0.075993 -0.020121105 0.026700746 -0.1995818 -0.33574826 0.096885994 0.20783092 0.31940973
-0.014554143 0.31759387 -0.20881999 -0.16389267 -0.08260251 -0.5155493 -0.02199614 0.29465193
-0.09264072 0.025183732 0.014123244 -0.08284497 0.1405266 -0.112542294 0.16653472 0.39998642
-0.2336108 0.0009208545 0.095154576 0.6640774 0.10107565 0.15683071 0.22020352 0.31093538
0.38078508 -0.018376268 0.15828998 -0.40299192 -0.0053563192 -0.27852923 0.20663437 -0.736174
