CRL_human_AI_overcooked/human_models/model_many_orders/actor_best_r1.pt (torch, 426323 bytes, 20 tensors)

base.cnn.0.weight f4 [32, 26, 3, 3]
0	0x39ad19ad	0.0003301626
1	0xbe6540c8	-0.22387993
2	0x3e839f71	0.25707582
3	0x3d06bb41	0.032893423
4	0xbd995453	-0.07486787
5	0xbe97ae5b	-0.2962521
6	0x3dc2b386	0.09506898
7	0x3d9c490a	0.076311186
8	0xbd611281	-0.054949287
9	0xbecf5ce2	-0.4050055
10	0xbe080cb0	-0.1328609
11	0xbd343e98	-0.044005007
12	0xbc09a4bc	-0.008401092
13	0x3c45eea0	0.012080818
14	0xbe6729ed	-0.22574587
15	0x3e99cc52	0.30038697
16	0x3bdb0b18	0.006684672
17	0x3d142ddf	0.03617656
18	0x3e4dca50	0.20096707
19	0xbd278777	-0.040900674
20	0x3d59a084	0.053131595
21	0x3eb04aa9	0.3443196
22	0xbee060a1	-0.43823722
23	0xbe310b7e	-0.1728954
24	0xbe7234cc	-0.23652953
25	0xbe62b295	-0.22138436
26	0x3d4b71fe	0.04966926
27	0x3b04065a	0.0020145387
28	0xbe9f9569	-0.31168678
29	0xbd037901	-0.03209782
30	0xbd80ee3f	-0.06295442
31	0xbe9f2ca4	-0.31088746
32	0x3d81d24a	0.063389376
33	0xbba7ba9d	-0.0051186816
34	0xbda16731	-0.0788101
35	0xbdc97cfd	-0.09838293
36	0xbe828006	-0.254883
37	0x3e0043ac	0.12525815
38	0x3ed4c66d	0.41557637
39	0xbe82267e	-0.25419992
40	0xbe6828e8	-0.22671854
41	0xbd6b2efb	-0.05741785
42	0xbd1fe336	-0.039035045
43	0x3cbfda04	0.023419388
44	0xbd3b9c2e	-0.04580324
45	0xbf1b6f35	-0.60716563
46	0xbe101f7f	-0.14074515
47	0xbc347511	-0.011014239
48	0xbc058e3f	-0.00815159
49	0x3eba8348	0.36428285
50	0x3e1bbe2b	0.15209262
51	0x3e79bd71	0.24388672
52	0x3eb7cef5	0.35900083
53	0xbe7a39a2	-0.24436048
54	0xbe90cebf	-0.28282735
55	0xbda056c7	-0.078290515
56	0x3d8f1589	0.069865294
57	0x3bcc483c	0.006234197
58	0x3e4fdba0	0.20298624
59	0x3dd886d6	0.10572593
60	0xbcd75c85	-0.026289234
61	0xbdafa3da	-0.08576174
62	0xbd19e9d1	-0.0375765
63	0x3d2db75f	0.042411204
64	0x3e02e3ca	0.12782207
65	0xbe09a6f5	-0.13442595
66	0x3df4b3f8	0.11948389
67	0xbe66f367	-0.22553788
68	0xbe7b0c4c	-0.2451641
69	0x3d733445	0.05937602
70	0xbdb40632	-0.08790244
71	0x3cbbd130	0.022926897
72	0xbc10d8be	-0.008840738
73	0xbe3777cc	-0.17916793
74	0xbc80cb04	-0.015721805
75	0xbe58e6f0	-0.21181846
76	0x3e8276da	0.25481302
77	0x3b01d3b9	0.0019810034
78	0x3e0d5656	0.13802466
79	0xbdd8cb50	-0.10585654
80	0x3e813341	0.25234416
81	0xbda06dc4	-0.07833436
82	0x3d7321aa	0.059358276
83	0xbe871971	-0.26386598
84	0x3cc4c937	0.024021728
85	0xbe9b9182	-0.3038445
86	0x3e1802ab	0.14844768
87	0xbdeb1a63	-0.11479642
88	0xbbb71a50	-0.0055878535
89	0xbdc3e543	-0.095652126
90	0x3e0a3b3f	0.13499163
91	0x3d856398	0.065131366
92	0x3dd076df	0.10178923
93	0xbdce0019	-0.100586124
94	0xbd49b8ed	-0.049248625
95	0xbc9ddef5	-0.019271353
96	0x3e758f65	0.23980482
97	0xbe11c2c6	-0.14234456
98	0x3e16b2d8	0.14716661
99	0x3cc77401	0.024347307
100	0xbce4270d	-0.027850652
101	0xbde85867	-0.113449864
102	0x3d424426	0.047428273
103	0xbd3971e9	-0.04527465
104	0xbdd96a16	-0.106159374
105	0xbc0113ef	-0.007878288
106	0xbd8cb855	-0.06871096
107	0xbdde4144	-0.10852292
108	0xbd3384fd	-0.043828
109	0x3daf39b8	0.08555931
110	0x3d5d10c7	0.05397108
111	0xbb9c78c1	-0.004775137
112	0xbcfa3c31	-0.03054628
113	0x3c9a3a29	0.018826561
114	0x3d922a51	0.071369775
115	0x3e077014	0.13226348
116	0xbd6f5ec3	-0.05843998
117	0xbd8a0885	-0.06739906
118	0x3e5ba70d	0.21450444
119	0xbdc1d0a8	-0.09463626
120	0x3c99ec89	0.018789547
121	0xbc9a405c	-0.018829517
122	0xbd2549ec	-0.0403537
123	0x3e0bc60b	0.13649766
124	0x3d47ccb7	0.048779216
125	0xbdbd0312	-0.09229101
126	0x3d93bbd4	0.0721356
127	0xbc40da0f	-0.011770739
128	0x3e88450b	0.26615176
129	0x3c359c6b	0.011084656
130	0x3d4442eb	0.04791538
131	0x3d08edbe	0.033429854
132	0xbb8b9e61	-0.0042608236
133	0x3e883982	0.26606375
134	0x3e080185	0.1328183
135	0x3e4249de	0.1897349
136	0x3ded575b	0.11588927
137	0xbe2747f6	-0.16336045
138	0x3dcc2f71	0.09969986
139	0x3ca62299	0.02028017
140	0xbda77981	-0.08177472
141	0x3c3ef382	0.0116547365
142	0x3d9ca62d	0.07648883
143	0xbceca0d3	-0.02888528
144	0x3cac9d6a	0.021071155
145	0xbdf51777	-0.11967366
146	0x3dac0afc	0.084005326
147	0xbdcdb53d	-0.10044334
148	0xba595d5f	-0.00082918064
149	0xbbb7173e	-0.0055874875
150	0xbe3fb813	-0.18722562
151	0xbb6217de	-0.003449909
152	0xbd9cda06	-0.07658772
153	0xbe64f554	-0.2235921
154	0x3db3a7e3	0.08772256
155	0x3c071e2f	0.008246942
156	0x3ce216f2	0.027598832
157	0x3d97d52e	0.07413708
158	0xbd7c5413	-0.061603617
159	0xbe137b44	-0.14402491
160	0xbeb5e18b	-0.35523638
161	0x3d91c8a4	0.07118347
162	0xbd0478a3	-0.03234161
163	0x3d7a8f44	0.061171785
164	0x3c9e6e0d	0.019339586
165	0xbd0f38fe	-0.03496646
166	0xbe0010f4	-0.12506467
167	0x3ac436f0	0.0014969986
168	0x3ec59fa7	0.38598368
169	0x3de00169	0.10937769
170	0xbe0239a2	-0.12717298
171	0xbdb184d9	-0.08667917
172	0x3dbc8262	0.09204556
173	0x3e63e9ea	0.222572
174	0x3ecf23f5	0.4045712
175	0xbdf01c37	-0.117241316
176	0xbb8848b4	-0.0041590575
177	0x3dc78aeb	0.097432934
178	0x3d8e2039	0.0693974
179	0xbd8d8619	-0.06910343
180	0xbe53b1db	-0.20673315
181	0x3dae0cd7	0.08498543
182	0x3d004ac2	0.031321295
183	0x3d612c80	0.05497408
184	0xbe6fc855	-0.23416264
185	0xbd9fd035	-0.07803384
186	0xbdce661a	-0.10078068
187	0xbcb9a161	-0.02265996
188	0x3dced5cd	0.10099373
189	0xbe645809	-0.22299208
190	0x3d8dc2eb	0.06921943
191	0x3c1a90ec	0.009433966
192	0x3da11259	0.07864828
193	0xba8501b2	-0.00101476
194	0xbe3e57e3	-0.18588214
195	0x3e034219	0.12818183
196	0xbe4c1e2a	-0.19933382
197	0xbd41d6aa	-0.04732386
198	0xbce4a347	-0.027909888
199	0xbf06620b	-0.5249335
200	0x3dea7e6f	0.114498965
201	0x3ea35ee0	0.3190832
202	0x3e185fc5	0.14880283
203	0xbeb1f2d5	-0.3475558
204	0xbe4de4ae	-0.20106766
205	0xbeeccf17	-0.46251747
206	0x3edd58f3	0.43231925
207	0x3de28e80	0.11062336
208	0xbe819509	-0.25309017
209	0x3e9111b5	0.28333822
210	0x3c131606	0.008977419
211	0x3db96789	0.09052951
212	0x3d509211	0.05092055
213	0xbe43f672	-0.1913698
214	0x3e49808b	0.19677942
215	0x3deef730	0.11668241
216	0x3da82bc2	0.08211471
217	0xbe65a840	-0.22427464
218	0xbed478ce	-0.41498417
219	0x3e463631	0.1935661
220	0xbdafb6ac	-0.08579764
221	0x3e946cd7	0.28989288
222	0x3ea4fb61	0.32223037
223	0x3f158734	0.5840943
224	0xbe870597	-0.26371452
225	0x3d24c39e	0.040225618
226	0x3b6df03a	0.0036306516
227	0x3e11447b	0.1418628
228	0x3cd10cff	0.025518892
229	0xbe243e8c	-0.16039485
230	0x3cd9ce22	0.02658755
231	0x3e004101	0.12524797
232	0xbd762fce	-0.060104184
233	0xbe00663f	-0.12539004
234	0xbdf1607a	-0.117859796
235	0xbdc3f114	-0.095674664
236	0xbc1e9a14	-0.00968029
237	0xbe522b4f	-0.20524333
238	0x3e101848	0.14071763
239	0xbd54c834	-0.05194874
240	0x3da611f3	0.08108892
241	0x3dec67a1	0.11543203
242	0x3c901bee	0.017591443
243	0xbe9dd297	-0.3082473
244	0x3e89d6d4	0.26921713
245	0xbe8fb6e2	-0.28069216
246	0x3d2e5d44	0.042569414
247	0x3e10165e	0.14071032
248	0x3e51e677	0.20498072
249	0xbccf88d6	-0.025333803
250	0x3dcc8ca8	0.099877656
251	0xbe0ccbd9	-0.13749637
252	0xbe7d91d6	-0.24762663
253	0xbd133ea1	-0.0359484
254	0xbeafda50	-0.34346247
255	0xbe905ea2	-0.281972

base.cnn.0.bias f4 [32]
0	0xbdc65e9a	-0.096860126
1	0xbda64e95	-0.08120457
2	0xbe18a6ee	-0.14907429
3	0xbe4e0390	-0.20118546
4	0xbc812bd3	-0.015767967
5	0xbde78281	-0.113041885
6	0xbe37dd19	-0.17955436
7	0xbdf5d07c	-0.12002656
8	0xbdbccdd3	-0.09218945
9	0xbe1342c1	-0.14380933
10	0xbe2444f9	-0.16041936
11	0xbdd3b062	-0.10336377
12	0xbe178149	-0.14795412
13	0xbdb1a221	-0.08673502
14	0xbe76bc54	-0.24095279
15	0xbe24e83e	-0.16104218
16	0xbd88642d	-0.06659732
17	0xbe17eab4	-0.14835626
18	0xbd8f46c7	-0.069959216
19	0xbe5d8288	-0.21631825
20	0xbdd09baa	-0.101859406
21	0xbd5ccc5b	-0.053905826
22	0xbe5bd2bc	-0.21467108
23	0xbe3293a6	-0.17439136
24	0xbe0f1ecc	-0.13976592
25	0xbe10b6b5	-0.14132197
26	0xbe4ef3cd	-0.2021019
27	0xbe023958	-0.12717187
28	0xbe0a4751	-0.13503768
29	0xbdbb6a97	-0.0915119
30	0xbdddd2e9	-0.108312435
31	0xbde03fec	-0.10949692

base.cnn.2.weight f4 [64, 32, 3, 3]
0	0xbbdb7b9e	-0.006698086
1	0xbe0b90fb	-0.13629524
2	0xbe8f0303	-0.27931985
3	0xbe0d5c75	-0.13804801
4	0x3e89be80	0.26903152
5	0x3da2aa68	0.07942659
6	0xbe01a3f3	-0.12660198
7	0x3e180a1e	0.1484761
8	0x3d1a7ed4	0.03771861
9	0x3d8ef3f6	0.069801256
10	0xbe68d056	-0.22735724
11	0x3dfd1f8f	0.12359535
12	0x3d3a738c	0.04552035
13	0x3e11c3b7	0.14234816
14	0x3e213c7c	0.15745729
15	0xbeaa7853	-0.33294925
16	0xbd52f1da	-0.05150018
17	0x3e7f3c7c	0.24925417
18	0x3dcfab2f	0.101400726
19	0x3ba0d9a0	0.0049087554
20	0x3df62497	0.12018698
21	0xbdebeb62	-0.11519505
22	0x3d553e95	0.052061636
23	0x3d075be8	0.033046633
24	0x3d65f209	0.056139026
25	0x3dbe1f4e	0.09283315
26	0x3b1e7a1b	0.0024181667
27	0x3eb65c8f	0.35617492
28	0xbe6dbfbd	-0.23217674
29	0x3d983434	0.07431832
30	0xbdef7a4a	-0.11693247
31	0x3d69f65d	0.057119716
32	0x3e97e864	0.29669487
33	0x3db0d099	0.08633537
34	0xbdb74d66	-0.089503095
35	0x3e4b4770	0.1985147
36	0xbe041ab9	-0.12900819
37	0xbea7efca	-0.32800132
38	0xbe01a75e	-0.12661502
39	0xbe2026ce	-0.15639803
40	0x3e4e6bc9	0.20158304
41	0xbea3df90	-0.32006502
42	0x3e876010	0.26440477
43	0x3da7af0d	0.08187685
44	0xbdb9cdde	-0.09072469
45	0x3e12f656	0.14351782
46	0x3e070dfd	0.1318893
47	0xbcfbb0ae	-0.030723896
48	0xbdd58db3	-0.104274176
49	0xbd9ffc52	-0.07811798
50	0x3e11c35c	0.1423468
51	0xbc851ad9	-0.016248154
52	0x3c7b05c7	0.015321202
53	0x3e3c00e7	0.18359719
54	0xbe6468e1	-0.22305633
55	0x3e7cfcd8	0.24705827
56	0x3c3597e6	0.011083579
57	0x3cabd8e6	0.020977449
58	0xbc3cb12c	-0.01151685
59	0x3ea0fd8b	0.31443438
60	0xbda1091f	-0.07863068
61	0xbe2b0e2d	-0.16704626
62	0x3e05924a	0.13044086
63	0x3e76d2e9	0.24103893
64	0x3e1505ff	0.14553069
65	0x3bc58ef9	0.0060290066
66	0xbe10e52d	-0.14149924
67	0x3ca98637	0.020693881
68	0x3e66437d	0.22486682
69	0xbcda51ff	-0.026650427
70	0xbe37d944	-0.17953974
71	0xbe7f4afc	-0.24930948
72	0xbbd11408	-0.0063805617
73	0x3e707a4c	0.23484153
74	0xbd36f557	-0.044667568
75	0x3e924047	0.28564665
76	0x3e34c9f0	0.17655158
77	0xbe2468bd	-0.1605558
78	0xbee9e20c	-0.45680273
79	0xbd0f49a5	-0.034982342
80	0xbdcba2ec	-0.09943184
81	0x3de3a7e0	0.11116004
82	0x3e6d99c9	0.23203196
83	0x3d8f3c95	0.06993977
84	0xbd1c3f5c	-0.03814636
85	0xbe883c69	-0.2660859
86	0x3df140e8	0.11779958
87	0xbe1cf9b7	-0.15329634
88	0x3e5478a3	0.20749144
89	0xbe00a38d	-0.1256239
90	0x3e354ffb	0.17706291
91	0x3a831919	0.0010001987
92	0x3e95878e	0.29204983
93	0xbb4d4eac	-0.003132741
94	0x3e35df37	0.17760931
95	0x3df980c9	0.12182767
96	0x3d357f89	0.04431108
97	0x3d2b3840	0.04180169
98	0x3e34f9af	0.17673372
99	0x3d97b2ef	0.07407176
100	0x3d662c71	0.056194726
101	0x3d87f4df	0.06638502
102	0x3ea30176	0.31837052
103	0xbd603b60	-0.054744124
104	0x3e3e5308	0.18586361
105	0xbd96b455	-0.07358614
106	0x3dba660c	0.09101495
107	0x3ca26f58	0.019828483
108	0xbc4cebb5	-0.012507369
109	0x3e692df3	0.22771434
110	0x3d663481	0.056202415
111	0xbe23ddd6	-0.16002592
112	0x3e127190	0.14301133
113	0x3ddc3f45	0.10754255
114	0x3e7ffddf	0.24999188
115	0x3e29f452	0.16597107
116	0x3e8cbbfa	0.27487165
117	0xbd2e064d	-0.042486478
118	0x3e162fa5	0.14666612
119	0xbe960686	-0.29301852
120	0x3c00f84c	0.007871699
121	0x3dc3f34b	0.09567889
122	0x3cf31831	0.029674621
123	0x3d80208c	0.06256208
124	0x3e13980b	0.14413469
125	0xbece6074	-0.40307963
126	0x3dbdb43e	0.09262894
127	0x3ead2b56	0.33822125
128	0xbd951836	-0.072800085
129	0xbdd1271b	-0.10212537
130	0x3c1f5ab2	0.009726213
131	0x3e7a6842	0.24453834
132	0x3ce66fc7	0.028129471
133	0xbd4c89a8	-0.049935967
134	0x3d94d3c9	0.07266957
135	0x3e5ba382	0.21449092
136	0xbdac89a3	-0.084246896
137	0x3e25e77e	0.16201589
138	0xbdd04691	-0.101697095
139	0x3da5be35	0.0809292
140	0x3e0bcbef	0.13652013
141	0x3dde7547	0.10862213
142	0xbd85891e	-0.06520294
143	0x3da980a3	0.08276489
144	0x3ddfd8a3	0.10929992
145	0x3db7b87f	0.08970737
146	0x3dc6efcb	0.09713706
147	0xbe1b9ed0	-0.15197301
148	0xbda68860	-0.0813148
149	0xbe011de0	-0.12609053
150	0x3e8c6655	0.27421823
151	0xbc6d75ac	-0.014493387
152	0x3e5e942a	0.21736208
153	0xbd364290	-0.044497073
154	0xbd2d219e	-0.042268388
155	0xbd421ead	-0.047392536
156	0xbd8696e6	-0.0657175
157	0x3e313404	0.17304999
158	0x3e7ec334	0.24879152
159	0x3e8ef2f9	0.27919748
160	0x3e03dabe	0.12876412
161	0xbd8bfa0a	-0.068348005
162	0x3e83c183	0.25733575
163	0xbe0981ba	-0.13428393
164	0x3e2711e4	0.16315418
165	0xbccb1edb	-0.024794986
166	0xbcf0e67c	-0.029406779
167	0x3d0935ac	0.03349845
168	0xbe0212f2	-0.1270254
169	0x3d1a473c	0.03766559
170	0x3c00311b	0.007824208
171	0x3e180f9a	0.14849702
172	0xbe956ef0	-0.291862
173	0xbe1549c4	-0.1457892
174	0xbd41e42d	-0.047336746
175	0x3d84a356	0.06476466
176	0x3e05b2d7	0.13056503
177	0xbe923f1f	-0.28563783
178	0x3cc4dc45	0.024030814
179	0x3c93f46f	0.018060891
180	0x3d1d2d06	0.038373016
181	0x3c72628b	0.014794002
182	0xbdfa9ef3	-0.122373484
183	0xbd3038bb	-0.043022852
184	0x3e363e74	0.17797261
185	0x3d14b9bc	0.036309943
186	0xbdc8f020	-0.09811425
187	0x3dc20d82	0.09475233
188	0xbdb1d0b5	-0.08682386
189	0xbe0779ad	-0.1323001
190	0x3d8c2f60	0.068449736
191	0x3ec25dfe	0.37962335
192	0xbd1d4b23	-0.038401734
193	0x3ccbcba4	0.024877377
194	0x3dac4199	0.08410949
195	0x3d734ff3	0.059402417
196	0x3e33d1c5	0.1756049
197	0x3e3f9b45	0.18711574
198	0x3dd499af	0.10380875
199	0x3e26a2ef	0.16273092
200	0x3da5e6a1	0.081006296
201	0xbe4e0ed1	-0.2012284
202	0xbdf34cf0	-0.11879909
203	0x3d2c70f7	0.04209992
204	0x3e6454d2	0.22297981
205	0xbdf62785	-0.120192565
206	0x3d82d7f5	0.06388847
207	0xbe44bc7c	-0.19212526
208	0x3e768f7e	0.24078175
209	0x3e14ba24	0.14524132
210	0xbe113ebc	-0.14184088
211	0xbd049b79	-0.032374833
212	0xbe09d911	-0.1346171
213	0xbd129c9c	-0.035793886
214	0x3dc2cce6	0.095117375
215	0xbdfd43a8	-0.1236642
216	0xbc95801e	-0.018249568
217	0xbe5c02eb	-0.21485488
218	0x3c99c8d7	0.018772526
219	0xbe56029c	-0.20899433
220	0x3e970038	0.29492354
221	0x3e11c13c	0.1423387
222	0xbbd4e2e2	-0.006496773
223	0xbe33cb43	-0.17558007
224	0xbe8972d5	-0.26845422
225	0xbd9de0a5	-0.07708863
226	0xbe804156	-0.25049847
227	0xbd009e56	-0.031401
228	0xbe2b641b	-0.16737406
229	0x3dea2542	0.114328876
230	0xbddb7657	-0.10715931
231	0x3e2e198b	0.17001931
232	0x3e178fc8	0.14800942
233	0x3daa6038	0.083191335
234	0x3db57e93	0.08862033
235	0xbc5c59a7	-0.013449109
236	0x3e337fa2	0.17529157
237	0xbd3bd8fd	-0.045861233
238	0x3d80e0cf	0.06292879
239	0xbdcbded1	-0.09954608
240	0xbe00ad0c	-0.12566012
241	0xbce86375	-0.028367737
242	0xbdfa1063	-0.12210157
243	0x3e50b545	0.20381649
244	0x3b315adc	0.0027062213
245	0x3c48c11d	0.012253073
246	0x3cfda696	0.030963223
247	0x3ea9f027	0.33191034
248	0xbe4b61fb	-0.19861595
249	0x3e67ee8c	0.22649592
250	0x3def1c47	0.11675315
251	0x3de9039f	0.11377644
252	0xbe8b0a61	-0.27156356
253	0xbdd4747f	-0.10373782
254	0xbd9b5bfe	-0.075859055
255	0xbe140077	-0.14453302

base.cnn.2.bias f4 [64]
0	0x3dad0d3c	0.0844979
1	0xbdc470d1	-0.095918305
2	0xbdeb4613	-0.11487975
3	0xbdc527f1	-0.09626759
4	0xbce4624b	-0.027878901
5	0xbcfabe5b	-0.030608347
6	0xbdab0c89	-0.08352
7	0xbda679c7	-0.08128696
8	0xbc85f45d	-0.016351873
9	0xbe296976	-0.16544136
10	0xbbae85d4	-0.005326012
11	0x3d85061e	0.064953074
12	0xbb73e225	-0.003721365
13	0xbd9ba44d	-0.07599697
14	0xbd765f3e	-0.060149424
15	0x3d552500	0.05203724
16	0xbd4b48eb	-0.049630087
17	0x3cedad0b	0.029013177
18	0xbd50c26b	-0.05096666
19	0xbe15471e	-0.1457791
20	0xbc34b000	-0.01102829
21	0x3c8dee9a	0.017325688
22	0xbde49f22	-0.11163165
23	0xbe05c086	-0.13061723
24	0xbc4f0512	-0.012635486
25	0xbc3f3896	-0.011671206
26	0xbd5a52cc	-0.053301618
27	0xbbd17621	-0.006392256
28	0xbc56c8c9	-0.013109394
29	0x3cea2b64	0.028585143
30	0xbd874dc0	-0.066066265
31	0xbe49b247	-0.19696914
32	0xbc75ebb7	-0.015009812
33	0xbd760d28	-0.06007114
34	0x3d32b4c9	0.04362944
35	0x3dc199e2	0.09453179
36	0xbca57c59	-0.020200895
37	0x3cd8da1c	0.02647119
38	0xbe4fb5bd	-0.20284171
39	0xbde568bb	-0.112016164
40	0xbd9ddafa	-0.07707782
41	0xbcc70d55	-0.02429835
42	0xbd546836	-0.051857196
43	0xbd934716	-0.07191293
44	0xbe39197e	-0.18076131
45	0xbd94e6f1	-0.07270611
46	0xbc31118f	-0.010807409
47	0xbd96fb46	-0.07372145
48	0xbdfb4eb5	-0.122708715
49	0xbdf3228b	-0.11871823
50	0xbe621c03	-0.22080998
51	0xbda522e0	-0.080632925
52	0xbb05b028	-0.0020399187
53	0x3cf03427	0.029321743
54	0xbd360635	-0.044439513
55	0xbdbe4c03	-0.09291842
56	0x3ce816e4	0.028331228
57	0xbd7a2c81	-0.0610776
58	0xbcc3e7f9	-0.023914324
59	0xbe27b6cb	-0.16378324
60	0xbdaeb3aa	-0.08530362
61	0xbdf372b5	-0.11887113
62	0xbc772504	-0.015084509
63	0x3c923093	0.017845428

base.cnn.4.weight f4 [32, 64, 3, 3]
0	0xbdd694b5	-0.10477582
1	0x3d98fbc5	0.07469896
2	0xbd031675	-0.03200384
3	0x3b3a8802	0.0028462415
4	0x3e0e952f	0.13924097
5	0x3d5138f3	0.0510797
6	0xbdd2e88d	-0.10298262
7	0xbe2bff54	-0.16796619
8	0x3d4c29d1	0.049844567
9	0xbe895302	-0.26821142
10	0xbd474647	-0.048651006
11	0x3d57ff87	0.052733924
12	0x3e424091	0.18969943
13	0xbe1402e8	-0.14454234
14	0xbe2d57b1	-0.16927983
15	0x3e30f2fc	0.17280191
16	0x3c3e0e37	0.011600069
17	0xbcb2b906	-0.021816742
18	0xbed96f01	-0.42467502
19	0xbb85ddef	-0.0040852944
20	0x3dfcdef4	0.123472124
21	0xbd0a5d07	-0.033780124
22	0xbd71baae	-0.059015922
23	0x3e17293e	0.14761826
24	0x3eb2e572	0.34940678
25	0x3da417d0	0.080123544
26	0xbb2aeb4d	-0.0026080192
27	0xbe1a1f73	-0.1505106
28	0xbd86f1c6	-0.065890834
29	0x3ea6b530	0.3256011
30	0x3d81f3ae	0.06345306
31	0x3e1064ee	0.14101002
32	0xbd4c8f1a	-0.04994116
33	0x3da7087d	0.08155916
34	0x3ce258c8	0.027630225
35	0xbe51f3a2	-0.20503095
36	0x3e9979a1	0.29975608
37	0x3e93b832	0.28851467
38	0x3dc0677c	0.09394738
39	0xbd831601	-0.06400681
40	0xbe114aef	-0.14188741
41	0x3d2e8921	0.042611245
42	0x3e82c636	0.25541848
43	0x3de871b2	0.11349811
44	0xbe4d7fe9	-0.20068325
45	0xbe294e21	-0.1653371
46	0x3c51cc0f	0.012804999
47	0x3d57ab6e	0.052653722
48	0xbd1ec6b7	-0.038763728
49	0xbc95b65f	-0.018275438
50	0xbe40fae2	-0.18845704
51	0x3db13315	0.08652321
52	0x3e1507d1	0.14553763
53	0xbe729a0a	-0.23691574
54	0xbe029d6c	-0.12755364
55	0x3cba692b	0.022755226
56	0x3de307ce	0.11085473
57	0xbe4f04dd	-0.20216699
58	0xbea23692	-0.3168226
59	0x3cad574a	0.021159787
60	0xbdfefc59	-0.12450475
61	0xbc27671a	-0.010217452
62	0xbd89e640	-0.0673337
63	0x3bda91f6	0.006670232
64	0xbe92633b	-0.28591332
65	0xbc97fc3e	-0.018552896
66	0x3d046708	0.03232482
67	0xbca89a61	-0.020581426
68	0xbeb2508c	-0.34827077
69	0x3e45a8ae	0.19302627
70	0x3d41e61f	0.0473386
71	0xbe082f79	-0.1329936
72	0xbd29d0af	-0.04145878
73	0xbe1eb527	-0.15498792
74	0xbe0d233b	-0.1378297
75	0xbc47a8d3	-0.012186247
76	0x3d15c81a	0.036567785
77	0xbed63101	-0.41834262
78	0x3d6f91dc	0.05848871
79	0xbcceca25	-0.025242874
80	0xbe0ebe88	-0.1393987
81	0x3e82275e	0.2542066
82	0x3d973b50	0.0738436
83	0x3d737c70	0.059444845
84	0x3e3541cc	0.17700881
85	0x3dd5712f	0.10421979
86	0xbd99d88c	-0.07512006
87	0x3ef3ce60	0.4761839
88	0xbe24a207	-0.16077434
89	0x3b07bcc1	0.0020711871
90	0x3e07aedb	0.13250296
91	0x3d7870fe	0.060654633
92	0x3de8810c	0.11352739
93	0xbe8b302f	-0.271852
94	0xbd837122	-0.06418063
95	0xbd7ec58d	-0.062200118
96	0xbd18f650	-0.037344277
97	0xb9e5cbcd	-0.00043830127
98	0xbe169074	-0.14703542
99	0xbdef528b	-0.11685666
100	0x3d647a43	0.05578066
101	0xbe5c6052	-0.21521118
102	0xbd0a4e90	-0.03376633
103	0x3e32a6e4	0.17446476
104	0xbea7f7a9	-0.32806137
105	0xbe8315d7	-0.256026
106	0xbc3ce957	-0.011530242
107	0x3d55930e	0.052142195
108	0x3df43077	0.119233064
109	0xbe1b58db	-0.15170614
110	0x3ca810ab	0.02051576
111	0xbe8ce68e	-0.2751965
112	0xbd96b8e9	-0.073594876
113	0xbd9ea454	-0.07746187
114	0xbe34be21	-0.17650653
115	0xbd5385f0	-0.051641405
116	0xbdb3ebdd	-0.08785222
117	0xbd3f35ed	-0.046682287
118	0x3d0a24db	0.033726554
119	0x3e1f9859	0.1558546
120	0x3d82cd9a	0.06386872
121	0x3dccc9cf	0.099994294
122	0xbe067097	-0.13128887
123	0xbd95e2f7	-0.07318681
124	0xbd91b5c7	-0.071147494
125	0xbdb3d5c7	-0.08781009
126	0x3e1c1032	0.15240553
127	0x3c8f4efe	0.017493721
128	0x3d28b856	0.04119142
129	0xbe192c46	-0.14958295
130	0xbd2f81dd	-0.042848457
131	0x3d96aade	0.07356809
132	0xbc68bd03	-0.01420522
133	0xbcc51454	-0.024057545
134	0xbebb44f8	-0.36576056
135	0x3d891b3b	0.06694647
136	0x3e2120dc	0.15735191
137	0xbe061842	-0.13095191
138	0xbdf15287	-0.11783319
139	0xbe453243	-0.19257455
140	0xbc4f95c3	-0.012669983
141	0xbe1e3b69	-0.1545235
142	0xbdac381a	-0.08409138
143	0x3e30a90d	0.17251988
144	0x3da7532c	0.08170161
145	0xbd9054b5	-0.070474066
146	0xbdf35385	-0.118811645
147	0xbd08557a	-0.03328464
148	0x3d9bc50f	0.07605945
149	0xbdd948d2	-0.106095925
150	0xbe13c827	-0.14431821
151	0xbe54e202	-0.2078934
152	0xbda9c01a	-0.082885936
153	0xbd3aac38	-0.045574397
154	0xbdfc4afc	-0.1231899
155	0x3e377370	0.1791513
156	0xbe8cff6f	-0.2753863
157	0x3e528136	0.20557103
158	0xbe1aace6	-0.15105018
159	0xbd9ae5fb	-0.075633965
160	0xbdb003b2	-0.08594455
161	0xbeb80a31	-0.35945275
162	0xbd98294b	-0.07429751
163	0xbbfbb05d	-0.0076809363
164	0xbdad2a6d	-0.08455358
165	0xbd6e1626	-0.05812659
166	0x3e1c27a4	0.15249497
167	0x3a1800bf	0.0005798451
168	0xbd5c01fc	-0.05371283
169	0xbe549206	-0.20758829
170	0x3e08719e	0.13324592
171	0xbd82b403	-0.06381991
172	0x3bf702a8	0.0075381584
173	0xbe0c1814	-0.1368106
174	0x3dfb022b	0.12256273
175	0x3d7d1d7c	0.061795697
176	0xbd899074	-0.06717005
177	0x3de30bdd	0.11086247
178	0x3d188c7a	0.037243344
179	0x3d44a571	0.04800934
180	0x3b69aa3a	0.0035654441
181	0xbe97d6a6	-0.2965595
182	0xbdf8c07e	-0.1214609
183	0x3dc42ea4	0.095792085
184	0x3ddf877a	0.10914512
185	0xbd66f3c5	-0.05638482
186	0xbe67994e	-0.22617075
187	0x3d630f15	0.055434305
188	0xbd61e436	-0.05514928
189	0xbdb35373	-0.08756151
190	0x3d1ce10e	0.038300566
191	0xbe3a8d21	-0.18217899
192	0xbe8987c7	-0.26861402
193	0x3e829827	0.25506708
194	0x3d288b7f	0.04114866
195	0x3dd1953b	0.102335416
196	0xbe280f71	-0.1641214
197	0xbe5969f7	-0.21231829
198	0x3d7a64a8	0.06113115
199	0x3e4c9bf9	0.19981374
200	0xbd01f8bb	-0.03173135
201	0x3eaa63c7	0.3327925
202	0xbe93c84b	-0.2886375
203	0xbe160392	-0.146498
204	0x3e3c2455	0.18373235
205	0xbe8059ab	-0.2506841
206	0x3e086487	0.13319598
207	0x3ccdc28c	0.025117181
208	0x3e04b903	0.12961201
209	0x3ce8a052	0.02839676
210	0x3e0564ce	0.13026735
211	0xbd0c29f7	-0.03421971
212	0xbe2d62d8	-0.16932237
213	0xbdd6df13	-0.10491767
214	0x3d79b808	0.06096652
215	0xbe2bcb71	-0.16776825
216	0xbd1ab792	-0.037772723
217	0xbc90e13c	-0.017685525
218	0xbe9b0a1b	-0.30281147
219	0x3d669049	0.056289945
220	0x3d388117	0.045044985
221	0xbddc186a	-0.10746844
222	0xbcd01e40	-0.02540505
223	0x3e014302	0.12623218
224	0x3e72b3f3	0.23701458
225	0xbdbb9912	-0.09160055
226	0xbe101ec6	-0.14074239
227	0xbccf96c3	-0.025340443
228	0xbdb351f5	-0.087558664
229	0x3e7476e1	0.23873474
230	0x3dffac5d	0.124840476
231	0xbe648a32	-0.22318342
232	0xbecfbf93	-0.40575847
233	0x3e0f986b	0.14022987
234	0xbd8dbf56	-0.0692126
235	0x3d8ff59b	0.070292674
236	0x3d5d5d56	0.05404409
237	0x3cd3ced2	0.025855456
238	0x3d9f64c5	0.07782892
239	0xbe07c775	-0.1325968
240	0x3cfbaa46	0.030720841
241	0xbdb8f8b7	-0.090318136
242	0xbe016245	-0.12635143
243	0x3e78027c	0.24219698
244	0xbe87c2fb	-0.26515946
245	0x3dd5871b	0.1042616
246	0xbddb527c	-0.10709092
247	0x3d2ba00f	0.04190069
248	0xbde5299e	-0.111895785
249	0xbc7947a2	-0.0152148325
250	0xbb2ae226	-0.0026074736
251	0xbdf44953	-0.11928048
252	0xbe16b48c	-0.1471731
253	0xbcc9b2f3	-0.024621462
254	0x3b38ed91	0.0028217772
255	0xbe329985	-0.17441376

base.cnn.4.bias f4 [32]
0	0x3c87c698	0.016574189
1	0xbda61946	-0.08110289
2	0xbd32a43a	-0.04361365
3	0xbd8c1726	-0.06840353
4	0xbc971b82	-0.018445734
5	0xbe044075	-0.12915213
6	0xbdbb96f1	-0.09159649
7	0xbe2e017d	-0.16992755
8	0xbdf189fa	-0.11793895
9	0xbdcf2b44	-0.10115674
10	0xbcfcedc8	-0.030875102
11	0xbdcdab25	-0.10042409
12	0xbe1f7737	-0.1557282
13	0xbd20798f	-0.039178427
14	0xbd6f27ce	-0.05838757
15	0xbdde6678	-0.10859388
16	0xbcdd72eb	-0.027032336
17	0xbd8fbb39	-0.07018132
18	0xbd7fd3b7	-0.062457766
19	0xbd9c71a9	-0.076388665
20	0xbcbb6497	-0.022875113
21	0xbd8b3c54	-0.06798616
22	0xbd653bea	-0.05596534
23	0xbcd1e4da	-0.02562182
24	0xbe056f8a	-0.1303083
25	0xbd69eea8	-0.057112366
26	0xbd610568	-0.054936796
27	0xbcd989de	-0.026554998
28	0xbde132f3	-0.10996046
29	0xbd80aced	-0.06282983
30	0xbe0dc21b	-0.13843577
31	0xbd8e9d67	-0.06963616

base.cnn.7.weight f4 [64, 800]
0	0x3e10b5bb	0.14131825
1	0x3d5ec1c5	0.05438401
2	0xbe90b9cc	-0.28266752
3	0xbcfc7b42	-0.030820493
4	0xbdac11da	-0.084018424
5	0x3e3b23bf	0.18275355
6	0x3d599923	0.05312456
7	0x3e3603c4	0.17774874
8	0xbd8e1735	-0.0693802
9	0xbe714de9	-0.23564877
10	0xbd14c455	-0.03632005
11	0x3d3ed0c1	0.046585802
12	0x3d73331e	0.05937492
13	0xbc94f86a	-0.01818486
14	0x3e2e0a76	0.16996178
15	0xbea11104	-0.31458294
16	0xbab8f81d	-0.001411203
17	0xbdefd943	-0.11711361
18	0x3d6267d7	0.05527481
19	0xbe025917	-0.12729298
20	0xbd2b57f0	-0.04183191
21	0xbdddc58f	-0.10828697
22	0xbddf4269	-0.109013386
23	0x3dac3e3a	0.08410306
24	0xbd6fb4fb	-0.058522206
25	0x3e171c85	0.14756973
26	0xbdd787d7	-0.10523956
27	0xbd8aa12a	-0.06769021
28	0x3bb8e9b7	0.0056430954
29	0xbec10879	-0.37701777
30	0x3e91e383	0.2849389
31	0x3e6d993f	0.2320299
32	0x3ddf4780	0.109023094
33	0x3e1168dd	0.14200158
34	0xbe5b6275	-0.21424277
35	0x3dd02f78	0.10165304
36	0xbd2c313d	-0.042039145
37	0x3de82bc8	0.113364756
38	0x3d946ab9	0.07246918
39	0xbd2fdf55	-0.042937595
40	0x3e045f33	0.1292694
41	0xbe4f0c18	-0.20219457
42	0x3d5fdb65	0.05465259
43	0x3cf733a5	0.030175993
44	0x3dbc2fcf	0.09188806
45	0x3dd37b14	0.1032621
46	0x3e94298a	0.28937942
47	0x3dc4a023	0.09600856
48	0x3e1e7a2e	0.15476295
49	0x3e80fdce	0.25193638
50	0x3de3edd5	0.11129347
51	0xbddae825	-0.10688809
52	0x3e66a72b	0.22524707
53	0x3de2942c	0.11063418
54	0x3ded7944	0.11595395
55	0xbd4c4281	-0.04986811
56	0x3ddbbdce	0.10729562
57	0x3cd88a49	0.026433127
58	0xbd665336	-0.0562317
59	0x3ddb7aa5	0.10716752
60	0xbe5f9cdc	-0.21837181
61	0x3ec2c06a	0.38037425
62	0x3e36e2d5	0.17859967
63	0xbe679964	-0.22617108
64	0x3df8e7b9	0.121535726
65	0x3baeae94	0.00533087
66	0xbd52af73	-0.051436853
67	0x3e445b54	0.19175464
68	0xbccd78a0	-0.025081933
69	0xbd9a3a89	-0.07530696
70	0xbc5f1a93	-0.013617176
71	0x3e5bbd47	0.21458922
72	0x3e479865	0.19491728
73	0x3d1de1e1	0.038545493
74	0xbc2bcf1e	-0.010486392
75	0x3dd42cd5	0.103601135
76	0x3e6a8927	0.22903882
77	0x3e80d877	0.2516515
78	0xbd4f4689	-0.050604377
79	0x3bf0a657	0.007344048
80	0x3dba136a	0.09085734
81	0xb9d33e4e	-0.00040291477
82	0x3ea69088	0.32532144
83	0x3d40f224	0.047105923
84	0x3dd747fd	0.105117775
85	0xbce89a57	-0.028393907
86	0x3ddf75ac	0.10911116
87	0xbcb4ddcb	-0.022078415
88	0x3e8d772b	0.2762998
89	0x3dca5708	0.09879881
90	0xbe4b0a95	-0.19828255
91	0x3d9c45a6	0.07630472
92	0x3d985cef	0.07439601
93	0xbcbda8d2	-0.023151789
94	0xbe02e8fe	-0.12784192
95	0x3baeb244	0.0053313095
96	0xbe4bbd5a	-0.1989645
97	0xbd4a7dac	-0.049436256
98	0x3e09ef04	0.13470083
99	0xbdeffe32	-0.11718406
100	0x3e7baa93	0.24576788
101	0x3d7dc81a	0.06195841
102	0x3d5cfcae	0.05395191
103	0x3e6153b4	0.22004586
104	0xbe142c33	-0.14469986
105	0x3bc76eac	0.006086191
106	0xbd8ee858	-0.0697791
107	0xbe3025b5	-0.17201884
108	0xbc683cc5	-0.014174645
109	0x3e24daef	0.16099142
110	0xbdb4ac93	-0.088219784
111	0x3dedeebe	0.11617802
112	0x3d9b26ca	0.07575758
113	0xbd9c89b2	-0.07643451
114	0x3d38facb	0.04516105
115	0xbc9a91cc	-0.01886835
116	0xbee4b42a	-0.44668704
117	0xbc3e2245	-0.01160485
118	0xbe5501b7	-0.20801435
119	0x3c9524aa	0.01820596
120	0x3ecdf646	0.40226954
121	0x3e8dd72d	0.2770323
122	0xbe2ce6ab	-0.16884868
123	0x3b6b60c9	0.0035915843
124	0xbbf7d693	-0.007563421
125	0xbcb5db3a	-0.022199262
126	0xbd113b6b	-0.035457056
127	0x3c3d53f5	0.011555661
128	0x3e20f2c0	0.15717602
129	0xbce114d8	-0.02747576
130	0x3e0cc617	0.1374744
131	0x3e11e88f	0.1424887
132	0xbd8fd9ea	-0.07023986
133	0x3d0ba676	0.034094296
134	0x3b3a0a24	0.0028387392
135	0x3d442338	0.04788515
136	0x3e6d09ea	0.23148313
137	0x3e4bfd20	0.19920778
138	0xbd1d27ab	-0.03836791
139	0xbe6af4b7	-0.22944914
140	0x3d78f1c0	0.060777426
141	0xbd082c1d	-0.033245195
142	0x3e2c8732	0.16848448
143	0xbdce31da	-0.10068102
144	0xbddfbcdb	-0.10924693
145	0x3dbcc362	0.09216954
146	0x3d4ea80a	0.050453223
147	0x3ebcbf7f	0.3686485
148	0x3e80b5f4	0.2513882
149	0xbdb57694	-0.088605076
150	0x3db9c76d	0.090712406
151	0xbe66de5c	-0.22545761
152	0xbd90f190	-0.070773244
153	0xbe1fb608	-0.15596783
154	0xbc87aea5	-0.01656277
155	0xbdb38c16	-0.08766954
156	0xbe4e8d37	-0.20171057
157	0xbd4511a8	-0.04811254
158	0xbe0b4eaa	-0.13604227
159	0xbe28f31c	-0.16498989
160	0x3e3ea04b	0.18615834
161	0xbcbdcfc5	-0.023170361
162	0xbdaad26a	-0.083409145
163	0xbd6930c4	-0.056931272
164	0x3e8450f6	0.25843018
165	0x3d9110ab	0.07083257
166	0x3e940a0b	0.28913912
167	0x3e8ba0e9	0.27271202
168	0x3cc2e9aa	0.02379306
169	0xbd3c4967	-0.04596844
170	0xbddf5294	-0.109044224
171	0x3cd8eda0	0.026480496
172	0xbdcda1b4	-0.10040608
173	0x3de22f1c	0.11044142
174	0xbd2ef9d1	-0.042718712
175	0xbd2dadab	-0.04240195
176	0xbe54561c	-0.20735973
177	0xbd85d1c4	-0.0653415
178	0xbd73fef6	-0.05956932
179	0x3d142d88	0.036176234
180	0x3d450e0f	0.04810911
181	0x3d95647f	0.07294559
182	0xbd09353e	-0.03349804
183	0x3da23420	0.07920098
184	0xbd3e22d7	-0.046419945
185	0x3e11a33f	0.1422243
186	0x3bf16122	0.0073663155
187	0xbddfcb64	-0.109274656
188	0xbd8702eb	-0.065923534
189	0xbec11687	-0.377125
190	0x3dbdca6b	0.09267124
191	0x3d100156	0.035157524
192	0x3c804699	0.015658664
193	0x3db5c599	0.088755794
194	0x3ced732b	0.02898558
195	0x3db0072d	0.08595119
196	0x3c94cdbc	0.018164508
197	0xbd8c514d	-0.068514444
198	0xbd91f369	-0.07126505
199	0xbe81b979	-0.25336817
200	0x3db15dcb	0.08660468
201	0xbcdc68f0	-0.026905507
202	0x3dc813db	0.09769412
203	0x388a8628	6.605341e-05
204	0xbe566a27	-0.20938931
205	0x3d6fec3b	0.058574896
206	0xbdc60b88	-0.09670168
207	0x3e2c052e	0.16798851
208	0xbd3bbcdd	-0.04583441
209	0xbcfd0db3	-0.030890321
210	0xbd30d6e4	-0.043173686
211	0xbe0905c9	-0.13381113
212	0xbd6ac107	-0.05731299
213	0x3ddb53a6	0.10709314
214	0xbd1b3c90	-0.037899554
215	0x3dd07558	0.101786315
216	0x3e55833a	0.2085084
217	0x3eabcf7b	0.33556733
218	0x3d96c972	0.073626414
219	0x3dc7bd4d	0.09752903
220	0x3e1356d8	0.14388597
221	0xbddea6af	-0.10871636
222	0x3b318f41	0.0027093443
223	0x3d8872ab	0.06662496
224	0x3da7cfe3	0.08193948
225	0x3e41beaf	0.18920396
226	0xbda37eec	-0.07983193
227	0x3d1006f4	0.03516288
228	0xbe3f8a55	-0.18705113
229	0x3e243c57	0.16038643
230	0x3e06a150	0.13147473
231	0x3d855d54	0.065119416
232	0xbd7fa79a	-0.062415697
233	0x3e844c6d	0.25839558
234	0x3dc40701	0.095716484
235	0xbdabfb25	-0.083975114
236	0x3de99ff5	0.114074625
237	0x3dba18ff	0.09086799
238	0x3eee7d07	0.46579763
239	0x3ecd8542	0.4014073
240	0xbc67417c	-0.014114734
241	0xbd1ddd40	-0.03854108
242	0xbe432810	-0.19058251
243	0x3d89ccc4	0.06728509
244	0xbdb34197	-0.08752745
245	0x3db43783	0.087996505
246	0xbca6fd35	-0.02038441
247	0x3d5710c4	0.052506223
248	0x3e53aeb3	0.20672111
249	0x3db78649	0.0896116
250	0x3e5eaeaa	0.21746317
251	0xbd2822b3	-0.041048717
252	0x3e308e3b	0.17241757
253	0x3da7b6c3	0.08189156
254	0x3d2a0cef	0.04151624
255	0x3e9404d3	0.2890993

base.cnn.7.bias f4 [64]
0	0x3d195eda	0.037443973
1	0xbdcd0f75	-0.10012714
2	0xbdd73e66	-0.105099484
3	0xbd0ec2c1	-0.0348537
4	0xbd669356	-0.056292854
5	0xbe4b0276	-0.19825158
6	0xbc752f0e	-0.014964832
7	0xbd6b2457	-0.057407703
8	0x3c7c1c5c	0.015387621
9	0xbd63fbf7	-0.055660214
10	0x3d4590f4	0.04823394
11	0xbda4a498	-0.08039206
12	0x3e0980df	0.13428067
13	0xbdda859c	-0.10670015
14	0xbd5ebcfb	-0.054379445
15	0x3c264234	0.01014762
16	0xbda24330	-0.07922971
17	0xbbbdfa78	-0.0057976805
18	0xbd838df4	-0.0642356
19	0xbca00b42	-0.019536618
20	0x3d29f8b4	0.041496947
21	0xbd0010cc	-0.03126602
22	0xbda4acda	-0.08040781
23	0x3d30daa3	0.04317726
24	0xbdace2ce	-0.08441697
25	0xbd404737	-0.046942916
26	0x3d7bb9bb	0.061456423
27	0xbd2ee2d6	-0.042696796
28	0xbdf8605b	-0.12127753
29	0xbd14ddf1	-0.036344472
30	0x3c3d2730	0.011544988
31	0xbde511d8	-0.11185044
32	0xbda6681c	-0.08125326
33	0xbcaec225	-0.02133281
34	0x3d040e4d	0.0322402
35	0xbd8c5c84	-0.068535835
36	0xbc138e61	-0.009006114
37	0xbda88b23	-0.08229663
38	0xbd1dd866	-0.03853645
39	0xbda6e7ea	-0.08149703
40	0xbdf294d3	-0.11844792
41	0xbcc5359d	-0.024073416
42	0x3d62f741	0.05541158
43	0xbd940ce2	-0.0722902
44	0x3d380245	0.04492404
45	0x3c895fff	0.016769407
46	0xbd918744	-0.07105878
47	0xbd5bda3b	-0.053674918
48	0xbdbbb00f	-0.0916444
49	0xbe1a649f	-0.15077446
50	0x3c7c2793	0.015390295
51	0xbd22d813	-0.039756846
52	0xbd6c2555	-0.05765279
53	0xbcf0ccd8	-0.029394552
54	0xbe0bfe8b	-0.13671319
55	0xbd78be00	-0.060728073
56	0x3d0d0951	0.034432713
57	0x3d247ff3	0.040161084
58	0x3d5c405c	0.053772315
59	0xbe06e699	-0.13173904
60	0x3db7046f	0.089363925
61	0xbe0c753b	-0.13716595
62	0xbbdd4639	-0.006752756
63	0xbd3af3e6	-0.045642756

base.cnn.9.weight f4 [64]
0	0x3f6d7c53	0.9276783
1	0x3f853f36	1.0409915
2	0x3f78dd92	0.9721309
3	0x3f605f98	0.87645864
4	0x3f85eb8e	1.046251
5	0x3f90bf02	1.1308291
6	0x3f54be1e	0.83102596
7	0x3f833cb1	1.0252897
8	0x3f8fc363	1.1231502
9	0x3f814087	1.0097817
10	0x3f6318b2	0.8870956
11	0x3f55d940	0.8353462
12	0x3f7acfd9	0.979734
13	0x3f77965b	0.967138
14	0x3f9a37a4	1.204823
15	0x3f808712	1.004122
16	0x3f816541	1.0109025
17	0x3f79bcce	0.9755372
18	0x3f64470d	0.89170915
19	0x3f6959e7	0.91152805
20	0x3f955989	1.1667949
21	0x3f75dc7b	0.9603955
22	0x3f889336	1.0669925
23	0x3f61135c	0.87920165
24	0x3f9068b6	1.1281955
25	0x3f81d370	1.0142651
26	0x3f614c6d	0.8800724
27	0x3f88aae5	1.0677153
28	0x3f70e306	0.9409641
29	0x3f93dd06	1.1551826
30	0x3f6cd759	0.92516094
31	0x3f82be3b	1.0214304
32	0x3f835c7a	1.0262597
33	0x3f85e128	1.0459337
34	0x3f8e8f3e	1.1137464
35	0x3f90c0d8	1.1308851
36	0x3f8ec569	1.1153995
37	0x3f7a5d67	0.9779877
38	0x3f6610d3	0.8986942
39	0x3f77832a	0.96684515
40	0x3f8f2300	1.1182556
41	0x3f7ae9f5	0.9801324
42	0x3f8344b7	1.0255345
43	0x3f995ce2	1.198147
44	0x3f751a5c	0.95743346
45	0x3f7afc0f	0.9804086
46	0x3fd03510	1.6266193
47	0x3f8cdae6	1.1004303
48	0x3f86f274	1.0542741
49	0x3f79e7b7	0.97619194
50	0x3f5f358e	0.8719109
51	0x3f92b677	1.1461934
52	0x3f8d5358	1.104106
53	0x3f525510	0.82161045
54	0x3f8e6bd2	1.1126654
55	0x3f86bd77	1.052657
56	0x3f64dfc7	0.8940396
57	0x3f84a208	1.0361948
58	0x3f87d7e8	1.0612764
59	0x3f8641b8	1.0488806
60	0x3f7207e0	0.94543266
61	0x3f8f053a	1.117347
62	0x3f8a92c6	1.0826042
63	0x3f9b02f4	1.2110276

base.cnn.9.bias f4 [64]
0	0x3e0a58d2	0.13510445
1	0xbdc0c496	-0.09412496
2	0xbd78928f	-0.060686644
3	0x3d9369be	0.07197903
4	0xbe149cc9	-0.14512934
5	0xbe4563e6	-0.1927639
6	0x3e376083	0.1790791
7	0x3dd3cfc8	0.103423655
8	0x3db51439	0.08841748
9	0x3d9cf98c	0.07664785
10	0x3e174593	0.14772634
11	0x3e05b6c7	0.13058005
12	0x3d873907	0.06602674
13	0xbdb81231	-0.08987845
14	0xbd3d6447	-0.04623821
15	0x3e4727bd	0.19448753
16	0x3caa2081	0.020767452
17	0x3dace389	0.084418364
18	0x3d2932dd	0.041308273
19	0x3e26412f	0.16235803
20	0xbe0f4130	-0.13989711
21	0x3e8ecfb0	0.27892828
22	0x3da06b7f	0.07833003
23	0x3db1808a	0.08667095
24	0xbd2ee755	-0.042701084
25	0xbe0e5420	-0.13899279
26	0x3deede2f	0.11663472
27	0x39713746	0.00023004142
28	0x3db7f5be	0.089824185
29	0xbdf977dc	-0.121810645
30	0x3e325418	0.17414892
31	0xbde66e77	-0.11251538
32	0xbb911d32	-0.004428529
33	0xbe2aa4e0	-0.16664457
34	0x3e079d59	0.13243617
35	0xbe0ec237	-0.13941275
36	0xbd959a90	-0.07304871
37	0xbcd8f9ad	-0.026486242
38	0x3d676252	0.05649025
39	0x3c9bb382	0.019006494
40	0xbd13d44c	-0.036091134
41	0x3d4af9ce	0.04955464
42	0x3e82b140	0.25525856
43	0xbe5f9c74	-0.21837026
44	0x3e327aff	0.17429732
45	0xbd440c6d	-0.047863413
46	0xbf000d4f	-0.5002031
47	0xbde2b654	-0.110699326
48	0xbd865e80	-0.06560993
49	0x3dcbeac9	0.09956891
50	0x3df8a0eb	0.12140068
51	0xbddf43c3	-0.109015964
52	0xbcb8e2df	-0.022569118
53	0x3e1fecdd	0.156177
54	0xbdcc97d0	-0.099898934
55	0x3d81f089	0.063447066
56	0x3e33d43e	0.17561433
57	0x3c4385d2	0.011933761
58	0x3da95578	0.08268255
59	0x3cdbdd07	0.026838792
60	0x3e6a66c2	0.22890761
61	0xbbcc16c6	-0.0062283007
62	0x3d9ca065	0.0764778
63	0xbe286aa0	-0.16446924

base.cnn.10.weight f4 [64, 64]
0	0x3c63e421	0.013909371
1	0x3d7d2334	0.06180115
2	0xbbc384b0	-0.0059667453
3	0x3ed64ad0	0.41853952
4	0xbe3f8f72	-0.18707064
5	0x3e341f18	0.17589986
6	0xbdaab1ac	-0.083346695
7	0xbdb4af6d	-0.08822522
8	0xbddf8ea9	-0.10915882
9	0x3eb7c37f	0.3589134
10	0xbe99605b	-0.29956326
11	0x3cc430cf	0.023949055
12	0xbea33d39	-0.31882647
13	0xbe5494bf	-0.20759867
14	0x3e3defbc	0.18548483
15	0xbe107c5d	-0.14109941
16	0x3dbb31be	0.09140347
17	0xbd753669	-0.059866343
18	0xbe577b47	-0.2104312
19	0xbdd61e77	-0.104550295
20	0x3e827c08	0.25485253
21	0xbd0d9906	-0.034569763
22	0x3bd2fe0c	0.006438976
23	0x3b2bb2cb	0.0026199098
24	0x3e44b8cd	0.19211121
25	0x3e8eb23c	0.27870357
26	0x3e8c8d90	0.27451754
27	0x3e5413e5	0.20710714
28	0x3c29d296	0.010365149
29	0xbe7b890c	-0.24563998
30	0xbb1587a5	-0.0022816446
31	0x3dc41eb1	0.095761664
32	0xbd696bfa	-0.05698774
33	0x3cab64d9	0.020922111
34	0x3d485f18	0.048918813
35	0xbc417c1d	-0.011809376
36	0x3d110268	0.035402685
37	0x3eff3c45	0.4985067
38	0x3e36ea25	0.17862757
39	0x3d845455	0.064613976
40	0x3e087343	0.13325219
41	0x3e760a60	0.24027395
42	0xbe1a5a3a	-0.15073481
43	0x3d1c9a08	0.038232833
44	0xbf3dcfa0	-0.74144936
45	0x3e864e1d	0.2623147
46	0x3f1e8478	0.6192088
47	0x3e83ffca	0.2578109
48	0x3db4d595	0.088298
49	0x3da8ab4b	0.082357965
50	0xbea24e69	-0.31700447
51	0x3df9b5d8	0.12192887
52	0xbe6bf7dc	-0.2304377
53	0x3d963194	0.07333675
54	0x3e802ee5	0.25035778
55	0xbd3a7eaf	-0.04553097
56	0xbe4d1201	-0.20026399
57	0x3e18530b	0.14875428
58	0xbe9288be	-0.2861995
59	0xbe0e94a7	-0.13923894
60	0xbe8f8276	-0.2802922
61	0xbe382674	-0.17983419
62	0xbcc43a44	-0.023953564
63	0x3d744779	0.059638474
64	0xbec51835	-0.3849503
65	0x3d6712ae	0.0564143
66	0xbe3c2013	-0.1837161
67	0x3db01dbb	0.08599421
68	0xbdb5671b	-0.088575564
69	0x3e9c4765	0.3052322
70	0xbbe62aa5	-0.0070241266
71	0xbd555ef7	-0.05209252
72	0x3d79efb1	0.061019603
73	0x3e18f0b7	0.14935575
74	0xbe6e6015	-0.2327884
75	0x3ea89490	0.32925844
76	0xbd6a3df2	-0.057187982
77	0x3ef83941	0.4848118
78	0xbea4188e	-0.32049984
79	0xbd3a2053	-0.045440983
80	0x3e683f87	0.22680484
81	0x3e136f6c	0.14397973
82	0x3ee46ffb	0.44616684
83	0x3d6ef432	0.05833835
84	0xbeb17c28	-0.34665036
85	0xbe0d6596	-0.13808283
86	0x3da6a27a	0.08136459
87	0x3e2e7bfa	0.17039481
88	0xbe883c0c	-0.26608312
89	0x3e91b250	0.28456354
90	0xbf070be6	-0.5275253
91	0xbd6284a2	-0.05530227
92	0xbe08d34b	-0.13361852
93	0x3e81eca2	0.2537585
94	0xbd54f261	-0.051988963
95	0xbcd97741	-0.026546123
96	0xbd322720	-0.043494344
97	0xbe32dc51	-0.17466857
98	0xbddcfe19	-0.10790653
99	0xbe0a5408	-0.13508618
100	0x3da1069a	0.07862587
101	0x3d876573	0.06611147
102	0xbe1b5571	-0.15169312
103	0x3e12ca1b	0.1433491
104	0x3da8321a	0.08212681
105	0x3c7fb24e	0.015606476
106	0xbee50e07	-0.44737265
107	0xbd97b425	-0.07407407
108	0xbdf79663	-0.12089231
109	0xbe8932e2	-0.26796633
110	0xbde7db04	-0.11321071
111	0xbd93c50d	-0.07215319
112	0x3e08a726	0.13345012
113	0x3ecbac25	0.39779773
114	0xbdb5ee82	-0.088833824
115	0xbd32d755	-0.043662388
116	0x3eca3fb8	0.3950174
117	0x3e2a857e	0.16652486
118	0xbe1450ed	-0.14483996
119	0xbee0558b	-0.43815264
120	0x3dc849ad	0.097796775
121	0x3e290c99	0.16508712
122	0xbd90691d	-0.07051299
123	0x3c35952a	0.011082927
124	0xbef2df4a	-0.4743598
125	0xbda85774	-0.08219805
126	0xbd07a0cd	-0.033112336
127	0x3e7105e5	0.23537405
128	0xbe0bb210	-0.13642144
129	0x3dbc4337	0.09192508
130	0x3cf020c4	0.029312499
131	0x3ea7b1af	0.3275275
132	0x3ea70fc6	0.32629222
133	0x3da0cb83	0.07851317
134	0xbeb53bde	-0.35397238
135	0x3e1a1bd4	0.15049678
136	0x3ec1af19	0.378289
137	0x3cf1f459	0.02953546
138	0xbe82bffc	-0.25537097
139	0x3dce3885	0.10069374
140	0xbe5480e0	-0.20752287
141	0x3d1c7b55	0.038203556
142	0xbe875847	-0.26434538
143	0xbf00529c	-0.5012605
144	0xbdcc8daa	-0.09987958
145	0x3ddc2d2a	0.10750802
146	0x3d12c861	0.035835627
147	0xbd88fd8b	-0.066889845
148	0x3d0d8597	0.03455123
149	0xbe3d51f2	-0.18488291
150	0xbe6d4752	-0.23171738
151	0x3c9f4f28	0.019446924
152	0x3ede723e	0.43446535
153	0x3dec9c57	0.11553257
154	0x3d86bd4d	0.06579075
155	0x3ca199c2	0.019726638
156	0xbd9c7365	-0.07639197
157	0x3db62571	0.0889386
158	0xbde82de5	-0.11336879
159	0x3df4c1f4	0.11951056
160	0x3e2acf19	0.16680564
161	0x3de67a67	0.11253815
162	0xbe1db1d7	-0.15399872
163	0xbdc47448	-0.095924914
164	0x3e88be2f	0.267076
165	0xbe8c958e	-0.2745785
166	0xbcecddef	-0.02891442
167	0x3dde0b7c	0.10842034
168	0x3e37eaf6	0.17960724
169	0xbe77639a	-0.24159089
170	0x3e368099	0.17822494
171	0x3d181364	0.037127867
172	0xbe15690a	-0.1459085
173	0x3cc3be03	0.023894316
174	0x3ea38180	0.31934738
175	0x3eb09a42	0.3449269
176	0x3ebe7fe2	0.37206942
177	0x3ded2f04	0.11581233
178	0xbeb9b87e	-0.3627357
179	0x3eb82788	0.3596766
180	0x3e372fa8	0.17889273
181	0x3e0e9d81	0.1392727
182	0xbe48a512	-0.1959422
183	0xbeaee86a	-0.34161693
184	0x3d16c487	0.036808517
185	0x3cebf315	0.028802434
186	0x3e77dfac	0.24206418
187	0x3da77530	0.081766486
188	0xbd4a03bf	-0.04931998
189	0x3e9c4d0e	0.30527538
190	0xbe80389a	-0.25043184
191	0x3f2c01f8	0.67190504
192	0xbe62ab9a	-0.22135773
193	0xbe202ca4	-0.15642029
194	0xbe756aa9	-0.23966469
195	0xbb641e8b	-0.0034808244
196	0xbda9f3ac	-0.0829843
197	0x3e641a25	0.22275598
198	0x3e2b5e5f	0.16735218
199	0xbe08ca9a	-0.13358536
200	0x3e172fc4	0.14764315
201	0x3e4a04e1	0.19728424
202	0xbe887b51	-0.26656583
203	0x3d29ac5e	0.041424148
204	0x3d20c2ee	0.0392484
205	0xbd9675c3	-0.0734668
206	0xbe94cb8a	-0.29061538
207	0x3d06e23e	0.032930605
208	0x3e4d60fb	0.20056526
209	0xbe8a85f8	-0.27055335
210	0xbce917d5	-0.028453747
211	0xbe86998c	-0.26289022
212	0x3e58a010	0.21154809
213	0xbe71e039	-0.2362069
214	0x3d9890a9	0.07449467
215	0x3e72be02	0.23705295
216	0x3eefead3	0.46858844
217	0x3db53296	0.08847539
218	0xbde48086	-0.111573264
219	0x3cd41914	0.025890864
220	0x3ded48f2	0.11586179
221	0x3e99005c	0.29883087
222	0xbe85ee45	-0.26158348
223	0x3e4b61db	0.19861548
224	0x3dffcbc3	0.12490036
225	0xbde88577	-0.113535814
226	0x3c9d6881	0.01921487
227	0x3ec4ee64	0.38463128
228	0x3e4966b6	0.19668087
229	0x3d1833b3	0.03715868
230	0xbf0e0c07	-0.554871
231	0x3ed41acc	0.41426694
232	0x3e200a8f	0.15629028
233	0x3e666007	0.22497569
234	0xbefe90de	-0.497199
235	0x3e1ef790	0.15524125
236	0xbd819604	-0.06327441
237	0x3dd28195	0.10278622
238	0xbdac9a49	-0.08427865
239	0x3dd8bc38	0.10582775
240	0xbe3a171a	-0.18172875
241	0xbdfa8f54	-0.12234369
242	0xbc3c7bf4	-0.011504162
243	0x3e6de046	0.23230085
244	0x3d934d18	0.07192439
245	0xbd7e2bd0	-0.0620535
246	0x3e683ee9	0.22680248
247	0x3e0324f1	0.12807061
248	0xbe31da37	-0.17368399
249	0xbe0b095a	-0.13577786
250	0xbcfbc432	-0.030733202
251	0x3eba3786	0.36370486
252	0xbea4badb	-0.3217381
253	0x3dbf9ca3	0.09356048
254	0x3d445935	0.047936637
255	0x3c8de0fb	0.017319193

base.cnn.10.bias f4 [64]
0	0xbe848174	-0.25880015
1	0xbdbe9201	-0.09305192
2	0xbda20c80	-0.079125404
3	0xbe9163cf	-0.2839646
4	0xbe160581	-0.14650537
5	0xbea61328	-0.3243649
6	0xbb9d1dfd	-0.0047948346
7	0xbda116c6	-0.07865672
8	0xbdbed32c	-0.093176216
9	0xbde3178b	-0.11088475
10	0xbb8a09e7	-0.004212606
11	0xbdad3f0b	-0.0845929
12	0xbdbcb55c	-0.09214279
13	0xbdc55fe3	-0.096374296
14	0xbe666f67	-0.22503434
15	0xbe4a0a3d	-0.19730468
16	0xbe240661	-0.16018058
17	0x3c0f6e59	0.008754336
18	0xbc28da80	-0.010306001
19	0xbe00fb02	-0.12595752
20	0xbd6840ee	-0.056702547
21	0xbdc60402	-0.09668733
22	0xbbfa3ebe	-0.007636874
23	0xbe470ef2	-0.19439295
24	0xbe087fe4	-0.13330036
25	0x3d8bbba9	0.06822903
26	0xbdf3f4e3	-0.11911943
27	0x3d17679d	0.036964048
28	0xbced0b4c	-0.02893605
29	0xbd5ddc88	-0.054165393
30	0xbe17e36d	-0.1483285
31	0xbd8665e9	-0.065624066
32	0xbe0bcc60	-0.13652182
33	0xbc9f024d	-0.019410277
34	0xbd27d694	-0.040976122
35	0xbc77d5fa	-0.0151267
36	0xbdef0d90	-0.11672509
37	0xbe63e0ee	-0.22253773
38	0xbb5a2378	-0.0033285301
39	0xbec7055d	-0.3887128
40	0x3da86891	0.082230695
41	0xbca2c425	-0.01986892
42	0xbdced029	-0.10098297
43	0xbe1f62d2	-0.1556504
44	0xbda7c597	-0.08191984
45	0xba9c0086	-0.0011902011
46	0xbaa9eece	-0.0012964846
47	0xbe19053e	-0.14943406
48	0xbe5494a1	-0.20759822
49	0xbdd9a6a3	-0.106274866
50	0xbda0d5d1	-0.07853282
51	0xbd73fe04	-0.05956842
52	0xbe362781	-0.17788507
53	0xbd21d97c	-0.03951405
54	0xbe19df32	-0.15026549
55	0xbe1b6346	-0.15174589
56	0xb8b975b2	-8.84341e-05
57	0xbe5896a9	-0.21151222
58	0xbe152021	-0.14563037
59	0xbe3add06	-0.18248376
60	0xbe50e1c3	-0.20398621
61	0xbcc6bccc	-0.024259947
62	0xbd4f9d53	-0.050687145
63	0xbd49e170	-0.04928726

base.cnn.12.weight f4 [64]
0	0x3f832f8c	1.0248885
1	0x3f89707b	1.0737451
2	0x3f967cf5	1.1756884
3	0x3f4c36ef	0.7977132
4	0x3f785098	0.96997976
5	0x3faba0df	1.3408469
6	0x3f703943	0.93837374
7	0x3f8138b1	1.0095426
8	0x3f99e900	1.2024231
9	0x3fa99527	1.3248643
10	0x3f81c2ae	1.0137537
11	0x3f817ea0	1.0116768
12	0x3f80784d	1.0036713
13	0x3f7e4ebe	0.993389
14	0x3f8dc93d	1.1077038
15	0x3f70f5dc	0.9412515
16	0x3f7ecc2c	0.9953029
17	0x3f75acc9	0.95966774
18	0x3f7bebc9	0.98406655
19	0x3f834134	1.0254273
20	0x3f7d1b7d	0.9887007
21	0x3f819244	1.0122762
22	0x3f8dbf54	1.1074014
23	0x3f3b8dbd	0.7326315
24	0x3faa2556	1.3292644
25	0x3f40e63d	0.75351316
26	0x3f7b955e	0.9827479
27	0x3f78f3c6	0.9724697
28	0x3f9f8683	1.2462925
29	0x3fa55f01	1.2919618
30	0x3f88dd96	1.0692623
31	0x3f76c4ae	0.9639386
32	0x3f8b61e1	1.0889245
33	0x3f5f0670	0.871192
34	0x3f8b13b5	1.0865389
35	0x3f81f894	1.0153985
36	0x3f801f03	1.0009464
37	0x3f7e7f31	0.9941283
38	0x3f9790d1	1.184107
39	0x3f733259	0.949987
40	0x3f82ca2c	1.0217948
41	0x3f93e3de	1.1553915
42	0x3f877a9a	1.058429
43	0x3f8d65c0	1.1046677
44	0x3f8fba38	1.1228704
45	0x3f864e47	1.0492638
46	0x3f8c40d2	1.0957282
47	0x3f755fcd	0.95849305
48	0x3f7d9f24	0.99070954
49	0x3f89ac74	1.0755754
50	0x3f345961	0.7044888
51	0x3f680abd	0.90641385
52	0x3f8e588d	1.1120774
53	0x3f95f69a	1.1715882
54	0x3f8d02c1	1.1016465
55	0x3f9f6b0e	1.2454545
56	0x3f5f6128	0.87257624
57	0x3f57f04d	0.84351045
58	0x3f84e000	1.0380859
59	0x3f981ac8	1.1883173
60	0x3f8346ee	1.0256021
61	0x3fa2cdbc	1.2719035
62	0x3f80847d	1.0040432
63	0x3f7b8d82	0.982628

base.cnn.12.bias f4 [64]
0	0xbda5af9f	-0.08090138
1	0x3df5fd6e	0.120112285
2	0xbddbfff6	-0.1074218
3	0xbd888878	-0.06666654
4	0x3e259f3b	0.16174023
5	0xbea815a7	-0.3282902
6	0x3ce2acf6	0.027670365
7	0x3d98cc20	0.07460809
8	0xbd92800f	-0.071533315
9	0xbdab9b05	-0.08379177
10	0x3e53f02a	0.20697084
11	0xbc738ace	-0.014864637
12	0xbddf52b0	-0.10904443
13	0x3e773c91	0.24144198
14	0xbcbf2be0	-0.02333635
15	0xbda64f5f	-0.081206076
16	0xbd44b6b8	-0.048025817
17	0x3e816e5d	0.25279513
18	0xbecc87d7	-0.39947388
19	0x3d7161d9	0.058931205
20	0x3be877b4	0.007094348
21	0x3da1b960	0.078966856
22	0xbcd90d72	-0.026495669
23	0x3e92bb37	0.2865846
24	0xbe91d494	-0.28482497
25	0xbd26c998	-0.0407196
26	0x3c53bac2	0.0129229445
27	0xbd91f945	-0.071276225
28	0xbe88acbe	-0.26694292
29	0xbe008811	-0.12551905
30	0xbd6528e4	-0.0559472
31	0x3e5fdcd2	0.2186158
32	0xbc3bafb4	-0.011455465
33	0xbbf5dd37	-0.0075031775
34	0xbd8ca158	-0.068667114
35	0x3d4d949e	0.05019056
36	0x3e3c1adb	0.1836962
37	0xbc5981d4	-0.013275582
38	0x3e231e0f	0.15929435
39	0x3d13c20c	0.03607373
40	0xbc0805c7	-0.008302159
41	0x3dd6a8af	0.104813926
42	0xbe7bde7a	-0.24596587
43	0xbe3de0ac	-0.18542737
44	0xbd12be7f	-0.035826202
45	0xbd4198b8	-0.047264785
46	0x3c85d31a	0.016336013
47	0x3dd7ce93	0.10537448
48	0xbd9e6e22	-0.0773585
49	0xbb6ebc79	-0.0036428256
50	0x3e5afc7b	0.21385376
51	0x3b63aab6	0.0034739203
52	0x3dd26727	0.10273581
53	0x3cdf73eb	0.027276954
54	0xbde2ba9d	-0.1107075
55	0xbe8162cb	-0.25270686
56	0x3d6dba18	0.0580388
57	0xbddd92e0	-0.1081903
58	0x3e2c26b9	0.16811647
59	0xbe48b616	-0.1960071
60	0x3d062122	0.03274644
61	0x3dd32bd7	0.10311096
62	0x3d6916d3	0.056906532
63	0x3e261bc8	0.16221535
